cmd/ai/datas/models/animal.onnx (onnx, 303058 bytes, 16 tensors)

fc.weight f4 [2, 256]
0	0xbd4f29cb	-0.050576966
1	0xbd430dd9	-0.047620628
2	0xbe0b55ed	-0.13606997
3	0xbe1e509c	-0.15460438
4	0xbe34a02b	-0.17639224
5	0xbe4f71ef	-0.20258306
6	0xbc5173d3	-0.012783962
7	0xbc932cde	-0.01796573
8	0xbd50fcc1	-0.051022295
9	0x3decb6da	0.11558314
10	0xbd971742	-0.07377483
11	0x3e0c58a5	0.1370569
12	0x3d8c2cca	0.0684448
13	0x3d9ad31e	0.07559799
14	0xbd13d761	-0.036094073
15	0xbd1ad6be	-0.03780245
16	0xbd0dbb6d	-0.03460257
17	0x3e2d23a0	0.16908121
18	0xbb83b86f	-0.004019789
19	0x3e77ff2e	0.24218437
20	0xbd901125	-0.0703452
21	0x3e72a2bc	0.2369489
22	0xbd4907be	-0.04907965
23	0x3e64f026	0.22357234
24	0x3c27a78f	0.01023282
25	0x3c1a3ee5	0.009414409
26	0xbba011ca	-0.004884933
27	0xbc3916e3	-0.0112969605
28	0x80521004	-7.536256e-39
29	0x80510ba8	-7.442857e-39
30	0x00546891	7.751693e-39
31	0x00561475	7.905191e-39
32	0xbd2108f5	-0.039315183
33	0xbd3f1ac4	-0.046656385
34	0x3ce3c4cd	0.027803803
35	0x3cd41891	0.02589062
36	0xbd4967d7	-0.049171295
37	0xbd5d12e1	-0.053973082
38	0x3cb8ac55	0.022543112
39	0x3cccfe0d	0.025023485
40	0xbcf0339a	-0.02932148
41	0xbd1d42dd	-0.038393844
42	0x3c9a2109	0.01881458
43	0x3c900954	0.017582573
44	0x002e46c7	4.249823e-39
45	0x0020ae9e	3.001377e-39
46	0x801c3e8f	-2.593836e-39
47	0x0012e5b0	1.735435e-39
48	0x3db5a336	0.08869021
49	0x3d151748	0.036399156
50	0x3e50799d	0.20358892
51	0x3df2a164	0.11847189
52	0x3e147de6	0.14501151
53	0x3df00fa4	0.11721733
54	0x3dec0567	0.11524468
55	0x3db391c2	0.087680355
56	0x3d986abd	0.07442234
57	0x3d6c76ee	0.057730608
58	0x3d990c5a	0.07473059
59	0x3d82ce3f	0.063869946
60	0xbc8ee893	-0.017444884
61	0x3cb9179a	0.022594262
62	0xbc9de504	-0.019274242
63	0x3cda2535	0.02662907
64	0x3d9401f0	0.07226932
65	0x3de2a013	0.11065688
66	0xbda4dff4	-0.08050528
67	0xbd1a646b	-0.037693422
68	0x8025396c	-3.418512e-39
69	0x80227677	-3.164904e-39
70	0x8017e048	-2.192673e-39
71	0x801dd243	-2.738657e-39
72	0x8e42f42b	-2.4029909e-30
73	0x8e431cbc	-2.404944e-30
74	0x8e9e1cc6	-3.8977715e-30
75	0x8ea20847	-3.9944054e-30
76	0xbd5f6333	-0.054537963
77	0xbdd2ff84	-0.10302642
78	0xbddca0b0	-0.10772836
79	0xbe087da4	-0.13329178
80	0x2f235c1a	1.4857485e-10
81	0x2f23a55f	1.4883515e-10
82	0x2f2243fa	1.4757964e-10
83	0x2f22b0dc	1.4796647e-10
84	0x005ad0bf	8.340079e-39
85	0x0060e243	8.897375e-39
86	0x00543bfd	7.735701e-39
87	0x005d1162	8.546937e-39
88	0x3a58203e	0.00082445506
89	0xbd9e5f4d	-0.07733021
90	0x3d513dd9	0.051084373
91	0xbc8963fe	-0.016771313
92	0xbde55dbf	-0.11199521
93	0xbe2eeb50	-0.17081952
94	0xbdafe4f2	-0.0858859
95	0xbe31475c	-0.17312378
96	0x3b2b50dd	0.0026140728
97	0xbbd1a7ff	-0.0063982005
98	0xbc4b612c	-0.012413304
99	0xbc8b3628	-0.016993597
100	0x802784d5	-3.629236e-39
101	0x002015a8	2.946505e-39
102	0x00164616	2.045523e-39
103	0x80320fdb	-4.597463e-39
104	0x00209fb6	2.99603e-39
105	0x80254fb6	-3.426508e-39
106	0x001d1176	2.669493e-39
107	0x80282bca	-3.689128e-39
108	0xbd46a533	-0.04849739
109	0xbd4fe5e8	-0.050756365
110	0x3d077ae8	0.033076197
111	0x3c5fcc2a	0.013659516
112	0x3caf73a2	0.021417443
113	0x3cb27969	0.021786408
114	0xbc53725c	-0.012905683
115	0xbc912da4	-0.017721958
116	0xbe6d0a40	-0.23148441
117	0xbe69299e	-0.22769782
118	0xbd986b42	-0.07442333
119	0xbda8532b	-0.08218988
120	0xbd00a3f5	-0.03140636
121	0xbd1d5626	-0.038412236
122	0x3cc3f2c5	0.023919472
123	0x3c9204a8	0.017824486
124	0xbc258ad7	-0.010103903
125	0xbc37d772	-0.0112208
126	0x3bcca2c2	0.006244988
127	0x3bb5e033	0.0055504083
128	0x00a4461a	1.5086169e-38
129	0x00a82c07	1.5444157e-38
130	0x00a2451e	1.4902145e-38
131	0x00aac5c2	1.5682976e-38
132	0xbd77a80a	-0.06046299
133	0x3e117216	0.14203677
134	0xbd028ef0	-0.031874597
135	0x3e1e49fb	0.15457909
136	0x3e834732	0.25640255
137	0x3e142a1f	0.14469193
138	0x3e30d469	0.17268528
139	0x3cd5aace	0.026082423
140	0x3e5dc7ed	0.21658297
141	0x3e6623cb	0.22474591
142	0xbcc322be	-0.023820277
143	0x3d475285	0.04866268
144	0x8082b73b	-1.2004345e-38
145	0x809b3e4f	-1.4256854e-38
146	0x80629fdb	-9.057224e-39
147	0x8092a1db	-1.3466045e-38
148	0x3afd63ec	0.0019332147
149	0x3b028816	0.001991754
150	0xbb116b93	-0.0022189363
151	0xbb219f1f	-0.0024661494
152	0x004ce710	7.062387e-39
153	0x80157b2b	-1.97273e-39
154	0x804021cf	-5.8896e-39
155	0x0040d723	5.954648e-39
156	0x3e5635b3	0.20918922
157	0x3e1efc97	0.15526043
158	0x3e5800be	0.21094033
159	0x3e00fcf6	0.12596497
160	0x3e3ee0aa	0.1864039
161	0x3e2bf3c6	0.16792211
162	0x3e34e0d8	0.17663896
163	0x3e13b80c	0.14425677
164	0x39cc0d95	0.00038920032
165	0x39d2cdda	0.00040207693
166	0xb9e15254	-0.00042976683
167	0xba841780	-0.0010077804
168	0xbe769daf	-0.24083589
169	0xbe6a38ec	-0.22873276
170	0xbd9aab53	-0.07552209
171	0xbd88551a	-0.06656857
172	0x00343d82	4.79751e-39
173	0x0031c2fd	4.569888e-39
174	0x004b04bc	6.88936e-39
175	0x00465556	6.459097e-39
176	0x3d33afde	0.043868892
177	0x3d2a29da	0.04154382
178	0x3d212460	0.03934133
179	0x3d34fd94	0.044187143
180	0xbd4bf78d	-0.04979663
181	0x3dc9d5a2	0.098552
182	0xbd7b408f	-0.061340865
183	0x3dd3cfbc	0.103423566
184	0xbddff7b7	-0.1093592
185	0xbd78666f	-0.060644563
186	0xbe62570e	-0.22103521
187	0xbe4c1a95	-0.19932015
188	0x802db8d0	-4.198896e-39
189	0x80462559	-6.441883e-39
190	0x80388781	-5.191397e-39
191	0x8032603c	-4.626297e-39
192	0xb99ed5ed	-0.00030295496
193	0x3950f2e7	0.00019926914
194	0xb9fd4554	-0.00048307574
195	0x39648d96	0.0002179652
196	0x3df9daff	0.12199973
197	0x3e05562c	0.13021153
198	0xbd819130	-0.063265204
199	0xbd8adf2e	-0.067808494
200	0x3e5b4ff8	0.21417224
201	0x3e2342aa	0.15943399
202	0x3e64f1dc	0.22357887
203	0x3e43d0b8	0.19122589
204	0x802a9ae3	-3.912654e-39
205	0x8034eaac	-4.85963e-39
206	0x8017ee0e	-2.197614e-39
207	0x8026c438	-3.560139e-39
208	0x80906083	-1.3258933e-38
209	0x808cf7db	-1.2945883e-38
210	0x00810dbe	1.1851709e-38
211	0x006cd571	9.994802e-39
212	0xbce15f34	-0.027511217
213	0x3dbba084	0.09161475
214	0xbd54eabf	-0.051981684
215	0x3dda3a61	0.10655666
216	0xbdd51e31	-0.10406149
217	0xbe16dbae	-0.14732239
218	0xbe3eebb2	-0.18644598
219	0xbe31260f	-0.17299674
220	0x003e0499	5.69545e-39
221	0x8036af4c	-5.022001e-39
222	0x003d3b0e	5.62315e-39
223	0x8037159d	-5.058706e-39
224	0x802e7957	-4.267961e-39
225	0x8043f6fb	-6.241578e-39
226	0x80253fcc	-3.4208e-39
227	0x8074ae03	-1.0715341e-38
228	0xbcfca13d	-0.030838603
229	0x3e35391b	0.17697565
230	0xbdb7f733	-0.089826964
231	0x3dcfaf5d	0.1014087
232	0xb0cf0607	-1.5062945e-09
233	0xb12e41e5	-2.535779e-09
234	0x31c7ce49	5.815114e-09
235	0x31b33fe4	5.216849e-09
236	0xb2111fea	-8.447367e-09
237	0x2f0d7453	1.2865202e-10
238	0xb2c07bd3	-2.240805e-08
239	0x2f8526d4	2.4220148e-10
240	0xbcc18efa	-0.023627747
241	0x3cbbaa5d	0.022908384
242	0xbc6744b0	-0.0141154975
243	0x3cfe13a1	0.03101522
244	0x3e447a11	0.1918719
245	0x3dfe5443	0.124184154
246	0x3e20a92e	0.15689537
247	0x3d6b2661	0.057409648
248	0xbd9ae90d	-0.07563982
249	0xbe25a714	-0.16177016
250	0xbd0ad1ce	-0.03389149
251	0xbde49645	-0.11161474
252	0xbcb8b6b3	-0.022548055
253	0xbd9ca58c	-0.07648763
254	0xbe377de4	-0.17919117
255	0xbe63da88	-0.22251332

fc.bias f4 [2]
0	0xbbd5120b	-0.006502395
1	0x3d961d93	0.073298596

onnx::Conv_80 f4 [16, 3, 7, 7]
0	0xbd9809f9	-0.07423777
1	0xbd49c4a6	-0.049259804
2	0x3d309994	0.043115214
3	0x3dc0b583	0.094096206
4	0xbd36ec0c	-0.044658706
5	0x3c6df343	0.01452333
6	0xbc15ba27	-0.00913862
7	0xbdad243a	-0.08454175
8	0x3aa20794	0.0012361878
9	0x3dee4cc4	0.11635736
10	0x3dea3fcd	0.1143795
11	0x3d17c188	0.0370498
12	0xbc971ece	-0.018447306
13	0x3d5d9f10	0.054106772
14	0xbd46997c	-0.048486218
15	0x3d8f1a57	0.06987446
16	0x3d29192a	0.041283764
17	0xbd944c4d	-0.07241116
18	0x3d97c80c	0.07411203
19	0x3dce7a57	0.10081928
20	0x3e0ce921	0.13760807
21	0x3defebf4	0.11714926
22	0x3de0c91b	0.10975858
23	0x3d85d109	0.06534011
24	0xbc861e08	-0.016371742
25	0xbb85dd5a	-0.004085225
26	0x3dcc1996	0.09965818
27	0x3e3e7e56	0.18602881
28	0x3d362cad	0.0444762
29	0x3d019f14	0.03164585
30	0x3d61791e	0.055047147
31	0xbd4d6b91	-0.05015141
32	0x3ce78eab	0.028266272
33	0x3dd35024	0.1031802
34	0x3e205afd	0.1565971
35	0xbd34d4e2	-0.044148333
36	0x3d5c4c04	0.05378343
37	0x3d0beddd	0.03416239
38	0xbded73c4	-0.11594346
39	0xbddfd8f3	-0.10930052
40	0xbcc7f795	-0.024410048
41	0x3df3f86a	0.119126156
42	0xbc6e1300	-0.014530897
43	0x3e0c338a	0.13691536
44	0xbcadef61	-0.021232309
45	0xbd81932e	-0.063269004
46	0xbdbc247e	-0.09186648
47	0xbcd57b75	-0.026059845
48	0x3e121328	0.1426512
49	0xbd5e5a23	-0.05428518
50	0xbdb35155	-0.08755747
51	0xbdb1adfa	-0.086757615
52	0xbd936ddb	-0.07198688
53	0xbe454249	-0.19263567
54	0xbe488a5c	-0.1958403
55	0xbe08d685	-0.13363083
56	0xbe0eb392	-0.13935688
57	0xbd9835a1	-0.07432104
58	0xbc261684	-0.010137204
59	0xbdfd9514	-0.1238195
60	0xbd80cf57	-0.06289547
61	0xbe18d8b7	-0.1492642
62	0xbcab713e	-0.020928022
63	0xbd983079	-0.074311204
64	0xbd82612a	-0.06366189
65	0xbe014f8a	-0.12627998
66	0xbe02cd56	-0.12773642
67	0xbddc148e	-0.10746108
68	0xbd8d4162	-0.068972364
69	0x3d06f226	0.032945774
70	0x3c5d332b	0.013500969
71	0xbd249151	-0.040177647
72	0xbc020ec0	-0.007938087
73	0xbdcb8a26	-0.09938459
74	0xbda57709	-0.08079345
75	0x3d1cb500	0.038258553
76	0x3b7555fc	0.0037435284
77	0x3cad0aff	0.021123407
78	0x3ccc3a25	0.02493007
79	0xbd9ea033	-0.07745399
80	0xbc57175b	-0.013128127
81	0x3c170bc3	0.009219113
82	0xbc5223fa	-0.01282596
83	0x3d5432e5	0.05180635
84	0x3c9da75c	0.019244842
85	0xbc9abdeb	-0.018889388
86	0xbdb1974e	-0.08671437
87	0xbe20710c	-0.15668124
88	0xbe42866d	-0.18996592
89	0xbdbc16d7	-0.09184044
90	0xbd3dee18	-0.046369642
91	0xbcc3c1ac	-0.02389606
92	0x3d24c344	0.040225282
93	0xbd844e60	-0.06460261
94	0xbdddb425	-0.108253755
95	0xbde2e04b	-0.11077937
96	0xbd2391a6	-0.039933823
97	0x3d86f687	0.0658999
98	0xbe44be30	-0.19213176
99	0xbb591385	-0.0033123207
100	0x3cade123	0.021225518
101	0x3d19b37c	0.037524685
102	0xbdb4922a	-0.08816941
103	0xbe2f8c24	-0.17143303
104	0xbd9ceb65	-0.076620854
105	0xbde25fcf	-0.1105343
106	0x3d5930d0	0.053025067
107	0x3d27d0d1	0.040970627
108	0x3d4c2a40	0.04984498
109	0x3b8e2991	0.004338451
110	0xbd9a228e	-0.07526122
111	0xbdd4a05a	-0.10382147
112	0xbda84184	-0.08215621
113	0x3d5cfd06	0.05395224
114	0xbc9cc164	-0.019135185
115	0xbd91b507	-0.07114606
116	0x3cf5efd0	0.030021578
117	0x3d19dd90	0.037564814
118	0xbc6a05b8	-0.01428359
119	0x3c2d1619	0.0105643505
120	0x3deee34b	0.116644464
121	0x3d20d564	0.039266005
122	0x3c56d2ac	0.0131117515
123	0xb8dee029	-0.00010627538
124	0x3cc40bec	0.023931466
125	0x3dfcbc85	0.12340645
126	0xbbbdd2cc	-0.005792951
127	0x3e0e0ee2	0.13872865
128	0x3d81d1d7	0.06338852
129	0x3c87f93f	0.016598342
130	0x3c66d255	0.014088233
131	0x3d9cee43	0.07662632
132	0x3de1c4f7	0.11023896
133	0x3c6fd1f2	0.014637457
134	0x3c96fef0	0.01843211
135	0xbd9e2991	-0.07722772
136	0xbd2f4e20	-0.042799115
137	0xbe0c1225	-0.13678797
138	0xbd9e9fe6	-0.07745342
139	0x3cff9c24	0.031202383
140	0x39456f08	0.00018828746
141	0x3e387500	0.18013382
142	0x3d6fd2fa	0.058550812
143	0xbdc8dbc0	-0.09807539
144	0xbdb4e234	-0.08832207
145	0x3b3c2d01	0.0028713348
146	0x3dfc05f4	0.12305823
147	0xbcf6ac18	-0.030111358
148	0xbd598c93	-0.053112578
149	0xbca0b257	-0.019616289
150	0x3b2b2e31	0.0026120062
151	0x3d0d800d	0.034545947
152	0x3d871459	0.06595678
153	0x3e117026	0.14202937
154	0xbd6d2a94	-0.057901934
155	0xbd83c481	-0.064339645
156	0xbd8f9f61	-0.07012821
157	0xbc960135	-0.018311122
158	0x3c904c9b	0.017614653
159	0x3db232f0	0.08701122
160	0x3e12ea47	0.14347182
161	0xbd85f21f	-0.065403216
162	0xbdd36bc0	-0.10323286
163	0xbd8099c8	-0.062793314
164	0xbc5e40bd	-0.0135652395
165	0x3c58bd8d	0.013228786
166	0x3d886a9c	0.06660959
167	0x3dec373d	0.11533973
168	0xbd91acb2	-0.07113017
169	0xbdd590d9	-0.10428018
170	0xbdb7c6e3	-0.089734815
171	0xbd6708cb	-0.05640487
172	0xbceea746	-0.029132497
173	0x3d562b6b	0.0522875
174	0x3d8b848d	0.068123914
175	0xbdc6e153	-0.09710946
176	0xbdef476e	-0.11683546
177	0xbddb2011	-0.106994756
178	0xbd51e080	-0.05123949
179	0xbd20a334	-0.039218143
180	0x3a866eb8	0.0010256385
181	0xbcb0b553	-0.021570837
182	0xbdcf6c22	-0.101280466
183	0xbe147e1c	-0.14501232
184	0xbe1ba3fc	-0.15199274
185	0xbdceec97	-0.1010372
186	0xbd95fc71	-0.0732354
187	0xbd439afe	-0.047755234
188	0xbd8683bb	-0.06568094
189	0xbe0522bc	-0.13001531
190	0xbe2684d2	-0.16261604
191	0xbe031466	-0.1280075
192	0xbdf72c37	-0.1206898
193	0xbdbef445	-0.093239345
194	0xbdcbd440	-0.09952593
195	0xbcd4a804	-0.025959022
196	0xbd0a1401	-0.033710483
197	0xbd625c6b	-0.055263918
198	0xbd554742	-0.05206991
199	0xbd8857af	-0.06657349
200	0xbcfefa7f	-0.031125305
201	0xbcda4155	-0.02664248
202	0x3d3a59db	0.04549585
203	0xbb856a51	-0.004071512
204	0x3c84d786	0.01621605
205	0x3a23f915	0.00062550727
206	0x3cd151a8	0.025551632
207	0xbbaba41c	-0.005238069
208	0x3d4203f0	0.047367036
209	0x3dc5dfaa	0.09661801
210	0xbcd88473	-0.026430344
211	0xbc2cee8f	-0.010554924
212	0xbcbcf495	-0.023065845
213	0x3b3170a4	0.0027075196
214	0xbba79ff3	-0.005115503
215	0x3d21da21	0.039514665
216	0x3d51f04f	0.051254567
217	0xbd413848	-0.047172815
218	0xbd86942f	-0.065712325
219	0xbd443a52	-0.04790718
220	0x3b1bfc02	0.0023801331
221	0xbcaee95e	-0.021351513
222	0x3cdba77c	0.026813261
223	0x3d076622	0.033056386
224	0xbcfa2096	-0.030533116
225	0xbd4f1681	-0.05055857
226	0xbdb866fa	-0.09004016
227	0xbd6f45fc	-0.05841635
228	0xbd705eb7	-0.058684077
229	0xbc809b4b	-0.01569905
230	0x3be2452f	0.00690522
231	0xbc9ecff8	-0.019386277
232	0xbd065743	-0.032798063
233	0xbd0a7477	-0.033802476
234	0xbcf64192	-0.030060563
235	0xbd93b3f5	-0.072120585
236	0xbd2c0335	-0.041995246
237	0x3c868aef	0.01642367
238	0xbc36a43c	-0.011147555
239	0xbd92b22b	-0.07162889
240	0xbdcf16d5	-0.10111777
241	0xbd97adaf	-0.074061744
242	0xbd1d7686	-0.03844311
243	0xbd370fcc	-0.0446928
244	0xbd562280	-0.052278996
245	0x3ce52e57	0.027976198
246	0x3d2a902e	0.041641407
247	0xbcbe2d2c	-0.023214899
248	0x3cebd8e1	0.02878994
249	0xb9d9f1f4	-0.00041569734
250	0x3b79c2bf	0.0038110462
251	0x3af32565	0.0018550573
252	0x3d2e8f15	0.042616922
253	0x3d9e11df	0.077182524
254	0x3d946861	0.07246471
255	0x3d36667b	0.044531327

onnx::Conv_81 f4 [16]
0	0x3f331448	0.6995282
1	0x3ece248c	0.40262258
2	0xbf938967	-1.1526307
3	0xbf1a4309	-0.6025854
4	0xbef1ee0b	-0.47251925
5	0x3eb83a2c	0.35981882
6	0x3f005143	0.50123996
7	0x3d5898e4	0.052880183
8	0xbf063148	-0.5241895
9	0xbd8a4ca4	-0.06752899
10	0x3e0f9162	0.14020303
11	0xbf2a1e5e	-0.66452587
12	0x3e081052	0.13287476
13	0x3f5edda4	0.87056947
14	0xbf902688	-1.1261759
15	0xbf80ceda	-1.0063126

onnx::Conv_83 f4 [32, 16, 3, 3]
0	0xbb66d4f8	-0.0035222154
1	0xbc571d26	-0.013129508
2	0xbd0a4391	-0.033755843
3	0x3c1dafcc	0.009624433
4	0x3baf460f	0.005348928
5	0xbc490baf	-0.012270852
6	0x3c337ecf	0.0109555265
7	0x3c96a010	0.01838687
8	0x3c0bda88	0.008535989
9	0x3caa0eeb	0.020759067
10	0x3c9623bd	0.018327588
11	0xbb9713c6	-0.0046105115
12	0x3beb9c90	0.0071902946
13	0xbbb44d29	-0.0055023623
14	0xbd1d23eb	-0.038364332
15	0xbb205a63	-0.0024467937
16	0x3b93f23c	0.0045149606
17	0xbcb7281e	-0.022357997
18	0xbd05aa1f	-0.032632943
19	0xbd08cbc5	-0.033397455
20	0xbceeffb8	-0.02917467
21	0x3b736b13	0.0037142679
22	0x3aff0b18	0.0019458262
23	0xbb1de563	-0.0024093024
24	0x3a6e99b5	0.00091018836
25	0x3b59851c	0.0033190912
26	0x3c160226	0.009155786
27	0xbd1ccfa3	-0.038283955
28	0xbcf1fce4	-0.029539533
29	0xbcc8666a	-0.024462897
30	0xbc23d7ac	-0.010000151
31	0x3baf8253	0.005356112
32	0x3bb76f76	0.005598004
33	0x3b89cedb	0.0042055673
34	0x3c0590a8	0.0081521645
35	0x3c0f07ba	0.0087298695
36	0xbd064493	-0.03278024
37	0xbd4029c3	-0.046914827
38	0xbd579405	-0.052631397
39	0x3b9204bb	0.0044561303
40	0xbb78d261	-0.0037967192
41	0xbc916e4f	-0.017752795
42	0x3cf4e750	0.029895455
43	0x3c9f3628	0.019435003
44	0x3c4d0ac7	0.012514777
45	0x3c077a85	0.008268957
46	0x3c4fb77b	0.0126780225
47	0xbbadabab	-0.0053000054
48	0x3ba4bee4	0.0050276387
49	0x3cab3b02	0.02090216
50	0x3c1dd9d3	0.009634453
51	0xbca12625	-0.019671509
52	0x3b576879	0.0032868667
53	0x3c23e66e	0.010003669
54	0x3b690ab8	0.0035559367
55	0x3c556983	0.013025644
56	0x3cdf4acf	0.027257351
57	0xba44d6a8	-0.0007508793
58	0x3b9dbe28	0.004813928
59	0x3aa222c0	0.0012369975
60	0xbc49528d	-0.012287748
61	0xbcbbd179	-0.022927033
62	0xbd0019ba	-0.031274535
63	0x3c09e88a	0.008417258
64	0xbc8a16ca	-0.01685657
65	0xbd16e9a2	-0.036843903
66	0xbb6d554f	-0.0036214178
67	0xbc7d52ec	-0.015461665
68	0xbd31990b	-0.043358844
69	0xbb5026d8	-0.0031761434
70	0x3c5164f8	0.0127804205
71	0xbc906c5a	-0.017629791
72	0x3c86c911	0.016453298
73	0xbba93694	-0.005163977
74	0xbc79a884	-0.015237931
75	0x3cde5272	0.027138922
76	0xbc78752f	-0.0151646575
77	0xbd20fe1b	-0.039304834
78	0x3d13338c	0.03593783
79	0xba897a0c	-0.0010488643
80	0xbd052103	-0.032502186
81	0xbad10c10	-0.001594903
82	0x3c0441ba	0.008072311
83	0x3c3ac366	0.011399126
84	0x3c7d726a	0.015469173
85	0x3c5d131f	0.013493328
86	0xbbcb47ac	-0.0062036123
87	0x3c2f13a7	0.010685838
88	0x3c0a4d0e	0.008441223
89	0xbc82ddc2	-0.015974883
90	0x3c289c51	0.010291175
91	0x3c99a3cf	0.018754868
92	0x3cc216ab	0.02369245
93	0xbcc71eff	-0.024306772
94	0xba108c02	-0.0005514027
95	0xbc15a754	-0.009134132
96	0xbd32a8e3	-0.043618094
97	0xbbf4aaf7	-0.0074666697
98	0xbbfe7a73	-0.007766062
99	0xbcfca93e	-0.03084242
100	0xbcd075cb	-0.025446793
101	0xbc8990f8	-0.01679276
102	0xbaf72793	-0.0018856399
103	0x3c344f14	0.011005182
104	0x3c663f7a	0.01405322
105	0x3ba23619	0.0049502966
106	0x3bd4558d	0.006479925
107	0x3c4849d5	0.012224634
108	0x3ab77c8d	0.0013998911
109	0x3ce77913	0.028255975
110	0x3d66f01e	0.056381337
111	0xbd516158	-0.051118225
112	0xb9bc3e52	-0.00035904587
113	0x3bc05247	0.005869183
114	0xbd9f25c0	-0.07770872
115	0xbc812d9f	-0.015768824
116	0xbc879c9a	-0.016554166
117	0x3ab78a58	0.0014003022
118	0x3b8b0e76	0.0042436672
119	0x3b0b880e	0.0021290812
120	0xbc1dddb4	-0.009635378
121	0xbc4e6aa3	-0.012598666
122	0xbc95ca68	-0.018284991
123	0xbbc51428	-0.0060143657
124	0xbc13de6e	-0.009025199
125	0xbc919604	-0.017771728
126	0xb9e91667	-0.00044457914
127	0xbaec2ba5	-0.0018018378
128	0xbb030a98	-0.0019995328
129	0x3baf0eb0	0.005342327
130	0x3bfe18c9	0.0077544195
131	0x3bebed6d	0.007199934
132	0xbc29aa9e	-0.01035562
133	0xbc680b39	-0.014162832
134	0xba8d7198	-0.00107913
135	0xbcae3abf	-0.021268247
136	0xbc8e3d5a	-0.01736324
137	0xbc58b177	-0.013225905
138	0x3c73c768	0.014879085
139	0xbb027faa	-0.001991252
140	0xbc768857	-0.015047154
141	0x3d5d3af6	0.054011308
142	0x3b173293	0.0023070916
143	0xbc99ccce	-0.018774416
144	0xbd67c0d4	-0.05658038
145	0xbcdf1e8b	-0.027236244
146	0xbcc95280	-0.024575472
147	0xbd23a55d	-0.039952625
148	0xbcef0b45	-0.029180178
149	0xbce172b6	-0.027520519
150	0x3b9224fd	0.0044599758
151	0x3ba02d9f	0.004888251
152	0x3b1be376	0.00237867
153	0xbbb72cc8	-0.005590055
154	0xba7bb4a3	-0.0009601807
155	0x3c951bb8	0.018201694
156	0x3c55c49d	0.013047365
157	0x3cc310d1	0.02381173
158	0x3d56386c	0.0522999
159	0x3d459490	0.048237383
160	0x3d202120	0.03909409
161	0x3d726aeb	0.059183996
162	0xbc526fcc	-0.012844037
163	0xbc2e9116	-0.010654708
164	0xbc8c59be	-0.017132636
165	0xb901487b	-0.000123294
166	0x3cbc2226	0.022965502
167	0x3cf6e5b8	0.030138835
168	0x3d0eff42	0.0349114
169	0x3d2d5ce2	0.042324908
170	0x3da5bdee	0.08092867
171	0x3d1e095e	0.038583152
172	0x3d0d2338	0.034457415
173	0x3b87a579	0.004139599
174	0x3cb94351	0.022615107
175	0x3c032cd8	0.008006297
176	0xbb9e0069	-0.0048218262
177	0x3ceaab91	0.028646262
178	0x3c89fa38	0.016842946
179	0x3bde0480	0.006775439
180	0x3d47aa78	0.048746556
181	0x3ce191da	0.027535368
182	0x3b044b75	0.0020186577
183	0x3c3cb965	0.011518811
184	0x3c93f7e7	0.018062545
185	0xbcbea0ce	-0.023270037
186	0x3d02599f	0.03182375
187	0x3cdafca7	0.026731802
188	0xbb8ef398	-0.0043625347
189	0xbd35f275	-0.04442068
190	0xbc874f6f	-0.01651737
191	0x3c2f7ad8	0.010710441
192	0x3caca4e6	0.021074723
193	0x3cb0e8a2	0.021595303
194	0x3d00b212	0.03141982
195	0x3d0ef447	0.03490093
196	0x3d0db3d6	0.034595333
197	0x3ccd1cf8	0.025038227
198	0xbd85685a	-0.06514044
199	0xbca62b74	-0.020284392
200	0xbd0bda57	-0.034143772
201	0xbcbb2262	-0.022843543
202	0x3b30033f	0.0026857404
203	0xbbd02565	-0.006352114
204	0x3cef39df	0.0292024
205	0x3d26b4df	0.040699836
206	0x3d546098	0.05184993
207	0xbb994ef2	-0.0046786005
208	0x3c0a180d	0.008428586
209	0x3b2ce3fa	0.0026381002
210	0xb7fa092b	-2.9806592e-05
211	0x3d2fe76c	0.04294531
212	0x3d11525c	0.035478935
213	0x3cbe91f6	0.023262959
214	0x3d05f5c6	0.03270509
215	0x3d60635f	0.054782268
216	0xbcadc7f7	-0.021213515
217	0xbc91a3c7	-0.01777829
218	0xbc14d8c9	-0.009084889
219	0xbb8e6bfc	-0.004346369
220	0x3b8230c4	0.0039730985
221	0x3c8f2bd0	0.017476946
222	0x3b8bef6f	0.004270486
223	0x3ba247c2	0.004952402
224	0x3cc573eb	0.024103126
225	0xbd765e6a	-0.060148634
226	0xbd4aef08	-0.049544364
227	0xbd18e89f	-0.03733122
228	0xbc42d446	-0.01189143
229	0xbc841a24	-0.016125746
230	0xbbd01296	-0.006349872
231	0x3c8262e9	0.015916305
232	0x3bf40a4c	0.0074475165
233	0x3ce0defc	0.027450077
234	0xbd50a61f	-0.050939675
235	0xbd9c9c00	-0.07646942
236	0xbd5698c3	-0.05239178
237	0xbd54c7e2	-0.051948436
238	0xbda8dfe8	-0.08245832
239	0xbd2ca519	-0.042149637
240	0xbd8248d9	-0.06361551
241	0xbdb0f94d	-0.086413
242	0xbd275fa1	-0.040862683
243	0x3d0b45a7	0.034001973
244	0x3c83564c	0.01603236
245	0xbbe53278	-0.0069945417
246	0x3baa67c1	0.0052003567
247	0xbb80e4eb	-0.003933539
248	0xbc9ec082	-0.019378904
249	0x3ccc0030	0.024902433
250	0x3c3e4eef	0.011615499
251	0x3ba29437	0.0049615162
252	0xbc2cf7d7	-0.0105571365
253	0xbcce98b5	-0.0252193
254	0xbd33ced2	-0.04389841
255	0x3b89fddb	0.00421117

onnx::Conv_84 f4 [32]
0	0x3dd70041	0.10498095
1	0x3e3b2e71	0.18279435
2	0x3e5833af	0.21113466
3	0x3e687c02	0.22703555
4	0xbeb73d08	-0.3578875
5	0xbcee6dae	-0.029105034
6	0x3dc58f7b	0.09646507
7	0x3df2b9d9	0.11851854
8	0xbed03e9b	-0.40672764
9	0xbd98864d	-0.07447491
10	0x3d642da6	0.055707596
11	0x3d0aaee6	0.033858202
12	0x3e368a30	0.17826152
13	0xbf1b1098	-0.60572195
14	0x3d9d5ce7	0.07683735
15	0x3bc41484	0.005983891
16	0xbe3109e1	-0.17288925
17	0xbdb4b0e4	-0.08822802
18	0x3e70640d	0.23475666
19	0x3e162c35	0.14665301
20	0x3dfa31ea	0.122165516
21	0xbe0e21b0	-0.13880038
22	0x3e3f9dff	0.18712614
23	0xbce7a012	-0.02827457
24	0xbf1b58c9	-0.6068235
25	0x3e45985e	0.19296405
26	0xbb9c7e60	-0.0047758073
27	0x3e0fafb1	0.14031865
28	0x3e830c8e	0.25595516
29	0x3ec5e613	0.38652095
30	0xbd414c8a	-0.047192134
31	0xbe926a94	-0.28596938

onnx::Conv_86 f4 [32, 32, 3, 3]
0	0xbce3a631	-0.027789207
1	0xbd31d524	-0.043416157
2	0x3d625715	0.05525883
3	0x3b826ec3	0.003980489
4	0x3b60268f	0.003420267
5	0x3d24a451	0.040195767
6	0xbc5edbf5	-0.0136022465
7	0x3d051eab	0.03249995
8	0x3d96c206	0.07361226
9	0xbcc7c882	-0.024387602
10	0xbc83766f	-0.016047684
11	0x3d42e972	0.047585912
12	0x3c7481e3	0.0149235455
13	0x3d096291	0.033541266
14	0x3e2c08aa	0.1680018
15	0x3c616000	0.013755798
16	0x3dc14fac	0.09439024
17	0x3e43d41f	0.19123887
18	0xbd67b7ae	-0.056571655
19	0xbda65949	-0.081224985
20	0x3d9de8ca	0.077104166
21	0xbd42aede	-0.047530048
22	0xbc5f944b	-0.013646196
23	0x3e2127e5	0.15737875
24	0xbd4125e2	-0.04715527
25	0xbd0d00e1	-0.034424666
26	0x3e0a4927	0.13504468
27	0xbdf992e8	-0.12186223
28	0xbd805e13	-0.06267943
29	0xbc6e5464	-0.0145464875
30	0xbdd5fe69	-0.104489155
31	0x3b67ea66	0.0035387515
32	0x3c76e5b0	0.01506941
33	0xbdf51560	-0.119669676
34	0xbda0983c	-0.078415364
35	0xbe81a984	-0.25324643
36	0xbd1b6e21	-0.037946824
37	0x3d0818ce	0.03322678
38	0xbdaa58f3	-0.08317747
39	0x3b96c677	0.0046012956
40	0x3dc922ae	0.09821068
41	0xbdc19977	-0.09453099
42	0x3c811417	0.01575665
43	0x3d8ab82b	0.067734085
44	0xbd76b702	-0.060233124
45	0x3c1b7ed3	0.0094906865
46	0x3c7c5987	0.015402204
47	0xbcccecdf	-0.025015293
48	0x3ccebf49	0.025237696
49	0x3ce45000	0.027870178
50	0x3ba65e0c	0.005077129
51	0xbceb7529	-0.02874239
52	0x3a406815	0.0007339728
53	0xbcca49f9	-0.024693476
54	0xbcf7fe57	-0.030272646
55	0xbe09204f	-0.13391231
56	0x3bd75156	0.0065709753
57	0x3c26e29f	0.010185867
58	0xbde1c8bb	-0.110246144
59	0xbbdbdd47	-0.006709728
60	0x3be99883	0.0071287765
61	0xbe1f9b7c	-0.15586656
62	0xbde9c0f7	-0.11413758
63	0xbdfbbbc5	-0.122916736
64	0x3d86ec2f	0.06588017
65	0xbd6b1b59	-0.057399128
66	0x3d036820	0.032081723
67	0x3db392b2	0.08768214
68	0xbcfd2220	-0.030900061
69	0x3de58c64	0.11208418
70	0x3d7611a8	0.060075432
71	0xbdd720fd	-0.10504339
72	0xbe29af73	-0.16570835
73	0xbdb0fcfc	-0.08642003
74	0xbe051128	-0.12994826
75	0xbe4d1448	-0.20027268
76	0x3d422b17	0.047404375
77	0xbd8926ad	-0.0669683
78	0xbe128c8b	-0.14311425
79	0x3e425756	0.18978629
80	0x3dd1a862	0.102371946
81	0xbdcaccb4	-0.09902325
82	0xbd922f4a	-0.07137926
83	0xbd106963	-0.035256755
84	0xbde617ea	-0.1123503
85	0xbd9115f2	-0.07084264
86	0xbd1b78b7	-0.03795692
87	0xbdd1aadf	-0.10237669
88	0xbc0207fe	-0.007936476
89	0xbc900b00	-0.01758337
90	0x3d0c1183	0.034196388
91	0x3d7ce560	0.061742187
92	0x3d1c4aac	0.03815715
93	0x3c00ea14	0.007868309
94	0xbbe24104	-0.006904723
95	0xbaf88fbf	-0.0018963738
96	0x3d19d153	0.037553143
97	0xbc1127ac	-0.008859556
98	0x3d265098	0.040604204
99	0x3d5ab5af	0.053395923
100	0xbdb05da1	-0.08611608
101	0xbc5f772f	-0.013639255
102	0x3cb5ecf2	0.02220771
103	0xbdd99e8e	-0.10625945
104	0xbd388a33	-0.045053672
105	0x3d06dbce	0.032924466
106	0xbdbcb9cb	-0.09215125
107	0xbd1cc334	-0.038272098
108	0xbc9c9a08	-0.019116417
109	0xbd8752b5	-0.06607572
110	0xbd5accfd	-0.05341815
111	0xbd28e71f	-0.04123604
112	0xbe0a1263	-0.13483576
113	0xbd1aa8e7	-0.037758734
114	0xbca21d86	-0.019789468
115	0xbe314ec2	-0.173152
116	0xbce7b9be	-0.028286811
117	0x3da3f859	0.08006353
118	0xbd2089f8	-0.039194077
119	0xbe2e1ab6	-0.17002377
120	0x3dd85987	0.10563951
121	0x3d555299	0.052080724
122	0xbe56ea6e	-0.20987865
123	0x3e9a02b5	0.3008019
124	0x3e3bcf7e	0.1834087
125	0xbe17f528	-0.14839613
126	0xbe02748d	-0.12739773
127	0xbcb8b964	-0.022549339
128	0x3decc28f	0.115605466
129	0xbde24a72	-0.110493556
130	0xbd5cb848	-0.05388668
131	0x3d8d9cc7	0.069146685
132	0xbd95072c	-0.072767586
133	0xbc4f8c91	-0.012667791
134	0x3dafc586	0.085825965
135	0x3a26f03e	0.00063681963
136	0xb8c2bf7c	-9.2863076e-05
137	0xb98a1f7f	-0.00026344878
138	0x3a09c433	0.0005255371
139	0xb927ea68	-0.00016013684
140	0x39a60467	0.00031665267
141	0x3a168a37	0.00057426415
142	0x38d5b627	0.0001019056
143	0x3a49a755	0.0007692476
144	0x3c1d0ca1	0.0095855305
145	0xbd8e7af7	-0.069570474
146	0xbd98c971	-0.07460297
147	0x3cc39d5e	0.02387875
148	0xbd690377	-0.05688807
149	0xbd87694b	-0.0661188
150	0x3d10b1ef	0.03532594
151	0xbd1d8863	-0.038460147
152	0xbd605a67	-0.054773714
153	0xbdd8e7c1	-0.105910785
154	0xbd9ef381	-0.077612884
155	0xbd377ddf	-0.044797774
156	0xbd9b00b1	-0.07568491
157	0xbd8568b3	-0.065141104
158	0xbc47fb1e	-0.012205867
159	0xbd315bda	-0.043300487
160	0xbcfa813b	-0.0305792
161	0xbc39b269	-0.01133404
162	0x3da4a97b	0.08040138
163	0x3ca81b0d	0.020520711
164	0xbe32beea	-0.1745564
165	0x3e160f0c	0.14654177
166	0x3dbb7131	0.09152449
167	0xbdfd5e96	-0.123715565
168	0x3dfd8aeb	0.12380012
169	0x3d442795	0.04788931
170	0xbe2eac7f	-0.1705799
171	0x3d8636e7	0.065534405
172	0x3dcd3ede	0.100217566
173	0x3d7453d5	0.05965026
174	0x3e51b30b	0.20478456
175	0x3e4ea588	0.20180333
176	0x3e3f49bd	0.18680473
177	0x3c14da9a	0.009085322
178	0x3dc4263b	0.095776044
179	0xbbfb4edd	-0.0076693133
180	0xbd4bfce4	-0.049801722
181	0x3d8dfe78	0.06933302
182	0x3e2173f2	0.15766886
183	0x3d49d727	0.04927745
184	0x3d8c1e72	0.068417445
185	0x3e2ce2f0	0.16883445
186	0x3cc52cef	0.024069278
187	0x3d337f06	0.04382231
188	0x3e1cb71f	0.1530423
189	0xbd177282	-0.036974438
190	0xba92481d	-0.0011160407
191	0x3cd7f56d	0.026362145
192	0xbd5b6f42	-0.0535729
193	0x3bfbd6bb	0.00768551
194	0x3c6a11f8	0.014286511
195	0xbd6e694f	-0.0582059
196	0x3b9f0589	0.0048529548
197	0xbc326d84	-0.010890368
198	0xbd0063fa	-0.031345345
199	0xbcc070f8	-0.023491368
200	0x3cf6c5b7	0.030123575
201	0x3df8a0d2	0.12140049
202	0x3d9f5006	0.07778935
203	0x3e292d4f	0.1652119
204	0x3c855c7d	0.016279453
205	0xbc99cb39	-0.018773662
206	0x3da1d241	0.07901431
207	0x3d8dc6bd	0.06922672
208	0xbcef6b84	-0.029226072
209	0xbd7059bc	-0.058679327
210	0x3d19efc3	0.03758217
211	0x3dafe79c	0.08589098
212	0x3db67d15	0.08910576
213	0x3d68c31c	0.056826696
214	0x3d2901ca	0.04126147
215	0x3d0cf7e2	0.034416087
216	0xbe370801	-0.17874147
217	0xbe48b131	-0.19598843
218	0xbe2abce7	-0.16673623
219	0xbd85672b	-0.06513818
220	0xbdacf36f	-0.08444869
221	0xbdcb6593	-0.09931483
222	0x3d926f33	0.07150116
223	0x3ca0abb2	0.01961312
224	0xbd1faa3c	-0.038980708
225	0xbe380bf6	-0.17973313
226	0xbe33e9ff	-0.17569731
227	0xbdb1ebed	-0.086875774
228	0xbe23af60	-0.15984869
229	0xbdb705f8	-0.08936685
230	0x3c05f228	0.00817541
231	0xbe573afd	-0.21018596
232	0xbd282ac8	-0.041056424
233	0x3e21400c	0.15747088
234	0xbcbb98fb	-0.022900095
235	0xbda34f18	-0.0797407
236	0xbbb38f13	-0.0054797023
237	0x3d0689eb	0.032846373
238	0xbcffc762	-0.031223003
239	0x39bc8767	0.00035959037
240	0xbcc472d9	-0.023980545
241	0x3bad20dc	0.005283458
242	0x3c203ec9	0.009780594
243	0xbe03375a	-0.12814084
244	0xbd7fdb6f	-0.062465128
245	0x3c766a0e	0.015039934
246	0xbd9366c9	-0.07197339
247	0xba8c0078	-0.0010681292
248	0x3cbb300f	0.022850065
249	0xbdff9cba	-0.12481065
250	0xbce8e7ce	-0.028430846
251	0x3d5ace0e	0.053419165
252	0xbd12364b	-0.03569631
253	0xbda6643d	-0.08124588
254	0xbd24e1dd	-0.040254463
255	0x3d52d429	0.051471863

onnx::Conv_87 f4 [32]
0	0x3e1de388	0.15418828
1	0xbdd19b17	-0.10234659
2	0x3d8e98c4	0.069627315
3	0x8030011e	-4.408505e-39
4	0xbe8b19db	-0.27168164
5	0xbd3afee1	-0.045653228
6	0x3da07b26	0.07835989
7	0xbe22f5dc	-0.159141
8	0x3ebb5da1	0.3659487
9	0xbee5c824	-0.44879258
10	0x3ee7665e	0.45195287
11	0x3e064e4e	0.13115808
12	0xbd1b142b	-0.03786103
13	0x3d9e6a65	0.07735137
14	0x3e17072f	0.14748834
15	0x801d244a	-2.676247e-39
16	0xbde8d892	-0.113694325
17	0x3e87f9ed	0.26557866
18	0xbd5cce44	-0.053907648
19	0xbe3285b3	-0.17433815
20	0x3e57d255	0.21076329
21	0x80121b7b	-1.662897e-39
22	0x80241e0d	-3.316858e-39
23	0x3dab972a	0.08378442
24	0xbe10e502	-0.1414986
25	0x3c69b3bc	0.014264043
26	0xbe94a818	-0.29034495
27	0x3e2895c8	0.16463387
28	0x3e152668	0.14565432
29	0x3ebc94d0	0.36832285
30	0x805b63f1	-8.392882e-39
31	0xbcdf02aa	-0.02722295

onnx::Conv_89 f4 [32, 16, 1, 1]
0	0x3e7d28a4	0.24722534
1	0x3eaad050	0.33362055
2	0xbeaddfe3	-0.33959875
3	0xbe2e3ee4	-0.17016178
4	0x3e8b5a30	0.27217245
5	0x3ba79e90	0.0051153377
6	0xbcb7e3e9	-0.022447543
7	0x3e768cf2	0.24077204
8	0x3db646bd	0.08900211
9	0xbea1bd6a	-0.31589824
10	0x3e11f995	0.14255364
11	0xbe1173c8	-0.14204323
12	0xbe5743c3	-0.21021943
13	0x3cafca68	0.02145882
14	0xbeab1fe8	-0.3342278
15	0x3e9a8f8b	0.3018764
16	0xbd89298d	-0.06697378
17	0x3e611d39	0.21983804
18	0xbd3272a3	-0.043566357
19	0xbd24ed31	-0.040265266
20	0xbc39c9fe	-0.011339663
21	0xbdd73cf7	-0.10509675
22	0x3c8c93cb	0.017160317
23	0x3db3f4ec	0.087869495
24	0xbd1fe919	-0.03904066
25	0x3cdfd582	0.027323488
26	0xbd14f286	-0.0363641
27	0xbd4822ce	-0.048861317
28	0xbd915fbb	-0.07098337
29	0x3d6207ec	0.055183336
30	0xbd2ffa2b	-0.04296319
31	0xbdd18efa	-0.10232349
32	0xbddeff36	-0.108885214
33	0x3d237d9c	0.039914712
34	0xbd436109	-0.04769996
35	0xbc22d5c0	-0.009938657
36	0x3ca630ff	0.020287035
37	0x3c2c17b8	0.010503702
38	0x3de335ac	0.110942215
39	0xbe106784	-0.14101988
40	0xbe59bba0	-0.2126298
41	0xbcb6121c	-0.022225432
42	0x3d8d007f	0.0688486
43	0x3c89a075	0.016800145
44	0xbd4ffcab	-0.050778072
45	0xbd26f340	-0.040759325
46	0xbe3aca65	-0.1824127
47	0xbe164ed5	-0.1467851
48	0x80000000	-0.0
49	0x00000000	0.0
50	0x80000000	-0.0
51	0x00000000	0.0
52	0x00000000	0.0
53	0x00000000	0.0
54	0x00000000	0.0
55	0x00000000	0.0
56	0x00000000	0.0
57	0x00000000	0.0
58	0x00000000	0.0
59	0x00000000	0.0
60	0x80000000	-0.0
61	0x80000000	-0.0
62	0x00000000	0.0
63	0x80000000	-0.0
64	0xbd718398	-0.05896339
65	0x3c9cc600	0.019137383
66	0x3df3653d	0.11884544
67	0x3dc76137	0.09735339
68	0x3d8bbc1c	0.068229884
69	0xbdfbfe74	-0.123043925
70	0xbd16057a	-0.036626317
71	0x3dad84d6	0.08472602
72	0x3dfa5a46	0.122242495
73	0xbdcb2661	-0.099194296
74	0xbe932117	-0.28736183
75	0x3e0ae0c4	0.13562304
76	0xbde3b397	-0.111182384
77	0xbd553c79	-0.052059624
78	0x3a9995f7	0.0011717667
79	0x3e86c2dd	0.26320544
80	0x3d6c6943	0.057717573
81	0xbd0501f1	-0.032472555
82	0x3d1155da	0.035482265
83	0x3d894691	0.067029126
84	0xbe50fe05	-0.20409401
85	0x3cd80ebd	0.026374215
86	0x3d34f8a5	0.04418244
87	0x3c3df0d0	0.011593059
88	0xbd936b13	-0.07198157
89	0x3e141cd7	0.14464127
90	0xbcf2bfe7	-0.029632522
91	0x3d8ce5fc	0.068798035
92	0x3c9bfc2c	0.019041143
93	0x3d9114ad	0.07084022
94	0x3cc904c0	0.024538398
95	0x3cdc27a8	0.026874378
96	0x3e7f4f2e	0.24932548
97	0x3dcf8f56	0.10134761
98	0xbc6670c4	-0.014064971
99	0x3dddfc90	0.10839188
100	0xbe03f7d5	-0.12887509
101	0x3e634217	0.2219318
102	0x3de73b02	0.11290552
103	0xbe1103ca	-0.14161602
104	0x3d89af18	0.067228496
105	0x3e28ad85	0.16472442
106	0x3eb98a1f	0.3623819
107	0x3d6e299f	0.05814516
108	0x3ca1d3b6	0.019754272
109	0x3cde4300	0.027131557
110	0x3ca5c5c5	0.020235905
111	0xbe803dba	-0.25047094
112	0x3e63dc07	0.22251903
113	0xbe91ddae	-0.2848944
114	0x3df89262	0.12137295
115	0x3c7d48f3	0.015459287
116	0x3df58984	0.1198912
117	0x3df246e2	0.11829926
118	0xbe72566e	-0.23665783
119	0xbe05a0d9	-0.1304964
120	0xbdea0b6f	-0.11427962
121	0xbe430dd8	-0.1904825
122	0xbdc99473	-0.098427676
123	0x3d905a54	0.07048479
124	0xbc5beffa	-0.013423914
125	0x3ce5320f	0.027977971
126	0x3e399375	0.18122657
127	0xbb9e5ac4	-0.0048325974
128	0xbe0b0ca3	-0.1357904
129	0xbea6ca32	-0.32576138
130	0xbe0d42d5	-0.13795026
131	0x3e084236	0.13306507
132	0xbb6f507d	-0.003651648
133	0xbe6ce0ee	-0.23132679
134	0xbcdbe39f	-0.026841937
135	0x3d594498	0.05304393
136	0xbd011916	-0.031518064
137	0xbe1fe324	-0.15613991
138	0x3debe437	0.11518138
139	0x3e4a5c4e	0.19761774
140	0x3e5d2e9f	0.21599816
141	0x3d41c389	0.047305617
142	0xbd93be2e	-0.07214008
143	0xbe070d7c	-0.13188738
144	0x3e29642b	0.16542117
145	0x3e3601ef	0.17774175
146	0x3d970d41	0.07375575
147	0xbcdfc420	-0.0273152
148	0xbcda13d6	-0.026620787
149	0x3de2b6ec	0.11070046
150	0x3dfdbfa0	0.12390065
151	0x3cb2abd5	0.021810452
152	0xbd314b6d	-0.043284822
153	0x3c7632b7	0.01502674
154	0xbce8be3f	-0.028411029
155	0xbd0ef74e	-0.034903817
156	0xbd243d4c	-0.04009752
157	0x3d9716ef	0.07377421
158	0xbdd18153	-0.10229745
159	0x3b288e13	0.0025719448
160	0xbe16ae5c	-0.1471495
161	0xbcf921fe	-0.030411717
162	0x3e1deb82	0.1542187
163	0xbe28fcdd	-0.1650271
164	0xbe4f7a76	-0.20261559
165	0x3d672e8b	0.05644087
166	0xbd1b0734	-0.037848666
167	0x3dab48f3	0.08363523
168	0x3d93b069	0.07211382
169	0x3d9c6ce1	0.076379545
170	0xbdf20c1e	-0.118187174
171	0xbe250c7a	-0.1611804
172	0x3dedd2d5	0.11612479
173	0x3df9a53a	0.121897176
174	0xbe54cc37	-0.20781027
175	0xbdd16593	-0.10224452
176	0xbd24a7ec	-0.040199205
177	0xbd9d20d1	-0.07672275
178	0xbdbac58e	-0.09119712
179	0x3c211176	0.009830823
180	0x3d3d352a	0.04619328
181	0xbda49df5	-0.080379404
182	0x3d2a79ab	0.041619938
183	0xbd85d043	-0.065338634
184	0xbd40cd27	-0.04707065
185	0x3d279346	0.040911935
186	0x3e1f4d81	0.15556909
187	0xbc132544	-0.008981053
188	0x3e26d2a9	0.16291298
189	0x3da51c9c	0.080620974
190	0xbdb8d203	-0.090244316
191	0x3c492972	0.012277948
192	0xbbe998f8	-0.007128831
193	0x3abd5bfc	0.0014446969
194	0xbb0d2d6c	-0.0021541966
195	0xbb71359e	-0.003680564
196	0xbc04cebf	-0.008105933
197	0xbbaf1f29	-0.0053442908
198	0x3ad8e599	0.0016547918
199	0xbbb906ef	-0.0056465785
200	0xb8d93a28	-0.00010358199
201	0x3bd918a8	0.0066252537
202	0x3ba77c0c	0.005111223
203	0xbb321371	-0.0027172233
204	0x3bfb6cec	0.0076728966
205	0x3adbcc3c	0.0016769241
206	0xbb8f8830	-0.0043802485
207	0xbb65310e	-0.0034971866
208	0x3ca8e25b	0.020615747
209	0x3ca3fe31	0.020018669
210	0xbe144440	-0.1447916
211	0x3e9bf9a9	0.30463913
212	0xbeb9b409	-0.36270168
213	0xbe0f1997	-0.13974606
214	0xbdba79b2	-0.09105243
215	0x3de46562	0.1115215
216	0xbd132d96	-0.035932146
217	0x3dc9e223	0.09857585
218	0xbde59cc4	-0.11211541
219	0x3e80d409	0.2516177
220	0x3ec94017	0.3930671
221	0xbd80aa9e	-0.06282543
222	0x3e8b866e	0.27251
223	0xbe92839f	-0.28616044
224	0x3d4e6d0b	0.05039696
225	0x3dcad3ee	0.09903704
226	0xbe9f108f	-0.3106732
227	0x3e178567	0.14796983
228	0xbecf95cc	-0.40543973
229	0xbeb43a65	-0.35200801
230	0x3e8bf803	0.27337655
231	0x3d796672	0.060888715
232	0xbd0beafe	-0.034159653
233	0xbcf8a0a8	-0.030350044
234	0x3e851c30	0.25998068
235	0x3ec7a405	0.38992324
236	0xbde39e59	-0.11114187
237	0xbdceebd2	-0.10103573
238	0x3ea676c4	0.32512486
239	0x3e01f9df	0.12692975
240	0x00000000	0.0
241	0x80000000	-0.0
242	0x80000000	-0.0
243	0x80000000	-0.0
244	0x00000000	0.0
245	0x00000000	0.0
246	0x80000000	-0.0
247	0x80000000	-0.0
248	0x00000000	0.0
249	0x80000000	-0.0
250	0x80000000	-0.0
251	0x00000000	0.0
252	0x80000000	-0.0
253	0x80000000	-0.0
254	0x80000000	-0.0
255	0x00000000	0.0

onnx::Conv_90 f4 [32]
0	0xbe45c72a	-0.19314256
1	0x3d5b6cd6	0.05357059
2	0x3e57639e	0.21034095
3	0x8030011e	-4.408505e-39
4	0xbbcaa618	-0.0061843507
5	0xbda61c69	-0.081108876
6	0xbf12004b	-0.570317
7	0x3d985ed6	0.074399635
8	0x3d6f14ce	0.05836945
9	0xbe5fb294	-0.21845466
10	0x3dfe785f	0.12425303
11	0xbdd811ee	-0.10550295
12	0xbc3c5f79	-0.011497372
13	0xbe2174d1	-0.15767218
14	0xbe9a1a5e	-0.30098242
15	0x801d244a	-2.676247e-39
16	0x3e061316	0.13093218
17	0xbe3024b4	-0.17201501
18	0xbc7cb066	-0.015422916
19	0x3dc6f587	0.097147994
20	0xbde2fbe4	-0.110832006
21	0x80121b7b	-1.662897e-39
22	0x80241e0d	-3.316858e-39
23	0xbdb71f9a	-0.089415744
24	0xbceacdd8	-0.028662607
25	0xbdefaf57	-0.11703365
26	0x3a85e840	0.0010216311
27	0x3e5a701c	0.21331829
28	0x3e5b2e58	0.21404397
29	0xbd864841	-0.0655675
30	0x805b63f1	-8.392882e-39
31	0xbd9c451a	-0.076303676

onnx::Conv_92 f4 [64, 32, 3, 3]
0	0x80000000	-0.0
1	0x00000000	0.0
2	0x00000000	0.0
3	0x80000000	-0.0
4	0x00000000	0.0
5	0x00000000	0.0
6	0x80000000	-0.0
7	0x00000000	0.0
8	0x00000000	0.0
9	0x80000000	-0.0
10	0x80000000	-0.0
11	0x80000000	-0.0
12	0x80000000	-0.0
13	0x80000000	-0.0
14	0x80000000	-0.0
15	0x80000000	-0.0
16	0x80000000	-0.0
17	0x80000000	-0.0
18	0x00000000	0.0
19	0x00000000	0.0
20	0x00000000	0.0
21	0x00000000	0.0
22	0x00000000	0.0
23	0x00000000	0.0
24	0x00000000	0.0
25	0x00000000	0.0
26	0x00000000	0.0
27	0x80000000	-0.0
28	0x80000000	-0.0
29	0x80000000	-0.0
30	0x80000000	-0.0
31	0x80000000	-0.0
32	0x80000000	-0.0
33	0x80000000	-0.0
34	0x80000000	-0.0
35	0x80000000	-0.0
36	0x80000000	-0.0
37	0x80000000	-0.0
38	0x00000000	0.0
39	0x80000000	-0.0
40	0x80000000	-0.0
41	0x00000000	0.0
42	0x80000000	-0.0
43	0x80000000	-0.0
44	0x80000000	-0.0
45	0x80000000	-0.0
46	0x80000000	-0.0
47	0x00000000	0.0
48	0x80000000	-0.0
49	0x80000000	-0.0
50	0x80000000	-0.0
51	0x80000000	-0.0
52	0x80000000	-0.0
53	0x80000000	-0.0
54	0x80000000	-0.0
55	0x80000000	-0.0
56	0x80000000	-0.0
57	0x80000000	-0.0
58	0x80000000	-0.0
59	0x80000000	-0.0
60	0x80000000	-0.0
61	0x00000000	0.0
62	0x80000000	-0.0
63	0x00000000	0.0
64	0x00000000	0.0
65	0x00000000	0.0
66	0x00000000	0.0
67	0x00000000	0.0
68	0x00000000	0.0
69	0x00000000	0.0
70	0x00000000	0.0
71	0x00000000	0.0
72	0x80000000	-0.0
73	0x80000000	-0.0
74	0x80000000	-0.0
75	0x00000000	0.0
76	0x00000000	0.0
77	0x00000000	0.0
78	0x00000000	0.0
79	0x00000000	0.0
80	0x00000000	0.0
81	0x00000000	0.0
82	0x00000000	0.0
83	0x00000000	0.0
84	0x00000000	0.0
85	0x00000000	0.0
86	0x00000000	0.0
87	0x00000000	0.0
88	0x00000000	0.0
89	0x00000000	0.0
90	0x00000000	0.0
91	0x80000000	-0.0
92	0x80000000	-0.0
93	0x00000000	0.0
94	0x00000000	0.0
95	0x00000000	0.0
96	0x00000000	0.0
97	0x00000000	0.0
98	0x00000000	0.0
99	0x80000000	-0.0
100	0x80000000	-0.0
101	0x00000000	0.0
102	0x00000000	0.0
103	0x00000000	0.0
104	0x00000000	0.0
105	0x00000000	0.0
106	0x00000000	0.0
107	0x00000000	0.0
108	0x00000000	0.0
109	0x80000000	-0.0
110	0x00000000	0.0
111	0x00000000	0.0
112	0x80000000	-0.0
113	0x00000000	0.0
114	0x00000000	0.0
115	0x00000000	0.0
116	0x00000000	0.0
117	0x80000000	-0.0
118	0x80000000	-0.0
119	0x80000000	-0.0
120	0x80000000	-0.0
121	0x00000000	0.0
122	0x00000000	0.0
123	0x00000000	0.0
124	0x00000000	0.0
125	0x00000000	0.0
126	0x80000000	-0.0
127	0x80000000	-0.0
128	0x80000000	-0.0
129	0x80000000	-0.0
130	0x80000000	-0.0
131	0x80000000	-0.0
132	0x80000000	-0.0
133	0x80000000	-0.0
134	0x80000000	-0.0
135	0x80000000	-0.0
136	0x80000000	-0.0
137	0x80000000	-0.0
138	0x80000000	-0.0
139	0x80000000	-0.0
140	0x00000000	0.0
141	0x80000000	-0.0
142	0x80000000	-0.0
143	0x80000000	-0.0
144	0x80000000	-0.0
145	0x80000000	-0.0
146	0x80000000	-0.0
147	0x80000000	-0.0
148	0x80000000	-0.0
149	0x00000000	0.0
150	0x80000000	-0.0
151	0x80000000	-0.0
152	0x00000000	0.0
153	0x80000000	-0.0
154	0x80000000	-0.0
155	0x80000000	-0.0
156	0x80000000	-0.0
157	0x00000000	0.0
158	0x80000000	-0.0
159	0x80000000	-0.0
160	0x80000000	-0.0
161	0x80000000	-0.0
162	0x80000000	-0.0
163	0x80000000	-0.0
164	0x00000000	0.0
165	0x00000000	0.0
166	0x00000000	0.0
167	0x00000000	0.0
168	0x00000000	0.0
169	0x00000000	0.0
170	0x00000000	0.0
171	0x80000000	-0.0
172	0x80000000	-0.0
173	0x80000000	-0.0
174	0x80000000	-0.0
175	0x80000000	-0.0
176	0x80000000	-0.0
177	0x00000000	0.0
178	0x80000000	-0.0
179	0x00000000	0.0
180	0x80000000	-0.0
181	0x00000000	0.0
182	0x00000000	0.0
183	0x80000000	-0.0
184	0x00000000	0.0
185	0x00000000	0.0
186	0x00000000	0.0
187	0x00000000	0.0
188	0x00000000	0.0
189	0x00000000	0.0
190	0x80000000	-0.0
191	0x00000000	0.0
192	0x00000000	0.0
193	0x00000000	0.0
194	0x80000000	-0.0
195	0x00000000	0.0
196	0x80000000	-0.0
197	0x80000000	-0.0
198	0x80000000	-0.0
199	0x00000000	0.0
200	0x80000000	-0.0
201	0x00000000	0.0
202	0x80000000	-0.0
203	0x00000000	0.0
204	0x00000000	0.0
205	0x00000000	0.0
206	0x00000000	0.0
207	0x80000000	-0.0
208	0x80000000	-0.0
209	0x80000000	-0.0
210	0x80000000	-0.0
211	0x00000000	0.0
212	0x80000000	-0.0
213	0x80000000	-0.0
214	0x80000000	-0.0
215	0x80000000	-0.0
216	0x80000000	-0.0
217	0x80000000	-0.0
218	0x80000000	-0.0
219	0x80000000	-0.0
220	0x80000000	-0.0
221	0x80000000	-0.0
222	0x80000000	-0.0
223	0x80000000	-0.0
224	0x80000000	-0.0
225	0x80000000	-0.0
226	0x80000000	-0.0
227	0x00000000	0.0
228	0x80000000	-0.0
229	0x00000000	0.0
230	0x00000000	0.0
231	0x80000000	-0.0
232	0x00000000	0.0
233	0x00000000	0.0
234	0x80000000	-0.0
235	0x80000000	-0.0
236	0x80000000	-0.0
237	0x80000000	-0.0
238	0x80000000	-0.0
239	0x80000000	-0.0
240	0x80000000	-0.0
241	0x80000000	-0.0
242	0x80000000	-0.0
243	0x80000000	-0.0
244	0x80000000	-0.0
245	0x80000000	-0.0
246	0x80000000	-0.0
247	0x80000000	-0.0
248	0x80000000	-0.0
249	0x00000000	0.0
250	0x80000000	-0.0
251	0x80000000	-0.0
252	0x00000000	0.0
253	0x80000000	-0.0
254	0x80000000	-0.0
255	0x80000000	-0.0

onnx::Conv_93 f4 [64]
0	0x800a13f7	-9.25517e-40
1	0x80063c7d	-5.72712e-40
2	0xbebdd09f	-0.37073228
3	0x8011149a	-1.568594e-39
4	0x80080196	-7.35253e-40
5	0x8031946a	-4.55318e-39
6	0x8003812d	-3.21846e-40
7	0x80294816	-3.791115e-39
8	0xbe398bae	-0.1811969
9	0xbec2dd30	-0.38059378
10	0x8000eb05	-8.4309e-41
11	0x8011ee1f	-1.646625e-39
12	0x800d5166	-1.223062e-39
13	0xbe07f776	-0.13277993
14	0x8006ae80	-6.13612e-40
15	0x801266ae	-1.689873e-39
16	0x3cb7887e	0.022403952
17	0x80471d92	-6.530928e-39
18	0xbcf7d4ab	-0.030252775
19	0xbe338c0e	-0.17533895
20	0x801aecb9	-2.472643e-39
21	0xbda7da21	-0.08195902
22	0x800ef83f	-1.374751e-39
23	0x80125649	-1.683992e-39
24	0x800bf901	-1.099516e-39
25	0x8013a6aa	-1.804662e-39
26	0x8026a5cb	-3.549224e-39
27	0x801bb1f8	-2.543402e-39
28	0xbd67b1da	-0.056566097
29	0x3d6a968f	0.05727249
30	0x803e13bc	-5.70088e-39
31	0x80b29e59	-1.6403523e-38
32	0xbdaa2d50	-0.08309424
33	0x8028ef95	-3.759366e-39
34	0x80198164	-2.342304e-39
35	0x3d271522	0.04079164
36	0x801c1ca4	-2.581668e-39
37	0x3bc4b4a0	0.0060029775
38	0x802fbb71	-4.38351e-39
39	0x80275892	-3.613357e-39
40	0x8014db04	-1.915278e-39
41	0x801e0ab8	-2.75891e-39
42	0x3e63d787	0.22250186
43	0x80098741	-8.7504e-40
44	0x804d9d6b	-7.127804e-39
45	0x8009d2e6	-9.02176e-40
46	0x8021b15b	-3.094195e-39
47	0x8025e677	-3.480589e-39
48	0x80252a39	-3.41306e-39
49	0x802052c7	-2.968431e-39
50	0x80a2c605	-1.4948386e-38
51	0x800d0cef	-1.198501e-39
52	0x801dc06a	-2.732255e-39
53	0x800b55f7	-1.041029e-39
54	0xbd6330a2	-0.0554663
55	0x8021e640	-3.11317e-39
56	0x801cc41a	-2.641742e-39
57	0xbde8a9b6	-0.11360495
58	0x8023ee4f	-3.299731e-39
59	0xbd2139cd	-0.039361764
60	0x800dc9d8	-1.26627e-39
61	0x80256cfb	-3.437008e-39
62	0x8044c913	-6.316946e-39
63	0x800ceefd	-1.187759e-39
