cmd/ai/datas/models/apple_on_a_tree.onnx (onnx, 302121 bytes, 16 tensors)

fc.weight f4 [2, 256]
00000000: ed28 083e aec5 113e a881 edbc dff4 c0bc
00000010: 93b3 68be 00e9 45be 0a52 68be 627c 40be
00000020: f717 0000 f717 0000 f717 0000 f717 0000
00000030: 49f5 ed3d 1043 033e 3118 b8bc 2216 83bc
00000040: 568f 3bbc b496 20bb 9e9f 313e 6170 463e
00000050: 01fb 4b3e b615 833e 0650 13bb 7b98 ce3c
00000060: bd1c 0000 bd1c 0000 bd1c 0000 bd1c 0000
00000070: 1a11 0080 1a11 0080 1a11 0080 1a11 0080
00000080: 6501 8e3d 62d0 933d aee5 723e c1a0 7a3e
00000090: 7409 0080 7409 0080 7409 0080 7409 0080
000000a0: b208 75bd 6c27 97bd a982 3b3e 9144 4d3e
000000b0: 5605 0000 5605 0000 5605 0000 5605 0000
000000c0: a508 d8bc b7f6 c6bc de5b 763d 1445 843d
000000d0: a503 0080 a503 0080 a503 0080 a503 0080
000000e0: c103 0000 c103 0000 c103 0000 c103 0000
000000f0: 990c 0000 990c 0000 990c 0000 990c 0000
00000100: f945 5c3e e088 743e 687f 25bd e69e 88bc
00000110: 1b02 0000 1b02 0000 1b02 0000 1b02 0000
00000120: 0a04 0000 0a04 0000 0a04 0000 0a04 0000
00000130: 3f03 0000 3f03 0000 3f03 0000 3f03 0000
00000140: 800b 0000 800b 0000 800b 0000 800b 0000
00000150: af18 0080 af18 0080 af18 0080 af18 0080
00000160: 8503 0000 8503 0000 8503 0000 8503 0000
00000170: 0bd9 52be ac86 8cbe 2639 3ebe 30b1 86be
00000180: f820 0000 f820 0000 f820 0000 f820 0000
00000190: b103 0000 b103 0000 b103 0000 b103 0000
000001a0: 8903 0000 8903 0000 8903 0000 8903 0000
000001b0: 7104 0000 7104 0000 7104 0000 7104 0000
000001c0: 4910 0080 4910 0080 4910 0080 4910 0080
000001d0: c85a 64be ee53 58be e360 60be 0c26 5ebe
000001e0: 4704 0000 4704 0000 4704 0000 4704 0000
000001f0: bde4 c1bc 4bd0 a9bc 09c8 3d3d c99b 513d
00000200: 5e0f 0080 5e0f 0080 5e0f 0080 5e0f 0080
00000210: 74ea cfbc ce26 0d3d 7b27 003e 1b73 233e
00000220: 3f1e 0000 3f1e 0000 3f1e 0000 3f1e 0000
00000230: 7107 0000 7107 0000 7107 0000 7107 0000
00000240: 9d1f 0080 9d1f 0080 9d1f 0080 9d1f 0080
00000250: debe aa3d ad05 b73d 62a1 74bc 409b 1ebc
00000260: 181e 0000 181e 0000 181e 0000 181e 0000
00000270: f53e 973c 5be0 413d 84a6 7b3e 1982 833e
00000280: ccb4 8d3e 4ae3 b23e d13a 033e f1bc 383e
00000290: 3e06 0080 3e06 0080 3e06 0080 3e06 0080
000002a0: c956 4fbe a8a9 2dbe 4f73 3dbe 93dc 23be
000002b0: 2609 0080 2609 0080 2609 0080 2609 0080
000002c0: d371 333d b024 033d 9fdc 4e3e 4811 5c3e
000002d0: ba02 0000 ba02 0000 ba02 0000 ba02 0000
000002e0: 6ae2 2ebe 0f75 46be 08d4 4cbe cfac 61be
000002f0: 3356 3ebd 2386 42bd 6160 d03d 961d f03d
00000300: 171a 0000 171a 0000 171a 0000 171a 0000
00000310: 4d25 573e 58ba 703e 1ceb 02bd eef8 97bc
00000320: 821b 0000 821b 0000 821b 0000 821b 0000
00000330: 3610 0000 3610 0000 3610 0000 3610 0000
00000340: 6584 38be 5777 69be f319 44be b81b 59be
00000350: 880e 0080 880e 0080 880e 0080 880e 0080
00000360: 00dd 523d f4de 5a3d b0bd 1dbc 25b8 c1bb
00000370: 7c11 0000 7c11 0000 7c11 0000 7c11 0000
00000380: 9721 0000 9721 0000 9721 0000 9721 0000
00000390: 93a5 413b c462 533b 4535 7fba 9298 e8b9
000003a0: 75c9 ebbb e225 1a3b 16e3 2b3e 1429 2b3e
000003b0: 5504 0000 5504 0000 5504 0000 5504 0000
000003c0: 0106 0080 0106 0080 0106 0080 0106 0080
000003d0: b9b3 8c3e 2c88 923e fc68 cc3c b2b7 c33b
000003e0: 3ed8 1abe 09cf 5dbe 76f2 20be 214a 5bbe
000003f0: 8711 0080 8711 0080 8711 0080 8711 0080
0.13296862 0.14235565 -0.028992489 -0.023554264 -0.22724752 -0.19327164 -0.22687545 -0.18797448
8.597e-42 8.597e-42 8.597e-42 8.597e-42 0.1161905 0.12818551 -0.022472473 -0.016001765
-0.011447748 -0.0024503889 0.17346045 0.19378807 0.19919969 0.25602502 -0.0022478118 0.025219193
1.031e-41 1.031e-41 1.031e-41 1.031e-41 -6.135e-42 -6.135e-42 -6.135e-42 -6.135e-42
0.0693386 0.0721748 0.23720428 0.24475385 -3.391e-42 -3.391e-42 -3.391e-42 -3.391e-42
-0.059822746 -0.07380566 0.18311562 0.20045687 1.914e-42 1.914e-42 1.914e-42 1.914e-42
-0.02637131 -0.024287565 0.060146205 0.06458488 -1.307e-42 -1.307e-42 -1.307e-42 -1.307e-42
1.347e-42 1.347e-42 1.347e-42 1.347e-42 4.519e-42 4.519e-42 4.519e-42 4.519e-42
0.21511067 0.23880339 -0.040404707 -0.016677331 7.55e-43 7.55e-43 7.55e-43 7.55e-43
1.449e-42 1.449e-42 1.449e-42 1.449e-42 1.164e-42 1.164e-42 1.164e-42 1.164e-42
4.125e-42 4.125e-42 4.125e-42 4.125e-42 -8.855e-42 -8.855e-42 -8.855e-42 -8.855e-42
1.263e-42 1.263e-42 1.263e-42 1.263e-42 -0.20590608 -0.27446496 -0.18576488 -0.26307058
1.1827e-41 1.1827e-41 1.1827e-41 1.1827e-41 1.324e-42 1.324e-42 1.324e-42 1.324e-42
1.268e-42 1.268e-42 1.268e-42 1.268e-42 1.593e-42 1.593e-42 1.593e-42 1.593e-42
-5.842e-42 -5.842e-42 -5.842e-42 -5.842e-42 -0.22300255 -0.21125767 -0.2191196 -0.21694201
1.534e-42 1.534e-42 1.534e-42 1.534e-42 -0.023668641 -0.020729205 0.046333347 0.05117396
-5.513e-42 -5.513e-42 -5.513e-42 -5.513e-42 -0.02538035 0.034460835 0.1251506 0.15961878
1.085e-41 1.085e-41 1.085e-41 1.085e-41 2.67e-42 2.67e-42 2.67e-42 2.67e-42
-1.1341e-41 -1.1341e-41 -1.1341e-41 -1.1341e-41 0.08337186 0.089366294 -0.014931055 -0.009680569
1.0796e-41 1.0796e-41 1.0796e-41 1.0796e-41 0.018462637 0.047333103 0.2457524 0.25685194
0.27677 0.34939033 0.12815405 0.18040825 -2.239e-42 -2.239e-42 -2.239e-42 -2.239e-42
-0.2024795 -0.1695925 -0.18501018 -0.16002111 -3.282e-42 -3.282e-42 -3.282e-42 -3.282e-42
0.043809723 0.03201741 0.20201348 0.21490967 9.78e-43 9.78e-43 9.78e-43 9.78e-43
-0.17078558 -0.19380592 -0.20002759 -0.22038577 -0.046468925 -0.047491204 0.10174633 0.11724393
9.359e-42 9.359e-42 9.359e-42 9.359e-42 0.21010323 0.23508584 -0.0319625 -0.018551316
9.868e-42 9.868e-42 9.868e-42 9.868e-42 5.815e-42 5.815e-42 5.815e-42 5.815e-42
-0.18019255 -0.22799431 -0.19150524 -0.2120198 -5.213e-42 -5.213e-42 -5.213e-42 -5.213e-42
0.051480293 0.05343528 -0.009627745 -0.0059118443 6.272e-42 6.272e-42 6.272e-42 6.272e-42
1.205e-41 1.205e-41 1.205e-41 1.205e-41 0.0029548153 0.0032254914 -0.0009735416 -0.00044364162
-0.0071956464 0.0023521115 0.16785845 0.16714889 1.554e-42 1.554e-42 1.554e-42 1.554e-42
-2.154e-42 -2.154e-42 -2.154e-42 -2.154e-42 0.27480868 0.28619516 0.024952404 0.005972826
-0.15121552 -0.21661009 -0.15717492 -0.21414997 -6.288e-42 -6.288e-42 -6.288e-42 -6.288e-42

fc.bias f4 [2]
00000000: 5827 f23c ce44 f33c
0.029559776 0.029695895

onnx::Conv_80 f4 [16, 3, 7, 7]
00000000: 7144 25bd 22ad 4fbd e5d0 0b3c f628 ba3d
00000010: d4be 113c fdd6 3d3d 48db e23c 9eb3 c9bd
00000020: 10c3 a5bd 9390 ba3c 3b9a fa3d 8d75 3b3d
00000030: fe02 75ba 77fb 113d a9e1 e9bd f328 9fbd
00000040: fbf7 3bbd aa90 273d be9e 953d 3571 363d
00000050: 6207 613d 9885 55bd 1e73 febb f79b 09bb
00000060: 5cb7 7e3d 438d 873d c961 c93d 707c f03d
00000070: 79b4 2abd 6ea0 95bb 92bd 4abc 362e f7bc
00000080: 989c 0abd 317c 4a3c a496 a03c a10b 20bd
00000090: 2aa6 81bc 419b 7dbd c091 fabd cd6c 43be
000000a0: 163a 15be 5a30 a9bd 6e4f 2abd fc77 e0bc
000000b0: d945 c7bd c4b4 ccbd 76e3 48be e2ee 2fbe
000000c0: 9781 dbbd 689f 093d 1e35 c8b8 017b 0a3d
000000d0: 3e86 b93d e2d2 5f3c d8a9 15bc 179e cfbb
000000e0: 82a2 1abd 6ac2 07bd 1100 813d eed9 c33d
000000f0: 7289 0e3d 62cf 27bd 59c6 153c 87fb 79bd
00000100: ab8c 8bbd 983a eabc 1b50 823d 6928 d6ba
00000110: f987 4abd dbaa c63a 8457 41bd a697 8ebc
00000120: d2f8 f53c 5f14 963d b73f 443d c90e 593d
00000130: 91b3 4f3d 1610 53bc 207f dd3c d22c be3c
00000140: d098 223d c0e1 cb3c c413 173d d9f3 1a3d
00000150: 0bfb 4e3d 02b1 4a3d 3369 023d 0c06 0b3c
00000160: 4654 06bd c525 9a3c d74f 073d 6426 df3b
00000170: 91b5 e938 9d80 82bc 78bd 52bc e14e 63bd
00000180: fc93 5bbc bba2 103d d8e3 a53a c802 a9b8
00000190: ab39 2c3d adbc 9f3d ff5a e03c 69d1 3d3c
000001a0: 7b80 623d a174 07bd 9b64 ebbc f624 0a3d
000001b0: 1f15 b63d 1de2 f83c 0fb9 41bc ebf9 8dbc
000001c0: ebcb 54bd c2b3 4bbd f615 b5bc b7de 083d
000001d0: f1c4 193d 5f17 3bba df9b 27bc 2f47 4cbc
000001e0: 4e83 ae3c 851b 153d 8bb6 943d 32bf 863d
000001f0: d881 723d 250f ad3d 2dcc 063d 61c9 8c3d
00000200: fd5a 6e3d 14dd f63c 4a9f 943c c652 673d
00000210: a8ec 673d 99e7 883d 369e 073d dccb c1bb
00000220: baec 1dbd c327 cfbd 3fc6 66bd 1b2a a4bb
00000230: deb7 f33c b540 f53a 4d7e 20bd bc22 a5bd
00000240: 4b04 0cbe d58a b2bd e430 20bc 6a37 473c
00000250: 4277 9a3d ac2c 273d ba8f 813c c175 cbbc
00000260: 472a 51bd 7fb6 043c 8031 8f3c 8232 413d
00000270: 41b8 b73c 6614 2a3b ba47 01bd 77eb 6ebd
00000280: 040b 48bc 9268 1e3d 8aad 8f3c 5422 c0bb
00000290: 66fb 3a3c 2ab2 613c d54f 3cbc e211 b13b
000002a0: ffaa ad3d f165 303d cdbf 3f3c f473 313d
000002b0: 8dc8 873d af00 4f3d f55b 3b3d b07a b23d
000002c0: 42a9 773d 9e5c 093d f3d6 6b3d 288f a33d
000002d0: 6838 723d 8e8a aa3c 377c 593d ee2d 6a3d
000002e0: be22 c33c 182f e73c f5ac e43c af1f 393c
000002f0: 81dd 76bc 671e 133c 3728 463d 8e58 813c
00000300: a84c 613b 4122 3b3b e647 b4bc 6042 5cbc
00000310: ebf1 8abd c016 d13d f51d f03d 128b f13d
00000320: 1dda d33d c812 ab3d 0556 dc3d 64a0 a1bd
00000330: 2284 943d f0ea 0a3e 1dc1 1a3e c833 cb3d
00000340: 7d63 fa3c 0804 c43c 7c98 4fbd a81f 4c3d
00000350: 2916 c13d 3e62 fd3d 3577 953d 303a 26bc
00000360: 7de5 1fbd 58c2 debc f155 963c 5cfb d93c
00000370: 2cbb 4c3d 41f7 cf3c 674e f7bc 33a7 42bd
00000380: 1e75 4ebd f3cc aabc 43e7 39bd 39b2 d9bc
00000390: e597 a8bc a9a9 3bbd 35ef 83bd 663c b9bd
000003a0: 072d 1fbd 423e 49bd 54a4 18bd eb63 48bd
000003b0: 09c3 52bd 8378 3abd a637 9abd 652a b1ba
000003c0: 021a b6bc 7bcd a73b 014e 8d3c c289 0cbb
000003d0: bca5 a8bb 066c 00be 37ec b33c c626 283d
000003e0: a48c 913d bf01 1a3d 3bc4 813b 9fd8 883c
000003f0: 4d68 fabd 9095 553b 5241 a23d 318d ed3d
-0.040348474 -0.05070222 0.008533691 0.09089844 0.008895595 0.046347607 0.027692452 -0.098487124
-0.08093846 0.022774016 0.122364484 0.045766402 -0.0009346454 0.035640206 -0.114199944 -0.07771482
-0.04589079 0.040909447 0.07305668 0.044541556 0.05493868 -0.052129358 -0.007765188 -0.0020997503
0.062186584 0.066187404 0.09833104 0.117424846 -0.04167602 -0.004566244 -0.012374299 -0.030173402
-0.033840746 0.012358711 0.019603081 -0.03907359 -0.015826304 -0.06191564 -0.12234831 -0.19084473
-0.1457294 -0.082611755 -0.041579656 -0.027400963 -0.09730119 -0.09995416 -0.1961802 -0.1718097
-0.10718077 0.033599287 -9.546637e-05 0.033808712 0.09058808 0.013661118 -0.009134732 -0.0063359844
-0.037752636 -0.033144392 0.06298841 0.09563051 0.034799047 -0.04096926 0.009141528 -0.06103089
-0.0681394 -0.028592393 0.06362935 -0.0016338947 -0.04944608 0.001515712 -0.047202602 -0.017406296
0.030025873 0.07328104 0.047912326 0.052992616 0.050708357 -0.012882253 0.027038157 0.023214731
0.039696515 0.02488792 0.036884084 0.037830207 0.050532382 0.049485214 0.031838607 0.008485328
-0.032795213 0.018816838 0.033035126 0.0068099964 0.00011144125 -0.015930468 -0.012862556 -0.055495147
-0.013401981 0.035311442 0.0012656404 -8.059066e-05 0.042047184 0.07799659 0.02738714 0.011585572
0.05529831 -0.03307021 -0.028734496 0.033726655 0.08890747 0.030381257 -0.011823907 -0.017331084
-0.051952284 -0.049731977 -0.022105198 0.033415522 0.037541334 -0.00071369665 -0.010230034 -0.012468143
0.021302845 0.036403198 0.0726138 0.06579436 0.05920586 0.08450154 0.03290956 0.068743475
0.058192242 0.030134715 0.018142361 0.056475423 0.056622177 0.06684799 0.033109866 -0.0059141945
-0.03855584 -0.10115006 -0.056341406 -0.005009902 0.02975076 0.0018711301 -0.03918295 -0.08063266
-0.13673513 -0.08717886 -0.009777281 0.012159208 0.07542278 0.040814087 0.015815604 -0.024836423
-0.05106571 0.008100151 0.017479658 0.04716731 0.022426726 0.00259521 -0.031562544 -0.058330026
-0.012209658 0.038673945 0.017538805 -0.005863467 0.011412477 0.013775388 -0.011493643 0.005403743
0.084798805 0.04306597 0.011703444 0.043323472 0.06630049 0.05053776 0.045741994 0.08714807
0.06046415 0.033535592 0.05757804 0.07986289 0.059135824 0.020818021 0.053096976 0.05717271
0.023820277 0.028220698 0.027914504 0.011299058 -0.015067459 0.008979416 0.048378196 0.015789296
0.0034377966 0.0028554352 -0.02200694 -0.013443559 -0.067844234 0.10209417 0.11724464 0.11794104
0.10344336 0.083531916 0.107585944 -0.0789192 0.07251765 0.13566184 0.1511273 0.09921986
0.030565018 0.023927703 -0.05068253 0.049834877 0.09428055 0.12372254 0.072981276 -0.010145709
-0.039037216 -0.02719228 0.018351527 0.026609115 0.04998319 0.025386455 -0.030188752 -0.047522735
-0.05040466 -0.02084968 -0.045386564 -0.026574241 -0.020580241 -0.045816097 -0.064421095 -0.09044723
-0.0388613 -0.04913164 -0.03726609 -0.048923414 -0.05145553 -0.045525085 -0.07530145 -0.0013516663
-0.022229198 0.0051209307 0.01724911 -0.0021444415 -0.00514671 -0.12541208 0.021963222 0.041052602
0.07106903 0.03759932 0.00396016 0.016704855 -0.12226925 0.0032590367 0.07922615 0.11599196

onnx::Conv_81 f4 [16]
00000000: 2b61 9f3d 9888 7bbf 7837 803e de7a 02bf
00000010: 85a3 303f 044f 543d 2834 82bc bfd0 96be
00000020: 4059 56bd a273 cabe 6d48 513e e93f 3bbe
00000030: 4cf6 803e 462b 0e3f 3a46 4ebe 84ff 3e3d
0.07782205 -0.982553 0.2504232 -0.5096873 0.6899951 0.051833168 -0.01589401 -0.29456136
-0.05233121 -0.39541346 0.20437784 -0.18286099 0.2518791 0.5553478 -0.20143977 0.046630397

onnx::Conv_83 f4 [32, 16, 3, 3]
00000000: 3109 78bc ef24 2b3d 2abf 443d f075 14bd
00000010: c4ef cdbc 059d 353c 1928 adbc f77f 18bd
00000020: 7719 c2bc 1823 dfba 3901 8b3d e1dc f23d
00000030: b51c 9dbd bdf9 90bb cd6c cc3d 4434 c4bd
00000040: 7f30 54bd 5553 ff3c 18a1 49bd c2bc e0bc
00000050: 5611 7f3c ee2e 103d 4a80 d53b 8861 d63c
00000060: e8bd 82bc 536b 01bd a61f 40bd cbf8 92bc
00000070: f4fb f43b d1ef 963d 908e f2bc 491e eebb
00000080: 7fce 2f3d 91bd 033a f6f9 b13b 2336 0e3d
00000090: 21d8 fb3c 5411 0bbc 3439 d0bc 1f64 fd3c
000000a0: b716 923b 1d0a 0dbd 09bf 023d 3040 f33c
000000b0: 2891 a63c fb91 c8bc 6850 7c3b 6d04 743c
000000c0: e2f5 ccbc 5129 54bc 8827 0a3a c461 31bc
000000d0: e332 64bc 3ce9 70bc 097c f6bc c24f 66bc
000000e0: a147 6f3b 6175 3cbd 78e1 10bd 966a a7bc
000000f0: bc9f 93bc 2582 22bd 9aae 59bb 2beb 6cbc
00000100: 47a7 b6bb 78cb 2bbd 8168 86bc 47b4 3ebc
00000110: 9df4 4ebd 07cd 9f3c a124 e93c 892d 30bc
00000120: 7547 b13c e3d1 7c3c fae6 0c3d 35bc 643c
00000130: 2885 533c 43d3 b7bc 4756 ae3c c138 0c3c
00000140: 69c3 93bc e6a6 05bd 60b4 3dbd 0655 7f3d
00000150: 19e8 a4ba b762 debc 1443 1c3b 0c17 f0bc
00000160: 9851 08bd 8bff 2fbd fff4 573c 94bb 6e3d
00000170: 2c02 e23c 03be 22bd 977d d0b9 5454 943c
00000180: 6d4b f2bc fe3a 44bc 3276 90bc e71b aa3b
00000190: 1c94 423d ae8e 113d 0bc1 0cbd 5844 5b3b
000001a0: e4e9 1c3d 009d 1cbd 6fe4 663b ea85 0b3d
000001b0: 1659 46bc e6fd f83c a85c 5c3c 8a24 56bd
000001c0: 4db5 16bc f7b2 6c3c 7099 52bd df94 adbc
000001d0: fc01 123c 531d c73c f315 263d 5541 913d
000001e0: d230 103b ba11 303c 532f 653d bbec 473c
000001f0: 6ec9 d73c ead8 943d 3cc4 a2bb 6ff6 2ebc
00000200: 4726 65bc 0e0b 93bb e883 7c3c 84cb b83c
00000210: 4338 9bbc 1063 c53b dce8 d23c d8ad 6ebc
00000220: 5176 253d 3bee 2f3d 1df2 e33c f068 f23c
00000230: 7aed 143d cc51 8f3c 001f f73c ecbb c13c
00000240: 6493 16bd 3a1b 9fbc dfad 1e3d 6f75 11bd
00000250: 1df1 b9bc 7be5 dd3c fbae ecbc 721a 59bc
00000260: 45a1 eb3c 5591 dc3b 9ce7 853c 1c08 db3c
00000270: aa06 0dbd 2398 e4bc 5019 a3bc ebe5 b4bc
00000280: 4bf2 cc3b d356 b23b 36c9 22bc 7cf1 48bc
00000290: 91aa e7ba 24d4 98bc c821 d9bc b7fb ee37
000002a0: 97ce 94bc adb3 8fbc 10a6 cd3c ed1b 863c
000002b0: 8116 d43b 2421 c93c bc7e 5fbc 3eeb d4bb
000002c0: 82b3 933c 591a a5bc 820a 803c 8f5a 453d
000002d0: e7ae d63c a7cb a23a 1aa7 27bd baa3 593b
000002e0: 9e3a 5abc 948c 24bd 2b45 17bc 216a 32bc
000002f0: 5a4a 23bd 375b edbc 9db8 c0bc 22dd 0dba
00000300: b6b3 cabc 0f73 d4bc e480 f4bb 73a9 15bc
00000310: 7bd4 c0bb f791 7e3b 91ab 0fbd 7d20 2fbd
00000320: 3616 e4bc 49fb 1fbd 630d 1abd c8ae 9ebc
00000330: ed0f 0e3d 1463 fa3b e79a cf3c 3bd5 29bd
00000340: cb4e 42bd de57 45bd 4b26 98bc d0ea a1bb
00000350: c613 533c 3326 d0bb 5bdd 1a3d 86b6 a83d
00000360: 0c2b 44bc 6c03 e93c a21d 153d 2040 4dbd
00000370: b45f d9bb fe6c c83c 84f2 35bc ba9c b33c
00000380: 5fda 3f3d 014d 1cbd 7cba 4cbd b951 cdbc
00000390: ae88 1abd b364 d3bc 84d1 bebc d097 a4bc
000003a0: 89ca 353c 2e2a b33c 55b7 3b3c d1d8 f7bc
000003b0: eedc afbc 6380 edbc d6b1 51bd 1205 86bc
000003c0: ecc2 3dbd f82b 2dbd 40e2 15bd 40a9 263d
000003d0: c116 af3c 04b7 1fbd 8bd6 f23a 81e2 233c
000003e0: 3c6a 06bd 1dcd 6ebc 8326 803c 2a6b 973b
000003f0: df5b 093d cba5 f3b9 a459 70bc d380 c73b
-0.01513891 0.04178327 0.04803387 -0.036245286 -0.025138743 0.0110848 -0.021137284 -0.03723141
-0.023693783 -0.0017024009 0.067873426 0.118585356 -0.07671491 -0.0044243024 0.099816896 -0.095802814
-0.051804062 0.031167665 -0.049225897 -0.027433757 0.015568098 0.035201006 0.0065155374 0.026169553
-0.015959695 -0.031596493 -0.046905182 -0.0179409 0.007476324 0.0736996 -0.029608995 -0.007266794
0.04292154 0.0005025501 0.005431409 0.034719598 0.030742707 -0.008488018 -0.025417902 0.03093153
0.004458274 -0.034433473 0.031920467 0.029693693 0.020332888 -0.024483671 0.0038500074 0.014893633
-0.02501959 -0.012949304 0.0005270173 -0.010826532 -0.013928148 -0.014704045 -0.030088441 -0.014057102
0.00365112 -0.04601038 -0.035371274 -0.020436566 -0.018020503 -0.039674897 -0.0033215643 -0.014460365
-0.00557414 -0.04194209 -0.016407253 -0.011639661 -0.05052625 0.019506944 0.028459849 -0.010753044
0.021640519 0.0154309 0.034399964 0.013960888 0.012910165 -0.022439605 0.021281375 0.008558453
-0.018037515 -0.03262987 -0.046314597 0.062336944 -0.0012581378 -0.02714668 0.0023843693 -0.029307865
-0.03328094 -0.042968314 0.01318097 0.058284357 0.027588926 -0.03973199 -0.00039766423 0.018106617
-0.029576981 -0.011976955 -0.017634485 0.0051913145 0.04750453 0.03553646 -0.034363788 0.0033457484
0.038308993 -0.038235664 0.0035231372 0.034063257 -0.012106201 0.030394506 0.013449825 -0.05228094
-0.009198499 0.014446965 -0.05141586 -0.021189151 0.008911606 0.024305975 0.040548276 0.07092539
0.0022001755 0.010746414 0.055953335 0.012202437 0.026341166 0.072679356 -0.0049672406 -0.010678872
-0.013986177 -0.004487402 0.015412308 0.022557981 -0.018947726 0.006023772 0.025745802 -0.014567815
0.04039604 0.042951804 0.02782541 0.029591054 0.036359288 0.017495058 0.03016615 0.023649178
-0.036761656 -0.019422162 0.038740035 -0.035512384 -0.02269798 0.027086964 -0.028892031 -0.013250934
0.028763423 0.006731192 0.016345792 0.026737265 -0.034430183 -0.027904576 -0.01990953 -0.02208229
0.0062544695 0.005442479 -0.009935668 -0.012264606 -0.0017674734 -0.018655844 -0.026505366 2.8489025e-05
-0.018164916 -0.01754173 0.025103599 0.016370738 0.0064724092 0.024551935 -0.013641056 -0.0064977696
0.018029932 -0.020154165 0.01563001 0.048182067 0.026206447 0.0012420312 -0.040930845 0.003320916
-0.0133196395 -0.04017313 -0.0092327995 -0.010889561 -0.03986583 -0.028974159 -0.02352553 -0.00054116745
-0.024743896 -0.02593377 -0.007461654 -0.009134638 -0.0058847046 0.0038844326 -0.035075728 -0.042755593
-0.027842622 -0.039058004 -0.037610423 -0.019370452 0.034683157 0.0076412056 0.025342418 -0.041463118
-0.047438424 -0.0481795 -0.018572947 -0.004941322 0.012883132 -0.00635221 0.037808757 0.082379386
-0.011973154 0.028444014 0.036405213 -0.050109982 -0.006633723 0.024466034 -0.0111051835 0.021925319
0.046839114 -0.038159374 -0.049982533 -0.025063382 -0.037728004 -0.025804853 -0.023293264 -0.020091921
0.011095651 0.021870699 0.011457284 -0.030254753 -0.021467652 -0.028991884 -0.05119499 -0.01635984
-0.04632847 -0.04227826 -0.036592722 0.040688753 0.021373155 -0.038992897 0.0018527074 0.010002733
-0.032816157 -0.01457527 0.015643364 0.0046209292 0.03353488 -0.00046472097 -0.0146698095 0.006088355

onnx::Conv_84 f4 [32]
00000000: f1ab 70be 8408 c03c 2809 0080 a61c 0080
00000010: 60fb f03d 47a6 923e cd04 0080 e619 0080
00000020: 1eea c43e 4d72 ce3d a01c 7fbe ca28 a3be
00000030: fe64 1e3e b802 0080 4512 0080 1610 693e
00000040: d902 0080 6a19 0080 4402 0080 d903 0080
00000050: 6cc4 d0bd 44a8 663e ee1e 0080 1278 4cbd
00000060: c420 0080 6517 0080 c90c 0080 a118 0080
00000070: 974b 97bd 1e64 2cbe 541a 0080 a738 27be
-0.2350309 0.02344156 -3.285e-42 -1.0277e-41 0.11766696 0.28642485 -1.722e-42 -9.29e-42
0.38459867 0.10080395 -0.24913263 -0.31867057 0.15468213 -9.75e-43 -6.554e-42 0.22760043
-1.022e-42 -9.117e-42 -8.13e-43 -1.38e-42 -0.101937145 0.22525126 -1.1095e-41 -0.049919195
-1.1754e-41 -8.392e-42 -4.586e-42 -8.835e-42 -0.073874645 -0.16835067 -9.445e-42 -0.16330205

onnx::Conv_86 f4 [32, 32, 3, 3]
00000000: 0000 0080 0000 0000 0000 0080 0000 0000
00000010: 0000 0000 0000 0080 0000 0080 0000 0080
00000020: 0000 0000 0000 0000 0000 0000 0000 0080
00000030: 0000 0000 0000 0000 0000 0000 0000 0000
00000040: 0000 0080 0000 0080 0000 0080 0000 0000
00000050: 0000 0000 0000 0000 0000 0000 0000 0080
00000060: 0000 0000 0000 0080 0000 0000 0000 0080
00000070: 0000 0000 0000 0000 0000 0000 0000 0000
00000080: 0000 0080 0000 0080 0000 0000 0000 0000
00000090: 0000 0080 0000 0080 0000 0000 0000 0080
000000a0: 0000 0080 0000 0000 0000 0000 0000 0000
000000b0: 0000 0080 0000 0080 0000 0080 0000 0080
000000c0: 0000 0000 0000 0080 0000 0000 0000 0000
000000d0: 0000 0000 0000 0080 0000 0000 0000 0080
000000e0: 0000 0080 0000 0000 0000 0000 0000 0080
000000f0: 0000 0000 0000 0080 0000 0000 0000 0000
00000100: 0000 0000 0000 0080 0000 0080 0000 0000
00000110: 0000 0000 0000 0000 0000 0000 0000 0000
00000120: 0000 0000 0000 0000 0000 0080 0000 0000
00000130: 0000 0000 0000 0000 0000 0000 0000 0080
00000140: 0000 0000 0000 0080 0000 0000 0000 0080
00000150: 0000 0000 0000 0000 0000 0000 0000 0000
00000160: 0000 0000 0000 0080 0000 0000 0000 0080
00000170: 0000 0000 0000 0080 0000 0000 0000 0080
00000180: 0000 0000 0000 0080 0000 0080 0000 0000
00000190: 0000 0000 0000 0000 0000 0000 0000 0000
000001a0: 0000 0000 0000 0080 0000 0080 0000 0000
000001b0: 0000 0080 0000 0000 0000 0080 0000 0080
000001c0: 0000 0080 0000 0080 0000 0080 0000 0080
000001d0: 0000 0080 0000 0000 0000 0080 0000 0000
000001e0: 0000 0080 0000 0080 0000 0080 0000 0000
000001f0: 0000 0080 0000 0000 0000 0080 0000 0000
00000200: 0000 0080 0000 0000 0000 0000 0000 0000
00000210: 0000 0080 0000 0000 0000 0080 0000 0000
00000220: 0000 0000 0000 0000 0000 0000 0000 0000
00000230: 0000 0080 0000 0000 0000 0080 0000 0080
00000240: 0000 0000 0000 0080 0000 0080 0000 0080
00000250: 0000 0080 0000 0000 0000 0080 0000 0000
00000260: 0000 0000 0000 0080 0000 0080 0000 0000
00000270: 0000 0080 0000 0000 0000 0000 0000 0080
00000280: 0000 0000 0000 0080 0000 0000 0000 0080
00000290: 0000 0000 0000 0080 0000 0080 0000 0080
000002a0: 0000 0080 0000 0000 0000 0080 0000 0080
000002b0: 0000 0080 0000 0000 0000 0000 0000 0000
000002c0: 0000 0000 0000 0000 0000 0000 0000 0000
000002d0: 0000 0000 0000 0080 0000 0000 0000 0080
000002e0: 0000 0080 0000 0080 0000 0000 0000 0000
000002f0: 0000 0080 0000 0080 0000 0000 0000 0000
00000300: 0000 0080 0000 0000 0000 0000 0000 0000
00000310: 0000 0000 0000 0080 0000 0000 0000 0000
00000320: 0000 0080 0000 0000 0000 0000 0000 0000
00000330: 0000 0000 0000 0080 0000 0080 0000 0000
00000340: 0000 0080 0000 0000 0000 0080 0000 0000
00000350: 0000 0080 0000 0080 0000 0080 0000 0080
00000360: 0000 0000 0000 0080 0000 0000 0000 0080
00000370: 0000 0080 0000 0000 0000 0000 0000 0000
00000380: 0000 0000 0000 0080 0000 0080 0000 0080
00000390: 0000 0080 0000 0000 0000 0000 0000 0080
000003a0: 0000 0080 0000 0000 0000 0000 0000 0000
000003b0: 0000 0000 0000 0000 0000 0000 0000 0080
000003c0: 0000 0080 0000 0000 0000 0080 0000 0080
000003d0: 0000 0080 0000 0000 0000 0000 0000 0080
000003e0: 0000 0000 0000 0000 0000 0000 0000 0000
000003f0: 0000 0000 0000 0080 0000 0080 0000 0000
-0.0 0.0 -0.0 0.0 0.0 -0.0 -0.0 -0.0
0.0 0.0 0.0 -0.0 0.0 0.0 0.0 0.0
-0.0 -0.0 -0.0 0.0 0.0 0.0 0.0 -0.0
0.0 -0.0 0.0 -0.0 0.0 0.0 0.0 0.0
-0.0 -0.0 0.0 0.0 -0.0 -0.0 0.0 -0.0
-0.0 0.0 0.0 0.0 -0.0 -0.0 -0.0 -0.0
0.0 -0.0 0.0 0.0 0.0 -0.0 0.0 -0.0
-0.0 0.0 0.0 -0.0 0.0 -0.0 0.0 0.0
0.0 -0.0 -0.0 0.0 0.0 0.0 0.0 0.0
0.0 0.0 -0.0 0.0 0.0 0.0 0.0 -0.0
0.0 -0.0 0.0 -0.0 0.0 0.0 0.0 0.0
0.0 -0.0 0.0 -0.0 0.0 -0.0 0.0 -0.0
0.0 -0.0 -0.0 0.0 0.0 0.0 0.0 0.0
0.0 -0.0 -0.0 0.0 -0.0 0.0 -0.0 -0.0
-0.0 -0.0 -0.0 -0.0 -0.0 0.0 -0.0 0.0
-0.0 -0.0 -0.0 0.0 -0.0 0.0 -0.0 0.0
-0.0 0.0 0.0 0.0 -0.0 0.0 -0.0 0.0
0.0 0.0 0.0 0.0 -0.0 0.0 -0.0 -0.0
0.0 -0.0 -0.0 -0.0 -0.0 0.0 -0.0 0.0
0.0 -0.0 -0.0 0.0 -0.0 0.0 0.0 -0.0
0.0 -0.0 0.0 -0.0 0.0 -0.0 -0.0 -0.0
-0.0 0.0 -0.0 -0.0 -0.0 0.0 0.0 0.0
0.0 0.0 0.0 0.0 0.0 -0.0 0.0 -0.0
-0.0 -0.0 0.0 0.0 -0.0 -0.0 0.0 0.0
-0.0 0.0 0.0 0.0 0.0 -0.0 0.0 0.0
-0.0 0.0 0.0 0.0 0.0 -0.0 -0.0 0.0
-0.0 0.0 -0.0 0.0 -0.0 -0.0 -0.0 -0.0
0.0 -0.0 0.0 -0.0 -0.0 0.0 0.0 0.0
0.0 -0.0 -0.0 -0.0 -0.0 0.0 0.0 -0.0
-0.0 0.0 0.0 0.0 0.0 0.0 0.0 -0.0
-0.0 0.0 -0.0 -0.0 -0.0 0.0 0.0 -0.0
0.0 0.0 0.0 0.0 0.0 -0.0 -0.0 0.0

onnx::Conv_87 f4 [32]
00000000: 9f16 0080 c6ac 43be 64c3 263d 4a2e af3c
00000010: cb65 913e f30c a1bd 2deb c4bd ccc4 bc3a
00000020: d61f 0080 4462 66bc 101d 0080 e50e 0080
00000030: bf19 10be 5d13 333e cd0d 0080 4a0a 0080
00000040: cf0c 0080 0301 0080 0e3b 6bbe 6093 533e
00000050: a715 0080 76aa f03d ff22 0080 08e7 ad3e
00000060: f0f1 46bc a843 073f e276 e7bc 8d19 1dbd
00000070: 201e b63d ba1f 0080 af6b 7f3c 4707 0080
-8.115e-42 -0.19108877 0.040713683 0.021384377 0.28397974 -0.07863798 -0.09615169 0.0014401912
-1.142e-41 -0.014061514 -1.0426e-41 -5.343e-42 -0.14072321 0.17487855 -4.951e-42 -3.691e-42
-4.595e-42 -3.63e-43 -0.22971746 0.20661688 -7.767e-42 0.11751263 -1.2554e-41 0.33965325
-0.012142643 0.5283761 -0.02825493 -0.038354445 0.08892465 -1.1381e-41 0.015589639 -2.61e-42

onnx::Conv_89 f4 [32, 16, 1, 1]
00000000: 0000 0000 0000 0080 0000 0000 0000 0000
00000010: 0000 0000 0000 0000 0000 0080 0000 0080
00000020: 0000 0080 0000 0080 0000 0080 0000 0080
00000030: 0000 0000 0000 0080 0000 0000 0000 0080
00000040: 6a92 02be 6720 69bd 8453 123e cd31 1a3d
00000050: 5d92 333d 2509 a63d 9355 a73e d471 0abe
00000060: 7ab2 b73c 281a d43d 2ca2 ec3d 1247 873d
00000070: c1e5 05be abb8 e43d 9cd5 ccbd 2069 e1bb
00000080: d19a 8ebd 966b acbd f940 1fbd e499 b2bd
00000090: d18a 30bd 9fe4 05bd c6a2 1d3e 0543 64be
000000a0: 341f 92be 05d1 21be 6392 b6be 4814 923c
000000b0: 3d0a 95bd c70f 41be 90c8 8dbe 1ab6 a4bd
000000c0: ebc3 5a3d a79a 393d ec5c bc3c 5531 a83d
000000d0: 0ff1 d4bd dc71 3fbd 1afd a9bd b2ba 973d
000000e0: 7776 333d 6c61 a5bc 9f47 323e 6a18 e23d
000000f0: 5083 533c 2a1e 26be 6cd4 353d 16ba c3bd
00000100: e48d 6dbe 952d ac3e da2f 8abe 030b 823e
00000110: d8d1 1e3e b2a5 8fbc 055b 93bd 25af d53e
00000120: 7821 7d3d f0b0 45be 6160 b0bd a675 e53e
00000130: 0503 c43d bec7 003c f8f1 42be 9520 6f3d
00000140: c9d4 9e3e 55b0 bbbe ac22 43be 4282 2a3e
00000150: a822 72bc 4c50 f53d a095 26be 4a15 bf3c
00000160: 7e64 6cbe b0f5 0a3f b214 3abd 0378 db3e
00000170: ba56 f9bd 47dc 9d3e 9ca5 22bc 2b25 85b7
00000180: c84e b7bd c0cc ed3d 6603 363d 1837 213c
00000190: 0f5e aebc 18d1 083c a701 023e ac5e 5b3d
000001a0: 61f0 05bd 60ed 853d e420 0d3d eec8 bb3d
000001b0: 83be 933d 91f6 00bd cb0e 063d 049c 6bbd
000001c0: d63f 85af 9dce 89ac 3673 052f 0aba 01af
000001d0: f43b ffae 3f77 89af 1751 a6af 8662 25b0
000001e0: f35c 9faf a25f 4130 f1ca c2af 7bdf 7d2f
000001f0: ad95 f72f 4277 0ab0 67c0 9c2e 7618 0aaf
00000200: 0000 0080 0000 0080 0000 0080 0000 0080
00000210: 0000 0080 0000 0000 0000 0080 0000 0080
00000220: 0000 0080 0000 0000 0000 0080 0000 0000
00000230: 0000 0000 0000 0080 0000 0080 0000 0080
00000240: 355e 843c 88ec 3a3e 7894 313d 3c6c 3cbd
00000250: ac04 3b3c 845b c4bc 292c 803d b13c d2bd
00000260: cb9b 02bc 4124 a8bc de8f 31be 50bf dc3d
00000270: eab6 f8bd 41d4 713d bef5 42bb c117 adbd
00000280: 0000 0080 0000 0080 0000 0000 0000 0080
00000290: 0000 0000 0000 0080 0000 0000 0000 0080
000002a0: 0000 0000 0000 0000 0000 0000 0000 0080
000002b0: 0000 0080 0000 0000 0000 0080 0000 0000
000002c0: 0000 0000 0000 0080 0000 0080 0000 0000
000002d0: 0000 0080 0000 0000 0000 0080 0000 0000
000002e0: 0000 0080 0000 0080 0000 0000 0000 0000
000002f0: 0000 0000 0000 0000 0000 0080 0000 0000
00000300: 8313 d13d c2df 94bd 5c85 b03d 238a cdbd
00000310: c047 d3bd 4d2a 6dbc fd59 24bd 5cf1 05bd
00000320: b261 e23d 2e28 303e 58bd 3b3e 334a c23d
00000330: a26f c73c 1774 ccbd ed8f 5f3d a5fb 95bd
00000340: 6837 c9bd 0e18 3d3e 5dce 8cbd 89e5 dc3d
00000350: 4877 c8bd 88bd f73d 2540 eb3d f030 373e
00000360: a373 a23c 176d 92bb 4e35 92bc 1bb7 f63d
00000370: 9fdd f33d f0ed 24bc c724 463d 089f 30be
00000380: 0000 0000 0000 0000 0000 0000 0000 0000
00000390: 0000 0000 0000 0080 0000 0000 0000 0080
000003a0: 0000 0000 0000 0000 0000 0000 0000 0080
000003b0: 0000 0000 0000 0000 0000 0000 0000 0080
000003c0: 0000 0000 0000 0080 0000 0000 0000 0000
000003d0: 0000 0080 0000 0000 0000 0000 0000 0000
000003e0: 0000 0080 0000 0000 0000 0080 0000 0000
000003f0: 0000 0080 0000 0080 0000 0000 0000 0080
0.0 -0.0 0.0 0.0 0.0 0.0 -0.0 -0.0
-0.0 -0.0 -0.0 -0.0 0.0 -0.0 0.0 -0.0
-0.12751165 -0.056915667 0.14289671 0.03764515 0.043840755 0.08107213 0.32682475 -0.13519984
0.022423971 0.103565514 0.11554369 0.066053525 -0.13075925 0.11168035 -0.1000168 -0.006878987
-0.06963123 -0.08418958 -0.038880322 -0.087207586 -0.043101136 -0.032688733 0.15394124 -0.22291191
-0.2853943 -0.15802391 -0.3565856 0.017831936 -0.072773434 -0.18853675 -0.2769208 -0.080425456
0.0534095 0.045313504 0.022993527 0.08212534 -0.10397541 -0.046739444 -0.083002284 0.07408656
0.04381415 -0.020188056 0.17410134 0.11039813 0.012909725 -0.16222444 0.044392034 -0.095569775
-0.23198658 0.33628526 -0.26989633 0.25399026 0.15509737 -0.017535064 -0.07195095 0.41735187
0.061799496 -0.19305778 -0.08612133 0.4481632 0.095708884 0.007860122 -0.19037616 0.058380682
0.31021717 -0.36657968 -0.19056195 0.16651252 -0.0147787705 0.11978206 -0.16268015 0.023325581
-0.2308521 0.5428114 -0.045429893 0.42865 -0.12174745 0.3083212 -0.00992718 -1.5872143e-05
-0.08950573 0.116113186 0.044436835 0.0098397955 -0.021285085 0.008350633 0.12695943 0.053557083
-0.032699946 0.06539416 0.034455195 0.09169184 0.072140716 -0.031485144 0.03272895 -0.057521835
-2.4237917e-10 -3.916713e-12 1.213721e-10 -1.1798576e-10 -1.1606707e-10 -2.5004884e-10 -3.0252842e-10 -6.016666e-10
-2.8987976e-10 7.0348893e-10 -3.5432593e-10 2.3089612e-10 4.503539e-10 -5.0373583e-10 7.128236e-11 -1.2559717e-10
-0.0 -0.0 -0.0 -0.0 -0.0 0.0 -0.0 -0.0
-0.0 0.0 -0.0 0.0 0.0 -0.0 -0.0 -0.0
0.016158203 0.18254292 0.04335448 -0.046001658 0.011414688 -0.02396942 0.06258423 -0.10265482
-0.007971714 -0.0205251 -0.17340037 0.107786775 -0.12144263 0.05904031 -0.0029748525 -0.08451796
-0.0 -0.0 0.0 -0.0 0.0 -0.0 0.0 -0.0
0.0 0.0 0.0 -0.0 -0.0 0.0 -0.0 0.0
0.0 -0.0 -0.0 0.0 -0.0 0.0 -0.0 0.0
-0.0 -0.0 0.0 0.0 0.0 0.0 -0.0 0.0
0.102088 -0.07269241 0.08619186 -0.10036113 -0.103164196 -0.014475417 -0.040124882 -0.03270088
0.1105379 0.17202827 0.18333948 0.09486809 0.024345223 -0.0998308 0.054580618 -0.07323388
-0.09825021 0.18466207 -0.06875298 0.10785968 -0.09788376 0.12096697 0.11486844 0.17889762
0.01983053 -0.004468571 -0.017847683 0.12046643 0.11907505 -0.010066494 0.048374917 -0.17248166
0.0 0.0 0.0 0.0 0.0 -0.0 0.0 -0.0
0.0 0.0 0.0 -0.0 0.0 0.0 0.0 -0.0
0.0 -0.0 0.0 0.0 -0.0 0.0 0.0 0.0
-0.0 0.0 -0.0 0.0 -0.0 -0.0 0.0 -0.0

onnx::Conv_90 f4 [32]
00000000: 9f16 0080 2838 79be ec0b 013f b0e8 a1bd
00000010: 30b0 6dbe d6a2 68be 9f66 37be cfc4 bc3a
00000020: d61f 0080 aaa6 863c 101d 0080 e50e 0080
00000030: 3885 46be 03d5 fbbd cd0d 0080 4a0a 0080
00000040: cf0c 0080 0301 0080 671b 453e caf3 c2be
00000050: a715 0080 80af a13b ff22 0080 444d b3bc
00000060: ba25 43bb 6d73 13bc aa96 73be f8ed 823e
00000070: dda8 eabc ba1f 0080 7fc8 9dbd 4707 0080
-8.115e-42 -0.24337828 0.50408816 -0.0790571 -0.23211741 -0.22718367 -0.1791024 0.0014401915
-1.142e-41 0.016436893 -1.0426e-41 -5.343e-42 -0.19386756 -0.12296488 -4.951e-42 -3.691e-42
-4.595e-42 -3.63e-43 0.19248734 -0.3807662 -7.767e-42 0.0049342513 -1.2554e-41 -0.021887429
-0.0029777125 -0.008999688 -0.23787943 0.2557218 -0.028644973 -1.1381e-41 -0.07704257 -2.61e-42

onnx::Conv_92 f4 [64, 32, 3, 3]
00000000: 0000 0000 0000 0080 0000 0080 0000 0000
00000010: 0000 0000 0000 0080 0000 0080 0000 0000
00000020: 0000 0080 0000 0000 0000 0000 0000 0080
00000030: 0000 0000 0000 0080 0000 0080 0000 0080
00000040: 0000 0000 0000 0000 0000 0080 0000 0080
00000050: 0000 0080 0000 0080 0000 0080 0000 0080
00000060: 0000 0000 0000 0000 0000 0000 0000 0080
00000070: 0000 0000 0000 0080 0000 0000 0000 0080
00000080: 0000 0000 0000 0080 0000 0080 0000 0000
00000090: 0000 0080 0000 0000 0000 0000 0000 0000
000000a0: 0000 0080 0000 0080 0000 0080 0000 0000
000000b0: 0000 0080 0000 0080 0000 0080 0000 0080
000000c0: 0000 0080 0000 0080 0000 0080 0000 0080
000000d0: 0000 0000 0000 0080 0000 0000 0000 0000
000000e0: 0000 0080 0000 0080 0000 0000 0000 0000
000000f0: 0000 0000 0000 0080 0000 0000 0000 0000
00000100: 0000 0080 0000 0080 0000 0000 0000 0080
00000110: 0000 0080 0000 0000 0000 0000 0000 0080
00000120: 0000 0000 0000 0000 0000 0000 0000 0000
00000130: 0000 0080 0000 0000 0000 0000 0000 0080
00000140: 0000 0000 0000 0080 0000 0080 0000 0080
00000150: 0000 0000 0000 0080 0000 0080 0000 0000
00000160: 0000 0000 0000 0080 0000 0080 0000 0080
00000170: 0000 0080 0000 0000 0000 0080 0000 0080
00000180: 0000 0000 0000 0000 0000 0080 0000 0000
00000190: 0000 0000 0000 0080 0000 0080 0000 0000
000001a0: 0000 0080 0000 0080 0000 0080 0000 0080
000001b0: 0000 0080 0000 0000 0000 0080 0000 0000
000001c0: 0000 0000 0000 0080 0000 0080 0000 0000
000001d0: 0000 0000 0000 0000 0000 0000 0000 0000
000001e0: 0000 0000 0000 0000 0000 0000 0000 0000
000001f0: 0000 0000 0000 0080 0000 0000 0000 0080
00000200: 0000 0000 0000 0000 0000 0000 0000 0000
00000210: 0000 0000 0000 0000 0000 0000 0000 0080
00000220: 0000 0080 0000 0000 0000 0000 0000 0080
00000230: 0000 0000 0000 0080 0000 0080 0000 0000
00000240: 0000 0000 0000 0080 0000 0000 0000 0080
00000250: 0000 0080 0000 0000 0000 0000 0000 0000
00000260: 0000 0080 0000 0080 0000 0080 0000 0000
00000270: 0000 0080 0000 0000 0000 0080 0000 0080
00000280: 0000 0000 0000 0000 0000 0000 0000 0000
00000290: 0000 0000 0000 0080 0000 0000 0000 0000
000002a0: 0000 0000 0000 0000 0000 0080 0000 0080
000002b0: 0000 0080 0000 0000 0000 0080 0000 0000
000002c0: 0000 0080 0000 0080 0000 0000 0000 0000
000002d0: 0000 0080 0000 0000 0000 0000 0000 0080
000002e0: 0000 0000 0000 0080 0000 0080 0000 0080
000002f0: 0000 0000 0000 0000 0000 0000 0000 0080
00000300: 0000 0000 0000 0080 0000 0080 0000 0080
00000310: 0000 0080 0000 0000 0000 0000 0000 0000
00000320: 0000 0080 0000 0080 0000 0000 0000 0000
00000330: 0000 0080 0000 0080 0000 0000 0000 0000
00000340: 0000 0080 0000 0000 0000 0000 0000 0080
00000350: 0000 0080 0000 0080 0000 0080 0000 0000
00000360: 0000 0080 0000 0080 0000 0000 0000 0000
00000370: 0000 0080 0000 0000 0000 0080 0000 0000
00000380: 0000 0080 0000 0080 0000 0080 0000 0000
00000390: 0000 0080 0000 0080 0000 0080 0000 0000
000003a0: 0000 0000 0000 0080 0000 0080 0000 0080
000003b0: 0000 0000 0000 0080 0000 0000 0000 0080
000003c0: 0000 0000 0000 0080 0000 0000 0000 0080
000003d0: 0000 0000 0000 0000 0000 0080 0000 0080
000003e0: 0000 0000 0000 0080 0000 0080 0000 0000
000003f0: 0000 0000 0000 0080 0000 0000 0000 0080
0.0 -0.0 -0.0 0.0 0.0 -0.0 -0.0 0.0
-0.0 0.0 0.0 -0.0 0.0 -0.0 -0.0 -0.0
0.0 0.0 -0.0 -0.0 -0.0 -0.0 -0.0 -0.0
0.0 0.0 0.0 -0.0 0.0 -0.0 0.0 -0.0
0.0 -0.0 -0.0 0.0 -0.0 0.0 0.0 0.0
-0.0 -0.0 -0.0 0.0 -0.0 -0.0 -0.0 -0.0
-0.0 -0.0 -0.0 -0.0 0.0 -0.0 0.0 0.0
-0.0 -0.0 0.0 0.0 0.0 -0.0 0.0 0.0
-0.0 -0.0 0.0 -0.0 -0.0 0.0 0.0 -0.0
0.0 0.0 0.0 0.0 -0.0 0.0 0.0 -0.0
0.0 -0.0 -0.0 -0.0 0.0 -0.0 -0.0 0.0
0.0 -0.0 -0.0 -0.0 -0.0 0.0 -0.0 -0.0
0.0 0.0 -0.0 0.0 0.0 -0.0 -0.0 0.0
-0.0 -0.0 -0.0 -0.0 -0.0 0.0 -0.0 0.0
0.0 -0.0 -0.0 0.0 0.0 0.0 0.0 0.0
0.0 0.0 0.0 0.0 0.0 -0.0 0.0 -0.0
0.0 0.0 0.0 0.0 0.0 0.0 0.0 -0.0
-0.0 0.0 0.0 -0.0 0.0 -0.0 -0.0 0.0
0.0 -0.0 0.0 -0.0 -0.0 0.0 0.0 0.0
-0.0 -0.0 -0.0 0.0 -0.0 0.0 -0.0 -0.0
0.0 0.0 0.0 0.0 0.0 -0.0 0.0 0.0
0.0 0.0 -0.0 -0.0 -0.0 0.0 -0.0 0.0
-0.0 -0.0 0.0 0.0 -0.0 0.0 0.0 -0.0
0.0 -0.0 -0.0 -0.0 0.0 0.0 0.0 -0.0
0.0 -0.0 -0.0 -0.0 -0.0 0.0 0.0 0.0
-0.0 -0.0 0.0 0.0 -0.0 -0.0 0.0 0.0
-0.0 0.0 0.0 -0.0 -0.0 -0.0 -0.0 0.0
-0.0 -0.0 0.0 0.0 -0.0 0.0 -0.0 0.0
-0.0 -0.0 -0.0 0.0 -0.0 -0.0 -0.0 0.0
0.0 -0.0 -0.0 -0.0 0.0 -0.0 0.0 -0.0
0.0 -0.0 0.0 -0.0 0.0 0.0 -0.0 -0.0
0.0 -0.0 -0.0 0.0 0.0 -0.0 0.0 -0.0

onnx::Conv_93 f4 [64]
00000000: c810 0080 be1d 0080 6c3a d33b 3c26 0080
00000010: 7821 0080 2723 0080 544a 0000 5e1d 0080
00000020: a578 e7bd 6217 213a 4c1d 0080 540e 0080
00000030: 7608 0080 e26b 723d 450e 0080 fd16 0080
00000040: 0a2f 0000 4b21 0080 5d1f 0080 8a0e 0080
00000050: 7705 0080 50ea e0bd ca21 0000 e811 0080
00000060: 7f4f 0000 6b88 e43a 8832 9dbd f8c8 2939
00000070: 4a39 d5bd 7820 0000 3115 0080 1914 0080
00000080: ad57 0000 0c27 0000 9361 0080 de64 cb38
00000090: 6257 0000 7f4f 0000 3210 0080 1f19 0080
000000a0: 8055 aeb9 8762 0080 da11 0080 e592 92bc
000000b0: 3e5b 0080 f810 0080 7e7c d73c 4603 0080
000000c0: 1ec1 8c3b ffd1 23be d850 0000 a205 0080
000000d0: 2210 0080 c20a 0080 2456 0000 2223 0080
000000e0: 2223 0080 8d4f 32be ce13 ce39 2f11 0080
000000f0: d20b 0080 5f0f 0080 3210 0080 4452 0000
-6.02e-42 -1.067e-41 0.0064461734 -1.3716e-41 -1.2006e-41 -1.261e-41 2.6664e-41 -1.0535e-41
-0.11302308 0.0006145147 -1.051e-41 -5.14e-42 -3.035e-42 0.059184916 -5.119e-42 -8.247e-42
1.6874e-41 -1.1943e-41 -1.1251e-41 -5.216e-42 -1.96e-42 -0.109821916 1.2121e-41 -6.424e-42
2.8518e-41 0.0017435675 -0.07675654 0.00016191963 -0.10411318 1.1648e-41 -7.602e-42 -7.21e-42
3.1452e-41 1.4007e-41 -3.5003e-41 9.698582e-05 3.1347e-41 2.8518e-41 -5.81e-42 -9.012e-42
-0.0003325157 -3.5345e-41 -6.404e-42 -0.01789231 -3.2732e-41 -6.087e-42 0.02630448 -1.174e-42
0.0042954823 -0.15998076 2.9001e-41 -2.02e-42 -5.787e-42 -3.859e-42 3.0901e-41 -1.2603e-41
-1.2603e-41 -0.17413159 0.00039306137 -6.164e-42 -4.24e-42 -5.514e-42 -5.81e-42 2.9511e-41

onnx::Conv_95 f4 [64, 64, 3, 3]
00000000: 615c 0200 db59 0200 e825 0200 2afa 0100
00000010: 3b34 0000 8d46 0100 0424 0200 8c66 0200
00000020: a406 0200 5561 0180 4786 0180 53c0 0180
00000030: f556 0180 7b02 0180 290d 0280 f8ab 0080
00000040: 21e0 0080 5eb1 0080 2ea9 153c 588f 553c
00000050: a786 d43c 8dc3 d5bb cf23 83bb 5866 633c
00000060: 95d4 babb 3b76 d8bb 47d3 713c c774 0200
00000070: e036 0200 2cf8 0000 1e6e 0200 fc30 0200
00000080: 8c53 0200 2c2d 0100 9ae1 0000 bf34 0100
00000090: dafd 0000 6b51 0100 f20b 0100 b9f1 0000
000000a0: 37f2 0000 58fe 0000 63e5 0000 b2b6 0000
000000b0: 24d4 0000 e5af 0000 d402 0100 b7c4 0000
000000c0: 0f1a 0200 79a0 0000 2c6c 0000 43d5 0000
000000d0: d585 0000 e4d5 0000 190f 0180 c202 0180
000000e0: 3590 0080 18e7 0180 87ea 0180 916b 0180
000000f0: c2e0 0080 08fc 0080 87bf 0080 8624 0080
00000100: b921 0080 c903 0080 7012 0000 c183 0180
00000110: 3136 0000 d358 0000 873c 0100 5c58 0100
00000120: 3a23 1b3d 11c8 473d 9bef 4b3d 9682 c93d
00000130: d84c 073e e6f9 d43d 1b5d 8b3e 06a0 913e
00000140: 653c 993e fdc3 ed39 4800 353a 4228 893a
00000150: 485a 18b9 4191 ce33 9096 3839 49e9 123a
00000160: dd5d 2d3a 4f98 773a 6e67 0100 1f96 0100
00000170: 26af 0100 7865 0100 4470 0100 4e09 0200
00000180: 77b7 0000 50e9 0000 e4c6 0000 e154 0200
00000190: 2670 0200 d51a 0200 9219 0200 1d1c 0080
000001a0: c845 0100 7afc 0100 b92f 0200 d734 0200
000001b0: 0c39 0200 3c51 0200 9359 0200 cc60 0200
000001c0: 4205 0000 a407 0000 665b 0200 986b 0200
000001d0: c870 0200 0ed8 983e 37d8 953e be96 b53e
000001e0: f377 123e daf0 723d 4eff 0a3e 6f83 0cbe
000001f0: 7aa5 f0bd 41b3 bcbd 7068 0200 7567 0200
00000200: f82d 0200 6907 0200 16e6 0080 ad56 0100
00000210: 383b 0200 3375 0200 f018 0200 6ae1 0100
00000220: 5c9c 0100 d4ab 0000 ddd8 0100 f26c 0080
00000230: cf16 0100 9648 0100 093c 0100 b754 0100
00000240: b527 0180 5e3d 0180 bcc3 0080 fcd9 0180
00000250: d2de 0180 f968 0180 da54 0180 1282 0180
00000260: ec1f 0180 ce62 0180 5c23 0180 9060 0180
00000270: e536 0000 d441 0000 e72e 0080 e11f 0280
00000280: dbe0 0180 dc11 0280 c241 0000 e523 0080
00000290: 5a35 0000 cb0e 0000 4835 0000 cbb2 0180
000002a0: 832f 0280 87c8 0180 7826 0280 c621 0200
000002b0: 9a50 0200 29b6 0100 f009 0200 7d39 0000
000002c0: f636 0000 a428 0200 337b 0100 775f 0200
000002d0: 96e7 0100 4cfe 0100 5efe 0100 085c 0200
000002e0: c7c2 0180 29d8 0100 894c 0200 1646 0200
000002f0: d25b 0200 8f8a 2a3e 2c62 373e 2ba8 2c3e
00000300: dca1 4d3d e9be 89bc 11a7 0dbc 7d4b c6bb
00000310: 378e ce3b 0d4a e3bc 6179 0180 9b21 0180
00000320: 434e 0180 ffef 0180 9f2d 0280 f9e5 0180
00000330: 47d8 0080 500b 0180 69cd 0080 ff46 0200
00000340: 5d6c 0200 0437 0200 491d 0200 6907 0280
00000350: 4bbe 0180 db15 0200 024e 0200 c1ed 0100
00000360: bf82 0080 1b7b 0080 b300 0000 549a 0180
00000370: 7865 0180 32d1 0080 fe93 0080 e19d 0080
00000380: 67a0 0080 ac6c cd3a 9e03 103b baf6 6e3b
00000390: b1c0 18ba feaf 6437 1e61 6f3a 34d1 0b3b
000003a0: ecce 093b b148 5b3b 65d9 bebc dc15 5bbd
000003b0: 9fc5 dcbd 8561 0cbe 8568 2dbd ddae 77bd
000003c0: d4e6 91bc 9d96 0f3d 0803 b4bb fecc 2239
000003d0: c163 4539 ca46 8439 00f3 4d36 2117 c0ae
000003e0: 316a a738 eeb9 3839 be33 4539 f03a 6539
000003f0: 0697 803e d4bb d63c f6ec 8cbd 8e66 273e
2.1681e-40 2.15905e-40 1.97269e-40 1.81577e-40 1.8737e-41 1.17144e-40 1.96591e-40 2.20458e-40
1.86053e-40 -1.26752e-40 -1.40005e-40 -1.60828e-40 -1.2303e-40 -9.2725e-41 -1.88392e-40 -6.1691e-41
-8.0402e-41 -6.3627e-41 0.009134574 0.013034664 0.025943113 -0.0065235556 -0.0040020715 0.013879381
-0.0057016113 -0.006605891 0.014759845 2.25563e-40 2.03356e-40 8.9027e-41 2.23174e-40 2.01243e-40
2.13642e-40 1.0804e-40 8.093e-41 1.10757e-40 9.1065e-41 1.21043e-40 9.612e-41 8.6714e-41
8.689e-41 9.1241e-41 8.2288e-41 6.5539e-41 7.6102e-41 6.3099e-41 9.285e-41 7.0568e-41
1.93019e-40 5.7567e-41 3.8805e-41 7.6504e-41 4.801e-41 7.673e-41 -9.7252e-41 -9.2825e-41
-5.1732e-41 -1.74736e-40 -1.75968e-40 -1.30423e-40 -8.0628e-41 -9.0412e-41 -6.8707e-41 -1.3102e-41
-1.2097e-41 -1.358e-42 6.614e-42 -1.391e-40 1.944e-41 3.1864e-41 1.13549e-40 1.23533e-40
0.03787539 0.048774783 0.049789052 0.098393604 0.13212907 0.10399227 0.2721947 0.284424
0.2992889 0.00045350185 0.0006904644 0.0010464268 -0.00014529482 9.619044e-08 0.00017603696 0.000560422
0.0006613413 0.0009444998 1.28939e-40 1.45689e-40 1.54667e-40 1.28236e-40 1.32109e-40 1.87009e-40
6.5815e-41 8.3697e-41 7.1349e-41 2.1412e-40 2.23902e-40 1.93297e-40 1.92844e-40 -1.0085e-41
1.16868e-40 1.82407e-40 2.0079e-40 2.02626e-40 2.04136e-40 2.12812e-40 2.15804e-40 2.18395e-40
1.886e-42 2.741e-42 2.16459e-40 2.22268e-40 2.24129e-40 0.29852337 0.2926652 0.3546657
0.1430357 0.059311725 0.13573954 -0.13722013 -0.11750312 -0.092138775 2.21136e-40 2.20784e-40
2.00161e-40 1.86329e-40 -8.2539e-41 1.22929e-40 2.04915e-40 2.25714e-40 1.92617e-40 1.72699e-40
1.47927e-40 6.164e-41 1.69631e-40 -3.9082e-41 1.00018e-40 1.17874e-40 1.13372e-40 1.22225e-40
-1.0608e-40 -1.1385e-40 -7.0216e-41 -1.70034e-40 -1.71768e-40 -1.29493e-40 -1.22275e-40 -1.38496e-40
-1.03287e-40 -1.2728e-40 -1.0452e-40 -1.26476e-40 1.9692e-41 2.3615e-41 -1.6825e-41 -1.95107e-40
-1.72498e-40 -1.90078e-40 2.359e-41 -1.2877e-41 1.9139e-41 5.307e-42 1.9114e-41 -1.55974e-40
-2.00715e-40 -1.63771e-40 -1.97471e-40 1.95787e-40 2.12585e-40 1.57182e-40 1.87236e-40 2.0623e-41
1.9716e-41 1.9825e-40 1.36031e-40 2.17917e-40 1.74913e-40 1.8306e-40 1.83085e-40 2.16686e-40
-1.61708e-40 1.69379e-40 2.11127e-40 2.08813e-40 2.1661e-40 0.16654418 0.17908543 0.16861026
0.05020319 -0.016814666 -0.008645789 -0.0060514794 0.0063035744 -0.027745271 -1.35378e-40 -1.03891e-40
-1.1991e-40 -1.7793e-40 -2.00037e-40 -1.74334e-40 -7.7586e-41 -9.5894e-41 -7.3687e-41 2.0914e-40
2.22544e-40 2.03407e-40 1.94177e-40 -1.86329e-40 -1.601e-40 1.91511e-40 2.11655e-40 1.77126e-40
-4.6903e-41 -4.4162e-41 2.51e-43 -1.47198e-40 -1.28236e-40 -7.5045e-41 -5.309e-41 -5.6636e-41
-5.7542e-41 0.0015672646 0.0021974812 0.0036462978 -0.0005827053 1.3630835e-05 0.0009131598 0.0021334412
0.0021027876 0.0033460076 -0.023297021 -0.053487644 -0.10779881 -0.13709076 -0.042336006 -0.060469497
-0.017810263 0.035055745 -0.0054935254 0.0001552589 0.00018824545 0.00025229744 3.0688825e-06 -8.735258e-11
7.98296e-05 0.00017616872 0.0001880666 0.00021861098 0.25115222 0.02621261 -0.06881134 0.16347715

onnx::Conv_96 f4 [64]
00000000: c063 b9bd cee7 e43d e912 0080 d2be adbd
00000010: 14fe 43bd 2c38 38be 3e0f 0080 041b 0080
00000020: a07f 50be 200b 0080 c0fc 77bb 3723 0000
00000030: 4c27 cdbb a71d 0080 2d14 0000 7010 0080
00000040: a809 26be f308 0080 501b 0080 da0d 0080
00000050: 4f10 0080 371a 0080 d622 0000 f9da 20be
00000060: d709 0080 f121 0000 d622 0000 f422 0000
00000070: dc21 0080 bc8a f93d f122 0000 00b4 9fbb
00000080: b10a 0080 e42c e7bd 1a01 0080 f61c 0080
00000090: 2e04 0080 581b 74bd ea0a 0080 76b8 1fbe
000000a0: 5d08 01bf 7105 0080 506b ca3d 2f1a 0080
000000b0: c4a9 16be 8d12 0080 6fd8 183d 8860 09bc
000000c0: 1c19 0080 0c35 25be 4e13 0080 4c16 0080
000000d0: 16e1 f3bd 9d12 0080 5230 06bd 960a 0080
000000e0: 6b01 0080 9edf 0b3b aa37 d1bd da0e 0000
000000f0: 120a 0080 2343 59be 3e78 e2bd 4f0d 0080
-0.09052229 0.11177026 -6.784e-42 -0.08483662 -0.04784973 -0.17990178 -5.468e-42 -9.691e-42
-0.20361185 -3.991e-42 -0.003783986 1.2633e-41 -0.006260788 -1.0637e-41 7.238e-42 -5.897e-42
-0.16214621 -3.21e-42 -9.798e-42 -4.969e-42 -5.85e-42 -9.404e-42 1.2497e-41 -0.15708531
-3.53e-42 1.2176e-41 1.2497e-41 1.2539e-41 -1.2146e-41 0.121846646 1.2535e-41 -0.0048737526
-3.835e-42 -0.11287859 -3.95e-43 -1.0389e-41 -1.5e-42 -0.05959639 -3.915e-42 -0.1559771
-0.50403386 -1.952e-42 0.098837495 -9.393e-42 -0.14713198 -6.655e-42 0.037315782 -0.008384831
-9.008e-42 -0.16133517 -6.925e-42 -7.999e-42 -0.11908166 -6.677e-42 -0.032760926 -3.798e-42
-5.09e-43 0.0021343003 -0.10215695 5.328e-42 -3.613e-42 -0.21217017 -0.110580906 -4.774e-42
