cmd/ai/datas/models/bat.onnx (onnx, 303058 bytes, 16 tensors)

fc.weight f4 [2, 256]
00000000: 57c6 91bd 1706 8fbd cae7 98bd 0349 95bd
00000010: b34f f1bd fdb1 fabd cd9b dfbd 5afb e0bd
00000020: 7cf3 1800 1d7e 4680 1995 1600 6388 4580
00000030: 8219 0d3e c217 213e f44d 883d 6f96 903d
00000040: f396 0c80 3848 0800 db83 0780 4f52 1580
00000050: 588a ce00 aad9 c980 0758 ca00 e036 ce80
00000060: fe99 9700 83f8 9000 c652 9f00 d174 9400
00000070: 06d4 800a cf69 a30a 5dbf dc09 7903 4c0a
00000080: a1a8 1180 be89 0200 a089 0180 2c1f 1200
00000090: 4a25 5780 aa93 5e80 90b2 5b00 1d46 5e00
000000a0: c364 1f00 426a 1900 1dc5 1980 d382 1580
000000b0: d203 3f00 1594 3d00 48b9 3c00 85f8 3900
000000c0: be25 1200 9ee0 1000 dbae 1400 10d6 1680
000000d0: acc0 6c3d 523e 683d d2cf 093d 7131 073d
000000e0: e3ee 5400 b903 5600 264e 5e00 4a23 5900
000000f0: fe14 4c00 d1bd 4780 6353 4c00 348d 4500
00000100: 7aa3 4f3e 6109 5b3e 87c5 973d cbd0 b03d
00000110: 1e63 11bd 09fe 19bd 6d81 febc 7c36 06bd
00000120: 8867 2480 4c32 1d80 8671 2200 a0bb 2980
00000130: 8473 1280 de71 4b00 1384 1a00 876a 4d80
00000140: 9fc7 4000 29ee 4480 9f2b 3900 83fd 4400
00000150: bc75 1700 61cf 1e80 b881 1680 2977 3980
00000160: f83e 42bd abe3 57bd 35f7 2bbd ab9d 38bd
00000170: 33d6 34bc 7322 3ebc 3513 1fbc 5f7a 28bc
00000180: 83f6 2580 8b0f 0100 9c6f 2080 ac4c 1e80
00000190: cb4b 3c00 b446 4380 7372 4080 a8f8 3f80
000001a0: 5f11 1c80 0787 1780 1244 4d00 19d3 1800
000001b0: 5411 482e a4db 482e e3d1 452e e31d 462e
000001c0: da20 9a3d d950 a53d 60d1 263d d70d 253d
000001d0: f544 4dbe 766f 53be 4241 2bbe 5459 3bbe
000001e0: 7244 ad00 ea01 a400 05ef a200 3d13 a000
000001f0: 62c5 1e80 90ad 0480 7299 0f80 5621 0380
00000200: 767b b2bc 6f8a babc ef9b a1bc dc21 a9bc
00000210: 3168 8e1a c207 831a 40b9 901a 0069 871a
00000220: fe42 3a00 ddf9 4000 8213 4100 8680 4300
00000230: 7da0 b480 c042 b780 55c0 ac80 b8b5 a980
00000240: 23d7 97b8 6ee7 9eb8 bed4 7ab8 7e5e 83b8
00000250: dc78 2a80 5067 2f80 2b0a 1a00 1d4d 2500
00000260: 7916 aebd 0bcf a5bd 583d 92bd 9120 8cbd
00000270: 8c9f 1480 7277 0200 a32d 1600 1832 0d00
00000280: aa0c 5800 17b7 5300 9ad8 5c00 2273 4800
00000290: e939 22bb d8db 27bb d55d 0dbb 1e35 13bb
000002a0: 6d34 5cbe 6072 52be b0f1 08be d7d8 07be
000002b0: 431e 3600 3313 3300 ddd9 3200 efbd 3600
000002c0: ba24 0d80 c9c1 1000 dfbe 0000 11d1 0380
000002d0: a4a1 6800 f465 9500 9137 8000 61cc 7a00
000002e0: 003f 0cbe cbbd fbbd 3dcc 1bbe 0580 0bbe
000002f0: 81af 3080 f2b4 1e80 13a0 2480 2094 2280
00000300: 93d9 2300 faba 1580 9706 1800 7161 2480
00000310: 6cfb 383e 9248 4e3e 859a 9f3d 7971 a53d
00000320: 1e26 4280 a623 4280 9511 4300 ba5e 4500
00000330: 506e 1200 0e9b 0c00 8c69 0f80 1b42 2980
00000340: 1d04 c0bd 93ae cbbd e915 acbd c471 9cbd
00000350: 75d4 1d00 e407 2b80 f97d 2100 6cc8 1e80
00000360: b585 3abe 7501 4cbe 3861 3abe cb74 2bbe
00000370: 575b f5b1 d5b0 efb1 ce1a f5b1 233b efb1
00000380: f42b 0900 f474 0c00 b641 0b00 48f7 0d00
00000390: 16ea 75b9 fe05 80b9 8a09 58b9 3914 60b9
000003a0: 0d65 7500 8307 7700 8e7a 7600 11a7 7b00
000003b0: 5c33 1a00 24d7 0400 2d21 2300 6533 0c80
000003c0: e34a 3800 4c8d 0b80 5ab5 0800 6879 0a00
000003d0: 7582 3c80 c814 2400 1190 2980 4525 2700
000003e0: 8771 e6bd bf79 01be 9df6 cfbd 6d92 e5bd
000003f0: 2b0a 47bd ab1b 5cbd 7e34 49bd 3537 57bd
-0.071179084 -0.069835834 -0.07466085 -0.072893165 -0.117827795 -0.1224098 -0.109183885 -0.109854415
2.291398e-39 -6.473726e-39 2.073867e-39 -6.385576e-39 0.13779262 0.15731719 0.066554934 0.07059943
-1.156176e-39 7.60591e-40 -6.9015e-40 -1.958072e-39 1.896774e-38 -1.8537018e-38 1.8582348e-38 -1.8937798e-38
1.3922402e-38 1.331346e-38 1.4631537e-38 1.3633559e-38 1.2405706e-32 1.573613e-32 5.314303e-33 9.822896e-33
-1.621696e-39 2.33084e-40 -1.41206e-40 1.664221e-39 -8.003065e-39 -8.685509e-39 8.421086e-39 8.657689e-39
2.883047e-39 2.334006e-39 -2.366598e-39 -1.975476e-39 5.787007e-39 5.655087e-39 5.576596e-39 5.323775e-39
1.666578e-39 1.549945e-39 1.899436e-39 -2.097172e-39 0.057800934 0.05670006 0.03364546 0.033006135
7.799878e-39 7.899188e-39 8.660571e-39 8.186018e-39 6.987028e-39 -6.588414e-39 7.009411e-39 6.387303e-39
0.20277205 0.21390297 0.07410722 0.08633574 -0.035494916 -0.037595782 -0.031067574 -0.032766804
-3.343218e-39 -2.681273e-39 3.163131e-39 -3.832563e-39 -1.694478e-39 6.92851e-39 2.435102e-39 -7.109548e-39
5.949082e-39 -6.33025e-39 5.250272e-39 6.335757e-39 2.154452e-39 -2.829458e-39 -2.066915e-39 -5.27737e-39
-0.047423333 -0.052707355 -0.041983802 -0.04507224 -0.011037397 -0.011604893 -0.009709169 -0.010283082
-3.486345e-39 9.7411e-41 -2.978774e-39 -2.78257e-39 5.537319e-39 -6.178342e-39 -5.918528e-39 -5.874837e-39
-2.577625e-39 -2.160655e-39 7.095752e-39 2.27978e-39 4.5490126e-11 4.5669815e-11 4.497903e-11 4.5046532e-11
0.07525797 0.08072061 0.04072702 0.0402964 -0.20045836 -0.20647988 -0.16724113 -0.18295795
1.5912094e-38 1.5061708e-38 1.4963094e-38 1.4700581e-38 -2.825872e-39 -4.29604e-40 -1.432578e-39 -2.87465e-40
-0.021787386 -0.022771088 -0.019727675 -0.020646028 5.8898154e-23 5.4192864e-23 5.985629e-23 5.600433e-23
5.350491e-39 5.967106e-39 5.976305e-39 6.199084e-39 -1.6587962e-38 -1.6829841e-38 -1.5864701e-38 -1.5585387e-38
-7.2403134e-05 -7.577134e-05 -5.9802776e-05 -6.264167e-05 -3.900447e-39 -4.35333e-39 2.39137e-39 3.425576e-39
-0.0850038 -0.08096131 -0.07140607 -0.06842149 -1.893945e-39 2.2652e-40 2.036752e-39 1.211832e-39
8.086067e-39 7.688026e-39 8.526568e-39 6.653458e-39 -0.0024753755 -0.0025613215 -0.002157082 -0.002246208
-0.21504374 -0.20551443 -0.13373446 -0.13266312 4.969973e-39 4.690498e-39 4.66993e-39 5.027252e-39
-1.207036e-39 1.538885e-39 6.8472e-41 -3.50505e-40 9.608877e-39 1.3720063e-38 1.1774877e-38 1.1277248e-38
-0.13695908 -0.122920595 -0.1521463 -0.13623054 -4.471063e-39 -2.819976e-39 -3.363502e-39 -3.175544e-39
3.292293e-39 -1.99562e-39 2.206416e-39 -3.341033e-39 0.1806466 0.20144871 0.07793144 0.08078284
-6.074817e-39 -6.073931e-39 6.159285e-39 6.370631e-39 1.692612e-39 1.157649e-39 -1.415396e-39 -3.78897e-39
-0.093757845 -0.09945407 -0.084026165 -0.076388866 2.739445e-39 -3.951757e-39 3.075762e-39 -2.826963e-39
-0.18215068 -0.19922431 -0.18201149 -0.16743772 -7.1408226e-09 -6.975919e-09 -7.133486e-09 -6.9625385e-09
8.42287e-40 1.143981e-39 1.033763e-39 1.282569e-39 -0.00023452225 -0.00024418527 -0.00020602919 -0.00021369838
1.0781003e-38 1.0931119e-38 1.0880553e-38 1.1355698e-38 2.406147e-39 4.4452e-40 3.226144e-39 -1.120463e-39
5.169652e-39 -1.060878e-39 7.9974e-40 9.61907e-40 -5.556929e-39 3.313533e-39 -3.816937e-39 3.594954e-39
-0.11252122 -0.12644099 -0.101544596 -0.11209569 -0.04859368 -0.053737324 -0.049122326 -0.052542884

fc.bias f4 [2]
00000000: 91ab 1b3b b883 6c3d
0.0023753385 0.057742804

onnx::Conv_80 f4 [16, 3, 7, 7]
00000000: 11e2 28bd b819 64bd c9de 16bd f02a 55bc
00000010: 813d 35bc ecff 863b 11b7 47bc 0cca 4fbd
00000020: 6b4b 68bd 78d5 fcbc f3da 00bc 56d2 e33a
00000030: 771a 7d3b a438 2e3c 06f9 71bd f20c 58bd
00000040: 21f4 27bd a54a 08bd 5472 0e3c 063f 503c
00000050: eb85 803b 2b9b 4dbd 947e 2dbd 6df3 e9bc
00000060: 7ce6 6fbb 4bad c53c ac6b df3c 01ed a93c
00000070: 7192 29bd 8ce6 27bd e411 d0bc f86f b3bc
00000080: 10ec 883c d9ab bd3c a373 c33c 002c c0bc
00000090: 60fb 84bc 129a f9bb eaa3 cebc ce04 e9bb
000000a0: b676 9e3b bce6 dc3c 7732 0abc 5e63 043b
000000b0: 674c 9abc ae17 8ebc 41a4 4bbc e339 09bc
000000c0: ca42 7b3c fbad cebc e5c9 dfbc b176 04bd
000000d0: 2a34 10bc 6b26 87bc c5c9 adbc 5c75 24bd
000000e0: bcde 02bd 2687 7cbc 31b8 9dba 0e0b 11bc
000000f0: 472c ab3c d337 c53b 7d12 b43c 4c4d 11bd
00000100: 9d4d a6bc 5955 cbbc 0440 ef38 8e91 003c
00000110: 857a 0c3c 696e 583c 5fc5 efbc a241 97bc
00000120: 714c c03a 91bb 943c 138a 213d 9c9a 333d
00000130: 090c 763c ec23 77bc 123b 6d3b 1ff5 1bbc
00000140: 62b4 d33c f34b 443d af73 073d 3c5b 0f3d
00000150: 90f9 143c 08ea 473c 6d4c d83b 9048 143c
00000160: 0d92 883c 95a5 d33c fa07 ea3c d00e 9e3b
00000170: 65de c03c 8a32 123c dbe2 923c 6377 db3c
00000180: 7568 073d fe34 303d 394a 0bbd 0662 a0bc
00000190: bacd 5ebb df82 a43c b6da de3c b6c1 973c
000001a0: 042e 373d 77a7 19bd 9e58 9fbc 6d08 61bc
000001b0: 7641 c73b 377f f03c 8e3d 123d f91c 0f3d
000001c0: 61b6 36bd b5f1 b8bc 6111 bcbc 2f43 4cbc
000001d0: 6172 283d d2d8 5e3d 6dff 1b3d 4e17 3cbd
000001e0: 4975 e4bc 7bcc adbc e2f6 493b acde 133d
000001f0: adbf 143d 2f9a 4c3d ca16 11bd b257 57bc
00000200: 47e6 49bc f212 9dbb 6950 db3c dc9a 1f3d
00000210: d448 463d d3a8 2bbc 1eed eabc 9805 c7bc
00000220: a640 9e3a 3de8 7d3b b248 6b3c 8bde 253d
00000230: f93d 99bc a429 913b a7d2 9f3b 8a1a 91bc
00000240: 48d0 ae3b cca6 ba3c 6ace 433d 9a07 debc
00000250: 64ea 15bd 0101 07bd 981f 363b c869 063d
00000260: b541 8c3c 2177 4d3c aa3e 39bd 4cdc 1ebd
00000270: 16aa 31bd 1876 473c c02a 3e3d 7c09 173d
00000280: 5d36 413c 9359 3cbd 0b9e e9bc a8ff 36bc
00000290: bba1 0b3d 0f11 633d d68c 073d b260 af38
000002a0: b66b 60bd 7ef7 6bbc c635 403c 594d 1d3d
000002b0: 19ad 4f3d 8b7c cd3c e2a6 bfbc 418a 7cbd
000002c0: 1c05 80bb 8f63 e53c dc86 743d e74e 823d
000002d0: 2899 ae3c 12ca 0abd 5c71 a2bd e62a f2bc
000002e0: fd86 48bc c141 2c3c 9dd3 043d b07a 78ba
000002f0: 6f9a 24bd a9c5 cebd 759d 34bd b521 86bc
00000300: 4f1f f1bb 0c98 463c 5c5f bfbc a9f3 9dbc
00000310: 45de 75bd a282 53bd 26cb 50bd 18d7 c9bc
00000320: 597a ab3c 3c03 273c 7492 cf3b 8714 86bd
00000330: e1e8 1ebd 6f89 38bd dc54 333c 80ed 113d
00000340: f626 2d3d 26d2 9d3c de8c 87bd 317c d3bc
00000350: 06a4 e4bc f517 8d3c 1c90 343d 6ed3 333d
00000360: 5553 a73a bd10 a1bd 39d3 12bd 8032 5abc
00000370: f102 d33c 03db 0f3d 886c aa3c 9caf edbc
00000380: a48b 95bd 567f 9ebc d43c 3fbc b5d3 653c
00000390: 0d01 d73c 695a 483b efa2 16bd 65f4 a6bd
000003a0: c5d5 07bd 309d 87bc a62e b1bb ccb1 e7bb
000003b0: 2b14 dcbc 9afb 28bd 3f14 b3bd 0bac 5cbd
000003c0: bacc 66bd 9510 0dbd f681 1abc 32c9 21bd
000003d0: 6a1c 82bd 7942 f4bc 5b99 04bd ff3d 6ebd
000003e0: 7455 333c 4725 523d a718 7c3d 7601 433d
000003f0: 3d6d 3dbd 07b9 0dbd 979b f1bc fc1d aa3a
-0.04123122 -0.05568859 -0.03683356 -0.013010725 -0.011062027 0.0041198637 -0.0121896425 -0.050729796
-0.05671255 -0.030863509 -0.007864702 0.001738141 0.003862051 0.010633621 -0.059075378 -0.05274672
-0.041004304 -0.03327431 0.00869425 0.012710338 0.0039222143 -0.050196808 -0.042357042 -0.028558457
-0.0036605885 0.024130484 0.027273022 0.020742895 -0.041399423 -0.04099135 -0.025399156 -0.021903977
0.016714126 0.023153232 0.02385885 -0.02345848 -0.016233146 -0.0076172436 -0.025224645 -0.0071111685
0.004835929 0.026965491 -0.008434883 0.002020083 -0.01883526 -0.017345276 -0.012429298 -0.008375618
0.015335748 -0.025229445 -0.02731795 -0.032339755 -0.008801499 -0.016497811 -0.021214375 -0.040150985
-0.031950697 -0.015413081 -0.0012033043 -0.008852733 0.020895137 0.0060186177 0.021981472 -0.035474107
-0.02030068 -0.02482097 0.00011408332 0.007847203 0.008574133 0.013209918 -0.029268919 -0.018463913
0.0014671219 0.018155845 0.03943832 0.04384862 0.015017518 -0.015084248 0.0036198539 -0.009518891
0.02584285 0.047923993 0.03306931 0.034999117 0.009092703 0.0122017935 0.0066009075 0.009050503
0.016671205 0.025835792 0.028568257 0.004823543 0.023543546 0.008923182 0.017930439 0.026790326
0.033058602 0.043019287 -0.03400633 -0.019577991 -0.0033997134 0.020081935 0.027203899 0.018524986
0.04472162 -0.037513223 -0.019451436 -0.013734919 0.0060808016 0.029357536 0.035703234 0.03493974
-0.044607524 -0.022576192 -0.022957506 -0.01246719 0.041124705 0.054405995 0.03808539 -0.045920663
-0.027887957 -0.021215668 0.003081732 0.03610103 0.03631561 0.04995173 -0.035422124 -0.013143467
-0.012322969 -0.004793518 0.026771741 0.038966045 0.048409298 -0.010477263 -0.02867752 -0.02429466
0.001207371 0.003874316 0.014360594 0.040495437 -0.018706309 0.004430013 0.0048774066 -0.01771285
0.0053348877 0.022784613 0.047804274 -0.027103234 -0.036600485 -0.03295994 0.0027789827 0.032815725
0.017121175 0.01254061 -0.045225777 -0.03878431 -0.043375097 0.012174152 0.04642749 0.03687428
0.011792746 -0.045983862 -0.028517744 -0.011169352 0.034089785 0.05543619 0.033093296 8.362661e-05
-0.05479022 -0.014402268 0.011731571 0.038403843 0.05070219 0.0250838 -0.023395006 -0.061655287
-0.003906859 0.028001575 0.059698924 0.06362706 0.021313265 -0.033884116 -0.07931778 -0.029561471
-0.012239215 0.010513724 0.032428373 -0.0009478731 -0.04018634 -0.100962944 -0.044095475 -0.016373495
-0.0073584686 0.012121212 -0.0233609 -0.019281225 -0.060026426 -0.051638253 -0.050974987 -0.024638698
0.020932363 0.010193642 0.0063345972 -0.06546884 -0.03879631 -0.045052942 0.010945525 0.03562689
0.042273484 0.019265246 -0.06618665 -0.025816055 -0.027910244 0.017223338 0.044082746 0.043902807
0.0012765924 -0.07864521 -0.03584597 -0.013317704 0.025758239 0.035120975 0.020803705 -0.029014401
-0.07302025 -0.019347828 -0.011672217 0.014027526 0.026245618 0.0030571467 -0.03677648 -0.08152083
-0.03316285 -0.016554445 -0.0054071723 -0.0070707556 -0.026865086 -0.04125557 -0.08744096 -0.05387501
-0.056347586 -0.034439642 -0.009430399 -0.039498515 -0.06353076 -0.029816853 -0.032372814 -0.058164593
0.010945667 0.05130508 0.061546948 0.047608815 -0.046246756 -0.034600284 -0.029493136 0.0012978907

onnx::Conv_81 f4 [16]
00000000: e17c c73d 6a84 5d3e 7262 a4be e7a1 9cbe
00000010: 4b77 53be 5c4d 663d 8c38 9c3e 5b64 8c80
00000020: db3c 7abe 52d8 e5bd 545c 393e f6f3 3c3e
00000030: a231 aa3e 375b 283f 387d 9c3d 11a7 bb3e
0.09740616 0.21632543 -0.32106358 -0.30592272 -0.20650975 0.05622612 0.30511892 -1.289297e-38
-0.24437277 -0.112229005 0.18101627 0.18452439 0.33240992 0.6576418 0.07641071 0.366509

onnx::Conv_83 f4 [32, 16, 3, 3]
00000000: 0000 0080 0000 0080 0000 0080 0000 0080
00000010: 0000 0080 0000 0000 0000 0000 0000 0000
00000020: 0000 0000 0000 0080 0000 0080 0000 0080
00000030: 0000 0080 0000 0080 0000 0000 0000 0000
00000040: 0000 0080 0000 0000 0000 0000 0000 0080
00000050: 0000 0080 0000 0080 0000 0080 0000 0080
00000060: 0000 0000 0000 0080 0000 0080 0000 0080
00000070: 0000 0080 0000 0080 0000 0080 0000 0000
00000080: 0000 0080 0000 0000 0000 0000 0000 0000
00000090: 0000 0080 0000 0080 0000 0080 0000 0080
000000a0: 0000 0000 0000 0000 0000 0000 0000 0000
000000b0: 0000 0000 0000 0080 0000 0080 0000 0080
000000c0: 0000 0000 0000 0000 0000 0000 0000 0000
000000d0: 0000 0000 0000 0000 0000 0000 0000 0000
000000e0: 0000 0000 0000 0000 0000 0000 0000 0000
000000f0: 0000 0000 0000 0000 0000 0000 0000 0080
00000100: 0000 0000 0000 0000 0000 0000 0000 0000
00000110: 0000 0000 0000 0000 0000 0000 0000 0000
00000120: 0000 0000 0000 0080 0000 0000 0000 0000
00000130: 0000 0000 0000 0000 0000 0000 0000 0000
00000140: 0000 0000 0000 0080 0000 0080 0000 0080
00000150: 0000 0000 0000 0000 0000 0000 0000 0000
00000160: 0000 0000 0000 0000 0000 0000 0000 0000
00000170: 0000 0000 0000 0000 0000 0000 0000 0000
00000180: 0000 0000 0000 0000 0000 0000 0000 0000
00000190: 0000 0000 0000 0000 0000 0000 0000 0000
000001a0: 0000 0080 0000 0000 0000 0000 0000 0080
000001b0: 0000 0000 0000 0000 0000 0000 0000 0000
000001c0: 0000 0000 0000 0000 0000 0000 0000 0000
000001d0: 0000 0000 0000 0080 0000 0000 0000 0000
000001e0: 0000 0000 0000 0000 0000 0000 0000 0000
000001f0: 0000 0000 0000 0000 0000 0080 0000 0080
00000200: 0000 0080 0000 0080 0000 0080 0000 0080
00000210: 0000 0080 0000 0000 0000 0080 0000 0000
00000220: 0000 0000 0000 0000 0000 0000 0000 0000
00000230: 0000 0000 0000 0000 0000 0000 0000 0000
00000240: ed05 0000 550b 0000 0604 0000 9805 0000
00000250: 010b 0080 e90a 0080 0e0d 0000 480a 0080
00000260: fa09 0080 0005 0080 580c 0080 6004 0000
00000270: 9c05 0000 dc0a 0080 f30c 0000 b805 0000
00000280: 7a0a 0080 270d 0080 b80a 0000 2008 0000
00000290: bc09 0080 9d0b 0080 0509 0000 0d0b 0080
000002a0: e50c 0080 3f08 0000 6a0b 0080 f50b 0000
000002b0: 6e03 0080 f704 0000 eb06 0080 9700 0080
000002c0: 1209 0080 d008 0080 9406 0080 bc04 0080
000002d0: ad04 0080 110b 0080 7901 0000 9f04 0080
000002e0: 9e05 0080 eb0b 0000 3f05 0080 b405 0080
000002f0: 640c 0000 d704 0000 2304 0000 6005 0000
00000300: 7206 0000 7006 0080 bb06 0080 a806 0080
00000310: 4606 0000 7006 0000 0403 0080 0907 0000
00000320: 4105 0000 e807 0000 db04 0000 5c05 0000
00000330: 850a 0000 e404 0000 7e05 0000 fe06 0080
00000340: 6003 0000 b402 0000 3e02 0080 d200 0000
00000350: 1700 0000 2807 0080 4c05 0080 8701 0080
00000360: 670c 0080 660a 0080 900c 0080 0d00 0080
00000370: 760c 0000 bb05 0000 2c0c 0080 150b 0080
00000380: b00b 0080 7003 0000 2c01 0080 d706 0000
00000390: de03 0080 bf02 0000 ae07 0000 5802 0080
000003a0: 4900 0000 a70a 0000 0803 0080 6707 0000
000003b0: 9907 0000 e506 0000 7b05 0000 7c06 0000
000003c0: f805 0000 d205 0000 8905 0000 8604 0000
000003d0: b608 0080 3a0a 0080 2e04 0000 f007 0080
000003e0: d70b 0080 7e0c 0080 a807 0080 210c 0080
000003f0: 270a 0000 6908 0080 5f08 0080 640a 0080
-0.0 -0.0 -0.0 -0.0 -0.0 0.0 0.0 0.0
0.0 -0.0 -0.0 -0.0 -0.0 -0.0 0.0 0.0
-0.0 0.0 0.0 -0.0 -0.0 -0.0 -0.0 -0.0
0.0 -0.0 -0.0 -0.0 -0.0 -0.0 -0.0 0.0
-0.0 0.0 0.0 0.0 -0.0 -0.0 -0.0 -0.0
0.0 0.0 0.0 0.0 0.0 -0.0 -0.0 -0.0
0.0 0.0 0.0 0.0 0.0 0.0 0.0 0.0
0.0 0.0 0.0 0.0 0.0 0.0 0.0 -0.0
0.0 0.0 0.0 0.0 0.0 0.0 0.0 0.0
0.0 -0.0 0.0 0.0 0.0 0.0 0.0 0.0
0.0 -0.0 -0.0 -0.0 0.0 0.0 0.0 0.0
0.0 0.0 0.0 0.0 0.0 0.0 0.0 0.0
0.0 0.0 0.0 0.0 0.0 0.0 0.0 0.0
-0.0 0.0 0.0 -0.0 0.0 0.0 0.0 0.0
0.0 0.0 0.0 0.0 0.0 -0.0 0.0 0.0
0.0 0.0 0.0 0.0 0.0 0.0 -0.0 -0.0
-0.0 -0.0 -0.0 -0.0 -0.0 0.0 -0.0 0.0
0.0 0.0 0.0 0.0 0.0 0.0 0.0 0.0
2.126e-42 4.065e-42 1.443e-42 2.007e-42 -3.947e-42 -3.914e-42 4.683e-42 -3.688e-42
-3.579e-42 -1.794e-42 -4.428e-42 1.57e-42 2.012e-42 -3.896e-42 4.645e-42 2.052e-42
-3.758e-42 -4.718e-42 3.845e-42 2.915e-42 -3.492e-42 -4.166e-42 3.236e-42 -3.964e-42
-4.626e-42 2.958e-42 -4.095e-42 4.29e-42 -1.23e-42 1.781e-42 -2.482e-42 -2.12e-43
-3.254e-42 -3.161e-42 -2.36e-42 -1.698e-42 -1.677e-42 -3.97e-42 5.28e-43 -1.658e-42
-2.015e-42 4.275e-42 -1.882e-42 -2.046e-42 4.445e-42 1.736e-42 1.484e-42 1.928e-42
2.312e-42 -2.31e-42 -2.414e-42 -2.388e-42 2.25e-42 2.31e-42 -1.082e-42 2.524e-42
1.885e-42 2.836e-42 1.742e-42 1.923e-42 3.774e-42 1.754e-42 1.97e-42 -2.508e-42
1.211e-42 9.7e-43 -8.04e-43 2.94e-43 3.2e-44 -2.567e-42 -1.9e-42 -5.48e-43
-4.449e-42 -3.73e-42 -4.507e-42 -1.8e-44 4.47e-42 2.056e-42 -4.366e-42 -3.975e-42
-4.193e-42 1.233e-42 -4.2e-43 2.454e-42 -1.387e-42 9.85e-43 2.755e-42 -8.41e-43
1.02e-43 3.821e-42 -1.087e-42 2.655e-42 2.726e-42 2.473e-42 1.966e-42 2.326e-42
2.141e-42 2.088e-42 1.986e-42 1.623e-42 -3.125e-42 -3.669e-42 1.5e-42 -2.847e-42
-4.247e-42 -4.481e-42 -2.747e-42 -4.351e-42 3.642e-42 -3.017e-42 -3.003e-42 -3.727e-42

onnx::Conv_84 f4 [32]
00000000: f1db 1b80 2bbd a1b0 3984 4880 8738 80bd
00000010: ebe4 ccbe ae13 20be 9a59 6ebe 1027 413c
00000020: c186 4793 8a7b 91bd a7c3 1d80 e8e3 81bd
00000030: be51 42be 3835 5dbd 81ea 95bd 997b 3680
00000040: f091 b1bc 8635 2780 072a 4e80 898e 223e
00000050: 40b4 6180 a008 0b80 d502 3abd 3047 2380
00000060: ca92 4180 b83d 0d80 d24c 5680 4557 3d80
00000070: 4999 5880 1125 1780 947c 4980 0809 f8bd
-2.558459e-39 -1.1768057e-09 -6.659588e-39 -0.06260782 -0.400184 -0.15632507 -0.23276368 0.011789098
-2.518377e-27 -0.07103641 -2.733416e-39 -0.06342298 -0.18976495 -0.05400583 -0.07320119 -5.003455e-39
-0.021676034 -3.600785e-39 -7.178245e-39 0.15874685 -8.972705e-39 -1.013285e-39 -0.045412857 -3.23978e-39
-6.021965e-39 -1.216002e-39 -7.92541e-39 -5.633272e-39 -8.136512e-39 -2.125513e-39 -6.748681e-39 -0.121110976

onnx::Conv_86 f4 [32, 32, 3, 3]
00000000: 3a51 5e80 851e 6580 1f19 5280 18a0 6b80
00000010: f704 6280 3e69 4f80 0318 6580 34c3 5b80
00000020: 6e0e 5580 10e9 5d01 1b0c f700 141f 4900
00000030: 83ab 9700 308b 7c01 7284 ac01 149a 7200
00000040: c200 b101 4c3f ad01 ca7e be00 4395 6a00
00000050: 050a 8280 f6c2 cb00 1231 ac80 d876 fd00
00000060: 8e9d 5901 c22d c480 ea17 8f00 e688 97bb
00000070: d7d9 33bc c1e1 d0bc 3a9d 3b3b 2f72 c83b
00000080: e9a4 5bbc 562b 653b a059 883c 83b7 e1bb
00000090: a61f 39bd 7ca0 47bd 9450 e4bd 569d ba3c
000000a0: f490 05bd b959 1cbc e275 f8bc d5a8 2f3b
000000b0: bc85 c43d 1754 3c3d 1f25 193d bf66 13bc
000000c0: f8f8 3dbb 6bd8 22bd 4619 7bbd c170 1e3d
000000d0: bd7d 63bd 7d3b 4cbc 714f 6abd 0b62 45bd
000000e0: 0e79 b6bd a725 f0bb 27b3 083a b035 b43d
000000f0: 3c49 9fbd 1025 5a3d 2bd1 fb3d 12ac e93c
00000100: 7de1 b83c 6b53 2dbc 9951 4a3c 1967 033c
00000110: 86f7 2bbb d10d c2ba 1875 3b3c 6895 ad3b
00000120: 8b11 9801 28a0 8881 bade 9c81 c6c3 2801
00000130: 4e6d 6701 89d4 8901 d9ac 9301 74fb 7c01
00000140: c26a 4b81 8f0b 033c e652 2b3b 960b cebc
00000150: d6e0 71bb dc09 453c a1f1 563b 7fc4 f93b
00000160: 0d6e 3e3c bddf 19bc 69fe 8500 5e72 6100
00000170: fe06 0480 7f3d 2d00 2eca 8180 d286 3780
00000180: af31 1580 6463 b180 0176 2200 a4a7 4a3d
00000190: 3c68 9b3d d5d9 a33d 4c0e 5b3d e5f0 463d
000001a0: de15 013e 6cea 033e 11ff 013e 7ae0 073e
000001b0: fdd6 523b 59f2 8b3c b3b3 cf3b bf0f 453c
000001c0: 5121 e53b 002c 133c b7cf b2bb f4ae 02bb
000001d0: 45fe ea3a fe61 febc e1cf 18bc cd8c ccbc
000001e0: d1dc 11bd 998a c7bc 62fd 2abd ca1d 3cbd
000001f0: e70c a6bc 052f 12bd d39f e63b fde2 27bb
00000200: 73ac 2dbc 2c75 afbb fca6 04bc 3b0f 34bb
00000210: 5441 99bc 2a70 8dbb 5398 883a d9dc 9980
00000220: 528b 1800 bd28 3c80 cf6c 1980 fe23 2100
00000230: 2066 8400 95e5 4000 a219 2c00 eb31 2a00
00000240: 37b8 813c d820 333d b8f6 863d 3dc9 27bb
00000250: 3796 093c b9af 4a3d 8a81 803c 3e30 f83b
00000260: 7fa5 a6bc 9930 9600 1e7a 6980 09c3 7e00
00000270: 7691 7e00 eadf 4a80 31ba 7100 e8b2 6380
00000280: 2be9 2880 a647 7400 c4eb 9181 e772 9401
00000290: 629d cc01 bf3e 7601 263e 0601 25d3 9580
000002a0: bf4c 9e80 d023 2981 c5c5 6480 d729 6a3b
000002b0: e801 c3bb 961f e03c 0a19 b2bc 56e7 cabc
000002c0: 8de5 353b bafb 8ebc e619 54bc 20ee 20bd
000002d0: 009c bc80 9e94 d800 0b8d e380 b01a 5300
000002e0: 4574 c180 afcc c680 b2db 5b00 fc25 7500
000002f0: b900 b080 3940 3901 9580 4e00 5fba 3d81
00000300: 3329 de80 0a98 4100 6830 9f80 6cb5 6680
00000310: 8be8 3600 a231 2601 0506 893d b8fb 6c3d
00000320: c863 673d c635 f33c 57c7 523d e1a1 4b3d
00000330: 0068 b03c 8cbd f93c d370 79bb 927e 4380
00000340: 28fc 3980 d035 4a80 2243 1e80 4b6c 0280
00000350: e985 2a80 3b13 1500 db47 0200 63c4 0780
00000360: 3f75 8200 112a 9380 f06b c500 9981 7400
00000370: 0f08 7a80 bccc 7c00 6161 8300 f43d 6f00
00000380: a27d 0080 a9d7 9100 0748 9680 3e40 7600
00000390: b9a3 9400 1ba8 8180 3b10 7500 f736 c800
000003a0: bdb4 2b80 481b 7000 9c00 4e00 090d 5700
000003b0: d12a 4180 a9f4 4000 09e1 6c80 6bb2 3f00
000003c0: 82e4 5f00 be52 2c80 f23d 0d81 9be1 5580
000003d0: a093 5500 2238 f780 b69d 9100 354c 1380
000003e0: b521 5601 79fe ad00 0d82 fa80 61db f500
000003f0: 2d0f 3a00 7c77 3500 5295 2280 9ee4 7e00
-8.661675e-39 -9.286333e-39 -7.539522e-39 -9.883829e-39 -9.00166e-39 -7.292758e-39 -9.283999e-39 -8.427056e-39
-7.811194e-39 4.0758503e-38 2.268771e-38 6.71514e-39 1.3928687e-38 4.6384952e-38 6.337287e-38 1.052452e-38
6.502062e-38 6.364099e-38 1.7494228e-38 9.788108e-39 -1.1942209e-38 1.8712545e-38 -1.5813308e-38 2.3277014e-38
3.9969645e-38 -1.8016172e-38 1.3141055e-38 -0.004624474 -0.01097723 -0.025498273 0.002862765 0.0061171274
-0.013406017 0.0034968457 0.016644299 -0.0068883314 -0.045196198 -0.048737034 -0.111481816 0.022780102
-0.03260894 -0.009542876 -0.030329648 0.0026803513 0.0959582 0.04597863 0.037388917 -0.008996665
-0.0028987508 -0.039757174 -0.0613034 0.03868175 -0.055539835 -0.012465355 -0.057204667 -0.048189204
-0.08909808 -0.0073287073 0.0005214684 0.087993026 -0.0777764 0.053258 0.12295755 0.028524432
0.022568459 -0.01057897 0.012348556 0.008020186 -0.0026240065 -0.0014805143 0.011441492 0.0052973516
5.5861155e-38 -5.0188323e-38 -5.7624947e-38 3.0997187e-38 4.2506421e-38 5.0630825e-38 5.4247296e-38 4.64655e-38
-3.7361806e-38 0.007998361 0.002614194 -0.025152009 -0.0036907694 0.012026276 0.003279783 0.007622301
0.011622918 -0.009391722 1.2305386e-38 8.94907e-39 -3.6985e-40 4.154658e-39 -1.1919307e-38 -5.099317e-39
-1.946369e-39 -1.6290537e-38 3.164739e-39 0.04947628 0.075882405 0.080005325 0.05348043 0.04856958
0.12605998 0.12882394 0.12694956 0.13269225 0.00321716 0.017083334 0.0063385605 0.01202768
0.006992497 0.008982658 -0.0054568904 -0.0019940706 0.0017928561 -0.031052586 -0.009326906 -0.024969483
-0.035610978 -0.02435808 -0.04174555 -0.045926847 -0.020269824 -0.035689373 0.0070380955 -0.0025617473
-0.010600197 -0.005354544 -0.008096453 -0.0027474898 -0.018707909 -0.0043163495 0.0010421373 -1.4130056e-38
2.25403e-39 -5.524744e-39 -2.33492e-39 3.043483e-39 1.2158921e-38 5.95983e-39 4.049957e-39 3.874998e-39
0.01583491 0.043732494 0.065900266 -0.0025602125 0.00839763 0.04948399 0.015686769 0.0075741103
-0.020342587 1.3792758e-38 -9.686534e-39 1.1641238e-38 1.1623454e-38 -6.876152e-39 1.0444204e-38 -9.155894e-39
-3.757065e-39 1.067862e-38 -5.3602895e-38 5.453149e-38 7.51636e-38 4.5228082e-38 2.4656502e-38 -1.3759233e-38
-1.453754e-38 -3.1066092e-38 -9.254496e-39 0.0035730505 -0.005951155 0.027358811 -0.021740455 -0.024768513
0.002775523 -0.017454017 -0.012945628 -0.039289594 -1.7321036e-38 1.9889781e-38 -2.0897254e-38 7.63192e-39
-1.776596e-38 -1.8256855e-38 8.435842e-39 1.0758379e-38 -1.6163307e-38 3.402521e-38 7.209295e-39 -3.4847532e-38
-2.040226e-38 6.023849e-39 -1.4619209e-38 -9.432303e-39 5.042537e-39 3.0524995e-38 0.06690601 0.057857245
0.056491643 0.029688727 0.051459637 0.049714927 0.021533966 0.03048589 -0.0038061633 -6.198383e-39
-5.32508e-39 -6.815131e-39 -2.779148e-39 -2.22519e-40 -3.905129e-39 1.935444e-39 2.09448e-40 -7.13299e-40
1.1980674e-38 -1.3514909e-38 1.8130313e-38 1.0699408e-38 -1.1206821e-38 1.1461046e-38 1.2065383e-38 1.0215965e-38
-4.5069e-41 1.3393511e-38 -1.3801163e-38 1.0859634e-38 1.3650386e-38 -1.1907084e-38 1.0750575e-38 1.8386817e-38
-4.013763e-39 1.0295362e-38 7.163387e-39 7.994364e-39 -5.984667e-39 5.965239e-39 -9.998961e-39 5.84964e-39
8.806345e-39 -4.070444e-39 -2.5942053e-38 -7.886949e-39 7.858975e-39 -2.2703504e-38 1.3372723e-38 -1.772212e-39
3.9329776e-38 1.5978828e-38 -2.3005527e-38 2.2578395e-38 5.331903e-39 4.910144e-39 -3.175973e-39 1.1653285e-38

onnx::Conv_87 f4 [32]
00000000: 35b3 2abd eaf0 403b 6854 cfbd 3ef0 0a80
00000010: e37c 1f80 4490 1a80 ac3f 2180 28c6 1680
00000020: f527 4dbc 2056 2080 ac9e 42bc 006a 91ba
00000030: 666e d9bc 7651 1bab d04f d0bd 35b1 2180
00000040: 9397 4880 e361 0c80 7048 1d80 2bb9 0b80
00000050: a622 8a3c 5702 1c80 0e45 1e80 a472 2c80
00000060: 5625 2880 c637 bbbd 2419 1680 e5a1 1080
00000070: 178e 52bd 7696 03bd b671 f43a 3892 2cbe
-0.04167481 0.002944047 -0.10123521 -1.004538e-39 -2.891701e-39 -2.439476e-39 -3.053413e-39 -2.091466e-39
-0.0125217335 -2.969632e-39 -0.011878651 -0.0011094213 -0.0265419 -5.518011e-13 -0.10171473 -3.094141e-39
-6.66653e-39 -1.137141e-39 -2.689215e-39 -1.076616e-39 0.016862225 -2.572233e-39 -2.779837e-39 -4.081887e-39
-3.686813e-39 -0.09141497 -2.0294e-39 -1.527445e-39 -0.05140504 -0.032125913 0.0018649611 -0.16852653

onnx::Conv_89 f4 [32, 16, 1, 1]
00000000: 88d4 d7b9 d93c 3aba 7532 cc39 d7da 65b8
00000010: aedd 30ba 0a15 88b9 aee4 cb38 487e 0080
00000020: 06ba b839 845b d139 0f40 94b9 4fbe 2bba
00000030: a4fa 1b35 8b30 bdb9 2d7d 1d39 f3f9 1cb9
00000040: b7d9 44be 0092 18be 4415 5dbe 3972 ddbd
00000050: 9ad5 bebe 042d c6bb 8860 853d 158b 2a81
00000060: f5da b03e 1240 953d 0553 d8bb ac32 813d
00000070: 72eb c5bd e3ca 073e d086 88be 0e22 bb3d
00000080: b735 28be 3638 58be 59cb 36be 1721 9c3d
00000090: 4e2b 1cbe 3257 41bb 9831 aa3d ce76 aa80
000000a0: 9959 f5bc 6055 473d 1f28 113d 4646 fbbd
000000b0: a878 90be 53cd 6a3e 1549 cfbd b59b ef3d
000000c0: 0000 0000 0000 0000 0000 0080 0000 0000
000000d0: 0000 0080 0000 0080 0000 0000 0000 0080
000000e0: 0000 0080 0000 0080 0000 0000 0000 0000
000000f0: 0000 0000 0000 0080 0000 0000 0000 0000
00000100: 0000 0000 0000 0080 0000 0000 0000 0000
00000110: 0000 0000 0000 0080 0000 0000 0000 0000
00000120: 0000 0000 0000 0000 0000 0080 0000 0000
00000130: 0000 0080 0000 0000 0000 0000 0000 0000
00000140: 0000 0080 0000 0080 0000 0080 0000 0000
00000150: 0000 0000 0000 0000 0000 0000 0000 0000
00000160: 0000 0080 0000 0000 0000 0000 0000 0080
00000170: 0000 0000 0000 0000 0000 0080 0000 0000
00000180: 0000 0080 0000 0000 0000 0000 0000 0080
00000190: 0000 0080 0000 0080 0000 0080 0000 0000
000001a0: 0000 0080 0000 0080 0000 0080 0000 0080
000001b0: 0000 0000 0000 0080 0000 0080 0000 0080
000001c0: 0000 0000 0000 0000 0000 0000 0000 0080
000001d0: 0000 0080 0000 0080 0000 0000 0000 0000
000001e0: 0000 0000 0000 0000 0000 0000 0000 0000
000001f0: 0000 0000 0000 0000 0000 0000 0000 0000
00000200: dd05 8fbd 90a3 e1bd a492 c0bd 6fd7 44bc
00000210: df9d 7ebb ed00 0e3d 5621 cf3d 79e7 d800
00000220: 7c07 02bc b4bf d53c d171 cc3d cd83 08bc
00000230: ed0f 983e dcc3 1a3e 917a 8e3d de93 783d
00000240: 0000 0080 0000 0000 0000 0080 0000 0000
00000250: 0000 0080 0000 0000 0000 0080 0000 0080
00000260: 0000 0080 0000 0080 0000 0080 0000 0080
00000270: 0000 0000 0000 0080 0000 0080 0000 0080
00000280: 5f42 de3d a55b 1c3e 6763 aa3d aab4 ad3c
00000290: 3a28 28bd e15b d53c daa8 0fbd 4014 b900
000002a0: 8300 ef3d 60e8 7fbb 3601 88bd ee54 b43c
000002b0: b255 dfbb 7bcd f1bc 4358 50bc 8b8c a3bd
000002c0: 3860 fabc 0190 99bd 53eb 6cbd 1a8d 113b
000002d0: 1130 0b3d f592 da3c c882 a53d f845 2901
000002e0: e586 983d d378 f63c d191 093e c6e3 2abc
000002f0: f347 6b3e 0383 da3d e41f 8a3d e310 ae3d
00000300: 08ef 003e 3574 9e3e 6094 303e e73b 1bbd
00000310: 3146 dbbd f15c 273d 4c9b 873e f1a4 a681
00000320: 446c 853d bae6 613e 3346 643d f515 4b3e
00000330: 20e8 0b3f 52e0 cb3e c7c4 87bc bec2 883e
00000340: 0200 0000 0200 0000 0100 0000 0200 0080
00000350: 0200 0080 0100 0080 0100 0080 0100 0080
00000360: 0200 0080 0100 0000 0000 0000 0200 0000
00000370: 0200 0000 0100 0080 0000 0080 0200 0080
00000380: 1fe9 883d 1dae 593d b1f9 9abc 8b3b eebc
00000390: 955d dbbd 6a1a 68bc d9c3 023d 81de 4b01
000003a0: 4af8 89bc 74ec 983c 3f65 afbb dd5d 7b3a
000003b0: 1fb2 133d afdc 723d 8977 14bd 2232 373d
000003c0: 0000 0080 0000 0000 0000 0000 0000 0080
000003d0: 0000 0080 0000 0000 0000 0000 0000 0000
000003e0: 0000 0000 0000 0000 0000 0000 0000 0000
000003f0: 0000 0000 0000 0000 0000 0000 0000 0000
-0.00041166344 -0.0007104404 0.00038947506 -5.4801665e-05 -0.00067469 -0.00025955617 9.722389e-05 -4.5301e-41
0.00035233813 0.0003993177 -0.00028276487 -0.00065514905 5.810673e-07 -0.00036085056 0.00015019318 -0.00014970433
-0.19223677 -0.14899445 -0.21590143 -0.10812802 -0.3727234 -0.0060478467 0.065125525 -3.1323855e-38
0.3454205 0.07287611 -0.0066016936 0.06308493 -0.09664048 0.13260989 -0.26665354 0.09137355
-0.1642674 -0.21115193 -0.17851008 0.07623499 -0.15250894 -0.0029501435 0.083102405 -1.5654653e-38
-0.02994995 0.048665404 0.035438653 -0.12269263 -0.28217053 0.22929887 -0.10121361 0.11699621
0.0 0.0 -0.0 0.0 -0.0 -0.0 0.0 -0.0
-0.0 -0.0 0.0 0.0 0.0 -0.0 0.0 0.0
0.0 -0.0 0.0 0.0 0.0 -0.0 0.0 0.0
0.0 0.0 -0.0 0.0 -0.0 0.0 0.0 0.0
-0.0 -0.0 -0.0 0.0 0.0 0.0 0.0 0.0
-0.0 0.0 0.0 -0.0 0.0 0.0 -0.0 0.0
-0.0 0.0 0.0 -0.0 -0.0 -0.0 -0.0 0.0
-0.0 -0.0 -0.0 -0.0 0.0 -0.0 -0.0 -0.0
0.0 0.0 0.0 -0.0 -0.0 -0.0 0.0 0.0
0.0 0.0 0.0 0.0 0.0 0.0 0.0 0.0
-0.0698354 -0.11017525 -0.094029695 -0.012014254 -0.0038851423 0.03466885 0.1011378 1.9919504e-38
-0.007936355 0.026092388 0.09982646 -0.008332205 0.2969965 0.15113777 0.069569714 0.060687892
-0.0 0.0 -0.0 0.0 -0.0 0.0 -0.0 -0.0
-0.0 -0.0 -0.0 -0.0 0.0 -0.0 -0.0 -0.0
0.10852503 0.15269335 0.08319741 0.021204311 -0.041053988 0.026044788 -0.03507314 1.6996831e-38
0.116700195 -0.0039048418 -0.06640856 0.022013154 -0.0068156356 -0.029516926 -0.012716356 -0.07985791
-0.030563459 -0.0749817 -0.05784161 0.0022209347 0.033981387 0.026681403 0.08081585 3.1090598e-38
0.07447604 0.03008691 0.13434531 -0.010430282 0.22976665 0.1066952 0.06744364 0.08499315
0.12591183 0.30948034 0.172441 -0.037898924 -0.10706747 0.04086012 0.2648567 -6.121545e-38
0.06514791 0.22060671 0.05573101 0.19832595 0.5465107 0.3981958 -0.016573323 0.26711076
3e-45 3e-45 1e-45 -3e-45 -3e-45 -1e-45 -1e-45 -1e-45
-3e-45 1e-45 0.0 3e-45 3e-45 -1e-45 -0.0 -3e-45
0.06685089 0.053144563 -0.01891789 -0.029081127 -0.10711209 -0.014166454 0.031925056 3.744485e-38
-0.016842026 0.018667437 -0.0053526456 0.0009588877 0.03605854 0.05929249 -0.03624681 0.044725545
-0.0 0.0 0.0 -0.0 -0.0 0.0 0.0 0.0
0.0 0.0 0.0 0.0 0.0 0.0 0.0 0.0

onnx::Conv_90 f4 [32]
00000000: 7879 efbb 7ced 293e dafb 1d3e 3ef0 0a80
00000010: e37c 1f80 4490 1a80 ac3f 2180 28c6 1680
00000020: 0591 c1bd 2056 2080 3d86 d0bd e853 02be
00000030: 5db7 0bbf 7651 1bab 90ff 4ebd 35b1 2180
00000040: 9397 4880 e361 0c80 7048 1d80 2bb9 0b80
00000050: f55c 03bd 5702 1c80 0e45 1e80 a472 2c80
00000060: 5625 2880 2225 f63d 2419 1680 e5a1 1080
00000070: 72d1 803b febf 0fbe 234a 78bb 61c7 f5bd
-0.0073081814 0.165945 0.15428105 -1.004538e-39 -2.891701e-39 -2.439476e-39 -3.053413e-39 -2.091466e-39
-0.094514884 -2.969632e-39 -0.10181854 -0.1272732 -0.54576665 -5.518011e-13 -0.050536692 -3.094141e-39
-6.66653e-39 -1.137141e-39 -2.689215e-39 -1.076616e-39 -0.032071073 -2.572233e-39 -2.779837e-39 -4.081887e-39
-3.686813e-39 0.12018801 -2.0294e-39 -1.527445e-39 0.003931218 -0.14038083 -0.0037885986 -0.12000919

onnx::Conv_92 f4 [64, 32, 3, 3]
00000000: 0000 0000 0000 0000 0000 0080 0000 0000
00000010: 0000 0080 0000 0000 0000 0000 0000 0000
00000020: 0000 0000 0000 0080 0000 0000 0000 0000
00000030: 0000 0080 0000 0080 0000 0080 0000 0000
00000040: 0000 0000 0000 0000 0000 0080 0000 0000
00000050: 0000 0080 0000 0000 0000 0000 0000 0000
00000060: 0000 0080 0000 0000 0000 0000 0000 0000
00000070: 0000 0000 0000 0000 0000 0000 0000 0000
00000080: 0000 0000 0000 0080 0000 0080 0000 0080
00000090: 0000 0000 0000 0000 0000 0000 0000 0080
000000a0: 0000 0080 0000 0000 0000 0080 0000 0000
000000b0: 0000 0080 0000 0000 0000 0000 0000 0000
000000c0: 0000 0000 0000 0000 0000 0080 0000 0080
000000d0: 0000 0080 0000 0080 0000 0080 0000 0000
000000e0: 0000 0000 0000 0080 0000 0080 0000 0080
000000f0: 0000 0080 0000 0080 0000 0080 0000 0080
00000100: 0000 0000 0000 0000 0000 0080 0000 0000
00000110: 0000 0000 0000 0080 0000 0000 0000 0000
00000120: 0000 0080 0000 0000 0000 0080 0000 0000
00000130: 0000 0080 0000 0000 0000 0000 0000 0080
00000140: 0000 0000 0000 0000 0000 0080 0000 0000
00000150: 0000 0080 0000 0000 0000 0080 0000 0080
00000160: 0000 0000 0000 0080 0000 0080 0000 0080
00000170: 0000 0080 0000 0080 0000 0080 0000 0080
00000180: 0000 0000 0000 0080 0000 0080 0000 0080
00000190: 0000 0000 0000 0000 0000 0080 0000 0000
000001a0: 0000 0000 0000 0000 0000 0000 0000 0000
000001b0: 0000 0080 0000 0080 0000 0000 0000 0080
000001c0: 0000 0080 0000 0080 0000 0080 0000 0080
000001d0: 0000 0080 0000 0080 0000 0000 0000 0000
000001e0: 0000 0000 0000 0080 0000 0080 0000 0000
000001f0: 0000 0080 0000 0080 0000 0080 0000 0000
00000200: 0000 0000 0000 0080 0000 0080 0000 0080
00000210: 0000 0080 0000 0080 0000 0080 0000 0000
00000220: 0000 0000 0000 0000 0000 0000 0000 0000
00000230: 0000 0000 0000 0080 0000 0000 0000 0000
00000240: 0000 0080 0000 0000 0000 0080 0000 0000
00000250: 0000 0080 0000 0080 0000 0080 0000 0080
00000260: 0000 0080 0000 0000 0000 0000 0000 0080
00000270: 0000 0000 0000 0080 0000 0080 0000 0000
00000280: 0000 0080 0000 0000 0000 0080 0000 0080
00000290: 0000 0000 0000 0080 0000 0080 0000 0000
000002a0: 0000 0080 0000 0000 0000 0000 0000 0080
000002b0: 0000 0000 0000 0000 0000 0080 0000 0000
000002c0: 0000 0080 0000 0000 0000 0000 0000 0080
000002d0: 0000 0080 0000 0080 0000 0080 0000 0080
000002e0: 0000 0080 0000 0080 0000 0080 0000 0080
000002f0: 0000 0080 0000 0000 0000 0000 0000 0080
00000300: 0000 0080 0000 0080 0000 0000 0000 0000
00000310: 0000 0000 0000 0080 0000 0000 0000 0000
00000320: 0000 0000 0000 0000 0000 0000 0000 0000
00000330: 0000 0080 0000 0080 0000 0080 0000 0000
00000340: 0000 0000 0000 0080 0000 0080 0000 0000
00000350: 0000 0080 0000 0000 0000 0080 0000 0080
00000360: 0000 0080 0000 0000 0000 0000 0000 0080
00000370: 0000 0000 0000 0000 0000 0000 0000 0000
00000380: 0000 0000 0000 0080 0000 0080 0000 0080
00000390: 0000 0080 0000 0080 0000 0080 0000 0080
000003a0: 0000 0080 0000 0080 0000 0000 0000 0080
000003b0: 0000 0000 0000 0000 0000 0080 0000 0080
000003c0: 0000 0000 0000 0000 0000 0000 0000 0000
000003d0: 0000 0080 0000 0080 0000 0000 0000 0080
000003e0: 0000 0080 0000 0000 0000 0080 0000 0080
000003f0: 0000 0080 0000 0080 0000 0080 0000 0080
0.0 0.0 -0.0 0.0 -0.0 0.0 0.0 0.0
0.0 -0.0 0.0 0.0 -0.0 -0.0 -0.0 0.0
0.0 0.0 -0.0 0.0 -0.0 0.0 0.0 0.0
-0.0 0.0 0.0 0.0 0.0 0.0 0.0 0.0
0.0 -0.0 -0.0 -0.0 0.0 0.0 0.0 -0.0
-0.0 0.0 -0.0 0.0 -0.0 0.0 0.0 0.0
0.0 0.0 -0.0 -0.0 -0.0 -0.0 -0.0 0.0
0.0 -0.0 -0.0 -0.0 -0.0 -0.0 -0.0 -0.0
0.0 0.0 -0.0 0.0 0.0 -0.0 0.0 0.0
-0.0 0.0 -0.0 0.0 -0.0 0.0 0.0 -0.0
0.0 0.0 -0.0 0.0 -0.0 0.0 -0.0 -0.0
0.0 -0.0 -0.0 -0.0 -0.0 -0.0 -0.0 -0.0
0.0 -0.0 -0.0 -0.0 0.0 0.0 -0.0 0.0
0.0 0.0 0.0 0.0 -0.0 -0.0 0.0 -0.0
-0.0 -0.0 -0.0 -0.0 -0.0 -0.0 0.0 0.0
0.0 -0.0 -0.0 0.0 -0.0 -0.0 -0.0 0.0
0.0 -0.0 -0.0 -0.0 -0.0 -0.0 -0.0 0.0
0.0 0.0 0.0 0.0 0.0 -0.0 0.0 0.0
-0.0 0.0 -0.0 0.0 -0.0 -0.0 -0.0 -0.0
-0.0 0.0 0.0 -0.0 0.0 -0.0 -0.0 0.0
-0.0 0.0 -0.0 -0.0 0.0 -0.0 -0.0 0.0
-0.0 0.0 0.0 -0.0 0.0 0.0 -0.0 0.0
-0.0 0.0 0.0 -0.0 -0.0 -0.0 -0.0 -0.0
-0.0 -0.0 -0.0 -0.0 -0.0 0.0 0.0 -0.0
-0.0 -0.0 0.0 0.0 0.0 -0.0 0.0 0.0
0.0 0.0 0.0 0.0 -0.0 -0.0 -0.0 0.0
0.0 -0.0 -0.0 0.0 -0.0 0.0 -0.0 -0.0
-0.0 0.0 0.0 -0.0 0.0 0.0 0.0 0.0
0.0 -0.0 -0.0 -0.0 -0.0 -0.0 -0.0 -0.0
-0.0 -0.0 0.0 -0.0 0.0 0.0 -0.0 -0.0
0.0 0.0 0.0 0.0 -0.0 -0.0 0.0 -0.0
-0.0 0.0 -0.0 -0.0 -0.0 -0.0 -0.0 -0.0

onnx::Conv_93 f4 [64]
00000000: 8c70 2580 9716 2580 fd05 0f80 da11 2380
00000010: 14f6 0e80 eeca 0b80 40f4 6280 02d7 0880
00000020: d1e5 5a80 fe6d 0d80 ea1e 523e d1dd 0980
00000030: e5f3 1180 5385 1580 d2aa 0680 36d3 9ab0
00000040: 1883 0c80 4709 29be 469e 0c80 b9b9 1380
00000050: 443a 1880 482b 483d cf55 2580 e6fb 3580
00000060: db07 1180 729c 2580 f6f1 3b80 1339 0b80
00000070: 3180 0d80 5265 1b80 5526 2080 0a04 0f80
00000080: 88d1 1180 f100 1a80 ddd3 1380 0589 0f80
00000090: c316 1980 fd5e 1380 bf43 2180 52bf 1180
000000a0: 1610 0680 ef15 0280 694b 1380 33d4 0e80
000000b0: 8046 1180 c26a 1480 a35c 0980 3eb7 0480
000000c0: 033b 2780 9bcc 0a80 a93b 2680 54cf 17bc
000000d0: 884f 0880 661c 1680 bcb0 0c80 4263 0580
000000e0: 509a 0f80 adf9 0d80 8237 dcbd 39b7 0f80
000000f0: eaa2 1f80 da94 2080 026f 0c80 8fc1 1580
-3.438288e-39 -3.406017e-39 -1.37968e-39 -3.220646e-39 -1.373973e-39 -1.082988e-39 -9.087499e-39 -8.11814e-40
-8.347637e-39 -1.233319e-39 0.20519605 -9.06092e-40 -1.648696e-39 -1.976373e-39 -6.12292e-40 -1.1265004e-09
-1.149054e-39 -0.16507445 -1.158804e-39 -1.811499e-39 -2.224954e-39 0.0488694 -3.428696e-39 -4.957645e-39
-1.564021e-39 -3.454035e-39 -5.505094e-39 -1.030665e-39 -1.239848e-39 -2.515905e-39 -2.952487e-39 -1.378981e-39
-1.636369e-39 -2.38806e-39 -1.820877e-39 -1.426686e-39 -2.304053e-39 -1.77895e-39 -3.054874e-39 -1.629836e-39
-5.56784e-40 -1.91539e-40 -1.771926e-39 -1.36182e-39 -1.586494e-39 -1.875007e-39 -8.59751e-40 -4.33077e-40
-3.602754e-39 -9.91754e-40 -3.511151e-39 -0.0092657395 -7.63214e-40 -2.030568e-39 -1.165426e-39 -4.94784e-40
-1.43289e-39 -1.283428e-39 -0.10752775 -1.44326e-39 -2.905343e-39 -2.992134e-39 -1.141848e-39 -1.997981e-39

onnx::Conv_95 f4 [64, 64, 3, 3]
00000000: 2996 2401 f416 2181 fbf3 1e01 54bb 2001
00000010: 1cce 1781 37f0 0601 953c 2c01 a03a 2901
00000020: 86c2 1001 bc85 c800 e755 4280 bc22 4500
00000030: 443c 3300 214d fd00 18c4 0c01 6217 b000
00000040: ccd7 0580 a28c 2e80 1a27 3781 525d a100
00000050: 06b9 4f01 516e 1381 cd1e a400 8cb2 7700
00000060: a4ba 3081 b94a a500 6531 3500 8962 1c01
00000070: e09d 0b01 ea2f 0301 159a 0b81 61bf 0181
00000080: c73f 0281 0079 2501 82a1 1101 7736 1001
00000090: 2cb2 9500 9d9c 4581 cf75 3601 8406 a000
000000a0: f602 a680 9939 2601 e551 7c00 0508 8980
000000b0: f051 9c00 f291 4a00 2dc0 6500 f038 cf00
000000c0: 5ddf 9100 d6d4 a100 5a80 b700 7c40 9100
000000d0: fd95 7600 c9bc 2000 76f2 a981 8405 7b80
000000e0: d02e 6182 681c 2e02 c7bc dd01 f621 2300
000000f0: 1786 1180 5177 f801 84b6 ce81 2fa1 8580
00000100: 74bc e700 bec4 5b00 5fb9 7501 5fba 2081
00000110: 0a9f 6f80 82c1 6900 5fb7 8401 9a6a bc00
00000120: f768 ed81 3d57 a700 236b 3802 6521 0502
00000130: c6f6 3f80 b901 3a01 f270 1402 9311 9e80
00000140: 8747 f101 bae7 4181 83a3 e980 44f0 0881
00000150: e46b ee80 60fb fc00 bc0a 3501 2df9 1781
00000160: db8a 4980 270f f880 8d3e 933e bbc7 823e
00000170: f7d6 7b3e b0c3 743e ab21 413e aad9 583e
00000180: 9943 373e b600 653e 84d2 6e3e 23a3 0000
00000190: 7c31 0080 4bb1 f980 0b09 8d80 ced1 4901
000001a0: 9f1f 8480 44e3 c900 89e8 5481 55ee 1680
000001b0: c824 1181 5b8a 2c81 8aa3 aa00 07b8 f880
000001c0: db75 1101 142d f800 5be5 9080 7301 d280
000001d0: cd1b 4701 5713 d280 e8db 8a01 03c0 0000
000001e0: 008e 0981 43a9 0181 8ac8 4101 abd0 4801
000001f0: 7c56 5180 e606 4f81 a510 5981 4ad8 ab80
00000200: 9b54 9a00 4e46 3581 79da 1d01 9b9b 0e01
00000210: ce23 7601 ba9a 2000 393f b380 d433 9501
00000220: a879 1501 cdf9 2282 1fee f381 dbd3 2001
00000230: 470c f981 e6e4 8682 3696 3481 f767 3e01
00000240: d07d 2a81 bb6a 1981 a927 0681 6179 1581
00000250: 558c 1881 48bd 0681 d0f9 4a01 74c2 2001
00000260: 95b9 4081 5f33 c2bd 3b4e 52bd b7be 58bd
00000270: d854 f0bd aa97 4fbd a362 b5bc 02bc 463d
00000280: c123 163e 3009 3d3e a37a 1b81 6c0f 3a01
00000290: 342f 3981 ac34 f780 4063 4281 9d7d 3181
000002a0: 44b4 1b81 a2c8 1a81 3552 0a81 5419 9701
000002b0: a225 3f81 7be9 a781 2114 9501 07b9 0f81
000002c0: f283 c881 bd5e a601 9307 6400 980b 0182
000002d0: 7ae5 6980 151c 6080 e87a c380 2771 4580
000002e0: 824d 2580 5ed7 3f80 841b 3180 b94b 2e80
000002f0: 4750 8880 1a8b 50bd a0cd 4cbb d4eb 8bbd
00000300: 2874 fdbd 4b8d c3bd d335 07be 6d84 d6bd
00000310: 125b c6bd e7be 3fbe 77e8 e480 2a36 f580
00000320: d1ab 0281 b112 4481 caf9 0e81 3d66 e080
00000330: 5cb6 7980 b01a 0e00 81ad e080 14e4 1201
00000340: c724 7d01 3e1a b681 ce2b 7981 8791 bd00
00000350: ec2f dc81 633a 2381 4923 0a01 b5dc cc80
00000360: 0e41 2c01 5581 0701 9870 bb80 91bb 0481
00000370: c88f e780 9b7d d980 9788 0681 ebc4 e500
00000380: 991f 4d00 87e4 0382 33e5 9001 6564 da01
00000390: 6f59 7481 e004 1c01 48bd a800 3401 d200
000003a0: 5d47 a781 fb65 b601 9233 bb81 10fa 3280
000003b0: 5e6b 3900 b8c1 cb01 6b96 f001 b590 8881
000003c0: 29b0 ac81 0d0d a881 dc65 ff81 23de ad00
000003d0: 88ae 4b01 fca3 9001 c615 4901 e65c 3301
000003e0: a074 0880 ea39 3d01 b3ca 4681 6216 6480
000003f0: 3c34 c700 e143 9881 8e4c 9c81 f371 bb00
3.0229777e-38 -2.9587498e-38 2.9195064e-38 2.952176e-38 -2.7882196e-38 2.478426e-38 3.1634876e-38 3.108246e-38
2.6588187e-38 1.8415074e-38 -6.091959e-39 6.34911e-39 4.70523e-39 2.3262049e-38 2.585463e-38 1.6171435e-38
-5.36591e-40 -4.274882e-39 -3.3639846e-38 1.4818992e-38 3.8152643e-38 -2.7078784e-38 1.507207e-38 1.0992475e-38
-3.2460003e-38 1.5179662e-38 4.885001e-39 2.872337e-38 2.5643538e-38 2.4095277e-38 -2.5640816e-38 -2.3830866e-38
-2.3922987e-38 3.0392527e-38 2.674817e-38 2.64877e-38 1.3747405e-38 -3.629555e-38 3.3512644e-38 1.4696017e-38
-1.5245755e-38 3.053071e-38 1.141698e-38 -1.258434e-38 1.4355731e-38 6.848182e-39 9.344325e-39 1.9030373e-38
1.3396275e-38 1.4861866e-38 1.685194e-38 1.333928e-38 1.0890394e-38 3.006459e-39 -6.242871e-38 -1.1297745e-38
-1.6543824e-37 1.2791653e-37 8.145346e-38 3.226425e-39 -1.609306e-39 9.1272023e-38 -7.5934346e-38 -1.2271943e-38
2.1281604e-38 8.427608e-39 4.513239e-38 -2.9521073e-38 -1.0250793e-38 9.712145e-39 4.8752267e-38 1.7303315e-38
-8.721067e-38 1.5367823e-38 1.3548932e-37 9.78088e-38 -5.874162e-39 3.416404e-38 1.0905736e-37 -1.4516313e-38
8.8632055e-38 -3.5614757e-38 -2.1456328e-38 -2.5151637e-38 -2.1895552e-38 2.3232721e-38 3.325215e-38 -2.7913095e-38
-6.753803e-39 -2.2780639e-38 0.2875866 0.25543007 0.24593721 0.23902774 0.188605 0.21176782
0.1789688 0.22363552 0.23322493 5.8522e-41 -1.7752e-41 -2.2930639e-38 -1.2952049e-38 3.7068397e-38
-1.2133629e-38 1.8540462e-38 -3.9105086e-38 -2.105878e-39 -2.6658683e-38 -3.1690676e-38 1.5670701e-38 -2.284122e-38
2.671685e-38 2.2791374e-38 -1.3306589e-38 -1.9285974e-38 3.6570474e-38 -1.9292392e-38 5.1008744e-38 6.8881e-41
-2.5264806e-38 -2.3814997e-38 3.559238e-38 3.688391e-38 -7.4697e-39 -3.8024845e-38 -3.9868547e-38 -1.578146e-38
1.4173017e-38 -3.329489e-38 2.8993092e-38 2.6192922e-38 4.5208753e-38 2.994241e-39 -1.6461234e-38 5.4808325e-38
2.7454262e-38 -1.197357e-37 -8.960579e-38 2.9539358e-38 -9.148577e-38 -1.9820912e-37 -3.316855e-38 3.497208e-38
-3.1314335e-38 -2.8178237e-38 -2.4640368e-38 -2.7454063e-38 -2.8018674e-38 -2.4747716e-38 3.7280772e-38 2.9526872e-38
-3.539798e-38 -0.094824545 -0.051344138 -0.052916255 -0.11734933 -0.050681747 -0.02214176 0.048519142
0.14662077 0.18460536 -2.855699e-38 3.417387e-38 -3.4013e-38 -2.2702263e-38 -3.570338e-38 -3.259989e-38
-2.8598338e-38 -2.842928e-38 -2.5405578e-38 5.5504984e-38 -3.510816e-38 -6.168114e-38 5.476284e-38 -2.6397703e-38
-7.365773e-38 6.111471e-38 9.186267e-39 -9.48075e-38 -9.725048e-39 -8.826282e-39 -1.7952012e-38 -6.37724e-39
-3.425718e-39 -5.862895e-39 -4.50981e-39 -4.251597e-39 -1.2518426e-38 -0.050913908 -0.0031250492 -0.0683209
-0.12375671 -0.09548434 -0.13204126 -0.10474477 -0.09685339 -0.18725167 -2.1021886e-38 -2.2519127e-38
-2.40005e-38 -3.6012925e-38 -2.6260496e-38 -2.0607827e-38 -1.1177513e-38 1.29527e-39 -2.0633393e-38 2.6979603e-38
4.6495148e-38 -6.6893897e-38 -4.5765505e-38 1.7409114e-38 -8.0884e-38 -2.9980262e-38 2.5371913e-38 -1.8813616e-38
3.1638085e-38 2.4888375e-38 -1.7213629e-38 -2.4379143e-38 -2.1265579e-38 -1.9973361e-38 -2.470991e-38 2.110097e-38
7.082668e-39 -9.689944e-38 5.322613e-38 8.022461e-38 -4.4879888e-38 2.8656172e-38 1.5496265e-38 1.9285886e-38
-6.144851e-38 6.7002576e-38 -6.876695e-38 -4.68148e-39 5.27314e-39 7.4848396e-38 8.8377916e-38 -5.0166154e-38
-6.34356e-38 -6.173218e-38 -9.3818367e-38 1.5967228e-38 3.7410431e-38 5.313255e-38 3.693349e-38 3.294376e-38
-7.76521e-40 3.475537e-38 -3.6512286e-38 -9.191579e-39 1.8294002e-38 -5.5933383e-38 -5.74152e-38 1.7214115e-38

onnx::Conv_96 f4 [64]
00000000: 84f0 0ebe 835b 85be 7543 1380 ec73 323d
00000010: e409 1080 fc8b c080 950c 9190 80c7 4595
00000020: d84b 1080 31d6 d980 d9c6 1880 75ab 4080
00000030: 9710 0f80 6666 333d 6a40 9080 cebd 1c80
00000040: ff2d 053d dfad 7bbd f33f 1280 8c58 0f80
00000050: 4903 3480 e83e 0880 2c3f b3bd 3233 1bbc
00000060: 0ee7 1580 6f7c 4180 c442 1580 56e8 8bb1
00000070: 55f7 153d 4ec4 f4be 4ec2 9a83 c64b 3480
00000080: e2ab 02bd 2659 3da5 513a 2780 e18b 4c80
00000090: ac57 7539 33ac 2480 1bf0 22be 902a 1380
000000a0: ba47 7180 cabf 6c3b 12eb d4be 22f2 3580
000000b0: d046 0f80 38b6 7180 b448 9dbe f2ad 2280
000000c0: ca6d 3380 fe3f f03c 298d 1380 597f 0f80
000000d0: 80c0 38be 1434 2380 5031 e7be 2f10 f131
000000e0: fe79 1b80 2274 443a 6800 4b80 5d6e 0880
000000f0: 64e8 1280 e829 0c80 3fe8 80be 48d1 c1bd
-0.13958937 -0.2604638 -1.769073e-39 0.043567583 -1.472916e-39 -1.7682632e-38 -5.72118e-29 -3.994121e-26
-1.496576e-39 -2.000514e-38 -2.275385e-39 -5.938979e-39 -1.383484e-39 0.043798827 -1.3247419e-38 -2.639483e-39
0.03251457 -0.061445113 -1.67598e-39 -1.409297e-39 -4.776624e-39 -7.5725e-40 -0.087522835 -0.009472655
-2.011432e-39 -6.013946e-39 -1.952496e-39 -4.071846e-09 0.036612827 -0.4780602 -9.095917e-37 -4.802628e-39
-0.0319022 -1.6423342e-16 -3.602504e-39 -7.029677e-39 0.00023397681 -3.367851e-39 -0.15911905 -1.760143e-39
-1.0403142e-38 0.0036125057 -0.41585594 -4.954142e-39 -1.402935e-39 -1.0442779e-38 -0.3071953 -3.184807e-39
-4.722995e-39 0.029327389 -1.795513e-39 -1.423216e-39 -0.18042183 -3.232924e-39 -0.4515481 7.015863e-09
-2.523321e-39 0.0007494112 -6.887808e-39 -7.74275e-40 -1.736405e-39 -1.117059e-39 -0.2517719 -0.09463745
