cmd/ai/datas/models/bear_in_the_water.onnx (onnx, 303077 bytes, 16 tensors)

fc.weight f4 [2, 256]
-0.0143692605 0.0069700256 -0.01165159 0.039557986 -0.0037240493 0.04467457 -0.1206692 -0.09960266
0.06004944 0.06955378 -0.015255968 -0.03135882 -0.00040241587 0.0059544723 0.06534573 0.13490263
-0.055041946 0.007982376 0.003924013 0.084186785 -0.046432592 -0.1040308 -0.1081717 -0.16007125
0.048798434 0.08814887 0.08132703 0.11530495 -0.05091886 0.11278331 0.028031118 0.15363324
0.12342904 0.10348717 0.042036485 -0.02467112 -0.060655013 -0.08539743 0.022253942 -0.12281825
0.03445693 0.03137042 -0.00481365 -0.062499058 0.0055670785 0.0018426251 0.00025871376 -0.0022946673
-0.06435898 0.06589385 -0.03511461 0.066748895 -0.005020515 0.024510918 -0.017542586 -0.006364715
-0.050495308 0.0031064274 -0.03787997 0.013844314 -0.055497844 0.034989677 -0.025941292 0.08538372
0.012778789 0.056716558 0.13334318 0.17690706 -0.022020772 0.08800234 0.06130689 0.096266806
-0.09446981 -0.06912498 0.03526547 0.040385734 -0.018748447 0.038247067 -0.049032725 0.03915156
0.00867245 -0.014122753 0.029842174 0.050242905 -0.00045717444 0.0023513413 0.0010891972 -0.0007055867
-0.079060495 0.02797987 -0.047124643 0.044288535 -0.009789564 -0.004551039 0.019081214 0.0071029593
-0.02550186 -0.013657042 0.054561444 0.040396795 -0.015694892 -0.013592991 0.04352432 0.10384746
-0.046318572 -0.108358234 0.026942767 -0.020754965 0.029063728 -0.06315826 -0.020422444 -0.062590055
0.011992269 0.0007025371 0.004906393 -0.018367453 0.011871308 0.011196027 -0.01088401 -0.0041224905
0.0027387736 -0.04687442 0.028353414 -0.035799917 0.03936401 0.080943465 0.14529748 0.14546312
0.014550325 0.018637376 -0.0017128792 -0.012399768 -0.07735455 0.06899548 -0.033900186 0.11586
-0.025225217 -0.050488032 0.0865095 0.1247877 -0.09214398 0.11116223 -0.12255132 0.10140637
-0.0003406333 -0.016456125 0.018138427 0.01008599 -0.05639394 -0.02716644 -0.09841803 -0.08790976
-0.051464494 -0.16048425 -0.068441115 -0.17141244 -0.023587117 0.014566203 -0.013934912 0.040985525
0.013260724 0.020346649 -0.023367733 -0.038075928 -0.036155064 -0.12881297 -0.0044301236 -0.10494239
0.005680919 0.00030481408 -0.0059178947 -0.0025512907 0.049845256 -0.04299359 -0.00860044 -0.05572868
0.04052873 -0.040389143 0.09086245 0.038602315 -0.022335287 0.015387771 -0.123361416 -0.13792878
-0.025364751 0.0155144865 0.019883767 0.14522688 -0.065052025 -0.044445828 0.07578669 0.07433556
0.011031825 -0.0016207225 -0.0028524154 -0.01072906 -0.029038142 -0.060486954 0.033907734 0.09038556
-0.09221253 -0.10943528 -0.012036112 -0.04150769 -0.06939465 0.10115129 -0.04152359 0.10285425
-0.008983027 0.0281099 -0.02604973 0.01600963 -0.06831902 0.017336812 0.047235016 0.11497316
0.03960361 0.03132492 -0.010035522 -0.047507174 0.03149888 0.03729175 0.0029354626 -0.03728876
-0.0056060273 -0.11332996 -0.08781039 -0.2083847 0.04832539 0.062073186 -0.00016212118 -0.02046162
0.09109278 0.12651365 0.0029680931 -0.025810642 0.013349984 -0.1050006 0.03947233 -0.108574726
-0.05809967 -0.073820844 0.051694464 -0.0014054441 -0.014650278 0.075746976 0.012043636 0.14067681
0.021163065 -0.04603433 0.15063386 0.0853733 0.0148005 -0.06581648 -0.025707878 -0.057497133
00000000: 0c6d 6bbc d064 e43b 4fe6 3ebc 8e07 223d
00000010: 2e0f 74bb affc 363d 6a21 f7bd 7bfc cbbd
00000020: 67f6 753d 3672 8e3d 2bf4 79bc 1b72 00bd
00000030: 58fb d2b9 bc1d c33b fbd3 853d ea23 0a3e
00000040: aa73 61bd 83c8 023c 0295 803b 1f6a ac3d
00000050: 1a30 3ebd 1a0e d5bd 2089 ddbd b8e9 23be
00000060: dee0 473d 6587 b43d c98e a63d 0025 ec3d
00000070: 4b90 50bd f0fa e63d 84a1 e53c 0852 1d3e
00000080: 5dc8 fc3d 15f1 d33d 732e 2c3d 171b cabc
00000090: 6471 78bd d9e4 aebd e64d b63c 2288 fbbd
000000a0: b622 0d3d 457e 003d d3bb 9dbb 03ff 7fbd
000000b0: 0a6c b63b 3d84 f13a f9a3 8739 2162 16bb
000000c0: a4ce 83bd 5bf3 863d 56d4 0fbd a5b3 883d
000000d0: 2283 a4bb 1fcb c83c 78b5 8fbc 198f d0bb
000000e0: 2bd4 4ebd 3495 4b3b 0728 1bbd 43d3 623c
000000f0: b551 63bd 5651 0f3d d582 d4bc a9dd ae3d
00000100: 205e 513c 9f4f 683d 1d8b 083e 2027 353e
00000110: e864 b4bc 923a b43d ef1c 7b3d 8827 c53d
00000120: 6379 c1bd 6691 8dbd 8772 103d 836b 253d
00000130: 5896 99bc f5a8 1c3d 8ad6 48bd 635d 203d
00000140: e416 0e3c 1f63 67bc 9377 f43c 81cb 4d3d
00000150: eab0 efb9 f618 1a3b 65c3 8e3a 1ff7 38ba
00000160: 78ea a1bd 0a36 e53c c505 41bd e567 353d
00000170: 6864 20bc e220 95bb 3550 9c3c f1bf e83b
00000180: 47e9 d0bc c9c1 5fbc d27b 5f3d 1c77 253d
00000190: 9392 80bc 23b5 5ebc 8f46 323d faad d43d
000001a0: 8bb8 3dbd ecea ddbd 14b7 dc3c 5106 aabc
000001b0: 0e17 ee3c 1e59 81bd f84c a7bc 372f 80bd
000001c0: 397b 443c 772a 383a cfc5 a03b 5777 96bc
000001d0: e07f 423c 8a6f 373c d952 32bc f515 87bb
000001e0: ff7c 333b 64ff 3fbd 6b45 e83c efa2 12bd
000001f0: 283c 213d b0c5 a53d ddc8 143e 49f4 143e
00000200: 7d64 6e3c 69ad 983c b082 e0ba 6628 4bbc
00000210: 106c 9ebd 814d 8d3d ecda 0abd 0248 ed3d
00000220: 1da5 cebc 8acc 4ebd e52b b13d b290 ff3d
00000230: fcb5 bcbd 06a9 e33d 30fc fabd 25ae cf3d
00000240: 0797 b2b9 ffce 86bc 0a97 943c b53f 253c
00000250: 55fd 66bd 278c debc 648f c9bd 080a b4bd
00000260: 6fcc 52bd fc55 24be db2a 8cbd be86 2fbe
00000270: c539 c1bc 15a7 6e3c 424f 64bc 70e0 273d
00000280: 8243 593c 04ae a63c b06d bfbc 81f5 1bbd
00000290: 5517 14bd 8ce7 03be 922a 91bb 09ec d6bd
000002a0: 0127 ba3b 74cf 9f39 e6ea c1bb 8e33 27bb
000002b0: 8a2a 4c3d 0c1a 30bd dce8 0cbc c243 64bd
000002c0: 7401 263d 166f 25bd 1816 ba3d 761d 1e3d
000002d0: 7ef8 b6bc fd1c 7c3c e9a4 fcbd 343d 0dbe
000002e0: bdc9 cfbc 7930 7e3c 48e3 a23c 5bb6 143e
000002f0: ff39 85bd d40c 36bd 0d36 9b3d 3e3d 983d
00000300: d4be 343c 6c6e d4ba 97ef 3abb f0c8 2fbc
00000310: 66e1 edbc 2bc1 77bd d6e2 0a3d 111c b93d
00000320: ecd9 bcbd 9b1f e0bd 1d33 45bc f803 2abd
00000330: c81e 8ebd 6828 cf3d a414 2abd 40a5 d23d
00000340: 8c2d 13bc bc46 e63c 3e66 d5bc a126 833c
00000350: d8ea 8bbd ee05 8e3c 8179 413d 0c77 eb3d
00000360: 6537 223d 8f4e 003d 086c 24bc e296 42bd
00000370: f804 013d 3cbf 183d e460 403b 19bc 18bd
00000380: c4b2 b7bb 8a19 e8bd efd5 b3bd cc62 55be
00000390: d8f0 453d 7440 7e3d 13ff 29b9 219f a7bc
000003a0: da8e ba3d cb8c 013e 5784 423b d770 d3bc
000003b0: e4b9 5a3c 8e0a d7bd bdad 213d 6d5c debd
000003c0: ebf9 6dbd 622f 97bd 93bd 533d e136 b8ba
000003d0: b807 70bc 3b21 9b3d ac52 453c 950d 103e
000003e0: 2a5e ad3c 7e8e 3cbd c33f 1a3e 32d8 ae3d
000003f0: cc7d 723c caca 86bd 5499 d2bc 1d82 6bbd

fc.bias f4 [2]
-0.019193763 0.012888217
00000000: 3d3c 9dbc 1a29 533c

onnx::Conv_80 f4 [16, 3, 7, 7]
0.072048545 0.16830271 0.07038813 0.07595897 -0.016505547 0.0072126994 0.03173737 0.06820141
-0.0054252474 -0.07864462 0.03410725 -0.0486611 -0.10586185 -0.06696391 -0.089510456 0.056930162
0.04121047 -0.043156892 0.10235497 0.043563113 0.042336997 -0.13674816 0.158359 0.006292378
0.11179992 0.10153603 -0.093110956 -0.13074437 -0.10096218 0.19738995 0.1457408 0.069747075
0.17875974 -0.03620298 -0.07105333 0.11537595 0.058602132 0.18427996 0.07002865 0.14673878
-0.05996443 -0.012609728 -0.018768724 0.23910433 0.115873106 0.2095339 0.03663347 0.17478658
0.14466843 -0.09603015 -0.09029186 -0.023616565 -0.1004202 -0.10555109 0.108464345 0.057083584
0.026314303 0.10872939 0.11077562 0.0042506494 -0.016747553 -0.09559738 -0.09697812 0.049016785
0.090955995 0.052203756 -0.05113721 0.063481 0.061943978 -0.0141652245 -0.19684231 -0.019416196
0.044768512 -0.075753234 -0.031085327 -0.0043298816 -0.12451952 -0.18443696 0.07615699 0.16546524
0.13229999 0.090854056 0.0028394666 -0.14028938 -0.02839494 0.10388895 0.03040742 0.06712779
-0.004844824 -0.1310635 -0.10312972 0.08977274 0.0036769437 0.08906666 -0.08185042 0.03469051
-0.08631284 -0.15051295 0.12036442 -0.05748181 0.040131383 -0.06029154 -0.031581555 -0.14576982
0.0431071 -0.15814802 0.010638321 0.12453696 -0.10706063 -0.068452574 -0.14861764 -0.082360916
-0.020394716 -0.07786875 -0.10622157 -0.09725209 -0.12242831 -0.015800415 -0.15550762 -0.17853247
0.16593805 0.005025834 0.08841564 0.059067022 0.041322403 -0.16884507 -0.0755066 0.11070474
0.12712243 0.21318048 0.06324188 0.0665565 -0.074653566 -0.05766522 0.12938952 -0.020575747
-0.11805131 -0.15355383 -0.23810926 -0.17360161 -0.031298775 -0.018567001 -0.15494294 -0.12321465
-0.13583007 0.03253324 -0.16651621 -0.03329912 -0.0058398657 0.05417408 0.04277019 0.0014510972
0.059036218 0.031158347 0.03188511 0.01979997 0.017166972 0.019953398 0.029039811 0.025242217
0.051571146 0.06155097 0.0022689854 0.012730423 0.015202545 0.01503456 0.017628636 0.024569368
0.021462858 0.019701477 0.0037918394 -0.0037261723 0.008045381 0.024386255 0.021693226 0.04124973
0.026002733 0.0017417223 0.00871972 0.019440223 0.01320088 0.017980604 -0.009968084 0.035426848
0.025993347 -0.009323354 0.016908867 0.00719618 -0.005365468 -0.021516059 0.00846925 -0.020793287
-0.020158354 -0.014119312 -0.03479046 -0.020130457 -0.07029106 -0.07170455 0.0047340314 -0.053142436
-0.016548904 -0.049475916 -0.06287648 0.0025790927 0.04571499 0.035133794 0.026578551 0.03789648
0.039326828 0.038568504 -0.0028976584 0.038867556 0.02862075 0.022335185 0.03001973 0.043028716
0.027894612 0.023089068 0.036071785 0.030535316 0.023724014 0.01919903 0.03329156 0.03357551
0.0080504315 0.04769441 0.0356472 0.023434293 0.015875423 0.027915461 0.01510324 0.029976
0.04573749 0.02281673 0.0013252042 0.008944407 0.0066118394 -0.004229164 -0.008938293 0.0061881715
-0.019225769 -0.035804495 -0.032931935 -0.024354432 -0.037619963 -0.13356885 0.010585245 -0.03748011
-0.017629666 -0.06680121 -0.043296415 0.032711465 0.0079961065 0.052498415 0.047379516 0.035402622
00000000: 308e 933d 8c57 2c3e a727 903d 6090 9b3d
00000010: a436 87bc 8258 ec3b 0bff 013d 2ead 8b3d
00000020: 46c6 b1bb 6e10 a1bd 0bb4 0b3d dd50 47bd
00000030: 19ce d8bd 6024 89bd 4251 b7bd 9a2f 693d
00000040: 4fcc 283d 48c5 30bd 7c9f d13d 3c6f 323d
00000050: 8f69 2d3d b607 0cbe dd28 223e 4b30 ce3b
00000060: 5bf7 e43d 1ff2 cf3d f5b0 bebd dae1 05be
00000070: 42c5 cebd 9720 4a3e 143d 153e 8ed7 8e3d
00000080: cb0c 373e 9349 14bd 6984 91bd 3a4a ec3d
00000090: ca08 703d e3b3 3c3e 2e6b 8f3d b142 163e
000000a0: 439d 75bd 0899 4ebc dec0 99bc c4d7 743e
000000b0: e14e ed3d 0e90 563e fa0c 163d 41fb 323e
000000c0: f623 143e 75ab c4bd f0ea b8bd 8777 c1bc
000000d0: 1ba9 cdbd 2b2b d8bd 8e22 de3d 7ad0 693d
000000e0: 1891 d73c 84ad de3d 54de e23d 0849 8b3b
000000f0: 2a32 89bc 8fc8 c3bd 779c c6bd d3c5 483d
00000100: 2347 ba3d 9bd3 553d 4075 51bd 5402 823d
00000110: f8b8 7d3d 4215 68bc 0891 49be b70e 9fbc
00000120: 305f 373d 8324 9bbd a8a6 febc aee1 8dbb
00000130: 1704 ffbd 0bdd 3cbe 32f8 9b3d b86f 293e
00000140: a679 073e b111 ba3d 5816 3a3b 05a8 0fbe
00000150: 819c e8bc bbc3 d43d fb18 f93c 4b7a 893d
00000160: 54c1 9ebb 8335 06be ad35 d3bd c5da b73d
00000170: e1f8 703b 9568 b63d 31a1 a7bd a317 0e3d
00000180: c9c4 b0bd 1120 1abe 9f81 f63d 0c72 6bbd
00000190: ce60 243d 43f4 76bd a95b 01bd af44 15be
000001a0: 1291 303d 8ef1 21be 5a4c 2e3c 3c0d ff3d
000001b0: 9b42 dbbd dd30 8cbd 392f 18be d7ac a8bd
000001c0: d212 a7bc a779 9fbd b28a d9bd 1b2c c7bd
000001d0: b2bb fabd df6f 81bc 643d 1fbe 37d1 36be
000001e0: aaeb 293e c0af a43b 4213 b53d 43f0 713d
000001f0: ae41 293d b9e5 2cbe 34a3 9abd 2bb9 e23d
00000200: 622c 023e fc4b 5a3e f584 813d c64e 883d
00000210: f8e3 98bd 5e32 6cbd b07e 043e 788e a8bc
00000220: e3c4 f1bd 373d 1dbe ead2 73be 9fc4 31be
00000230: 2533 00bd d319 98bc 5da9 1ebe f657 fcbd
00000240: 0a17 0bbe 9341 053d 3a83 2abe a864 08bd
00000250: 585c bfbb a4e5 5d3d cb2f 2f3d be32 be3a
00000260: f6cf 713d ca3f ff3c f699 023d 8c33 a23c
00000270: c0a1 8c3c 4f75 a33c e6e4 ed3c c4c8 ce3c
00000280: 443c 533d df1c 7c3d 42b3 143b 4493 503c
00000290: 1814 793c 8453 763c ee69 903c b345 c93c
000002a0: e0d2 af3c fe64 a13c 8280 783b cc32 74bb
000002b0: c6d0 033c afc5 c73c feb5 b13c 7af5 283d
000002c0: af03 d53c 814a e43a 28dd 0e3c 1a41 9f3c
000002d0: 8148 583c 0f4c 933c 2d51 23bc be1b 113d
000002e0: 00f0 d43c fbc0 18bc 7784 8a3c efcd eb3b
000002f0: cfd0 afbb 7242 b0bc 9cc2 0a3c af56 aabc
00000300: 2223 a5bc b054 67bc 7180 0ebd a1e8 a4bc
00000310: c2f4 8fbd d6d9 92bd ef1f 9b3b e2ab 59bd
00000320: 9191 87bc 42a7 4abd 62c5 80bd ff05 293b
00000330: a43f 3b3d 74e8 0f3d 43bb d93c 5739 1b3d
00000340: 2b15 213d 02fa 1d3d a4e6 3dbb 9633 1f3d
00000350: 1076 ea3c 47f8 b63c f0eb f53c e13e 303d
00000360: 3e83 e43c 4925 bd3c 02c0 133d 3325 fa3c
00000370: dd58 c23c 4947 9d3c bb5c 083d 7986 093d
00000380: f5e5 033c 375b 433d cc02 123d 46f9 bf3c
00000390: 2d0d 823c f7ae e43c 9473 773c 3a90 f53c
000003a0: 3c57 3b3d 27ea ba3c 79b2 ad3a 908b 123c
000003b0: 21a8 d83b cd94 8abb eb71 12bc 25c6 ca3b
000003c0: 5c7f 9dbc bca7 12bd a3e3 06bd f282 c7bc
000003d0: 6417 1abd 46c6 08be bc6d 2d3c be84 19bd
000003e0: 176c 90bc 13cf 88bd 9557 31bd 75fc 053d
000003f0: 1a02 033c 9408 573d 0611 423d 5702 113d

onnx::Conv_81 f4 [16]
0.25766233 -0.80467397 0.4068584 0.09076267 0.51509255 0.3525714 0.67062086 0.07040418
1.024436 0.43454975 0.19079845 0.6941259 0.7430743 1.0876569 0.677744 -0.72862685
00000000: 51ec 833e 1dff 4dbf bf4f d03e c7e1 b93d
00000010: 1bdd 033f 3d84 b43e cfad 2b3f 1130 903d
00000020: b820 833f 4e7d de3e ab60 433e 3cb2 313f
00000030: 1e3a 3e3f 5738 8b3f a180 2d3f 4a87 3abf

onnx::Conv_83 f4 [32, 16, 3, 3]
-0.022290621 -0.0335333 -0.06986127 -0.035445485 -0.08302299 -0.074180655 -0.08014381 -0.057789136
-0.11856163 0.017959528 0.009041708 -0.021362225 0.04637985 0.01815403 0.04386283 -0.058994006
-0.022780707 -0.093875825 0.029672502 0.031496778 0.026117995 0.035783578 0.023952628 -0.0022980724
-0.0043935305 -0.054841217 -0.027438242 0.12314504 0.026342347 0.040414978 -0.0470554 -0.026709363
-0.031774074 -0.00433316 -0.064628795 -0.06344825 -0.00832973 -0.06768637 -0.05492667 -0.0662011
0.06082018 -0.0063072466 0.063644394 0.057855256 0.09012637 0.06534382 0.06042327 0.04493892
0.0016587935 0.02821798 0.04243639 -0.016364057 -0.010678172 0.0033613143 0.059607446 0.044277716
0.021283878 0.005272827 0.018377403 0.0038454921 -0.020611804 -0.04270856 -0.026211493 -0.06930102
-0.00084454485 -0.06501536 -0.012358111 0.027981566 0.048292045 0.0010274313 0.05191143 0.08218692
0.089998685 0.005908141 0.088395715 -0.045425925 -0.010479416 -0.012425421 -0.09959157 -0.05691197
0.004234866 0.034079988 0.040238667 0.035650626 0.047258034 0.10672319 0.093444005 -0.07499083
-0.06841442 -0.059527352 -0.069126494 -0.007948604 -0.023546552 -0.08720851 -0.042708542 -0.022299428
-0.023144485 -0.009829849 0.049693927 -0.029176485 0.06047866 0.0412419 0.020234287 -0.0053635803
-0.020313453 -0.027823063 -0.008769717 -0.033927877 0.03830587 0.013599317 0.06727181 0.06758232
0.034184758 0.08269268 -0.009114042 0.031056276 0.004709626 0.0628312 0.056927714 0.016644668
0.025769264 -0.034323726 0.028342362 -0.062599786 -0.005036871 -0.039069127 -0.019185822 0.0018343774
0.015043538 -0.06977534 0.010524203 -0.054099392 -0.048067845 0.037017137 -0.05879115 0.050401296
0.017792689 -0.02433308 0.048310608 -0.052755684 -0.041507743 -0.12319431 -0.16423453 -0.1709101
-0.017425155 0.019020772 0.037576396 -0.04120262 0.025678914 0.04773643 -0.018292105 -0.04581587
-0.014673753 -0.010002541 -0.022848383 -0.030518392 -0.011167001 0.001991789 -0.024872614 0.0017005337
-0.057898376 -0.015779858 -0.009883859 0.022657106 0.010755929 0.03949242 0.008081354 0.010866128
0.019096026 0.028128413 -0.006379148 0.0221905 -0.015084467 0.046525102 0.008272806 -0.039973333
0.018883323 -0.024652367 -0.06774086 -0.035943404 -0.037928224 -0.03788158 -0.020286702 -0.028103547
-0.080842875 -0.05866767 -0.052059516 -0.047416337 -0.08917878 0.0005130865 0.013558109 -0.00045578886
-0.0005657414 0.009180307 0.0021953254 -0.0027062665 0.00892287 0.0004002785 0.010227481 -0.015827768
0.02754678 0.0018774795 -0.027151177 0.020081166 0.0010780251 -0.019109976 0.0013611161 -0.043601796
0.017234216 -0.0503244 -0.027853148 0.017670248 -0.019202512 0.01441982 -0.025362762 -0.058397878
-0.027009375 -0.0074759186 -0.015929978 -0.014776861 0.001984731 -0.026264511 -0.024272013 0.01927832
0.0015187887 0.0037122436 4.4521752e-05 0.0004455279 -0.018994238 -0.029648103 -0.03452602 -0.031599298
-0.028613485 -0.012058718 0.010342519 0.008453082 -0.01531166 -0.0016329568 -0.0052436325 -0.056001954
-0.02259716 -0.006932473 -0.02568002 -0.010774323 0.020352075 -0.014299998 0.03527072 0.07125381
0.003905135 -0.012412792 0.015863795 -0.0029836174 0.010576734 0.0300784 -0.0021739905 -0.03877572
00000000: d29a b6bc 375a 09bd 6d13 8fbd 492f 11bd
00000010: f507 aabd 07ec 97bd 7022 a4bd 4db4 6cbd
00000020: 71d0 f2bd dc1f 933c ac23 143c d5ff aebc
00000030: ccf8 3d3d c3b7 943c 83a9 333d b3a3 71bd
00000040: 9b9e babc f841 c0bd bf13 f33c c402 013d
00000050: 68f5 d53c cd91 123d 4d38 c43c 429b 16bb
00000060: 9bf7 8fbb 2fa1 60bd 2ac6 e0bc 7733 fc3d
00000070: e8cb d73c 2d8a 253d 2abd 40bd 98cd dabc
00000080: 8825 02bd 2efd 8dbb 1a5c 84bd 28f1 81bd
00000090: 6b79 08bc 279f 8abd cafa 60bd 7194 87bd
000000a0: 951e 793d 05ad cebb fe57 823d a2f9 6c3d
000000b0: 2d94 b83d fbd2 853d 647e 773d df11 383d
000000c0: e06b d93a 6529 e73c c8d1 2d3d ea0d 86bc
000000d0: 80f3 2ebc 7f49 5c3b f026 743d 8d5c 353d
000000e0: 875b ae3c aec7 ac3b 358c 963c a704 7c3b
000000f0: 16da a8bc 2cef 2ebd 7cb9 d6bc b1ed 8dbd
00000100: 7264 5dba c626 85bd ad79 4abc 9939 e53c
00000110: e1cd 453d e0aa 863a 14a1 543d 9e51 a83d
00000120: 3b51 b83d 1499 c13b d008 b53d 8910 3abd
00000130: dbb1 2bbc fe93 4bbc aaf6 cbbd 871c 69bd
00000140: a1c4 8a3b 7597 0b3d 4dd1 243d 6406 123d
00000150: a491 413d b091 da3d 925f bf3d cb94 99bd
00000160: dc1c 8cbd f4d2 73bd 3192 8dbd dd3a 02bc
00000170: b3e4 c0bc 609a b2bd 27ef 2ebd 4aad b6bc
00000180: 8199 bdbc 600d 21bc dc8b 4b3d 8603 efbc
00000190: 79b8 773d 44ed 283d 60c2 a53c f9c0 afbb
000001a0: 6668 a6bc 31ed e3bc dcae 0fbc f5f7 0abd
000001b0: 9ee6 1c3d abcf 5e3c cdc5 893d 9968 8a3d
000001c0: 5105 0c3d c85a a93d 1053 15bc bb69 fe3c
000001d0: 3553 9a3b a5ad 803d 092d 693d 665a 883c
000001e0: 101a d33c 0997 0cbd 3e2e e83c 5134 80bd
000001f0: 560c a5bb f306 20bd 962b 9dbc 7e6f f03a
00000200: 2c79 763c 60e6 8ebd b56d 2c3c 5397 5dbd
00000210: cae2 44bd 489f 173d fdce 70bd 9771 4e3d
00000220: f9c1 913c 2b56 c7bc 58e1 453d 5816 58bd
00000230: 0604 2abd 4c4d fcbd 192d 28be 0f03 2fbe
00000240: 33bf 8ebc 73d1 9b3c b5e9 193d 14c4 28bd
00000250: 965c d23c 4687 433d 53d9 95bc 6ca9 3bbd
00000260: 2e6a 70bc b3e1 23bc 882c bbbc b501 fabc
00000270: ccf5 36bc ad88 023b a7c1 cbbc 71e4 de3a
00000280: d926 6dbd c344 81bc e9ef 21bc 659b b93c
00000290: a339 303c cec2 213d a867 043c d807 323c
000002a0: 456f 9c3c 8f6d e63c 2c08 d1bb dac8 b53c
000002b0: d724 77bc 1b91 3e3d aa8a 073c 14bb 23bd
000002c0: 33b1 9a3c c3f3 c9bc b8bb 8abd 6439 13bd
000002d0: a05a 1bbd b729 1bbd 4c30 a6bc 6939 e6bc
000002e0: f390 a5bd 834d 70bd 5c3c 55bd a237 42bd
000002f0: 5da3 b6bd a780 063a d522 5e3c f2f6 eeb9
00000300: 434e 14ba 0069 163c 73df 0f3b 9e5b 31bb
00000310: 3b31 123c 79dc d139 2a91 273c 3ca9 81bc
00000320: c9a9 e13c c215 f63a 256c debc 4281 a43c
00000330: 854c 8d3a 868c 9cbc 7a67 b23a cc97 32bd
00000340: c52e 8d3c f520 4ebd 492c e4bc 32c1 903c
00000350: 964e 9dbc 1c41 6c3c 91c5 cfbc 9d32 6fbd
00000360: c442 ddbc 8df8 f4bb 967f 82bc a61a 72bc
00000370: 4312 023b ac28 d7bc 1ad6 c6bc 91ed 9d3c
00000380: 1812 c73a 1d49 733b debc 3a38 be95 e939
00000390: ce99 9bbc 94e0 f2bc 286b 0dbd 446e 01bd
000003a0: d466 eabc ee91 45bc ab73 293c cc7e 0a3c
000003b0: c2dd 7abc f008 d6ba c7d2 abbb 4e62 65bd
000003c0: ae1d b9bc cc29 e3bb e85e d2bc c986 30bc
000003d0: 65b9 a63c 8a4a 6abc 0878 103d 84ed 913d
000003e0: 4bed 7f3b 065f 4bbc caf4 813c cb88 43bb
000003f0: 0a4a 2d3c fa66 f63c 8279 0ebb 4ad3 1ebd

onnx::Conv_84 f4 [32]
0.24299021 0.45200726 -0.30511773 0.0881563 0.043829866 0.071229644 0.29931778 0.023764249
0.23086096 0.16813496 -0.044235848 0.049429927 -0.14815181 0.070705615 -0.20003192 -0.1854968
0.64887065 -0.005748595 0.28670317 0.02515126 -0.077087 -0.0026491787 -0.0636508 -0.0062387064
0.019030243 0.10605493 0.2811053 0.011568233 0.17349225 0.18356487 0.14872259 0.12745033
00000000: 6dd2 783e 7f6d e73e 6438 9cbe 4a8b b43d
00000010: f286 333d d9e0 913d 2e40 993e 3ead c23c
00000020: d166 6c3e 922b 2c3e a630 35bd 0977 4a3d
00000030: 1cb5 17be 1bce 903d 2bd5 4cbe e0f2 3dbe
00000040: 631c 263f b65e bcbb c2ca 923e 040a ce3c
00000050: cadf 9dbd d89d 2dbb 5a5b 82bd 106e ccbb
00000060: 50e5 9b3c 5433 d93d 09ed 8f3e b088 3d3c
00000070: f4a7 313e 6ef8 3b3e bc4a 183e 5782 023e

onnx::Conv_86 f4 [32, 32, 3, 3]
0.029465346 0.015777946 0.019047778 0.008418383 0.006920005 -0.0044726348 0.13742296 0.12782851
0.11048935 0.014717756 0.0034116546 -0.0062842323 0.020784657 0.003125795 -0.0022491165 -0.0008519308
-0.019122865 -0.013808263 0.036291253 0.024243701 0.033767335 0.0090063205 -0.016278224 0.001530591
0.05651711 0.037394103 0.04026256 0.008238794 0.010217079 0.0076800827 -0.0044287853 -0.001559818
-0.00074662286 -0.0026849336 0.001157533 0.0039610504 0.028087521 0.024833154 0.026591593 0.005285571
0.0025149875 0.00996035 0.004271765 -0.0011340026 0.0018783383 0.049990468 0.034701977 0.025867628
0.009585657 0.0033736015 0.00407836 -0.0020279516 -0.014042671 -0.023732817 0.034863755 0.02675471
0.016644234 0.01888896 0.012900419 0.005391551 -0.014515168 -0.022517715 -0.025503501 0.023780562
0.0051339422 0.0035331973 0.007535539 -0.009204376 -0.0027716751 -0.016283039 -0.015897056 -0.013297235
-0.019620214 -0.035149347 -0.034545925 -0.022564568 -0.024567278 -0.021295236 -0.02823244 -0.018129602
-0.024192603 0.002967963 -0.0089673 0.015785057 0.00063148135 -0.012630553 0.003440894 0.053376935
0.056892034 0.04766393 0.0024339801 0.0003443331 -0.000165357 0.0007928545 -0.0025260944 -0.0022603497
-0.00040863157 -0.0020276257 0.0007654545 0.011626355 -0.03377869 -0.0013199856 0.0074709454 -0.029555677
-0.0105214 -0.009606533 -0.03248166 0.0006662946 -0.02410265 -0.03514251 -0.023904843 -0.025093023
-0.02942942 -0.024383893 -0.0043074093 -0.0019454148 0.012194315 0.007171529 -0.008150543 -0.025769355
-0.012873983 -0.020609971 -0.021885071 0.0008840939 -0.014320395 -0.0059713754 -0.027798828 -0.040529694
-0.023719551 -0.020370767 -0.024286855 -0.011764717 0.0076959967 0.010967258 0.024166873 0.055964515
0.04389358 0.03671171 0.011593303 0.0016895754 0.0013254838 -0.027480936 -0.0379 -0.030010885
-0.008796847 -0.023533188 -0.0059126504 -0.0009853259 -0.00027183842 0.008572664 0.03046688 0.03404435
0.03809674 0.0044581224 0.0016864724 -0.00024774962 0.0042358623 -0.00020814674 0.0010116707 0.0019992252
-0.002462637 0.00096905587 0.041359507 0.035273455 0.02763533 0.013736925 0.0086515555 0.007034315
0.0019607104 -0.0023141636 0.00085889647 0.007970803 0.008174644 0.007477761 -0.0015279871 -0.0006663534
-0.0008440377 0.0018270948 0.00051375956 0.0014150054 -0.005997043 -0.015486578 -0.014300641 -0.013564587
-0.01812475 -0.013831707 -0.0034665952 -0.008506698 -0.0050968663 0.008794544 0.008426473 0.007822979
-0.003765456 -0.0045159664 -0.0052395235 0.00057035347 -0.0017673356 -0.002248034 0.012923242 -0.007755698
0.015741251 0.01583874 -0.0066879787 0.015562848 0.023740219 0.008789751 0.023050863 0.018788364
0.0009575238 0.0078064837 0.014140653 0.0006980685 0.01270725 0.017618245 0.00633093 0.016305093
-0.0055507477 -0.0048723063 0.0005875964 -0.03829553 -0.005232927 -0.0017018034 -0.021449102 -0.035486527
-0.039404646 0.008407211 0.0074085793 0.0057606543 0.0055296207 0.0057564145 0.0051445686 -0.0030366732
-0.0027662122 -0.0021816727 0.009674777 0.00823134 0.007837452 -0.0019307996 -0.001275122 0.00023037796
0.0008055064 0.0029114785 0.006290059 -0.0022591308 -0.003449173 -0.0039562243 -0.002928942 -0.004616573
-0.00491761 -0.003630895 -0.0036891403 -0.0046031503 -0.0058644745 0.00082162 0.0059552733 -0.005594331
00000000: 4f61 f13c c040 813c 160a 9c3c 42ed 093c
00000010: 36c1 e23b 2e8f 92bb 9bb8 0c3e 7ae5 023e
00000020: 3e48 e23d be22 713c 1196 5f3b f6eb cdbb
00000030: 9644 aa3c 23da 4c3b ea65 13bb 1c54 5fba
00000040: 8ea7 9cbc 0d3c 62bc 23a6 143d ba9a c63c
00000050: 9e4f 0a3d 3f8f 133c e959 85bc 1d9e c83a
00000060: 7c7e 673d 8f2a 193d 5bea 243d 02fc 063c
00000070: 8965 273c 34a9 fb3b 581f 91bb cf72 ccba
00000080: 03b9 43ba b6f5 2fbb 5db8 973a b3cb 813b
00000090: cd17 e63c e66e cb3c 9dd6 d93c 9532 ad3b
000000a0: 7dd2 243b bc30 233c 29fa 8b3b d0a2 94ba
000000b0: 9332 f63a cec2 4c3d a923 0e3d 59e8 d33c
000000c0: 290d 1d3c a417 5d3b c3a3 853b 62e7 04bb
000000d0: 3b13 66bc 536b c2bc 4ccd 0e3d b22c db3c
000000e0: 7d59 883c 05bd 9a3c 475c 533c 9cab b03b
000000f0: 07d1 6dbc 1277 b8bc b8ec d0bc 74cf c23c
00000100: a13a a83b 378d 673b afec f63b f3cd 16bc
00000110: fea4 35bb 0264 85bc 8b3a 82bc a5dc 59bc
00000120: 92ba a0bc c3f8 0fbd 0780 0dbd 54d9 b8bc
00000130: 5141 c9bc 5973 aebc b847 e7bc 8884 94bc
00000140: 912f c6bc 2882 423b 95eb 12bc aa4f 813c
00000150: ff89 253a 61f0 4ebc 9f80 613b c6a1 5a3d
00000160: 9f07 693d 413b 433d 6983 1f3b 9b87 b439
00000170: af63 2db9 91d7 4f3a d58c 25bb 6022 14bb
00000180: 9a3d d6b9 eae1 04bb c8a8 483a 787c 3e3c
00000190: 865b 0abd 5e03 adba d5ce f43b bf1e f2bc
000001a0: f361 2cbc b864 1dbc 7d0b 05bd 46aa 2e3a
000001b0: ec72 c5bc 98f1 0fbd 17d4 c3bc e28f cdbc
000001c0: f815 f1bc bbc0 c7bc 2b25 8dbb 4afd feba
000001d0: aaca 473c 25ff ea3b db89 05bc 411a d3bc
000001e0: 66ed 52bc 3ed6 a8bc 5248 b3bc 8ac2 673a
000001f0: 17a0 6abc 87ab c3bb 5eba e3bc 7702 26bd
00000200: 814f c2bc 98e0 a6bc 3af5 c6bc cdc0 40bc
00000210: b32e fc3b 04b0 333c 9bf9 c53c 0c3b 653d
00000220: c1c9 333d 055f 163d d6f1 3d3c be74 dd3a
00000230: dbbb ad3a b31f e1bc 083d 1bbd 63d9 f5bc
00000240: a720 10bc acc8 c0bc e8be c1bb 0d26 81ba
00000250: 8985 8eb9 5c74 0c3c ae95 f93c 1772 0b3d
00000260: 540b 1c3d 7115 923b a00c dd3a 64e4 81b9
00000270: fdcc 8a3b f741 5ab9 099a 843a 6f05 033b
00000280: 3164 21bb 3d08 7e3a 9668 293d e67a 103d
00000290: 7d63 e23c d710 613c 41bf 0d3c 1c80 e63b
000002a0: 437f 003b 39a9 17bb 9127 613a f997 023c
000002b0: f1ee 053c 0108 f53b bd46 c8ba 38ae 2eba
000002c0: 6942 5dba 217b ef3a d2ad 063a b477 b93a
000002d0: d882 c4bb 6bbb 7dbc 3c4d 6abc 003e 5ebc
000002e0: 5b7a 94bc 629e 62bc d12f 63bb ad5f 0bbc
000002f0: 9d03 a7bb fe16 103c 300f 0a3c f42b 003c
00000300: dec5 76bb acfa 93bb 4fb0 abbb c683 153a
00000310: f1a5 e7ba c153 13bb 01bc 533c 8323 febb
00000320: ccf3 803c 3fc0 813c d526 dbbb 51fb 7e3c
00000330: d97a c23c e302 103c 2ad5 bc3c 0eea 993c
00000340: 5602 7b3a 88cd ff3b 33ae 673c 96fe 363a
00000350: 1232 503c 2354 903c b173 cf3b 4292 853c
00000360: 0ce3 b5bb dea7 9fbb ed08 1a3a c6db 1cbd
00000370: f978 abbb 0c0f dfba 07b6 afbc 525a 11bd
00000380: c466 21bd 66be 093c abc3 f23b dfc3 bc3b
00000390: d231 b53b 4ea0 bc3b c593 a83b ec02 47bb
000003a0: 5749 35bb 65fa 0ebb f582 1e3c bedc 063c
000003b0: a868 003c e212 fdba ff21 a7ba 9d91 7139
000003c0: 9f28 533a 81ce 3e3b d71c ce3b ed0d 14bb
000003d0: 850b 62bb 37a3 81bb 7ef3 3fbb 9f46 97bb
000003e0: e723 a1bb 4ff4 6dbb 81c5 71bb 06d6 96bb
000003f0: c72a c0bb fc61 573a 7424 c33b a650 b7bb

onnx::Conv_87 f4 [32]
-0.08947293 -0.382165 -0.045276392 0.47618547 -0.24607635 -0.38740242 -0.32500857 0.000922814
-0.046457753 -0.15717325 0.058592603 -0.074757986 0.0050046667 0.23055133 -0.0014896258 -0.038739998
-0.0004337802 0.51490486 -0.031788956 -0.015893904 0.3720726 0.025254065 0.27347693 0.36803752
-0.0007311304 -0.017083315 0.059751995 -0.07695788 -0.02507751 -0.2317057 -0.16464232 0.32380408
00000000: 953d b7bd 22ab c3be bd73 39bd 95ce f33e
00000010: 70fb 7bbe 9c59 c6be 8667 a6be 00e9 713a
00000020: 7c4a 3ebd 06f2 20be ccfe 6f3d b71a 99bd
00000030: 30fe a33b a615 6c3e 8c3f c3ba d5ad 1ebd
00000040: fe6c e3b9 ced0 033f 2335 02bd ef33 82bc
00000050: 4d80 be3e 9de1 ce3c 2b05 8c3e 6a6f bc3e
00000060: 55a9 3fba 4ff2 8bbc 82be 743d 189c 9dbd
00000070: 5a6f cdbc 4244 6dbe ff97 28be a6c9 a53e

onnx::Conv_89 f4 [32, 16, 1, 1]
0.072726995 0.07706112 -0.026288062 0.032416876 -0.07338499 0.0049941363 0.015788727 0.018800234
0.050214253 0.0062521244 -0.018424876 0.059278004 -0.013465445 0.01994018 0.033613313 0.08011329
0.1433407 0.16879512 0.14744385 0.069857456 0.078726724 0.0018031213 -0.09796484 0.15005638
0.04644197 0.06403262 -0.24686125 0.15872087 0.18809329 -0.0017566329 0.13995148 0.0036479086
0.044427454 -0.030004038 0.015509153 0.029021638 0.040658854 -0.00446364 -0.0037511713 -0.0595321
-0.040060043 -0.021499244 -0.026003221 0.052058037 0.006818891 -0.042739786 0.0035978768 0.0008118595
0.025582226 -0.037787974 -0.075395994 -0.045410197 0.08081803 0.0039447453 0.14717229 0.091134526
0.13007848 0.16730404 0.070195064 -0.0151472725 0.08250703 0.08615729 -0.06346618 -0.02899853
0.24173129 0.15905179 0.015639037 -0.13125564 0.01828158 -0.010316929 0.017249743 0.18267219
0.08600968 -0.043946825 -0.21643712 0.17426772 0.18421432 0.011489803 0.016255444 -0.24515843
-0.1888898 0.12566942 -0.050541915 -0.17372966 -0.5298673 -0.057137698 -0.06435734 -0.32677105
-0.009116923 -0.082751535 0.2897056 0.5105392 -0.022504043 0.31509244 -0.14106059 0.08378192
0.21178651 -0.12695563 0.045969557 -0.13790934 -0.26358262 0.082382075 0.1262694 -0.10152392
0.030949581 -0.25303093 -0.11672234 0.119090535 0.2942896 -0.1897647 -0.19949482 0.026062183
0.018041484 -0.008210895 0.008362995 -0.009588521 -0.016632928 -0.00019382311 0.0033844798 0.02416937
0.011112423 -0.004415121 -0.0017958996 0.018903336 0.0143127935 -0.0152072 -0.012787996 0.0035060705
-0.16197857 -0.1437564 0.19766998 -0.29579785 0.13078763 0.12319752 -0.18736853 -0.10435185
-0.26500854 -0.0023994502 -0.11642345 0.14551297 0.4402713 0.069029585 -0.06667932 -0.18156812
-0.020810356 0.07141809 -0.022080997 -0.06261122 0.008584907 -0.0045186672 -0.021945277 0.06477405
-0.009950567 -0.019768111 -0.01637141 -0.0020516692 0.02528547 -0.044246905 -0.039525922 0.0002462895
0.18248837 -0.21042277 -0.018549649 0.028588472 -0.26271105 0.06005853 -0.123950765 0.1826357
0.12153411 0.09976183 0.38933733 -0.022843583 -0.0689228 0.0042113634 0.07101796 0.2839901
-0.020413183 0.035430323 0.0058878097 -0.038851254 0.079929 -0.0081707705 -0.03959771 0.05103185
-0.0400736 -0.008104214 -0.04573442 -0.050328076 -0.024283795 -0.039396472 -0.00085838494 0.0019057154
0.004771582 -0.007158969 0.05024478 -0.069559224 -0.023545725 0.00073461485 0.03782629 -0.0054782555
0.047246452 -0.007463056 -0.052448466 -0.044205457 0.0649512 -0.06705947 0.024945186 0.09287878
0.107061826 0.3738256 -0.047012668 0.0301997 -0.3164046 0.08796432 -0.022158638 -0.1086228
-0.06472347 0.23403493 -0.140254 -0.00998444 -0.112147816 0.050881088 0.13097726 -0.18125829
-0.0003506511 -0.00010709923 -1.8778264e-05 -0.0005559069 -0.00092935795 2.2896158e-06 -0.00015580711 0.0022965183
5.6332105e-06 3.1936263e-05 -0.0019183772 -4.1245792e-05 8.8705056e-05 -7.889358e-06 -0.0003605777 -0.00040256185
0.08823765 -0.012603889 0.0050808024 -0.017527211 0.033250183 0.00066533836 -0.0040838015 0.07251471
0.031094547 -0.008372274 -0.025684305 0.006712592 0.017497314 -0.014354837 0.0011112551 0.011301835
00000000: e4f1 943d 38d2 9d3d 105a d7bc 8fc7 043d
00000010: df4a 96bd daa5 a33b 5c57 813c f302 9a3c
00000020: 76ad 4d3d 9fde cc3b c4ef 96bc 7ecd 723d
00000030: 2b9e 5cbc 9759 a33c 1dae 093d 7012 a43d
00000040: e8c7 123e a1d8 2c3e 85fb 163e 6d11 8f3d
00000050: 7a3b a13d b656 ec3a caa1 c8bd 61a8 193e
00000060: ef39 3e3d 8923 833d 32c9 7cbe b987 223e
00000070: 879b 403e d23e e6ba 714f 0f3e c011 6f3b
00000080: 90f9 353d 07cb f5bc 1a1a 7e3c c9be ed3c
00000090: e689 263d ba43 92bb 36d6 75bb eed7 73bd
000000a0: 0016 24bd 2f1f b0bc b504 d5bc cf3a 553d
000000b0: 0171 df3b ea0f 2fbd 5bca 6b3b f8d2 543a
000000c0: d191 d13c 90c7 1abd 3769 9abd 0b00 3abd
000000d0: ec83 a53d ec42 813b 55b4 163e bda4 ba3d
000000e0: 4b33 053e c051 2b3e 6ec2 8f3d 442c 78bc
000000f0: 72f9 a83d 3c73 b03d 8efa 81bd 538e edbc
00000100: 6888 773e 79de 223e 701d 803c e167 06be
00000110: 41c3 953c 5608 29bc 554f 8d3c 6b0e 3b3e
00000120: d825 b03d 9601 34bd b1a1 5dbe 3d73 323e
00000130: aea2 3c3e ba3f 3c3c 232a 853c d00a 7bbe
00000140: 546c 41be 7caf 003e 0a05 4fbd 30e6 31be
00000150: 62a5 07bf 3809 6abd c8cd 83bd 894e a7be
00000160: 265f 15bc a379 a9bd 4b54 943e b2b2 023f
00000170: 665a b8bc cc53 a13e 3072 10be db95 ab3d
00000180: 90de 583e a800 02be 934a 3c3d 1b38 0dbe
00000190: 4df4 86be efb7 a83d c44c 013e c6eb cfbd
000001a0: fa89 fd3c 458d 81be 1f0c efbd bde5 f33d
000001b0: 20ad 963e ad51 42be 5f48 4cbe 5c80 d53c
000001c0: bccb 933c fd86 06bc f204 093c 2c19 1dbc
000001d0: c741 88bc ff3c 4bb9 26ce 5d3b d8fe c53c
000001e0: e110 363c b8ac 90bb 6464 ebba 2bdb 9a3c
000001f0: 3580 6a3c 9f27 79bc be84 51bc 1ac6 653b
00000200: b6dd 25be e134 13be 006a 4a3e d172 97be
00000210: 31ed 053e fb4e fc3d 89dd 3fbe 6cb6 d5bd
00000220: 33af 87be 1840 1dbb 6b6f eebd 5a01 153e
00000230: 3d6b e13e 625f 8d3d 2b8f 88bd feec 39be
00000240: 7b7a aabc a643 923d 35e3 b4bc 503a 80bd
00000250: b6a7 0c3c 5411 94bb 95c6 b3bc 42a8 843d
00000260: b407 23bc bcf0 a1bc 561d 86bc 4c75 06bb
00000270: 7923 cf3c 3e3c 35bd efe5 21bd 6b20 8139
00000280: 3bde 3a3e 1179 57be 6ff5 97bc 5f32 ea3c
00000290: 1082 86be efff 753d e6d9 fdbd da04 3b3e
000002a0: e0e6 f83d ee4f cc3d 3957 c73e 7722 bbbc
000002b0: 6627 8dbd 7aff 893b dd71 913d 2667 913e
000002c0: 8c39 a7bc 631f 113d 87ee c03b 7e22 1fbd
000002d0: d1b1 a33d b2de 05bc 3531 22bd c606 513d
000002e0: 3724 24bd 8ac7 04bc 0454 3bbd d024 4ebd
000002f0: cfee c6bc 325e 21bd 3d05 61ba 33c9 f93a
00000300: ee5a 9c3b c995 eabb 78cd 4d3d 1175 8ebd
00000310: f7e2 c0bc 2b93 403a bdef 1a3d f082 b3bb
00000320: 7f85 413d a78c f4bb 34d4 56bd c810 35bd
00000330: 2205 853d 7a56 89bd d959 cc3c 3b37 be3d
00000340: 3b43 db3d 1266 bf3e 5b90 40bd 5c65 f73c
00000350: c9ff a1be a326 b43d 0886 b5bc a175 debd
00000360: bd8d 84bd daa6 6f3e bf9e 0fbe c795 23bc
00000370: c1ad e5bd b068 503d e71e 063e c69b 39be
00000380: 98d7 b7b9 769a e0b8 0486 9db7 48ba 11ba
00000390: 28a0 73ba 4da7 1936 2760 23b9 2f81 163b
000003a0: e904 bd36 4df3 0538 0f72 fbba 55ff 2cb8
000003b0: 2a07 ba38 895c 04b7 eb0b bdb9 f00e d3b9
000003c0: f1b5 b43d 8b80 4ebc dc7c a63b 3a95 8fbc
000003d0: 5831 083d 1a6a 2e3a 69d1 85bb 9882 943d
000003e0: feb9 fe3c dd2b 09bc e467 d2bc 4ef5 db3b
000003f0: 8756 8f3c 8d30 6bbc 89a7 913a 552b 393c

onnx::Conv_90 f4 [32]
-0.12765193 -0.4119905 0.0032753064 -0.2765503 -0.20808798 0.24387448 0.24791257 -0.022460721
0.24530177 0.010045087 -0.29965192 0.025934314 -0.0035881521 0.10953046 -0.0009038679 -0.10893804
-0.0005390473 0.29666793 0.009834217 -0.026973419 -0.6520078 -0.07124659 -0.32171 -0.06253131
-0.0011653204 -0.035229493 0.18920097 -0.07091158 0.025355237 -0.10996628 -0.043883685 0.14224628
00000000: 30b7 02be 6bf0 d2be 86a6 563b 0098 8dbe
00000010: 0415 55be 3bba 793e cbdc 7d3e 8cff b7bc
00000020: 6330 7b3e 2694 243c fa6b 99be 3374 d43c
00000030: 3427 6bbb 8151 e03d 8cf1 6cba e81a dfbd
00000040: da4e 0dba dce4 973e b21f 213c 5cf7 dcbc
00000050: fce9 26bf bbe9 91bd 2cb7 a4be 6a10 80bd
00000060: aabd 98ba cd4c 10bd e6bd 413e 173a 91bd
00000070: c9b5 cf3c 0036 e1bd 61bf 33bd 02a9 113e

onnx::Conv_92 f4 [64, 32, 3, 3]
-0.00017136561 -0.00060836284 -0.0007652943 -0.0008976921 -0.0011358714 -0.0013831153 -0.0014550366 -0.0012535218
-0.0012284833 0.0032246232 0.002474601 0.0027414402 0.003443497 0.0028037103 0.0027350737 0.003627077
0.0030507557 0.0030096106 6.9248956e-05 9.780409e-06 -0.00043101577 0.000119766904 -0.0001480908 -0.00035291404
-9.413372e-05 2.871621e-06 -0.00040662597 -0.0004797698 -0.00051064964 -0.00047748035 0.0002665592 0.000105105035
0.0005673965 -0.0008773676 -0.00092929305 -0.0001925967 0.0023020075 0.0018334145 0.0016148788 0.0015078919
0.00097539363 0.0011320423 0.0018801149 0.0015824885 0.001921992 0.0004860788 7.242789e-05 0.000392723
0.0011418795 0.0019971197 0.0014948121 0.00064313604 0.0010413721 0.0012069088 0.00023447152 0.0009853952
0.0006228072 0.0007602666 0.0011522028 0.00085285824 0.0007979212 0.001486103 0.00057143124 -6.053404e-05
9.778466e-05 8.6176326e-05 -7.143125e-05 0.000119594006 6.2479245e-05 1.3633913e-05 0.00029902402 8.9598136e-05
0.00067086157 0.001523343 0.0008188811 0.0006753115 0.0017309228 0.000726468 3.5412588e-05 0.0016735164
0.00021660072 0.00012120828 -0.00039242816 0.00010535801 -0.00030162637 -0.00036368816 -1.362187e-05 -0.00022538261
0.0001397741 0.00054340233 -0.0007964909 -0.00048008433 -0.00018281084 -0.0007373006 -0.0005021944 -0.0006018646
-0.0011478651 -0.0008731073 -0.0009707431 -0.00025006593 -0.00057482877 -0.00065585924 -0.0004404727 -0.0010632102
-0.0013403143 -0.00026182193 -0.0007852676 -0.0010060007 -0.0013802727 -0.0013133376 -0.0009171614 -0.00021078109
-0.00070525054 -8.881966e-06 0.00024450722 -0.00016635546 0.00011428534 0.000983361 0.0011068338 0.0017614408
0.00072971545 0.001263311 0.0021855598 0.00031561227 0.00020953229 0.0011448833 -1.0009861e-06 -3.5927442e-07
-6.142303e-07 -8.4399596e-07 -3.6075843e-07 -1.0829106e-06 8.2104854e-08 9.459673e-08 -4.0285337e-07 0.00073410996
0.0005156706 0.00080038863 0.0013354031 0.0008212802 0.0011225776 0.0010554624 0.00051758596 0.0009251841
3.238088e-08 1.3008858e-07 -1.0743353e-07 1.305736e-07 1.24629915e-08 1.8897934e-07 -5.1777047e-08 -6.9963896e-08
-7.115613e-08 0.0017446125 0.0028514736 0.002346569 0.0012150147 0.0016561048 0.0012245865 0.00081090926
0.0020058772 0.0009131823 -0.0006788713 -0.0004651228 -0.00066329364 -0.00033329104 -0.00062231655 -0.00033697218
-0.0009622393 -0.0008676434 -0.0009549992 6.879766e-05 -8.680423e-06 5.0641815e-05 3.143221e-05 -4.7996223e-06
6.881571e-05 2.0200276e-05 -3.4410583e-05 7.363706e-05 0.0011684067 -0.0009907611 0.00072488835 0.00024008837
-0.0005542789 0.00016246969 -7.3188414e-05 -0.00058310415 0.0010968342 0.00029495513 0.00045030867 0.0005519475
-5.7074933e-05 7.795463e-06 0.00033970363 -2.2334525e-05 0.00012376497 0.00031782952 -0.00093547435 -0.0008933696
-0.0015955028 -0.0008493359 -0.0010129911 -0.0015182743 -0.0015681295 -0.0013345676 -0.0014535558 -0.000753322
0.0024081022 -0.0016789738 -0.0010804288 0.0007408002 -0.0020708828 -0.001165321 0.000564217 -0.0019902221
1.5800996e-08 1.0350352e-07 1.2179005e-07 1.8922155e-07 2.5054357e-08 3.5158286e-07 -9.02552e-10 -2.2281884e-07
-2.331858e-07 9.4803225e-05 -7.1070375e-05 0.00013404679 0.0003380802 0.00025933087 0.00044181148 0.0003652669
0.00035012484 0.0005117038 -2.3936913e-05 -0.0006383467 -0.00025971953 0.00036463657 -0.0007822195 -0.0011350239
0.0002787497 -0.0005753399 -0.000751662 -0.0005930121 -0.0011440761 -0.00083448546 -0.0013303891 -0.0018785002
-0.0016187867 -0.0012702891 -0.0013778429 -0.0010579503 -0.00032667883 -0.0003678354 -0.00016839903 2.0311654e-05
00000000: 9bb0 33b9 8a7a 1fba 089e 48ba 1953 6bba
00000010: 85e1 94ba a649 b5ba edb6 beba 364d a4ba
00000020: 0f05 a1ba 3354 533b ea2c 223b bca9 333b
00000030: 4bac 613b 74be 373b ec3e 333b 41b4 6d3b
00000040: 30ef 473b e33c 453b c039 9138 8916 2437
00000050: f5f9 e1b9 5e2b fb38 d248 1bb9 5207 b9b9
00000060: a869 c5b8 13b6 4036 6a30 d5b9 9d89 fbb9
00000070: 1edd 05ba 5456 fab9 f8c0 8b39 d66b dc38
00000080: 56bd 143a 25ff 65ba cd9b 73ba c8f3 49b9
00000090: 47dd 163b 2f4f f03a 57aa d33a 75a4 c53a
000000a0: 8fb1 7f3a 0961 943a 306e f63a 816b cf3a
000000b0: 5aeb fb3a 64d8 fe39 6de4 9738 64e6 cd39
000000c0: 1eab 953a 1ce2 023b 92ed c33a 2198 283a
000000d0: a67e 883a 2431 9e3a 78dc 7539 6028 813a
000000e0: e243 233a a14c 473a 8305 973a 5992 5f3a
000000f0: 962b 513a 58c9 c23a 1acc 153a eee5 7db8
00000100: bd11 cd38 90b9 b438 5ccd 95b8 8bce fa38
00000110: 4a07 8338 36bd 6437 53c6 9c39 a2e6 bb38
00000120: c2dc 2f3a e9aa c73a 2eaa 563a 6307 313a
00000130: 22e0 e23a 7170 3e3a fa87 1438 e459 db3a
00000140: 501f 6339 3331 fe38 d1be cdb9 a7f3 dc38
00000150: 9b23 9eb9 66ad beb9 7c89 64b7 af54 6cb9
00000160: 5390 1239 1d73 0e3a 99cb 50ba d4b3 fbb9
00000170: e9b0 3fb9 6847 41ba b2a5 03ba 73c6 1dba
00000180: f673 96ba 3de1 64ba 7779 7eba 481b 83b9
00000190: 1bb0 16ba f8ed 2bba 3fef e6b9 6a5b 8bba
000001a0: 7cad afba 2545 89b9 6bda 4dba c8db 83ba
000001b0: 44ea b4ba 4c24 acba a96d 70ba 1e05 5db9
000001c0: 90e0 38ba c103 15b7 3431 8039 b46f 2eb9
000001d0: 7aac ef38 1fe4 803a 2e13 913a 25e0 e63a
000001e0: 604a 3f3a af95 a53a 9c3b 0f3b c378 a539
000001f0: e5b5 5b39 e90f 963a 9f59 86b5 4de2 c0b4
00000200: 96e1 24b5 f68e 62b5 43ae c1b4 8658 91b5
00000210: 9f51 b033 1a25 cb33 bf47 d8b4 4971 403a
00000220: 112e 073a 2cd1 513a b108 af3a 2e4b 573a
00000230: 7423 933a 7157 8a3a 9bae 073a 0e88 723a
00000240: 2713 0b33 7aae 0b34 35b6 e6b3 cc33 0c34
00000250: d11c 5632 3fea 4a34 7761 5eb3 0f3f 96b3
00000260: 7fce 98b3 7bab e43a cadf 3a3b e5c8 193b
00000270: 2141 9f3a a811 d93a 4e82 a03a 3393 543a
00000280: 0975 033b a062 6f3a 48f6 31ba badb f3b9
00000290: e2e0 2dba 91bd aeb9 f522 23ba a4ab b0b9
000002a0: c93e 7cba 9072 63ba e958 7aba 7647 9038
000002b0: 22a2 11b7 3c68 5438 14d6 0338 710c a1b6
000002c0: 2751 9038 c373 a937 1554 10b8 986d 9a38
000002d0: 3925 993a 6ddc 81ba 6f06 3e3a 3bc0 7b39
000002e0: 074d 11ba a05c 2a39 bb7c 99b8 75db 18ba
000002f0: a6c3 8f3a 35a4 9a39 6817 ec39 92b0 103a
00000300: be63 6fb8 42c9 0237 401a b239 075b bbb7
00000310: e8c6 0139 5ba2 a639 9f3a 75ba 0531 6aba
00000320: 3120 d1ba f8a5 5eba 57c6 84ba d500 c7ba
00000330: b289 cdba a8ec aeba 3d85 beba 957a 45ba
00000340: 40d1 1d3b 0311 dcba 2d9d 8dba 4332 423a
00000350: a6b7 07bb afbd 98ba f6e7 133a 636e 02bb
00000360: c2ba 8732 a945 de33 65c5 0234 d32c 4b34
00000370: 1d37 d732 2ec1 bc34 7317 78b0 fa3f 6fb4
00000380: a061 7ab4 18d1 c638 9e0b 95b8 e98e 0c39
00000390: 5b40 b139 cdf6 8739 efa2 e739 4b81 bf39
000003a0: f690 b739 dc23 063a 21cc c8b7 b956 27ba
000003b0: f72a 88b9 b12c bf39 dd0d 4dba 15c5 94ba
000003c0: 2725 9239 68d2 16ba 2f0b 45ba 5e74 1bba
000003d0: d3f4 95ba 5fc1 5aba 7360 aeba 0238 f6ba
000003e0: 782d d4ba d47f a6ba bc98 b4ba ecaa 8aba
000003f0: 1746 abb9 08da c0b9 4594 30b9 f262 aa37

onnx::Conv_93 f4 [64]
-0.019459542 -0.0077530583 -0.13409692 -1.9502625e-06 -0.03769862 -0.002228418 -2.4288025e-05 -0.13542643
-0.04393365 -0.014875959 0.16492374 0.096951865 -0.004616295 -0.025400586 -0.07217277 -0.0009467162
-7.5131166e-13 -8.007807e-05 -0.02899888 -5.296259e-15 -0.05829668 -0.00822738 -0.035448387 -1.3890509e-21
-0.06481677 -0.013905074 -8.997582e-12 -0.050288424 -0.0849494 -0.031402953 -0.00018847724 -1.4698377e-15
-0.021804508 -0.0025887878 -0.03640754 -3.0183844e-07 -4.8538903e-12 -0.00034116118 -0.006722454 -0.015923714
0.13874134 -0.000117300704 -0.045482874 0.0636738 -0.12021706 -0.012703082 -0.016944773 -0.030322224
-0.11493648 -0.027985388 0.10226396 0.006903559 -0.068198904 -6.919111e-11 0.17807816 -0.0003254114
0.10983475 -0.027549606 0.061781965 -8.1173115e-05 -7.940883e-05 -0.0075187534 -0.021280685 -0.0015141681
00000000: 9e69 9fbc 5e0d febb b450 09be 41e1 02b6
00000010: de69 1abd a60a 12bb 23be cbb7 3aad 0abe
00000020: c5f3 33bd 4bba 73bc c5e1 283e b38e c63d
00000030: 4a44 97bb e414 d0bc 51cf 93bd 0c2d 78ba
00000040: b679 53ab 96ef a7b8 0f8f edbc 5ed1 bea7
00000050: 80c8 6ebd 22cc 06bc 5432 11bd 4ee8 d19c
00000060: a8be 84bd 1cd2 63bc 8249 1ead 3cfb 4dbd
00000070: f3f9 adbd 62a0 00bd f9a1 45b9 71d3 d3a6
00000080: 5e9f b2bc a7a8 29bb 1320 15bd 5c0c a2b4
00000090: f5c7 aaac e1dd b2b9 0848 dcbb 7372 82bc
000000a0: 3612 0e3e 56ff f5b8 404c 3abd 6967 823d
000000b0: 5d34 f6bd 9620 50bc c4cf 8abc 5066 f8bc
000000c0: d163 ebbd 9d41 e5bc c46f d13d 4037 e23b
000000d0: deab 8bbd 2227 98ae 1f5a 363e fb9b aab9
000000e0: 0bf1 e03d b6af e1bc 160f 7d3d 7c3b aab8
000000f0: 4a88 a6b8 e05f f6bb d554 aebc 0d77 c6ba

onnx::Conv_95 f4 [64, 64, 3, 3]
-0.00073539495 -0.00013397183 -0.0006990156 -0.00051759 1.705909e-05 -0.00047301743 -0.0005858213 -0.00010827494
-0.00049778464 1.1440717e-05 1.8995139e-05 -2.7827771e-05 1.0267537e-05 7.3340794e-05 -9.119061e-06 5.042919e-05
0.000120518154 2.1851436e-05 0.0007192652 -0.000663778 -0.00679164 -0.013770222 -0.008759346 -0.008916872
-0.00995726 -0.0033376366 0.0015380698 -5.518317e-38 5.2853744e-38 5.31526e-38 -4.946261e-38 5.1123275e-38
-5.041286e-38 -6.144397e-38 -6.178072e-38 3.8938032e-38 -0.00015016674 0.0004202084 -0.00032366952 -2.3463414e-05
0.00086669927 -0.00027883588 -9.0248956e-05 0.0010520739 4.5019333e-05 2.5840513e-38 -8.61534e-40 -6.2423144e-38
2.0256268e-38 6.6765914e-38 7.156057e-38 1.4718635e-38 -1.5653775e-38 1.1167305e-37 4.8371405e-38 -5.326383e-38
5.660846e-38 4.2029504e-38 4.930498e-38 -5.160306e-38 -5.8247196e-38 1.89527e-38 -4.928515e-38 0.0020765874
-0.00033648824 -0.0031600813 -0.0003206789 0.0021754038 -0.0018764002 0.0002827839 0.0034666013 0.0037198144
-0.0006847461 -0.0008974079 -0.0015233615 -0.006872767 -0.0046061613 -0.001528386 -0.007565944 -0.006949839
0.004699129 0.00031065263 0.0065619336 0.00092367036 -0.00041113948 0.0058212574 -4.7867903e-05 0.00022635219
0.0062157684 -7.1795985e-05 0.0024506915 -0.01148867 0.0033463412 -0.0026157708 -0.009786049 0.00062611455
-0.00495243 -0.013966685 0.0030038324 -0.002179437 -0.002689712 0.00170792 0.0043459446 0.003767499
0.0058627003 0.0018032098 -0.00031683838 -0.0005265997 -7.902036e-32 4.7613584e-36 6.403918e-38 -7.3659074e-38
3.2722272e-31 -6.505729e-38 6.2448317e-38 -3.391364e-36 -3.5480928e-38 -0.00018958237 -0.00039079724 -0.0010017424
-0.00019561041 0.00012136039 -0.00022182321 -0.0014825899 -0.001038059 -0.0007429002 0.00029479514 -0.00072674954
-0.00025289622 -0.003094976 -0.0021987788 -0.00072085817 -0.0020746624 -9.7368626e-05 0.0014815665 -5.491811e-38
-7.260944e-38 -4.639989e-38 -2.249009e-34 3.472873e-36 -7.023358e-38 7.278318e-38 -7.598645e-38 -9.222731e-38
2.4957341e-38 2.9236428e-38 2.8087237e-38 2.6918554e-38 6.480939e-38 2.502757e-38 -3.3280827e-38 2.537315e-38
2.9060063e-38 1.1010035e-37 4.5082818e-38 3.7794216e-38 4.9167264e-38 5.120038e-38 -3.1755903e-38 1.9400064e-38
9.2966635e-38 2.8569892e-38 0.00028262805 0.00030989366 0.0002790908 -0.00014417757 0.00029981366 0.0003994916
-0.0002934627 -0.00021137056 0.00019241292 -5.466374e-38 4.84091e-38 2.723101e-38 5.7446186e-38 4.837389e-38
-6.222084e-38 -2.609154e-38 -6.421942e-38 2.7522707e-38 -0.0004458066 8.153858e-05 -0.0007939914 0.00017912903
0.001044378 0.00042668165 9.889505e-05 0.0012887465 -4.9945134e-05 -8.674621e-06 -2.7513566e-05 -4.2454132e-05
5.6172034e-06 7.8109287e-07 -3.8448117e-05 1.8302386e-05 7.1131253e-06 8.937767e-06 -0.00048891286 0.005497848
-0.0009296349 0.00023709206 0.0062805344 -0.00064969104 0.000737035 0.006734364 -0.0003527097 2.6595983e-38
2.3348792e-38 2.5269607e-38 -2.2704541e-38 -2.2238147e-38 -2.492243e-38 -2.5972448e-38 -2.496463e-38 -2.6216383e-38
-0.0008648832 -7.150378e-05 -0.0011052936 -0.0047023436 -0.0014239503 -0.0018930122 -0.0036526867 -0.00047539553
-0.000672528 -0.00031528508 -0.00013355749 -0.00029963083 -0.00027664535 2.9482648e-05 -0.0001392675 -0.00015993761
-7.4965494e-05 -0.00017247506 -6.0624504e-38 -6.301606e-38 -2.2907319e-38 -1.9778906e-38 -4.3611626e-38 -1.9302727e-38
-2.0925171e-38 -2.1399899e-38 -2.4126192e-38 0.00048207823 0.01184215 0.0020465476 0.00095854385 0.012030397
0.0024881833 0.0015760774 0.011995377 0.0027178423 -0.0004255168 8.596783e-06 -0.0013802167 -0.0029475351
00000000: 85c7 40ba ca7a 0cb9 253e 37ba e0ae 07ba
00000010: 1e1a 8f37 53ff f7b9 cd91 19ba aa11 e3b8
00000020: c37d 02ba 81f1 3f37 c057 9f37 af6f e9b7
00000030: bc42 2c37 8ace 9938 12fe 18b7 ee83 5338
00000040: b1be fc38 9a4d b737 128d 3c3a 6301 2eba
00000050: 688c debb 7f9c 61bc 5c83 0fbc 1218 12bc
00000060: c723 23bc 40bc 5abb 0f99 c93a 0f39 9681
00000070: afe1 8f01 f5b1 9001 68a6 8681 b92b 8b01
00000080: a33c 8981 3344 a781 e12e a881 b2ff 5301
00000090: 1476 1db9 6b4f dc39 30b2 a9b9 4cd3 c4b7
000000a0: 3433 633a b830 92b9 0a44 bdb8 bee5 893a
000000b0: 24d3 3c38 6bb0 0c01 9b61 0980 95ee a981
000000c0: 3c92 dc00 0dc1 b501 70ce c201 9145 a000
000000d0: 5b74 aa80 6100 1802 f3ad 8301 79ff 9081
000000e0: 571a 9a01 94d4 6401 8e38 8601 167a 8c81
000000f0: 5f90 9e81 6b60 ce00 bd2a 8681 5b17 083b
00000100: b06a b0b9 5e19 4fbb cb20 a8b9 3891 0e3b
00000110: 8bf1 f5ba 9d42 9439 eb2f 633b 21c8 733b
00000120: 8880 33ba 0640 6bba 88ab c7ba f334 e1bb
00000130: 48ef 96bb 2054 c8ba bdeb f7bb 7abb e3bb
00000140: 27fb 993b 17df a239 7d05 d73b 7822 723a
00000150: 358e d7b9 3fc0 be3b c5c5 48b8 f458 6d39
00000160: a5ad cb3b 2d91 96b8 c89b 203b f93a 3cbc
00000170: 4a4e 5b3b 5a6d 2bbb aa55 20bc d621 243a
00000180: fe47 a2bb 86d4 64bc f2db 443b e3d4 0ebb
00000190: e145 30bb 49dc df3a 6d68 8e3b 25e8 763b
000001a0: e51b c03b ae59 ec3a 541d a6b9 820b 0aba
000001b0: 0a26 cd8b 9a86 ca04 cb54 ae01 e284 c881
000001c0: 3361 d40c 501a b181 2000 aa01 af40 9084
000001d0: 322d 4181 a1ca 46b9 ebe3 ccb9 e64c 83ba
000001e0: c51c 4db9 dd82 fe38 3799 68b9 7653 c2ba
000001f0: 7b0f 88ba 30bf 42ba bc8e 9a39 5683 3eba
00000200: 2897 84b9 15d5 4abb 6319 10bb f9f7 3cba
00000210: 0ff7 07bb 6232 ccb8 1f31 c23a 5680 9581
00000220: 65a9 c581 02a0 7c81 e878 9587 3db8 9304
00000230: a931 bf81 7922 c601 d4da ce81 0e11 fb81
00000240: 75e1 0701 a22d 1f01 e5eb 1801 fd8e 1201
00000250: 8e6d b001 5743 0801 b432 3581 0225 0a01
00000260: d137 1e01 5fdc 1502 4774 7501 73c5 4d01
00000270: 95d8 8501 7561 8b01 45e5 2c81 7c3f d300
00000280: 4a14 fd01 9e8c 1b01 b22d 9439 3979 a239
00000290: ef52 9239 5f2e 17b9 4f30 9d39 db72 d139
000002a0: e6db 99b9 5aa3 5db9 73c2 4939 11cf 9481
000002b0: 38c8 8301 7d42 1401 2662 9c01 aeaf 8301
000002c0: 9961 a981 4d0e 0e81 67d2 ae81 0ed9 1501
000002d0: 26bb e9b9 b1ff aa38 dc23 50ba 95d4 3b39
000002e0: 83e3 883a 3eb4 df39 e065 cf38 28eb a83a
000002f0: 2e7c 51b8 3789 11b7 efcc e6b7 c710 32b8
00000300: 697b bc36 4bac 5135 5a43 21b8 1388 9937
00000310: 48ad ee36 6bf3 1537 632a 00ba 4b27 b43b
00000320: beb2 73ba ea9b 7839 f1cc cd3b 0750 2aba
00000330: 9535 413a f1ab dc3b e5eb b8b9 64cd 1001
00000340: ef3e fe00 b194 0901 063b f780 e826 f280
00000350: ccb0 0781 4f68 0d81 9eeb 0781 4ebc 0e81
00000360: 54b9 62ba 4df4 95b8 80df 90ba 1e16 9abb
00000370: d8a3 baba f31e f8ba ea61 6fbb 823e f9b9
00000380: 974c 30ba d94c a5b9 910b 0cb9 c517 9db9
00000390: b60a 91b9 8151 f737 5608 12b9 edb4 27b9
000003a0: cb36 9db8 6cda 34b9 1d09 a581 c98b ab81
000003b0: 4970 f980 8b5f d780 bc71 6d81 2630 d280
000003c0: ddda e380 3606 e980 015b 0381 72bf fc39
000003d0: 9405 423c 5f1f 063b ca46 7b3a 241b 453c
000003e0: ca10 233b 6294 ce3a 4288 443c d41d 323b
000003f0: e617 dfb9 e73a 1037 63e8 b4ba 6f2b 41bb
