cmd/ai/datas/models/butterfly.onnx (onnx, 302121 bytes, 16 tensors)

fc.weight f4 [2, 256]
-0.13957858 -0.13322699 -0.15581155 -0.15201944 -0.19720228 -0.20765981 -0.071734786 -0.06446844
-9.861154e-09 -9.861149e-09 -9.861161e-09 -9.86116e-09 0.05723261 0.06084475 -0.06039961 -0.06335486
0.15513727 0.15971163 0.1681978 0.18055727 -9.154105e-37 -9.15396e-37 -9.153692e-37 -9.153331e-37
1.621721e-15 1.6213069e-15 1.6135101e-15 1.6130415e-15 9.041717e-05 9.058545e-05 9.1239155e-05 9.164313e-05
0.108677015 0.10719189 0.09020245 0.09207015 -0.11130641 -0.11888876 0.13537702 0.14117612
-0.05386703 -0.059427228 0.06612788 0.067775674 5.6947564e-18 5.694811e-18 5.6947907e-18 5.6947907e-18
-0.07647639 -0.082235396 0.12125834 0.11531668 0.14076217 0.15086937 0.13017647 0.14155783
0.111864634 0.1152583 0.12123362 0.13205808 -3.4834222e-36 -3.493505e-36 -3.5570503e-36 -3.571901e-36
0.117308274 0.11873315 -0.099412836 -0.10173798 -0.072372764 -0.0786021 0.09267397 0.09259785
4.68995e-13 4.690732e-13 4.688233e-13 4.6890405e-13 -0.11524578 -0.1289868 -0.11915248 -0.11753604
0.002452252 0.0025155968 -0.003740312 -0.0036639355 -2.750305e-08 -2.7504719e-08 -2.749655e-08 -2.750799e-08
-0.00017235905 -0.00018953638 0.00018690272 0.000224215 -0.118470825 -0.1433886 -0.10539847 -0.13777003
-2.73e-42 -3.739e-42 6.16e-42 -3.125e-42 1.004923e-13 1.00491684e-13 1.004909e-13 1.0048962e-13
1.32881e-40 1.33624e-40 1.32704e-40 1.32517e-40 -0.10690536 -0.10444922 0.13275196 0.119475044
1.7660701e-06 1.7647095e-06 1.7362106e-06 1.734392e-06 -0.14405102 -0.14878826 -0.12715048 -0.13716273
-1.5529e-41 -1.4625e-41 -1.1147e-41 -1.1964e-41 -0.0673771 -0.070003755 0.07857256 0.07837584
-5.538e-42 -3.307e-42 -4.672e-42 -5.595e-42 -1.8927e-41 -2.4045e-41 -2.844e-41 -2.8076e-41
2.5953234e-21 2.5953127e-21 2.5952767e-21 2.595266e-21 0.12184094 0.129255 0.10404317 0.11860768
-9.764103e-38 -9.764254e-38 -9.763435e-38 -9.763388e-38 0.06488757 0.064483024 -0.06423003 -0.06866177
-0.034187276 -0.034645718 0.0408736 0.043044303 1.0352349e-20 8.6081584e-21 -4.5419266e-20 -5.0843028e-20
0.20987268 0.24044274 0.23096327 0.25136036 6.9735114e-07 7.3256183e-07 -7.963565e-07 -1.1841685e-06
-0.2151651 -0.22247225 -0.06536721 -0.07001454 -0.0018155498 -0.0018133435 -0.001815273 -0.0018134699
-0.026933946 -0.038689252 0.15871623 0.1682831 0.11007134 0.123882055 0.11046258 0.12546082
-0.10561654 -0.07425541 -0.18280348 -0.15611075 -0.067289636 -0.07343797 0.081663154 0.08643405
2.8287e-40 2.80724e-40 2.8061e-40 2.77921e-40 0.13560337 0.13984565 -0.08895663 -0.096701644
0.078012586 0.08244139 0.18547998 0.20162487 -2.291e-41 -2.098e-41 -2.1922e-41 -2.1898e-41
-0.10484489 -0.10391114 -0.12200169 -0.09751745 -0.009517212 -0.010048703 0.07207243 0.07944501
-1.169255e-28 -5.476573e-28 -7.684009e-28 -4.8034754e-27 1.1679142e-25 1.1677536e-25 1.1675686e-25 1.1672769e-25
-1.5527398e-37 -1.55274e-37 -1.5527398e-37 -1.5527398e-37 0.002221489 0.0023240393 -0.003423417 -0.0033947986
-0.093205765 -0.10082525 0.11581465 0.10791104 -0.008975662 -0.00965819 -0.008282822 -0.008907662
1.455e-41 1.4534e-41 1.4197e-41 1.4527e-41 0.014794756 0.014283685 -0.017493725 -0.020296201
-0.046180796 -0.052769266 0.04143345 0.036882803 0.033347096 0.032184962 -0.036484756 -0.038508963
00000000: b0ed 0ebe a86c 08be 108d 1fbe fcaa 1bbe
00000010: 65ef 49be c6a4 54be b0e9 92bd 0808 84bd
00000020: d069 29b2 cb69 29b2 d869 29b2 d769 29b2
00000030: be6c 6a3d 5838 793d 9565 77bd 31c0 81bd
00000040: 4edc 1e3e 728b 233e 0b3c 2c3e 01e4 383e
00000050: c0bf 9b83 1ebf 9b83 f4bd 9b83 61bc 9b83
00000060: f2b6 e926 aba7 e926 0488 e826 ba76 e826
00000070: 599e bd38 b1f8 bd38 a657 bf38 8830 c038
00000080: 0e92 de3d 6c87 db3d 10bc b83d 468f bc3d
00000090: 9df4 e3bd f37b f3bd 46a0 0a3e 7990 103e
000000a0: ada3 5cbd f769 73bd 0e6e 873d f9cd 8a3d
000000b0: 7419 d222 f819 d222 c719 d222 c719 d222
000000c0: a79f 9cbd 086b a8bd 4b56 f83d 272b ec3d
000000d0: f523 103e 807d 1a3e fb4c 053e 89f4 103e
000000e0: 4919 e53d 8b0c ec3d 5549 f83d 3c3a 073e
000000f0: 1c2b 9484 e798 9484 d94c 9784 8fee 9784
00000100: 523f f03d 5e2a f33d f598 cbbd 015c d0bd
00000110: 2c38 94bd 23fa a0bd dacb bd3d f1a3 bd3d
00000120: a702 042b 4908 042b 47f6 032b 19fc 032b
00000130: fb05 ecbd 1e15 04be 3706 f4bd bcb6 f0bd
00000140: f6b5 203b b6dc 243b 0620 75bb a31e 70bb
00000150: d93f ecb2 8443 ecb2 8e31 ecb2 b64a ecb2
00000160: 48bb 34b9 49be 46b9 51fb 4339 411b 6b39
00000170: d5a0 f2bd 76d4 12be 27db d7bd 9613 0dbe
00000180: 9c07 0080 6c0a 0080 2c11 0000 b608 0080
00000190: de49 e229 8349 e229 0f49 e229 5248 e229
000001a0: 6b72 0100 7d74 0100 ed71 0100 6771 0100
000001b0: 33f1 dabd 79e9 d5bd 21f0 073e 55af f43d
000001c0: b509 ed35 f5da ec35 be07 e935 41c9 e835
000001d0: 1c82 13be f35b 18be bc33 02be 6374 0cbe
000001e0: 4a2b 0080 c528 0080 131f 0080 5a21 0080
000001f0: 01fd 89bd 215e 8fbd a6ea a03d 8383 a03d
00000200: 700f 0080 3809 0080 060d 0080 990f 0080
00000210: c334 0080 0743 0080 474f 0080 444e 0080
00000220: db18 441d a618 441d f417 441d bf17 441d
00000230: be87 f93d 6c5b 043e 9614 d53d 95e8 f23d
00000240: efe6 0482 76e7 0482 9be4 0482 71e4 0482
00000250: c6e3 843d ad0f 843d 098b 83bd 8b9e 8cbd
00000260: f507 0cbd abe8 0dbd 136b 273d 394f 303d
00000270: e38c 431e 809a 221e 867c 569f 7319 709f
00000280: dde8 563e 9f36 763e a381 6c3e 4eb2 803e
00000290: 9b31 3b35 44a5 4435 34c5 55b5 b8ef 9eb5
000002a0: 3d54 5cbe c4cf 63be 3edf 85bd c863 8fbd
000002b0: bef7 edba b6ad edba 74ee edba f4b1 edba
000002c0: 94a4 dcbc 9f78 1ebd 8286 223e 6852 2c3e
000002d0: 156d e13d e0b5 fd3d 353a e23d cd78 003e
000002e0: 7c4d d8bd 3813 98bd d630 3bbe 7fdb 1fbe
000002f0: 26cf 89bd a566 96bd 033f a73d 5604 b13d
00000300: 8714 0300 8b0e 0300 3a0e 0300 bb06 0300
00000310: 9cdb 0a3e b333 0f3e e52e b6bd 830b c6bd
00000320: 10c5 9f3d 08d7 a83d 77ee 3d3e c076 4e3e
00000330: dd3f 0080 7c3a 0080 1c3d 0080 0b3d 0080
00000340: ebb8 d6bd 5dcf d4bd 06dc f9bd 3bb7 c7bd
00000350: 15ee 1bbc 51a3 24bc b69a 933d 11b4 a23d
00000360: 7f38 1491 3d8f 2d92 1684 7392 0749 be93
00000370: ae94 1016 978f 1016 ba89 1016 7b80 1016
00000380: 1659 5382 1859 5382 1659 5382 1659 5382
00000390: 6796 113b e94e 183b 685b 60bb 457b 5ebb
000003a0: aae2 bebd 787d cebd 3b30 ed3d 7700 dd3d
000003b0: a80e 13bc 633d 1ebc acb4 07bc 71f1 11bc
000003c0: 8f28 0000 8428 0000 9327 0000 7f28 0000
000003d0: b465 723c 1e06 6a3c 004f 8fbc 3844 a6bc
000003e0: 1328 3dbd 9624 58bd 1fb6 293d 6c12 173d
000003f0: f796 083d 61d4 033d 0a71 15bd 93bb 1dbd

fc.bias f4 [2]
-0.04357386 0.10145273
00000000: 817a 32bd 73c6 cf3d

onnx::Conv_80 f4 [16, 3, 7, 7]
0.0050574224 -0.09289334 0.07798445 0.1588984 0.012833409 0.202532 -0.02118833 0.007602534
0.052662525 0.30309922 0.23176692 0.06185817 -0.049473755 -0.06314458 0.15511166 0.32320288
0.28106812 -0.011219896 0.18551469 0.11787671 0.027585732 0.37594652 0.23507646 0.0917878
-0.13357534 -0.20126854 -0.11974501 -0.03525783 0.32914084 0.07269339 0.044600792 -0.3011399
-0.15171935 -0.112560555 -0.034946356 0.08975671 -0.008836545 -0.061287723 -0.4585177 -0.44811565
-0.42257404 -0.17561759 0.10198969 0.105055824 -0.22927402 -0.34189394 -0.38667673 -0.3600934
-0.112142526 0.30445647 0.10136507 -0.07447161 -0.0439298 -0.1258444 -0.045273636 -0.089001395
0.02670252 0.041373964 0.07488248 -0.26322204 -0.065110885 -0.21404324 -0.024701623 0.07194214
0.05409481 -0.08497481 -0.051008005 -0.16018535 -0.17553751 -0.031103117 -0.056273796 -0.12894943
-0.022309208 -0.13540092 -0.14505665 -0.046042606 -0.23562735 0.03449471 0.08813036 -0.0041962266
0.1868205 0.23286052 -0.018477125 0.009129161 0.072164476 0.022410702 0.08829157 0.0741064
0.00022601952 -0.033493415 -0.15607566 -0.005016071 0.13916855 0.1579027 0.22584422 0.25418934
0.19255769 0.14561632 -0.20029914 -0.15752032 -0.16403466 -0.077011056 -0.071095124 -0.09638256
0.09574213 -0.3098473 -0.25660086 -0.23727617 -0.11716559 -0.0120254755 0.010090916 -0.101333305
-0.3684277 -0.22816622 -0.18206643 -0.08226004 0.23870647 0.33039948 0.14291851 -0.39314762
-0.2260926 -0.118020244 0.08339326 0.21443358 0.26890355 0.39355332 -0.31498596 -0.07045702
0.054278377 0.1803129 0.335496 0.43534765 0.42891178 -0.17605197 -0.21786545 -0.09263281
0.22982292 0.15373473 0.15187581 0.24502985 -0.23315175 0.002107998 0.07870416 -0.035881106
0.12830089 0.22405547 0.2951905 -0.042144805 -0.04217958 0.020141428 0.006976927 -0.0053697177
-0.039506 -0.049640063 -0.055944618 -0.046767287 -0.01496503 0.0034887774 0.0024681163 -0.026196148
-0.072003305 -0.036060907 -0.0622345 -0.025770836 0.0047519435 0.025114246 -0.01914274 -0.082678854
-0.010960753 -0.04887291 -0.034479365 -0.0075061913 0.016235309 0.001154605 -0.06597138 0.0021573142
-0.007466341 0.019004572 0.053421553 0.04082985 -0.0068001286 -0.08005537 -0.03585376 -0.037290245
-0.035359785 -0.03928679 -0.060183175 -0.09706134 -0.13330248 -0.016401293 0.0044336226 0.02417657
-0.007870497 -0.025704557 -0.084783375 -0.071336515 -0.02026643 -0.014097773 0.034933303 0.017809
0.04122195 -0.004675037 -0.016450532 -0.056467265 -0.02937024 0.016487801 0.06463183 0.04939284
0.030152317 -0.03319318 -0.06557148 -0.066196464 -0.0355488 0.036180384 0.07544647 0.048306055
-0.06690232 -0.0645138 -0.09022972 -0.046380818 0.038630266 0.067623064 0.050425105 -0.044074677
-0.037542153 -0.044797085 -0.027310148 0.02699995 0.036989164 0.0015611028 -0.058216315 -0.028280305
-0.0068991403 0.02360504 0.025790324 -0.035868432 -0.06816474 -0.07146907 0.0055091167 -0.006769269
-0.018913506 -0.01629874 -0.014849252 -0.07213912 -0.114019044 -0.022351773 -0.016677314 -0.022534294
0.023888832 0.006236278 -0.015400018 -0.05058511 -0.020725265 -0.0069020404 0.02216353 0.03205687
00000000: bcb8 a53b dd3e bebd 50b6 9f3d 43b6 223e
00000010: 3843 523c 8c64 4f3e 2693 adbc ad1e f93b
00000020: a9b4 573d d22f 9b3e 4f54 6d3e fe5e 7d3d
00000030: fea4 4abd f251 81bd 97d5 1e3e d97a a53e
00000040: 29e8 8f3e a8d3 37bc 90f7 3d3e 5869 f13d
00000050: 79fb e13c 107c c03e e2b7 703e 3efb bb3d
00000060: f9c7 08be 5719 4ebe df3c f5bd 846a 10bd
00000070: 2685 a83e 46e0 943d 52af 363d 022f 9abe
00000080: 515c 1bbe 2686 e6bd e923 0fbd 5ed2 b73d
00000090: 28c7 10bc d608 7bbd d5c2 eabe 6a6f e5be
000000a0: a05b d8be 19d5 33be f8df d03d 8227 d73d
000000b0: cfc6 6abe b90c afbe 7efa c5be 2a5e b8be
000000c0: fbaa e5bd b8e1 9b3e 7d98 cf3d 9284 98bd
000000d0: bcef 33bd 5bdd 00be d970 39bd 5d46 b6bd
000000e0: 3ebf da3c bf77 293d fc5b 993d 0ac5 86be
000000f0: db58 85bd 272e 5bbe 0f5b cabc 6756 933d
00000100: 8592 5d3d 4607 aebd c5ed 50bd a107 24be
00000110: 1bc0 33be f7cb febc 5a7f 66bd 520b 04be
00000120: cdc1 b6bc 8aa6 0abe bb89 14be 2c97 3cbd
00000130: 4c48 71be 534a 0d3d b17d b43d 8080 89bb
00000140: e04d 3f3e fd72 6e3e 575d 97bc 7a92 153c
00000150: f8ca 933d a696 b73c 36d2 b43d 19c5 973d
00000160: a7ff 6c39 6430 09bd 4cd2 1fbe da5d a4bb
00000170: 3382 0e3e 3fb1 213e b543 673e 1b25 823e
00000180: d82d 453e 721c 153e 381b 4dbe 024d 21be
00000190: b4f8 27be f9b7 9dbd 529a 91bd 3864 c5bd
000001a0: 7314 c43d 4ea4 9ebe 3061 83be 86f8 72be
000001b0: 83f4 efbd 8006 45bc 5f54 253c d687 cfbd
000001c0: 8ea2 bcbe 68a4 69be 9f6f 3abe f477 a8bd
000001d0: 786f 743e 1f2a a93e 3b59 123e a54a c9be
000001e0: d284 67be 99b4 f1bd 16ca aa3d 7a94 5b3e
000001f0: baad 893e d27f c93e d745 a1be c54b 90bd
00000200: 0153 5e3d f2a3 383e 22c6 ab3e e3e5 de3e
00000210: 539a db3e f846 34be 1f18 5fbe 45b6 bdbd
00000220: b356 6b3e a36c 1d3e 5585 1b3e 1be9 7a3e
00000230: 55bf 6ebe 5626 0a3b a62f a13d 11f8 12bd
00000240: 4f61 033e cc6e 653e 3623 973e 08a0 2cbd
00000250: 7fc4 2cbd a3ff a43c b59e e43b 75f4 afbb
00000260: 0bd1 21bd 6153 4bbd 2f26 65bd 0e8f 3fbd
00000270: e32f 75bc f9a3 643b 1fc0 213b 4e99 d6bc
00000280: 7876 93bd 9ab4 13bd 9ae9 7ebd 5c1d d3bc
00000290: 31b6 9b3b 64bc cd3c 3cd1 9cbc 8853 a9bd
000002a0: bb94 33bc f62e 48bd 3c3a 0dbd 7ff6 f5bb
000002b0: e9ff 843c 1d56 973a 011c 87bd ba61 0d3b
000002c0: 35a8 f4bb 7aaf 9b3c 8fd0 5a3d 333d 273d
000002d0: 9dd3 debb 12f4 a3bd 64db 12bd a8bd 18bd
000002e0: 6cd5 10bd 2feb 20bd a282 76bd 19c8 c6bd
000002f0: 7280 08be 015c 86bc ec47 913b f10d c63c
00000300: 42f3 00bc 5d92 d2bc e8a2 adbd e118 92bd
00000310: c905 a6bc 58fa 66bc 3916 0f3d 2ee4 913c
00000320: 59d8 283d 0e31 99bb 44c3 86bc 384a 67bd
00000330: dc99 f0bc 6d11 873c b15d 843d 2650 4a3d
00000340: fe01 f73c 92f5 07bd 574a 86bd 0392 87bd
00000350: 9e9b 11bd e231 143d ae83 9a3d 92dc 453d
00000360: 1504 89bd d01f 84bd 5cca b8bd d0f9 3dbd
00000370: c53a 1e3d f67d 8a3d 8e8a 4e3d a687 34bd
00000380: cdc5 19bd 267d 37bd 88b9 dfbc 002f dd3c
00000390: f381 173d eb9d cc3a 3b74 6ebd 19ac e7bc
000003a0: 2f12 e2bb 5b5f c13c 3b46 d33c c7ea 12bd
000003b0: f599 8bbd 605e 92bd d285 b43b bed0 ddbb
000003c0: 7ff0 9abc ef84 85bc 474a 73bc adbd 93bd
000003d0: d182 e9bd 111b b7bc dd9e 88bc d799 b8bc
000003e0: 83b2 c33c b159 cc3b 5b50 7cbc 5532 4fbd
000003f0: 08c8 a9bc 832a e2bb 4b90 b53c 114e 033d

onnx::Conv_81 f4 [16]
0.21004757 0.5669226 -0.37804326 -0.4507999 0.347907 0.53129315 -0.39016506 -0.76688576
0.06370248 0.29399043 0.18122846 0.43758613 0.3724227 0.43754247 0.20291176 0.48326328
00000000: b616 573e d721 113f e38e c1be 3fcf e6be
00000010: de20 b23e d402 083f b7c3 c7be a052 44bf
00000020: 7276 823d ea85 963e f493 393e 4a0b e03e
00000030: 30ae be3e 9105 e03e 1ac8 4f3e 496e f73e

onnx::Conv_83 f4 [32, 16, 3, 3]
-0.026605753 -0.013591849 -0.01248646 -0.015814885 -0.011927521 -0.020765513 -0.025270144 -0.028091066
-0.035266623 0.011436946 0.012793294 0.009597733 -0.0018050744 0.005575554 0.008350119 -0.012494842
-0.00366558 -0.0025609045 -0.0018620763 0.007898051 0.0040831007 0.0022677726 0.00061428273 -0.0059603895
-0.0033537776 -0.0063630943 -0.0086707 0.02129766 0.017860401 0.01353999 0.020189794 0.023510756
0.022747688 0.016046347 0.014472252 0.009745834 0.008162616 0.0031608795 -0.00048076324 0.0030238053
0.002121151 0.0023302548 -0.0023887847 -0.0009112211 -3.3291515e-05 0.011524783 0.0064498466 0.0015310929
-0.0016375683 -0.0035391138 -0.0029812676 -0.012052999 -0.0075369636 -0.005795106 -0.014199015 -0.011248731
-0.012464924 -0.0068419743 0.00061439833 -0.002682189 -0.016664686 -0.008172211 -0.0053232177 -0.013106688
-0.011131475 -0.012055854 -0.0034643828 -0.008009494 -0.016678177 -0.00663094 -0.00962339 -0.013777235
0.002447799 0.011703152 0.020232406 0.005014772 0.003091387 0.007496785 0.011114316 0.0013718571
0.0036838923 0.012000879 0.011188845 0.01822382 0.023862805 0.028807955 0.02997344 0.023646975
0.018995134 0.021415865 0.0054785074 -0.00018549069 -0.0063416483 -0.015111136 -0.009676209 -0.023985287
-0.013024859 0.00021744186 -0.021369312 0.008391862 0.0034319533 -0.001492925 -0.0015729651 -0.0028455956
-0.0024777672 -0.010048459 -0.0055159573 -0.0037487084 0.01821291 0.032566905 0.039420318 0.007887632
0.010728066 0.008724498 -0.006416237 -0.010497263 -0.015850265 0.0077365558 0.003992295 0.0051951846
-0.0063743917 -0.0050876727 -0.0022855403 -0.0153938 -0.011748836 -0.011461783 0.025164763 0.017505756
0.012272053 0.025521254 0.018470831 0.011626835 0.029799752 0.022355633 0.017938413 0.0002703292
0.00025081498 0.0067645987 -0.009367194 -0.014907449 -0.007634415 -0.0018368607 -0.007413769 -0.0056479
-0.11415514 0.036459114 0.1278862 -0.062387515 -0.019522924 0.07953172 -0.029259164 0.0035094523
0.06298867 -0.012250809 -0.038879678 -0.037326887 0.053875323 0.042502265 0.024194084 0.08963597
0.06302892 0.05655998 -0.039810617 0.014110342 0.09193714 -0.07907907 0.0057791444 0.07394607
-0.10452754 -0.06496755 0.0364578 0.062179357 0.0855424 0.05675115 -0.011772036 -0.03540326
0.002238156 -0.04962416 -0.05868569 -0.0207068 0.021079479 -0.017961143 -0.011520139 -0.011216497
-0.01510347 -0.033727158 0.021300554 0.009414717 -0.003422642 -0.0010281564 -0.030338457 -0.034045205
0.06109612 0.016296253 -0.002599414 0.08493238 0.06815374 0.035841707 0.017506711 0.064993404
0.044673275 0.028189082 0.039446283 0.032823376 0.027248623 0.04559319 0.089707285 0.031862386
0.03176155 0.072573766 -0.024334736 0.0056786663 0.03962367 -0.045141105 -0.030703938 0.0097543
0.101852074 0.007979338 -0.019931683 0.109956115 0.027891232 -0.03731298 0.026194328 -0.024507677
-0.04314033 0.031016687 0.04122957 0.04854856 -0.035207566 -0.054240532 -0.06669387 -0.017829396
-0.01564334 0.016694412 -0.059237577 -0.020568611 0.086071074 -0.0951784 -0.11512289 -0.044636622
-0.01607557 0.0051245135 0.047719855 0.009078455 -0.022694588 -0.023880746 0.04951581 0.017796554
-0.00204172 0.08655538 0.063493244 0.035432816 0.071031645 -0.03038165 -0.0964413 -0.021638725
00000000: 4ff4 d9bc 59b0 5ebc 0294 4cbc 388e 81bc
00000010: a66b 43bc 701c aabc 5503 cfbc 3c1f e6bc
00000020: bc73 10bd 0762 3b3c f79a 513c cf3f 1d3c
00000030: 3f98 ecba 23b3 b63b f0ce 083c 2ab7 4cbc
00000040: 3a3a 70bb d9d4 27bb ea10 f4ba d466 013c
00000050: 88cb 853b e99e 143b d107 213a 5f4f c3bb
00000060: 0dcb 5bbb 8181 d0bb 8d0f 0ebc 6e78 ae3c
00000070: fa4f 923c d6d6 5d3c 1165 a53c a199 c03c
00000080: 5c59 ba3c a173 833c 061d 6d3c feac 1f3c
00000090: 7ebc 053c c226 4f3b f30e fcb9 092b 463b
000000a0: 0203 0b3b 30b7 183b 288d 1cbb 03df 6eba
000000b0: 7ea2 0bb8 72d2 3c3c 3c59 d33b f4ae c83a
000000c0: ada3 d6ba 7af0 67bb 5f61 43bb f179 45bc
000000d0: a2f8 f6bb dfe4 bdbb fca2 68bc 994c 38bc
000000e0: ae39 4cbc a432 e0bb 930f 213a aac7 2fbb
000000f0: 6184 88bc bde4 05bc 636e aebb 6fbd 56bc
00000100: ca60 36bc eb85 45bc b30a 63bb 413a 03bc
00000110: aca0 88bc 5b48 d9bb 6cab 1dbc e9b9 61bc
00000120: 416b 203b 94be 3f3c 6ebe a53c f552 a43b
00000130: de98 4a3b 97a7 f53b d218 363c e3cf b33a
00000140: 756d 713b 569f 443c 6b51 373c 1f4a 953c
00000150: ee7b c33c a9fe eb3c dc8a f53c 4db7 c13c
00000160: af9b 9b3c 5370 af3c 0d85 b33b 4780 42b9
00000170: 9acd cfbb b394 77bc f688 1ebc cb7c c4bc
00000180: 3866 55bc 1b01 6439 b20e afbc 057e 093c
00000190: 9fea 603b 40ae c3ba f32b ceba 2c7d 3abb
000001a0: 0962 22bb 4ba2 24bc 34bf b4bb e4ac 75bb
000001b0: 3e33 953c e064 053d 3377 213d 203b 013c
000001c0: c5c4 2f3c 32f1 0e3c 4c3f d2bb b6fc 2bbc
000001d0: 6ad8 81bc ef82 fd3b ccd1 823b 5e3c aa3b
000001e0: 46e0 d0bb 7eb6 a6bb 01c9 15bb 4736 7cbc
000001f0: 317e 40bc 34ca 3bbc 5526 ce3c 3b68 8f3c
00000200: b910 493c f311 d13c 2450 973c 7b7e 3e3c
00000210: 9c1e f43c 2923 b73c 94f3 923c f9ba 8d39
00000220: d17f 8339 91a9 dd3b dc78 19bc 5f3e 74bc
00000230: 1d2a fabb d1c2 f0ba 34ef f2bb 0512 b9bb
00000240: 2cca e9bd 2756 153d 9af4 023e 0d8a 7fbd
00000250: 8aee 9fbc 87e1 a23d eab0 efbc d7fe 653b
00000260: 3400 813d 9eb7 48bc 4c40 1fbd 14e4 18bd
00000270: 5fac 5c3d db16 2e3d ac32 c63c 1093 b73d
00000280: 4e15 813d 70ab 673d 7510 23bd 102f 673c
00000290: 8a49 bc3d 35f4 a1bd fa5e bd3b 0a71 973d
000002a0: 8912 d6bd b50d 85bd c654 153d c8af 7e3d
000002b0: db30 af3d e573 683d 7fdf 40bc 0203 11bd
000002c0: 07ae 123b b442 4bbd 6860 70bd 4fa1 a9bc
000002d0: dfae ac3c 3f23 93bc f7be 3cbc 66c5 37bc
000002e0: 8b74 77bc 7d25 0abd 807e ae3c 2f40 1a3c
000002f0: 674e 60bb 34c3 86ba 5b88 f8bc fc72 0bbd
00000300: ed3f 7a3d b87f 853c ee5a 2abb 07f1 ad3d
00000310: 3094 8b3d c1ce 123d 3c6a 8f3c 431b 853d
00000320: 53fb 363d caec e63c 6d92 213d ce71 063d
00000330: 8138 df3c edbf 3a3d 74b8 b73d 2282 023d
00000340: 6618 023d 8ea1 943d a459 c7bc 1b14 ba3b
00000350: 6e4c 223d e1e5 38bd d386 fbbc 80d0 1f3c
00000360: d297 d03d c5bb 023c c547 a3bc ac30 e13d
00000370: 277c e43c 7fd5 18bd 7d95 d63c 53c4 c8bc
00000380: eab3 30bd b516 fe3c 56e0 283d dbda 463d
00000390: cf35 10bd 522b 5ebd cc96 88bd f40e 92bc
000003a0: 7626 80bc b8c2 883c 1aa3 72bd 817f a8bc
000003b0: 0846 b03d e5ec c2bd 8dc5 ebbd e4d4 36bd
000003c0: eab0 83bc 89eb a73b e575 433d cdbd 143c
000003d0: 00ea b9bc 8ea1 c3bc 17d1 4a3d 14ca 913c
000003e0: 61ce 05bb f243 b13d bf08 823d 0022 113d
000003f0: 0a79 913d f0e2 f8bc 0483 c5bd b243 b1bc

onnx::Conv_84 f4 [32]
-0.082400106 -0.14422974 -0.045678735 0.22159275 -0.22757067 -1.517931e-39 -0.4891709 -0.029389553
0.04137134 -2.2852632e-08 0.068343125 0.0357937 -0.52973384 -0.28322038 -0.029612068 0.13685189
9.5506e-40 0.5094733 -1.23915e-40 2.10574e-39 0.10409958 0.19875057 -1.679825e-39 -0.13287446
4.12123e-40 -9.7264e-41 -2.706885e-39 1.265028e-39 0.20281757 -0.033210266 0.15632467 -0.13930467
00000000: 63c1 a8bd f6b0 13be a019 3bbd 36e9 623e
00000010: 4908 69be 6087 1080 9c74 fabe 5cc2 f0bc
00000020: ff74 293d 784d c4b2 7bf7 8b3d 6a9c 123d
00000030: a39c 07bf 4302 91be 0295 f2bc e722 0c3e
00000040: 5266 0a00 d86c 023f 6d59 0180 f2ed 1600
00000050: 2932 d53d 4585 4b3e ab4a 1280 3e10 08be
00000060: d57c 0400 220f 0180 b279 1d80 62c6 0d00
00000070: 69af 4f3e 7d07 08bd 9313 203e e2a5 0ebe

onnx::Conv_86 f4 [32, 32, 3, 3]
1.57e-43 6.4e-44 8.1e-44 2.02e-43 -1.84e-43 -1.18e-43 7.8e-44 -1.74e-43
1.92e-43 -4.5e-44 8.7e-44 7e-45 1.5526009e-36 7.081921e-39 -1e-43 1.2270743e-38
1.7972594e-35 -1.23e-43 3.5e-44 -9.7e-44 5.7e-44 1.74e-43 1.33e-43 1.4e-43
-7.3e-44 -2.8e-44 -2.4e-44 7e-44 -1.4e-44 1.46e-43 2.1e-44 1.18e-43
1e-44 1.39e-43 -1.04e-43 1.44e-43 -7.3e-44 -1.49e-43 -3.7406101e-38 1.58e-43
8.866e-42 -1.3028762e-35 8.8e-44 -8.46101e-40 -5.4251255e-34 6.22e-43 -3.03e-43 2.47e-43
2.73e-43 7.24e-43 6.35e-43 4.53e-43 8.4e-44 9.2e-44 7e-45 -4.9293e-41
-1.4623e-41 5.2564622e-36 2.1253752e-32 7.4641854e-35 3.3995558e-34 1.0763941e-30 2.433269e-34 8.1e-44
5.9e-44 2e-44 7.8e-44 -1.18e-43 -8e-44 8.5e-44 1.15e-43 7.3e-44
-1e-45 1.98e-43 1.36e-43 2.8e-43 2.13e-43 -8e-44 1.15e-43 1.64e-43
-1.58e-43 -2.41e-43 4.5e-44 -5.44e-43 -8.5e-44 -2.59e-43 -4e-45 -2.93e-43
-2.38e-43 9.2e-44 -2.13e-43 -1.2e-43 -1.95e-43 1.06e-43 1.57e-43 1.57e-43
1.25e-43 -1.88e-43 2.4e-44 -3e-45 1.88e-43 -2.1e-43 -1.42e-43 -1.51e-43
-1.67e-43 -1.28e-43 1.77e-43 -2.5e-44 -2.14e-43 1.6827562e-37 -2.864e-42 -4.736e-42
1.900711e-37 5.3e-44 -8.5e-44 -9.1e-44 9.8e-44 8.5e-44 -7e-45 -2e-44
7.7e-44 -1.77e-43 4.2e-44 -4.3e-44 1.58e-43 -7.3e-44 -3.8327e-41 1.4519044e-36
3.3593693e-33 -3.9e-44 5.1952993e-34 6.677974e-31 8e-45 1.6735291e-38 1.161235e-37 2.02e-43
-1.06e-43 3.8e-44 1.86e-43 1.42e-43 -1.12e-43 1.47e-43 -2.05e-43 -8.4e-44
4.92e-43 -3.7e-43 3.92e-43 -1.35e-43 2.66e-43 4.12e-43 -5.1e-43 6.84e-43
-6.63e-43 1.75e-43 1.1e-44 -1.37e-43 1.32e-43 -1.7e-44 8.4e-44 1.39e-43
-9.5e-44 7e-45 3.84e-43 -4.02e-43 1.29e-43 3.85e-43 3.08e-43 -1.46e-43
2.66e-43 -3.5e-44 -7.79e-43 4.36e-43 -2.47e-43 -1.9e-43 3.31e-43 -1.74e-43
6.42e-43 -3.4e-43 -6.5e-43 6.2e-43 -1.68e-43 -1e-44 -1.61e-43 -1.16e-43
-6.4e-44 1.12e-43 -3.1e-44 -3.5e-44 1.57e-43 -6.9e-44 1.33e-43 8.7e-44
1.68e-43 -1.14e-43 1.74e-43 1.06e-43 1.43e-43 -1.61e-43 3.57e-43 1.46e-43
-2.66e-43 -5.32e-43 -2.31e-43 -1.36e-43 -7.1e-44 1.19e-43 -4.2e-43 -2.1e-44
1.89e-43 1.57e-43 1.53e-43 -1e-43 4.5e-44 -2.7e-44 -9.2e-44 5e-44
2.56e-43 3e-44 2.66e-43 -2.3e-43 -1.28e-43 -4.39e-43 -3.25e-43 7.54e-43
5.5e-44 -4.02e-43 2.5e-43 4.22e-43 -1.28e-43 2.35e-43 1.15e-43 -5.1e-43
4e-45 -2.14e-43 4.18e-43 1.85e-43 -6.21e-43 4.23e-43 3.17e-43 -3.3e-43
-7.05e-43 -1.22e-43 -4.19e-43 2.27e-43 -3.57e-43 -3.64e-43 -6e-44 1.84e-43
-3.01e-43 2.58e-43 -3.39e-43 2.8e-44 9.7e-44 -1.78e-43 1.1e-43 -1.14e-43
00000000: 7000 0000 2e00 0000 3a00 0000 9000 0000
00000010: 8300 0080 5400 0080 3800 0000 7c00 0080
00000020: 8900 0000 2000 0080 3e00 0000 0500 0000
00000030: a714 0404 841d 4d00 4700 0080 d79d 8500
00000040: 0e1e bf05 5800 0080 1900 0000 4500 0080
00000050: 2900 0000 7c00 0000 5f00 0000 6400 0000
00000060: 3400 0080 1400 0080 1100 0080 3200 0000
00000070: 0a00 0080 6800 0000 0f00 0000 5400 0000
00000080: 0700 0000 6300 0000 4a00 0080 6700 0000
00000090: 3400 0080 6a00 0080 7fa8 4b81 7100 0000
000000a0: b718 0000 aa8b 8a85 3f00 0000 9636 0980
000000b0: dd47 3488 bc01 0000 d800 0080 b000 0000
000000c0: c300 0000 0502 0000 c501 0000 4301 0000
000000d0: 3c00 0000 4200 0000 0500 0000 6989 0080
000000e0: c328 0080 ce95 df04 2ab6 dc0a 9d6e c606
000000f0: 72f0 e107 a9a7 ae0d edb7 a107 3a00 0000
00000100: 2a00 0000 0e00 0000 3800 0000 5400 0080
00000110: 3900 0080 3d00 0000 5200 0000 3400 0000
00000120: 0100 0080 8d00 0000 6100 0000 c800 0000
00000130: 9800 0000 3900 0080 5200 0000 7500 0000
00000140: 7100 0080 ac00 0080 2000 0000 8401 0080
00000150: 3d00 0080 b900 0080 0300 0080 d100 0080
00000160: aa00 0080 4200 0000 9800 0080 5600 0080
00000170: 8b00 0080 4c00 0000 7000 0000 7000 0000
00000180: 5900 0000 8600 0080 1100 0000 0200 0080
00000190: 8600 0000 9600 0080 6500 0080 6c00 0080
000001a0: 7700 0080 5b00 0080 7e00 0000 1200 0080
000001b0: 9900 0080 7f0b 6502 fc07 0080 340d 0080
000001c0: 0e5b 8102 2600 0000 3d00 0080 4100 0080
000001d0: 4600 0000 3d00 0000 0500 0080 0e00 0080
000001e0: 3700 0000 7e00 0080 1e00 0000 1f00 0080
000001f0: 7100 0000 3400 0080 d76a 0080 5b07 f703
00000200: f18a 8b09 1c00 0080 b8a4 2c08 70b6 580d
00000210: 0600 0000 2f3b b600 220f 1e02 9000 0000
00000220: 4c00 0080 1b00 0000 8500 0000 6500 0000
00000230: 5000 0080 6900 0000 9200 0080 3c00 0080
00000240: 5f01 0000 0801 0080 1801 0000 6000 0080
00000250: be00 0000 2601 0000 6c01 0080 e801 0000
00000260: d901 0080 7d00 0000 0800 0000 6200 0080
00000270: 5e00 0000 0c00 0080 3c00 0000 6300 0000
00000280: 4400 0080 0500 0000 1201 0000 1f01 0080
00000290: 5c00 0000 1301 0000 dc00 0000 6800 0080
000002a0: be00 0000 1900 0080 2c02 0080 3701 0000
000002b0: b000 0080 8800 0080 ec00 0000 7c00 0080
000002c0: ca01 0000 f300 0080 d001 0080 ba01 0000
000002d0: 7800 0080 0700 0080 7300 0080 5300 0080
000002e0: 2e00 0080 5000 0000 1600 0080 1900 0080
000002f0: 7000 0000 3100 0080 5f00 0000 3e00 0000
00000300: 7800 0000 5100 0080 7c00 0000 4c00 0000
00000310: 6600 0000 7300 0080 ff00 0000 6800 0000
00000320: be00 0080 7c01 0080 a500 0080 6100 0080
00000330: 3300 0080 5500 0000 2c01 0080 0f00 0080
00000340: 8700 0000 7000 0000 6d00 0000 4700 0080
00000350: 2000 0000 1300 0080 4200 0080 2400 0000
00000360: b700 0000 1500 0000 be00 0000 a400 0080
00000370: 5b00 0080 3901 0080 e800 0080 1a02 0000
00000380: 2700 0000 1f01 0080 b200 0000 2d01 0000
00000390: 5b00 0080 a800 0000 5200 0000 6c01 0080
000003a0: 0300 0000 9900 0080 2a01 0000 8400 0000
000003b0: bb01 0080 2e01 0000 e200 0000 eb00 0080
000003c0: f701 0080 5700 0080 2b01 0080 a200 0000
000003d0: ff00 0080 0401 0080 2b00 0080 8300 0000
000003e0: d700 0080 b800 0000 f200 0080 1400 0000
000003f0: 4500 0000 7f00 0080 4e00 0000 5100 0080

onnx::Conv_87 f4 [32]
-1.0674533e-07 -1.46031e-40 0.20689246 1.11933e-40 0.0713876 0.25607103 0.0478703 0.031334173
0.07347576 -0.057295352 -0.03972637 0.039136413 0.07221444 -0.028515197 -0.02771606 0.021758616
-5.53653e-40 0.023529194 1.70196e-40 7.04849e-40 2.41218e-40 -0.03989379 0.0035114298 -0.026516557
-0.08950142 -2.0492195e-09 0.16531348 0.21713486 5.31648e-40 1.73824e-40 0.18922552 -0.0023585446
00000000: de3b e5b3 1397 0180 9edb 533e 0638 0100
00000010: a933 923d be1b 833e a613 443d 4358 003d
00000020: 767a 963d 88ae 6abd 1eb8 22bd 814d 203d
00000030: 2ae5 933d b498 e9bc ca0c e3bc 203f b23c
00000040: 5c07 0680 4cc0 c03c 70da 0100 d5ac 0700
00000050: 6ba0 0200 ac67 23bd 0420 663b 4039 d9bc
00000060: 854c b7bd 40d2 0cb1 f047 293e 9a58 5e3e
00000070: 05ca 0500 8de4 0100 56c4 413e d091 1abb

onnx::Conv_89 f4 [32, 16, 1, 1]
-5.7440934e-15 -6.249549e-23 -7.514052e-34 1.806934e-20 2.7e-44 -1.8e-44 3.1050827e-21 1.3572257e-30
-3.310425e-12 1.0302967e-24 3.6021048e-19 3.1e-44 -1.6439669e-23 -1.5e-44 6.15343e-16 -3.335435e-34
0.0 0.0 -0.0 0.0 -0.0 0.0 0.0 -0.0
0.0 0.0 0.0 0.0 -0.0 0.0 -0.0 0.0
-0.041248225 -0.0028443097 0.0061126384 0.00203036 -0.009023374 -0.019088833 -0.002362401 -0.02164904
-0.06276439 -0.026695883 0.012726664 -0.014705853 -0.04907369 -0.02468811 -0.0261332 -0.038851503
0.0 -0.0 -0.0 0.0 -0.0 0.0 0.0 -0.0
-0.0 0.0 0.0 0.0 -0.0 -0.0 -0.0 0.0
0.15981965 -0.07333185 -0.020059628 0.26878676 0.19828399 -0.035480957 -0.14191687 0.39194748
0.11778197 -0.16717444 -0.13470343 -0.004353758 0.1100441 -0.08220626 -0.041864123 0.32769307
0.0064647794 -0.04898159 -0.1153267 0.06681855 -0.23459643 0.2174882 -0.020870293 -0.031246414
0.089903206 0.3650957 -0.44003168 0.35227942 -0.1489576 0.18906064 0.39156303 0.26332965
0.14290076 0.19192992 -0.08718622 0.047710393 -0.038905814 0.07003167 -0.016709073 -0.12430527
-0.005043169 0.146413 -0.02281509 0.06457411 0.0400533 0.11982191 0.1420769 -0.090802275
-0.054121003 -0.01151103 -0.06651474 0.024688466 -0.018466022 -0.013103771 -0.010060454 -0.061640132
0.017828424 -0.049621068 -0.011370748 -0.007514268 0.047104027 -0.003063508 0.04284296 -0.04620799
-0.06487101 -0.12978624 -0.0040879105 -0.06943439 -0.07620562 -0.0990643 -0.00014186629 -0.04761557
-0.052373197 -0.0813813 0.08072886 -0.08175547 0.23734555 0.014158214 -0.04260001 -0.043549176
0.08399524 -0.017602386 0.045614585 0.01961161 0.0039287303 -0.015182968 -0.05278706 0.0052562174
-0.054555405 -0.040963758 0.060759608 -0.008605419 -0.00080341863 -0.012258462 -0.06411737 -0.01295779
-0.04723517 0.022714997 -0.05754488 -0.05307232 -0.045844242 0.03393629 -0.017072715 -0.029571468
0.13117164 0.016265439 0.0012610697 0.022893768 0.025025811 0.02179628 -0.19425121 -0.018844567
-0.07166397 -0.0495401 -0.16359594 0.059320897 -0.04536958 -0.08211898 -0.04092271 -0.09391796
-0.042005844 0.013970608 0.034464676 -0.047098793 0.082222186 0.027966915 -0.056469984 -0.12413246
0.031009154 0.01196527 0.059948012 0.034572713 -0.01971083 -0.0061364747 0.02656116 -0.029427957
0.10084075 0.08347289 -0.032595433 0.0010009952 0.037059013 -0.0012232598 0.019143885 -0.0045775627
-0.004325203 0.06958844 0.057027683 -0.08627087 -0.0147448545 -0.053138137 0.010138044 -0.057359334
0.0940959 -0.0054829535 0.005299431 -0.03486351 0.17963752 -0.038427155 0.057221454 -0.13385017
-0.027485885 -0.022043478 0.034833588 -0.019426389 0.02409023 -0.00045960007 0.14421432 0.026876392
0.08686881 -0.019441249 0.04647432 0.008979621 -0.007213608 -0.02658423 0.120123744 0.15829326
0.12842602 -0.017001087 -0.026614688 0.045828696 -0.035451774 -0.0152556095 -0.037645843 0.029061763
-0.1541536 -0.012498087 0.092567004 -0.0018145114 0.052154917 0.011800829 -0.015503764 -0.054942586
00000000: e9f3 cea7 d61a 979a 7cb2 7988 fca8 aa1e
00000010: 1300 0000 0d00 0080 099d 6a1d f338 dc0d
00000020: 51f3 68ac 426e 9f17 78a1 d420 1600 0000
00000030: a6fe 9e99 0b00 0080 4d5c 3126 7cad dd87
00000040: 0000 0000 0000 0000 0000 0080 0000 0000
00000050: 0000 0080 0000 0000 0000 0000 0000 0080
00000060: 0000 0000 0000 0000 0000 0000 0000 0000
00000070: 0000 0080 0000 0000 0000 0080 0000 0000
00000080: e6f3 28bd 9967 3abb 874c c83b ca0f 053b
00000090: c6d6 13bc 2f60 9cbc 83d2 1abb 5459 b1bc
000000a0: 9e8a 80bd 53b1 dabc 7f83 503c d1f0 70bc
000000b0: 7e01 49bd b83e cabc 4b15 d6bc c122 1fbd
000000c0: 0000 0000 0000 0080 0000 0080 0000 0000
000000d0: 0000 0080 0000 0000 0000 0000 0000 0080
000000e0: 0000 0080 0000 0000 0000 0000 0000 0000
000000f0: 0000 0080 0000 0080 0000 0080 0000 0000
00000100: c3a7 233e 022f 96bd 1754 a4bc 6b9e 893e
00000110: f50a 4b3e 7b54 11bd a852 11be 57ad c83e
00000120: ac37 f13d c72f 2bbe b2ef 09be f8a9 8ebb
00000130: cd5e e13d c15b a8bd b779 2bbd 63c7 a73e
00000140: 80d6 d33b eba0 48bd 6830 ecbd 2ad8 883d
00000150: 0c3a 70be 3ab5 5e3e 2df8 aabc 7bf8 ffbc
00000160: 2c1f b83d d3ed ba3e d54b e1be f85d b43e
00000170: 5788 18be 1d99 413e f37a c83e 25d3 863e
00000180: 9454 123e 4789 443e b08e b2bd f96b 433d
00000190: b45b 1fbd c46c 8f3d 77e1 88bc c393 febd
000001a0: 2b41 a5bb 4aed 153e b6e6 babc 6e3f 843d
000001b0: ee0e 243d 3165 f53d 9b7c 113e 8bf6 b9bd
000001c0: fcad 5dbd c298 3cbc e138 88bd 773f ca3c
000001d0: 0e46 97bc 33b1 56bc 9ad4 24bc 5d7a 7cbd
000001e0: ea0c 923c 763f 4bbd 604c 3abc 403a f6bb
000001f0: 27f0 403d 23c5 48bb 1a7c 2f3d 9744 3dbd
00000200: 18db 84bd afe6 04be e1f3 85bb 9e33 8ebd
00000210: b111 9cbd 39e2 cabd f1c1 14b9 8b08 43bd
00000220: 4785 56bd 3dab a6bd 2c55 a53d 696f a7bd
00000230: b60a 733e dbf7 673c 597d 2ebd 9f60 32bd
00000240: b205 ac3d e132 90bc 5cd6 3a3d 87a8 a03c
00000250: 94bc 803b fcc1 78bc 3f37 58bd 593c ac3b
00000260: 7d75 5fbd 9dc9 27bd 11df 783d befd 0cbc
00000270: 839c 52ba b7d7 48bc f84f 83bd e94c 54bc
00000280: aa79 41bd cd14 ba3c 2eb4 6bbd 5c62 59bd
00000290: 2cc7 3bbd c700 0b3d 14dc 8bbc dd3f f2bc
000002a0: dc51 063e 193f 853c 7a4a a53a b68b bb3c
000002b0: ee02 cd3c 1d8e b23c cae9 46be ec5f 9abc
000002c0: 8fc4 92bd 8fea 4abd b285 27be 78fa 723d
000002d0: 74d5 39bd ff2d a8bd 929e 27bd 0f58 c0bd
000002e0: 520e 2cbd fae4 643c d52a 0d3d aaea 40bd
000002f0: 1b64 a83d df1a e53c 124d 67bd 2939 febd
00000300: e906 fe3c fb09 443c 0c8c 753d 1e9c 0d3d
00000310: 9b78 a1bc 7b14 c9bb ca96 d93c e612 f1bc
00000320: 9885 ce3d d6f3 aa3d ca82 05bd d333 833a
00000330: 31cb 173d ca55 a0ba a3d3 9c3c 61ff 95bb
00000340: 6fba 8dbb 6284 8e3d dc95 693d c8ae b0bd
00000350: 6794 71bc 60a7 59bd 0a1a 263c 9ff1 6abd
00000360: 5ab5 c03d 59aa b3bb d9a6 ad3b 0acd 0ebd
00000370: e6f2 373e cb65 1dbd 0b61 6a3d 0510 09be
00000380: 142a e1bc 8694 b4bc aaad 0e3d 1724 9fbc
00000390: e058 c53c 7af6 f0b9 ebac 133e e12b dc3c
000003a0: 46e8 b13d 4143 9fbc db5b 3e3d 431f 133c
000003b0: 2160 ecbb 2cc7 d9bc 7003 f63d a117 223e
000003c0: 1c82 033e dd45 8bbc 0c07 dabc dfb6 3b3d
000003d0: e135 11bd aaf2 79bc 8732 1abd ef12 ee3c
000003e0: 71da 1dbe c7c4 4cbc c593 bd3d e6d4 edba
000003f0: 65a0 553d 4458 413c 8003 7ebc 7a0b 61bd

onnx::Conv_90 f4 [32]
-1.0674431e-07 -1.46031e-40 0.06452637 1.11933e-40 -0.18378216 -0.15137881 -0.1263419 0.02068014
0.033138443 -0.017856592 0.01180641 0.1780947 -0.13753875 -0.087954 -0.15805721 -0.042431004
-5.53653e-40 -0.3830166 1.70196e-40 7.04849e-40 2.41218e-40 0.044942513 -0.013091036 -0.27693155
-0.00019601732 -2.0492195e-09 0.052147456 0.07159643 5.31648e-40 1.73824e-40 -0.3665139 -0.15757547
00000000: 4e3b e5b3 1397 0180 6726 843d 0638 0100
00000010: 6431 3cbe 0c03 1bbe c55f 01be 6669 a93c
00000020: 2dbc 073d fd47 92bc ac6f 413c 755e 363e
00000030: f5d6 0cbe 3a21 b4bd c0d9 21be 22cc 2dbd
00000040: 5c07 0680 c01a c4be 70da 0100 d5ac 0700
00000050: 6ba0 0200 a415 383d c97b 56bc f9c9 8dbe
00000060: 008a 4db9 40d2 0cb1 9298 553d 26a1 923d
00000070: 05ca 0500 8de4 0100 b6a7 bbbe 775b 21be

onnx::Conv_92 f4 [64, 32, 3, 3]
-0.0 -0.0 -0.0 -0.0 -0.0 -0.0 -0.0 -0.0
0.0 -0.0 0.0 -0.0 0.0 0.0 -0.0 -0.0
-0.0 0.0 -0.0 0.0 0.0 0.0 -0.0 0.0
0.0 0.0 0.0 0.0 0.0 0.0 0.0 -0.0
0.0 -0.0 0.0 0.0 0.0 -0.0 0.0 0.0
-0.0 0.0 -0.0 0.0 0.0 0.0 0.0 0.0
-0.0 -0.0 0.0 0.0 0.0 0.0 0.0 0.0
0.0 -0.0 -0.0 -0.0 0.0 -0.0 -0.0 0.0
0.0 -0.0 0.0 -0.0 -0.0 0.0 -0.0 0.0
0.0 -0.0 0.0 0.0 0.0 0.0 -0.0 -0.0
0.0 0.0 0.0 0.0 0.0 -0.0 -0.0 0.0
0.0 0.0 -0.0 -0.0 0.0 0.0 0.0 -0.0
-0.0 0.0 -0.0 0.0 0.0 -0.0 -0.0 0.0
-0.0 0.0 -0.0 0.0 -0.0 0.0 -0.0 -0.0
-0.0 -0.0 0.0 0.0 -0.0 0.0 0.0 0.0
0.0 -0.0 0.0 0.0 0.0 0.0 0.0 0.0
-0.0 -0.0 0.0 0.0 -0.0 -0.0 -0.0 0.0
0.0 -0.0 0.0 -0.0 0.0 0.0 -0.0 0.0
-0.0 0.0 -0.0 -0.0 0.0 -0.0 -0.0 -0.0
0.0 0.0 -0.0 -0.0 -0.0 0.0 -0.0 0.0
0.0 0.0 0.0 0.0 -0.0 -0.0 -0.0 -0.0
-0.0 0.0 -0.0 0.0 -0.0 0.0 0.0 -0.0
0.0 -0.0 0.0 0.0 0.0 -0.0 -0.0 -0.0
0.0 -0.0 0.0 0.0 -0.0 0.0 0.0 0.0
-0.0 -0.0 -0.0 0.0 0.0 -0.0 -0.0 0.0
-0.0 0.0 0.0 0.0 0.0 0.0 -0.0 -0.0
-0.0 -0.0 -0.0 -0.0 0.0 0.0 -0.0 -0.0
0.0 -0.0 -0.0 0.0 -0.0 0.0 0.0 0.0
-0.0 0.0 -0.0 0.0 -0.0 -0.0 -0.0 0.0
0.0 -0.0 0.0 -0.0 0.0 -0.0 -0.0 0.0
0.0 -0.0 0.0 0.0 0.0 -0.0 0.0 0.0
0.0 0.0 -0.0 0.0 0.0 -0.0 0.0 0.0
00000000: 0000 0080 0000 0080 0000 0080 0000 0080
00000010: 0000 0080 0000 0080 0000 0080 0000 0080
00000020: 0000 0000 0000 0080 0000 0000 0000 0080
00000030: 0000 0000 0000 0000 0000 0080 0000 0080
00000040: 0000 0080 0000 0000 0000 0080 0000 0000
00000050: 0000 0000 0000 0000 0000 0080 0000 0000
00000060: 0000 0000 0000 0000 0000 0000 0000 0000
00000070: 0000 0000 0000 0000 0000 0000 0000 0080
00000080: 0000 0000 0000 0080 0000 0000 0000 0000
00000090: 0000 0000 0000 0080 0000 0000 0000 0000
000000a0: 0000 0080 0000 0000 0000 0080 0000 0000
000000b0: 0000 0000 0000 0000 0000 0000 0000 0000
000000c0: 0000 0080 0000 0080 0000 0000 0000 0000
000000d0: 0000 0000 0000 0000 0000 0000 0000 0000
000000e0: 0000 0000 0000 0080 0000 0080 0000 0080
000000f0: 0000 0000 0000 0080 0000 0080 0000 0000
00000100: 0000 0000 0000 0080 0000 0000 0000 0080
00000110: 0000 0080 0000 0000 0000 0080 0000 0000
00000120: 0000 0000 0000 0080 0000 0000 0000 0000
00000130: 0000 0000 0000 0000 0000 0080 0000 0080
00000140: 0000 0000 0000 0000 0000 0000 0000 0000
00000150: 0000 0000 0000 0080 0000 0080 0000 0000
00000160: 0000 0000 0000 0000 0000 0080 0000 0080
00000170: 0000 0000 0000 0000 0000 0000 0000 0080
00000180: 0000 0080 0000 0000 0000 0080 0000 0000
00000190: 0000 0000 0000 0080 0000 0080 0000 0000
000001a0: 0000 0080 0000 0000 0000 0080 0000 0000
000001b0: 0000 0080 0000 0000 0000 0080 0000 0080
000001c0: 0000 0080 0000 0080 0000 0000 0000 0000
000001d0: 0000 0080 0000 0000 0000 0000 0000 0000
000001e0: 0000 0000 0000 0080 0000 0000 0000 0000
000001f0: 0000 0000 0000 0000 0000 0000 0000 0000
00000200: 0000 0080 0000 0080 0000 0000 0000 0000
00000210: 0000 0080 0000 0080 0000 0080 0000 0000
00000220: 0000 0000 0000 0080 0000 0000 0000 0080
00000230: 0000 0000 0000 0000 0000 0080 0000 0000
00000240: 0000 0080 0000 0000 0000 0080 0000 0080
00000250: 0000 0000 0000 0080 0000 0080 0000 0080
00000260: 0000 0000 0000 0000 0000 0080 0000 0080
00000270: 0000 0080 0000 0000 0000 0080 0000 0000
00000280: 0000 0000 0000 0000 0000 0000 0000 0000
00000290: 0000 0080 0000 0080 0000 0080 0000 0080
000002a0: 0000 0080 0000 0000 0000 0080 0000 0000
000002b0: 0000 0080 0000 0000 0000 0000 0000 0080
000002c0: 0000 0000 0000 0080 0000 0000 0000 0000
000002d0: 0000 0000 0000 0080 0000 0080 0000 0080
000002e0: 0000 0000 0000 0080 0000 0000 0000 0000
000002f0: 0000 0080 0000 0000 0000 0000 0000 0000
00000300: 0000 0080 0000 0080 0000 0080 0000 0000
00000310: 0000 0000 0000 0080 0000 0080 0000 0000
00000320: 0000 0080 0000 0000 0000 0000 0000 0000
00000330: 0000 0000 0000 0000 0000 0080 0000 0080
00000340: 0000 0080 0000 0080 0000 0080 0000 0080
00000350: 0000 0000 0000 0000 0000 0080 0000 0080
00000360: 0000 0000 0000 0080 0000 0080 0000 0000
00000370: 0000 0080 0000 0000 0000 0000 0000 0000
00000380: 0000 0080 0000 0000 0000 0080 0000 0000
00000390: 0000 0080 0000 0080 0000 0080 0000 0000
000003a0: 0000 0000 0000 0080 0000 0000 0000 0080
000003b0: 0000 0000 0000 0080 0000 0080 0000 0000
000003c0: 0000 0000 0000 0080 0000 0000 0000 0000
000003d0: 0000 0000 0000 0080 0000 0000 0000 0000
000003e0: 0000 0000 0000 0000 0000 0080 0000 0000
000003f0: 0000 0000 0000 0080 0000 0000 0000 0000

onnx::Conv_93 f4 [64]
2.1286e-41 -0.23533304 -3.6788e-41 3.781e-42 6.3e-42 3.0728e-41 5.4288e-41 -2.6584e-41
-2.0895e-41 -0.053315267 3.631e-42 3.495e-42 -1.8824e-41 -3.1609e-41 3.6183e-41 -0.21651244
-3.4559e-41 4.101e-41 -1.8644e-41 -3.173e-41 -3.0826e-41 3.004e-41 -6.0291e-41 -2.8657e-41
2.0769e-41 0.12516719 -2.5027e-41 5.4424e-41 2.0298e-41 -2.751e-41 -3.5726e-41 -1.627e-42
3.7977e-41 2.3238e-41 -7.703367e-07 2.38e-42 -3.6738e-41 0.020464495 2.8221e-41 -0.21394989
-1.3004e-41 -0.10931245 -2.5962e-41 4.1656e-41 2.8722e-41 -7.33e-42 -6.14e-43 -0.007649746
-8.633e-42 1.0267e-41 -4.7966e-41 -8.687e-42 -3.871e-41 5.0636e-41 -1.1414e-41 3.59e-43
-1.2201932e-11 5.3017e-41 3.1012e-41 -3.6064e-41 2.9758e-41 1.886e-42 -2.2788e-41 2.8736e-41
00000000: 563b 0000 25fb 70be 8d66 0080 8a0a 0000
00000010: 9011 0000 a855 0000 5597 0000 1b4a 0080
00000020: 3f3a 0080 1c61 5abd 1f0a 0000 be09 0000
00000030: 7934 0080 1d58 0080 dd64 0000 70b5 5dbe
00000040: 5660 0080 5272 0000 f933 0080 7358 0080
00000050: ee55 0080 bd53 0000 11a8 0080 e24f 0080
00000060: e539 0000 d42b 003e c445 0080 b697 0000
00000070: 9538 0000 b04c 0080 9763 0080 8904 0080
00000080: dd69 0000 c740 0000 23c9 4eb5 a206 0000
00000090: 6966 0080 28a5 a73c ab4e 0000 ae15 5bbe
000000a0: 4024 0080 35df dfbd 5f48 0080 1f74 0000
000000b0: 1150 0000 6f14 0080 b601 0080 b8aa fabb
000000c0: 1118 0080 9f1c 0000 b685 0080 3718 0080
000000d0: e86b 0080 278d 0000 d11f 0080 0001 0000
000000e0: 9ea8 56ad ca93 0000 7356 0000 8864 0080
000000f0: f452 0000 4205 0000 863f 0080 1b50 0000

onnx::Conv_95 f4 [64, 64, 3, 3]
-1.951912e-39 -1.777246e-39 -1.460229e-39 -1.263788e-39 -7.9592e-40 -8.96988e-40 -7.09696e-40 -1.62108e-40
-7.4284e-40 0.34877944 0.30736575 0.30564576 -0.092444055 -0.5793254 -0.10885978 0.13551404
0.28282613 0.054431714 -3.47457e-39 -2.535065e-39 -2.775929e-39 -1.343261e-39 -2.87148e-40 -9.30782e-40
-5.59878e-40 3.97051e-40 -4.55379e-40 3.62136e-40 -9.06944e-40 -4.75044e-40 1.76168e-40 -7.46585e-40
-2.4398e-40 6.01632e-40 -3.04774e-40 -3.85368e-40 -9.46591e-40 -2.420251e-39 -3.509014e-39 5.99995e-40
-6.33924e-40 -1.696427e-39 1.474041e-39 4.09677e-40 -6.85433e-40 -7.3015e-41 -1.821175e-39 -2.64609e-39
1.082552e-39 -1.117983e-39 -1.450585e-39 1.499786e-39 -1.1255e-40 -1.138636e-39 -1.437849e-39 -1.210418e-39
-1.066384e-39 -3.75793e-40 -9.42756e-40 -4.47194e-40 7.8195e-41 -6.5121e-41 3.2292e-41 -2.668448e-39
-2.27346e-39 -1.608926e-39 -1.191558e-39 -7.25528e-40 -5.49337e-40 -9.5148e-41 5.33819e-40 -3.2852e-41
-1.770003e-39 -1.598746e-39 -1.21748e-39 -8.32876e-40 -9.91193e-40 -3.84292e-40 -4.91347e-40 -5.09892e-40
2.44384e-40 -0.1676746 -0.17210941 0.019432269 -0.22337684 -0.33774623 -0.24271297 -0.27623814
-0.242651 -0.2907927 3.52584e-40 -1.043466e-39 -1.365013e-39 7.9361e-40 -7.49634e-40 -1.01216e-39
1.040751e-39 -9.3063e-41 -4.94329e-40 -8.60323e-40 -6.74153e-40 -8.29422e-40 -7.73337e-40 -6.16679e-40
-9.38518e-40 -7.82778e-40 -2.91386e-40 -1.92337e-40 -2.516072e-39 -2.112024e-39 -2.127856e-39 -1.138345e-39
-6.62425e-40 -1.175681e-39 -8.81761e-40 -3.29688e-40 -8.28659e-40 -5.923413e-39 -4.072927e-39 -5.117469e-39
-2.085697e-39 8.59449e-40 -1.017633e-39 -2.10478e-40 1.966106e-39 -8.0123e-41 -9.41455e-40 -3.8752e-40
-7.45464e-40 -7.0853e-40 8.76581e-40 1.846e-40 -4.74461e-40 8.2922e-40 6.22531e-40 0.1217139
-0.018340454 0.24045855 0.10401139 0.002229655 0.27638376 -0.038009536 0.16509435 -0.19799866
-2.72915e-39 -2.574241e-39 -3.368614e-39 -1.270919e-39 -8.29063e-40 -1.907197e-39 -1.196357e-39 -6.26142e-40
-1.609599e-39 -6.3327e-41 -1.205439e-39 -1.114799e-39 3.08675e-40 -7.6845e-40 -5.58845e-40 6.83303e-40
-2.79277e-40 -5.43732e-40 -1.392326e-39 -1.051494e-39 -1.232841e-39 -8.52452e-40 -3.94562e-40 -9.22059e-40
-7.2138e-40 -3.31459e-40 -7.80267e-40 -4.282194e-39 -4.501666e-39 -5.190686e-39 -8.6705e-40 -2.13237e-40
-1.603611e-39 1.03423e-40 5.06955e-40 -1.457963e-39 -4.24784e-39 -3.768513e-39 -5.178532e-39 -1.015703e-39
-8.76603e-40 -1.965635e-39 -2.45258e-40 7.25416e-40 -1.267197e-39 -7.22748e-40 -2.377577e-39 -2.715024e-39
8.07781e-40 -1.235713e-39 -1.360595e-39 1.205484e-39 -3.06052e-40 -1.220553e-39 -4.131367e-39 -2.905543e-39
-3.226867e-39 -1.68351e-39 -4.19297e-40 -8.061e-40 -5.12673e-40 5.0756e-40 -4.67532e-40 -1.918074e-39
-1.4853e-39 -1.912826e-39 -1.057233e-39 -9.32284e-40 -6.50226e-40 -5.44943e-40 2.82215e-40 -9.216e-42
-5.29335e-40 -1.650524e-39 -2.097919e-39 9.7054e-41 -6.00847e-40 -1.369184e-39 8.35589e-40 1.0023e-41
-8.344e-40 -0.33194178 -0.38649288 -0.21712346 -0.09818757 -0.19542815 -0.22546555 0.09096469
0.07170881 0.08580556 -3.62634e-39 -3.036975e-39 -3.699557e-39 -1.051606e-39 -8.78599e-40 -1.759306e-39
-1.11731e-39 -7.91277e-40 -1.51037e-39 1.451145e-39 8.79383e-40 2.431553e-39 4.61365e-40 -1.24142e-40
9.6684e-40 1.871049e-39 9.08693e-40 2.281084e-39 -7.34834e-40 -1.407687e-39 -1.902892e-39 -9.5955e-41
00000000: 2341 1580 3d5a 1380 86e6 0f80 edc2 0d80
00000010: b3aa 0880 70c4 0980 58ba 0780 e4c3 0180
00000020: bc16 0880 3893 b23e 0b5f 9d3e 9a7d 9c3e
00000030: 4f53 bdbd ab4e 14bf e0f1 debd 31c4 0a3e
00000040: 96ce 903e caf3 5e3d b0d5 2580 bb9a 1b80
00000050: 293a 1e80 77a0 0e80 7420 0380 a422 0a80
00000060: b618 0680 d152 0400 69f5 0480 7df1 0300
00000070: 31e0 0980 3b2c 0580 16eb 0100 2d21 0880
00000080: 1ea8 0280 1b8d 0600 9651 0380 4032 0480
00000090: b64e 0a80 ad5a 1a80 b435 2680 8b88 0600
000000a0: 1fe7 0680 f378 1280 070d 1000 0376 0400
000000b0: b576 0780 89cb 0080 b2d4 1380 39d0 1c80
000000c0: b7c9 0b00 7b2c 0c80 a4cb 0f80 cb54 1000
000000d0: be39 0180 0e66 0c80 23a8 0f80 272e 0d80
000000e0: a59c 0b80 8f17 0480 0544 0a80 98de 0480
000000f0: fad9 0000 88b5 0080 045a 0000 8c0e 1d80
00000100: 7bc1 1880 0885 1180 94f9 0c80 7ae6 0780
00000110: 54fb 0580 3c09 0180 12d0 0500 945b 0080
00000120: 0c46 1380 a768 1180 d741 0d80 b811 0980
00000130: 0bcb 0a80 402f 0480 ad59 0580 5f8d 0580
00000140: 3ea9 0200 e4b2 2bbe 733d 30be 6c30 9f3c
00000150: e6bc 64be 13ed acbe c089 78be 166f 8dbe
00000160: 8179 78be c8e2 94be dcd6 0300 c25c 0b80
00000170: 1add 0e80 43a4 0800 ad29 0880 7e05 0b80
00000180: 3155 0b00 6c03 0180 fd61 0580 3b5e 0980
00000190: 4457 0780 1708 0980 c06b 0880 0db7 0680
000001a0: 3538 0a80 1186 0880 442c 0380 2818 0280
000001b0: c965 1b80 77ff 1680 992b 1780 3e65 0c80
000001c0: 9236 0780 52cd 0c80 fe99 0980 0997 0380
000001d0: f705 0980 1180 4080 aa59 2c80 6cb9 3780
000001e0: 13b6 1680 cb5b 0900 bf14 0b80 ba4a 0280
000001f0: b468 1500 5adf 0080 6540 0a80 4038 0480
00000200: 0d1e 0880 18b7 0780 8d8b 0900 9702 0200
00000210: 9b2a 0580 8707 0900 5dc7 0600 2345 f93d
00000220: b83e 96bc c43a 763e ec03 d53d 671f 123b
00000230: 2c82 8d3e e3af 1bbd 7e0e 293e 29c0 4abe
00000240: c3b7 1d80 f007 1c80 53ae 2480 ced6 0d80
00000250: 1707 0980 7dc4 1480 f506 0d80 6ed1 0680
00000260: e886 1180 88b0 0080 4620 0d80 9b23 0c80
00000270: 765c 0300 205e 0880 d515 0680 c570 0700
00000280: 830a 0380 b4eb 0580 3d29 0f80 2373 0b80
00000290: a96c 0d80 4a48 0980 e14b 0480 530a 0a80
000002a0: eada 0780 f99b 0380 117f 0880 04a1 2e80
000002b0: d004 3180 8585 3880 fc70 0980 6b52 0280
000002c0: 3776 1180 4d20 0100 2f85 0500 35e0 0f80
000002d0: 4041 2e80 1509 2980 a463 3880 5e0f 0b80
000002e0: 9d8b 0980 6467 1580 aeab 0280 2ae6 0700
000002f0: 6ecc 0d80 bade 0780 b8e3 1980 6290 1d80
00000300: c4cb 0800 aa74 0d80 c9d0 0e80 6620 0d00
00000310: 2655 0380 684a 0d80 92fc 2c80 79a3 1f80
00000320: 3123 2380 f154 1280 d490 0480 14c7 0880
00000330: 2095 0580 df86 0500 4a17 0580 cfe2 1480
00000340: 692c 1080 2ed4 1480 2383 0b80 d426 0a80
00000350: 9114 0780 14ef 0580 b312 0300 b119 0080
00000360: 92c3 0580 fdf8 1180 25d8 1680 8c0e 0100
00000370: eb8a 0680 bae8 0e80 4819 0900 f11b 0000
00000380: f815 0980 46f4 a9be 65e2 c5be 9d55 5ebe
00000390: 9116 c9bd 511e 48be 71e0 66be b24b ba3d
000003a0: 12dc 923d d3ba af3d c37c 2780 da11 2180
000003b0: dc48 2880 7373 0b80 2d91 0980 3b28 1380
000003c0: 9b2a 0c80 c29d 0880 4c72 1080 34cd 0f00
000003d0: 5d93 0900 2e7a 1a00 1906 0500 0f5a 0180
000003e0: 2887 0a00 b95f 1400 11e5 0900 bcd6 1800
000003f0: 6b00 0880 0f54 0f80 7db8 1480 7c0b 0180

onnx::Conv_96 f4 [64]
-0.09968903 -0.10980101 -4.303043e-08 0.011797238 -0.007958265 1.2648315e-36 -4.773605e-11 -0.00031785519
-0.21865672 0.019180674 0.013141249 -1.0537167e-06 0.009529643 -0.023366839 -0.015022232 -3.6793745e-35
-0.007415656 0.0151866 -5.159447e-12 -0.07434054 0.0020180251 -5.912219e-06 1.07968235e-05 -0.0060800724
-3.6495716e-35 -4.8988435e-14 -3.58483e-40 0.017642226 -9.5011055e-06 0.29311967 -1.838e-41 0.01458063
-2.7461482e-32 8.0893e-41 9.750231e-22 -0.021266647 -8.4071585e-37 0.009495996 0.010210808 -8.384839e-11
0.006334817 -8.0038205e-07 -0.10776466 0.0050385175 -0.010668438 -0.016408082 0.32961905 0.014807159
-6.26847e-40 -0.024223223 0.0070627835 -1.0008e-41 0.21675609 -0.005618617 -7.7014055e-12 -2.3066712e-25
-1.7883372e-37 0.001862036 0.01527784 -0.009294656 -4.809e-42 0.011628134 0.029799178 0.015794698
00000000: c329 ccbd 5adf e0bd 75d0 38b3 3449 413c
00000010: 6263 02bc 2f33 d703 04f2 51ae cda5 a6b9
00000020: 8ce7 5fbe ca20 9d3c 654e 573c 6e6d 8db5
00000030: 3822 1c3c d06b bfbc cf1f 76bc 0da1 4386
00000040: 08ff f2bb 38d1 783c 2b88 b5ac da3f 98bd
00000050: d840 043b 9361 c6b6 0124 3537 583b c7bb
00000060: 650b 4286 d29f 5ca9 4ee7 0380 6e86 903c
00000070: f066 1fb7 c813 963e 3c33 0080 98e3 6e3c
00000080: 9296 0e8b 7fe1 0000 6157 931c 6437 aebc
00000090: 570a 8f83 1895 1b3c 3c4b 273c 7262 b8ae
000000a0: 4c94 cf3b d6d9 56b5 b8b3 dcbd 261a a53b
000000b0: acca 2ebc 3e6a 86bc d4c3 a83e ba99 723c
000000c0: 65d3 0680 c86f c6bc ec6e e73b e61b 0080
000000d0: 4ff5 5d3e 601c b8bb 0c7c 07ad aac6 8e96
000000e0: 756a 7382 8f0f f43a e84f 7a3c 9d48 18bc
000000f0: 680d 0080 ee83 3e3c 681d f43c e263 813c
