cmd/ai/datas/models/computer_keyboard.onnx (onnx, 303058 bytes, 16 tensors)

fc.weight f4 [2, 256]
000000 f5 77 a2 b2 f5 77 a2 b2 f5 77 a2 b2 f5 77 a2 b2
       -1.8913832e-08 -1.8913832e-08 -1.8913832e-08 -1.8913832e-08
000010 13 af 15 bd db 73 03 be 33 c0 5e be 29 38 a5 be
       -0.036543917 -0.12837164 -0.21753006 -0.3226941
000020 38 84 b1 19 38 84 b1 19 38 84 b1 19 38 84 b1 19
       1.8354774e-23 1.8354774e-23 1.8354774e-23 1.8354774e-23
000030 9f 2d f7 9d 9f 2d f7 9d 9f 2d f7 9d 9f 2d f7 9d
       -6.5427527e-21 -6.5427527e-21 -6.5427527e-21 -6.5427527e-21
000040 4a a0 f1 a3 4a a0 f1 a3 4a a0 f1 a3 4a a0 f1 a3
       -2.6197157e-17 -2.6197157e-17 -2.6197157e-17 -2.6197157e-17
000050 46 3b 8e aa 46 3b 8e aa 46 3b 8e aa 46 3b 8e aa
       -2.5265396e-13 -2.5265396e-13 -2.5265396e-13 -2.5265396e-13
000060 29 a8 88 9e 29 a8 88 9e 29 a8 88 9e 29 a8 88 9e
       -1.446911e-20 -1.446911e-20 -1.446911e-20 -1.446911e-20
000070 4f 14 11 3d f9 4d 6d 3d 05 b6 c4 3d 2f 5e f6 3d
       0.03541976 0.05793569 0.0960503 0.12029683
000080 59 61 ff 85 59 61 ff 85 59 61 ff 85 59 61 ff 85
       -2.4015845e-35 -2.4015845e-35 -2.4015845e-35 -2.4015845e-35
000090 5c ff 9f 21 5c ff 9f 21 5c ff 9f 21 5c ff 9f 21
       1.0841852e-18 1.0841852e-18 1.0841852e-18 1.0841852e-18
0000a0 d5 75 ee 24 d5 75 ee 24 d5 75 ee 24 d5 75 ee 24
       1.0341566e-16 1.0341566e-16 1.0341566e-16 1.0341566e-16
0000b0 83 7d 00 80 83 7d 00 80 83 7d 00 80 83 7d 00 80
       -4.5025e-41 -4.5025e-41 -4.5025e-41 -4.5025e-41
0000c0 8c 6a 43 01 8c 6a 43 01 8c 6a 43 01 8c 6a 43 01
       3.5892287e-38 3.5892287e-38 3.5892287e-38 3.5892287e-38
0000d0 71 22 00 80 71 22 00 80 71 22 00 80 71 22 00 80
       -1.2355e-41 -1.2355e-41 -1.2355e-41 -1.2355e-41
0000e0 a8 9b 9f bc 3a 07 a4 bd a4 e8 ac bd 63 71 14 be
       -0.019483402 -0.08009191 -0.0844281 -0.14496379
0000f0 98 a5 f0 86 98 a5 f0 86 98 a5 f0 86 98 a5 f0 86
       -9.0521284e-35 -9.0521284e-35 -9.0521284e-35 -9.0521284e-35
000100 18 b9 ae 3d 1d 72 10 3e 3f c3 85 3e 86 f9 a4 3e
       0.085313976 0.14106031 0.26125523 0.3222162
000110 e2 64 2c 04 19 66 2c 04 65 64 2c 04 19 66 2c 04
       2.0264826e-36 2.0265384e-36 2.0264602e-36 2.0265384e-36
000120 af 40 8d 37 af 40 8d 37 af 40 8d 37 af 40 8d 37
       1.683863e-05 1.683863e-05 1.683863e-05 1.683863e-05
000130 e1 be 2f 34 e1 be 2f 34 e1 be 2f 34 e1 be 2f 34
       1.6367586e-07 1.6367586e-07 1.6367586e-07 1.6367586e-07
000140 56 89 3e 31 56 89 3e 31 56 89 3e 31 56 89 3e 31
       2.7726705e-09 2.7726705e-09 2.7726705e-09 2.7726705e-09
000150 e5 3a 2f a8 e5 3a 2f a8 e5 3a 2f a8 e5 3a 2f a8
       -9.727222e-15 -9.727222e-15 -9.727222e-15 -9.727222e-15
000160 56 41 30 29 56 41 30 29 56 41 30 29 56 41 30 29
       3.913652e-14 3.913652e-14 3.913652e-14 3.913652e-14
000170 3b 49 49 89 3b 49 49 89 fc 19 49 89 31 18 49 89
       -2.4228928e-33 -2.4228928e-33 -2.4206713e-33 -2.420587e-33
000180 79 bf 03 a0 79 bf 03 a0 79 bf 03 a0 79 bf 03 a0
       -1.1159485e-19 -1.1159485e-19 -1.1159485e-19 -1.1159485e-19
000190 2a 59 82 22 2a 59 82 22 2a 59 82 22 2a 59 82 22
       3.5330977e-18 3.5330977e-18 3.5330977e-18 3.5330977e-18
0001a0 ef 3b 0c 03 ef 3b 0c 03 ef 3b 0c 03 ef 3b 0c 03
       4.1211103e-37 4.1211103e-37 4.1211103e-37 4.1211103e-37
0001b0 9d 79 75 86 9d 79 75 86 9d 79 75 86 9d 79 75 86
       -4.6168726e-35 -4.6168726e-35 -4.6168726e-35 -4.6168726e-35
0001c0 a4 9b 17 bc 2b 93 15 be ee 94 03 be 47 ef 8b be
       -0.009253416 -0.14606921 -0.12849781 -0.27330992
0001d0 62 15 10 2d 62 15 10 2d 62 15 10 2d 62 15 10 2d
       8.1902e-12 8.1902e-12 8.1902e-12 8.1902e-12
0001e0 71 e6 85 b9 71 e6 85 b9 71 e6 85 b9 71 e6 85 b9
       -0.0002553943 -0.0002553943 -0.0002553943 -0.0002553943
0001f0 04 e4 81 3d 85 0b d4 3d d7 cf 3f 3e 8c 24 6a 3e
       0.06342319 0.1035376 0.18731628 0.22865504
000200 f7 9f b4 9f f7 9f b4 9f f7 9f b4 9f f7 9f b4 9f
       -7.6497605e-20 -7.6497605e-20 -7.6497605e-20 -7.6497605e-20
000210 56 88 d2 24 56 88 d2 24 56 88 d2 24 56 88 d2 24
       9.1303945e-17 9.1303945e-17 9.1303945e-17 9.1303945e-17
000220 ad 91 00 3d 74 93 49 3d 41 f8 a7 3d b7 a8 d3 3d
       0.031388927 0.049212888 0.082016475 0.10334914
000230 6c 00 d5 83 6c 00 d5 83 6c 00 d5 83 6c 00 d5 83
       -1.2519112e-36 -1.2519112e-36 -1.2519112e-36 -1.2519112e-36
000240 53 25 00 80 b1 22 00 80 78 1e 00 80 be 22 00 80
       -1.339e-41 -1.2445e-41 -1.093e-41 -1.2463e-41
000250 6a d9 bf 82 6a d9 bf 82 6a d9 bf 82 6a d9 bf 82
       -2.8189717e-37 -2.8189717e-37 -2.8189717e-37 -2.8189717e-37
000260 4c 2b 8b 9f 4c 2b 8b 9f 4c 2b 8b 9f 4c 2b 8b 9f
       -5.894042e-20 -5.894042e-20 -5.894042e-20 -5.894042e-20
000270 60 08 91 aa 60 08 91 aa 60 08 91 aa 60 08 91 aa
       -2.5762985e-13 -2.5762985e-13 -2.5762985e-13 -2.5762985e-13
000280 20 09 00 80 20 09 00 80 20 09 00 80 20 09 00 80
       -3.273e-42 -3.273e-42 -3.273e-42 -3.273e-42
000290 4a da 89 bc 0d 63 fa bd ad a4 cd bd bc 16 55 be
       -0.016827721 -0.12225924 -0.10041175 -0.20809454
0002a0 7d a6 1f aa 7d a6 1f aa 7d a6 1f aa 7d a6 1f aa
       -1.4179799e-13 -1.4179799e-13 -1.4179799e-13 -1.4179799e-13
0002b0 9e 96 6c bc 96 b8 b3 bd 7d f5 ac bd d5 b4 1d be
       -0.014440207 -0.08775441 -0.08445261 -0.15401013
0002c0 7b 3a 39 b6 b1 b6 cb b5 30 d6 6e b5 27 d9 22 35
       -2.7601188e-06 -1.5177849e-06 -8.8973593e-07 6.06657e-07
0002d0 d5 25 00 80 d5 25 00 80 d5 25 00 80 d5 25 00 80
       -1.3572e-41 -1.3572e-41 -1.3572e-41 -1.3572e-41
0002e0 82 6c 06 80 82 6c 06 80 82 6c 06 80 82 6c 06 80
       -5.89938e-40 -5.89938e-40 -5.89938e-40 -5.89938e-40
0002f0 da 2d 00 00 da 2d 00 00 da 2d 00 00 da 2d 00 00
       1.6448e-41 1.6448e-41 1.6448e-41 1.6448e-41
000300 3e 24 00 80 3e 24 00 80 3e 24 00 80 3e 24 00 80
       -1.3001e-41 -1.3001e-41 -1.3001e-41 -1.3001e-41
000310 29 c9 d5 a2 29 c9 d5 a2 29 c9 d5 a2 29 c9 d5 a2
       -5.7946752e-18 -5.7946752e-18 -5.7946752e-18 -5.7946752e-18
000320 c0 fe 0b 28 c0 fe 0b 28 c0 fe 0b 28 c0 fe 0b 28
       7.77129e-15 7.77129e-15 7.77129e-15 7.77129e-15
000330 13 f9 2a 9d 13 f9 2a 9d 13 f9 2a 9d 13 f9 2a 9d
       -2.2628081e-21 -2.2628081e-21 -2.2628081e-21 -2.2628081e-21
000340 04 17 00 80 04 17 00 80 04 17 00 80 04 17 00 80
       -8.256e-42 -8.256e-42 -8.256e-42 -8.256e-42
000350 ae 14 68 9e d7 23 68 9e c0 19 68 9e 79 29 68 9e
       -1.2286254e-20 -1.2289389e-20 -1.2287303e-20 -1.2290554e-20
000360 47 be 08 00 47 be 08 00 47 be 08 00 47 be 08 00
       8.02943e-40 8.02943e-40 8.02943e-40 8.02943e-40
000370 ef 05 00 00 ef 05 00 00 ef 05 00 00 ef 05 00 00
       2.129e-42 2.129e-42 2.129e-42 2.129e-42
000380 91 10 73 bc 1d ca ca bd c5 19 c3 bd 0a 16 37 be
       -0.014835493 -0.09901831 -0.095263995 -0.17879501
000390 4d db ce 3c 7d 57 1d 3d c5 2c 75 3d d1 c7 99 3d
       0.025251055 0.038413513 0.05985715 0.07508815
0003a0 6b 5a a2 a7 6b 5a a2 a7 6b 5a a2 a7 6b 5a a2 a7
       -4.5062064e-15 -4.5062064e-15 -4.5062064e-15 -4.5062064e-15
0003b0 f7 00 4a 0e f7 00 4a 0e f7 00 4a 0e f7 00 4a 0e
       2.4898887e-30 2.4898887e-30 2.4898887e-30 2.4898887e-30
0003c0 ac 7c e9 17 ac 7c e9 17 ac 7c e9 17 ac 7c e9 17
       1.5088744e-24 1.5088744e-24 1.5088744e-24 1.5088744e-24
0003d0 d2 81 60 3d 0c 3e ac 3d c7 59 1c 3e 81 a8 42 3e
       0.054811306 0.08410272 0.15268622 0.19009592
0003e0 19 2c 7b 3d 9e 2b b2 3d ea 06 30 3e 7f f2 53 3e
       0.06132135 0.086997256 0.17190138 0.20697974
0003f0 ff 63 60 bc 30 78 e7 bd 8f a9 d4 bd 98 ae 4b be
       -0.013695716 -0.11302221 -0.10383903 -0.19890821

fc.bias f4 [2]
000000 6d 85 9c 3c 20 2d b4 bc
       0.019106591 -0.021994174

onnx::Conv_80 f4 [16, 3, 7, 7]
000000 97 ed af bc f0 be 1d bc 32 92 c3 bc 31 80 b5 bc
       -0.021475596 -0.009628043 -0.023873422 -0.022155853
000010 15 1c 19 bb fa 37 70 3c 4a b5 71 3c 41 d9 5a bb
       -0.0023362685 0.014661783 0.014752695 -0.0033393654
000020 fa 9c 95 3b 87 d8 3e bc ff 21 43 bc a8 95 e5 bb
       0.004565832 -0.011648304 -0.011909961 -0.007006366
000030 7e c3 04 3b e0 bc 1f 3c 02 98 c4 bc 1b 99 ee b9
       0.0020258124 0.009749621 -0.023998264 -0.0004550897
000040 e4 8f ce bb ed 48 58 bb fe 3e 34 bb 84 83 a0 bc
       -0.006303774 -0.0033002452 -0.0027503367 -0.019593962
000050 6c a5 ed bc 3e 2e 2e 3c 5b 24 02 3d 2d e7 12 3d
       -0.029009543 0.010631142 0.031772953 0.035864998
000060 80 c6 18 3d 24 26 d6 3c 1d 80 a9 3b ba 86 0a bc
       0.03729868 0.026141234 0.005172743 -0.008454973
000070 75 75 32 3c b1 1f 67 3c 31 fa 81 3c 15 cf 6c 3c
       0.010892262 0.014106677 0.01586637 0.014453669
000080 a4 62 70 3c 64 ff 2e 3c 6b 47 00 3b a9 09 e5 3a
       0.014671955 0.010681007 0.0019573818 0.0017474192
000090 aa 2e 2c bb 0a 7e 82 b9 74 ae 0d 3b f9 46 d3 3b
       -0.002627293 -0.0002488944 0.0021618875 0.0064476696
0000a0 bb 51 0d bb 05 22 84 bb ae da f5 3b 6e 37 fb 3b
       -0.0021563608 -0.0040323758 0.0075028753 0.00766652
0000b0 a2 3d 96 3c 55 f8 b7 3c d0 6d 0b 3c 3f 60 4c 3a
       0.018339936 0.022457281 0.008510068 0.0007796324
0000c0 92 0d 13 3c 6f cc 0b bd e0 83 b9 bc 4d d6 1c bd
       0.008975403 -0.03413051 -0.02264589 -0.03829031
0000d0 51 47 1c bd fc 85 8e bc b5 f9 83 38 bf 73 cd 3b
       -0.03815395 -0.017397873 6.293078e-05 0.0062699015
0000e0 bd b3 a3 bc 54 56 46 bc 99 df f9 bc b7 69 0b bd
       -0.019983167 -0.012105543 -0.030502127 -0.034036364
0000f0 15 ea eb bc 27 5d a5 bc 62 88 24 bc 31 37 2e bd
       -0.028798142 -0.02018602 -0.010042282 -0.042533103
000100 87 54 c2 bc 2c 6f f8 bc 02 6a f8 bc 3e 32 05 bd
       -0.023721946 -0.030326448 -0.030323986 -0.032518618
000110 ad 18 47 bd 60 19 60 bd bf 6b 4d 3c a6 fe 0f 3d
       -0.048607517 -0.0547117 0.012537896 0.03515496
000120 2c dc 22 3d 3e ad 24 3d 65 f6 e9 3c e4 fa 51 3c
       0.039760754 0.04020428 0.028559873 0.012816165
000130 ec 08 22 3a 1f b9 0e 3c b8 26 4e 3c 72 21 64 3c
       0.0006181139 0.0087111285 0.012582473 0.01392399
000140 39 69 43 3c af 91 36 3c b4 0f 41 3c 1d bc fa 3b
       0.0119269425 0.011143132 0.011783529 0.0076518194
000150 7c a1 df bb f8 9f 31 bc 05 47 05 bc 46 97 a4 bb
       -0.0068246704 -0.010841362 -0.008134608 -0.005022916
000160 d6 da 25 b9 ae 9b 52 bb 10 7d 9f 3a 52 3e c7 3a
       -0.00015817149 -0.003213625 0.0012168009 0.0015201068
000170 12 28 0a bb 8e aa 51 3c 6e 99 75 3c 71 b1 9c 3b
       -0.0021081013 0.012797011 0.014990194 0.004781895
000180 fc 64 8d ba ad d9 45 3c ad 13 06 bd e0 b0 24 bd
       -0.0010787542 0.012075824 -0.032733608 -0.040207744
000190 e6 ed 82 bd 6e 32 95 bd 16 74 4b bd 4a fc c6 bc
       -0.06393032 -0.07285009 -0.049671255 -0.024290223
0001a0 eb 45 19 bc 82 62 2e bc 2f 89 90 bc 36 40 38 bd
       -0.009355049 -0.010643603 -0.01764354 -0.04498311
0001b0 e1 ca 63 bd 91 3c 53 bd 32 d8 1b bd 27 d7 ae bc
       -0.055613402 -0.051571433 -0.038047977 -0.021342827
0001c0 6c 98 8b bc 88 b4 62 bc 1b 10 e3 bc ab eb 0a bd
       -0.017040454 -0.013836987 -0.02771764 -0.033916157
0001d0 26 b2 1e bd 76 65 54 bd 32 7a 61 bd a6 09 8d 3c
       -0.038744114 -0.051854573 -0.055048175 0.017216515
0001e0 a6 57 e0 3c 2a b5 c7 3c 9f 28 92 3c 69 bd ea b9
       0.027385544 0.024378378 0.017841635 -0.0004477308
0001f0 7f df 99 bc 1e 68 03 bd ae 67 c3 3c ec 8a aa 3c
       -0.018783329 -0.032081716 0.02385315 0.020818196
000200 39 28 af 3c d4 1f 6d 3c f3 6b db 3b bf c8 1f 39
       0.021381484 0.01447292 0.006696218 0.00015238205
000210 cd 56 05 bc 49 66 72 3c 75 4c 08 3c 1d a5 3a 3c
       -0.008138371 0.0147948945 0.00831901 0.011391905
000220 02 af 2d 3c a0 2d 14 3c f0 71 94 ba 2e 4f 5f bb
       0.010600807 0.009044081 -0.001132546 -0.0034074294
000230 4f c5 95 3c d1 c4 62 3c 6a 9e f7 3c 21 e5 09 3d
       0.01828256 0.01384087 0.030226905 0.03366578
000240 9b 58 92 3c 8f 41 b8 3b 5c c9 39 3c 30 92 83 bd
       0.017864516 0.0056230496 0.011339512 -0.064243674
000250 2c f3 b1 bc 74 f4 24 bd 73 e8 19 bd 98 dd d0 bc
       -0.021722399 -0.04027219 -0.037575196 -0.02549629
000260 73 41 bc 3b 5c 74 ea 3c 42 2c 06 bd 21 48 5c 3c
       0.005745107 0.028619938 -0.03275705 0.013444931
000270 fa 60 e1 bc 91 fe 80 bc 2c 59 82 bc 35 22 87 bc
       -0.027512062 -0.015746387 -0.015911661 -0.016495803
000280 44 3d a5 bc b0 4f 09 bd 24 f5 ff 3b 3a 4b e5 3b
       -0.020170815 -0.03352326 0.0078112055 0.006997493
000290 d3 43 08 3d 31 b7 8c 3c 2b 4a 8d bc 82 be 47 bd
       0.033267807 0.017177196 -0.01724728 -0.048765667
0002a0 a2 ec c2 b9 df 47 37 3d c5 38 5e 3d 2a cf 93 3d
       -0.0003717887 0.044746276 0.05425336 0.07217248
0002b0 fd e7 76 3d cd 16 b2 3c e7 d6 ba bb 93 9b 10 3c
       0.060279835 0.021739388 -0.005701888 0.008826154
0002c0 92 ec bf 3c 3c 3d 90 3c 57 29 9e 3c fe fb d8 3c
       0.023428235 0.017607324 0.019306822 0.026487347
0002d0 fb d1 e1 3c 51 34 14 3c a2 85 7f bc 5f ed fa bb
       0.027565947 0.009045676 -0.015595825 -0.0076576914
0002e0 1b af 94 bc 1b 20 8d bc 11 87 07 bb 77 8d 70 3b
       -0.018149903 -0.017227223 -0.002067987 0.0036705413
0002f0 30 c8 78 3b 3d a8 ba 3b cc 56 74 bb a2 71 1f bc
       0.0037961118 0.005696325 -0.003728318 -0.009731682
000300 9c 27 d7 3a 87 08 0c bc 87 82 3d bc 7c 65 8c 3c
       0.0016415003 -0.008546955 -0.011566765 0.017138235
000310 d3 e5 a4 bd 99 da 20 bd f2 74 82 bd 47 79 82 bd
       -0.08051648 -0.03927097 -0.06369962 -0.06370788
000320 e1 92 3b bd a4 6d 70 bc 62 a5 3a 3c f6 04 79 bd
       -0.04579437 -0.014674578 0.011391969 -0.060795747
000330 5b 62 79 bb 48 47 68 bd c9 6d 44 bd 66 75 38 bd
       -0.003805301 -0.056708604 -0.04795626 -0.045033835
000340 63 48 3c bd 47 a4 61 bd bd 8e aa bd 8a 75 ae bb
       -0.04596747 -0.055088308 -0.083280064 -0.0053240703
000350 bf d5 07 bd ac 42 74 bc 0f 24 d7 bc b3 a1 62 bd
       -0.03316283 -0.014908474 -0.026262311 -0.05532999
000360 ef 76 bd bd 16 45 69 3c 7f f2 8e 3d e0 ed 99 3d
       -0.092512004 0.014237663 0.06979846 0.07516074
000370 b5 55 c0 3d 25 36 a2 3d 2d be 2d 3d a2 e1 c6 3c
       0.09391347 0.079204835 0.042417694 0.024277512
000380 76 93 2d 3c e0 03 23 3d 3f 63 04 3d 65 e8 f6 3c
       0.010594239 0.039798617 0.03232121 0.030140111
000390 c8 ae 07 3d 57 c8 2f 3d 2e 8c e7 3c c7 77 f3 bb
       0.03312567 0.04291567 0.028265085 -0.00743005
0003a0 40 ec 51 3a 8b 2f 5f bc d4 98 0b bc da bb 30 bb
       0.0008007921 -0.013622175 -0.008520324 -0.0026967437
0003b0 ad a6 1a 3c 70 74 a9 3c 87 46 32 3c 72 d3 fd 3b
       0.009439153 0.020685405 0.010881073 0.0077461535
0003c0 c1 cf b3 3b 5c 23 86 3c 51 f4 6e 3b 36 9f 74 3b
       0.0054874127 0.016374283 0.0036461542 0.0037326342
0003d0 e0 99 14 3d 40 ec a8 bd 74 2a 7f bd 44 8b e4 bd
       0.03627956 -0.08248186 -0.062296346 -0.11159375
0003e0 f0 72 ff bd e4 af e9 bd f3 70 93 bd ed 99 c5 bc
       -0.124730945 -0.114105016 -0.07199278 -0.02412125
0003f0 1d 4c e9 bc ed 20 7d bb e7 f1 89 bd 66 83 98 bd
       -0.028478676 -0.0038624362 -0.06735592 -0.07446937

onnx::Conv_81 f4 [16]
000000 e3 39 90 3e 58 19 1e 3e fc b6 01 00 0f a0 23 3f
       0.28169164 0.15439355 1.57478e-40 0.63916105
000010 dc 97 01 00 65 23 00 80 f4 a1 4b be f4 8f 02 00
       1.46312e-40 -1.2697e-41 -0.19885999 2.35312e-40
000020 74 a4 00 80 8b 50 31 be 4c b6 d8 3c da c5 00 00
       -5.8995e-41 -0.17315881 0.026454113 7.0976e-41
000030 0e 35 3b bf 73 2e 06 80 ca 61 e6 3e 70 b8 c1 bc
       -0.7312783 -5.67676e-40 0.44996482 -0.023647517

onnx::Conv_83 f4 [32, 16, 3, 3]
000000 00 00 00 80 00 00 00 80 00 00 00 80 00 00 00 00
       -0.0 -0.0 -0.0 0.0
000010 00 00 00 00 00 00 00 00 00 00 00 00 00 00 00 00
       0.0 0.0 0.0 0.0
000020 00 00 00 00 00 00 00 80 00 00 00 00 00 00 00 00
       0.0 -0.0 0.0 0.0
000030 00 00 00 80 00 00 00 80 00 00 00 00 00 00 00 00
       -0.0 -0.0 0.0 0.0
000040 00 00 00 00 00 00 00 00 00 00 00 80 00 00 00 80
       0.0 0.0 -0.0 -0.0
000050 00 00 00 00 00 00 00 80 00 00 00 00 00 00 00 80
       0.0 -0.0 0.0 -0.0
000060 00 00 00 80 00 00 00 00 00 00 00 80 00 00 00 00
       -0.0 0.0 -0.0 0.0
000070 00 00 00 80 00 00 00 00 00 00 00 80 00 00 00 00
       -0.0 0.0 -0.0 0.0
000080 00 00 00 00 00 00 00 00 00 00 00 80 00 00 00 00
       0.0 0.0 -0.0 0.0
000090 00 00 00 00 00 00 00 00 00 00 00 80 00 00 00 00
       0.0 0.0 -0.0 0.0
0000a0 00 00 00 80 00 00 00 00 00 00 00 80 00 00 00 00
       -0.0 0.0 -0.0 0.0
0000b0 00 00 00 00 00 00 00 80 00 00 00 00 00 00 00 80
       0.0 -0.0 0.0 -0.0
0000c0 00 00 00 80 00 00 00 80 00 00 00 80 00 00 00 00
       -0.0 -0.0 -0.0 0.0
0000d0 00 00 00 80 00 00 00 00 00 00 00 00 00 00 00 80
       -0.0 0.0 0.0 -0.0
0000e0 00 00 00 00 00 00 00 00 00 00 00 00 00 00 00 00
       0.0 0.0 0.0 0.0
0000f0 00 00 00 80 00 00 00 00 00 00 00 80 00 00 00 80
       -0.0 0.0 -0.0 -0.0
000100 00 00 00 80 00 00 00 80 00 00 00 80 00 00 00 80
       -0.0 -0.0 -0.0 -0.0
000110 00 00 00 00 00 00 00 00 00 00 00 80 00 00 00 80
       0.0 0.0 -0.0 -0.0
000120 00 00 00 80 00 00 00 00 00 00 00 80 00 00 00 00
       -0.0 0.0 -0.0 0.0
000130 00 00 00 00 00 00 00 00 00 00 00 80 00 00 00 80
       0.0 0.0 -0.0 -0.0
000140 00 00 00 00 00 00 00 80 00 00 00 80 00 00 00 00
       0.0 -0.0 -0.0 0.0
000150 00 00 00 00 00 00 00 80 00 00 00 00 00 00 00 80
       0.0 -0.0 0.0 -0.0
000160 00 00 00 80 00 00 00 00 00 00 00 80 00 00 00 00
       -0.0 0.0 -0.0 0.0
000170 00 00 00 80 00 00 00 00 00 00 00 00 00 00 00 00
       -0.0 0.0 0.0 0.0
000180 00 00 00 00 00 00 00 00 00 00 00 80 00 00 00 00
       0.0 0.0 -0.0 0.0
000190 00 00 00 80 00 00 00 80 00 00 00 00 00 00 00 80
       -0.0 -0.0 0.0 -0.0
0001a0 00 00 00 80 00 00 00 00 00 00 00 80 00 00 00 80
       -0.0 0.0 -0.0 -0.0
0001b0 00 00 00 80 00 00 00 80 00 00 00 00 00 00 00 00
       -0.0 -0.0 0.0 0.0
0001c0 00 00 00 80 00 00 00 80 00 00 00 00 00 00 00 80
       -0.0 -0.0 0.0 -0.0
0001d0 00 00 00 00 00 00 00 00 00 00 00 00 00 00 00 80
       0.0 0.0 0.0 -0.0
0001e0 00 00 00 80 00 00 00 00 00 00 00 80 00 00 00 00
       -0.0 0.0 -0.0 0.0
0001f0 00 00 00 00 00 00 00 00 00 00 00 00 00 00 00 80
       0.0 0.0 0.0 -0.0
000200 00 00 00 80 00 00 00 00 00 00 00 00 00 00 00 80
       -0.0 0.0 0.0 -0.0
000210 00 00 00 00 00 00 00 00 00 00 00 80 00 00 00 00
       0.0 0.0 -0.0 0.0
000220 00 00 00 00 00 00 00 80 00 00 00 00 00 00 00 00
       0.0 -0.0 0.0 0.0
000230 00 00 00 80 00 00 00 80 00 00 00 80 00 00 00 80
       -0.0 -0.0 -0.0 -0.0
000240 36 9f dd bc a5 97 d7 bb 0d ff 66 3d f1 2c 1d 3b
       -0.027053457 -0.0065793567 0.05639558 0.0023983086
000250 76 d7 f9 bc 85 6f 1e bc 6b 8c 89 3c 2f a3 f6 bc
       -0.030498248 -0.009670143 0.01679059 -0.030107109
000260 a6 58 86 bc 5d 06 2a bd d4 59 fa 3c f6 a5 be 3d
       -0.016399693 -0.041509975 0.030560412 0.09308998
000270 fd 4f 35 bd 90 97 ad bd 81 70 29 bd 42 9c 15 3d
       -0.044265736 -0.08476174 -0.041367058 0.036525972
000280 ce 56 12 3c b3 b1 b5 3b 9c 9a 39 80 87 11 39 80
       0.008931829 0.005544865 -5.290087e-39 -5.240911e-39
000290 fa f2 51 80 2d a2 08 80 93 5c 00 80 a6 00 1b 80
       -7.525839e-39 -7.92862e-40 -3.321e-41 -2.479791e-39
0002a0 67 e6 05 80 bb c8 00 00 62 a0 1a 80 23 44 af bd
       -5.4183e-40 7.2009e-41 -2.445257e-39 -0.08557918
0002b0 64 6a 2b bd cc 2d 17 bd 55 26 4d bc 12 b9 56 3c
       -0.04184951 -0.03690891 -0.012521346 0.013105648
0002c0 64 1c b4 bc 2a fe 8a bc e6 cd e0 3c 77 b8 a6 bd
       -0.021986194 -0.016966898 0.02744193 -0.081406526
0002d0 20 f7 03 00 fc f9 01 00 e8 45 02 00 0f 17 00 00
       3.64158e-40 1.81513e-40 2.08749e-40 8.272e-42
0002e0 66 79 02 80 3f 81 01 80 ab 73 02 80 85 ab 00 80
       -2.2722e-40 -1.382e-40 -2.25165e-40 -6.153e-41
0002f0 ce 2c 01 80 9a 56 00 80 f4 06 00 00 96 82 00 00
       -1.07908e-40 -3.1067e-41 2.494e-42 4.6845e-41
000300 9a 05 00 00 99 03 00 80 27 4d 00 00 b8 12 00 80
       2.01e-42 -1.29e-42 2.7677e-41 -6.715e-42
000310 38 69 00 80 b6 13 00 00 d8 2a 2a 3c fd 26 c1 3a
       -3.7745e-41 7.071e-42 0.010386191 0.0014736351
000320 36 cc 0a 3c f4 e7 aa 3b d3 01 62 bc f4 7a 81 bd
       0.008471539 0.0052156392 -0.01379438 -0.063222796
000330 53 66 87 3c e5 9c c2 bc d5 2f 07 bd f1 53 02 80
       0.016528284 -0.023756454 -0.0330046 -2.13783e-40
000340 ba d4 00 80 c8 6a 03 80 b7 7e 01 80 b7 d8 00 00
       -7.6312e-41 -3.13812e-40 -1.37292e-40 7.7743e-41
000350 30 fc 01 80 70 71 00 80 0c 97 01 00 4b 45 00 80
       -1.82303e-40 -4.0694e-41 1.46021e-40 -2.4858e-41
000360 f5 35 00 80 17 14 00 00 14 04 00 00 c0 40 00 00
       -1.9356e-41 7.207e-42 1.463e-42 2.3228e-41
000370 d4 8b 00 80 d6 51 00 00 09 86 00 00 20 7f 00 00
       -5.0161e-41 2.9357e-41 4.8083e-41 4.5604e-41
000380 df 3b 00 00 e9 e0 a1 bc 04 30 b3 bc 8b d3 8c 3c
       2.1478e-41 -0.019760566 -0.021873482 0.017190715
000390 48 57 ce 3c dd b8 a8 bc 1d c2 5f bd 4f d6 95 3c
       0.025188103 -0.020595962 -0.05462848 0.018290667
0003a0 e2 4c 83 bd 32 13 bc bd 88 f6 00 be 45 37 c7 bd
       -0.064111486 -0.09183349 -0.12594044 -0.09727339
0003b0 ee 70 1c bd 19 41 7b bd 78 08 4c bc 0e 82 56 3d
       -0.038193636 -0.06134138 -0.012453191 0.052370124
0003c0 ba 4a d2 bb ac bc c5 3c ae 25 9f 3d 47 09 0d 80
       -0.0064175995 0.024137817 0.07770859 -1.19719e-39
0003d0 08 28 02 80 4c 8e 02 80 de 3e 01 80 0d 8c 00 00
       -1.98031e-40 -2.34717e-40 -1.14388e-40 5.0241e-41
0003e0 d9 2d 02 80 76 c0 00 80 a1 6e 03 00 67 e4 07 00
       -2.00118e-40 -6.9042e-41 3.15193e-40 7.24784e-40
0003f0 47 35 a6 3d 67 37 57 3d de bd c3 3c ec 72 0d 3d
       0.081156306 0.05254307 0.023894247 0.034533426

onnx::Conv_84 f4 [32]
000000 d5 4c 00 80 6e c9 ce 3d f8 12 00 80 e0 68 da bc
       -2.7562e-41 0.100970134 -6.805e-42 -0.026661336
000010 98 62 00 80 b5 0c 00 00 11 3f 00 00 6c 40 00 80
       -3.5369e-41 4.558e-42 2.2624e-41 -2.311e-41
000020 4b 38 00 80 63 37 00 80 52 a1 cf b9 b8 74 00 80
       -2.0194e-41 -1.9869e-41 -0.0003960231 -4.1871e-41
000030 a6 0a 00 80 e6 11 00 80 4a 01 00 00 d0 24 00 80
       -3.82e-42 -6.421e-42 4.62e-43 -1.3206e-41
000040 d0 7d 00 bd 38 35 00 00 2f 01 00 00 33 31 ad be
       -0.031369984 1.9091e-41 4.25e-43 -0.338266
000050 81 32 00 80 44 36 00 00 c0 57 00 00 48 3b e6 bd
       -1.8117e-41 1.9467e-41 3.1479e-41 -0.11241776
000060 78 30 a2 bd 80 0f 19 3d 3d 76 00 80 94 93 d1 bd
       -0.07919401 0.037368298 -4.2416e-41 -0.102332264
000070 9e 1f 00 00 98 25 b3 3e 82 19 00 00 60 5b 00 00
       1.1342e-41 0.3498962 9.15e-42 3.2779e-41

onnx::Conv_86 f4 [32, 32, 3, 3]
000000 39 b5 0b 00 2b f4 0d 00 e2 c1 0c 00 1c 42 03 80
       1.075201e-39 1.281452e-39 1.171578e-39 -2.99222e-40
000010 d3 91 00 80 36 80 02 80 8b 6c 07 80 5a 7d 05 80
       -5.2312e-41 -2.29664e-40 -6.81786e-40 -5.04145e-40
000020 9b af 07 80 5e 81 a4 3d 7a 29 1f 3d fd c0 0f bd
       -7.05844e-40 0.08032487 0.038857915 -0.035096157
000030 d3 be 81 3b be 35 3d 3d 24 a7 a5 bc b9 c1 c1 bc
       0.0039595156 0.04619383 -0.0202213 -0.023651944
000040 2a 06 00 3d 5c d1 ea 3d bf 11 07 80 6b 1b 05 80
       0.03125588 0.114657134 -6.49215e-40 -4.69013e-40
000050 bb 59 06 80 d2 90 06 80 b7 cc 06 80 28 b7 05 80
       -5.83202e-40 -6.02965e-40 -6.24451e-40 -5.24882e-40
000060 1f 0f 0a 80 aa b5 06 80 71 87 05 80 79 85 2e 3e
       -9.2378e-40 -6.16182e-40 -5.07765e-40 0.17043103
000070 c2 f4 18 3e b6 79 0a 3e 20 df a3 3d ae e9 c5 3b
       0.14937118 0.13522992 0.08001542 0.0060398197
000080 fb dd 54 bd 6c 18 f5 3d 6b 2c 80 3d bc fb a7 3c
       -0.05196951 0.11967549 0.06258472 0.020505778
000090 c6 b5 13 00 60 52 13 00 68 8b 14 00 95 ee 0b 80
       1.810082e-39 1.774425e-39 1.88672e-39 -1.095778e-39
0000a0 a0 91 07 80 3f 72 07 80 92 27 1c 80 70 6d 1b 80
       -6.95089e-40 -6.83832e-40 -2.585589e-39 -2.518817e-39
0000b0 be 8d 1a 80 9a cf 01 80 49 f9 02 80 6b f8 00 00
       -2.43857e-39 -1.66309e-40 -2.73098e-40 8.9116e-41
0000c0 19 4d 03 00 8e c4 01 80 c2 ed 00 00 56 14 03 80
       3.03164e-40 -1.62346e-40 8.5291e-41 -2.82802e-40
0000d0 19 d9 02 80 36 bf 02 80 7c cf 02 00 1f b9 02 00
       -2.61551e-40 -2.52265e-40 2.58102e-40 2.5008e-40
0000e0 58 61 04 00 9e a8 06 80 c9 ee 08 80 e7 27 09 80
       4.02262e-40 -6.11501e-40 -8.20344e-40 -8.40834e-40
0000f0 fa bb 10 80 8a 34 0e 80 2a 17 10 80 ad cf 09 80
       -1.536801e-39 -1.304544e-39 -1.477678e-39 -9.0102e-40
000100 64 d4 09 80 3f 6e 08 80 2b ac 04 80 fa 01 05 80
       -9.02711e-40 -7.74233e-40 -4.29104e-40 -4.59887e-40
000110 5d b7 03 80 16 1d 04 80 dc ff 04 80 02 88 04 80
       -3.41285e-40 -3.77776e-40 -4.59127e-40 -4.16132e-40
000120 8c 1a 03 00 d9 5b 03 00 91 a5 02 00 64 f8 02 80
       2.8503e-40 3.08455e-40 2.43065e-40 -2.72777e-40
000130 c9 49 04 80 55 bf 02 80 f9 5b 07 80 5a ed 07 80
       -3.93811e-40 -2.52308e-40 -6.75842e-40 -7.27994e-40
000140 e6 62 07 80 c4 6e 10 80 11 d4 0a 80 4b 57 0c 80
       -6.78327e-40 -1.509103e-39 -9.9443e-40 -1.133341e-39
000150 65 13 0d 80 9e 2c 08 80 c8 5e 09 80 90 6e 13 80
       -1.200819e-39 -7.5069e-40 -8.6052e-40 -1.784537e-39
000160 9d 2d 0f 80 bc ec 0e 80 cc d3 48 3b f7 12 42 3b
       -1.393895e-39 -1.370621e-39 0.003064382 0.0029613355
000170 71 53 48 3b 32 c2 83 39 91 5c 89 34 d7 fa 90 39
       0.0030567313 0.00025130954 2.558559e-07 0.0002765271
000180 a6 35 a5 3a 09 99 79 3a f3 98 a1 3a 41 0e 07 80
       0.001260449 0.00095214 0.0012328908 -6.47962e-40
000190 20 b7 04 80 69 6f 07 80 53 97 04 80 9e 87 03 80
       -4.33035e-40 -6.82815e-40 -4.21627e-40 -3.24157e-40
0001a0 d4 89 02 80 ac 53 06 80 75 c3 04 80 e4 19 03 80
       -2.33114e-40 -5.81029e-40 -4.37459e-40 -2.84794e-40
0001b0 3c 21 16 80 ac 71 16 80 4c bb 15 80 99 44 0b 80
       -2.032303e-39 -2.061159e-39 -1.995735e-39 -1.034799e-39
0001c0 56 a3 0a 80 d9 86 07 80 88 34 09 80 2a 53 08 80
       -9.76949e-40 -6.91223e-40 -8.45364e-40 -7.64518e-40
0001d0 63 c4 08 80 05 0d 00 80 2d e8 00 80 a8 3b 00 00
       -8.05134e-40 -4.67e-42 -8.3289e-41 2.14e-41
0001e0 26 21 03 80 69 05 03 80 52 0f 03 80 99 89 08 80
       -2.87398e-40 -2.77447e-40 -2.81002e-40 -7.84045e-40
0001f0 7c af 08 80 0a 70 08 80 9c 57 04 80 b3 20 03 80
       -7.97636e-40 -7.74876e-40 -3.9877e-40 -2.87237e-40
000200 e2 eb 05 80 78 5b 0a 80 fc 48 09 80 e2 12 0a 80
       -5.43796e-40 -9.51168e-40 -8.52701e-40 -9.25129e-40
000210 e8 83 12 80 8d da 10 80 7b eb 10 80 e2 e9 03 80
       -1.700358e-39 -1.547769e-39 -1.553842e-39 -3.59408e-40
000220 26 2b 03 80 cd d4 02 80 28 43 03 80 20 4b 03 80
       -2.90985e-40 -2.6001e-40 -2.99598e-40 -3.02456e-40
000230 06 cc 02 80 46 88 02 80 2e e6 03 80 c9 4d 03 80
       -2.56861e-40 -2.32557e-40 -3.5808e-40 -3.0341e-40
000240 23 91 a3 bd ee aa 64 bd be da 23 bc 87 0f 0a 3e
       -0.07986667 -0.055827074 -0.010000883 0.13482486
000250 77 97 ee 3d 69 72 01 3e 52 92 a6 3d bf 95 6c 3d
       0.116499834 0.126413 0.08133377 0.057759997
000260 79 43 41 3d ea 0d 00 80 7f 87 00 00 2f 88 00 00
       0.047183488 -4.991e-42 4.8607e-41 4.8853e-41
000270 c5 d9 0b 80 7b 89 0b 80 8c 23 0c 80 13 48 14 80
       -1.088311e-39 -1.059509e-39 -1.114778e-39 -1.862565e-39
000280 39 71 15 80 cf 55 14 80 57 76 0a 00 0a 23 0b 00
       -1.969162e-39 -1.867492e-39 9.60807e-40 1.02276e-39
000290 a2 97 0b 00 c6 32 0b 80 e9 f0 0b 80 81 77 08 80
       1.064586e-39 -1.028405e-39 -1.096613e-39 -7.77554e-40
0002a0 4a eb 1c 80 f4 7d 1e 80 01 e6 1c 80 d5 0e 03 be
       -2.6558e-39 -2.800248e-39 -2.653904e-39 -0.12798627
0002b0 05 6e 09 be 67 c5 31 be 8e c7 07 3e 47 e5 82 3d
       -0.13420875 -0.1736046 0.13259718 0.063913874
0002c0 f2 dc a1 3d 65 3b c0 3b 65 5f d9 bd 6b 9a fb bd
       0.0790347 0.0058664554 -0.10613898 -0.12285312
0002d0 89 56 05 00 f5 1d 06 00 35 11 07 00 26 93 07 80
       4.9022e-40 5.6176e-40 6.49021e-40 -6.95635e-40
0002e0 8f 6b 08 80 3e 56 09 80 20 e3 13 80 e1 7b 14 80
       -7.73269e-40 -8.57457e-40 -1.826352e-39 -1.88115e-39
0002f0 4c 39 14 80 c7 68 04 80 23 32 03 80 ce 72 02 80
       -1.857264e-39 -4.04929e-40 -2.93492e-40 -2.24855e-40
000300 74 64 08 80 19 b5 08 80 eb f1 07 80 7c a7 07 80
       -7.7072e-40 -7.9965e-40 -7.29632e-40 -7.0293e-40
000310 7d 7a 07 80 05 1c 08 80 94 32 15 80 bb 15 10 80
       -6.86789e-40 -7.44735e-40 -1.94669e-39 -1.477163e-39
000320 60 a3 11 80 e8 d4 0e 80 bc c7 0a 80 25 a8 0a 80
       -1.619811e-39 -1.362073e-39 -9.90006e-40 -9.78674e-40
000330 21 79 13 80 36 ae 0e 80 15 bb 10 80 fb f9 78 bd
       -1.788327e-39 -1.348192e-39 -1.53648e-39 -0.060785275
000340 4a 4c 42 bd e4 39 be bc f8 6b 38 3b 13 5f 5c 3c
       -0.047436036 -0.023220964 0.0028140526 0.013450402
000350 f7 62 4b 3c 7f c5 70 3d a7 9b 60 3d c7 7e 81 3d
       0.012413732 0.058782097 0.05483594 0.06323009
000360 46 a6 80 3d a4 cf 05 3c 30 58 88 3d bc 84 65 bc
       0.06281714 0.008167181 0.066574454 -0.014008697
000370 46 73 64 39 34 db cd 3b bf d1 b3 bd 5b 9a fa bd
       0.00021786717 0.0062822346 -0.0878024 -0.12236472
000380 85 30 ad bd 55 bd 09 3e f6 5c c9 3d ba c7 be 3d
       -0.0845652 0.1345113 0.09832184 0.093154386
000390 14 c3 4c 3e 61 e2 88 3e a4 29 b2 3e dd fd bb bd
       0.19996291 0.26735213 0.34797394 -0.0917928
0003a0 30 a0 19 be b0 c8 ce 3c 11 66 08 00 1c 08 0c 00
       -0.15002513 0.02524218 7.71298e-40 1.104935e-39
0003b0 7f 98 09 00 b0 35 03 80 c7 82 00 80 56 d5 01 80
       8.81225e-40 -2.94766e-40 -4.6914e-41 -1.68366e-40
0003c0 0b 02 08 80 c1 3f 05 80 fc 09 07 80 1f 4f b9 bd
       -7.35417e-40 -4.82048e-40 -6.4643e-40 -0.09048294
0003d0 f4 2f 7c bd a7 6c 2f 3c c1 8d 51 bc 5d a6 9e 3d
       -0.06156917 0.010707057 -0.012790144 0.07746575
0003e0 c1 51 51 3e cf a3 09 bc a7 48 54 bb ba 68 75 3d
       0.20441343 -0.008400871 -0.0032391937 0.05991433
0003f0 16 24 0b 00 0f 4e 08 00 d3 d7 07 00 5a 81 06 80
       1.023136e-39 7.62686e-40 7.20272e-40 -5.97416e-40

onnx::Conv_87 f4 [32]
000000 b6 bc d1 bd 93 61 00 80 ea 64 00 80 01 30 00 00
       -0.10241072 -3.5003e-41 -3.6201e-41 1.722e-41
000010 06 4b d5 bd 70 2c c5 3b b3 8e 03 bc bd 65 00 00
       -0.104147 0.0060172603 -0.008029628 3.6497e-41
000020 08 13 00 00 ca f5 15 3e 34 98 00 00 0d 38 00 80
       6.827e-42 0.14644542 5.46e-41 -2.0107e-41
000030 ba 16 00 00 04 b7 70 3e 64 1a 00 80 fa 6c 9e 3b
       8.153e-42 0.23507315 -9.467e-42 0.0048347684
000040 3c 15 d3 bd 4d 57 00 00 ea f3 76 bd 36 0d 00 00
       -0.103067845 3.1318e-41 -0.06029121 4.739e-42
000050 c8 91 00 00 13 50 00 80 29 88 00 80 79 6f 00 80
       5.2296e-41 -2.8725e-41 -4.8845e-41 -3.9989e-41
000060 f9 3f 00 00 ec 3e 00 00 58 41 8d bb b6 9d bf bc
       2.2949e-41 2.2572e-41 -0.004310768 -0.023390632
000070 f8 75 00 80 56 10 00 00 3e a2 00 80 76 4a 00 00
       -4.2319e-41 5.86e-42 -5.8202e-41 2.6712e-41

onnx::Conv_89 f4 [32, 16, 1, 1]
000000 08 e2 0a bd bc db 6d 3d 30 01 04 80 43 4f ab be
       -0.033906966 0.058070883 -3.67768e-40 -0.3345891
000010 e8 17 01 00 01 d3 00 80 65 52 1f 3e 8b 7d 0e 80
       1.00411e-40 -7.5694e-41 0.15558775 -1.330733e-39
000020 68 8b 00 80 c3 83 56 be 6c b3 9d bd c4 7b 00 80
       -5.001e-41 -0.209487 -0.07700238 -4.4399e-41
000030 72 60 81 3d 5c 7f 0d 80 08 34 b9 3e f2 bc 10 bd
       0.063172236 -1.23955e-39 0.3617251 -0.035336442
000040 00 00 00 80 00 00 00 80 00 00 00 00 00 00 00 00
       -0.0 -0.0 0.0 0.0
000050 00 00 00 00 00 00 00 80 00 00 00 80 00 00 00 00
       0.0 -0.0 -0.0 0.0
000060 00 00 00 80 00 00 00 00 00 00 00 00 00 00 00 00
       -0.0 0.0 0.0 0.0
000070 00 00 00 80 00 00 00 00 00 00 00 80 00 00 00 00
       -0.0 0.0 -0.0 0.0
000080 00 00 00 00 00 00 00 00 00 00 00 00 00 00 00 00
       0.0 0.0 0.0 0.0
000090 00 00 00 80 00 00 00 80 00 00 00 00 00 00 00 00
       -0.0 -0.0 0.0 0.0
0000a0 00 00 00 80 00 00 00 00 00 00 00 80 00 00 00 00
       -0.0 0.0 -0.0 0.0
0000b0 00 00 00 80 00 00 00 80 00 00 00 00 00 00 00 00
       -0.0 -0.0 0.0 0.0
0000c0 00 00 00 80 00 00 00 80 00 00 00 00 00 00 00 80
       -0.0 -0.0 0.0 -0.0
0000d0 00 00 00 80 00 00 00 80 00 00 00 00 00 00 00 00
       -0.0 -0.0 0.0 0.0
0000e0 00 00 00 00 00 00 00 00 00 00 00 80 00 00 00 00
       0.0 0.0 -0.0 0.0
0000f0 00 00 00 00 00 00 00 80 00 00 00 00 00 00 00 80
       0.0 -0.0 0.0 -0.0
000100 3f 47 36 3e 37 08 3e 3e 97 1c 00 00 4c af aa bd
       0.17800616 0.18557821 1.0256e-41 -0.083342165
000110 3c bf 06 00 8f 2f 00 00 1e a8 f8 3d e3 76 03 80
       6.19615e-40 1.7061e-41 0.12141441 -3.18155e-40
000120 40 e6 00 00 a1 69 3f 3d a6 57 fc bd 23 d2 00 80
       8.2598e-41 0.046731595 -0.12321405 -7.5383e-41
000130 19 ea 50 3d de 3b 0c 80 fc ff da 3d 53 0c be be
       0.051004503 -1.123502e-39 0.106933564 -0.37118778
000140 de ea f7 bd 2d 8f 6e bd 7b 46 00 00 fa 18 a2 bd
       -0.12105344 -0.05824201 2.5284e-41 -0.0791492
000150 bb 79 02 00 f0 57 00 00 b2 50 f6 bd 67 b8 01 00
       2.2734e-40 3.1546e-41 -0.1202711 1.57987e-40
000160 c9 82 00 00 0f 01 37 be a4 26 a1 3e 2f 60 00 00
       4.6917e-41 -0.17871498 0.31474793 3.4504e-41
000170 58 94 1d be 1a 5c 03 80 06 68 f6 bd 24 50 03 3e
       -0.1538862 -3.08546e-40 -0.1203156 0.1282354
000180 32 c3 55 3d 67 08 34 3e 6c 2b 00 00 18 8c 96 bd
       0.052188106 0.1758133 1.5577e-41 -0.073509395
000190 62 21 0b 80 b0 4d 01 80 68 2e db bd a0 e5 04 80
       -1.022166e-39 -1.19705e-40 -0.10702211 -4.49716e-40
0001a0 a6 27 02 00 55 bb 14 bd 7d 91 50 bd 24 80 03 80
       1.97894e-40 -0.036311466 -0.05092 -3.21475e-40
0001b0 35 4d 8e bd 9d 3e 12 00 bb fd 3c be 0f f5 aa 3c
       -0.0694832 1.6755e-39 -0.18456165 0.020868806
0001c0 00 00 00 00 00 00 00 80 00 00 00 00 00 00 00 80
       0.0 -0.0 0.0 -0.0
0001d0 00 00 00 00 00 00 00 00 00 00 00 00 00 00 00 00
       0.0 0.0 0.0 0.0
0001e0 00 00 00 80 00 00 00 80 00 00 00 00 00 00 00 80
       -0.0 -0.0 0.0 -0.0
0001f0 00 00 00 00 00 00 00 80 00 00 00 80 00 00 00 80
       0.0 -0.0 -0.0 -0.0
000200 00 00 00 80 00 00 00 00 00 00 00 00 00 00 00 80
       -0.0 0.0 0.0 -0.0
000210 00 00 00 80 00 00 00 00 00 00 00 80 00 00 00 00
       -0.0 0.0 -0.0 0.0
000220 00 00 00 00 00 00 00 00 00 00 00 00 00 00 00 80
       0.0 0.0 0.0 -0.0
000230 00 00 00 00 00 00 00 00 00 00 00 80 00 00 00 00
       0.0 0.0 -0.0 0.0
000240 1d 4b 9e 3c 30 b8 98 3d 20 b4 01 80 fe 95 16 be
       0.019322926 0.07457006 -1.56452e-40 -0.14705655
000250 af ab 01 00 82 3d 00 00 68 08 87 bc 98 ce 00 80
       1.53424e-40 2.2065e-41 -0.0164835 -7.4112e-41
000260 f1 04 00 00 34 ef 51 bd 2c 61 c5 3d 98 cb 01 80
       1.773e-42 -0.051253513 0.09637675 -1.64871e-40
000270 b2 3c 5e 3d dc de 01 80 29 db e6 bd d8 40 2a 3e
       0.054257102 -1.71782e-40 -0.1127227 0.16626298
000280 00 00 00 00 00 00 00 00 00 00 00 80 00 00 00 80
       0.0 0.0 -0.0 -0.0
000290 00 00 00 00 00 00 00 80 00 00 00 80 00 00 00 00
       0.0 -0.0 -0.0 0.0
0002a0 00 00 00 00 00 00 00 00 00 00 00 80 00 00 00 80
       0.0 0.0 -0.0 -0.0
0002b0 00 00 00 80 00 00 00 00 00 00 00 00 00 00 00 00
       -0.0 0.0 0.0 0.0
0002c0 00 00 00 80 00 00 00 80 00 00 00 00 00 00 00 80
       -0.0 -0.0 0.0 -0.0
0002d0 00 00 00 80 00 00 00 80 00 00 00 00 00 00 00 00
       -0.0 -0.0 0.0 0.0
0002e0 00 00 00 80 00 00 00 80 00 00 00 80 00 00 00 00
       -0.0 -0.0 -0.0 0.0
0002f0 00 00 00 00 00 00 00 80 00 00 00 80 00 00 00 80
       0.0 -0.0 -0.0 -0.0
000300 00 00 00 80 00 00 00 80 00 00 00 80 00 00 00 00
       -0.0 -0.0 -0.0 0.0
000310 00 00 00 80 00 00 00 00 00 00 00 00 00 00 00 80
       -0.0 0.0 0.0 -0.0
000320 00 00 00 00 00 00 00 00 00 00 00 00 00 00 00 00
       0.0 0.0 0.0 0.0
000330 00 00 00 00 00 00 00 80 00 00 00 00 00 00 00 80
       0.0 -0.0 0.0 -0.0
000340 99 b7 26 3e a5 e0 dd 3e b3 8a 06 80 11 a1 32 3e
       0.16280974 0.43335453 -6.00769e-40 0.17444254
000350 56 68 04 80 dd 66 00 80 ef 68 a7 bd 2e 18 0b 80
       -4.0477e-40 -3.69e-41 -0.08174311 -1.018864e-39
000360 36 7e 00 80 68 28 9a 3e 75 99 38 be 9a 49 02 00
       -4.5276e-41 0.30108953 -0.18027289 2.10074e-40
000370 11 83 2e be b1 77 08 80 26 83 77 3e f9 f5 05 bf
       -0.17042185 -7.77621e-40 0.24171123 -0.5232845
000380 00 00 00 00 00 00 00 00 00 00 00 80 00 00 00 80
       0.0 0.0 -0.0 -0.0
000390 00 00 00 80 00 00 00 00 00 00 00 00 00 00 00 80
       -0.0 0.0 0.0 -0.0
0003a0 00 00 00 00 00 00 00 80 00 00 00 00 00 00 00 00
       0.0 -0.0 0.0 0.0
0003b0 00 00 00 80 00 00 00 00 00 00 00 00 00 00 00 00
       -0.0 0.0 0.0 0.0
0003c0 c1 d0 14 be bc 41 25 be bb 43 05 00 28 f0 04 3f
       -0.14532758 -0.16138357 4.83475e-40 0.5192895
0003d0 e5 c9 04 00 a1 5c 00 80 9e c2 1b 3e f4 09 03 80
       4.39768e-40 -3.3229e-41 0.1521096 -2.79077e-40
0003e0 0a be 00 00 be e4 78 3d 4d 82 5c bd 36 12 03 80
       6.8173e-41 0.06076502 -0.053835202 -2.8204e-40
0003f0 2c 01 9b 3e 70 42 0c 00 69 98 fb 3b 45 1c 1f be
       0.30274332 1.125859e-39 0.007678081 -0.15538128

onnx::Conv_90 f4 [32]
000000 e1 a6 83 bd 93 61 00 80 ea 64 00 80 01 30 00 00
       -0.06428314 -3.5003e-41 -3.6201e-41 1.722e-41
000010 64 00 1d bd 70 bc b7 bb ce 25 45 3d bd 65 00 00
       -0.03833045 -0.0056071803 0.048131756 3.6497e-41
000020 08 13 00 00 04 1e 08 be 34 98 00 00 0d 38 00 80
       6.827e-42 -0.132927 5.46e-41 -2.0107e-41
000030 ba 16 00 00 8d 46 1a be 64 1a 00 80 4e 40 b5 bd
       8.153e-42 -0.15065975 -9.467e-42 -0.08850156
000040 ec 9e e9 be 4d 57 00 00 1e 78 13 bd 36 0d 00 00
       -0.4562906 3.1318e-41 -0.036003225 4.739e-42
000050 c8 91 00 00 13 50 00 80 29 88 00 80 79 6f 00 80
       5.2296e-41 -2.8725e-41 -4.8845e-41 -3.9989e-41
000060 f9 3f 00 00 ec 3e 00 00 16 91 f7 3d 75 09 80 be
       2.2949e-41 2.2572e-41 0.1208822 -0.25007215
000070 f8 75 00 80 56 10 00 00 3e a2 00 80 76 4a 00 00
       -4.2319e-41 5.86e-42 -5.8202e-41 2.6712e-41

onnx::Conv_92 f4 [64, 32, 3, 3]
000000 bd 78 4d 89 cc 4a 60 87 81 68 af 8c 63 2a 15 95
       -2.4732748e-33 -1.6873868e-34 -2.7025915e-31 -3.0123748e-26
000010 29 d9 08 99 b6 99 86 96 2f 8d e0 8d a6 04 16 90
       -7.07489e-24 -2.1745873e-25 -1.3839055e-30 -2.9585865e-29
000020 7e d0 dd 93 2b 15 00 00 9f 0d 00 80 77 09 00 80
       -5.5993832e-27 7.594e-42 -4.886e-42 -3.395e-42
000030 a8 11 00 00 f3 07 00 80 f2 05 00 00 a8 06 00 80
       6.334e-42 -2.852e-42 2.133e-42 -2.388e-42
000040 e6 16 00 00 2b 04 00 00 b0 0d 00 80 81 02 00 00
       8.214e-42 1.495e-42 -4.91e-42 8.98e-43
000050 36 17 00 00 06 12 00 00 99 01 00 80 f3 15 00 00
       8.327e-42 6.466e-42 -5.73e-43 7.874e-42
000060 da 0c 00 80 08 06 00 00 78 12 00 80 ae 0a 00 80
       -4.61e-42 2.164e-42 -6.625e-42 -3.831e-42
000070 3e 09 00 80 c6 16 00 00 00 06 00 80 4c 0f 00 00
       -3.315e-42 8.17e-42 -2.152e-42 5.487e-42
000080 1a 07 00 80 27 10 00 80 53 05 00 80 2f 18 00 00
       -2.548e-42 -5.794e-42 -1.91e-42 8.675e-42
000090 4a 44 07 a7 d6 16 89 a8 59 b4 88 a8 fb 50 72 2d
       -1.8772033e-15 -1.5219959e-14 -1.5177246e-14 1.3774089e-11
0000a0 60 04 64 2e df 32 c8 2d 66 f4 8d a7 83 a6 bc a8
       5.1845084e-11 2.2759959e-11 -3.940034e-15 -2.0944406e-14
0000b0 f9 8e 7c a8 78 62 43 9c 18 66 de a2 93 c3 f2 a3
       -1.4019812e-14 -6.4647356e-22 -6.0281317e-18 -2.6320521e-17
0000c0 f7 37 69 a0 0e 57 75 a5 3f f2 15 a7 7f 6b 12 9f
       -1.9754385e-19 -2.1279858e-16 -2.0809226e-15 -3.100562e-20
0000d0 6b 3d f2 a4 8a f0 ac a5 f2 04 00 00 21 06 00 80
       -1.05054816e-16 -3.000024e-16 1.774e-42 -2.199e-42
0000e0 78 04 00 00 39 02 00 80 82 00 00 80 07 01 00 00
       1.603e-42 -7.97e-43 -1.82e-43 3.69e-43
0000f0 58 04 00 00 f3 01 00 80 40 01 00 80 6b 08 00 80
       1.558e-42 -6.99e-43 -4.48e-43 -3.02e-42
000100 89 0c 00 80 c6 1b 00 00 64 0e 00 00 6d 0e 00 00
       -4.497e-42 9.963e-42 5.162e-42 5.175e-42
000110 c2 03 00 00 05 03 00 80 b9 02 00 80 6a 00 00 00
       1.348e-42 -1.083e-42 -9.77e-43 1.49e-43
000120 2b 12 00 80 e2 0e 00 00 f7 12 00 80 fb 16 00 80
       -6.517e-42 5.339e-42 -6.803e-42 -8.244e-42
000130 4e 10 00 00 d2 10 00 00 2c 08 00 00 ef 15 00 00
       5.849e-42 6.034e-42 2.932e-42 7.868e-42
000140 ce 05 00 80 b9 aa 3c 1b 38 15 2b a2 fb 81 b5 16
       -2.082e-42 1.5606159e-22 -2.3186055e-18 2.9324156e-25
000150 ff 6f 8b 28 0e d3 82 2b 2c 29 87 28 7d 9d 28 1b
       1.548067e-14 9.295635e-13 1.5005866e-14 1.3947521e-22
000160 63 56 0f a6 c5 96 67 9c 12 17 00 00 7f 19 00 00
       -4.9730167e-16 -7.6626354e-22 8.276e-42 9.146e-42
000170 36 15 00 80 2d 15 00 00 9d 15 00 80 d0 0d 00 00
       -7.609e-42 7.596e-42 -7.753e-42 4.955e-42
000180 49 08 00 00 99 10 00 00 e5 15 00 80 48 16 00 00
       2.972e-42 5.954e-42 -7.854e-42 7.993e-42
000190 c7 12 00 00 59 0d 00 80 13 0f 00 80 76 05 00 00
       6.736e-42 -4.788e-42 -5.408e-42 1.959e-42
0001a0 bd 10 00 80 02 0f 00 00 3f 05 00 00 fc 03 00 80
       -6.005e-42 5.384e-42 1.882e-42 -1.43e-42
0001b0 6f 1b 00 00 2a 18 00 80 d7 0e 00 00 da 15 00 00
       9.841e-42 -8.668e-42 5.324e-42 7.839e-42
0001c0 5d 09 00 00 47 03 00 00 0e 0c 00 00 52 0d 00 80
       3.359e-42 1.176e-42 4.324e-42 -4.778e-42
0001d0 bc 10 00 00 aa e7 62 a4 ea be 12 a6 28 5b 50 a4
       6.003e-42 -4.9202165e-17 -5.091266e-16 -4.5180023e-17
0001e0 24 ed 70 26 af 61 a7 26 1f 01 27 27 e6 6f 66 a3
       8.358811e-16 1.161443e-15 2.3176513e-15 -1.249202e-17
0001f0 6a b6 21 a5 e3 de 5e a1 76 00 00 00 2a 06 00 00
       -1.4026328e-16 -7.5511514e-19 1.65e-43 2.211e-42
000200 6f 0e 00 00 e1 0d 00 00 de 05 00 80 81 15 00 00
       5.178e-42 4.979e-42 -2.105e-42 7.714e-42
000210 c0 0e 00 00 35 0c 00 00 25 0c 00 00 c9 80 83 16
       5.291e-42 4.379e-42 4.357e-42 2.1245466e-25
000220 71 dc 00 15 98 d1 25 14 cc 09 a4 9a 40 c8 e0 95
       2.6023292e-26 8.371706e-27 -6.784464e-23 -9.078882e-26
000230 69 e6 16 96 13 ea 8d 22 c4 92 9b 1d 2d 6a 24 20
       -1.2189608e-25 3.8465962e-18 4.117991e-21 1.3926471e-19
000240 c6 f1 1d 83 19 fa 66 22 9c 68 2d 02 3d 15 8a 30
       -4.6415696e-37 3.1303213e-18 1.2740054e-37 1.0046858e-09
000250 dc ef f1 32 5c c0 1a 31 f0 5e ec 01 12 0f f5 22
       2.8165168e-08 2.2519293e-09 8.6828937e-38 6.642334e-18
000260 ff a2 4c 80 85 08 00 80 34 16 00 00 40 0f 00 00
       -7.03797e-39 -3.056e-42 7.965e-42 5.47e-42
000270 ef 06 00 80 64 09 00 80 49 09 00 80 d0 0f 00 00
       -2.487e-42 -3.369e-42 -3.331e-42 5.672e-42
000280 12 09 00 00 81 0b 00 00 ca 03 00 00 cf 03 00 80
       3.254e-42 4.127e-42 1.359e-42 -1.366e-42
000290 e3 01 00 00 20 00 00 00 11 02 00 80 30 02 00 00
       6.77e-43 4.5e-44 -7.41e-43 7.85e-43
0002a0 23 01 00 80 19 05 00 80 d4 02 00 80 59 07 00 00
       -4.08e-43 -1.829e-42 -1.015e-42 2.636e-42
0002b0 3a 06 00 00 85 06 00 00 6c 0c 00 00 d3 0c 00 80
       2.234e-42 2.339e-42 4.456e-42 -4.6e-42
0002c0 b1 0f 00 00 08 09 00 80 05 08 00 00 e2 0c 00 80
       5.629e-42 -3.24e-42 2.877e-42 -4.621e-42
0002d0 4d 18 00 80 23 04 00 80 58 17 00 80 9a 11 00 00
       -8.717e-42 -1.484e-42 -8.374e-42 6.314e-42
0002e0 82 01 00 00 cb 00 00 80 7c 0c 00 80 23 06 00 80
       5.41e-43 -2.84e-43 -4.479e-42 -2.201e-42
0002f0 4c 0d 00 80 17 0b 00 00 84 02 00 00 a3 09 00 00
       -4.77e-42 3.978e-42 9.02e-43 3.457e-42
000300 1a 0c 00 80 d1 05 00 00 ee 0b 00 00 c2 17 00 00
       -4.341e-42 2.087e-42 4.28e-42 8.523e-42
000310 5c 11 00 80 b5 0b 00 00 53 16 00 00 a2 14 00 00
       -6.227e-42 4.2e-42 8.008e-42 7.402e-42
000320 a8 10 00 00 4d 03 00 80 dd 01 00 00 8f 13 00 80
       5.975e-42 -1.184e-42 6.68e-43 -7.016e-42
000330 a0 13 00 80 ad 06 00 00 b8 06 00 00 b6 04 00 00
       -7.04e-42 2.395e-42 2.41e-42 1.69e-42
000340 fc 15 00 80 fb 06 00 00 95 0f 00 00 3d 10 00 00
       -7.887e-42 2.504e-42 5.59e-42 5.825e-42
000350 50 0b 00 80 d7 01 00 00 75 0b 00 80 92 04 00 80
       -4.058e-42 6.6e-43 -4.11e-42 -1.64e-42
000360 72 01 00 80 a4 03 00 00 c8 08 00 00 2a 0e 00 80
       -5.18e-43 1.306e-42 3.15e-42 -5.081e-42
000370 7a 03 00 00 89 0a 00 80 06 0d 00 80 64 03 00 00
       1.247e-42 -3.78e-42 -4.672e-42 1.216e-42
000380 97 1b 00 80 81 10 00 00 60 17 00 00 e2 05 00 80
       -9.897e-42 5.92e-42 8.385e-42 -2.11e-42
000390 34 1b 00 80 4c 17 00 00 c9 18 00 00 13 1b 00 80
       -9.759e-42 8.357e-42 8.891e-42 -9.712e-42
0003a0 2d 0b 00 80 96 00 00 00 4d 57 b1 12 51 94 00 00
       -4.009e-42 2.1e-43 1.1191792e-27 5.3206e-41
0003b0 a0 f4 b0 0f 71 03 00 80 71 04 00 00 d6 01 00 00
       1.7449166e-29 -1.235e-42 1.593e-42 6.59e-43
0003c0 45 b3 fd 98 79 0a 00 80 60 71 01 00 fc 10 25 22
       -6.5579983e-24 -3.757e-42 1.32507e-40 2.2370661e-18
0003d0 4d 79 f0 18 0f b9 6c 24 22 5c dc 22 05 a5 b0 29
       6.216103e-24 5.1331093e-17 5.972867e-18 7.8445964e-14
0003e0 ce 66 00 25 8a 92 d9 1d 06 36 66 98 ff b1 a1 1f
       1.1137062e-16 5.759094e-21 -2.9754078e-24 6.848062e-20
0003f0 9e 10 00 00 fc 0e 00 00 07 11 00 00 45 07 00 00
       5.961e-42 5.375e-42 6.108e-42 2.608e-42

onnx::Conv_93 f4 [64]
000000 89 4d ce b9 c5 5f 07 bd 76 29 14 80 d5 fc 0d 80
       -0.0003934915 -0.033050317 -1.851583e-39 -1.28456e-39
000010 2e a6 08 00 33 b0 2b b8 3f 85 01 80 9b b2 d5 ac
       7.94298e-40 -4.0933675e-05 -1.39635e-40 -6.0736533e-12
000020 51 f0 03 80 47 08 20 bd cc e6 00 80 7e ff 3f bb
       -3.61716e-40 -0.039070394 -8.2794e-41 -0.0029296572
000030 f6 ae 49 b2 d3 be 34 00 93 38 4f 91 0e 5b 15 80
       -1.1739521e-08 4.8439e-39 -1.6346854e-28 -1.96121e-39
000040 cc 77 4f bc c7 b3 70 3a 49 dc 03 00 16 c9 db b0
       -0.012662839 0.00091820623 3.5453e-40 -1.5991499e-09
000050 9a d7 39 b6 09 31 09 80 12 72 fb 3a b2 e0 30 80
       -2.7692645e-06 -8.4411e-40 0.0019183776 -4.48871e-39
000060 27 09 07 00 f6 ae 06 00 01 c1 03 80 43 c8 a0 b2
       6.46132e-40 6.13777e-40 -3.44743e-40 -1.871752e-08
000070 51 e8 d5 3b a3 e3 09 80 02 77 00 80 02 b5 0b 80
       0.0065279384 -9.0818e-40 -4.2692e-41 -1.075124e-39
000080 ef 8a 02 80 fd 07 8d b1 81 f5 00 00 e5 56 05 80
       -2.33511e-40 -4.1045483e-09 8.807e-41 -4.9035e-40
000090 2f e3 94 8f 97 18 0b 3d 93 e3 94 bc 90 7c 04 3b
       -1.4681435e-29 0.033958998 -0.018174922 0.0020215847
0000a0 f6 c4 40 3a 2f 01 ff ae 8b a7 09 00 ae d6 03 80
       0.0007353568 -1.1596268e-10 8.86623e-40 -3.52519e-40
0000b0 06 1d bf b0 10 8f 05 80 28 a1 c0 3b ec 96 03 00
       -1.3905328e-09 -5.10499e-40 0.0058785863 3.29647e-40
0000c0 cf e0 09 80 e2 ec 37 80 93 40 00 00 6f 4a 84 b6
       -9.07166e-40 -5.13593e-39 2.3165e-41 -3.9425718e-06
0000d0 de a5 fb 3c f4 13 10 00 72 6d d5 b2 03 e6 f2 a5
       0.03071874 1.476526e-39 -2.4846234e-08 -4.213617e-16
0000e0 b7 a1 17 00 49 a1 14 00 fd ef 21 80 d6 ef 38 ba
       2.170229e-39 1.894568e-39 -3.116663e-39 -0.00070547813
0000f0 90 a3 e4 b7 fe bd 7c a1 46 53 80 3d 97 74 1e 3e
       -2.7255883e-05 -8.5632374e-19 0.06265883 0.15474163
