cmd/ai/datas/models/conference_room.onnx (onnx, 302121 bytes, 16 tensors)

fc.weight f4 [2, 256]
0	0xbdb2e8b5	-0.087357916
1	0xbcd6a2d9	-0.026200699
2	0xbe5c442b	-0.21510379
3	0xbe3a59ef	-0.1819837
4	0xbe370021	-0.17871143
5	0xbe544f81	-0.20733453
6	0xbdf98a99	-0.121846385
7	0xbe100be4	-0.14067036
8	0x348e4e15	2.6506373e-07
9	0x34914967	2.7061762e-07
10	0x34911304	2.702219e-07
11	0x348f5eb5	2.6704734e-07
12	0x3d651605	0.055929203
13	0x3dd23c67	0.10265427
14	0xbe0624e5	-0.13100012
15	0xbded16fd	-0.1157665
16	0x3dd212e7	0.102575116
17	0x3dea7728	0.114485085
18	0x3dc0735f	0.09397005
19	0x3e02ac19	0.12760963
20	0x3de0f15f	0.10983538
21	0x3e65b417	0.2243198
22	0x3da3752e	0.079813346
23	0x3dded086	0.108796164
24	0x3d319342	0.043353327
25	0x3cd911b8	0.026497707
26	0xbc94c399	-0.018159674
27	0xbd194991	-0.037423674
28	0x2f65a10f	2.0884648e-10
29	0x2f66e63b	2.1000172e-10
30	0x2f660fd4	2.0924001e-10
31	0x2f5e34a7	2.0209488e-10
32	0x3dbd7f0b	0.09252747
33	0x3d8b44e3	0.068002485
34	0x3e42a827	0.19009458
35	0x3e3e6ad9	0.18595447
36	0xbd4992db	-0.049212318
37	0xbd58e66b	-0.05295412
38	0x3d5064b6	0.050877295
39	0x3d688e9f	0.05677664
40	0xbc1686f7	-0.009187452
41	0xbcaa9a68	-0.02082558
42	0x3c8de21c	0.017319731
43	0x3c9cb65f	0.01912993
44	0x2ab63d66	3.2372298e-13
45	0x2aa21bf8	2.8796388e-13
46	0x2ab52fa1	3.2185108e-13
47	0x2aa1ade9	2.872002e-13
48	0x3c992385	0.018693695
49	0x3d1ec6d1	0.038763825
50	0x3e217d79	0.1577052
51	0x3e0575d1	0.13033225
52	0x3e299fdf	0.16564892
53	0x3e53105f	0.20611714
54	0x3d53a914	0.051674917
55	0x3dd3d2ac	0.10342917
56	0x3df1fefd	0.11816213
57	0x3e14df1f	0.14538239
58	0x3dd69d2f	0.10479199
59	0x3e2d1c1d	0.16905256
60	0xb8e03f83	-0.00010692982
61	0x3808d1e4	3.2620403e-05
62	0xb9680eb7	-0.00022130726
63	0x392c62c0	0.00016439985
64	0x3da13a99	0.07872505
65	0x3de87f49	0.11352403
66	0xbe6b8b08	-0.23002255
67	0xbe42209c	-0.18957752
68	0xba212dde	-0.00061484973
69	0xbaed1fe3	-0.0018091168
70	0x3a9088d1	0.0011027103
71	0x3aab14ca	0.001305246
72	0x2a88546c	2.4217032e-13
73	0x2a6f5d76	2.125989e-13
74	0xa9a6dcef	-7.410207e-14
75	0x2b35e64f	6.4623735e-13
76	0x2609cac2	4.780621e-16
77	0x26091e05	4.7572107e-16
78	0x2603055a	4.545701e-16
79	0x25fedc9b	4.4211464e-16
80	0x3cccf735	0.025020221
81	0x3d6068bb	0.05478738
82	0xbd8dd133	-0.06924667
83	0xbd20899f	-0.039193746
84	0x33773a1d	5.7562023e-08
85	0x3390ff4d	6.7519615e-08
86	0x33da0071	1.0151496e-07
87	0x33eaa462	1.0926375e-07
88	0x3de2ee54	0.11080614
89	0xbdf1213d	-0.11773918
90	0x3cf27f13	0.02960161
91	0xbe33f0aa	-0.17572275
92	0xbd84b16a	-0.064791515
93	0xbe262722	-0.16225865
94	0xbd4eebf0	-0.050517976
95	0xbe3b3cb5	-0.18284877
96	0xb8c138c5	-9.213531e-05
97	0xb8b52d3e	-8.6391796e-05
98	0xb8c43f39	-9.3577844e-05
99	0xb8ba9f54	-8.898848e-05
100	0x337410d1	5.682597e-08
101	0xb3d293a1	-9.8057406e-08
102	0xb3a50451	-7.6841964e-08
103	0x33dbf14d	1.02418745e-07
104	0x2f718087	2.1964484e-10
105	0x309d3d50	1.144068e-09
106	0xb224fbf9	-9.603348e-09
107	0xb257869e	-1.25452555e-08
108	0xbc77cde7	-0.015124775
109	0xbbefbcae	-0.0073161935
110	0x3ca68bad	0.020330274
111	0x3ba8d430	0.005152248
112	0x3d05736e	0.032580785
113	0x3d7a4a8c	0.06110625
114	0xbd9e89d1	-0.0774113
115	0xbda172c3	-0.07883217
116	0xbdf11417	-0.1177141
117	0xbe052561	-0.1300254
118	0xbe2182d7	-0.15772568
119	0xbe4898a9	-0.19589485
120	0x3ded8898	0.11598319
121	0x3bef5f5d	0.0073050694
122	0x3e1afd0c	0.15135592
123	0x3c8f4e12	0.017493282
124	0xb930fec6	-0.00016879578
125	0xb94b54aa	-0.00019391128
126	0x38b9c009	8.857257e-05
127	0x393c0411	0.00017930592
128	0x3b908d05	0.004411342
129	0xbbb3a71f	-0.005482569
130	0x3b91ac21	0.004445568
131	0xbba500f7	-0.0050355154
132	0xb7f94c6a	-2.9718696e-05
133	0xb61ebbf8	-2.3653247e-06
134	0x36d8e2e1	6.463714e-06
135	0x3763f421	1.3587095e-05
136	0x3e4d16dd	0.20028253
137	0x3d594906	0.053048156
138	0x3e1c7a0a	0.15280929
139	0xbc62e805	-0.013849263
140	0x3e40c978	0.18826854
141	0x3e52dc11	0.20591761
142	0xbc819e46	-0.015822541
143	0x3d9c7946	0.076403186
144	0xb76d5bd8	-1.4147685e-05
145	0xb761a67f	-1.34498105e-05
146	0xb745d1ec	-1.1790991e-05
147	0xb73c7163	-1.1232073e-05
148	0x3c7b7fd4	0.015350301
149	0x3d0b7fe4	0.034057513
150	0xbe487939	-0.19577493
151	0xbe3de23e	-0.18543336
152	0x2ee256ee	1.0292732e-10
153	0x2ee44f69	1.0382346e-10
154	0x2ee1a5c0	1.02612585e-10
155	0x2ee83782	1.0559999e-10
156	0x3cabaf56	0.02095763
157	0xbc5b14d8	-0.013371669
158	0x3cbe37fa	0.023220051
159	0xbcb3972b	-0.021922668
160	0x3dac9900	0.0842762
161	0x3e2f274e	0.17104837
162	0x3dd10f4e	0.10207997
163	0x3e1e76f5	0.15475066
164	0x3dfdafaf	0.123870246
165	0x3aace659	0.0013191208
166	0x3df4ad53	0.119471215
167	0xbd297717	-0.04137334
168	0xbe214b31	-0.1575134
169	0xbe0c4de7	-0.13701592
170	0x3d109043	0.03529383
171	0x3d2790c5	0.040909547
172	0xb3cf787d	-9.661105e-08
173	0xb3c8a9cf	-9.344114e-08
174	0xb39e3cff	-7.3685435e-08
175	0xb397fdcd	-7.0776515e-08
176	0x3e18789a	0.14889756
177	0x3db52c88	0.08846384
178	0x3e3361dc	0.17517799
179	0x3e38a534	0.1803177
180	0xba9b57a6	-0.0011851683
181	0x3a14279e	0.00056516554
182	0xbadf1ec0	-0.0017022714
183	0x3acade0a	0.001547755
184	0xbe190184	-0.14941984
185	0xbd5ecb69	-0.054393206
186	0xbe6e7cc5	-0.23289783
187	0xbe1ab981	-0.15109827
188	0xbca72390	-0.0204027
189	0xbd3fa1b7	-0.046785083
190	0x3d54ddc8	0.05196932
191	0x3d580479	0.05273864
192	0xb3674fae	-5.3856347e-08
193	0x350d27af	5.258434e-07
194	0xb32571c2	-3.852052e-08
195	0xb38ac6a3	-6.4622576e-08
196	0x3e0d0963	0.13773112
197	0x3e2f8e9a	0.17144242
198	0xbdc31617	-0.09525698
199	0xbdab1ddf	-0.08355307
200	0x3dc139b4	0.09434834
201	0x3dbfa060	0.09356761
202	0x3e23a38c	0.15980357
203	0x3e456faf	0.19280885
204	0x3bd701a8	0.0065614767
205	0x3bf5ccc1	0.007501215
206	0xbbc9a7a3	-0.006154017
207	0xbb2e2218	-0.0026570614
208	0xbd522195	-0.051301558
209	0xbd71d718	-0.05904302
210	0xbe2979b3	-0.16550331
211	0xbde3dda8	-0.11126262
212	0xbcd4155f	-0.025889097
213	0xbc6aecdc	-0.014338698
214	0x3c57504b	0.013141702
215	0x3d9917df	0.07475256
216	0xbdf09966	-0.117480084
217	0xbe40ca9b	-0.18827288
218	0xbe48be63	-0.19603877
219	0xbe3e1d05	-0.18565758
220	0xb7d63742	-2.553652e-05
221	0xb7c5754c	-2.353885e-05
222	0x37c6fb3b	2.3720428e-05
223	0x37d55b28	2.5434027e-05
224	0x2e3a4954	4.2356632e-11
225	0x2e31ff92	4.0472133e-11
226	0x2e0ffc13	3.2738322e-11
227	0x2e0e76c5	3.239255e-11
228	0xbc3ce942	-0.011530222
229	0x3d56ec91	0.0524717
230	0xbd2a4e4c	-0.041578576
231	0x3c1dfe5a	0.009643162
232	0xbcaa12f6	-0.020760994
233	0xbcf1b396	-0.029504579
234	0x3cce5868	0.02518864
235	0x3c12fe90	0.008971825
236	0xaf2c92a7	-1.569541e-10
237	0x2ecd333e	9.331423e-11
238	0xafbeefe0	-3.473124e-10
239	0xb0401ee2	-6.989308e-10
240	0xbc71d5c1	-0.014760436
241	0x3c732a56	0.014841637
242	0x3cac854a	0.02105965
243	0x3d4531b9	0.048143122
244	0x3913bfd2	0.00014090471
245	0xb8c20d74	-9.253147e-05
246	0x391a9aef	0.00014744302
247	0xb932fe47	-0.00017070129
248	0xbde5fc44	-0.112297565
249	0xbe0e5543	-0.13899712
250	0xbe05e440	-0.13075352
251	0xbe069c27	-0.13145505
252	0xba3b4e17	-0.000714512
253	0xbd25330d	-0.04033189
254	0xbe56caec	-0.20975846
255	0xbe5c9f69	-0.21545185

fc.bias f4 [2]
0	0x3c871860	0.016491115
1	0x3d6dc896	0.05805262

onnx::Conv_80 f4 [16, 3, 7, 7]
0	0xbd3a07c2	-0.045417555
1	0xbde9669d	-0.11396525
2	0xbc98d7c6	-0.018657576
3	0xbbc1b71c	-0.005911721
4	0xbd621965	-0.0552
5	0x3db345e8	0.08753568
6	0xbc8e4ee2	-0.017371599
7	0xbc2835fb	-0.010266776
8	0x3ce7763a	0.028254617
9	0x3e235001	0.15948488
10	0x3d78fd9f	0.060788747
11	0x3d549ee2	0.051909335
12	0x3dc5279b	0.09626695
13	0x3e28598f	0.16440414
14	0xbb97449f	-0.0046163346
15	0x3ded7cdc	0.11596081
16	0x3d9e430f	0.07727634
17	0xbe0bac8f	-0.13640045
18	0x3dba05f5	0.090831675
19	0x3e4620b4	0.19348413
20	0x3e5d90c1	0.2163725
21	0x3dd5a402	0.10431673
22	0x3d5aca7b	0.053415757
23	0xbc71db24	-0.01476172
24	0xbe2236cc	-0.15841216
25	0xbdd8f198	-0.10592955
26	0x3dcddc04	0.1005173
27	0x3e5f3610	0.21797967
28	0x3d827603	0.06370165
29	0xbd3a3a0e	-0.04546552
30	0xbc73fc61	-0.014891715
31	0xbe60ce52	-0.21953705
32	0xbd45c0af	-0.04827946
33	0x3de1b21b	0.11020299
34	0x3e5626b0	0.20913196
35	0x3b816f0b	0.003950005
36	0xbc3614f5	-0.011113395
37	0xbbb16fa3	-0.0054149195
38	0xbe6c7ad6	-0.23093733
39	0xbe36b22f	-0.17841409
40	0xbce69513	-0.028147256
41	0x3e58cbbd	0.2117147
42	0xbd1e9af6	-0.038722
43	0x3c86ee42	0.016471032
44	0xbe337787	-0.17526065
45	0xbe47712e	-0.19476768
46	0xbe301cea	-0.1719853
47	0xbd112eb1	-0.03544492
48	0x3e44b4cc	0.19209594
49	0x3cbd80d2	0.023132715
50	0xbd7d1e84	-0.06179668
51	0xbdcedf86	-0.101012275
52	0xbd64e30b	-0.055880588
53	0xbdae049a	-0.084969714
54	0xbd2e56c5	-0.04256322
55	0xbd9ba58e	-0.075999364
56	0xbd1d835d	-0.038455356
57	0x3cec62ca	0.0288557
58	0x3dcc95eb	0.09989532
59	0xbdf91911	-0.12162984
60	0x3d98e45e	0.074654326
61	0x3d1fc6ed	0.03900807
62	0x3e49af25	0.19695719
63	0xbce781f9	-0.028260218
64	0xba8281cc	-0.0009956895
65	0xbdafb766	-0.08579902
66	0xbdbe070f	-0.0927869
67	0xbdbe4662	-0.09290768
68	0x3c93c8ec	0.018040143
69	0x3e31fee7	0.17382394
70	0xbd5f76a2	-0.054556496
71	0xbdcfbfe7	-0.10144024
72	0xbd9df2a8	-0.07712299
73	0xbe4cf9a2	-0.20017102
74	0xbe1995a4	-0.1499849
75	0x3db35bef	0.08757769
76	0x3d8cd9a6	0.06877451
77	0x3c89edfe	0.016837116
78	0xbb91813f	-0.004440456
79	0xbe127ac3	-0.14304642
80	0xbd9fd188	-0.07803637
81	0xbc067520	-0.008206636
82	0x3ce229ba	0.027607787
83	0x3e3cd77e	0.18441579
84	0x3dc12c07	0.09432226
85	0xbcd5b944	-0.026089318
86	0xbdb4600e	-0.088073835
87	0xbe11620f	-0.14197563
88	0xbe219a0c	-0.1578142
89	0x3ce0e4bb	0.027452817
90	0x3e0731a7	0.13202535
91	0xbc32f4d0	-0.010922626
92	0xbbd6ce0b	-0.006555324
93	0xbdbe2727	-0.092848115
94	0xbd702ca3	-0.05863632
95	0x3c23c2cc	0.009995174
96	0x3e2d5c59	0.16929759
97	0x3e9dc0c1	0.30811122
98	0xbdf69906	-0.12040906
99	0xbd701314	-0.058611944
100	0xbd917a73	-0.071034335
101	0xbd9edf54	-0.0775744
102	0xbddd2a80	-0.10799122
103	0xbe0d3eac	-0.13793439
104	0x3c905d2b	0.017622551
105	0xbd0432e8	-0.03227511
106	0x3d08a683	0.033361923
107	0xbd02470e	-0.031806044
108	0xbdab2e59	-0.083584495
109	0xbd388478	-0.045048207
110	0xbb7a1451	-0.0038159082
111	0xbc93518f	-0.017983226
112	0xbd8ed1c5	-0.06973604
113	0x3bf0001f	0.007324233
114	0xbdb67711	-0.08909429
115	0xbe46a2c8	-0.19398034
116	0xbcacbd81	-0.021086456
117	0x3ddd2cb3	0.10799541
118	0x3d914308	0.07092863
119	0xbd845e38	-0.06463283
120	0xbcc8ae4d	-0.024497176
121	0xbdedc6bf	-0.116101734
122	0xbe21fb79	-0.15818585
123	0xbde93d20	-0.11388612
124	0x3d07f9b4	0.03319712
125	0x3e62ae6e	0.22136852
126	0xbb83db2e	-0.004023931
127	0x3d00210c	0.031281516
128	0xbd83c717	-0.06434458
129	0xbe092649	-0.13393511
130	0xbd94a3ff	-0.07257842
131	0x3df4befb	0.11950489
132	0x3e745fab	0.2386462
133	0x3de94218	0.113895595
134	0xbd981192	-0.07425226
135	0xbe240464	-0.160173
136	0xbd909eee	-0.070615634
137	0xbe1002bf	-0.14063548
138	0x3be73493	0.007055828
139	0x3e5db576	0.21651253
140	0x3cda121d	0.026619965
141	0x3d308550	0.043095887
142	0xbd46b8fb	-0.048516255
143	0xbe2e395b	-0.17014067
144	0xbd7b7fb0	-0.06140107
145	0x3e0efcdd	0.13963647
146	0x3ea3f4e5	0.32022777
147	0x3be0d963	0.006861852
148	0x3cbadaaa	0.022809345
149	0x3cde1b76	0.027112704
150	0xbd44a555	-0.048009235
151	0xbd82cf29	-0.06387169
152	0xbdeb354f	-0.11484777
153	0xbd9de03d	-0.07708786
154	0x3d1c71fd	0.038194645
155	0x3dc7f8fc	0.09764287
156	0x3d867137	0.06564563
157	0x3d3c4a61	0.04596937
158	0x3d315d5f	0.043301936
159	0x3c9e41df	0.01931852
160	0x3b6d42d2	0.0036203158
161	0x3c10f756	0.008848032
162	0x3bbe26eb	0.005802979
163	0x3d09ca68	0.033640295
164	0x3d47e1d4	0.04879935
165	0x3da2b1dd	0.07944081
166	0x3d6645a2	0.05621875
167	0x3cd7adfa	0.026328076
168	0xbd33dd25	-0.04391207
169	0xbd6d349b	-0.057911497
170	0xbd9b07d8	-0.075698555
171	0xbdaf6979	-0.08565039
172	0xbd71fe9b	-0.0590807
173	0x3a593734	0.0008286119
174	0xbc4b1e19	-0.012397313
175	0xbdb0d94d	-0.08635197
176	0xbd1cbb35	-0.038264472
177	0xbd289e1e	-0.041166417
178	0xbd018a24	-0.03162588
179	0xbd3b9e5b	-0.045805316
180	0xbce9a181	-0.028519394
181	0xbd1c13f5	-0.03810497
182	0xbdcd977a	-0.100386575
183	0xbda0a23a	-0.07843442
184	0xbddca744	-0.10774091
185	0xbdf09058	-0.117462814
186	0xbdddf64e	-0.108379945
187	0xbdf1b51d	-0.11802123
188	0xbde80ea6	-0.11330919
189	0xbcf909e2	-0.03040022
190	0x3c345217	0.0110059
191	0x3cc94e1c	0.024573378
192	0xbd598092	-0.05310113
193	0xbd112e78	-0.035444707
194	0xbda1c559	-0.07898969
195	0x3d15efa8	0.036605507
196	0x3d031e85	0.032011528
197	0x3d9b748a	0.075905874
198	0x3d61fcb1	0.055172626
199	0xbcd7ffd3	-0.026367104
200	0xbbc05f16	-0.00587071
201	0xbd97db13	-0.07414832
202	0xbd3d1311	-0.04616076
203	0x3d8c0973	0.0683774
204	0x3e16c7d3	0.14724664
205	0x3dfa52be	0.12222813
206	0x3ddc5d42	0.10759975
207	0x3d90cca3	0.07070281
208	0x3d2ddf62	0.042449363
209	0x3c966aab	0.01836141
210	0x3c168844	0.009187762
211	0x3d9d218a	0.07672413
212	0x3d8012f0	0.06253612
213	0x3da98a59	0.08278341
214	0x3dde98dd	0.10869
215	0x3dd42cb4	0.10360089
216	0x3d005485	0.031330604
217	0xbdadcb0f	-0.08485996
218	0xbd89b199	-0.06723327
219	0xbd591688	-0.053000003
220	0x3aa1fe69	0.0012359145
221	0x3c28e8d3	0.010309416
222	0x3d6ed292	0.058306284
223	0x3cde13c3	0.027109032
224	0xbd8e1b05	-0.06938747
225	0xbccf339d	-0.025293166
226	0xbd9dd9e3	-0.07707574
227	0xbd40b883	-0.047050964
228	0xbd19958d	-0.03749614
229	0x3c976587	0.01848103
230	0x3d703d51	0.058652226
231	0xbdc826e3	-0.09773042
232	0xbcfa4f5b	-0.030555418
233	0xbc94e39f	-0.018174944
234	0xbd0dcc35	-0.034618575
235	0xbde8ef72	-0.113737956
236	0xbdcebd7d	-0.10094736
237	0xbb5b35a1	-0.0033448713
238	0x3d2c6264	0.04208602
239	0x3d084d94	0.03327711
240	0xbcf22c4d	-0.02956214
241	0xbc7d5305	-0.015461688
242	0x3d106d44	0.035260454
243	0xbb1a58ed	-0.002355154
244	0xbc16ee88	-0.009212144
245	0x3cfa0534	0.03052006
246	0x3dce6d62	0.10079457
247	0x3c93cfed	0.018043483
248	0x3d922567	0.0713604
249	0x3c8f8265	0.017518232
250	0xbd0fd12d	-0.035111595
251	0xbd90ab3b	-0.070639096
252	0x3dac2d05	0.08407024
253	0x3e2e4a7a	0.17020598
254	0x3e28d6b7	0.16488157
255	0x3e10b58d	0.14131756

onnx::Conv_81 f4 [16]
0	0x3e981e2c	0.2971052
1	0xbee99375	-0.45620313
2	0xbf684550	-0.9073076
3	0x3edfc694	0.4370619
4	0xbf8fb7bb	-1.1227945
5	0x3f97a643	1.1847614
6	0x3f13e8ee	0.577773
7	0xbf201a82	-0.6254045
8	0x3e80d041	0.25158885
9	0xbe2ab1b4	-0.16669351
10	0xbec3e942	-0.382639
11	0x3d158177	0.03650042
12	0xbed2f3db	-0.41201672
13	0x3e47efea	0.19525114
14	0xbdbe2768	-0.0928486
15	0xbf72faf7	-0.9491419

onnx::Conv_83 f4 [32, 16, 3, 3]
0	0x3d968d61	0.07351185
1	0x3ce4d37d	0.027932877
2	0xbaadfd3c	-0.0013274322
3	0x3ddb3d53	0.10705056
4	0x3d096458	0.03354296
5	0xbd58c6cd	-0.052923966
6	0x3d6cb350	0.057788193
7	0xb9849408	-0.00025287294
8	0xbd96730a	-0.07346161
9	0x3d14970a	0.036276855
10	0xbb1688a4	-0.0022969628
11	0xbcc46a6a	-0.023976523
12	0xbd45fae9	-0.04833499
13	0xbd852377	-0.06500905
14	0xbd0f54cf	-0.03499299
15	0xbd74e1d6	-0.059785686
16	0xbc1b62c1	-0.009483994
17	0xbcff282d	-0.031147087
18	0x3cad7098	0.021171853
19	0x3cb5c31b	0.02218776
20	0xbc46ea80	-0.01214087
21	0x3cb88e36	0.022528749
22	0x3d6ec845	0.05829646
23	0x3cbb2497	0.022844596
24	0x3be0dff1	0.0068626334
25	0x3dc3c75c	0.09559509
26	0x3dd27a52	0.10277237
27	0x3c241a49	0.0100160325
28	0xbcbc3f53	-0.022979414
29	0xbd61676a	-0.055030264
30	0xbcd7fab5	-0.026364664
31	0xbd5f8212	-0.054567404
32	0xb94c4209	-0.00019479556
33	0x3cd433c5	0.025903592
34	0xbbe12ea3	-0.0068720146
35	0x3d0d6f1e	0.034529798
36	0x3bfde497	0.0077481973
37	0xbccbe20d	-0.024888063
38	0xbce70d03	-0.028204447
39	0x3d331556	0.04372152
40	0x3cfd34ed	0.030909026
41	0xbd1a49c0	-0.03766799
42	0x3d9e4f9e	0.077300295
43	0x3d894436	0.06702463
44	0x3d1fac5b	0.03898273
45	0x3ccf44e4	0.025301404
46	0x3cd58558	0.02606456
47	0xbc7b6f77	-0.0153463995
48	0x3c67e6f6	0.0141541865
49	0x3a0d0b00	0.0005380362
50	0x3c9503ad	0.01819023
51	0xbd03863a	-0.03211043
52	0xbd07b3bb	-0.03313039
53	0x3d0f2fdc	0.03495775
54	0x3d2e24e6	0.042515658
55	0x3cf30cfa	0.029669274
56	0x3d3f17c7	0.046653535
57	0xbc6c8a22	-0.01443723
58	0x3d1e4d0d	0.0386477
59	0x3d94cd68	0.07265741
60	0xbcf6bac6	-0.030118357
61	0x3ce2abf1	0.027669879
62	0x3d925022	0.0714419
63	0xbc13b015	-0.009014149
64	0x3bfab406	0.007650855
65	0xbd4995dc	-0.049215183
66	0xbc8c79bb	-0.01714789
67	0x3c8c5173	0.017128682
68	0xbc968b4d	-0.01837697
69	0x3d0116f0	0.031516016
70	0x3da7ab35	0.08186952
71	0x3d0cd2fb	0.034380894
72	0x3d828f04	0.06374934
73	0x3d8aad81	0.067713745
74	0x3d1b2e11	0.03788573
75	0x3be6bfed	0.0070419223
76	0xbc8cb716	-0.017177146
77	0x3cb6b9e4	0.022305436
78	0xbcdd35e9	-0.027003245
79	0xbc7f8fb5	-0.015598227
80	0x3d46a485	0.04849674
81	0x3d453656	0.048147522
82	0xbd6e29f8	-0.058145493
83	0xbc7f2978	-0.015573852
84	0xbc8fd4d4	-0.017557539
85	0xbd291e9b	-0.041288953
86	0x3d1dfb8c	0.038569972
87	0x3c66ae6d	0.014079672
88	0x3cfac2a0	0.030610383
89	0x3d829ad7	0.063771896
90	0x3cbdb338	0.023156747
91	0x3cb554d0	0.022135168
92	0xbbd784b0	-0.006577097
93	0x3cb9b805	0.022670755
94	0x3c129b2f	0.008948131
95	0xbcd60c0d	-0.026128793
96	0x3c503377	0.012707583
97	0xbc5bb8bc	-0.013410743
98	0xbd0f34ea	-0.034962572
99	0x3d005029	0.031326447
100	0xbcbc5f09	-0.022994535
101	0x3c9279cd	0.017880345
102	0xbd403ee6	-0.046934985
103	0xbd938ae4	-0.07204226
104	0x3ad0cfaf	0.0015931035
105	0xbd7fd83f	-0.062462088
106	0xbd8e6262	-0.06952359
107	0xbcb5d30b	-0.02219536
108	0x3d854626	0.065075204
109	0x3db15b9c	0.08660051
110	0x3dea45bc	0.11439082
111	0xbde8591d	-0.11345122
112	0xbc800e65	-0.015631864
113	0xbcdb2ee7	-0.026755763
114	0xbd8e04bc	-0.06934497
115	0x3c6a211e	0.014290122
116	0xbd255873	-0.040367555
117	0x3c547972	0.012968408
118	0xbc947e13	-0.018126523
119	0xbd0af69f	-0.033926602
120	0x3b90ae93	0.004415342
121	0xbca8baa5	-0.020596812
122	0xbcc54a5c	-0.024083309
123	0xbc42574d	-0.011861634
124	0x3c3f2aa0	0.011667877
125	0x3ca0047a	0.019533385
126	0xbd6e92b3	-0.058245372
127	0xbd970744	-0.07374433
128	0xbdb8a822	-0.09016444
129	0x3b02ee08	0.0019978303
130	0xbd068fbb	-0.032851916
131	0xbb88c4dd	-0.0041738586
132	0x3d1a2fc8	0.037643224
133	0xbda85abe	-0.08220433
134	0xbd6c9fcd	-0.057769585
135	0x3ba7944e	0.005114115
136	0x3c3c73da	0.011502231
137	0x3a6b0027	0.0008964561
138	0x3afea49b	0.0019427718
139	0xbc8026cf	-0.015643505
140	0xbcb3cd07	-0.02194835
141	0x3d32f544	0.043690935
142	0x3cc9d3cd	0.024637127
143	0x3c40287f	0.011728405
144	0x3a7f9d1a	0.0009750888
145	0xbb411e03	-0.0029467351
146	0x3bdb2226	0.0066874204
147	0xbadc4d7a	-0.0016807758
148	0xbd3b7d80	-0.045773983
149	0xbbf931a5	-0.007604795
150	0xbcd41e1f	-0.02589327
151	0xbd68f598	-0.05687484
152	0x3bb262f5	0.0054439255
153	0xbbc165fb	-0.0059020496
154	0x3c30c740	0.010789692
155	0x3bc23360	0.0059265345
156	0xbc2e27bd	-0.0106295915
157	0x3c61eafa	0.013788933
158	0x3cac3bd0	0.021024615
159	0xbc98e2a1	-0.018662753
160	0xbc61e014	-0.013786335
161	0xbc033d28	-0.008010186
162	0x3c828931	0.015934559
163	0x3c529694	0.012853283
164	0x3b1446c4	0.0022625187
165	0xbc93d3fa	-0.018045414
166	0x3c2d344a	0.010571549
167	0x3c47f99d	0.012205509
168	0xbd0028de	-0.031288974
169	0xbcbb1a67	-0.022839738
170	0xbbc00914	-0.005860457
171	0xbd32874f	-0.04358607
172	0x3d0d1479	0.034443352
173	0x3d26058d	0.040532637
174	0xbd1e4e52	-0.03864891
175	0xbabf63c7	-0.001460188
176	0x3d304be8	0.04304114
177	0xbcbc45f0	-0.022982568
178	0xbccf4da3	-0.025305575
179	0xbbac0c3f	-0.0052504833
180	0x3c0f9f3d	0.008765993
181	0xbb8cc0dd	-0.004295452
182	0x3b7d74c0	0.0038674325
183	0x37aba256	2.0460382e-05
184	0x3c0cf280	0.008602738
185	0x3b553119	0.0032530485
186	0xbbd36a5c	-0.006451888
187	0xbb863660	-0.0040958375
188	0xbbc0c54e	-0.0058828956
189	0xbc3bb7c6	-0.011457389
190	0x3bd2ccce	0.006433106
191	0x3ce99382	0.02851272
192	0xbd173ba7	-0.036922123
193	0xbd42170a	-0.047385253
194	0xbbdb4162	-0.006691144
195	0xbd1f83e6	-0.038944148
196	0xbcd0c2a3	-0.025483435
197	0xbc3ba392	-0.011452572
198	0xbc80009e	-0.015625294
199	0x3afc9cd7	0.0019272816
200	0x3c4c2ac9	0.012461373
201	0xbc86e1ce	-0.016465094
202	0xbb032e2c	-0.0020016534
203	0x3ca2a11e	0.019852217
204	0xbc25a149	-0.010109254
205	0xbc84d5f7	-0.016215308
206	0x3ad7c64f	0.0016462299
207	0x3b08e375	0.0020887528
208	0xbb01c935	-0.0019803767
209	0xbc65a3e8	-0.014016129
210	0xbc62fbef	-0.013854011
211	0x3b946242	0.004528315
212	0xbc0a59e7	-0.008444286
213	0x3a1aa50a	0.00058992265
214	0xbc23eb6d	-0.01000486
215	0xbaefc429	-0.0018292713
216	0xbc0470a1	-0.008083493
217	0xbab4ab9a	-0.0013784051
218	0x3d23afe6	0.03996267
219	0xbcf984ce	-0.030458834
220	0xbc4d9737	-0.012548259
221	0x3d09f5d3	0.033681702
222	0xbcd70413	-0.02624706
223	0xbcc31570	-0.023813933
224	0x3c5950fe	0.013263939
225	0xbc456746	-0.012048548
226	0xbb088aa0	-0.002083458
227	0x3b219c2c	0.0024659736
228	0xbd2550ba	-0.04036019
229	0xbbd47dce	-0.0064847236
230	0xbc5faeb3	-0.013652491
231	0xbd7063ee	-0.05868905
232	0xbd0ac57c	-0.033879742
233	0x3c2d3dd6	0.010573825
234	0xbabfc5ad	-0.0014631056
235	0xbb36e7be	-0.0027909125
236	0x3bdecba5	0.0067991787
237	0x3bc876ca	0.0061176764
238	0xbc831fb2	-0.016006324
239	0xbb6b5b6a	-0.0035912641
240	0xbbf9cafb	-0.007623074
241	0xbcc30fd5	-0.02381126
242	0xbbeda86a	-0.0072527425
243	0xbc12a27f	-0.008949875
244	0xbcb10160	-0.021607101
245	0xbba8a85a	-0.005147022
246	0xbaa224af	-0.0012370552
247	0x3cad2626	0.021136355
248	0x3c9df5d0	0.019282252
249	0xbabdffde	-0.001449581
250	0x3ae4c0e2	0.0017452503
251	0xbc87b71a	-0.016566802
252	0x3c1c73f7	0.009549133
253	0x3b316230	0.002706658
254	0xbc54db6e	-0.012991769
255	0xbc60023d	-0.013672409

onnx::Conv_84 f4 [32]
0	0xbe0e7609	-0.13912214
1	0x3e32b3e4	0.17451435
2	0xbdc4d732	-0.09611358
3	0x3e4927bc	0.19644064
4	0xbebab95e	-0.3646955
5	0x3ee6f66b	0.45109877
6	0x3e09cd6c	0.13457268
7	0x3e7cdabc	0.24692816
8	0x3e81d76a	0.2535966
9	0x3e452912	0.19253948
10	0xa8dae381	-2.4301526e-14
11	0x3ba8ef90	0.005155511
12	0xbe0c9be0	-0.13731337
13	0x3e1452a6	0.14484653
14	0xbc36ae44	-0.011149947
15	0x3c3e34da	0.0116092805
16	0x3cf3c34c	0.02975621
17	0xbe1750ea	-0.1477696
18	0x3ed121f6	0.40846223
19	0x3b30e740	0.0026993304
20	0x3e85f420	0.26162815
21	0xbc69afac	-0.014263075
22	0x3deba514	0.115060955
23	0x3e72f3c6	0.23725805
24	0xbe9423dc	-0.2893361
25	0x3e37fb75	0.17967017
26	0x3e012614	0.12612182
27	0xbd8ab03e	-0.06771897
28	0x3e1b0f09	0.15142454
29	0x3e719453	0.23591737
30	0x3d9f297e	0.07771586
31	0x3d99e2fe	0.075139984

onnx::Conv_86 f4 [32, 32, 3, 3]
0	0xb9a30818	-0.00031095813
1	0xbd86466b	-0.065564
2	0xbd435af6	-0.04769417
3	0x3d1f4771	0.03888649
4	0x3cd5ae8c	0.026084207
5	0x3d458fb7	0.04823276
6	0xbc238fa2	-0.009982975
7	0xbd3bc4e3	-0.045842063
8	0xbe1175c3	-0.14205079
9	0x3c6a23d3	0.014290768
10	0x3c88f783	0.016719585
11	0x3c686b27	0.014185703
12	0x3d956b88	0.072959006
13	0x3c29ccef	0.010363801
14	0xbc30a5d6	-0.010781726
15	0x3e088bde	0.13334605
16	0x3e02ccb7	0.12773405
17	0x3dd5b11a	0.1043417
18	0xbc35d582	-0.0110982675
19	0xbb347567	-0.0027535798
20	0xbd057591	-0.032582823
21	0x3c7e9277	0.01553785
22	0x3d2e9ac1	0.042628054
23	0x3d8b6df4	0.06808081
24	0xbcd48409	-0.025941866
25	0x3b89d47e	0.0042062392
26	0x3bf5f803	0.007506372
27	0x3df4bcae	0.1195005
28	0x3d8cef02	0.068815246
29	0x3d6f74da	0.058461048
30	0x3e060094	0.13086158
31	0x3e0b9211	0.13629939
32	0x3e032649	0.12807573
33	0x3c1b9e57	0.0094982
34	0x3c507145	0.012722318
35	0x3c5eb668	0.013593294
36	0x3c830c91	0.015997203
37	0x3d558bd5	0.052135307
38	0x3d436aaf	0.047709163
39	0x3ce63842	0.028102998
40	0x3cf6dd7c	0.030134909
41	0xbcb17590	-0.021662503
42	0xbd200460	-0.039066672
43	0xbd37d733	-0.044882964
44	0xbd8247d1	-0.06361354
45	0x3da03ca8	0.07824069
46	0x3de072c4	0.1095939
47	0x3e0b6181	0.13611414
48	0x3a8d738c	0.0010791882
49	0xbb8c8988	-0.004288856
50	0x3d319627	0.043356087
51	0x3d4cc838	0.04999563
52	0x3cee60ca	0.029098887
53	0x3e04dc4b	0.1297466
54	0xbbec5f17	-0.007213484
55	0x3d31c4cf	0.043400582
56	0xbd48b2d5	-0.048998673
57	0x3d332f5b	0.043746334
58	0x3d3a24e7	0.04544535
59	0xbca462db	-0.02006667
60	0xbd95de1a	-0.07317753
61	0xbd7de152	-0.06198246
62	0xbdc3d1e6	-0.09561519
63	0x3d559d8d	0.052152205
64	0xbcb85dce	-0.022505667
65	0xbd891824	-0.066940576
66	0x3db3d0f4	0.08780089
67	0x3aab553b	0.0013071665
68	0xbd626633	-0.055273246
69	0x3da696f1	0.081342585
70	0x3cd40b36	0.025884252
71	0xbd5260cf	-0.051361855
72	0x3e2756ab	0.16341655
73	0x3ded09a4	0.115741044
74	0x3c9e7f2c	0.01934775
75	0x3e74bedd	0.23900934
76	0x3e5dbd68	0.21654284
77	0x3e1e5614	0.15462524
78	0xbba622ee	-0.005070082
79	0x3d88fab6	0.06688444
80	0x3d145ba9	0.036220226
81	0x3d4265eb	0.047460478
82	0x3c38ec80	0.011286855
83	0x3c0ca957	0.008585296
84	0xbc4fb8ce	-0.012678338
85	0x3d2fbdfc	0.042905793
86	0x3d03527e	0.032061093
87	0xbd6607d2	-0.0561598
88	0x3da31cbd	0.07964466
89	0x3cdc4410	0.026887923
90	0x00001d9c	1.0622e-41
91	0x0000170f	8.272e-42
92	0x80005c49	-3.3106e-41
93	0x80005726	-3.1263e-41
94	0x00006a05	3.8033e-41
95	0x8000486a	-2.5977e-41
96	0x800047b1	-2.5718e-41
97	0x00001fa6	1.1353e-41
98	0x0000726b	4.1045e-41
99	0xbc9b683e	-0.018970605
100	0xbd5619fd	-0.052270878
101	0xbdc1ea8e	-0.09468566
102	0x3dcc1f88	0.099669516
103	0xbb851223	-0.004061
104	0xbd6d8122	-0.05798448
105	0x3d3a3f2c	0.0454704
106	0xbb3871a5	-0.002814391
107	0xbdb345cd	-0.08753548
108	0x3b2bb00c	0.0026197461
109	0x3d177ad4	0.036982372
110	0x3c98b846	0.018642556
111	0xbcd9a1d1	-0.026566418
112	0x3c9bd824	0.019023962
113	0x3aa9ea8a	0.0012963575
114	0xbd0494e6	-0.032368563
115	0xbc1a8e5c	-0.009433355
116	0xbc8ecbbf	-0.017431138
117	0x3c8b5d31	0.01701221
118	0x3d19870a	0.0374823
119	0xbaf2c974	-0.0018523172
120	0x3ceff581	0.02929187
121	0x3d5c8d2c	0.05384557
122	0x3d195490	0.03743416
123	0x3dcb5f72	0.09930314
124	0x3dc7e77e	0.097609505
125	0x3dacfe12	0.084468976
126	0x3d67c83d	0.056587446
127	0x3d2ac487	0.04169133
128	0x3c218910	0.009859338
129	0xbc3c2f48	-0.011485882
130	0x3bae99ba	0.005328384
131	0x3d315562	0.043294318
132	0xbb43ed5d	-0.0029896118
133	0x3c5c3233	0.013439703
134	0x3db40547	0.08790069
135	0xba7843b5	-0.00094705384
136	0xbcc4f227	-0.024041248
137	0xbd073831	-0.033012573
138	0x3d28b953	0.041192364
139	0x3d218c52	0.03944046
140	0x3c8b73dd	0.017023021
141	0x3e06e7ac	0.13174313
142	0x3dcc7795	0.09983746
143	0x3d94a7e3	0.07258584
144	0xbd8250ba	-0.063630536
145	0xbdc854e6	-0.09781818
146	0xbe174e19	-0.14775886
147	0xbd9b947d	-0.07596681
148	0xbdfdf790	-0.124007344
149	0xbe0c4865	-0.13699491
150	0xbd190fee	-0.037368707
151	0xbd66dead	-0.056364704
152	0xbd2ca7c0	-0.042152166
153	0x3c98ad77	0.018637402
154	0x3cc66f69	0.024223046
155	0x3c7cda99	0.015432977
156	0x3c8edb4e	0.017438557
157	0x3af8d9af	0.0018985773
158	0x3ae90a37	0.0017779534
159	0x3c564d24	0.013079915
160	0xbbbf4a48	-0.0058377124
161	0x3995be57	0.0002856131
162	0x3dbb81b6	0.091556
163	0x3df57c86	0.119866416
164	0x3db360f3	0.08758726
165	0x3d41a299	0.047274206
166	0x3d329136	0.043595515
167	0x3d3dff0e	0.046385817
168	0xbe02c4f0	-0.12770438
169	0xbd9aebb9	-0.07564492
170	0xbd9e0951	-0.07716621
171	0x3bdeed20	0.00680317
172	0x3c1722ad	0.009224576
173	0x3b897c3d	0.0041957186
174	0x3b97a4e0	0.004627809
175	0x3c17e0d6	0.009269914
176	0xb82c30c6	-4.105342e-05
177	0x3b41dd24	0.0029581273
178	0x3b9cee86	0.0047891764
179	0xb7cdd6df	-2.4537962e-05
180	0xbd5ff670	-0.05467838
181	0xbd36deed	-0.044646192
182	0xbd060043	-0.032715093
183	0x3b845e05	0.0040395283
184	0xbcc5cd8b	-0.024145862
185	0x3d16157a	0.036641575
186	0x3cd0674b	0.025439879
187	0x3c6ccca7	0.01445309
188	0x3d818aad	0.063252784
189	0x3c0a8cc7	0.0084564155
190	0x3c1d977f	0.009618639
191	0x3c16f78c	0.009214293
192	0xbb910b89	-0.004426424
193	0x3a44a2a4	0.0007501042
194	0x3be72a34	0.0070545916
195	0xbb1798cf	-0.0023131853
196	0x3a474e4d	0.0007602915
197	0x3bd86642	0.006603987
198	0xbdbb17fd	-0.09135435
199	0xbd5808ff	-0.052742954
200	0xbd80ff3d	-0.06298683
201	0xbdb449ae	-0.08803116
202	0xbe0dafb8	-0.13836563
203	0xbdc422a1	-0.095769174
204	0xbdd024e9	-0.1016329
205	0xbe0cf38a	-0.13764778
206	0xbe0a8756	-0.13528189
207	0xbd164e6e	-0.03669589
208	0xbcb8438c	-0.022493146
209	0xbe3f66c8	-0.18691552
210	0x3bdcf420	0.006742969
211	0x3e0aacc5	0.13542469
212	0x3cfa06ea	0.030520875
213	0x3c859fd2	0.01631156
214	0x3cd34357	0.025788946
215	0x3c5f73f3	0.013638484
216	0x3ac495a7	0.0014998213
217	0xbcad0c60	-0.021124065
218	0xbce31692	-0.027720723
219	0x3d9ce649	0.07661111
220	0x3d0eb72a	0.034842648
221	0xbd1be6b1	-0.0380618
222	0xbc7fe927	-0.015619553
223	0xbcc0c56d	-0.02353164
224	0xbd749154	-0.05970891
225	0x3e1e5491	0.15461947
226	0x3d8bd80d	0.06828318
227	0x3cd0fe24	0.025511809
228	0x3c9f85d6	0.019472998
229	0xbd79942c	-0.060932323
230	0xbdf67ceb	-0.12035545
231	0x3db154f8	0.08658785
232	0x3d5fd75f	0.054648753
233	0x3c5182c6	0.0127875265
234	0xbc000aa8	-0.007815041
235	0xbcf447f4	-0.029819466
236	0xbd664560	-0.056218505
237	0xbbe35ddb	-0.0069386787
238	0x3c54a6aa	0.012979189
239	0x3ba277e1	0.0049581383
240	0x3c03c8d1	0.008043484
241	0x3cf3f169	0.0297782
242	0x3c595518	0.013264917
243	0xbc48252a	-0.012215892
244	0xbc81429c	-0.015778832
245	0xbc06a3e9	-0.00821779
246	0x3b990e68	0.004670907
247	0xbad6c464	-0.0016385433
248	0x3c1b50e3	0.009479734
249	0x3c85a098	0.016311929
250	0x3aed93f7	0.0018125762
251	0x3c724285	0.014786367
252	0x3c98315b	0.018578222
253	0xbc99deac	-0.018782936
254	0xbb663242	-0.003512517
255	0x3d8f03a6	0.06983118

onnx::Conv_87 f4 [32]
0	0xbe96b99e	-0.2943849
1	0xb06ccdaf	-8.6148594e-10
2	0x3e3333c2	0.17500213
3	0xbac11bc0	-0.0014733002
4	0x3cf397b8	0.029735431
5	0x3e1273b2	0.14301947
6	0x3e52ec0a	0.20597854
7	0x3e75829b	0.23975603
8	0xbcba4a08	-0.022740379
9	0xbd8b7016	-0.06808488
10	0xbda34638	-0.079723775
11	0xbd9e2d31	-0.07723463
12	0xbb86a2fb	-0.0041087843
13	0xbe0bb3b3	-0.13642769
14	0xbe9e23ab	-0.30886588
15	0xbe15abf8	-0.14616382
16	0x3e8dae30	0.27671957
17	0xbd36ad22	-0.044598706
18	0x3e8e6c08	0.27816796
19	0xbd015984	-0.03157951
20	0xbd931397	-0.07181471
21	0xbd084c09	-0.033275638
22	0x3e1e62bc	0.15467352
23	0x3d590b58	0.052989334
24	0xbd05b4ba	-0.032643057
25	0x3d8df933	0.069322966
26	0x3e916200	0.2839508
27	0x3e5dade2	0.21648362
28	0x3e474c34	0.19462663
29	0xbc73bcd4	-0.014876563
30	0x3e6ea86e	0.23306438
31	0xbef3a5fa	-0.47587568

onnx::Conv_89 f4 [32, 16, 1, 1]
0	0x3e301016	0.17193636
1	0x3e97626d	0.2956728
2	0xbe9d2214	-0.30690062
3	0x3d5e3866	0.054253004
4	0xbd60efe8	-0.054916292
5	0xbd19fd4a	-0.03759507
6	0x3e8f4d4d	0.27988663
7	0x3eae6208	0.34059167
8	0x3d5bc8af	0.053658184
9	0xbde89bd1	-0.113578446
10	0x3d1945ce	0.037420087
11	0xbe1e7b6f	-0.15476774
12	0xbe959c8b	-0.29220995
13	0xbd74e43a	-0.059787966
14	0xbefbb6a7	-0.4916279
15	0x3ebe6da5	0.37193027
16	0x815cf79f	-4.0585278e-38
17	0x070c02c4	1.0533242e-34
18	0x0bbae46a	7.1988273e-32
19	0x1b34debf	1.4961224e-22
20	0x01b9c557	6.8241436e-38
21	0x91951bb9	-2.352514e-28
22	0x04daa34e	5.1401525e-36
23	0x16012b0e	1.0434123e-25
24	0x835cf079	-6.492824e-37
25	0x134f37b0	2.615453e-27
26	0x00000000	0.0
27	0x8b6beaa0	-4.5435866e-32
28	0x8ca43f6f	-2.5306379e-31
29	0x80000000	-0.0
30	0x98d90266	-5.6095607e-24
31	0x9164b58b	-1.8041971e-28
32	0xbea88e08	-0.3292086
33	0x3da9e797	0.082961254
34	0xbdeeabfa	-0.11653896
35	0x3e1f90f6	0.15582642
36	0xbea84327	-0.32863733
37	0x3cceef48	0.025260583
38	0x3e71801b	0.23584025
39	0xbe840d48	-0.25791383
40	0xbe77fc9a	-0.24217454
41	0xbdf29d05	-0.11846355
42	0xbe6133bf	-0.21992396
43	0xbe239e11	-0.15978266
44	0xbe6cf8fe	-0.23141858
45	0xbbe4e242	-0.00698498
46	0x3d4b0f60	0.04957521
47	0xbe5c9880	-0.21542549
48	0x3b79987c	0.0038085273
49	0x3d37bc53	0.044857334
50	0xbd57c89f	-0.05268156
51	0x3d9629bc	0.07332179
52	0x3c75d3aa	0.015004078
53	0xbe154e6e	-0.145807
54	0xbdf9188b	-0.12162884
55	0x3cccbedf	0.024993358
56	0xbdd4bd7c	-0.10387704
57	0xbdb2d3ce	-0.08731805
58	0x3dac1332	0.08402099
59	0x3ceeb199	0.02913742
60	0x3d10c28a	0.035341777
61	0xbd1e9657	-0.038717594
62	0x3cdecb2a	0.027196486
63	0x3dba306b	0.09091266
64	0xbd5b23e3	-0.05350102
65	0x3e18494f	0.14871715
66	0xbc27ae1e	-0.010234384
67	0x3d4cb92c	0.04998128
68	0x3dfda5f1	0.123851664
69	0xbedfabd7	-0.4368579
70	0xbe40060b	-0.18752305
71	0x3e5343ef	0.20631383
72	0xbdaf7c3d	-0.085686184
73	0xbe9b28d0	-0.30304575
74	0xbe46ae6e	-0.19402477
75	0x3dcb92c2	0.09940101
76	0xbdd43634	-0.10361901
77	0xbe1b7814	-0.15182525
78	0xbcc37145	-0.023857722
79	0x3eb5832a	0.35451633
80	0x3e92deb4	0.28685534
81	0xbe4ce2b4	-0.20008355
82	0xbe28f4cf	-0.16499637
83	0x3e4f108d	0.20221157
84	0xbd7264fe	-0.059178345
85	0x3c4d530c	0.012532007
86	0x3d37ff64	0.044921294
87	0xbe704475	-0.23463614
88	0x3becebb7	0.007230248
89	0x3dab7fc7	0.08373981
90	0x3d315396	0.043292604
91	0x3e975726	0.29558676
92	0x3de1a8a0	0.11018491
93	0x3df1161b	0.117717944
94	0x3dc6f807	0.09715276
95	0x3c8353c3	0.016031152
96	0x3d6e9910	0.05825144
97	0x3bad977d	0.0052976
98	0xbd023434	-0.031788066
99	0x3e1892b6	0.14899716
100	0xbd8ceb21	-0.06880785
101	0x3c876ba6	0.016530823
102	0x3d269837	0.040672507
103	0xbddf9749	-0.10917527
104	0x3dfcbd2e	0.12340771
105	0x3dfa50f4	0.12222472
106	0xbd3b0b46	-0.045665048
107	0x3d317c97	0.04333171
108	0x3d524634	0.051336482
109	0x3b12a6db	0.0022377286
110	0x3c5f4ed0	0.01362963
111	0xbe05c399	-0.13062896
112	0x3db5d483	0.08878424
113	0xbd3742e8	-0.04474154
114	0xbda88b31	-0.08229674
115	0xbceb285a	-0.028705765
116	0xbd5e05e5	-0.05420484
117	0x3e20ed6d	0.15715571
118	0xbde0dcd7	-0.10979622
119	0xbe115e05	-0.14196022
120	0xbd9112e4	-0.07083681
121	0xbe20c73c	-0.15701002
122	0xbd9ef3d3	-0.077613495
123	0x3d9555f1	0.07291783
124	0xbd98bc99	-0.07457847
125	0xbd22aca7	-0.039715435
126	0x3df39e8a	0.11895473
127	0x3bda39df	0.006659731
128	0xb7846639	-1.5783227e-05
129	0x38f4e447	0.000116773466
130	0x36ad821d	5.170949e-06
131	0x37fd0c75	3.0165751e-05
132	0xb6f8c41b	-7.4138056e-06
133	0xb7376765	-1.0931723e-05
134	0x37389811	1.100266e-05
135	0x38071fec	3.2216238e-05
136	0x37a18b3a	1.9257528e-05
137	0x34ccfc6a	3.8181616e-07
138	0x38471a23	4.746964e-05
139	0x38f30efe	0.000115899355
140	0x385b27de	5.2250798e-05
141	0xb7f1b920	-2.8815644e-05
142	0x371e7d76	9.446745e-06
143	0x3828459d	4.0119154e-05
144	0x3d86271a	0.06550427
145	0x3cf947a1	0.030429663
146	0x3d31a12e	0.043366604
147	0x3dae613f	0.08514642
148	0xbb4e781d	-0.0031504699
149	0xbcbe8720	-0.023257792
150	0xba5aa379	-0.00083403994
151	0xbac7a97b	-0.0015233004
152	0xbd524c34	-0.051342204
153	0x3e1166a7	0.14199315
154	0x3c12cf93	0.008960622
155	0x3d226039	0.039642546
156	0xbcb0cfdb	-0.021583488
157	0xbc5e63e3	-0.01357362
158	0xbd4f9563	-0.050679576
159	0xbd67208b	-0.05642752
160	0xbe25174c	-0.16122168
161	0x3bd04c7a	0.006356773
162	0x3ece22ad	0.4026083
163	0xbe8a932c	-0.27065408
164	0xbdc47b19	-0.095937915
165	0xbd62e77f	-0.055396553
166	0xbda8b74a	-0.082380846
167	0x3e8f6cd2	0.2801271
168	0xbbc5f040	-0.006040603
169	0x3e12182c	0.14267033
170	0xbe05a653	-0.13051729
171	0xbdba6406	-0.09101109
172	0x3de611ba	0.1123385
173	0x3dc18bf1	0.0945052
174	0xbe96332d	-0.2933592
175	0xbd953d80	-0.07287121
176	0xbdd29bd5	-0.10283629
177	0xbc5997ad	-0.013280791
178	0xbd892738	-0.066969335
179	0x3c4e6b0f	0.012598767
180	0xbc854dda	-0.016272474
181	0xbd235907	-0.039879825
182	0xbd477d7a	-0.04870365
183	0xbb90da46	-0.0044205515
184	0xbbb4ce89	-0.005517785
185	0xbce95ded	-0.02848717
186	0x3b859ed6	0.0040777726
187	0xbce26804	-0.02763749
188	0x3aeb89a1	0.0017970094
189	0xbd2cb43c	-0.042164072
190	0xbc81a98b	-0.015827915
191	0x3c52424e	0.012833191
192	0x3abfb6cc	0.0014626621
193	0xb9f07139	-0.00045860725
194	0xbaa3855f	-0.0012475661
195	0x398a348c	0.00026360562
196	0xb8e8c6a3	-0.00011099621
197	0x3aa3f722	0.0012509564
198	0xb9715669	-0.00023015741
199	0xbb3d157c	-0.0028851917
200	0xba7c3e9c	-0.00096223666
201	0x3af5c860	0.0018751733
202	0xb9120b42	-0.00013927839
203	0x39fe7180	0.0004853122
204	0xba26f037	-0.0006368192
205	0xb84bef9c	-4.8622125e-05
206	0x3a48d5f7	0.0007661278
207	0xba836fea	-0.001002786
208	0x3d8fc79d	0.07020495
209	0x3d28cd23	0.04121126
210	0xbddd8a81	-0.10817433
211	0x3ea42a38	0.3206346
212	0xbe4523aa	-0.19251886
213	0xbe177189	-0.14789404
214	0xbd1d2209	-0.038362537
215	0xbd29aac1	-0.04142261
216	0xbcd27721	-0.02569157
217	0x3d07d03c	0.033157572
218	0xbdd688fe	-0.10475348
219	0x3e2cfcde	0.16893336
220	0x3e9fb231	0.31190637
221	0xbd507613	-0.050893854
222	0x3e5556de	0.20833918
223	0xbe856114	-0.26050627
224	0x3e5d8a97	0.21634899
225	0x3db09cb5	0.086236395
226	0xbde88df7	-0.11355203
227	0x3dc6c011	0.097046025
228	0xbdafadd3	-0.08578076
229	0xbdbfd76f	-0.093672626
230	0x3e5d408f	0.21606658
231	0x3e20c4ba	0.15700045
232	0x3bf832f3	0.007574433
233	0xbd9f5f00	-0.07781792
234	0x3de76e9f	0.11300396
235	0x3ebe83d2	0.37209946
236	0xbcdce81c	-0.026966147
237	0xbd682bcb	-0.05668239
238	0x3e8dec9b	0.27719578
239	0x3e0f9f03	0.14025502
240	0x3e09a357	0.13441215
241	0xbc459b61	-0.012060971
242	0x3dcd1f34	0.10015717
243	0x3dab3838	0.08360332
244	0xbd910219	-0.07080478
245	0xbd4ff09d	-0.050766576
246	0x3e1df1da	0.1542429
247	0x3e1b2fc9	0.15154947
248	0xbe25c09e	-0.16186759
249	0x3e4d1cc1	0.200305
250	0x3ca2fa6e	0.019894805
251	0xbe885c66	-0.26632994
252	0x3ca08e59	0.019599127
253	0xbcf3ce98	-0.029761598
254	0x3d2498f6	0.040184937
255	0x3cd90d8a	0.026495714

onnx::Conv_90 f4 [32]
0	0x3cfe47c0	0.031040072
1	0xb06ccdaf	-8.6148594e-10
2	0x3f03b20a	0.5144354
3	0xbc446a48	-0.01198823
4	0x3e1d0bef	0.15336584
5	0xbf089687	-0.53354686
6	0xbe9d926e	-0.3077578
7	0x3d389210	0.04506117
8	0xbc8d6da7	-0.0172642
9	0xbe165e3e	-0.14684388
10	0x3e0bad6c	0.13640374
11	0x3db8fdd4	0.09032789
12	0xbb90bf2a	-0.00441732
13	0xbeed3562	-0.4632979
14	0xbf363346	-0.7117199
15	0xbe537df6	-0.20653519
16	0x3f021f70	0.5082922
17	0xbe891f46	-0.26781672
18	0x3e19dcd6	0.15025648
19	0xbe8bf117	-0.27332374
20	0x3e2847fa	0.16433707
21	0xbe91fc0a	-0.28512603
22	0x3cc9b1a5	0.02462084
23	0xbed7cf0f	-0.4215016
24	0x3c6d7128	0.014492311
25	0x3de10f07	0.10989194
26	0xbcda6e75	-0.026663998
27	0x3e81ed90	0.25376558
28	0x3e1bde02	0.15221408
29	0x3d07cabe	0.033152334
30	0x3e8a2534	0.2698151
31	0x3e7773eb	0.24165313

onnx::Conv_92 f4 [64, 32, 3, 3]
0	0x3dd248a9	0.10267765
1	0x3cc2f8d7	0.023800297
2	0xbce4a640	-0.027911305
3	0x3db0e7b4	0.08637944
4	0xbb573250	-0.0032836385
5	0xbd72e9aa	-0.05930487
6	0x3d425e18	0.047453016
7	0x3d7ed3de	0.06221377
8	0xbd04d19c	-0.03242646
9	0x0000470f	2.5491e-41
10	0x000045df	2.5065e-41
11	0x80001aca	-9.61e-42
12	0x00001527	7.588e-42
13	0x800045f4	-2.5094e-41
14	0x80002541	-1.3364e-41
15	0x000005ed	2.126e-42
16	0x000012f1	6.795e-42
17	0x8000477e	-2.5647e-41
18	0xbd81aa91	-0.06331361
19	0xbd92fd1a	-0.071771815
20	0xbda805fd	-0.08204267
21	0xbc84ea09	-0.016224878
22	0x3d074dbd	0.03303312
23	0x3c9caa4c	0.019124173
24	0x3d514b10	0.051096976
25	0x3e0a1d54	0.1348775
26	0x3d6fb4a8	0.058521897
27	0x3cb05f4a	0.021529812
28	0x3c2cf02b	0.010555307
29	0x3c7245a8	0.014787115
30	0x3d052673	0.03250737
31	0x3d371395	0.04469641
32	0xbb2c8cef	-0.002632912
33	0x3da5d1da	0.08096667
34	0x3d4d5096	0.05012568
35	0x3c851b93	0.0162485
36	0xbddf3fc3	-0.109008335
37	0xbdc1dffc	-0.0946655
38	0xbdb33712	-0.08750738
39	0xbdaafacb	-0.08348616
40	0xbd9baebc	-0.07601687
41	0xbd105464	-0.03523673
42	0xbd61065f	-0.054937717
43	0xbd3875c7	-0.045034196
44	0x3ba64b42	0.0050748894
45	0xbdadf1ea	-0.08493407
46	0xbe2e80df	-0.17041348
47	0xbdeedf5e	-0.11663698
48	0x3c535377	0.012898318
49	0xbbf48c52	-0.0074630165
50	0x3d111b6b	0.03542654
51	0x3d132571	0.03592438
52	0xbc0ef5ba	-0.008725578
53	0x3d495176	0.049149953
54	0xbd124c45	-0.035717268
55	0xbd3e1768	-0.04640904
56	0x3ce38408	0.027772918
57	0x3c7929fb	0.015207763
58	0x3c0df07e	0.008663295
59	0x3d9fe110	0.07806599
60	0x3c51c395	0.012802978
61	0x3ce3a005	0.027786264
62	0x3d8c95f5	0.068645395
63	0xbd9671f7	-0.07345956
64	0x3da5c4db	0.08094188
65	0x3d22af42	0.03971792
66	0xbd443aa9	-0.047907505
67	0x3dc35c36	0.09539072
68	0x3d575910	0.05257517
69	0xbd8434bd	-0.064553715
70	0x3d31dcff	0.04342365
71	0xbc9ee410	-0.019395858
72	0xbb995eae	-0.004680476
73	0x3a0f901b	0.00054764905
74	0x3ab4d0f2	0.0013795181
75	0xbb001b3f	-0.001954749
76	0xbb13f87e	-0.0022578533
77	0xba9fe0b7	-0.0012197708
78	0xbb6f4b08	-0.0036513228
79	0xbaf8e186	-0.001898811
80	0xba98406f	-0.0011615882
81	0xbd3ea9f1	-0.046548788
82	0xbd86b6e0	-0.065778494
83	0xbc40ce22	-0.011767896
84	0xbce74ad2	-0.02823392
85	0xbd89316e	-0.06698881
86	0xbd0e8f16	-0.034804426
87	0xbc9a54f0	-0.01883933
88	0xbd5027b6	-0.05081912
89	0xbc833c41	-0.016019942
90	0x3da1a5ec	0.07892975
91	0x3db73011	0.08944715
92	0x3d739a29	0.05947319
93	0x3afa6690	0.0019104052
94	0x3d4e3ce2	0.05035103
95	0x3d9cdfed	0.07659898
96	0xbbbc81ae	-0.0057527637
97	0x3db113c8	0.08646351
98	0x3d7a7676	0.06114813
99	0xbd411f4b	-0.047148984
100	0x3d62ac7c	0.055340275
101	0xbba94353	-0.0051654964
102	0xbcd42dcf	-0.02590075
103	0x3d964d77	0.07338994
104	0xbce8fbe2	-0.02844042
105	0xbc1d96ba	-0.009618456
106	0x3d5fc568	0.05463162
107	0xbbfbfa96	-0.0076897843
108	0xb64637f9	-2.953688e-06
109	0xb7525bb4	-1.2538327e-05
110	0x3880a2bd	6.133828e-05
111	0x36a00e57	4.770041e-06
112	0xb62fa109	-2.6170767e-06
113	0xb754beca	-1.2680606e-05
114	0x376bf414	1.406392e-05
115	0xb800da13	-3.0720676e-05
116	0xb71b7b8f	-9.267488e-06
117	0xbd021346	-0.03175666
118	0xbce5701b	-0.028007558
119	0xbd2d5bd6	-0.04232391
120	0xbd3532d7	-0.044237938
121	0xbcb69d36	-0.02229176
122	0xbc004813	-0.007829684
123	0x3b8a0cf4	0.00421297
124	0xbd55f7e0	-0.052238345
125	0xbd918fc0	-0.07107496
126	0xbcce84e6	-0.025209855
127	0xbd97eb08	-0.074178755
128	0xbd479bdf	-0.048732635
129	0xbcdf33b5	-0.027246336
130	0xbc302bca	-0.010752628
131	0x3a3fd473	0.0007317729
132	0xbcd736f2	-0.026271317
133	0x3cbdedde	0.023184713
134	0xbc9de958	-0.019276306
135	0xbd5beff3	-0.05369563
136	0xbd22eb9b	-0.039775472
137	0x3bf8d7cd	0.007594085
138	0xbd5c7fd4	-0.053832844
139	0xbbba0d42	-0.00567785
140	0xbca8b135	-0.020592311
141	0xbd55cd70	-0.052197874
142	0xbd5a7852	-0.053337403
143	0xbbcb959a	-0.0062129023
144	0xbdc54a8f	-0.096333615
145	0xbded55f5	-0.11588661
146	0xbd94a04a	-0.07257135
147	0xbdcda72b	-0.100416504
148	0xbdeedd9b	-0.11663362
149	0xbdc4e222	-0.09613444
150	0xbcefd47e	-0.029276129
151	0xbd9ab05e	-0.075531706
152	0xbd41cb68	-0.047313124
153	0xbdafeebd	-0.085904576
154	0xbd78f2a7	-0.060778286
155	0x3c5cd9d1	0.013479666
156	0xbd89664a	-0.06708963
157	0xbd7db10a	-0.061936416
158	0xbd1a01cb	-0.037599366
159	0xbd8f4048	-0.069946826
160	0xba8e06ca	-0.0010835764
161	0xbbb0679f	-0.0053834463
162	0x3c639985	0.013891582
163	0xbb8592ad	-0.004076323
164	0xbd54e650	-0.051977456
165	0x3d4f595b	0.050622325
166	0x3d23677e	0.03989362
167	0xbd3001d8	-0.04297051
168	0x3d770ffe	0.060317986
169	0x3dd52789	0.10407931
170	0xbc8eba70	-0.017422885
171	0x3d1a3f5d	0.037658084
172	0x3cc3a199	0.023880767
173	0xbc9f1583	-0.019419437
174	0xbb9c6fd2	-0.004774072
175	0x3cb2aa1e	0.021809634
176	0xbd08983e	-0.033348314
177	0x3d8346b2	0.064099684
178	0xbd2cee47	-0.042219426
179	0xbd4c04a7	-0.049809124
180	0x3bb3a42f	0.0054822187
181	0x3d8b097a	0.06788917
182	0xbc902ed5	-0.017600456
183	0xbc96f558	-0.018427536
184	0x3d9cac45	0.07650045
185	0x3b58bdb8	0.0033072066
186	0xbd3b3d1d	-0.04571258
187	0x3d844426	0.06458311
188	0x3ce3c817	0.027805371
189	0xbb6e6ee4	-0.0036382014
190	0xbd11c2ad	-0.035586048
191	0xbd19974e	-0.03749781
192	0xbc9d0642	-0.019168023
193	0xbccee3f5	-0.025255183
194	0xbd2c63f5	-0.042087514
195	0x3d145c8e	0.03622108
196	0xbd1842a9	-0.037172947
197	0xbcc054a2	-0.023477856
198	0xbd24928f	-0.04017883
199	0x3da75a0f	0.08171474
200	0xbd8584fb	-0.06519505
201	0xbc8f7847	-0.017513407
202	0x3d634413	0.055484843
203	0xbd2038c4	-0.039116636
204	0xbd09039f	-0.03345072
205	0x3ccf9324	0.025338717
206	0xb90403b9	-0.00012589888
207	0xbd4bca30	-0.049753368
208	0x3c62d069	0.013843634
209	0xbd260f8f	-0.04054218
210	0xbd549f04	-0.05190946
211	0xbc55508f	-0.013019695
212	0xbd5ac1e6	-0.053407572
213	0xbd3813c2	-0.044940718
214	0xbcbbef2b	-0.022941193
215	0xbd946290	-0.07245362
216	0xbb2ab4b9	-0.002604766
217	0xbae3d331	-0.0017381666
218	0x3b261edd	0.0025347986
219	0x3b7fe3ec	0.0039045764
220	0x3b69af09	0.0035657308
221	0x3ad6a75c	0.0016376781
222	0x3c0c0f31	0.008548544
223	0x3b877a46	0.004134449
224	0x3c83a247	0.01606859
225	0xbd03e84a	-0.03220395
226	0xbd4512d4	-0.04811366
227	0xbd473ce4	-0.048642054
228	0xbd4bf50b	-0.049794238
229	0x3cc3caf0	0.02390048
230	0x3c4942ac	0.012283962
231	0x3c57843c	0.013154086
232	0x3d92aa1a	0.071613505
233	0x3d86ec0b	0.065879904
234	0xbd0e21a6	-0.03470006
235	0x3cc682e9	0.024232345
236	0x3da7f10e	0.082002744
237	0xbc72525b	-0.014790143
238	0xbd0e4bfa	-0.034740426
239	0x3cd13fb4	0.025543071
240	0xbc4ef82b	-0.01263241
241	0xbd98fac6	-0.07469706
242	0x3d8058f2	0.06266965
243	0x3c39a117	0.011329911
244	0x3cd12553	0.025530493
245	0x3c093974	0.008375514
246	0xbd3a5726	-0.045493267
247	0x3cb86643	0.0225097
248	0x3cc79e43	0.024367457
249	0xbd1612bb	-0.036638957
250	0x3ca533eb	0.020166358
251	0x3cca7c4c	0.024717472
252	0xbcdb14f5	-0.026743392
253	0xbd2287ba	-0.03968022
254	0xbc7e364c	-0.015515875
255	0x37ce6ae6	2.4606892e-05

onnx::Conv_93 f4 [64]
0	0x3dcb3e98	0.09924048
1	0x9cb404b2	-1.1912615e-21
2	0xa11262eb	-4.959764e-19
3	0xa2d5e652	-5.7977627e-18
4	0x3de7725c	0.11301109
5	0x80001ccb	-1.0329e-41
6	0x000024a9	1.3151e-41
7	0xb199adc8	-4.4726427e-09
8	0xbdfd5e0a	-0.12371452
9	0xbccc893c	-0.024967782
10	0xbc283858	-0.01026734
11	0x80002036	-1.1555e-41
12	0x80002479	-1.3084e-41
13	0xbd89c57c	-0.0672712
14	0xbdd62cc8	-0.1045776
15	0xbe15b913	-0.14621381
16	0xbd796fb0	-0.06089753
17	0xbcd1b507	-0.025599016
18	0x3d39e4e8	0.045384318
19	0x85397a9f	-8.72118e-36
20	0x00001385	7.002e-42
21	0xbd1274bd	-0.03575586
22	0xbd09bcc6	-0.033627294
23	0xbc1c4a90	-0.009539261
24	0x3e47f24b	0.19526021
25	0xba8c5316	-0.0010705914
26	0xbe68e116	-0.22742113
27	0xbe77e3e0	-0.24208021
28	0x9485f7e9	-1.3527351e-26
29	0xa3a405ee	-1.7783427e-17
30	0xa1af25cc	-1.1868466e-18
31	0xbc107bcc	-0.008818578
32	0xa4d37123	-9.1698324e-17
33	0x9a9d43d1	-6.504324e-23
34	0xbd278488	-0.040897876
35	0xbe6f7b80	-0.23386955
36	0x800025a6	-1.3506e-41
37	0xbe9e9a8b	-0.30977282
38	0x898dedf5	-3.416829e-33
39	0x3e16b716	0.14718279
40	0xbddbd197	-0.107333355
41	0x3df9b633	0.12192955
42	0xbdc90f35	-0.09817354
43	0x3ea2b283	0.3177682
44	0x80001277	-6.624e-42
45	0x3e33f6c3	0.17574601
46	0x3dfe75ae	0.12424789
47	0xbd23903c	-0.039932474
48	0xbd5792c6	-0.05263021
49	0x3cf99f58	0.030471489
50	0xa140c6d5	-6.531528e-19
51	0xbd400eca	-0.046889104
52	0x80001808	-8.621e-42
53	0x9cb2e3a2	-1.1837894e-21
54	0xbd279a66	-0.04091873
55	0x3d46f7ce	0.04857617
56	0xa7eb72a8	-6.5349913e-15
57	0x00000dc2	4.935e-42
58	0xbdbd183c	-0.09233138
59	0x8df12bd4	-1.4863323e-30
60	0xb3088751	-3.1788037e-08
61	0xbe830822	-0.25592142
62	0xb9ee5410	-0.0004545753
63	0xafa67d64	-3.028432e-10
