cmd/ai/datas/models/cow_in_its_natural_environment.onnx (onnx, 303077 bytes, 16 tensors)

fc.weight f4 [2, 256]
-0.023478562 -0.018482251 0.032274205 0.037427437 -0.023454871 -0.028164336 -0.0018244174 -0.0038923805
5.126261e-14 5.126261e-14 5.126261e-14 5.1262658e-14 -1.9912e-40 -1.98599e-40 -2.02405e-40 -1.97964e-40
1.3011561e-10 1.3014041e-10 1.301414e-10 1.3015654e-10 -0.026983136 -0.038509704 -0.028137717 -0.04037152
1.798091e-37 1.552386e-37 1.6729895e-37 1.405387e-37 0.0422364 0.14582011 0.03258937 0.14220676
0.08619446 0.095531754 0.0874339 0.09461031 -0.04363514 -0.054360375 -0.17634177 -0.2114358
-9.0097e-40 -9.0097e-40 -9.0097e-40 -9.0097e-40 2.371647e-39 2.372325e-39 2.371647e-39 2.372325e-39
-2.356e-42 -2.356e-42 -2.356e-42 -2.356e-42 0.09150072 0.10138319 -0.10408626 -0.11131863
-0.0871062 -0.109200776 -0.19572228 -0.22743648 -0.027973585 -0.02008737 0.035899643 0.043521293
0.087016076 0.26971146 0.08685948 0.277992 8.164512e-13 8.5361503e-13 8.3960177e-13 8.6478334e-13
-0.010504727 -0.007405408 0.015440775 0.018138232 -4.58e-43 -4.58e-43 -4.58e-43 -4.58e-43
1.5092e-41 1.5092e-41 1.5092e-41 1.5092e-41 -3.8454773e-09 -3.8454773e-09 -3.8454773e-09 -3.8454773e-09
-7.5019395e-16 -4.0308965e-17 8.89494e-16 1.3598285e-16 -3.8729357e-09 -3.8729357e-09 -3.8729357e-09 -3.8729357e-09
-0.06008281 -0.055962328 0.08023185 0.08583923 -1.6862921e-07 -1.6862921e-07 -1.6862916e-07 -1.6862921e-07
-0.08490317 -0.111200385 -0.07768138 -0.10372672 -3.36084e-39 -3.36084e-39 -3.36084e-39 -3.36084e-39
0.043970544 0.04281039 -0.06594861 -0.07536466 8.687e-42 8.687e-42 8.687e-42 8.687e-42
-0.043014746 -0.040942993 0.05976233 0.06344232 0.07592991 0.20514074 0.07209404 0.20098482
-1.5232589e-27 -1.5232648e-27 -1.5232648e-27 -1.5232648e-27 -5.3048416e-11 -7.520909e-12 4.0849386e-11 1.3316666e-11
-0.0868165 -0.075252965 0.101734824 0.11887595 -1.1544434e-18 -1.0889854e-18 -1.1568624e-18 -1.0965887e-18
2.5e-44 -9.959e-42 -9.331e-42 -9.331e-42 0.09026266 0.08939561 -0.17649075 -0.19800211
-0.07888068 -0.109263755 -0.18191136 -0.21852966 -3.897e-42 -4.088e-42 -4.096e-42 -3.879e-42
-2.3157516e-31 -2.3157516e-31 -2.3157516e-31 -2.3157516e-31 -0.006658505 -0.014926217 -0.069647595 -0.08242484
-1.3656e-41 -1.3751e-41 -1.363e-41 -1.3614e-41 1.1664e-41 -1.1098e-41 1.1664e-41 1.1664e-41
0.15090972 0.16207041 0.1431392 0.16109984 -0.15252656 -0.18803884 -0.14156656 -0.1835078
-0.021843212 -0.01602473 0.02927301 0.034900703 -0.070694104 -0.06703455 0.092785 0.09856429
-5.7895606e-05 -5.7895606e-05 -5.7895606e-05 -5.7895606e-05 1.1379435e-37 1.1115838e-37 1.1603893e-37 1.0923717e-37
-2.3932277e-34 -2.3908444e-34 -2.3972795e-34 -2.3950208e-34 -5.3092955e-17 -5.3092955e-17 -5.3092955e-17 -5.3092955e-17
-1.565e-42 -1.565e-42 -1.565e-42 -1.565e-42 0.03654246 0.088037536 0.037472036 0.09059753
0.022846198 0.022271894 -0.032118786 -0.036774606 0.0064592683 0.005963184 -0.008494046 -0.010415547
0.023226738 0.009815664 -0.16339806 -0.1914348 0.042969827 0.05529734 0.01644878 0.02723708
0.10718224 0.119105935 -0.08591343 -0.09099106 3.688179e-14 3.688179e-14 3.688179e-14 3.688179e-14
-5.0916937e-28 -5.0916937e-28 -5.0916937e-28 -5.0916937e-28 -0.021633722 -0.014437541 0.028220333 0.03478465
0.14749917 0.1492076 0.16795924 0.17077573 0.0015690111 -0.008741941 -0.0950428 -0.1105285
00000000: 1d56 c0bc 1768 97bc f531 043d 834d 193d
00000010: 6e24 c0bc e5b8 e6bc 4a21 efba 4f17 7fbb
00000020: c4dd 6629 c4dd 6629 c4dd 6629 d2dd 6629
00000030: 112b 0280 9d29 0280 3934 0280 d827 0280
00000040: 4a10 0f2f 4517 0f2f 8c17 0f2f cf1b 0f2f
00000050: bd0b ddbc 5abc 1dbd 1281 e6bc 9b5c 25bd
00000060: 54be 7402 c24c 5302 2db7 6302 974a 3f02
00000070: 1300 2d3d de51 153e 6e7c 053d a69e 113e
00000080: b986 b03d 27a6 c33d 8b10 b33d 0dc3 c13d
00000090: c3ba 32bd fca8 5ebd f092 34be a082 58be
000000a0: 8acf 0980 8acf 0980 8acf 0980 8acf 0980
000000b0: 30d3 1900 14d5 1900 30d3 1900 14d5 1900
000000c0: 9106 0080 9106 0080 9106 0080 9106 0080
000000d0: bb64 bb3d fda1 cf3d 2d2b d5bd 06fb e3bd
000000e0: bc64 b2bd a8a4 dfbd 6c6b 48be 1ce5 68be
000000f0: dc28 e5bc 458e a4bc 810b 133d 6243 323d
00000100: 7c35 b23d 9f17 8a3e 62e3 b13d f854 8e3e
00000110: 82cf 652b 7245 702b af53 6c2b 356a 732b
00000120: 051c 2cbc 11a9 f2bb 4efb 7c3c a196 943c
00000130: 4701 0080 4701 0080 4701 0080 4701 0080
00000140: 122a 0000 122a 0000 122a 0000 122a 0000
00000150: 2d21 84b1 2d21 84b1 2d21 84b1 2d21 84b1
00000160: 8b3a 58a6 6de4 39a4 8930 8026 0ec7 1c25
00000170: b412 85b1 b412 85b1 b412 85b1 b412 85b1
00000180: 6519 76bd c138 65bd 9950 a43d 7acc af3d
00000190: 7210 35b4 7210 35b4 6e10 35b4 7210 35b4
000001a0: b7e1 adbd 07bd e3bd 6a17 9fbd ad6e d4bd
000001b0: a898 2480 a898 2480 a898 2480 a898 2480
000001c0: 751a 343d f359 2f3d 1110 87bd c958 9abd
000001d0: 3718 0000 3718 0000 3718 0000 3718 0000
000001e0: 3b30 30bd d7b3 27bd 58c9 743d 0cee 813d
000001f0: 2481 9b3d 6a10 523e 0aa6 933d f7ce 4d3e
00000200: b95e f192 f65e f192 f65e f192 f65e f192
00000210: 354f 69ae 2a4f 04ad 52a8 332e ef44 6a2d
00000220: d9cc b1bd 3a1e 9abd 595a d03d 3c75 f33d
00000230: a35d aaa1 b5b4 a0a1 07b9 aaa1 f3d3 a1a1
00000240: 1200 0000 c31b 0080 031a 0080 031a 0080
00000250: a1db b83d 0c15 b73d feb9 34be 11c1 4abe
00000260: 328c a1bd adc5 dfbd f946 3abe 3dc6 5fbe
00000270: dd0a 0080 650b 0080 6b0b 0080 d00a 0080
00000280: 064d 968c 064d 968c 064d 968c 064d 968c
00000290: 972f dabb 178d 74bc 66a3 8ebd 5bce a8bd
000002a0: 1126 0080 5526 0080 ff25 0080 f325 0080
000002b0: 8420 0000 f01e 0080 8420 0000 8420 0000
000002c0: 1488 1a3e c9f5 253e 1593 123e 5bf7 243e
000002d0: ec2f 1cbe 418d 40be d3f6 10be 78e9 3bbe
000002e0: 89f0 b2bc 4b46 83bc f4cd ef3c 0af4 0e3d
000002f0: 12c8 90bd 6949 89bd 1006 be3d 13dc c93d
00000300: efd4 72b8 efd4 72b8 efd4 72b8 efd4 72b8
00000310: 8be3 1a02 0b4d 1702 aaf1 1d02 99af 1402
00000320: a90e 9f87 1ce6 9e87 9953 9f87 2b2d 9f87
00000330: 19d9 74a4 19d9 74a4 19d9 74a4 19d9 74a4
00000340: 5d04 0080 5d04 0080 5d04 0080 5d04 0080
00000350: 8cad 153d 064d b43d 477c 193d 338b b93d
00000360: f327 bb3c 8c73 b63c fd8e 03bd f8a0 16bd
00000370: 45a8 d33b d066 c33b 9c2a 0bbc f8a5 2abc
00000380: 0046 be3c e1d1 203c d251 27be 7c07 44be
00000390: 2101 303d 777f 623d 98bf 863c 4c20 df3c
000003a0: 5d82 db3d d0ed f33d 61f3 afbd 8559 babd
000003b0: cf19 2629 cf19 2629 cf19 2629 cf19 2629
000003c0: ba5c 2192 ba5c 2192 ba5c 2192 ba5c 2192
000003d0: 3439 b1bc 708b 6cbc 542e e73c 597a 0e3d
000003e0: 060a 173e e1c9 183e 82fd 2b3e d5df 2e3e
000003f0: 47a7 cd3a 5c3a 0fbc cda5 c2bd c45c e2bd

fc.bias f4 [2]
0.0107677085 -0.014830315
00000000: 0b6b 303c d9fa 72bc

onnx::Conv_80 f4 [16, 3, 7, 7]
0.014221159 0.005838578 0.0075206948 0.0102445325 -0.0013568712 -0.0049705175 0.0031175462 -0.0034766514
-0.014466867 -0.01607216 -0.011080079 -0.025739418 -0.03223178 -0.036143016 0.009164373 0.012162756
0.011471446 0.0071490933 -0.007205828 -0.020376131 -0.030460395 0.0054844418 0.017817585 0.010932753
0.003189639 -0.014270363 -0.025255533 -0.032768548 0.005070954 0.022785846 0.013058117 -0.0061490205
-0.014438819 -0.017865475 -0.026044635 0.0141592845 0.017862687 0.011130741 -0.0074005504 -0.013187632
-0.016547095 -0.019780196 0.021603925 0.031235678 0.013812305 0.0013323104 -0.01777275 -0.009030189
-0.010866737 0.043787383 0.035188247 0.043641075 0.048135996 0.04358292 0.0467723 0.05106866
0.023818642 0.015886901 0.021734385 0.029059138 0.024762912 0.021671494 0.01403754 0.03448835
0.03531133 0.040279537 0.043186694 0.034870327 0.029649341 0.015789535 0.022700675 0.03207247
0.03688005 0.029669292 0.020612033 0.023041347 0.012344329 0.012760693 0.028884633 0.030460406
0.02161056 0.015347014 0.020741306 0.008807323 0.031208651 0.042717148 0.03585098 0.03603323
0.031383324 0.03249729 0.02818115 0.041571073 0.037968997 0.038589034 0.026032554 0.027272316
0.024843642 0.02007823 -0.00364015 -0.02221313 -0.01579943 -0.017680947 -0.025512623 -0.029353097
-0.017110035 -0.023255873 -0.03239166 -0.028268082 -0.030925762 -0.039192107 -0.040592603 -0.042152174
-0.019479482 -0.026631534 -0.026647976 -0.027143467 -0.042254556 -0.044228032 -0.05289194 -0.028400298
-0.029282147 -0.034571435 -0.04173342 -0.055963043 -0.052620497 -0.057467055 -0.034697834 -0.033067223
-0.03992022 -0.049523227 -0.06123977 -0.05317911 -0.05725081 -0.02983167 -0.03244787 -0.045192868
-0.056538373 -0.0635324 -0.057102673 -0.056722034 -0.016946506 -0.027594496 -0.040639196 -0.05424876
-0.064716265 -0.05375806 -0.05704723 -0.043320194 0.0059162946 0.0076080086 0.014474719 -0.009077783
-0.007925035 -0.030091831 0.0071651773 0.045382164 0.03534926 0.039730795 0.031139301 -0.001991866
0.00032706923 -0.0062621394 0.009768256 0.02091007 0.021890875 -0.0013902569 -0.02649766 -0.024101099
0.011488342 0.051009227 0.05288925 0.057577316 0.04408806 0.028528785 0.022103887 0.008816139
0.02721905 0.029582914 0.055896085 0.044912733 0.027882444 0.013730459 -7.4345146e-05 0.033871915
0.04337266 0.055426147 0.049059544 0.029390505 0.008271319 -0.010892005 0.030420672 0.03554885
0.029823828 0.027988313 0.017528687 0.004833999 -0.05225598 -0.007461842 -0.00045945912 -0.0021402927
0.0054113367 -0.015168159 -0.027333364 -0.03647638 0.041124243 0.016736448 0.014375408 0.027311405
0.0021034707 -0.009769179 -0.07599984 0.0004725387 -0.01664067 -0.0185514 -0.021477692 -0.022225197
-0.03477558 -0.022294346 0.01850749 0.015220723 0.023497779 0.013951472 0.010220158 0.018965837
-0.036320616 -0.0025126014 -0.0039504333 0.018491203 0.008061979 0.009572615 0.0096741095 -0.011753688
0.016052559 0.013635303 0.026363414 0.02464454 0.018127013 0.02063974 -0.017603606 0.027038837
0.02672141 0.017631494 0.019889927 0.032886207 0.036410242 -0.043010097 -0.021761555 -0.045017593
-0.02481741 -0.03849136 -0.036415298 -0.015698427 -0.011491767 0.00086924835 -0.012047413 -0.017765298
00000000: ddff 683c 8b51 bf3b 2970 f63b afd8 273c
00000010: 0bd9 b1ba b9df a2bb bf4f 4c3b 88d8 63bb
00000020: 7006 6dbc c3a9 83bc 3889 35bc 79db d2bc
00000030: 7905 04bd b30a 14bd 2b26 163c 4c46 473c
00000040: bbf2 3b3c f142 ea3b de1e ecbb d8eb a6bc
00000050: 1488 f9bc d5b6 b33b 2ff6 913c 4a1f 333c
00000060: 4309 513b 3ece 69bc b1e4 cebc 5038 06bd
00000070: 3f2a a63b 62a9 ba3c b6f1 553c b97d c9bb
00000080: cc90 6cbc 9e5a 92bc 8f5b d5bc 58fc 673c
00000090: c554 923c b65d 363c 5180 f2bb f010 58bc
000000a0: c68d 87bc 140a a2bc b7fa b03c f7e1 ff3c
000000b0: 024d 623c eba0 ae3a 2998 91bc 5cf3 13bc
000000c0: 660a 32bc 665a 333d 8d21 103d fcc0 323d
000000d0: 402a 453d 0184 323d 5094 3f3d 5f2d 513d
000000e0: 501f c33c 3f25 823c 4f0c b23c 6e0d ee3c
000000f0: 97db ca3c 6b88 b13c b6fd 653c a843 0d3d
00000100: 9da2 103d 28fc 243d 88e4 303d 30d4 0e3d
00000110: 2de3 f23c 0e59 813c c4f6 b93c 6c5e 033d
00000120: 890f 173d 040d f33c 91da a83c 35c1 bc3c
00000130: de3f 4a3c 3a12 513c 779f ec3c 1a88 f93c
00000140: a108 b13c 0b72 7b3c ace9 a93c 974c 103c
00000150: 49a9 ff3c 2df8 2e3d 7ad8 123d 9597 133d
00000160: cd8b 003d e11b 053d 28dc e63c 6e46 2a3d
00000170: 6185 1b3d 890f 1e3d 3942 d53c 316a df3c
00000180: e584 cb3c 1a7b a43c 958f 6ebb 4ff8 b5bc
00000190: ce6d 81bc a2d7 90bc d9ff d0bc e875 f0bc
000001a0: 582a 8cbc 1a83 bebc 1ead 04bd 7792 e7bc
000001b0: 0658 fdbc e787 20bd 6e44 26bd c2a7 2cbd
000001c0: 6f93 9fbc 602a dabc db4c dabc fa5b debc
000001d0: 1d13 2dbd 7428 35bd 38a5 58bd bea7 e8bc
000001e0: 1de1 efbc c79a 0dbd aaf0 2abd 8139 65bd
000001f0: 9788 57bd 9362 6bbd 511f 0ebd 7f71 07bd
00000200: 6283 23bd ded8 4abd 8ed6 7abd 57d2 59bd
00000210: d37f 6abd 8c61 f4bc 0fe8 04bd 281c 39bd
00000220: c894 67bd 461d 82bd 7ee4 69bd 5d55 68bd
00000230: 66d3 8abc da0d e2bc 4975 26bd f333 5ebd
00000240: f689 84bd 6931 5cbd 5baa 69bd 8470 31bd
00000250: 7add c13b 9a4c f93b 5f27 6d3c fbba 14bc
00000260: 02d8 01bc 2583 f6bc ddc9 ea3b a6e2 393d
00000270: 63ca 103d c2bc 223d d917 ff3c f789 02bb
00000280: 7d7a ab39 a232 cdbb 090b 203c 984b ab3c
00000290: 7e54 b33c 4839 b6ba 9f11 d9bc ab6f c5bc
000002a0: 9939 3c3c 0def 503d 66a2 583d 31d6 6b3d
000002b0: ae95 343d 33b5 e93c 3613 b53c 9171 103c
000002c0: 7cfa de3c de57 f23c 4bf3 643d 6af6 373d
000002d0: b969 e43c b8f5 603c bfe9 9bb8 47bd 0a3d
000002e0: 88a7 313d 8706 633d a9f2 483d 5bc4 f03c
000002f0: 6d84 073c 6174 32bc c634 f93c ac9b 113d
00000300: 1a51 f43c bf47 e53c 5298 8f3c 8666 9e3b
00000310: 5e0a 56bd 7882 f4bb 8fe3 f0b9 2744 0cbb
00000320: 9551 b13b df83 78bc 38ea dfbc 4268 15bd
00000330: e571 283d e01a 893c d586 6b3c 2bbc df3c
00000340: 62da 093b e80e 20bc cea5 9bbd 12bf f739
00000350: 0452 88bc 1bf9 97bc fcf1 afbc 9e11 b6bc
00000360: d770 0ebd a2a2 b6bc 059d 973c 5760 793c
00000370: 6a7e c03c b794 643c 7372 273c 3e5e 9b3c
00000380: edc4 14bd 75aa 24bb a372 81bb dd7a 973c
00000390: 6416 043c 75d6 1c3c 2880 1e3c 8a92 40bc
000003a0: a880 833c 9b66 5f3c 16f8 d73c 59e3 c93c
000003b0: 1a7f 943c ac14 a93c 7035 90bc 8d80 dd3c
000003c0: dce6 da3c ec6f 903c 33f0 a23c b0b3 063d
000003d0: e822 153d 5b2b 30bd 4a45 b2bc 5e64 38bd
000003e0: e24d cbbc 1ea9 1dbd 3528 15bd fd99 80bc
000003f0: f747 3cbc 45de 633a 8362 45bc 8888 91bc

onnx::Conv_81 f4 [16]
0.034789506 -0.6518428 -0.08062066 -0.24647285 0.012050202 -2.209217e-39 0.30802163 -0.2790408
-0.020081121 0.22248118 -0.09256174 -0.120531596 0.45608053 -0.27129382 0.8440413 -0.012209524
00000000: 717f 0e3d 2bdf 26bf 721c a5bd 6163 7cbe
00000010: 366e 453c 660e 1880 03b5 9d3e 70de 8ebe
00000020: 2a81 a4bc 1bd2 633e 0291 bdbd 45d9 f6bd
00000030: 6383 e93e 06e7 8abe 1713 583f 750a 48bc

onnx::Conv_83 f4 [32, 16, 3, 3]
-0.0 -0.0 0.0 0.0 -0.0 0.0 0.0 -0.0
-0.0 0.0 0.0 0.0 -0.0 0.0 0.0 -0.0
0.0 -0.0 -0.0 0.0 -0.0 -0.0 -0.0 -0.0
-0.0 -0.0 0.0 -0.0 0.0 0.0 0.0 0.0
-0.0 -0.0 -0.0 0.0 0.0 0.0 0.0 0.0
0.0 -0.0 -0.0 0.0 0.0 -0.0 -0.0 0.0
-0.0 -0.0 -0.0 0.0 0.0 0.0 0.0 -0.0
0.0 0.0 -0.0 -0.0 0.0 0.0 -0.0 0.0
-0.0 0.0 0.0 -0.0 -0.0 -0.0 0.0 -0.0
0.0 -0.0 -0.0 -0.0 -0.0 -0.0 -0.0 -0.0
0.0 0.0 -0.0 0.0 -0.0 0.0 0.0 -0.0
-0.0 -0.0 0.0 0.0 0.0 0.0 0.0 0.0
0.0 -0.0 -0.0 0.0 -0.0 -0.0 -0.0 0.0
0.0 0.0 0.0 0.0 0.0 0.0 -0.0 0.0
0.0 0.0 0.0 -0.0 0.0 -0.0 0.0 -0.0
0.0 -0.0 -0.0 -0.0 0.0 -0.0 0.0 -0.0
-0.0 -0.0 -0.0 -0.0 0.0 0.0 0.0 -0.0
0.0 0.0 0.0 0.0 -0.0 -0.0 -0.0 0.0
0.015765619 -0.0011989155 0.0028198045 -0.01669388 -0.04525804 -0.04353074 0.0732649 0.045701247
0.05530264 -0.043083534 -0.06353053 -0.079751626 0.04811419 0.039383907 -0.016846001 0.06903217
-0.0017381132 -0.01828025 0.024888072 -0.0038157788 -0.034937195 0.016463317 -0.014106552 -0.043813225
-0.038953826 -0.052309807 -0.06697416 0.030298466 0.013876013 -0.0036093926 0.13385002 0.08543123
0.08509157 0.070891745 0.032116488 -0.059724532 0.0007905095 -0.0010460262 -0.0032176508 0.0023635474
0.00030071562 -0.00312231 -0.0008799034 -0.002188202 -0.004138508 4.3743e-41 7.061e-41 -1.0473e-41
-1.0127e-41 -1.227e-41 7.6561e-41 -7.688e-41 -1.5329e-41 2.8462e-41 0.046008173 0.029972052
0.035986397 0.027695687 0.0277451 0.010922273 -0.08441542 -0.09799764 -0.09958091 0.0023074793
-0.02790404 -0.043422196 -0.034931973 -0.09326981 -0.11473269 0.018907068 -0.08680692 -0.086856
0.042563632 0.04431048 0.098491155 -0.06828615 -0.08250664 -0.06289999 -0.08903268 -0.11066927
-0.07282599 0.0298761 0.020744715 0.0013714022 0.010363502 0.011353643 -0.01586532 -0.040644743
-0.035431076 -0.03443736 -0.042614706 -0.03497623 -0.026707452 0.020644039 0.021496443 0.018385258
0.05915253 0.08165981 0.10512432 0.012658 0.014427368 0.007363884 -0.010660636 -0.009598546
-0.010637391 -0.005473328 -0.0021491768 0.001468453 0.060219947 0.06923342 0.06983084 -0.015992042
00000000: 0000 0080 0000 0080 0000 0000 0000 0000
00000010: 0000 0080 0000 0000 0000 0000 0000 0080
00000020: 0000 0080 0000 0000 0000 0000 0000 0000
00000030: 0000 0080 0000 0000 0000 0000 0000 0080
00000040: 0000 0000 0000 0080 0000 0080 0000 0000
00000050: 0000 0080 0000 0080 0000 0080 0000 0080
00000060: 0000 0080 0000 0080 0000 0000 0000 0080
00000070: 0000 0000 0000 0000 0000 0000 0000 0000
00000080: 0000 0080 0000 0080 0000 0080 0000 0000
00000090: 0000 0000 0000 0000 0000 0000 0000 0000
000000a0: 0000 0000 0000 0080 0000 0080 0000 0000
000000b0: 0000 0000 0000 0080 0000 0080 0000 0000
000000c0: 0000 0080 0000 0080 0000 0080 0000 0000
000000d0: 0000 0000 0000 0000 0000 0000 0000 0080
000000e0: 0000 0000 0000 0000 0000 0080 0000 0080
000000f0: 0000 0000 0000 0000 0000 0080 0000 0000
00000100: 0000 0080 0000 0000 0000 0000 0000 0080
00000110: 0000 0080 0000 0080 0000 0000 0000 0080
00000120: 0000 0000 0000 0080 0000 0080 0000 0080
00000130: 0000 0080 0000 0080 0000 0080 0000 0080
00000140: 0000 0000 0000 0000 0000 0080 0000 0000
00000150: 0000 0080 0000 0000 0000 0000 0000 0080
00000160: 0000 0080 0000 0080 0000 0000 0000 0000
00000170: 0000 0000 0000 0000 0000 0000 0000 0000
00000180: 0000 0000 0000 0080 0000 0080 0000 0000
00000190: 0000 0080 0000 0080 0000 0080 0000 0000
000001a0: 0000 0000 0000 0000 0000 0000 0000 0000
000001b0: 0000 0000 0000 0000 0000 0080 0000 0000
000001c0: 0000 0000 0000 0000 0000 0000 0000 0080
000001d0: 0000 0000 0000 0080 0000 0000 0000 0080
000001e0: 0000 0000 0000 0080 0000 0080 0000 0080
000001f0: 0000 0000 0000 0080 0000 0000 0000 0080
00000200: 0000 0080 0000 0080 0000 0080 0000 0080
00000210: 0000 0000 0000 0000 0000 0000 0000 0080
00000220: 0000 0000 0000 0000 0000 0000 0000 0000
00000230: 0000 0080 0000 0080 0000 0080 0000 0000
00000240: e626 813c ee24 9dba 78cc 383b 9bc1 88bc
00000250: 7f60 39bd 4a4d 32bd e80b 963d 3b31 3b3d
00000260: 0585 623d 5c78 30bd 4b1c 82bd d254 a3bd
00000270: 6313 453d 0551 213d a000 8abc bd60 8d3d
00000280: 67d1 e3ba 76c0 95bc 12e2 cb3c 2512 7abb
00000290: 4e1a 0fbd 14de 863c 2b1f 67bc 7f75 33bd
000002a0: 0c8e 1fbd cf42 56bd c029 89bd 7d34 f83c
000002b0: 3858 633c 8f8b 6cbb fb0f 093e 92f6 ae3d
000002c0: 7d44 ae3d b12f 913d 948c 033d b6a1 74bd
000002d0: 323a 4f3a d11a 89ba 39df 52bb bfe5 1a3b
000002e0: 5ea9 9d39 ab9f 4cbb 51a9 66ba f067 0fbb
000002f0: 529c 87bb f079 0000 d5c4 0000 321d 0080
00000300: 3b1c 0080 3422 0080 6cd5 0000 4fd6 0080
00000310: bb2a 0080 574f 0000 1173 3c3d f387 f53c
00000320: 7966 133d 11e2 e23c b149 e33c 55f3 323c
00000330: fee1 acbd fdb2 c8bd 13f1 cbbd 1439 173b
00000340: 0397 e4bc 79db 31bd d414 0fbd 3e04 bfbd
00000350: f9f8 eabd ffe2 9a3c d4c7 b1bd 8fe1 b1bd
00000360: 3457 2e3d e87e 353d bbb5 c93d 9cd9 8bbd
00000370: 3ef9 a8bd b6d1 80bd c456 b6bd 92a6 e2bd
00000380: cb25 95bd b9be f43c d2f0 a93c 9fc0 b33a
00000390: aecb 293c a104 3a3c fdf7 81bc 1a7b 26bd
000003a0: 2d20 11bd 300e 0dbd c28c 2ebd 3c43 0fbd
000003b0: 96c9 dabc b01d a93c 4f19 b03c ae9c 963c
000003c0: ec49 723d 423d a73d 6b4b d73d 8063 4f3c
000003d0: c460 6c3c bc4c f13b f3a9 2ebc 3843 1dbc
000003e0: 7448 2ebc 9a59 b3bb 34d9 0cbb 1b79 c03a
000003f0: 31a9 763d 40ca 8d3d 7903 8f3d be01 83bc

onnx::Conv_84 f4 [32]
-1.5184807e-20 0.10706913 0.0014281406 0.007835515 -0.18564449 -0.0015241201 -2.201835e-18 -5.1927214e-05
-2.0318247e-27 -1.5267962e-06 -1.1158552e-12 -0.0003337929 1.4625745e-13 0.0016554869 -0.32264507 -0.012058696
5.8603822e-05 -0.0007647528 -8.1686646e-10 -3.4053656e-22 -0.13817823 -4.6451663e-32 -7.2832296e-28 0.53577465
0.31539485 -6.4393806e-18 -0.0018444043 -0.00070516637 -0.0010888949 0.35335 0.011031563 -0.1974437
00000000: 9c6a 8f9e 0f47 db3d 7230 bb3a 8860 003c
00000010: 9719 3ebe fcc4 c7ba 7d77 22a2 6ccc 59b8
00000020: 4dfa 2093 51ec ccb5 ec0a 9dab ed00 afb9
00000030: d7ab 242a ecfc d83a bc31 a5be d691 45bc
00000040: 60cd 7538 b179 48ba de89 60b0 7bd7 cd9b
00000050: 987e 0dbe da30 718b 94d0 6692 8728 093f
00000060: 6f7b a13e 3b92 eda2 f0bf f1ba eada 38ba
00000070: 40b9 8eba 4bea b43e bbbd 343c ae2e 4abe

onnx::Conv_86 f4 [32, 32, 3, 3]
-0.0 0.0 -0.0 -0.0 -0.0 -0.0 0.0 0.0
-0.0 -0.0 0.0 0.0 0.0 -0.0 -0.0 0.0
0.0 0.0 0.0 0.0 -0.0 0.0 -0.0 -0.0
0.0 0.0 0.0 -0.0 0.0 -0.0 -0.0 -0.0
-0.0 0.0 0.0 0.0 -0.0 -0.0 -0.0 -0.0
0.0 0.0 0.0 -0.0 -0.0 0.0 0.0 0.0
-0.0 0.0 -0.0 -0.0 0.0 -0.0 0.0 0.0
0.0 0.0 -0.0 0.0 -0.0 0.0 0.0 0.0
0.0 -0.0 -0.0 -0.0 0.0 -0.0 -0.0 0.0
0.0 0.0 0.0 -0.0 -0.0 -0.0 -0.0 -0.0
0.0 0.0 -0.0 0.0 0.0 -0.0 -0.0 0.0
-0.0 -0.0 0.0 -0.0 -0.0 -0.0 0.0 -0.0
-0.0 -0.0 -0.0 0.0 0.0 -0.0 -0.0 -0.0
0.0 0.0 0.0 0.0 0.0 0.0 -0.0 0.0
-0.0 -0.0 0.0 -0.0 -0.0 -0.0 0.0 -0.0
-0.0 -0.0 -0.0 0.0 0.0 -0.0 -0.0 0.0
-0.0 0.0 -0.0 0.0 -0.0 -0.0 0.0 0.0
0.0 -0.0 -0.0 -0.0 -0.0 -0.0 -0.0 0.0
-0.0 0.0 0.0 0.0 0.0 0.0 -0.0 0.0
0.0 -0.0 -0.0 0.0 -0.0 0.0 0.0 0.0
-0.0 -0.0 0.0 -0.0 0.0 0.0 -0.0 -0.0
0.0 0.0 0.0 0.0 -0.0 -0.0 0.0 -0.0
0.0 -0.0 0.0 0.0 -0.0 0.0 -0.0 0.0
-0.0 -0.0 0.0 -0.0 0.0 0.0 -0.0 0.0
0.0 0.0 -0.0 0.0 0.0 0.0 0.0 0.0
-0.0 -0.0 -0.0 0.0 0.0 0.0 -0.0 -0.0
-0.0 -0.0 -0.0 -0.0 -0.0 0.0 -0.0 -0.0
-0.0 0.0 -0.0 0.0 -0.0 -0.0 -0.0 -0.0
0.0 0.0 -0.0 -0.0 -0.0 -0.0 0.0 0.0
0.0 -0.0 0.0 0.0 -0.0 -0.0 0.0 -0.0
0.0 -0.0 0.0 0.0 0.0 0.0 0.0 -0.0
-0.0 -0.0 0.0 -0.0 -0.0 -0.0 -0.0 0.0
00000000: 0000 0080 0000 0000 0000 0080 0000 0080
00000010: 0000 0080 0000 0080 0000 0000 0000 0000
00000020: 0000 0080 0000 0080 0000 0000 0000 0000
00000030: 0000 0000 0000 0080 0000 0080 0000 0000
00000040: 0000 0000 0000 0000 0000 0000 0000 0000
00000050: 0000 0080 0000 0000 0000 0080 0000 0080
00000060: 0000 0000 0000 0000 0000 0000 0000 0080
00000070: 0000 0000 0000 0080 0000 0080 0000 0080
00000080: 0000 0080 0000 0000 0000 0000 0000 0000
00000090: 0000 0080 0000 0080 0000 0080 0000 0080
000000a0: 0000 0000 0000 0000 0000 0000 0000 0080
000000b0: 0000 0080 0000 0000 0000 0000 0000 0000
000000c0: 0000 0080 0000 0000 0000 0080 0000 0080
000000d0: 0000 0000 0000 0080 0000 0000 0000 0000
000000e0: 0000 0000 0000 0000 0000 0080 0000 0000
000000f0: 0000 0080 0000 0000 0000 0000 0000 0000
00000100: 0000 0000 0000 0080 0000 0080 0000 0080
00000110: 0000 0000 0000 0080 0000 0080 0000 0000
00000120: 0000 0000 0000 0000 0000 0000 0000 0080
00000130: 0000 0080 0000 0080 0000 0080 0000 0080
00000140: 0000 0000 0000 0000 0000 0080 0000 0000
00000150: 0000 0000 0000 0080 0000 0080 0000 0000
00000160: 0000 0080 0000 0080 0000 0000 0000 0080
00000170: 0000 0080 0000 0080 0000 0000 0000 0080
00000180: 0000 0080 0000 0080 0000 0080 0000 0000
00000190: 0000 0000 0000 0080 0000 0080 0000 0080
000001a0: 0000 0000 0000 0000 0000 0000 0000 0000
000001b0: 0000 0000 0000 0000 0000 0080 0000 0000
000001c0: 0000 0080 0000 0080 0000 0000 0000 0080
000001d0: 0000 0080 0000 0080 0000 0000 0000 0080
000001e0: 0000 0080 0000 0080 0000 0080 0000 0000
000001f0: 0000 0000 0000 0080 0000 0080 0000 0000
00000200: 0000 0080 0000 0000 0000 0080 0000 0000
00000210: 0000 0080 0000 0080 0000 0000 0000 0000
00000220: 0000 0000 0000 0080 0000 0080 0000 0080
00000230: 0000 0080 0000 0080 0000 0080 0000 0000
00000240: 0000 0080 0000 0000 0000 0000 0000 0000
00000250: 0000 0000 0000 0000 0000 0080 0000 0000
00000260: 0000 0000 0000 0080 0000 0080 0000 0000
00000270: 0000 0080 0000 0000 0000 0000 0000 0000
00000280: 0000 0080 0000 0080 0000 0000 0000 0080
00000290: 0000 0000 0000 0000 0000 0080 0000 0080
000002a0: 0000 0000 0000 0000 0000 0000 0000 0000
000002b0: 0000 0080 0000 0080 0000 0000 0000 0080
000002c0: 0000 0000 0000 0080 0000 0000 0000 0000
000002d0: 0000 0080 0000 0000 0000 0080 0000 0000
000002e0: 0000 0080 0000 0080 0000 0000 0000 0080
000002f0: 0000 0000 0000 0000 0000 0080 0000 0000
00000300: 0000 0000 0000 0000 0000 0080 0000 0000
00000310: 0000 0000 0000 0000 0000 0000 0000 0000
00000320: 0000 0080 0000 0080 0000 0080 0000 0000
00000330: 0000 0000 0000 0000 0000 0080 0000 0080
00000340: 0000 0080 0000 0080 0000 0080 0000 0080
00000350: 0000 0080 0000 0000 0000 0080 0000 0080
00000360: 0000 0080 0000 0000 0000 0080 0000 0000
00000370: 0000 0080 0000 0080 0000 0080 0000 0080
00000380: 0000 0000 0000 0000 0000 0080 0000 0080
00000390: 0000 0080 0000 0080 0000 0000 0000 0000
000003a0: 0000 0000 0000 0080 0000 0000 0000 0000
000003b0: 0000 0080 0000 0080 0000 0000 0000 0080
000003c0: 0000 0000 0000 0080 0000 0000 0000 0000
000003d0: 0000 0000 0000 0000 0000 0000 0000 0080
000003e0: 0000 0080 0000 0080 0000 0000 0000 0080
000003f0: 0000 0080 0000 0080 0000 0080 0000 0000

onnx::Conv_87 f4 [32]
5.53764e-40 0.020631386 -4.2974e-41 0.05588339 -0.009482483 1.815e-42 -6.083e-42 1.1192e-40
-0.09099244 -0.0007147121 -0.0017460454 -0.008279629 -1.7330342e-35 0.03627118 -0.0027902536 -8.4172534e-05
-7.68304e-40 0.04175374 -6.038e-42 -0.034955792 -0.19998217 -3.879188e-07 -5.3876e-41 -4.6229848e-10
-3.8205505e-19 0.002449456 0.037169937 -0.016695172 -1.0889197e-15 -0.083985865 -4.8652e-41 1.117918e-39
00000000: ab07 0600 2703 a93c cb77 0080 fbe5 643d
00000010: 6b5c 1bbc 0f05 0000 f510 0080 fd37 0100
00000020: 3f5a babd 845b 3bba 90db e4ba 48a7 07bc
00000030: ae49 b885 1791 143d b0dc 36bb c985 b0b8
00000040: b85d 0880 f805 2b3d d510 0080 ce2d 0fbd
00000050: 20c8 4cbe 2743 d0b4 2f96 0080 ba26 feaf
00000060: 8786 e1a0 0d87 203b 813f 183d 50c4 88bc
00000070: 0cee 9ca6 c800 acbd 9f87 0080 4d2c 0c00

onnx::Conv_89 f4 [32, 16, 1, 1]
-0.0 -0.0 -0.0 0.0 0.0 0.0 0.0 0.0
-0.0 -0.0 -0.0 -0.0 0.0 -0.0 -0.0 -0.0
0.17121333 0.302845 0.26599935 -0.048866723 0.0076495 3.196e-42 -0.11018139 0.037082072
0.092479676 0.03043424 0.091485076 0.0016919876 0.114812866 -0.17136851 0.4934025 -0.011670109
-0.0 0.0 0.0 0.0 -0.0 -0.0 -0.0 -0.0
0.0 -0.0 -0.0 0.0 -0.0 0.0 -0.0 -0.0
-0.23590557 -0.17949699 -0.29793623 -0.20917942 0.032681435 -7.6158e-41 0.39299673 0.5013681
0.17778488 0.3010518 0.15239766 0.017123485 0.24813381 0.4360127 -0.14286609 0.32625943
0.13861465 0.07779955 -0.121790744 -0.06526841 -0.0014894423 -2.23462e-40 -0.16374889 0.04807663
0.014733118 -0.037620135 0.09651125 -0.01554036 -0.07784203 -0.095397286 -0.030447429 -0.1768602
-0.0 -0.0 -0.0 -0.0 -0.0 -0.0 0.0 0.0
-0.0 -0.0 -0.0 -0.0 -0.0 -0.0 0.0 0.0
-0.0 0.0 -0.0 -0.0 0.0 0.0 0.0 -0.0
-0.0 0.0 -0.0 -0.0 -0.0 0.0 -0.0 -0.0
0.0 -0.0 -0.0 0.0 -0.0 -0.0 -0.0 0.0
-0.0 0.0 0.0 0.0 -0.0 -0.0 -0.0 0.0
-0.05469668 0.092357546 0.29446882 -0.09057863 0.0025106112 3.4409e-41 -0.072789006 0.131148
0.096038625 0.018231379 0.15425682 0.008228621 0.22138779 0.123382024 -0.2718888 -0.020716129
-1.3753848e-07 -2.25336e-06 -1.023128e-06 2.1644984e-08 -3.856e-42 -7.6e-43 1.4240839e-12 -1.2031406e-06
3.2797368e-07 2.804989e-17 -1.8925432e-09 2.63e-43 2.3388608e-07 -2.2295653e-07 8.530441e-07 -3.263639e-08
0.0019441394 -0.047812697 0.026630083 -0.015976371 0.0012375525 -9.252e-41 -0.03360751 0.012383466
0.0065173693 -0.017381685 -0.031314764 -0.0005992305 -0.02466495 -0.03641733 -0.06368965 0.028170066
0.019774044 0.013346945 -0.04552493 -0.040326003 -0.0005061085 7.1836e-41 -0.013734352 -0.033420853
-0.006571366 -0.0138596585 -0.012541658 0.0023367354 -0.05277346 0.05880632 0.035857733 -0.04320735
-0.0 0.0 -0.0 0.0 -0.0 -0.0 0.0 0.0
0.0 -0.0 -0.0 -0.0 -0.0 -0.0 0.0 0.0
-0.033514503 0.17756072 -0.05397293 -0.1118393 0.0017093725 -1.39997e-40 -0.13316534 -0.036297254
-0.097445115 -0.036951706 -0.00015915387 -0.0042444225 -0.14305396 0.04984898 0.31270838 -0.16706346
0.0004148572 -0.0017462787 0.00066619756 -0.0046073864 0.00022517244 -2.463e-42 0.005508905 0.0014265778
-0.0018177052 0.0032126522 -0.0026470497 0.0004257191 0.0030441282 -0.0027385745 -0.0017798423 -0.0015269527
-2.020206e-06 -4.503072e-05 -7.189958e-07 -1.1727738e-06 7.68e-43 6.98e-43 -1.7513004e-09 -5.9839743e-07
9.1562285e-08 -2.8374812e-15 -8.2497245e-08 -1.8762143e-22 1.7769128e-07 3.3671836e-06 -1.4275939e-07 3.4133546e-07
00000000: 0000 0080 0000 0080 0000 0080 0000 0000
00000010: 0000 0000 0000 0000 0000 0000 0000 0000
00000020: 0000 0080 0000 0080 0000 0080 0000 0080
00000030: 0000 0000 0000 0080 0000 0080 0000 0080
00000040: 8c52 2f3e 800e 9b3e 1131 883e 7928 48bd
00000050: a8a8 fa3b e908 0000 c8a6 e1bd 5fe3 173d
00000060: fc65 bd3d 3a51 f93c 875c bb3d afc5 dd3a
00000070: 0223 eb3d 3a7b 2fbe 419f fc3e fc33 3fbc
00000080: 0000 0080 0000 0000 0000 0000 0000 0000
00000090: 0000 0080 0000 0080 0000 0080 0000 0080
000000a0: 0000 0000 0000 0080 0000 0080 0000 0000
000000b0: 0000 0080 0000 0000 0000 0080 0000 0080
000000c0: 3b91 71be 0fce 37be 198b 98be 2133 56be
000000d0: f8dc 053d 4cd4 0080 de36 c93e a959 003f
000000e0: 3d0d 363e 7623 9a3e 220e 1c3e 8d46 8c3c
000000f0: ca16 7e3e 0e3d df3e 7d4b 12be 7a0b a73e
00000100: 00f1 0d3e 5f55 9f3d 6d6d f9bd 72ab 85bd
00000110: 6439 c3ba ec6e 0280 caad 27be 00ec 443d
00000120: 2d63 713c 9217 1abd b1a7 c53d fe9c 7ebc
00000130: a46b 9fbd a75f c3bd e36c f9bc d71a 35be
00000140: 0000 0080 0000 0080 0000 0080 0000 0080
00000150: 0000 0080 0000 0080 0000 0000 0000 0000
00000160: 0000 0080 0000 0080 0000 0080 0000 0080
00000170: 0000 0080 0000 0080 0000 0000 0000 0000
00000180: 0000 0080 0000 0000 0000 0080 0000 0080
00000190: 0000 0000 0000 0000 0000 0000 0000 0080
000001a0: 0000 0080 0000 0000 0000 0080 0000 0080
000001b0: 0000 0080 0000 0000 0000 0080 0000 0080
000001c0: 0000 0000 0000 0080 0000 0080 0000 0000
000001d0: 0000 0080 0000 0080 0000 0080 0000 0000
000001e0: 0000 0080 0000 0000 0000 0000 0000 0000
000001f0: 0000 0080 0000 0080 0000 0080 0000 0000
00000200: a009 60bd f425 bd3d 9ec4 963e 4a81 b9bd
00000210: 1189 243b eb5f 0000 6712 95bd a94b 063e
00000220: e6af c43d f959 953c 80f5 1d3e 57d1 063c
00000230: 7bb3 623e b7af fc3d 0235 8bbe dfb4 a9bc
00000240: 4aae 13b4 6e38 17b6 6952 89b5 d3ed b932
00000250: c00a 0080 1e02 0080 086c c82b 997b a1b5
00000260: 5c14 b034 775b 0124 f90d 02b1 bc00 0000
00000270: 1e22 7b34 d365 6fb4 bffc 6435 172c 0cb3
00000280: 7ed2 fe3a 3fd7 43bd 5527 da3c e1e0 82bc
00000290: 5f35 a23a e801 0180 07a8 09bd 05e4 4a3c
000002a0: a88f d53b 0964 8ebc e943 00bd ae15 1dba
000002b0: 260e cabc 572a 15bd b86f 82bd e9c4 e63c
000002c0: 2dfd a13c 25ad 5a3c 5978 3abd e12c 25bd
000002d0: 5eac 04ba 40c8 0000 0c06 61bc 4ee4 08bd
000002e0: 9d54 d7bb 9f13 63bc 877b 4dbc ea23 193b
000002f0: fc28 58bd e5de 703d 8fdf 123d 31fa 30bd
00000300: 0000 0080 0000 0000 0000 0080 0000 0000
00000310: 0000 0080 0000 0080 0000 0000 0000 0000
00000320: 0000 0000 0000 0080 0000 0080 0000 0080
00000330: 0000 0080 0000 0080 0000 0000 0000 0000
00000340: 8146 09bd 7ad2 353e b812 5dbd 010c e5bd
00000350: 060d e03a 4186 0180 7f5c 08be 6eac 14bd
00000360: 4e91 c7bd ac5a 17bd 8be2 26b9 cc14 8bbb
00000370: bd7c 12be 722e 4c3d 501b a03e af12 2bbe
00000380: 3181 d939 64e3 e4ba c3a3 2e3a 8ff9 96bb
00000390: 441c 6c39 de06 0080 0b84 b43b 02fc ba3a
000003a0: 1140 eeba 5c8b 523b 207a 2dbb 0d33 df39
000003b0: ff7f 473b a879 33bb 9949 e9ba 0824 c8ba
000003c0: e092 07b6 5edf 3cb8 0401 41b5 3368 9db5
000003d0: 2402 0000 f201 0000 68b2 f0b0 8fa1 20b5
000003e0: e6a0 c433 4a76 4ca7 5729 b1b3 05d2 629b
000003f0: 68cb 3e34 c6f7 6136 6749 19b4 ca40 b734

onnx::Conv_90 f4 [32]
5.53764e-40 -0.36928096 -4.2974e-41 -0.3869529 0.071341194 1.815e-42 -6.083e-42 1.1192e-40
-0.14727479 -0.00071337004 0.07160887 -0.013879988 -1.7330342e-35 -0.01420443 -0.02561369 -6.292957e-05
-7.68304e-40 0.08433965 -6.038e-42 -0.0052941255 0.03153366 -3.879188e-07 -5.3876e-41 -4.6229848e-10
-3.8205505e-19 0.083563834 -0.052348446 -0.19197965 -1.0889197e-15 0.014139771 -4.8652e-41 1.117918e-39
00000000: ab07 0600 6512 bdbe cb77 0080 b11e c6be
00000010: 551b 923d 0f05 0000 f510 0080 fd37 0100
00000020: 34cf 16be 7401 3bba aca7 923d e468 63bc
00000030: ae49 b885 b3b9 68bc cdd3 d1bc 0ef9 83b8
00000040: b85d 0880 44ba ac3d d510 0080 587a adbb
00000050: 7029 013d 2743 d0b4 2f96 0080 ba26 feaf
00000060: 8786 e1a0 8423 ab3d 536b 56bd 5096 44be
00000070: 0cee 9ca6 80aa 673c 9f87 0080 4d2c 0c00

onnx::Conv_92 f4 [64, 32, 3, 3]
1.42738e-40 1.04918e-40 -6.6314e-41 -1.1857e-40 7.0696e-41 -1.1124e-40 2.66961e-40 -1.53889e-40
-3.2108e-41 -0.09732312 0.13522004 -0.019161046 -0.07854639 0.074014895 -0.00342552 -0.073071875
0.13326783 0.0043896055 -9.3775e-41 5.7382e-41 5.7382e-41 1.34813e-40 1.5732e-41 2.07961e-40
-2.46706e-40 1.0046e-41 2.0727e-41 -0.039298717 -0.06494862 -0.02631841 0.008115415 -0.005000528
-0.0026700238 -0.028292427 -0.030030863 -0.06007395 -0.053104136 -0.09224224 -0.050513197 -0.036265984
-0.051773775 -0.015304589 -0.04924039 -0.053565398 0.0056718094 -8.6139e-41 -2.4102e-41 -1.63827e-40
6.2162e-41 -6.9516e-41 1.01929e-40 1.41789e-40 -1.12181e-40 -9.7448e-41 1.84512e-40 1.72032e-40
7.725e-41 -2.02621e-40 -8.5182e-41 1.68011e-40 5.0787e-41 1.74962e-40 -8.073e-42 -1.15838e-40
-1.33419e-40 -3.5848e-41 2.17437e-40 9.0325e-41 -9.8967e-41 2.89973e-40 1.15268e-40 2.12707e-40
-0.030570384 -0.019532302 0.0061627813 0.03694333 0.04451373 0.04216387 -0.057697218 -0.01136972
-0.045669 -1.2643145e-09 -3.0102587e-11 -1.3943418e-09 -2.6113158e-09 -8.995703e-12 -5.2287036e-10 -5.3651583e-10
9.4931e-27 -2.8235496e-34 -0.059688985 -0.04356876 -0.015696723 -0.039262544 -0.050695933 -0.055986814
-0.05252961 -0.049962588 -0.043627832 -0.04365077 -0.04857901 -0.06021188 -0.03442426 -0.034962278
-0.022711145 0.0011133454 -0.0062801535 -0.015001063 1.3401333e-35 -1.3918809e-35 -1.3918809e-35 -3.0362315e-36
-9.46263e-40 -9.22169e-40 -3.0362315e-36 -9.38315e-40 -9.36598e-40 0.0032044628 0.13131884 0.03614008
-0.049576577 0.0432419 -0.026115615 -0.12505768 -0.002685902 -0.09316135 0.00642143 0.0047215545
-0.00912731 -0.05777619 -0.015755147 0.026615528 -0.011913522 -0.015084393 0.0076564145 -1.3627502e-33
-1.5376241e-21 -6.1554377e-16 -8.879003e-37 -4.6181733e-18 3.5438643e-15 -3.1139286e-22 8.955192e-20 -7.679175e-15
2.2567e-41 5.938e-41 6.3399e-41 -2.26458e-40 2.10974e-40 5.2843e-41 -6.1294e-41 7.5921e-41
-1.65453e-40 -0.0006866933 0.009917965 0.0509065 -0.0012302554 0.01405139 0.05372809 -0.014839739
-0.0001208478 0.05396405 -1.9521e-41 -4.2451e-41 -9.6556e-41 -1.1341e-41 -7.222e-42 -1.8234e-41
1.5922e-41 -2.1733e-41 -2.998e-41 -0.02965298 0.0050134333 -0.03633066 0.08036204 0.073655814
0.05068953 -0.06692553 -0.02995667 -0.060402494 0.027705949 -0.06058657 0.046400063 -0.06733346
-0.13731207 -0.04443136 0.028690133 -0.08654453 -0.018483866 -8.8376e-41 2.5117e-41 2.5117e-41
-2.3103e-41 2.2513e-40 3.08025e-40 -2.3103e-41 -1.64016e-40 2.17536e-40 2.8558e-41 7.2743e-41
1.51454e-40 1.9265e-41 2.89e-42 -2.74877e-40 -1.1559e-40 -4.5801e-41 1.46419e-40 7.1249e-41
1.05892e-40 1.6219e-41 8.685e-41 -7.4237e-41 -6.1856e-41 -3.418e-41 -5.739e-41 8.9351e-41
-7.9528e-41 -7.8777e-41 2.6173e-41 -7.1654e-41 2.9797e-41 9.4766e-41 -6.28e-43 7.876e-41
-3.2331e-41 -0.01986954 -0.015103187 -0.05071789 0.0451465 0.051481068 0.006991903 0.035048947
0.061730307 0.029230021 -0.05231937 0.010122871 0.021972869 -0.07380354 -0.024932934 0.033304267
-0.04130731 -0.018814135 -0.03179059 0.1456204 0.13736348 0.16586629 0.016256655 -0.030504532
0.07801254 0.07005348 0.0427642 0.058972895 1.7344834e-26 6.0321982e-27 6.0314887e-27 3.4680418e-26
00000000: e58d 0100 7824 0100 dbb8 0080 864a 0180
00000010: 12c5 0000 1836 0180 2ee8 0200 fbac 0180
00000020: 8159 0080 5851 c7bd 1f77 0a3e a0f7 9cbc
00000030: eedc a0bd 1f95 973d b07e 60bb b5a6 95bd
00000040: 5d77 083e aed6 8f3b 6805 0180 f59f 0000
00000050: f59f 0000 ce77 0100 db2b 0000 b643 0200
00000060: b7af 0280 011c 0000 c739 0000 b1f7 20bd
00000070: c803 85bd b599 d7bc 85f6 043c 78db a3bb
00000080: 91fb 2ebb 85c5 e7bc 4903 f6bc 1a10 76bd
00000090: b983 59bd 80e9 bcbd ede6 4ebd a48b 14bd
000000a0: bd10 54bd 19c0 7abc 4bb0 49bd 6467 5bbd
000000b0: 96da b93b 1ff0 0080 3043 0080 afc8 0180
000000c0: 48ad 0000 c8c1 0080 231c 0100 408b 0100
000000d0: b738 0180 a50f 0180 5802 0200 8edf 0100
000000e0: 57d7 0000 d334 0280 74ed 0080 59d4 0100
000000f0: 938d 0000 b9e7 0100 8116 0080 e942 0180
00000100: eb73 0180 ee63 0080 205e 0200 cafb 0000
00000110: e113 0180 5428 0300 5241 0100 f150 0200
00000120: be6e fabc 3502 a0bc 28f1 c93b e451 173d
00000130: 0754 363d 06b4 2c3d eb53 6cbd 1048 3abc
00000140: 6b0f 3bbd 1dc4 adb0 8064 04ae 0aa3 bfb0
00000150: c172 33b1 0b41 1ead bbb9 0fb0 f279 13b0
00000160: bc07 3c14 35a8 bb87 707c 74bd 2875 32bd
00000170: 6a96 80bc c3d1 20bd 8aa6 4fbd 6e52 65bd
00000180: 4a29 57bd 92a5 4cbd 19b3 32bd 26cb 32bd
00000190: c9fa 46bd bba0 76bd 7400 0dbd 9b34 0fbd
000001a0: b90c babc aced 913a bfc9 cdbb 05c7 75bc
000001b0: e681 8e05 9a02 9485 9a02 9485 a225 8184
000001c0: cc4d 0a80 a20a 0a80 a225 8184 a437 0a80
000001d0: db32 0a80 f701 523b 7278 063e 9f07 143d
000001e0: cf10 4bbd 6b1e 313d 6af0 d5bc 1f0f 00be
000001f0: f505 30bb 61cb bebd dc6a d23b 45b7 9a3b
00000200: b68a 15bc baa6 6cbd f010 81bc cf08 da3c
00000210: ef30 43bc 8824 77bc a9e2 fa3b fc6c e288
00000220: f45b e89c 1d6b 31a6 8311 9783 6a61 aaa2
00000230: c25c 7f27 b639 bc9b d072 d31f f255 0aa8
00000240: e83e 0000 87a5 0000 bbb0 0000 4677 0280
00000250: 1c4c 0200 4e93 0000 ddaa 0080 a3d3 0000
00000260: 37cd 0180 3503 34ba f67e 223c 5683 503d
00000270: 8540 a1ba cd37 663c fc11 5c3d 6022 73bc
00000280: ab6f fdb8 6809 5d3d 6b36 0080 5676 0080
00000290: 290d 0180 9d1f 0080 2214 0080 d432 0080
000002a0: 622c 0000 953c 0080 9253 0080 ceea f2bc
000002b0: ba47 a43b 75cf 14bd da94 a43d dcd8 963d
000002c0: d39f 4f3d 4110 89bd b167 f5bc 9b68 77bd
000002d0: 96f7 e23c a029 78bd fe0d 3e3d 20e6 89bd
000002e0: 899b 0cbe a8fd 35bd 9207 eb3c 423e b1bd
000002f0: 7a6b 97bc 5bf6 0080 0446 0000 0446 0000
00000300: 6740 0080 9273 0200 a65a 0300 6740 0080
00000310: 36c9 0180 675e 0200 9c4f 0000 c7ca 0000
00000320: 31a6 0100 b435 0000 0e08 0000 3ffe 0280
00000330: 3842 0180 ad7f 0080 2898 0100 9dc6 0000
00000340: 2f27 0100 362d 0000 1af2 0000 f1ce 0080
00000350: 6eac 0080 485f 0080 fb9f 0080 13f9 0000
00000360: b1dd 0080 99db 0080 f648 0000 bec7 0080
00000370: 1053 0000 2b08 0100 c001 0080 8ddb 0000
00000380: 205a 0080 72c5 a2bc 5c73 77bc 90bd 4fbd
00000390: 89eb 383d d0dd 523d 551c e53b 7c8f 0f3d
000003a0: ebd8 7c3d cc73 ef3c d64c 56bd 66da 253c
000003b0: 7200 b43c 4f26 97bd 2740 ccbc 0e6a 083d
000003c0: db31 29bd 1a20 9abc da36 02bd 841d 153e
000003d0: 03a9 0c3e dad8 293e ad2c 853c a4e4 f9bc
000003e0: 0ac5 9f3d 3378 8f3d 8429 2f3d 908d 713d
000003f0: 61c6 ab14 c2f5 ee13 90ee ee13 a7ba 2b15

onnx::Conv_93 f4 [64]
0.027088776 -0.0025158748 3.4677e-41 3.6085e-41 -5.2585e-41 -2.2484e-41 2.3078e-41 -2.092e-42
-4.545e-41 -4.69e-41 1.8364e-41 -5.2902e-41 -1.5898e-41 7.811e-42 2.771e-41 -1.3866e-41
-2.8498e-41 0.05318334 -4.055e-42 1.3619e-41 1.538e-41 -2.6688e-41 -2.0326e-41 -1.012e-41
3.098e-41 -1.3929e-41 -3.3996e-41 2.8402e-41 -3.5743e-41 1.7648e-41 -2.4507e-41 0.002951187
1.256e-41 2.5602e-41 -1.2414e-41 1.2878e-41 1.1485e-41 -3.0551e-41 8.282e-42 -1.1784e-41
-1.879e-41 1.513e-42 3.4933e-41 3.2224e-41 -3.4706e-41 3.9375e-41 2.8523e-41 8.668e-42
2.2644e-41 -2.6024e-41 -3.7067e-41 -9.342656e-06 3.2193e-41 -4.4526e-41 -4.5993e-41 -0.053891204
1.4389e-41 1.3433e-41 2.8672e-41 -3.2852e-41 4.2427e-41 0.04851745 3.6934e-41 3.5126e-41
00000000: 48e9 dd3c 60e1 24bb aa60 0000 9764 0000
00000010: 9692 0080 ad3e 0080 5540 0000 d505 0080
00000020: b27e 0080 bd82 0080 3133 0000 7893 0080
00000030: 512c 0080 c615 0000 3f4d 0000 a726 0080
00000040: 714f 0080 c6d6 593d 4e0b 0080 f725 0000
00000050: e02a 0000 654a 0080 a938 0080 361c 0080
00000060: 5c56 0000 d426 0080 c45e 0080 2c4f 0000
00000070: a363 0080 3231 0000 5144 0080 b468 413b
00000080: 0323 0000 5e47 0000 9b22 0080 e623 0000
00000090: 0420 0000 2a55 0080 1617 0000 d920 0080
000000a0: 6134 0080 3804 0000 6161 0000 d459 0000
000000b0: bf60 0080 c36d 0000 834f 0000 2a18 0000
000000c0: 1f3f 0000 8b48 0080 5467 0080 67be 1cb7
000000d0: be59 0000 1f7c 0080 3680 0080 06bd 5cbd
000000e0: 1c28 0000 7225 0000 ed4f 0000 945b 0080
000000f0: 4576 0000 3cba 463d f566 0000 eb61 0000

onnx::Conv_95 f4 [64, 64, 3, 3]
0.006126161 -0.02105207 -0.013243108 0.029608496 0.0033437996 0.014025026 0.017592916 -0.0021236334
0.01197249 0.0064591183 0.005967321 0.0012671242 0.06455279 0.06306802 0.064784475 0.0037034384
0.008403444 0.003498139 1.72916e-40 3.82965e-40 1.71819e-40 6.611e-41 -2.86229e-40 -1.97676e-40
4.24158e-40 1.25022e-40 -2.75867e-40 -2.5687e-41 -2.9461e-41 -4.63202e-40 1.6217e-41 1.27497e-40
-4.37086e-40 4.42375e-40 -2.82761e-40 -4.58976e-40 3.23885e-40 -1.56201e-40 9.834e-41 1.4542e-40
3.11883e-40 -1.40696e-40 -3.69518e-40 -1.28514e-40 2.34946e-40 -4.29616e-40 -2.54124e-40 5.5262e-41
2.9699e-41 -3.26507e-40 -1.10117e-40 2.65651e-40 -9.2735e-41 5.846e-41 -2.33828e-40 -2.82907e-40
-4.27525e-40 1.32933e-40 -2.00693e-40 3.31242e-40 -3.05374e-40 9.5075e-41 2.07993e-40 -2.88625e-40
-1.69627e-40 3.6965e-41 5.438e-41 -3.80876e-40 2.91756e-40 -9.9346e-41 1.13337e-40 2.6712e-40
2.84185e-40 -1.29474e-40 -6.4743e-41 4.41279e-40 2.88625e-40 9.4114e-41 2.5777e-41 1.8974e-41
-7.7716e-41 -2.27341e-40 -2.90638e-40 -4.08844e-40 -2.2438e-40 -3.41254e-40 -3.02232e-40 -2.92784e-40
-2.64962e-40 4.27786e-40 -2.8684e-40 -1.12206e-40 -3.21172e-40 8.721e-41 -3.2355e-41 -9.8635e-41
-1.13563e-40 4.3764e-40 -3.70309e-40 -3.05057e-40 8.7514e-41 -5.1917e-41 -5.3963e-41 1.5731e-41
1.86918e-40 6.923e-41 -4.09681e-40 8.0496e-41 4.38634e-40 2.40924e-40 1.97856e-40 -9.1628e-41
-1.00295e-40 2.83743e-40 2.89699e-40 -2.6321e-40 -3.68399e-40 1.8207e-40 9.5437e-41 2.30144e-40
-3.47198e-40 -3.4347e-40 2.62204e-40 -2.51909e-40 3.84491e-40 2.82534e-40 -2.72183e-40 -1.52585e-40
-1.49387e-40 1.571e-42 -2.71573e-40 -2.78669e-40 3.2385e-40 1.72994e-40 1.3022e-40 5.9555e-41
-1.27847e-40 -2.29544e-40 -3.60183e-40 1.38301e-40 -7.2224e-41 3.43729e-40 -4.9069e-41 -4.11997e-40
2.18514e-40 7.1151e-41 -2.72691e-40 -1.53682e-40 3.89554e-40 4.5441e-41 -1.05099e-40 4.84753e-40
-3.00492e-40 -0.04858419 -0.025418464 -0.006050837 0.061838865 0.08761631 0.12091979 0.006694902
0.02613348 0.030376121 1.10987e-40 2.35082e-40 -2.87608e-40 -4.21513e-40 2.8101e-40 4.77498e-40
4.14913e-40 -4.63101e-40 -1.09427e-40 -3.00548e-40 1.58868e-40 -6.3206e-41 -1.10274e-40 4.01612e-40
1.17269e-40 7.086e-42 1.90783e-40 3.6333e-41 -3.33908e-40 -2.03506e-40 -3.10267e-40 -2.3596e-41
-2.66589e-40 -4.63101e-40 2.05496e-40 5.655e-41 -3.02243e-40 -4.2592e-40 -3.90176e-40 -2.28742e-40
2.98954e-40 -2.0466e-41 1.5271e-40 -2.75336e-40 -2.4828e-41 -3.7283e-40 -2.8331e-41 1.40584e-40
-2.63188e-40 2.97711e-40 -2.22832e-40 -1.21191e-40 -6.1443e-41 -3.66002e-40 4.12347e-40 -3.0943e-40
-1.23033e-40 -1.7114e-40 9.5278e-41 -3.32891e-40 -4.30372e-40 -1.18987e-40 1.48416e-40 -1.91494e-40
-1.3291e-40 -3.35151e-40 3.0806e-41 3.52351e-40 -3.24122e-40 3.40881e-40 -2.2829e-40 -4.13184e-40
-2.81257e-40 3.07656e-40 -1.81041e-40 -3.10685e-40 -3.7666e-41 2.2899e-40 -3.29252e-40 -4.43539e-40
-2.77879e-40 -3.00672e-40 5.5578e-41 -9.6577e-41 2.93869e-40 6.8156e-41 3.33637e-40 3.12651e-40
9.9132e-41 -3.59855e-40 -2.52982e-40 -3.89384e-40 -3.07407e-40 -1.55523e-40 4.36069e-40 -1.191e-40
-3.69043e-40 -6.8393e-41 -2.98615e-40 -9.8849e-41 4.79058e-40 2.43015e-40 -3.1186e-40 8.053e-41
00000000: f7bd c83b 6475 acbc 9ff9 58bc 848d f23c
00000010: a623 5b3b 39c9 653c 051f 903c a82c 0bbb
00000020: 4328 443c 03a7 d33b 8489 c33b a215 a63a
00000030: 4134 843d ce29 813d b9ad 843d 63b5 723b
00000040: 99ae 093c 0941 653b 05e2 0100 8d2b 0400
00000050: f6de 0100 4ab8 0000 e41d 0380 0a27 0280
00000060: 619e 0400 835c 0100 0101 0380 9b47 0080
00000070: 2052 0080 380b 0580 352d 0000 6963 0100
00000080: 6bc2 0480 29d1 0400 3914 0380 70ff 0480
00000090: dc86 0300 6db3 0180 2212 0100 5f95 0100
000000a0: 6765 0300 3488 0180 1106 0480 3f66 0180
000000b0: ef8e 0200 98ad 0480 65c4 0280 0c9a 0000
000000c0: ca52 0000 2b8e 0380 f632 0180 87e4 0200
000000d0: 8202 0180 f6a2 0000 d18b 0280 a114 0380
000000e0: c4a7 0480 9072 0100 732f 0280 5e9b 0300
000000f0: 4253 0380 0809 0100 cd43 0200 9224 0380
00000100: dad8 0180 0b67 0000 9797 0000 ba25 0480
00000110: 4c2d 0300 f014 0180 f03b 0100 9fe8 0200
00000120: 3118 0300 ec68 0180 7ab4 0080 1bce 0400
00000130: 9224 0300 5a06 0100 db47 0000 e434 0000
00000140: a4d8 0080 bc79 0280 2e2a 0380 b173 0480
00000150: 7b71 0280 47b7 0380 804a 0380 2a30 0380
00000160: 9be2 0280 7ea8 0400 981f 0380 c938 0180
00000170: 4c7f 0380 1bf3 0000 315a 0080 f412 0180
00000180: 913c 0180 f6c3 0400 4508 0480 6052 0380
00000190: f4f3 0000 b990 0080 6d96 0080 da2b 0000
000001a0: 0d09 0200 fcc0 0000 0676 0480 64e0 0000
000001b0: bcc6 0400 999f 0200 8b27 0200 6cff 0080
000001c0: 9517 0180 f616 0300 9027 0300 b9dd 0280
000001d0: f202 0480 89fb 0100 0a0a 0100 8c81 0200
000001e0: d9c7 0380 74bd 0380 ebda 0200 38be 0280
000001f0: ce2f 0400 9713 0300 bcf6 0280 58a9 0180
00000200: 6ea0 0180 6104 0000 09f5 0280 d108 0380
00000210: c386 0300 3de2 0100 006b 0100 04a6 0000
00000220: 6364 0180 e07f 0280 0bec 0380 8781 0100
00000230: 55c9 0080 2dbe 0300 c988 0080 7b7c 0480
00000240: 2161 0200 57c6 0000 27f8 0280 67ac 0180
00000250: eb3d 0400 ac7e 0000 f924 0180 4b47 0500
00000260: a645 0380 3700 47bd 623a d0bc 1a46 c6bb
00000270: c04a 7d3d 2e70 b33d cba4 f73d e960 db3b
00000280: e115 d63c 58d7 f83c 6335 0100 508f 0200
00000290: bc21 0380 0297 0480 570f 0300 1233 0500
000002a0: 9c84 0400 f00a 0580 0a31 0180 ce45 0380
000002b0: dcba 0100 31b0 0080 6633 0180 885f 0400
000002c0: e646 0100 c113 0000 d313 0200 4865 0000
000002d0: cda2 0380 4b37 0280 e660 0380 c741 0080
000002e0: 24e7 0280 f00a 0580 d73c 0200 a39d 0000
000002f0: 884a 0380 4ba3 0480 a73f 0480 a47d 0280
00000300: 5d41 0300 0d39 0080 b1a9 0100 86ff 0280
00000310: 3645 0080 4c0f 0480 fa4e 0080 e487 0100
00000320: a9dd 0280 e63d 0300 2a6d 0280 d551 0180
00000330: 47ab 0080 44fc 0380 757d 0400 915e 0380
00000340: f756 0180 12dd 0180 9909 0100 f79f 0380
00000350: b4af 0480 b04b 0180 b99d 0100 cf15 0280
00000360: 8072 0180 44a6 0380 e055 0000 36d6 0300
00000370: 8587 0380 3db6 0300 617c 0280 ca7f 0480
00000380: 0810 0380 9f59 0300 abf8 0180 1062 0380
00000390: ff68 0080 557e 0200 d295 0380 68d4 0480
000003a0: 9d06 0380 2746 0380 ee9a 0000 380d 0180
000003b0: 3033 0300 febd 0000 0ba2 0300 8b67 0300
000003c0: 5714 0100 21eb 0380 36c1 0280 723d 0480
000003d0: ed58 0380 89b1 0180 95bf 0400 014c 0180
000003e0: be04 0480 a7be 0080 6b40 0380 8d13 0180
000003f0: 6b37 0500 6da5 0200 5765 0380 7ce0 0000

onnx::Conv_96 f4 [64]
-0.0073126517 0.02628972 -9.790836e-09 4.87458e-40 -1.05747654e-10 0.05379027 7.8698923e-38 -0.07199065
-0.021970384 0.13188607 -1.082394e-39 -1.29123e-15 -1.0491e-40 0.0130694695 0.17892638 -0.008315509
-0.09521643 -9.828519e-13 -0.0002999138 -1.3663912e-18 1.4588e-41 -6.0574714e-09 -4.627406e-18 -5.0972346e-09
-0.01906085 -1.6211668e-07 0.15908799 -5.661574e-39 0.03593145 -2.1864e-41 -0.01432563 -0.09874203
-6.0780463e-26 -4.4284048e-13 -0.022775747 -4.8849818e-09 -1.14502e-25 0.093076825 0.17632595 -1.22209e-40
-7.5228126e-31 0.05843372 -1.8412695e-19 -4.595e-42 -0.055104658 0.30310845 -0.006662067 -0.02086223
0.0010263771 -3.300761e-38 -1.6587029e-21 -7.5581994e-17 1.223e-42 -0.0457008 0.01904878 0.0070933253
0.10838799 -0.017512389 -0.0057425424 -8.2125404e-11 -1.1469981e-27 -0.006085396 -0.05017042 0.07187917
00000000: f89e efbb 8a5d d73c 8d34 28b2 d64e 0500
00000010: a38a e8ae 3053 5c3d 253d d601 d56f 93bd
00000020: 3cfb b3bc 240d 073e 46c9 0b80 fb15 baa6
00000030: 7224 0180 5421 563c 7a38 373e c63d 08bc
00000040: d500 c3bd f952 8aab c03d 9db9 cda4 c9a1
00000050: aa28 0000 1522 d0b1 9db8 aaa2 c023 afb1
00000060: 8025 9cbc 4b12 2eb4 f6e7 223e 2aa6 3d80
00000070: db2c 133d f33c 0080 0cb6 6abc 4339 cabd
00000080: 327c 9695 0a4c f9aa 3494 babc c1d8 a7b1
00000090: 22bf 0d96 109f be3d ca8e 343e ab54 0180
000000a0: 1521 748d 3258 6f3d f560 59a0 cf0c 0080
000000b0: 6cb5 61bd 0831 9b3e 784d dabb 44e7 aabc
000000c0: 8087 863a e5b5 3381 f6a7 fa9c bc47 aea4
000000d0: 6903 0000 c330 3bbd 300c 9c3c 206f e83b
000000e0: 86fa dd3d 2476 8fbc f02b bcbb 7e98 b4ae
000000f0: c5bf b592 0068 c7bb 807f 4dbd 6335 933d
