cmd/ai/datas/models/daisy.onnx (onnx, 302121 bytes, 16 tensors)

fc.weight f4 [2, 256]
00000000: f216 d9bb 464e 353d 22ed a6bd ad58 6abd
00000010: dcb8 78bd a646 82bd a40f dbbc 4e44 2ebc
00000020: a4bf 68bc 6a49 b3bc b51d d7bc 6b89 913d
00000030: e854 3bbc a0ee 183d 0b19 9cbd 02e9 a5bd
00000040: e72b 7a3d efa7 513d 83cc e13c f44a 603d
00000050: 79c8 27bd b68f 6b3d e86a 053d 08c2 2c3d
00000060: 4ded 613d 9c89 ce3b 347a 3bbc db4a 90bd
00000070: ce77 703c a19e 18bd 08cb d4bb 5960 113d
00000080: 5ef6 723d 8264 f13c d133 b93d 3e6b b63d
00000090: 022f 95bc 1d70 14bd 58df ac3b 9005 553c
000000a0: 3b20 9a3c 3cf5 1ebd ce22 843d 6ce6 993d
000000b0: 8cc5 85bc 6b2f 9fbc f8aa 013d a846 85bd
000000c0: 1504 2e3d 1641 033d e030 cb3d fca5 e83c
000000d0: 0e33 423d 668e 6f3d f761 563d 58d0 b33d
000000e0: 256a 6d3d 949a 9b3b b60a 9c3d 826e 9f3d
000000f0: d105 ffbc 0f51 19bc fb9e 2cbd f784 de3c
00000100: a167 3d3d f579 533d 4c38 b4bd 04e9 9fbd
00000110: 2549 133c 3636 13bd 39ab 2a3d 18b6 673a
00000120: 7ae9 bc3c c59c 243d e19e 18bd 6913 293b
00000130: d1ff 86bc 1510 2fbd d6a0 45bb 666c 2b3d
00000140: 4ea6 c0bc 0b95 473c f229 92bd 3fc5 cdbc
00000150: b6db e6bc f2a4 b03c 7e9b bf3c 8559 8dbd
00000160: 9c6d 493d eb7a cbbd 9b97 c53c bc81 81bd
00000170: 3ec5 4bbd 790c c7bd ff29 b1ba 334c b2bd
00000180: 0b28 133d e51f 14bd f318 bc3c f06a 0e3b
00000190: e463 323d e281 11bd a7f1 9bbc cbe2 0a3d
000001a0: 47a2 97ba a8ba 42bb dbbc 93bc 0824 47bd
000001b0: 869a 00bd a444 f23c c8eb 9a3d 7c97 a5bc
000001c0: d565 a7bc 4cf9 123d e46e 5bbd c19e 41bd
000001d0: 4a0d 22bd 1dd1 dabd a235 b4bb 736c c2bd
000001e0: 0b2c f73c 984a 1cba fdc9 713d 377a 513b
000001f0: 605d 91bd 1870 4cbd 23d4 893c 4f04 523b
00000200: db9b 613d 5a16 debc e296 e2bc ca53 10bd
00000210: a843 32bd 70ea 263d 5da1 613d 9540 983d
00000220: 67a2 333d 341b 02bd 9db4 813d d333 56bd
00000230: d16c 7e3d d5a9 7a3d 8c47 1dbd b933 963d
00000240: 0e4c 1bbd 9e27 8eb8 e9cd f03c b327 acbc
00000250: 53c7 8f3b e349 383c dac9 48bd a19f 50bd
00000260: 1523 0bbd 6625 183d 00d7 85bc 3743 1a3d
00000270: 8fce b13c 78b6 0b3d f471 303d b235 a13c
00000280: 8971 0a3c 1310 133d 7296 a83d 5613 963d
00000290: 99cc 433d 3b88 8f3c 98bd e7bb dacb d2bd
000002a0: dce8 93bd ca23 79bd 1d53 ca3a 8226 6dbc
000002b0: 77bd 3b3d 3cdb c6bc b316 72bd 8506 adbc
000002c0: 84b5 693d 96c6 59bc e9cc b03d 8c3e cd3d
000002d0: 014f 6cbd ee0d 3e3c 0b31 06bd 3009 543d
000002e0: 8548 a4bd e7f4 b33b ea87 b2bd c274 90bc
000002f0: 8c8d b23b eb62 efbc f4ae a33c d31f 7b3d
00000300: 957b 67bd 4a77 5e3d 7114 1ebd 4b56 2e3c
00000310: 0bce 263d cacc a03d 1530 c6bc 5fc0 aabc
00000320: 08f4 e53c fc43 e0bb ac4b 883d 6a90 9e3d
00000330: f380 6b3d 2343 f13c 324d 8abc 3811 1d39
00000340: f447 c2bc f1bf 76bd 7b4f 72bd 7b71 883c
00000350: 0e08 2b3c ccf8 a5bc cc6a 82bc 032c a43d
00000360: 6c45 5abb df62 b9bd d8a8 87bd a036 57bd
00000370: 2a86 e3bc 4b5a 8bbc 1197 283d 541d 90bc
00000380: 918c 003d 4527 9cbd f710 71bd d6d6 833c
00000390: 5df0 1dbd b884 5e3d 530b 25bd 83a7 5ebc
000003a0: 43fb 3abd 40d7 58bd 1fed 9a3d 3903 f73b
000003b0: 852d 2bbd a8fe 033c ef7a 74bc 2059 ddbc
000003c0: 9ba0 e0bc e8fd 923c 2fe1 303d 37f6 8e3d
000003d0: a103 873d 7cbe f13a b76d e73c b577 95bd
000003e0: 46e1 1f3b bd3c babd 8691 c6ba 3e9c 96bd
000003f0: e0dc 863c c050 04bd 1386 84bd 414f 9bbd
-0.0066250497 0.0442641 -0.08150698 -0.057213474 -0.06072317 -0.06361131 -0.026740856 -0.010636402
-0.014205847 -0.021885592 -0.026259283 0.071062885 -0.011433817 0.037336946 -0.07621964 -0.08101083
0.061077025 0.051185545 0.02756334 0.05475898 -0.04096267 0.0575101 0.032572657 0.04217723
0.05515795 0.0063030254 -0.01144271 -0.070455275 0.014677001 -0.037260655 -0.00649393 0.035492275
0.059316985 0.029466871 0.09043086 0.089071736 -0.018210892 -0.036239732 0.005275648 0.0130018145
0.018814197 -0.038808092 0.06451951 0.075146526 -0.01632955 -0.01943179 0.03165719 -0.06507617
0.04248436 0.032044493 0.099214315 0.02839946 0.04741197 0.05848541 0.05233952 0.08779973
0.057962555 0.0047486518 0.076192304 0.077847496 -0.031130703 -0.009357705 -0.042143803 0.027163012
0.046241406 0.05162998 -0.087998 -0.07808116 0.008989607 -0.03594037 0.041667197 0.0008839085
0.023060549 0.04018857 -0.037260894 0.0025798923 -0.016479405 -0.042739946 -0.003015568 0.041851424
-0.0235168 0.012181531 -0.07136907 -0.025118468 -0.028180938 0.021563027 0.023389574 -0.0690184
0.049176797 -0.09935554 0.024120143 -0.06323573 -0.04974865 -0.09719176 -0.0013516544 -0.0870594
0.03592686 -0.03616323 0.022961115 0.002173122 0.043552294 -0.035524257 -0.019036127 0.033907693
-0.0011568748 -0.0029713307 -0.01803439 -0.048618346 -0.031397365 0.029573746 0.07564503 -0.020213835
-0.0204343 0.03588228 -0.05357255 -0.04727054 -0.039563455 -0.106844164 -0.0054995576 -0.09493341
0.030172369 -0.0005962043 0.05903052 0.0031963715 -0.07097888 -0.04991159 0.016824787 0.0032046025
0.055080276 -0.027110267 -0.027659837 -0.035236157 -0.043521553 0.04075092 0.05508553 0.07434193
0.04385605 -0.031764224 0.063332774 -0.052295517 0.062115494 0.06119712 -0.03839831 0.07334084
-0.03791433 -6.778467e-05 0.02939506 -0.021015024 0.004387775 0.011248085 -0.049020626 -0.050933484
-0.033969004 0.03714504 -0.016337872 0.037661757 0.02170494 0.034109563 0.043077424 0.019678924
0.00844992 0.035904 0.0823182 0.07327907 0.04780254 0.017521014 -0.007072162 -0.10292788
-0.07222149 -0.060825147 0.0015436147 -0.014474513 0.045834985 -0.024274461 -0.05910368 -0.021121273
0.057057872 -0.0132919755 0.086328335 0.100216955 -0.05769253 0.011600001 -0.032761615 0.051766574
-0.080216445 0.005491841 -0.0871733 -0.0176338 0.0054490026 -0.029221972 0.019980885 0.061309647
-0.05651434 0.05431298 -0.038593713 0.010640691 0.04072384 0.078515604 -0.02419285 -0.020843683
0.028070465 -0.006844042 0.06655058 0.077423885 0.057496022 0.029450959 -0.016882513 0.00014979101
-0.02371595 -0.060241643 -0.05915783 0.016655674 0.010438932 -0.020260237 -0.015920065 0.08016207
-0.0033305539 -0.09052061 -0.06624001 -0.05254233 -0.027773935 -0.017010828 0.041159693 -0.01759211
0.031384055 -0.076246776 -0.05885407 0.016093653 -0.038559306 0.05432579 -0.040294003 -0.013589743
-0.045649778 -0.052939653 0.075647585 0.007538226 -0.041791458 0.00805632 -0.014921888 -0.027020037
-0.027420333 0.017943338 0.0431835 0.069805555 0.06592489 0.001844361 0.028250558 -0.07298223
0.0024395748 -0.09093616 -0.001514957 -0.073540196 0.016462743 -0.03230357 -0.06470885 -0.07583476

fc.bias f4 [2]
00000000: 85f4 303c 9cd0 8d3d
0.0108004855 0.06924555

onnx::Conv_80 f4 [16, 3, 7, 7]
00000000: 865d 36be cc50 96be 3e8c 22be 524f d43b
00000010: 83ac 52be 9a97 893d 05ee 49be 2c83 48be
00000020: aa20 02be 371e 1f3e 15d3 2d3e 1b21 5ebd
00000030: 5d37 0abe 5861 823c 720f 36be 7d0c c73d
00000040: 2647 7e3d 80a0 5bbe 1cc2 043e f18b 9b3d
00000050: a677 8f3d 1c20 7c3e 9e97 213e 6368 013e
00000060: fa80 9c3c c22d 5dbd 96a3 003d 78d1 0e3e
00000070: 960a 843d e03d e7bd b0e5 083e e706 e9bd
00000080: 9d5d 113e 3d98 e03d 9bcc c83d 89d0 c4bd
00000090: d9dd 033c af27 353e 927b 19be 5ac5 d3bd
000000a0: 38f2 1cbe 49ff 863d fd38 8bbd 9e83 323e
000000b0: f15d 2bbe f044 abbd 622a d5bd 0153 06be
000000c0: 5739 4d3d a63b b13d b1c0 c5bd ee57 77be
000000d0: b6d8 c3bc b126 36be c678 ffbd dd61 84be
000000e0: fc07 24be f9f9 d2bc 86a5 153e 4048 35be
000000f0: 4a22 ec3d 34de 0abe f5fc 303e c19b 67bd
00000100: d03f cebc ff22 29be b81c e43c 0f68 2dbe
00000110: 8a3b 48be 5b5e 933d b6db 8a3b 966a cabd
00000120: 9448 ee3d b300 9ebc cd12 aabd 1b98 ab3d
00000130: 3504 20be 067a 773d 4a22 c43d 6177 bbbd
00000140: d881 773e 820e 8a3e 9a15 54bd 9404 9c3d
00000150: ab19 1e3e 1ba7 88bb a330 3b3c e048 523c
00000160: 6ad7 cfbd 66ff 8cbd 7ac2 0ebe 642b cabc
00000170: 0ed2 c23d 5139 8fbb d518 ed3d 29cc 363e
00000180: 7947 443e 1f5d 4a3e bb6a 86be 80fa 1ebe
00000190: 409e 5ebe 8da3 9bbd cacc 47be bf8a 95be
000001a0: 509e 8fbc e615 febd e15b 3abd ddcb 2cbe
000001b0: 3fdb 73bd 9ae1 bebd bd41 0abe 938f 6ebe
000001c0: 1e3b 00be a44a abbc 7859 30be 1a67 3ebe
000001d0: fae7 713d 3760 af3d 5254 e6bd 6f46 0b3c
000001e0: 180d c03d 6e4a 3d3b 9ede b73d 4d69 943c
000001f0: 3ba7 f8bc 95aa 573e 382c 323d 7ae9 463e
00000200: fca5 0e3e 99e7 003e 6aba 033e 0322 2a3e
00000210: 6d32 4a3e 4334 553e b629 c6bd 5ff8 06be
00000220: 17db 4c3e d4b2 6dbd a9a3 00be 2892 f43c
00000230: 6de4 223d 20f0 453e 6a81 c73d 1738 19be
00000240: faa4 83bc 0500 9b3d fc0f 1c3e d2b6 17b9
00000250: a8a9 bb3b a1aa c83d 7e08 7ebd 0d3b 73bb
00000260: 752c bdbd 6cc8 2abc cd53 ddbd 063c c53c
00000270: 7913 67bd 8929 a8bc e4dd 0b3d 1d07 a23d
00000280: 027d 923d ece3 8c3b 21fe 04be dc1d 963b
00000290: 56ae a03d a0c4 9f3d 68c5 0f3d f7c7 313d
000002a0: 804d 123e c0c8 b73c 8059 20bd 6f7b 92bd
000002b0: e655 a9bd e841 b03d a790 b03c e277 c63a
000002c0: 8319 043e cdd6 283e dc58 673e 087e f73d
000002d0: d85d 003e 08df 3dbd a846 43be 71e5 0ebe
000002e0: b8cb 2ebe 7f78 2dbe e80d 0cbe 36dd 0bbe
000002f0: 85c6 84be f404 72be eab0 e8bd 82de 5f3d
00000300: c46d 0dbe 2d9d 72bd 96ed 5abe d726 933d
00000310: 1f59 49bd 825a 6f3b 9f04 bbbc 4d68 78be
00000320: 7688 4bbd 4f6e 4cbe 5ed9 13be 96d2 52bd
00000330: 46c1 233e 5f9d b23d 9963 143e 4e41 99ba
00000340: 38f6 753d 789a 89bc d55d 7cbd 68d5 643d
00000350: 2de4 a3bd d8f9 4b3d 0b64 453d d4ff dc3d
00000360: b4fc 01be 1cf5 62bd 0cac 08be 5563 07be
00000370: dfdb bb3d 6549 01bc a42e f33d 6e72 3dbd
00000380: ecf7 1d3d 07e6 bd3d 10f5 a9bd 2575 ca3c
00000390: f71a 05bc e944 d63d 980b be3d 7eef adbd
000003a0: c066 973d 31e8 133e 89f7 e83d 552f 1abe
000003b0: e9f9 cfbd df31 893d d280 203d d6a1 72bd
000003c0: d675 33be f6e8 82bd cf65 013e c3bd 48bc
000003d0: 9680 2abe 0e4a 453d 8456 2c3e b828 b5bd
000003e0: a885 133e b79e c43d 5465 873d d5dc 09bd
000003f0: 6696 cb3d f4b0 673e 7a9f 423e 08cb 0f3e
-0.17809114 -0.29358518 -0.1587381 0.0064791823 -0.2057362 0.06718369 -0.19719703 -0.19581288
-0.12707773 0.1553887 0.16975053 -0.05423079 -0.13497682 0.015915558 -0.1777933 0.09719179
0.06207957 -0.21447945 0.12964672 0.07595051 0.07005243 0.24621624 0.15780494 0.12637477
0.01910447 -0.053998716 0.031406008 0.13947093 0.064473316 -0.112910986 0.13368869 -0.1137827
0.14195867 0.10966537 0.098046504 -0.096100874 0.008048498 0.1769092 -0.14988545 -0.10340376
-0.15326774 0.065916605 -0.06797979 0.1743302 -0.16735055 -0.08362758 -0.104084745 -0.13117601
0.05010351 0.08653955 -0.096558936 -0.24154636 -0.023907047 -0.17788197 -0.124742076 -0.25855914
-0.16018671 -0.025753962 0.14613923 -0.17703342 0.115299776 -0.13561326 0.17283995 -0.056545023
-0.025176913 -0.16517256 0.027845725 -0.16934226 -0.19553962 0.07195731 0.0042376174 -0.09883611
0.11634937 -0.019287443 -0.08304367 0.08378621 -0.15626605 0.060419105 0.095768526 -0.09153629
0.24170625 0.26964194 -0.051778413 0.07618061 0.15439479 -0.004170311 0.01142517 0.012834758
-0.10148509 -0.06884651 -0.13941374 -0.024678893 0.09512721 -0.0043708463 0.11577002 0.17851318
0.1916789 0.19762085 -0.26253304 -0.15525246 -0.21740055 -0.07599554 -0.19511715 -0.29207417
-0.017531544 -0.124065205 -0.04549778 -0.16874643 -0.05953526 -0.09320374 -0.1350164 -0.23296957
-0.12522551 -0.020909615 -0.1722163 -0.18594018 0.05905912 0.085632734 -0.112465516 0.008500679
0.093774974 0.0028883475 0.08978008 0.018116618 -0.03035318 0.21061166 0.0434992 0.19425002
0.13930506 0.12588347 0.1286408 0.16614537 0.19745798 0.20820718 -0.096759245 -0.13180684
0.20005451 -0.058031872 -0.12562431 0.029854849 0.039768625 0.19329882 0.09741481 -0.14962803
-0.016069878 0.07568363 0.15240473 -0.00014468588 0.0057270117 0.0979817 -0.062019818 -0.0037114054
-0.09236995 -0.010423761 -0.10806999 0.024076473 -0.056415055 -0.020527618 0.03414716 0.07911513
0.071527496 0.0042996313 -0.12987567 0.0045811962 0.07845752 0.07801175 0.03510037 0.043403592
0.14287376 0.022434592 -0.039147854 -0.07152449 -0.08268337 0.086063206 0.02155335 0.0015141929
0.12900357 0.1648819 0.22592491 0.120845854 0.12535799 -0.046355277 -0.19069922 -0.13954712
-0.170699 -0.16940497 -0.1367718 -0.13658604 -0.25932708 -0.23634702 -0.11361869 0.05465556
-0.13811404 -0.059231926 -0.21379694 0.071851425 -0.049157258 0.0036522453 -0.022829352 -0.24258538
-0.049690686 -0.19963954 -0.14438388 -0.05147036 0.15991697 0.087214224 0.14491118 -0.0011692436
0.060049266 -0.01679729 -0.061612923 0.055867583 -0.080025055 0.049798816 0.04819111 0.10790983
-0.12694055 -0.055409536 -0.1334688 -0.13221486 0.091727965 -0.007891034 0.1187413 -0.046251707
0.038566515 0.0927239 -0.08298695 0.024714062 -0.008124105 0.10462362 0.09279555 -0.08492945
0.07392645 0.14444043 0.113753386 -0.15057118 -0.101550885 0.06698965 0.039185353 -0.05923637
-0.1752542 -0.0639209 0.12636493 -0.012252274 -0.16650614 0.048166327 0.16829878 -0.08845657
0.14406455 0.09600585 0.06611124 -0.033657867 0.099407956 0.22626096 0.19006148 0.14042294

onnx::Conv_81 f4 [16]
00000000: 35ed 303f 5cd2 f3be ee1b 66bf 63f6 e4be
00000010: d942 0b3f 4dd5 643f bf4d d33e b76a a8bf
00000020: e7b9 793f 6312 203e 2323 b93e 7272 b83f
00000030: ff1a 813f b2f5 f43e 4c6a ab3e 17a5 883d
0.6911195 -0.4762143 -0.8988637 -0.44719228 0.54398876 0.8938797 0.41270253 -1.3157567
0.9754929 0.15632014 0.3615962 1.4409926 1.0086364 0.478437 0.33479536 0.066721134

onnx::Conv_83 f4 [32, 16, 3, 3]
00000000: 765b b3ba 0007 f93b 3113 9a39 7125 48bb
00000010: 4153 1ebc e93b 98bc bbc2 e6bb 49d5 30bb
00000020: da15 43bc 0a8b f33c 7a15 8b3c 0fbd 05bd
00000030: 9e70 6b3a 6a15 ebbc 2ada 8ebc 5aa9 34bd
00000040: 2417 123c 3e17 a6bc 58c9 29bb ac61 b13c
00000050: 7aed cebc 5339 76bb 0e97 04bc ab50 41bd
00000060: 6cec 06bd 7dbe 26bc 7181 6bb9 1916 22bc
00000070: 7b9e f83a b921 c9bc 30c0 e3bc 53d5 bdbc
00000080: bdac 1cba e5a0 c7bc 1583 4dbc 6fd0 86bc
00000090: c5a2 0cbd a052 20bd 0c1b 09bd 2fc3 50bc
000000a0: 727f ea3c 0a1b 0ebd 739a 073b b90b 253c
000000b0: a5b3 063d 9891 a03c e693 173d 36f7 fbbb
000000c0: 2b97 faba 5c43 5e3c 61c7 59ba 0ca0 d6bc
000000d0: b2f5 76bb 444f 99bb 0d09 e33c d087 0b3c
000000e0: cbd2 673c 321d 87bc b957 d43c 08eb 383c
000000f0: 57fd 83bc ee32 d5bb eb35 aaba 1ebc f2bc
00000100: 351a 84b9 f743 5fbd 2ccb efbc 467c 6ebc
00000110: 4847 11bd e058 87bc da9c 683c 96de a5bc
00000120: a782 99bc 6be1 023d 040b 15bb 6fe7 6b3b
00000130: b8d7 98bc 1779 33bc e04d a0bb 2e4c 203c
00000140: 3ebf da3b 854c 843c 17a3 f8bc 1e93 fdbc
00000150: 981f aebc 536b 29bd 2fac d93b d086 01bb
00000160: 4706 30bc f9c7 3abc f9cf 223b 3dd5 913c
00000170: b8b1 28bb 5aeb e1bb ba61 893c 94a5 22bc
00000180: 590a 14bd 2511 6d3b 5d43 afbc b4f5 243b
00000190: 3afa 4f3c 7b05 f53a 08a4 003b a7d4 a6bc
000001a0: 5f6a a13a 0d28 173a 3cd7 b5bc 3228 70bc
000001b0: 010e 053d d737 0c3d b880 763c bf2f 3fbc
000001c0: 8c8a c53c f165 2cbd 9528 2dbc 14c4 5d3c
000001d0: ab77 0ebd 9276 e7ba 0233 c1bb da9b 76bb
000001e0: 60f3 21bc 1875 d5ba bb3c e7bc 96c0 69bc
000001f0: bc3d e13c 0e8d b9bb 26b1 8c3c 790e 6aba
00000200: 5d44 2f3b 0efe 96ba 70d1 32bc 3a01 18bc
00000210: 6a4a ffbb 9d38 5fbc 624b 0abc bfd0 17bc
00000220: cfc9 733c 634b 753b dc8f a0ba d0ba 9dbc
00000230: 260e 2fbc 8d27 843b e49d e8bc 3b9f 94bc
00000240: 0957 62bd 30ba 913d 0c9c 583c 3e28 763b
00000250: 4333 4fbd eb55 ce3c c991 4d3d 6001 12ba
00000260: 4ef7 d83c ce49 593d e901 bb3d a663 2ebd
00000270: fe02 81bd c0cd 223d d78a a53d a9a0 023d
00000280: 844a eebc f6c0 e53c c6e1 d33c eba1 4cbd
00000290: 0e0b 91bd 0893 85bd 7a78 0e3d 5421 eb3c
000002a0: 79d9 c1bd 1b90 f5bd d8ed b33c 385a 9abc
000002b0: 4497 da3d 3a96 edbb 971c d3bc 28ac 19bc
000002c0: d45c 8c3d 0df7 87bc 339f 33bc c512 7ebd
000002d0: b60f 003e 8d5f 49bd 3c51 f83d 0c65 3bbd
000002e0: 507e c43d 994c bd3b a7f3 6e3d fcca 06b8
000002f0: 91e3 01bd 5747 463c 953f 63bc f01b 383d
00000300: a208 703d e6af 34bd 7aa5 923d a99f 6dbd
00000310: 339e 903d a767 77bb 9cbc c13b f16a ba3d
00000320: 376d 17bd 488b db3d 95bf 853d 18aa cdbc
00000330: 451f 033e 45e9 363c 8fa7 e33c 7412 b33c
00000340: ea64 1bbd 1e25 78bd 76b8 7dbc cd5a 5c3c
00000350: 4b35 83bd a075 503d 4524 16bd 6add 94bc
00000360: c901 893d e966 883b 5a8a c33c e83d ec3c
00000370: 9b70 2e3d 4fdd 03bd fc81 2bbd 7a61 71bd
00000380: ab24 21bd 1b4e 68bd 9ac4 acbd 713b 7e3d
00000390: 2e9c 2f3d 2a72 233d 9338 b3bd 9605 ff3b
000003a0: c1a8 a6bc 27dc 5d3d b847 3fbd 4024 94bd
000003b0: fc0c 1a3d ec3a 20bd f9a6 c1bd 7ede 86bd
000003c0: a458 dcbd 9ce7 a6bd 45db 1abd 353f 52bb
000003d0: 8b40 a2bd 24fe 5abc ea78 96bd 3ed5 713d
000003e0: 2ba5 c63d 6fd0 3c3d 35d0 903d 3878 7b3d
000003f0: f77d 6f3c 4312 8abd 9bf6 85bd ed05 893d
-0.0013683874 0.0075997114 0.00029387468 -0.0030539895 -0.009663404 -0.018583255 -0.0070422566 -0.0026982597
-0.011907065 0.029729385 0.016978014 -0.032651003 0.000898132 -0.028696734 -0.017438013 -0.04410682
0.00891665 -0.020274755 -0.0025907364 0.021653019 -0.025259722 -0.003757079 -0.008092655 -0.04719607
-0.032940313 -0.010177252 -0.00022459567 -0.009892964 0.0018968129 -0.024552213 -0.027801603 -0.02317301
-0.0005976668 -0.024368713 -0.012543459 -0.01645681 -0.034334917 -0.039141297 -0.03347306 -0.012741848
0.028625224 -0.034693755 0.0020691424 0.010073596 0.032886166 0.019600675 0.03700628 -0.007689382
-0.0019118538 0.013565864 -0.0008307603 -0.026199363 -0.0037683067 -0.0046786387 0.027714277 0.008516267
0.014149378 -0.016493414 0.025920736 0.011286505 -0.016112013 -0.0065063154 -0.001298604 -0.029630717
-0.00025196528 -0.054508176 -0.029271685 -0.014555996 -0.03546837 -0.016521871 0.014197553 -0.020247739
-0.018739058 0.031953257 -0.0022742162 0.00359961 -0.01865755 -0.010954163 -0.004892096 0.009783788
0.00667563 0.016149769 -0.030351205 -0.03095394 -0.0212553 -0.041362118 0.0066428403 -0.0019764192
-0.010743684 -0.011400216 0.00248432 0.017801875 -0.0025740694 -0.006894511 0.016770232 -0.009927172
-0.03614268 0.003617355 -0.021394426 0.0025170865 0.012693936 0.001869365 0.001962902 -0.020365072
0.0012315026 0.0005766161 -0.022197358 -0.014658021 0.03248406 0.03423294 0.015045337 -0.011669098
0.024113916 -0.042089406 -0.010568758 0.013535518 -0.034782093 -0.0017659238 -0.005895973 -0.0037629516
-0.009884685 -0.0016285507 -0.0282272 -0.0142671075 0.027495258 -0.005662567 0.017174315 -0.0008928548
0.0026743629 -0.0011519806 -0.010914192 -0.009277636 -0.0077908533 -0.0136243375 -0.008440824 -0.009266078
0.014879658 0.0037428967 -0.0012249905 -0.019254118 -0.010684526 0.004033035 -0.0283956 -0.018142333
-0.055258784 0.071155906 0.013220798 0.0037560607 -0.050585996 0.025187453 0.05018786 -0.0005569663
0.026485112 0.0530489 0.09131224 -0.0425755 -0.06299399 0.039747 0.08083122 0.0318915
-0.029088266 0.028046113 0.025864493 -0.049959105 -0.07082187 -0.065221846 0.034782864 0.028702416
-0.09465308 -0.119903766 0.021963999 -0.018841848 0.10673383 -0.0072505744 -0.025770469 -0.009379424
0.06853643 -0.016597295 -0.010963249 -0.06202962 0.12505993 -0.04916339 0.12124869 -0.045750663
0.09594405 0.0057769534 0.058337834 -3.2137134e-05 -0.031711165 0.01210197 -0.01387014 0.04494852
0.058601983 -0.044113062 0.071604684 -0.058013592 0.07061424 -0.003775099 0.0059123766 0.09102429
-0.03696939 0.10719925 0.06530682 -0.025105521 0.12804897 0.011164014 0.02778986 0.021859385
-0.037938036 -0.060582273 -0.015485873 0.013449383 -0.06406649 0.050893426 -0.036655683 -0.018171985
0.066897936 0.0041626585 0.023869682 0.028838113 0.042587858 -0.03219348 -0.04187201 -0.05893085
-0.03934161 -0.056715112 -0.08435936 0.062068406 0.042873554 0.039903797 -0.08751025 0.0077826483
-0.02034414 0.05416503 -0.046699256 -0.07233477 0.03761004 -0.039118692 -0.09455676 -0.06585406
-0.10759094 -0.08149645 -0.037806768 -0.0032081131 -0.07922467 -0.013366256 -0.07347281 0.059041254
0.09699472 0.046097215 0.07070962 0.061393946 0.014617435 -0.067417644 -0.06541177 0.066905834

onnx::Conv_84 f4 [32]
00000000: c96d e83e 9be9 febe a2af b13e bcd7 dd3d
00000010: c003 7abe 6192 a53e bf0a 66be 3d34 30bd
00000020: aa4f aa3d 5e44 3b3e 4635 37be 7805 0dbe
00000030: 1c3b ffbe ec42 93be 1cf7 c9be 5be5 5bbe
00000040: e46c 603e e98a 783d 883b 0f3f 23f2 613e
00000050: ee10 9e3e a8c1 193e a6f9 e53e 0e66 373e
00000060: 46ca 94bc 01f4 263e 1f0a 03bf ca5c 4a3e
00000070: b32b d43c 2696 9ebe 468e 283f e8ee 243e
0.4539626 -0.49787602 0.3470431 0.10832164 -0.24415493 0.3233824 -0.22465037 -0.04301857
0.08315976 0.18287799 -0.17891416 -0.13771617 -0.49849784 -0.28761995 -0.39446342 -0.21474211
0.21916538 0.06067935 0.5595021 0.22065024 0.3087229 0.1501528 0.4491703 0.17910025
-0.018162858 0.16304018 -0.5118732 0.19761959 0.025899744 -0.3097393 0.6584209 0.1610676

onnx::Conv_86 f4 [32, 32, 3, 3]
00000000: a614 30bc 71e9 8f3c 68aa 7f3a 8e64 e23b
00000010: 0bb8 513c aedf 7f3b 4ab3 d83b 978d 74bc
00000020: d570 d7bb 6675 c13c 8cc2 a03b 5644 1d3c
00000030: 89f6 553b b202 18bd c2c3 e33c c847 e9bc
00000040: a7f9 88ba ad1d 44bd 684f 793c e8fe 583c
00000050: 273e 55bd 1be9 abbc 0fef 243d 80c4 373c
00000060: e077 053d acec 953d c145 393d 0c63 e43b
00000070: 7ce0 3bbb 9bef 183c 2826 ca3c 5629 093d
00000080: 42db 283d 6933 683c d951 9c3c c6f8 8c3b
00000090: 3197 583d 8f30 203c 3db1 883d 5b1b 85bc
000000a0: 194b dd3c 7b67 d4bc ed5a c8bc 6cbc 03bd
000000b0: fd91 1a3d 758d b3bb ff81 e03c 2b82 7b3c
000000c0: 615d d23b a444 06bc 228c 05bc 4642 3cbd
000000d0: 3100 e2bc cf01 4bbc a655 ecbc 4558 1bbd
000000e0: e4bb 143c 61d0 553d 3767 bb3b d2e3 8f3d
000000f0: d5e8 103d 86a2 0c3d a4e3 133d cc63 20bd
00000100: d853 20bc 9a97 a83c 38e4 eebc e3db 62bd
00000110: 6a8a 8bbd de51 9b3d 24b8 4c3d 5c7a ad3d
00000120: 9557 3cbb d540 4cbc 4b96 ad3b ec2a 173c
00000130: d7ed 3abc e7ce ccbb 07f4 85bb 245a adbb
00000140: 23ad d3bb 2434 cfba a8ba 7abc eba5 3cbc
00000150: a131 4d3c 57ab 56ba f105 2cbd 3191 473d
00000160: a683 103d c980 51bc b070 063d 9879 053d
00000170: ebb5 f03c af27 ccbc 37b9 1f3b 597d 2a3c
00000180: fa93 8cbb ae08 a4ba d42e 1d3d 07fd 383c
00000190: e0a2 093c 55a7 ba3c 3543 883d e4ad c13d
000001a0: 0b11 cd3d 4e1e ca3a 0451 ab3b ef1a 573c
000001b0: 3df9 0ebc 559f 0bbd c488 07bd ecee ef3b
000001c0: 736d eb3b 34d0 85bc c4d7 7d3a 8ed7 b8bc
000001d0: 2603 11bc bdd3 08bc bff4 2dbd 90e0 09bd
000001e0: 3045 67bd a254 0fbc 073b 34bd fd1f e53c
000001f0: 3e45 0a3d 6358 02bd f1c0 24bc 2608 c1bc
00000200: f941 fe3b 2501 34bc 5c27 d8bc 2e4c 8cbc
00000210: 419d 2cbd ceb3 3e3c 4789 f63b 0b8c 12bd
00000220: 772a 14bd ac5b 8bbc 6bc7 4abd db89 64bc
00000230: edad 3bbd 475b 3cbb fa74 10bd 375e 23bd
00000240: ed48 d2bc 99f4 95bc e52e 40bd 8a16 113d
00000250: 2d5e a43c 9bc6 69bd 7611 69bb 4e0c a2bc
00000260: 807a d9bb 04ec b3bc 1d10 05bd 8454 e3bc
00000270: 3c6b 49bc 7167 efbc afd7 01bd c0ac b73c
00000280: 2d34 b6bb 96a8 17bb 8adf 8cbd af77 3bbc
00000290: 9d84 afbc 8ba7 35bc 4ca9 c73c 90d4 eebc
000002a0: abd3 7a3b 160b 0c3d 8a19 793c c0cf a5bc
000002b0: 35fe a43c 9d49 bc3c 809a 8dba 6a47 033b
000002c0: 483b 2d3c a564 dd39 0f18 c4bc 9228 37ba
000002d0: 2a5f 683b b96a f83c 98bd 49ba 2787 233c
000002e0: 7a37 d4bc 0d59 583c ce88 acbc de42 b5bb
000002f0: d6d4 30bd 7d08 de3c 9208 7a3d 70ee 103c
00000300: fab8 17bc 189c 963c a43e 213d b26a cf3b
00000310: e6f2 e8bb 42ea 843a f227 1abc 322e 863c
00000320: 8059 babc 4806 87ba b1f7 1abc 13a5 b8bc
00000330: 128f 3cbc ec69 ed39 08cf cb3a e85a eebc
00000340: 9267 48bd 0d81 8fbc f016 a7bc ca2f 113d
00000350: 3537 0dbd 9c49 393c 2b40 5bbc 1c6e 61bc
00000360: f8e0 c83a 2b68 103d 9ad6 98bc 7fbe bfbc
00000370: c738 403d 5561 35bd aca9 bdbc cd9c eebc
00000380: 2e15 b4bc c3f3 80bc 7958 14bc c57a d4ba
00000390: c90a 98bb b2f9 44bc c574 3dbc d29d 043d
000003a0: 9cda 8f3b 36f9 913d 59cf f6bc b352 9bbd
000003b0: eb07 75bd 7cdb 5f3d 1b60 15bc 89ea eabc
000003c0: 0050 1e3c 9df8 bc3d ac0f b03c acad ddbb
000003d0: cacc 2bbd 3661 9bbc 6b8b aabb 88f8 1abd
000003e0: 862b 13bc 7d9d f83c aa30 653c ae29 293c
000003f0: da2d 33ba 77a1 b2bb 810b 143b 38f7 8e3c
-0.0107471105 0.017567368 0.00097528705 0.0069089597 0.012800227 0.0039043236 0.00661317 -0.014926336
-0.00657473 0.02361555 0.0049060043 0.009598812 0.0032648167 -0.037111945 0.027803306 -0.02847661
-0.0010450379 -0.047879864 0.015216686 0.013244368 -0.052061226 -0.020985177 0.040267047 0.011216283
0.032585025 0.07320532 0.045232538 0.006969815 -0.0028667739 0.00933447 0.024676397 0.033486687
0.041224726 0.014172413 0.019081997 0.004302117 0.052878562 0.009777202 0.066744305 -0.016248396
0.027013348 -0.02592825 -0.02445742 -0.032162115 0.03773688 -0.0054795095 0.027405737 0.015350859
0.006419823 -0.008195076 -0.008151086 -0.04596164 -0.027587982 -0.012390568 -0.028849434 -0.037925977
0.009078 0.05220068 0.0057190913 0.07025875 0.035378296 0.034334682 0.036105767 -0.039157674
-0.009785615 0.020580102 -0.029161558 -0.05538548 -0.0681351 0.07583974 0.049980298 0.08470604
-0.0028738726 -0.012466629 0.0052974573 0.009226542 -0.0114092445 -0.0062502506 -0.004087928 -0.0052902866
-0.0064598485 -0.0015808386 -0.015303291 -0.011514167 0.0125240395 -0.0008188984 -0.041997854 0.04872245
0.0352818 -0.012787052 0.03282231 0.032586664 0.02938362 -0.024921266 0.0024371871 0.010405862
-0.004290101 -0.0012514794 0.038374737 0.011290795 0.008400649 0.022784868 0.06653444 0.09456995
0.10013016 0.0015420408 0.0052281637 0.01312898 -0.008726415 -0.034087498 -0.033089414 0.007322183
0.007184678 -0.01633463 0.00096833357 -0.022563722 -0.008850848 -0.008351264 -0.042469736 -0.033661425
-0.056462467 -0.008748205 -0.044001605 0.027969355 0.03375744 -0.031822573 -0.010055766 -0.023563456
0.0077593294 -0.010986601 -0.026385956 -0.017126169 -0.042142157 0.011639548 0.007523689 -0.035778087
-0.03617331 -0.017011486 -0.049506586 -0.013948883 -0.045820165 -0.002874093 -0.035267808 -0.039884772
-0.02566954 -0.01830511 -0.046919722 0.035421886 0.020064438 -0.05707417 -0.0035563386 -0.019781258
-0.0066369176 -0.021963127 -0.03248607 -0.027750261 -0.012293633 -0.02922413 -0.031699833 0.02242124
-0.005560419 -0.0023141257 -0.06878574 -0.011442109 -0.02142554 -0.011087309 0.02437272 -0.029154092
0.0038273137 0.03419026 0.015203843 -0.020240664 0.020140747 0.02298432 -0.0010803491 0.002003158
0.010573216 0.0004222739 -0.023937253 -0.00069869414 0.0035457113 0.030324327 -0.0007695793 0.009980953
-0.02590536 0.013204825 -0.021061327 -0.005531653 -0.043171726 0.027103657 0.06104333 0.00884591
-0.00926041 0.018384978 0.03936638 0.0063298577 -0.007109034 0.0010140615 -0.009408938 0.01637945
-0.022747755 -0.0010301555 -0.009458468 -0.022539651 -0.01150872 0.0004528308 0.0015549371 -0.029096082
-0.048926897 -0.01751759 -0.02039668 0.035445966 -0.034476478 0.011309054 -0.013381998 -0.013759162
0.0015325835 0.035255592 -0.018657017 -0.023406265 0.046929147 -0.044282276 -0.023152195 -0.029127503
-0.021982756 -0.015741235 -0.009054297 -0.0016210905 -0.0046399576 -0.012022423 -0.011563485 0.03237707
0.004390074 0.07127611 -0.030128168 -0.07584133 -0.059822004 0.054652676 -0.009117152 -0.028676288
0.009662628 0.09227107 0.021491848 -0.006765088 -0.04194335 -0.018967252 -0.005204608 -0.037834674
-0.008982545 0.030348534 0.013988653 0.010324879 -0.00068351405 -0.005451377 0.0022589865 0.017451867

onnx::Conv_87 f4 [32]
00000000: 94e1 fbbc e0a5 01be f324 91be 1c49 46be
00000010: b2a4 c43e c673 fd3e e7de 793e 5a4b babe
00000020: 7493 ab3d 8a01 a13d bdb8 753d 11c2 953e
00000030: 469c 553e 7578 8fbd 9c6c 863d a86a 8dbc
00000040: 6251 87be b28a 56bc e44f 37be 13f9 1b3b
00000050: 821f 503d 9f3f 3abd c0c2 f03e 8d81 013d
00000060: 0b02 743e 339c 91bc e635 3d3d c224 53bd
00000070: 59db a23d f77a 9a3e 8d37 873d 3f37 8fbe
-0.030747212 -0.12660933 -0.28348503 -0.19363827 0.38406903 0.4950239 0.24401437 -0.36385614
0.08377734 0.07861622 0.059990633 0.29249623 0.20860395 -0.07005397 0.06563684 -0.017262772
-0.26429278 -0.013094591 -0.1790157 0.0023799583 0.0508113 -0.04547083 0.47023582 0.03161769
0.23828904 -0.017774677 0.04619398 -0.051548727 0.079519935 0.3017194 0.06602392 -0.27971837

onnx::Conv_89 f4 [32, 16, 1, 1]
00000000: d851 193e be45 5d3e 4f65 06be 669a 6dbd
00000010: e41a 4b3e a7d3 0bbc 88d7 373e eb84 053e
00000020: 002e 9f3d 66f0 06be 68ca 403d 9aac 95bc
00000030: e101 cbbd 5537 933d 2039 03be 6aef 183e
00000040: e09e 0cbe 58f7 873e c571 c7bd 32d8 683d
00000050: 9416 10be d0af 3dbd 40bc 913d 5c6b e13d
00000060: e0d3 103e 5ffb 9e3d 6726 0ebd 2aab 823b
00000070: c34a cdbd fc66 daba 0d54 18be 8459 97bd
00000080: 4bd2 00be e711 4d3e d6cc f7bd ba20 ec3d
00000090: bb3c 9cbd b5fc 1fbd f58a 0c3e 57ad 6fbe
000000a0: fbc2 eebd 8ee7 0ebe e58e 8dbe d7a7 9bbd
000000b0: e763 17be ed15 403d 0f5c 963c 0a51 30be
000000c0: 6d56 ec3d 344b 8a3d 174c 59be 5df4 0c3e
000000d0: 12a2 dbbd 7e93 22be 82ce 52be 4472 783c
000000e0: d69e c9bd 3802 02be dc3d 573e 26c2 713d
000000f0: 3f7f cf3b 22dd 1ebe e58d 8bbc de1b 923d
00000100: 830a 0abc 8567 0ebc 7049 a6bb c064 163e
00000110: 33cd 6e3e 1cd8 92bd 8ad3 abbd ca22 273e
00000120: 6a16 0b3e 7bba 54be 3a9b 39bd d39b 143e
00000130: 812b 98bb 0d76 f2bd 5fb9 8bbd dbdb 253e
00000140: a91f 403e bb99 7dbe fa8a 09be e70c 1d3e
00000150: c117 9abe 942d d23c 1141 b6bd 7c4e 21be
00000160: f485 5c3d 4ba6 873e df05 bfbc b555 bd3e
00000170: 7626 db3d 9fcf bc3d 2149 253e b993 873e
00000180: 66f4 423e f8dd ff3d 9704 9b3d 2eca 9d3d
00000190: 9546 4ebe 07b5 343e f4b2 de3d 39c1 03be
000001a0: 7f10 0d3e ba82 773e e298 753d 9888 e83d
000001b0: 5379 443d 32fc c13d 5c2d 083e d041 06be
000001c0: e14a c03e 3456 95be 5de0 71bd 7ae3 7abb
000001d0: 6a7a 15bd af18 823e 323d 36be b01f a9be
000001e0: 256c ddbd 2e89 6bbe ad22 8dbe a0fb 093e
000001f0: f113 87bc 2b7b 18be 3658 903d 21f6 093e
00000200: ef25 15bc 042d 22be f3d9 03bd 71a4 db3d
00000210: e518 9bbd 5a0f e0bd 9e50 083e aa8c ea3c
00000220: 9f0e d8bd 6dd9 46be 5630 c23c ced1 343e
00000230: dea9 2e3e 9bea 2f3e 0a28 9cbd b043 b1bd
00000240: 8233 563e 7f08 153e f714 123d 8e3b 013e
00000250: ee91 55bd 5cc2 9d3d 075b d43d e71d 06bd
00000260: 7ac0 25bd f874 313d 5948 b13c 9bb0 c33d
00000270: 7c0e 27bd a1dc 8c3d 5e5c 02be 2794 8bbd
00000280: a06d ec3d df93 2e3e a046 613e fcea a0bd
00000290: a519 cabe 9923 143e 5c63 2abc 2d3e 4b3e
000002a0: 517c 463e 8f99 963e 672c 21bc 0138 8abc
000002b0: 8cff 203e 9d0a 7c3e e247 a6be c85b 33be
000002c0: 790c 29be c297 ad3c d5af 3cbe 2097 1abd
000002d0: 5210 de3d f82f e5bd 9b44 023e 73d6 36bd
000002e0: ed98 8d3c b485 e2bd b4b5 4c3e 0627 3c3d
000002f0: fa68 053e ace0 143e 8c79 8fbd aa0c df3d
00000300: 3a54 bf3d 6a06 ce3d fd28 563e 88f1 c63d
00000310: 3682 61be 18e4 a4bd f24f 303d a5b3 23be
00000320: 8947 1f3d b633 573e e563 ef3d 1904 293e
00000330: 6724 733e 2b3d d43d c9b8 133e 19ff bd3d
00000340: 16d7 f83d 512f dd3d 2783 cebd 3e01 183e
00000350: a89b 66be 9a6b 12be a23c a9bd aac7 05bc
00000360: 9def 6abd 95be 7abd 9894 c0bd 2c22 283e
00000370: 5e7f 353e b434 07be 0573 4b3e b3c8 0fbe
00000380: e08e d23d dbe9 a53d c3ae 30be f9a9 a1bd
00000390: cbf7 8cbe b9be 15be 52b2 4a3e a9f5 663d
000003a0: 6b4a 7f3d 6d65 0ebd 00f0 f93d 75b2 943e
000003b0: 7208 8cbc 6f5a 26be 3a5d af3e 9299 2e3e
000003c0: 0cc0 783e 83a1 383d cf69 883c e2f1 0c3e
000003d0: 4e28 cbbd ad88 09bc e5e7 3f3d 4f93 c93d
000003e0: 0ff3 e9bd e3c3 7b3a a638 5fbc e1c5 30bd
000003f0: 3e36 043e 3fb1 1dbe 21a2 aa3d 5897 003c
0.14972627 0.21608636 -0.13124584 -0.058008574 0.19834477 -0.008534349 0.17953312 0.13038985
0.07772446 -0.13177642 0.04706803 -0.01827078 -0.09912468 0.07188288 -0.1281476 0.14935079
-0.13732481 0.26555896 -0.09738497 0.056846805 -0.14071113 -0.046310246 0.07115984 0.11006805
0.14143324 0.07762789 -0.034704592 0.0039876895 -0.10024025 -0.0016662772 -0.14875813 -0.073901206
-0.1258022 0.2002636 -0.12099616 0.115296796 -0.07628771 -0.03905936 0.13724883 -0.23405968
-0.11658283 -0.13955519 -0.27648082 -0.07600372 -0.14784203 0.04689591 0.018354444 -0.17218414
0.11539922 0.06752625 -0.21220432 0.13765092 -0.10724272 -0.15876576 -0.20586589 0.015163962
-0.09844749 -0.12696159 0.21019691 0.059023045 0.0063323076 -0.15514043 -0.017035434 0.071342215
-0.008425358 -0.008691673 -0.0050746724 0.1468687 0.23320465 -0.07170126 -0.08389957 0.16321865
0.13582769 -0.20774262 -0.04531405 0.14512567 -0.004643858 -0.11838923 -0.06822466 0.1619715
0.18762077 -0.24765675 -0.13431922 0.15336953 -0.30096248 0.025656499 -0.08899129 -0.15752596
0.053838685 0.2649406 -0.02331823 0.36979452 0.10700695 0.09219288 0.16141178 0.2647989
0.19038543 0.12493509 0.07569235 0.07704578 -0.20144112 0.17647181 0.10873976 -0.12866677
0.13775824 0.24170962 0.059960254 0.11354178 0.047967266 0.094719306 0.13298553 -0.13111043
0.37557128 -0.2916733 -0.05905186 -0.003828256 -0.036493696 0.25409457 -0.17796782 -0.33031988
-0.108116426 -0.23001549 -0.27565518 0.13474894 -0.016489001 -0.14890735 0.07048075 0.13472797
-0.009103282 -0.15837485 -0.032190274 0.10724724 -0.07573108 -0.10940428 0.13312003 0.028631527
-0.10549664 -0.19418879 0.023704689 0.17658159 0.17056987 0.17179339 -0.07624824 -0.086554885
0.20918086 0.14554022 0.035664525 0.12620375 -0.052141123 0.07703087 0.103689246 -0.03274336
-0.040466763 0.04332444 0.021640943 0.09555169 -0.040785298 0.06878019 -0.12730548 -0.06815367
0.11544347 0.17048596 0.21999598 -0.0785732 -0.3947269 0.14466704 -0.010399666 0.19847937
0.1938336 0.2941403 -0.0098372465 -0.016872408 0.15722483 0.24613424 -0.32476717 -0.1751548
-0.16508664 0.021190528 -0.1842645 -0.03774178 0.108429566 -0.1119079 0.12721483 -0.04463811
0.017284835 -0.11060658 0.19991189 0.045935653 0.13028327 0.1453883 -0.07005605 0.10891087
0.09342237 0.10059817 0.20914073 0.09714037 -0.22022328 -0.08051318 0.04304499 -0.15986498
0.03888658 0.2101582 0.11688975 0.1650547 0.23744355 0.10363229 0.14425959 0.09277172
0.121503994 0.108000405 -0.10083609 0.14844224 -0.22520316 -0.14298859 -0.08263518 -0.008165279
-0.05735742 -0.06121691 -0.09403342 0.16419286 0.17724368 -0.13203698 0.19868095 -0.14041404
0.102811575 0.08101245 -0.17254166 -0.07893748 -0.275328 -0.14623536 0.19794586 0.056386624
0.06232683 -0.034764696 0.122039795 0.29042402 -0.01709387 -0.16245435 0.34250814 0.1705077
0.2429201 0.045075905 0.016652016 0.13764146 -0.09919797 -0.008394402 0.04685201 0.0984255
-0.11423313 0.00096040795 -0.013624346 -0.043157462 0.12911317 -0.15399645 0.08331705 0.007848583

onnx::Conv_90 f4 [32]
00000000: f54a dbbe d23e 673d c65f 133f 07a3 143e
00000010: c030 44be f9d5 c5be b712 07bf 30a9 c63e
00000020: 3e80 963d a1ec 9dbe 6121 73be fba9 13be
00000030: 9d04 0fbf 5928 1d3e c579 6cbe 48a4 33be
00000040: f359 df3e 06e9 3ebe 26fe 8f3e d8e8 65bc
00000050: 73af 8dbd f4ca 3c3d ddad 73be b14f ab3c
00000060: 6074 a03d 453f 47be e72d 0ebe 5e9c 413e
00000070: 859e 6f3e cbac 0f3e a4b5 69be 06a2 703d
-0.42830625 0.056456394 0.57568014 0.14515315 -0.19159222 -0.3863981 -0.5276293 0.38800955
0.07348679 -0.30844596 -0.23743202 -0.14420311 -0.55866414 0.15347423 -0.23093326 -0.17543137
0.43623313 -0.18643579 0.28123587 -0.014032565 -0.0691823 0.04609199 -0.23796792 0.020912023
0.07834697 -0.19457729 -0.13884698 0.18907306 0.23400314 0.14030759 -0.22823197 0.058748268

onnx::Conv_92 f4 [64, 32, 3, 3]
00000000: 9594 6f3b ecd7 ba3b bfbb 49ba 9a7a c03b
00000010: 80aa 33bb 05c5 57ba 50a2 04bc 1bb2 dd3b
00000020: 2e05 f43a f22b 31bb f00e e5b9 88e7 b33b
00000030: ca80 78bb 800a e03a 6552 4b3c c919 7d3a
00000040: 4e72 3d3c 300c 633b 689a 893c aee2 6f3c
00000050: f484 063c a2e0 79ba 86bf 8fbb 7ab6 5abc
00000060: 67e1 49bc 30b6 d6bb d190 86bc 37b4 c73b
00000070: 538c 8e3c d27e 553b 96f6 18bb 55e2 753c
00000080: b4a1 a13c 82cc 183c e863 d6bb 5d52 05bc
00000090: 65e3 6abb 9f75 ffba aea9 c43a 42ee 34b8
000000a0: cdf2 603b 0bf5 b93a 995a 783b 36cc 103c
000000b0: cda9 8b3a 8e0a adbb 1c72 d5bb 7574 03bc
000000c0: ef8b 163b a241 bfba b9d2 9cbb 71f7 42ba
000000d0: 6c63 9b39 49cd 053c a006 2bbc cff2 b83b
000000e0: f96d be3b 8ba7 683b 96ea 1f3c 1e9a f03b
000000f0: 500a 2abc 7146 cabb 2aab a5bb dc02 853c
00000100: 30f2 823c f31a 3cbb 010a 813c c0ff a73c
00000110: 614e 1c3c 6092 ae3c a1f3 473c 2d2a 403b
00000120: d823 2135 fd94 91bb 15e3 b4bb b19f d03a
00000130: 20cb c6b9 6308 a13a 7dd4 453b 4cd2 3c3a
00000140: 222f 953a c8c8 013a 69de 98ba b960 19bb
00000150: 9dad b63a 6797 0dba 21ee c23a e984 7fba
00000160: fca6 3abb 96b6 cbba e309 c7bb 8b00 1bbc
00000170: d5c7 1dbc b9fe 4cbb 2110 c13a c967 44bb
00000180: 1115 843b 5813 3cbc 79cc 39bb d40b 573a
00000190: ca8d 43ba e9e0 603b 3333 ef3a 054b 973b
000001a0: 61ea ed3b 8c21 f83a 9550 f737 b53d 343b
000001b0: 18b5 873b a402 7abc e77b 73bb 0b68 aeba
000001c0: 4044 79bc 4d6a 05bc d941 48ba c8d3 1cbc
000001d0: 271e 493c 2ef4 153c 292d 0b3c 74e9 dabb
000001e0: ba96 eb3b 8c2a 68bc 4c52 313c a26f efbb
000001f0: 93e6 70bb ce72 62bb a698 64bb 0860 e0ba
00000200: 5f07 85bb 80d6 f1ba 8fab 16bc cb29 ccbb
00000210: eada 80ba 1947 fdb9 e72f cc39 d7ea b63a
00000220: 5c07 a6b9 048c 2eba 4e0c 2b3a 591e e8b8
00000230: bc08 d0ba 7434 7dba 5fb4 c0ba f9bb e238
00000240: 36b0 4abc 4af5 19bc 34fc 25bc 05be 75bb
00000250: d380 adbb 7686 adbb 5208 1b3b 2675 dd3a
00000260: e9cf f4b9 c85a 01bc 6f29 05bc ac6f 583b
00000270: e801 36bc a1b3 b13a 1b41 e5bb 007a f8bb
00000280: 4d91 86bb 6b00 113a 0ee9 c33b 0674 0f3a
00000290: 4b30 5bbb 4f92 0a3c e2b4 5c3a 8b87 ce3a
000002a0: 110f ea3b 7465 f039 eefd d43b ca0c 9d3b
000002b0: 06cd 203b 0a00 343b d751 2c3b e7c1 9c3a
000002c0: 292b 363b 9540 963b edbf 1aba 717d 5639
000002d0: 5058 2dbb bfc2 ac39 1a7b 843a b555 16bc
000002e0: c1dd 87bb 56c0 43bc 5544 0ebc 4c51 3cbc
000002f0: dc40 6abc 9d2f 42ba 3041 d9ba 6f71 d9ba
00000300: 2825 273b a0aa a23a 3cf3 db3a 7e3e 283b
00000310: 03e8 e639 43e3 a23a 0675 873b f2b0 853b
00000320: 12d1 f63b 3ad6 dcbb 5cfa 503b e00b 743b
00000330: 34d1 943b b9d3 8b3b f6ab 063c 2e84 07bb
00000340: e8a9 2e3a 4a3a c83a 43c9 fb39 b82f dfbb
00000350: 98e6 87bb 67f9 b5bb 603a 97bb 4d15 46bc
00000360: 058b 2ebc 8007 85bc a0df d5bb fb59 073a
00000370: e944 6e3a 2835 e63a a2b0 11bb f786 cfb9
00000380: b170 033b a483 423c 3fe3 4c3c 417f 853c
00000390: 5c79 15bb 242d 153c b5f4 5b3c 79e4 84ba
000003a0: 3160 433c f20f 0cbb 61ca 03bb f7bf 6abb
000003b0: 2356 daba 66d2 21bb e3bf 413b b463 9bbb
000003c0: d377 02bb 200e edb9 b157 6a3b e5eb 2bbb
000003d0: 90e3 803c d524 2e3c a08f a5bc 3fe5 cf3a
000003e0: c5ed 563b 778f 14bc dd6d 41bc edcf 00bc
000003f0: bd8a 81ba c126 073b deb4 abbb 1125 97bb
0.0036557068 0.0057020094 -0.0007695518 0.0058739902 -0.0027414858 -0.00082309573 -0.008095339 0.0067656166
0.0018617266 -0.002703425 -0.00043689413 0.005490247 -0.003791856 0.0017092973 0.012409781 0.00096550264
0.011562897 0.0034644715 0.01679726 0.014641447 0.008210409 -0.0009532069 -0.004386845 -0.01334917
-0.0123218065 -0.00655248 -0.016426476 0.0060944813 0.017400896 0.0032576811 -0.0023340336 0.015007575
0.019730426 0.009326102 -0.0065426715 -0.008137313 -0.0035841104 -0.001949001 0.0015004182 -4.313724e-05
0.0034324408 0.0014187408 0.0037895797 0.00883775 0.0010655463 -0.005280799 -0.006513847 -0.008023371
0.002297159 -0.0014591704 -0.0047858623 -0.00074373843 0.0002963798 0.00816662 -0.010438591 0.0056441794
0.0058114496 0.0035500254 0.0097605195 0.007342591 -0.010378435 -0.006172948 -0.0050558047 0.016236715
0.015984625 -0.0028702586 0.01575184 0.020507693 0.009540171 0.021310031 0.012204082 0.0029322014
6.0029333e-07 -0.0044428096 -0.0055202344 0.0015916732 -0.00037916843 0.0012285825 0.0030186467 0.00072029675
0.0011381845 0.0004950878 -0.0011662963 -0.0023403598 0.0013937239 -0.0005401284 0.0014871993 -0.0009747283
-0.0028480878 -0.0015542086 -0.0060741766 -0.009460579 -0.009630163 -0.0031279756 0.0014729538 -0.0029969087
0.0040308316 -0.011479221 -0.0028350635 0.00082033616 -0.0007459788 0.0034313744 0.0018249511 0.0046170973
0.007260606 0.0018930896 2.9482218e-05 0.00275026 0.004141461 -0.015259419 -0.003715271 -0.0013306154
-0.015214026 -0.00814302 -0.00076392066 -0.009571977 0.012275255 0.009152455 0.008494654 -0.006680662
0.007189599 -0.0141703 0.010822844 -0.007307009 -0.0036758527 -0.0034553292 -0.0034881025 -0.0017118463
-0.0040597166 -0.0018450767 -0.009196176 -0.006230568 -0.0009830866 -0.00048308892 0.00038945602 0.0013955486
-0.0003166747 -0.0006658437 0.0006524966 -0.00011068275 -0.0015871744 -0.0009659 -0.0014702192 0.000108115324
-0.0123711135 -0.00939686 -0.010130931 -0.0037497294 -0.005294898 -0.00529557 0.0023656082 0.0016895875
-0.00046694212 -0.007895179 -0.008127554 0.0033025546 -0.011108853 0.0013557562 -0.0069962866 -0.007582903
-0.0041066767 0.00055313733 0.00597871 0.0005472306 -0.0033445533 0.008457734 0.00084192876 0.0015756948
0.0071429093 0.00045851956 0.0064999973 0.0047927843 0.0024536266 0.0027465844 0.0026293898 0.0011959643
0.0027796722 0.0045853355 -0.0005903233 0.00020455361 -0.0026450343 0.00032951494 0.0010107488 -0.009175708
-0.004146308 -0.011947712 -0.008683284 -0.011493992 -0.01429769 -0.00074076076 -0.0016575214 -0.0016589592
0.0025504325 0.0012410469 0.0016780864 0.0025672014 0.0004404188 0.0012427348 0.0041338233 0.0040799314
0.0075322473 -0.006739405 0.0031887507 0.0037238523 0.0045415405 0.0042671827 0.00821971 -0.002067815
0.0006662891 0.001527616 0.00048024402 -0.0068111084 -0.004147362 -0.0055534127 -0.004615113 -0.012090039
-0.010653262 -0.016238928 -0.0065269023 0.00051632494 0.0009089248 0.0017563449 -0.0022230526 -0.00039582673
0.0020056183 0.011872206 0.012505352 0.016296031 -0.0022807932 0.009105001 0.013425042 -0.0010138891
0.011924789 -0.0021371809 -0.002010964 -0.0035819986 -0.0016657751 -0.0024692058 0.0029563836 -0.00474211
-0.0019907847 -0.00045214687 0.0035757835 -0.0026233133 0.01573351 0.010628899 -0.020210087 0.0015861167
0.003279553 -0.009067408 -0.011805979 -0.007862073 -0.0009883266 0.0020622464 -0.005240067 -0.004612573

onnx::Conv_93 f4 [64]
00000000: 3adf bd3b 62f6 413e b4eb 30bc 0bab ef3d
00000010: c26c 55be df24 50bd dbc5 d23d 832f 4a3e
00000020: b6c2 0fbe b9fd 423d c39b 533e 5db6 983d
00000030: 0c63 95bd f328 9d3e 4426 653d 0181 26bd
00000040: c0b2 afbd d7cc 0a3e caae 133e a843 ddbc
00000050: d409 1cbe 13f9 d23d 7733 44bd eb79 02be
00000060: 8522 093e f38f 913d 2d95 2a3d b91c b43e
00000070: c8a7 c2bd 5371 9dbd 674e 043d 8fc7 11be
00000080: db5f 6dbd c442 4a3d 246e f13c 3565 173e
00000090: 657a e03d 4d4a ab3d 6a91 7dbd e8b0 d93d
000000a0: d96b 183d 785f 67bd 6b5e 44be b4c1 34bc
000000b0: 7c17 2c3e 5a77 013e 9e0b 6d3d 2622 d33d
000000c0: e972 dabd 7109 343e d56e c23d f4e7 a8bd
000000d0: 6620 02bc 022f a33e eb2e 82bd b3fa 6c3d
000000e0: 532c 2dbd 9ffa e2bd 8708 4a3d d9d8 39be
000000f0: ba61 e0bd d4d3 783d 3681 48bc ae3e 01bd
0.005794433 0.18941644 -0.0107983835 0.11702546 -0.20842269 -0.050816413 0.10291644 0.19744687
-0.1403912 0.04760525 0.20664887 0.07456658 -0.07294282 0.30695304 0.055944696 -0.04065037
-0.08579016 0.13554703 0.14422145 -0.0270098 -0.15238124 0.103014134 -0.047900643 -0.1274182
0.13392074 0.07107534 0.04164617 0.35178164 -0.09504658 -0.076876305 0.032301333 -0.14236282
-0.057952743 0.04938008 0.029471464 0.14784701 0.10960845 0.08363781 -0.061906256 0.10629445
0.037212227 -0.05648753 -0.19176643 -0.011032511 0.16805834 0.12643185 0.057872407 0.10309248
-0.106664486 0.17581727 0.09493796 -0.082473665 -0.007942295 0.31871802 -0.06356605 0.057856273
-0.0422786 -0.110829584 0.04932454 -0.18149127 -0.1095614 0.06074889 -0.012237838 -0.031553917

onnx::Conv_95 f4 [64, 64, 3, 3]
00000000: 7e9d b8b9 4755 a4bc 1dd3 b63d e845 2e3d
00000010: dc36 bc3d 04e0 9c3d c837 c739 9824 1e3b
00000020: 57a6 853d ec73 c03c 3b78 063d e68b 083e
00000030: 3c66 813d f2e1 d43d 12de e83c d256 823b
00000040: 588a 8d3c a349 c13c 5d85 13bc 4c3f e0bc
00000050: 94ad 2b3d 3848 9d3c 5a41 26bc 10c5 2fbb
00000060: 4efd c03c 0924 93bc c56c 413c a35d 49bb
00000070: b5d7 943c 4ba8 283d 9f78 f33d 0c3b 0e3d
00000080: 5b03 173e bbb9 ac3b 58d3 1dbd 1edf 2ebc
00000090: e61e 8cbc 14db e73b 121c e53c 5adc 90bd
000000a0: 4c53 41bc bd17 21be d9c0 3a3b 20da 09bd
000000b0: b4b5 92bb 822d 383d 55e4 993d e17b 6ebd
000000c0: 3dce b0bc b69d 103c 0c08 d53b 45d5 6a3c
000000d0: 8194 493c cab7 ac3c e425 0e3d d4df dfbd
000000e0: 5dba 493d 3d1f 3f3e a790 cc3d 4433 6f3e
000000f0: 9431 a13d a96d b33d 0ab8 ad3d 6285 e1bd
00000100: ec4f 95bc 456f 3f3c 3c2a 36bd f138 5abd
00000110: aca3 bc3c 9c19 2dbc a584 5fbc b8a0 5b3c
00000120: fa6e d0bc 9a4a b63d 16d8 b0bd ad01 d3bd
00000130: 907c d2bd aeb1 adbd dbbd 84b8 cc8d 783d
00000140: b1f3 923d 47a3 b9bb ac96 893c d9dd bcbd
00000150: 9f8a 39bc 1ef7 f33b 5061 aabd 920b 90bc
00000160: e4ff a83c 48ba 7dbd 9608 fc3b 02c3 643d
00000170: 043c f6bd ad46 6a3d fa01 903d 9b01 fb3d
00000180: f3f0 903d 8c7f 70bc 7063 c73d aaad ce3c
00000190: 61f8 5cbd 63dc a8bd 5747 b73c 1848 73bd
000001a0: 3f53 d3ba 1126 a83b 1d0d f2bc 7873 1dbd
000001b0: 35f1 63bc 1367 d23b 2b6b 63bc 13db 553d
000001c0: 421c 233d fb6c 7b3c a6e6 123c b1d0 ce3c
000001d0: 56e8 483d c807 353d 38f5 823d 83a6 d73d
000001e0: d775 b03c b7cd 8e3d eb42 983d ca1f f23c
000001f0: 9ad0 503d a164 ac3d 91aa 9abb d1de 023d
00000200: aa0d 30bd a423 81bd 62d7 36bd 2b30 cbbd
00000210: 0d49 39bc cf5e fabb 1090 7ebc 637d a13b
00000220: 924f d0bc 0c65 c3bc 8cf1 d2b8 5403 063d
00000230: bc29 09bd cd89 2b3c 5e2a 07bd f09a 053a
00000240: 77ca 013c b214 e6bd 4cfd cabd bc2e c93d
00000250: d87c d03c 3be8 01bd 205c 9c3c da2d b33c
00000260: 84db f03c 50df 7bbb 391c b0bd a3ae cfbc
00000270: e763 61bd f952 bcbd acb0 233d 9f98 d7bc
00000280: c759 3abd 0434 3bbd 9613 583d 78e2 8a3d
00000290: a113 c23d dac5 e83d 81d2 0d3e 5294 ea3d
000002a0: 5daa 67bc dc3d 37bd f0a1 903d 496c fabd
000002b0: 660c 2cbe 5da0 56bc fd7f 75bc 4714 c4bd
000002c0: 033a 183e 7f4a 4c3d c785 083e 373e 823d
000002d0: fc90 fdbc 246e 90bc 85cc 77bc d48d 973a
000002e0: 51f4 d4bb 1ffe 1f3c b438 f4ba cbd4 bfbc
000002f0: ae86 ef3b 7ba7 a4bd 8791 80bd 2901 b6bd
00000300: 6364 9f3c 4e60 6bbd 4774 b4bb 6955 d8bc
00000310: 7cdd f73b e156 1bbd 1138 f0bc 9c5d 183d
00000320: ef56 ce3b 740d dcbd 9526 aebc d161 f5bd
00000330: 56ef 843b 8cb2 193c 676b cbbc 53df 7bbc
00000340: ec88 b0bd 8903 fabc 8bb8 54bb 51f9 d63d
00000350: 4a13 793d 0e01 7c3c 91eb 503d 2100 343c
00000360: 5ba9 163d b8ec 30bd 6110 3d3c df14 3b3d
00000370: 2e41 33bc 9cf6 423d cd13 a83c b553 3bbd
00000380: 6414 45bd a67a 0d3c 4180 76bc f54c 443d
00000390: b1ed 1a3d 51c0 85bd 33b2 093e 7bf3 b23c
000003a0: 8668 91bd 05d8 0dbd 1402 75bd 934d 213a
000003b0: 88cc 233d 5782 7c3d fc02 813d d100 8fbc
000003c0: 7d4e 72ba f091 673c 3073 54bc 3663 983d
000003d0: 291e bbbc 51f0 c03d af48 ae3d 07c8 c23b
000003e0: f309 473c 708a c6bc bce0 2dbe dc6b 74bd
000003f0: b889 4c3d 98d7 4abc a1b9 623e 801a a53c
-0.00035212556 -0.020060195 0.089269854 0.042547137 0.09190151 0.07659915 0.00037997798 0.0024130698
0.065258674 0.023492776 0.032829504 0.13334617 0.06318328 0.10394658 0.028426204 0.003977635
0.017277882 0.023594683 -0.009003964 -0.027373932 0.041913584 0.019199476 -0.010147417 -0.002682034
0.023558285 -0.017961519 0.011805718 -0.0030725978 0.018169263 0.04117612 0.11888241 0.03472428
0.14747374 0.0052711642 -0.03853163 -0.0106733125 -0.017104577 0.0070756767 0.027967487 -0.07073279
-0.011799645 -0.15731712 0.0028496294 -0.033655286 -0.004477227 0.044965275 0.07514254 -0.05822361
-0.021582717 0.008826664 0.0065012034 0.014333074 0.0123034725 0.021083731 0.034704104 -0.10931364
0.049249995 0.1866426 0.09988528 0.233594 0.078707844 0.087611504 0.08482368 -0.11011769
-0.018226586 0.011684244 -0.04447387 -0.05327696 0.023027264 -0.010565188 -0.013642465 0.013405018
-0.025443543 0.08900948 -0.08634965 -0.10303054 -0.10277665 -0.08481155 -6.329614e-05 0.060682103
0.07175387 -0.005665216 0.016795479 -0.092220016 -0.011324554 0.00744523 -0.08319342 -0.017583642
0.02062983 -0.06194523 0.007691453 0.055850036 -0.12023166 0.057196308 0.07031627 0.122561656
0.070772074 -0.014678847 0.09735763 0.025229294 -0.05394781 -0.082451604 0.022372885 -0.059394926
-0.0016122832 0.005131491 -0.029547269 -0.038440198 -0.013912489 0.006420979 -0.013880531 0.05221088
0.03982187 0.015345807 0.008966124 0.025245996 0.049049698 0.044196874 0.06394428 0.105298065
0.021540565 0.06972831 0.074346386 0.029556174 0.050980188 0.08417631 -0.00472004 0.031950776
-0.04298178 -0.06305626 -0.044639 -0.09921297 -0.011308921 -0.0076406966 -0.015537277 0.0049282773
-0.025428567 -0.023851894 -0.00010058572 0.032718018 -0.033487067 0.010469866 -0.03299939 0.0005096635
0.007921807 -0.11234416 -0.09911594 0.09823367 0.025450155 -0.031715613 0.019086897 0.02187245
0.029401548 -0.0038432665 -0.08599133 -0.025351828 -0.055026915 -0.09195513 0.03996341 -0.026317893
-0.045495775 -0.045703903 0.052753054 0.06781477 0.094764 0.11365862 0.13849832 0.11454071
-0.014139739 -0.044736728 0.07062137 -0.12227685 -0.16801605 -0.013099757 -0.014984128 -0.0957418
0.1486588 0.049875733 0.13332282 0.06359523 -0.030952923 -0.017630644 -0.015124445 0.0011562654
-0.0064988513 0.009765177 -0.0018632622 -0.023416897 0.0073097562 -0.08039757 -0.06277757 -0.0888694
0.019457048 -0.05746489 -0.0055070254 -0.026407914 0.007564245 -0.03792465 -0.02932361 0.037198648
0.0062969844 -0.107447535 -0.021258632 -0.119815476 0.0040568514 0.009380948 -0.024831487 -0.015373069
-0.08619866 -0.030519264 -0.003245863 0.10496772 0.06080941 0.015381111 0.051005904 0.010986359
0.036782604 -0.043194503 0.01153955 0.0456742 -0.010940833 0.047598466 0.020517254 -0.045734126
-0.04811515 0.008635199 -0.015045227 0.047924954 0.037824336 -0.06530822 0.13446884 0.021844616
-0.071000144 -0.03462984 -0.059816435 0.0006153222 0.039989978 0.06164774 0.06299397 -0.017456444
-0.0009243263 0.014133915 -0.012966916 0.07440798 -0.02284153 0.09420837 0.08509957 0.0059442553
0.012148368 -0.024235934 -0.1698026 -0.059673175 0.049936026 -0.012380503 0.22141124 0.020154238
