cmd/ai/datas/models/dolphin.onnx (onnx, 302121 bytes, 16 tensors)

fc.weight f4 [2, 256]
000000 c9 ce af bd 6b 6a 4d bd 35 df 0d be 21 b3 f2 bd
       -0.08584363 -0.050150316 -0.13854678 -0.118505724
000010 f7 29 ce bd a8 88 0c be 7d ff 99 bd 2e 4b bf bd
       -0.10066598 -0.13724005 -0.07519434 -0.09340511
000020 a3 50 7a bc e3 f0 43 bc 05 f6 a1 bc 8e 56 15 bc
       -0.015278014 -0.011959287 -0.019770632 -0.0091148745
000030 db 51 f9 33 27 73 8c 34 3b d0 ca b5 b4 3f 42 b6
       1.16098555e-07 2.6160816e-07 -1.5110776e-06 -2.8945333e-06
000040 0d e1 20 3e 25 52 16 3e 14 a7 b4 3d 48 cc c7 3d
       0.1571085 0.14679773 0.0882093 0.097557604
000050 9f 7f db 3d 23 5e 46 3e 91 63 53 3d 51 a7 a4 3d
       0.10717701 0.19371848 0.051608626 0.080397256
000060 c8 68 26 24 73 6b 91 25 65 70 de a7 41 a8 2f ac
       3.6084265e-17 2.52263e-16 -6.1739236e-15 -2.4962395e-12
000070 65 2f a4 93 97 44 a7 93 a4 f3 91 91 c5 7c dd 93
       -4.1446155e-27 -4.222436e-27 -2.3027121e-28 -5.5911275e-27
000080 64 2a bf 3d ba 90 ad 3d 1a 38 ff 3d d5 ab 08 3e
       0.09334257 0.0847487 0.124618724 0.13346799
000090 c5 70 bd bc 0e bf ce bc 02 96 a3 bc d1 54 a4 bc
       -0.023125062 -0.025237586 -0.01996899 -0.020059975
0000a0 ce 5d 63 25 7a dc 92 a1 45 15 8e 27 6b 3a 33 22
       1.9720894e-16 -9.951704e-19 3.9435978e-15 2.428995e-18
0000b0 c9 95 8f a6 d0 29 fe 23 af 92 ab a6 f0 1a 86 a5
       -9.963218e-16 2.7556443e-17 -1.1905267e-15 -2.3263548e-16
0000c0 f9 22 fe 3d 15 39 f4 3d f8 43 20 3e 53 78 ed 3d
       0.12409014 0.1192495 0.15650928 0.11595216
0000d0 61 74 2e 3e c6 6d 35 3e c8 f7 af 3d 95 09 df 3d
       0.17036583 0.17717656 0.085921824 0.108904995
0000e0 5e aa 0d 3e 8b a5 f4 3d 78 9a 00 3e 58 b8 09 3e
       0.13834521 0.11945637 0.12558925 0.13449228
0000f0 75 06 5a 8f c7 e0 c0 91 a0 68 96 10 ab cc 76 10
       -1.07494734e-29 -3.0430788e-28 5.932577e-29 4.8672616e-29
000100 7b 4c bb 3d d0 9c d2 3d 9b 5b 5e bc 06 06 d7 39
       0.09145447 0.10283816 -0.013571645 0.00041012483
000110 c6 cf 80 bd a1 73 84 bd 44 06 2f bd 57 80 2f bd
       -0.0628963 -0.06467367 -0.042730585 -0.042847004
000120 47 b0 96 9b 62 cb 96 9b 8b 84 12 9c 82 31 09 9c
       -2.4929335e-22 -2.4946851e-22 -4.8478656e-22 -4.5393485e-22
000130 ea 7b 1b bd 90 79 2d bd 76 1b 13 bd a2 c8 d6 bc
       -0.03795997 -0.04235226 -0.03591486 -0.026218716
000140 7f d7 b8 a2 4c a8 c6 a2 65 08 a0 a2 e6 71 ad a2
       -5.0101465e-18 -5.38462e-18 -4.3376975e-18 -4.701234e-18
000150 6f dd 91 bd 04 61 4d bd 20 55 37 bd 2d 45 75 bd
       -0.07122313 -0.05014135 -0.044758916 -0.059880424
000160 eb 15 b4 3b e7 4e 27 be 71 21 15 3b c9 79 00 be
       0.005495777 -0.16338693 0.0022755528 -0.12546457
000170 77 b6 cf bd 89 96 28 be 6a 98 98 bd 97 67 25 be
       -0.10142224 -0.16463675 -0.07450946 -0.16152798
000180 66 1d 0c 86 5a a1 c2 08 b4 48 96 06 f7 37 ea 09
       -2.6352672e-35 1.1713884e-33 5.6530556e-35 5.638608e-33
000190 73 7a 07 30 ff 85 fb 2f 0d e1 0a 30 a5 53 f8 2f
       4.9286725e-10 4.5751844e-10 5.0523924e-10 4.517037e-10
0001a0 94 c0 95 bd 61 b1 71 bd c3 8f 92 bd 29 ea 8b bd
       -0.07312122 -0.059007052 -0.071563266 -0.06831772
0001b0 e1 1e 0f 15 9f 73 d8 16 e0 a9 57 14 91 31 6f 14
       2.890298e-26 3.496965e-25 1.0888228e-26 1.2076192e-26
0001c0 a2 37 ad 1a 01 85 08 1f 1d 4e 96 9d 8f ae 03 a1
       7.1641e-23 2.890914e-20 -3.9785437e-21 -4.4615553e-19
0001d0 aa 9a 04 be e3 68 59 be e1 34 ac bd 90 ac 2f be
       -0.12949625 -0.21231417 -0.08408523 -0.17155671
0001e0 cc bb 84 3b 4a f0 91 ba d1 ea 9b 3b 76 5e 72 bb
       0.0040507074 -0.0011134234 0.004758217 -0.0036982573
0001f0 e1 2c 31 16 bc 97 41 16 5f 37 77 15 e7 6c 0d 16
       1.4312107e-25 1.5638295e-25 4.9924933e-26 1.1424253e-25
000200 c5 29 ff 13 4c 82 0c 14 08 d6 0c 14 62 d6 f7 13
       6.4412238e-27 7.09389e-27 7.110404e-27 6.2562964e-27
000210 2e 06 e3 3c 92 73 db 3d a7 dd b5 3d 8d 0d 0b 3e
       0.027712908 0.10715403 0.088801675 0.13579388
000220 c6 13 2b 33 ee ea 89 33 97 dc a3 36 97 3d df b7
       3.9832024e-08 6.422293e-08 4.8834586e-06 -2.6612352e-05
000230 92 2e 0c 3e b9 22 0e 3e 9a 67 2a 3b f3 aa 7c 3d
       0.1368964 0.13880433 0.0026001693 0.061686467
000240 78 12 e1 0e 8e 05 e0 0e 53 47 f7 0e 89 d3 f3 0e
       5.5484567e-30 5.5225612e-30 6.0958884e-30 6.0107826e-30
000250 46 db 62 1d 14 38 67 1d 97 cc 9d 9c e1 54 30 9c
       3.0024213e-21 3.0601587e-21 -1.0442274e-21 -5.834322e-22
000260 d6 dc f8 bc e1 ff b9 bc d1 75 ce bc 52 8b a8 bc
       -0.03037874 -0.02270502 -0.025202664 -0.020574246
000270 5b 6e b9 3d 62 27 c4 3d 5d f4 cb 3d d4 29 b6 3d
       0.09054252 0.09577824 0.09958718 0.08894697
000280 b3 0c d2 3d e6 32 f8 3d 98 50 04 3e c9 f8 00 3e
       0.102563284 0.12119083 0.12921369 0.12594904
000290 7c 89 8f 3d f9 4a 74 3d 2b 46 05 3d d4 72 2d bc
       0.07008645 0.059641812 0.03253762 -0.010586459
0002a0 ab a3 04 be cb ad ed bd 06 86 ae bd a2 ab ae bd
       -0.1295306 -0.11605414 -0.08521657 -0.0852883
0002b0 06 4e 03 bc f2 bb 25 bc 9e 92 68 bc ac 8a 37 bc
       -0.008014208 -0.01011561 -0.0141951125 -0.011202496
0002c0 dc a7 15 3e b2 49 eb 3d 31 6f eb 3d fc ac 03 3e
       0.14614815 0.11488666 0.114958175 0.12858957
0002d0 5f 2a 30 1b 6a ab 5d 1b d4 8d 0e 1b c3 35 4d 1b
       1.457207e-22 1.8336078e-22 1.1791792e-22 1.6974574e-22
0002e0 bb 0a 20 be bb 5a cf bd 23 78 2a be 97 ae 01 be
       -0.15629093 -0.10124727 -0.16647391 -0.12664257
0002f0 9e db 48 ad e0 d9 9d af 41 e5 0e 28 96 05 16 26
       -1.1417449e-11 -2.8712943e-10 7.932295e-15 5.2049275e-16
000300 94 2e 2c 88 54 5b 72 0a a4 d2 d8 87 a9 2f e0 89
       -5.181412e-34 1.1669053e-32 -3.2623871e-34 -5.3970858e-33
000310 54 a2 ae 3d f1 71 c9 3d e1 ac ee ba 95 70 3a ba
       0.085270554 0.09836186 -0.0018209481 -0.0007112113
000320 ee ee 95 3d 43 51 78 3d 35 74 f0 3d 6f 70 05 3e
       0.07320963 0.060624372 0.11740915 0.13031171
000330 1a cf 01 0d ca 4e 03 0d 91 d0 19 0d f3 a3 15 0d
       4.0000483e-31 4.046233e-31 4.739782e-31 4.6111517e-31
000340 32 c5 c0 bd b2 8c 24 be 5f 9d 04 be ac b7 09 be
       -0.09412612 -0.16069296 -0.12950657 -0.13448972
000350 ef 6b aa 3d d9 4b b7 3d 8e 3b 82 3d 43 75 f7 3d
       0.08321368 0.08950014 0.063590154 0.12082913
000360 04 62 de bd 2d ab 1b be 4a 66 20 be 09 81 0d be
       -0.10858539 -0.15202017 -0.1566402 -0.13818754
000370 3f 9b 01 bd 0c 93 2b bd 8f 2d a8 bc 14 ca 2c bd
       -0.031642195 -0.04188828 -0.020529537 -0.042184904
000380 cc 79 ae 1c e7 d9 9b 1c 81 33 17 1c 44 43 e8 9c
       1.1545838e-21 1.0313366e-21 5.0028276e-22 -1.536986e-21
000390 86 ed a0 b0 98 54 6b 31 a4 d1 38 b6 f4 03 16 33
       -1.170904e-09 3.4245087e-09 -2.7540164e-06 3.4928192e-08
0003a0 1f bf 4a 17 f7 7d ca 97 80 84 9a 16 98 f7 ae 16
       6.551095e-25 -1.3085742e-24 2.496366e-25 2.826747e-25
0003b0 7b 5d 99 14 2e 92 bf 14 45 a8 b7 14 38 3d ef 14
       1.5485924e-26 1.9343729e-26 1.8544648e-26 2.415698e-26
0003c0 c5 f6 fd 17 b1 60 09 18 85 27 09 18 56 29 1c 18
       1.6412035e-24 1.7755652e-24 1.7726787e-24 2.0183397e-24
0003d0 56 11 db 3c 17 e6 b0 3c e0 b9 3b 3c c8 42 0f bc
       0.026741665 0.02159409 0.01145789 -0.008743949
0003e0 4b 2d 71 bc 8f 76 b1 bc 05 c9 5a bc ba e4 8d bc
       -0.014720271 -0.021662978 -0.013353591 -0.01732098
0003f0 5a 2a ff bc 90 0c 37 bd bc 6b b2 bd 26 d0 bc bd
       -0.031148124 -0.044689715 -0.08711955 -0.09219389

fc.bias f4 [2]
000000 95 fa ab 3b cc 5a 83 3d
       0.0052483776 0.064138025

onnx::Conv_80 f4 [16, 3, 7, 7]
000000 91 d5 0b bc 00 5c 1a bd 3d d2 ab 38 77 f9 6b 3d
       -0.008534805 -0.037685394 8.193075e-05 0.057610955
000010 cc ab 9d bc 13 b8 f0 3c 05 7e 33 bd c8 28 11 bd
       -0.019246958 0.029384648 -0.043821353 -0.035439283
000020 e1 a0 96 bb 76 96 97 3d 0a 48 a1 3d b1 a0 2f 3b
       -0.004596815 0.07401745 0.078750685 0.002679866
000030 f9 bd a1 bc 25 51 45 3d 0c 14 2a bd 55 d6 4b 3d
       -0.019743906 0.04817309 -0.041523024 0.04976495
000040 a9 58 73 3d b8 bb 0a bb d8 46 d0 3d 04 51 cd 3d
       0.059410725 -0.0021169018 0.101697624 0.10025218
000050 5b 1e de 3d 49 13 ac 3c 9f ac 2b 3d 3f 26 8d 3d
       0.108456336 0.02100529 0.04191267 0.068920605
000060 6a 9d 8f 3d dc 3f 6b 3d 23 d1 99 3d ad 21 cb 3d
       0.07012446 0.057433948 0.07510593 0.099185325
000070 d5 04 74 bb 3b 12 24 ba 35 df ac 3d 4c a3 1f 3d
       -0.0037234325 -0.000625882 0.08441011 0.03897409
000080 cc e9 98 3d ff ba 31 3d cd fb 15 3d 23 94 fe bc
       0.07466468 0.043391224 0.03661709 -0.031076496
000090 cb 61 85 3c e3 ea 84 3d b7 3a 01 bc 21 f4 dc bc
       0.016281983 0.064901136 -0.007887534 -0.026971878
0000a0 10 3c 73 bd 18 c6 ea bb d9 fc 92 bc 1f 99 ea 3c
       -0.059383452 -0.007164728 -0.017942833 0.028637467
0000b0 41 a0 58 bd 73 b7 05 bd a0 1c 22 bd cc 35 47 bd
       -0.052887205 -0.032645654 -0.03957808 -0.04863529
0000c0 b4 af 1b ba 8f 41 c4 bb e9 62 5d bd 1b 1d c4 bd
       -0.00059389626 -0.0059892605 -0.054049406 -0.09575864
0000d0 62 45 e5 bc 4c dc 8a bd 36 ac 73 bd 3a ec 74 bd
       -0.027987186 -0.067802995 -0.059490405 -0.059795596
0000e0 d6 cf 50 bd d5 c5 08 bd 91 e1 57 bc 6e 53 89 bd
       -0.050979458 -0.033391792 -0.013176338 -0.06705366
0000f0 ae 80 ac bc d6 11 59 bd f4 fe 96 3d 65 f0 27 bd
       -0.021057453 -0.052995525 0.07372847 -0.041000742
000100 04 8f 00 bd cc 86 6e bd ac 29 a7 3b e3 30 11 bd
       -0.03138639 -0.05823402 0.005101403 -0.035447013
000110 16 88 0a bd 95 99 81 3d 79 e4 44 bd 5e d5 7e bd
       -0.033821188 0.063281216 -0.04806945 -0.0622152
000120 3b 79 9f 3b bd 33 49 3b 48 fb 8f bc a3 bf b0 3c
       0.0048667467 0.0030701004 -0.017575875 0.021575755
000130 49 37 0f bd 34 84 82 bc dd d4 fc 3b 6f 9d bd bc
       -0.034964833 -0.01593218 0.007715805 -0.02314636
000140 6e 4d c8 3d dc 5a a8 3d fd de 27 bd d9 5d 1c bc
       0.097803935 0.08220455 -0.040984143 -0.009543859
000150 6d d5 cb 3c 08 d4 a6 bc d7 c4 3f bc 3d 33 23 3c
       0.024882043 -0.020364776 -0.011704645 0.009960947
000160 68 85 41 bd 2f db 8a bd 9c e3 aa bd 2e 62 29 bb
       -0.047246367 -0.06780087 -0.08344194 -0.0025845873
000170 e5 71 f8 bb 19 8d 44 bd 77 a4 03 3b 47 0a 66 3c
       -0.0075819367 -0.047986124 0.0020087042 0.014040536
000180 da ca 43 3c 1f e2 e6 3c 27 17 f1 bd d9 88 db bd
       0.011950219 0.028183995 -0.11771994 -0.10719461
000190 d5 26 0f be 33 d7 9b bd 38 97 d9 bd 9e 31 0b be
       -0.13979657 -0.07609405 -0.10624546 -0.13593146
0001a0 52 28 13 bd 75 75 84 bd d7 61 55 bd c3 03 b9 bd
       -0.035927124 -0.06467716 -0.05209526 -0.090339206
0001b0 53 67 72 bd 0a 7f 99 bd f9 cb 80 bd 06 a8 32 bd
       -0.05918057 -0.07494934 -0.06288905 -0.04361727
0001c0 d8 05 91 bd 2a c5 33 bd 49 ca 9b bd 7c fe 5d bd
       -0.07081193 -0.043889202 -0.07606942 -0.054197773
0001d0 96 2a 44 3c a5 db 14 3d b9 5c a2 3b e2 e9 73 bd
       0.011973044 0.03634228 0.004954901 -0.05954922
0001e0 c9 59 c1 bc 19 bb 0c bd 10 8a ee 3c a8 17 8a 3b
       -0.023602383 -0.034358118 0.029118568 0.004214246
0001f0 3d 4f 82 bc 3b 9a 81 3d 50 ea b8 bc 29 80 24 3d
       -0.015906924 0.06328245 -0.022572666 0.040161286
000200 e9 84 2e 3d 7b 60 89 3d b4 67 1c 3d 31 bf 6a 3c
       0.04260722 0.06707855 0.038184837 0.01432781
000210 03 d6 cc 3c 2f 94 5f 3d 3e b9 0a bd 20 25 14 bd
       0.025004392 0.05458468 -0.033868067 -0.036168218
000220 70 d4 b6 3d d6 9f c5 bc 2f 2e 93 bd 33 62 a5 bc
       0.08927238 -0.024124067 -0.07186543 -0.020188427
000230 6d 60 19 3d aa 2e 6b 3d e4 8e 82 3c 0d a0 10 bd
       0.037445474 0.05741755 0.015937276 -0.035308886
000240 cb 76 ff ba 6c c2 c4 3c 4d 3c 86 3d 59 c4 83 3b
       -0.0019490359 0.024018489 0.0655447 0.004021209
000250 d4 d5 ff 3b 59 76 a4 3c ad 4b 70 3c 55 29 b7 3c
       0.0078074727 0.020075964 0.01466648 0.022358576
000260 4d ee 33 3c 08 a6 2c 3c 45 d9 a8 bb 5a df 0e 3c
       0.010982108 0.010537632 -0.0051528537 0.008720243
000270 e1 df 80 3b 05 04 4e 3c b2 37 87 3c 49 0c 99 3c
       0.0039329384 0.0125742005 0.01650605 0.018682616
000280 2f 78 ac 3c 15 0d 7b 3b e5 fa 04 3c 4d b8 89 3c
       0.021053402 0.0038307358 0.008116459 0.016811514
000290 3b d9 b7 3c c9 e2 c1 3c c3 b5 b4 3c 90 20 01 3d
       0.02244245 0.02366771 0.022059327 0.031525195
0002a0 48 8c 65 3c be 95 7b 3c e7 07 4d 3c b9 80 18 3c
       0.014010496 0.015355526 0.012514091 0.009308034
0002b0 ba d5 35 3c 37 02 cd 3c c0 46 e8 3c 47 97 95 bb
       0.01109832 0.02502547 0.028354049 -0.004565153
0002c0 1a f2 24 3c ae 01 35 3c e0 be 66 3c 34 66 33 3c
       0.010067487 0.011047764 0.014083594 0.01094966
0002d0 9c 2b 94 3c 67 62 89 3c db 5a bc bc 36 39 4a bc
       0.0180872 0.016770555 -0.022992542 -0.012342742
0002e0 74 63 65 bc 9a 27 3f bc 26 c7 87 bb 02 c3 55 3b
       -0.014000762 -0.011667157 -0.0041436134 0.0032617454
0002f0 a0 99 19 3c 2a f5 cc bc 46 ad e6 bb 41 39 bb ba
       0.009375006 -0.025019247 -0.007039699 -0.0014284031
000300 bb af 17 bc 25 95 00 bb 61 b7 e2 3a 08 ca a6 3c
       -0.009258206 -0.0019620147 0.0017297083 0.020360008
000310 3d e5 e8 bb f9 78 ba 3b af 71 62 3c 0a 85 6c 3c
       -0.0071074055 0.0056906906 0.01382105 0.014436016
000320 ad e3 cd 3c 01 29 62 3c c8 24 23 3c 3e 91 8e 3b
       0.025132978 0.013803721 0.0099575 0.0043508103
000330 3b 23 3d 3c 64 8a 89 3c f3 3f be 3c 58 9e ab 3c
       0.011544044 0.016789623 0.023223853 0.020949528
000340 b1 b2 86 3c 5c f5 a2 3c d2 d2 1a 3c 38 f7 7a 3c
       0.016442629 0.019892387 0.009449678 0.015317731
000350 d1 67 96 3c 36 27 9e 3c 9f e9 9f 3c bb c1 81 3c
       0.01836005 0.019305807 0.019520579 0.015839448
000360 ae 59 9c 3c 1c ac 3a 3c b1 d1 49 3c 1a 64 94 3c
       0.019085731 0.011393573 0.012318061 0.018114138
000370 fc 83 99 3c a6 50 86 3c f9 54 87 3c 84 67 a3 3c
       0.018739693 0.016395878 0.01652001 0.019946821
000380 7a f4 64 3c c4 0b 98 3c f0 00 95 3c fa 1b 93 3c
       0.013974303 0.018560298 0.018188924 0.017957676
000390 35 ee 8d 3c 38 96 af 3c 2a 4d c7 3c ce f2 7b 3c
       0.0173255 0.021433935 0.024328787 0.015377713
0003a0 4b 6d bf 3c 0d 4b ce 3c 29 62 b8 3c 5c 48 a1 3c
       0.023367545 0.025182271 0.022507744 0.019687824
0003b0 5b d5 be 3c 37 3c ee 3c 0a 3d d0 3c 03 70 dd 3c
       0.023295095 0.029081447 0.02541973 0.02703095
0003c0 93 91 9f 3c 7f b9 af 3c 9c 6c f6 3c b8 38 e4 3c
       0.019478595 0.021450756 0.030081086 0.027859077
0003d0 ab cb c0 3c 68 70 ed bb a1 d8 ab 3b 00 d4 d7 bb
       0.023534616 -0.007246066 0.00524433 -0.0065865517
0003e0 3a 39 c9 3c eb 3b cb 3c 1e 85 83 3c 83 63 ee bb
       0.02456342 0.024808845 0.016054686 -0.0072750463
0003f0 11 f8 48 3b 13 da 0c 3c 9c 4e 3f 3c 03 15 8e 3c
       0.0030665437 0.008596915 0.011676457 0.017344004

onnx::Conv_81 f4 [16]
000000 4f d4 0a 3f ea 6a 36 bf ea 5b a8 be f8 be 9f be
       0.5423021 -0.7125689 -0.32882625 -0.31200385
000010 aa e4 9b 3e 73 0d c3 bd 96 e9 29 3f b5 f8 12 bf
       0.30447894 -0.095240496 0.6637205 -0.57410747
000020 c3 5a fb 3e 4d 92 b7 bc 1c 23 81 3e 35 82 b9 bd
       0.49092683 -0.022408629 0.252221 -0.09058038
000030 f4 f2 29 be 7e d6 9a 3f fd ad f2 be bf 15 12 3e
       -0.16596586 1.2096708 -0.47398368 0.14266108

onnx::Conv_83 f4 [32, 16, 3, 3]
000000 01 a3 f8 ba 04 b3 9f bb 6e 20 c5 bb f9 15 9a bb
       -0.0018969477 -0.0048736352 -0.006015829 -0.0047023264
000010 c8 12 cf bb eb 42 9f bb 60 eb a4 bb ce d8 8b bb
       -0.0063193776 -0.004860272 -0.0050329417 -0.0042677885
000020 b7 f8 59 bb df cd a6 3a 42 07 9b 3a bf 88 b2 b9
       -0.0033259818 0.0012726149 0.0011827725 -0.0003405269
000030 1f aa ba 3a 38 7c ce 3a 40 3c 91 38 d8 42 47 ba
       0.0014241374 0.0015753573 6.925361e-05 -0.0007601208
000040 64 d0 6e b9 bd 6e 6f ba 21 ab 9b bb 22 b1 57 3c
       -0.0002277508 -0.0009133628 -0.0047506248 0.01316479
000050 65 a9 0c 3c 5f 98 7c bb e2 0c ef 3b 24 b4 28 ba
       0.008585309 -0.0038542969 0.007295237 -0.00064355345
000060 f9 fa 27 bc cb 84 3b bb 8e ea 39 3c 8f a7 3d bb
       -0.010252708 -0.0028613086 0.011347426 -0.0028938984
000070 b8 10 e7 ba 86 08 4a bb f1 b3 64 ba 91 95 95 3a
       -0.0017628884 -0.0030827834 -0.0008724323 0.0011412372
000080 29 67 8a ba cc a0 00 ba 03 9e 7b 3a c5 6e 36 ba
       -0.0010559309 -0.0004906773 0.0009598436 -0.0006959255
000090 10 8c 0b bb 9a f4 d7 bb 3b 57 e0 bb a0 06 80 bb
       -0.00212932 -0.006590438 -0.006846336 -0.0039070398
0000a0 c9 3f 62 bb 96 bf ae bb 7c cf 74 bb 57 82 56 bb
       -0.0034522882 -0.0053328974 -0.0037355116 -0.0032731497
0000b0 ea 59 0d bb aa 33 7e 3c a6 cc e1 3b 0d bf bf bb
       -0.0021568486 0.015515247 0.006890851 -0.0058516324
0000c0 f6 ea a4 3b 9d a4 64 3a 7e 14 aa bb 37 95 9a bc
       0.0050328923 0.0008722039 -0.005190431 -0.01886998
0000d0 92 2e dd bb e2 51 23 bc ba ec 5f bb 72 4b b2 39
       -0.0067499364 -0.009968253 -0.00341682 0.00034007017
0000e0 39 b4 06 3b b5 5f 7e bc 18 7c 72 3b 12 cb 70 3c
       0.0020554198 -0.015525748 0.0037000235 0.014696853
0000f0 4a fe 5b bc 4c f3 3d bc 4c 41 e5 3b dd 87 00 bb
       -0.013427326 -0.011593651 0.0069963094 -0.001961223
000100 62 8f 9c ba c1 6c c2 ba 26 91 ca ba 4e 85 5d ba
       -0.0011944587 -0.0014833437 -0.0015454635 -0.0008450345
000110 23 03 e7 ba bc 9f 1f bb b3 26 02 bb 41 7e 6a bb
       -0.0017624836 -0.0024356684 -0.0019859492 -0.003578082
000120 cf c4 6d bc 36 38 a5 3b 23 f2 b7 b9 f2 66 52 bc
       -0.014512255 0.0050421013 -0.00035084886 -0.012841927
000130 35 23 48 3b ec a8 c4 3c 24 e3 8f bc ee 44 26 bb
       0.0030538563 0.02400633 -0.017564364 -0.0025370675
000140 12 40 86 3c c8 3c 53 ba 2c 86 c4 ba 7d f4 a5 ba
       0.016387973 -0.00080580683 -0.00149936 -0.0012661364
000150 7d 2e a7 ba cb 4f 90 ba 34 f3 e0 ba 05 df 14 ba
       -0.0012754943 -0.0011010108 -0.0017162324 -0.00056789845
000160 5b ce 27 ba 2e 6a 9f ba 53 22 a9 bb cd 20 03 3c
       -0.0006401294 -0.0012162381 -0.0051615625 0.008003426
000170 b8 5b 47 3c 51 d7 4a bb 58 7d 70 3c 32 1a 62 3c
       0.012167864 -0.0030951092 0.014678322 0.013800191
000180 4e 4a 16 bc 4f 58 3f bb 8f 6a da bb 7a 4f 54 3c
       -0.009172989 -0.0029196923 -0.006665535 0.012958402
000190 0d 5f 66 3c 7e d3 16 3c 12 45 05 bb 8f 83 a6 3a
       0.014060748 0.009205697 -0.0020335359 0.0012704002
0001a0 0a 6c e3 3a 1d f2 ad bb 03 78 85 bb ae 8e c2 bb
       0.0017350924 -0.005308403 -0.0040731444 -0.005937419
0001b0 9e 74 91 bb 48 92 01 bb c5 52 f0 ba 67 7b a1 ba
       -0.0044389507 -0.0019771028 -0.0018335214 -0.0012320102
0001c0 3f bd cb 3b d3 58 65 bb 9e 9d 2c b9 2f e9 9b 3b
       0.0062176283 -0.003499557 -0.00016461915 0.0047580223
0001d0 51 da d8 ba e4 76 c6 bb e3 ba ae bb 01 4c cb bb
       -0.0016544556 -0.0060566533 -0.005332337 -0.0062041287
0001e0 83 6f b3 bb ec d4 88 bb f1 2e 5f bb 68 b1 c7 bb
       -0.0054759397 -0.004175773 -0.003405508 -0.0060941465
0001f0 9b b9 34 bb 57 18 3f bb 1c 84 d8 bb c9 a8 29 bb
       -0.002757645 -0.0029158795 -0.0066075455 -0.0025887957
000200 47 62 d7 3a 56 9b 37 bb 26 f7 5b bb aa 9b f3 ba
       0.0016432487 -0.0028016171 -0.003356406 -0.001858582
000210 e9 2b 8e bb 23 2f c3 b9 13 ac 40 bc 2d 9d d9 bb
       -0.0043387306 -0.00037228418 -0.011759776 -0.0066410513
000220 bb b5 1a 3b 86 45 ce 3b f1 9e 32 bb 73 bd 4d ba
       0.0023606855 0.006294909 -0.002725538 -0.00078483595
000230 c1 f1 05 3a f5 f8 66 bb ab 68 ff ba 26 13 6b bb
       0.00051095715 -0.0035243605 -0.001948615 -0.0035869568
000240 60 42 61 3d d4 7c 6c 3d 62 0a 66 3d 42 2a 5e 3c
       0.05499494 0.057736233 0.056162246 0.01355988
000250 84 a8 0e 3b 40 14 7f 3c c2 05 09 3b f7 7c 75 bb
       0.0021767924 0.015568793 0.0020907973 -0.0037458518
000260 e8 fa d7 ba bf 6b 02 bb 5d 9c 8a 3b 3c f1 ae 3b
       -0.0016477974 -0.0019900647 0.0042300657 0.005338816
000270 79 a2 c7 3a 5a 55 92 3b 48 49 59 3c 73 ff 04 3c
       0.0015230916 0.004465741 0.0132621005 0.008117544
000280 f2 43 6d 3b c3 0b 61 3c cc 99 dc 3b 67 88 30 bd
       0.0036203829 0.013735714 0.006732201 -0.043098833
000290 10 d6 98 bc 76 8f 29 bc 5b e7 d0 bc cb a8 03 3c
       -0.01865676 -0.010349145 -0.025500944 0.008035849
0002a0 e0 2b 33 3d c4 16 8f 3c ea 09 3e 3d 0f 06 cf 3a
       0.043743014 0.01746691 0.046396174 0.0015794652
0002b0 6e c0 c0 bb 62 c9 69 bb 32 4d 93 3b 7e 15 ac 3b
       -0.0058823144 -0.0035673012 0.0044952864 0.0052515855
0002c0 21 27 5f 3c 99 d1 a7 3c 67 f0 ae 3c 51 dc 9a 3c
       0.013620169 0.020485686 0.021354867 0.018903883
0002d0 d2 5b c9 3c d8 04 03 3c f7 60 bb 3c a7 74 cc bb
       0.024579916 0.00799676 0.022873385 -0.006239492
0002e0 b6 05 be 39 73 ca f2 39 05 30 f7 bb 3f a1 d2 bb
       0.0003624388 0.00046308673 -0.007543566 -0.0064279134
0002f0 24 91 5c 3a 4d a9 06 3d 8c 4e e5 b9 9a 07 86 bb
       0.00084139616 0.0328763 -0.00043736806 -0.0040902616
000300 fd ee 56 3c fc 6f 73 bc e3 05 2b 3c e3 07 f0 3b
       0.013118503 -0.014858242 0.010438415 0.007325159
000310 aa fa 36 3c dc 71 7b 3b 2c ba 0c 3d 35 e9 19 3d
       0.011168161 0.0038367426 0.034357235 0.03757592
000320 22 87 20 3d 0e e3 45 3c 44 ba 92 bc ef dc 15 bd
       0.039191373 0.01207806 -0.017911084 -0.03658765
000330 df ce b5 3c bd 01 c4 bb e3 ff 08 bb 8d e7 a4 bb
       0.02219337 -0.0059816525 -0.0020904473 -0.005032486
000340 ae 25 94 bb a6 e8 57 bc eb f6 21 bc e4 e8 04 bb
       -0.0045210933 -0.013178026 -0.00988553 -0.0020280415
000350 6e 92 03 bc 38 a4 b0 bb 11 5b dc bb 00 c0 46 bb
       -0.008030517 -0.00539067 -0.006724723 -0.0030326843
000360 ce fd 38 3d 49 ac 88 3c 18 3c 0e 3d 1c b7 80 3c
       0.045163922 0.016683714 0.03472528 0.015712313
000370 39 39 bf bc 45 57 1d bd e8 bc 73 3c 53 3e 99 bc
       -0.023342716 -0.038413305 0.014876582 -0.018706476
000380 f8 39 68 bc 50 96 83 bc 41 aa 81 bc 2b 48 67 bc
       -0.014173977 -0.016062886 -0.015828254 -0.014116327
000390 d0 53 e7 bb d6 2d ad bb b9 44 37 bb 9e a0 26 bc
       -0.007059552 -0.005285005 -0.0027964546 -0.01017013
0003a0 f3 27 49 bb 38 05 10 3c 13 82 7b 3c b9 3f b6 bb
       -0.0030693978 0.008790307 0.015350836 -0.0055617956
0003b0 a3 98 a7 3a 32 1b fc bb 43 a9 7c bc 88 28 83 ba
       0.0012786578 -0.0076936716 -0.0154212145 -0.0010006586
0003c0 63 75 3a bd 68 f7 f4 bc f8 eb dd 3b 41 cf e0 bc
       -0.045522105 -0.029903129 0.0067725144 -0.027442576
0003d0 7d 60 33 bd 88 0c 1e bd af 6c 93 bc 90 5b 6c bc
       -0.04379319 -0.03858617 -0.01799616 -0.014426127
0003e0 3d b3 f9 3b 1d 8b 1c bb 4c f0 22 3c 7c b7 08 3d
       0.007620244 -0.002388663 0.009944987 0.03337811
0003f0 05 7a 9c 3c ff 31 f4 bc 59 fc 0c bd ea 0f f7 3c
       0.019101152 -0.029808996 -0.034420345 0.030158956

onnx::Conv_84 f4 [32]
000000 e0 d1 78 3b f1 e3 b8 bd 12 52 a6 bd be ed 8d 3e
       0.0037966892 -0.090278514 -0.081211224 0.27720445
000010 ab de fc be da 02 3f 3d b4 20 75 be 44 c4 7c 3d
       -0.49388632 0.04663358 -0.23938257 0.06171061
000020 cd 75 22 3d 26 3c 30 3e b5 1c 1d bd cc 67 ce 3d
       0.039663125 0.17210445 -0.038357455 0.100783914
000030 94 fc e8 3d dc 5b b3 bd c8 3c 26 3d 3e 4d 45 3e
       0.113763005 -0.08757755 0.04058531 0.19267747
000040 20 f3 2f bc 58 b8 e6 3d e8 f8 6b 3c 72 b9 2d 3e
       -0.010739118 0.112656295 0.014402606 0.16965273
000050 1b 71 4c 3e 31 bd 1d 3e c9 c4 b8 3e 38 e1 df bd
       0.19965021 0.15404202 0.36087635 -0.10931629
000060 72 9a 87 be 57 0a 98 3e 81 05 d0 bd 5c e3 f0 3d
       -0.2648502 0.2969539 -0.101573 0.11762115
000070 7b 1e 37 be e8 45 31 3e 58 22 d8 3d 35 e4 ff 3d
       -0.17882721 0.17311823 0.105534256 0.12494699

onnx::Conv_86 f4 [32, 32, 3, 3]
000000 89 50 4e bb ca 72 c5 3b 9e e4 91 3b bf d7 01 3a
       -0.0031481108 0.006025647 0.004452302 0.0004953108
000010 77 f9 d2 3a dd c4 cd 3a a8 d2 26 bb 37 75 69 b8
       0.0016096075 0.0015698929 -0.002545515 -5.5660694e-05
000020 c5 b9 8c 3b 78 82 0c bc f7 89 4a bc 45 ea 85 3b
       0.0042946064 -0.008576028 -0.012361995 0.004086765
000030 de 88 5f bc 38 dd e7 bc c9 34 af bc c3 c4 40 3d
       -0.0136434715 -0.028303728 -0.021387475 0.047062647
000040 a8 f9 2f 3d a5 0c 38 3d 04 e6 96 3d 05 81 f7 3b
       0.0429627 0.044933934 0.07368091 0.007553222
000050 30 52 8f bd 31 94 88 3c 50 e6 be 3c 5c d7 50 bd
       -0.06998098 0.016672226 0.023303181 -0.050986633
000060 8c 19 22 bd b9 8a 41 bd 6c 28 c7 bc 2b dc ab bd
       -0.039575145 -0.047251437 -0.024311267 -0.08391603
000070 38 de 2a bd df 2a 50 bd 4c fa 59 bd 13 c7 ec bb
       -0.04171583 -0.050822135 -0.053217217 -0.00722588
000080 e6 56 cb bc 31 8d 73 bd 8e a9 b5 bc 82 1b 1b ba
       -0.02482171 -0.059460822 -0.022175577 -0.000591688
000090 2a 63 3d bc 76 3d 10 bc 31 bb c7 3b 48 33 01 bd
       -0.011559287 -0.008803716 0.006095313 -0.031543046
0000a0 ea d9 04 3c 57 f8 e1 bb 67 48 e3 bb be 53 ca 3b
       0.008108595 -0.0068960595 -0.0069361213 0.0061745336
0000b0 b9 5c ed bb 3a 96 a1 bc 02 d6 c4 bc ef ca 84 bb
       -0.0072437194 -0.019724954 -0.024027828 -0.004052512
0000c0 0d a8 05 bc 57 e7 b1 3b 64 b0 9a 3c 9f 8a 08 bb
       -0.008157742 0.005429189 0.018882938 -0.0020834578
0000d0 9a af 32 3c ad 2e 81 3c c1 fb ff 3b c6 42 f6 3c
       0.0109061245 0.015769327 0.007811994 0.030061137
0000e0 e5 03 97 bc 07 7a 36 3d 4e f5 8b 3d 4f b9 ca 3c
       -0.018434474 0.044549968 0.068338975 0.024746565
0000f0 ed a8 de bc 19 b4 04 3c 32 15 42 bd 2b c3 9c bc
       -0.02718016 0.008099579 -0.047383495 -0.019136032
000100 dd e3 1f bd 4a 65 bd b9 af 63 1e 3d 54 df 80 3b
       -0.039035667 -0.00036124355 0.038669284 0.003932873
000110 a8 bc 34 3c 27 a6 e1 3d 76 07 b3 3d ff 2e ac 3d
       0.011031307 0.11018019 0.087416574 0.08407401
000120 24 d0 d4 bb 1a bf 89 bb 16 77 86 ba 23 ef 1e bc
       -0.006494539 -0.0042036893 -0.0010258879 -0.009700569
000130 5f cf 64 bb c3 5a 12 bb 11 96 ab bb 73 bc 87 bb
       -0.0034913642 -0.002233193 -0.005236395 -0.004142338
000140 da 70 2f bb f4 3e ff bc de 01 19 bd ad 21 06 3d
       -0.0026770146 -0.031157948 -0.037355296 0.03274696
000150 26 b8 d7 bc 81 0a 21 bd 71 be b7 3c dd 50 8f 3c
       -0.026332926 -0.039316658 0.022429677 0.017494613
000160 78 d6 3f bb b2 95 07 3d c2 a6 40 bc 7c b6 8f 3b
       -0.002927212 0.033101745 -0.011758508 0.0043857675
000170 4a 21 bd 3c 61 21 86 3d c5 c5 71 3d 69 bc 8e 3d
       0.023087163 0.06549335 0.0590265 0.0696953
000180 ef 28 fd bc b0 4b a3 bc 9f 76 81 bc 70 8b 8f bc
       -0.030903308 -0.019933552 -0.015803633 -0.017522544
000190 91 a4 4d bc 45 f6 1d bd e6 d8 18 3d 5d 23 ab 3c
       -0.012551443 -0.03856494 0.037316225 0.020890886
0001a0 5d ce 19 bd eb fe c6 bc f3 46 3a 3d 45 5f 17 bc
       -0.03755032 -0.024291476 0.04547782 -0.009239023
0001b0 3e fe 62 bc 25 44 b8 3c b2 17 6f 3b fd d0 85 3d
       -0.013854561 0.022493431 0.003648263 0.06534002
0001c0 61 8d d4 3d ad 6b a0 3d 45 6e 4b bc 0a d3 82 3d
       0.103785284 0.078330375 -0.012416427 0.06387909
0001d0 b3 78 cf 3b e2 d9 ba bc 5d b6 7f 3c 25 bb 4f bd
       0.006331527 -0.022808973 0.015607444 -0.050715584
0001e0 1d 13 75 bd 07 ae 1e bd 9b 2e ba bd 06 2b fd bb
       -0.05983268 -0.038740184 -0.090909205 -0.007726076
0001f0 7c ae ec 3c 38 c4 13 bd 51 2d fe bc 1a c5 9d bc
       0.028891794 -0.0360758 -0.031027468 -0.019259024
000200 0c 74 49 bc 54 06 a2 bc d4 0b ee 3a b2 10 14 bb
       -0.012295734 -0.019778408 0.0018161484 -0.002259296
000210 67 78 87 bc 63 c9 13 3b d2 da ac bb 28 e0 89 ba
       -0.016536904 0.0022550456 -0.005275109 -0.0010519074
000220 e3 42 3f 3c 3f 62 15 3d 48 e4 dd 39 ea 72 f5 3c
       0.011673662 0.036470648 0.00042322488 0.029962022
000230 25 ab 6b 3d 4c d5 40 3a 78 c8 1e bc f5 47 53 3d
       0.057536263 0.00073560025 -0.00969135 0.051582295
000240 4c 6f c9 3c 0c b2 a6 bc 8a 83 54 3c 6f 4c f7 bd
       0.024589203 -0.020348571 0.0129708145 -0.120751254
000250 45 c7 f3 bd ea 97 b3 bd d1 6b da bc ce 34 9c bc
       -0.11903242 -0.0876921 -0.026662739 -0.019068148
000260 b3 c2 26 bd 51 fe da 3c f3 b0 31 3d 65 d4 37 3d
       -0.040713023 0.026732596 0.043381643 0.04488029
000270 5a 18 b7 3c 3f 32 14 3d 78 49 6a 3d 25 b8 97 3d
       0.022350479 0.03618073 0.05719897 0.0740817
000280 48 70 98 3d 39 cb db 3d 07 fe 19 bc 5f 3e 95 3b
       0.07443291 0.10732121 -0.009398944 0.0045545544
000290 7e d0 4c 3b c1 26 92 bb 04 7a 4e 3c a1 0f c1 3b
       0.00312522 -0.004460186 0.012602333 0.0058917557
0002a0 83 f4 c0 bc 36 51 64 ba 62 3c 29 bb b6 b2 8e bd
       -0.023554092 -0.0008709611 -0.0025823344 -0.0696768
0002b0 03 d4 c5 bc d3 51 47 3b 52 ac a8 bd e4 d1 7a bd
       -0.024148947 0.0030413761 -0.082359925 -0.061235324
0002c0 d3 3e 47 bc 0c 3d d4 bb cd d3 b8 bc c4 bb 17 3d
       -0.012160975 -0.006477004 -0.022561932 0.0370443
0002d0 3f 12 1d bd 93 2f 33 bd 84 bd 09 3c 00 3f d1 3b
       -0.03834748 -0.043746542 0.008407 0.006385684
0002e0 09 95 60 bc 1d 70 f6 3c b1 b0 27 bb 5d ad 66 bc
       -0.013707408 0.030082757 -0.0025587494 -0.014079419
0002f0 d4 92 6d 3c e1 d5 8b bc 62 b3 e1 bc 5d 90 e7 bc
       0.014500339 -0.017069759 -0.027551357 -0.02826708
000300 fb fa c6 39 6b fb 61 3c 54 7b 9a bc 5a 5d 09 bb
       0.00037952498 0.013792853 -0.018857636 -0.0020960183
000310 8c a8 c8 bb 04 d2 48 bc 07 45 74 bd 3b 23 ad bd
       -0.006123608 -0.012257103 -0.059636142 -0.08453985
000320 1b ed 2d ba 30 72 e2 3b 7e 13 0f bc f9 52 21 3d
       -0.0006634758 0.006910585 -0.008732675 0.03938577
000330 d0 56 2a bc ef ba 5f bc 74 91 04 3d 71 7f 2c bb
       -0.010396674 -0.013655408 0.032365277 -0.0026321078
000340 06 d0 0f 3c 9d 44 ce bb 07 18 cc bc 73 b1 89 3c
       0.008777624 -0.0062948004 -0.0249138 0.016808247
000350 5f 53 c0 3c a1 1f a9 bd 80 4a 89 bd 0c 9c b9 bc
       0.023477254 -0.08257986 -0.06703663 -0.022657417
000360 2a d7 6d 3c 54 56 e0 ba 65 c2 18 3b 02 42 a0 3b
       0.014516631 -0.0017115572 0.0023309228 0.0048906812
000370 dc 11 b4 bb b5 95 2d bc c6 2d 10 bb f3 d5 cb b9
       -0.005495293 -0.010594775 -0.002199994 -0.00038878582
000380 7a a3 37 3c 97 92 0b bc a1 46 b4 3c 69 9a 84 3a
       0.011208409 -0.008518836 0.022006335 0.0010116819
000390 40 18 95 ba c9 3b f1 3c 3a db 48 ba 26 7c d0 3d
       -0.0011375025 0.029447453 -0.0007662062 0.101799294
0003a0 1d 45 07 3e 4c 3d eb 3d 73 f2 01 3b 1c ee ba 3a
       0.13209958 0.11486301 0.001982835 0.0014261636
0003b0 d6 be 12 bc 36 00 a8 3a 34 0d a2 3a 8b ce 16 bc
       -0.008956632 0.0012817446 0.0012363554 -0.009204517
0003c0 8a 1e 35 39 90 a7 2a 3b b7 11 24 bc 6f 25 70 ba
       0.00017272882 0.0026039816 -0.010013989 -0.00091608515
0003d0 5b e4 da 3b 97 61 30 3c 7c 13 fd 39 44 22 b6 39
       0.006680054 0.010765455 0.00048270437 0.00034739275
0003e0 77 22 cd 3c 73 5e 28 3d c5 58 ae 3c 8c 9e 83 3b
       0.025040848 0.0411057 0.021282563 0.004016703
0003f0 9f 04 dd bc 8d 2c 20 3c 16 29 33 bd 6e b7 14 bd
       -0.026979743 0.009776247 -0.043740354 -0.036307745

onnx::Conv_87 f4 [32]
000000 04 33 42 3d 54 d6 3f be bc 37 a6 3e 1e d5 3d bd
       0.047411934 -0.18734103 0.32464397 -0.046345823
000010 3c 07 6f be a5 b6 a9 3d b9 8d 98 bd 57 63 16 3f
       -0.23342603 0.0828679 -0.074489065 0.5874533
000020 df e3 22 bf 4c 8d 64 bd d3 af 28 bd 56 84 18 3d
       -0.63628954 -0.055798814 -0.041183304 0.03723558
000030 11 01 26 bd 38 f6 c3 3c 5a 35 d5 bc 09 dc 8b ba
       -0.04052836 0.023921117 -0.026026417 -0.0010670434
000040 47 19 24 bd 73 c8 97 bd 1b 40 32 3d a1 4e b6 ab
       -0.04006317 -0.074112795 0.043518167 -1.2953702e-12
000050 fc 3e d6 3c f0 55 75 3e e9 8e 1f be a8 74 61 3e
       0.02615308 0.23958564 -0.1558186 0.22017157
000060 6b b5 5b be 74 9d de 3d ca b4 71 bd 83 11 35 bd
       -0.21455924 0.108698756 -0.059010305 -0.044206154
000070 30 dc 7b bb d4 3e 52 be b0 28 09 3e 99 85 0b b9
       -0.0038430803 -0.2053178 0.13394427 -0.00013305842

onnx::Conv_89 f4 [32, 16, 1, 1]
000000 ee 44 ab 3d 88 9d 81 3d 1e 62 df bd a0 dc 30 bd
       0.08362757 0.06328875 -0.10907386 -0.043179154
000010 f6 dd 12 3e af 3f 8a bc ea 00 ad 3d d5 23 8e 3d
       0.14342484 -0.01687607 0.0844744 0.06940428
000020 03 de cd bc dc 09 2b bd 9a fe 58 3d 2b c1 9f bd
       -0.025130277 -0.04175745 0.052977182 -0.07800516
000030 de 47 c2 bd d1 37 3d 3c 72 31 8f bc 7f c3 bf 3d
       -0.09486364 0.011548952 -0.017479632 0.0936346
000040 50 d5 1b be b4 48 90 3e 07 dc 96 bd d9 1b dd 3d
       -0.15218091 0.28180468 -0.07366186 0.10796327
000050 3f 91 94 bd 80 87 46 be d7 b7 f9 3d f7 d3 38 3e
       -0.07254266 -0.19387627 0.12193268 0.18049608
000060 f2 b9 b5 3d 18 13 d9 3d bb 63 5e 3c b4 24 b2 3d
       0.08873357 0.10599345 0.013573582 0.08698407
000070 fb 82 fc bd 77 22 b8 3c c8 6c b0 be e1 c7 0e be
       -0.1232967 0.022477372 -0.34457994 -0.13943435
000080 b5 77 f1 bd ec 27 b9 bc 6b 10 0b be 5d 2b 0a bd
       -0.117904104 -0.022602044 -0.13580482 -0.03373276
000090 74 4b 07 be 90 b1 11 be fc 3f 69 3e 1f 16 74 be
       -0.13212377 -0.14227891 0.22778314 -0.23836564
0000a0 79 ba ec bd c8 58 fb bc 29 af 17 bd 38 e9 04 ba
       -0.11559004 -0.030681983 -0.03703228 -0.00050701527
0000b0 a0 05 e7 bd 50 c2 15 3e 9f c4 8e 3d a6 0a 04 3d
       -0.1128037 0.14624906 0.06971096 0.032236718
0000c0 d1 1b d4 bc be 9e 6f bc d6 93 77 be cb cc ef 3d
       -0.02589217 -0.014625249 -0.24177489 0.11708983
0000d0 61 10 81 bd 43 89 4d be bd c6 84 be 2a 95 79 3d
       -0.06301952 -0.20071892 -0.25932875 0.06093327
0000e0 20 e2 a0 be 67 98 cf 39 00 e2 51 3e 6d 6c 3c 3c
       -0.3142252 0.00039595665 0.20496368 0.01150046
0000f0 63 62 44 bd 08 9a 59 bd f1 31 05 be 79 94 16 3e
       -0.04794539 -0.05312541 -0.13007332 0.14705075
000100 52 2d fd bc 99 c0 68 bc ca 8c 97 bd f6 37 40 3d
       -0.0309054 -0.014206075 -0.073999 0.04692837
000110 db 34 47 bc 10 41 99 bb fb dd ac bd ed 78 84 bb
       -0.012158598 -0.0046769455 -0.08440777 -0.004042736
000120 f1 03 51 3d 5c 59 6c ba d3 16 2f bd 07 99 8b 3d
       0.05102915 -0.0009016001 -0.042746376 0.06816297
000130 63 c2 41 bd 65 5e 8f bd e2 41 50 bd e4 28 b2 3c
       -0.047304522 -0.07000426 -0.05084408 0.021748014
000140 16 a6 f3 3d 70 be 1f be 92 90 e8 bd 6a 9e 95 3c
       0.11896913 -0.1559999 -0.113556996 0.018264014
000150 d7 a2 d8 bd 86 ac c4 3d 63 06 c8 bd 81 67 19 be
       -0.10577934 0.09603219 -0.09766843 -0.1498089
000160 8c 1f 29 3d a8 86 fd 3d a0 6c 68 be 6c 57 51 3e
       0.04128985 0.12379199 -0.22697687 0.20443505
000170 27 cd 76 3c dd 0e 10 bd f7 9b e1 bc 20 96 80 3c
       0.015063561 -0.035170425 -0.02754019 0.015696585
000180 50 85 c8 3d 34 9c 81 3d 6a 63 37 3d e8 a2 fe 3d
       0.09791052 0.063286215 0.044772543 0.12433416
000190 c6 a2 2c bb 88 7e 0d 3e a7 5c 19 3d 4c af 2b bd
       -0.0026342138 0.13817799 0.037441876 -0.041915223
0001a0 46 4b e8 3c 8a c7 3e 3d b6 0b db ba 28 96 f0 3d
       0.028356206 0.046577014 -0.0016711864 0.1174739
0001b0 ee 32 5a 3d 83 f9 d3 3d 03 13 cf 3d d8 38 11 be
       0.053271227 0.10350325 0.10111048 -0.1418184
0001c0 4b 0d 84 3e 9b 38 31 be c6 31 dc 3d 97 58 fd bb
       0.25791392 -0.1730675 0.10751681 -0.007731508
0001d0 de cd 01 3c c9 1c 83 3e 05 df 4e bc c4 df 92 be
       0.007922618 0.256079 -0.012626414 -0.28686345
0001e0 00 5a f3 3d de 7c a0 bd cd 58 c3 bd 5d 3f 1b 3e
       0.118824005 -0.078363165 -0.09538422 0.1516089
0001f0 d1 6c 87 3d ae b3 1a be e0 94 63 3e 5c f4 a1 3d
       0.06612552 -0.15107605 0.2222476 0.07907936
000200 e8 ec 5a bb e9 b0 1a 3a 31 db e8 3c 8d 5c b4 3d
       -0.0033405367 0.00059009955 0.028424831 0.08806715
000210 7d 71 37 3c 24 74 e4 bd 4e 03 a5 3d 68 05 68 3d
       0.011196491 -0.111549646 0.08057271 0.05664578
000220 70 d3 e9 bd 8c 66 21 bd 9b c0 29 3d c7 7d 6c 3d
       -0.11417282 -0.039404437 0.04144345 0.057737138
000230 1c 61 39 3e be e4 79 3e d1 53 1a be 10 8a e1 bc
       0.1810345 0.24403664 -0.15071036 -0.027531654
000240 c7 11 2f 3d c1 f9 9e 3c 2d 77 f2 3c c6 53 35 3c
       0.042741563 0.019406201 0.029597843 0.011067336
000250 f3 13 17 bd da 3d b6 3d 1a 10 72 3d 2d 58 b9 bb
       -0.03688426 0.08898516 0.059097387 -0.0056562633
000260 33 67 dc 3b ac e3 70 3c ae fa 03 bd 38 77 fe bb
       0.0067261695 0.014702719 -0.03222149 -0.007765677
000270 96 ce c0 bc 40 d7 c9 3d e1 0f b5 bd c6 4f 50 bd
       -0.023536008 0.09855509 -0.08840919 -0.050857328
000280 88 6e 4f bc d4 69 81 bb ce 2c 8d 3d a1 4f ee bc
       -0.01266063 -0.0039493833 0.068933114 -0.029090704
000290 7b 19 a8 bd 86 a6 7e 3d 15 dd 22 3d 2e 1c f6 3c
       -0.08207985 0.062170528 0.03976162 0.030042734
0002a0 77 61 31 3d 99 1a ba 3c 32 81 c7 bc a5 31 f5 b9
       0.04330584 0.02271776 -0.024353597 -0.0004676703
0002b0 55 2e 76 3d f5 1b ef 3d ad f0 d3 bd 4a cc d2 bc
       0.06010278 0.11675254 -0.1034864 -0.025732178
0002c0 28 9c 4e be 1f f8 1e 3a a6 a6 87 be a6 57 be bd
       -0.20176756 0.00060641946 -0.2649433 -0.09294061
0002d0 61 b8 3c bc 9c a7 24 be d8 78 19 3e fe 17 b5 bd
       -0.011518569 -0.16079563 0.14987504 -0.08842467
0002e0 11 dc ed bc f4 59 61 bd a3 ca 8a 3e 86 78 2d 3e
       -0.0290356 -0.055017427 0.27107725 0.16940507
0002f0 f9 43 dd 3d e2 cb 4c 3e 17 6d 22 be 8b 90 5c 3e
       0.108039804 0.1999965 -0.15861927 0.21539514
000300 b1 bb d2 bc 65 b1 ab 3c c3 84 82 3d 64 d0 84 3c
       -0.025724264 0.020958612 0.063729785 0.01621265
000310 5b 5c 0b bd 17 a4 60 bc 4c e0 b4 ba e7 51 0b bd
       -0.034023624 -0.013710997 -0.0013799756 -0.034013655
000320 cb c1 eb bc 54 b2 29 3c 6f 87 8d 3d 25 cf 7b 3d
       -0.028778931 0.010357458 0.069105975 0.061476845
000330 7f 2b 95 3a 68 ca 7d bc b8 e2 f3 3c 66 e6 96 3c
       0.0011380761 -0.015490152 0.029771194 0.01842041
000340 12 40 4d 3c 41 2d 47 3c 01 95 1a bc 2f 84 71 3d
       0.012527483 0.0121567855 -0.009434939 0.05896395
000350 87 4b 1a be ed 12 98 bd fe 16 2b bd 21 0f 0a bd
       -0.15067874 -0.07425485 -0.041769974 -0.033705834
000360 4e e2 5d bd b5 ac 8e bc 73 28 ee bd d5 f1 b1 3d
       -0.0541709 -0.017416338 -0.11628809 0.08688704
000370 ec 62 77 3e e6 a9 f4 3c 9a 44 14 3e ca a2 ed bd
       0.2415883 0.02986617 0.14479294 -0.11603315
000380 85 db 78 3d 73 f8 8e bc 4f 7e 64 be e8 12 2c be
       0.060756225 -0.017452454 -0.22313808 -0.16804087
000390 25 8b 9f be 36 0b 5a be 53 bb 80 3e 28 1b b5 3d
       -0.31160846 -0.21293339 0.25142917 0.0884307
0003a0 1a 25 c7 3d 99 47 52 bd 56 dd 18 3e 12 9b 3e 3e
       0.097238734 -0.051337812 0.14928183 0.18613842
0003b0 80 b6 6b be 2d 37 e3 bc c7 14 3a 3e 4c a9 6c 3e
       -0.23018837 -0.02773627 0.18171988 0.23111457
0003c0 6a 59 e3 b4 3d 2a 6e b1 40 20 4d 37 82 68 53 b3
       -4.2347102e-07 -3.4657568e-09 1.2226461e-05 -4.9222315e-08
0003d0 36 94 03 b5 c4 a5 b2 b7 48 15 15 b7 40 cc 23 b3
       -4.901698e-07 -2.1296444e-05 -8.886047e-06 -3.813716e-08
0003e0 05 cb e8 b7 41 8c fd b3 4e 25 0e b6 a6 11 45 b7
       -2.7751094e-05 -1.18067426e-07 -2.1181363e-06 -1.1746224e-05
0003f0 1f 3b 3a b6 4c 04 22 b5 29 42 73 36 9b 06 ad 33
       -2.7750573e-06 -6.0355956e-07 3.6248332e-06 8.057142e-08

onnx::Conv_90 f4 [32]
000000 13 6d 3a bc bc 16 13 3e 87 f6 17 3e 71 12 d8 3e
       -0.011378544 0.14364141 0.14840136 0.4220157
000010 8d 83 8a 3d d5 98 aa 3d ed 02 ae be 02 cc cd be
       0.067633726 0.08329932 -0.33986607 -0.40194708
000020 1c 7f 2f be 5e 63 88 bd b4 bd c0 bd a2 bd 1a be
       -0.17138332 -0.06659578 -0.09411183 -0.15111402
000030 58 b7 e5 bd 88 20 e6 bc d0 93 21 be 83 ee 74 ba
       -0.11216611 -0.028091684 -0.15779042 -0.00093434023
000040 48 f4 83 3e e4 97 f4 bd 6e 83 08 3b a1 4e b6 ab
       0.2577231 -0.11943033 0.0020830291 -1.2953702e-12
000050 9c 20 73 be bc 1e 71 bc b2 e3 db be 0e 59 61 be
       -0.23742908 -0.0147168 -0.42947155 -0.22006628
000060 7c 8a 85 3d 9d ac b2 be 93 21 37 bc aa b2 41 3e
       0.065205544 -0.34897318 -0.011177438 0.18915811
000070 94 d5 b6 bc 10 9a 35 bd d7 ed b0 be a3 7d 0b b9
       -0.022318639 -0.04433638 -0.34556457 -0.00013302876

onnx::Conv_92 f4 [64, 32, 3, 3]
000000 00 00 00 00 00 00 00 00 00 00 00 80 00 00 00 80
       0.0 0.0 -0.0 -0.0
000010 00 00 00 80 00 00 00 80 00 00 00 00 00 00 00 00
       -0.0 -0.0 0.0 0.0
000020 00 00 00 80 00 00 00 80 00 00 00 00 00 00 00 00
       -0.0 -0.0 0.0 0.0
000030 00 00 00 80 00 00 00 80 00 00 00 00 00 00 00 80
       -0.0 -0.0 0.0 -0.0
000040 00 00 00 00 00 00 00 80 00 00 00 00 00 00 00 80
       0.0 -0.0 0.0 -0.0
000050 00 00 00 00 00 00 00 00 00 00 00 00 00 00 00 00
       0.0 0.0 0.0 0.0
000060 00 00 00 80 00 00 00 00 00 00 00 00 00 00 00 00
       -0.0 0.0 0.0 0.0
000070 00 00 00 80 00 00 00 80 00 00 00 80 00 00 00 80
       -0.0 -0.0 -0.0 -0.0
000080 00 00 00 80 00 00 00 80 00 00 00 80 00 00 00 00
       -0.0 -0.0 -0.0 0.0
000090 00 00 00 00 00 00 00 80 00 00 00 80 00 00 00 00
       0.0 -0.0 -0.0 0.0
0000a0 00 00 00 00 00 00 00 00 00 00 00 00 00 00 00 80
       0.0 0.0 0.0 -0.0
0000b0 00 00 00 80 00 00 00 00 00 00 00 00 00 00 00 00
       -0.0 0.0 0.0 0.0
0000c0 00 00 00 80 00 00 00 80 00 00 00 00 00 00 00 00
       -0.0 -0.0 0.0 0.0
0000d0 00 00 00 80 00 00 00 00 00 00 00 00 00 00 00 00
       -0.0 0.0 0.0 0.0
0000e0 00 00 00 80 00 00 00 00 00 00 00 80 00 00 00 80
       -0.0 0.0 -0.0 -0.0
0000f0 00 00 00 80 00 00 00 80 00 00 00 00 00 00 00 00
       -0.0 -0.0 0.0 0.0
000100 00 00 00 00 00 00 00 80 00 00 00 80 00 00 00 80
       0.0 -0.0 -0.0 -0.0
000110 00 00 00 80 00 00 00 00 00 00 00 80 00 00 00 00
       -0.0 0.0 -0.0 0.0
000120 00 00 00 00 00 00 00 80 00 00 00 00 00 00 00 80
       0.0 -0.0 0.0 -0.0
000130 00 00 00 80 00 00 00 80 00 00 00 80 00 00 00 80
       -0.0 -0.0 -0.0 -0.0
000140 00 00 00 80 00 00 00 80 00 00 00 80 00 00 00 00
       -0.0 -0.0 -0.0 0.0
000150 00 00 00 80 00 00 00 80 00 00 00 00 00 00 00 00
       -0.0 -0.0 0.0 0.0
000160 00 00 00 80 00 00 00 00 00 00 00 00 00 00 00 00
       -0.0 0.0 0.0 0.0
000170 00 00 00 00 00 00 00 80 00 00 00 00 00 00 00 80
       0.0 -0.0 0.0 -0.0
000180 00 00 00 00 00 00 00 00 00 00 00 80 00 00 00 80
       0.0 0.0 -0.0 -0.0
000190 00 00 00 00 00 00 00 80 00 00 00 80 00 00 00 80
       0.0 -0.0 -0.0 -0.0
0001a0 00 00 00 80 00 00 00 80 00 00 00 00 00 00 00 80
       -0.0 -0.0 0.0 -0.0
0001b0 00 00 00 80 00 00 00 80 00 00 00 00 00 00 00 00
       -0.0 -0.0 0.0 0.0
0001c0 00 00 00 00 00 00 00 00 00 00 00 00 00 00 00 00
       0.0 0.0 0.0 0.0
0001d0 00 00 00 00 00 00 00 00 00 00 00 80 00 00 00 80
       0.0 0.0 -0.0 -0.0
0001e0 00 00 00 80 00 00 00 00 00 00 00 80 00 00 00 80
       -0.0 0.0 -0.0 -0.0
0001f0 00 00 00 00 00 00 00 00 00 00 00 00 00 00 00 80
       0.0 0.0 0.0 -0.0
000200 00 00 00 80 00 00 00 80 00 00 00 80 00 00 00 00
       -0.0 -0.0 -0.0 0.0
000210 00 00 00 00 00 00 00 00 00 00 00 80 00 00 00 80
       0.0 0.0 -0.0 -0.0
000220 00 00 00 80 00 00 00 80 00 00 00 00 00 00 00 80
       -0.0 -0.0 0.0 -0.0
000230 00 00 00 00 00 00 00 80 00 00 00 80 00 00 00 80
       0.0 -0.0 -0.0 -0.0
000240 00 00 00 00 00 00 00 00 00 00 00 80 00 00 00 80
       0.0 0.0 -0.0 -0.0
000250 00 00 00 00 00 00 00 80 00 00 00 80 00 00 00 00
       0.0 -0.0 -0.0 0.0
000260 00 00 00 80 00 00 00 80 00 00 00 80 00 00 00 80
       -0.0 -0.0 -0.0 -0.0
000270 00 00 00 00 00 00 00 80 00 00 00 80 00 00 00 80
       0.0 -0.0 -0.0 -0.0
000280 00 00 00 00 00 00 00 00 00 00 00 80 00 00 00 80
       0.0 0.0 -0.0 -0.0
000290 00 00 00 80 00 00 00 80 00 00 00 80 00 00 00 80
       -0.0 -0.0 -0.0 -0.0
0002a0 00 00 00 80 00 00 00 00 00 00 00 00 00 00 00 80
       -0.0 0.0 0.0 -0.0
0002b0 00 00 00 80 00 00 00 80 00 00 00 80 00 00 00 00
       -0.0 -0.0 -0.0 0.0
0002c0 00 00 00 00 00 00 00 80 00 00 00 00 00 00 00 00
       0.0 -0.0 0.0 0.0
0002d0 00 00 00 00 00 00 00 80 00 00 00 80 00 00 00 00
       0.0 -0.0 -0.0 0.0
0002e0 00 00 00 80 00 00 00 80 00 00 00 80 00 00 00 80
       -0.0 -0.0 -0.0 -0.0
0002f0 00 00 00 00 00 00 00 00 00 00 00 80 00 00 00 00
       0.0 0.0 -0.0 0.0
000300 00 00 00 00 00 00 00 00 00 00 00 80 00 00 00 00
       0.0 0.0 -0.0 0.0
000310 00 00 00 80 00 00 00 80 00 00 00 80 00 00 00 80
       -0.0 -0.0 -0.0 -0.0
000320 00 00 00 80 00 00 00 80 00 00 00 00 00 00 00 00
       -0.0 -0.0 0.0 0.0
000330 00 00 00 00 00 00 00 00 00 00 00 00 00 00 00 80
       0.0 0.0 0.0 -0.0
000340 00 00 00 80 00 00 00 80 00 00 00 00 00 00 00 00
       -0.0 -0.0 0.0 0.0
000350 00 00 00 80 00 00 00 80 00 00 00 80 00 00 00 00
       -0.0 -0.0 -0.0 0.0
000360 00 00 00 00 00 00 00 80 00 00 00 00 00 00 00 80
       0.0 -0.0 0.0 -0.0
000370 00 00 00 80 00 00 00 80 00 00 00 80 00 00 00 80
       -0.0 -0.0 -0.0 -0.0
000380 00 00 00 00 00 00 00 80 00 00 00 00 00 00 00 80
       0.0 -0.0 0.0 -0.0
000390 00 00 00 00 00 00 00 00 00 00 00 80 00 00 00 00
       0.0 0.0 -0.0 0.0
0003a0 00 00 00 80 00 00 00 80 00 00 00 00 00 00 00 80
       -0.0 -0.0 0.0 -0.0
0003b0 00 00 00 80 00 00 00 00 00 00 00 80 00 00 00 80
       -0.0 0.0 -0.0 -0.0
0003c0 00 00 00 00 00 00 00 80 00 00 00 00 00 00 00 00
       0.0 -0.0 0.0 0.0
0003d0 00 00 00 80 00 00 00 00 00 00 00 00 00 00 00 00
       -0.0 0.0 0.0 0.0
0003e0 00 00 00 00 00 00 00 80 00 00 00 00 00 00 00 00
       0.0 -0.0 0.0 0.0
0003f0 00 00 00 00 00 00 00 80 00 00 00 80 00 00 00 80
       0.0 -0.0 -0.0 -0.0

onnx::Conv_93 f4 [64]
000000 d3 7e 00 00 48 ab ad 3c 0b c9 19 3e 86 44 0f 3d
       4.5496e-41 0.021199837 0.15018098 0.03497746
000010 c8 62 0b be 5a 1c 00 00 5c 15 8a 3e 47 9a 88 bd
       -0.13611901 1.017e-41 0.2696942 -0.06670051
000020 45 76 8c 92 a6 2d 5e bd af f7 16 bd 08 26 00 80
       -8.864398e-28 -0.054242752 -0.036857303 -1.3643e-41
000030 d8 00 7c bd 71 1c 00 80 f8 13 00 00 85 3b 8d b8
       -0.061524242 -1.0203e-41 7.163e-42 -6.73449e-05
000040 c7 1f 58 a1 70 a8 8e bc c8 1b 00 00 01 ef 86 3d
       -7.3225704e-19 -0.017414302 9.966e-42 0.06588555
000050 f3 6a 12 bd 59 24 00 80 56 06 00 80 4c e6 d9 ad
       -0.035746526 -1.3039e-41 -2.273e-42 -2.4772316e-11
000060 7d 20 00 80 0a 65 75 be b4 d3 00 bb 9e 17 00 80
       -1.1655e-41 -0.23964325 -0.0019657435 -8.472e-42
000070 fa 6a 8a be 83 2d 00 80 ef 30 00 00 93 16 00 80
       -0.27034742 -1.6327e-41 1.7554e-41 -8.098e-42
000080 c6 98 01 bb 46 29 00 80 80 29 69 ba ae 8c 8f 3d
       -0.0019774898 -1.4806e-41 -0.00088944286 0.070092544
000090 da f3 52 be 18 2c 00 00 2f ad 97 95 09 ef ce 99
       -0.20600834 1.5818e-41 -6.126165e-26 -2.1396446e-23
0000a0 1d 47 c9 b4 5a 96 3c ab 39 1a 0a bd 38 dd 0d b1
       -3.749091e-07 -6.699967e-13 -0.033716414 -2.0643949e-09
0000b0 24 b7 81 bb 4d fa b3 aa d2 51 71 bd d9 1a 00 80
       -0.0039585996 -3.1970468e-13 -0.05891592 -9.631e-42
0000c0 ee de d6 bb d7 31 cd bd 20 26 25 bc aa 18 00 80
       -0.006557337 -0.10019272 -0.0100798905 -8.848e-42
0000d0 9a 28 00 80 3b 31 00 80 6c 59 f7 be ee 3c 79 bb
       -1.4565e-41 -1.766e-41 -0.4831041 -0.0038030702
0000e0 e3 39 6d bc 6d ba a9 3d 07 c4 c4 b8 87 11 16 a3
       -0.014479133 0.08287511 -9.382521e-05 -8.135228e-18
0000f0 9d 00 97 ab f4 f9 75 b7 76 d3 2c bd 16 c6 44 bd
       -1.0729366e-12 -1.4661335e-05 -0.042193852 -0.048040472
