cmd/ai/datas/models/electric_scooter.onnx (onnx, 303058 bytes, 16 tensors)

fc.weight f4 [2, 256]
000000 f4 7e 37 8f f4 7e 37 8f f4 7e 37 8f f4 7e 37 8f
       -9.047047e-30 -9.047047e-30 -9.047047e-30 -9.047047e-30
000010 c8 bf eb b3 c8 bf eb b3 c8 bf eb b3 c8 bf eb b3
       -1.0977925e-07 -1.0977925e-07 -1.0977925e-07 -1.0977925e-07
000020 d6 df 05 9d d6 df 05 9d d6 df 05 9d d6 df 05 9d
       -1.7718124e-21 -1.7718124e-21 -1.7718124e-21 -1.7718124e-21
000030 a7 36 0c 3e b4 f7 43 3e e3 9f 0b 3e aa d4 4b 3e
       0.13692723 0.1913746 0.1363521 0.19905344
000040 8b 02 00 00 8b 02 00 00 8b 02 00 00 8b 02 00 00
       9.12e-43 9.12e-43 9.12e-43 9.12e-43
000050 5f ec 76 be 7c 3a 7b be f2 7d 69 be 96 fe 63 be
       -0.24113606 -0.24534029 -0.2280195 -0.22265086
000060 2d b3 d1 3d ae ed 08 3e ab 3c f9 3d 3f 14 20 3e
       0.10239253 0.13371918 0.121697746 0.15632723
000070 6e 17 1c 3e d2 d1 9e 3e 7c 79 26 3e 56 da a2 3e
       0.15243313 0.31019455 0.1625728 0.31807202
000080 fe ff 1b 3e 98 58 27 3e 87 04 b1 3c e7 10 1f 3c
       0.15234372 0.1634239 0.021608604 0.00970862
000090 17 27 82 2a 17 27 82 2a 17 27 82 2a 17 27 82 2a
       2.3119763e-13 2.3119763e-13 2.3119763e-13 2.3119763e-13
0000a0 2d 2b 9b 2f 2d 2b 9b 2f 2d 2b 9b 2f 2d 2b 9b 2f
       2.8225014e-10 2.8225014e-10 2.8225014e-10 2.8225014e-10
0000b0 5f 62 8c a5 5f 62 8c a5 5f 62 8c a5 5f 62 8c a5
       -2.4352788e-16 -2.4352788e-16 -2.4352788e-16 -2.4352788e-16
0000c0 aa 44 87 37 b1 43 87 37 89 45 87 37 8c 44 87 37
       1.6125228e-05 1.6124775e-05 1.6125634e-05 1.6125174e-05
0000d0 0f 7c 0f ab e1 78 0f ab 25 7f 0f ab e1 78 0f ab
       -5.097597e-13 -5.097156e-13 -5.0980254e-13 -5.097156e-13
0000e0 93 76 32 be a2 68 34 be 84 97 1f be d1 84 19 be
       -0.17428045 -0.17618039 -0.15585142 -0.14992072
0000f0 28 b4 0a 80 28 b4 0a 80 28 b4 0a 80 28 b4 0a 80
       -9.82983e-40 -9.82983e-40 -9.82983e-40 -9.82983e-40
000100 27 57 a5 3c c2 d9 0f 3d 7b 29 dd 3c a1 9f 32 3d
       0.020183159 0.03511978 0.026997318 0.043609265
000110 2b af 32 3e ab c1 72 3e c6 75 33 3e b7 f5 69 3e
       0.17449634 0.23706691 0.17525396 0.22847639
000120 5c 05 00 00 5c 05 00 00 5c 05 00 00 5c 05 00 00
       1.923e-42 1.923e-42 1.923e-42 1.923e-42
000130 c8 73 0e 80 ed 74 0e 80 e6 70 0e 80 c7 66 0e 80
       -1.327231e-39 -1.327642e-39 -1.326197e-39 -1.322567e-39
000140 e5 28 00 80 b4 24 00 80 e0 28 00 80 76 29 00 80
       -1.467e-41 -1.3167e-41 -1.4663e-41 -1.4873e-41
000150 3a 65 97 10 89 15 6f 10 51 11 88 10 a2 53 50 10
       5.971496e-29 4.715103e-29 5.366922e-29 4.1085195e-29
000160 ba e6 89 be ca b1 7c be 57 c2 50 be c4 6d 2f be
       -0.26933843 -0.24677196 -0.20386635 -0.17131716
000170 95 0c d8 b9 95 0c d8 b9 95 0c d8 b9 95 0c d8 b9
       -0.00041208105 -0.00041208105 -0.00041208105 -0.00041208105
000180 0c 85 00 80 0c 85 00 80 0c 85 00 80 0c 85 00 80
       -4.7728e-41 -4.7728e-41 -4.7728e-41 -4.7728e-41
000190 8c 3a 00 80 a1 3c 00 80 a1 3c 00 80 a1 3c 00 80
       -2.1003e-41 -2.175e-41 -2.175e-41 -2.175e-41
0001a0 b1 53 15 be 55 b2 09 be 86 9a d2 bc 5c 65 28 3c
       -0.14582707 -0.13446935 -0.025708448 0.010278072
0001b0 10 c2 e1 b2 10 c2 e1 b2 10 c2 e1 b2 10 c2 e1 b2
       -2.6281697e-08 -2.6281697e-08 -2.6281697e-08 -2.6281697e-08
0001c0 ff 15 00 00 8e 17 00 00 ff 15 00 00 04 16 00 00
       7.891e-42 8.45e-42 7.891e-42 7.898e-42
0001d0 81 70 1c 26 81 70 1c 26 81 70 1c 26 81 70 1c 26
       5.4275844e-16 5.4275844e-16 5.4275844e-16 5.4275844e-16
0001e0 2f 49 12 23 2f 49 12 23 2f 49 12 23 2f 49 12 23
       7.930173e-18 7.930173e-18 7.930173e-18 7.930173e-18
0001f0 cf 31 4b 3d 61 4c 5d 3d b8 d5 b9 3d b5 b4 c6 3d
       0.049608048 0.05402792 0.09073967 0.09702436
000200 08 0f 4e b4 08 0f 4e b4 08 0f 4e b4 08 0f 4e b4
       -1.9190713e-07 -1.9190713e-07 -1.9190713e-07 -1.9190713e-07
000210 bb 21 00 00 bb 21 00 00 bb 21 00 00 bb 21 00 00
       1.21e-41 1.21e-41 1.21e-41 1.21e-41
000220 50 5e b3 3a 4f 5e b3 3a 50 5e b3 3a 4f 5e b3 3a
       0.0013684724 0.0013684722 0.0013684724 0.0013684722
000230 e6 dc 7a bc 53 b6 91 bb 6a 71 33 bd 17 f4 ea bc
       -0.015311455 -0.0044467836 -0.043809332 -0.028680844
000240 b6 4c da b7 b6 4c da b7 b6 4c da b7 b6 4c da b7
       -2.6023346e-05 -2.6023346e-05 -2.6023346e-05 -2.6023346e-05
000250 a1 0b 00 8f a1 0b 00 8f a1 0b 00 8f a1 0b 00 8f
       -6.313127e-30 -6.313127e-30 -6.313127e-30 -6.313127e-30
000260 57 19 20 be de 68 26 be 92 ba 03 be d5 75 fc bd
       -0.15634666 -0.16250941 -0.1286414 -0.12327162
000270 ef e8 cd 00 ef e8 cd 00 ef e8 cd 00 ef e8 cd 00
       1.8909838e-38 1.8909838e-38 1.8909838e-38 1.8909838e-38
000280 c3 25 28 93 c3 25 28 93 c3 25 28 93 c3 25 28 93
       -2.12232e-27 -2.12232e-27 -2.12232e-27 -2.12232e-27
000290 30 ae 18 be bd 42 1b be c0 2c 04 be 22 88 fd bd
       -0.14910197 -0.15162177 -0.12907696 -0.12379481
0002a0 6a 04 00 80 6a 04 00 80 6a 04 00 80 6a 04 00 80
       -1.583e-42 -1.583e-42 -1.583e-42 -1.583e-42
0002b0 b9 38 01 03 b9 38 01 03 b9 38 01 03 b9 38 01 03
       3.7974807e-37 3.7974807e-37 3.7974807e-37 3.7974807e-37
0002c0 05 94 91 3d ff e0 9b 3d 63 aa 3e 3c ea e4 07 3c
       0.071083106 0.07611274 0.011637303 0.008294323
0002d0 ee 81 00 80 fd 9b 00 80 cd 68 00 80 49 6d 00 80
       -4.661e-41 -5.5958e-41 -3.7595e-41 -3.9204e-41
0002e0 a1 44 14 80 a1 44 14 80 a1 44 14 80 a1 44 14 80
       -1.86133e-39 -1.86133e-39 -1.86133e-39 -1.86133e-39
0002f0 aa 02 73 b9 aa 02 73 b9 aa 02 73 b9 aa 02 73 b9
       -0.00023175278 -0.00023175278 -0.00023175278 -0.00023175278
000300 98 53 00 80 98 53 00 80 98 53 00 80 98 53 00 80
       -2.9988e-41 -2.9988e-41 -2.9988e-41 -2.9988e-41
000310 ed 4d 0d 1a ed 4d 0d 1a ed 4d 0d 1a ed 4d 0d 1a
       2.9221065e-23 2.9221065e-23 2.9221065e-23 2.9221065e-23
000320 e6 ca fe 90 e6 ca fe 90 e6 ca fe 90 e6 ca fe 90
       -1.0049795e-28 -1.0049795e-28 -1.0049795e-28 -1.0049795e-28
000330 27 08 25 80 27 08 25 80 27 08 25 80 27 08 25 80
       -3.400838e-39 -3.400838e-39 -3.400838e-39 -3.400838e-39
000340 cf 41 14 b9 c4 41 14 b9 cf 41 14 b9 bc 41 14 b9
       -0.00014138895 -0.0001413888 -0.00014138895 -0.00014138868
000350 0a 5f 9e 9f c2 47 95 9f 3d 6a 5a 9f 13 8c 4d 9f
       -6.707283e-20 -6.322267e-20 -4.6251174e-20 -4.3526305e-20
000360 d3 0f 00 80 d3 0f 00 80 d3 0f 00 80 d3 0f 00 80
       -5.677e-42 -5.677e-42 -5.677e-42 -5.677e-42
000370 d3 13 4d ad b3 13 4d ad d0 13 4d ad ae 13 4d ad
       -1.1657303e-11 -1.1657275e-11 -1.16573e-11 -1.1657271e-11
000380 96 73 e3 bd a8 16 03 be 4b ed db bd 95 12 00 be
       -0.11106031 -0.12801611 -0.107386194 -0.12507088
000390 88 ee 4e 3e a7 2b 73 3e c1 3d 4e 3e 3e 9c 6d 3e
       0.2020818 0.23747121 0.20140745 0.23204133
0003a0 87 0d 8b 3e 6a 0c 9a 3e 14 f9 fc 3c 6e 59 ca 3c
       0.27158758 0.30087596 0.030880488 0.024700847
0003b0 ec 13 00 00 fb 13 00 00 b6 14 00 00 b2 14 00 00
       7.147e-42 7.168e-42 7.43e-42 7.424e-42
0003c0 ae 60 a5 0d ae 60 a5 0d ae 60 a5 0d ae 60 a5 0d
       1.0192185e-30 1.0192185e-30 1.0192185e-30 1.0192185e-30
0003d0 7a 34 12 3d 56 a7 0b 3d 37 cf 7b 3d 9d 11 72 3d
       0.035694577 0.03409513 0.061476912 0.05909883
0003e0 63 62 0d 3e b1 42 3f 3e 4f dd 17 3e 76 03 4d 3e
       0.13807063 0.18677785 0.14830516 0.20020851
0003f0 30 e5 60 3a 30 e5 60 3a 30 e5 60 3a 30 e5 60 3a
       0.00085790735 0.00085790735 0.00085790735 0.00085790735

fc.bias f4 [2]
000000 34 de a4 3c 55 4e c8 bc
       0.020125486 -0.024451414

onnx::Conv_80 f4 [16, 3, 7, 7]
000000 74 b0 00 3d b7 25 15 3d ba 2f 1b 3d 50 6e 1b 3d
       0.03141828 0.03641292 0.037887312 0.037947
000010 98 a3 23 3c eb 5d cc 3c bf a6 5c 3d 21 8d ff 3b
       0.009987734 0.024947127 0.05386996 0.0077988063
000020 28 74 43 bc 33 9f 86 3b d9 d7 b4 3c 10 c8 cf 3b
       -0.011929549 0.0041083335 0.02207558 0.006340988
000030 d5 db 38 bc 31 32 3f bb 8c 7e 3c 3c c5 bf 0d 3b
       -0.011282881 -0.0029174204 0.0115047805 0.0021629196
000040 1e ad fc 3c 15 28 3b 3d c6 7e 12 3d 27 eb 22 3b
       0.030844267 0.045692522 0.03576543 0.00248594
000050 67 df 09 bc 96 07 8d 3c 78 d0 f0 3c 39 72 31 3d
       -0.00841508 0.017215531 0.02939628 0.04332182
000060 b3 19 52 3d 28 b0 22 3d 32 46 ae bc f8 3d 47 bd
       0.05129404 0.039718777 -0.021273706 -0.048643082
000070 20 d6 86 bb d9 5c 69 3c be b4 f7 3c 37 40 3b 3d
       -0.004114881 0.014243328 0.030237552 0.045715537
000080 09 9a 22 3d 3a 06 25 bd a7 7b a2 bd c3 f3 a6 bb
       0.03969768 -0.04028914 -0.07933741 -0.0050949766
000090 cb 4b 5c 3a a7 df df 3c 3e 57 37 3d 38 db 05 3d
       0.0008403628 0.027328325 0.044760935 0.032679766
0000a0 19 f1 48 bd 41 67 85 bd fa bd 90 3c bf fc de 3c
       -0.049058054 -0.06513835 0.017668713 0.027220128
0000b0 96 92 47 3d c7 41 16 3d 52 7f 0b bc 93 06 3b bd
       0.04872378 0.036683824 -0.008514242 -0.045660567
0000c0 31 6f 43 bd 19 b2 1d 3c 8f db f1 3c 70 a5 14 3d
       -0.047713462 0.009624981 0.029523639 0.036290586
0000d0 7f 40 fc 3c ce 4e a6 ba 5a 4a 8f 3c 13 74 1d 3d
       0.030792473 -0.001268828 0.017491508 0.038440775
0000e0 a9 c0 30 bb a3 51 b1 ba 33 77 78 3c 71 d5 b1 3c
       -0.0026970303 -0.0013528358 0.015165138 0.021708222
0000f0 7a 5e 64 b9 73 76 8c bc b2 96 4c bc cf 61 4d 3c
       -0.0002177897 -0.017146325 -0.0124871 0.012535526
000100 60 8a 65 3c f5 9e 1e 3d a7 32 39 3d 7e 01 e6 3c
       0.014010042 0.038725812 0.04521432 0.028076883
000110 08 9f 6a b8 40 29 53 bc 93 46 89 3c 0e ca 23 3d
       -5.5938057e-05 -0.012888253 0.016757285 0.039987616
000120 4c 54 57 3d 15 d7 4f 3d b1 44 10 3d fb 84 78 bc
       0.052570626 0.050742228 0.03522176 -0.015168424
000130 49 cc 2f bd ea 92 f2 b9 6f 02 d5 3c 4d 66 20 3d
       -0.04291943 -0.00046267296 0.026002137 0.03916006
000140 32 a7 49 3d 28 e4 27 3d 3f da f3 bc 2b f7 8f bd
       0.049231716 0.04098907 -0.029767154 -0.070295654
000150 82 12 6a bb aa 7b 38 3c 55 5e ef 3c 3f f8 3b 3d
       -0.0035716598 0.011259953 0.029219786 0.045891043
000160 2b 44 06 3d cd ab 25 bd ae c3 65 bd 4f 3b ef 3c
       0.032779854 -0.040447045 -0.056094818 0.029203085
000170 12 af 01 3d 17 a8 5d 3d e7 65 f7 3c d2 5a 28 bb
       0.0316611 0.05411538 0.030199958 -0.0025688899
000180 8f b9 50 bd 61 f7 53 bd 6a 29 9b bc 6e d5 ce 3b
       -0.050958212 -0.05174959 -0.018940646 0.006312064
000190 b5 c3 ab 3c b0 e3 8c 3c 9b bb 49 bc fe 50 e7 bb
       0.020967344 0.017198414 -0.012312795 -0.0070592156
0001a0 ef c6 9d 3c 95 62 14 bd 72 5d b6 bc 74 79 b3 3b
       0.019259898 -0.036226828 -0.022261355 0.005477125
0001b0 50 01 54 3c 6f e5 18 bc 0b 00 0d bd db 2a 11 bd
       0.012939766 -0.009332045 -0.03442387 -0.03544126
0001c0 3c c6 4e bc 8c 95 67 bb 81 2e 03 3d 2e 29 35 3d
       -0.012620505 -0.003533694 0.03202677 0.044228725
0001d0 05 c9 9c 3c b1 ff 97 bc 53 4d 2f bd 97 b6 00 bc
       0.019138822 -0.01855454 -0.04279835 -0.007856033
0001e0 09 1c fd 3c 60 f2 46 3d 27 5f 4f 3d 48 e7 e6 3c
       0.030897157 0.04857099 0.050627854 0.028186455
0001f0 4c 2c ff bc 8c d7 8b bd 90 49 ee bc 0f 6e 29 3c
       -0.031149052 -0.06828222 -0.029087812 0.010341181
000200 df 72 00 3d af ca 42 3d d1 d2 fe 3c 4c aa 2e bd
       0.03135955 0.047556575 0.031106384 -0.042642877
000210 54 fa b2 bd a3 82 40 bd be 25 6b bc 0e 1d 69 3c
       -0.087391526 -0.046999585 -0.01435226 0.014228119
000220 b9 b4 07 3d d4 c1 8f 3c f0 dc 6d bd 97 05 97 bd
       0.033131335 0.01754848 -0.05807203 -0.07374113
000230 49 61 a5 bc dc c3 e1 3a 6a 9c eb 3c 83 3c 92 3c
       -0.02018799 0.0017224508 0.028761107 0.01785112
000240 bd a1 8a bc 93 1f 5a bd 08 2f 7e bd 46 cd db bc
       -0.016922826 -0.053252768 -0.06205657 -0.02683128
000250 ef 36 c3 bc 06 c4 8f bc d5 48 53 bc 78 42 0d bc
       -0.023829905 -0.017549526 -0.0128957825 -0.008621804
000260 1c dd c0 bb b9 e9 e9 bb d8 69 bf bc 7d 45 c3 bc
       -0.0058857333 -0.0071384576 -0.0233659 -0.023836846
000270 5a 3f e9 bc c1 68 c1 bc 78 f1 5b bc 3a eb 4b bc
       -0.028472591 -0.02360952 -0.01342427 -0.012446219
000280 0a e8 13 bc 31 68 e2 bc 61 af ec bc 49 17 e6 bc
       -0.00902749 -0.027637573 -0.02889222 -0.028087275
000290 b7 b4 ca bc 33 89 87 bc 4a 5a 29 bc 0d 60 82 ba
       -0.024744375 -0.016544914 -0.010336468 -0.0009946838
0002a0 ad 92 bb bc 4e 10 c1 bc 42 87 8b bc a5 94 67 bc
       -0.022897089 -0.023567345 -0.01703227 -0.014134561
0002b0 70 87 05 bc 86 76 65 bb 0d b7 89 ba 14 d7 30 bc
       -0.008149967 -0.0035013272 -0.0010506824 -0.010793466
0002c0 33 87 25 bc ba fd a6 bb 85 4a 05 bc b9 7a 08 bc
       -0.010103035 -0.0050961645 -0.008135443 -0.008330041
0002d0 dc 95 82 bc 7e 43 98 bc 57 9b 1e bc 05 ed 8d bb
       -0.0159406 -0.01858687 -0.009680591 -0.0043312334
0002e0 29 d2 54 bb 24 e2 0e bc c5 19 01 bc e3 04 71 bc
       -0.0032473898 -0.008720908 -0.007879679 -0.014710638
0002f0 36 eb 7d bc 87 a1 2c bc b7 7c d7 bb b0 aa 1b bc
       -0.015497973 -0.010536558 -0.0065761465 -0.009501144
000300 3e 15 eb bb 5c a9 72 3b 20 de 27 3c ec 16 5c 3c
       -0.007174163 0.0037027216 0.01024583 0.013433199
000310 55 a4 2d bc 95 29 dc bb 49 57 97 ba a6 97 57 3b
       -0.010598262 -0.006718824 -0.0011546399 0.0032896786
000320 6a 0c f8 b6 e1 49 4b bb 86 f3 bd bb 87 43 e6 bb
       -7.392421e-06 -0.0031019377 -0.0057968525 -0.007027093
000330 e0 38 ed bb db bd 52 bc 19 89 eb bb 6a 40 04 bb
       -0.007239446 -0.012862648 -0.007187974 -0.0020179995
000340 4b 21 8c bb 0b 25 e3 ba f1 4d 5f bc 9b 8f 78 bc
       -0.00427643 -0.0017329765 -0.0136294225 -0.015170957
000350 6e b3 62 bc 63 7e 26 bc aa ac a8 bb 9f eb 77 b9
       -0.013836725 -0.010161969 -0.0051475363 -0.00023643531
000360 bb d0 03 3c 6c 05 7a bc 0e 72 82 bc ec 93 fa bb
       0.008045371 -0.015260082 -0.015923526 -0.007647028
000370 e7 71 1a bb 51 8b 97 3a 41 67 9e 3b 73 50 a4 3b
       -0.0023566426 0.0011561905 0.004834086 0.005014473
000380 e2 55 78 bb 63 c0 16 bb d9 81 7f 3b 62 fa 6b 3b
       -0.0037892987 -0.0023002855 0.0038987307 0.0036007394
000390 17 bc f8 3a 3d e4 d1 bb 60 24 22 bc e3 34 58 bb
       0.0018976954 -0.006405382 -0.009896368 -0.0032990507
0003a0 93 f7 0d 3b c3 a1 92 3b 91 d2 22 3b a2 1a 12 3b
       0.0021662458 0.00447485 0.0024844746 0.0022293706
0003b0 88 db 73 bb 64 7a d1 bb de 2d 41 bb e9 6e 22 3a
       -0.0037209708 -0.006392764 -0.0029476802 0.00061963365
0003c0 fb ce 94 3a 35 ab dd 3b 32 48 87 3c 87 e0 c2 3c
       0.0011353189 0.0067647942 0.016513918 0.023788704
0003d0 ce e0 bf 3c d7 bb 57 bc 7f 79 fd bb 61 63 95 ba
       0.023422625 -0.013167343 -0.0077354307 -0.0011397415
0003e0 cd 84 0c 3c 39 40 c6 3b 6f b9 30 3a 06 d7 7e bb
       0.008576584 0.0060501364 0.0006741499 -0.0038885488
0003f0 09 15 2f bb 1c ad d9 b9 47 a3 8e bb ee 35 5e 3b
       -0.0026715419 -0.00041518442 -0.0043529603 0.0033906656

onnx::Conv_81 f4 [16]
000000 fe 74 b0 be 33 21 18 3e ab f2 1a bf 6c 94 11 be
       -0.34464258 0.14856414 -0.6052653 -0.14216775
000010 74 84 ce 3e bc 66 8e 3e 72 49 a2 3e 87 2a 15 b8
       0.4033543 0.27812755 0.3169666 -3.5563975e-05
000020 4b cb 23 3e 82 f6 f5 bd fd dd 91 3d 50 c1 88 bd
       0.15995519 -0.12009908 0.07122419 -0.066774964
000030 ed b3 07 3e d5 d5 0f 3f 2b 59 9b 3d c4 3d 42 bc
       0.1325223 0.56185657 0.07585367 -0.011855546

onnx::Conv_83 f4 [32, 16, 3, 3]
000000 00 00 00 80 00 00 00 80 00 00 00 80 00 00 00 80
       -0.0 -0.0 -0.0 -0.0
000010 00 00 00 80 00 00 00 00 00 00 00 00 00 00 00 00
       -0.0 0.0 0.0 0.0
000020 00 00 00 80 00 00 00 00 00 00 00 00 00 00 00 80
       -0.0 0.0 0.0 -0.0
000030 00 00 00 80 00 00 00 80 00 00 00 80 00 00 00 00
       -0.0 -0.0 -0.0 0.0
000040 00 00 00 80 00 00 00 80 00 00 00 80 00 00 00 80
       -0.0 -0.0 -0.0 -0.0
000050 00 00 00 80 00 00 00 00 00 00 00 80 00 00 00 80
       -0.0 0.0 -0.0 -0.0
000060 00 00 00 80 00 00 00 00 00 00 00 80 00 00 00 00
       -0.0 0.0 -0.0 0.0
000070 00 00 00 80 00 00 00 00 00 00 00 80 00 00 00 80
       -0.0 0.0 -0.0 -0.0
000080 00 00 00 00 00 00 00 00 00 00 00 00 00 00 00 00
       0.0 0.0 0.0 0.0
000090 00 00 00 00 00 00 00 80 00 00 00 00 00 00 00 00
       0.0 -0.0 0.0 0.0
0000a0 00 00 00 00 00 00 00 00 00 00 00 00 00 00 00 00
       0.0 0.0 0.0 0.0
0000b0 00 00 00 00 00 00 00 80 00 00 00 80 00 00 00 80
       0.0 -0.0 -0.0 -0.0
0000c0 00 00 00 80 00 00 00 80 00 00 00 00 00 00 00 00
       -0.0 -0.0 0.0 0.0
0000d0 00 00 00 00 00 00 00 00 00 00 00 00 00 00 00 00
       0.0 0.0 0.0 0.0
0000e0 00 00 00 00 00 00 00 00 00 00 00 80 00 00 00 80
       0.0 0.0 -0.0 -0.0
0000f0 00 00 00 00 00 00 00 80 00 00 00 00 00 00 00 00
       0.0 -0.0 0.0 0.0
000100 00 00 00 80 00 00 00 00 00 00 00 80 00 00 00 80
       -0.0 0.0 -0.0 -0.0
000110 00 00 00 80 00 00 00 00 00 00 00 00 00 00 00 00
       -0.0 0.0 0.0 0.0
000120 00 00 00 80 00 00 00 80 00 00 00 00 00 00 00 00
       -0.0 -0.0 0.0 0.0
000130 00 00 00 00 00 00 00 80 00 00 00 00 00 00 00 80
       0.0 -0.0 0.0 -0.0
000140 00 00 00 00 00 00 00 00 00 00 00 80 00 00 00 80
       0.0 0.0 -0.0 -0.0
000150 00 00 00 80 00 00 00 00 00 00 00 00 00 00 00 80
       -0.0 0.0 0.0 -0.0
000160 00 00 00 00 00 00 00 00 00 00 00 00 00 00 00 80
       0.0 0.0 0.0 -0.0
000170 00 00 00 80 00 00 00 00 00 00 00 00 00 00 00 00
       -0.0 0.0 0.0 0.0
000180 00 00 00 00 00 00 00 00 00 00 00 00 00 00 00 80
       0.0 0.0 0.0 -0.0
000190 00 00 00 00 00 00 00 00 00 00 00 00 00 00 00 80
       0.0 0.0 0.0 -0.0
0001a0 00 00 00 00 00 00 00 00 00 00 00 00 00 00 00 80
       0.0 0.0 0.0 -0.0
0001b0 00 00 00 80 00 00 00 80 00 00 00 00 00 00 00 00
       -0.0 -0.0 0.0 0.0
0001c0 00 00 00 00 00 00 00 80 00 00 00 80 00 00 00 00
       0.0 -0.0 -0.0 0.0
0001d0 00 00 00 80 00 00 00 80 00 00 00 80 00 00 00 80
       -0.0 -0.0 -0.0 -0.0
0001e0 00 00 00 00 00 00 00 80 00 00 00 80 00 00 00 00
       0.0 -0.0 -0.0 0.0
0001f0 00 00 00 80 00 00 00 00 00 00 00 80 00 00 00 00
       -0.0 0.0 -0.0 0.0
000200 00 00 00 80 00 00 00 80 00 00 00 00 00 00 00 80
       -0.0 -0.0 0.0 -0.0
000210 00 00 00 00 00 00 00 80 00 00 00 00 00 00 00 80
       0.0 -0.0 0.0 -0.0
000220 00 00 00 80 00 00 00 00 00 00 00 80 00 00 00 00
       -0.0 0.0 -0.0 0.0
000230 00 00 00 80 00 00 00 80 00 00 00 80 00 00 00 00
       -0.0 -0.0 -0.0 0.0
000240 ca 17 b7 3b 37 eb 47 bc 21 1f 0d bc d7 be d4 bc
       0.0055875527 -0.012202076 -0.008613379 -0.025969906
000250 df f2 09 3d cb a3 85 3d 9f 8e cb bd 74 c1 93 bc
       0.033678886 0.06525382 -0.09939312 -0.018036582
000260 ba 6e 34 3c a5 84 f0 3b 00 55 b8 3a b6 53 bf 3a
       0.011012727 0.007340031 0.0014063418 0.0014597091
000270 24 e1 e0 3a 50 86 f2 bb 7f 33 e3 bb 27 6d fd 3a
       0.0017156941 -0.007401265 -0.006933629 0.0019334898
000280 95 17 2c bb 45 1a 3f bb af eb 82 3a 31 9d d2 3b
       -0.0026259173 -0.0029159945 0.0009988452 0.00642743
000290 20 ef af 3b 51 96 76 bc 08 f5 60 3c e6 ca c3 3c
       0.005369082 -0.015050487 0.013730295 0.02390046
0002a0 37 d0 45 bd 0d ac a5 bc 5b 26 04 bd 07 6d 75 3d
       -0.048294272 -0.020223642 -0.03226314 0.05991843
0002b0 62 00 2b 3d cc 1f ee 3c a8 02 1f 3d 2a 4a 1a 3d
       0.041748412 0.029067896 0.038820893 0.037668385
0002c0 bb 20 19 3d ae aa 22 3c 3d 94 a3 3c 28 66 e4 3c
       0.03738473 0.0099283885 0.019968146 0.027880743
0002d0 59 f3 fe bc ad 4b 47 3d a6 3c 03 3e 2d f2 cb bd
       -0.031121897 0.048656154 0.12816104 -0.09958301
0002e0 d6 d9 36 bc 99 c8 c3 3d 67 37 ca bc 5c 16 b4 3c
       -0.011160335 0.09559745 -0.024684621 0.021983318
0002f0 79 28 b9 3d 9c 85 88 3c be 98 e8 3c 95 fb a2 3c
       0.09040923 0.016665272 0.028393146 0.019895354
000300 63 af a5 3c d1 0b 8c 3c 9e 85 d8 3b ef 0f 23 3d
       0.020225232 0.017095478 0.0066077253 0.039810117
000310 e2 82 58 3d b4 8c 6d 3d f5 58 0d bb 4e 02 02 bd
       0.052859195 0.057995513 -0.0021567915 -0.03174048
000320 29 cc 39 3d 4c b8 ca bb 54 a5 ae bc 0a 31 5a 3d
       0.045360718 -0.0061865207 -0.021319069 0.053269424
000330 5a 63 cf bd c4 10 10 be 8a 1f e5 bd 76 14 11 9c
       -0.10126372 -0.14068896 -0.11187656 -4.800292e-22
000340 64 ae 87 1d 55 41 2d 9e f3 54 97 1d 70 27 4f 14
       3.591452e-21 -9.172054e-21 4.0057203e-21 1.0458607e-26
000350 30 e6 2d 1e 47 64 78 1f 08 70 b9 a2 54 c0 78 a1
       9.206145e-21 5.259899e-20 -5.026297e-18 -8.428021e-19
000360 26 e6 d3 3a 63 f7 b5 bb 69 60 e9 bb 79 41 51 bc
       0.0016166612 -0.0055531724 -0.0071220887 -0.012771958
000370 b4 82 12 3b c1 84 02 bd 68 68 fb bd be be 05 bd
       0.0022355737 -0.031864885 -0.12275773 -0.03265261
000380 ef 18 55 3c ab ba 8b 3d f0 30 81 3d b8 5e 5b 3c
       0.013006433 0.068227135 0.06308162 0.013389282
000390 08 d2 77 3d fd 96 5c 3d d2 77 57 3c 75 cc 9b 3b
       0.060503036 0.05385493 0.013151126 0.004754598
0003a0 12 08 ae 3a 4f f9 b1 bc 14 16 12 bd 8e 07 52 bd
       0.0013277552 -0.021725325 -0.035665587 -0.051276736
0003b0 cd 46 5d bd ce cb c0 bc 0f e3 22 bd b6 db 13 bd
       -0.0540226 -0.023534682 -0.03976732 -0.036098205
0003c0 a6 17 f1 3b 91 5e b4 bb e6 e4 94 bc 0c 69 54 3d
       0.0073575554 -0.0055044373 -0.018175554 0.051857993
0003d0 f6 8b c0 3b 2e 69 84 bc 4c 28 6d bd 21 a6 a0 bc
       0.0058760596 -0.016163435 -0.05789976 -0.019610466
0003e0 ac 0d 11 bd 89 8f da bd a2 c5 d3 bd 59 9d 84 bd
       -0.03541343 -0.106719084 -0.1034043 -0.06475324
0003f0 4b 90 80 bb 55 af d2 b9 81 9d 9e 3c 1f e8 9e bd
       -0.003923451 -0.00040184954 0.019362213 -0.07759117

onnx::Conv_84 f4 [32]
000000 a5 20 00 80 26 1a 92 3e 6e f4 8d 9e 0f 6d 00 80
       -1.171e-41 0.28535575 -1.503005e-20 -3.9123e-41
000010 f7 89 00 00 92 5f 38 3d 4a a9 00 be 94 14 8b bc
       4.9492e-41 0.045013018 -0.12564579 -0.016977586
000020 2f 0d 00 80 7c 27 00 00 70 ac 59 3d c1 8b 9d 3d
       -4.73e-42 1.4164e-41 0.053142965 0.076926716
000030 3e 32 0f 3c 11 35 00 80 48 10 00 00 3a b6 1d 3d
       0.008740006 -1.9037e-41 5.84e-42 0.038503863
000040 f8 3d 00 00 4e 2e 87 be 1d 3e 00 80 dc 32 00 80
       2.223e-41 -0.26402515 -2.2282e-41 -1.8245e-41
000050 32 30 00 00 01 e4 63 be 2d 3c 00 00 1a fc 15 be
       1.7289e-41 -0.22254945 2.1587e-41 -0.1464695
000060 9a 39 7e be 3b 16 00 00 c2 20 00 80 64 2c 00 80
       -0.24826661 7.975e-42 -1.1751e-41 -1.5924e-41
000070 e4 11 f8 bd 1c a8 10 3e 94 70 05 3e a4 01 d4 bc
       -0.12112787 0.14126629 0.13031226 -0.025879689

onnx::Conv_86 f4 [32, 32, 3, 3]
000000 b8 0c 03 00 eb 5f 03 00 43 bd 09 00 61 5d 03 00
       2.80069e-40 3.09915e-40 8.94414e-40 3.09005e-40
000010 df 83 04 00 c7 2b 08 00 6c 19 08 00 af 6f 07 00
       4.14648e-40 7.50388e-40 7.43804e-40 6.82913e-40
000020 f4 bb 0a 00 1e 89 ed 3c bb 6d e2 bd 41 1d 0f bd
       9.8578e-40 0.028996047 -0.11056086 -0.034940008
000030 47 fb 43 bc 15 3b 57 be 9c 16 b4 bd e9 47 63 3e
       -0.011961765 -0.21018632 -0.08793375 0.221954
000040 32 48 bc 3d ef 38 e5 3d 23 c7 08 1d 09 e9 14 1d
       0.09193458 0.111925 1.8102401e-21 1.9708113e-21
000050 6a 4a 06 9c b1 06 8e 1c 0a 41 08 19 ed ce a1 1d
       -4.443306e-22 9.398501e-22 7.04417e-24 4.28303e-21
000060 46 24 95 9d f2 32 a5 9d 08 23 ba 1d b1 28 08 80
       -3.9477477e-21 -4.3727813e-21 4.927001e-21 -7.49281e-40
000070 95 f0 06 80 ec 30 11 80 6f 66 04 80 90 ac 05 80
       -6.37318e-40 -1.578753e-39 -4.04088e-40 -5.21081e-40
000080 56 dd 0e 80 9f 1f 0a 80 c7 b7 07 80 71 f8 13 80
       -1.365097e-39 -9.29698e-40 -7.08775e-40 -1.833998e-39
000090 5b 78 00 80 c7 75 00 00 fa af 1f 00 ac 86 00 80
       -4.3175e-41 4.225e-41 2.910029e-39 -4.8311e-41
0000a0 f5 1f 00 00 61 c8 1e 00 34 2c 01 00 63 3e 00 00
       1.1464e-41 2.826947e-39 1.07693e-40 2.238e-41
0000b0 9b cf 1c 00 61 29 7c 3d 58 6a 85 be 3b 2f 64 bd
       2.645869e-39 0.0615629 -0.26057696 -0.055709105
0000c0 60 d8 1a 3e 45 e4 2a be 4b ea fe 3c a5 c0 70 be
       0.15121603 -0.1668864 0.031117579 -0.23510988
0000d0 d0 ca cf bd 99 8e 96 3e 30 56 9d 3d 8a 42 89 3d
       -0.10146105 0.29405668 0.076824546 0.067021444
0000e0 3f 7a 3c 3c be 45 d0 bd 23 cc 3d bd 92 82 63 bd
       0.011503755 -0.10169552 -0.046337258 -0.055544443
0000f0 8c dd af 3d dd bf dc 3d 53 40 d4 3d eb 5a 6c 3b
       0.085871786 0.107787825 0.10363831 0.0036064934
000100 d8 ec b8 39 41 b2 d0 bc c8 95 7a be 6d 8d 7f be
       0.00035271677 -0.025475623 -0.244712 -0.24956293
000110 0c 8e 27 be 64 ea 81 be 32 b0 97 be 1c 08 5a be
       -0.1636278 -0.25374138 -0.29626614 -0.21292156
000120 dd 6a 08 80 01 85 08 80 5a 2f 0f 80 d2 82 06 80
       -7.73019e-40 -7.82397e-40 -1.394519e-39 -5.97942e-40
000130 56 46 06 80 49 bb 0d 80 63 c0 0f 80 40 82 0e 80
       -5.76245e-40 -1.261047e-39 -1.446548e-39 -1.332422e-39
000140 f6 48 17 80 ae a1 00 80 1a 0f 00 00 29 5c 0e 00
       -2.13839e-39 -5.8e-41 5.417e-42 1.318758e-39
000150 41 ac 00 80 4f 8b 01 80 74 6f 10 00 64 d2 02 80
       -6.1793e-41 -1.4181e-40 1.50935e-39 -2.59145e-40
000160 ae c1 01 80 7b 5f 0e 00 17 75 6a 3e 4d d9 1e 3e
       -1.61315e-40 1.319949e-39 0.22896229 0.15512581
000170 a6 15 fe ba 96 49 43 3d ed c9 6b 3c 8f 61 26 be
       -0.0019385114 0.0476776 0.014391405 -0.16248153
000180 e2 31 7e 3e bb 69 a1 3e 38 4f ee bd 08 79 02 3e
       0.24823716 0.31525978 -0.116362035 0.12741482
000190 76 5f 95 3d 85 43 e6 bd c8 44 8c bd 9b 8f 38 bd
       0.07293598 -0.11243347 -0.068490565 -0.045058828
0001a0 bb 6a 7d be 03 04 de 3d 65 a4 08 3e 1b 28 e1 bd
       -0.24747746 0.10840609 0.13343962 -0.10993978
0001b0 b0 00 e8 bb ed 5b be b9 9e 39 c2 bc 84 ff 3d bb
       -0.00708016 -0.00036308114 -0.023709115 -0.002899141
0001c0 53 dc 17 3b 93 ac a1 bc 9b 76 a9 3b 4c 01 af 3b
       0.0023172095 -0.01973561 0.0051716096 0.005340731
0001d0 ac 89 3b bc c7 f9 05 80 a4 b3 02 80 68 4e 03 00
       -0.011446398 -5.48781e-40 -2.48114e-40 3.03633e-40
0001e0 d6 3c 05 80 70 25 01 80 97 ff 03 00 a7 fd 07 80
       -4.81001e-40 -1.05266e-40 3.67195e-40 -7.33842e-40
0001f0 69 8a 05 80 10 32 02 80 83 40 03 00 19 fc 03 00
       -5.0883e-40 -2.0163e-40 2.98649e-40 3.65942e-40
000200 5b 8c 05 00 ef d7 03 00 18 ba 03 00 26 8c 07 00
       5.09528e-40 3.52969e-40 3.42264e-40 6.93124e-40
000210 dd 70 06 00 3d db 05 00 ad fa 08 00 1c 31 71 be
       5.915e-40 5.37825e-40 8.2461e-40 -0.2355389
000220 cd 49 36 be ac f1 6b be c1 2a 21 bd 08 cf 87 bd
       -0.1780159 -0.23041409 -0.039347414 -0.06631285
000230 3a 25 6b be 4a 9c 95 3d 19 aa 23 3e f1 1b e3 bd
       -0.2296342 0.073052004 0.15982856 -0.11089314
000240 8c 28 02 00 b5 65 02 00 0a b6 05 00 bd ec 01 00
       1.98216e-40 2.20157e-40 5.24481e-40 1.76761e-40
000250 41 39 02 00 7f 52 06 00 ef 16 03 00 16 0c 04 00
       2.0421e-40 5.80607e-40 2.83734e-40 3.71678e-40
000260 a4 68 07 00 55 b3 cf 3e 51 d6 ec 3b 07 4b 76 3c
       6.80386e-40 0.40566507 0.007227697 0.015032536
000270 0d 42 40 3e 0c 37 eb bd ac 88 9c be 08 c1 8a 3e
       0.18775196 -0.11485109 -0.30573022 0.27100396
000280 55 06 8b 3b 79 da d2 bd d8 33 03 80 5a 14 02 80
       0.004242698 -0.102955766 -2.94105e-40 -1.90972e-40
000290 c6 c5 0d 80 4c e8 01 80 aa 65 01 80 4d 41 0e 80
       -1.264809e-39 -1.75168e-40 -1.28306e-40 -1.309122e-39
0002a0 8a 35 05 80 3e af 02 80 7e b9 0f 80 50 79 02 80
       -4.78384e-40 -2.46536e-40 -1.444075e-39 -2.2719e-40
0002b0 e2 99 02 80 17 6b 06 80 a4 f2 02 80 62 d0 02 80
       -2.38874e-40 -5.8943e-40 -2.70714e-40 -2.58425e-40
0002c0 eb 13 07 80 57 59 03 80 9f a9 03 80 f0 5e 08 80
       -6.49994e-40 -3.07556e-40 -3.36355e-40 -7.68741e-40
0002d0 55 1a 01 80 61 91 02 80 1b 00 00 00 a1 11 04 80
       -1.01282e-40 -2.35823e-40 3.8e-44 -3.73666e-40
0002e0 54 96 01 80 aa 9d 00 00 0c c5 03 80 9a 9a 02 80
       -1.45763e-40 5.6559e-41 -3.46194e-40 -2.39132e-40
0002f0 07 06 00 00 86 04 3a be 5a 03 a3 bd 71 b3 3c 3e
       2.162e-42 -0.18165788 -0.07959624 0.18427826
000300 40 90 8c bd b5 2b b4 bd 65 05 2d 3e 22 6b 87 bc
       -0.06863451 -0.08797399 0.16896589 -0.016530577
000310 de 1c 17 bc 6e 92 e9 bd 55 0b 06 80 02 59 06 80
       -0.009223191 -0.11404882 -5.55078e-40 -5.82943e-40
000320 57 11 00 00 e1 eb 04 80 06 fb 05 80 30 12 00 80
       6.22e-42 -4.5196e-40 -5.49228e-40 -6.524e-42
000330 6a 82 0d 80 96 a2 0e 80 d1 c3 08 80 dc f4 e5 bc
       -1.240645e-39 -1.344022e-39 -8.0493e-40 -0.02807086
000340 25 6f 0f bd be 48 9f bd ce bd bf b9 9d c7 eb bc
       -0.035018105 -0.07777546 -0.00036571774 -0.028781706
000350 38 3f 01 bd 2e f3 34 3d d2 a1 1a bd 7e 60 46 bc
       -0.03155443 0.044177227 -0.03775198 -0.0121079665
000360 bc d8 1e be da 8e ad bc dd 8e bb 3d 49 55 87 be
       -0.15512365 -0.021186281 0.091581084 -0.26432255
000370 3a 9f 61 be 16 bc b3 3d ad d9 22 3e 2d 47 c7 bd
       -0.22033396 0.08776109 0.15903349 -0.097303726
000380 6d de 2a bc eb e4 03 00 d5 e8 03 00 20 51 07 00
       -0.010429007 3.57627e-40 3.59031e-40 6.7195e-40
000390 93 2f 04 00 a2 61 04 00 53 8b 07 00 52 b9 07 00
       3.84408e-40 4.02366e-40 6.92829e-40 7.09329e-40
0003a0 e8 4a 07 00 22 29 08 00 80 3f 05 80 f0 a5 03 80
       6.6972e-40 7.4944e-40 -4.81957e-40 -3.35034e-40
0003b0 42 e1 0a 80 82 01 03 80 07 31 02 80 3e 34 0a 80
       -9.99162e-40 -2.76047e-40 -2.01259e-40 -9.37096e-40
0003c0 f8 a2 0f 80 0b 93 0e 80 62 28 14 80 cd 62 06 80
       -1.435995e-39 -1.338446e-39 -1.851197e-39 -5.86456e-40
0003d0 0b b2 06 80 a4 c2 0c 80 fa 4c 06 80 e1 da 05 80
       -6.14883e-40 -1.17185e-39 -5.78627e-40 -5.37696e-40
0003e0 0f a5 0d 80 3e 25 07 80 e6 cd 06 80 8d 07 10 80
       -1.253073e-39 -6.56208e-40 -6.24875e-40 -1.472077e-39
0003f0 fc b4 2e be 92 dd c6 bd bd 01 0d 3e bf 0c db be
       -0.17061228 -0.0971023 0.13770194 -0.42783162

onnx::Conv_87 f4 [32]
000000 b5 58 af 3d fe e6 e1 bc 59 24 00 00 32 74 45 a5
       0.085618414 -0.027575966 1.3039e-41 -1.7126395e-16
000010 b4 43 68 bd 98 84 93 bd 80 05 89 3c ae 1d a1 bd
       -0.05670519 -0.072030246 0.016726255 -0.07866989
000020 3f 5f 00 80 c8 3b 00 80 18 05 00 00 24 3d d5 3c
       -3.4168e-41 -2.1445e-41 1.827e-42 0.02603013
000030 71 32 00 80 bb 5d 43 bd 1f 32 00 00 64 b7 a9 3c
       -1.8095e-41 -0.04769681 1.798e-41 0.02071733
000040 ac 24 20 3e 67 06 00 80 11 ca 76 bd c7 67 39 be
       0.15638989 -2.297e-42 -0.0602513 -0.18105994
000050 31 0b 00 00 db a7 ba bd 84 4c 00 80 d0 22 5d bd
       4.015e-42 -0.09114047 -2.7449e-41 -0.053988278
000060 4a 68 0f be 40 4e 04 3e 99 2b 00 00 82 d6 d5 3d
       -0.14004627 0.12920475 1.564e-41 0.10441305
000070 28 d5 ae bd 25 18 0b be 90 43 0d 3d 3b 2a 00 00
       -0.0853675 -0.13583429 0.03448826 1.515e-41

onnx::Conv_89 f4 [32, 16, 1, 1]
000000 30 18 f2 3e c7 e8 f4 3c cd dc 46 be 97 fb ae bd
       0.4728408 0.029896153 -0.19420166 -0.08544081
000010 03 c3 bd be e8 58 df bd 29 9f 17 3e ef 9f ee 19
       -0.37062845 -0.109056294 0.14806809 2.467322e-23
000020 3a 65 cd 3e 6a f3 de bd 9d af 32 3c c6 ed 49 3c
       0.40116292 -0.10886271 0.010906127 0.012324756
000030 e2 e1 f7 3c 90 64 4f 3e 22 32 2f 3e 6e 33 3b 3e
       0.030259077 0.20253205 0.17108968 0.18281338
000040 8e 7a 31 3c 83 6b 1f bc d3 7c 36 3e 1b da b0 3d
       0.010832442 -0.009730223 0.17821054 0.0863535
000050 6d 26 d9 bd 72 e3 3a be 4a 70 bc bd 8b 9f 54 99
       -0.10603032 -0.18250826 -0.09201105 -1.09923626e-23
000060 ee 6d 4f 3d 9c f6 8b 3e 8d 08 4a be 74 5e 1c 3c
       0.050641946 0.27336586 -0.19729824 0.009544004
000070 5a c6 41 3e 99 6b 37 bd 3b 91 34 bd 76 bd c4 bd
       0.18923321 -0.044780347 -0.044083815 -0.09606449
000080 00 00 00 80 00 00 00 80 00 00 00 00 00 00 00 80
       -0.0 -0.0 0.0 -0.0
000090 00 00 00 80 00 00 00 80 00 00 00 80 00 00 00 80
       -0.0 -0.0 -0.0 -0.0
0000a0 00 00 00 80 00 00 00 80 00 00 00 00 00 00 00 00
       -0.0 -0.0 0.0 0.0
0000b0 00 00 00 80 00 00 00 00 00 00 00 00 00 00 00 00
       -0.0 0.0 0.0 0.0
0000c0 00 00 00 00 00 00 00 80 00 00 00 80 00 00 00 80
       0.0 -0.0 -0.0 -0.0
0000d0 00 00 00 00 00 00 00 00 00 00 00 80 00 00 00 00
       0.0 0.0 -0.0 0.0
0000e0 9e d3 6c 04 00 00 00 80 00 00 00 80 03 00 00 00
       2.7838837e-36 -0.0 -0.0 4e-45
0000f0 41 01 b9 92 00 00 00 00 00 00 00 80 00 00 00 00
       -1.16754505e-27 0.0 -0.0 0.0
000100 88 63 93 b6 fa 2c 74 b6 28 69 ac b5 8e 90 7e b5
       -4.3925284e-06 -3.6385013e-06 -1.2845603e-06 -9.483273e-07
000110 ac 90 9d 37 39 9a 09 37 1b b2 29 b7 88 52 e6 92
       1.8783227e-05 8.201744e-06 -1.0114653e-05 -1.4535386e-27
000120 ab 22 6e 35 14 7d 82 b7 09 10 a8 b6 c9 29 04 37
       8.871236e-07 -1.5555452e-05 -5.008657e-06 7.877542e-06
000130 95 ce 71 b6 05 60 e7 36 c4 2c af b7 29 86 51 b6
       -3.6032045e-06 6.8955146e-06 -2.0882471e-05 -3.1221518e-06
000140 d9 1a a3 bd fd 3b 2a bb 3e fd 98 3a d9 05 63 3c
       -0.07964105 -0.0025975697 0.0011672152 0.013856375
000150 18 9a db bd 8e 2b 45 bd e7 45 9e 3c 69 dd 0e 97
       -0.107227504 -0.04813724 0.019320441 -4.6162134e-25
000160 f3 25 fa bb b8 93 fb 3b c1 dc c7 bb 3a 95 1c 3d
       -0.0076339184 0.0076775216 -0.006099314 0.03822825
000170 44 d4 4c bd 10 39 57 bb 0a 0f ea 3c 18 7b be bd
       -0.05000712 -0.0032840408 0.028571624 -0.09300822
000180 92 c6 49 3d fb 05 f9 bb fe 0e 98 be 1f 5c d0 bd
       0.049261637 -0.00759959 -0.29698938 -0.10173821
000190 80 15 0e be c2 1b 73 3d db b0 d1 3c 48 11 eb 98
       -0.13875389 0.059352644 0.025597027 -6.0763526e-24
0001a0 18 1d 83 3d 7c 80 9e be bc ae e2 bd 7b 97 0f 3e
       0.064020336 -0.309574 -0.11068484 0.14022629
0001b0 d3 4d e3 3c 63 e3 8c be c0 a1 35 3c bd ba 0a bd
       0.02774707 -0.27517232 0.0110859275 -0.033869494
0001c0 ec ce 29 3d 8f 04 d9 ba aa 55 3f 3c 77 d7 77 3c
       0.0414571 -0.0016557145 0.011678139 0.015127054
0001d0 8f 82 ff 3c 73 bf fd 3c 5c e0 5b bd ac e6 f8 99
       0.031190185 0.03097508 -0.053680763 -2.5735767e-23
0001e0 33 97 6d bc 1b 6d 87 bc 2b 49 87 bd 76 6d 89 bd
       -0.014501381 -0.016531518 -0.066057526 -0.06710331
0001f0 cb 5a e8 bc fa dc 36 3c bc 1a a6 3b ff d3 52 3d
       -0.028363606 0.011161083 0.005069105 0.051471706
000200 00 00 00 00 00 00 00 80 00 00 00 00 00 00 00 00
       0.0 -0.0 0.0 0.0
000210 00 00 00 80 00 00 00 00 00 00 00 80 00 00 00 80
       -0.0 0.0 -0.0 -0.0
000220 00 00 00 80 00 00 00 80 00 00 00 00 00 00 00 80
       -0.0 -0.0 0.0 -0.0
000230 00 00 00 00 00 00 00 00 00 00 00 00 00 00 00 00
       0.0 0.0 0.0 0.0
000240 00 00 00 00 00 00 00 80 00 00 00 80 00 00 00 80
       0.0 -0.0 -0.0 -0.0
000250 00 00 00 80 00 00 00 80 00 00 00 80 00 00 00 00
       -0.0 -0.0 -0.0 0.0
000260 00 00 00 80 00 00 00 00 00 00 00 00 00 00 00 80
       -0.0 0.0 0.0 -0.0
000270 00 00 00 00 00 00 00 80 00 00 00 00 00 00 00 00
       0.0 -0.0 0.0 0.0
000280 00 00 00 00 00 00 00 80 00 00 00 00 00 00 00 00
       0.0 -0.0 0.0 0.0
000290 00 00 00 80 00 00 00 80 00 00 00 00 00 00 00 80
       -0.0 -0.0 0.0 -0.0
0002a0 00 00 00 80 00 00 00 00 00 00 00 00 00 00 00 80
       -0.0 0.0 0.0 -0.0
0002b0 00 00 00 00 00 00 00 80 00 00 00 80 00 00 00 80
       0.0 -0.0 -0.0 -0.0
0002c0 42 4a 2c bd 1c 77 a1 3b 71 7d e4 bc f4 a1 af ba
       -0.042063005 0.004927529 -0.027891846 -0.0013399706
0002d0 d5 4f 30 bd 12 ac 03 bd f5 c0 09 bd 8d 55 aa 19
       -0.043044884 -0.03214652 -0.033631284 1.7612142e-23
0002e0 ed f0 28 bd 9c 06 fd 3b ee 30 f6 3d df f3 1d bd
       -0.04124539 0.007721735 0.12021051 -0.03856265
0002f0 10 b4 b6 bd d2 96 ed 3d 9a 39 bd 3c bf 6e 8d bd
       -0.08921063 0.11601032 0.023098756 -0.06905889
000300 00 00 00 80 00 00 00 00 00 00 00 80 00 00 00 00
       -0.0 0.0 -0.0 0.0
000310 00 00 00 00 00 00 00 80 00 00 00 80 00 00 00 00
       0.0 -0.0 -0.0 0.0
000320 00 00 00 80 00 00 00 00 00 00 00 00 00 00 00 00
       -0.0 0.0 0.0 0.0
000330 00 00 00 00 00 00 00 80 00 00 00 00 00 00 00 00
       0.0 -0.0 0.0 0.0
000340 c7 84 5f 3b c0 7d 89 39 65 3c 16 bb 73 14 49 bb
       0.003410624 0.00026224367 -0.0022924182 -0.0030682355
000350 1a c2 38 39 86 f4 7e ba 17 f5 af bb ba ca bf 98
       0.00017619916 -0.0009725768 -0.005369793 -4.9577044e-24
000360 40 bd ab 3b 24 0a 95 37 b8 8b 2f 39 d6 83 55 ba
       0.005241066 1.7766906e-05 0.0001674135 -0.000814495
000370 5f a7 0f bb ea fe a9 3a cf f2 b1 bb cd 27 55 3b
       -0.002191983 0.0012969647 -0.0054305564 0.0032524944
000380 00 00 00 00 00 00 00 80 00 00 00 00 00 00 00 80
       0.0 -0.0 0.0 -0.0
000390 00 00 00 80 00 00 00 80 00 00 00 00 00 00 00 00
       -0.0 -0.0 0.0 0.0
0003a0 00 00 00 00 00 00 00 00 00 00 00 00 00 00 00 80
       0.0 0.0 0.0 -0.0
0003b0 00 00 00 00 00 00 00 00 00 00 00 00 00 00 00 00
       0.0 0.0 0.0 0.0
0003c0 96 93 05 be 3b c1 2c 3c a8 c1 cd bd 5c 43 09 bd
       -0.13044581 0.010544117 -0.100467026 -0.033511505
0003d0 7d e2 d5 3d db 68 02 3c 8a b3 04 3e fe 51 98 97
       0.1044359 0.00795957 0.12959114 -9.843468e-25
0003e0 22 ba 82 3d 52 98 68 bd 31 9e 1e 3d 02 03 35 3e
       0.06383158 -0.05678589 0.03872508 0.17676929
0003f0 47 cf d6 3d db df 12 3d b6 33 3a 3e c4 39 dd 3c
       0.10488754 0.035858016 0.18183789 0.027005084

onnx::Conv_90 f4 [32]
000000 47 6d a1 be 14 26 d3 bd 59 24 00 00 32 74 45 a5
       -0.31528684 -0.10309997 1.3039e-41 -1.7126395e-16
000010 e8 55 00 bd ad 25 42 3d 78 af bb 3c c0 f6 96 bb
       -0.031331927 0.04739921 0.022910818 -0.0046070516
000020 3f 5f 00 80 c8 3b 00 80 18 05 00 00 a0 27 5b 3d
       -3.4168e-41 -2.1445e-41 1.827e-42 0.053504586
000030 71 32 00 80 a9 75 5a bd 1f 32 00 00 22 a4 53 be
       -1.8095e-41 -0.053334866 1.798e-41 -0.2066808
000040 02 a5 d4 3a 67 06 00 80 08 2d 8a bd aa 5c fe bd
       0.0016223493 -2.297e-42 -0.0674687 -0.12420018
000050 31 0b 00 00 6d ff 48 be 84 4c 00 80 44 b7 12 be
       4.015e-42 -0.19628687 -2.7449e-41 -0.14327723
000060 d7 bc 36 be 3a 5c 40 be 99 2b 00 00 14 67 5e be
       -0.17845474 -0.18785182 1.564e-41 -0.21719009
000070 42 c5 05 3d 65 59 c5 bd 41 d3 6a 3e 3b 2a 00 00
       0.032658823 -0.09636191 0.2293215 1.515e-41

onnx::Conv_92 f4 [64, 32, 3, 3]
000000 00 00 00 80 00 00 00 80 00 00 00 80 00 00 00 80
       -0.0 -0.0 -0.0 -0.0
000010 00 00 00 80 00 00 00 80 00 00 00 80 00 00 00 80
       -0.0 -0.0 -0.0 -0.0
000020 00 00 00 80 00 00 00 80 00 00 00 80 00 00 00 80
       -0.0 -0.0 -0.0 -0.0
000030 00 00 00 80 00 00 00 80 00 00 00 80 00 00 00 80
       -0.0 -0.0 -0.0 -0.0
000040 00 00 00 80 00 00 00 80 00 00 00 00 00 00 00 80
       -0.0 -0.0 0.0 -0.0
000050 00 00 00 80 00 00 00 80 00 00 00 80 00 00 00 80
       -0.0 -0.0 -0.0 -0.0
000060 00 00 00 00 00 00 00 00 00 00 00 00 00 00 00 80
       0.0 0.0 0.0 -0.0
000070 00 00 00 00 00 00 00 80 00 00 00 00 00 00 00 80
       0.0 -0.0 0.0 -0.0
000080 00 00 00 00 00 00 00 80 00 00 00 80 00 00 00 80
       0.0 -0.0 -0.0 -0.0
000090 00 00 00 00 00 00 00 80 00 00 00 80 00 00 00 80
       0.0 -0.0 -0.0 -0.0
0000a0 00 00 00 80 00 00 00 00 00 00 00 00 00 00 00 00
       -0.0 0.0 0.0 0.0
0000b0 00 00 00 80 00 00 00 80 00 00 00 00 00 00 00 80
       -0.0 -0.0 0.0 -0.0
0000c0 00 00 00 00 00 00 00 00 00 00 00 80 00 00 00 00
       0.0 0.0 -0.0 0.0
0000d0 00 00 00 00 00 00 00 80 00 00 00 00 00 00 00 00
       0.0 -0.0 0.0 0.0
0000e0 00 00 00 00 00 00 00 00 00 00 00 00 00 00 00 00
       0.0 0.0 0.0 0.0
0000f0 00 00 00 00 00 00 00 00 00 00 00 00 00 00 00 00
       0.0 0.0 0.0 0.0
000100 00 00 00 00 00 00 00 80 00 00 00 80 00 00 00 80
       0.0 -0.0 -0.0 -0.0
000110 00 00 00 80 00 00 00 00 00 00 00 80 00 00 00 80
       -0.0 0.0 -0.0 -0.0
000120 00 00 00 00 00 00 00 00 00 00 00 80 00 00 00 80
       0.0 0.0 -0.0 -0.0
000130 00 00 00 00 00 00 00 80 00 00 00 00 00 00 00 80
       0.0 -0.0 0.0 -0.0
000140 00 00 00 80 00 00 00 00 00 00 00 80 00 00 00 00
       -0.0 0.0 -0.0 0.0
000150 00 00 00 00 00 00 00 00 00 00 00 00 00 00 00 00
       0.0 0.0 0.0 0.0
000160 00 00 00 00 00 00 00 00 00 00 00 00 00 00 00 00
       0.0 0.0 0.0 0.0
000170 00 00 00 00 00 00 00 80 00 00 00 00 00 00 00 80
       0.0 -0.0 0.0 -0.0
000180 00 00 00 80 00 00 00 80 00 00 00 00 00 00 00 00
       -0.0 -0.0 0.0 0.0
000190 00 00 00 80 00 00 00 00 00 00 00 00 00 00 00 00
       -0.0 0.0 0.0 0.0
0001a0 00 00 00 00 00 00 00 80 00 00 00 00 00 00 00 00
       0.0 -0.0 0.0 0.0
0001b0 00 00 00 80 00 00 00 00 00 00 00 00 00 00 00 80
       -0.0 0.0 0.0 -0.0
0001c0 00 00 00 00 00 00 00 80 00 00 00 80 00 00 00 00
       0.0 -0.0 -0.0 0.0
0001d0 00 00 00 80 00 00 00 80 00 00 00 00 00 00 00 00
       -0.0 -0.0 0.0 0.0
0001e0 00 00 00 80 00 00 00 00 00 00 00 00 00 00 00 80
       -0.0 0.0 0.0 -0.0
0001f0 00 00 00 80 00 00 00 80 00 00 00 00 00 00 00 80
       -0.0 -0.0 0.0 -0.0
000200 00 00 00 80 00 00 00 80 00 00 00 00 00 00 00 00
       -0.0 -0.0 0.0 0.0
000210 00 00 00 80 00 00 00 80 00 00 00 80 00 00 00 80
       -0.0 -0.0 -0.0 -0.0
000220 00 00 00 80 00 00 00 80 00 00 00 80 00 00 00 80
       -0.0 -0.0 -0.0 -0.0
000230 00 00 00 80 00 00 00 80 00 00 00 80 00 00 00 80
       -0.0 -0.0 -0.0 -0.0
000240 00 00 00 80 00 00 00 80 00 00 00 80 00 00 00 00
       -0.0 -0.0 -0.0 0.0
000250 00 00 00 80 00 00 00 80 00 00 00 80 00 00 00 80
       -0.0 -0.0 -0.0 -0.0
000260 00 00 00 00 00 00 00 80 00 00 00 80 00 00 00 80
       0.0 -0.0 -0.0 -0.0
000270 00 00 00 80 00 00 00 80 00 00 00 00 00 00 00 80
       -0.0 -0.0 0.0 -0.0
000280 00 00 00 00 00 00 00 00 00 00 00 00 00 00 00 00
       0.0 0.0 0.0 0.0
000290 00 00 00 80 00 00 00 80 00 00 00 80 00 00 00 80
       -0.0 -0.0 -0.0 -0.0
0002a0 00 00 00 80 00 00 00 80 00 00 00 80 00 00 00 00
       -0.0 -0.0 -0.0 0.0
0002b0 00 00 00 00 00 00 00 00 00 00 00 80 00 00 00 80
       0.0 0.0 -0.0 -0.0
0002c0 00 00 00 80 00 00 00 00 00 00 00 00 00 00 00 00
       -0.0 0.0 0.0 0.0
0002d0 00 00 00 00 00 00 00 80 00 00 00 80 00 00 00 80
       0.0 -0.0 -0.0 -0.0
0002e0 00 00 00 80 00 00 00 80 00 00 00 00 00 00 00 80
       -0.0 -0.0 0.0 -0.0
0002f0 00 00 00 00 00 00 00 80 00 00 00 00 00 00 00 00
       0.0 -0.0 0.0 0.0
000300 00 00 00 80 00 00 00 80 00 00 00 00 00 00 00 80
       -0.0 -0.0 0.0 -0.0
000310 00 00 00 80 00 00 00 80 00 00 00 80 00 00 00 80
       -0.0 -0.0 -0.0 -0.0
000320 00 00 00 80 00 00 00 80 00 00 00 80 00 00 00 00
       -0.0 -0.0 -0.0 0.0
000330 00 00 00 00 00 00 00 00 00 00 00 00 00 00 00 00
       0.0 0.0 0.0 0.0
000340 00 00 00 80 00 00 00 80 00 00 00 80 00 00 00 80
       -0.0 -0.0 -0.0 -0.0
000350 00 00 00 00 00 00 00 80 00 00 00 80 00 00 00 80
       0.0 -0.0 -0.0 -0.0
000360 00 00 00 80 00 00 00 80 00 00 00 00 00 00 00 80
       -0.0 -0.0 0.0 -0.0
000370 00 00 00 80 00 00 00 80 00 00 00 80 00 00 00 00
       -0.0 -0.0 -0.0 0.0
000380 00 00 00 00 00 00 00 80 00 00 00 80 00 00 00 80
       0.0 -0.0 -0.0 -0.0
000390 00 00 00 00 00 00 00 00 00 00 00 00 00 00 00 00
       0.0 0.0 0.0 0.0
0003a0 00 00 00 80 00 00 00 80 00 00 00 00 00 00 00 00
       -0.0 -0.0 0.0 0.0
0003b0 00 00 00 80 00 00 00 00 00 00 00 00 00 00 00 00
       -0.0 0.0 0.0 0.0
0003c0 00 00 00 80 00 00 00 00 00 00 00 00 00 00 00 80
       -0.0 0.0 0.0 -0.0
0003d0 00 00 00 80 00 00 00 80 00 00 00 80 00 00 00 80
       -0.0 -0.0 -0.0 -0.0
0003e0 00 00 00 80 00 00 00 00 00 00 00 80 00 00 00 80
       -0.0 0.0 -0.0 -0.0
0003f0 00 00 00 00 00 00 00 80 00 00 00 00 00 00 00 00
       0.0 -0.0 0.0 0.0

onnx::Conv_93 f4 [64]
000000 14 a6 d5 a3 a1 0a 00 80 50 fd 06 bd 1b 13 00 00
       -2.3163843e-17 -3.813e-42 -0.03295642 6.854e-42
000010 44 17 00 80 9a 6c a0 3a 12 4c 00 80 a2 8a 00 80
       -8.346e-42 0.0012239397 -2.7289e-41 -4.9732e-41
000020 e2 1f 02 80 5d cd 03 00 be 26 6c 26 96 94 87 ba
       -1.95108e-40 3.49177e-40 8.1931454e-16 -0.0010343965
000030 df a5 02 80 9e c9 9e ab 3c b2 77 3e 04 9d 00 80
       -2.43174e-40 -1.1282535e-12 0.24189085 -5.6327e-41
000040 f0 eb 1d ba d8 d5 24 9f e6 d1 08 aa 86 7d ec b0
       -0.0006024232 -3.4905238e-20 -1.215205e-13 -1.7206936e-09
000050 f6 ac 00 80 fa a2 83 b7 94 01 02 00 61 b1 73 39
       -6.2047e-41 -1.5692309e-05 1.84237e-40 0.00023240365
000060 56 ab 26 b9 f8 a8 aa 90 18 65 b7 a8 04 46 6f 01
       -0.00015894821 -6.7313515e-29 -2.0360924e-14 4.39476e-38
000070 d0 59 59 b6 b1 5e 65 b8 02 5f 23 af 38 10 af 87
       -3.2387798e-06 -5.4686043e-05 -1.4858517e-10 -2.6340606e-34
000080 a4 08 c7 a5 21 08 00 80 40 a7 c0 be 8c 9b f7 b6
       -3.4526852e-16 -2.916e-42 -0.37627602 -7.3792817e-06
000090 e8 e4 1c 3e 27 d5 14 00 0f 51 01 80 63 bc 02 80
       0.15321696 1.913175e-39 -1.20914e-40 -2.51251e-40
0000a0 94 c4 cf 3d e1 59 00 80 32 be ed b3 ac ad 1a 00
       0.10144916 -3.2242e-41 -1.1070769e-07 2.450025e-39
0000b0 5a d0 f4 ae 18 0c 0c 00 2a 1f 37 8f c5 87 6a ba
       -1.1132846e-10 1.106364e-39 -9.0285986e-30 -0.0008946623
0000c0 33 15 00 80 3e c9 ad b7 04 ef b0 84 64 a6 82 b2
       -7.605e-42 -2.0716918e-05 -4.1596902e-36 -1.5209658e-08
0000d0 16 a2 33 a9 ec 80 0a be bb 3a 02 80 72 ff 05 80
       -3.988657e-14 -0.13525742 -2.0474e-40 -5.50814e-40
0000e0 94 42 6a b9 c4 80 cf b8 00 f6 10 80 e5 74 32 ba
       -0.00022340781 -9.894514e-05 -1.557616e-39 -0.000680758
0000f0 ad 0b 02 80 5f 13 0e ba a5 99 26 3b c0 3c 00 80
       -1.8786e-40 -0.00054197566 0.002542117 -2.1793e-41

onnx::Conv_95 f4 [64, 64, 3, 3]
000000 00 00 00 00 00 00 00 80 00 00 00 80 00 00 00 00
       0.0 -0.0 -0.0 0.0
000010 00 00 00 80 00 00 00 00 00 00 00 80 00 00 00 80
       -0.0 0.0 -0.0 -0.0
000020 00 00 00 00 00 00 00 00 00 00 00 00 00 00 00 00
       0.0 0.0 0.0 0.0
000030 00 00 00 00 00 00 00 00 00 00 00 80 00 00 00 80
       0.0 0.0 -0.0 -0.0
000040 00 00 00 00 00 00 00 00 00 00 00 80 00 00 00 80
       0.0 0.0 -0.0 -0.0
000050 00 00 00 00 00 00 00 80 00 00 00 80 00 00 00 00
       0.0 -0.0 -0.0 0.0
000060 00 00 00 00 00 00 00 80 00 00 00 80 00 00 00 80
       0.0 -0.0 -0.0 -0.0
000070 00 00 00 00 00 00 00 80 00 00 00 80 00 00 00 00
       0.0 -0.0 -0.0 0.0
000080 00 00 00 80 00 00 00 00 00 00 00 80 00 00 00 80
       -0.0 0.0 -0.0 -0.0
000090 00 00 00 00 00 00 00 80 00 00 00 00 00 00 00 00
       0.0 -0.0 0.0 0.0
0000a0 00 00 00 00 00 00 00 80 00 00 00 00 00 00 00 80
       0.0 -0.0 0.0 -0.0
0000b0 00 00 00 00 00 00 00 80 00 00 00 00 00 00 00 00
       0.0 -0.0 0.0 0.0
0000c0 00 00 00 80 00 00 00 00 00 00 00 80 00 00 00 80
       -0.0 0.0 -0.0 -0.0
0000d0 00 00 00 00 00 00 00 00 00 00 00 00 00 00 00 80
       0.0 0.0 0.0 -0.0
0000e0 00 00 00 00 00 00 00 00 00 00 00 00 00 00 00 80
       0.0 0.0 0.0 -0.0
0000f0 00 00 00 00 00 00 00 00 00 00 00 80 00 00 00 80
       0.0 0.0 -0.0 -0.0
000100 00 00 00 00 00 00 00 80 00 00 00 80 00 00 00 80
       0.0 -0.0 -0.0 -0.0
000110 00 00 00 00 00 00 00 80 00 00 00 80 00 00 00 00
       0.0 -0.0 -0.0 0.0
000120 00 00 00 00 00 00 00 80 00 00 00 00 00 00 00 80
       0.0 -0.0 0.0 -0.0
000130 00 00 00 00 00 00 00 00 00 00 00 80 00 00 00 80
       0.0 0.0 -0.0 -0.0
000140 00 00 00 80 00 00 00 80 00 00 00 00 00 00 00 00
       -0.0 -0.0 0.0 0.0
000150 00 00 00 00 00 00 00 00 00 00 00 00 00 00 00 00
       0.0 0.0 0.0 0.0
000160 00 00 00 80 00 00 00 00 00 00 00 00 00 00 00 00
       -0.0 0.0 0.0 0.0
000170 00 00 00 00 00 00 00 80 00 00 00 80 00 00 00 80
       0.0 -0.0 -0.0 -0.0
000180 00 00 00 80 00 00 00 00 00 00 00 00 00 00 00 00
       -0.0 0.0 0.0 0.0
000190 00 00 00 80 00 00 00 00 00 00 00 80 00 00 00 80
       -0.0 0.0 -0.0 -0.0
0001a0 00 00 00 80 00 00 00 00 00 00 00 80 00 00 00 80
       -0.0 0.0 -0.0 -0.0
0001b0 00 00 00 80 00 00 00 00 00 00 00 80 00 00 00 80
       -0.0 0.0 -0.0 -0.0
0001c0 00 00 00 00 00 00 00 00 00 00 00 00 00 00 00 80
       0.0 0.0 0.0 -0.0
0001d0 00 00 00 80 00 00 00 00 00 00 00 80 00 00 00 80
       -0.0 0.0 -0.0 -0.0
0001e0 00 00 00 80 00 00 00 00 00 00 00 00 00 00 00 80
       -0.0 0.0 0.0 -0.0
0001f0 00 00 00 00 00 00 00 00 00 00 00 00 00 00 00 80
       0.0 0.0 0.0 -0.0
000200 00 00 00 00 00 00 00 80 00 00 00 00 00 00 00 00
       0.0 -0.0 0.0 0.0
000210 00 00 00 80 00 00 00 80 00 00 00 80 00 00 00 00
       -0.0 -0.0 -0.0 0.0
000220 00 00 00 00 00 00 00 80 00 00 00 80 00 00 00 80
       0.0 -0.0 -0.0 -0.0
000230 00 00 00 80 00 00 00 80 00 00 00 80 00 00 00 00
       -0.0 -0.0 -0.0 0.0
000240 00 00 00 00 00 00 00 80 00 00 00 80 00 00 00 00
       0.0 -0.0 -0.0 0.0
000250 00 00 00 80 00 00 00 00 00 00 00 00 00 00 00 00
       -0.0 0.0 0.0 0.0
000260 00 00 00 00 00 00 00 80 00 00 00 80 00 00 00 00
       0.0 -0.0 -0.0 0.0
000270 00 00 00 80 00 00 00 80 00 00 00 80 00 00 00 00
       -0.0 -0.0 -0.0 0.0
000280 00 00 00 80 00 00 00 80 00 00 00 00 00 00 00 80
       -0.0 -0.0 0.0 -0.0
000290 00 00 00 80 00 00 00 80 00 00 00 80 00 00 00 80
       -0.0 -0.0 -0.0 -0.0
0002a0 00 00 00 80 00 00 00 00 00 00 00 00 00 00 00 80
       -0.0 0.0 0.0 -0.0
0002b0 00 00 00 80 00 00 00 00 00 00 00 00 00 00 00 00
       -0.0 0.0 0.0 0.0
0002c0 00 00 00 80 00 00 00 00 00 00 00 80 00 00 00 80
       -0.0 0.0 -0.0 -0.0
0002d0 00 00 00 80 00 00 00 00 00 00 00 00 00 00 00 80
       -0.0 0.0 0.0 -0.0
0002e0 00 00 00 80 00 00 00 00 00 00 00 80 00 00 00 80
       -0.0 0.0 -0.0 -0.0
0002f0 00 00 00 00 00 00 00 00 00 00 00 00 00 00 00 80
       0.0 0.0 0.0 -0.0
000300 00 00 00 80 00 00 00 00 00 00 00 00 00 00 00 00
       -0.0 0.0 0.0 0.0
000310 00 00 00 00 00 00 00 00 00 00 00 00 00 00 00 80
       0.0 0.0 0.0 -0.0
000320 00 00 00 00 00 00 00 00 00 00 00 80 00 00 00 00
       0.0 0.0 -0.0 0.0
000330 00 00 00 80 00 00 00 00 00 00 00 80 00 00 00 00
       -0.0 0.0 -0.0 0.0
000340 00 00 00 00 00 00 00 00 00 00 00 80 00 00 00 80
       0.0 0.0 -0.0 -0.0
000350 00 00 00 80 00 00 00 00 00 00 00 00 00 00 00 80
       -0.0 0.0 0.0 -0.0
000360 00 00 00 80 00 00 00 80 00 00 00 00 00 00 00 00
       -0.0 -0.0 0.0 0.0
000370 00 00 00 80 00 00 00 80 00 00 00 80 00 00 00 00
       -0.0 -0.0 -0.0 0.0
000380 00 00 00 80 00 00 00 00 00 00 00 00 00 00 00 00
       -0.0 0.0 0.0 0.0
000390 00 00 00 00 00 00 00 80 00 00 00 80 00 00 00 00
       0.0 -0.0 -0.0 0.0
0003a0 00 00 00 00 00 00 00 80 00 00 00 80 00 00 00 80
       0.0 -0.0 -0.0 -0.0
0003b0 00 00 00 80 00 00 00 00 00 00 00 80 00 00 00 00
       -0.0 0.0 -0.0 0.0
0003c0 00 00 00 00 00 00 00 80 00 00 00 00 00 00 00 00
       0.0 -0.0 0.0 0.0
0003d0 00 00 00 80 00 00 00 80 00 00 00 80 00 00 00 80
       -0.0 -0.0 -0.0 -0.0
0003e0 00 00 00 00 00 00 00 80 00 00 00 80 00 00 00 00
       0.0 -0.0 -0.0 0.0
0003f0 00 00 00 80 00 00 00 80 00 00 00 00 00 00 00 00
       -0.0 -0.0 0.0 0.0
