cmd/ai/datas/models/fish_underwater.onnx (onnx, 302121 bytes, 16 tensors)

fc.weight f4 [2, 256]
0	0xbc8501d1	-0.016236218
1	0xbcd1e57f	-0.025622128
2	0xbd8723f4	-0.065986544
3	0xbda728e8	-0.08162099
4	0xbd93d7d8	-0.07218903
5	0xbdc48718	-0.095960796
6	0xbd9f1ca2	-0.07769133
7	0xbdcfb6e2	-0.10142304
8	0x3cbd383b	0.023098102
9	0x3d16c451	0.036808316
10	0xbbe2f7f1	-0.0069265296
11	0x3bfd34ab	0.007727226
12	0x3d842228	0.06451827
13	0x3d9ed4b7	0.07755416
14	0xbd39a7e1	-0.045326117
15	0xbd246198	-0.040132135
16	0x805ee094	-8.7131e-39
17	0x80685abf	-9.583445e-39
18	0x805f74ee	-8.766319e-39
19	0x8068436a	-9.575075e-39
20	0x3d66d304	0.056353584
21	0x3dcad716	0.09904306
22	0xbc8bbc75	-0.017057637
23	0x3c989d4c	0.018629692
24	0x3811472a	3.463697e-05
25	0x385c52b6	5.2529118e-05
26	0xb8360d4d	-4.340457e-05
27	0xb84a7ee9	-4.8278747e-05
28	0xa176762a	-8.350443e-19
29	0xa1beee0c	-1.2937911e-18
30	0x1e5306c6	1.1171648e-20
31	0x1c5c2e1f	7.2851504e-22
32	0x3ca11fa3	0.019668406
33	0x3ca9499f	0.020664988
34	0x3dfa622b	0.12225755
35	0x3e091455	0.13386662
36	0x3c00a88f	0.0078526875
37	0x3bb2601f	0.0054435874
38	0x3dbe1ac9	0.092824526
39	0x3dc7646e	0.09735952
40	0x3b1a416d	0.0023537532
41	0x3aa65638	0.001269049
42	0x3d26a009	0.040679965
43	0x3d302ea6	0.043013237
44	0x0000251d	1.3314e-41
45	0x00002474	1.3077e-41
46	0x00002611	1.3656e-41
47	0x00001e11	1.0786e-41
48	0x3ca032ca	0.019555468
49	0x3c438bcb	0.011935185
50	0x3e3e0673	0.18557148
51	0x3e3af6f4	0.18258268
52	0x3d582472	0.052769132
53	0x3d88821c	0.066654414
54	0xbd0ccafc	-0.03437327
55	0xbcbdca23	-0.023167675
56	0x8000510e	-2.9077e-41
57	0x800048cd	-2.6116e-41
58	0x8000437e	-2.4212e-41
59	0x80004202	-2.3679e-41
60	0x3c96f8c4	0.018429168
61	0x3d831d92	0.064021245
62	0x3cd99dde	0.026564535
63	0x3da3ba4c	0.07994518
64	0x3dbc5126	0.09195165
65	0x3de49a9b	0.11162301
66	0xbd6f714a	-0.05845765
67	0xbd35c883	-0.044380676
68	0x96e8a072	-3.7582877e-25
69	0x964c5acb	-1.6507638e-25
70	0x10e6757a	9.0900005e-29
71	0x0d19271c	4.719384e-31
72	0x089fbfad	9.614527e-34
73	0x07f1e5f4	3.6396804e-34
74	0x8cce82cc	-3.1818046e-31
75	0x8d333196	-5.521832e-31
76	0xbdc47b27	-0.09593802
77	0xbe791261	-0.24323417
78	0xbdc6ddf3	-0.09710302
79	0xbe6f9c03	-0.23399357
80	0x1eb588e7	1.9220742e-20
81	0x1e78afd3	1.316537e-20
82	0xa1c62645	-1.3427132e-18
83	0xa1eef13f	-1.6191365e-18
84	0x8059a583	-8.232734e-39
85	0x805ee3f1	-8.714307e-39
86	0x8060a230	-8.87439e-39
87	0x8057ea39	-8.073711e-39
88	0x1172b734	1.9146888e-28
89	0x11794a61	1.9665556e-28
90	0x117829f6	1.9576681e-28
91	0x117c7042	1.9913887e-28
92	0x86643cda	-4.292674e-35
93	0x866a3d71	-4.4055649e-35
94	0x866fbe95	-4.5090922e-35
95	0x86775261	-4.651606e-35
96	0xa198c95a	-1.0353218e-18
97	0xa198d6b5	-1.0356753e-18
98	0xa198aaaf	-1.03451e-18
99	0xa198bbad	-1.0349598e-18
100	0xac878f91	-3.85287e-12
101	0xac84c27d	-3.773258e-12
102	0xac32eb06	-2.5425786e-12
103	0xac2e6648	-2.4783665e-12
104	0x801ebe27	-2.823279e-39
105	0x8020c000	-3.007612e-39
106	0x801b4c74	-2.506985e-39
107	0x801ddaae	-2.741677e-39
108	0xbafd8b99	-0.0019343972
109	0xbb61dba3	-0.003446319
110	0x3c25fedb	0.010131563
111	0x3c110641	0.008851589
112	0x3cd2e6cf	0.025744824
113	0x3cfe8811	0.03107074
114	0xbc9d1c08	-0.019178405
115	0xbc8b85c3	-0.017031556
116	0xbd5e2a9d	-0.054239858
117	0xbe03bb72	-0.12864473
118	0xbd5d4868	-0.05402413
119	0xbe09b0bc	-0.13446325
120	0x3c5a93dd	0.013340917
121	0x3cdaf531	0.026728244
122	0x3cb6a3e5	0.022294948
123	0x3d1d198d	0.038354445
124	0xb92112e6	-0.00015361197
125	0xb970c7c1	-0.00022962598
126	0x3989b247	0.00026263503
127	0x394aeaca	0.00019351687
128	0x96b9d124	-3.0020348e-25
129	0x96b99171	-2.9980148e-25
130	0x96b91344	-2.990052e-25
131	0x96b8f33b	-2.9880303e-25
132	0x3c92f7b9	0.017940389
133	0x3d520f8f	0.05128437
134	0x3e23dab2	0.16001394
135	0x3e468678	0.19387233
136	0x8002a54a	-2.42966e-40
137	0x8001cfdb	-1.664e-40
138	0x80023ea0	-2.06137e-40
139	0x80013421	-1.10536e-40
140	0x3dec3885	0.11534218
141	0x3e25781c	0.161591
142	0xbd16103e	-0.036636584
143	0x3cbc961b	0.023020795
144	0x82d7f25f	-3.1730525e-37
145	0x82d8f58d	-3.1879287e-37
146	0x82d665fa	-3.1503006e-37
147	0x82d664e5	-3.1502385e-37
148	0x3d8e0ef1	0.069364436
149	0x3da6b869	0.08140642
150	0xbd448eda	-0.047987796
151	0xbd2e44c2	-0.04254604
152	0x8000184a	-8.713e-42
153	0x80001c2d	-1.0108e-41
154	0x8000282d	-1.4412e-41
155	0x800031bc	-1.7841e-41
156	0x3d6ae3a2	0.057345994
157	0x3d8a5b37	0.06755679
158	0x3c0c65df	0.00856921
159	0x3c942bcb	0.018087288
160	0x3d2ba144	0.04190184
161	0x3dbfb2ac	0.09360251
162	0x3e0a5856	0.1351026
163	0x3e45d1ab	0.19318263
164	0x3d43d7e1	0.0478133
165	0x3d65ebd1	0.056133095
166	0xbc1ffef1	-0.009765373
167	0xbbb16e21	-0.0054147397
168	0x39242ba7	0.0001565652
169	0x3b68c81f	0.0035519672
170	0x3c8e9e03	0.01740933
171	0x3cb44bea	0.022008855
172	0x044f7536	2.4386554e-36
173	0x034792c4	5.8649323e-37
174	0x050cdf9e	6.62384e-36
175	0x0511df84	6.8589206e-36
176	0x3e2af802	0.1669617
177	0x3e372fb1	0.17889287
178	0x3df7a6b2	0.120923415
179	0x3e20335c	0.15644592
180	0x3bd89607	0.0066096815
181	0x3c2cc8eb	0.010545949
182	0xbba98fe2	-0.005174623
183	0xbac7e551	-0.0015250837
184	0xbe071439	-0.13191308
185	0xbdc852b7	-0.097814016
186	0xbe2cd0ee	-0.16876575
187	0xbe199cae	-0.15001175
188	0x3bb484dc	0.005509002
189	0xbaad90ba	-0.0013241984
190	0x3da7aaa5	0.08186845
191	0x3da86e27	0.08224135
192	0x8b2cc2de	-3.3272597e-32
193	0x8b2d1768	-3.3336197e-32
194	0x8b2b59b0	-3.3000875e-32
195	0x8b2b9466	-3.3045045e-32
196	0x3dc96c89	0.098351546
197	0x3df0ab1b	0.11751386
198	0xbd80de0d	-0.06292353
199	0xbd5ee1be	-0.054414503
200	0x3ca04ecf	0.019568829
201	0x3c18e81c	0.009332683
202	0x3e6016dc	0.2188372
203	0x3e6bc43e	0.23024079
204	0x3d8ec23b	0.0697064
205	0x3da46d4c	0.08028659
206	0xbd3b9eca	-0.04580573
207	0xbd1ee9ca	-0.038797177
208	0x8096a6a6	-1.3835107e-38
209	0x806e9dd8	-1.0158528e-38
210	0x808a88e6	-1.2722408e-38
211	0x80576ce3	-8.02875e-39
212	0x841fb447	-1.877314e-36
213	0x84201f7b	-1.8822365e-36
214	0x8420242a	-1.8824515e-36
215	0x842080b4	-1.8867007e-36
216	0xbdb6ff97	-0.08935469
217	0xbe687848	-0.22702134
218	0xbde1e47b	-0.11029907
219	0xbe69eb7c	-0.22843736
220	0x853335eb	-8.426443e-36
221	0x8525c363	-7.7941496e-36
222	0x84fc34f9	-5.9293563e-36
223	0x849d7510	-3.7018028e-36
224	0x104cc1f0	4.038131e-29
225	0x103d979d	3.7390476e-29
226	0x103d2a32	3.7306184e-29
227	0x1029064f	3.3334233e-29
228	0x3d881b10	0.06645787
229	0x3e10a7d3	0.1412652
230	0xbd6d0cf4	-0.05787368
231	0x3afcbc41	0.0019282178
232	0xb9033c85	-0.00012515679
233	0xbb660eb4	-0.0035103979
234	0x3d138d4a	0.036023416
235	0x3d0b9b45	0.034083623
236	0xbdb01df4	-0.08599463
237	0xbdd70b44	-0.105001956
238	0xbdc152e3	-0.094396375
239	0xbdfc416f	-0.12317168
240	0x00e6a738	2.1182151e-38
241	0x01000718	2.3514977e-38
242	0x01018858	2.379138e-38
243	0x010ae3e5	2.5510103e-38
244	0x3c72e947	0.014826125
245	0x3c941069	0.018074231
246	0xbc4420c2	-0.011970701
247	0xbc34d29d	-0.011036542
248	0xbd54cceb	-0.051953238
249	0xbe22068f	-0.15822814
250	0xbd52d20c	-0.051469848
251	0xbe228e4e	-0.15874597
252	0x3d8c6e69	0.068569966
253	0x3d9eae3c	0.07748076
254	0xbd0b4e68	-0.03401032
255	0xbce775de	-0.028254446

fc.bias f4 [2]
0	0x3cb6e223	0.022324627
1	0x3ce4467e	0.027865645

onnx::Conv_80 f4 [16, 3, 7, 7]
0	0xbd02a7a3	-0.031898152
1	0xbccc1dbc	-0.024916522
2	0xbc8f7df1	-0.017516108
3	0x37fb0fec	2.9928946e-05
4	0xbc3cb8aa	-0.011518637
5	0x3a2c8f24	0.0006582609
6	0xbc1a0613	-0.009400862
7	0xbd181081	-0.037125114
8	0xbcd17f08	-0.025573269
9	0xbc96a9c7	-0.018391503
10	0xbc1f33fe	-0.009716986
11	0xbc556dd5	-0.013026674
12	0xbc37b1fc	-0.011211868
13	0xbbeb9436	-0.007189299
14	0xbcffb054	-0.03121201
15	0xbc786f4a	-0.015163252
16	0xbc5b7f00	-0.013396978
17	0xbc4620fc	-0.012092825
18	0xbc43a3fd	-0.011940953
19	0xbc0e5e52	-0.00868948
20	0xbb81cd29	-0.0039612246
21	0xbce4eea8	-0.027945831
22	0xbc5b14bf	-0.0133716455
23	0xbc89431f	-0.016755639
24	0xbb9aa92a	-0.004719873
25	0xbbbb22e0	-0.0057109445
26	0xbb3fb52e	-0.0029252279
27	0x3b23516a	0.0024920353
28	0xbcb1cd02	-0.0217042
29	0xbbebc9d5	-0.007195691
30	0xbbda6eec	-0.006666055
31	0x3be00cf9	0.006837484
32	0x3c29c469	0.010361769
33	0x3c1f6e99	0.009730958
34	0x3c5f77af	0.013639375
35	0xbc757778	-0.014982097
36	0x3b4ab47f	0.0030930338
37	0x3b7489a6	0.003731349
38	0x3c4c4fbf	0.012470185
39	0x3c786074	0.015159715
40	0x3c825786	0.015910875
41	0x3cb56df8	0.022147164
42	0xbb1ad30d	-0.0023624331
43	0x3c86c419	0.016450929
44	0x3be42547	0.0069624516
45	0x3c9a6ef7	0.01885174
46	0x3ca30b6b	0.019902905
47	0x3ccc48ec	0.024937116
48	0x3cfab32d	0.030603016
49	0xbc83bb60	-0.016080558
50	0xbc05c667	-0.008164979
51	0xbc132e99	-0.008983278
52	0x3c68c594	0.014207263
53	0x3b42a874	0.0029702457
54	0x3c295e11	0.010337369
55	0x3a134c42	0.0005618968
56	0xbd0054d6	-0.031330906
57	0xbc337218	-0.010952495
58	0x3b8cdfea	0.0042991536
59	0x3bf846ef	0.0075768153
60	0x3c9950bf	0.01871526
61	0x3c7b8cf9	0.015353435
62	0x3ce45e87	0.027877105
63	0xbcee7bf4	-0.02911184
64	0xbc1bb5bd	-0.009503779
65	0xbbcc60ef	-0.0062371413
66	0x3c1fd3d3	0.009755093
67	0x3b861829	0.0040922356
68	0x3c37f55a	0.01122793
69	0x3cc89298	0.024483964
70	0xbd19985a	-0.03749881
71	0xbcb0ccee	-0.021582093
72	0xbc41d702	-0.011831047
73	0xba66df92	-0.0008807118
74	0x3929cd63	0.00016193608
75	0x3c2fa2b3	0.010719943
76	0x3bce48b9	0.0062952903
77	0xbd09be05	-0.033628482
78	0xbc6f3968	-0.014601089
79	0xbc86ac60	-0.016439617
80	0x3c0adc05	0.008475308
81	0x3c2f3c4c	0.010695528
82	0x3bb3f062	0.0054913023
83	0x3c602f48	0.013683148
84	0xbce473a5	-0.027887175
85	0xbc59c593	-0.013291734
86	0xbc42d4e4	-0.011891577
87	0x3a8da4a1	0.001080651
88	0xba91255c	-0.0011073756
89	0x3b89b43d	0.0042023943
90	0x3c0a4076	0.00843822
91	0xbcd0acc5	-0.025473008
92	0xbb236da1	-0.002493717
93	0xbbe7fbb0	-0.007079564
94	0x3be19aff	0.006884932
95	0x3c116e68	0.008876421
96	0x3c7c512c	0.015400212
97	0x3ca20121	0.019775929
98	0xbcb079f4	-0.021542527
99	0xbb83993d	-0.00401607
100	0xb984aed6	-0.00025307265
101	0x3cbabdc8	0.022795573
102	0x3c94b325	0.018151829
103	0x3c6dbe05	0.014510636
104	0x3ce1f6fd	0.027583594
105	0xbd063d6b	-0.032773416
106	0xbc6d52ab	-0.014485042
107	0xbbd42770	-0.006474428
108	0x3c901bb3	0.017591333
109	0x3cb1548f	0.021646766
110	0x3cd58571	0.026064606
111	0x3cae9a17	0.02131371
112	0xbd0b572f	-0.03401869
113	0xbc41c356	-0.011826357
114	0xbc0e47ef	-0.0086841425
115	0x3c0e3bca	0.008681247
116	0x3cc33ab6	0.023831706
117	0x3d0f38e8	0.03496638
118	0x3cfeee8d	0.03111961
119	0xbccc3aa1	-0.0249303
120	0xbbdafc95	-0.006682942
121	0xb9e6b5a5	-0.00044004354
122	0x3ca1ba18	0.019742057
123	0x3cc7f1e6	0.024407338
124	0x3d0131e2	0.031541713
125	0x3d2cd206	0.04219248
126	0xbca895b8	-0.020579204
127	0x3a8c51c0	0.0010705516
128	0x3c2874a9	0.01028172
129	0x3ccdfd8b	0.025145313
130	0x3ce5d87a	0.028057326
131	0x3d17e69b	0.037085157
132	0x3d3539bd	0.044244517
133	0xbbbe6af2	-0.0058110887
134	0xbc4577f8	-0.012052529
135	0xbbe85d38	-0.0070911907
136	0x3cd00f4f	0.025397925
137	0x3c8f6e91	0.017508777
138	0x3ccca606	0.02498151
139	0x3d26bc7c	0.040707096
140	0xba059ccc	-0.0005096912
141	0x3cacadff	0.021079062
142	0x3c9567ac	0.018237911
143	0x3c8db101	0.017296316
144	0x3cdb272d	0.026752079
145	0x3d2cda45	0.042200346
146	0x3d5edc0e	0.05440908
147	0x3ba2e734	0.004971409
148	0x3bea5134	0.0071507934
149	0x3bc43a46	0.005988392
150	0x3b178eb2	0.0023125825
151	0x3bbeb5d0	0.0058200136
152	0x3c2012fd	0.009770152
153	0x3c09c91c	0.008409765
154	0x3be8baa0	0.0071023256
155	0x3afe1f8b	0.0019388063
156	0x3b38aa97	0.0028177851
157	0x3bbfacaf	0.005849443
158	0x3c463721	0.012098105
159	0x3c8b6ed0	0.017020613
160	0x3c650195	0.013977428
161	0x3c06c64d	0.0082259895
162	0x3ac36cca	0.0014909741
163	0x3bdd65bb	0.006756512
164	0x3c3de41a	0.011590028
165	0x3c8084f4	0.015688397
166	0x3ca00080	0.019531488
167	0x3c979d81	0.01850772
168	0x3c96b716	0.018397849
169	0x3c409ba0	0.011755854
170	0x3c76039b	0.015015508
171	0x3ca3b4ac	0.019983612
172	0x3cb71673	0.022349572
173	0x3cd337c1	0.025783421
174	0x3cd5cbe1	0.026098194
175	0x3c9d63b3	0.01921258
176	0x3c61b694	0.01377644
177	0x3c4d421c	0.012527969
178	0x3c6cb620	0.014447719
179	0x3c94a374	0.018144347
180	0x3cb0bc66	0.02157421
181	0x3cb4439d	0.022004897
182	0x3c896877	0.016773446
183	0x3c2a794f	0.010404899
184	0x3c0716e9	0.008245208
185	0x3ba667c9	0.00507829
186	0x3bc42c5e	0.0059867343
187	0x3c17b1ae	0.009258671
188	0x3c543a22	0.012953313
189	0x3b1aa454	0.0023596482
190	0x3b2eb861	0.0026660191
191	0xb98eea23	-0.00027258796
192	0xbb53072a	-0.0032200315
193	0xbb9aa216	-0.004719029
194	0xb9923866	-0.0002788931
195	0x3b97eb33	0.004636192
196	0xbbe5eb4c	-0.007016575
197	0xbc0cc7a1	-0.008592517
198	0xbc178353	-0.009247619
199	0xbc57ccd3	-0.0131713925
200	0xbbc7d1c7	-0.0060980055
201	0xbab96101	-0.0014143289
202	0xbbb49d04	-0.005511882
203	0x3aa51e23	0.0012597482
204	0xbbf1c9c1	-0.0073787873
205	0xbabc1fd7	-0.0014352751
206	0x3b565fa1	0.0032710808
207	0x3c248648	0.010041781
208	0x3c43e16a	0.011955598
209	0x3b8e0886	0.004334512
210	0x3bed7604	0.0072467346
211	0xbb8b933f	-0.0042594965
212	0x3b8dd10e	0.0043279
213	0x3c77582f	0.015096708
214	0x3cbc4ce1	0.022985877
215	0x3ccf8fe4	0.025337167
216	0x3ca17293	0.019707954
217	0x3c8b4c8c	0.017004274
218	0x3b94a175	0.0045358487
219	0x3c22a04a	0.009925911
220	0x3cb6a36f	0.022294728
221	0x3cefa983	0.029255634
222	0x3d0030bc	0.031296477
223	0x3cdc3163	0.026879018
224	0x3ca0625d	0.019578153
225	0x3bc1dcd1	0.005916216
226	0x3be9dbf7	0.0071368176
227	0x3c7ce93f	0.01543647
228	0x3cb47fa6	0.022033524
229	0x3cb90808	0.022586837
230	0x3c933df3	0.017973876
231	0x3ca2a1e4	0.019852586
232	0x3bd93d15	0.006629596
233	0x3c28f83d	0.010313091
234	0x3c78ab8b	0.015177618
235	0x3c706e63	0.014674756
236	0x3c78125a	0.015141094
237	0x3c7b5ef4	0.015342463
238	0x3c44716f	0.011989935
239	0x3b371509	0.0027936122
240	0x3b96e000	0.0046043396
241	0x3c1b0f30	0.00946407
242	0x3c0e996b	0.00870357
243	0x3c56901e	0.013095884
244	0x3c6398e1	0.01389143
245	0xbd034b03	-0.03205396
246	0xbcd9c42c	-0.0265828
247	0xbcef1434	-0.029184438
248	0xbcdb0330	-0.026734918
249	0xbca9e35f	-0.020738302
250	0xbc800d65	-0.015631387
251	0xbc7c20de	-0.0153886955
252	0xbcad43d6	-0.02115051
253	0xbcb7a59e	-0.02241784
254	0xbc936d7b	-0.01799654
255	0xbbff58fb	-0.0077925897

onnx::Conv_81 f4 [16]
0	0xbd9415d5	-0.07230727
1	0xbefd4d08	-0.49472833
2	0x3e9a1658	0.30095172
3	0xbe7f0450	-0.24903989
4	0x3cfca76c	0.030841552
5	0x3b82c170	0.0039903447
6	0x3e9aee90	0.30260134
7	0xbe4d5ffc	-0.20056146
8	0x3d06dc6e	0.032925062
9	0x3d58f5a8	0.05296865
10	0x3e33d898	0.17563093
11	0xbe8a7bb8	-0.27047515
12	0x9243e85f	-6.181757e-28
13	0x3ea49313	0.3214346
14	0xbe85bf43	-0.26122484
15	0x3e11c319	0.1423458

onnx::Conv_83 f4 [32, 16, 3, 3]
0	0x80000000	-0.0
1	0x80000000	-0.0
2	0x00000000	0.0
3	0x00000000	0.0
4	0x80000000	-0.0
5	0x00000000	0.0
6	0x80000000	-0.0
7	0x80000000	-0.0
8	0x00000000	0.0
9	0x00000000	0.0
10	0x80000000	-0.0
11	0x00000000	0.0
12	0x00000000	0.0
13	0x00000000	0.0
14	0x80000000	-0.0
15	0x00000000	0.0
16	0x80000000	-0.0
17	0x80000000	-0.0
18	0x00000000	0.0
19	0x80000000	-0.0
20	0x00000000	0.0
21	0x00000000	0.0
22	0x00000000	0.0
23	0x80000000	-0.0
24	0x00000000	0.0
25	0x80000000	-0.0
26	0x00000000	0.0
27	0x00000000	0.0
28	0x00000000	0.0
29	0x80000000	-0.0
30	0x80000000	-0.0
31	0x00000000	0.0
32	0x80000000	-0.0
33	0x80000000	-0.0
34	0x00000000	0.0
35	0x00000000	0.0
36	0x80000000	-0.0
37	0x00000000	0.0
38	0x80000000	-0.0
39	0x80000000	-0.0
40	0x80000000	-0.0
41	0x00000000	0.0
42	0x00000000	0.0
43	0x00000000	0.0
44	0x80000000	-0.0
45	0x80000000	-0.0
46	0x80000000	-0.0
47	0x00000000	0.0
48	0x80000000	-0.0
49	0x80000000	-0.0
50	0x00000000	0.0
51	0x00000000	0.0
52	0x80000000	-0.0
53	0x80000000	-0.0
54	0x80000000	-0.0
55	0x00000000	0.0
56	0x00000000	0.0
57	0x80000000	-0.0
58	0x00000000	0.0
59	0x00000000	0.0
60	0x80000000	-0.0
61	0x00000000	0.0
62	0x00000000	0.0
63	0x00000000	0.0
64	0x80000000	-0.0
65	0x80000000	-0.0
66	0x80000000	-0.0
67	0x80000000	-0.0
68	0x00000000	0.0
69	0x80000000	-0.0
70	0x80000000	-0.0
71	0x00000000	0.0
72	0x80000000	-0.0
73	0x00000000	0.0
74	0x80000000	-0.0
75	0x80000000	-0.0
76	0x00000000	0.0
77	0x80000000	-0.0
78	0x80000000	-0.0
79	0x00000000	0.0
80	0x80000000	-0.0
81	0x80000000	-0.0
82	0x80000000	-0.0
83	0x00000000	0.0
84	0x00000000	0.0
85	0x80000000	-0.0
86	0x80000000	-0.0
87	0x80000000	-0.0
88	0x80000000	-0.0
89	0x00000000	0.0
90	0x80000000	-0.0
91	0x00000000	0.0
92	0x80000000	-0.0
93	0x80000000	-0.0
94	0x80000000	-0.0
95	0x80000000	-0.0
96	0x00000000	0.0
97	0x80000000	-0.0
98	0x00000000	0.0
99	0x00000000	0.0
100	0x00000000	0.0
101	0x80000000	-0.0
102	0x00000000	0.0
103	0x00000000	0.0
104	0x00000000	0.0
105	0x00000000	0.0
106	0x00000000	0.0
107	0x00000000	0.0
108	0x00000000	0.0
109	0x80000000	-0.0
110	0x00000000	0.0
111	0x00000000	0.0
112	0x00000000	0.0
113	0x80000000	-0.0
114	0x80000000	-0.0
115	0x00000000	0.0
116	0x00000000	0.0
117	0x00000000	0.0
118	0x80000000	-0.0
119	0x80000000	-0.0
120	0x80000000	-0.0
121	0x80000000	-0.0
122	0x80000000	-0.0
123	0x80000000	-0.0
124	0x80000000	-0.0
125	0x80000000	-0.0
126	0x80000000	-0.0
127	0x00000000	0.0
128	0x00000000	0.0
129	0x00000000	0.0
130	0x00000000	0.0
131	0x80000000	-0.0
132	0x00000000	0.0
133	0x00000000	0.0
134	0x00000000	0.0
135	0x00000000	0.0
136	0x80000000	-0.0
137	0x80000000	-0.0
138	0x80000000	-0.0
139	0x00000000	0.0
140	0x80000000	-0.0
141	0x80000000	-0.0
142	0x00000000	0.0
143	0x00000000	0.0
144	0x9fb27a6d	-7.558847e-20
145	0xa2a53d7f	-4.478845e-18
146	0xa1a1e567	-1.0970507e-18
147	0xa15a7685	-7.401813e-19
148	0xa5843a09	-2.2937676e-16
149	0xa4a84521	-7.2975495e-17
150	0x9d777ea1	-3.2755643e-21
151	0xa4fa26a3	-1.0848567e-16
152	0xa37d5511	-1.3733171e-17
153	0xac0f1bd6	-2.0336974e-12
154	0xabfbdf2b	-1.7896564e-12
155	0xab0560a3	-4.73852e-13
156	0xa812a399	-8.140103e-15
157	0xa721e1fa	-2.246574e-15
158	0xa6dfd1ed	-1.5530634e-15
159	0xa2e3beef	-6.1730632e-18
160	0xa3ce7ae8	-2.2386618e-17
161	0xa5417797	-1.67806e-16
162	0xa6fcc867	-1.7540332e-15
163	0xa7bd8a23	-5.2607806e-15
164	0xa869872b	-1.2963408e-14
165	0xa50e3b01	-1.2336528e-16
166	0xa4c4e03d	-8.5381325e-17
167	0xa784e7ee	-3.688882e-15
168	0xa368f197	-1.2627904e-17
169	0xa3fe5711	-2.757561e-17
170	0xa4619824	-4.8917966e-17
171	0xb086526c	-9.773209e-10
172	0xb028acd9	-6.1363675e-10
173	0xb0025826	-4.741899e-10
174	0xaf5ab2d1	-1.9890513e-10
175	0xae96ef76	-6.863747e-11
176	0xae70abdb	-5.472232e-11
177	0xaaecefab	-4.2088324e-13
178	0xaac0118d	-3.411823e-13
179	0xab0c1a1b	-4.977422e-13
180	0x2f2ed6ab	1.5901473e-10
181	0xae92789c	-6.660736e-11
182	0xb0083a66	-4.95595e-10
183	0x318e2ba3	4.137705e-09
184	0x3213aa78	8.595286e-09
185	0x31eaa3fe	6.82894e-09
186	0x2d89f71e	1.5684839e-11
187	0x2eb58bdf	8.255773e-11
188	0x2e843585	6.012172e-11
189	0xb3e96b85	-1.0869466e-07
190	0xb439e09f	-1.7311184e-07
191	0xb46befc2	-2.1973304e-07
192	0xb639d4e0	-2.7691058e-06
193	0xb518ae29	-5.687785e-07
194	0xb4ada40d	-3.2343124e-07
195	0xb573001e	-9.0524725e-07
196	0xb3c36301	-9.098404e-08
197	0xb2d7d054	-2.512403e-08
198	0x16784898	2.0056187e-25
199	0x170b9cd8	4.5111287e-25
200	0x97d1fd16	-1.3570196e-24
201	0x93bdc5c2	-4.790531e-27
202	0x15ee6bdb	9.62976e-26
203	0x9b166448	-1.2440112e-22
204	0x9a1c7a07	-3.2358617e-23
205	0x1ca68cd0	1.1021358e-21
206	0x9e8df0d7	-1.5028565e-20
207	0xb2162e3a	-8.74166e-09
208	0xb1743743	-3.5538086e-09
209	0x2f8066fa	2.3356234e-10
210	0x2fecc1e7	4.3065926e-10
211	0xb0625d8e	-8.235127e-10
212	0xb05c84bc	-8.022416e-10
213	0xadbef74e	-2.1710325e-11
214	0xad937ea0	-1.6768198e-11
215	0xad239f80	-9.300893e-12
216	0x31ab9837	4.99406e-09
217	0x3121195d	2.3443e-09
218	0xb058b445	-7.883652e-10
219	0xb0053b93	-4.846978e-10
220	0xb11b7f19	-2.2627715e-09
221	0xb29b4be5	-1.8078888e-08
222	0x2e876fc3	6.158942e-11
223	0xafe877f2	-4.228578e-10
224	0xae9a97cc	-7.030074e-11
225	0x2fea5415	4.2624096e-10
226	0xb0aed858	-1.2721655e-09
227	0xb0ead7e3	-1.70871e-09
228	0xae9e40e4	-7.196535e-11
229	0xab94877d	-1.0553638e-12
230	0xad7b5c83	-1.428824e-11
231	0xb070fef6	-8.767381e-10
232	0xaf089b59	-1.2424319e-10
233	0xade26621	-2.573858e-11
234	0x32f6965c	2.8706545e-08
235	0x33ba280e	8.668586e-08
236	0xb2c47ad5	-2.287326e-08
237	0xb7311dd4	-1.0556967e-05
238	0xb66cb947	-3.5274586e-06
239	0x362fef8a	2.6216462e-06
240	0xb5833583	-9.775835e-07
241	0xb5f31ce7	-1.8113323e-06
242	0xb5b248c2	-1.3283209e-06
243	0xab46a661	-7.057463e-13
244	0xaad38e0c	-3.7579694e-13
245	0xaa6550da	-2.0367337e-13
246	0xa9a71055	-7.419123e-14
247	0xa8a9fe60	-1.8873087e-14
248	0xa8224afa	-9.0090644e-15
249	0xa118f18e	-5.18193e-19
250	0xa32a25e4	-9.223742e-18
251	0xa452261c	-4.556877e-17
252	0x800043be	-2.4301e-41
253	0x000033b9	1.8555e-41
254	0x8000265c	-1.3761e-41
255	0x8000321c	-1.7976e-41

onnx::Conv_84 f4 [32]
0	0x80033af7	-2.96659e-40
1	0xbb10e8e4	-0.002211147
2	0x00050f1b	4.64596e-40
3	0x983f29ea	-2.4707333e-24
4	0x8909c0fa	-1.6581512e-33
5	0x00008275	4.6799e-41
6	0xbe214c66	-0.157518
7	0x000af64f	1.006714e-39
8	0x3e840640	0.25786018
9	0xa790a931	-4.0151467e-15
10	0xbd31347a	-0.043262936
11	0x0004432e	3.91442e-40
12	0xbdf437da	-0.11924715
13	0x80023d6e	-2.05708e-40
14	0x3e7e6d80	0.24846458
15	0x3e8416b4	0.2579857
16	0x3c648630	0.013948008
17	0x3a435a00	0.0007452071
18	0xbcdb8813	-0.026798284
19	0x80058934	-5.08397e-40
20	0xbd135a7e	-0.035974972
21	0x80003792	-1.9935e-41
22	0x800023a0	-1.278e-41
23	0x800072b7	-4.1152e-41
24	0x3bf46e50	0.0074594393
25	0x00042455	3.80375e-40
26	0xbac37c40	-0.0014914349
27	0x8000712b	-4.0597e-41
28	0xbc0e4f34	-0.008685876
29	0x8004c3a2	-4.37522e-40
30	0x3da2d050	0.07949889
31	0x000618cb	5.59907e-40

onnx::Conv_86 f4 [32, 32, 3, 3]
0	0x00000000	0.0
1	0x00000000	0.0
2	0x00000000	0.0
3	0x80000000	-0.0
4	0x80000000	-0.0
5	0x00000000	0.0
6	0x00000000	0.0
7	0x80000000	-0.0
8	0x80000000	-0.0
9	0x00000000	0.0
10	0x80000000	-0.0
11	0x80000000	-0.0
12	0x00000000	0.0
13	0x80000000	-0.0
14	0x00000000	0.0
15	0x80000000	-0.0
16	0x00000000	0.0
17	0x00000000	0.0
18	0x80000000	-0.0
19	0x00000000	0.0
20	0x00000000	0.0
21	0x00000000	0.0
22	0x80000000	-0.0
23	0x00000000	0.0
24	0x00000000	0.0
25	0x80000000	-0.0
26	0x00000000	0.0
27	0x00000000	0.0
28	0x00000000	0.0
29	0x80000000	-0.0
30	0x00000000	0.0
31	0x80000000	-0.0
32	0x80000000	-0.0
33	0x00000000	0.0
34	0x80000000	-0.0
35	0x00000000	0.0
36	0x00000000	0.0
37	0x80000000	-0.0
38	0x00000000	0.0
39	0x00000000	0.0
40	0x80000000	-0.0
41	0x80000000	-0.0
42	0x00000000	0.0
43	0x00000000	0.0
44	0x00000000	0.0
45	0x00000000	0.0
46	0x00000000	0.0
47	0x80000000	-0.0
48	0x00000000	0.0
49	0x80000000	-0.0
50	0x80000000	-0.0
51	0x80000000	-0.0
52	0x80000000	-0.0
53	0x00000000	0.0
54	0x80000000	-0.0
55	0x80000000	-0.0
56	0x80000000	-0.0
57	0x80000000	-0.0
58	0x80000000	-0.0
59	0x80000000	-0.0
60	0x80000000	-0.0
61	0x80000000	-0.0
62	0x80000000	-0.0
63	0x00000000	0.0
64	0x80000000	-0.0
65	0x80000000	-0.0
66	0x80000000	-0.0
67	0x00000000	0.0
68	0x80000000	-0.0
69	0x80000000	-0.0
70	0x00000000	0.0
71	0x80000000	-0.0
72	0x00000000	0.0
73	0x80000000	-0.0
74	0x00000000	0.0
75	0x80000000	-0.0
76	0x80000000	-0.0
77	0x80000000	-0.0
78	0x00000000	0.0
79	0x80000000	-0.0
80	0x80000000	-0.0
81	0x80000000	-0.0
82	0x00000000	0.0
83	0x80000000	-0.0
84	0x00000000	0.0
85	0x80000000	-0.0
86	0x80000000	-0.0
87	0x80000000	-0.0
88	0x00000000	0.0
89	0x00000000	0.0
90	0x00000000	0.0
91	0x80000000	-0.0
92	0x00000000	0.0
93	0x80000000	-0.0
94	0x00000000	0.0
95	0x80000000	-0.0
96	0x80000000	-0.0
97	0x00000000	0.0
98	0x00000000	0.0
99	0x80000000	-0.0
100	0x00000000	0.0
101	0x80000000	-0.0
102	0x00000000	0.0
103	0x00000000	0.0
104	0x80000000	-0.0
105	0x80000000	-0.0
106	0x80000000	-0.0
107	0x80000000	-0.0
108	0x00000000	0.0
109	0x00000000	0.0
110	0x80000000	-0.0
111	0x00000000	0.0
112	0x80000000	-0.0
113	0x00000000	0.0
114	0x00000000	0.0
115	0x80000000	-0.0
116	0x00000000	0.0
117	0x80000000	-0.0
118	0x00000000	0.0
119	0x00000000	0.0
120	0x00000000	0.0
121	0x00000000	0.0
122	0x00000000	0.0
123	0x00000000	0.0
124	0x00000000	0.0
125	0x80000000	-0.0
126	0x00000000	0.0
127	0x80000000	-0.0
128	0x00000000	0.0
129	0x80000000	-0.0
130	0x00000000	0.0
131	0x00000000	0.0
132	0x80000000	-0.0
133	0x00000000	0.0
134	0x80000000	-0.0
135	0x80000000	-0.0
136	0x00000000	0.0
137	0x00000000	0.0
138	0x80000000	-0.0
139	0x80000000	-0.0
140	0x00000000	0.0
141	0x00000000	0.0
142	0x00000000	0.0
143	0x80000000	-0.0
144	0x80000000	-0.0
145	0x80000000	-0.0
146	0x00000000	0.0
147	0x80000000	-0.0
148	0x00000000	0.0
149	0x00000000	0.0
150	0x00000000	0.0
151	0x00000000	0.0
152	0x00000000	0.0
153	0x00000000	0.0
154	0x00000000	0.0
155	0x80000000	-0.0
156	0x00000000	0.0
157	0x00000000	0.0
158	0x80000000	-0.0
159	0x00000000	0.0
160	0x80000000	-0.0
161	0x80000000	-0.0
162	0x80000000	-0.0
163	0x80000000	-0.0
164	0x80000000	-0.0
165	0x00000000	0.0
166	0x00000000	0.0
167	0x00000000	0.0
168	0x80000000	-0.0
169	0x00000000	0.0
170	0x00000000	0.0
171	0x80000000	-0.0
172	0x00000000	0.0
173	0x00000000	0.0
174	0x00000000	0.0
175	0x00000000	0.0
176	0x00000000	0.0
177	0x80000000	-0.0
178	0x00000000	0.0
179	0x00000000	0.0
180	0x80000000	-0.0
181	0x80000000	-0.0
182	0x00000000	0.0
183	0x80000000	-0.0
184	0x00000000	0.0
185	0x80000000	-0.0
186	0x00000000	0.0
187	0x00000000	0.0
188	0x80000000	-0.0
189	0x00000000	0.0
190	0x00000000	0.0
191	0x80000000	-0.0
192	0x80000000	-0.0
193	0x80000000	-0.0
194	0x80000000	-0.0
195	0x80000000	-0.0
196	0x80000000	-0.0
197	0x00000000	0.0
198	0x00000000	0.0
199	0x00000000	0.0
200	0x00000000	0.0
201	0x00000000	0.0
202	0x80000000	-0.0
203	0x80000000	-0.0
204	0x00000000	0.0
205	0x80000000	-0.0
206	0x80000000	-0.0
207	0x80000000	-0.0
208	0x00000000	0.0
209	0x00000000	0.0
210	0x00000000	0.0
211	0x00000000	0.0
212	0x80000000	-0.0
213	0x00000000	0.0
214	0x00000000	0.0
215	0x80000000	-0.0
216	0x80000000	-0.0
217	0x80000000	-0.0
218	0x80000000	-0.0
219	0x80000000	-0.0
220	0x80000000	-0.0
221	0x80000000	-0.0
222	0x80000000	-0.0
223	0x00000000	0.0
224	0x80000000	-0.0
225	0x00000000	0.0
226	0x80000000	-0.0
227	0x80000000	-0.0
228	0x80000000	-0.0
229	0x80000000	-0.0
230	0x00000000	0.0
231	0x00000000	0.0
232	0x00000000	0.0
233	0x80000000	-0.0
234	0x80000000	-0.0
235	0x00000000	0.0
236	0x00000000	0.0
237	0x80000000	-0.0
238	0x00000000	0.0
239	0x80000000	-0.0
240	0x00000000	0.0
241	0x80000000	-0.0
242	0x80000000	-0.0
243	0x80000000	-0.0
244	0x00000000	0.0
245	0x00000000	0.0
246	0x00000000	0.0
247	0x80000000	-0.0
248	0x00000000	0.0
249	0x00000000	0.0
250	0x00000000	0.0
251	0x80000000	-0.0
252	0x00000000	0.0
253	0x00000000	0.0
254	0x00000000	0.0
255	0x80000000	-0.0

onnx::Conv_87 f4 [32]
0	0x000071a6	4.077e-41
1	0x800451fc	-3.96752e-40
2	0xbddc12d0	-0.10745776
3	0x80002230	-1.2264e-41
4	0xbd61d362	-0.05513323
5	0x80006653	-3.6707e-41
6	0xb344fc30	-4.586417e-08
7	0x8000d917	-7.7877e-41
8	0xbd0132e4	-0.031542674
9	0xbcddb628	-0.027064398
10	0xbc4f2728	-0.012643613
11	0xbd96321c	-0.07333776
12	0x00006b65	3.8526e-41
13	0xbd201929	-0.039086495
14	0x800020bc	-1.1743e-41
15	0xa92dc28a	-3.8582452e-14
16	0xbd09b4b2	-0.03361959
17	0x3cf309c0	0.029667735
18	0x00003c9c	2.1743e-41
19	0xbda7cdc2	-0.08193542
20	0x80022a06	-1.98746e-40
21	0xbc2b77ea	-0.010465601
22	0x3bd8b4e6	0.0066133616
23	0x80003817	-2.0121e-41
24	0x3cf9250a	0.03041317
25	0xb6529a72	-3.1382338e-06
26	0x3cc37cd8	0.023863241
27	0xbc975290	-0.018471986
28	0x3e00203e	0.125123
29	0xb4ccf361	-3.8175043e-07
30	0x8002c665	-2.54842e-40
31	0xbda23e4e	-0.0792204

onnx::Conv_89 f4 [32, 16, 1, 1]
0	0x80000000	-0.0
1	0x80000000	-0.0
2	0x80000000	-0.0
3	0x00000000	0.0
4	0x80000000	-0.0
5	0x00000000	0.0
6	0x80000000	-0.0
7	0x80000000	-0.0
8	0x80000000	-0.0
9	0x00000000	0.0
10	0x00000000	0.0
11	0x00000000	0.0
12	0x00000000	0.0
13	0x80000000	-0.0
14	0x80000000	-0.0
15	0x00000000	0.0
16	0x80000000	-0.0
17	0x00000000	0.0
18	0x80000000	-0.0
19	0x80000000	-0.0
20	0x80000000	-0.0
21	0x00000000	0.0
22	0x00000000	0.0
23	0x80000000	-0.0
24	0x00000000	0.0
25	0x80000000	-0.0
26	0x80000000	-0.0
27	0x00000000	0.0
28	0x80000000	-0.0
29	0x80000000	-0.0
30	0x00000000	0.0
31	0x80000000	-0.0
32	0xb9b0d4a6	-0.0003372777
33	0xba72d0e3	-0.0009262694
34	0xb8ee86ce	-0.00011373834
35	0xba3f42a0	-0.00072959997
36	0xba19258a	-0.00058420806
37	0x3a70393e	0.0009163803
38	0xba493cbe	-0.0007676593
39	0xba6fa2a9	-0.0009141365
40	0x3984036e	0.00025179557
41	0x39a994b3	0.0003234498
42	0x399bb779	0.00029700602
43	0xba4dd207	-0.0007851426
44	0x80000b57	-4.068e-42
45	0xba2e6346	-0.0006652366
46	0xb9971026	-0.00028812996
47	0xbb4e8f67	-0.003151858
48	0x80000000	-0.0
49	0x80000000	-0.0
50	0x00000000	0.0
51	0x80000000	-0.0
52	0x00000000	0.0
53	0x80000000	-0.0
54	0x80000000	-0.0
55	0x80000000	-0.0
56	0x80000000	-0.0
57	0x00000000	0.0
58	0x80000000	-0.0
59	0x80000000	-0.0
60	0x00000000	0.0
61	0x80000000	-0.0
62	0x00000000	0.0
63	0x00000000	0.0
64	0x3b49e6d7	0.0030807757
65	0xbaa35058	-0.0012459857
66	0x3a322b92	0.00067966536
67	0xbb27ead8	-0.0025622156
68	0xbb36edc2	-0.002791271
69	0xbbbbd731	-0.00573244
70	0xba71ac58	-0.00092191016
71	0x3b8fbc5a	0.004386467
72	0x3a221769	0.0006183298
73	0x3b18fbcd	0.0023343444
74	0xbbe74629	-0.0070579243
75	0xb9987fba	-0.00029086863
76	0x80000106	-3.67e-43
77	0xb9c72895	-0.00037986474
78	0xbbc088ca	-0.0058756815
79	0xbba4fba8	-0.0050348826
80	0x80000000	-0.0
81	0x00000000	0.0
82	0x80000000	-0.0
83	0x80000000	-0.0
84	0x80000000	-0.0
85	0x00000000	0.0
86	0x00000000	0.0
87	0x80000000	-0.0
88	0x00000000	0.0
89	0x00000000	0.0
90	0x00000000	0.0
91	0x00000000	0.0
92	0x80000000	-0.0
93	0x00000000	0.0
94	0x80000000	-0.0
95	0x00000000	0.0
96	0x93c5d8a8	-4.994343e-27
97	0x0f8dee5f	1.399549e-29
98	0x93e5cbe9	-5.8008798e-27
99	0x1111771e	1.1475189e-28
100	0x22f60eb1	6.669399e-18
101	0x8fbc459e	-1.8565047e-29
102	0x00000001	1e-45
103	0x9739794d	-5.9929827e-25
104	0x1e9d75b6	1.6671706e-20
105	0xa005e583	-1.1341477e-19
106	0x2d548ce5	1.208209e-11
107	0x0c0cd697	1.0849783e-31
108	0x80000000	-0.0
109	0x00000001	1e-45
110	0x00000031	6.9e-44
111	0xa6e5cc6f	-1.5945479e-15
112	0x00000000	0.0
113	0x80000000	-0.0
114	0x80000000	-0.0
115	0x80000000	-0.0
116	0x80000000	-0.0
117	0x00000000	0.0
118	0x00000000	0.0
119	0x00000000	0.0
120	0x00000000	0.0
121	0x80000000	-0.0
122	0x80000000	-0.0
123	0x00000000	0.0
124	0x80000000	-0.0
125	0x00000000	0.0
126	0x00000000	0.0
127	0x80000000	-0.0
128	0x39074efd	0.00012904029
129	0x3a7419b7	0.0009311693
130	0x38a1c3ba	7.713535e-05
131	0x37f59f04	2.9280323e-05
132	0xb9116e9b	-0.00013869481
133	0x393414af	0.00017173843
134	0x390926d4	0.00013079803
135	0x399ee72f	0.00030308354
136	0x37f0bdf7	2.8698689e-05
137	0x39dd749e	0.0004223929
138	0xba61abcd	-0.0008608669
139	0x3a3a70a1	0.000711212
140	0x80000c17	-4.337e-42
141	0x38b6438d	8.6910186e-05
142	0x39a1ded1	0.00030874324
143	0xb973d2a3	-0.00023252754
144	0xbd6b4558	-0.05743918
145	0x3eb24fe9	0.34826592
146	0x3e20a6ab	0.15688579
147	0x3e8caece	0.27477115
148	0x3d3b8be8	0.045787722
149	0x3e548cf7	0.20756899
150	0x3bac1787	0.005251828
151	0xbe04b690	-0.12960267
152	0xbdb5ecf9	-0.088830896
153	0x3db86838	0.09004253
154	0xbdf1701a	-0.1178896
155	0x3e298d01	0.16557695
156	0x800051a1	-2.9283e-41
157	0xbdff014a	-0.12451418
158	0xbbf008f7	-0.0073252874
159	0x3c882478	0.016618952
160	0x3c0865b1	0.008325026
161	0xbbb6331a	-0.005560291
162	0x3d1baf29	0.038008843
163	0x3c56d97c	0.013113376
164	0xbcf76ffe	-0.03020477
165	0x3d273d3b	0.04082988
166	0x3d13a0f3	0.036042165
167	0x3d15153a	0.036397196
168	0x3c86dc9a	0.016462613
169	0x3d63bc2b	0.055599373
170	0xbc83c044	-0.01608289
171	0xbb473bb6	-0.003040058
172	0x80005ab4	-3.2538e-41
173	0x3d21ca5b	0.03949962
174	0xbcc59607	-0.02411939
175	0xbe00be16	-0.12572512
176	0xbd2faa8d	-0.04288726
177	0xbd270a58	-0.04078135
178	0xbd0cac05	-0.034343738
179	0xbd18d50f	-0.037312564
180	0x3dd62324	0.10455921
181	0xbd7279b8	-0.05919811
182	0xba63b848	-0.0008686823
183	0x3e2529f5	0.16129287
184	0x3bb74b6c	0.005593708
185	0xbd85e2ac	-0.06537375
186	0x3dfac905	0.12245373
187	0x3c12ef8e	0.008968247
188	0x8000621c	-3.5195e-41
189	0xbb583bfe	-0.0032994743
190	0xbdaf65d0	-0.08564341
191	0x3e6053f7	0.2190703
192	0x80000000	-0.0
193	0x00000000	0.0
194	0x80000000	-0.0
195	0x00000000	0.0
196	0x00000000	0.0
197	0x00000000	0.0
198	0x80000000	-0.0
199	0x80000000	-0.0
200	0x80000000	-0.0
201	0x80000000	-0.0
202	0x80000000	-0.0
203	0x80000000	-0.0
204	0x80000000	-0.0
205	0x00000000	0.0
206	0x80000000	-0.0
207	0x80000000	-0.0
208	0x39b73a28	0.0003494781
209	0x396ba723	0.0002247361
210	0x396fa8aa	0.00022855648
211	0x3984358f	0.00025216906
212	0x399d842a	0.00030043843
213	0x3a6546b5	0.0008746193
214	0xb8903adf	-6.877421e-05
215	0x39b5c858	0.00034672278
216	0x38a9ab14	8.090414e-05
217	0x3991a6fb	0.00027780965
218	0xb90f6013	-0.00013673333
219	0x398a2435	0.00026348387
220	0x000009d6	3.528e-42
221	0x388d5e16	6.740929e-05
222	0x38746bd7	5.8274567e-05
223	0x3973c3d9	0.00023247245
224	0x80000000	-0.0
225	0x80000000	-0.0
226	0x00000000	0.0
227	0x00000000	0.0
228	0x00000000	0.0
229	0x00000000	0.0
230	0x00000000	0.0
231	0x80000000	-0.0
232	0x00000000	0.0
233	0x80000000	-0.0
234	0x00000000	0.0
235	0x00000000	0.0
236	0x00000000	0.0
237	0x80000000	-0.0
238	0x00000000	0.0
239	0x00000000	0.0
240	0x00000000	0.0
241	0x00000000	0.0
242	0x00000000	0.0
243	0x80000000	-0.0
244	0x80000000	-0.0
245	0x0b508e53	4.0166416e-32
246	0x00000000	0.0
247	0x000001e4	6.78e-43
248	0x80000000	-0.0
249	0x80000000	-0.0
250	0x8003ffd4	-3.6728e-40
251	0x00000000	0.0
252	0x80000000	-0.0
253	0x80000000	-0.0
254	0x80000000	-0.0
255	0x00000000	0.0

onnx::Conv_90 f4 [32]
0	0x000071a6	4.077e-41
1	0x800451fc	-3.96752e-40
2	0xbd24b538	-0.040211886
3	0x80002230	-1.2264e-41
4	0xbc0732cd	-0.008251858
5	0x80006653	-3.6707e-41
6	0xb34504b9	-4.5871932e-08
7	0x8000d917	-7.7877e-41
8	0xbc2308eb	-0.009950857
9	0xbe0f789d	-0.14010854
10	0xbd06653d	-0.032811392
11	0xbe39ed46	-0.18156919
12	0x00006b65	3.8526e-41
13	0xbc56bd20	-0.013106614
14	0x800020bc	-1.1743e-41
15	0xa92dc28a	-3.8582452e-14
16	0x3dd7d808	0.105392516
17	0xbe4dd396	-0.20100245
18	0x00003c9c	2.1743e-41
19	0xbdcec883	-0.10096838
20	0x80022a06	-1.98746e-40
21	0x3bfc3c7a	0.007697639
22	0xbbea5e7a	-0.0071523758
23	0x80003817	-2.0121e-41
24	0x3cd2607e	0.025680777
25	0xb6529a72	-3.1382338e-06
26	0x3d97d33e	0.07413338
27	0x3bac07f0	0.0052499697
28	0xbd29fe8a	-0.041502513
29	0xb4ccf361	-3.8175043e-07
30	0x8002c665	-2.54842e-40
31	0xbd53cdad	-0.05170982

onnx::Conv_92 f4 [64, 32, 3, 3]
0	0x00000000	0.0
1	0x00000000	0.0
2	0x80000000	-0.0
3	0x80000000	-0.0
4	0x80000000	-0.0
5	0x80000000	-0.0
6	0x00000000	0.0
7	0x00000000	0.0
8	0x80000000	-0.0
9	0x00000000	0.0
10	0x80000000	-0.0
11	0x80000000	-0.0
12	0x00000000	0.0
13	0x80000000	-0.0
14	0x80000000	-0.0
15	0x80000000	-0.0
16	0x80000000	-0.0
17	0x80000000	-0.0
18	0x80000000	-0.0
19	0x80000000	-0.0
20	0x00000000	0.0
21	0x80000000	-0.0
22	0x00000000	0.0
23	0x80000000	-0.0
24	0x00000000	0.0
25	0x00000000	0.0
26	0x80000000	-0.0
27	0x00000000	0.0
28	0x80000000	-0.0
29	0x00000000	0.0
30	0x00000000	0.0
31	0x00000000	0.0
32	0x00000000	0.0
33	0x00000000	0.0
34	0x80000000	-0.0
35	0x80000000	-0.0
36	0x00000000	0.0
37	0x80000000	-0.0
38	0x80000000	-0.0
39	0x00000000	0.0
40	0x00000000	0.0
41	0x00000000	0.0
42	0x00000000	0.0
43	0x00000000	0.0
44	0x80000000	-0.0
45	0x00000000	0.0
46	0x80000000	-0.0
47	0x80000000	-0.0
48	0x80000000	-0.0
49	0x00000000	0.0
50	0x80000000	-0.0
51	0x80000000	-0.0
52	0x00000000	0.0
53	0x00000000	0.0
54	0x00000000	0.0
55	0x80000000	-0.0
56	0x00000000	0.0
57	0x80000000	-0.0
58	0x80000000	-0.0
59	0x80000000	-0.0
60	0x00000000	0.0
61	0x00000000	0.0
62	0x80000000	-0.0
63	0x80000000	-0.0
64	0x00000000	0.0
65	0x80000000	-0.0
66	0x00000000	0.0
67	0x00000000	0.0
68	0x00000000	0.0
69	0x80000000	-0.0
70	0x80000000	-0.0
71	0x00000000	0.0
72	0x00000000	0.0
73	0x80000000	-0.0
74	0x80000000	-0.0
75	0x80000000	-0.0
76	0x00000000	0.0
77	0x80000000	-0.0
78	0x80000000	-0.0
79	0x80000000	-0.0
80	0x80000000	-0.0
81	0x00000000	0.0
82	0x00000000	0.0
83	0x00000000	0.0
84	0x00000000	0.0
85	0x80000000	-0.0
86	0x00000000	0.0
87	0x00000000	0.0
88	0x00000000	0.0
89	0x00000000	0.0
90	0x80000000	-0.0
91	0x80000000	-0.0
92	0x80000000	-0.0
93	0x00000000	0.0
94	0x80000000	-0.0
95	0x00000000	0.0
96	0x00000000	0.0
97	0x80000000	-0.0
98	0x80000000	-0.0
99	0x00000000	0.0
100	0x00000000	0.0
101	0x00000000	0.0
102	0x80000000	-0.0
103	0x80000000	-0.0
104	0x80000000	-0.0
105	0x80000000	-0.0
106	0x00000000	0.0
107	0x00000000	0.0
108	0x00000000	0.0
109	0x00000000	0.0
110	0x00000000	0.0
111	0x00000000	0.0
112	0x00000000	0.0
113	0x80000000	-0.0
114	0x00000000	0.0
115	0x80000000	-0.0
116	0x80000000	-0.0
117	0x00000000	0.0
118	0x00000000	0.0
119	0x00000000	0.0
120	0x00000000	0.0
121	0x00000000	0.0
122	0x80000000	-0.0
123	0x00000000	0.0
124	0x00000000	0.0
125	0x80000000	-0.0
126	0x80000000	-0.0
127	0x80000000	-0.0
128	0x00000000	0.0
129	0x80000000	-0.0
130	0x00000000	0.0
131	0x80000000	-0.0
132	0x80000000	-0.0
133	0x00000000	0.0
134	0x80000000	-0.0
135	0x80000000	-0.0
136	0x80000000	-0.0
137	0x00000000	0.0
138	0x00000000	0.0
139	0x00000000	0.0
140	0x80000000	-0.0
141	0x00000000	0.0
142	0x80000000	-0.0
143	0x00000000	0.0
144	0x00000000	0.0
145	0x80000000	-0.0
146	0x00000000	0.0
147	0x00000000	0.0
148	0x00000000	0.0
149	0x00000000	0.0
150	0x00000000	0.0
151	0x00000000	0.0
152	0x80000000	-0.0
153	0x00000000	0.0
154	0x80000000	-0.0
155	0x00000000	0.0
156	0x00000000	0.0
157	0x80000000	-0.0
158	0x80000000	-0.0
159	0x00000000	0.0
160	0x00000000	0.0
161	0x80000000	-0.0
162	0x80000000	-0.0
163	0x00000000	0.0
164	0x80000000	-0.0
165	0x00000000	0.0
166	0x80000000	-0.0
167	0x00000000	0.0
168	0x80000000	-0.0
169	0x80000000	-0.0
170	0x00000000	0.0
171	0x00000000	0.0
172	0x00000000	0.0
173	0x00000000	0.0
174	0x80000000	-0.0
175	0x00000000	0.0
176	0x00000000	0.0
177	0x80000000	-0.0
178	0x00000000	0.0
179	0x00000000	0.0
180	0x00000000	0.0
181	0x80000000	-0.0
182	0x00000000	0.0
183	0x80000000	-0.0
184	0x80000000	-0.0
185	0x80000000	-0.0
186	0x00000000	0.0
187	0x80000000	-0.0
188	0x00000000	0.0
189	0x00000000	0.0
190	0x80000000	-0.0
191	0x00000000	0.0
192	0x00000000	0.0
193	0x00000000	0.0
194	0x80000000	-0.0
195	0x80000000	-0.0
196	0x80000000	-0.0
197	0x80000000	-0.0
198	0x80000000	-0.0
199	0x00000000	0.0
200	0x00000000	0.0
201	0x00000000	0.0
202	0x00000000	0.0
203	0x80000000	-0.0
204	0x00000000	0.0
205	0x00000000	0.0
206	0x80000000	-0.0
207	0x80000000	-0.0
208	0x80000000	-0.0
209	0x80000000	-0.0
210	0x00000000	0.0
211	0x80000000	-0.0
212	0x80000000	-0.0
213	0x80000000	-0.0
214	0x80000000	-0.0
215	0x80000000	-0.0
216	0x00000000	0.0
217	0x80000000	-0.0
218	0x00000000	0.0
219	0x00000000	0.0
220	0x00000000	0.0
221	0x80000000	-0.0
222	0x80000000	-0.0
223	0x80000000	-0.0
224	0x80000000	-0.0
225	0x00000000	0.0
226	0x00000000	0.0
227	0x00000000	0.0
228	0x00000000	0.0
229	0x80000000	-0.0
230	0x80000000	-0.0
231	0x80000000	-0.0
232	0x00000000	0.0
233	0x00000000	0.0
234	0x80000000	-0.0
235	0x80000000	-0.0
236	0x80000000	-0.0
237	0x80000000	-0.0
238	0x00000000	0.0
239	0x80000000	-0.0
240	0x80000000	-0.0
241	0x80000000	-0.0
242	0x00000000	0.0
243	0x80000000	-0.0
244	0x80000000	-0.0
245	0x80000000	-0.0
246	0x00000000	0.0
247	0x80000000	-0.0
248	0x00000000	0.0
249	0x80000000	-0.0
250	0x80000000	-0.0
251	0x00000000	0.0
252	0x80000000	-0.0
253	0x00000000	0.0
254	0x80000000	-0.0
255	0x00000000	0.0

onnx::Conv_93 f4 [64]
0	0x000010d2	6.034e-42
1	0x000066da	3.6896e-41
2	0x80004ceb	-2.7593e-41
3	0x000028d6	1.4649e-41
4	0x00000764	2.651e-42
5	0x00003655	1.949e-41
6	0x80004002	-2.2962e-41
7	0x80007865	-4.319e-41
8	0xbdf0a8d8	-0.117509544
9	0x800055d0	-3.0784e-41
10	0xbd16932a	-0.03676144
11	0x000063a4	3.5744e-41
12	0x80000428	-1.491e-42
13	0x000046f7	2.5457e-41
14	0xb6f4b58a	-7.2929006e-06
15	0x8000a340	-5.8563e-41
16	0x80006a67	-3.817e-41
17	0x80005ee9	-3.4047e-41
18	0x80000f7e	-5.558e-42
19	0xbd288afa	-0.041148163
20	0x00004aab	2.6786e-41
21	0x000012e8	6.782e-42
22	0x3cf4a863	0.02986545
23	0x80000d0b	-4.679e-42
24	0x000081d8	4.6579e-41
25	0x00008383	4.7178e-41
26	0x000034fa	1.9004e-41
27	0x80003111	-1.7602e-41
28	0x00000d53	4.78e-42
29	0x00003a9e	2.1028e-41
30	0x0000314b	1.7683e-41
31	0x000034c2	1.8926e-41
32	0x8000522f	-2.9482e-41
33	0x00002a0f	1.5088e-41
34	0x8000665f	-3.6724e-41
35	0x00004630	2.5179e-41
36	0x00000f5b	5.509e-42
37	0x98aabb57	-4.4133135e-24
38	0x8000080d	-2.888e-42
39	0x00004bf4	2.7247e-41
40	0x00002956	1.4829e-41
41	0x000003c8	1.356e-42
42	0x80001a8c	-9.523e-42
43	0x8000117e	-6.275e-42
44	0x800035ed	-1.9345e-41
45	0xbcae829c	-0.021302514
46	0x3dc91f5f	0.09820437
47	0x00006d77	3.9269e-41
48	0x00007408	4.1624e-41
49	0x8000471e	-2.5512e-41
50	0x800037c6	-2.0008e-41
51	0x00003c43	2.1618e-41
52	0x000024bc	1.3178e-41
53	0x00002d55	1.6262e-41
54	0x000035fb	1.9365e-41
55	0x00004033	2.303e-41
56	0xbc974c05	-0.018468866
57	0x80008660	-4.8205e-41
58	0x80006b6c	-3.8536e-41
59	0xbdc9fbbe	-0.09862469
60	0x00004610	2.5134e-41
61	0x80004e72	-2.8141e-41
62	0x80003909	-2.046e-41
63	0x80007947	-4.3506e-41

onnx::Conv_95 f4 [64, 64, 3, 3]
0	0x8007eb66	-7.27294e-40
1	0x80049001	-4.19001e-40
2	0x80050328	-4.6031e-40
3	0x80070cc6	-6.47431e-40
4	0x00006c2e	3.8808e-41
5	0x8002c167	-2.5305e-40
6	0x80076a36	-6.8095e-40
7	0x80017f8d	-1.37592e-40
8	0x800835dc	-7.54005e-40
9	0x800acd55	-9.92014e-40
10	0x800d6970	-1.231685e-39
11	0x8007b577	-7.07946e-40
12	0x800e2fa8	-1.302793e-39
13	0x800dbd41	-1.261753e-39
14	0x80015e73	-1.25717e-40
15	0x8005401d	-4.82177e-40
16	0x80052792	-4.73373e-40
17	0x800bf36b	-1.097512e-39
18	0x0002cf70	2.58086e-40
19	0x0003150b	2.83055e-40
20	0x80005715	-3.1239e-41
21	0x800117be	-1.00353e-40
22	0x8009e93b	-9.10187e-40
23	0x80005c6c	-3.3155e-41
24	0x80015190	-1.21095e-40
25	0x00032fa8	2.92602e-40
26	0x000544e1	4.83887e-40
27	0x0003699c	3.13392e-40
28	0x00017eef	1.3737e-40
29	0x0001404e	1.14904e-40
30	0x0005e7ec	5.42375e-40
31	0x00050b80	4.63303e-40
32	0x00044aee	3.94222e-40
33	0x00063b63	5.72317e-40
34	0x00063ea7	5.73488e-40
35	0x0006790b	5.94435e-40
36	0x00027dea	2.2884e-40
37	0x000133f2	1.1047e-40
38	0x800166b4	-1.28678e-40
39	0x80009c06	-5.597e-41
40	0x0003e078	3.56031e-40
41	0x00057d60	5.04154e-40
42	0x00069878	6.05708e-40
43	0x0004d76b	4.4462e-40
44	0x000955a2	8.57239e-40
45	0x000b566c	1.041193e-39
46	0x000d1eef	1.204958e-39
47	0x000cfa4c	1.191816e-39
48	0x000f19d9	1.386805e-39
49	0x000c35b6	1.121294e-39
50	0x000bb0f2	1.073666e-39
51	0x000d5d6e	1.227378e-39
52	0x000c6d26	1.141181e-39
53	0x00096d8f	8.65822e-40
54	0x000ab7a9	9.8424e-40
55	0x000a3f63	9.41094e-40
56	0x0006ac55	6.12834e-40
57	0x000725b6	6.56377e-40
58	0x0007cd58	7.16512e-40
59	0x00034488	3.00091e-40
60	0x000a6732	9.55374e-40
61	0x00098f25	8.7787e-40
62	0x00095e6b	8.6039e-40
63	0x0007d041	7.17556e-40
64	0x80004c18	-2.7297e-41
65	0x8009c4d1	-8.97124e-40
66	0x80002ccd	-1.6071e-41
67	0x80036a94	-3.1374e-40
68	0x800636e2	-5.70701e-40
69	0x80003ef1	-2.2579e-41
70	0x8003f3c2	-3.6295e-40
71	0x80047f5d	-4.13031e-40
72	0x3b268933	0.0025411367
73	0xbe41c825	-0.18924005
74	0xbdaebbc4	-0.08531907
75	0x3d8ce609	0.06879813
76	0xbd82786f	-0.06370627
77	0x3d039938	0.032128543
78	0x3e348c6c	0.17631692
79	0xbca1bed8	-0.019744322
80	0x3e26c830	0.16287303
81	0x0002e9be	2.67522e-40
82	0x0003a72e	3.35479e-40
83	0x00054b0f	4.86103e-40
84	0x00025d63	2.17172e-40
85	0x000197c9	1.46286e-40
86	0x800116c5	-1.00004e-40
87	0x8000c234	-6.9667e-41
88	0x0002a210	2.41808e-40
89	0x0003760e	3.17857e-40
90	0x3db59983	0.08867171
91	0x3e0428a7	0.12906133
92	0x3df387ca	0.11891134
93	0x3ccf9f7b	0.0253446
94	0x3d8b09f7	0.0678901
95	0x3d737d29	0.059445534
96	0xbdc990cd	-0.09842072
97	0xbce1788c	-0.027523302
98	0xbd5e231c	-0.0542327
99	0x800614da	-5.58493e-40
100	0x8002a281	-2.41966e-40
101	0x800b133e	-1.017093e-39
102	0x8010df18	-1.549399e-39
103	0x800e8e77	-1.336804e-39
104	0x800ff76b	-1.466289e-39
105	0x800e9bed	-1.341633e-39
106	0x800c1141	-1.108215e-39
107	0x800fd263	-1.453005e-39
108	0x8019bfa2	-2.364632e-39
109	0x80113753	-1.58105e-39
110	0x8019e2db	-2.377268e-39
111	0x800cb5d7	-1.167258e-39
112	0x800df79a	-1.282684e-39
113	0x801000c6	-1.469645e-39
114	0x80155913	-1.960499e-39
115	0x800b6ddc	-1.0496e-39
116	0x8012bbc7	-1.720401e-39
117	0x0005f6f9	5.47775e-40
118	0x000836eb	7.54385e-40
119	0x00085d19	7.68081e-40
120	0x00085d0e	7.68066e-40
121	0x0007bff8	7.11714e-40
122	0x000b234f	1.022857e-39
123	0x0001d408	1.67898e-40
124	0x0008b6d4	8.0027e-40
125	0x000769fd	6.8087e-40
126	0x800120e1	-1.0363e-40
127	0x0001bed8	1.60297e-40
128	0x0000e0bf	8.0624e-41
129	0x0001eec7	1.77493e-40
130	0x80011611	-9.9751e-41
131	0x00006857	3.743e-41
132	0x8000ecc1	-8.4931e-41
133	0x00011960	1.00938e-40
134	0x8000df12	-8.0023e-41
135	0x00041215	3.73829e-40
136	0x00090073	8.2668e-40
137	0x000a0345	9.19528e-40
138	0x000b31b3	1.028019e-39
139	0x000b8857	1.0591e-39
140	0x000b0a5f	1.013911e-39
141	0x000a7929	9.61819e-40
142	0x000afc1e	1.008798e-39
143	0x0007fcbf	7.33517e-40
144	0x000f4dfa	1.405505e-39
145	0x000a8126	9.64685e-40
146	0x0009aa6c	8.87655e-40
147	0x0009f5da	9.14714e-40
148	0x000d5107	1.222929e-39
149	0x0009b171	8.90173e-40
150	0x000a9a65	9.73741e-40
151	0x0008d445	8.10832e-40
152	0x000b9b3b	1.065877e-39
153	0x00057344	5.00527e-40
154	0x0005ae3c	5.21681e-40
155	0x0003472e	3.01041e-40
156	0x000404e2	3.69094e-40
157	0x0004f41b	4.5491e-40
158	0x00008de7	5.0905e-41
159	0x0001c2bb	1.61692e-40
160	0x000850bd	7.63647e-40
161	0x00039870	3.30191e-40
162	0x00013ea0	1.14301e-40
163	0x8002284a	-1.98124e-40
164	0x800564ca	-4.95334e-40
165	0x80059f73	-5.16377e-40
166	0x80045a06	-3.99636e-40
167	0x8004337e	-3.85814e-40
168	0x8005dd5f	-5.3859e-40
169	0x8002be9f	-2.52053e-40
170	0x80063529	-5.70083e-40
171	0x3c3dfb5e	0.011595575
172	0x3b7ec50c	0.0038874773
173	0xbaf5cc95	-0.0018752987
174	0xbb6f3929	-0.0036502576
175	0xbb42127e	-0.0029613073
176	0xbb9f62b2	-0.0048640603
177	0xbc4cb25c	-0.012493696
178	0x3c2b12a7	0.010441459
179	0x3b8f0e8a	0.004365747
180	0x0005eb5d	5.4361e-40
181	0x0005db90	5.37942e-40
182	0x00057300	5.00432e-40
183	0x0001e086	1.7238e-40
184	0x00008aae	4.9749e-41
185	0x80027e39	-2.28951e-40
186	0x00054c84	4.86626e-40
187	0x80019ee4	-1.48835e-40
188	0x00009d43	5.6415e-41
189	0x8001abd3	-1.53474e-40
190	0x80031a29	-2.84891e-40
191	0x800027f2	-1.433e-41
192	0x00027238	2.24645e-40
193	0x8000f185	-8.6641e-41
194	0x80069e90	-6.07894e-40
195	0x80006d1b	-3.914e-41
196	0x00024a46	2.10315e-40
197	0x00027871	2.26877e-40
198	0x3cb78f36	0.022407155
199	0x3d11a7dc	0.035560474
200	0x3d8fcabd	0.07021091
201	0xbdd09d3b	-0.10186239
202	0xbd4d2443	-0.05008341
203	0xbd880ae4	-0.06642702
204	0xbd69291b	-0.056923967
205	0xbc2b231c	-0.010445382
206	0x3c30d8f9	0.010793918
207	0x00008038	4.5996e-41
208	0x8003c990	-3.47813e-40
209	0x80016d8b	-1.31132e-40
210	0x8003e51b	-3.57694e-40
211	0x000194f6	1.45273e-40
212	0x80044280	-3.91198e-40
213	0x80047d77	-4.1235e-40
214	0x00011de0	1.02553e-40
215	0x8003ec9c	-3.60386e-40
216	0x8013ce2d	-1.818836e-39
217	0x8017884b	-2.161109e-39
218	0x80176f2e	-2.1521e-39
219	0x8014cd9a	-1.910466e-39
220	0x8016ba37	-2.087182e-39
221	0x80176d31	-2.151387e-39
222	0x80150886	-1.931603e-39
223	0x8012788e	-1.696286e-39
224	0x8014874a	-1.885242e-39
225	0x8008766f	-7.7717e-40
226	0x8004dfce	-4.47628e-40
227	0x80063a26	-5.71873e-40
228	0x8002b98c	-2.50233e-40
229	0x800130ae	-1.09298e-40
230	0x80021df6	-1.94419e-40
231	0x80025522	-2.14211e-40
232	0x800107b8	-9.4604e-41
233	0x8000fda8	-9.0995e-41
234	0x800d700f	-1.23406e-39
235	0x800fe913	-1.461144e-39
236	0x800d46f7	-1.219319e-39
237	0x800a09d9	-9.21888e-40
238	0x800acd60	-9.9203e-40
239	0x800bd3e7	-1.086207e-39
240	0x8009ccce	-8.9999e-40
241	0x800a4b15	-9.4529e-40
242	0x800a4181	-9.41853e-40
243	0x0008ea56	8.18748e-40
244	0x0007f1ef	7.29638e-40
245	0x0009f8db	9.15792e-40
246	0x00065507	5.81515e-40
247	0x80064fd2	-5.79647e-40
248	0x80002c01	-1.5786e-41
249	0x00058d43	5.09853e-40
250	0x00029931	2.38626e-40
251	0x0006584b	5.82687e-40
252	0x000301b6	2.7612e-40
253	0x00072113	6.54713e-40
254	0x00045919	3.99304e-40
255	0x00051a98	4.68718e-40

onnx::Conv_96 f4 [64]
0	0x3dbf61b8	0.0934481
1	0x3e1d89ae	0.15384552
2	0xbc44b5e8	-0.01200626
3	0xbcba2e92	-0.022727285
4	0x019dec48	5.801174e-38
5	0xbd249a49	-0.0401862
6	0xb540f717	-7.1885137e-07
7	0xa657a27a	-7.4813306e-16
8	0xbd48d04a	-0.049026765
9	0xbd0912c3	-0.03346516
10	0xbc200374	-0.009766448
11	0x96b96659	-2.9952952e-25
12	0xbd865ea6	-0.065610215
13	0xbcae07b2	-0.021243904
14	0xaa198112	-1.363391e-13
15	0xbd0333d7	-0.03203186
16	0xbd2a8b13	-0.041636538
17	0x9d4877a7	-2.6531638e-21
18	0x87fb94c3	-3.7853717e-34
19	0x3ea94719	0.33062056
20	0x9d813d25	-3.4209238e-21
21	0x805e786e	-8.675739e-39
22	0x91b6c8cd	-2.883829e-28
23	0x06bb1599	7.0373317e-35
24	0x9f6ee7e1	-5.0590266e-20
25	0x2f87718d	2.463704e-10
26	0x800b8173	-1.056628e-39
27	0x3bafbbd4	0.005362967
28	0xbb9bf95a	-0.0047599496
29	0x3e3fe14b	0.18738286
30	0xbc65dba8	-0.014029421
31	0x38f34183	0.000115993455
32	0xa999d478	-6.8314224e-14
33	0xbd89ddb5	-0.067317404
34	0x0006d8e8	6.28824e-40
35	0xbd9774c8	-0.07395321
36	0x0326b139	4.8986457e-37
37	0xbccbd514	-0.024881877
38	0x0000517d	2.9232e-41
39	0xbd37b3ea	-0.044849314
40	0xbd7e5884	-0.062096134
41	0xbce34910	-0.0277448
42	0x3a1e5d70	0.0006041145
43	0x870fe25d	-1.0824646e-34
44	0xbe08cf3c	-0.13360304
45	0x3b15d931	0.0022865052
46	0x3e8f9145	0.2804052
47	0xbcddd410	-0.027078658
48	0x8c57c933	-1.6623544e-31
49	0xbd27dd74	-0.04098268
50	0xbda8a02c	-0.08233675
51	0xbcc1f974	-0.023678519
52	0x00e3231d	2.0859254e-38
53	0x848719a8	-3.176191e-36
54	0x3ea459a6	0.32099646
55	0x06bd6836	7.124702e-35
56	0x0fd76f07	2.1243403e-29
57	0xbd344058	-0.044006675
58	0xbb92cce8	-0.004479993
59	0x3e300cc8	0.17192376
60	0x818b1820	-5.1095154e-38
61	0xba8786e8	-0.0010339888
62	0x3e619390	0.22028947
63	0xbd05eb51	-0.03269512
