cmd/ai/datas/models/fried_egg_on_a_bread.onnx (onnx, 303077 bytes, 16 tensors)

fc.weight f4 [2, 256]
-0.046495263 0.0034589493 -0.108785614 -0.08186945 -0.08203355 -0.0572315 -0.061079312 -0.02004977
-0.026056493 -0.020789908 -0.058704775 0.038160447 0.039118662 0.08749381 0.0120079005 0.018712923
0.09630454 0.09081483 0.037549075 0.07150358 -0.036512956 0.09373201 0.028932294 0.061875947
0.09087495 0.054638743 0.05823008 0.018437756 0.028369775 -0.013826345 -0.00081468606 0.03292316
0.072273105 0.058645673 0.10622261 0.11826257 6.457738e-05 -0.024682578 0.008590147 0.0008011499
0.0079013845 -0.05721689 0.04023697 0.0342283 -0.017447967 -0.012242814 0.028848592 -0.04753636
0.073602304 0.062463284 0.08884286 0.01696636 0.06197187 0.09061655 0.033280566 0.07821476
0.06872164 0.049686648 0.06440574 0.091249526 -0.061369836 -0.0111711025 -0.099212244 -0.0070014275
0.016877359 0.027063692 -0.108158596 -0.08830089 -0.03274685 -0.06306348 -0.007885926 -0.033240724
0.025343575 0.041659128 -0.011556186 0.027194941 -0.023326503 -0.051494572 -0.020267738 0.016271576
-0.028290672 0.0056694634 -0.058885094 -0.015192047 -0.02782094 0.014922535 0.054336794 -0.026469048
0.05182071 -0.08863383 0.030236315 -0.055564974 -0.05659028 -0.10217968 -0.033812363 -0.11863174
0.0051580807 -0.04245302 -0.019411558 -0.020476457 0.054206155 -0.0055210143 -0.010652969 0.053528998
0.0043253116 0.019172274 -0.034552325 -0.043672968 0.03188613 0.07471746 0.098063566 -0.00041957304
-0.024475893 0.027634846 -0.06024914 -0.05328708 -0.0782518 -0.11886565 -0.048638057 -0.1139851
0.075905636 0.047864385 0.087408714 0.039009683 -0.04239845 -0.018326808 0.022549678 0.014859763
0.04514953 -0.022248281 -0.029255234 -0.03227001 -0.028780673 0.067007974 0.056479964 0.0890574
0.067214966 0.0059113023 0.08211706 -0.022774223 0.091941364 0.09421537 -0.018078025 0.088211864
-0.037938047 -0.00057294895 0.03231986 -0.0022341926 -0.0023949726 0.021679178 -0.04100736 -0.019711154
-0.0511078 0.01721269 -0.046189964 0.0032519621 0.051183376 0.069350846 0.066520706 0.049895503
0.05093324 0.080280416 0.10276871 0.094516166 0.070727676 0.041197542 0.054344244 -0.029637154
-0.10436798 -0.081721716 -0.03285741 -0.038541004 0.037459627 -0.017214278 -0.056779947 -0.0132068945
0.07158095 0.02558389 0.07212038 0.10571333 -0.043309465 0.04120239 -0.032421324 0.058872472
-0.09727831 -0.0007586652 -0.12966108 -0.04949394 0.03160164 0.006670986 0.049105868 0.09415104
-0.055072073 0.046736773 -0.047846552 -0.00062908046 0.026966982 0.058599968 -0.019563701 -0.013447027
0.06830172 0.04292511 0.09044105 0.101783164 0.04929647 0.029979523 -0.023477294 -0.0034863942
-0.046546765 -0.07297131 -0.10939832 -0.03474379 0.036136534 0.046592116 -0.007272821 0.118367225
-0.030173976 -0.10473432 -0.103125796 -0.0802693 -0.042721987 -0.015369133 0.0042302464 -0.0372167
0.0615551 -0.022314511 -0.019370131 0.060512975 -0.070070446 0.044713724 -0.07250803 -0.027201023
-0.05482608 -0.060350623 0.052490395 -0.008903533 -0.038377415 0.029814946 -0.012026009 -0.0061914865
-0.0033316433 0.055527087 0.06502413 0.111823626 0.08885795 0.05356924 0.09254439 0.029284792
-0.008960162 -0.0913423 -0.011761214 -0.07374409 -0.027628904 -0.06309576 -0.09954909 -0.09514345
00000000: d171 3ebd 8aaf 623b feca debd 2cab a7bd
00000010: 3501 a8bd 946b 6abd 4d2e 7abd 6a3f a4bc
00000020: 6d74 d5bc 994f aabc 6b74 70bd 214e 1c3d
00000030: e43a 203d f42f b33d c9bc 443c d84b 993c
00000040: 513b c53d 20fd b93d 0fcd 193d 7870 923d
00000050: 9c8e 15bd 91f6 bf3d 6b03 ed3c a271 7d3d
00000060: a51c ba3d e0cc 5f3d aa82 6e3d c70a 973c
00000070: bb67 e83c e587 62bc a890 55ba 6fda 063d
00000080: ec03 943d 7236 703d 3d8b d93d a533 f23d
00000090: b86d 8738 1e33 cabc b0bd 0c3c 4204 523a
000000a0: cf74 013c 425c 6abd 85cf 243d f932 0c3d
000000b0: 0aef 8ebc 1596 48bc e253 ec3c 7cb5 42bd
000000c0: cebc 963d 80d9 7f3d 3ff3 b53d 09fd 8a3c
000000d0: 37d6 7d3d 2b95 b93d 3451 083d 0f2f a03d
000000e0: eebd 8c3d 3a84 4b3d 28e7 833d 08e1 ba3d
000000f0: f05e 7bbd 0007 37bc ca2f cbbd 3b6c e5bb
00000100: 6342 8a3c adb4 dd3c 4182 ddbd 19d7 b4bd
00000110: 9021 06bd 6d27 81bd f933 01bc 6d27 08bd
00000120: 549d cf3c c3a2 2a3d 2856 3dbc edc7 de3c
00000130: 3917 bfbc f9eb 52bd 8708 a6bc f84b 853c
00000140: d7c1 e7bc e8c6 b93b 7f31 71bd 10e8 78bc
00000150: bde8 e3bc a67d 743c 4290 5e3d 9ed5 d8bc
00000160: f441 543d a785 b5bd 26b2 f73c 1998 63bd
00000170: 36cb 67bd 9443 d1bd d57e 0abd 33f5 f2bd
00000180: 1e05 a93b 38e3 2dbd fd04 9fbc 3ebe a7bc
00000190: 4607 5e3d a0e9 b4bb ca89 2ebc 3941 5b3d
000001a0: 58bb 8d3b 2c0f 9d3c bd86 0dbd 6de2 32bd
000001b0: 089b 023d 7805 993d 8dd5 c83d 24fa dbb9
000001c0: ab81 c8bc 7962 e23c cdc7 76bd 8e43 5abd
000001d0: 7b42 a0bd d56f f3bd b338 47bd 0571 e9bd
000001e0: 6a74 9b3d 720d 443d 5703 b33d 9ec8 1f3d
000001f0: ffa9 2dbd 1a22 96bc 1aba b83c 5d76 733c
00000200: b7ee 383d 0742 b6bc aca8 efbc 8f2d 04bd
00000210: 72c5 ebbc 7a3b 893d 8957 673d ba63 b63d
00000220: 00a8 893d 99b3 c13b fd2c a83d 0291 babc
00000230: c14b bc3d fdf3 c03d 5e18 94bc 6ca8 b43d
00000240: ed64 1bbd f431 16ba d461 043d 886b 12bb
00000250: f9f4 1cbb 8898 b13c 55f7 27bd 4979 a1bc
00000260: 6a56 51bd a101 8d3c b031 3dbd df1e 553b
00000270: a9a5 513d d107 8e3d 023c 883d 3a5f 4c3d
00000280: 609f 503d 0f6a a43d 6778 d23d b191 c13d
00000290: acd9 903d c1be 283d 1298 5e3d 9ec9 f2bc
000002a0: e1be d5bd b75d a7bd 7e95 06bd 2cdd 1dbd
000002b0: 446f 193d f504 8dbc 1792 68bd bb61 58bc
000002c0: 0899 923d 4e95 d13c dab3 933d 3b80 d83d
000002d0: 4465 31bd d6c3 283d 39cc 04bd 4324 713d
000002e0: da39 c7bd 29e1 46ba e0c5 04be 28ba 4abd
000002f0: b970 013d 4998 da3b 3c23 493d 43d2 c03d
00000300: 4193 61bd 0f6f 3f3d bffa 43bd e0e8 24ba
00000310: dce9 dc3c 8506 703d 0e44 a0bc eb50 5cbc
00000320: c6e1 8b3d 3dd2 2f3d 2839 b93d b173 d03d
00000330: 18eb 493d 9e97 f53c 7453 c0bc fd7b 64bb
00000340: d2a7 3ebd fb71 95bd 3a0c e0bd 814f 0ebd
00000350: e703 143d 60d7 3e3d d850 eebb 846a f23d
00000360: 6a2f f7bc f27e d6bd 9e33 d3bd 3b64 a4bd
00000370: 40fd 2ebd d1ce 7bbc e19d 8a3b 8a70 18bd
00000380: 3321 7c3d eccc b6bc 1cae 9ebc 74dc 773d
00000390: 1881 8fbd bd25 373d 177f 94bd aed4 debc
000003a0: 5091 60bd 3732 77bd 2b00 573d 20e0 11bc
000003b0: a331 1dbd 793e f43c bd08 45bc f4e1 cabb
000003c0: b357 5abb 5f70 633d 5f2b 853d c903 e53d
000003d0: 28fb b53d 6b6b 5b3d ea87 bd3d a9e6 ef3c
000003e0: a5cd 12bc ac11 bbbd 1bb2 40bc 2407 97bd
000003f0: 0356 e2bc 5a38 81bd 65e0 cbbd 92da c2bd

fc.bias f4 [2]
0.016882557 0.06234913
00000000: 4a4d 8a3c cd61 7f3d

onnx::Conv_80 f4 [16, 3, 7, 7]
-0.14594115 -0.14208469 -0.048712816 0.089026615 -0.056801304 0.16198212 -0.06077597 -0.16828634
-0.047756575 0.14229861 0.15915218 0.015866932 -0.053842563 0.055511948 -0.15560181 0.12474172
0.05637398 -0.13358513 0.13870147 0.053950753 0.050718777 0.07150968 0.06762079 0.016540715
-0.02170762 -0.076927565 -0.060079347 0.036837578 -0.06275725 -0.1483313 0.02031361 -0.13607405
0.073934145 0.021169389 0.018841213 -0.16776416 -0.04137481 0.0937232 -0.10602205 -0.07035265
-0.13950853 0.01852279 -0.104381755 0.10801609 -0.1462661 0.0073481207 -0.051151156 -0.13341972
0.006709796 0.08478997 -0.00027862913 -0.1551311 0.011875306 -0.09588791 -0.027496895 -0.120477214
-0.11980253 0.015434234 0.12140316 -0.16053446 0.12703939 -0.07468731 0.20417967 -0.029458104
0.025943559 -0.123974785 0.055819552 -0.10697091 -0.16337943 0.078445144 -0.045626864 -0.09847472
0.058215473 -0.021082167 -0.07995127 0.022111695 -0.13774653 -0.009308482 0.040200327 -0.11622902
0.15698338 0.1777339 -0.074355066 0.06252776 0.07498251 -0.045770578 -0.0214262 0.012111146
-0.08486283 -0.06453207 -0.1051995 -0.04255108 0.045191575 0.013400196 0.16032727 0.16276106
0.12592188 0.14660354 -0.38191274 -0.22758628 -0.29896334 -0.14798266 -0.1783776 -0.19493695
0.05626092 -0.278168 -0.16811314 -0.29015025 -0.119820416 -0.07782942 -0.058753084 -0.107883655
-0.25897032 -0.13154386 -0.25640315 -0.17968187 0.07174549 0.11807504 0.003642482 -0.16562453
-0.056835026 -0.0956856 0.066852994 0.05725782 0.039016172 0.27584058 -0.070358865 0.10264149
0.10210418 0.16574784 0.22435422 0.27393717 0.32633632 0.14395571 -0.057706792 -0.040777106
0.3114642 0.14150198 0.09637904 0.21854953 0.08444295 0.22823489 0.21733426 0.11057597
0.19416833 0.22438288 0.2952392 0.03800547 0.009774317 0.088287465 -0.04643914 0.0014347737
-0.06369426 0.0023159871 -0.091586754 -0.022973107 -0.10775245 -0.101886876 -0.06643737 -0.009090903
0.025445294 0.0054291375 -0.11619242 -0.04714247 -0.015339367 -0.027912484 -0.041525908 0.013297732
0.11990544 0.008891391 -0.06529515 -0.12523094 -0.15326028 0.0056450088 -0.005719437 0.016076054
0.082780086 0.06594753 0.10404975 0.029715799 0.032293707 -0.065140516 -0.061715413 -0.034682255
-0.104639456 -0.11769529 -0.087412536 -0.08134189 -0.1449518 -0.10927077 -0.015912531 0.0770236
-0.08156965 -0.02932208 -0.13323176 0.11709571 0.03363293 0.06900133 0.06615712 -0.10840792
0.044563632 -0.07056654 -0.02428729 -0.025545368 0.13304526 0.07538358 0.108495116 -0.021081878
0.04702634 0.014897434 -0.03559022 0.06264597 -0.04280212 0.03858934 0.013429469 0.074665695
-0.07101197 -0.030156033 -0.08200613 -0.070558265 0.09515396 -0.009501216 0.096162274 -0.008202506
0.05449532 0.093720876 -0.06301684 0.031028872 0.010154356 0.09192794 0.102817886 -0.0140378745
0.098796375 0.1334246 0.11039571 -0.08449699 -0.042480048 0.11537271 0.06757171 -0.013350197
-0.11379839 -0.024681509 0.111890085 0.016786871 -0.07267083 0.050616182 0.17805113 0.04034228
0.24850039 0.18542361 0.12530011 -0.0058411313 -0.011143175 0.14738345 0.19219865 0.17764495
00000000: 9971 15be a67e 11be 1787 47bd 9653 b63d
00000010: 7ca8 68bd a4de 253e 39f0 78bd 4153 2cbe
00000020: 669c 43bd bab6 113e caf8 223e 5efb 813c
00000030: 058a 5cbd 7f60 633d 1556 1fbe 9678 ff3d
00000040: 67e8 663d 8aca 08be c207 0e3e 77fb 5c3d
00000050: 7ebe 4f3d ab73 923d c57c 8a3d 6580 873c
00000060: 2ed4 b1bc 338c 9dbd c315 76bd 00e3 163d
00000070: e086 80bd 29e4 17be ba68 a63c ff56 0bbe
00000080: c96a 973d 6d6b ad3c e358 9a3c 5eca 2bbe
00000090: a278 29bd f3f1 bf3d 1722 d9bd 0d15 90bd
000000a0: 53db 0ebe 1bbd 973c 1ac6 d5bd 8a37 dd3d
000000b0: c8c6 15be 81c8 f03b e083 51bd 2e9f 08be
000000c0: d9dd db3b 5da6 ad3d f814 92b9 b0da 1ebe
000000d0: a590 423c e160 c4bd 2b41 e1bc c2bc f6bd
000000e0: 075b f5bd dfdf 7c3c 38a2 f83d 2563 24be
000000f0: 9d16 023e a9f5 98bd 7a14 513e 1f52 f1bc
00000100: 9687 d43c 7ee6 fdbd 0ba3 643d 9113 dbbd
00000110: f04c 27be d9a7 a03d 3ce3 3abd 1dad c9bd
00000120: 5973 6e3d 82b4 acbc 7ebd a3bd 9623 b53c
00000130: 6d0d 0dbe 9a82 18bc 19a9 243d 7b09 eebd
00000140: 40c0 203e e0ff 353e 7847 98bd 8e0e 803d
00000150: 6e90 993d ee79 3bbd 0086 afbc d46d 463c
00000160: 90cc adbd 6429 84bd d672 d7bd 0b4a 2ebd
00000170: cd1a 393d 7f8c 5b3c d52c 243e d6aa 263e
00000180: aaf1 003e 3d1f 163e 118a c3be 610c 69be
00000190: b911 99be c488 17be 9ea8 36be 8d9d 47be
000001a0: da71 663d 096c 8ebe da25 2cbe 938e 94be
000001b0: 6864 f5bd 0865 9fbd 13a7 70bd 1bf2 dcbd
000001c0: c297 84be 6fb3 06be 4647 83be 86fe 37be
000001d0: 4def 923d 54d1 f13d b5b6 6e3b 7a99 29be
000001e0: d8cb 68bd d0f6 c3bd 39ea 883d 2d87 6a3d
000001f0: 6ccf 1f3d fa3a 8d3e 4f18 90bd b435 d23d
00000200: ff1b d13d cdb9 293e 1dbd 653e 7e41 8c3e
00000210: 8e15 a73e 2069 133e f55d 6cbd e505 27bd
00000220: 3c78 9f3e e5e5 103e 6062 c53d 73cb 5f3e
00000230: 6df0 ac3d 68b6 693e df8c 5e3e a775 e23d
00000240: 10d4 463e a0c4 653e 9829 973e a0ab 1b3d
00000250: 7524 203c 0fd0 b43d f836 3ebd 040f bc3a
00000260: 2372 82bd d1c7 173b d691 bbbd 1932 bcbc
00000270: 51ad dcbd 11aa d0bd 5110 88bd 03f2 14bc
00000280: a672 d03c e8e6 b13b 4bf6 edbd 7618 41bd
00000290: f851 7bbc b9a8 e4bc 1217 2abd bbde 593c
000002a0: fc90 f53d 32ad 113c 77b9 85bd 8a3c 00be
000002b0: 43f0 1cbe c4f9 b83b 1d6a bbbb eeb1 833c
000002c0: 9b88 a93d 800f 873d 0918 d53d 8c6e f33c
000002d0: 6846 043d 6468 85bd 4dc9 7cbd fb0e 0ebd
000002e0: 364d d6bd 3a0a f1bd 5805 b3bd 9496 a6bd
000002f0: 3f6e 14be 5ac9 dfbd ff5a 82bc 8dbe 9d3d
00000300: fd0d a7bd dc34 f0bc e86d 08be e0cf ef3d
00000310: afc2 093d 9250 8d3d 627d 873d f904 debd
00000320: 5b88 363d 3185 90bd 24f6 c6bc 8544 d1bc
00000330: 043d 083e b562 9a3d b032 de3d e7b3 acbc
00000340: b19e 403d 5e14 743c 0dc7 11bd 884c 803d
00000350: 4751 2fbd db0f 1e3d 4707 5c3c 54ea 983d
00000360: b96e 91bd c909 f7bc d4f2 a7bd da80 90bd
00000370: 14e0 c23d fdaa 1bbc baf0 c43d ce63 06bc
00000380: 7c36 5f3d bbf0 bf3d f90e 81bd 4330 fe3c
00000390: 755e 263c b744 bc3d 2f92 d23d 1dff 65bc
000003a0: c155 ca3d 75a0 083e 2517 e23d c20c adbd
000003b0: 8fff 2dbd 8748 ec3d 0963 8a3d c9ba 5abc
000003c0: 210f e9bd e030 cabc a126 e53d 9f84 893c
000003d0: 72d4 94bd ea52 4f3d 0953 363e f23d 253d
000003e0: e376 7e3e b0df 3d3e ac4e 003e f666 bfbb
000003f0: dd91 36bc b0eb 163e b9cf 443e 8fe8 353e

onnx::Conv_81 f4 [16]
0.39499417 -1.0708984 -0.062452797 -1.0425589 -0.9694473 1.1177957 0.39861503 -0.9937954
0.82002616 -0.2119558 0.639012 -0.7827924 -0.29124337 0.8150839 -1.0404801 -0.42370936
00000000: ad3c ca3e 3313 89bf 81ce 7fbd 9272 85bf
00000010: b32d 78bf ee13 8f3f 4517 cc3e 6069 7ebf
00000020: 3ced 513f f10a 59be 4a96 233f 1565 48bf
00000030: da1d 95be 57a9 503f 742e 85bf 6ff0 d8be

onnx::Conv_83 f4 [32, 16, 3, 3]
0.051051516 0.052254297 -0.018054811 0.0014697833 -0.018745355 -0.058731806 -0.039998963 0.006510627
-0.01790654 0.08375598 0.058259673 -0.039186023 0.040835243 -0.017794134 0.0033763566 -0.09245903
0.039537914 -0.040320326 0.04003323 0.07603094 -0.015847221 0.032198288 0.018766712 -0.058667794
-0.05021805 -0.004339183 0.024382904 0.006082252 0.02861339 -0.034285188 -0.017547106 -0.007537579
0.040927052 -0.030171476 -0.0030590813 -0.025243428 -0.1030924 -0.10424506 -0.074253544 -0.0020245595
0.072637305 -0.044370964 0.08714678 0.08503169 0.10467873 0.080105454 0.08319298 -0.06271154
-0.01087182 0.007679956 -0.07550809 -0.074534625 -0.047482666 -0.08516326 0.072306015 0.03603495
0.034538735 -0.018055743 0.036919627 0.016112875 -0.03742244 -0.03511847 -0.010611706 -0.018550588
0.051919848 -0.042835683 0.004137607 0.033504583 -0.01013783 0.009886798 0.083451755 0.009513767
-0.029710986 0.05676874 -0.00023775444 0.0058917776 -0.022014327 -0.022309821 -0.013438435 -0.0102256145
-0.03530578 0.07883226 0.0075873034 0.003802712 0.026966508 -0.025834566 0.07066308 0.049681474
0.00923701 0.018299345 0.020436574 0.055350408 0.01169663 0.00019064959 0.04541415 -0.010245505
-0.036625575 0.015243192 -0.053553652 0.036959052 0.035069466 -0.013239915 0.036590144 -0.02628857
0.0014890392 0.011735796 -0.043461226 -0.03998268 0.092489414 0.06339145 -0.023788445 9.638796e-05
0.062073845 -0.09678187 -0.01533257 0.03134282 -0.08628968 -0.0013323519 -0.015606976 -0.01163986
-0.008298469 -0.018489772 -0.064910956 -0.016962929 0.004671147 -0.054144833 0.06352738 0.003924556
-0.006336169 -0.002611986 -0.030727169 -0.03420502 -0.011064529 -0.018035578 0.0012301403 -0.018293245
0.03229513 0.005178703 -0.000978561 -0.032051567 -0.01628017 -0.017481854 -0.06986037 -0.03596125
-0.035921365 0.05174421 0.028969543 0.00875208 -0.015521996 0.038833633 0.028311195 0.01064405
0.022551296 0.018242717 0.04290664 -0.04219328 -0.050085094 0.0077009453 0.034834255 -0.0062004495
-0.061825335 -0.023315577 0.014736681 -0.028383242 -0.034027364 -0.034361158 0.059266943 0.052336276
-0.034385234 -0.0449502 0.033550497 -0.021418711 0.05595234 -0.014730006 -0.002613745 -0.009672153
0.025719678 0.0014906123 -0.021726614 -0.07793535 -0.003463261 -0.092216685 0.022044541 -0.049313717
0.07497925 0.005554553 0.13291629 0.1345363 0.082370825 0.010928768 0.004287662 0.017888613
0.054172613 -0.026900584 0.02392637 -0.054880247 0.017116422 -0.06499089 -0.02441709 0.054315276
-0.018309591 0.06286256 0.050858267 -0.0019793115 0.07495471 0.024971064 0.021798233 0.014121232
-0.0070590586 -0.012808503 -0.007312702 0.039348688 -0.017197976 0.060599428 0.018352766 0.029839339
0.04001465 0.012790445 0.011916577 0.0303123 0.03613222 -0.018055564 -0.021849424 -0.028650047
-0.042243753 -0.01755408 -0.03700183 0.035660278 0.08006345 0.0664944 -0.012296628 0.06274668
0.042088263 0.05441636 -0.02150177 -0.024060598 0.0439546 0.005670533 -0.037752956 -0.026527843
-0.02513345 -0.018402733 -0.0056012045 -0.0016542776 -0.058708582 -0.0118437335 -0.018540177 0.054657944
0.048377194 0.08414938 0.06122812 0.014282512 0.005374008 -0.05613815 -0.049196623 0.072508305
00000000: 651b 513d 9a08 563d afe7 93bc bea5 c03a
00000010: dc8f 99bc c390 70bd f4d5 23bd 1957 d53b
00000020: bcb0 92bc 4188 ab3d b2a1 6e3d 8681 20bd
00000030: db42 273d 01c5 91bc dd45 5d3b 295b bdbd
00000040: 82f2 213d ed26 25bd e2f9 233d 1cb6 9b3d
00000050: 08d2 81bc 5ae2 033d a6bc 993c a44d 70bd
00000060: 71b1 4dbd b52f 8ebb a8be c73c a14d c73b
00000070: a166 ea3c a06e 0cbd f3be 8fbc ccfd f6bb
00000080: 20a3 273d 2c2a f7bc de7a 48bb 4ecb cebc
00000090: 1c22 d3bd 6f7e d5bd 3e12 98bd 79ae 04bb
000000a0: dec2 943d 54be 35bd 037a b23d 1825 ae3d
000000b0: cd61 d63d 540e a43d 1561 aa3d e86e 80bd
000000c0: b81f 32bc 24a8 fb3b fca3 9abd 9ca5 98bd
000000d0: 2f7d 42bd 136a aebd 2d15 943d 6299 133d
000000e0: 7d78 0d3d a3e9 93bc 0939 173d 26ff 833c
000000f0: 4648 19bd 63d8 0fbd b9dc 2dbc 67f7 97bc
00000100: e8a9 543d 7874 2fbd c394 873b 1a3c 093d
00000110: 2419 26bc 3dfc 213c c1e8 aa3d a2df 1b3c
00000120: 7464 f3bc 5786 683d b94d 79b9 d00f c13b
00000130: 6457 b4bc 16c3 b6bc e22c 5cbc 5689 27bc
00000140: cb9c 10bd cf72 a13d ea9e f83b ec36 793b
00000150: dee8 dc3c 03a3 d3bc ceb7 903d cd7e 4b3d
00000160: d456 173c 82e8 953c 9a6a a73c 1cb7 623d
00000170: 39a3 3f3c 1ce9 4739 3004 3a3d c3dc 27bc
00000180: b304 16bd 95be 793c 135b 5bbd 6062 173d
00000190: 00a5 0f3d 3aec 58bc 8cdf 153d 215b d7bc
000001a0: dd2b c33a 7f47 403c 6604 32bd e1c4 23bd
000001b0: 176b bd3d 60d3 813d fcdf c2bc e423 ca38
000001c0: 2541 7e3d 9335 c6bd 7635 7bbc 5461 003d
000001d0: a5b8 b0bd 50a2 aeba 67b4 7fbc 1db5 3ebc
000001e0: 4df6 07bc dd77 97bc 09f0 84bd d7f5 8abc
000001f0: 6c10 993b f9c6 5dbd a51a 823d 9099 803b
00000200: a39f cfbb da2d 2bbb 8bb7 fbbc 901a 0cbd
00000210: 0048 35bc 59bf 93bc a93c a13a b7db 95bc
00000220: e647 043d 1cb2 a93b 0f43 80ba 8148 03bd
00000230: fe5d 85bc 1b36 8fbc f412 8fbd 1b4c 13bd
00000240: 4822 13bd bdf1 533d 8951 ed3c e264 0f3c
00000250: f84f 7ebc 0410 1f3d e1ec e73c 6264 2e3c
00000260: 7fbd b83c c071 953c dfbe 2f3d dcd2 2cbd
00000270: 0726 4dbd 3658 fc3b 5dae 0e3d 242d cbbb
00000280: 903c 7dbd 4f00 bfbc 1f72 713c f983 e8bc
00000290: 4760 0bbd 49be 0cbd e5c1 723d 905e 563d
000002a0: 88d7 0cbd b31d 38bd 3f6c 093d 4b76 afbc
000002b0: 482e 653d 2056 71bc 5d4b 2bbb f377 1ebc
000002c0: 13b2 d23c a660 c33a 03fc b1bc 929c 9fbd
000002d0: e1f7 62bb 1adc bcbd c196 b43c 2efd 49bd
000002e0: b98e 993d f802 b63b 351b 083e e2c3 093e
000002f0: 09b2 a83d 930e 333c 847f 8c3b 248b 923c
00000300: 1ae4 5d3d 9d5e dcbc 3c01 c43c 1cca 60bd
00000310: bd37 8c3c f219 85bd 5906 c8bc b279 5e3d
00000320: fffd 95bc 16be 803d c250 503d 56b7 01bb
00000330: db81 993d 1e90 cc3c 3592 b23c bd5c 673c
00000340: ad4f e7bb c1da 51bc 649f efbb 172c 213d
00000350: c5e2 8cbc 1b37 783d 8a58 963c a171 f43c
00000360: 67e6 233d 048f 513c bf3d 433c 8051 f83c
00000370: 61ff 133d 43e9 93bc 90fd b2bc 81b3 eabc
00000380: c907 2dbd 93cd 8fbc 3b8f 17bd 8310 123d
00000390: 4ef8 a33d 372e 883d cc77 49bc 5581 803d
000003a0: be64 2c3d b0e3 5e3d 7b24 b0bc bb1a c5bc
000003b0: bd09 343d e1cf b93b d8a2 1abd eb50 d9bc
000003c0: aae4 cdbc 54c1 96bc 4f8a b7bb 58d4 d8ba
000003d0: 6978 70bd 380c 42bc 92e1 97bc 02e1 5f3d
000003e0: 2a27 463d 8356 ac3d 56ca 7a3d 3201 6a3c
000003f0: 7218 b03b 1ef1 65bd 6682 49bd 3c7f 943d

onnx::Conv_84 f4 [32]
-0.020260274 -0.6768927 0.21735017 0.52725047 -0.4194702 0.03273493 -0.4513429 0.39199066
0.042323902 0.0018453673 0.41082042 0.1160122 0.043422934 0.36222127 0.500729 -0.1954929
0.10552941 0.14375016 -0.1070261 0.7141067 0.15020825 0.26493037 0.52764475 -0.15971519
-0.051862158 0.19893193 -0.27920416 0.32542908 0.4047431 -0.06490915 0.25367743 0.056890678
00000000: e0f8 a5bc d748 2dbf 0b91 5e3e e3f9 063f
00000010: ccc4 d6be 1015 063d 6b16 e7be 00b3 c83e
00000020: d45b 2d3d 40e0 f13a 0e57 d23e ce97 ed3d
00000030: 3fdc 313d 1175 b93e c72f 003f 4a2f 48be
00000040: ce1f d83d 3e33 133e 8030 dbbd b2cf 363f
00000050: 31d0 193e f4a4 873e ba13 073f 618c 23be
00000060: 6a6d 54bd d0b4 4b3e d9f3 8ebe a49e a63e
00000070: 7d3a cf3e 17ef 84bd 02e2 813e 3306 693d

onnx::Conv_86 f4 [32, 32, 3, 3]
-0.05523985 0.10037973 0.050147224 0.062613 0.11166391 0.063476816 -0.009861172 -0.07239045
-0.10634979 0.043163218 -0.009862225 0.00130456 0.11994536 0.009814537 0.09551251 0.04006402
0.07376512 -0.03296944 0.047693327 0.12586801 0.06814405 -0.0019167981 0.121034354 0.13768975
0.0515509 0.14261878 0.09961468 0.040950622 0.052161776 0.091647685 0.026884286 0.069933765
0.084907815 0.034413386 0.06329465 0.051439743 0.025651738 -0.054513875 0.014737405 -0.036781576
0.06481638 -0.063207 -0.07400633 -0.07833452 0.07897445 -0.06281803 -0.02265566 -0.04753184
-0.01642716 -0.027026953 -0.04312481 -0.08445703 -0.053024273 -0.03737997 0.0037884032 -0.026241235
-0.045449264 0.0705942 -0.016497131 0.014463324 0.15384175 0.1715966 0.07947159 0.10091617
0.12623453 0.19612582 0.10056773 0.014356551 0.028930096 0.11394579 0.037880916 0.12930185
0.0848479 0.15673187 0.14175992 0.13078035 0.10096871 0.094217725 0.081303835 0.102448925
0.013164264 0.0071576145 -0.0137756895 -0.015380251 0.08677955 0.13687618 0.008311253 0.08701252
0.10628972 0.0036896688 0.111286364 0.12211446 0.077300444 0.06500453 0.07877622 0.05394753
0.022350607 -0.04928556 0.042436514 0.080809735 0.06772441 0.043878935 0.047139864 0.11928516
0.0772843 0.019718345 0.0744687 0.05699114 0.010881695 0.056343388 0.104940906 -0.0013950936
0.067484066 0.041843314 -0.011742047 0.014035457 0.019646967 -0.048267346 -0.08941937 0.016469534
-0.103703916 0.039088335 0.05289968 0.026290238 0.10409902 0.08151363 -0.011465717 -0.03617118
0.005121192 0.05997346 0.051606636 0.014004127 -0.036910094 0.0525764 -0.03127115 -0.026511617
-0.0073017427 -0.034471627 0.015846752 0.044743676 -0.015290429 0.017680861 -0.006289201 -0.04971973
0.026696585 0.11150648 -0.022778116 0.15617661 0.109568484 -0.13499917 -0.014351678 -0.10218591
-0.15779814 0.039077006 0.022440547 -0.054700844 0.08936601 0.072055876 0.011952768 0.05000637
0.020655442 0.03486468 -0.16166335 -0.04037829 -0.07372643 -0.029442826 0.087478854 -0.1222081
0.04531222 0.12881093 -0.026948154 -0.12315098 0.0030305674 0.016546324 -0.109124854 -0.06037141
0.010841981 -0.041230768 -0.12520249 -0.036711037 0.016848544 0.08969246 0.05005586 0.07948237
0.058724195 0.13370746 0.002243809 0.079073645 0.035352256 0.05882977 0.13527025 0.040265802
-0.04738534 0.065133534 0.119083785 0.06827125 0.05494483 0.065264516 -0.031522997 -0.0032857456
-0.10690216 -0.0076703615 0.011649634 -0.04322866 -0.14676408 -0.09855769 -0.109986074 -0.15062153
-0.08409793 -0.022983544 -0.1508381 0.08164893 -0.0030858975 -0.0057223826 0.015670981 0.059718143
0.024480393 0.0018424747 -0.060722485 -0.056474105 0.0048555825 -0.15885322 -0.122459225 -0.15910569
-0.1309345 0.01071666 0.027406326 0.0222161 -0.010896747 -0.006756054 -0.001844167 0.037736267
-0.003769392 0.05141153 -0.056590274 -0.08269675 -0.12047661 0.13711627 0.08782434 -0.010049626
0.12491455 0.1942429 0.044808034 -0.01631361 -0.02047817 0.019795312 0.017207237 0.028390232
0.058313467 0.04229717 0.034359746 0.035338297 -0.009331712 0.007424314 0.013277409 -0.04056846
00000000: 2e43 62bd e393 cd3d 2d67 4d3d 3f3b 803d
00000010: 0cb0 e43d 2200 823d c190 21bc 7241 94bd
00000020: ebcd d9bd eacb 303d 2b95 21bc c5fd aa3a
00000030: eaa5 f53d 27cd 203c 109c c33d 2b1a 243d
00000040: 2b12 973d f70a 07bd 145a 433d 8be3 003e
00000050: 1c8f 8b3d 123d fbba dce0 f73d 8bfe 0c3e
00000060: 0927 533d a80a 123e c802 cc3d d7bb 273d
00000070: 96a7 553d c8b1 bb3d 6f3c dc3c 6f39 8f3d
00000080: 26e4 ad3d 0df5 0c3d a0a0 813d 7bb2 523d
00000090: 9823 d23c f149 5fbd 2875 713c 47a8 16bd
000000a0: 73be 843d ac72 81bd a190 97bd d96d a0bd
000000b0: 5bbd a13d bda6 80bd 5d98 b9bc bfb0 42bd
000000c0: 4092 86bc a167 ddbc a4a3 30bd cff7 acbd
000000d0: fb2f 59bd bd1b 19bd dc46 783b dcf7 d6bc
000000e0: 0229 3abd b193 903d fe24 87bc 94f7 6c3c
000000f0: b188 1d3e 05b7 2f3e 00c2 a23d 23ad ce3d
00000100: a043 013e 35d5 483e 74f6 cd3d bd37 6b3c
00000110: cffe ec3c 695c e93d 0529 1b3d b467 043e
00000120: bcc4 ad3d 527e 203e 8329 113e 49eb 053e
00000130: afc8 ce3d 39f5 c03d a082 a63d bed0 d13d
00000140: edae 573c 6c8a ea3b 6eb3 61bc 73fd 7bbc
00000150: 7ab9 b13d 4529 0c3e ec2b 083c 9f33 b23d
00000160: 6dae d93d 5fce 713b 1bea e33d 2517 fa3d
00000170: b24f 9e3d 1821 853d 6d55 a13d 16f8 5c3d
00000180: 9f18 b73c a8df 49bd e9d1 2d3d 937f a53d
00000190: 18b3 8a3d 66ba 333d bb15 413d c74b f43d
000001a0: 3b47 9e3d 5e88 a13c 0c83 983d 8b6f 693d
000001b0: 2349 323c 53c8 663d 42eb d63d 93db b6ba
000001c0: 1635 8a3d e563 2b3d b761 40bc f9f4 653c
000001d0: adf2 a03c fbb3 45bd 8121 b7bd 1eeb 863c
000001e0: b862 d4bd 171b 203d 56ad 583d a05e d73c
000001f0: de31 d53d 9ef0 a63d b4da 3bbc 3b28 14bd
00000200: accf a73b bba6 753d 7b61 533d 9171 653c
00000210: 0a2f 17bd 5a5a 573d 2d16 00bd e42e d9bc
00000220: 7543 efbb 1f32 0dbd 0cd1 813c 2545 373d
00000230: b584 7abc 74d7 903c a415 cebb eaa6 4bbd
00000240: ccb2 da3c 825d e43d 2c99 babc c3ec 1f3e
00000250: 7165 e03d 393d 0abe 4d23 6bbc d946 d1bd
00000260: d695 21be 360f 203d 3dd5 b73c fe0d 60bd
00000270: 8705 b73d 0892 933d 8bd5 433c 7bd3 4c3d
00000280: 9a35 a93c 44ce 0e3d 148b 25be b563 25bd
00000290: e2fd 96bd 1532 f1bc 1d28 b33d 3e48 fabd
000002a0: 4e99 393d 03e7 033e 60c2 dcbc 9536 fcbd
000002b0: 7c9c 463b 288c 873c da7c dfbd 0348 77bd
000002c0: 90a2 313c 98e1 28bd 1535 00be 505e 16bd
000002d0: f505 8a3c aeb0 b73d 6007 4d3d a7c7 a23d
000002e0: c888 703d 9cea 083e de0c 133b 5df1 a13d
000002f0: 87cd 103d 7cf7 703d 4984 0a3e c1ed 243d
00000300: 2117 42bd bb64 853d 33e2 f33d ccd1 8b3d
00000310: d40d 613d 67a9 853d 421e 01bd aa55 57bb
00000320: 85ef dabd a857 fbbb 1bde 3e3c 8910 31bd
00000330: 5349 16be 9dd8 c9bd 6140 e1bd 883c 1abe
00000340: 893b acbd fc47 bcbc 4e75 1abe 8e37 a73d
00000350: c53c 4abb d382 bbbb 6e60 803c 039b 743d
00000360: 1b8b c83c 317f f13a 24b8 78bd 6451 67bd
00000370: 941b 9f3b 6baa 22be e7cb fabd 9aec 22be
00000380: b213 06be ee94 2f3c 3b83 e03c 8afe b53c
00000390: 4588 32bc e361 ddbb fab7 f1ba 5891 1a3d
000003a0: e707 77bb e594 523d 34cb 67bd ea5c a9bd
000003b0: 71bc f6bd 3568 0c3e 3fdd b33d 30a7 24bc
000003c0: 33d3 ff3d 9ce7 463e a188 373d 1fa4 85bc
000003d0: d6c1 a7bc c729 a23c 31f6 8c3c a292 e83c
000003e0: 1ada 6e3d cc3f 2d3d cebc 0c3d e4be 103d
000003f0: 09e4 18bc a947 f33b 7d89 593c 1d2b 26bd

onnx::Conv_87 f4 [32]
-0.76179963 -0.13984814 -0.15099266 -0.44878182 -0.11373864 0.41638595 0.1464182 0.4158574
0.5479842 0.22237305 0.16194798 0.43848643 -0.16806488 -0.32927576 0.124373496 -0.38158897
0.0940824 -0.023432825 -0.26331216 0.07523855 -0.1510227 0.36607328 0.50125617 0.2404868
-0.121415846 0.21393399 -0.1299007 -0.13985056 -0.22442646 0.11461444 -0.15379569 0.45752478
00000000: 4d05 43bf 5a34 0fbe d29d 1abe bbc6 e5be
00000010: ceef e8bd 8a30 d53e a7ee 153e 43eb d43e
00000020: b148 0c3f c3b5 633e b1d5 253e 4b81 e03e
00000030: 3319 2cbe d596 a8be 88b7 fe3d a15f c3be
00000040: 46ae c03d 32f6 bfbc dad0 86be ab16 9a3d
00000050: b2a5 1abe f56d bb3e 5352 003f 2c42 763e
00000060: dfa8 f8bd 8311 5b3e b004 05be fc34 0fbe
00000070: 0dd0 65be faba ea3d 9e7c 1dbe b040 ea3e

onnx::Conv_89 f4 [32, 16, 1, 1]
0.4302549 0.4511886 -0.40240723 -0.11010038 0.62403065 -0.15445879 0.3597569 0.30759516
0.23621655 -0.14434995 0.15892701 -0.09233681 -0.44617695 0.08138045 -0.5723174 0.38578048
-0.19223417 0.34002614 -0.084799774 0.062354278 -0.12461965 -0.124005824 0.15862255 0.12943669
0.18631293 0.11678545 -0.024234422 -0.01764089 -0.20006369 0.09736567 -0.2301455 -0.17083414
-0.106467396 0.304384 -0.10276077 0.27739137 -0.19658372 -0.021928458 0.2257298 -0.32934478
-0.15422936 -0.17598516 -0.15290654 -0.14378309 -0.32974714 0.07742315 -0.12221589 -0.16776246
0.18702424 0.0040090233 -0.27305025 0.17345233 -0.13370122 -0.09752065 -0.17867765 -0.05446403
-0.014614663 -0.09734745 0.1621933 -0.04646475 -0.09382506 -0.036611147 -0.09557833 0.043536313
0.123963356 0.03337491 0.0014215896 0.26446077 0.25794643 -0.049222507 -0.18871522 0.06314314
0.015298778 -0.20207824 -0.0887579 0.14941496 -0.14474954 -0.21557446 -0.15419377 0.26175106
0.16786768 -0.18336663 0.0012699218 0.15992348 -0.33639082 0.024248693 -0.008961174 -0.057978716
0.026736647 0.18925598 -0.026845153 0.27141485 0.06356174 0.119018234 0.21147054 0.15157297
0.17709091 0.1386467 0.10260062 0.14996912 -0.1405205 0.15828456 0.10967976 -0.11273686
0.1072202 0.14175317 0.09331061 0.13980119 0.12472799 0.13943906 0.09854612 -0.104565896
0.22555456 -0.24082746 0.054050207 -0.036037985 -0.12442513 0.19961911 -0.09927535 -0.2756929
-0.08648868 -0.13873719 -0.28687358 0.12588575 0.117333256 -0.1168453 0.15980165 0.080577984
-0.09792629 -0.16121164 0.040477835 0.24517524 -0.13997972 -0.2613822 0.15155016 0.154649
-0.14368328 -0.14601277 -0.0013473436 0.21388867 0.27776006 0.16367286 -0.2245864 -0.081619434
0.21846657 0.13772254 0.10758646 0.22175406 0.09790428 0.051356036 0.06121288 -0.05886868
-0.067339465 0.17358585 -0.021274872 0.06210155 -0.13039953 0.077191934 -0.26883164 -0.15221243
0.10407915 0.036648393 0.22468948 -0.011682671 -0.17591403 0.15284318 0.027398868 0.1299627
0.13744088 0.13968511 -0.010223149 -0.028603809 0.12798706 0.13094676 -0.19454183 -0.100403056
-0.2525367 0.038086344 -0.21256009 -0.099092945 0.1297072 -0.20221427 0.14491574 -0.04155514
-0.018654611 -0.20357725 0.26074344 0.12010388 0.3301415 0.1833801 -0.14779289 0.076402396
0.14551361 0.12776352 0.19554369 0.13130786 -0.09356279 -0.04075072 0.040720403 -0.12268674
-0.003019921 0.11532569 0.08081817 0.12907545 0.25040326 0.06254032 0.09526976 0.046339277
0.10109186 0.15596834 -0.016863903 0.100557975 -0.20534241 -0.09368494 -0.069915324 0.0060681305
-0.025303015 0.008064651 -0.056595344 0.12700284 0.14373112 -0.022616899 0.07599983 -0.06886828
0.1156142 0.09212513 -0.06173078 -0.006722358 -0.25508988 -0.12619552 0.1530302 0.08896959
0.06338217 0.0017449128 0.080310576 0.19210905 -0.01153724 -0.056221034 0.10867364 0.08391046
0.2542957 0.157242 0.07742444 0.17354134 0.10684272 -0.021203348 -0.013383969 0.11503231
-0.16699779 0.11852056 0.011688965 -0.15173873 0.059977047 -0.10577165 0.1313539 -0.04000587
00000000: 5f4a dc3e 3102 e73e 5208 cebe 4f7c e1bd
00000010: 79c0 1f3f 722a 1ebe 0e32 b83e 1d7d 9d3e
00000020: c0e2 713e 79d0 13be c3bd 223e 151b bdbd
00000030: 4e71 e4be cbaa a63d 6583 12bf 0585 c53e
00000040: 09d9 44be e817 ae3e 81ab adbd 3367 7f3d
00000050: 9638 ffbd c4f6 fdbd f36d 223e 0d8b 043e
00000060: d1c8 3e3e 362d ef3d 4487 c6bc a183 90bc
00000070: 7fdd 4cbe a767 c73d 43ab 6bbe 25ef 2ebe
00000080: 940b dabd 38d8 9b3e 3d74 d2bd 3e06 8e3e
00000090: 3e4d 49be 4fa3 b3bc b625 673e e19f a8be
000000a0: 4dee 1dbe 7435 34be 8893 1cbe e03b 13be
000000b0: 9ed4 a8be 0790 9e3d 534c fabd ecc9 2bbe
000000c0: 4883 3f3e 205e 833b 3ecd 8bbe 7d9d 313e
000000d0: f9e8 08be e8b8 c7bd 46f7 36be ad15 5fbd
000000e0: 5772 6fbc 1a5e c7bd 0016 263e d251 3ebd
000000f0: 5a27 c0bd 92f5 15bd 92be c3bd 2253 323d
00000100: 80e0 fd3d 21b4 083d a254 ba3a 6767 873e
00000110: 8e11 843e 8a9d 49bd 903e 41be 3151 813d
00000120: baa7 7a3c 99ed 4ebe b4c6 b5bd 3c00 193e
00000130: 3939 14be 8dbf 5cbe f9e4 1dbe 3c04 863e
00000140: 81e5 2b3e 76c4 3bbe 8173 a63a fbc2 233e
00000150: 6b3b acbe 32a5 c63c e3d1 12bc 177b 6dbd
00000160: d006 db3c 52cc 413e 5eea dbbc e3f6 8a3e
00000170: a82c 823d d5bf f33d bc8b 583e f235 1b3e
00000180: 5257 353e 67f9 0d3e 4620 d23d 8191 193e
00000190: 9be4 0fbe 5915 223e c89f e03d 95e2 e6bd
000001a0: 4496 db3d be27 113e a219 bf3d 0b28 0f3e
000001b0: 6371 ff3d 1dc9 0e3e 8cd2 c93d a526 d6bd
000001c0: c6f7 663e 799b 76be c063 5d3d 919c 13bd
000001d0: 9ad2 febd f468 4c3e e050 cbbd 9f27 8dbe
000001e0: fa20 b1bd 1f11 0ebe 18e1 92be 32e8 003e
000001f0: 6b4c f03d 974c efbd 0ba3 233e 1206 a53d
00000200: 948d c8bd aa14 25be 16cc 253d 380f 7b3e
00000210: d856 0fbe e3d3 85be f72f 1b3e 4f5c 1e3e
00000220: b621 13be 5f84 15be 5999 b0ba a205 5b3e
00000230: 9136 8e3e dc99 273e faf9 65be 1728 a7bd
00000240: b3b5 5f3e 2307 0d3e 4a56 dc3d 7f13 633e
00000250: 0a82 c83d b55a 523d 5bba 7a3d 4920 71bd
00000260: 46e9 89bd 7dc0 313e a448 aebc 325e 7e3d
00000270: 7487 05be ce16 9e3d 4da4 89be 93dd 1bbe
00000280: 7327 d53d a01c 163d 0015 663e ac68 3fbc
00000290: cf22 34be ec82 1c3e 9773 e03c f114 053e
000002a0: 4dbd 0c3e 9d09 0f3e ff7e 27bc 8952 eabc
000002b0: 0a0f 033e e816 063e f935 47be 1ea0 cdbd
000002c0: 7e4c 81be 6d00 1c3d 5aa9 59be 3ef1 cabd
000002d0: f7d1 043e 4211 4fbe cb64 143e b935 2abd
000002e0: 8ed1 98bc 8e76 50be 2a80 853e 06f9 f53d
000002f0: 4f08 a93e fec7 3b3e 0557 17be dc78 9c3d
00000300: 8501 153e 71d4 023e 9b3c 483e 9175 063e
00000310: d99d bfbd 3aea 26bd 70ca 263d 2f43 fbbd
00000320: dee9 45bb e02f ec3d ff83 a53d 5b2c 043e
00000330: db34 803e 2415 803d cb1c c33d 41ce 3d3d
00000340: 4009 cf3d 2ab6 1f3e 2b26 8abc 57f1 cd3d
00000350: 4845 52be e4dd bfbd c42f 8fbd 2bd7 c63b
00000360: 4548 cfbc 9921 043c 85d0 67bd 080d 023e
00000370: 402e 133e 1347 b9bc cda5 9b3d d00a 8dbd
00000380: 23c7 ec3d 1aac bc3d 6ad9 7cbd 3a47 dcbb
00000390: 249b 82be 6639 01be f3b3 1c3e b035 b63d
000003a0: 83ce 813d 8fb5 e43a df79 a43d 3cb8 443e
000003b0: b106 3dbc 0748 66bd 4990 de3d 3fd9 ab3d
000003c0: 0c33 823e 0c04 213e b490 9e3d d2b4 313e
000003d0: 5bd0 da3d a5b2 adbc 6f48 5bbc 0f96 eb3d
000003e0: 7801 2bbe e8ba f23d 1383 3f3c 6661 1bbe
000003f0: 7eaa 753d cf9e d8bd a381 063e 32dd 23bd

onnx::Conv_90 f4 [32]
-0.5688308 0.22176485 0.5595398 0.18785487 -0.15005061 -0.4175973 -0.74459267 0.07792111
0.08891218 -0.31127387 -0.27520472 0.02781305 -0.63071567 -0.176732 -0.23347107 -0.5774194
0.4000456 -0.22328281 0.14279458 -0.048746735 -0.110225946 -0.25336042 -0.29978332 -0.20144959
0.03900116 -0.12908413 -0.19893056 0.21945402 -0.17601494 0.14584975 -0.198042 -0.1522707
00000000: e59e 11bf 5316 633e 003e 0f3f 075d 403e
00000010: dea6 19be 50cf d5be a09d 3ebf 1a95 9f3d
00000020: 9717 b63d 4a5f 9fbe a2e7 8cbe 32d8 e33c
00000030: 9576 21bf 3cf9 34be 0a13 6fbe c2d1 13bf
00000040: c7d2 cc3e 40a4 64be be38 123e a8aa 47bd
00000050: 24be e1bd 75b8 81be 337d 99be cd48 4ebe
00000060: aebf 1f3d a12e 04be 74b4 4bbe 8eb8 603e
00000070: 433d 34be a359 153e 86cb 4abe daec 1bbe

onnx::Conv_92 f4 [64, 32, 3, 3]
-0.021476794 -0.021649996 -0.027989436 -0.00202822 -0.021841647 -0.025667574 0.017788451 0.033330306
0.025145002 -0.01533548 -0.01825525 -0.009774549 -0.010626618 -0.009878714 0.0029727933 0.013709461
0.021335937 0.023765158 -0.020814305 -0.030115133 -0.03008167 0.011400217 0.0014381558 -0.016411683
0.018350022 0.016488124 0.004084469 -0.0071750297 -0.007430113 -0.010065984 -0.0011997669 0.0060206396
-0.0021634968 0.02519819 0.0069811326 0.0068981494 -0.0091851 -0.008684728 -0.009322008 0.0056372155
0.007293381 0.0018562276 0.017040337 0.010874411 0.006476231 0.0021804678 0.0029136708 -0.006774936
-0.0052892556 -0.009402617 -0.0065326937 -0.015879164 -0.011740478 -0.008970284 0.0028470508 0.0041799187
0.006867568 -0.00542839 -0.004229763 0.0009343577 -0.006779127 -0.008330929 -0.009253109 0.013221275
0.014853805 -0.0030522125 -0.0069952137 -0.0069234786 -0.008279551 -0.008505709 -0.009760634 -0.011796039
0.006236527 0.0051723868 0.009505765 0.011245087 0.012123884 0.005805253 -0.00504308 -0.0073583173
-0.0074118045 -0.009758018 -0.011001088 -0.011981419 -0.010816144 -0.007632223 -1.2122307e-06 -0.00844365
-0.004906789 0.002942638 -0.00729257 -0.008312049 0.0040149214 -0.008758515 -0.009257495 0.013884649
0.013381903 0.011453976 0.029779438 -0.01891496 -0.016921908 -0.0040877117 -0.0023960616 -0.016780082
-0.0028145267 -0.006315743 -0.0046640276 -0.0034138835 -0.007614665 -0.0076414286 0.0059846393 -0.007557543
-0.011385907 0.00118816 0.008629995 0.0014308956 0.019417059 -0.0033581518 -0.0015761877 -0.009172372
0.0036128215 -0.007252592 -6.437037e-05 0.00052905944 0.0024284115 -0.0019220188 -0.011415773 -0.010825305
-0.0067923297 -0.012920685 -0.013160963 -0.011010304 -0.0147356875 -0.009577871 -0.01527896 -0.0050645065
-0.0016852767 -0.008509366 -0.0019095724 -0.0028153823 -0.006961851 -0.007745827 -0.0046116076 -0.008870013
-0.0045651547 -0.008383872 -0.014791715 -0.0024419434 -0.0022805613 -0.008344861 -0.004144163 -0.0055183186
-0.011845618 -0.008626313 -0.009200563 0.0018655618 -0.009869314 -0.014311322 -0.006717841 -0.012491248
-0.00880446 -0.00018447166 -0.00849225 -0.0049110837 -0.0039674602 -0.0023901258 0.005390559 0.0049301176
-0.010416279 -0.0071608764 -0.008067101 -0.011574426 -0.008314067 -0.020978885 -0.01341407 -0.010180718
-0.014305058 -0.009761715 -0.0015997175 -0.016798783 -0.020246632 -0.02604631 -0.020658927 -0.010811472
-0.01474873 -0.01753081 -0.0010898368 0.0010607947 0.0069076936 -0.010592033 -0.013043796 -0.007650082
-0.008732649 -0.009825931 -0.007419063 -0.015022826 -0.019985463 -0.024131302 -0.0015355169 -0.012277425
0.010289249 0.011797782 0.002805568 0.006834715 0.049015447 0.030129924 0.045384586 0.0079392325
0.00706205 0.011455289 0.0022856484 0.002590858 -2.3209877e-05 0.0036091113 -0.0018876533 -0.0030908992
-0.010780052 -0.015705323 -0.010686287 -0.00600873 -0.005162025 -0.007663019 0.0071684755 -0.00017143085
0.006009173 -0.011923868 -0.017638035 -0.013432327 0.0063886736 0.0012660448 -0.0012238317 -0.0019533762
-0.0008964924 -0.00060999655 0.004672129 -0.0016329389 -0.004560034 -0.00078259467 0.0027237304 -0.009307374
0.009495939 0.007523686 0.0071397903 -0.0020182997 -0.006361826 -0.016163802 0.0123802805 0.009759356
0.009152776 0.00450235 -0.0019636468 -0.0020436847 -0.005384532 -0.006863694 -0.02555884 -0.0066276183
00000000: 1af0 afbc 555b b1bc 1a4a e5bc e3eb 04bb
00000010: 41ed b2bc ce44 d2bc 16b9 913c 5c85 083d
00000020: e4fc cd3c aa41 7bbc 098c 95bc 6e25 20bc
00000030: 441b 2ebc 54da 21bc 32d3 423b a69d 603c
00000040: b4c8 ae3c 26af c23c c382 aabc 03b4 f6bc
00000050: d66d f6bc fac7 3a3c 8080 bc3a cb71 86bc
00000060: c952 963c 1a12 873c 02d7 853b 831c ebbb
00000070: 4e78 f3bb cceb 24bc 7f41 9dba c948 c53b
00000080: 74c9 0dbb 6f6c ce3c fcc1 e43b df09 e23b
00000090: 1a7d 16bc 644a 0ebc 56bb 18bc 64b8 b83b
000000a0: 50fd ee3b aa4c f33a 2d98 8b3c 962a 323c
000000b0: 9036 d43b 2ee6 0e3b 49f3 3e3b 4800 debb
000000c0: 7e51 adbb 6f0d 1abc 3510 d6bb 0515 82bc
000000d0: 225b 40bc 19f8 12bc 9695 3a3b b3f7 883b
000000e0: 5609 e13b a3e0 b1bb d399 8abb afef 743a
000000f0: 7023 debb 737e 08bc 5a9a 17bc 0c9e 583c
00000100: 605d 733c a107 48bb 1b38 e5bb 59de e2bb
00000110: f4a6 07bc 875b 0bbc 11eb 1fbc 2c44 41bc
00000120: c85b cc3b 207d a93b 11be 1b3c 503d 383c
00000130: 41a3 463c fe39 be3b 6c40 a5bb 0a1e f1bb
00000140: b9de f2bb 18e0 1fbc e83d 34bc b74d 44bc
00000150: 3236 31bc ba17 fabb eeb3 a2b5 3c57 0abc
00000160: 21c9 a0bb 46d9 403b 83f6 eebb 432f 08bc
00000170: 9a8f 833b e07f 0fbc c0ac 17bc 707c 633c
00000180: c53f 5b3c 75a9 3b3c 02f4 f33c 8cf3 9abc
00000190: d09f 8abc 36f2 85bb 3e07 1dbb 6276 89bc
000001a0: ec73 38bb 4bf4 cebb b3d4 98bb 76bb 5fbb
000001b0: 7184 f9bb f364 fabb cb1a c43b 44a5 f7bb
000001c0: f58b 3abc 09bc 9b3a d364 0d3c e48c bb3a
000001d0: 8610 9f3c 7014 5cbb 1598 ceba b747 16bc
000001e0: 16c5 6c3b 27a7 edbb 94fe 86b8 94b0 0a3a
000001f0: fc25 1f3b 40ec fbba 3909 3bbc 9f5c 31bc
00000200: 3192 debb 48b1 53bc 14a1 57bc 9064 34bc
00000210: f46d 71bc 81ec 1cbc 9a54 7abc 29f4 a5bb
00000220: 81e4 dcba de6a 0bbc 9e4a faba 4782 38bb
00000230: 3d20 e4bb b5d0 fdbb f81c 97bb 8853 11bc
00000240: 4b97 95bb 825c 09bc f358 72bc 0309 20bb
00000250: 7875 15bb e2b8 08bc c2cb 87bb 03d3 b4bb
00000260: 1f14 42bc 6155 0dbc f5bd 16bc de85 f43a
00000270: e7b2 21bc 097a 6abc 5621 dcbb 17a8 4cbc
00000280: 9540 10bc bc6e 41b9 1423 0bbc 28ed a0bb
00000290: 7801 82bb a8a3 1cbb 49a3 b03b d38c a13b
000002a0: 0aa9 2abc c9a5 eabb e02b 04bc a9a2 3dbc
000002b0: b937 08bc e9db abbc b0c6 5bbc 07cd 26bc
000002c0: c35f 6abc 9aef 1fbc 9dad d1ba 9a9d 89bc
000002d0: 44dc a5bc 125f d5bc e93c a9bc 9a22 31bc
000002e0: a8a4 71bc c69c 8fbc dbd8 8eba 5d0a 8b3a
000002f0: ef59 e23b 358a 2dbc a5b5 55bc 8aad fabb
00000300: 6213 0fbc f1fc 20bc 9c1b f3bb 4d22 76bc
00000310: 8eb8 a3bc 02af c5bc 6643 c9ba 4127 49bc
00000320: 3d94 283c 7c4b 413c 9fdd 373b bff5 df3b
00000330: 6cc4 483d 08d3 f63c 30e5 393d 8e13 023c
00000340: c568 e73b f7ae 3b3c d1ca 153b 62cb 293b
00000350: d5b2 c2b7 d786 6c3b 226b f7ba af90 4abb
00000360: d19e 30bc 73a8 80bc 8915 2fbc e1e4 c4bb
00000370: 3426 a9bb 101a fbbb 88e5 ea3b 1ec2 33b9
00000380: 99e8 c43b 545c 43bc a47d 90bc 4313 5cbc
00000390: 1458 d13b 6af1 a53a fa68 a0ba 3704 00bb
000003a0: 9602 6bba 2de8 1fba a918 993b 5608 d6ba
000003b0: 566c 95bb 0a27 4dba 9d80 323b f57d 18bc
000003c0: db94 1b3c 4189 f63b e7f4 e93b 7345 04bb
000003d0: dd76 d0bb f369 84bc a9d6 4a3c b5e5 1f3c
000003e0: 86f5 153c 7388 933b 87b0 00bb 57ef 05bb
000003f0: ba70 b0bb d7e8 e0bb c660 d1bc 7e2c d9bb

onnx::Conv_93 f4 [64]
0.13469507 -0.03481567 -0.20321122 0.34659424 -0.19685552 0.118117385 0.08939628 -0.36934373
0.021839127 -0.18478231 -0.3165174 0.06464802 0.07519053 0.21258648 -0.21905246 -0.038727738
-0.06683834 -0.19058333 0.18368287 0.09382913 -0.1191692 0.008445191 -0.23316632 0.07461857
-0.28319043 0.2791801 0.025179096 0.1654052 -0.16099355 0.20208253 0.17102413 0.007671131
0.0531806 -0.11672218 0.14360152 0.27344722 -0.005903015 -0.1342504 0.18106283 -0.073453486
0.10455107 0.005150779 -0.1706696 0.20005925 -0.06273289 0.0048627947 -0.05364832 0.1144002
0.026359593 -0.0277128 0.07953607 -0.12380166 -0.08387034 0.04137111 -0.13777235 0.04262259
-0.175302 -0.020799974 -0.11144165 -0.03972995 0.17161795 0.0822217 -0.2673423 -0.013480696
00000000: 81ed 093e e09a 0ebd 9a16 50be cd74 b13e
00000010: 7e94 49be 87e7 f13d 6615 b73d 9f1a bdbe
00000020: f8e7 b23c 9337 3dbe 920e a2be 2e66 843d
00000030: 7efd 993d 45b0 593e 4a4f 60be faa0 1ebd
00000040: 8ae2 88bd 4728 43be 5d17 3c3e 7d29 c03d
00000050: fb0e f4bd b35d 0a3c 27c3 6ebe 9fd1 983d
00000060: 56fe 90be b2f0 8e3e 6444 ce3c fb5f 293e
00000070: 7edb 24be b9ee 4e3e f320 2f3e 1c5e fb3b
00000080: e7d3 593d 0a0c efbd 470c 133e 4601 8c3e
00000090: 146e c1bb f078 09be 8968 393e c86e 96bd
000000a0: df1e d63d dec7 a83b 03c4 2ebe 55dc 4c3e
000000b0: 1a7a 80bd 1458 9f3b 57be 5bbd a74a ea3d
000000c0: 13f0 d73c f405 e3bc cfe3 a23d ba8b fdbd
000000d0: 36c4 abbd c174 293d 3214 0dbe 0695 2e3d
000000e0: 5e82 33be b564 aabc 853b e4bd dfbb 22bd
000000f0: 9ebc 2f3e da63 a83d 17e1 88be 23de 5cbc

onnx::Conv_95 f4 [64, 64, 3, 3]
-0.015277605 -0.0029686172 0.02722394 0.050342467 0.065284565 0.07867063 0.080428734 0.062028334
0.09563127 0.12733999 -0.006472957 0.009595552 -0.05242516 -0.11494249 -0.15460098 -0.16105731
-0.14230554 -0.12212294 -0.0065125534 0.013235434 -0.026365409 0.0018061489 0.007398533 -0.09420793
-0.0767396 -0.07323791 -0.016228799 -0.22384301 -0.13333577 -0.114414215 0.028486667 0.049705375
0.15411063 0.101280615 0.13396107 0.17530902 0.01674138 -0.15059584 0.055234328 -0.09975648
-0.061482415 -0.08711976 -0.02828601 -0.07176466 0.06978442 -0.045638174 -0.037775148 -0.08978506
-0.00869635 0.014073227 0.029315175 0.043535795 0.037628252 0.037243307 -0.08807912 -0.14304782
-0.058793582 0.006747589 0.0049071093 0.097177155 0.024585893 0.040895596 0.08407776 -0.13320872
0.023799095 -0.004289424 0.01835441 0.08794353 0.10180155 -0.011771053 0.03930358 0.030846005
-0.07466871 -0.09801291 -0.013116329 -0.14477363 -0.09379033 -0.09774428 -0.11977929 -0.0049060504
-0.007330327 0.07790102 0.024542112 -0.16783513 -0.11234615 0.09969742 -0.024383934 -0.11341971
0.03301489 -0.004333888 0.06256512 0.09982558 0.03320495 0.14537935 0.13037403 0.20742628
0.083285 -0.027858427 0.06926765 0.074409604 0.006597769 -0.09602003 0.06802986 -0.059580233
-0.016862983 0.03349722 -0.1119335 -0.14754438 0.035467345 0.01411202 0.035134777 0.027961401
-0.0121799875 -0.03691906 0.043787524 0.03304978 0.0449181 -0.06254486 -0.031358715 0.00412993
0.018294482 -0.0083144875 0.015501291 0.04265345 0.047243968 0.104473315 0.11351723 0.10480145
0.08739009 0.028432375 -0.007715708 -0.0017498677 0.044712365 0.047479533 0.020728778 -0.04890212
-0.11937045 -0.09308024 0.05938047 0.05653698 0.009347396 -0.039796688 -0.025798373 0.004771897
-0.03410567 -0.04921671 -0.016950505 -0.002489331 -0.05638326 -0.03564022 -0.03959932 -0.01457828
-0.012019911 0.10379094 0.06366072 0.04037988 0.03139675 -0.031223763 0.09986492 0.036514275
-0.028193532 -0.020319318 0.053726234 -0.015533683 0.11925442 0.068155944 0.07226242 -0.0533432
-0.07039518 -0.044041526 -0.052538417 -0.02182545 -0.031462274 0.05623505 -0.00036262092 -0.07485686
0.15049903 -0.10758407 0.0033384513 0.06960977 -0.004132218 -0.08112427 -0.080425516 -0.028105525
-0.05892411 -0.06438935 -0.012266283 -0.017296625 -0.026805598 0.02638631 -0.03363097 0.021440692
0.01818894 -0.08001822 0.0034964718 0.024631325 0.030412013 0.10701212 0.07777534 0.05497103
-0.0945392 -0.097941056 0.09957186 -0.025807051 -0.03633668 0.0724601 -0.0013032902 -0.04307184
-0.030491011 -0.0063065337 -0.03167687 -0.0034304685 0.004460426 0.007930705 0.021904573 0.031751987
-0.001785942 -0.01634046 0.007279266 -0.15471695 -0.11565573 -0.19178711 -0.15097396 -0.25555226
-0.07765812 -0.00043430412 -0.08858169 -0.072598934 0.08957903 0.053241786 0.14514038 0.18286067
0.141697 0.15106177 0.14963555 0.24023102 0.1990929 0.108224705 0.13150783 -0.03210119
-0.12276944 -0.070136145 -0.09834336 -0.030608838 0.010671702 -0.025736568 0.0033336054 0.1758231
0.043392785 0.03683092 -0.018506866 -0.012295377 0.079095736 -0.11458692 -0.076966174 -0.17080356
00000000: eb4e 7abc 228d 42bb bd04 df3c e733 4e3d
00000010: eab3 853d 111e a13d d2b7 a43d 6c11 7e3d
00000020: 54da c33d 6a65 023e 191b d4bb aa36 1d3c
00000030: c4bb 56bd f866 ebbd b84f 1ebe 35ec 24be
00000040: 8bb8 11be 981b fabd 4267 d5bb 6fd9 583c
00000050: 45fc d7bc 4dbc ec3a 656f f23b 16f0 c0bd
00000060: a729 9dbd c2fd 95bd 42f2 84bc 1a37 65be
00000070: 2c89 08be 0052 eabd df5c e93c dd97 4b3d
00000080: 2dcf 1d3e 366c cf3d 172d 093e 3584 333e
00000090: 3825 893c cc35 1abe 643d 623d 204d ccbd
000000a0: fcd4 7bbd d86b b2bd 10b8 e7bc 5af9 92bd
000000b0: 22eb 8e3d 18ef 3abd 1dba 1abd 3be1 b7bd
000000c0: 237b 0ebc 6493 663c 6126 f03c 9752 323d
000000d0: 1520 1a3d 708c 183d d362 b4bd 217b 12be
000000e0: 8ad1 70bd e11a dd3b d1cb a03b d104 c73d
000000f0: 5b68 c93c 2482 273d f630 ac3d de67 08be
00000100: 52f6 c23c 4c8e 8cbb fd5b 963c bd1b b43d
00000110: 557d d03d 60db 40bc cafc 203d c3b0 fc3c
00000120: e9eb 98bd feba c8bd dfe5 56bc 8a3f 14be
00000130: 2515 c0bd 272e c8bd d84e f5bd efc2 a0bb
00000140: 3d33 f0bb 928a 9f3d 8a0c c93c f9dc 2bbe
00000150: bd15 e6bd 292e cc3d d1c0 c7bc 9848 e8bd
00000160: 9f3a 073d 4a03 8ebb 2422 803d 5b71 cc3d
00000170: ea01 083d 53de 143e c580 053e 8e67 543e
00000180: 5391 aa3d 5b37 e4bc 33dc 8d3d 1064 983d
00000190: 1932 d83b 26a6 c4bd 3d53 8b3d 670a 74bd
000001a0: 3d24 8abc 6234 093d 643d e5bd e015 17be
000001b0: 3546 113d 1a36 673c 7ce9 0f3d 4f0f e53c
000001c0: 928e 47bc 7138 17bd 8c5a 333d 355f 073d
000001d0: 0bfc 373d 8517 80bd ff71 00bd 5d54 873b
000001e0: 4fde 953c 7d39 08bc 20f9 7d3c 62b5 2e3d
000001f0: e482 413d 1bf6 d53d b97b e83d 25a2 d63d
00000200: 93f9 b23d 03eb e83c 0dd4 fcbb d15b e5ba
00000210: 5024 373d e679 423d 66cf a93c 974d 48bd
00000220: 7f78 f4bd daa0 bebd f038 733d 5293 673d
00000230: d225 193c da01 23bd 1c57 d3bc 935d 9c3b
00000240: 63b2 0bbd 7697 49bd c9db 8abc 0b24 23bb
00000250: 22f2 66bd 7bfb 11bd e632 22bd bdd9 6ebc
00000260: 29ef 44bc 5890 d43d 8d60 823d 6065 253d
00000270: e199 003d fac8 ffbc fb85 cc3d fe8f 153d
00000280: 1ff6 e6bc b374 a6bc 0a10 5c3d fd80 7ebc
00000290: a93b f43d 5895 8b3d 52fe 933d 667e 5abd
000002a0: 592b 90bd e364 34bd 8632 57bd 49cb b2bc
000002b0: 96de 00bd b956 663d 281e beb9 8e4e 99bd
000002c0: 6b1c 1a3e 0955 dcbd ebc9 5a3b 918f 8e3d
000002d0: 8f67 87bb 7b24 a6bd 22b6 a4bd 8f3d e6bc
000002e0: 685a 71bd 90de 83bd 85f8 48bc a7b1 8dbc
000002f0: 6a97 dbbc 1a28 d83c a1c0 09bd 64a4 af3c
00000300: f900 953c 98e0 a3bd 1025 653b a2c7 c93c
00000310: 9d22 f93c 2c29 db3d ad48 9f3d 4e29 613d
00000320: c59d c1bd 5295 c8bd 55ec cb3d 4f69 d3bc
00000330: c5d5 14bd f665 943d 2ad3 aaba 196c 30bd
00000340: 49c8 f9bc 0aa7 cebb 9bbf 01bd b6d1 60bb
00000350: c428 923b caef 013c 3871 b33c 5f0e 023d
00000360: 4516 eaba 6edc 85bc e986 ee3b 1f6e 1ebe
00000370: e9dc ecbd d763 44be eb98 1abe bfd7 82be
00000380: 380b 9fbd 50b3 e3b9 516a b5bd c0ae 94bd
00000390: 3675 b73d 0f14 5a3d ae9f 143e d43f 3b3e
000003a0: 0519 113e f0af 1a3e 103a 193e 1fff 753e
000003b0: 02df 4b3e eaa4 dd3d fda9 063e 8a7c 03bd
000003c0: 8b6e fbbd 8aa3 8fbd 3e68 c9bd 63bf fabc
000003d0: 5dd8 2e3c 7fd5 d2bc 9e78 5a3b f90a 343e
000003e0: a2bc 313d 05dc 163d b69b 97bc 8d72 49bc
000003f0: f2fc a13d 8cac eabd 71a0 9dbd 21e7 2ebe

onnx::Conv_96 f4 [64]
0.19023547 0.16309847 0.06658667 -0.03721381 0.07094678 -0.02212704 0.04539286 0.012711021
-0.87436634 0.010396005 0.03720243 0.00020811101 0.08720761 0.015651196 -0.476167 0.05529178
0.09627451 0.2136122 -0.007004455 0.04879001 0.0042762635 0.005630227 0.38895196 0.19761343
0.120562784 0.08694428 0.059770145 0.10739981 0.064397916 0.43705794 0.055701144 0.00442152
0.0007318547 -0.0396819 0.057281166 0.024470566 -0.0003551424 -0.017473554 0.06647936 0.08825455
0.20621546 0.015557238 -0.36911607 0.013461083 -0.46207812 -0.030766862 0.32688704 0.065547146
-0.0061589405 -0.008132082 0.18265867 0.009187941 0.105374865 -0.45825252 0.21876101 0.16035351
-0.2668011 -0.30346617 0.019014355 -0.015321152 -0.50005406 -0.52982837 0.14905189 0.27867097
00000000: 16cd 423e 4903 273e 985e 883d 826d 18bd
00000010: 8c4c 913d c443 b5bc dded 393d e341 503c
00000020: 79d6 5fbf 0154 2a3c 9361 183d 6038 5a39
00000030: e799 b23d f036 803c 29cc f3be a279 623d
00000040: 922b c53d 28bd 5a3e a185 e5bb 09d8 473d
00000050: e61f 8c3b c47d b83b b624 c73e 2d5b 4a3e
00000060: 9fe9 f63d d80f b23d 8ad1 743d 6ef4 db3d
00000070: 0ee3 833d 0fc6 df3e e226 643d 66e2 903b
00000080: f0d9 3f3a 7d89 22bd a89f 6a3d 7f76 c83c
00000090: 6832 bab9 b324 8fbc 5526 883d cdbe b43d
000000a0: 252a 533e c9e3 7e3c c8fc bcbe e08b 5c3c
000000b0: 8195 ecbe c90a fcbc bd5d a73e 953d 863d
000000c0: f0d0 c9bb 6d3c 05bc e00a 3b3e 0589 163c
000000d0: c7ce d73d 13a0 eabe e302 603e b633 243e
000000e0: 279a 88be eb5f 9bbe fec3 9b3c 9205 7bbc
000000f0: 8b03 00bf d5a2 07bf 0fa1 183e f6ad 8e3e
