cmd/ai/datas/models/fruit.onnx (onnx, 303058 bytes, 16 tensors)

fc.weight f4 [2, 256]
0	0x001e8781	2.803675e-39
1	0x800d8f04	-1.245166e-39
2	0x00056e38	4.98717e-40
3	0x80311ba1	-4.50985e-39
4	0xbd8f3e17	-0.069942646
5	0xbd987509	-0.07444198
6	0xbc6fb696	-0.014630934
7	0xbc7465d1	-0.014916853
8	0x001cc74e	2.642891e-39
9	0x0021c372	3.100684e-39
10	0x001a0e6a	2.392894e-39
11	0x8016aa4c	-2.081472e-39
12	0x801e26b6	-2.768952e-39
13	0x801b5d1c	-2.51296e-39
14	0x801a068c	-2.390071e-39
15	0x801a90e8	-2.439705e-39
16	0x3cc97f72	0.024596903
17	0x3dc35ca9	0.09539158
18	0x3dc765e3	0.0973623
19	0x3e439f76	0.19103798
20	0x3092931d	1.066471e-09
21	0x30928f3a	1.0663606e-09
22	0x309291d8	1.0664349e-09
23	0x30928ea4	1.0663439e-09
24	0x000daab5	1.2551e-39
25	0x800f9fed	-1.434903e-39
26	0x0012f0c5	1.739411e-39
27	0x80078a0c	-6.9237e-40
28	0x807b3198	-1.1313557e-38
29	0x807ff4a2	-1.1750866e-38
30	0x807e067b	-1.1573597e-38
31	0x007a51ef	1.1233323e-38
32	0xbb06a2a6	-0.0020543723
33	0xbb0a3c1d	-0.002109296
34	0xbb152f90	-0.0022763945
35	0xbb1853ab	-0.002324323
36	0x80586cc7	-8.120546e-39
37	0x8061870e	-8.956492e-39
38	0x0073df3d	1.0641165e-38
39	0x00782cd0	1.1036335e-38
40	0x001ad227	2.463111e-39
41	0x80097761	-8.69345e-40
42	0x00130507	1.746678e-39
43	0x000ff9f2	1.467196e-39
44	0x801cded5	-2.651331e-39
45	0x8019dd60	-2.375302e-39
46	0x001c9760	2.625697e-39
47	0x801500ae	-1.928789e-39
48	0x00348ef4	4.826728e-39
49	0x00146806	1.874027e-39
50	0x80185131	-2.233178e-39
51	0x80093035	-8.43813e-40
52	0x3c2b6394	0.010460753
53	0x3d89692c	0.06709513
54	0x3da9efdb	0.08297702
55	0x3e1879f1	0.14890267
56	0x80459ce2	-6.392928e-39
57	0x8041f9d0	-6.058923e-39
58	0x80124722	-1.678557e-39
59	0x8011e11d	-1.641959e-39
60	0x00db1fcf	2.0123384e-38
61	0x80151467	-1.935864e-39
62	0x807dcf4d	-1.1553803e-38
63	0x804d5fc2	-7.105685e-39
64	0x802f56bf	-4.347387e-39
65	0x8026f697	-3.578209e-39
66	0x001d3857	2.68344e-39
67	0x0021ecb0	3.115479e-39
68	0x806a2695	-9.748403e-39
69	0x80778cd1	-1.097894e-38
70	0x80ae454f	-1.600424e-38
71	0x80ab3189	-1.572164e-38
72	0x0030ad42	4.470257e-39
73	0x00304cf5	4.435711e-39
74	0x002f2f58	4.333252e-39
75	0x002fda96	4.394682e-39
76	0x0011183a	1.569894e-39
77	0x00104f6c	1.497859e-39
78	0x001091f3	1.521725e-39
79	0x0013183e	1.753571e-39
80	0x005a5c9a	8.298414e-39
81	0x0062855a	9.047716e-39
82	0x0064c0a9	9.252663e-39
83	0x006817db	9.55945e-39
84	0x1a0a8c24	2.8650936e-23
85	0x1a0705f2	2.7922148e-23
86	0x1932204b	9.208906e-24
87	0x194d7203	1.0621276e-23
88	0xbd5e7e10	-0.05431944
89	0xbd7dba6f	-0.061945375
90	0xbd542300	-0.05179119
91	0xbd685415	-0.056720812
92	0xbe1161d2	-0.14197472
93	0xbe238443	-0.15968423
94	0xbe037c36	-0.12840351
95	0xbe2460e1	-0.16052581
96	0x8007f14b	-7.29408e-40
97	0x800341e7	-2.99148e-40
98	0x800cb3ed	-1.166571e-39
99	0x800ba504	-1.069387e-39
100	0x8040b516	-5.942433e-39
101	0x00110df5	1.56621e-39
102	0x00222edf	3.139221e-39
103	0x8010028f	-1.470286e-39
104	0x803c77ae	-5.553063e-39
105	0x80364d54	-4.986857e-39
106	0x80496236	-6.739223e-39
107	0x0046b784	6.494318e-39
108	0x000d57a9	1.225308e-39
109	0x000e58b6	1.31752e-39
110	0x802002c9	-2.939735e-39
111	0x801be484	-2.561534e-39
112	0x0023a29c	3.272576e-39
113	0x0026a453	3.548697e-39
114	0x8006949f	-6.04328e-40
115	0x800f8107	-1.423819e-39
116	0xbe31727f	-0.17328833
117	0xbe44abfb	-0.1920623
118	0xbe1b04f4	-0.15138608
119	0xbe388cb3	-0.18022422
120	0x00abbdd5	1.5771969e-38
121	0x00a939c2	1.5540918e-38
122	0x80aaffb8	-1.5703769e-38
123	0x00b2d498	1.6422983e-38
124	0x003d98c1	5.656763e-39
125	0x0041a22f	6.027488e-39
126	0x0034946f	4.828694e-39
127	0x003b3184	5.436057e-39
128	0x806f7541	-1.0235803e-38
129	0x0070a2b4	1.0343942e-38
130	0x80735f60	-1.0595296e-38
131	0x00734d06	1.0588713e-38
132	0x00686d0e	9.590013e-39
133	0x0069e9a4	9.726542e-39
134	0x006c0c9c	9.922757e-39
135	0x006e5d3b	1.013535e-38
136	0x330b69a6	3.2459546e-08
137	0x330e233f	3.3094008e-08
138	0x32ee9af2	2.7777308e-08
139	0x32f4e67b	2.8510149e-08
140	0x8032300c	-4.609011e-39
141	0x00098dd3	8.77396e-40
142	0x001fd6b2	2.923919e-39
143	0x0004aa3f	4.28415e-40
144	0x002418a3	3.314916e-39
145	0x80413dab	-5.99143e-39
146	0x0033c9d2	4.75601e-39
147	0x0010f917	1.558725e-39
148	0x8011f4ca	-1.649017e-39
149	0x8013b334	-1.80916e-39
150	0x80112ec4	-1.57798e-39
151	0x8006238c	-5.63765e-40
152	0x0015d5c4	2.00523e-39
153	0x8018cb48	-2.276975e-39
154	0x802a6fdf	-3.897223e-39
155	0x801e84d9	-2.802722e-39
156	0x805ff109	-8.810839e-39
157	0x806caf3b	-9.981094e-39
158	0x80680c54	-9.555314e-39
159	0x805d5ea0	-8.574646e-39
160	0x804e9bcb	-7.219057e-39
161	0x805253c6	-7.560563e-39
162	0x005bd1cc	8.432291e-39
163	0x00555059	7.83484e-39
164	0x004c44a9	7.004128e-39
165	0x00475742	6.551622e-39
166	0x004c31e6	6.997398e-39
167	0x00476c24	6.559114e-39
168	0xbd2b6c9e	-0.041851632
169	0xbd33344f	-0.043751057
170	0xbbb647f2	-0.005562776
171	0xbbd98ac7	-0.006638858
172	0x0011078e	1.563914e-39
173	0x8015044c	-1.930087e-39
174	0x8004670d	-4.0431e-40
175	0x000ded8c	1.279077e-39
176	0x3d01f5bc	0.03172849
177	0x3d62e630	0.055395305
178	0x3e2c13bb	0.16804402
179	0x3e7506bc	0.2392835
180	0x3bc0bb7f	0.0058817263
181	0x3daf3ea4	0.085568696
182	0x3d46fc16	0.04858025
183	0x3e0133d4	0.12617427
184	0xbe3773a1	-0.17915203
185	0xbe24ea8c	-0.16105098
186	0xbe3b6071	-0.18298508
187	0xbe30a9ff	-0.17252348
188	0x002a0702	3.859605e-39
189	0x0020bbe6	3.006141e-39
190	0x800ac8ac	-9.90342e-40
191	0x801cffe5	-2.663192e-39
192	0x800d3527	-1.212929e-39
193	0x0010b282	1.533404e-39
194	0x8009681b	-8.63865e-40
195	0x801523c6	-1.941379e-39
196	0x0087116e	1.2404045e-38
197	0x0086f730	1.239463e-38
198	0x008928b9	1.2596072e-38
199	0x009311fe	1.3506272e-38
200	0x3cb797dd	0.022411281
201	0x3da84d72	0.082178965
202	0x3e32596a	0.17416921
203	0x3e8a56d1	0.2701936
204	0x0034ee74	4.860987e-39
205	0x002ec495	4.294953e-39
206	0x0031c929	4.572102e-39
207	0x0033b569	4.748688e-39
208	0xbdd6a201	-0.104801185
209	0xbde9ec4b	-0.114220224
210	0xbde3e7a5	-0.11128167
211	0xbdd16a75	-0.10225383
212	0x8045acbf	-6.398619e-39
213	0x0048aea4	6.674805e-39
214	0x001aa7d5	2.44793e-39
215	0x8014edc4	-1.922004e-39
216	0xbe109947	-0.1412097
217	0xbe31acd4	-0.17351085
218	0xbe1c6e39	-0.15276422
219	0xbe1b23e6	-0.15150413
220	0x80407703	-5.920165e-39
221	0x803c8e9a	-5.561286e-39
222	0x800e31a4	-1.303505e-39
223	0x804b75b0	-6.92988e-39
224	0x3225558e	9.623717e-09
225	0x322c2bda	1.0021688e-08
226	0x321dc363	9.183029e-09
227	0x32253ead	9.618515e-09
228	0x80357e3a	-4.912563e-39
229	0x8035558d	-4.897971e-39
230	0x802e8dbf	-4.275282e-39
231	0x8031e8f1	-4.583503e-39
232	0x32d6c634	2.5003011e-08
233	0x32d6b9af	2.4997318e-08
234	0x32d67c79	2.4969482e-08
235	0x32d66f6f	2.4963553e-08
236	0x8048e0e5	-6.692833e-39
237	0x001b8ac0	2.529333e-39
238	0x8019944a	-2.349083e-39
239	0x801b102e	-2.485363e-39
240	0x0053bee3	7.690823e-39
241	0x006664fd	9.403448e-39
242	0x00558317	7.853043e-39
243	0x005afd42	8.356046e-39
244	0xbb47db02	-0.003049553
245	0xbb4393a8	-0.0029842649
246	0xbb4aa162	-0.0030918946
247	0xbb468042	-0.003028885
248	0xbdf0bdcd	-0.117549516
249	0xbe0835da	-0.13301793
250	0xbd404955	-0.046944935
251	0xbd60429d	-0.054751027
252	0xbdceff12	-0.101072446
253	0xbdedb3fb	-0.11606594
254	0xbde90f7b	-0.11379906
255	0xbdfb6c1e	-0.12276481

fc.bias f4 [2]
0	0xbd17afc9	-0.037032876
1	0x3dc43b10	0.09581578

onnx::Conv_80 f4 [16, 3, 7, 7]
0	0xbe0739ab	-0.13205592
1	0xbddd22d9	-0.10797662
2	0xbc44cda0	-0.012011915
3	0x3dab39d1	0.08360637
4	0x3cd4b516	0.025965255
5	0x3dd8915e	0.105746016
6	0xbc3f69df	-0.0116829565
7	0xbe42c1f8	-0.19019306
8	0xbdb7c277	-0.08972638
9	0x3da334fb	0.079690896
10	0x3e1fdd7f	0.15611838
11	0x3ddd70c6	0.108125255
12	0x3da8d535	0.08243791
13	0x3dc1cbb5	0.09462682
14	0xbe550771	-0.2080362
15	0xbdc7aeff	-0.09750175
16	0x3c8dd0b1	0.017311426
17	0x3d4f4f1f	0.050612565
18	0x3e092c50	0.1339581
19	0x3dc981b2	0.098391905
20	0x3da95408	0.08267981
21	0xbdb4345a	-0.08799048
22	0xbdcfca9c	-0.101460665
23	0xbcf56203	-0.029953962
24	0x3d47f6d8	0.048819393
25	0x3d687f3f	0.056761976
26	0x3d76305e	0.06010472
27	0x3da9f91e	0.082994685
28	0xbceb23e8	-0.028703645
29	0xbd8cdc26	-0.068779275
30	0xbd84c902	-0.06483652
31	0xbd96d53e	-0.073648915
32	0x39a2be58	0.00031040865
33	0x3b96aafe	0.0045980206
34	0x3c62570d	0.0138147
35	0x3b1b8e49	0.0023735932
36	0x3cd50d74	0.026007392
37	0xbcc30e49	-0.023810523
38	0xbdd9d536	-0.1063637
39	0xbdcee5aa	-0.10102399
40	0xbdd38e54	-0.10329881
41	0xbd8782a1	-0.06616712
42	0x3d45c12b	0.048279922
43	0x3e053b85	0.13010986
44	0x3b735146	0.00371273
45	0xbcb26395	-0.021776
46	0xbdab7282	-0.0837145
47	0xbde53624	-0.11191967
48	0xbdb4177d	-0.087935425
49	0xbde0d75b	-0.10978576
50	0xbd9cd4a7	-0.07657748
51	0xbdf9e853	-0.122025155
52	0xbcac24bc	-0.02101361
53	0xbd8ec88a	-0.069718435
54	0xbd3d3ce6	-0.046200655
55	0xbdcb68a7	-0.0993207
56	0xbd816595	-0.06318203
57	0x3c7c7faf	0.0154113015
58	0x3cc26cd1	0.023733528
59	0x3c137d44	0.009002034
60	0x3d317e88	0.04333356
61	0xbc0ab7ae	-0.008466644
62	0x3d89f3fa	0.06735988
63	0xbdaebe69	-0.085324116
64	0xbd1c726f	-0.03819507
65	0xbd8a2196	-0.06744687
66	0x3aea1a0a	0.0017860543
67	0xbdac8b4f	-0.084250085
68	0xbdc642ee	-0.096807346
69	0xbca31bfa	-0.019910801
70	0xbba9dfcf	-0.0051841508
71	0xbccfd168	-0.025368407
72	0xb86275b9	-5.3992237e-05
73	0xbc419bc1	-0.01181692
74	0xbd60514d	-0.054765034
75	0xbc02a1d8	-0.007973157
76	0xbd67af44	-0.05656363
77	0x3d46185f	0.048363086
78	0x3d2c7544	0.04210402
79	0xbd582a4b	-0.05277471
80	0x3d11e9ee	0.035623483
81	0x3d37b97a	0.04485462
82	0xbd0bf84c	-0.03417234
83	0xbb777eb6	-0.0037764735
84	0x3da75d2f	0.0817207
85	0x3d608f8e	0.054824404
86	0xbbaa3908	-0.005194787
87	0xbb22eecc	-0.0024861572
88	0xbce8bea5	-0.028411219
89	0xbc9ce5d3	-0.019152557
90	0xbd621cdd	-0.055203307
91	0x3cfb4f43	0.030677443
92	0x3db5838f	0.088629834
93	0x3d567ac3	0.05236317
94	0x3dd65064	0.10464552
95	0x3dd32a58	0.10310811
96	0x3db7124b	0.08939036
97	0x3d6cf5dc	0.057851657
98	0xbdb1c333	-0.086798094
99	0xbc9e9b16	-0.01936106
100	0xbd504eac	-0.050856277
101	0xbc8721cb	-0.016495606
102	0xbd734500	-0.059391975
103	0xbd82b8f6	-0.06382935
104	0xbcae3146	-0.02126373
105	0xbcb901bc	-0.022583835
106	0x3d1f6f0c	0.038924262
107	0xbb16c1f1	-0.0023003782
108	0x3c9255fd	0.017863268
109	0xbc9ac60f	-0.01889327
110	0xbc605731	-0.013692663
111	0xbcd9c8fa	-0.02658509
112	0xbd7291b7	-0.059220996
113	0xbc931135	-0.01795254
114	0xbd2afba7	-0.0417439
115	0xbd49362b	-0.049123924
116	0xbcea33af	-0.028589098
117	0xbce5401e	-0.027984675
118	0xbd4c3027	-0.04985061
119	0xbcea9e29	-0.02863987
120	0xbc42c29b	-0.011887218
121	0xbd02f29d	-0.031969655
122	0x3aa0558c	0.0012232526
123	0xbd1e45d7	-0.038640823
124	0xbd557718	-0.05211553
125	0x3cf72666	0.030169677
126	0x3c05879b	0.008150007
127	0x3ce00f47	0.027351035
128	0xbcb84afe	-0.022496697
129	0xbc58d72f	-0.0132348975
130	0xbaea342c	-0.0017868332
131	0x3c6242e7	0.013809896
132	0x3ce22328	0.027604654
133	0x3d68e374	0.05685754
134	0xbb4946e6	-0.0030712425
135	0xbd5343a4	-0.05157818
136	0x3c89f739	0.016841518
137	0xbd18efdb	-0.03733812
138	0xbd3d63d4	-0.04623778
139	0xbc6f3ae2	-0.014601441
140	0x3d01cc25	0.031688828
141	0x3da07d91	0.0783645
142	0x3d3a4cdc	0.045483455
143	0x3bd3926c	0.006456664
144	0x3d022541	0.03177381
145	0x3d42734b	0.047473233
146	0x3d437185	0.047715683
147	0xbb84659b	-0.0040404326
148	0xbc672436	-0.014107754
149	0xbc095e21	-0.0083842585
150	0xbc8465e4	-0.016161866
151	0x3a73501f	0.00092816533
152	0x3beac276	0.007164295
153	0x3c8b7847	0.017025126
154	0xbbec1acd	-0.0072053433
155	0xbc1e0db5	-0.009646823
156	0x3b87ea7e	0.0041478267
157	0xbb84de89	-0.0040548486
158	0x3c22b81d	0.009931591
159	0x3c6c1de4	0.014411423
160	0x3c9036b4	0.01760421
161	0xbc029898	-0.0079709515
162	0xbc3b1194	-0.011417765
163	0x3c3d2889	0.011545309
164	0xbba92e31	-0.005162977
165	0xbb8d4cd3	-0.0043121367
166	0x39aac92f	0.0003257482
167	0x3b7eee76	0.0038899458
168	0xbc178d69	-0.009250023
169	0xbc406243	-0.011742177
170	0x3cd1e159	0.02562015
171	0x3c2bd92a	0.010488788
172	0x3bdc0cdf	0.0067154015
173	0x3c165db3	0.009177613
174	0x3c81e732	0.015857313
175	0xbce4feb0	-0.027953476
176	0xbd17f305	-0.037096996
177	0x3b8e2e09	0.004338984
178	0x3c7c7d58	0.015410744
179	0x3c8984ee	0.016787019
180	0x3c817bac	0.015806042
181	0x3cb608c7	0.022220982
182	0xbd0f97ca	-0.035056867
183	0xbd722e68	-0.059126288
184	0xbd55e3c3	-0.052219164
185	0xbd1203fd	-0.035648335
186	0xbc94aee0	-0.018149793
187	0xbbf5eb2e	-0.0075048422
188	0x3b9a6d6a	0.00471275
189	0xbb9f8775	-0.0048684427
190	0xbc8671ae	-0.016411629
191	0xbd073594	-0.03301008
192	0xbd4625e6	-0.048375987
193	0xbcdbf5a1	-0.026850523
194	0xbbd1dd20	-0.006404534
195	0x3c9714ff	0.018442629
196	0x3c926692	0.017871175
197	0x3b92dac9	0.0044816476
198	0x3b9b64dd	0.0047422484
199	0xbc67b4bf	-0.014142214
200	0xbbcfd7eb	-0.006342878
201	0xbc1aef63	-0.009456488
202	0xbc0a560e	-0.008443369
203	0x3c77b1a1	0.015118034
204	0x3c3fed43	0.011714282
205	0x3cb42709	0.02199127
206	0x3c19a393	0.009377378
207	0x3c718f1b	0.014743592
208	0x3c4d3f02	0.012527229
209	0x3c4a89eb	0.012361984
210	0x3badd18e	0.005304522
211	0x3c16af51	0.009197072
212	0x3cff6fe8	0.03118129
213	0x3c54ac25	0.012980496
214	0x3c35a11e	0.011085777
215	0x3c47f450	0.012204245
216	0x3c496af1	0.012293563
217	0xbb2fcab5	-0.0026823704
218	0x3c1f04ca	0.009705732
219	0x3d53e09d	0.05172788
220	0x3d1437f7	0.036186185
221	0x3d0fe434	0.03512974
222	0x3d0b4b9f	0.034007665
223	0x3d040e89	0.032240424
224	0xbc99d813	-0.01877979
225	0xbc97598a	-0.018475313
226	0x3ceb164b	0.028697154
227	0x3d2dafbe	0.04240393
228	0x3d4db47c	0.05022095
229	0x3d4755e6	0.048665904
230	0x3d341054	0.043960884
231	0xbcdef701	-0.02721739
232	0xbd5707c2	-0.052497633
233	0xbd19e857	-0.037575092
234	0xbc45493a	-0.012041384
235	0x3c5909f0	0.013246998
236	0x3cc54539	0.02408086
237	0x3ce444eb	0.027864894
238	0xbb4df602	-0.003142715
239	0xbcbb660e	-0.022875812
240	0xbd14df02	-0.03634549
241	0xbd2848ad	-0.041084934
242	0xbc0a98d3	-0.008459288
243	0x3c68dd9e	0.014212994
244	0x3cd23582	0.02566028
245	0x3c86620a	0.01640417
246	0x3c0915af	0.008366986
247	0x3bb04360	0.0053791255
248	0x3ba52bc8	0.0050406195
249	0x3c623f96	0.013809105
250	0x3c4af31d	0.012387064
251	0x3b90d9e2	0.004420505
252	0x3b584e7a	0.003300576
253	0x38f6a708	0.00011761306
254	0x3c6c7552	0.014432268
255	0x3bfcddca	0.007716869

onnx::Conv_81 f4 [16]
0	0x3f017be7	0.50579685
1	0xbea116ce	-0.3146271
2	0x800b219f	-1.022251e-39
3	0xbe1084e3	-0.14113192
4	0x3f01652b	0.50544995
5	0x3f41f880	0.75769806
6	0x3d3ebfb1	0.04656953
7	0x80122dd8	-1.669485e-39
8	0x801cfaf6	-2.661422e-39
9	0x801fb205	-2.910762e-39
10	0x3c449fbc	0.012000974
11	0x3e0fa988	0.14029515
12	0xbd93d22f	-0.07217824
13	0x3eac63fe	0.33670038
14	0x3e07c722	0.13259557
15	0x3e39d347	0.18147002

onnx::Conv_83 f4 [32, 16, 3, 3]
0	0x00000000	0.0
1	0x00000000	0.0
2	0x00000000	0.0
3	0x80000000	-0.0
4	0x00000000	0.0
5	0x00000000	0.0
6	0x00000000	0.0
7	0x80000000	-0.0
8	0x80000000	-0.0
9	0x00000000	0.0
10	0x00000000	0.0
11	0x00000000	0.0
12	0x00000000	0.0
13	0x00000000	0.0
14	0x00000000	0.0
15	0x00000000	0.0
16	0x00000000	0.0
17	0x00000000	0.0
18	0x80000000	-0.0
19	0x80000000	-0.0
20	0x00000000	0.0
21	0x00000000	0.0
22	0x80000000	-0.0
23	0x00000000	0.0
24	0x00000000	0.0
25	0x00000000	0.0
26	0x00000000	0.0
27	0x00000000	0.0
28	0x00000000	0.0
29	0x00000000	0.0
30	0x00000000	0.0
31	0x00000000	0.0
32	0x00000000	0.0
33	0x00000000	0.0
34	0x00000000	0.0
35	0x00000000	0.0
36	0x80000000	-0.0
37	0x80000000	-0.0
38	0x80000000	-0.0
39	0x80000000	-0.0
40	0x80000000	-0.0
41	0x80000000	-0.0
42	0x80000000	-0.0
43	0x80000000	-0.0
44	0x80000000	-0.0
45	0x80000000	-0.0
46	0x80000000	-0.0
47	0x80000000	-0.0
48	0x00000000	0.0
49	0x80000000	-0.0
50	0x00000000	0.0
51	0x00000000	0.0
52	0x00000000	0.0
53	0x00000000	0.0
54	0x80000000	-0.0
55	0x00000000	0.0
56	0x80000000	-0.0
57	0x80000000	-0.0
58	0x80000000	-0.0
59	0x80000000	-0.0
60	0x80000000	-0.0
61	0x80000000	-0.0
62	0x80000000	-0.0
63	0x00000000	0.0
64	0x00000000	0.0
65	0x80000000	-0.0
66	0x00000000	0.0
67	0x00000000	0.0
68	0x00000000	0.0
69	0x00000000	0.0
70	0x00000000	0.0
71	0x00000000	0.0
72	0x00000000	0.0
73	0x00000000	0.0
74	0x00000000	0.0
75	0x80000000	-0.0
76	0x00000000	0.0
77	0x00000000	0.0
78	0x00000000	0.0
79	0x80000000	-0.0
80	0x80000000	-0.0
81	0x00000000	0.0
82	0x80000000	-0.0
83	0x80000000	-0.0
84	0x00000000	0.0
85	0x00000000	0.0
86	0x00000000	0.0
87	0x00000000	0.0
88	0x00000000	0.0
89	0x00000000	0.0
90	0x00000000	0.0
91	0x80000000	-0.0
92	0x80000000	-0.0
93	0x00000000	0.0
94	0x00000000	0.0
95	0x00000000	0.0
96	0x00000000	0.0
97	0x00000000	0.0
98	0x00000000	0.0
99	0x00000000	0.0
100	0x00000000	0.0
101	0x80000000	-0.0
102	0x00000000	0.0
103	0x00000000	0.0
104	0x00000000	0.0
105	0x00000000	0.0
106	0x00000000	0.0
107	0x00000000	0.0
108	0x80000000	-0.0
109	0x80000000	-0.0
110	0x80000000	-0.0
111	0x80000000	-0.0
112	0x80000000	-0.0
113	0x80000000	-0.0
114	0x80000000	-0.0
115	0x80000000	-0.0
116	0x80000000	-0.0
117	0x80000000	-0.0
118	0x80000000	-0.0
119	0x80000000	-0.0
120	0x00000000	0.0
121	0x00000000	0.0
122	0x00000000	0.0
123	0x00000000	0.0
124	0x00000000	0.0
125	0x00000000	0.0
126	0x00000000	0.0
127	0x80000000	-0.0
128	0x00000000	0.0
129	0x00000000	0.0
130	0x00000000	0.0
131	0x00000000	0.0
132	0x00000000	0.0
133	0x00000000	0.0
134	0x00000000	0.0
135	0x00000000	0.0
136	0x00000000	0.0
137	0x00000000	0.0
138	0x00000000	0.0
139	0x00000000	0.0
140	0x00000000	0.0
141	0x00000000	0.0
142	0x00000000	0.0
143	0x00000000	0.0
144	0x00000000	0.0
145	0x00000000	0.0
146	0x80000000	-0.0
147	0x00000000	0.0
148	0x00000000	0.0
149	0x80000000	-0.0
150	0x00000000	0.0
151	0x00000000	0.0
152	0x00000000	0.0
153	0x80000000	-0.0
154	0x80000000	-0.0
155	0x80000000	-0.0
156	0x80000000	-0.0
157	0x80000000	-0.0
158	0x80000000	-0.0
159	0x00000000	0.0
160	0x80000000	-0.0
161	0x80000000	-0.0
162	0x00000000	0.0
163	0x00000000	0.0
164	0x00000000	0.0
165	0x00000000	0.0
166	0x00000000	0.0
167	0x00000000	0.0
168	0x00000000	0.0
169	0x00000000	0.0
170	0x00000000	0.0
171	0x00000000	0.0
172	0x00000000	0.0
173	0x00000000	0.0
174	0x00000000	0.0
175	0x80000000	-0.0
176	0x80000000	-0.0
177	0x80000000	-0.0
178	0x80000000	-0.0
179	0x80000000	-0.0
180	0x00000000	0.0
181	0x80000000	-0.0
182	0x80000000	-0.0
183	0x80000000	-0.0
184	0x80000000	-0.0
185	0x80000000	-0.0
186	0x00000000	0.0
187	0x00000000	0.0
188	0x80000000	-0.0
189	0x00000000	0.0
190	0x80000000	-0.0
191	0x00000000	0.0
192	0x80000000	-0.0
193	0x80000000	-0.0
194	0x00000000	0.0
195	0x80000000	-0.0
196	0x80000000	-0.0
197	0x00000000	0.0
198	0x00000000	0.0
199	0x00000000	0.0
200	0x00000000	0.0
201	0x80000000	-0.0
202	0x00000000	0.0
203	0x00000000	0.0
204	0x80000000	-0.0
205	0x00000000	0.0
206	0x00000000	0.0
207	0x00000000	0.0
208	0x00000000	0.0
209	0x80000000	-0.0
210	0x00000000	0.0
211	0x00000000	0.0
212	0x00000000	0.0
213	0x80000000	-0.0
214	0x00000000	0.0
215	0x00000000	0.0
216	0x80000000	-0.0
217	0x80000000	-0.0
218	0x00000000	0.0
219	0x80000000	-0.0
220	0x80000000	-0.0
221	0x80000000	-0.0
222	0x80000000	-0.0
223	0x80000000	-0.0
224	0x00000000	0.0
225	0x00000000	0.0
226	0x00000000	0.0
227	0x80000000	-0.0
228	0x00000000	0.0
229	0x00000000	0.0
230	0x80000000	-0.0
231	0x80000000	-0.0
232	0x00000000	0.0
233	0x00000000	0.0
234	0x80000000	-0.0
235	0x80000000	-0.0
236	0x80000000	-0.0
237	0x00000000	0.0
238	0x80000000	-0.0
239	0x80000000	-0.0
240	0x00000000	0.0
241	0x80000000	-0.0
242	0x00000000	0.0
243	0x80000000	-0.0
244	0x80000000	-0.0
245	0x80000000	-0.0
246	0x00000000	0.0
247	0x00000000	0.0
248	0x00000000	0.0
249	0x00000000	0.0
250	0x00000000	0.0
251	0x00000000	0.0
252	0x00000000	0.0
253	0x00000000	0.0
254	0x80000000	-0.0
255	0x80000000	-0.0

onnx::Conv_84 f4 [32]
0	0x80043ecc	-3.89869e-40
1	0x800f842a	-1.424944e-39
2	0xbcf82c58	-0.030294582
3	0x803a5375	-5.356398e-39
4	0xbc732710	-0.014840856
5	0xbec7a63b	-0.3899401
6	0xbcb64d80	-0.022253752
7	0x8025568b	-3.428959e-39
8	0x3e632972	0.22183779
9	0x80256b2d	-3.436361e-39
10	0xbce1cc00	-0.027563095
11	0x3b5ebde0	0.0033987686
12	0x8016ff26	-2.111911e-39
13	0x80011be3	-1.0184e-40
14	0x804002a7	-5.878423e-39
15	0x80214394	-3.054814e-39
16	0x8027d231	-3.656987e-39
17	0xba8402eb	-0.001007167
18	0x8022a5ca	-3.181881e-39
19	0x801e94db	-2.808464e-39
20	0x80144673	-1.861982e-39
21	0xbded54c6	-0.11588435
22	0x8027ebc3	-3.66616e-39
23	0x3e8694ba	0.26285344
24	0x802787e8	-3.630338e-39
25	0xbdd73d6b	-0.105097614
26	0x801cb89f	-2.637623e-39
27	0x801bb146	-2.543152e-39
28	0x8025affe	-3.461047e-39
29	0x3e3a14a6	0.18171939
30	0x8012765f	-1.695502e-39
31	0x8018624a	-2.239311e-39

onnx::Conv_86 f4 [32, 32, 3, 3]
0	0x00ec8299	2.1720027e-38
1	0x013c513c	3.458843e-38
2	0x0110d91c	2.660439e-38
3	0x803e2e7e	-5.710479e-39
4	0x80621151	-9.00609e-39
5	0x8066601d	-9.4017e-39
6	0x0171074c	4.4269944e-38
7	0x81313649	-3.2548713e-38
8	0x80710172	-1.037793e-38
9	0x01f09f22	8.839042e-38
10	0x0070de82	1.0365396e-38
11	0x811f453b	-2.9253358e-38
12	0x01f193e2	8.874162e-38
13	0x0181b205	4.764256e-38
14	0x81a9c191	-6.235855e-38
15	0x80db61cd	-2.0147058e-38
16	0x01aa95aa	6.2662895e-38
17	0x012c050e	3.1595037e-38
18	0x3e16c6ca	0.1472427
19	0x3d86563a	0.06559415
20	0x3d7e0ce9	0.06202403
21	0x3dcc32d8	0.09970635
22	0x3e29f496	0.16597208
23	0x3e858623	0.260789
24	0x3d986e7a	0.07442947
25	0x3dca8bca	0.09889944
26	0x3e5f0389	0.21778692
27	0x8059c0f4	-8.242578e-39
28	0x805d0796	-8.543422e-39
29	0x80497c69	-6.748621e-39
30	0x01221701	2.9771205e-38
31	0x8105e4c4	-2.4592373e-38
32	0x01236fda	3.001862e-38
33	0x8018393d	-2.224585e-39
34	0x01164486	2.7599812e-38
35	0x8119df4c	-2.826187e-38
36	0x3eaf3831	0.34222558
37	0xbd93864d	-0.0720335
38	0x3d0cd7c8	0.034385473
39	0x3ed8db18	0.42354655
40	0x3d31c000	0.043395996
41	0x3ba284ba	0.00495967
42	0x3ef14628	0.47123837
43	0x3d9294c8	0.07157284
44	0xbdc28176	-0.09497349
45	0xbe13a279	-0.14417447
46	0xbe3aae73	-0.1823061
47	0xbe911668	-0.28337407
48	0xbd026619	-0.03183565
49	0xb9893be7	-0.00026175307
50	0xbc09319c	-0.008373644
51	0x3e1422b3	0.14466362
52	0x3db3301f	0.08749413
53	0x3d03abea	0.032146372
54	0x3d8238a7	0.06358462
55	0xbd520162	-0.05127085
56	0xbdb0b7e8	-0.08628827
57	0x3bcfea61	0.006345079
58	0x3de9660c	0.11396417
59	0x3e7385fc	0.2378158
60	0x3dacf292	0.08444704
61	0x3e000cdf	0.1250491
62	0x3e814f7a	0.25255948
63	0x01b7229d	6.727325e-38
64	0x005a3147	8.282872e-39
65	0x01a817cc	6.17476e-38
66	0x81de2b6f	-8.1612245e-38
67	0x00a991a1	1.557244e-38
68	0x813f8edb	-3.5183653e-38
69	0x81d043f1	-7.6504624e-38
70	0x006ee3c2	1.0183609e-38
71	0x80773070	-1.09458e-38
72	0xbbe84c98	-0.007089209
73	0xbdd184d4	-0.10230413
74	0xbe57eb54	-0.21085864
75	0x3e9e5603	0.30924997
76	0x3e54f355	0.20795949
77	0x3d302253	0.043001484
78	0x3e946db5	0.2898995
79	0x3e5e78b2	0.21725729
80	0x3d559163	0.052140605
81	0x817c2271	-4.63098e-38
82	0x81849f1e	-4.8717464e-38
83	0x815b78b8	-4.031056e-38
84	0x8147687c	-3.662549e-38
85	0x81126d5b	-2.6894424e-38
86	0x804f5fdf	-7.289396e-39
87	0x80f790cf	-2.2735315e-38
88	0x8117daf8	-2.7891422e-38
89	0x80c21a24	-1.7825464e-38
90	0xb9751e70	-0.0002337636
91	0x3b95aad5	0.004567484
92	0xbb47c990	-0.003048513
93	0xbc190ab1	-0.009340928
94	0x3baec67e	0.0053337207
95	0x3b0c6f32	0.0021428582
96	0xbc7d0129	-0.015442171
97	0xbbc450f5	-0.005991096
98	0xbb88af3f	-0.0041712816
99	0xbdaa826d	-0.08325658
100	0xbe00cadb	-0.12577383
101	0xbe157343	-0.1459475
102	0xbd91bc1c	-0.07115957
103	0xbd9b19e1	-0.075732954
104	0xbd4c7658	-0.04991755
105	0x3bfd3fe3	0.007728563
106	0x3d1ab50c	0.037770316
107	0x3d9f7115	0.077852406
108	0x8008a0d5	-7.9238e-40
109	0x00c775c7	1.8317514e-38
110	0x001832ec	2.222319e-39
111	0x000e82a6	1.332565e-39
112	0x808ba373	-1.2823768e-38
113	0x00b9cd48	1.7063208e-38
114	0x0118bc06	2.805289e-38
115	0x801264d6	-1.689212e-39
116	0x80346b99	-4.814045e-39
117	0x00d322af	1.9389732e-38
118	0x80e5cb7a	-2.1103322e-38
119	0x00f1261e	2.2146028e-38
120	0x80fbc8c4	-2.312273e-38
121	0x80d78432	-1.9792054e-38
122	0x01057c3a	2.451737e-38
123	0x80f25579	-2.2254852e-38
124	0x80d99125	-1.9980371e-38
125	0x80fc4442	-2.3167031e-38
126	0x01299fe8	3.1155125e-38
127	0x8125164c	-3.032171e-38
128	0x80055f9e	-4.93478e-40
129	0x8002c6d5	-2.54998e-40
130	0x800b95c4	-1.063916e-39
131	0x806b5f01	-9.860479e-39
132	0x00325892	4.623548e-39
133	0x80140332	-1.837856e-39
134	0x800898d7	-7.89513e-40
135	0x00ccd750	1.8811681e-38
136	0x001adac4	2.466201e-39
137	0x0138937f	3.3901286e-38
138	0x01692f82	4.2829426e-38
139	0x0071be7f	1.0445748e-38
140	0x80c6e0de	-1.8264095e-38
141	0x0175dd5b	4.5158208e-38
142	0x00dca520	2.0263045e-38
143	0x81086d31	-2.5057596e-38
144	0x81011bda	-2.371354e-38
145	0x810e7de4	-2.6171603e-38
146	0x805ccf09	-8.523136e-39
147	0x010a2d21	2.5378975e-38
148	0x01124ef8	2.6872622e-38
149	0x006eb33b	1.01662e-38
150	0x00c1955e	1.7777834e-38
151	0x00c883b9	1.8414352e-38
152	0x00d29fa6	1.9342725e-38
153	0xb22df3a3	-1.0125322e-08
154	0xb3c02815	-8.9479876e-08
155	0xb39425ce	-6.898664e-08
156	0xb494b1eb	-2.76966e-07
157	0xb429fae7	-1.5830629e-07
158	0xb3b37fff	-8.3586194e-08
159	0xb4094d68	-1.278728e-07
160	0xb3d320ce	-9.83142e-08
161	0xb386aba7	-6.2710846e-08
162	0x817405e3	-4.4819946e-38
163	0x8083fbb2	-1.2120741e-38
164	0x8159a516	-3.997505e-38
165	0x80599308	-8.226104e-39
166	0x007e2c80	1.1587236e-38
167	0x01079967	2.4905645e-38
168	0x015e40e2	4.0821511e-38
169	0x807eee6f	-1.1656806e-38
170	0x00969bfc	1.3831281e-38
171	0x003f77c5	5.828601e-39
172	0x80193ec5	-2.318405e-39
173	0x8009db16	-9.05113e-40
174	0x8049e616	-6.78653e-39
175	0x00efc3c8	2.2018917e-38
176	0x011daf0f	2.8961944e-38
177	0x0002e511	2.65845e-40
178	0x0050d9fa	7.425035e-39
179	0x00bdd2db	1.743255e-38
180	0x00723c4b	1.0490876e-38
181	0x80429d6a	-6.117612e-39
182	0x800e520f	-1.315134e-39
183	0x00658f8b	9.326879e-39
184	0x8051eb65	-7.523119e-39
185	0x801453d9	-1.866789e-39
186	0x004e1fd0	7.174581e-39
187	0x807021c1	-1.0297684e-38
188	0x8039404e	-5.257691e-39
189	0xbd7390e2	-0.059464343
190	0x3d751318	0.059832662
191	0x3e03ca8c	0.12870234
192	0xbdcbc9d6	-0.099506065
193	0x3e0482ba	0.12940493
194	0x3ead1ac5	0.33809486
195	0xbe20d476	-0.15706047
196	0xbd4bb371	-0.049731676
197	0x3e134e00	0.14385223
198	0x000e6f85	1.325703e-39
199	0x010996aa	2.5271022e-38
200	0x00eda5b5	2.1824457e-38
201	0x013c69fe	3.4606192e-38
202	0x00b43a0d	1.6551214e-38
203	0x80d80f39	-1.9841928e-38
204	0x8133bbf1	-3.301195e-38
205	0x8147030b	-3.655271e-38
206	0x80ba7c53	-1.7126001e-38
207	0xbe74ccb9	-0.2390622
208	0xbdbd20b9	-0.09234757
209	0xbdca656c	-0.09882626
210	0xbe246511	-0.16054179
211	0xbd065348	-0.032794267
212	0xbd95322f	-0.072849624
213	0xbe370eae	-0.17876694
214	0xbdb2f11b	-0.087373935
215	0xbe4278e0	-0.18991423
216	0x0020859e	2.986669e-39
217	0x007bd327	1.1371513e-38
218	0x802bbd1d	-4.016767e-39
219	0x002b4ea5	3.977139e-39
220	0x00ec5766	2.170453e-38
221	0x0065a88a	9.335846e-39
222	0x80b9d40c	-1.7065635e-38
223	0x001bcb32	2.552451e-39
224	0x00094f4f	8.5497e-40
225	0xbd14fe09	-0.03637508
226	0xbb3f85d4	-0.0029224055
227	0x3c038f30	0.008029744
228	0xbd90aae2	-0.07063843
229	0xbd0f92f0	-0.03505224
230	0xbc2c60fe	-0.010521172
231	0xbde1e656	-0.11030261
232	0xbcb5447c	-0.022127382
233	0xb892b575	-6.9956215e-05
234	0x011b34a4	2.8506772e-38
235	0x014ff983	3.819891e-38
236	0x0120beb2	2.9524176e-38
237	0x006f40ce	1.0216988e-38
238	0x81029495	-2.398383e-38
239	0x811e367a	-2.9059102e-38
240	0x80060908	-5.54253e-40
241	0x80493f8c	-6.726788e-39
242	0x81183580	-2.7956375e-38
243	0x809db4da	-1.448305e-38
244	0x80d82f42	-1.985342e-38
245	0x81153d36	-2.7410895e-38
246	0x00e7f69b	2.1302465e-38
247	0x00dffbfc	2.056971e-38
248	0x00a584a1	1.5200435e-38
249	0x800772a5	-6.83975e-40
250	0x8008a70f	-7.94613e-40
251	0x8061251c	-8.921355e-39
252	0x0071cfe4	1.0451988e-38
253	0x006b4791	9.852071e-39
254	0x0071a735	1.0437394e-38
255	0x8083bc42	-1.2097984e-38

onnx::Conv_87 f4 [32]
0	0xbe18106c	-0.14850014
1	0xbd60790d	-0.054802943
2	0x801149cd	-1.587678e-39
3	0x3c05c9e8	0.008165814
4	0xbcbfacec	-0.023397885
5	0x800d2dc7	-1.210283e-39
6	0x3ce76592	0.028246675
7	0xa4de5965	-9.642859e-17
8	0x80242168	-3.318062e-39
9	0xbce3119b	-0.027718356
10	0x800eb01a	-1.34887e-39
11	0x801be742	-2.562518e-39
12	0x801ea797	-2.815185e-39
13	0x80058eac	-5.10359e-40
14	0xbcb5efe2	-0.022209112
15	0x8000fef6	-9.1463e-41
16	0xbcd663f6	-0.026170712
17	0xbd03f6d5	-0.03221782
18	0x8008bf05	-8.03209e-40
19	0xb468f559	-2.169594e-07
20	0xba793aa6	-0.00095073355
21	0xbda673b9	-0.08127541
22	0x800d7bbc	-1.238249e-39
23	0xbb471e25	-0.0030382958
24	0x80259091	-3.449774e-39
25	0x807d0266	-1.1480297e-38
26	0x800c475a	-1.127622e-39
27	0x896828da	-2.7945193e-33
28	0x80190a00	-2.299475e-39
29	0x801f61cf	-2.881987e-39
30	0x3d5842b6	0.052797996
31	0x801b7b1d	-2.523723e-39

onnx::Conv_89 f4 [32, 16, 1, 1]
0	0x3eb512af	0.35365817
1	0x3d74c8eb	0.059761923
2	0x8056116a	-7.9041e-39
3	0x3e299f27	0.16564618
4	0x3e9420f9	0.28931406
5	0xbe299e0b	-0.16564195
6	0xbcc667cb	-0.024219414
7	0x00583b14	8.102717e-39
8	0x8091165e	-1.3324171e-38
9	0x80d387fd	-1.9426073e-38
10	0xbd431277	-0.04762503
11	0xbcb5e2c5	-0.022202859
12	0x3b915f2f	0.0044363956
13	0x3e161009	0.14654554
14	0xbe00b1ac	-0.12567776
15	0x3d9ab67b	0.07554337
16	0xbed775a9	-0.42081955
17	0x3de4c462	0.111702695
18	0x00859910	1.226903e-38
19	0xbea1ca0b	-0.3159946
20	0xbd6b1feb	-0.057403486
21	0xbb9bc133	-0.0047532558
22	0x3cccbb29	0.024991589
23	0x00f0dec6	2.2120435e-38
24	0x807037ec	-1.0305637e-38
25	0x80d0c173	-1.917118e-38
26	0x3daa3ae5	0.083120145
27	0x3d738020	0.05944836
28	0xbc97451d	-0.018465573
29	0x3c2270df	0.009914606
30	0xbd83d0d9	-0.06436319
31	0x3a931475	0.0011221307
32	0x00000000	0.0
33	0x00000000	0.0
34	0x00000000	0.0
35	0x00000000	0.0
36	0x00000000	0.0
37	0x80000000	-0.0
38	0x00000000	0.0
39	0x00000000	0.0
40	0x80000000	-0.0
41	0x80000000	-0.0
42	0x00000000	0.0
43	0x00000000	0.0
44	0x80000000	-0.0
45	0x00000000	0.0
46	0x00000000	0.0
47	0x80000000	-0.0
48	0x38100693	3.4338398e-05
49	0x395c5183	0.000210112
50	0x0001bbec	1.59249e-40
51	0x39c69344	0.00037875224
52	0x3a0f2fce	0.00054621405
53	0x381e87f8	3.7796766e-05
54	0x3921ee2b	0.00015442881
55	0x80013e19	-1.14112e-40
56	0x0001c813	1.63609e-40
57	0x0003216b	2.87495e-40
58	0x39921546	0.0002786314
59	0x39bf1805	0.00036448255
60	0x37989211	1.818783e-05
61	0x3a17362a	0.0005768264
62	0x3a25a57b	0.0006318909
63	0x390540b4	0.00012707972
64	0xbde6b445	-0.112648524
65	0x3e1a11ed	0.150459
66	0x8086f241	-1.2392861e-38
67	0x3f0c9c96	0.5492643
68	0x3ddb148c	0.106972784
69	0x3e2f4ee2	0.17119935
70	0x3de8b429	0.11362488
71	0x80820dcc	-1.1943564e-38
72	0x00d3467f	1.9402579e-38
73	0x8124cf27	-3.0270667e-38
74	0xbd9d3eae	-0.07677971
75	0x3c9be7fe	0.019031521
76	0xbb9bdf86	-0.0047568707
77	0x3df678d1	0.12034763
78	0x3e28fb37	0.16502081
79	0x3dc9034f	0.09815084
80	0x00000000	0.0
81	0x80000000	-0.0
82	0x80000000	-0.0
83	0x00000000	0.0
84	0x80000000	-0.0
85	0x00000000	0.0
86	0x00000000	0.0
87	0x80000000	-0.0
88	0x00000000	0.0
89	0x00000000	0.0
90	0x00000000	0.0
91	0x00000000	0.0
92	0x80000000	-0.0
93	0x00000000	0.0
94	0x00000000	0.0
95	0x00000000	0.0
96	0x3d77342a	0.060352482
97	0x3eb0b2b1	0.3451133
98	0x00811922	1.1855795e-38
99	0x3eae776e	0.34075493
100	0xbe4addce	-0.19811174
101	0xbd462a01	-0.0483799
102	0x3e7d5cc9	0.24742426
103	0x0116fcc6	2.7732005e-38
104	0x81059395	-2.4534127e-38
105	0x0102c296	2.4016838e-38
106	0x3eb2090e	0.34772533
107	0x3e754bb6	0.23954663
108	0xbd122f48	-0.035689622
109	0x3cf2081f	0.029544888
110	0xbe04d03a	-0.12970057
111	0xbcdb1449	-0.026743071
112	0x00000000	0.0
113	0x80000000	-0.0
114	0x00000000	0.0
115	0x00000000	0.0
116	0x80000000	-0.0
117	0x87b74800	-2.7577097e-34
118	0x80000000	-0.0
119	0x00000000	0.0
120	0x80000000	-0.0
121	0x80000000	-0.0
122	0x80000000	-0.0
123	0x00000000	0.0
124	0x00000000	0.0
125	0x80000000	-0.0
126	0x00000000	0.0
127	0x80000000	-0.0
128	0x00000000	0.0
129	0x80000000	-0.0
130	0x80000000	-0.0
131	0x80000000	-0.0
132	0x00000000	0.0
133	0x00000000	0.0
134	0x80000000	-0.0
135	0x80000000	-0.0
136	0x00000000	0.0
137	0x00000000	0.0
138	0x80000000	-0.0
139	0x80000000	-0.0
140	0x80000000	-0.0
141	0x80000000	-0.0
142	0x00000000	0.0
143	0x00000000	0.0
144	0x3e41c012	0.18920925
145	0x3d9c229a	0.07623787
146	0x007b1782	1.1304199e-38
147	0x3e8b2214	0.27174437
148	0x3dba036c	0.09082684
149	0xbe2741cc	-0.16333693
150	0xbd6bf938	-0.05761072
151	0x808990d4	-1.2633418e-38
152	0x811e6d0a	-2.9098248e-38
153	0x811b450b	-2.851854e-38
154	0xbd7bc50b	-0.06146721
155	0x3d0144f7	0.03155991
156	0x3d307fde	0.043090694
157	0x3db857ed	0.090011455
158	0xbe9773ef	-0.29580638
159	0xbd180516	-0.037114225
160	0x80000000	-0.0
161	0x80000000	-0.0
162	0x00000000	0.0
163	0x00000000	0.0
164	0x00000000	0.0
165	0x00000000	0.0
166	0x80000000	-0.0
167	0x00000000	0.0
168	0x00000000	0.0
169	0x00000000	0.0
170	0x00000000	0.0
171	0x00000000	0.0
172	0x00000000	0.0
173	0x80000000	-0.0
174	0x80000000	-0.0
175	0x00000000	0.0
176	0x80000000	-0.0
177	0x80000000	-0.0
178	0x80000000	-0.0
179	0x80000000	-0.0
180	0x00000000	0.0
181	0x80000000	-0.0
182	0x00000000	0.0
183	0x80000000	-0.0
184	0x00000000	0.0
185	0x00000000	0.0
186	0x80000000	-0.0
187	0x80000000	-0.0
188	0x00000000	0.0
189	0x80000000	-0.0
190	0x00000000	0.0
191	0x00000000	0.0
192	0x80000000	-0.0
193	0x80000000	-0.0
194	0x00000000	0.0
195	0x80000000	-0.0
196	0x00000000	0.0
197	0x00000000	0.0
198	0x80000000	-0.0
199	0x80000000	-0.0
200	0x00000000	0.0
201	0x00000000	0.0
202	0x80000000	-0.0
203	0x80000000	-0.0
204	0x80000000	-0.0
205	0x80000000	-0.0
206	0x80000000	-0.0
207	0x80000000	-0.0
208	0x00000000	0.0
209	0x00000000	0.0
210	0x00000000	0.0
211	0x00000000	0.0
212	0x80000000	-0.0
213	0x80000000	-0.0
214	0x80000000	-0.0
215	0x00000000	0.0
216	0x80000000	-0.0
217	0x00000000	0.0
218	0x00000000	0.0
219	0x00000000	0.0
220	0x00000000	0.0
221	0x80000000	-0.0
222	0x00000000	0.0
223	0x80000000	-0.0
224	0xbda4e9e1	-0.08052421
225	0x3e720e7d	0.2363834
226	0x00d453a9	1.9499137e-38
227	0xbd9d3a18	-0.07677096
228	0xbe18138c	-0.14851207
229	0xbe2f7461	-0.17134239
230	0x3eb1935b	0.34682736
231	0x01280a7f	3.0864257e-38
232	0x0092db34	1.3486618e-38
233	0x0148e30d	3.68971e-38
234	0x3e92febe	0.28709978
235	0x3e00b9a4	0.12570816
236	0xbcd61dd4	-0.02613727
237	0xbe147337	-0.14497076
238	0x3de318cc	0.11088714
239	0x3d167e8b	0.036741775
240	0x80000000	-0.0
241	0x80000000	-0.0
242	0x80000000	-0.0
243	0x80000000	-0.0
244	0x00000000	0.0
245	0x00000000	0.0
246	0x80000000	-0.0
247	0x80000000	-0.0
248	0x80000000	-0.0
249	0x80000000	-0.0
250	0x00000000	0.0
251	0x00000000	0.0
252	0x80000000	-0.0
253	0x00000000	0.0
254	0x00000000	0.0
255	0x80000000	-0.0

onnx::Conv_90 f4 [32]
0	0xbe53df66	-0.20690688
1	0x3df6e53b	0.12055441
2	0x801149cd	-1.587678e-39
3	0x3c0e33a9	0.008679309
4	0xbea37d57	-0.31931564
5	0x800d2dc7	-1.210283e-39
6	0xbe388bc7	-0.18022071
7	0xa4de5965	-9.642859e-17
8	0x80242168	-3.318062e-39
9	0xbd1b5706	-0.03792479
10	0x800eb01a	-1.34887e-39
11	0x801be742	-2.562518e-39
12	0x801ea797	-2.815185e-39
13	0x80058eac	-5.10359e-40
14	0xbd565b74	-0.05233331
15	0x8000fef6	-9.1463e-41
16	0xbc49047c	-0.012269136
17	0xbd60e108	-0.054902107
18	0x8008bf05	-8.03209e-40
19	0xb468f486	-2.1695641e-07
20	0xba79707f	-0.00095153594
21	0xbe7bdf80	-0.24596977
22	0x800d7bbc	-1.238249e-39
23	0x3bbcba1f	0.005759492
24	0x80259091	-3.449774e-39
25	0x807d0266	-1.1480297e-38
26	0x800c475a	-1.127622e-39
27	0x896828da	-2.7945193e-33
28	0x80190a00	-2.299475e-39
29	0x801f61cf	-2.881987e-39
30	0xbebd9db0	-0.3703437
31	0x801b7b1d	-2.523723e-39

onnx::Conv_92 f4 [64, 32, 3, 3]
0	0x80000000	-0.0
1	0x80000000	-0.0
2	0x80000000	-0.0
3	0x80000000	-0.0
4	0x80000000	-0.0
5	0x80000000	-0.0
6	0x80000000	-0.0
7	0x80000000	-0.0
8	0x80000000	-0.0
9	0x80000000	-0.0
10	0x80000000	-0.0
11	0x80000000	-0.0
12	0x00000000	0.0
13	0x00000000	0.0
14	0x00000000	0.0
15	0x80000000	-0.0
16	0x80000000	-0.0
17	0x80000000	-0.0
18	0x80000000	-0.0
19	0x00000000	0.0
20	0x80000000	-0.0
21	0x80000000	-0.0
22	0x00000000	0.0
23	0x80000000	-0.0
24	0x80000000	-0.0
25	0x80000000	-0.0
26	0x80000000	-0.0
27	0x80000000	-0.0
28	0x80000000	-0.0
29	0x00000000	0.0
30	0x00000000	0.0
31	0x00000000	0.0
32	0x80000000	-0.0
33	0x00000000	0.0
34	0x00000000	0.0
35	0x00000000	0.0
36	0x80000000	-0.0
37	0x00000000	0.0
38	0x80000000	-0.0
39	0x00000000	0.0
40	0x00000000	0.0
41	0x00000000	0.0
42	0x00000000	0.0
43	0x00000000	0.0
44	0x00000000	0.0
45	0x00000000	0.0
46	0x00000000	0.0
47	0x00000000	0.0
48	0x00000000	0.0
49	0x00000000	0.0
50	0x00000000	0.0
51	0x00000000	0.0
52	0x00000000	0.0
53	0x00000000	0.0
54	0x80000000	-0.0
55	0x80000000	-0.0
56	0x80000000	-0.0
57	0x80000000	-0.0
58	0x80000000	-0.0
59	0x80000000	-0.0
60	0x80000000	-0.0
61	0x80000000	-0.0
62	0x80000000	-0.0
63	0x80000000	-0.0
64	0x80000000	-0.0
65	0x80000000	-0.0
66	0x80000000	-0.0
67	0x00000000	0.0
68	0x80000000	-0.0
69	0x80000000	-0.0
70	0x00000000	0.0
71	0x80000000	-0.0
72	0x80000000	-0.0
73	0x00000000	0.0
74	0x80000000	-0.0
75	0x80000000	-0.0
76	0x80000000	-0.0
77	0x00000000	0.0
78	0x00000000	0.0
79	0x80000000	-0.0
80	0x00000000	0.0
81	0x00000000	0.0
82	0x80000000	-0.0
83	0x80000000	-0.0
84	0x80000000	-0.0
85	0x00000000	0.0
86	0x80000000	-0.0
87	0x00000000	0.0
88	0x80000000	-0.0
89	0x80000000	-0.0
90	0x80000000	-0.0
91	0x00000000	0.0
92	0x80000000	-0.0
93	0x80000000	-0.0
94	0x00000000	0.0
95	0x00000000	0.0
96	0x80000000	-0.0
97	0x00000000	0.0
98	0x00000000	0.0
99	0x00000000	0.0
100	0x80000000	-0.0
101	0x00000000	0.0
102	0x00000000	0.0
103	0x80000000	-0.0
104	0x00000000	0.0
105	0x00000000	0.0
106	0x80000000	-0.0
107	0x00000000	0.0
108	0x00000000	0.0
109	0x80000000	-0.0
110	0x80000000	-0.0
111	0x80000000	-0.0
112	0x80000000	-0.0
113	0x80000000	-0.0
114	0x80000000	-0.0
115	0x80000000	-0.0
116	0x80000000	-0.0
117	0x80000000	-0.0
118	0x80000000	-0.0
119	0x80000000	-0.0
120	0x80000000	-0.0
121	0x00000000	0.0
122	0x80000000	-0.0
123	0x80000000	-0.0
124	0x00000000	0.0
125	0x80000000	-0.0
126	0x80000000	-0.0
127	0x80000000	-0.0
128	0x80000000	-0.0
129	0x80000000	-0.0
130	0x80000000	-0.0
131	0x80000000	-0.0
132	0x80000000	-0.0
133	0x80000000	-0.0
134	0x80000000	-0.0
135	0x80000000	-0.0
136	0x80000000	-0.0
137	0x00000000	0.0
138	0x80000000	-0.0
139	0x00000000	0.0
140	0x00000000	0.0
141	0x80000000	-0.0
142	0x00000000	0.0
143	0x80000000	-0.0
144	0x00000000	0.0
145	0x80000000	-0.0
146	0x80000000	-0.0
147	0x00000000	0.0
148	0x80000000	-0.0
149	0x80000000	-0.0
150	0x00000000	0.0
151	0x80000000	-0.0
152	0x00000000	0.0
153	0x00000000	0.0
154	0x00000000	0.0
155	0x00000000	0.0
156	0x00000000	0.0
157	0x00000000	0.0
158	0x00000000	0.0
159	0x00000000	0.0
160	0x00000000	0.0
161	0x00000000	0.0
162	0x80000000	-0.0
163	0x80000000	-0.0
164	0x80000000	-0.0
165	0x80000000	-0.0
166	0x80000000	-0.0
167	0x80000000	-0.0
168	0x80000000	-0.0
169	0x80000000	-0.0
170	0x80000000	-0.0
171	0x00000000	0.0
172	0x80000000	-0.0
173	0x00000000	0.0
174	0x80000000	-0.0
175	0x80000000	-0.0
176	0x00000000	0.0
177	0x00000000	0.0
178	0x00000000	0.0
179	0x00000000	0.0
180	0x80000000	-0.0
181	0x80000000	-0.0
182	0x80000000	-0.0
183	0x80000000	-0.0
184	0x80000000	-0.0
185	0x80000000	-0.0
186	0x00000000	0.0
187	0x80000000	-0.0
188	0x00000000	0.0
189	0x80000000	-0.0
190	0x80000000	-0.0
191	0x80000000	-0.0
192	0x00000000	0.0
193	0x00000000	0.0
194	0x00000000	0.0
195	0x00000000	0.0
196	0x00000000	0.0
197	0x00000000	0.0
198	0x80000000	-0.0
199	0x80000000	-0.0
200	0x80000000	-0.0
201	0x80000000	-0.0
202	0x80000000	-0.0
203	0x80000000	-0.0
204	0x00000000	0.0
205	0x80000000	-0.0
206	0x00000000	0.0
207	0x00000000	0.0
208	0x80000000	-0.0
209	0x80000000	-0.0
210	0x00000000	0.0
211	0x00000000	0.0
212	0x00000000	0.0
213	0x00000000	0.0
214	0x00000000	0.0
215	0x80000000	-0.0
216	0x80000000	-0.0
217	0x00000000	0.0
218	0x00000000	0.0
219	0x80000000	-0.0
220	0x00000000	0.0
221	0x00000000	0.0
222	0x80000000	-0.0
223	0x80000000	-0.0
224	0x80000000	-0.0
225	0x80000000	-0.0
226	0x80000000	-0.0
227	0x80000000	-0.0
228	0x80000000	-0.0
229	0x80000000	-0.0
230	0x80000000	-0.0
231	0x80000000	-0.0
232	0x80000000	-0.0
233	0x80000000	-0.0
234	0x00000000	0.0
235	0x00000000	0.0
236	0x00000000	0.0
237	0x80000000	-0.0
238	0x80000000	-0.0
239	0x00000000	0.0
240	0x80000000	-0.0
241	0x00000000	0.0
242	0x00000000	0.0
243	0x80000000	-0.0
244	0x80000000	-0.0
245	0x80000000	-0.0
246	0x80000000	-0.0
247	0x80000000	-0.0
248	0x80000000	-0.0
249	0x00000000	0.0
250	0x00000000	0.0
251	0x00000000	0.0
252	0x80000000	-0.0
253	0x80000000	-0.0
254	0x80000000	-0.0
255	0x80000000	-0.0

onnx::Conv_93 f4 [64]
0	0x800d9194	-1.246085e-39
1	0xbdbb8f86	-0.09158234
2	0x801130de	-1.578734e-39
3	0x3e618769	0.22024311
4	0xae2bb797	-3.904396e-11
5	0x801aad9d	-2.450004e-39
6	0x800a9c5f	-9.7445e-40
7	0x8014e6a8	-1.919454e-39
8	0x802315d3	-3.222071e-39
9	0x801d8eb5	-2.714423e-39
10	0x806595da	-9.329142e-39
11	0x80238766	-3.262814e-39
12	0x8012c422	-1.723398e-39
13	0x801642a9	-2.044294e-39
14	0x801beb6d	-2.564013e-39
15	0x800e0431	-1.2872e-39
16	0x801581ad	-1.975064e-39
17	0x804031b1	-5.895298e-39
18	0x80150f7b	-1.934099e-39
19	0xbdcb87c3	-0.09938004
20	0x80027e5e	-2.29003e-40
21	0x80213880	-3.05084e-39
22	0x800b98e6	-1.06504e-39
23	0x80141517	-1.844276e-39
24	0x80522ffc	-7.547724e-39
25	0x80111297	-1.567872e-39
26	0x800d80f4	-1.240121e-39
27	0x801f607c	-2.881512e-39
28	0x8006099b	-5.54459e-40
29	0x8042e1b4	-6.14211e-39
30	0x8018277c	-2.218216e-39
31	0x801d0d73	-2.668054e-39
32	0x80084dd4	-7.62603e-40
33	0x80296237	-3.800488e-39
34	0x801a3108	-2.405312e-39
35	0x800f7d34	-1.422447e-39
36	0x800670bc	-5.91454e-40
37	0x3cc796c8	0.02436389
38	0x80006648	-3.6692e-41
39	0x8010901b	-1.521063e-39
40	0x801d22a7	-2.67566e-39
41	0x3cda6f21	0.026664319
42	0x8011a0b6	-1.618856e-39
43	0x80070ac3	-6.46709e-40
44	0x801c6cd4	-2.610434e-39
45	0x80032a0b	-2.90589e-40
46	0x9f1cbacd	-3.3188803e-20
47	0x80097b59	-8.70768e-40
48	0x800eaae8	-1.347007e-39
49	0x8007654b	-6.79186e-40
50	0x8041bdf4	-6.03745e-39
51	0x800bb5ed	-1.075453e-39
52	0xbe62a6c8	-0.22133934
53	0x8008047b	-7.36291e-40
54	0x80135e98	-1.778808e-39
55	0x8012a8de	-1.713617e-39
56	0x804094b1	-5.930812e-39
57	0x80109adf	-1.524925e-39
58	0x80176d72	-2.151478e-39
59	0x3c321034	0.010868121
60	0x803bc9b1	-5.490648e-39
61	0x8023a093	-3.271846e-39
62	0x8007a979	-7.03644e-40
63	0x801305fe	-1.747024e-39

onnx::Conv_95 f4 [64, 64, 3, 3]
0	0x00000000	0.0
1	0x00000000	0.0
2	0x00000000	0.0
3	0x00000000	0.0
4	0x80000000	-0.0
5	0x80000000	-0.0
6	0x80000000	-0.0
7	0x80000000	-0.0
8	0x80000000	-0.0
9	0x80000000	-0.0
10	0x80000000	-0.0
11	0x80000000	-0.0
12	0x80000000	-0.0
13	0x80000000	-0.0
14	0x80000000	-0.0
15	0x80000000	-0.0
16	0x80000000	-0.0
17	0x80000000	-0.0
18	0x00000000	0.0
19	0x80000000	-0.0
20	0x80000000	-0.0
21	0x00000000	0.0
22	0x80000000	-0.0
23	0x80000000	-0.0
24	0x80000000	-0.0
25	0x80000000	-0.0
26	0x80000000	-0.0
27	0x80000000	-0.0
28	0x00000000	0.0
29	0x00000000	0.0
30	0x00000000	0.0
31	0x00000000	0.0
32	0x00000000	0.0
33	0x80000000	-0.0
34	0x80000000	-0.0
35	0x80000000	-0.0
36	0x80000000	-0.0
37	0x00000000	0.0
38	0x00000000	0.0
39	0x80000000	-0.0
40	0x00000000	0.0
41	0x00000000	0.0
42	0x80000000	-0.0
43	0x80000000	-0.0
44	0x00000000	0.0
45	0x80000000	-0.0
46	0x80000000	-0.0
47	0x80000000	-0.0
48	0x00000000	0.0
49	0x80000000	-0.0
50	0x80000000	-0.0
51	0x80000000	-0.0
52	0x00000000	0.0
53	0x00000000	0.0
54	0x00000000	0.0
55	0x80000000	-0.0
56	0x80000000	-0.0
57	0x80000000	-0.0
58	0x00000000	0.0
59	0x00000000	0.0
60	0x80000000	-0.0
61	0x80000000	-0.0
62	0x00000000	0.0
63	0x80000000	-0.0
64	0x00000000	0.0
65	0x00000000	0.0
66	0x00000000	0.0
67	0x00000000	0.0
68	0x00000000	0.0
69	0x00000000	0.0
70	0x00000000	0.0
71	0x00000000	0.0
72	0x00000000	0.0
73	0x80000000	-0.0
74	0x80000000	-0.0
75	0x00000000	0.0
76	0x00000000	0.0
77	0x00000000	0.0
78	0x80000000	-0.0
79	0x80000000	-0.0
80	0x00000000	0.0
81	0x80000000	-0.0
82	0x80000000	-0.0
83	0x80000000	-0.0
84	0x80000000	-0.0
85	0x80000000	-0.0
86	0x80000000	-0.0
87	0x80000000	-0.0
88	0x80000000	-0.0
89	0x80000000	-0.0
90	0x80000000	-0.0
91	0x80000000	-0.0
92	0x80000000	-0.0
93	0x80000000	-0.0
94	0x00000000	0.0
95	0x80000000	-0.0
96	0x00000000	0.0
97	0x00000000	0.0
98	0x80000000	-0.0
99	0x80000000	-0.0
100	0x80000000	-0.0
101	0x80000000	-0.0
102	0x00000000	0.0
103	0x00000000	0.0
104	0x00000000	0.0
105	0x00000000	0.0
106	0x00000000	0.0
107	0x00000000	0.0
108	0x80000000	-0.0
109	0x80000000	-0.0
110	0x80000000	-0.0
111	0x00000000	0.0
112	0x00000000	0.0
113	0x00000000	0.0
114	0x80000000	-0.0
115	0x80000000	-0.0
116	0x80000000	-0.0
117	0x00000000	0.0
118	0x80000000	-0.0
119	0x80000000	-0.0
120	0x80000000	-0.0
121	0x80000000	-0.0
122	0x80000000	-0.0
123	0x00000000	0.0
124	0x00000000	0.0
125	0x00000000	0.0
126	0x00000000	0.0
127	0x80000000	-0.0
128	0x80000000	-0.0
129	0x00000000	0.0
130	0x00000000	0.0
131	0x80000000	-0.0
132	0x00000000	0.0
133	0x80000000	-0.0
134	0x00000000	0.0
135	0x00000000	0.0
136	0x80000000	-0.0
137	0x00000000	0.0
138	0x80000000	-0.0
139	0x00000000	0.0
140	0x80000000	-0.0
141	0x80000000	-0.0
142	0x80000000	-0.0
143	0x80000000	-0.0
144	0x00000000	0.0
145	0x80000000	-0.0
146	0x00000000	0.0
147	0x00000000	0.0
148	0x00000000	0.0
149	0x00000000	0.0
150	0x00000000	0.0
151	0x00000000	0.0
152	0x00000000	0.0
153	0x00000000	0.0
154	0x00000000	0.0
155	0x00000000	0.0
156	0x00000000	0.0
157	0x00000000	0.0
158	0x00000000	0.0
159	0x80000000	-0.0
160	0x80000000	-0.0
161	0x80000000	-0.0
162	0x00000000	0.0
163	0x00000000	0.0
164	0x00000000	0.0
165	0x00000000	0.0
166	0x80000000	-0.0
167	0x00000000	0.0
168	0x80000000	-0.0
169	0x80000000	-0.0
170	0x80000000	-0.0
171	0x00000000	0.0
172	0x00000000	0.0
173	0x00000000	0.0
174	0x80000000	-0.0
175	0x00000000	0.0
176	0x00000000	0.0
177	0x00000000	0.0
178	0x00000000	0.0
179	0x00000000	0.0
180	0x00000000	0.0
181	0x00000000	0.0
182	0x80000000	-0.0
183	0x00000000	0.0
184	0x80000000	-0.0
185	0x80000000	-0.0
186	0x00000000	0.0
187	0x00000000	0.0
188	0x00000000	0.0
189	0x00000000	0.0
190	0x80000000	-0.0
191	0x80000000	-0.0
192	0x00000000	0.0
193	0x80000000	-0.0
194	0x80000000	-0.0
195	0x80000000	-0.0
196	0x80000000	-0.0
197	0x80000000	-0.0
198	0x00000000	0.0
199	0x00000000	0.0
200	0x00000000	0.0
201	0x80000000	-0.0
202	0x80000000	-0.0
203	0x80000000	-0.0
204	0x80000000	-0.0
205	0x00000000	0.0
206	0x80000000	-0.0
207	0x00000000	0.0
208	0x80000000	-0.0
209	0x00000000	0.0
210	0x80000000	-0.0
211	0x80000000	-0.0
212	0x80000000	-0.0
213	0x80000000	-0.0
214	0x80000000	-0.0
215	0x80000000	-0.0
216	0x00000000	0.0
217	0x00000000	0.0
218	0x80000000	-0.0
219	0x00000000	0.0
220	0x00000000	0.0
221	0x80000000	-0.0
222	0x00000000	0.0
223	0x00000000	0.0
224	0x00000000	0.0
225	0x00000000	0.0
226	0x00000000	0.0
227	0x00000000	0.0
228	0x80000000	-0.0
229	0x80000000	-0.0
230	0x00000000	0.0
231	0x00000000	0.0
232	0x00000000	0.0
233	0x00000000	0.0
234	0x80000000	-0.0
235	0x80000000	-0.0
236	0x80000000	-0.0
237	0x80000000	-0.0
238	0x80000000	-0.0
239	0x00000000	0.0
240	0x80000000	-0.0
241	0x80000000	-0.0
242	0x00000000	0.0
243	0x00000000	0.0
244	0x80000000	-0.0
245	0x00000000	0.0
246	0x80000000	-0.0
247	0x80000000	-0.0
248	0x80000000	-0.0
249	0x80000000	-0.0
250	0x80000000	-0.0
251	0x80000000	-0.0
252	0x00000000	0.0
253	0x80000000	-0.0
254	0x80000000	-0.0
255	0x80000000	-0.0

onnx::Conv_96 f4 [64]
0	0x8012719f	-1.693798e-39
1	0xbdfbfff0	-0.123046756
2	0x801a23b1	-2.400527e-39
3	0x80130d3c	-1.749622e-39
4	0x3c8d1c80	0.017225504
5	0xb4f7fe93	-4.6192562e-07
6	0x800fa2b6	-1.435902e-39
7	0x804c5df2	-7.013199e-39
8	0x3bba02fd	0.0056766258
9	0x80795460	-1.1142363e-38
10	0x80106482	-1.505423e-39
11	0x80150a1a	-1.932169e-39
12	0x80333084	-4.701014e-39
13	0x3b4227f0	0.0029625855
14	0x80313359	-4.51836e-39
15	0x80ae4347	-1.6003511e-38
16	0x8006a811	-6.11304e-40
17	0x809713b8	-1.3874234e-38
18	0x8019bf23	-2.364454e-39
19	0x80064e3b	-5.79077e-40
20	0xab13d376	-5.251835e-13
21	0xa234eb8d	-2.4519248e-18
22	0xbe01baaf	-0.1266887
23	0xbec0e20e	-0.37672466
24	0x80c3f496	-1.7995663e-38
25	0x801d4350	-2.687377e-39
26	0x801ec126	-2.824353e-39
27	0x8048bca9	-6.679834e-39
28	0x804b1562	-6.895333e-39
29	0xbf045123	-0.51686305
30	0x809298ce	-1.3462798e-38
31	0x800d17d9	-1.202416e-39
32	0x802b3c06	-3.970459e-39
33	0x804a467d	-6.821113e-39
34	0xb2a487bf	-1.9153843e-08
35	0x80145c68	-1.869859e-39
36	0x80582cf2	-8.097647e-39
37	0x801cd991	-2.649442e-39
38	0x801dbc75	-2.730835e-39
39	0x803558c6	-4.899127e-39
40	0x8051f7d4	-7.527579e-39
41	0x80200e4c	-2.943865e-39
42	0xbd661111	-0.05616862
43	0x80164fa7	-2.048955e-39
44	0x3b133c40	0.0022466332
45	0x3d046354	0.03232129
46	0xbeff0fb3	-0.49816665
47	0x800c2a70	-1.11725e-39
48	0x8017bf68	-2.18088e-39
49	0x97add20f	-1.1232889e-24
50	0xbcd2957c	-0.025706045
51	0x803008ce	-4.411262e-39
52	0xbe919c80	-0.28439713
53	0x801822b9	-2.216508e-39
54	0xbed18351	-0.409205
55	0x802ca33a	-4.099316e-39
56	0xb202cb49	-7.613218e-09
57	0x800c6d88	-1.141318e-39
58	0xb3a9b885	-7.90324e-08
59	0x800327b7	-2.89753e-40
60	0x8020727c	-2.979805e-39
61	0x3c0a1eac	0.008430164
62	0xbe93f8d1	-0.2890077
63	0xbe8c3b31	-0.2738891
