cmd/ai/datas/models/ghost_riding_a_bicycle.onnx (onnx, 302121 bytes, 16 tensors)

fc.weight f4 [2, 256]
-0.051035132 -0.03804157 -0.27986455 -0.27826184 -0.3491218 -0.3424662 0.04239298 0.06443313
-8.6307026e-14 -8.6710946e-14 -8.6542196e-14 -8.702663e-14 0.12141659 0.125816 -0.034223575 -0.040323984
9.3559916e-36 9.3559916e-36 9.3559916e-36 9.3559916e-36 -0.0005517918 -0.0005517918 -0.0005517918 -0.0005517918
-1.6171538e-06 -1.6171538e-06 -1.6171538e-06 -1.6171538e-06 -0.08395615 -0.083944224 0.02059898 0.030840028
0.25973272 0.24818899 0.22296113 0.21653904 -0.21309194 -0.21080479 0.046833634 0.060715854
-0.22199738 -0.22384578 0.057757735 0.072227985 -2.4481622e-07 -2.4481622e-07 -2.4481622e-07 -2.4481622e-07
-0.22936313 -0.22664276 0.06464251 0.056345347 -6.0224076e-14 -6.0224076e-14 -6.0224076e-14 -6.0224076e-14
2.3248732e-31 2.3247808e-31 2.3247641e-31 2.3246877e-31 -4.516e-42 -4.516e-42 -4.516e-42 -4.516e-42
0.23997547 0.2468094 -0.06922453 -0.070890546 -0.089948505 -0.08980791 0.027865667 0.03344465
-4.7151403e-27 -4.7151403e-27 -4.7151403e-27 -4.7151403e-27 -4.201235e-06 -4.201235e-06 -4.201235e-06 -4.201235e-06
3.3828097e-12 -3.4598413e-14 2.1783639e-11 1.3973212e-11 -2.1895659e-08 -2.189675e-08 -2.189623e-08 -2.1897003e-08
-0.029462194 -0.0320129 -0.08756813 -0.09306851 -0.20303783 -0.20879656 0.0311362 0.016001327
-1.3044498e-34 -1.3044498e-34 -1.3044498e-34 -1.3044498e-34 -1.849722e-05 -1.849722e-05 -1.849722e-05 -1.849722e-05
-1.7577164e-23 -1.7577164e-23 -1.7577164e-23 -1.7577164e-23 -0.07649953 -0.07602077 0.023080839 0.022597967
4.3927905e-20 4.392758e-20 4.392758e-20 4.392729e-20 -0.21708593 -0.22554685 -0.01627477 -0.030082932
1.286e-41 1.283e-41 1.2477e-41 1.342e-41 -0.23113544 -0.2254284 0.056020904 0.06680474
1.240719e-37 1.240719e-37 1.240719e-37 1.240719e-37 -4.774448e-09 -4.774448e-09 -4.774448e-09 -4.774448e-09
4.853e-42 4.064e-42 2.993e-42 3.209e-42 0.3374423 0.33550072 0.0009880768 0.015824633
9.411206e-18 9.411206e-18 9.411206e-18 9.411206e-18 0.16663475 0.16781546 -0.034393866 -0.043251902
-0.08583052 -0.08481442 0.021494882 0.03304356 0.036058396 0.03692337 -0.006732323 -0.009188427
-1.0096e-41 -1.01e-41 -1.0335e-41 -5.232e-42 1.8399039e-25 1.8399039e-25 1.8399039e-25 1.8399039e-25
-0.38857546 -0.38145638 0.05448365 0.061471242 -9.791557e-11 -9.803748e-11 -9.062562e-11 -9.0693245e-11
0.20731287 0.1924824 0.19592355 0.20381689 0.00077408337 0.00077408337 0.00077408337 0.00077408337
-0.050595406 -0.034772415 -0.23331782 -0.21920176 -0.1452555 -0.14473012 0.037620854 0.05474536
4.2340356e-15 4.2340356e-15 4.2340356e-15 4.2340356e-15 0.29683605 0.30018753 -0.01300899 -0.027494768
-0.17687573 -0.17661981 0.047424372 0.060610678 1.3320369e-24 1.3320369e-24 1.3320369e-24 1.3320369e-24
7.988908e-12 7.988908e-12 7.988908e-12 7.988908e-12 -3.303426e-12 -4.2872953e-12 1.3376375e-08 2.1033971e-08
-0.07023777 -0.0773049 -0.19155972 -0.19785905 3.2314692e-32 3.2314437e-32 3.2313085e-32 3.2313114e-32
-9.592e-42 -9.592e-42 -9.592e-42 -9.592e-42 0.040710565 0.042268295 -0.012464221 -0.014726103
-0.06465189 -0.06467072 0.019237481 0.021485187 4.379853e-23 4.379853e-23 4.379853e-23 4.379853e-23
6.983466e-30 6.983466e-30 6.983466e-30 6.983466e-30 -8.5e-43 -8.5e-43 -8.5e-43 -8.5e-43
-1.3168768e-34 -1.3184484e-34 -1.3840027e-34 -1.3856552e-34 0.039907094 0.040773142 -0.013648172 -0.017194053
00000000: 370a 51bd 7ad1 1bbd 684a 8fbe 5678 8ebe
00000010: 18c0 b2be bb57 afbe 43a4 2d3d 84f5 833d
00000020: 9d58 c2a9 7541 c3a9 2ee0 c2a9 70f7 c3a9
00000030: 43a9 f83d e9d5 003e 052e 0cbd c32a 25bd
00000040: ddfa 4605 ddfa 4605 ddfa 4605 ddfa 4605
00000050: 1fa6 10ba 1fa6 10ba 1fa6 10ba 1fa6 10ba
00000060: fb0c d9b5 fb0c d9b5 fb0c d9b5 fb0c d9b5
00000070: 34f1 abbd f3ea abbd 31bf a83c 3aa4 fc3c
00000080: b0fb 843e 4125 7e3e ec4f 643e 69bc 5d3e
00000090: c634 5abe 36dd 57be a0d4 3f3d 30b1 783d
000000a0: 4853 63be d437 65be 6093 6c3d 44ec 933d
000000b0: 496f 83b4 496f 83b4 496f 83b4 496f 83b4
000000c0: 2bde 6abe 0a15 68be 4b63 843d 61ca 663d
000000d0: d19c 87a9 d19c 87a9 d19c 87a9 d19c 87a9
000000e0: 95e4 960c 0ce3 960c c5e2 960c 80e1 960c
000000f0: 970c 0080 970c 0080 970c 0080 970c 0080
00000100: 21bc 753e 9abb 7c3e 97c5 8dbd 102f 91bd
00000110: ec36 b8bd 36ed b7bd 8a46 e43c 42fd 083d
00000120: 34c9 ba93 34c9 ba93 34c9 ba93 34c9 ba93
00000130: 55f8 8cb6 55f8 8cb6 55f8 8cb6 55f8 8cb6
00000140: 480b 6e2c 41d1 1ba9 659c bf2d c1d1 752d
00000150: 1015 bcb2 7617 bcb2 5216 bcb2 0518 bcb2
00000160: b35a f1bc f51f 03bd eb56 b3bd b49a bebd
00000170: 26e9 4fbe c4ce 55be 5811 ff3c 3715 833c
00000180: 2064 2d87 2064 2d87 2064 2d87 2064 2d87
00000190: 7a2a 9bb7 7a2a 9bb7 7a2a 9bb7 7a2a 9bb7
000001a0: f3fe a999 f3fe a999 f3fe a999 f3fe a999
000001b0: c9ab 9cbd c7b0 9bbd 0714 bd3c 5f1f b93c
000001c0: 9471 4f1f 3071 4f1f 3071 4f1f d670 4f1f
000001d0: c64b 5ebe c1f5 66be ab52 85bc 7b70 f6bc
000001e0: d923 0000 c423 0000 c822 0000 6925 0000
000001f0: c5ae 6cbe b4d6 66be 2d76 653d ecd0 883d
00000200: bfe0 2802 bfe0 2802 bfe0 2802 bfe0 2802
00000210: 7d0c a4b1 7d0c a4b1 7d0c a4b1 7d0c a4b1
00000220: 870d 0000 540b 0000 5808 0000 f208 0000
00000230: 3dc5 ac3e c0c6 ab3e 5b82 813a a9a2 813c
00000240: 2a9b 2d23 2a9b 2d23 2a9b 2d23 2a9b 2d23
00000250: 4da2 2a3e d1d7 2b3e 95e0 0cbd e828 31bd
00000260: e9c7 afbd 2fb3 adbd 0916 b03c af58 073d
00000270: f8b1 133d f63c 173d d29a dcbb 0e8b 16bc
00000280: 251c 0080 281c 0080 cf1c 0080 960e 0080
00000290: e2c4 6316 e2c4 6316 e2c4 6316 e2c4 6316
000002a0: 5df3 c6be 404e c3be 3f2a 5f3d 45c9 7b3d
000002b0: 9151 d7ae 3296 d7ae b049 c7ae c26f c7ae
000002c0: d349 543e 1b1a 453e 2fa0 483e 60b5 503e
000002d0: dbeb 4a3a dbeb 4a3a dbeb 4a3a dbeb 4a3a
000002e0: 213d 4fbd 856d 0ebd deea 6ebe 6d76 60be
000002f0: dcbd 14be 2234 14be 5318 1a3d ac3c 603d
00000300: 168c 9827 168c 9827 168c 9827 168c 9827
00000310: e5fa 973e 2eb2 993e a923 55bc b53c e1bc
00000320: e91e 35be d3db 34be 0f40 423d e742 783d
00000330: 6b1f ce17 6b1f ce17 6b1f ce17 6b1f ce17
00000340: d88a 0c2d d88a 0c2d d88a 0c2d d88a 0c2d
00000350: 3b75 68ac 86d8 96ac ebcd 6532 31ae b432
00000360: d2d8 8fbd 0852 9ebd 3b28 44be 909b 4abe
00000370: 98c9 270b 41c9 270b 75c7 270b 7fc7 270b
00000380: bd1a 0080 bd1a 0080 bd1a 0080 bd1a 0080
00000390: 1fc0 263d 8521 2d3d bb36 4cbc c145 71bc
000003a0: 3668 84bd 1572 84bd ec97 9d3c b401 b03c
000003b0: f4cb 531a f4cb 531a f4cb 531a f4cb 531a
000003c0: 3ba4 0d0f 3ba4 0d0f 3ba4 0d0f 3ba4 0d0f
000003d0: 5f02 0080 5f02 0080 5f02 0080 5f02 0080
000003e0: ff0a 2f87 7940 2f87 2cf7 3787 672f 3887
000003f0: 9f75 233d bd01 273d 959c 5fbc 8bda 8cbc

fc.bias f4 [2]
0.019794175 0.033929992
00000000: 6527 a23c 2dfa 0a3d

onnx::Conv_80 f4 [16, 3, 7, 7]
-0.008138547 -0.024227409 -0.03217514 -0.007260524 -0.008356284 0.014074562 0.0022529513 -0.0056896587
-0.015757728 -0.028610298 -0.0186108 -0.01559944 -0.0073438827 -0.018400054 -0.021984152 -0.011704037
-0.028056089 -0.017579231 -0.013204194 -0.016464831 -0.016164182 0.0025333609 -0.0022421128 -0.012449041
0.008828394 0.02027925 0.017069537 0.01123852 -0.012070353 -0.027816277 -0.041898914 -0.021611245
-0.004566699 -0.000636609 0.006188546 -0.0026921055 -0.024832921 -0.047832105 -0.028379736 -0.014041017
-0.0022395144 0.015273315 0.026919791 0.0039432673 -0.019059185 -0.0139458245 -0.00058379536 0.00081162865
0.019676592 -0.016121268 -0.031616997 -0.03340626 -0.01686037 -0.023057204 0.0016999006 -0.003315238
-0.017619211 -0.026616061 -0.03547751 -0.026686937 -0.026502455 -0.01554737 -0.019011626 -0.039390985
-0.026439086 -0.03313385 -0.027985554 -0.032838013 -0.0358497 -0.024040973 -0.03016339 -0.028300941
-0.03529966 -0.013987114 -0.015937705 -0.013468772 -0.00341215 -0.04239617 -0.045274224 -0.058893956
-0.042341363 -0.042674046 -0.041130222 -0.026754577 -0.031405445 -0.036180798 -0.054156683 -0.03349726
-0.031433232 -0.035073847 -0.021585569 -0.015143517 -0.01752341 -0.026812416 -0.015195892 -0.009777627
-0.018187206 0.0007043799 0.016876804 0.003717405 -0.0038272056 0.011138122 0.00675293 0.030735796
0.0404349 0.017094756 0.006520269 -0.008889829 -0.0053745997 -0.0074589183 0.010867533 0.015767086
-0.004229136 0.0070882076 -0.0075321505 0.0005662286 -0.00043732577 -0.0025965208 0.011575093 0.012586871
0.015445403 0.0070586414 0.031491052 0.031901244 0.02104163 0.027838336 0.0027890522 0.00066546
-0.014327927 0.0055493005 0.0060761073 -0.005288159 0.002773398 0.0058686133 0.0015456 -0.016711127
0.0071125533 0.0043562236 -0.0022248372 0.009396369 0.008140826 0.00684963 0.002932364 0.01330269
0.020835305 0.009442023 0.02347684 -0.02948884 -0.020076 -0.045318566 -0.016761731 -0.0061154165
-0.013059175 -0.053608593 0.01547305 -0.010918285 -0.04233012 0.00048068483 -0.0063530253 -0.00061324955
-0.03464122 -0.0013560947 -0.033558838 -0.053489197 -0.042167965 -0.02113397 -0.007628181 0.0083505325
-0.008657276 0.001755553 -0.021960955 -0.023416376 0.01518404 0.030190038 0.015875403 -0.005993578
0.0062127775 -0.015792591 -0.02307375 0.00039331245 0.038217742 0.032253854 0.006726948 -0.014936323
-0.017953135 0.0144519415 0.008436714 0.00737928 6.044126e-05 0.080327965 0.055857975 0.06448273
0.03927335 0.01721577 0.0015597459 0.0004021083 -0.02741178 -0.029260827 -0.06769285 -0.042378273
-0.01693614 -0.009362016 -0.020208638 0.005197724 -0.031291075 -0.07653894 -0.023758851 -0.0054554
0.023353897 0.010369784 -0.0217621 -0.072072096 -0.10037357 -0.05901859 0.0042301808 0.03435529
0.057288487 -0.05356391 -0.0733281 -0.08602951 -0.04512288 0.031501524 0.05193219 0.05634745
-0.04119544 -0.04536295 -0.063381575 -0.03614309 0.019998359 0.05816539 0.075512014 -0.022943053
-0.048131995 -0.054725315 0.0022361975 0.016932592 0.024632633 0.038501438 0.039805606 0.0054423935
0.0037662734 0.0063318526 0.015841765 0.010693956 0.0020957065 0.048221674 0.03342001 -0.032684512
-0.017937606 0.0102221165 0.038668882 0.04731235 0.06218035 0.018454645 -0.03487113 -0.0090565
00000000: 8a57 05bc 8f78 c6bc 14ca 03bd b1e9 edbb
00000010: cce8 08bc fe98 663c 40a6 133b 5170 babb
00000020: 5a16 81bc 2560 eabc ad75 98bc cb94 7fbc
00000030: f4a4 f0bb b6bb 96bc 1c18 b4bc 4ac2 3fbc
00000040: e2d5 e5bc 5202 90bc 6756 58bc 41e1 86bc
00000050: bf6a 84bc be06 263b 69f0 12bb 10f7 4bbc
00000060: f8a4 103c ab20 a63c 6ad5 8b3c c521 383c
00000070: bbc2 45bc f6de e3bc 329e 2bbd 110a b1bc
00000080: 3fa4 95bb 1be2 26ba 49c9 ca3b 096e 30bb
00000090: 696e cbbc 99eb 43bd 9f7c e8bc 4b0c 66bc
000000a0: d1c4 12bb ed3c 7a3c e586 dc3c 8636 813b
000000b0: 0222 9cbc 077d 64bc d809 19ba 7ac3 543a
000000c0: ce30 a13c c010 84bc d380 01bd 01d5 08bd
000000d0: c21e 8abc 76e2 bcbc 33cf de3a 7744 59bb
000000e0: 2a56 90bc ed09 dabc de50 11bd 909e dabc
000000f0: ad1b d9bc 65ba 7ebc 45be 9bbc 7158 21bd
00000100: c896 d8bc 5cb7 07bd f641 e5bc 2781 06bd
00000110: 23d7 12bd 93f1 c4bc 3719 f7bc 60d7 e7bc
00000120: 6096 10bd 352a 65bc ca8f 82bc 20ac 5cbc
00000130: 619e 5fbb 9ba7 2dbd 7771 39bd ca3a 71bd
00000140: 236e 2dbd fbca 2ebd 2a78 28bd 6a2c dbbc
00000150: ffa2 00bd 5132 14bd 66d3 5dbd 6c34 09bd
00000160: 22c0 00bd 98a9 0fbd 38d4 b0bc 841c 78bc
00000170: 418d 8fbc b6a5 dbbc 31f8 78bc 5732 20bc
00000180: 56fd 94bc 23a6 383a 3941 8a3c b59f 733b
00000190: dbd1 7abb ab7c 363c af47 dd3b a3c9 fb3c
000001a0: 119f 253d 4d0a 8c3c fba7 d53b a5a6 11bc
000001b0: 691d b0bb f169 f4bb bd0d 323c fa29 813c
000001c0: 9094 8abb 3244 e83b 42d0 f6bb f56e 143a
000001d0: df48 e5b9 642a 2abb 75a5 3d3c 2a39 4e3c
000001e0: b70e 7d3c 2d4c e73b c3fc 003d e1aa 023d
000001f0: 7f5f ac3c 390d e43c 88c8 363b 4472 2e3a
00000200: aebf 6abc e8d6 b53b 151a c73b 4b48 adbb
00000210: e6c1 353b 7f4d c03b bb95 ca3a c6e5 88bc
00000220: 6c10 e93b a7be 8e3b 93ce 11bb 3af3 193c
00000230: 1961 053c dc72 e03b e72c 403b 87f3 593c
00000240: cdae aa3c b7b2 1a3c 8152 c03c 9492 f1bc
00000250: 6c76 a4bc f69f 39bd e64f 89bc d563 c8bb
00000260: 26f6 55bc af94 5bbd ad82 7d3c 9be2 32bc
00000270: 5962 2dbd 6d04 fc39 0a2d d0bb 7bc2 20ba
00000280: f4e3 0dbd fdbe b1ba fe74 09bd 7d17 5bbd
00000290: 51b8 2cbd 2621 adbc d2f5 f9bb acd0 083c
000002a0: 3fd7 0dbc 951a e63a 76e7 b3bc b3d3 bfbc
000002b0: 7bc6 783c 1951 f73c 220d 823c c765 c4bb
000002c0: 8e94 cb3b 775f 81bc 2905 bdbc 8135 ce39
000002d0: 358a 1c3d 9e1c 043d bb6d dc3b 7bb7 74bc
000002e0: 7412 93bc d6c7 6c3c 253a 0a3c e3cd f13b
000002f0: 4f82 7d38 fd82 a43d 55cb 643d 860f 843d
00000300: 18dd 203d 1608 8d3c 6370 cc3a 10d2 d239
00000310: ab8e e0bc 67b4 efbc 8da2 8abd d794 2dbd
00000320: a9bd 8abc 2463 19bc 968c a5bc ab51 aa3b
00000330: 122b 00bd 73c0 9cbd eca1 c2bc 36c3 b2bb
00000340: ac50 bf3c 07e6 293c 6e46 b2bc 899a 93bd
00000350: a990 cdbd 7abd 71bd 549d 8a3b 22b8 0c3d
00000360: 55a7 6a3d d565 5bbd 0b2d 96bd 3d30 b0bd
00000370: c5d2 38bd be07 013d d9b6 543d 95cc 663d
00000380: 8dbc 28bd 80ce 39bd 33ce 81bd c70a 14bd
00000390: 99d3 a33c d53e 6e3d 0ba6 9a3d 12f3 bbbc
000003a0: 0e26 45bd a727 60bd 2b8d 123b 38b6 8a3c
000003b0: 60ca c93c afb3 1d3d 340b 233d 1b56 b23b
000003c0: 95d3 763b 6e7b cf3b 97c6 813c b435 2f3c
000003d0: 1f58 093b 1784 453d 6ce3 083d 32e0 05bd
000003e0: e3f1 92bc aa7a 273c 4363 1e3d 98ca 413d
000003f0: d3b0 7e3d 322e 973c 08d5 0ebd b761 14bc

onnx::Conv_81 f4 [16]
0.5569847 0.08049723 0.32061496 0.044462666 -0.6747159 0.13138118 0.053476594 -0.77961534
0.43333894 0.31676638 -0.100244164 -0.0135967275 -0.16310596 0.38169158 -0.046454016 0.5513327
00000000: 8d96 0e3f bbdb a43d a527 a43e 7c1e 363d
00000010: 2eba 2cbf ca88 063e 460a 5b3d df94 47bf
00000020: 9ade dd3e 342f a23e d04c cdbd cfc4 5ebc
00000030: 4005 27be 146d c33e 9146 3ebd 2424 0d3f

onnx::Conv_83 f4 [32, 16, 3, 3]
-3.293134e-05 -4.953707e-05 -3.5961304e-05 -8.989818e-06 1.787344e-05 2.2237924e-05 6.862724e-07 1.909758e-05
3.651627e-05 -5.9882947e-05 -3.3890414e-05 -4.1669504e-05 -6.1950755e-05 -2.5391691e-05 -2.5965754e-05 1.8481956e-05
6.822886e-05 2.8447861e-05 -1.4640048e-05 -6.501935e-06 9.2285545e-06 -2.1153064e-05 -7.0097753e-06 4.881943e-07
-1.3641382e-05 3.941341e-06 1.0938667e-05 -0.0001428001 -0.00013369005 -0.00027981616 -6.5907356e-05 -4.7543428e-05
-0.00013047116 -0.0002070006 -5.1535673e-05 -7.557912e-05 -7.392671e-06 2.5666784e-05 2.3697297e-05 -4.953439e-05
-2.9938252e-05 -3.7451064e-06 2.3961948e-05 2.9631774e-05 -7.217831e-06 -3.562131e-05 -5.601172e-05 -8.1392e-05
-1.1828514e-06 -7.77458e-06 -2.2951437e-05 6.0061724e-05 3.5304995e-05 3.2737793e-05 -2.0158792e-05 -3.2025822e-05
-5.3314463e-05 -2.90285e-06 -3.807616e-05 -5.115688e-05 2.0634778e-05 1.5956228e-05 1.938813e-05 -9.307625e-05
-8.376031e-05 8.111002e-05 -0.00018193664 -0.00024920073 -0.00019290246 -0.00016083336 -0.00022848738 -0.000132818
-0.0001560197 -0.00016043245 -0.0003505204 -8.3589344e-05 -0.00012353684 -0.00020659847 -0.0002564081 -3.46668e-05
-4.96288e-05 -3.319538e-05 -0.000118105505 -0.00011846596 -3.958382e-05 -0.00011286634 -0.0001421126 -7.031497e-05
-4.9250586e-05 -5.314407e-05 -0.000102793354 3.6679732e-05 7.2206785e-05 -0.00013163997 0.00011260734 0.00015872507
9.292744e-06 0.00021106744 0.00014462968 -1.4684978e-05 6.1699255e-05 0.00017694008 0.00016217682 0.00021384197
0.00020788437 -0.00017002864 -0.00014493932 -0.00033413307 8.81228e-06 9.50254e-06 2.4558951e-06 1.2520998e-05
-2.6109103e-06 5.0628255e-06 2.7000984e-05 4.9264258e-05 7.141194e-05 -0.00014286143 -0.00016854938 -0.0001683593
-0.00014776314 -0.00021105853 -0.0004286397 -0.00022733018 -0.00013807241 -0.00023566866 -7.098249e-06 -1.0962506e-05
-7.041817e-06 -6.311607e-06 -1.0976366e-05 -8.260323e-06 -4.1244216e-06 -1.1540796e-05 -1.0321466e-05 -4.0074436e-05
-3.600682e-05 -2.738114e-05 -2.386565e-05 -1.5828391e-05 -3.1800522e-05 1.4253636e-05 1.5963873e-05 -6.9537856e-07
-0.0 -0.0 0.0 -0.0 -0.0 0.0 0.0 -0.0
-0.0 -0.0 -0.0 -0.0 0.0 0.0 -0.0 0.0
0.0 -0.0 -0.0 0.0 -0.0 0.0 -0.0 0.0
-0.0 -0.0 -0.0 -0.0 -0.0 -0.0 -0.0 -0.0
-0.0 -0.0 0.0 0.0 -0.0 -0.0 0.0 -0.0
-0.0 -0.0 -0.0 -0.0 -0.0 0.0 0.0 0.0
-0.0 0.0 -0.0 -0.0 -0.0 -0.0 -0.0 -0.0
-0.0 0.0 0.0 -0.0 0.0 -0.0 -0.0 0.0
-0.0 0.0 -0.0 -0.0 -0.0 -0.0 0.0 0.0
0.0 -0.0 -0.0 -0.0 0.0 0.0 0.0 0.0
-0.0 0.0 0.0 0.0 0.0 0.0 0.0 0.0
0.0 -0.0 0.0 0.0 0.0 0.0 0.0 -0.0
-0.0 -0.0 0.0 -0.0 0.0 -0.0 -0.0 0.0
-0.0 0.0 -0.0 0.0 -0.0 -0.0 0.0 0.0
00000000: c21f 0ab8 06c6 4fb8 28d5 16b8 f9d2 16b7
00000010: ecee 9537 948b ba37 4838 3835 be33 a037
00000020: 0c29 1938 d32a 7bb8 8e25 0eb8 4ac6 2eb8
00000030: 8feb 81b8 3e00 d5b7 08d1 d9b7 b309 9b37
00000040: 1716 8f38 51a3 ee37 879e 75b7 322b dab6
00000050: 57d4 1a37 dc71 b1b7 8335 ebb6 750c 0335
00000060: 4add 64b7 dd3f 8436 3885 3737 9cbc 15b9
00000070: 262f 0cb9 4ab4 92b9 be37 8ab8 5e69 47b8
00000080: 16cf 08b9 4d0e 59b9 0228 58b8 3b80 9eb8
00000090: 8f0e f8b6 004f d737 8fc9 c637 25c3 4fb8
000000a0: e823 fbb7 7054 7bb6 e401 c937 c091 f837
000000b0: b230 f2b6 1768 15b8 20ee 6ab8 ffb0 aab8
000000c0: 77c2 9eb5 916f 02b7 d687 c0b7 c9ea 7b38
000000d0: 7314 1438 f04f 0938 ad1a a9b7 7753 06b8
000000e0: f89d 5fb8 95ce 42b6 f7b3 1fb8 4891 56b8
000000f0: d918 ad37 bdd9 8537 b1a3 a237 ee31 c3b8
00000100: 79a8 afb8 9c19 aa38 3fc6 3eb9 28a7 82b9
00000110: dc45 4ab9 60a5 28b9 1d96 6fb9 0f45 0bb9
00000120: 3899 23b9 c239 28b9 0dc6 b7b9 b04c afb8
00000130: ab89 01b9 5ba2 58b9 836e 86b9 3167 11b8
00000140: 8528 50b8 453b 0bb8 69af f7b8 ee70 f8b8
00000150: ce06 26b8 a8b2 ecb8 1004 15b9 1076 93b8
00000160: 6a92 4eb8 03e7 5eb8 c392 d7b8 90d8 1938
00000170: b96d 9738 d608 0ab9 9b27 ec38 706f 2639
00000180: 08e8 1b37 fc51 5d39 bca7 1739 805f 76b7
00000190: 8964 8138 fe88 3939 020e 2a39 c43a 6039
000001a0: 89fb 5939 b749 32b9 dafa 17b9 952e afb9
000001b0: 74d8 1337 196d 1f37 f5cf 2436 4711 5237
000001c0: 1937 2fb6 57e1 a936 2c80 e237 18a1 4e38
000001d0: fec2 9538 13cd 15b9 a1bc 30b9 9b89 30b9
000001e0: def0 1ab9 984f 5db9 0cbb e0b9 7b5f 6eb9
000001f0: 88c7 10b9 d31d 77b9 7f2d eeb6 9beb 37b7
00000200: bf48 ecb6 4bc8 d3b6 2227 38b7 d195 0ab7
00000210: 8364 8ab6 579f 41b7 5c2a 2db7 9915 28b8
00000220: 0706 17b8 8db0 e5b7 1833 c8b7 36c7 84b7
00000230: 8d61 05b8 e722 6f37 28ea 8537 0daa 3ab5
00000240: 0000 0080 0000 0080 0000 0000 0000 0080
00000250: 0000 0080 0000 0000 0000 0000 0000 0080
00000260: 0000 0080 0000 0080 0000 0080 0000 0080
00000270: 0000 0000 0000 0000 0000 0080 0000 0000
00000280: 0000 0000 0000 0080 0000 0080 0000 0000
00000290: 0000 0080 0000 0000 0000 0080 0000 0000
000002a0: 0000 0080 0000 0080 0000 0080 0000 0080
000002b0: 0000 0080 0000 0080 0000 0080 0000 0080
000002c0: 0000 0080 0000 0080 0000 0000 0000 0000
000002d0: 0000 0080 0000 0080 0000 0000 0000 0080
000002e0: 0000 0080 0000 0080 0000 0080 0000 0080
000002f0: 0000 0080 0000 0000 0000 0000 0000 0000
00000300: 0000 0080 0000 0000 0000 0080 0000 0080
00000310: 0000 0080 0000 0080 0000 0080 0000 0080
00000320: 0000 0080 0000 0000 0000 0000 0000 0080
00000330: 0000 0000 0000 0080 0000 0080 0000 0000
00000340: 0000 0080 0000 0000 0000 0080 0000 0080
00000350: 0000 0080 0000 0080 0000 0000 0000 0000
00000360: 0000 0000 0000 0080 0000 0080 0000 0080
00000370: 0000 0000 0000 0000 0000 0000 0000 0000
00000380: 0000 0080 0000 0000 0000 0000 0000 0000
00000390: 0000 0000 0000 0000 0000 0000 0000 0000
000003a0: 0000 0000 0000 0080 0000 0000 0000 0000
000003b0: 0000 0000 0000 0000 0000 0000 0000 0080
000003c0: 0000 0080 0000 0080 0000 0000 0000 0080
000003d0: 0000 0000 0000 0080 0000 0080 0000 0000
000003e0: 0000 0080 0000 0000 0000 0080 0000 0000
000003f0: 0000 0080 0000 0080 0000 0000 0000 0000

onnx::Conv_84 f4 [32]
-0.00057518063 -1.040206e-39 -0.11652054 0.073694855 -3.24693e-40 -1.14228e-39 0.16655873 0.21817447
-0.1386559 0.064038664 -1.45128e-40 -3.47595e-40 -0.0008829139 -0.10049031 -0.045900494 -0.035347827
0.0545144 0.0017319762 3.81778e-40 0.2533661 0.103446566 0.04153034 0.16992024 0.1503982
-0.00035867206 -0.03323537 -0.0002987898 -0.19035897 -0.052447185 -0.099432416 -0.051664267 0.016651906
00000000: b8c7 16ba ac53 0b80 52a2 eebd 54ed 963d
00000010: 1d89 0380 3670 0c80 5f8e 2a3e 2169 5f3e
00000020: d0fb 0dbe b426 833d 8f94 0180 f4c8 0380
00000030: 5973 67ba ddcd cdbd 2802 3cbd e2c8 10bd
00000040: 7e4a 5f3d 7a03 e33a 3e28 0400 34b9 813e
00000050: cbdb d33d b81b 2a3d 92ff 2d3e fc01 1a3e
00000060: 260c bcb9 d021 08bd e3a6 9cb9 76ed 42be
00000070: dcd2 56bd 39a3 cbbd e99d 53bd 9469 883c

onnx::Conv_86 f4 [32, 32, 3, 3]
-0.0 0.0 -0.0 -0.0 0.0 -0.0 -0.0 -0.0
0.0 -0.0 0.0 -0.0 -0.0 -0.0 0.0 -0.0
0.0 0.0 0.0 -0.0 0.0 -0.0 0.0 0.0
0.0 -0.0 -0.0 -0.0 -0.0 -0.0 0.0 0.0
-0.0 0.0 0.0 0.0 0.0 0.0 -0.0 -0.0
-0.0 -0.0 0.0 0.0 0.0 -0.0 0.0 0.0
-0.0 -0.0 -0.0 0.0 0.0 -0.0 -0.0 0.0
0.0 0.0 0.0 0.0 0.0 0.0 -0.0 0.0
0.0 -0.0 -0.0 0.0 0.0 0.0 -0.0 0.0
-0.0 0.0 0.0 0.0 -0.0 -0.0 -0.0 0.0
0.0 -0.0 0.0 -0.0 -0.0 0.0 0.0 -0.0
0.0 -0.0 0.0 -0.0 -0.0 -0.0 -0.0 -0.0
-0.0 0.0 0.0 -0.0 0.0 0.0 -0.0 0.0
0.0 0.0 -0.0 0.0 -0.0 -0.0 -0.0 -0.0
0.0 0.0 -0.0 0.0 -0.0 0.0 -0.0 0.0
-0.0 -0.0 -0.0 -0.0 0.0 -0.0 -0.0 -0.0
-0.0 0.0 0.0 0.0 -0.0 -0.0 0.0 0.0
-0.0 -0.0 0.0 -0.0 -0.0 -0.0 0.0 0.0
0.0 -0.0 0.0 0.0 -0.0 0.0 -0.0 -0.0
0.0 0.0 -0.0 -0.0 0.0 -0.0 0.0 -0.0
-0.0 -0.0 0.0 0.0 -0.0 0.0 0.0 0.0
-0.0 -0.0 0.0 -0.0 -0.0 -0.0 0.0 -0.0
0.0 -0.0 0.0 -0.0 -0.0 0.0 0.0 0.0
-0.0 0.0 -0.0 -0.0 0.0 -0.0 -0.0 -0.0
0.0 0.0 -0.0 -0.0 -0.0 0.0 -0.0 -0.0
0.0 0.0 -0.0 0.0 -0.0 -0.0 0.0 -0.0
-0.0 -0.0 0.0 0.0 -0.0 -0.0 0.0 -0.0
0.0 -0.0 -0.0 0.0 0.0 -0.0 -0.0 -0.0
-0.0 -0.0 0.0 0.0 -0.0 -0.0 0.0 -0.0
-0.0 -0.0 -0.0 -0.0 0.0 0.0 0.0 -0.0
-0.0 0.0 0.0 -0.0 0.0 0.0 -0.0 0.0
-0.0 -0.0 -0.0 0.0 -0.0 -0.0 0.0 -0.0
00000000: 0000 0080 0000 0000 0000 0080 0000 0080
00000010: 0000 0000 0000 0080 0000 0080 0000 0080
00000020: 0000 0000 0000 0080 0000 0000 0000 0080
00000030: 0000 0080 0000 0080 0000 0000 0000 0080
00000040: 0000 0000 0000 0000 0000 0000 0000 0080
00000050: 0000 0000 0000 0080 0000 0000 0000 0000
00000060: 0000 0000 0000 0080 0000 0080 0000 0080
00000070: 0000 0080 0000 0080 0000 0000 0000 0000
00000080: 0000 0080 0000 0000 0000 0000 0000 0000
00000090: 0000 0000 0000 0000 0000 0080 0000 0080
000000a0: 0000 0080 0000 0080 0000 0000 0000 0000
000000b0: 0000 0000 0000 0080 0000 0000 0000 0000
000000c0: 0000 0080 0000 0080 0000 0080 0000 0000
000000d0: 0000 0000 0000 0080 0000 0080 0000 0000
000000e0: 0000 0000 0000 0000 0000 0000 0000 0000
000000f0: 0000 0000 0000 0000 0000 0080 0000 0000
00000100: 0000 0000 0000 0080 0000 0080 0000 0000
00000110: 0000 0000 0000 0000 0000 0080 0000 0000
00000120: 0000 0080 0000 0000 0000 0000 0000 0000
00000130: 0000 0080 0000 0080 0000 0080 0000 0000
00000140: 0000 0000 0000 0080 0000 0000 0000 0080
00000150: 0000 0080 0000 0000 0000 0000 0000 0080
00000160: 0000 0000 0000 0080 0000 0000 0000 0080
00000170: 0000 0080 0000 0080 0000 0080 0000 0080
00000180: 0000 0080 0000 0000 0000 0000 0000 0080
00000190: 0000 0000 0000 0000 0000 0080 0000 0000
000001a0: 0000 0000 0000 0000 0000 0080 0000 0000
000001b0: 0000 0080 0000 0080 0000 0080 0000 0080
000001c0: 0000 0000 0000 0000 0000 0080 0000 0000
000001d0: 0000 0080 0000 0000 0000 0080 0000 0000
000001e0: 0000 0080 0000 0080 0000 0080 0000 0080
000001f0: 0000 0000 0000 0080 0000 0080 0000 0080
00000200: 0000 0080 0000 0000 0000 0000 0000 0000
00000210: 0000 0080 0000 0080 0000 0000 0000 0000
00000220: 0000 0080 0000 0080 0000 0000 0000 0080
00000230: 0000 0080 0000 0080 0000 0000 0000 0000
00000240: 0000 0000 0000 0080 0000 0000 0000 0000
00000250: 0000 0080 0000 0000 0000 0080 0000 0080
00000260: 0000 0000 0000 0000 0000 0080 0000 0080
00000270: 0000 0000 0000 0080 0000 0000 0000 0080
00000280: 0000 0080 0000 0080 0000 0000 0000 0000
00000290: 0000 0080 0000 0000 0000 0000 0000 0000
000002a0: 0000 0080 0000 0080 0000 0000 0000 0080
000002b0: 0000 0080 0000 0080 0000 0000 0000 0080
000002c0: 0000 0000 0000 0080 0000 0000 0000 0080
000002d0: 0000 0080 0000 0000 0000 0000 0000 0000
000002e0: 0000 0080 0000 0000 0000 0080 0000 0080
000002f0: 0000 0000 0000 0080 0000 0080 0000 0080
00000300: 0000 0000 0000 0000 0000 0080 0000 0080
00000310: 0000 0080 0000 0000 0000 0080 0000 0080
00000320: 0000 0000 0000 0000 0000 0080 0000 0000
00000330: 0000 0080 0000 0080 0000 0000 0000 0080
00000340: 0000 0080 0000 0080 0000 0000 0000 0000
00000350: 0000 0080 0000 0080 0000 0000 0000 0080
00000360: 0000 0000 0000 0080 0000 0080 0000 0000
00000370: 0000 0000 0000 0080 0000 0080 0000 0080
00000380: 0000 0080 0000 0080 0000 0000 0000 0000
00000390: 0000 0080 0000 0080 0000 0000 0000 0080
000003a0: 0000 0080 0000 0080 0000 0080 0000 0080
000003b0: 0000 0000 0000 0000 0000 0000 0000 0080
000003c0: 0000 0080 0000 0000 0000 0000 0000 0080
000003d0: 0000 0000 0000 0000 0000 0080 0000 0000
000003e0: 0000 0080 0000 0080 0000 0080 0000 0000
000003f0: 0000 0080 0000 0080 0000 0000 0000 0080

onnx::Conv_87 f4 [32]
-3.5775833e-19 -0.04635566 0.3950383 6.19506e-40 -3.6291926e-25 0.05045532 0.18819751 -0.011478776
-7.936807e-09 0.5354921 -0.24184614 -0.04178834 0.0011988238 -2.4661538e-12 8.55061e-40 0.014475264
-0.037971765 -7.47487e-16 0.043341275 0.039116766 -6.922978e-27 -2.4045418e-16 -0.007345817 -0.14490098
5.821833e-39 -0.13876 -0.021133304 -6.20182e-40 -4.3822052e-05 -1.8190028e-12 0.0021223584 -0.09926939
00000000: e92e d3a0 6fdf 3dbd 7642 ca3e eebe 0600
00000010: daa2 e096 3daa 4e3d d9b6 403e 7a11 3cbc
00000020: 725a 08b2 0316 093f 84a6 77be 402a 2bbd
00000030: da21 9d3a 478a 2dac 904f 0900 a829 6d3c
00000040: 4888 1bbd ce72 57a6 9f86 313d e738 203d
00000050: ab1f 0994 c69c 8aa5 2eb5 f0bb ec60 14be
00000060: e764 3f00 1a17 0ebe c01f adbc d1c0 0680
00000070: 92cd 37b8 3e00 00ac 4417 0b3b c04d cbbd

onnx::Conv_89 f4 [32, 16, 1, 1]
-0.0 -0.0 0.0 0.0 0.0 -0.0 -0.0 0.0
0.0 -0.0 0.0 -0.0 0.0 -0.0 -0.0 -0.0
-0.068898015 0.026538406 -0.048656713 0.18130636 -0.009754151 0.16126828 0.08121394 0.09121149
0.039664116 0.10784479 -0.18297663 -0.1197198 -0.07239572 -0.03544312 -0.013620422 -0.045282077
-0.0700036 0.015216179 -0.052630335 -0.015428555 -0.014006719 -0.029937275 0.05391571 -0.14565933
0.066446066 -0.046396878 -0.14784783 -0.09512519 -0.06576245 -0.046170045 -0.020073581 -0.078005835
-0.0 0.0 0.0 -0.0 0.0 -0.0 0.0 -0.0
-0.0 -0.0 0.0 0.0 -0.0 0.0 0.0 -0.0
-0.0 -0.0 0.0 -0.0 -0.0 -0.0 -0.0 -0.0
-0.0 -0.0 0.0 0.0 0.0 0.0 -0.0 -0.0
-0.11233927 -0.17955408 -0.23284665 -0.09244664 -0.1278526 -0.04564672 -0.24649017 -0.44525406
0.106350586 0.09007064 0.11033957 0.16801742 -0.102934964 0.12848198 0.05970265 -0.04471466
-0.09617623 -0.054808527 -0.1369351 -0.020303149 -0.013836517 0.22897068 0.035028595 -0.114583164
0.11495028 0.11929836 0.08800099 0.028599886 -0.024330996 0.08486054 -0.063144505 -0.19260606
0.14408784 -0.043774847 0.038094502 0.10863227 0.014067208 0.2695991 -0.119652405 -0.27180928
0.086030915 -0.12883095 -0.17322561 0.31161958 0.17899965 -0.1336636 0.083657406 0.09985821
-0.0 1e-45 -1e-45 0.0 -1e-45 0.0 0.0 0.0
0.0 1e-45 -1e-45 0.0 0.0 -0.0 -0.0 -1e-45
0.21893753 0.099246666 0.0794101 0.041597564 -0.2384025 0.110071175 0.029834159 -0.21059431
-0.10179588 0.03235939 -0.071002685 -0.07116691 -0.34224293 0.16581266 -0.1257537 -0.033948652
0.06963803 0.09759456 0.12786253 -0.111300774 -0.08424772 0.013888421 0.22087103 0.14171481
0.44308546 -0.20489821 0.018302603 0.19777459 0.08217075 -0.07890037 -0.088343225 0.30605692
-0.057234712 -0.054009125 -0.18020487 0.012512086 -0.16285373 -0.0126946885 0.23868318 -0.07549226
0.19208564 -0.24882253 -0.081055716 0.030005526 0.1891724 0.015650041 -0.048389513 -0.13669303
-1.6971253e-05 -5.3486445e-07 2.419871e-05 6.190338e-05 -9.642184e-06 -9.4324976e-05 2.5762274e-05 0.00011137316
-0.00017861223 3.316581e-05 0.00017544802 -1.4402873e-05 2.7208744e-05 -6.644395e-05 1.1001037e-05 -1.6675462e-05
0.0 -0.0 -0.0 0.0 0.0 0.0 0.0 -0.0
0.0 -0.0 0.0 0.0 0.0 0.0 -0.0 0.0
-0.0 -0.0 -0.0 -0.0 0.0 0.0 -0.0 -0.0
0.0 0.0 -0.0 0.0 -0.0 0.0 0.0 -0.0
-0.044782512 -0.073652245 -0.0077962372 0.30742937 0.14663072 -0.18340276 -0.056334246 -0.02753599
-0.2499565 0.06086631 -0.07082386 -0.17087857 0.054051086 -0.07068856 0.0784432 -0.08211888
00000000: 0000 0080 0000 0080 0000 0000 0000 0000
00000010: 0000 0000 0000 0080 0000 0080 0000 0000
00000020: 0000 0000 0000 0080 0000 0000 0000 0080
00000030: 0000 0000 0000 0080 0000 0080 0000 0080
00000040: 671a 8dbd 1267 d93c 434c 47bd 60a8 393e
00000050: e0cf 1fbc 8323 253e 7f53 a63d 17cd ba3d
00000060: d776 223d bbdd dc3d 3a5e 3bbe a82f f5bd
00000070: 3544 94bd ce2c 11bd 3128 5fbc b379 39bd
00000080: 0c5e 8fbd 484d 793c e892 57bd 0dc8 7cbc
00000090: 707c 65bc 043f f5bc b8d6 5c3d b827 15be
000000a0: e014 883d a70a 3ebd 6c65 17be ffd0 c2bd
000000b0: 77ae 86bd cd1c 3dbd 5a71 a4bc 86c1 9fbd
000000c0: 0000 0080 0000 0000 0000 0000 0000 0080
000000d0: 0000 0000 0000 0080 0000 0000 0000 0080
000000e0: 0000 0080 0000 0080 0000 0000 0000 0000
000000f0: 0000 0080 0000 0000 0000 0000 0000 0080
00000100: 0000 0080 0000 0080 0000 0000 0000 0080
00000110: 0000 0080 0000 0080 0000 0080 0000 0080
00000120: 0000 0080 0000 0080 0000 0000 0000 0000
00000130: 0000 0000 0000 0000 0000 0080 0000 0080
00000140: 2212 e6bd 06dd 37be 5a6f 6ebe aa54 bdbd
00000150: cbeb 02be 0ef8 3abd eb67 7cbe 57f8 e3be
00000160: 56ce d93d f576 b83d b6f9 e13d c20c 2c3e
00000170: 91cf d2bd c890 033e c48a 743d b826 37bd
00000180: 0bf8 c4bd e87e 60bd b738 0cbe ca52 a6bc
00000190: 8fb2 62bc 4a77 6a3e 257a 0f3d 94aa eabd
000001a0: 0d6b eb3d b352 f43d dd39 b43d 4f4a ea3c
000001b0: cc51 c7bc 5dcb ad3d e851 81bd 863a 45be
000001c0: c38b 133e 414d 33bd fb08 1c3d 987a de3d
000001d0: 267a 663c e508 8a3e 520c f5bd 962a 8bbe
000001e0: fa30 b03d 43ec 03be 0e62 31be 9a8c 9f3e
000001f0: af4b 373e 1cdf 08be 9354 ab3d 7682 cc3d
00000200: 0000 0080 0100 0000 0100 0080 0000 0000
00000210: 0100 0080 0000 0000 0000 0000 0000 0000
00000220: 0000 0000 0100 0000 0100 0080 0000 0000
00000230: 0000 0000 0000 0080 0000 0080 0100 0080
00000240: 2931 603e d641 cb3d c3a1 a23d 3562 2a3d
00000250: c91f 74be ff6c e13d c466 f43c 09a6 57be
00000260: 5c7a d0bd 488b 043d db69 91bd f5bf 91bd
00000270: 773a afbe cbca 293e 94c5 00be be0d 0bbd
00000280: 629e 8e3d a8df c73d 65ee 023e a9f1 e3bd
00000290: 128a acbd 428c 633c 042c 623e b01d 113e
000002a0: 19dc e23e d6d0 51be 57ef 953c 6c85 4a3e
000002b0: 2349 a83d 8496 a1bd 4bed b4bd 7eb3 9c3e
000002c0: f26e 6abd ac38 5dbd a087 38be 7eff 4c3c
000002d0: 21c3 26be 62fd 4fbc 5d69 743e b09b 9abd
000002e0: 19b2 443e 55cb 7ebe 8a00 a6bd 26ce f53c
000002f0: 69b6 413e 8434 803c 1534 46bd 42f9 0bbe
00000300: 7d5d 8eb7 9b93 0fb5 56fe ca37 20d2 8138
00000310: ddc4 21b7 56d0 c5b8 101c d837 0391 e938
00000320: db49 3bb9 841b 0b38 78f8 3739 dea3 71b7
00000330: 553e e437 d357 8bb8 1891 3837 48e2 8bb7
00000340: 0000 0000 0000 0080 0000 0080 0000 0000
00000350: 0000 0000 0000 0000 0000 0000 0000 0080
00000360: 0000 0000 0000 0080 0000 0000 0000 0000
00000370: 0000 0000 0000 0000 0000 0080 0000 0000
00000380: 0000 0080 0000 0080 0000 0080 0000 0080
00000390: 0000 0000 0000 0000 0000 0080 0000 0080
000003a0: 0000 0000 0000 0000 0000 0080 0000 0000
000003b0: 0000 0080 0000 0000 0000 0000 0000 0080
000003c0: de6d 37bd fdd6 96bd 9477 ffbb 6267 9d3e
000003d0: 5d26 163e efcd 3bbe bdbe 66bd 2893 e1bc
000003e0: 99f4 7fbe f44e 793d 1a0c 91bd cbfa 2ebe
000003f0: ac64 5d3d 2ac5 90bd d4a6 a03d f12d a8bd

onnx::Conv_90 f4 [32]
-3.5775833e-19 -0.03525172 0.02056159 6.19506e-40 -3.6291926e-25 0.06656015 -0.12131992 -0.056542173
-7.936807e-09 -0.040540807 -0.35426834 -0.029530346 0.0011824372 -2.4661538e-12 8.55061e-40 0.11960646
0.16328779 -7.47487e-16 0.11753114 0.045678098 -6.922978e-27 -2.4045418e-16 0.045394808 -0.10255308
5.821833e-39 -0.07323629 -0.08601773 -6.20182e-40 -4.3822052e-05 -1.8190028e-12 0.002014438 0.3871461
00000000: e92e d3a0 1c64 10bd c870 a83c eebe 0600
00000010: daa2 e096 b050 883d 9476 f8bd c498 67bd
00000020: 725a 08b2 1e0e 26bd a962 b5be a0e9 f1bc
00000030: 02fc 9a3a 478a 2dac 904f 0900 3bf4 f43d
00000040: ea34 273e ce72 57a6 2bb4 f03d f518 3b3d
00000050: ab1f 0994 c69c 8aa5 e8ef 393d 5907 d2bd
00000060: e764 3f00 e8fc 95bd 102a b0bd d1c0 0680
00000070: 92cd 37b8 3e00 00ac a904 043b 0338 c63e

onnx::Conv_92 f4 [64, 32, 3, 3]
0.0 0.0 0.0 0.0 0.0 0.0 0.0 -0.0
0.0 -0.0 0.0 -0.0 0.0 0.0 -0.0 0.0
-0.0 0.0 -0.0 -0.0 -0.0 0.0 0.0 0.0
0.0 -0.0 0.0 0.0 0.0 -0.0 -0.0 -0.0
-0.0 0.0 0.0 -0.0 -0.0 -0.0 -0.0 0.0
0.0 -0.0 -0.0 0.0 -0.0 0.0 -0.0 0.0
0.0 -0.0 -0.0 0.0 0.0 0.0 0.0 -0.0
-0.0 -0.0 0.0 -0.0 0.0 0.0 -0.0 0.0
-0.0 0.0 0.0 -0.0 0.0 -0.0 -0.0 0.0
0.0 0.0 -0.0 0.0 -0.0 -0.0 -0.0 -0.0
-0.0 -0.0 0.0 0.0 -0.0 0.0 0.0 -0.0
0.0 -0.0 -0.0 0.0 -0.0 0.0 -0.0 -0.0
0.0 -0.0 0.0 0.0 0.0 -0.0 0.0 0.0
-0.0 -0.0 -0.0 0.0 -0.0 -0.0 -0.0 0.0
-0.0 0.0 0.0 0.0 0.0 0.0 -0.0 -0.0
-0.0 -0.0 -0.0 -0.0 -0.0 -0.0 -0.0 -0.0
-0.0 -0.0 0.0 -0.0 -0.0 -0.0 0.0 -0.0
-0.0 0.0 -0.0 -0.0 -0.0 -0.0 -0.0 -0.0
0.0 0.0 0.0 -0.0 0.0 -0.0 0.0 -0.0
-0.0 -0.0 0.0 0.0 0.0 0.0 0.0 -0.0
-0.0 -0.0 0.0 0.0 0.0 0.0 0.0 0.0
0.0 -0.0 0.0 -0.0 0.0 0.0 -0.0 0.0
0.0 0.0 -0.0 -0.0 -0.0 0.0 -0.0 0.0
0.0 0.0 -0.0 0.0 -0.0 -0.0 -0.0 0.0
-0.0 0.0 0.0 0.0 -0.0 0.0 -0.0 -0.0
0.0 0.0 0.0 0.0 0.0 0.0 -0.0 -0.0
0.0 -0.0 0.0 0.0 -0.0 0.0 -0.0 -0.0
-0.0 -0.0 -0.0 0.0 -0.0 -0.0 0.0 -0.0
0.0 -0.0 0.0 0.0 -0.0 -0.0 -0.0 -0.0
-0.0 -0.0 -0.0 -0.0 -0.0 0.0 0.0 -0.0
0.0 -0.0 0.0 0.0 -0.0 0.0 0.0 0.0
0.0 0.0 0.0 0.0 0.0 0.0 0.0 0.0
00000000: 0000 0000 0000 0000 0000 0000 0000 0000
00000010: 0000 0000 0000 0000 0000 0000 0000 0080
00000020: 0000 0000 0000 0080 0000 0000 0000 0080
00000030: 0000 0000 0000 0000 0000 0080 0000 0000
00000040: 0000 0080 0000 0000 0000 0080 0000 0080
00000050: 0000 0080 0000 0000 0000 0000 0000 0000
00000060: 0000 0000 0000 0080 0000 0000 0000 0000
00000070: 0000 0000 0000 0080 0000 0080 0000 0080
00000080: 0000 0080 0000 0000 0000 0000 0000 0080
00000090: 0000 0080 0000 0080 0000 0080 0000 0000
000000a0: 0000 0000 0000 0080 0000 0080 0000 0000
000000b0: 0000 0080 0000 0000 0000 0080 0000 0000
000000c0: 0000 0000 0000 0080 0000 0080 0000 0000
000000d0: 0000 0000 0000 0000 0000 0000 0000 0080
000000e0: 0000 0080 0000 0080 0000 0000 0000 0080
000000f0: 0000 0000 0000 0000 0000 0080 0000 0000
00000100: 0000 0080 0000 0000 0000 0000 0000 0080
00000110: 0000 0000 0000 0080 0000 0080 0000 0000
00000120: 0000 0000 0000 0000 0000 0080 0000 0000
00000130: 0000 0080 0000 0080 0000 0080 0000 0080
00000140: 0000 0080 0000 0080 0000 0000 0000 0000
00000150: 0000 0080 0000 0000 0000 0000 0000 0080
00000160: 0000 0000 0000 0080 0000 0080 0000 0000
00000170: 0000 0080 0000 0000 0000 0080 0000 0080
00000180: 0000 0000 0000 0080 0000 0000 0000 0000
00000190: 0000 0000 0000 0080 0000 0000 0000 0000
000001a0: 0000 0080 0000 0080 0000 0080 0000 0000
000001b0: 0000 0080 0000 0080 0000 0080 0000 0000
000001c0: 0000 0080 0000 0000 0000 0000 0000 0000
000001d0: 0000 0000 0000 0000 0000 0080 0000 0080
000001e0: 0000 0080 0000 0080 0000 0080 0000 0080
000001f0: 0000 0080 0000 0080 0000 0080 0000 0080
00000200: 0000 0080 0000 0080 0000 0000 0000 0080
00000210: 0000 0080 0000 0080 0000 0000 0000 0080
00000220: 0000 0080 0000 0000 0000 0080 0000 0080
00000230: 0000 0080 0000 0080 0000 0080 0000 0080
00000240: 0000 0000 0000 0000 0000 0000 0000 0080
00000250: 0000 0000 0000 0080 0000 0000 0000 0080
00000260: 0000 0080 0000 0080 0000 0000 0000 0000
00000270: 0000 0000 0000 0000 0000 0000 0000 0080
00000280: 0000 0080 0000 0080 0000 0000 0000 0000
00000290: 0000 0000 0000 0000 0000 0000 0000 0000
000002a0: 0000 0000 0000 0080 0000 0000 0000 0080
000002b0: 0000 0000 0000 0000 0000 0080 0000 0000
000002c0: 0000 0000 0000 0000 0000 0080 0000 0080
000002d0: 0000 0080 0000 0000 0000 0080 0000 0000
000002e0: 0000 0000 0000 0000 0000 0080 0000 0000
000002f0: 0000 0080 0000 0080 0000 0080 0000 0000
00000300: 0000 0080 0000 0000 0000 0000 0000 0000
00000310: 0000 0080 0000 0000 0000 0080 0000 0080
00000320: 0000 0000 0000 0000 0000 0000 0000 0000
00000330: 0000 0000 0000 0000 0000 0080 0000 0080
00000340: 0000 0000 0000 0080 0000 0000 0000 0000
00000350: 0000 0080 0000 0000 0000 0080 0000 0080
00000360: 0000 0080 0000 0080 0000 0080 0000 0000
00000370: 0000 0080 0000 0080 0000 0000 0000 0080
00000380: 0000 0000 0000 0080 0000 0000 0000 0000
00000390: 0000 0080 0000 0080 0000 0080 0000 0080
000003a0: 0000 0080 0000 0080 0000 0080 0000 0080
000003b0: 0000 0080 0000 0000 0000 0000 0000 0080
000003c0: 0000 0000 0000 0080 0000 0000 0000 0000
000003d0: 0000 0080 0000 0000 0000 0000 0000 0000
000003e0: 0000 0000 0000 0000 0000 0000 0000 0000
000003f0: 0000 0000 0000 0000 0000 0000 0000 0000

onnx::Conv_93 f4 [64]
-3.6351e-41 0.022117108 0.00049319444 1.4396e-41 -2.2899718e-31 1.358e-41 5.2731e-41 -3.5966e-41
-2.0403e-41 -0.1724761 -4.762e-42 2.042e-41 -5.5627698e-08 -1.1055724e-34 -6.7483607e-31 2.091e-41
-2.1838e-41 -3.212e-42 2.5139e-41 -0.00073308556 -7.745e-42 0.17952743 4.37e-41 -3.6012784e-16
7.885e-42 -3.2953e-41 1.7179e-41 -3.141e-41 -0.000104590574 -4.8705e-41 6.2162e-41 1.0277e-41
-2.5874e-41 -5.231094e-13 0.13229029 -2.9565e-41 -5.7888e-41 5.7055e-41 -5.731e-42 -2.2031e-41
3.6612e-41 -3.338e-42 4.3433e-41 2.3169e-41 -6.398e-42 7.061e-42 -1.4718e-41 -1.158e-41
-0.11362866 2.4699e-41 -0.05974748 -1.0335149e-16 1.0124e-41 -1.0312e-41 5.562e-41 -3.1379e-41
-5.1377e-41 3.6298e-41 1.6256e-41 5.6223e-41 -2.618853e-34 -0.2220875 -3.5408e-41 0.15809226
00000000: 5565 0080 f02e b53c b849 013a 2128 0000
00000010: afa0 948c db25 0000 fe92 0000 4264 0080
00000020: e038 0080 939d 30be 460d 0080 ec38 0000
00000030: 4deb 6eb3 aef4 1287 30ff 5a8d 4a3a 0000
00000040: e03c 0080 f408 0080 1446 0000 8a2c 40ba
00000050: 9715 0080 0ad6 373e d179 0000 7d99 cfa5
00000060: fb15 0000 dc5b 0080 e32f 0000 8f57 0080
00000070: a357 dbb8 c587 0080 48ad 0000 a61c 0000
00000080: 2048 0080 013e 13ab 1b77 073e 6a52 0080
00000090: 5ea1 0080 0c9f 0000 fa0f 0080 6a3d 0080
000000a0: 0f66 0000 4e09 0080 1379 0000 9640 0000
000000b0: d611 0080 af13 0000 0729 0080 4820 0080
000000c0: 25b6 e8bd da44 0000 c6b9 74bd f44f eea4
000000d0: 391c 0000 bf1c 0080 0c9b 0000 7957 0080
000000e0: 388f 0080 2f65 0000 512d 0000 ba9c 0000
000000f0: 7a0d ae87 e86a 63be b462 0080 f0e2 213e

onnx::Conv_95 f4 [64, 64, 3, 3]
-9.902962e-39 -3.789425e-39 -7.768703e-39 -5.46822e-39 1.779586e-39 -2.541585e-39 1.2141951e-38 2.0427585e-38
1.4943642e-38 0.10238194 -0.109026 -0.81275624 0.82578146 0.27751806 -0.028030701 0.59435123
0.20914009 0.048744295 0.0024478184 0.0022990715 0.0026372094 -0.0025490604 -0.0042900885 -0.0052969065
-0.009505736 -0.009451246 -0.009403767 6.038191e-39 3.023736e-39 2.040379e-39 3.252775e-39 -1.12882e-40
-3.14659e-40 7.02689e-39 4.735687e-39 3.554905e-39 2.1968308e-31 7.0961614e-32 1.5355277e-31 9.154373e-32
-1.8042274e-37 4.9549226e-32 -9.400056e-32 -2.7891399e-31 -1.412392e-31 4.093453e-39 3.481981e-39 4.544044e-39
1.400624e-39 6.97063e-40 2.255568e-39 -1.62479e-39 -3.14218e-39 -8.08457e-40 1.427431e-38 1.2240981e-38
1.755234e-38 4.396849e-39 2.00924e-40 6.51128e-39 -1.0661795e-38 -1.4578613e-38 -7.854487e-39 -8.237083e-39
-3.483139e-39 -6.199375e-39 -4.139223e-39 1.041711e-39 -1.965088e-39 7.681157e-39 1.3871857e-38 1.0469904e-38
1.039535e-39 1.492302e-39 9.10599e-40 9.62207e-40 -1.132148e-39 4.14294e-40 -1.054159e-39 -6.44105e-40
-1.142696e-39 -1.0165156 -0.611939 -0.77495265 -0.23883614 -0.06632689 -0.10672438 0.42716193
-0.3489724 -0.24239561 4.731033e-39 5.71982e-40 1.22961e-40 2.984107e-39 -1.002936e-39 -2.222852e-39
6.383555e-39 2.979756e-39 1.64974e-39 3.148597e-39 3.789233e-39 3.864937e-39 1.245003e-39 1.565445e-39
2.675232e-39 -8.92809e-40 -8.6348e-40 7.38619e-40 6.5047e-41 9.8864e-41 -5.0342e-41 -5.57523e-40
3.8445e-41 -1.45212e-40 -2.80428e-40 -4.736e-42 5.09743e-40 2.555807e-35 2.6142334e-35 4.714136e-35
9.1555175e-36 -9.02171e-40 2.1387085e-35 -5.379404e-35 -6.200495e-35 -3.790128e-35 -7.72436e-40 -1.87484e-40
-6.76408e-40 4.36601e-40 -1.04576e-39 9.36376e-40 -7.86784e-40 -7.70922e-40 -1.20702e-40 2.215471e-39
1.833232e-39 2.080421e-39 1.771985e-39 1.230847e-39 1.368624e-39 2.62098e-39 2.000998e-39 1.82855e-39
-9.069058e-39 -6.552644e-39 -9.986652e-39 -5.998011e-39 -1.769149e-39 -5.511758e-39 5.881027e-39 9.862121e-39
5.280266e-39 2.528808e-39 6.0613e-41 -7.72932e-40 1.826375e-39 -9.822e-40 -1.49164e-39 4.808885e-39
2.276332e-39 1.559771e-39 2.03236e-40 -1.067708e-39 -2.1545e-39 1.025546e-39 7.4189e-41 -1.462311e-39
7.681928e-39 6.905718e-39 5.580743e-39 -1.4507921e-24 4.931361e-23 6.976802e-30 1.0436564e-12 1.2253452e-10
5.8877247e-14 -2.4098777e-22 9.3652835e-23 3.8482706e-26 4.482164e-39 8.65518e-40 -3.19643e-40 2.67245e-39
-1.33007e-39 -1.730539e-39 6.255803e-39 2.960121e-39 1.405444e-39 -0.47997847 -0.27357715 -0.13753398
0.42227125 0.35281515 0.66567147 -0.23533358 -0.034691114 -0.054522738 1.1053065e-38 9.083902e-39
1.4143087e-38 1.600612e-39 -2.100607e-39 4.43309e-39 -1.1297253e-38 -1.4591502e-38 -8.056979e-39 2.27966e-40
-2.5005e-41 -5.2103e-41 -4.17572e-40 -5.616e-40 -2.44131e-40 -2.96621e-40 5.05144e-40 1.2745e-40
1.035548e-38 5.974768e-39 6.307052e-39 4.605538e-39 -5.64767e-40 1.510256e-39 3.04205e-39 -1.553052e-39
1.74431e-40 -8.48887e-39 -9.073272e-39 -1.5223353e-38 -1.97302e-39 -1.31407e-39 -7.82714e-39 1.9540505e-38
2.0568639e-38 1.257588e-38 -8.4488e-41 7.24932e-40 -8.7161e-41 1.293637e-39 1.527138e-39 6.96733e-40
3.921942e-39 5.175372e-39 3.819718e-39 -6.814648e-39 -2.809676e-39 -5.652591e-39 -3.719944e-39 9.05945e-40
-2.259257e-39 7.94641e-39 1.336484e-38 9.425907e-39 -1.5489494e-24 -3.1765552e-28 -6.5907947e-23 -5.955889e-26
00000000: 6ed5 6b80 6043 2980 fc97 5480 2c8b 3b80
00000010: c360 1300 e8ac 1b80 d236 8400 cc6f de00
00000020: cbb8 a200 9fad d13d 0649 dfbd cb10 50bf
00000030: 6a66 533f d916 8e3e a4a0 e5bc 6727 183f
00000040: d228 563e 19a8 473d 946b 203b 05ac 163b
00000050: 08d5 2c3b 230e 27bb df93 8cbb ac91 adbb
00000060: f2bd 1bbc 66d9 1abc 4212 1abc 05c0 4100
00000070: f2ec 2000 bf37 1600 6a6b 2300 ab3a 0180
00000080: 246d 0380 1c84 4c00 2b91 3300 a1b5 2600
00000090: 1d95 8e0c 153a b80b a952 470c 3fa9 ed0b
000000a0: 2694 7582 1ca3 800b 170a f48b 8906 b58c
000000b0: c656 378c e292 2c00 59ea 2500 f27a 3100
000000c0: 5f40 0f00 2197 0700 9b8f 1800 41b1 1180
000000d0: 1f37 2280 a6cd 0880 f86e 9b00 e04a 8500
000000e0: c820 bf00 a0e0 2f00 1830 0200 cde6 4600
000000f0: bf18 7480 3ebf 9e80 1d87 5580 a3b1 5980
00000100: 93ed 2580 5681 4380 7812 2d80 de57 0b00
00000110: de65 1580 f1a3 5300 180d 9700 d501 7200
00000120: cd51 0b00 ee3f 1000 61ea 0900 3e7a 0a00
00000130: f853 0c80 e282 0400 917a 0b80 8103 0780
00000140: 5f71 0c80 2f1d 82bf 09a8 1cbf 4c63 46bf
00000150: 7691 74be 64d6 87bd 5092 dabd f8b4 da3e
00000160: 83ac b2be 8e36 78be 3284 3300 743a 0600
00000170: c456 0100 7a7e 2000 c7eb 0a80 6834 1880
00000180: c182 4500 5972 2000 cef6 1100 0249 2200
00000190: d742 2900 df15 2a00 908e 0d00 d30b 1100
000001a0: 7521 1d00 cab8 0980 0867 0980 f80a 0800
000001b0: 53b5 0000 9813 0100 558c 0080 2612 0680
000001c0: 2b6b 0000 cb94 0180 b80d 0380 340d 0080
000001d0: f58c 0500 d8e3 0706 1aff 0a06 7fa5 7a06
000001e0: 61b7 4205 e3d2 0980 2f6d e305 5402 8f86
000001f0: 62d6 a486 8d84 4986 3d69 0880 a10a 0280
00000200: 8d5d 0780 11c1 0400 2763 0b80 3c32 0a00
00000210: 3c91 0880 0465 0880 7850 0180 d51f 1800
00000220: 4ef6 1300 5ea7 1600 934b 1300 1a67 0d00
00000230: 2be7 0e00 3a8a 1c00 f8c9 1500 41e9 1300
00000240: d8c0 6280 1b5a 4780 b9be 6c80 0450 4180
00000250: ab43 1380 8a04 3c80 e909 4000 9563 6b00
00000260: 3c7f 3900 4a89 1b00 f7a8 0000 9f6a 0880
00000270: 31e3 1300 f9b1 0a80 163e 1080 375d 3400
00000280: 7dc9 1800 02fc 1000 8a36 0200 56a0 0b80
00000290: df75 1780 ce2a 0b00 cfce 0000 54ec 0f80
000002a0: 17a6 5300 5532 4b00 d7c4 3c00 cc7f e097
000002b0: 4b77 6e1a a181 0d0f afe1 922b 67ba 062f
000002c0: 6c94 8429 0dab 919b 4c70 e21a a08e 3e15
000002d0: 73ce 3000 b66c 0900 097b 0380 b419 1d00
000002e0: b27b 0e80 0ad8 1280 a21e 4400 9d3b 2000
000002f0: ce4d 0f00 bdbf f5be 4e12 8cbe b5d5 0cbe
00000300: f033 d83e 30a4 b43e 7269 2a3f 49fb 70be
00000310: 4518 0ebd 3c53 5fbd 735b 7800 39ea 6200
00000320: 2c01 9a00 db6d 1100 a3df 1680 a745 3000
00000330: 2504 7b80 2ce3 9e80 94bb 5780 7a7b 0200
00000340: b445 0080 3e91 0080 058c 0480 831d 0680
00000350: 8aa8 0280 dc3a 0380 2380 0500 4763 0100
00000360: ddc2 7000 390f 4100 7fad 4400 5e26 3200
00000370: 5726 0680 fb71 1000 ff1f 2100 47e9 1080
00000380: 3ee6 0100 846f 5c80 97cc 6280 84c4 a580
00000390: fa7b 1580 184f 0e80 e23a 5580 fac6 d400
000003a0: fff8 df00 70f0 8800 85eb 0080 d1e4 0700
000003b0: f8f2 0080 2216 0e00 0aa1 1000 3596 0700
000003c0: c7b4 2a00 d55a 3800 d297 2900 7734 4a80
000003d0: 3c98 1e80 208d 3d80 b181 2880 68dd 0900
000003e0: e499 1880 5c87 5600 bd87 9100 98a3 6600
000003f0: 35b0 ef97 8e56 c991 0b5b 9f9a ee75 9395

onnx::Conv_96 f4 [64]
-0.23150447 -0.14285488 -1.08182364e-13 -0.042496316 -2.2862546e-35 -0.00085453776 2.5726098e-07 -0.02444219
-0.050858278 -0.078072146 -0.07982416 -2.3268183e-05 -0.08478929 -1.4044549e-14 -1.3232534e-11 -1.3579857e-16
-0.09581163 -0.027246263 -8.185851e-27 0.0003048993 -1.2389756e-10 -1.712457e-07 -0.09824012 -0.088770665
-1.0231422e-15 0.00015561057 -6.6746916e-23 -0.020870538 -3.468616e-06 -0.120591044 -1.6807451e-18 -0.081941366
-6.826415e-37 -9.555e-08 -3.2838198e-20 -0.14995089 -4.5505367e-08 -0.06102226 -0.025198014 -0.011462946
-1.3664e-41 -2.7458051e-24 -0.15884209 -2.615747e-09 -0.05607588 0.0010857139 -0.19841287 -0.050609116
-1.280234e-06 -0.13098538 -0.06226176 -4.109559e-24 -3.4216102e-11 -2.285015e-10 -0.20002508 -3.7075812e-32
-2.2506504e-19 -0.012387776 -0.017615505 -1.358737e-10 -4.92541e-30 -1.3269021e-14 -7.161741e-13 -0.011472107
00000000: 820f 6dbe 8d48 12be e39a f3a9 9e10 2ebd
00000010: c51d f385 0f03 60ba ae1d 8a34 fd3a c8bc
00000020: c550 50bd 4ae4 9fbd d97a a3bd 0b30 c3b7
00000030: 02a6 adbd 0d01 7da8 09ca 68ad aa90 1ca5
00000040: e338 c4bd 8e33 dfbc 3223 2294 e4da 9f39
00000050: 103a 08af a9df 37b4 1e32 c9bd 65cd b5bd
00000060: 4973 93a6 652b 2339 5762 a19a b1f8 aabc
00000070: 5ec6 68b6 70f8 f6bd c108 f8a1 e0d0 a7bd
00000080: 764a 6883 2b31 cdb3 f212 1b9f ba8c 19be
00000090: ae71 43b3 7af2 79bd 116c cebc 15cf 3bbc
000000a0: 1726 0080 4672 5498 80a7 22be b5c0 33b1
000000b0: d2af 65bd 834e 8e3a be2c 4bbe 814b 4fbd
000000c0: 81d4 abb5 0821 06be 3006 7fbd 1afb 9e98
000000d0: e87b 16ae 743d 7baf 60d3 4cbe 3582 408b
000000e0: deda 84a0 19f6 4abc 644e 90bc 0c65 15af
000000f0: 62cc c78e 8f08 6fa8 c895 49ab 81f5 3bbc
