cmd/ai/datas/models/horse_facing_to_the_left.onnx (onnx, 301496 bytes, 16 tensors)

fc.weight f4 [2, 256]
00000000: afa2 cebd 80a9 19bd 4937 edbd bfc4 80bd
00000010: 5438 c9bd afa3 eebd f5e9 a8bd 58c7 a3bd
00000020: cd43 bebc 26f8 ae3b b7f3 00bd 010d 143d
00000030: 7788 ebb7 61cd 2c3b d64f 2cbb e34f 87bb
00000040: fe2b 973d e658 9b3d 39ef 5e3d eadb 9a3d
00000050: 4221 a23c c10d 013e 32a1 803d 4eb1 e33d
00000060: 6431 be3d 9666 b6ba 9806 9a3d 9728 e2bc
00000070: a122 a6bc eb0a babd f515 23bd 81a9 65bd
00000080: de8f 003e b977 8a3c 2596 0a3e 7837 163d
00000090: 2d76 54bd 6a49 e6bd 0c2e 4dbd 26ef c0bd
000000a0: 0ad2 743b 8d1a bdbb 8667 b23b 9a39 cd3a
000000b0: 07d0 f43b 7536 afbb e634 483c 177a 69bc
000000c0: da97 263e 51cd 283d 8241 2e3e e79a 48bb
000000d0: 8eac d33d 62c2 e43d 5ca1 af3d 940b e83d
000000e0: 373d f13d 498b 8a3d 1acb fa3d dd46 da3d
000000f0: 3902 c4bc 688c 673c fef5 07bd d0e5 bb3c
00000100: da7d e83a a507 4d3b 8914 e4bb bece 99ba
00000110: b76c 12bb a7d1 85bd bad6 433c 6df1 52bd
00000120: d0bc 803b 3ef7 48bc 4c52 66bb 8df1 61bc
00000130: 5544 c0bd b6e8 04be c26a b8bd 8d0e 8fbd
00000140: 9ae1 caba 7f79 833a add6 34bb cc72 d7b8
00000150: ba3e bd3b ea9c 133b 8ce5 443c 1c1b debb
00000160: 3bae 873d 41f8 1abe c6c1 543d 3af4 f5bd
00000170: f121 83bd e543 2cbe 274a 27bd 435c 33be
00000180: 9214 85bc ee35 8abd 8aa6 0abd 0e2c 62bd
00000190: 3e8a fa3d f250 ff3c ff17 a53d 5cad 993d
000001a0: 70d3 86ba 4754 9d3b 1e87 2ebb dbb9 193a
000001b0: d5d1 1bbd 2246 acbd 77c2 b63b 3858 03be
000001c0: 1272 4e3d 4aad d53c fe9c 153d 832e 5ebc
000001d0: a082 cabd bd75 46be 5bfe 91bd d0fd 36be
000001e0: 8517 293e 5222 bfbb 39b1 233e bb2c cfbc
000001f0: 1f37 c6ba 8ef0 81ba 42b7 353a 6623 453a
00000200: 11f9 763d d7c4 5abc 76fc 093d 02fc acbc
00000210: d326 3d3a 9ceb b93d 4f63 683d 753c dd3d
00000220: b395 353e 16a3 fbba 7c72 333e 6f0d 1bbd
00000230: 059e d23d 01c6 ea3d 75fd 873c b37f e83d
00000240: 42b1 5eba 4002 1f39 d28e 953a 88f8 92b9
00000250: d76a 4dbb e451 72ba bffa a9bb d724 a7bb
00000260: a6bd febb ff2b a93b ec44 94bb f728 b83b
00000270: 8c86 e43d 332a 133d 8e7e fa3d 9432 0b3c
00000280: 36f4 bf3d 368d d33d 73ba fa3d 2202 e13d
00000290: 7db8 313e eaf1 0d3d c5f4 2a3e f85c 1bbd
000002a0: b9de eabd 9b95 8bbd 1617 87bd 2476 35bd
000002b0: 7080 8a3a 56f1 87ba 9306 30ba 98ef 8a38
000002c0: 8fef 1a3e 838f 9b3b 3be0 063e b094 353d
000002d0: fd7d edbc 5e8a 6b3d 1676 b7bc 6c1c 9d3d
000002e0: 801b f2bd 4861 32bd 6d0e 10be f927 92bd
000002f0: 949b 123c 99c9 a9bc b73d 003c 1eb7 24bc
00000300: 05d8 81bb 6633 573b e18b 4fbb d85e 0a3a
00000310: c986 f53a 081a 5e3b c4eb 5bbb e111 86bb
00000320: 4c19 de3d 101d 903d 4ac4 f23d cd46 ed3d
00000330: 1154 0c3b 0004 9639 fb96 f139 ac5e e0b9
00000340: 3fac 2ebd 5b87 fbbd 0957 9ebd 0be8 a4bd
00000350: 8969 103d ab12 7c3d 066d a13b 3a69 e93d
00000360: a9cd 1abd dd33 01be 8f99 a3bd a0ac c3bd
00000370: 6d86 1a3a 4785 9338 597b cd3a 96a1 2fba
00000380: bb04 033e 890c edbc d9a9 803d 8b7e 4b3c
00000390: 651b 90bd 8d46 4e3d ac30 90bd bd5b 8c3c
000003a0: 0d7c 8a3c fe16 88bc 4150 1f3d 6af3 fbbb
000003b0: 8f84 d3bc 2f8f 273c ccdf b6bc 6fc0 67bb
000003c0: f3a8 c6bb a616 ce3c a507 9c3c 5cb3 4e3d
000003d0: 2b78 103e 0974 27bb ec52 fa3d 9a4c 2dbd
000003e0: 39c1 d6bc 7985 18be 24ff 1cbd d753 11be
000003f0: 3f90 82bd 8ff3 ffbd 31ce d7bd 7771 0abe
-0.10089623 -0.037515163 -0.115828104 -0.06287526 -0.09825197 -0.11652314 -0.08247749 -0.07997006
-0.02322569 0.00533964 -0.031482425 0.036145214 -2.807773e-05 0.0026367533 -0.0026292703 -0.0041293963
0.07381438 0.075853154 0.05442736 0.075614765 0.01979125 0.12602903 0.062807456 0.111178026
0.09286764 -0.0013916071 0.07520789 -0.027607245 -0.020280184 -0.09084114 -0.03981586 -0.056069855
0.12554881 0.016902791 0.13533838 0.036673993 -0.051870514 -0.11244471 -0.05009274 -0.09420614
0.0037356638 -0.0057709874 0.00544447 0.0015657425 0.007471088 -0.005347068 0.012219643 -0.0142503
0.16268864 0.04121143 0.17017177 -0.0030609907 0.103356466 0.11169888 0.08575699 0.11330333
0.11779254 0.06764848 0.1224577 0.10658047 -0.023926841 0.014132597 -0.03319358 0.022936732
0.0017737702 0.0031285074 -0.006960456 -0.0011734588 -0.002234263 -0.06534129 0.01195305 -0.051499773
0.003928758 -0.012265978 -0.0035144268 -0.0137905 -0.09388033 -0.12979397 -0.090047374 -0.06985197
-0.0015478611 0.0010030715 -0.0027593777 -0.000102733815 0.0057753 0.0022523948 0.012017619 -0.006778134
0.06625029 -0.15133764 0.05194261 -0.12009473 -0.06402958 -0.16822775 -0.0408422 -0.17515664
-0.01624516 -0.067485675 -0.03385023 -0.055217795 0.12233399 0.031166527 0.080612175 0.07503769
-0.0010286402 0.0048013064 -0.002663083 0.00058641814 -0.03804191 -0.08411814 0.0055773812 -0.12826622
0.050401755 0.026083607 0.036526673 -0.013560894 -0.09888196 -0.19380851 -0.071285926 -0.1787026
0.16512878 -0.0058329487 0.15985574 -0.025289884 -0.0015122629 -0.000991361 0.00069319096 0.00075202284
0.060296122 -0.013352594 0.03368803 -0.02111626 0.0007215563 0.09078142 0.056735333 0.10802547
0.17732887 -0.0019198384 0.17524141 -0.03785461 0.10284046 0.114635475 0.01660035 0.11352482
-0.00084950414 0.0001516426 0.0011410362 -0.0002803246 -0.00313442 -0.000924377 -0.005187362 -0.005100827
-0.0077740727 0.0051627154 -0.0045248177 0.0056201178 0.11158475 0.035928916 0.1223117 0.0084959455
0.093727514 0.10329668 0.122425936 0.10986735 0.17355533 0.034654535 0.16694935 -0.03793046
-0.11468262 -0.06815644 -0.065962 -0.04430212 0.0010566842 -0.0010371606 -0.0006714847 6.6249806e-05
0.15130447 0.0047473325 0.13171475 0.044331253 -0.02899074 0.057505004 -0.022395175 0.07671437
-0.118216515 -0.043549806 -0.14068003 -0.071365304 0.0089482255 -0.020726012 0.007827214 -0.010053424
-0.003962519 0.0032837032 -0.0031669068 0.0005278415 0.0018732186 0.0033890028 -0.0033557275 -0.004091487
0.10844669 0.07036793 0.118538454 0.1158577 0.0021412412 0.0002861321 0.0004607959 -0.00042795145
-0.042644735 -0.122816764 -0.077314444 -0.08052071 0.035256896 0.06154124 0.0049263267 0.113970235
-0.03779379 -0.1261744 -0.07988273 -0.0955441 0.0005894665 7.034331e-05 0.0015677019 -0.00066997984
0.12794773 -0.028936641 0.06282396 0.012420307 -0.07036475 0.05036025 -0.070405334 0.017133588
0.016904855 -0.016612526 0.038894895 -0.0076889293 -0.025820045 0.010227009 -0.022323512 -0.0035362502
-0.006062621 0.025157284 0.019046614 0.05046402 0.1410834 -0.002555134 0.12222847 -0.04230938
-0.026215183 -0.14894666 -0.03832926 -0.14192139 -0.06375169 -0.12497627 -0.10537375 -0.13519846

fc.bias f4 [2]
00000000: a449 a83c 19a5 533d
0.020542927 0.05167112

79 f4 [16, 3, 7, 7]
00000000: 60c4 73bd 9b58 a6bd 28aa 3abc 9c1f 3c3d
00000010: b6d0 acbd 5c6a b33c 6e7b 98bd cd1b 84bc
00000020: 70bd bf3d f23e 783e 7925 333e 5222 453c
00000030: 2460 54bc 5949 ef3d 279c 4dbd d2c0 383e
00000040: 5aed 073e 8d55 e8bd be95 ee3c dc91 663d
00000050: 5124 fa3d 0ffb 163e 60bd 153e 08aa ca3d
00000060: cba8 58bd 138d fbbd b8af 09bd de5d a93d
00000070: 06d8 353d d3a0 a2ba 78ce b83d d5fb 14be
00000080: 24b3 123c 2098 0e3d 37d4 823d 5766 52bd
00000090: 3ec0 603d bdef cd3d 521a 1cbe 24cd 96bd
000000a0: 92db 9bbd 7065 3f3d b8c9 18bd ecdc 0e3e
000000b0: 19c4 92bd 0d92 45bd 13aa d6bc ccde 6bbd
000000c0: 8f45 e03b 25c0 58bd 8168 08be c285 4fbe
000000d0: 5f97 e6bd c2d2 4abe 8745 3cbe efec 2cbe
000000e0: 1ba6 00be d781 913c 1429 f03d 6457 f2bd
000000f0: aabe f53c cefc 83bd 6df2 4b3e 7db2 e1bd
00000100: 3a95 a8bc 8d76 dcbd 6f19 93bd 9491 42be
00000110: 1a42 e9bd 6048 083e 4a4f c3bd 6f0a c5bd
00000120: 142a ab3c 226f e1bd a89b 10be 9290 863c
00000130: a3f8 f2bc 5cac 2cbd fbaf 303d 5d3d 99bd
00000140: 118b 803d 5dde e83d c0a4 c43b 1d8c fe3d
00000150: 6870 cb3c a591 95bc 3497 c0bc 5a45 32bd
00000160: 3b8d e2bc 1ebc 033d 972f 013d ae5c a8bd
00000170: 5880 1f3d a999 563c ac0a c93d 140a 3e3e
00000180: 5891 463e 1946 443e ea7a 69be 3641 e6bd
00000190: 33b7 01be ba35 69bd 1d85 04be c8ce 5fbe
000001a0: fde4 b7bc 46a3 94bd abe7 743d 0ec5 8a3b
000001b0: 865e f43c 2e8c 63bc d3e2 c8bc 445a 0ebd
000001c0: 27d5 0abe 31c7 143c 5488 9abd 9baf 08be
000001d0: fae0 7abc 7723 313d ef5b 58bc 7811 c0bd
000001e0: d2a4 c33c 2b55 ebbc 4f62 48bc 34b7 66bd
000001f0: 7e3e 81bd 4113 c23d caa0 a2bd c8ee b63d
00000200: db84 203d bbda 523a 5c5f 103d 9a0d 9d3d
00000210: e90d be3d a0ad 6d3c 0e56 d9bd 5aee 0cbe
00000220: f4a6 613d 0144 d4bc 8d8d 85bd 8d67 01ba
00000230: 04ea a7bd e89d 993d 9d51 463d 1601 92bd
00000240: 34b2 5b3d 27ff 913d a8c8 6c3d 098b 0a3e
00000250: a0bf fc3d 2864 033e 5b24 093d 8907 b83c
00000260: 7ffb 00bd fce1 89bd cc28 96bb cff6 ab3d
00000270: 9315 763d 3e02 3b3d f68e e63c 966a 8b3b
00000280: da68 7bbd 636e b93b db75 15bd 4c47 a93d
00000290: 59fe b23d 0520 ae3d 2922 a53c 3617 3abd
000002a0: 64d4 8b3d b9ee 7e3c a663 0c3c 870c 08bb
000002b0: 2dcf fa3c 3491 ac3d 7296 e1bb 8adb 45bb
000002c0: d900 903d d01a 7a3d 1214 ca3d ec95 b23d
000002d0: 302b ec3d abdf 153d f799 9cbd 55ee 10bd
000002e0: 45a3 8dbd 85bc 84bd 44ae 9abc 59db b93c
000002f0: 9819 833c d57f f1bd 252f a0bd 27c4 47bc
00000300: 0034 c1bd 8812 b5bc 82dd 0bbd 71ce 053e
00000310: 6b52 b13d 5cf2 143e 7fee 033e 0c48 cb3c
00000320: d725 af3d 61ab e83b 688f 1fbd e99e 09bd
00000330: 4a11 0c3e c021 1d3e c538 2f3e 5607 b73d
00000340: 4f69 8d3d 8a8f e5bc b4bf c7bd 8c0d a83c
00000350: 39a4 623d b7bb e63d ec13 0a3e 0b81 da3d
00000360: 5ed7 77bd ac98 dabd 0ef8 d5bd 19e1 49bd
00000370: 367b a23d 90b5 be3d e2fd 053e e2b9 8eba
00000380: 5652 9cbd 1f5d 7fbc ff71 d0bd 3735 91bc
00000390: 3fd7 ce3c 6837 e13d 30db bf3d 34eb 1abe
000003a0: 4b73 85bd 2c1e 46bd 4429 3abd e170 d6bd
000003b0: f012 b6bc 1ec0 c33d 274b e7bd 6ee4 3ebe
000003c0: 92a3 74be b64c 39be f355 44bd ffe0 22bd
000003d0: b346 38bd cd6e babb 10d8 893d cfe1 96bd
000003e0: bb5b 403d 1610 74bc 080c 27bd 078e 1cbe
000003f0: 42c2 89bd 1fcd 643d 7603 b73d c711 273d
-0.05951345 -0.08122369 -0.0113931075 0.045928583 -0.08438246 0.021901302 -0.07445417 -0.016126538
0.09362304 0.24242762 0.17494763 0.012032108 -0.012962375 0.11683912 -0.050197747 0.18042305
0.13274136 -0.113444425 0.029124137 0.056291446 0.12213958 0.14744209 0.14623022 0.09895712
-0.05289535 -0.12282767 -0.033614844 0.08269857 0.04439547 -0.0012407548 0.09023756 -0.14549191
0.008953843 0.034813046 0.06388133 -0.05136713 0.054870836 0.10055492 -0.15244415 -0.07363346
-0.07610239 0.046727598 -0.03730175 0.13951463 -0.07166309 -0.048234988 -0.026204145 -0.057585523
0.0068442295 -0.05291762 -0.13321115 -0.20265868 -0.112593405 -0.1980696 -0.18385898 -0.16887258
-0.12563364 0.017762108 0.11726585 -0.11833075 0.029998142 -0.06444703 0.19916697 -0.11020372
-0.02057897 -0.10764799 -0.071825854 -0.19000846 -0.11389561 0.13308859 -0.095366076 -0.09621131
0.020894088 -0.11007525 -0.14121878 0.016426358 -0.029659575 -0.042156562 0.043136578 -0.07482407
0.06276525 0.113705374 0.006001085 0.12429068 0.024833873 -0.018257925 -0.0235096 -0.04352317
-0.027655235 0.032161824 0.031539526 -0.08220802 0.038940758 0.013098159 0.098164886 0.18558532
0.19391382 0.19167365 -0.22800794 -0.11242907 -0.12667541 -0.056936003 -0.12941404 -0.21856225
-0.022448057 -0.072577044 0.05979125 0.0042349165 0.029830229 -0.013888402 -0.02452222 -0.034754053
-0.13557874 0.009080694 -0.07545534 -0.13348238 -0.015312428 0.043246713 -0.013205512 -0.09378332
0.023882303 -0.028727135 -0.01223047 -0.05632706 -0.063107476 0.09476329 -0.07940824 0.08932263
0.0391892 0.00080434576 0.03524719 0.0766861 0.09279997 0.014506727 -0.10612117 -0.13762799
0.05509086 -0.025911333 -0.06521139 -0.000493639 -0.08198932 0.07500821 0.048417676 -0.071291134
0.053636745 0.071287446 0.05780855 0.135296 0.12341237 0.12831175 0.033481937 0.02246453
-0.031489845 -0.06732556 -0.0045825 0.083966844 0.06007917 0.045656435 0.028144341 0.0042546494
-0.06137929 0.005658911 -0.03648935 0.08265552 0.08739919 0.08502201 0.02015789 -0.045432292
0.0682762 0.015559846 0.00856868 -0.002075942 0.030616367 0.08426133 -0.0068843896 -0.003019067
0.07031412 0.061060727 0.09867109 0.087200016 0.11531675 0.03659026 -0.07646554 -0.03538354
-0.06915907 -0.0648127 -0.018881924 0.0226876 0.016003415 -0.1179196 -0.07821492 -0.012192762
-0.09433746 -0.022103563 -0.034146793 0.13067032 0.08658298 0.14545578 0.12883948 0.024814628
0.08552139 0.007100508 -0.038955122 -0.033598814 0.1367847 0.15344906 0.171115 0.08936946
0.06904852 -0.028022546 -0.09753361 0.020514272 0.055332396 0.112662725 0.13484162 0.10669144
-0.060508125 -0.10673651 -0.10447703 -0.049286935 0.07933657 0.09311974 0.1308513 -0.0010889138
-0.07632892 -0.015586167 -0.10177993 -0.01772557 0.025249122 0.10996896 0.093679786 -0.15128785
-0.06516131 -0.048368618 -0.04544951 -0.10470749 -0.022225827 0.09558128 -0.11293631 -0.18641827
-0.23890522 -0.18095669 -0.04793353 -0.039765354 -0.0449893 -0.005689478 0.06730664 -0.07367288
0.04696248 -0.014896413 -0.04078296 -0.15288554 -0.06726505 0.05585968 0.08936207 0.04078844

80 f4 [16]
00000000: b7ac fd3e 0a3a 18be 2c94 f83e 93c7 79bf
00000010: 3b40 ffbe 9e0e 033f 62f9 5a3e 3060 b6bd
00000020: 6262 a8bd a59e 903e 0e60 163f addb 1a3d
00000030: bf69 0f3f bf4b 26bf 8840 5dbc 3847 8cbe
0.49545833 -0.1486589 0.48550546 -0.9757015 -0.4985369 0.5119418 0.21384194 -0.08905065
-0.0822189 0.28246036 0.5874032 0.037807155 0.5602073 -0.6495933 -0.013504155 -0.27398086

82 f4 [32, 16, 3, 3]
00000000: dc11 44bb 4a2d 8f3b 8ed8 16bc 5cf8 b6bb
00000010: 4462 8cbb 86b4 c8bc 2188 eebb fd22 72bb
00000020: a2d2 fcbc e936 173b dce6 053c 9d8d b93b
00000030: 1c19 f73b 0d5f 0f3b 29e9 273c e168 88ba
00000040: 216b 7c3c 7908 b53c 6390 c63c 4454 cb3a
00000050: 1ac2 e6bc 79f1 bd3c 5c31 f2bb f94b bbbc
00000060: facc 343c de3f b0ba 054e dfbc c3b9 7bbc
00000070: ba9f 11bc dd42 473a fc6f 4cbc 25d4 69bb
00000080: b7af 243c 40b5 80bc 2aeb 693a 5947 043c
00000090: f70e 14bb 8d52 7cbc 02d0 343b 47b3 ebbb
000000a0: 434d 9fbb a9ee c23b 0709 aabb 1ee5 f6bb
000000b0: bdcb b73b 8ca9 093d c3a3 353d ab79 e03b
000000c0: 1e71 0abc c4af 613c 8274 6cbc 3c4f d8bc
000000d0: a8db 1f3b f3a6 a1bc 4d1a 7a3d 1dd2 133c
000000e0: 271e 01bc a76c 833c 112c 6b3b 046a 89bc
000000f0: 2a9e fa3b 3d47 cdbb e77d a7bc 8dc1 96bc
00000100: fefe 5fbc 4e83 3a3c 62ae 4abc eb85 8bbc
00000110: b17e d63b c5c8 073c 53cf 993b b09d 213c
00000120: 3b6e 8d3c 442d 883c 7be3 00bc 3568 953b
00000130: 4f82 22bc 6aa5 3dbc c616 80bb 1234 6fbb
00000140: 0b2d 04bc 4489 e43c 6ccf 6fbc a969 00bd
00000150: fd83 c83b ced1 d3bc 66e2 16bc e682 a33c
00000160: 22c3 07bc 5283 85bc 73e6 ce3b 98a5 003c
00000170: 58f1 023c 6849 c63b 1945 9f3b 9c91 913b
00000180: 89a2 40bb 5316 533b 47fa 443c 61da 0f3c
00000190: e3bd 52bc cd1d 1fbc 93df cc3a 7a2f bdbc
000001a0: 9cb5 35bc 964f 74bb 564a 9fbc f4e9 6ebc
000001b0: f4ff fc3c 5feb ec3b 32b0 52bc 14e9 9b3b
000001c0: c43e 8ebb 07b4 06bd 2558 363b 8268 4ab9
000001d0: 1e7b 06bd 159e f93a fc59 053b 28b6 af3b
000001e0: 3c5b 5bbc 151b 5fbb 584f 09bd 537d 56bc
000001f0: 50bc 623c 0526 ebbb b9f2 06bc b3d0 90bb
00000200: 7f05 cdbb a087 dbbb 1213 3fbb 4d7c d4bb
00000210: cf4e a43b 3458 993b 8c51 afbb bd5a a1bc
00000220: 5604 623b aeec 243d a7e6 a2bc c805 a3bc
00000230: 31f2 c53c e128 0cba 9c2a e6bc 4b2e 833c
00000240: 799c 0bbc 23a9 d53c 20e4 2cbd 7b58 173d
00000250: 2338 983c a5ec 18bd ca31 dc3c 1368 0fba
00000260: 3acb 36bd c2fa 643a 6b25 b93c 22d2 1c3b
00000270: 7895 17bd 2ec6 80bc c9be dd3c d77a 2abd
00000280: e0e6 1ebd 5cbc 4f3c 288d 513c 8ef2 69bd
00000290: f07f 7cbd 20cd 173c 35c1 b8bb cb12 fd3c
000002a0: e513 06bc 0de9 27bd b123 c23c d547 25bd
000002b0: 2d3e 62bc 5b16 93bc 9881 e1bc 514a e4bc
000002c0: fae6 9abb 310b b5bc c76c 0dbd 37a4 45bd
000002d0: 5f72 20bc a832 e0bc f25c 0f3c 80ae 8dbc
000002e0: fd4a cb3b 83ec 47bc 7698 923c dfd7 f4bb
000002f0: 32f7 ebbc 2160 38bb c419 0bbd a17c c8bc
00000300: 4f27 013d b982 02bd 051a efbc 56b2 933c
00000310: 6854 1c3d 9b6e 42bd 919e c33c 3cc1 853c
00000320: 2107 61bc d202 cb3d 5fd2 ca3c f03b 07bc
00000330: 0901 ce3d 83f8 213c 4d95 cdbc aad6 9bbc
00000340: 064d 61bd cd59 10bd 16cc 94bc 1890 d7bc
00000350: c3f0 c0bc 71ee 01bb 2b1c 0fbd 87a3 e9bb
00000360: d8c8 dc3c 5f4b b1bc 8438 093c bb42 4d3d
00000370: 4e7c fcb9 0921 a83a edae 1f3d 042b aabc
00000380: 5558 14bc d498 133b ae26 33bd 9503 1ebb
00000390: 1d5d 7d3d f3d5 ac3c 9b3f 03bc 320f 0c3d
000003a0: bd04 df3b 5421 3f3c a57c c6bc f099 44bd
000003b0: 750d 83bc 8b96 a9bb 5080 36bd 430c c6bb
000003c0: 241b 62bd f75d 15bd 7188 aa3c 2f11 b0bb
000003d0: 577e 07bd 9a03 bdbc 8067 bbbc 52fa 9a3a
000003e0: b3b7 1f3c 6a44 973c 72b4 30bb e27e 9abc
000003f0: 254d 823c db4a 23bd 3d55 10bd 90e9 fb3c
-0.0029917872 0.0043694125 -0.009206904 -0.005583806 -0.004284175 -0.024500143 -0.0072794114 -0.0036947124
-0.030862156 0.00230735 0.008172717 0.0056626336 0.007540835 0.0021876723 0.010248461 -0.0010407233
0.015406401 0.022098767 0.02423877 0.0015512784 -0.028168727 0.023186432 -0.007391138 -0.022863375
0.011035198 -0.0013446768 -0.027258882 -0.015364113 -0.008888179 0.0007601211 -0.012477871 -0.0035679427
0.010051659 -0.015711427 0.0008923287 0.008073651 -0.0022591928 -0.015400541 0.0027589803 -0.0071930024
-0.0048615052 0.0059488607 -0.0051890644 -0.007534637 0.0056090043 0.033608958 0.04434563 0.0068504415
-0.008449821 0.013774816 -0.0144320745 -0.02640497 0.00243924 -0.019732928 0.06106024 0.009022263
-0.007880724 0.01604302 0.003588442 -0.016774185 0.007648249 -0.006264596 -0.020445777 -0.01840284
-0.013671635 0.011383845 -0.012370678 -0.01703163 0.0065458645 0.008287613 0.0046939044 0.009864256
0.017264476 0.016623147 -0.007866736 0.0045595416 -0.009918763 -0.011575082 -0.003908965 -0.0036499542
-0.00806738 0.027897485 -0.014636856 -0.031350765 0.00611925 -0.025856879 -0.009209251 0.019959878
-0.008286269 -0.01629797 0.006314093 0.007851981 0.007992111 0.006051231 0.004860532 0.004442407
-0.0029393754 0.0032209351 0.012022561 0.008780093 -0.012862655 -0.009711695 0.0015630595 -0.023093928
-0.011090662 -0.0037278882 -0.019444626 -0.014582146 0.030883767 0.007230207 -0.012859391 0.0047580097
-0.0043409783 -0.03288653 0.0027823534 -0.00019303153 -0.032832257 0.0019044304 0.0020347824 0.005362291
-0.013388451 -0.0034043242 -0.033522934 -0.013091403 0.0138388425 -0.007176163 -0.0082365805 -0.00441941
-0.0062567587 -0.0066995174 -0.0029155654 -0.0064845444 0.0050142775 0.004679704 -0.0053502973 -0.019696588
0.0034487448 0.040264778 -0.019885374 -0.019900218 0.024163337 -0.00053466676 -0.02809649 0.016013285
-0.008521193 0.026081627 -0.042209744 0.036949616 0.018581456 -0.037335057 0.02687921 -0.00054705254
-0.044627406 0.00087348756 0.02260085 0.002392896 -0.03700778 -0.0157195 0.027068513 -0.041621055
-0.0387944 0.012679186 0.012790002 -0.057116084 -0.06164545 0.009265214 -0.0056382664 0.03089275
-0.008183454 -0.04099374 0.02369866 -0.040351707 -0.013808769 -0.017954996 -0.027527615 -0.027867468
-0.0047272416 -0.022100063 -0.034527566 -0.04825231 -0.009792893 -0.027367905 0.008750187 -0.017295122
0.0062040077 -0.012202385 0.017894965 -0.007472023 -0.028804395 -0.002813347 -0.03396012 -0.02447349
0.03153163 -0.031862948 -0.029187212 0.018029373 0.038166434 -0.047468763 0.023879321 0.016327493
-0.01373461 0.09912647 0.024758516 -0.008254036 0.10058791 0.00988591 -0.025095606 -0.019023258
-0.055005096 -0.03524189 -0.018163722 -0.026313826 -0.023552304 -0.001982596 -0.034938972 -0.0071300897
0.026951239 -0.021642385 0.008375291 0.050112467 -0.000481578 0.0012827228 0.03898518 -0.020772465
-0.009054263 0.0022521513 -0.04373806 -0.0024111022 0.061856378 0.021098113 -0.00801077 0.03419418
0.006805985 0.011665661 -0.024229357 -0.04799837 -0.015997628 -0.005175417 -0.044555962 -0.006043942
-0.055201665 -0.036466565 0.020817013 -0.005373142 -0.03307947 -0.023073006 -0.022876501 0.0011823869
0.009748387 0.01846524 -0.0026963023 -0.01885933 0.015905926 -0.03986631 -0.03523754 0.03075102

83 f4 [32]
00000000: 27cc e13d ebe0 813e 2ed0 f5be 0dc4 fa3d
00000010: e0ea 553b 40c9 a63e c01b dabd 92e0 a33c
00000020: 4474 1d3d 12fb e83d aae7 403d ec7a dc3d
00000030: aba1 1abd b078 f3bc ed6c dd3e 36d0 a33e
00000040: a0fd 7f3b 9063 b83e 5098 293e ba99 6b3e
00000050: 3f19 7fbd d991 593d 8bdd 5d3e 20e5 673b
00000060: 5087 28bc 669f abbe 6ea3 133e 77bd 06be
00000070: a4bc c93d 1bbd 94be cb09 833e 318b 253e
0.11025267 0.2536691 -0.4801039 0.12244425 0.0032641217 0.32575417 -0.10649824 0.020004544
0.038440958 0.11376013 0.047095932 0.10765633 -0.037751835 -0.029720634 0.43247166 0.3199479
0.0039061084 0.3601346 0.16562009 0.23007861 -0.062279936 0.053117607 0.21666543 0.0035384372
-0.010286167 -0.3352005 0.14417812 -0.13158213 0.098504335 -0.29050526 0.2559341 0.16166379

85 f4 [32, 32, 3, 3]
00000000: 1f78 393d c95f 94bb 88b1 4cbc 9118 553d
00000010: 1e06 35bc b0be 1abd 4b3c ca3c 6a6c 10bd
00000020: 2dab 3bbd 3f02 4c3c 6669 17bd 9267 45bd
00000030: 4bca 613d e24f 373c 5885 c4bc 05d6 e33d
00000040: 5361 943d e204 b63c 6112 18bd a2a4 92bc
00000050: d755 c5bd 1765 bfbd ccd8 dfbc 7da7 b23c
00000060: fd96 85bd e24b 96bc afdf 2d3d 5453 88bc
00000070: 71f9 09bd 95bf 14bc ffe1 abbc 6afa 81bc
00000080: b859 26ba 9bd0 07bc 3c66 063c cb9f 093c
00000090: 8fb3 893d 8022 a23c 59a5 a03d b4d6 1f3d
000000a0: 888f f53b 63de 833d 62dd 10bd c412 73bd
000000b0: 2c35 043e 1304 6abd 14b1 1cbc 7028 b4bb
000000c0: c0d5 36bd d3ee 81bd 9f1d 24bd 9a57 99bd
000000d0: 945b 14bd 7a67 6fbb 9f97 90bd 817e bdbd
000000e0: 86c2 38bd fec4 0f38 5083 bebc 758b 743c
000000f0: 146c 843b 682d 55bb 5203 c93c fdd9 aa3d
00000100: 0cfb 403d 8988 373d c21b ff3c b00d 6abb
00000110: 8adf 0abd 1d02 ee3d 94ce dc3d cb1e 853d
00000120: f180 c93c 093b 123c 65ce 733c 9597 4e3d
00000130: 0ad9 a2bb d5ca a43b 2baa 8d3d 9658 d13c
00000140: c704 c83c 42c2 9fbb 5e45 6e3c f49f 533d
00000150: d7dc b2b9 2d58 7f3c a5f0 0e3d b642 823c
00000160: 0b95 173c dae7 b83c 85ef dc39 275d 0cbd
00000170: 847d 36bd 57ab 8cbc e126 18bd ccbb 23bd
00000180: 4d41 b53c c7e8 b1ba 275c bb3c f06e 1dbd
00000190: 6dcc 2dbd 9a6c 9abc a63d debb e986 0ebc
000001a0: 9bc1 663c 5d53 8bbc e160 6e3a 089b 2b3d
000001b0: ff76 b43d 1499 67bc d0e3 88bd 4859 a33d
000001c0: a0a0 393b f91c 5dbd 18f6 c73d d9a5 f53c
000001d0: 0275 c83c 10df 993b 80be 17bb feef 1a3c
000001e0: 30d2 69ba 6c75 443b dc85 e33b cd53 1fbc
000001f0: cad1 80bb 741e 993b 4873 503d 362f a63c
00000200: 5a80 9d3d 8b81 d4bc fe5d 89bd da9e 2d3d
00000210: a540 c6bd e263 9bbd 1f30 993d 396d 2abc
00000220: 24e7 a0bd 0c0b 2bbd 79dd f7bc 5bb9 1abd
00000230: b30c bdbc 635b d93c bd69 36bc 6422 dfbc
00000240: d5f9 efbd 0982 143b 94b2 0ebd ea7d 3bbd
00000250: 2a65 8ebc ddbf c1bd 1691 9dbd 1e68 b3bd
00000260: 7e64 ecbd 256b 32bd 4e88 1ebd df50 833c
00000270: d366 9fbd 774b 06be c65d c8bd 12f0 8fbd
00000280: eaa6 e7bd ace7 b1bd 5d88 cfbc 1353 4b3d
00000290: ba16 d93d efeb 74bc 6b56 db3c 7fe3 4d3d
000002a0: 277b 54bc 41c6 483c 1654 213d d06b c23d
000002b0: 6d69 ef3c cf7f 583d efb1 d23d 4cbb 0a3d
000002c0: f8fe f33c 9183 213e 8160 373d 334b 153d
000002d0: c6d9 253a 8a8b 0abd bd1b 83bc a278 483c
000002e0: 3b5a d5bb ec7e bb3a 23f5 fd3b bc09 913b
000002f0: f52d 1f3c 6ce2 163d 20a6 b53d a44c 833d
00000300: 96b3 2fbc 5c1d c23c 03b3 ec3c a99d 943b
00000310: 422b 643c 9790 89bc e010 6b3c da27 e1bc
00000320: f79c a63a 4d41 77bc 3fee 6fbd 8122 73bc
00000330: 9d02 6ebd 8fb8 aabd 56d4 0cbb 880e afbd
00000340: 7b9a 68bd c438 a3bc d357 52bd 486a 8bbd
00000350: fff7 a5bd b4ea acbc 42e5 f3bd 56d6 36be
00000360: eb00 163c ad46 193c d10c f33c 7cdd 213b
00000370: a495 c63b b1a4 893c 788c a2bb 87ad 94bb
00000380: 0f11 b43b 0d64 cb3b c95a 85bc fba7 52bd
00000390: 66af 663c 7976 3bbd ec7b 60bd 6277 d03c
000003a0: 3a94 c7bc 28a7 88bb 81f7 173c 73bd e8bb
000003b0: a23f 493c d703 6c3c fc5b 853b 552e c73b
000003c0: 9d70 5fbb 8e6a 2abc 1612 15b9 2d4d 57bd
000003d0: f184 ddbd 7772 83bd 2864 05b8 8726 debc
000003e0: 3774 40bd b831 563d b076 ec3b 24c5 8fbc
000003f0: 2a4c f23c bd65 823c 74f1 203d 4c10 5f3d
0.045280572 -0.00452802 -0.012493499 0.05202538 -0.011048822 -0.03777951 0.024686953 -0.03525964
-0.045817543 0.012451707 -0.03696575 -0.048194475 0.055124562 0.011188479 -0.023989365 0.11124805
0.072451256 0.022219125 -0.037126902 -0.017900769 -0.09635513 -0.09345453 -0.027325056 0.02180838
-0.06522939 -0.01834673 0.04244965 -0.016641296 -0.03368515 -0.00907888 -0.020981787 -0.015866477
-0.00063457666 -0.0082894815 0.0082030855 0.008399914 0.06723701 0.019791842 0.078440376 0.039023116
0.007493917 0.06438901 -0.035367377 -0.05934407 0.12910908 -0.05713279 -0.009563703 -0.0054979846
-0.04463744 -0.0634438 -0.04006731 -0.07487412 -0.03622015 -0.0036530183 -0.070601694 -0.09252644
-0.045107387 3.427732e-05 -0.023255974 0.014925827 0.004041204 -0.0032528285 0.024537716 0.08342359
0.047114417 0.044807944 0.031141166 -0.0035713725 -0.03390459 0.11621497 0.10781589 0.06500014
0.024597617 0.008925208 0.014880751 0.05043753 -0.0049697207 0.0050290623 0.069172226 0.025554936
0.02441634 -0.0048754523 0.014542906 0.051666215 -0.00034115344 0.015584988 0.034897465 0.01590095
0.009251843 0.022571493 0.00042140126 -0.034268524 -0.044553295 -0.017171545 -0.037146453 -0.03997402
0.022125864 -0.0013573401 0.02287109 -0.038435876 -0.042431284 -0.018850613 -0.0067822514 -0.008699157
0.014084245 -0.017007524 0.00090934156 0.041895896 0.08811759 -0.014135618 -0.06684077 0.079760134
0.00283245 -0.05398271 0.097637355 0.029986309 0.024469856 0.0046957806 -0.0023154318 0.009456633
-0.0008919565 0.0029977215 0.0069434475 -0.0097245695 -0.003931259 0.0046728197 0.05089119 0.020286184
0.07690497 -0.025940677 -0.06707381 0.04238782 -0.09680299 -0.075874105 0.074798815 -0.010402017
-0.078565866 -0.041758582 -0.030256974 -0.037774425 -0.023077345 0.026532834 -0.011133608 -0.027238078
-0.117175736 0.0022660515 -0.034838274 -0.045774378 -0.017382223 -0.09460423 -0.076936886 -0.08760093
-0.11542605 -0.043559212 -0.03870421 0.016029773 -0.07783284 -0.13114725 -0.09783511 -0.07028212
-0.11311133 -0.08686766 -0.025333578 0.049639773 0.10600038 -0.014948829 0.026774606 0.050265785
-0.012968815 0.012254299 0.03938683 0.0949322 0.029225076 0.052856263 0.102878444 0.033870026
0.029784665 0.15772845 0.044769768 0.03644867 0.0006326701 -0.03382448 -0.016004438 0.012235792
-0.0065110005 0.0014304793 0.00775017 0.0044262093 0.009715547 0.036837026 0.088695765 0.064111024
-0.010723969 0.02369564 0.028893953 0.004535396 0.013926329 -0.016792579 0.014347285 -0.027484823
0.0012711574 -0.0150912525 -0.05857682 -0.014839769 -0.05810796 -0.08335983 -0.0021488867 -0.085476935
-0.05678795 -0.019924529 -0.051353287 -0.06807381 -0.08103942 -0.021108009 -0.11908962 -0.178552
0.009155492 0.009355229 0.029669197 0.0024698665 0.006060319 0.016802164 -0.004960593 -0.0045372876
0.0054951976 0.0062069953 -0.016278641 -0.05142973 0.014079904 -0.04576728 -0.05480568 0.025447551
-0.024362672 -0.004170317 0.009275318 -0.007102662 0.012283238 0.014405212 0.0040698033 0.0060785213
-0.0034094222 -0.010401381 -0.00014216485 -0.052563835 -0.10816372 -0.06418317 -3.180295e-05 -0.02711798
-0.04698583 0.05229351 0.007216297 -0.017550059 0.029577333 0.015917653 0.039292768 0.0544589

86 f4 [32]
00000000: 7cd1 7c3e 930f 10be 4462 c7be 69dd 99bd
00000010: 4c80 e7bd 6fb1 9c3e 3945 c83e 9f76 9e3e
00000020: 9537 e03e 242e 6a3c b8bf cd3e fd55 733e
00000030: 7d2a 9f3d f298 a7be 0e5d fb3d d1a1 15bb
00000040: 48ba 0c3c ba66 d03d 5b28 68be 46d3 013f
00000050: 0e30 82bd 572f d33e 23bf 22be efb1 893e
00000060: f4f0 043e 9240 01bd d08f bf3c 42f6 b73c
00000070: e27b 71bd 76f9 0d3e bfcb 433e 338b 67be
0.24689287 -0.14068441 -0.38942158 -0.07512934 -0.113037676 0.3060412 0.39115313 0.30949876
0.43792406 0.014293227 0.40185332 0.2376327 0.07771776 -0.32733876 0.12273608 -0.0022832046
0.008589335 0.101758435 -0.22671644 0.50713 -0.06356822 0.41247055 -0.15893225 0.26893565
0.12982541 -0.03155572 0.023384005 0.022456292 -0.058956034 0.13864693 0.19120692 -0.22611694

88 f4 [32, 16, 1, 1]
00000000: 87a5 b53a 377c 2d3e b17e 0abe 2ec8 a7bc
00000010: 33bb 673d c62a 323c 1b4d 8f3d 8b70 bf3d
00000020: 3b07 01bd d32b 0cbe 20bb b43d 1b22 3fbd
00000030: 592d 9abd 4305 f43b 2928 dfbd 2e59 1b3e
00000040: 3858 86bd 3130 573e e263 76bd 3fa3 723d
00000050: bb18 ddbd 685c 5fbd 5d70 763b c7b2 ed3d
00000060: 41b0 9b3d 2da6 743d bf2f 11bc bca2 173d
00000070: c485 28be c145 da3d eea9 02be 8df6 30be
00000080: a973 45bd 0198 a53c a687 43bd 486b 423d
00000090: 975a d0bd e33f f5bd deab bbbc 89dd a2bd
000000a0: aba4 d4bd c78b dabd 5135 2abe 1c18 c5bd
000000b0: 788e fbbd 0bcb 90bb e9ac 8fbc 88d2 edbd
000000c0: ee5d f53c d205 b2bc c9d8 5abd a9df f83c
000000d0: bcff 5bbc 2471 45bd 3da1 8bbd 306c 2a3c
000000e0: cd7c f1bc 1b77 13bd 7a59 483d 3e9c 1e3b
000000f0: 0d55 28bd 64fd 6fbd 4e1a 263c 3fe8 c73c
00000100: ee7f 72bc 3bf3 823c b61b c3bc d502 053d
00000110: 6a6c 9a3c 329a bd3c 75a9 23bd 4dbb cc3c
00000120: a130 373d 71f9 9fbd 47d6 0f3c bad3 963d
00000130: b82e 59bc 0ecf 3dbd 6c43 1cbd 68ff ed3d
00000140: bd06 983d fd9e babd 8ed6 533c 40ca 143b
00000150: 1689 88bd 65da 2b3d 7ace 423c c751 e6bd
00000160: e7bc e73c e43b 323e 1a8f 8cbd 36bb 3a3d
00000170: 7bde 223c 5043 3c3d fd90 853b da45 fe3d
00000180: 76df 073d 017d 843d f390 0b3d 4822 9d3c
00000190: c033 0cbd 3331 bb3d 8299 b33d aff0 59bd
000001a0: 62a0 303d 9684 bd3d b941 4a3c 050d 1d3d
000001b0: 8c02 123d 3ab9 783d 4ea1 80bc 1466 43bd
000001c0: 59b6 d23e baa0 b9be 43cb d0bd 83e4 b93c
000001d0: 0dea d3bb 9d21 bf3e 444d 15be a4a9 bdbe
000001e0: 1367 debc 1c15 5ebe 40a4 f2be b1f7 733e
000001f0: 5fc3 4e3d e9ca 13be a036 213e fa70 483e
00000200: 955b 97bd fce9 35bd b3e8 f6bc 28c4 003d
00000210: 291c 13bd d500 f0bd f497 bc3d be53 49bd
00000220: f175 fcbc 35a4 efbd 71cb 203c 8b1a 983d
00000230: 1ae2 c33d 18bd af3d f121 efbd 77d5 afbd
00000240: d394 5d3d fba4 433d 1fd8 df3c e26e 3a3d
00000250: 3cb4 f6ba 902d 913d afd1 6d3d 4e75 0a3d
00000260: 4a22 883c 6561 7e3d 1b9f e83c 7947 a73d
00000270: 6fa4 21bc aa96 9d3d 7f99 8ebd fc0a 97bd
00000280: 4d80 623d a06e 553d 8bc0 c73e 6059 47be
00000290: f6aa 88be 7184 f63d 88a4 6d3d b7d1 243e
000002a0: fadf 293e fb5c 903e 5cd5 e9bd f150 dbbd
000002b0: fdba 2e3d 6b52 453e 46be 92be f664 48be
000002c0: 2138 a7bd aaf8 6dbc 8eb4 bcbd 005e 83bd
000002d0: b57d ef3a 3857 28bd ba6f 9d3d eac5 f5bc
000002e0: bef2 543c 0530 febd 86bd c03d ee54 2b3d
000002f0: ce20 863d 55c9 ad3d a1fe 5dbd 4f83 263d
00000300: d403 f4bb 12e9 b03b 318f 593d 1862 873c
00000310: a298 79ba 2f28 15bd 4da1 153d 87ed 53bd
00000320: b80d 993c 0d28 183d c088 a7ba 969b 393d
00000330: f75d 153d aaf7 333d 65aa 123b 664a a03c
00000340: 817f bf3c ba92 653c 7c4e b0bc 0672 4f3d
00000350: 2435 6fbd 7034 9cbd 3594 46bd 5c21 4c3d
00000360: 3d52 00bd 00c9 1dbb 0dd5 36bd c571 033d
00000370: e8c6 ad3d fdd3 edbc d59d 3d3d 85f8 f4bd
00000380: 253a 9cbd af14 823d 45ca 41be be3a 55bd
00000390: 3c6f 67be 9fc9 4abe 34ee 9c3e c837 d43d
000003a0: 7c40 403d cb0b d5bd ef10 5c3d bca9 553e
000003b0: ba55 813d 0fa3 07be e4f4 343e c964 1e3e
000003c0: 4d80 933a 6793 de39 4b04 d5b6 8331 5b3a
000003d0: 61e2 2839 2660 36ba 127c 803a 5cc4 b739
000003e0: 68b8 4e39 5f94 163b 9144 6e39 ee69 09b7
000003f0: a5e4 08b9 41c8 30bb 68cb c739 473c 483b
0.0013858535 0.16941915 -0.13524891 -0.020481195 0.05657501 0.010874456 0.069971286 0.09347638
-0.031501036 -0.13688593 0.08824754 -0.046663385 -0.07528181 0.0074469163 -0.10896332 0.15170738
-0.06559795 0.21014477 -0.06015385 0.059237715 -0.107957326 -0.054531485 0.0037603595 0.11606365
0.07601977 0.05972879 -0.008861481 0.03702043 -0.16457278 0.10657836 -0.12760136 -0.17281552
-0.048206005 0.020214083 -0.047736786 0.047465593 -0.10173529 -0.11975076 -0.022909101 -0.07952411
-0.103829704 -0.10671192 -0.16621901 -0.09623739 -0.12283033 -0.004418736 -0.017538505 -0.11612421
0.029952016 -0.021731291 -0.0534294 0.030380087 -0.013427671 -0.048203602 -0.06817863 0.0104017705
-0.029478455 -0.03600226 0.048913456 0.0024202014 -0.041096736 -0.05859126 0.010138107 0.024402736
-0.014801009 0.015985122 -0.023816925 0.032473404 0.018850524 0.023144815 -0.03995653 0.024991656
0.04472411 -0.07811249 0.008779115 0.073646024 -0.0132557675 -0.04634004 -0.038150236 0.116209805
0.0742316 -0.09112356 0.012929572 0.0022703558 -0.06666772 0.041956324 0.011890048 -0.112460665
0.028288318 0.17405659 -0.06863232 0.045588695 0.009940739 0.04596263 0.004076122 0.12415667
0.033172093 0.06469155 0.03407378 0.019181386 -0.03422904 0.091402434 0.08769514 -0.05320805
0.043121703 0.092538044 0.012344771 0.038342495 0.03564696 0.06072352 -0.015701916 -0.04770477
0.41154745 -0.36255437 -0.10195019 0.02269197 -0.00646711 0.37330332 -0.14580256 -0.37043488
-0.027148759 -0.2168774 -0.47390938 0.23824956 0.05047929 -0.14432873 0.15743494 0.19574347
-0.07390515 -0.044412598 -0.030140257 0.03143707 -0.035915527 -0.11718909 0.0920867 -0.04915213
-0.030817958 -0.11701242 0.009814129 0.07426938 0.0956461 0.08580989 -0.11676396 -0.08585637
0.054097008 0.04776476 0.027324734 0.045515902 -0.0018822025 0.070887685 0.058061298 0.033803277
0.016617913 0.0621046 0.02839618 0.08167929 -0.009865864 0.076947525 -0.06962871 -0.07375142
0.05529814 0.052107453 0.39014086 -0.19467688 -0.26692933 0.1203698 0.058018237 0.16095625
0.16589347 0.28195938 -0.11417648 -0.10708798 0.042658795 0.19269721 -0.28660792 -0.19569764
-0.081650026 -0.014524618 -0.092141256 -0.064144135 0.0018271717 -0.041098803 0.07687326 -0.0300016
0.012997327 -0.12411503 0.09411149 0.041829042 0.06549226 0.08485667 -0.05419791 0.04065257
-0.0074467454 0.005398878 0.053115074 0.016526267 -0.000952134 -0.036415275 0.03653078 -0.051740196
0.0186833 0.03714757 -0.0012781844 0.045314394 0.036466565 0.043937363 0.0022379395 0.019566726
0.023376228 0.014012033 -0.0215218 0.05064585 -0.05840029 -0.07627189 -0.048481185 0.0498365
-0.03132843 -0.0024076104 -0.044636775 0.03209092 0.08485204 -0.029031748 0.0462931 -0.11961464
-0.07628278 0.06351601 -0.18924816 -0.052057974 -0.22601026 -0.19803475 0.30650485 0.10362202
0.046936497 -0.1040264 0.053727087 0.2086553 0.06315179 -0.13245796 0.17671543 0.15468134
0.0011253447 0.00042452963 -6.3483944e-06 0.0008361565 0.00016106061 -0.0006957076 0.0009802601 0.0003505078
0.00019714388 0.002297662 0.00022722992 -8.1905e-06 -0.00013055147 -0.002697483 0.00038107787 0.0030553506

89 f4 [32]
00000000: 8b77 b7bd 389f 1c3b 2b47 d73e 2cc2 ea3d
00000010: 008d 58bd e593 1dbe cdeb 3fbe b5ab 273e
00000020: e677 ed3d 2d66 71be bd4b b6be 6615 9d3c
00000030: bbaa eabd c21f da3d ae01 b9bd ca91 99bb
00000040: 5066 ff3c 0377 30be 7a8c b33d 3e41 83bd
00000050: 4897 e8bb 71c9 40bd 608e 6a3a 38fb e5bd
00000060: 1027 1a3e 1022 39bb 7306 17bd 10b1 293e
00000070: 4638 483d 27b4 f63d 3634 253d ad3c 4c3e
-0.08958348 0.0023898613 0.42046484 0.114628166 -0.052868843 -0.15388449 -0.18742295 0.16374095
0.115951344 -0.23574133 -0.3560466 0.019175243 -0.114583455 0.106505886 -0.090335235 -0.004686569
0.031176716 -0.172329 0.08767028 -0.06408928 -0.0070981123 -0.04706711 0.0008947607 -0.11229557
0.15053964 -0.0028249063 -0.036871385 0.1657145 0.04888179 0.1204608 0.040332995 0.19945021

91 f4 [64, 32, 3, 3]
00000000: 99dc a63c 8046 3b3c c3fe 04bd a759 593c
00000010: 9c15 6ebb 6a97 f3bc 9002 3dbc 1dc0 1f3c
00000020: 11b3 9ebc 9a13 9cbc ec86 3bbc 7da8 acb9
00000030: 0ad6 3fbd eeed 6cbc a572 1f3c ac9f 81bd
00000040: 2c4c b2bb a527 6a3c 680f a83c b63a 433d
00000050: f289 2c3d 0b1e c5bc b65f b83b 1805 1dbc
00000060: bb42 21bd ad35 1d3d 14d8 63ba 5a97 8abc
00000070: 34a6 cb3b 6fc9 73ba 3c79 1cbd ea71 c53c
00000080: 551a 70bc fb57 81bc 3274 bd3c 25c3 81bc
00000090: fc39 9cba 6658 443c 58f8 fcbb cf2b 06bd
000000a0: 6d75 d0bb c2f6 c4bc 9e13 29bb 73c8 4e3c
000000b0: ae54 09bc 28ac 5bbd 62e5 0bbc 4c1d b73c
000000c0: 52b6 b7bc c9a2 c4bb dbf7 733c 2560 d33b
000000d0: 1659 c43b e982 4d3d 8bea f2bb 2ef5 a9bc
000000e0: fbd0 d33c 7a55 b33c ed01 36bc 2e1e a13c
000000f0: 292c ac3c 438d d1bc a180 b2bb d3a8 1e3a
00000100: 97e0 3e3d 3ce8 08bd ab47 723c b788 1a3d
00000110: af13 eabc 291e b53c b6a2 743c a233 2bbd
00000120: b4fd 103c 171c c9bc 3709 c7bc 604b 86bc
00000130: 71cf d2bc 213d 96bc dace ad3a a2f5 3dbc
00000140: 2415 0ebc a7e4 24bb 21c8 083a 9b38 26bc
00000150: 2e2c a1ba ddf9 63bc a316 4f3b 1061 51bb
00000160: 9e01 57bc c442 e6bb 779e 8bbc e533 9c3c
00000170: 3b95 7a3d fd29 123d df88 bf3c c4d5 9f3d
00000180: 776a 6b3d 721e 563c 9f2f e83d 62e0 ad3a
00000190: 4f46 f93c d79a 9d3c 3fc0 f53b da8c 113d
000001a0: 679f 0b3d f779 67ba 667a 333c 3a6e 213c
000001b0: 2f34 b1b8 1a1f aebb 7fd1 c7bb 2629 103b
000001c0: 30bd 65ba 2b80 2cbc 3708 053b fcfb 3abb
000001d0: 29f5 86bb 8002 b0bc 66e4 18bd 3859 9fbc
000001e0: 58ff 35bc b34d 64bd 4bdb b93c 72cb f9ba
000001f0: fd05 e7bc ee01 273d 5514 553c 9cdd 3b3c
00000200: 8f5c 033a d625 3f3c 8614 383c 6edd 9e3c
00000210: 3989 e53b df39 3a3c c84e 8c3c d5f9 9e38
00000220: 536e 62b9 4fe8 aaba 952f 06b9 c49d 17ba
00000230: a161 9bba 3f5f 6038 89b8 05ba 51e9 93ba
00000240: d808 363c a6ba b53c 735c 213c 57f1 353c
00000250: cba0 123d 79b6 263c f896 4b3c d034 ec3c
00000260: a2e3 b03a cee0 cdbc c1d9 97bc a291 55bb
00000270: e59f 803b be71 87bc a8d8 99bc deb7 c53c
00000280: f818 e1bb d7bb 613c 5580 563d fe76 94bc
00000290: a166 02bc 1b5a e9bb 8b0b b3bc 763a 8ebc
000002a0: 612b 383d 9ba2 843c 3307 113d 0218 163d
000002b0: f67d 49bd a298 323c 2327 0c3d 91fe 62bd
000002c0: 8476 b03b 9b82 493c a1e6 9abd c612 f4bb
000002d0: 036b cebc eaef 343b d4ca 11bc 91b6 08bc
000002e0: 488d 033c 7ef7 12bd 8194 bbbb 22e0 bc3c
000002f0: 8a5e 91bb fda5 09bc 5a89 b3b8 8f0e 25bd
00000300: b4f9 093c 3731 86bb ff0b d7bc c4ad 09bd
00000310: e579 78bd d645 11bd 7ac7 aebc 0533 0bbb
00000320: 7261 39bc 8db8 c6bc 909a ba3b 41f9 8cbc
00000330: 5171 a5bc d065 1d3c 6801 2fbc 53c9 03bc
00000340: dbf2 123d d455 0f3c 2462 203d 5c70 553d
00000350: ef76 983c a28f 863d 5a86 ba3d 1dda 8f3c
00000360: c6f8 c73b edcb 26bd 203f dabc 7954 ec3c
00000370: ec7b 83bc fc42 b5bc 1d08 b83c 076c bbbc
00000380: 9b5d 8fbc 8196 63bb 63d3 39bb 07b4 2cbb
00000390: 2530 aebb f309 81ba 753a a63a ca60 17bc
000003a0: e1bf f2ba aad5 bbba 8f6e 2dbc c773 2fbc
000003b0: 6539 c23a f012 8abc 03f3 87bb b5ba 76bc
000003c0: 13b9 1e3c 8a59 003c daeb 773c 035e 1e3c
000003d0: 8d6c df3c 3e9b 5a3d b393 68bc 503c 133d
000003e0: 436b 223d 646c 123c eba5 6b3c 7814 853d
000003f0: b9ce c6bb e492 b0bc fdf6 0ebc 92a6 abbb
0.020368861 0.011430383 -0.032469522 0.013266004 -0.0036328798 -0.029735286 -0.0115362555 0.009750393
-0.019372495 -0.019052316 -0.011445742 -0.0003293193 -0.046834983 -0.014461024 0.009731923 -0.06329283
-0.0054412093 0.014291679 0.020515159 0.047663413 0.042123742 -0.024062177 0.005626644 -0.009583734
-0.03937028 0.038381267 -0.0008691561 -0.016917873 0.0062148813 -0.00092997303 -0.038201556 0.02410217
-0.014654716 -0.015789023 0.023126695 -0.015840122 -0.0011919136 0.011983966 -0.0077200346 -0.032756623
-0.0063616545 -0.024043445 -0.0025799046 0.012621033 -0.008382006 -0.053630978 -0.008538576 0.022352837
-0.022425804 -0.006000851 0.014890636 0.0064506703 0.005992065 0.050173674 -0.0074132136 -0.020746794
0.025856486 0.021891344 -0.011108858 0.019667711 0.021017151 -0.025580054 -0.0054474627 0.00060523784
0.046600904 -0.0334246 0.014787595 0.037728038 -0.028573839 0.022109108 0.014931371 -0.041797288
0.00884955 -0.024549527 -0.024296386 -0.016393363 -0.025733681 -0.018339695 0.0013260499 -0.011594208
-0.0086720325 -0.0025160701 0.000521781 -0.010145332 -0.0012296492 -0.0139145525 0.0031599186 -0.0031948723
-0.013122944 -0.007027002 -0.017043335 0.019067714 0.061177474 0.035684574 0.023380695 0.078044444
0.05747458 0.013068782 0.11337208 0.0013265724 0.030429034 0.019238872 0.007499724 0.035534717
0.034087565 -0.0008830125 0.010954475 0.00985294 -8.449738e-05 -0.005313766 -0.006097972 0.0021997183
-0.0008763848 -0.0105286045 0.0020299086 -0.0028531542 -0.004118581 -0.021485567 -0.037327193 -0.019451723
-0.011108242 -0.055738162 0.022687575 -0.0019057824 -0.028201098 0.040773325 0.013005336 0.01146641
0.0005011046 0.011666736 0.011235362 0.019392695 0.0070048836 0.011366337 0.01712741 7.580562e-05
-0.00021594139 -0.0013039204 -0.00012796962 -0.0005783702 -0.0011854657 5.3494467e-05 -0.0005101045 -0.0011284744
0.011110507 0.022183727 0.009848702 0.011104903 0.035797875 0.010175341 0.0124261305 0.028833777
0.0013495574 -0.02513161 -0.01853645 -0.0032588025 0.003925311 -0.016533729 -0.018780068 0.024135526
-0.0068694316 0.013777695 0.05236848 -0.018123146 -0.007959039 -0.007121337 -0.02185609 -0.01736186
0.044963244 0.016190818 0.035407256 0.03664399 -0.04919239 0.010900648 0.03421701 -0.055418555
0.005385222 0.012299205 -0.0756352 -0.007448527 -0.025197512 0.002760882 -0.008898456 -0.0083443085
0.00802929 -0.03588056 -0.00572449 0.023056094 -0.0044363188 -0.008401391 -8.560969e-05 -0.040297087
0.00842135 -0.0040952223 -0.026250837 -0.03361298 -0.060663123 -0.03546699 -0.021335352 -0.0021240127
-0.011314737 -0.024257923 0.005694695 -0.017208697 -0.020195635 0.0096067935 -0.010681488 -0.008043605
0.035876136 0.00874849 0.039156094 0.052109107 0.0186114 0.065703645 0.09107657 0.01756006
0.006102654 -0.040721823 -0.026641428 0.028848873 -0.016050301 -0.022126667 0.022464806 -0.02287866
-0.01750069 -0.0034727158 -0.0028354756 -0.0026352422 -0.005315798 -0.0009844884 0.0012682216 -0.009239385
-0.0018520319 -0.0014330645 -0.010585441 -0.010708756 0.001481813 -0.016854733 -0.0041488423 -0.015059163
0.00968768 0.007833848 0.015131915 0.009665969 0.02727344 0.053370707 -0.0141953705 0.03594619
0.039653074 0.008936975 0.01438282 0.06498045 -0.0060671237 -0.021554418 -0.008725879 -0.0052383626

92 f4 [64]
00000000: df61 0cbe 79af ddbb 6c40 933d 54d5 b9b9
00000010: 28b4 a4bc f880 79ba 7e6a 04be 4257 d3b8
00000020: 3e89 c93c 8d05 e9ba a8c5 cfb3 32a3 d6bb
00000030: 12ee 67bb 5afe 0cbb d3f7 9bb1 106d 083d
00000040: 61d9 3abe cb4b e2ae 11c9 23ae 59ff 78b9
00000050: 0aee 22be 04c6 51be 7545 67bd 0075 8939
00000060: 6827 deba 582c 903b 0c7a 81bd a104 23b2
00000070: 1829 dab8 7b9e 0ebe a465 36bc 721b 95b7
00000080: 3cdc fabd 5453 debc 1e6c ebbd 9a0b 02be
00000090: a86b e9b5 55e2 00be e50c 78ae d8d1 8bba
000000a0: 042d 57bd 5af8 87b3 8d26 a43d 5346 03ac
000000b0: 7c95 f2bd 80bf 4abb 1edc 973c d68d 3fbd
000000c0: 40bb 5cbb 4448 f6bc 8c93 8f3e ff37 0abd
000000d0: 00dd d3ba 444e e83b f412 5cbe 6e36 13be
000000e0: 923c 593e 337d 78b9 f714 bdb7 e3d0 1cb8
000000f0: c0cd 833a 8280 3bbc 68ce 17be 090f dba3
-0.1370921 -0.0067653027 0.07190022 -0.00035444892 -0.020105436 -0.0009517814 -0.12931249 -0.00010077517
0.024601575 -0.0017778144 -9.675142e-08 -0.006550216 -0.0035389704 -0.002151391 -4.539268e-09 0.033307135
-0.18246986 -1.0290754e-10 -3.7240492e-11 -0.00023746247 -0.15911117 -0.20485693 -0.056462724 0.00026217848
-0.0016949 0.0043998174 -0.06322107 -9.488901e-09 -0.00010402704 -0.13927643 -0.011132631 -1.7774964e-05
-0.122490376 -0.027139343 -0.11495231 -0.12699738 -1.7391185e-06 -0.12586339 -5.6400124e-11 -0.0010667397
-0.052533165 -6.331602e-08 0.080151655 -1.8655257e-12 -0.11844918 -0.0030936897 0.018537577 -0.046766125
-0.0033680946 -0.030063756 0.28042257 -0.03374481 -0.0016163886 0.007089408 -0.21491605 -0.14376232
0.21214512 -0.00023697763 -2.2540318e-05 -3.738784e-05 0.0010055825 -0.011444213 -0.14824831 -2.3750395e-17

94 f4 [64, 64, 3, 3]
00000000: 7eb5 47bd 80fe 813d 9b2a a13d 74f4 ccbd
00000010: 794b 44b9 f18c 3a3d 6ec3 5ebd 4bbf 77bd
00000020: 9690 293e 09f9 1632 087f a132 9f38 4432
00000030: d7af 7432 b2e7 9e33 9ce1 6c32 f2b8 df31
00000040: b319 5633 697c 8832 0e3f 47bc 5a7b 55bc
00000050: b420 523d a3ea 5f3d 464f 303d 4b31 a8ba
00000060: d79d 703d 06df b83d f782 393d 8ee0 af17
00000070: c4d5 561e 4304 a820 ec9c 8519 1cbc 9322
00000080: 579d 2a26 32c4 991d 7da4 de24 23d2 0020
00000090: 2f6e 0e3c febc 023c d6e6 d93b 587c a83b
000000a0: 1c18 dd3b e102 be3b 8b61 af3b 6072 113c
000000b0: a872 003c 2968 97b2 9efb 39b4 9e26 8930
000000c0: 1623 e6b2 c5a8 11b4 eb39 8232 fb0d d4b1
000000d0: 3f3a 2cb2 1c77 a22d d552 253d 88d9 c23c
000000e0: 5284 c83c 912c 373c 2933 07bd 4081 5c3c
000000f0: b311 5cbc e37c cfbc b8ac c03c 36ae d41f
00000100: 41c6 0e9f ab13 bf22 9669 9ca4 f068 51a6
00000110: c8db 1324 73e4 04a3 e885 07a5 5abc fea2
00000120: c177 173d d85c f2bd 94cb ebbb 721a 05bd
00000130: 4a47 99bb e5e9 963c f8f7 f0bc 2687 bf3c
00000140: af00 3bbd 10c2 5f32 9d66 3034 c215 5eb5
00000150: f211 f833 0d38 44b5 795a 48b6 8f4d 8f32
00000160: add3 8eb4 48e2 84b5 2b5a 1724 72ea 1825
00000170: 2988 b6a5 6a60 8e24 ea20 b924 35bf 95a6
00000180: 9191 181f 86ee 3ca0 d233 e0a5 7a61 4ab7
00000190: 8c83 69b7 14fb 00b8 1ca5 6b38 88c3 df38
000001a0: a77d 2735 fc80 2337 f295 ea38 d645 1a38
000001b0: 149d 2e34 f3c3 cfb5 f5d2 34b4 f33f c3b5
000001c0: c21a d735 c95f db35 0ac6 4c35 7187 6534
000001d0: 2806 b035 2ed0 be39 1d70 3139 8b14 dc39
000001e0: 6d3f d539 af2d 7738 9750 013a 1391 4738
000001f0: 05c3 af38 07fc b239 1ccc 029e 939c 2823
00000200: 4f4d 771f fa3b 6da0 31fd dea1 e592 2c9a
00000210: daec 471f 7590 de98 9e34 5998 d4fa 4d3c
00000220: cf90 333b d4e1 44ba 0526 a73b 336f 23bc
00000230: b04c f03a 3063 12bc 26b4 85bb 15b6 6ebb
00000240: c8da dfbd 2e45 0e3c cc15 c83d 9bbf 06be
00000250: 4eca 2a3c 91cf 103e 350a 51bd 149a f03d
00000260: 1ab7 653e 0ced 5a14 c2e8 ca97 d6b7 0820
00000270: 555b de0c 39ed 599b 63f6 7c9b a67f be8b
00000280: 98a7 0b94 e721 4d95 ae9d 6e08 084c af18
00000290: 6547 858b 566e 3f12 cf74 bf1b 5f0d 4989
000002a0: ba04 780e 8486 9091 ec88 4e0c 4cc4 9427
000002b0: 8514 182a 32ae 24ae 6caa a028 a162 9dab
000002c0: abf3 bcad 3865 5caa ba09 39a9 66ab a0ab
000002d0: 3a16 93bc 645a 2a3d 6868 043e a067 62bd
000002e0: 5f39 03bc d6fb 483d 4073 8b3b f4f2 88bc
000002f0: b54f 313e a856 c6bd a407 acba fb96 b43d
00000300: b51c a1bd 2f92 793b 26a4 233d cce7 123b
00000310: c90f 88bc 3709 923c 6fed 73bc 8fe0 ce3c
00000320: 48fc d13c ff2b 14bc b421 b8bc 5894 80bb
00000330: 3263 4c3c df63 89bc eb8c 413c 9814 e33c
00000340: 57f7 63bd 0950 eebc 743f f03c 9849 91bd
00000350: 0cca c0bd 0c04 9abd 6379 27be e03b 04be
00000360: cff6 02b1 7a80 c131 25c3 e032 7f59 1731
00000370: 6f3a 5ab3 dc51 2833 f25b 8031 fe52 56b3
00000380: 5881 a930 dd8f 1f3c ef11 db3b 0a25 a7bb
00000390: f063 333c feae 173c a10a 24bb 0907 613c
000003a0: fcc8 933c 4894 6c3b e3ef 8cbc 6ed5 53bd
000003b0: 89e9 963b 025d aabc 6a40 25bd 21ab 953c
000003c0: 70a4 e53c f798 8cbc adf4 e43c b0aa af08
000003d0: efd8 3d97 b51b 8e85 ec6d 130d 215c a098
000003e0: 5f7a 560c abaa 0a8f cb67 cd92 39cb 820e
000003f0: 653e ab17 71cc bc9f 3b36 5ba0 9e5f ff1d
-0.04875707 0.0634737 0.078694545 -0.10007563 -0.00018720132 0.04554457 -0.054385595 -0.060485166
0.16559061 8.787773e-09 1.8800634e-08 1.1421576e-08 1.4242651e-08 7.3995935e-08 1.3788306e-08 6.51118e-09
4.984913e-08 1.5889059e-08 -0.0121610295 -0.013029898 0.05130072 0.054667126 0.04304435 -0.0012832073
0.058744278 0.09026913 0.045290913 1.1365796e-24 1.1373271e-20 2.8463127e-19 1.3815258e-23 4.00436e-18
5.9193833e-16 4.0701624e-21 9.655581e-17 1.091155e-19 0.008693262 0.00797963 0.0066498322 0.005141776
0.006747259 0.005798683 0.005352204 0.008877367 0.007839836 -1.762608e-08 -1.7321005e-07 9.979038e-10
-2.679148e-08 -1.3565575e-07 1.516033e-08 -6.1716015e-09 -1.0024961e-08 1.8470163e-11 0.040362198 0.023785368
0.024477158 0.011180059 -0.033007775 0.01345855 -0.013431954 -0.025328105 0.023519859 9.00737e-20
-3.023366e-20 5.179148e-18 -6.7833085e-17 -7.265366e-16 3.2061706e-17 -7.20411e-18 -1.1754753e-16 -6.9046263e-18
0.03697944 -0.11834115 -0.0071958993 -0.032495923 -0.004677688 0.018422076 -0.029415116 0.023379873
-0.04565495 1.3024433e-08 1.6428608e-07 -8.2733106e-07 1.1551664e-07 -7.3097254e-07 -2.9854984e-06 1.668266e-08
-2.6603576e-07 -9.900623e-07 3.281928e-17 1.3263332e-16 -3.1664233e-16 6.1746015e-17 8.028672e-17 -1.0390779e-15
3.2307662e-20 -1.600314e-19 -3.889292e-16 -1.2062834e-05 -1.391851e-05 -3.0751413e-05 5.6182136e-05 0.00010669889
6.2395196e-07 9.745589e-06 0.00011185919 3.67815e-05 1.6262157e-07 -1.547973e-06 -1.6840552e-07 -1.4547244e-06
1.6026536e-06 1.6344649e-06 7.6284107e-07 2.137656e-07 1.3114814e-06 0.0003639473 0.00016921801 0.00041976976
0.00040673782 5.8931935e-05 0.00049329683 4.7580408e-05 8.3809755e-05 0.0003413858 -6.9243515e-21 9.140454e-18
5.2368233e-20 -2.0094525e-19 -1.5110324e-18 -3.5687427e-23 4.2335808e-20 -5.753152e-24 -2.8073158e-24 0.012572009
0.0027399545 -0.00075104577 0.005100968 -0.009975242 0.0018333402 -0.008934781 -0.0040803133 -0.0036424447
-0.10930401 0.008683486 0.097697824 -0.13159029 0.01042421 0.1414168 -0.051035125 0.11748138
0.22433129 1.10529366e-26 -1.31127e-24 1.1580474e-19 3.4259484e-31 -1.802647e-22 -2.0924563e-22 -7.33774e-32
-7.050759e-27 -4.1426165e-26 7.180587e-34 4.531321e-24 -5.133716e-32 6.0404973e-28 3.1673785e-22 -2.4200782e-33
3.0570636e-30 -2.2802096e-28 1.5910866e-31 4.1291077e-15 1.3507431e-13 -3.7444e-11 1.7837477e-14 -1.1182896e-12
-2.1481336e-11 -1.9575043e-13 -4.108669e-14 -1.1416256e-12 -0.017954934 0.04159011 0.12930453 -0.055274606
-0.008009284 0.049068294 0.004255682 -0.016717412 0.17315562 -0.09684497 -0.0013124836 0.0881786
-0.078668036 0.0038081517 0.039951466 0.0022415994 -0.01660909 0.01782666 -0.014888152 0.025253562
0.025632992 -0.009043693 -0.022477008 -0.003923934 0.012474822 -0.016771255 0.011813383 0.02771978
-0.055655804 -0.029090898 0.029327132 -0.07094115 -0.094135374 -0.07520303 -0.16354899 -0.12913465
-1.9057784e-09 5.6316454e-09 2.6165774e-08 2.2024265e-09 -5.0810225e-08 3.919e-08 3.7357433e-09 -4.990124e-08
1.233313e-09 0.0097388895 0.0066854875 -0.005100851 0.01094912 0.00925803 -0.002503075 0.0137345875
0.018040173 0.0036099125 -0.01720423 -0.051717214 0.0046054763 -0.020796303 -0.040344633 0.018270077
0.028032511 -0.017162783 0.027948702 1.0572558e-33 -6.1343e-25 -1.3363794e-35 4.5430186e-31 -4.1452057e-24
1.6522785e-31 -6.836795e-30 -1.2962906e-27 3.224317e-30 1.1066367e-24 -7.995932e-20 -1.8567965e-19 6.7596804e-21
