cmd/ai/datas/models/horse_facing_to_the_right.onnx (onnx, 301496 bytes, 16 tensors)

fc.weight f4 [2, 256]
000000 21 ad fb bd be 62 0b 3c e9 27 05 be 46 f5 78 bc
       -0.12288881 0.008507429 -0.13003506 -0.0151951965
000010 f3 18 cd bd 90 e7 c5 bd 63 6a 8d bd e3 1c 65 bd
       -0.10014524 -0.09663308 -0.06905057 -0.05593575
000020 27 88 15 be cd ac e8 bc 32 78 1d be ca 64 10 3d
       -0.14602719 -0.02840271 -0.15377882 0.03525237
000030 8f 68 a5 38 f3 18 da 3a 50 cc 11 bb 2e c2 45 bb
       7.887289e-05 0.0016639516 -0.0022247024 -0.0030175555
000040 55 e6 40 3d 8a ba 0e 3e 78 4b d0 3c 12 a3 17 3e
       0.04709466 0.13938347 0.025426611 0.148083
000050 ad 88 1e bd 04 bb 24 3e c1 d0 83 ba 4f ac 06 3e
       -0.038704563 0.16086966 -0.001005672 0.13151668
000060 de 81 96 3c 77 0c 01 bc 8b 18 79 3c 47 e1 86 bc
       0.018372472 -0.007876507 0.015203605 -0.016464842
000070 69 06 ea 3b 2b 8f 9e bc 8c 38 50 3b e4 2a 0a bc
       0.0071418774 -0.019355377 0.0031771986 -0.0084330775
000080 9a 04 ed 3d 0e 14 8c 3d b6 5c 12 3e 9a 2c e5 3d
       0.11573143 0.06839763 0.14293179 0.11190148
000090 d3 89 54 bd 20 e3 73 bd d5 94 53 bd 96 a5 42 bd
       -0.051889252 -0.059542775 -0.05165561 -0.047521196
0000a0 09 fb ca 3b 98 c8 62 bc 1d 02 5c 3c fc c7 9e 3b
       0.0061944765 -0.013841771 0.013428238 0.0048456173
0000b0 41 04 ed 39 40 43 86 bb 26 93 87 3b 50 44 1b bc
       0.00045207332 -0.0040973723 0.0041374145 -0.009476736
0000c0 f4 a0 d0 3d 1a 92 49 3d fd db 0f 3e 38 b6 3a 3d
       0.10186949 0.0492116 0.14048763 0.045583934
0000d0 b8 c1 99 3d 75 4d 0e 3e de ca 72 3d 26 2b 0c 3e
       0.07507652 0.13896735 0.0592755 0.13688335
0000e0 99 b0 1d 3d 16 e6 0e 3d 38 b6 07 3d 31 2d 46 3d
       0.038498495 0.034887396 0.03313276 0.04838294
0000f0 44 e9 fa bd 22 da ae 3b b6 f8 0c be f7 0a a7 3c
       -0.12251523 0.005336062 -0.1376675 0.02039097
000100 f5 c9 e1 bc b1 fc 09 bb 41 45 93 bd dd 4e 36 bd
       -0.02756212 -0.0021055157 -0.071909435 -0.044508804
000110 20 95 5a bc 9a 7f b9 bc bf 14 5c 3c be c5 38 3b
       -0.013341218 -0.022643853 0.013432681 0.0028194035
000120 cf dd a4 3a 41 fb d7 3a 99 14 39 ba ed 5b 0c 3a
       0.0012578311 0.0016478078 -0.0007060259 0.0005354274
000130 83 9a 82 bd 2f 9a 91 bd f1 09 51 bd ef b4 93 bc
       -0.06377127 -0.07109486 -0.05103487 -0.018030612
000140 78 05 d9 bb 45 ed b4 3c 81 85 60 bc d9 0e 92 3c
       -0.0066229664 0.022085795 -0.013703705 0.017829346
000150 5a b1 ba ba 21 0b b9 3a a2 b2 cd 3b 64 d4 99 bb
       -0.0014243529 0.0014117697 0.006277398 -0.0046945084
000160 af 35 0d bb d9 b5 04 be 66 e2 fc bb e1 ac c3 bd
       -0.002154689 -0.12959994 -0.0077174185 -0.095544584
000170 0f 2a dc bd a4 9a 1a be cc fd 73 bd f1 66 11 be
       -0.107502095 -0.15098053 -0.05956821 -0.14199425
000180 1b 11 83 3b a3 00 2c ba 52 4c 46 3b ca a4 c2 3a
       0.003999842 -0.0006561374 0.0030257893 0.0014850136
000190 eb 3e ba 3d be b3 76 3d 90 ab 4c 3d 6f 82 c1 3d
       0.09094032 0.06023001 0.049968302 0.09448706
0001a0 18 52 99 bd 7e 25 86 3c 25 58 9e bd e3 10 48 bb
       -0.07486361 0.0163753 -0.07731656 -0.0030527643
0001b0 82 7f 22 39 62 1e 8a 3a 99 43 85 3b c3 de ba bb
       0.00015497024 0.0010537619 0.004066896 -0.005702825
0001c0 45 df c0 39 30 cd 5e 3b 24 78 5f b9 71 29 89 bb
       0.00036787443 0.0033996813 -0.00021311693 -0.0041858484
0001d0 4a 6d ed bd 13 ac 13 be 7c 11 9c bd 77 39 05 be
       -0.11593111 -0.1442111 -0.076205224 -0.13010202
0001e0 20 74 cc 3d 3b 5c 07 bc 7e 90 f6 3d ee 02 4e bc
       0.099830866 -0.008261736 0.120392784 -0.012573941
0001f0 9f 4e 61 bb 8e 66 61 bb d7 46 2f 3b 29 d9 98 3a
       -0.0034379137 -0.0034393403 0.0026745105 0.0011661398
000200 76 6d 41 3c 9a d7 44 bc d3 38 24 3b ff b5 65 bc
       0.011805883 -0.012014294 0.0025058284 -0.014020442
000210 12 91 61 bd 66 67 a2 3d f1 94 6f bb 26 9b c7 3d
       -0.05506999 0.07929878 -0.0036557282 0.09746389
000220 51 a9 0b 3e 34 97 9e bc 1a 38 0e 3e 77 d7 43 bd
       0.13638808 -0.019359209 0.13888589 -0.047812905
000230 db e8 78 3d 19 a8 20 3e 62 3e 11 bc 15 58 1d 3e
       0.060768943 0.15689124 -0.008864971 0.15365632
000240 ff 44 ed bb dd 3e 13 3c 41 47 68 38 02 d0 f2 3b
       -0.007240891 0.008987156 5.537947e-05 0.0074100504
000250 04 25 91 ba bf 29 42 3b c0 2e 50 bb a5 6a 3e 39
       -0.0011073654 0.0029626933 -0.0031766146 0.0001815954
000260 76 b9 cb bb 1e d0 9d 3b 29 cf b7 bb f9 15 f8 3b
       -0.006217177 0.0048160693 -0.005609412 0.0075709787
000270 ee e5 c2 3d 54 ef 05 3d e7 40 f5 3d 79 49 10 3d
       0.09516512 0.032698944 0.1197527 0.03522632
000280 e8 e3 84 3d 0d 55 0c 3e a8 3b be 3d 4a c3 0a 3e
       0.06488782 0.1370432 0.09288722 0.1355106
000290 cd c3 f3 3d 80 58 de 3c 3b 36 02 3e 31 d5 ee bc
       0.119025804 0.02714181 0.12716 -0.029154392
0002a0 48 91 ef bd 61 a1 c5 bd b0 a0 6b bd 84 ef 78 bd
       -0.11697632 -0.09649921 -0.05752629 -0.060775295
0002b0 c4 c5 14 3b 76 6f 0e bb 4b 4b 54 ba 0a 24 da b8
       0.0022700885 -0.0021733916 -0.0008098378 -0.00010401763
0002c0 41 a5 0c 3e e2 6c d7 3c 5a e1 09 3e 26 7c ac 3d
       0.13734914 0.026297037 0.13464871 0.08422117
0002d0 af 12 08 bd bf 6a e2 3d 9b a0 03 bd bb 54 f2 3d
       -0.033220943 0.110555165 -0.032135587 0.11832567
0002e0 63 a4 23 be 1a 9a b5 bc 05 68 25 be 2c 8b 26 bd
       -0.15980677 -0.022168208 -0.16152962 -0.04066007
0002f0 9e bb a4 3c 5b 9a b5 bb 15 82 d2 3c 9b b8 b1 3c
       0.020108994 -0.0055420822 0.025696794 0.021694472
000300 bd 0d b5 bd c0 43 35 3d dc 80 a2 bd 9b a7 c1 3c
       -0.08840511 0.044254065 -0.07934734 0.02363949
000310 7a 41 63 39 86 98 c0 3b 85 7c a3 bb 5f 0f 4a bb
       0.00021672799 0.005877557 -0.004989209 -0.0030831916
000320 ff d1 e3 3d e9 87 9e 3d b7 01 02 3e 0d 3f fe 3d
       0.11124038 0.077407666 0.12695967 0.1241437
000330 05 e6 ac 3a 3b eb 8d 3a eb c6 33 b9 b2 7e 22 3a
       0.001319111 0.001082755 -0.00017144873 0.00061986886
000340 12 fa fd bd cb 14 4c bd ac 37 14 be b9 e5 c0 3b
       -0.12401213 -0.049824517 -0.14474362 0.00588676
000350 8a 75 71 3d 7e 3b d5 3d ce 90 a5 3c 4d bc 12 3e
       0.058949985 0.10411738 0.02021065 0.14329644
000360 c2 8d bf bd a5 ad 0c be 5b f6 05 be f8 7e d0 bd
       -0.0935321 -0.13738115 -0.13082258 -0.10180467
000370 71 1a 52 3a 6b 04 d4 b8 28 c3 c4 3b 27 ad 05 bb
       0.00080148043 -0.00010109771 0.0060047098 -0.0020397396
000380 1a f1 c0 3d 3b c0 f3 bc 24 5f 11 3d ea 2b ba 3c
       0.094209865 -0.029754749 0.035491124 0.022726018
000390 c5 db 27 be 5e e8 1a 3d 26 9c 1d be ea 38 0e bc
       -0.16392429 0.03781926 -0.15391597 -0.008680562
0003a0 ba 4c 61 3c c2 6b e4 bc 43 78 70 3d 24 9e 2b bc
       0.013751203 -0.027883414 0.05870844 -0.010474715
0003b0 e7 88 5e bd f4 fc cd 3c 41 62 53 bd f0 6f f2 3b
       -0.05432978 0.025145032 -0.051607374 0.007398598
0003c0 db c8 0c bd ec c8 d4 3d 2c 67 94 3b e2 4c 0e 3e
       -0.03437124 0.10389885 0.0045289006 0.13896516
0003d0 45 ff 23 3e c8 3c 03 3d 11 1a 23 3e 45 d1 66 3a
       0.16015346 0.032040387 0.15927912 0.00088049873
0003e0 d4 aa 38 3c 7e 7e 93 bd 56 ab 89 3c f5 49 80 bd
       0.011271197 -0.07201861 0.016805332 -0.06264106
0003f0 42 5d 04 bd d3 1e 44 bd 39 34 7a bd af 51 6f bd
       -0.0323155 -0.04788096 -0.06108496 -0.05842751

fc.bias f4 [2]
000000 56 4b 5a 3c dc 07 72 3d
       0.013323626 0.059089527

79 f4 [16, 3, 7, 7]
000000 78 44 c7 bd 29 de c6 bd 25 59 47 3c e1 83 10 3e
       -0.09729856 -0.097103424 0.01216725 0.14112808
000010 ad 9b 2b bc 2a a4 5d 3e 78 bc 99 b9 b8 a2 c3 bd
       -0.010474128 0.21644655 -0.00029322854 -0.095525205
000020 83 18 50 3d ef dd 9e 3e a6 ec 94 3e ee 7a 85 3d
       0.050804626 0.31028697 0.29086798 0.065175876
000030 3c a0 8d bc f3 c5 52 3e 92 47 fc bd d9 1b 77 3e
       -0.01728832 0.20583324 -0.123183385 0.24131717
000040 fb a9 60 3e 76 45 87 bd 49 37 f3 3d 34 a8 91 3d
       0.21939842 -0.066050455 0.11875779 0.0711216
000050 9b 47 60 3e 20 bb 16 3e 17 88 5a 3e 5c 4e 28 3e
       0.21902315 0.1471982 0.21340977 0.16436142
000060 7f 08 9d bc 99 3f 2a be 2e 9f 5e bd 02 a8 76 3e
       -0.01916909 -0.16625823 -0.054351024 0.24087527
000070 d3 51 9f bb 7c 3f 1b bd f0 e7 e6 3d 69 97 7b be
       -0.004862049 -0.03790234 0.11274707 -0.24569477
000080 ce e2 ab bd fa a3 2f 3d 8f df 88 3e 84 ed 10 be
       -0.08392869 0.04288099 0.26733062 -0.14153105
000090 54 da 0d 3d 04 59 00 3e 48 e1 95 be a9 d0 82 be
       0.034632042 0.12533957 -0.29273438 -0.2554982
0000a0 e0 b2 aa bd a9 5a 82 3e 92 25 00 be 20 f1 16 3e
       -0.08334899 0.25459793 -0.12514332 0.1474042
0000b0 35 c2 51 be a7 44 41 be 07 78 cc bd d4 a6 04 3d
       -0.2048424 -0.18873845 -0.09983831 0.032385662
0000c0 63 1d 4c 3e 58 c2 cc bc 05 10 1a be d3 79 96 be
       0.19933085 -0.024995014 -0.15045173 -0.2938982
0000d0 e4 37 0d be 62 83 7b be a0 7d 55 be c0 7a 90 be
       -0.13790852 -0.24561837 -0.20848703 -0.2821865
0000e0 b7 f7 4f be b6 ee 53 bd 0f f5 d5 3d 7e 23 67 be
       -0.2030934 -0.051741324 0.10447132 -0.22572133
0000f0 7a e8 ee ba 9a 80 5f be 25 de 49 3e 18 20 2e be
       -0.0018227242 -0.21826401 0.19713648 -0.1700443
000100 bc 51 9e bd a0 5c 39 be c9 e4 60 bd 13 4d af be
       -0.07730433 -0.1810174 -0.054905687 -0.3423849
000110 a0 00 b3 be 4a 75 b9 3d 82 da 16 be ba 5c 13 be
       -0.34961414 0.09055574 -0.14731792 -0.14390841
000120 28 02 df 3c 1c 9c 1e be 71 cf 97 be 9f 31 02 be
       0.027222708 -0.15489239 -0.29650453 -0.12714241
000130 a9 55 bb bd 0e 58 6a bd ad a2 86 3d fd c0 12 be
       -0.09147198 -0.05721288 0.06573997 -0.14331432
000140 d4 2b 59 3c e9 cd 12 bd 9a 21 1b be 4f 01 65 3e
       0.013255078 -0.035840902 -0.15149537 0.2236378
000150 63 91 58 3d 9e 0c 9e bc f6 a7 55 bd 7d e8 28 be
       0.052873027 -0.019293126 -0.052162133 -0.16494937
000160 ce 11 88 be 30 ae da bc 91 b0 ac 3d 20 d4 b4 bd
       -0.26576084 -0.026694387 0.08432115 -0.08829522
000170 d5 98 83 3d 0f 34 19 bd 4a 7f c0 3b fd 42 2a 3e
       0.06425635 -0.037403163 0.005874549 0.16627117
000180 44 9d ab 3e a9 d7 b6 3e 8f ea 94 be 9b 0c 79 bd
       0.33518422 0.3571141 -0.29085204 -0.060803037
000190 2a d7 a1 bd dd 74 61 3d dd 0b c6 bc 75 0a 2b be
       -0.079023674 0.05504309 -0.024175579 -0.16703208
0001a0 40 cd 49 3d 5f b1 cb bd 80 cb 97 3d 6e c6 a3 3c
       0.049268007 -0.0994594 0.074118614 0.01999208
0001b0 dc d8 01 3e e4 11 9f 3d ef 4c d2 bb 50 7c 3b bd
       0.12680382 0.07767084 -0.0064178626 -0.04577285
0001c0 00 8c 45 be e4 a7 02 3d a3 dc 3d bd f4 7f 4d bd
       -0.19291687 0.031898394 -0.046352994 -0.050170854
0001d0 67 57 7f 3d f2 7a 82 3d 39 ed 0b 3c b6 b7 07 be
       0.062339213 0.06371106 0.008540445 -0.13253674
0001e0 d6 49 96 3d 16 ff a6 3c 4e 35 8f 3d a5 3a 79 bd
       0.07338302 0.020385306 0.06992589 -0.060846943
0001f0 c7 12 e7 bd e6 04 87 3e 79 83 bf bd 9d 20 2a 3e
       -0.11282878 0.26370925 -0.09351248 0.16614003
000200 05 0e ca 3d 4c b4 b2 3c 93 bd 14 bd 1c 4d ae 3d
       0.09865955 0.021814488 -0.036313605 0.08510801
000210 3f 38 98 3e b3 1e b5 3d cd 60 cd bd 0b b9 0b be
       0.29730412 0.08843746 -0.10028229 -0.13644807
000220 d0 92 be 3d 87 58 0b be 5b 53 80 bd 57 80 28 3e
       0.09305346 -0.13607989 -0.06265899 0.16455208
000230 3f b1 23 bd c6 06 24 3e e7 1f a2 3d 41 1b 12 be
       -0.039963957 0.16018209 0.07916241 -0.14268209
000240 a3 c0 b3 3d 36 ba 86 3e 0c 9e 8c 3e bb b8 17 3a
       0.08776977 0.26313943 0.2746433 0.000578772
000250 f9 d2 69 3b 73 6f 08 3b 15 e1 60 bc 70 9c a4 bb
       0.0035678728 0.0020818382 -0.013725539 -0.0050235316
000260 23 4a d3 bb e8 41 f9 3b 0d 55 84 bc 2b 38 87 3b
       -0.006448047 0.0076067336 -0.016153837 0.004126569
000270 eb 9e 19 bc 97 e3 3f bb 6e ea 43 3b b5 16 8d 3c
       -0.009376268 -0.0029279941 0.002989437 0.017222742
000280 56 cd 78 3c df b8 41 3c ac fe e8 3b e3 88 57 3c
       0.015185675 0.011823862 0.0071104374 0.013155195
000290 32 7f a0 3c 89 0b 2f 3c cb e6 7f 3c 71 13 a6 3c
       0.019591901 0.010683903 0.01561899 0.020272942
0002a0 c3 42 e7 3c 00 68 df 3c b5 d8 4c 3c 78 ce bd 3b
       0.028230077 0.02727127 0.012502839 0.0057924353
0002b0 ff 6e 05 bc 91 46 24 3c 0d 6c be 3b 58 dc 30 3a
       -0.008144139 0.01002659 0.0058112205 0.0006746701
0002c0 56 92 db 3c 55 3b 99 3c c2 2d 7b 3c 1b c0 30 ba
       0.026803177 0.01870505 0.015330734 -0.0006742493
0002d0 e0 5c 81 3b df d9 6c bc b6 0d 15 bd f7 86 bf bc
       0.003947839 -0.014456241 -0.03639003 -0.023379786
0002e0 33 52 07 bd 55 ab 1f bd d8 53 32 bd 1b f2 2a bd
       -0.033037376 -0.038981754 -0.04353699 -0.041734796
0002f0 63 b8 5a bd 8b a1 26 bd 7a 61 02 bd 25 b6 c9 bc
       -0.0533985 -0.040681403 -0.031831242 -0.024622986
000300 93 86 37 bd c6 6a 41 bd 3e 01 60 bd 77 04 dd bc
       -0.044806074 -0.047220968 -0.054688685 -0.026979668
000310 89 34 86 bb 0d ba 96 3c b2 65 a5 3b ab 02 67 bc
       -0.004095618 0.018399263 0.0050475234 -0.014099757
000320 93 94 71 3c be 0b d9 3b 3b d0 96 3c 5a 97 00 bc
       0.0147448955 0.006623714 0.018409839 -0.007848585
000330 6d 8c e3 3c 3e 57 98 3c 6a 03 ee 3c e8 33 bd 3c
       0.027776921 0.018596288 0.029054362 0.02309604
000340 ab 1e 24 3d e0 b6 04 3d 20 ba 60 ba d9 47 0f 3d
       0.04006831 0.032400966 -0.00085726567 0.03498063
000350 d5 36 b0 3c d7 fb 10 3d f9 af e8 3c c5 4b 2c 3d
       0.021510521 0.035396423 0.028404223 0.042064447
000360 4a 0c c1 3c 4c c4 f6 bb 45 c7 9b 3c 1e 83 9e 3c
       0.02356543 -0.0075307246 0.019015918 0.01934963
000370 40 21 0e 3d 3c ec 85 3c bb 41 d9 3c d3 4a 6c 3c
       0.03469968 0.016347997 0.0265206 0.014422136
000380 f0 b2 74 ba 61 ff ed 3c cb 58 2f 3c 80 5e 3b 3c
       -0.0009334525 0.029052438 0.010702322 0.011436105
000390 54 77 90 3b 4a ee 7d 3c d2 5a 36 3c e5 d0 0d bd
       0.0044087563 0.015498707 0.011130052 -0.034623045
0003a0 b6 75 9c bb 3f b1 52 ba 1f ff 28 bc ee 5b 0e bd
       -0.0047747744 -0.0008037276 -0.010314732 -0.03475564
0003b0 f2 3b eb bc 8e b2 6f bc 31 9c c4 bc 33 15 f2 bc
       -0.028715108 -0.014629973 -0.02400026 -0.029551124
0003c0 d4 1e 1e bd c5 1f 07 bd e4 58 c5 bc bb f0 e3 bc
       -0.03860362 -0.032989282 -0.024090238 -0.02782475
0003d0 16 50 16 bd c6 82 76 bc 17 1b a9 3c 4c fe 12 bd
       -0.03669747 -0.015045827 0.0206428 -0.035887048
0003e0 9b d0 5c 3c 12 6c 4c 3c aa e4 ea 3c ed f6 88 3c
       0.01347747 0.012476938 0.028673489 0.016719306
0003f0 48 05 63 bc 4a 14 8f 3c 98 d2 3e 3c 20 1b f1 3b
       -0.01385624 0.01746573 0.011646889 0.00735797

80 f4 [16]
000000 15 bd cb 3e 30 3a 75 bc 4d 1f c6 3e ce 46 0f 3e
       0.39792696 -0.014967486 0.38695756 0.13991854
000010 50 18 2f 3e 8a 67 37 3e 35 c2 46 3f 98 08 a4 bd
       0.17099118 0.17910591 0.77640086 -0.08009452
000020 af f6 8f 3e 70 e8 71 bf ff 4b f2 3e 00 91 cf 3e
       0.28117892 -0.94495296 0.47323605 0.40540314
000030 50 fc ba 3a 0f 62 c3 3e 20 a7 dc 3d a3 97 2f bf
       0.0014265869 0.3816075 0.10774064 -0.68590754

82 f4 [32, 16, 3, 3]
000000 f3 d3 c8 3b 13 7f 33 3b e4 dc c7 bc 5d d2 fd bc
       0.006128782 0.0027388975 -0.024397321 -0.030984098
000010 cb a7 ac bc 10 8a 39 bc cb 77 39 bd 54 7e b8 bb
       -0.021076104 -0.011324421 -0.04528026 -0.005630294
000020 58 fc 4f bc c4 eb 99 3c a2 ac 94 3c 14 70 9c 3c
       -0.012694441 0.01878918 0.018148724 0.019096412
000030 c8 25 ce 3b 31 bc 2a bc 33 30 de 3a f5 cf 9b bb
       0.006291125 -0.010420845 0.001695162 -0.004755015
000040 25 5b 2f 3c 00 a1 e8 3b 37 f0 9a 3c b8 36 77 3d
       0.010702883 0.007099271 0.018913371 0.06035492
000050 3a f0 d2 3c 84 ae 08 3d 7d 97 d8 3c ca 8b e1 ba
       0.025749315 0.033369556 0.026439423 -0.0017207798
000060 c2 96 21 bd ed 34 a0 3b f3 2f 4b 3c 53 c6 c8 bc
       -0.039450414 0.0048891217 0.012401569 -0.02450863
000070 9e 74 aa bc 65 c0 d9 bc 81 4a 32 bb 16 f1 9c bb
       -0.02080756 -0.026580999 -0.0027205052 -0.004789482
000080 b8 89 c6 38 47 3c 53 bc f1 5c 3f bc 2f 59 5f bc
       9.467028e-05 -0.012892789 -0.011679874 -0.013632103
000090 d8 9b c0 bc 69 7e 95 bc 9e 4e 8a bc 96 77 da b8
       -0.023511812 -0.018248754 -0.01688319 -0.00010417325
0000a0 b4 b6 93 3c 4d 3c cb bc a4 e0 96 3c 59 b7 80 3c
       0.018031456 -0.024809027 0.018417664 0.015712427
0000b0 52 49 b0 3c 76 a4 96 3d e2 a6 2f 3d d3 76 b8 3c
       0.021519337 0.07355587 0.04288376 0.022517597
0000c0 72 bd 6c 3b 1b 77 c4 bb 56 be 5d 3c 4b 08 81 bd
       0.003612366 -0.005995644 0.013534149 -0.0630041
0000d0 33 63 e2 bc 2e 3a 31 bc 36 89 1c bc c6 d1 ef bc
       -0.027635192 -0.010817094 -0.009554198 -0.029274832
0000e0 a2 9a 04 bd 8b 1e 98 bc da 24 52 3c d2 b7 16 bc
       -0.03237403 -0.018569252 0.012826169 -0.0091991
0000f0 c4 7c 0b bd 1f cc 83 bc fa 5e a2 bc 41 26 cc bb
       -0.034054533 -0.016088543 -0.019820679 -0.006230146
000100 47 59 d2 3c 44 65 93 3c 7b b1 26 bc e1 02 cd 3b
       0.025677336 0.017992623 -0.010174151 0.0062564467
000110 62 d1 26 3c f9 0f 38 bd ee 9c ab bc ca 3e d2 bc
       0.010181757 -0.044937108 -0.020948853 -0.025664706
000120 88 b7 ad bc 55 c1 5b 3c 72 c4 cd bc 55 9a ad bc
       -0.021205679 0.013412793 -0.025118086 -0.021191755
000130 ac 85 08 bd 9e eb 1e bd 2b 7c 8a bc 6b 67 9e bc
       -0.033330604 -0.03879892 -0.016904911 -0.019336423
000140 1d 2a 44 bd 67 6d 8b 3b e6 1a a0 3b 0b 56 ca 3c
       -0.047891725 0.004254985 0.004886019 0.024699232
000150 06 e7 18 bc c8 17 5e bc be 67 9d 3c 4f 01 a5 bc
       -0.009332424 -0.013555475 0.019214507 -0.020142226
000160 21 1a 13 bd 7a a9 ef bc d7 2f 18 3d 75 4d 95 3d
       -0.03591359 -0.029255617 0.037155 0.072901644
000170 2b 06 dc 3d 58 11 5b bc 03 1e bc 3c 5e 41 4f 3d
       0.10743364 -0.013370834 0.02296353 0.05059945
000180 ee 9f 96 bd a9 8f f6 3b 45 4f 3d 3d c3 5f 5c 3c
       -0.07354723 0.00752445 0.046218175 0.013450566
000190 8c c7 7e 3c 36 d3 f0 3c c5 7f 18 3b ca 29 ca bc
       0.015550505 0.029397588 0.0023269516 -0.02467813
0001a0 f7 d7 8c bc bc 0f 14 bc 57 d8 4a bd ee 85 79 bd
       -0.017192824 -0.0090369545 -0.049522724 -0.06091874
0001b0 2b 15 88 3c 99 ae b2 3c 01 25 9f 3c e5 00 23 bc
       0.016611656 0.02181177 0.019426825 -0.009948944
0001c0 f0 70 86 b9 cd cf 0b bd ab 45 3a 3c 46 20 0e 3c
       -0.00025642617 -0.03413372 0.011369149 0.008674687
0001d0 3d 52 04 bd 7a 44 08 3d a0 9d 92 3b a0 66 8b bb
       -0.03230499 0.03326843 0.004474357 -0.004254177
0001e0 3e 83 93 bc bc af 89 bc 46 e1 81 bd 52 ac 00 bd
       -0.018006917 -0.01680743 -0.063417956 -0.031414337
0001f0 81 f0 9b bb 92 65 28 bd 53 a7 a0 3c f9 41 c3 bc
       -0.004758895 -0.04111249 0.019611036 -0.02383517
000200 29 6d 8b 3c 7f cf 83 3b 2c a9 1f bd 12 65 9c bb
       0.017019825 0.004022538 -0.038979694 -0.0047727907
000210 93 1b 02 bd ee d1 42 bd 17 2e 90 bc 7d ca cf bc
       -0.031764578 -0.047563486 -0.017600102 -0.025365109
000220 c9 29 24 3c f2 ab d2 3c 02 9e 0c bc 7d 56 61 bc
       0.010019728 0.025716756 -0.008582594 -0.013753531
000230 99 6f d3 ba 9e 88 f1 bc 34 ed 39 bd 04 39 04 bd
       -0.0016131281 -0.02948409 -0.04539223 -0.032280937
000240 c0 87 07 bc fa 5f 5d 3d e5 47 18 3d c4 91 12 3d
       -0.008272111 0.05404661 0.03717794 0.035783544
000250 da a6 97 3c 26 48 2d 3d 20 d5 14 3d 55 a9 44 3c
       0.018512178 0.042305134 0.036336064 0.0120032625
000260 38 7e 0f bc dc c1 3e 3c e5 7f 56 3b 2e 98 b6 bc
       -0.00875812 0.011642899 0.003273004 -0.022289362
000270 49 5e b6 3b 61 f0 62 3a bc 9f d6 bb 83 b0 b3 3b
       0.005565439 0.0008657035 -0.0065498035 0.0054836883
000280 32 67 79 bc 8e c7 48 bc 64 da 82 3d 04 00 11 bc
       -0.015222358 -0.012254609 0.06389311 -0.008850101
000290 5f 11 9c bd 9c 1f 64 3c cd d7 10 3c 39 f4 03 3d
       -0.07620501 0.013923552 0.008840513 0.03221533
0002a0 a5 68 16 bd 4e 64 b3 bd a1 94 48 3c 04 2d 08 3d
       -0.03672089 -0.08759366 0.012242467 0.033246055
0002b0 a2 f3 8e 3c a0 50 11 bd 02 09 e3 3c 22 a2 e7 bb
       0.017450158 -0.03547728 0.027714256 -0.0070688883
0002c0 c0 bf bd bb 8f 89 1e bc ba c3 21 bd e0 1f 36 bd
       -0.0057906806 -0.009676351 -0.0394933 -0.044463992
0002d0 8e a1 9e bb 60 71 b3 bc f9 ea 16 bc f4 7f 26 bd
       -0.004841036 -0.021904647 -0.009211295 -0.04064937
0002e0 1b 79 f6 bb 69 5e e5 bc ef dc 9b bb 38 fe 20 bc
       -0.007521761 -0.02799912 -0.004756562 -0.0098262355
0002f0 f6 6d 86 bc 68 4d 70 bd 3d ab 9c bc dc f4 74 3c
       -0.016409855 -0.05866757 -0.019124622 0.014950957
000300 9c 66 01 3c 94 1c 98 bc 51 db eb 3b c2 23 2d bd
       0.007897999 -0.018568315 0.0071977754 -0.04227043
000310 1c 7b bd 3d e7 cc f4 bc 3c fa 21 3d 2b 28 05 3d
       0.09251997 -0.029882861 0.039545283 0.03250901
000320 17 62 27 bd 3d 70 8a 3d 69 73 0d 3d 31 bb da bc
       -0.04086503 0.06759689 0.03453389 -0.026700588
000330 9b 52 0a 3d 4e e4 80 bc 69 38 a7 bc c4 91 0c 3d
       0.033770185 -0.015733864 -0.02041264 0.0343187
000340 d9 ce ac bc ff d4 85 bd 64 ce e6 3c df 2b 92 bb
       -0.021094726 -0.065347664 0.028174587 -0.0044607962
000350 ae 3e 5d bd c7 4d 78 ba 8c fd 84 bd f0 d9 73 bd
       -0.054014854 -0.0009472039 -0.06493673 -0.059534013
000360 0b 06 c3 3c 3e 67 65 3b 29 a9 aa bb c3 39 62 3d
       0.023806592 0.0035004164 -0.0052081537 0.055230867
000370 31 4c 91 3c 51 6a 1f bc 12 3d 37 3d f7 0d f2 bc
       0.017736526 -0.009729938 0.044735976 -0.029547675
000380 25 b6 b7 bc 80 d5 15 bc a3 dc bf bc 2d d2 cb 3c
       -0.02242572 -0.009145141 -0.023420637 0.024880493
000390 52 b7 71 3c 3f b7 07 3b 19 1d 3e 3b 4a c2 c4 bb
       0.01475318 0.0020708588 0.0029009043 -0.0060046064
0003a0 35 58 aa bc f2 fb c6 3c 09 fc 58 bb 76 dc 84 bc
       -0.020794014 0.024290059 -0.003310921 -0.016218405
0003b0 74 aa 76 bc 2a 1b e9 bc 5e 07 a9 bd 0f 2f a7 bd
       -0.015055288 -0.028455336 -0.08253358 -0.081632726
0003c0 a7 a3 8d bd 12 29 c1 bd 0b 4d 4e bd d3 44 8e 3b
       -0.0691598 -0.09431662 -0.050366443 0.0043417006
0003d0 f4 aa 76 bc d8 89 a7 bc 21 58 e7 3c 11 5b 40 3d
       -0.015055407 -0.020451471 0.028240265 0.046961848
0003e0 44 dc 35 3d bc a9 b9 3d 9c 8d 4a 3d 91 85 87 3c
       0.044399515 0.090655774 0.049451455 0.016543182
0003f0 3b f7 0d 3c 9c 4d 84 bc df ef 7d bc b6 11 21 3d
       0.008664901 -0.016150288 -0.015499084 0.03932353

83 f4 [32]
000000 39 1a f8 3d 4e 4f 54 3d e1 fe b5 3e 02 ae d5 3e
       0.121143766 0.051833443 0.3554602 0.4173432
000010 bf ef 28 be 58 9a 77 3e ab 86 02 3e a2 a8 50 3e
       -0.16497706 0.24179971 0.12746684 0.20376828
000020 a0 d7 fc bb f0 ab 09 3e 12 7f b4 3e bc 5b 36 bd
       -0.007716134 0.13444495 0.35253197 -0.04452108
000030 42 25 1d 3e b0 38 17 3c ca 34 06 3d 5c f0 2b 3b
       0.15346244 0.009229824 0.032765187 0.0026235795
000040 1b 02 5c 3e d5 14 01 3e ff 3e d1 bc 1a 21 48 3e
       0.21485178 0.12605603 -0.025542734 0.19543877
000050 ec b9 a9 3c 52 d2 93 3d 3c 86 bf 3e da 87 cf 3d
       0.020718537 0.0721785 0.374071 0.101333335
000060 39 2a 10 bf a0 63 f0 3c 0c 27 6a bc 2d fe 14 3d
       -0.56314427 0.02934438 -0.014291536 0.036375213
000070 8e fa 66 bd b0 ea 13 3d aa fc 64 3e 74 0a 77 bd
       -0.05639129 0.036112487 0.22362009 -0.060312703

85 f4 [32, 32, 3, 3]
000000 5a 79 99 3c 0f a1 a4 3d ee 36 53 3e 6f d4 86 ba
       0.018734623 0.08038532 0.20626423 -0.0010286699
000010 f0 cc 84 3d d8 5c 56 3e cf c1 29 bc e7 98 6e bd
       0.06484401 0.20933855 -0.010361149 -0.058251288
000020 7e 87 4a 3e 5b 21 2d 3d aa 89 67 bd 3d 2d 9e bd
       0.19778249 0.04226814 -0.05652777 -0.07723472
000030 e3 47 80 bd bf 5e 2a be 62 b7 e9 bd 3e bc 89 3c
       -0.06263711 -0.16637705 -0.114119306 0.016813394
000040 b4 1c b3 bd 27 75 ae bd 2b 5e 80 3c 0e c1 92 3c
       -0.08745709 -0.08518439 0.015669903 0.017914321
000050 cc c4 3e bd 5b 68 15 be b4 d9 a1 3c 6c 07 a4 3d
       -0.0465744 -0.1459059 0.01975713 0.08009228
000060 f0 51 42 be 39 3b 46 bd 65 f6 a8 bb b7 b2 a7 bd
       -0.18976569 -0.048396323 -0.0051563256 -0.08188384
000070 6e 60 b8 bc 31 41 f3 3d 5d 2a f4 bd b3 87 82 bd
       -0.022506919 0.11877669 -0.11922143 -0.06373539
000080 0b 87 fe 3d 4d c5 fc bd f0 be ca bd 89 f7 15 3e
       0.12428101 -0.1234232 -0.098997 0.14645208
000090 49 39 f3 3b c9 64 32 3d 95 da 08 3e 81 38 ed bd
       0.0074226004 0.043553147 0.13364632 -0.11583043
0000a0 a9 9e 37 bd 0e 87 1b bc 03 93 c7 bd d7 c8 00 be
       -0.044829044 -0.009492649 -0.09744837 -0.12576614
0000b0 08 46 06 be 07 f9 19 3e 41 97 d2 3d 27 e0 8f bd
       -0.13112652 0.15036403 0.10282756 -0.070251755
0000c0 8a 94 dc 3d 0d 2f 96 3c 45 9f 0c be 6a b2 4b bd
       0.10770519 0.018332982 -0.13732632 -0.049730696
0000d0 e1 a3 90 3a 34 94 c0 bd 45 9a e7 bb 08 7f 76 3d
       0.0011035168 -0.094032675 -0.007067951 0.06017974
0000e0 67 08 9e 3d 86 40 67 bd 70 b0 67 bb b5 51 88 3c
       0.07716446 -0.05645802 -0.0035352968 0.016640523
0000f0 8d 79 43 bc 34 39 b9 3d 93 19 34 3d 94 f5 7a bd
       -0.011930835 0.09044114 0.043969702 -0.061269358
000100 d8 22 d2 3d be 2f ee 3d b3 1e fd bd b4 45 b7 bc
       0.10260552 0.116302 -0.12359371 -0.022372104
000110 05 44 8f bd 7b 88 02 bd f4 b6 e7 3d ec 1f 01 3e
       -0.069953956 -0.03186844 0.113141924 0.12609833
000120 0d 8f 5e 3c 46 66 7f 3d d2 c1 c4 3d 64 3e f1 ba
       0.013583911 0.062353395 0.09607281 -0.0018405435
000130 30 91 7e bd 76 bc 38 bd ae d1 5c bc a5 65 e3 bd
       -0.06215018 -0.045101605 -0.013477726 -0.111033715
000140 37 71 3a be 3c 2a 6f 3c 05 fd 9f bd d8 e4 39 be
       -0.1820725 0.014597472 -0.078119315 -0.18153703
000150 c6 d8 ba 3c 9a 72 78 bd 97 2a 51 be e8 fb 26 bd
       0.022808444 -0.060656168 -0.20426403 -0.04076758
000160 a5 a7 d0 bd f4 ff 5a be 13 fc 19 bc 18 37 13 3d
       -0.10188226 -0.21386701 -0.009398478 0.035941213
000170 3a 94 19 3d 8d 26 83 be 05 72 11 3c f8 bd a0 3d
       0.037494875 -0.2561535 0.008877282 0.07848734
000180 87 e0 55 be 11 93 9d 3d 17 24 ad 3e 6c 46 a0 3c
       -0.20886432 0.07694066 0.33816597 0.01956483
000190 60 d5 d5 3c f8 24 db 3d a7 7a b4 3c 21 02 e0 3d
       0.026102722 0.107004106 0.022031141 0.10937906
0001a0 a9 98 39 3e 1a b4 9f bb ac 6e b2 3d 3a 2c 3c 3e
       0.18124641 -0.0048737647 0.08712515 0.18376246
0001b0 40 77 98 3d 0e 1b 34 bd a5 60 e9 3d af 04 6e bc
       0.0744462 -0.043971114 0.113953866 -0.014527484
0001c0 8b 9e 4b bd 0a 82 4d 3d 79 6d ef 3d fd 90 09 bd
       -0.049711745 0.050172843 0.11690802 -0.033585537
0001d0 d4 52 32 3d 68 09 8d 3e 70 27 59 3d 75 94 2f bd
       0.043536022 0.2754624 0.053016126 -0.04286619
0001e0 a2 c8 ef 3d 5f 32 3f 3d d1 fc 65 bd 45 0c c5 3d
       0.117081895 0.046678897 -0.056149308 0.09621481
0001f0 37 94 7d 3d 0d 32 34 bd ba c1 b1 bc c4 31 84 3d
       0.061908927 -0.043993045 -0.021698821 0.064548045
000200 a3 6f c9 3d 24 4c 7d bd 59 23 29 3d e1 70 e4 3d
       0.09835746 -0.06184019 0.041293476 0.111543424
000210 89 21 bc bd aa ba bf 3c 1f 2a 50 3d 7d b5 a9 3c
       -0.09186084 0.023404438 0.05082142 0.020716423
000220 64 d7 90 3c ee ae c5 3c ec 1d 29 3d 9f fd a0 3d
       0.017680831 0.024131265 0.0412883 0.078608744
000230 7a 7d 23 be ab eb 4c 3d 42 91 6d bd c9 2d 96 be
       -0.15965834 0.050029438 -0.057999857 -0.29331806
000240 f0 a2 37 3e ea 40 e3 3d 9d 18 d9 bd 46 d7 c2 3d
       0.1793325 0.11096366 -0.10600398 0.095137164
000250 00 c6 1d b9 2c 21 70 be b5 63 ee 3c e3 9e ad bd
       -0.00015046448 -0.23450154 0.029100278 -0.08477571
000260 1c 86 1f be 1d 7b f9 bb c0 2c db bd 38 18 ce bd
       -0.15578502 -0.007613553 -0.10701895 -0.10063213
000270 ee f7 95 3c df 64 d7 bd 21 b6 a4 bd 23 e7 eb 3d
       0.018306699 -0.105172865 -0.08042551 0.11518695
000280 70 60 5a be 06 83 29 be 40 d2 c1 bb 28 1d 7f 3d
       -0.2132585 -0.16553888 -0.0059149563 0.062283665
000290 37 d5 dc 3d 45 5a d0 bd c3 3f bf 3d 32 d6 c9 3d
       0.10782855 -0.101734675 0.093383335 0.09855308
0002a0 89 07 16 be f0 45 21 3d 74 ff f1 3d 7b c1 7c 3d
       -0.14651312 0.03937334 0.11816302 0.061707955
0002b0 0a 50 cf bd 68 58 fc bc 1a 53 18 bd 02 f7 b2 bd
       -0.10122688 -0.030803874 -0.037188627 -0.08738519
0002c0 2c 4f 9d bc 96 a8 c1 bd 90 d3 c6 bd 58 35 f9 3d
       -0.019202791 -0.09455983 -0.09708321 0.12168378
0002d0 a2 74 ed 3a 62 e2 02 3a cd b4 88 bd e7 bf 75 3d
       0.0018116424 0.000499284 -0.0667511 0.059997465
0002e0 3f 09 38 bd 5d ab a1 bd 24 d7 4a 3d 3b 54 45 3d
       -0.044930693 -0.07894013 0.04952158 0.04817603
0002f0 54 7b 3a bd dc 6b 32 3d 9d fe 14 3e 33 d1 25 bd
       -0.04552777 0.043559894 0.14550252 -0.04048271
000300 72 68 ed bd 3b 39 2c bd 8d 53 3c bd f4 e0 e3 3b
       -0.11592187 -0.042046767 -0.045978118 0.0069543067
000310 a4 3a 8f bb 28 ab cf bc 79 ee 58 3e df 0c 03 3e
       -0.004371004 -0.025350168 0.2118472 0.12797879
000320 5e 55 b4 3d 49 d0 10 3e 3c b5 9e ba 26 21 76 3c
       0.08805345 0.14141954 -0.0012108455 0.015022552
000330 a7 b5 c5 3d 21 ce 6a 3d f1 be 1f 3e cc b5 1a be
       0.09653788 0.057325486 0.15600182 -0.15108413
000340 40 97 30 3b c1 5b 7e b9 c1 13 0c be 62 93 f3 39
       0.002694562 -0.00024257509 -0.1367941 0.0004645838
000350 23 98 ab bd bc d5 25 be 95 fc c2 bd 4b 16 c3 bd
       -0.08378627 -0.16194814 -0.095208324 -0.095257364
000360 43 c6 02 be b4 79 c2 bc 9f 98 0c 3d 59 9f 2b be
       -0.12770943 -0.023739673 0.03432524 -0.16760005
000370 3e aa 1a bd c0 b1 05 3d 27 e2 0e be 60 79 44 bd
       -0.03776001 0.03264022 -0.13953458 -0.047967315
000380 38 9a af 3d 54 bf 60 be b7 61 3b 3d 93 73 20 3e
       0.08574337 -0.21947986 0.045747485 0.15669088
000390 3f d3 0d be 2c f3 dd bc 89 c7 34 bd 99 ce e3 bc
       -0.13850115 -0.027093492 -0.044135604 -0.027808474
0003a0 18 24 97 3b fe e3 9f bd 63 f8 a5 bd 57 25 ec bd
       0.004612457 -0.07807158 -0.08104017 -0.115305595
0003b0 05 af 70 bd be 26 a5 3c 00 01 90 3b 94 8b 8b 3d
       -0.05876066 0.020160075 0.0043946505 0.06813732
0003c0 bb cc 52 bd 84 1f 65 3c bc d6 6c 3d 92 06 1b 3e
       -0.051464777 0.013984565 0.057821974 0.15139225
0003d0 b9 ba c1 3d 44 9e 46 3d 1f 57 7e 3d 04 50 3e 3d
       0.09459443 0.048490778 0.062094804 0.046463028
0003e0 f5 0f e6 3c 8f ec 07 bc 6f 4e 0e bd 91 98 f7 ba
       0.02808378 -0.008296146 -0.03474277 -0.0018890073
0003f0 af 4a 5e bb 71 7c df 3c 1a 37 65 3d 1b 0e 5e bc
       -0.0033919027 0.027281018 0.055960752 -0.013553168

86 f4 [32]
000000 6a d8 89 3e 03 17 8d 3d 62 dc d3 bc 67 6c 59 be
       0.26922923 0.06889155 -0.025861923 -0.21232758
000010 80 b7 ee 3a 53 c8 2c be f4 e0 8e 3e 73 ed f2 3d
       0.0018212646 -0.16873293 0.27906 0.11861696
000020 da 97 b5 3e 52 99 50 bc 54 e5 44 3d 28 a5 37 3d
       0.35467416 -0.012731867 0.048070267 0.04483524
000030 68 7d 43 3e 82 c8 ab bd 80 91 0d be 39 06 4c be
       0.19090807 -0.08387853 -0.13825035 -0.19924249
000040 3f 1a 3e be 84 c6 07 3e db 88 7a bd e2 0a 18 bd
       -0.185647 0.13259321 -0.06116567 -0.037119754
000050 ba 32 08 3f b8 a2 b5 3d 56 84 cd 3d d2 64 96 bc
       0.532024 0.08868927 0.10035007 -0.018358622
000060 89 66 5d bd c7 85 c4 3e 93 bf c4 3e 54 d8 9c be
       -0.054052863 0.38383314 0.3842741 -0.30633795
000070 35 37 19 be c2 bc a2 3e e8 36 1c 3e 64 f4 f5 3b
       -0.14962466 0.31784636 0.1525532 0.0075059403

88 f4 [32, 16, 1, 1]
000000 3c 8e 08 3e f0 d5 ba 3d 87 c5 62 be 90 95 09 bd
       0.13335508 0.091228366 -0.22145663 -0.0335899
000010 f0 e8 df 3d c9 d6 02 3d 5c 87 13 3e 5d 8a 74 3d
       0.10933101 0.031943116 0.14407104 0.059702266
000020 e7 80 f1 3d f9 16 30 be 02 f9 d8 bc ae f6 b2 bd
       0.11792164 -0.17196263 -0.026485924 -0.08738457
000030 e5 e8 60 bd 13 8b 1d 3d 12 0f 35 be 0b 99 f7 3c
       -0.054909606 0.03846271 -0.1768153 0.030224344
000040 9a 90 b6 bd 33 59 5f 3d 1c 7a 0b be 82 57 47 3d
       -0.08914299 0.054528426 -0.136208 0.04866744
000050 13 fa 25 be f2 1b 91 3d 79 50 e6 3d ed 17 ed 3d
       -0.16208677 0.07085408 0.11245818 0.11576829
000060 0f b4 04 3e 28 a6 ce 3d 5c ac ec bd 63 eb aa 3c
       0.12959312 0.100902855 -0.115563124 0.020864194
000070 eb 8d b6 bd e6 4a 28 3d 3d 7c d6 bd 3a 71 70 bd
       -0.089137875 0.041087054 -0.10472915 -0.05870173
000080 68 d8 d6 bd 12 8d 9b 3c b1 cb eb bc cd 41 92 3d
       -0.10490495 0.018988166 -0.028783651 0.07141457
000090 54 28 79 bd 29 5c 1b 3c f5 1c e9 3d c3 e4 20 ba
       -0.060829476 0.009482422 0.11382476 -0.0006137604
0000a0 6b 44 bb bd d9 00 c8 bd 4c ae 35 bd f9 0d b4 bc
       -0.09143909 -0.09765787 -0.044355676 -0.021979319
0000b0 18 0e a6 bd df d7 dc bb 47 28 54 bc ea e0 5c bd
       -0.08108157 -0.006739601 -0.012949056 -0.053925432
0000c0 f6 50 e9 bb 8c 0e 94 3c 48 88 97 bd 57 88 92 3c
       -0.007120247 0.018073343 -0.073990405 0.017887278
0000d0 af 98 de 3c fd 5d 83 bd d3 50 95 bc 31 33 57 3d
       0.027172415 -0.06414411 -0.018227017 0.052539054
0000e0 b6 5d 42 bd 52 9b 20 bd f1 e7 a3 3d 01 77 8f bc
       -0.04745265 -0.039210625 0.08003224 -0.0175128
0000f0 e2 93 84 3b a0 4c 52 bd ad cb cb bc 91 fa db 3b
       0.0040459493 -0.051342607 -0.024877394 0.0067132195
000100 5e ff 05 be 0d 53 50 3a 43 cf 16 bd 45 a5 cb 3d
       -0.13085696 0.0007946946 -0.036818754 0.09943632
000110 b4 35 5e 3e 3c 82 17 be c9 9e 67 be b8 57 c7 3d
       0.21700174 -0.14795774 -0.22619165 0.09733528
000120 b5 d5 87 3e 8e 94 31 be c9 4b 1c be b5 07 82 3e
       0.26530233 -0.17341825 -0.15263285 0.25396505
000130 40 df 50 3d 0d 03 9c be fd 8e b7 bd bf 65 66 3e
       0.050994158 -0.30471078 -0.0896282 0.2249975
000140 80 90 f0 3d a6 c3 84 bd 4d 5f 32 bd 95 bc 8c bc
       0.11746311 -0.064826295 -0.043547917 -0.017179767
000150 93 65 7f bd 6b 21 06 bc fd 5d 04 3d 96 1f 75 bc
       -0.062352728 -0.008186678 0.032316197 -0.014961144
000160 8a 39 86 3c f3 61 b9 3d a8 b1 21 be 41 61 db 3d
       0.016384859 0.090518855 -0.15790427 0.10711909
000170 dd a8 a4 3b d7 d1 56 3d 2e 87 7f 3d 21 25 ac 3c
       0.005025013 0.052446213 0.062384777 0.021013798
000180 d8 68 53 3e bd 02 50 3c 70 04 2e 3e 49 c6 83 3d
       0.20645463 0.012695965 0.1699388 0.06434304
000190 4a e2 10 bd 58 99 37 3e 94 14 db 3d 5f 4b 23 be
       -0.035372056 0.1792959 0.10697284 -0.1594672
0001a0 54 2f e0 3d 66 de 44 3e 3a 6e 16 37 2c d0 f0 3d
       0.10946527 0.19225463 8.966361e-06 0.11758456
0001b0 2c 5a 52 3d 77 7a fd 3d ab a0 25 3e ca 5e d5 bd
       0.051355526 0.12376874 0.16174571 -0.1041847
0001c0 3c 87 2a 3e 6b 3d 43 bd 41 1e b0 bd 0c 33 a2 bd
       0.1665315 -0.047665995 -0.085995205 -0.07919893
0001d0 c1 37 0f 3c bf b8 f4 3d 00 a6 cf bd 7b 94 45 be
       0.00874132 0.119493 -0.10139084 -0.19294922
0001e0 6b 5b 04 bc db 5f c1 bd 4d 18 55 be 82 b8 15 bc
       -0.008078436 -0.09442111 -0.20810051 -0.009138228
0001f0 c6 bf d9 3b 07 0c cd bd b9 f7 b1 3c fa cf cb 3b
       0.0066451756 -0.1001206 0.021724569 0.006219861
000200 ff 94 a1 bd bd 2b a5 bd 11 e5 74 3d 8b 12 36 3e
       -0.07889747 -0.08064983 0.059788767 0.17780511
000210 a9 69 98 bd 63 bd 1a be 0e 17 8c 3d aa ab e9 3d
       -0.07442028 -0.15111308 0.06840335 0.114096954
000220 6b 48 3b be af 80 86 be 2b 1e f6 3d bb 8d b6 3d
       -0.18289344 -0.26270053 0.12017473 0.08913752
000230 85 ff 45 3e 08 19 ac 3e f5 a4 82 be 9b 1d 08 be
       0.19335754 0.33612847 -0.25516477 -0.13292544
000240 25 61 a2 3d b1 5e 3f 3b 10 7e d6 3c d5 ec 1f 3d
       0.07928685 0.0029200728 0.026183158 0.03904422
000250 2c 84 e0 bc a5 58 cd 3c c0 95 69 3c d9 e5 3d 3c
       -0.027406774 0.025066683 0.014256895 0.0115904445
000260 8f 4a 1b bc 2d ec 7d 3d 71 0d 80 bd ac 14 86 3c
       -0.009478225 0.061992813 -0.06252564 0.016367279
000270 c8 f4 39 bc 15 30 1f 3b 19 fe 85 bd ea f7 95 bc
       -0.011349864 0.0024290134 -0.06542606 -0.018306691
000280 d1 75 0b 3e 12 4b 2c bd 21 57 88 3e 18 14 26 bd
       0.13619162 -0.04206378 0.26628974 -0.040546507
000290 3b 99 ce bd d6 36 f8 3d d1 80 9a bc 44 86 fb 3d
       -0.1008782 0.12119834 -0.018860253 0.122814685
0002a0 ec 77 de 3d 78 a2 11 3d 31 97 0c bd 4b 2d a7 bd
       0.10862717 0.035555333 -0.034323875 -0.08162936
0002b0 c2 a8 5b 3b 5f 28 00 3e 1d 88 2a be 36 2c 2f be
       0.0033517336 0.125154 -0.16653486 -0.17106709
0002c0 9e 71 df bd 9c c5 01 3c de 74 1a be ec 66 bc bb
       -0.10910343 0.007920649 -0.15083644 -0.005749574
0002d0 cb 92 fc 3c 63 7c 2e bd bb 18 c8 3d 5c 53 ac bc
       0.030831715 -0.042599093 0.09770342 -0.021035843
0002e0 8a 76 63 3d c5 3f b8 bd c7 4c db 3d de bc 22 3d
       0.05553297 -0.08996538 0.107080035 0.0397309
0002f0 1e ea 33 3d f5 7d 37 3e 86 88 24 bc 87 e3 33 bc
       0.043924443 0.17919143 -0.010042315 -0.01097954
000300 38 03 4a bd d2 fb a3 bc 2e 5c ef 3d ae 6c 72 3c
       -0.049319476 -0.020017538 0.11687504 0.014796419
000310 93 73 e8 bb 8b d8 76 bd 8e ae 85 ba 46 72 25 bd
       -0.0070938556 -0.060265105 -0.0010199116 -0.040392183
000320 64 2c 38 3c 8f b5 37 3d a7 03 e4 bc d3 63 1b 3c
       0.011241052 0.044850882 -0.027833773 0.009484249
000330 d8 2a 26 bc 25 0a 04 3d 90 7a cc bc d1 04 e4 3c
       -0.010142051 0.032236237 -0.024960786 0.027834328
000340 de 59 87 3d 85 1d 1a 3b d7 95 e1 3c c6 7f 93 3d
       0.06608938 0.002351613 0.02753727 0.07202105
000350 54 7b 4f bd f4 c0 d2 bd 27 5c c2 bc 75 e1 28 3d
       -0.050654724 -0.10290709 -0.023725582 0.041230638
000360 49 d7 14 bd 96 6a 93 3c 17 ee ed bd bf 19 c7 3d
       -0.036338124 0.01799516 -0.11617678 0.097217076
000370 db 03 69 3d bc 7a 71 bb 01 6e c9 3d 5e 6f 97 bc
       0.056888442 -0.0036846837 0.09835435 -0.018485721
000380 d1 c2 63 3d e3 2f 36 bd 16 da 03 be 56 5a 9c bd
       0.055605713 -0.044479262 -0.12876162 -0.07634418
000390 33 ee b3 bd 82 74 0d be f0 cd 13 3d 7b 42 5b bd
       -0.08785667 -0.13813975 0.03608507 -0.053530198
0003a0 3c e0 c4 3d 85 3b 6c 3d 46 cd bf bd 44 e7 0a 3e
       0.09613082 0.05767395 -0.09365325 0.13564783
0003b0 d3 3a ae bc cd 19 da 3a 89 75 fb 3d 2a 28 bc 3d
       -0.021268284 0.0016639769 0.122782774 0.09187348
0003c0 43 f8 97 3d 7b 3e 81 3b dd f3 ec 3d be 6a 4e 3d
       0.07420399 0.003944216 0.11569951 0.050394766
0003d0 8b 0b 96 bc 71 7f 4e bd 23 d7 8b 3c 66 79 7f 3d
       -0.018316051 -0.050414506 0.017070359 0.062371634
0003e0 85 b8 e6 bd 9c 2e a2 3c f6 71 6b bd 6d 24 65 bd
       -0.11265663 0.019797616 -0.05748173 -0.05594294
0003f0 6e 2e b6 3c 8b 4a b0 bd 66 41 82 3d 62 ec fe ba
       0.022238936 -0.08607968 0.0636013 -0.001944911

89 f4 [32]
000000 bd 18 90 3d b5 ff d9 3d 1e 5a 2f 3e f9 8a 1c 3d
       0.070359685 0.10644475 0.1712422 0.038218472
000010 d8 cf 07 3e b3 40 0f bd ed d3 21 bf a6 d1 78 3e
       0.1326288 -0.03497381 -0.63214 0.24298725
000020 27 5e b0 bc 4a 10 34 bd 16 ee 9b be ca 97 36 bd
       -0.02152927 -0.043960847 -0.30455083 -0.04457835
000030 ca 18 6a bd 07 b6 75 bd c6 06 31 3d aa 59 f2 bc
       -0.057152547 -0.059988048 0.04321935 -0.02958377
000040 a4 e2 ae 3e 2f f3 af be 34 48 ec bd 00 b3 24 3c
       0.34157288 -0.34365222 -0.11537209 0.010052443
000050 34 a4 d6 bd 08 b6 67 bd 30 01 f7 bb 75 c5 82 be
       -0.10480538 -0.056570083 -0.0075379834 -0.25541273
000060 29 de d3 3d cd c1 19 3e 12 ab 94 3d 7d 4f 13 3e
       0.10345108 0.15015335 0.072591916 0.14385791
000070 08 cd 36 3d 76 aa 10 be 73 73 31 3e 28 73 8e 3e
       0.044629127 -0.14127526 0.17329197 0.27822232

91 f4 [64, 32, 3, 3]
000000 df 3d 34 3c 81 b5 40 3c 87 1e 31 3c 44 07 bb 3b
       0.011001079 0.011762024 0.010810501 0.0057076532
000010 53 eb c8 3b 4a 0d c3 3b be eb a7 ba 62 45 fb 3a
       0.0061315685 0.005952512 -0.0012811346 0.0019170458
000020 cd bb b5 3b a5 3b c7 b8 91 16 96 38 6a cd 6b 3a
       0.0055460692 -9.500169e-05 7.156761e-05 0.00089951477
000030 75 1d 80 3b af 87 93 3b 69 e5 78 3b 1d 8a 81 bb
       0.0039097616 0.0045022587 0.0037978536 -0.003953232
000040 79 46 4d bb d9 a6 a7 bb 54 db 09 ba 50 fd af bb
       -0.0031322523 -0.0051163253 -0.00052588177 -0.0053707734
000050 64 73 c6 bb 17 3d ad 3b ac 1c 17 3b 9a 4c ec 3b
       -0.006056236 0.0052868235 0.0023057861 0.00721128
000060 de 31 e1 ba 9f 02 d1 ba c3 3d 2a bb 90 d5 7f 3a
       -0.0017180999 -0.0015946216 -0.0025976754 0.00097593013
000070 ce 97 bf ba 0c 34 49 bb 6a dd 95 ba 20 6c df ba
       -0.0014617385 -0.0030701188 -0.0011433784 -0.0017045774
000080 e9 3b 0c bb 82 da 86 b9 0f 79 b3 ba df 2d f1 ba
       -0.0021398014 -0.00025721273 -0.0013692694 -0.0018400511
000090 6f f2 12 bb 03 96 72 bb 05 2f 0d bb 4c 33 91 bb
       -0.0022422334 -0.0037015683 -0.0021542918 -0.004431164
0000a0 73 01 d9 bb 2c 6e f3 bb cf 1f ad 3b e5 0e 2a 3a
       -0.006622487 -0.007428905 0.005283333 0.0006487205
0000b0 85 5b da ba e4 d8 29 bc ba 0a ff bb 34 23 1c bc
       -0.0016659355 -0.010366652 -0.007783261 -0.009529877
0000c0 67 9a 26 bc 11 ca b1 bb 3a 0d 19 bc 84 55 c4 bb
       -0.010168648 -0.0054256995 -0.009341532 -0.0059916396
0000d0 97 30 ca ba 2e cc 02 bc 6a 5c a6 bb f6 74 74 bb
       -0.0015425858 -0.007983251 -0.0050769346 -0.003730116
0000e0 ae 1f 96 bb 06 91 58 ba e4 cf b9 bb 8d d1 9d bb
       -0.004581413 -0.0008261356 -0.0056705344 -0.00481624
0000f0 5e 86 14 bb 06 91 dd bb 18 32 b9 bb 24 ca f3 b7
       -0.0022663097 -0.006761673 -0.0056517236 -2.9061986e-05
000100 b5 04 4e 39 84 22 97 3b 1d 1b 8a bb 94 70 a0 bb
       0.00019647444 0.004612269 -0.004214658 -0.004896233
000110 7f 8b 42 bb 7f cc cd ba ac f8 31 3b 23 bf c1 b9
       -0.0029685197 -0.0015701203 0.0027156277 -0.00036954237
000120 46 28 94 bb 1b 0d 88 bb e6 2a 8b bb b0 b9 01 3b
       -0.0045214025 -0.004151953 -0.0042470573 0.0019794516
000130 6e 8e d4 3b 63 45 0c bb 8e e8 8c 3b db a2 24 3c
       0.0064867055 -0.0021403662 0.0043001836 0.010048593
000140 07 07 8a 3a ed b2 5f 3a 6a 41 42 3a 82 40 21 39
       0.0010530659 0.0008533437 0.000741026 0.00015378188
000150 e6 4a 7c 3b f9 ce 20 3b 59 2d e2 3a b2 18 94 ba
       0.0038496791 0.0024537428 0.0017255946 -0.0011298864
000160 6c 62 d5 ba a4 83 03 bb 12 58 06 bb 1f 06 b8 ba
       -0.0016279942 -0.0020067478 -0.0020499271 -0.001403991
000170 40 63 66 39 8c 6e a3 3b 13 18 b8 ba 49 77 21 b9
       0.00021971483 0.0049875434 -0.0014045261 -0.00015398594
000180 ce 40 15 3c 56 29 b6 b9 7b ce 69 ba 76 a8 2b bb
       0.009109689 -0.00034744543 -0.00089190126 -0.002619294
000190 ab b6 3d bb dd 55 e6 ba 7c 8b 3c ba 25 37 ba ba
       -0.002894799 -0.0017573197 -0.00071924157 -0.0014207108
0001a0 13 74 1a bb af dd 32 bb 07 6f 5e bb 00 2a cf bb
       -0.002356772 -0.0027292778 -0.003394069 -0.0063221455
0001b0 73 bf 52 3a 4e c5 06 3b 63 57 66 ba 77 1e 18 ba
       0.00080393924 0.002056438 -0.00087868253 -0.00058028795
0001c0 3b 9b 4a 39 a9 ad 13 b9 ab bc c7 3a 5d 03 d4 b9
       0.00019322049 -0.00014083706 0.0015238723 -0.00040438297
0001d0 ee c4 af b9 36 6f 25 3a c8 aa a1 bb 62 2e b8 bb
       -0.00033525325 0.0006310822 -0.004933689 -0.0056207636
0001e0 43 1c 11 3b fb 06 65 ba aa a7 24 bb d8 5a 2a 3c
       0.002214209 -0.0008736697 -0.002512435 0.010397635
0001f0 ff 87 26 bb 2a 7b 26 bb 42 e1 30 3b 66 e7 5f 3b
       -0.002541065 -0.0025403001 0.0026989733 0.0034165024
000200 2d d2 77 3b f4 29 0b 3b 50 3d 39 3b 94 73 3f 3b
       0.0037814484 0.0021234723 0.0028265305 0.0029213177
000210 d8 6a 09 3c 53 4d cc 3b c3 e3 16 3b 56 5d 66 3b
       0.00838729 0.0062348037 0.002302394 0.0035150847
000220 5b 7f e9 3b 5f 28 f7 3b 6d d1 36 3a 26 21 6d 3a
       0.0071257777 0.0075426544 0.0006973956 0.0009045772
000230 95 b6 ff 3a 08 7a 19 3c d8 b3 3d 3c 39 38 1a 3c
       0.001950937 0.009367473 0.011578523 0.009412819
000240 e5 c2 f3 ba 39 8b e7 ba a0 c2 52 bb e6 1c 42 bb
       -0.0018597512 -0.0017665393 -0.0032159463 -0.0029619276
000250 89 0c 5c bb ad 5a 60 bb d1 18 46 bb a7 16 98 bb
       -0.0033576807 -0.0034233734 -0.0030227194 -0.0046413722
000260 3d f6 83 bb 31 bf 10 ba 27 98 58 3a 26 98 05 bc
       -0.0040271566 -0.0005521654 0.00082624186 -0.008153951
000270 39 74 c4 3a 60 25 c6 3b c7 a6 c8 3a ab 2e e1 39
       0.001498825 0.006046936 0.0015308493 0.00042950115
000280 a3 29 ea 3a cd 01 68 3b 19 ad 6f b9 9c 9f ad b9
       0.0017865192 0.0035401464 -0.000228573 -0.0003311605
000290 eb 29 01 bb 31 fc 1e 3a f5 d4 52 3b 04 8c 2f bb
       -0.0019708823 0.0006064801 0.003217039 -0.0026786337
0002a0 90 8f 1b 3b 0e e9 a2 3b de f2 c5 ba 6f 7f cc 3a
       0.0023736693 0.00497163 -0.0015102287 0.0015601943
0002b0 2d 21 1e bb f3 c6 eb 3a ed 12 0b bb e7 21 38 bb
       -0.002412866 0.0017988369 -0.0021220997 -0.002809638
0002c0 39 49 3a ba 7f 4c ee 39 c0 bf 13 bb f3 07 49 39
       -0.0007106248 0.00045451891 -0.0022544712 0.00019171815
0002d0 62 91 ad 3b ae 55 9f 3b 1b 03 db 3a e6 ba 28 3b
       0.005296872 0.0048625087 0.00167093 0.0025746166
0002e0 ba e6 3a 3b 7d 14 02 b8 e6 24 b0 3b 27 00 04 3c
       0.0028518871 -3.1013496e-05 0.0053754924 0.008056677
0002f0 a8 9c c9 3a 5c 62 b1 38 bf 54 02 3b 99 67 04 3b
       0.001538177 8.4583386e-05 0.0019886938 0.002020335
000300 f9 10 55 bb b2 a6 1f 3b ab 0f 11 3a 98 18 24 39
       -0.0032511337 0.0024360833 0.0005533646 0.0001564942
000310 5c 45 8b 3b 41 43 cb 3b 56 63 67 3a 26 11 25 3b
       0.0042502116 0.0062030856 0.0008826753 0.0025187223
000320 b2 72 86 38 f9 c2 80 ba 78 88 cf 39 c6 6d 0a 3b
       6.4109816e-05 -0.0009823731 0.00039583794 0.002112256
000330 14 17 14 ba 0b 5b ab b9 9b 59 4f 3a 1a f6 db 3b
       -0.0005649191 -0.00032683494 0.00079097756 0.006712687
000340 2b 83 fb 3b 45 70 81 3c 96 44 0a 3b 89 e4 f4 ba
       0.0076755485 0.015800605 0.002109801 -0.0018683831
000350 bb c0 e4 3a e8 de 32 3c 43 76 70 3c 6d ca 4f 3c
       0.0017452458 0.010917403 0.014676633 0.012682539
000360 b6 bd d4 b9 18 7d da ba e4 76 e4 bb 43 92 19 3c
       -0.00040577137 -0.0016669361 -0.0069721807 0.00937325
000370 eb fb a3 3b c1 9c ea 39 39 97 ad 3b 19 7b d7 3a
       0.005004396 0.0004474875 0.005297568 0.0016439884
000380 49 00 d0 bb ba c7 4c 3b 35 6e 88 b9 81 13 ea 3a
       -0.0063476902 0.0031246976 -0.00026022052 0.0017858596
000390 8a 1c 5e 3b 36 23 dc b8 38 b9 4e 3a ed 0c b0 3b
       0.0033891522 -0.00010496976 0.0007885876 0.0053726346
0003a0 b8 70 01 39 22 42 74 b9 5c 5c 2b bb 0f e4 64 3a
       0.0001234439 -0.0002329429 -0.002614758 0.0008731493
0003b0 ca a4 76 bb a6 67 cc 3a b6 89 a6 3b 62 be 70 3b
       -0.0037634843 0.0015594854 0.0050823344 0.003673457
0003c0 33 4c e1 bb 0b 8a b9 ba 21 a0 3d 3a c9 67 89 ba
       -0.0068755387 -0.001415552 0.0007233639 -0.0010483201
0003d0 37 95 5f 3b 9d d4 8e ba 49 b7 8e ba 69 2b b2 ba
       0.0034116039 -0.0010897104 -0.0010888363 -0.001359326
0003e0 f9 f1 c1 b9 5b ec af 3b fa f5 e7 3b 61 80 86 3b
       -0.00036992112 0.005368752 0.0070788832 0.0041046594
0003f0 14 cf 4a bb 11 32 31 bb e7 3b 29 3b 43 79 97 ba
       -0.0030946182 -0.0027037899 0.0025823058 -0.0011556525

92 f4 [64]
000000 e3 ee b0 bc 87 68 e2 bd 5d 15 4a bd 4d fa ee b8
       -0.021598285 -0.11055093 -0.04933678 -0.000113953465
000010 de 1a 84 bd 1e d2 b8 bc 28 59 2c ba ed ee 02 be
       -0.06450437 -0.02256113 -0.00065745646 -0.12786455
000020 5c 25 04 b3 bc 7e 21 bd 54 41 b4 bc d4 fd 5f be
       -3.0767623e-08 -0.039427504 -0.022003807 -0.21874171
000030 44 75 38 bc bc 66 c3 3d c1 ca 57 ba 90 b4 4e be
       -0.011258427 0.095410794 -0.0008231812 -0.20186067
000040 e6 d5 06 b1 dd da 2f be cd e3 31 bc ee 64 9f bd
       -1.9621154e-09 -0.17173333 -0.010857535 -0.07782923
000050 52 4f 53 bb f5 96 83 bd 4a 38 5e 3e d8 c1 60 b2
       -0.0032243324 -0.06425277 0.2170116 -1.3082591e-08
000060 3c 5e c4 bb de 00 3d b8 63 e7 b3 b8 4c 4f 46 bb
       -0.005992679 -4.506192e-05 -8.578484e-05 -0.0030259667
000070 b3 8d de bd 81 ab ba bd 5c 77 05 bd 9e 42 f9 bc
       -0.10866871 -0.09114743 -0.032584533 -0.030427273
000080 59 f8 9a bd 5e 2e 86 be ad 48 4a bc 42 c3 dc bd
       -0.075669 -0.2620725 -0.012346429 -0.1077943
000090 54 fb 14 ad 5e bb 39 bc 63 8a a3 bd 9b 12 04 be
       -8.468632e-12 -0.011336176 -0.079853795 -0.12897722
0000a0 53 e0 cf a6 16 8b dd 3d 3a c1 23 bc 00 3f 1a 3c
       -1.4424314e-15 0.10817544 -0.009994799 0.009414434
0000b0 90 23 b3 bb b8 34 50 bc c6 ca 93 3e 92 77 80 bc
       -0.005466886 -0.012707882 0.2886564 -0.015682016
0000c0 cd df 01 ba 32 dd 9e b7 22 43 98 bd 18 d8 08 be
       -0.00049543084 -1.893807e-05 -0.074346796 -0.13363683
0000d0 c6 52 af a4 75 df 44 3e ef 62 7a bd 40 6f 8d 39
       -7.6034376e-17 0.19225867 -0.061129507 0.00026976503
0000e0 fe e8 4e be 70 31 f1 b3 46 0a 1d 3e 04 89 f6 bb
       -0.20206067 -1.123143e-07 0.1533595 -0.0075236578
0000f0 d2 e5 c8 bd 18 86 80 b8 ce ad d0 bd ee 34 ab bc
       -0.0980946 -6.1284925e-05 -0.101894006 -0.020899262
