cmd/ai/datas/models/house.onnx (onnx, 302121 bytes, 16 tensors)

fc.weight f4 [2, 256]
000000 94 78 09 be 40 2f f0 bd 85 23 24 be 2c 5f 1f be
       -0.13424903 -0.11727762 -0.16029175 -0.15563649
000010 2f cd 4d be 2d fe 54 be aa b9 2d be 37 a7 33 be
       -0.20097803 -0.20800085 -0.16965356 -0.17544256
000020 c0 2d 00 00 1c 44 00 00 6d 2b 00 00 64 27 00 00
       1.6412e-41 2.4433e-41 1.5578e-41 1.413e-41
000030 2c e7 41 04 2c e7 41 04 b7 e5 41 04 91 e0 41 04
       2.279319e-36 2.279319e-36 2.279252e-36 2.2790157e-36
000040 3a a9 ad 3d 6a c1 b6 3d 3e f0 a5 3d d8 91 b1 3d
       0.08479543 0.089236096 0.08102463 0.086703956
000050 a8 37 08 3e 48 4e 20 3e 58 c7 0b 3e 75 bc 13 3e
       0.13302481 0.15654862 0.13650262 0.1442736
000060 7b e2 27 36 bb e3 27 36 95 dd 27 36 ba de 27 36
       2.5016768e-06 2.5017496e-06 2.5013917e-06 2.5014583e-06
000070 cf ed 00 80 1a f5 00 80 b0 ef 00 80 e3 ed 00 80
       -8.531e-41 -8.7926e-41 -8.5984e-41 -8.5338e-41
000080 88 d5 d6 3b 08 da 92 3b 84 90 e1 3d 86 32 ec 3d
       0.0065562166 0.0044815578 0.11013892 0.11533074
000090 74 83 87 39 9a 83 87 39 86 83 87 39 b2 83 87 39
       0.00025847147 0.00025847257 0.000258472 0.00025847327
0000a0 5b 15 8e 01 15 ea 78 01 97 72 22 02 b6 f0 0d 02
       5.2193205e-38 4.5718352e-38 1.1934766e-37 1.0428125e-37
0000b0 2c 1a 00 00 7c 1e 00 00 2c 1a 00 00 7c 1e 00 00
       9.389e-42 1.0936e-41 9.389e-42 1.0936e-41
0000c0 e9 1a 00 00 13 c8 4f 80 4c 01 00 80 1d 1d 00 80
       9.654e-42 -7.326777e-39 -4.65e-43 -1.0444e-41
0000d0 2d c6 df 3d 32 40 ed 3d 6b 69 cb 3d a7 79 dc 3d
       0.10926471 0.1158451 0.09932216 0.10765391
0000e0 9c d3 3b 3d 63 d1 42 3d fa a9 27 3d 64 b6 2f 3d
       0.045856103 0.047562968 0.040933587 0.04289855
0000f0 e0 aa 01 1e 09 c1 03 1e 62 97 a2 1d b5 f4 99 1d
       6.864539e-21 6.975001e-21 4.303757e-21 4.0751784e-21
000100 44 f1 75 a0 44 f1 75 a0 40 36 76 a0 02 39 76 a0
       -2.0832135e-19 -2.0832135e-19 -2.085496e-19 -2.0855873e-19
000110 5e c6 a9 84 2d d7 80 85 12 71 c9 05 71 ec ee 04
       -3.991388e-36 -1.2116105e-35 1.8943485e-35 5.617067e-36
000120 f1 7a b0 34 71 7a b0 34 1b 7a b0 34 e7 79 b0 34
       3.2872006e-07 3.2871642e-07 3.2871398e-07 3.287125e-07
000130 66 40 fb ac 9e 40 fb ac 04 40 fb ac 66 40 fb ac
       -7.1409987e-12 -7.141023e-12 -7.1409562e-12 -7.1409987e-12
000140 4b 4d 8b 38 4b 4d 8b 38 4b 4d 8b 38 4b 4d 8b 38
       6.6424334e-05 6.6424334e-05 6.6424334e-05 6.6424334e-05
000150 36 0c 00 80 cc 20 00 80 a6 00 00 80 fb 14 00 00
       -4.38e-42 -1.1765e-41 -2.33e-43 7.526e-42
000160 08 d3 ce a1 d9 d5 ce a1 9f e6 ce a1 4e e9 ce a1
       -1.4014962e-18 -1.4015708e-18 -1.4020148e-18 -1.4020858e-18
000170 a3 b5 00 00 d2 c4 00 00 dc 76 01 00 81 82 01 00
       6.5159e-41 7.0606e-41 1.34474e-40 1.38651e-40
000180 92 d7 ef 92 4a ca f0 92 f4 4f e8 92 86 d4 e9 92
       -1.5136163e-27 -1.51959975e-27 -1.4660968e-27 -1.4756758e-27
000190 28 91 52 16 ec 90 52 16 2c 94 52 16 23 94 52 16
       1.7009468e-25 1.7009394e-25 1.701042e-25 1.7010409e-25
0001a0 88 51 04 b8 89 52 04 b8 d6 52 04 b8 82 53 04 b8
       -3.1547184e-05 -3.154812e-05 -3.15484e-05 -3.1549025e-05
0001b0 08 7c f4 3c 11 bf 10 3d 73 db 64 3d b9 dc 62 3d
       0.029844299 0.035338465 0.055873346 0.05538628
0001c0 15 9b 13 00 d8 ae 13 00 d9 ad 13 00 6f ad 13 00
       1.800507e-39 1.807597e-39 1.807239e-39 1.80709e-39
0001d0 6b 4e 50 be 8f c9 68 be 0c 7d 31 be 3f 1c 5d be
       -0.20342414 -0.22733139 -0.17332858 -0.21592806
0001e0 c6 4e 3d 3e 6b 5a 42 3e a2 6c 4a 3e e3 0c 43 3e
       0.18487081 0.18979804 0.19768003 0.19047885
0001f0 06 20 9c 99 26 21 9c 99 7d 2d 9c 99 57 30 9c 99
       -1.6142956e-23 -1.614341e-23 -1.6148395e-23 -1.6149546e-23
000200 27 94 a7 a3 31 94 a7 a3 31 94 a7 a3 27 94 a7 a3
       -1.8168921e-17 -1.8168938e-17 -1.8168938e-17 -1.8168921e-17
000210 32 0f df 3d 92 c7 0c 3e 66 5e 1c 3e 79 a3 2c 3e
       0.1089157 0.13748005 0.15270385 0.16859235
000220 ff 4a 91 92 33 ab 90 92 f9 bc 91 92 95 fa 90 92
       -9.169274e-28 -9.1298815e-28 -9.197372e-28 -9.149451e-28
000230 1c bd 65 3e 7e 81 73 3e 12 78 33 3e 4c db 62 3e
       0.22435421 0.23779866 0.17526272 0.22153968
000240 54 ea 1c b9 c7 ec 1c b9 66 f1 1c b9 24 f3 1c b9
       -0.00014964613 -0.00014965526 -0.00014967247 -0.00014967896
000250 10 e0 dd 0a ed df dd 0a 17 e0 dd 0a ed df dd 0a
       2.1365809e-32 2.1365757e-32 2.1365819e-32 2.1365757e-32
000260 38 31 4f 17 fc 2f 4f 17 16 24 4f 17 19 21 4f 17
       6.694743e-25 6.694587e-25 6.6930854e-25 6.692708e-25
000270 b3 a4 3a 33 fd a4 3a 33 b3 a4 3a 33 fd a4 3a 33
       4.3456293e-08 4.3456556e-08 4.3456293e-08 4.3456556e-08
000280 38 7b 39 3e a2 71 50 3e 62 2f 41 3e 08 19 4d 3e
       0.1811341 0.20355847 0.18865731 0.2002908
000290 5d 76 00 80 a1 77 00 80 6e 77 00 80 61 76 00 80
       -4.2461e-41 -4.2915e-41 -4.2843e-41 -4.2466e-41
0002a0 b8 18 ac bc 74 18 96 bc ac bf 63 b9 85 34 02 3b
       -0.02100788 -0.018322207 -0.0002171981 0.001986773
0002b0 a0 77 87 38 9f 77 87 38 ae 77 87 38 ae 77 87 38
       6.4595835e-05 6.459583e-05 6.459594e-05 6.459594e-05
0002c0 47 92 66 3e 42 7e 4f 3e 70 5c 84 3e 13 bc 86 3e
       0.22516738 0.20263007 0.25851774 0.26315364
0002d0 dd 5b fd 3b c2 c8 08 3c b7 3c 00 3c b5 3a 0a 3c
       0.007731898 0.008348646 0.007826976 0.008436848
0002e0 aa d2 05 be 72 60 e5 bd 38 15 7a be 80 41 6f be
       -0.13068643 -0.11200036 -0.24422157 -0.2336483
0002f0 c5 37 71 84 f5 51 71 84 ef 7c 70 84 bd 8c 70 84
       -2.8355022e-36 -2.8367047e-36 -2.8269231e-36 -2.8276488e-36
000300 04 88 68 0a 04 88 68 0a e8 87 68 0a e8 87 68 0a
       1.11959754e-32 1.11959754e-32 1.1195955e-32 1.1195955e-32
000310 ee 2d 01 3d 48 eb 08 3d 09 59 eb 3c a5 35 f4 3c
       0.031537943 0.033427507 0.028728979 0.029810736
000320 9f 45 1c bb 93 ee 9e ba e2 68 b8 3c 84 58 d7 3c
       -0.0023845208 -0.0012125544 0.02251095 0.026287325
000330 64 25 00 80 64 25 00 80 64 25 00 80 64 25 00 80
       -1.3413e-41 -1.3413e-41 -1.3413e-41 -1.3413e-41
000340 06 52 43 bd 20 3a 57 bd d5 e3 59 bd 79 b2 5e bd
       -0.047685646 -0.052545667 -0.053195793 -0.054369424
000350 2d 89 a3 b7 0d 78 a3 b7 7a 19 a4 b7 19 ed a3 b7
       -1.9494992e-05 -1.9487017e-05 -1.9562187e-05 -1.9541521e-05
000360 6b aa ed bd 89 17 1b be d5 29 1c be f2 c1 18 be
       -0.1160477 -0.15145697 -0.15250333 -0.14917734
000370 d2 34 b2 b6 d2 34 b2 b6 d2 34 b2 b6 d2 34 b2 b6
       -5.3109625e-06 -5.3109625e-06 -5.3109625e-06 -5.3109625e-06
000380 fa 13 00 80 be 0e 00 80 33 11 00 80 be 14 00 80
       -7.166e-42 -5.289e-42 -6.17e-42 -7.441e-42
000390 84 ee 02 be ac c6 e0 bd 9d f7 10 be 9c ed 12 be
       -0.12786299 -0.10975394 -0.14156957 -0.14348453
0003a0 77 00 5b 3d 81 30 69 3d 60 7d 09 3e c3 4e 06 3e
       0.05346724 0.056931023 0.13426733 0.13115983
0003b0 bc 7d e0 24 bc 7d e0 24 bc 7d e0 24 bc 7d e0 24
       9.735752e-17 9.735752e-17 9.735752e-17 9.735752e-17
0003c0 33 06 00 80 98 14 00 80 fb 05 00 00 b5 12 00 80
       -2.224e-42 -7.388e-42 2.145e-42 -6.711e-42
0003d0 2d c1 ed 21 88 11 5a 22 c8 bc ba a3 0f e7 e6 a4
       1.6110878e-18 2.955379e-18 -2.0246112e-17 -1.0013803e-16
0003e0 6d 5d 61 b9 5d 58 61 b9 0a 37 62 b9 a2 1b 62 b9
       -0.00021492476 -0.0002149059 -0.00021573543 -0.00021563334
0003f0 97 10 0e 00 e5 21 0e 00 89 10 0e 00 f2 11 0e 00
       1.291648e-39 1.297856e-39 1.291629e-39 1.292135e-39

fc.bias f4 [2]
000000 76 08 07 bc b3 93 8a 3d
       -0.008241763 0.06766453

onnx::Conv_80 f4 [16, 3, 7, 7]
000000 1c d0 1a 3c 89 e5 84 3a 07 73 5f bb 25 65 31 bb
       0.009449031 0.0010139208 -0.0034095661 -0.0027068343
000010 de 1f 10 bc ff 6c ba 3c b3 60 7a b9 3b d5 b9 3c
       -0.00879666 0.022757052 -0.00023877881 0.022684684
000020 c0 b2 a9 3c 89 82 a4 3c 0b 3c ae 3c 7f 37 66 3c
       0.020715117 0.020081775 0.021268865 0.014051317
000030 be 25 0c 3d 14 68 be 3b 66 2b 3a 3c 96 a5 7a 3c
       0.03421568 0.005810747 0.011362886 0.015298268
000040 a4 f2 4b 3b f3 61 f9 ba 62 29 3e 3c ad 00 e2 3c
       0.0031119967 -0.0019026384 0.011606546 0.027588213
000050 ca a2 67 3c 9a 32 a1 3c 1e f4 68 bc a5 fc 30 bd
       0.014137933 0.019677449 -0.014218358 -0.04320969
000060 17 ec 36 bd 4a f5 27 bd 3d 48 03 3b fc 1f 4f 3c
       -0.044658747 -0.04100541 0.002003207 0.012641903
000070 e4 70 aa 3c b0 91 54 bd d5 b0 a6 bd fe 2c b3 bd
       0.020805784 -0.05189675 -0.08139197 -0.08748816
000080 27 15 53 bc e1 19 00 3d 19 80 d0 3c 5e 52 1f bc
       -0.012883461 0.03127468 0.025451707 -0.009724228
000090 f7 f1 47 bd 75 c4 b7 bd 75 5b e2 bd 3b dd 82 bd
       -0.04881474 -0.08973018 -0.110526 -0.063898526
0000a0 c9 d9 9a bc 90 45 d4 3c 88 a8 6b bb e4 5f 92 bc
       -0.018902676 0.025912076 -0.0035958607 -0.01786799
0000b0 84 a0 b5 bd 6a 12 8c bd 3f a8 e9 bc 6d 5e 9a 3c
       -0.088685066 -0.0683945 -0.028522609 0.018843854
0000c0 40 60 0b 3d 5a a6 2d bd 2d da 6b bd 01 5d a0 bd
       0.034027338 -0.042394973 -0.057581116 -0.07830239
0000d0 d3 8e 97 bd 80 50 97 bd 63 c3 57 bd 6f 33 a1 bd
       -0.074002884 -0.07388401 -0.05267657 -0.07871138
0000e0 d5 77 49 bd 40 01 73 bd 9b d8 99 bd 87 03 aa bd
       -0.049186546 -0.059327364 -0.07512017 -0.08301454
0000f0 84 ee 6c bd 73 96 20 bd dc ab 83 bd 3a 61 32 bd
       -0.057844654 -0.03920598 -0.06429264 -0.043549754
000100 d9 00 5e bd 7d bc a1 bd 13 46 61 bd 4f 29 54 bd
       -0.054200027 -0.078972794 -0.05499847 -0.051797207
000110 bc 57 d8 bc 11 bc fb bc b1 2e ee b8 9b 53 3b bd
       -0.026409023 -0.030729325 -0.00011357421 -0.04573403
000120 45 14 38 bd 18 69 0a bd 8d 75 d1 bc d8 fa 07 3d
       -0.044941206 -0.03379163 -0.025568748 0.033198208
000130 bc 99 42 bc 3d 4f 33 3d 9d 4b e7 bb cf 81 9d bd
       -0.011877473 0.04377674 -0.0070585744 -0.07690775
000140 b1 ff 80 3c 5b cf 7b 3d 63 81 7c 3d e4 d7 8f 3d
       0.015746923 0.061477046 0.06164683 0.070236
000150 b3 44 0f 3d 2d af e2 bc 3c 61 a5 bd 4b 03 33 bd
       0.034977626 -0.027671421 -0.080751866 -0.043704312
000160 4a 15 8a bc b0 a0 1a 3d 0f 2d 46 3d c2 ac 8e 3c
       -0.016855855 0.0377509 0.048382815 0.017416362
000170 d6 09 3d bc 35 ef 79 bd dd c7 11 bc b1 53 3a 3d
       -0.01153799 -0.06101914 -0.008897749 0.04548997
000180 ba 9e c5 3d 6f db c4 3d 05 03 8d bd 54 5f 8a bd
       0.09649415 0.09612166 -0.068853416 -0.06756464
000190 48 0a bd bd d8 b6 b8 bd 67 bc dc bd 1f 55 e8 bd
       -0.092304766 -0.0901925 -0.107781224 -0.113443606
0001a0 37 03 07 be fc 73 a3 bc cc 05 9f bc e3 67 1e bd
       -0.1318482 -0.019952767 -0.019411944 -0.038673293
0001b0 dd 6a 1c bd f4 18 52 bd 6c 9b 36 bd 1e f3 ce bd
       -0.03818785 -0.05129333 -0.044581816 -0.10104965
0001c0 2d e0 d7 3b 42 80 da 3b 3c 43 a1 bc 27 46 b0 bc
       0.006588003 0.0066681216 -0.01968538 -0.021517826
0001d0 b8 d6 42 bc 64 e3 10 bb 2e 65 2d bd 3f 5f 84 3d
       -0.011892013 -0.0022108192 -0.04233282 0.06463479
0001e0 fe a4 51 3d 21 95 14 3c 1b 7b 28 3d 41 e6 07 3d
       0.05118274 0.009068758 0.041133028 0.03317857
0001f0 0f b1 2a 3d db d6 86 3d 59 4b ab 3d 78 ed 5a 3d
       0.041672762 0.06583949 0.08363981 0.053449124
000200 66 8b 06 bb e4 02 1a 3d b6 53 93 3d 06 23 ee 3d
       -0.0020529865 0.037600413 0.07193701 0.11627774
000210 5f 1f d5 3d e9 f4 8c 3d 39 b4 85 bc f4 76 95 bd
       0.10406374 0.068826504 -0.016321288 -0.07298079
000220 10 a7 3b 3c 13 d0 95 3b 88 ed 27 3d 63 c2 a6 3d
       0.011453405 0.0045719235 0.04099801 0.08142545
000230 fe 9c 1a 3d ad 12 aa 3c 35 3f fc bc b4 4c 0a bd
       0.037747376 0.020760858 -0.030791858 -0.033764556
000240 04 fd 04 3d f1 ab c7 3d 0e 48 db 3d 9a 2b 43 bc
       0.032467857 0.09749592 0.10707103 -0.011912251
000250 04 40 3a bc 26 18 86 ba 94 04 43 bd dc 8f 4d bd
       -0.011367802 -0.0010230585 -0.047611788 -0.050186023
000260 1b ce 7c bd 95 05 01 bd e3 af a1 ba a1 60 71 bb
       -0.061719995 -0.031499464 -0.0012335744 -0.0036831277
000270 46 b9 02 bc 4c cd 75 bb d5 28 84 39 a3 97 5b 3b
       -0.007978743 -0.00375064 0.00025207424 0.003350713
000280 40 9c f8 3b 04 63 69 bc 1f 1e fe bc 1a 90 44 3b
       0.007586986 -0.014244799 -0.031020222 0.0029993118
000290 cd a4 78 3c 3c 66 42 3c a7 f7 0b bc bb 69 ab bb
       0.01517601 0.011865195 -0.008542932 -0.00523111
0002a0 75 37 fb bc 73 8e 0d bd f7 1b 1e bc fd d1 26 bb
       -0.030666092 -0.03455968 -0.009650222 -0.0025454753
0002b0 72 c7 c9 bb ff aa 75 bb 69 0a 10 bc a1 ec 3c bb
       -0.006157809 -0.0037485955 -0.0087915445 -0.0028827565
0002c0 ad 61 41 3c c8 c9 de 3c a5 04 03 3d e6 96 b1 3c
       0.011803073 0.027195826 0.03198685 0.0216784
0002d0 71 ee a5 3c 1a f9 36 3c 44 47 3d 3c b4 61 99 3c
       0.0202553 0.011167789 0.011552636 0.018723346
0002e0 42 ac 74 3c 30 ba c0 b9 17 c5 0b bc df e2 ea b7
       0.014933648 -0.00036759814 -0.008530877 -2.8000619e-05
0002f0 bd f8 48 3a 2d d7 69 bc 5e d3 b3 bb e8 eb 15 bb
       0.00076664594 -0.014272493 -0.0054878434 -0.0022876207
000300 24 92 21 bd 88 6e 38 bd 63 3f 75 bd 1b 1a b1 bb
       -0.03944601 -0.045027286 -0.059874903 -0.0054047233
000310 d5 ca 32 bd 59 22 24 bd 88 41 38 bd 7f e4 bb bd
       -0.043650467 -0.04007182 -0.04498437 -0.091744415
000320 3c ab 8f bd 9e ab ad bd cd d4 5f bd 79 9b 68 bc
       -0.07015082 -0.08479999 -0.054646302 -0.014197224
000330 75 f7 84 bc 11 91 84 bc 2c 86 0e bc cd db 83 bc
       -0.016231278 -0.016182454 -0.008698981 -0.01609602
000340 c0 a5 48 bc fd c2 05 bc bc 2c 19 bd 70 4e 0b bd
       -0.012246549 -0.008164165 -0.037396178 -0.03401035
000350 5c 5a 99 bc 76 a2 f2 bb 2b ac 43 bc f7 0f d6 bc
       -0.018719845 -0.0074046208 -0.0119429035 -0.02613066
000360 28 8e 03 bd c3 f2 81 bd 70 f9 7f bd 68 22 f4 bc
       -0.032117993 -0.06345131 -0.06249374 -0.029801562
000370 00 de 0c bc e3 1a 83 bc 45 52 af bc 6c 5f be bc
       -0.008597851 -0.016004032 -0.021401534 -0.02323886
000380 36 22 80 bc 32 1f d5 bb 4c ef b4 bb f9 75 54 ba
       -0.015641313 -0.006503963 -0.0055216905 -0.00081047375
000390 5e d7 07 bb ec 76 1f 3c 4a ca ae 3c 26 bf c2 3b
       -0.0020727734 0.009732943 0.021336693 0.005943197
0003a0 a7 f0 a3 3c 8c 54 f3 3c 86 58 8c 3c ae 99 4c bc
       0.020012213 0.029703401 0.017132055 -0.012487812
0003b0 c0 4f b1 3b 98 53 11 3d d8 8a b8 bb 52 97 81 bc
       0.0054111183 0.03548011 -0.005631786 -0.015819225
0003c0 07 65 07 bd 21 8a 0b bd d1 b4 d2 bc e4 c9 16 bd
       -0.03305533 -0.034067277 -0.025720986 -0.03681363
0003d0 21 09 d0 bc 97 a4 53 3d 9a 3f ad 3d a2 63 2c 3d
       -0.025394978 0.051670637 0.08459397 0.042087205
0003e0 5a b4 a2 3d ec bb 8b 3d be 42 94 3d 90 05 95 3d
       0.079445556 0.06822953 0.072392926 0.072764516
0003f0 39 25 58 3d 71 91 68 3d f6 e5 83 3d 63 77 8c 3d
       0.052769873 0.05677933 0.06440346 0.06858709

onnx::Conv_81 f4 [16]
000000 8d 16 55 3f d7 fc 1d bf da ba e3 3d 25 d3 a1 be
       0.83237535 -0.6171393 0.111196235 -0.31606403
000010 d8 ce 02 be 8f 06 0c bd d4 0b fd bc ed a9 0f bf
       -0.12774217 -0.034185942 -0.03088943 -0.5611866
000020 42 5c 57 bd 65 6b 1b be b6 ef 3e 3f 0c 4a 5a be
       -0.05257822 -0.15177687 0.7458452 -0.21317309
000030 f4 02 43 bf 78 49 ed 3c f3 6b da be 64 c1 b6 bd
       -0.7617638 0.028965697 -0.42660484 -0.08923605

onnx::Conv_83 f4 [32, 16, 3, 3]
000000 00 00 00 80 00 00 00 00 00 00 00 80 00 00 00 80
       -0.0 0.0 -0.0 -0.0
000010 00 00 00 00 00 00 00 00 00 00 00 80 00 00 00 80
       0.0 0.0 -0.0 -0.0
000020 00 00 00 80 00 00 00 00 00 00 00 80 00 00 00 80
       -0.0 0.0 -0.0 -0.0
000030 00 00 00 00 00 00 00 00 00 00 00 00 00 00 00 00
       0.0 0.0 0.0 0.0
000040 00 00 00 00 00 00 00 00 00 00 00 80 00 00 00 80
       0.0 0.0 -0.0 -0.0
000050 00 00 00 80 00 00 00 00 00 00 00 80 00 00 00 80
       -0.0 0.0 -0.0 -0.0
000060 00 00 00 00 00 00 00 80 00 00 00 80 00 00 00 80
       0.0 -0.0 -0.0 -0.0
000070 00 00 00 80 00 00 00 80 00 00 00 80 00 00 00 00
       -0.0 -0.0 -0.0 0.0
000080 00 00 00 00 00 00 00 00 00 00 00 80 00 00 00 80
       0.0 0.0 -0.0 -0.0
000090 00 00 00 80 00 00 00 00 00 00 00 80 00 00 00 80
       -0.0 0.0 -0.0 -0.0
0000a0 00 00 00 80 00 00 00 00 00 00 00 00 00 00 00 00
       -0.0 0.0 0.0 0.0
0000b0 00 00 00 00 00 00 00 00 00 00 00 80 00 00 00 80
       0.0 0.0 -0.0 -0.0
0000c0 00 00 00 00 00 00 00 80 00 00 00 00 00 00 00 00
       0.0 -0.0 0.0 0.0
0000d0 00 00 00 80 00 00 00 00 00 00 00 80 00 00 00 00
       -0.0 0.0 -0.0 0.0
0000e0 00 00 00 00 00 00 00 00 00 00 00 00 00 00 00 00
       0.0 0.0 0.0 0.0
0000f0 00 00 00 00 00 00 00 80 00 00 00 80 00 00 00 00
       0.0 -0.0 -0.0 0.0
000100 00 00 00 80 00 00 00 80 00 00 00 80 00 00 00 80
       -0.0 -0.0 -0.0 -0.0
000110 00 00 00 80 00 00 00 80 00 00 00 00 00 00 00 80
       -0.0 -0.0 0.0 -0.0
000120 00 00 00 00 00 00 00 00 00 00 00 80 00 00 00 00
       0.0 0.0 -0.0 0.0
000130 00 00 00 00 00 00 00 00 00 00 00 80 00 00 00 80
       0.0 0.0 -0.0 -0.0
000140 00 00 00 80 00 00 00 80 00 00 00 00 00 00 00 00
       -0.0 -0.0 0.0 0.0
000150 00 00 00 80 00 00 00 00 00 00 00 00 00 00 00 80
       -0.0 0.0 0.0 -0.0
000160 00 00 00 80 00 00 00 00 00 00 00 00 00 00 00 80
       -0.0 0.0 0.0 -0.0
000170 00 00 00 80 00 00 00 80 00 00 00 00 00 00 00 00
       -0.0 -0.0 0.0 0.0
000180 00 00 00 80 00 00 00 80 00 00 00 80 00 00 00 00
       -0.0 -0.0 -0.0 0.0
000190 00 00 00 00 00 00 00 00 00 00 00 00 00 00 00 80
       0.0 0.0 0.0 -0.0
0001a0 00 00 00 00 00 00 00 80 00 00 00 00 00 00 00 80
       0.0 -0.0 0.0 -0.0
0001b0 00 00 00 80 00 00 00 00 00 00 00 00 00 00 00 00
       -0.0 0.0 0.0 0.0
0001c0 00 00 00 00 00 00 00 80 00 00 00 80 00 00 00 00
       0.0 -0.0 -0.0 0.0
0001d0 00 00 00 80 00 00 00 80 00 00 00 80 00 00 00 00
       -0.0 -0.0 -0.0 0.0
0001e0 00 00 00 00 00 00 00 80 00 00 00 00 00 00 00 00
       0.0 -0.0 0.0 0.0
0001f0 00 00 00 80 00 00 00 80 00 00 00 80 00 00 00 00
       -0.0 -0.0 -0.0 0.0
000200 00 00 00 00 00 00 00 00 00 00 00 80 00 00 00 80
       0.0 0.0 -0.0 -0.0
000210 00 00 00 00 00 00 00 00 00 00 00 00 00 00 00 00
       0.0 0.0 0.0 0.0
000220 00 00 00 80 00 00 00 80 00 00 00 00 00 00 00 80
       -0.0 -0.0 0.0 -0.0
000230 00 00 00 80 00 00 00 00 00 00 00 00 00 00 00 80
       -0.0 0.0 0.0 -0.0
000240 64 ff 65 3b 5e ef 05 3d 72 7d 82 3d f8 a0 1c bc
       0.0035094852 0.03269898 0.06371583 -0.009559862
000250 de 57 c5 ba cb f3 5c 3b db be bd ba 78 aa 9f bb
       -0.0015056094 0.0033714648 -0.0014476435 -0.0048726164
000260 69 a2 9d bc 90 38 0e 3c 81 00 fa 3b e3 29 03 bc
       -0.019242482 0.008680478 0.0076294546 -0.008005592
000270 8e fd a5 bb 4b e2 8f 3b 16 df 38 bb 30 8d 72 3c
       -0.0050656265 0.00439099 -0.0028209141 0.01480417
000280 28 70 86 3c 75 9c a8 3b c7 4f 9c 39 5b c7 bd 3a
       0.016410902 0.0051456043 0.00029814077 0.0014478968
000290 9a 4f 07 bc 81 46 71 3b 19 08 a0 3b 6b 3e c9 ba
       -0.008258725 0.0036815705 0.004883778 -0.0015353685
0002a0 a1 31 cf 3b 77 29 6a 3b 30 ad 93 ba 14 77 de bc
       0.006323055 0.0035730281 -0.0011266824 -0.02715639
0002b0 09 3c 1e bc a2 bb f5 bc 74 62 ec bc e4 c1 39 bd
       -0.009657868 -0.029996697 -0.02885554 -0.045350924
0002c0 30 93 86 bd f6 3f af 3c b2 5a 86 3b a0 33 95 bc
       -0.065710425 0.021392804 0.004100167 -0.018213093
0002d0 eb cb cc 3d 3e f5 ca 3c 1a 58 5a 3c 98 26 d7 3c
       0.09999832 0.024775144 0.013326669 0.02626352
0002e0 d3 e1 57 3c ed 1d 8c 3b 29 fe aa 3c 42 80 92 3c
       0.013176399 0.0042760284 0.020873146 0.017883424
0002f0 94 80 80 3c 44 d5 8e 3c a0 a2 0c 3b cc b3 4f 3c
       0.01568631 0.017435677 0.0021459237 0.012677144
000300 33 be 34 3d 81 92 02 3c 94 a7 3f bb 06 f3 f4 3b
       0.0441267 0.0079695 -0.0029244171 0.0074752597
000310 3c e1 8e ba fc 94 b0 bc 28 75 5d ba 2a a9 9c 3c
       -0.0010900865 -0.021555416 -0.00084479386 0.019123632
000320 92 b4 42 3c 5a bb 9c bc f9 83 04 3d db 07 f1 3b
       0.011883872 -0.019132305 0.03235242 0.007355673
000330 51 33 ef 3c 02 20 75 3d 6d 79 44 3d 2a 1e 76 3d
       0.029199274 0.05984498 0.047967363 0.06008736
000340 84 da 0c 3d 44 fb 20 3d e4 1d 29 bb e9 98 91 bc
       0.03438808 0.039302126 -0.002580517 -0.017773109
000350 16 67 ea bc 8d e5 07 3d 4a 14 d7 ba 82 e8 65 bc
       -0.028613608 0.0331779 -0.0016409245 -0.014032485
000360 b4 a1 28 3d 45 b3 05 3d bd 2b 18 3d 67 cb 2e 3c
       0.041169837 0.032641668 0.037151087 0.010668612
000370 1a 0a 9a 3a 8e 2e f7 bb cb ad 2b 3c 18 e9 21 3c
       0.0011752278 -0.0075433915 0.010478447 0.009882234
000380 ab 9e 08 3c 6b 05 7b 38 5e 03 f6 38 81 b5 d3 ba
       0.008338611 5.984811e-05 0.00011730821 -0.0016152115
000390 e5 37 5b ba ba 0e 3b ba 41 ef bb ba ca 34 71 ba
       -0.0008362516 -0.00071356783 -0.0014338271 -0.00092012866
0003a0 a1 4c 89 b9 94 58 d1 b9 c9 37 14 bc 92 3b c4 3b
       -0.0002618777 -0.00039929582 -0.009046503 0.0059885466
0003b0 7f a1 04 bc c6 1b 21 3c 8a f3 da bb 98 51 b7 bc
       -0.008095144 0.009833282 -0.006681864 -0.022377774
0003c0 bd 6e 4b 3d 17 77 12 3d 03 41 7f 3c 20 85 15 3b
       0.049666155 0.035758104 0.015579465 0.0022814944
0003d0 79 76 2b 3b c4 02 31 3b 7a a6 1e 3b 44 84 55 3b
       0.0026163145 0.0027009705 0.0024208114 0.0032580057
0003e0 03 94 35 3b 7f b9 5b 3b b7 d9 5a 3b de f0 40 3b
       0.002770663 0.0033527312 0.0033393928 0.0029440443
0003f0 aa e7 c2 3c a1 74 93 3b 95 85 9c bc 16 0e 83 3b
       0.023792107 0.0044999872 -0.019106666 0.003999482

onnx::Conv_84 f4 [32]
000000 63 f5 06 80 83 27 a3 be 7c d3 66 be 39 66 81 3e
       -6.39041e-40 -0.31866083 -0.22541612 0.25273302
000010 28 8c da 3d 05 58 a1 3e d7 43 8b 3c 53 07 22 be
       0.10671264 0.31512466 0.017000122 -0.15823106
000020 17 16 03 80 02 31 02 80 c6 c5 68 be 4e 68 1f bd
       -2.83431e-40 -2.01252e-40 -0.22731695 -0.038917832
000030 81 5e be 3d d1 18 10 00 dc 9f bb 3d 59 1b 01 80
       0.09295369 1.47827e-39 0.0916135 -1.01646e-40
000040 95 3f 12 80 32 77 02 00 ca b0 c1 bd d1 bc 66 3e
       -1.675848e-39 2.2643e-40 -0.09457548 0.22532965
000050 8d 69 4d be f6 3a 2c 3d 47 d0 03 80 02 40 25 00
       -0.20059796 0.042048417 -3.50222e-40 3.420875e-39
000060 e1 f0 b7 a9 f6 2c 34 3e b5 c7 2f 00 84 4e 04 00
       -8.1686184e-14 0.17595276 4.38791e-39 3.95508e-40
000070 b9 3e ab 3e 21 89 0b 80 8f 05 00 80 90 a6 94 3c
       0.3344629 -1.059383e-39 -1.994e-42 0.01814583

onnx::Conv_86 f4 [32, 32, 3, 3]
000000 ab 3b 00 80 0f 9d 01 00 14 6b 00 00 55 9f 00 00
       -2.1405e-41 1.48178e-40 3.8412e-41 5.7158e-41
000010 e9 2f 02 80 f3 e2 01 80 4d 13 01 00 8c 13 00 80
       -2.00858e-40 -1.7325e-40 9.876e-41 -7.012e-42
000020 ff a6 01 80 bc d6 01 bd 93 57 ec bc 53 a5 0b bd
       -1.51742e-40 -0.031698927 -0.028850352 -0.034093212
000030 65 6a 8a 3c bc 23 9b 3c d4 2c bd bb 8c 5d b6 bb
       0.016896436 0.018937938 -0.005773166 -0.005565351
000040 df 94 69 3d 3d aa 64 3d 19 7e 86 bc f1 29 37 bc
       0.05702674 0.055826414 -0.01641755 -0.011179433
000050 15 6a ed ba 44 1a 3b bc 12 ea 80 bb d7 99 76 bc
       -0.001811328 -0.011419836 -0.0039341534 -0.015051327
000060 30 a0 82 bd 5e 8f 26 bd fc b2 36 bd 20 6f d7 3b
       -0.063782096 -0.04066407 -0.044604287 0.0065745264
000070 01 67 76 bd 0e 65 31 bd 00 6e 39 3e c0 b9 18 3e
       -0.060156826 -0.043309264 0.18108368 0.14914608
000080 90 c9 a7 3d 08 ee b4 bc 6f bd 05 bd 72 fc a7 bd
       0.08192742 -0.022086158 -0.03265136 -0.08202447
000090 d2 ea 19 bd d8 e3 c1 3c 67 19 dc 3c 1f 4a 4b bd
       -0.037577458 0.023668215 0.026867582 -0.049631234
0000a0 89 ef 80 3c dc 09 a3 bc 09 02 0a bd 94 f8 00 3c
       0.01573922 -0.019902162 -0.033693347 0.007871766
0000b0 23 57 8f 3c b1 6f 86 39 43 f8 55 3d 8e f8 a5 3d
       0.017497605 0.00025641688 0.052238714 0.08104049
0000c0 59 03 d5 bc a3 56 35 3b 99 09 c9 3c 89 1c 9b bd
       -0.026002573 0.0027670048 0.02454071 -0.07573802
0000d0 2a f6 84 bd c9 66 49 bd 6d 02 3a bc 50 ff 07 bd
       -0.064922646 -0.04917029 -0.011353117 -0.03320247
0000e0 92 b9 cf bd b6 74 d4 3d 44 2d 9a 3d 05 2d 95 bc
       -0.101428166 0.10373823 0.07528165 -0.018209944
0000f0 20 af 0b 3e 13 92 64 3e d2 5d 0c 3e e4 09 f4 3c
       0.13641024 0.22321348 0.13707665 0.029789872
000100 19 e4 21 3d 73 ce 4c 3d 0e ba c4 3c 44 6c d3 3c
       0.03952417 0.050001573 0.024014499 0.025808461
000110 b2 bf 0e 3d db 5e 9b 3c 6c f5 04 3d 0d 5d 0e 3d
       0.034850784 0.018966129 0.032460615 0.03475671
000120 de f7 00 00 a4 e7 00 80 58 27 00 80 4f 99 01 00
       8.8918e-41 -8.3097e-41 -1.4114e-41 1.46832e-40
000130 3f 52 00 80 88 c7 01 00 75 65 00 80 a7 55 02 00
       -2.9504e-41 1.63414e-40 -3.6396e-41 2.14397e-40
000140 88 52 00 80 6e 86 01 80 18 75 01 80 8b 4f 01 80
       -2.9607e-41 -1.4006e-40 -1.33841e-40 -1.2037e-40
000150 29 3a 00 80 63 10 00 00 da 63 01 80 32 ef 00 00
       -2.0864e-41 5.878e-42 -1.27655e-40 8.5807e-41
000160 50 f8 00 00 76 eb 01 80 2b 3d 04 bd b2 2c f1 bc
       8.9078e-41 -1.76303e-40 -0.032284897 -0.029440258
000170 ec e2 9a bc f7 49 4e bd 0e 64 03 bd 11 c5 15 bc
       -0.018907033 -0.050363507 -0.03207784 -0.009141223
000180 ea bd 04 bd 15 e6 b2 bc 29 f7 01 bd 2e de 2f bd
       -0.03240768 -0.021838227 -0.03172985 -0.042936496
000190 43 11 30 bd 56 00 e9 bc d0 1c 11 bc 9b d9 d6 bc
       -0.042985212 -0.028442543 -0.008856967 -0.02622681
0001a0 af f4 08 bd 31 a4 c7 3d dd 14 92 3d a1 8f 3c 3d
       -0.033436473 0.09748114 0.071328856 0.046035413
0001b0 e6 a1 0e 3c 85 0a c4 3c c6 83 6b bc 35 0a 85 3d
       0.008705592 0.023930797 -0.014374679 0.064960875
0001c0 be 8f 96 3d 0a 41 13 3d 65 c1 bd 3c 96 d7 0a 3d
       0.073516354 0.035950698 0.023163507 0.033897005
0001d0 55 03 b5 3c e8 0a 00 00 6c 78 02 00 9a b3 01 00
       0.022096315 3.912e-42 2.2687e-40 1.56264e-40
0001e0 0c d7 00 00 3a be 01 00 8d c5 00 80 b9 fa 00 80
       7.7144e-41 1.60076e-40 -7.0868e-41 -8.9942e-41
0001f0 c7 14 01 80 7b 20 01 80 63 3f 69 bc a9 d0 76 bc
       -9.9289e-41 -1.03487e-40 -0.014236304 -0.015064397
000200 fa 67 5e bc 43 16 8f 3c c8 f4 69 3c a8 ca c8 3c
       -0.013574595 0.01746667 0.014279552 0.024510697
000210 a3 86 33 bc 1f 38 33 bc 76 a7 54 bb c3 3b 00 80
       -0.010957393 -0.010938673 -0.0032448447 -2.1438e-41
000220 a3 4b 01 00 d0 28 02 00 33 59 00 00 3a c5 01 80
       1.18969e-40 1.98312e-40 3.1999e-41 -1.62587e-40
000230 9b 52 01 00 a5 93 00 00 ad 50 00 00 e2 04 02 00
       1.21469e-40 5.2965e-41 2.8941e-41 1.85423e-40
000240 41 eb 01 00 94 72 02 00 e7 79 01 80 0f fc 00 80
       1.76229e-40 2.24774e-40 -1.35566e-40 -9.0422e-41
000250 7a b2 01 80 2c 43 01 00 f6 69 01 00 32 23 01 80
       -1.55861e-40 1.15932e-40 1.29847e-40 -1.04461e-40
000260 f9 2c 02 00 da d2 01 00 fb a3 01 80 80 bb 00 80
       1.99804e-40 1.67475e-40 -1.5066e-40 -6.7262e-41
000270 46 20 01 80 12 2d 01 00 ca c6 00 00 7c 82 00 00
       -1.03413e-40 1.08004e-40 7.1312e-41 4.6809e-41
000280 34 37 01 80 53 89 00 80 2f e3 a0 bc 86 35 fe bc
       -1.11639e-40 -4.9263e-41 -0.01963958 -0.031031381
000290 fa 37 25 bd 27 c0 6b bc 87 e4 9c bb d5 96 54 bc
       -0.040336587 -0.014389074 -0.004787985 -0.012975414
0002a0 c8 4a 39 bd b7 e5 69 bc f9 3f 18 bc 4f 5d 14 bd
       -0.045237333 -0.01427596 -0.009292596 -0.0362218
0002b0 14 47 5c bd 22 05 1d bd 3e 59 d1 bc 20 47 71 bd
       -0.053778723 -0.038334973 -0.02555525 -0.05890572
0002c0 86 71 7d bc 16 b6 29 3b 56 14 e7 bc 98 86 de bc
       -0.015468961 0.0025895885 -0.02820794 -0.027163789
0002d0 c3 fd e3 ba 98 5f 08 3d 95 66 1c 3d 90 50 9a 3c
       -0.0017394352 0.03329429 0.038183767 0.018837243
0002e0 61 71 e5 bc e1 9d 24 bd 6d b3 0f bc ef 8a 4f bd
       -0.028008165 -0.040189628 -0.008770806 -0.050669607
0002f0 6b 49 85 bd f0 87 93 bc 07 f3 1a bb 9d e2 e0 3b
       -0.06508144 -0.018009156 -0.002364339 0.006862952
000300 8a 32 bd bc 3e 8d a2 bc 0f e4 62 bc f9 d6 77 bc
       -0.023095388 -0.01984274 -0.013848319 -0.015126937
000310 ce 1b 76 bb 39 c5 c0 ba de f9 00 80 5c cb 00 00
       -0.0037553194 -0.0014707214 -8.9635e-41 7.2952e-41
000320 2e e6 00 80 66 aa 00 00 12 b8 00 00 06 4d 00 00
       -8.2573e-41 6.1127e-41 6.6032e-41 2.7631e-41
000330 ad c7 00 80 ef ac 01 80 53 63 01 80 59 35 00 00
       -7.163e-41 -1.53872e-40 -1.27466e-40 1.9138e-41
000340 ff a6 01 00 e5 82 00 80 5c 33 01 80 94 23 01 80
       1.51742e-40 -4.6956e-41 -1.1026e-40 -1.04599e-40
000350 a5 c2 00 00 d3 73 01 00 03 a5 01 80 13 26 00 80
       6.9825e-41 1.33385e-40 -1.5103e-40 -1.3658e-41
000360 8d 24 00 00 4c 94 00 80 68 50 00 80 b0 48 00 80
       1.3112e-41 -5.3199e-41 -2.8844e-41 -2.6075e-41
000370 5f 83 00 80 06 85 00 80 f0 a5 00 80 29 a3 00 80
       -4.7127e-41 -4.772e-41 -5.9527e-41 -5.8531e-41
000380 bf a9 00 80 87 f2 e5 bd 24 37 eb bd 63 16 e4 bd
       -6.0893e-41 -0.11227899 -0.114851266 -0.111370824
000390 2a 95 fa bb 28 4e c5 bc 18 7e e7 bd bb 26 53 3e
       -0.0076471763 -0.02408512 -0.11303347 0.20620243
0003a0 42 a2 41 3e 04 67 e6 3d 82 80 01 00 c7 32 00 00
       0.18909553 0.112501174 1.37935e-40 1.8215e-41
0003b0 d5 ee 00 00 8a 0e 01 00 bf ec 01 00 c4 c3 01 00
       8.5677e-41 9.7051e-41 1.76764e-40 1.62063e-40
0003c0 9b 78 00 80 81 60 00 00 47 c6 01 00 e0 3f 00 80
       -4.3265e-41 3.4619e-41 1.62964e-40 -2.2914e-41
0003d0 a4 43 00 00 19 3f 00 00 b0 c6 01 80 16 10 00 80
       2.4265e-41 2.2635e-41 -1.63111e-40 -5.77e-42
0003e0 d7 40 01 00 a7 d9 00 00 93 0c 00 80 9a 31 00 00
       1.15096e-40 7.8079e-41 -4.511e-42 1.7794e-41
0003f0 6d b1 18 3c d5 ba 8d bc 10 4f ac bd 66 f2 d4 3c
       0.009319645 -0.017301003 -0.084135175 0.02599449

onnx::Conv_87 f4 [32]
000000 6d e5 e5 bd 86 e7 17 00 e2 b2 1a 3e a4 10 00 80
       -0.112254 2.195271e-39 0.15107301 -5.97e-42
000010 ea b4 b2 3d 06 7d ac bc d2 e5 3f 00 3a 25 7f 3d
       0.08725913 -0.02105571 5.86808e-39 0.06229136
000020 c6 9c 9c 82 7b ff 29 bd ab 82 03 80 84 ea 05 3c
       -2.3012123e-37 -0.04150341 -3.22381e-40 0.008173589
000030 5f dc 26 bd 0b ac 6d bc 03 87 6f 3d 20 4c 51 bd
       -0.040737506 -0.01450635 0.058478367 -0.05109799
000040 2e 81 09 80 3f f6 25 bd 7d fe 03 80 e5 77 b8 3d
       -8.7286e-40 -0.04051804 -3.668e-40 0.09007243
000050 f8 a6 cb bd e2 39 b0 3e 10 e3 1e 3e b7 12 97 be
       -0.09943956 0.3441916 0.15516305 -0.29506466
000060 54 d8 88 bc 28 d7 61 bc 49 f6 8b bd f3 7b 49 be
       -0.016704716 -0.013784207 -0.068340845 -0.19676189
000070 40 97 a3 3e 44 fa 03 80 80 ca bc bd 44 cf 01 00
       0.31951332 -3.65285e-40 -0.09218311 1.66188e-40

onnx::Conv_89 f4 [32, 16, 1, 1]
000000 68 2e d2 3d a3 24 67 bd 24 37 75 bc ac 9c 99 3d
       0.102627575 -0.056431424 -0.01496676 0.07500586
000010 a1 ae e2 3d b2 28 c9 bd 6e 9a c3 3d 09 4e 7c 3e
       0.11068464 -0.09822215 0.095509395 0.24639143
000020 4b d5 de 3d ce a6 10 3b a1 d2 9e bb df 03 26 3b
       0.10880526 0.002207208 -0.0048468863 0.0025331897
000030 90 59 7e bd 63 f9 a3 bc 87 91 44 be 82 d1 2d bd
       -0.062097132 -0.020016378 -0.1919614 -0.04243613
000040 00 00 00 80 00 00 00 80 00 00 00 00 00 00 00 00
       -0.0 -0.0 0.0 0.0
000050 00 00 00 00 00 00 00 80 00 00 00 80 00 00 00 80
       0.0 -0.0 -0.0 -0.0
000060 00 00 00 00 00 00 00 00 00 00 00 00 00 00 00 00
       0.0 0.0 0.0 0.0
000070 00 00 00 80 00 00 00 80 00 00 00 00 00 00 00 80
       -0.0 -0.0 0.0 -0.0
000080 97 2f b2 bd 1e 49 13 3e fe c5 b2 ba 8f bd 15 3e
       -0.08700483 0.1438336 -0.0013639329 0.14623092
000090 32 7f 7f be 0f f8 5e bc 67 81 7a bd 9a 03 45 be
       -0.24950865 -0.013608946 -0.061158564 -0.19239655
0000a0 eb a9 d0 bc 01 80 d1 3b 70 ea f0 bd a6 4c 7b bb
       -0.025471648 0.006393433 -0.117634654 -0.0038345247
0000b0 96 06 a9 be 31 a0 ac 3c 67 1f 92 3d f4 24 e5 3d
       -0.33012837 0.021072479 0.07134896 0.11188689
0000c0 00 00 00 80 00 00 00 00 00 00 00 00 00 00 00 80
       -0.0 0.0 0.0 -0.0
0000d0 00 00 00 00 00 00 00 80 00 00 00 00 00 00 00 80
       0.0 -0.0 0.0 -0.0
0000e0 00 00 00 80 00 00 00 80 00 00 00 00 00 00 00 00
       -0.0 -0.0 0.0 0.0
0000f0 00 00 00 00 00 00 00 80 00 00 00 80 00 00 00 80
       0.0 -0.0 -0.0 -0.0
000100 39 ab 38 be fb f4 36 3d ff e9 9e 3d 5a d8 25 3e
       -0.18034066 0.044667225 0.07759475 0.16195813
000110 07 bb 0f 3d 2b d9 d5 bd 35 ad 86 3d 60 9a b0 ba
       0.035090473 -0.10441812 0.06576005 -0.0013473742
000120 4c 93 71 3d 29 8e c4 39 c9 a5 82 be 83 79 34 3c
       0.058978364 0.0003748995 -0.2551711 0.011015299
000130 37 d4 f5 3d 0d 40 64 bd 6f fc dd bd 4f 4c e3 3d
       0.120033674 -0.055725146 -0.108391635 0.11098539
000140 39 c5 5e 3d e9 8a df 3d f3 be 24 3d 3d 15 28 3e
       0.054387305 0.10915167 0.040221166 0.16414352
000150 5c 92 bf 3c f5 17 22 3e 24 92 7d bd ff 86 94 bd
       0.02338522 0.15829451 -0.06190695 -0.07252311
000160 11 af c2 3d e9 8b 55 3c cb e5 8d bd 77 3b 11 3c
       0.095060475 0.013033845 -0.06928595 0.008864275
000170 7b e9 47 bc 36 ef f7 3c 06 be 13 3e 29 e4 bd 3d
       -0.012201662 0.030265432 0.14427957 0.09272034
000180 00 00 00 00 00 00 00 00 00 00 00 80 00 00 00 80
       0.0 0.0 -0.0 -0.0
000190 00 00 00 80 00 00 00 00 00 00 00 00 00 00 00 80
       -0.0 0.0 0.0 -0.0
0001a0 00 00 00 00 00 00 00 00 00 00 00 00 00 00 00 00
       0.0 0.0 0.0 0.0
0001b0 00 00 00 80 00 00 00 00 00 00 00 00 00 00 00 80
       -0.0 0.0 0.0 -0.0
0001c0 30 b8 da 3d 83 10 c7 bd 4a af cf 3c 2f 56 b7 bc
       0.10679662 -0.09719946 0.025352139 -0.022379963
0001d0 35 0d 1d be 65 4c 48 bc 2c 7b f0 bd 9e 77 c1 bd
       -0.1533707 -0.012225245 -0.11742243 -0.09446643
0001e0 86 37 a9 bc 3c 0a 2a 3c 3a a3 0e be 17 00 fd bb
       -0.020656358 0.010378417 -0.13929453 -0.007720958
0001f0 fa 78 94 3c ec 35 8c bd 6f 86 f7 bc b4 88 f5 3c
       0.018124092 -0.06846222 -0.03021547 0.029972412
000200 00 00 00 80 00 00 00 80 00 00 00 00 00 00 00 80
       -0.0 -0.0 0.0 -0.0
000210 00 00 00 80 00 00 00 80 00 00 00 00 00 00 00 00
       -0.0 -0.0 0.0 0.0
000220 00 00 00 80 00 00 00 80 00 00 00 80 00 00 00 80
       -0.0 -0.0 -0.0 -0.0
000230 00 00 00 00 00 00 00 00 00 00 00 00 00 00 00 00
       0.0 0.0 0.0 0.0
000240 11 ee 58 bd 9c 94 46 3c 93 ca 14 bc 09 1f 30 3d
       -0.052961413 0.012120392 -0.009081501 0.042998347
000250 1e 3c 38 3d 01 bd 1e 3e 1a 69 de 3d e9 dd 9d 3d
       0.044979207 0.15501787 0.1085989 0.07708342
000260 30 91 3d bb 60 65 42 bb 92 30 70 3d 94 c4 62 3a
       -0.002892565 -0.0029662475 0.05864007 0.0008650508
000270 98 97 52 bc 8c dd 22 3d 2d 16 96 bc d9 2a 68 bd
       -0.012853526 0.039762065 -0.018321121 -0.056681488
000280 00 00 00 00 00 00 00 80 00 00 00 00 00 00 00 00
       0.0 -0.0 0.0 0.0
000290 00 00 00 00 00 00 00 00 00 00 00 00 00 00 00 00
       0.0 0.0 0.0 0.0
0002a0 00 00 00 80 00 00 00 80 00 00 00 80 00 00 00 00
       -0.0 -0.0 -0.0 0.0
0002b0 00 00 00 80 00 00 00 00 00 00 00 80 00 00 00 00
       -0.0 0.0 -0.0 0.0
0002c0 7c b2 bb bd c9 07 b6 3b db 97 46 bc e1 38 fe bb
       -0.091649026 0.0055551273 -0.012121166 -0.0077582453
0002d0 02 7a 63 bc 11 19 31 bd 00 d5 99 3d 63 bd 5b 3c
       -0.013884069 -0.043236796 0.0751133 0.0134118525
0002e0 73 a7 85 bc e4 fc 12 bc b4 6f 61 bc 66 aa 1b bb
       -0.016315198 -0.008971427 -0.013759542 -0.0023752688
0002f0 ac 76 35 bc 2f cc d9 3c 49 ff c0 ba fe 55 56 bc
       -0.011075657 0.02658662 -0.0014724518 -0.013082026
000300 d8 c1 dc bb b9 83 33 3d 35 09 8f 3d b7 82 eb bc
       -0.006736975 0.043826792 0.06984178 -0.028748853
000310 fc e8 28 3c 1c d5 57 bd 67 fa 0e bd 58 fb 09 bd
       0.010309454 -0.05269347 -0.03490677 -0.033686966
000320 e8 c6 07 bc 96 b7 c5 ba d9 dc 5b 3d fd 8e 8a 3c
       -0.008287169 -0.001508462 0.053677414 0.016913885
000330 67 51 45 3e 71 b1 94 bc b4 29 2d bd 77 83 be 3d
       0.19269334 -0.018151017 -0.0422761 0.09302419
000340 61 5a bd 3c d3 95 5d 3c bb 4d 55 3c d5 2f 44 bc
       0.023114385 0.01352449 0.013019021 -0.011974295
000350 58 40 98 bb 0f 1f 13 bd dc 9d 3f 3c a9 4f 89 bc
       -0.0046463422 -0.03591829 0.011695351 -0.016761618
000360 0c 39 5a bc 2f 1b d0 39 8c 02 76 3c 12 b0 86 3a
       -0.013319265 0.00039693105 0.015015256 0.0010275862
000370 06 b6 5a 3c cf 0b 86 3c 31 cc 26 bc 78 c0 07 bc
       0.013349062 0.016363053 -0.010180519 -0.008285634
000380 84 c7 83 be 49 92 49 3c 15 00 28 bd bd 88 29 be
       -0.25738156 0.0123029435 -0.041015703 -0.16556068
000390 5a 9c 6a 3e 62 18 7a 3d 82 38 79 3e 32 37 f2 bc
       0.22911206 0.06105841 0.24337962 -0.029567335
0003a0 24 a2 13 be 3c a5 3d bc dc 9b 58 3e 91 00 da 3c
       -0.1441732 -0.0115750395 0.21153206 0.026611598
0003b0 55 d6 26 bc 08 71 9d 3c 90 2a ff 3d 0e 4e ef bc
       -0.010182937 0.019218937 0.1245929 -0.029212024
0003c0 5a a6 84 3d 87 68 7e 3c f2 11 c7 bb af 6a b6 3c
       0.064770415 0.015527851 -0.0060751373 0.022267668
0003d0 65 b0 2d ba f8 44 82 b9 5c 98 29 bd 0e e6 48 3d
       -0.0006625711 -0.00024846918 -0.041405067 0.049047522
0003e0 dd 76 ed bc 16 9e 59 3a e3 3b cc bb b3 b8 20 3b
       -0.028987342 0.00083014497 -0.006232725 0.0024524152
0003f0 bc 7a 41 bb ae 3c 78 bc 6b c8 3d 3c 13 e9 b0 3c
       -0.0029522618 -0.015151186 0.011583428 0.021595513

onnx::Conv_90 f4 [32]
000000 35 1d 29 be 86 e7 17 00 e3 30 7d 3e a4 10 00 80
       -0.16515048 2.195271e-39 0.2472568 -5.97e-42
000010 14 1f ee 3c b9 6f 87 be d2 e5 3f 00 ba 00 d9 3d
       0.029067554 -0.26452425 5.86808e-39 0.10595842
000020 c6 9c 9c 82 11 e6 28 be ab 82 03 80 92 8c 10 3d
       -2.3012123e-37 -0.16494013 -3.22381e-40 0.03529031
000030 33 d4 b1 bd 5e 8f fb bb be 4b b7 bd f7 c8 8d bd
       -0.08683052 -0.007677003 -0.089499936 -0.069230966
000040 2e 81 09 80 0d 69 89 be 7d fe 03 80 e4 b3 bb bd
       -8.7286e-40 -0.2683796 -3.668e-40 -0.09165171
000050 6c db 63 3e ca 2f 1b bd 11 0b c7 be 95 f1 a6 be
       0.22251672 -0.037887372 -0.3887563 -0.32606187
000060 78 f1 7f be 5a 14 05 3e 66 da 88 bd a0 ba 11 bc
       -0.24994457 0.12996045 -0.06682281 -0.0088945925
000070 8c aa 7f bd 44 fa 03 80 66 ba d1 bc 44 cf 01 00
       -0.062418506 -3.65285e-40 -0.025601577 1.66188e-40

onnx::Conv_92 f4 [64, 32, 3, 3]
000000 00 00 00 00 00 00 00 80 00 00 00 00 00 00 00 00
       0.0 -0.0 0.0 0.0
000010 00 00 00 00 00 00 00 00 00 00 00 00 00 00 00 80
       0.0 0.0 0.0 -0.0
000020 00 00 00 00 00 00 00 00 00 00 00 80 00 00 00 80
       0.0 0.0 -0.0 -0.0
000030 00 00 00 00 00 00 00 80 00 00 00 80 00 00 00 00
       0.0 -0.0 -0.0 0.0
000040 00 00 00 80 00 00 00 80 00 00 00 80 00 00 00 80
       -0.0 -0.0 -0.0 -0.0
000050 00 00 00 80 00 00 00 80 00 00 00 00 00 00 00 80
       -0.0 -0.0 0.0 -0.0
000060 00 00 00 00 00 00 00 80 00 00 00 80 00 00 00 00
       0.0 -0.0 -0.0 0.0
000070 00 00 00 80 00 00 00 00 00 00 00 00 00 00 00 00
       -0.0 0.0 0.0 0.0
000080 00 00 00 00 00 00 00 80 00 00 00 80 00 00 00 00
       0.0 -0.0 -0.0 0.0
000090 00 00 00 80 00 00 00 00 00 00 00 00 00 00 00 00
       -0.0 0.0 0.0 0.0
0000a0 00 00 00 00 00 00 00 80 00 00 00 00 00 00 00 00
       0.0 -0.0 0.0 0.0
0000b0 00 00 00 00 00 00 00 80 00 00 00 00 00 00 00 00
       0.0 -0.0 0.0 0.0
0000c0 00 00 00 00 00 00 00 80 00 00 00 80 00 00 00 00
       0.0 -0.0 -0.0 0.0
0000d0 00 00 00 80 00 00 00 80 00 00 00 00 00 00 00 00
       -0.0 -0.0 0.0 0.0
0000e0 00 00 00 00 00 00 00 80 00 00 00 80 00 00 00 80
       0.0 -0.0 -0.0 -0.0
0000f0 00 00 00 00 00 00 00 80 00 00 00 00 00 00 00 80
       0.0 -0.0 0.0 -0.0
000100 00 00 00 80 00 00 00 00 00 00 00 80 00 00 00 80
       -0.0 0.0 -0.0 -0.0
000110 00 00 00 00 00 00 00 00 00 00 00 00 00 00 00 00
       0.0 0.0 0.0 0.0
000120 00 00 00 80 00 00 00 00 00 00 00 80 00 00 00 80
       -0.0 0.0 -0.0 -0.0
000130 00 00 00 80 00 00 00 80 00 00 00 80 00 00 00 80
       -0.0 -0.0 -0.0 -0.0
000140 00 00 00 80 00 00 00 00 00 00 00 80 00 00 00 80
       -0.0 0.0 -0.0 -0.0
000150 00 00 00 80 00 00 00 80 00 00 00 00 00 00 00 00
       -0.0 -0.0 0.0 0.0
000160 00 00 00 00 00 00 00 00 00 00 00 80 00 00 00 80
       0.0 0.0 -0.0 -0.0
000170 00 00 00 80 00 00 00 80 00 00 00 00 00 00 00 00
       -0.0 -0.0 0.0 0.0
000180 00 00 00 80 00 00 00 00 00 00 00 00 00 00 00 00
       -0.0 0.0 0.0 0.0
000190 00 00 00 80 00 00 00 80 00 00 00 00 00 00 00 80
       -0.0 -0.0 0.0 -0.0
0001a0 00 00 00 00 00 00 00 00 00 00 00 80 00 00 00 00
       0.0 0.0 -0.0 0.0
0001b0 00 00 00 00 00 00 00 80 00 00 00 00 00 00 00 00
       0.0 -0.0 0.0 0.0
0001c0 00 00 00 00 00 00 00 80 00 00 00 80 00 00 00 80
       0.0 -0.0 -0.0 -0.0
0001d0 00 00 00 80 00 00 00 00 00 00 00 00 00 00 00 80
       -0.0 0.0 0.0 -0.0
0001e0 00 00 00 00 00 00 00 80 00 00 00 80 00 00 00 80
       0.0 -0.0 -0.0 -0.0
0001f0 00 00 00 00 00 00 00 80 00 00 00 00 00 00 00 00
       0.0 -0.0 0.0 0.0
000200 00 00 00 00 00 00 00 80 00 00 00 80 00 00 00 80
       0.0 -0.0 -0.0 -0.0
000210 00 00 00 80 00 00 00 80 00 00 00 00 00 00 00 80
       -0.0 -0.0 0.0 -0.0
000220 00 00 00 80 00 00 00 00 00 00 00 80 00 00 00 80
       -0.0 0.0 -0.0 -0.0
000230 00 00 00 00 00 00 00 80 00 00 00 80 00 00 00 00
       0.0 -0.0 -0.0 0.0
000240 00 00 00 00 00 00 00 80 00 00 00 00 00 00 00 00
       0.0 -0.0 0.0 0.0
000250 00 00 00 80 00 00 00 00 00 00 00 00 00 00 00 00
       -0.0 0.0 0.0 0.0
000260 00 00 00 00 00 00 00 80 00 00 00 80 00 00 00 00
       0.0 -0.0 -0.0 0.0
000270 00 00 00 80 00 00 00 00 00 00 00 80 00 00 00 80
       -0.0 0.0 -0.0 -0.0
000280 00 00 00 00 00 00 00 80 00 00 00 00 00 00 00 00
       0.0 -0.0 0.0 0.0
000290 00 00 00 80 00 00 00 00 00 00 00 00 00 00 00 00
       -0.0 0.0 0.0 0.0
0002a0 00 00 00 00 00 00 00 00 00 00 00 00 00 00 00 00
       0.0 0.0 0.0 0.0
0002b0 00 00 00 80 00 00 00 80 00 00 00 00 00 00 00 00
       -0.0 -0.0 0.0 0.0
0002c0 00 00 00 80 00 00 00 00 00 00 00 00 00 00 00 00
       -0.0 0.0 0.0 0.0
0002d0 00 00 00 80 00 00 00 00 00 00 00 80 00 00 00 80
       -0.0 0.0 -0.0 -0.0
0002e0 00 00 00 80 00 00 00 00 00 00 00 00 00 00 00 80
       -0.0 0.0 0.0 -0.0
0002f0 00 00 00 80 00 00 00 00 00 00 00 00 00 00 00 00
       -0.0 0.0 0.0 0.0
000300 00 00 00 80 00 00 00 80 00 00 00 00 00 00 00 00
       -0.0 -0.0 0.0 0.0
000310 00 00 00 00 00 00 00 00 00 00 00 80 00 00 00 80
       0.0 0.0 -0.0 -0.0
000320 00 00 00 80 00 00 00 80 00 00 00 00 00 00 00 80
       -0.0 -0.0 0.0 -0.0
000330 00 00 00 00 00 00 00 00 00 00 00 80 00 00 00 80
       0.0 0.0 -0.0 -0.0
000340 00 00 00 80 00 00 00 00 00 00 00 80 00 00 00 80
       -0.0 0.0 -0.0 -0.0
000350 00 00 00 80 00 00 00 00 00 00 00 80 00 00 00 00
       -0.0 0.0 -0.0 0.0
000360 00 00 00 80 00 00 00 80 00 00 00 00 00 00 00 00
       -0.0 -0.0 0.0 0.0
000370 00 00 00 00 00 00 00 80 00 00 00 80 00 00 00 80
       0.0 -0.0 -0.0 -0.0
000380 00 00 00 80 00 00 00 80 00 00 00 80 00 00 00 80
       -0.0 -0.0 -0.0 -0.0
000390 00 00 00 80 00 00 00 00 00 00 00 00 00 00 00 00
       -0.0 0.0 0.0 0.0
0003a0 00 00 00 80 00 00 00 80 00 00 00 80 00 00 00 80
       -0.0 -0.0 -0.0 -0.0
0003b0 00 00 00 00 00 00 00 80 00 00 00 80 00 00 00 00
       0.0 -0.0 -0.0 0.0
0003c0 00 00 00 80 00 00 00 80 00 00 00 80 00 00 00 80
       -0.0 -0.0 -0.0 -0.0
0003d0 00 00 00 00 00 00 00 80 00 00 00 00 00 00 00 80
       0.0 -0.0 0.0 -0.0
0003e0 00 00 00 80 00 00 00 80 00 00 00 00 00 00 00 00
       -0.0 -0.0 0.0 0.0
0003f0 00 00 00 80 00 00 00 80 00 00 00 00 00 00 00 00
       -0.0 -0.0 0.0 0.0

onnx::Conv_93 f4 [64]
000000 33 34 00 00 7a a4 24 3d 7f 0d 00 00 83 06 00 00
       1.8726e-41 0.04019592 4.841e-42 2.336e-42
000010 6d 36 00 00 38 1a 00 00 ad 16 00 80 f8 24 00 00
       1.9524e-41 9.406e-42 -8.135e-42 1.3262e-41
000020 0c 36 00 00 e8 62 a2 3d 04 47 00 00 90 1b 00 80
       1.9388e-41 0.07929021 2.5476e-41 -9.888e-42
000030 a1 15 00 80 a6 2e 5b 3e 9c 1e 00 80 da 17 90 bd
       -7.759e-42 0.21404514 -1.098e-41 -0.07035799
000040 8b 52 00 00 be 0c 00 80 33 f1 fb bc 59 65 00 00
       2.9611e-41 -4.571e-42 -0.030754661 3.6357e-41
000050 a7 88 00 00 73 36 00 80 68 70 0d ac dd 3c 00 80
       4.9022e-41 -1.9533e-41 -2.0099703e-12 -2.1834e-41
000060 f6 22 00 80 5b 79 39 be 3f 0f 4a 3e 92 6d 00 80
       -1.2542e-41 -0.181127 0.19732378 -3.9306e-41
000070 1d 4d 00 80 c8 27 00 80 96 1f 00 00 77 5b 00 80
       -2.7663e-41 -1.4271e-41 1.1331e-41 -3.2811e-41
000080 91 b6 9d bd cc 43 00 00 8a e4 ee bd 5f 65 00 00
       -0.077008374 2.4321e-41 -0.11664684 3.6365e-41
000090 3b 3b 00 80 a1 5f 00 00 52 4a 00 00 a7 79 00 00
       -2.1248e-41 3.4305e-41 2.6661e-41 4.364e-41
0000a0 18 36 00 00 b4 85 00 80 9e 40 00 00 33 7d 00 00
       1.9405e-41 -4.7964e-41 2.318e-41 4.4913e-41
0000b0 86 2d 00 00 f9 5e 00 00 d1 a6 3d 3e 08 10 00 00
       1.6331e-41 3.407e-41 0.18520667 5.751e-42
0000c0 2e 2c 00 80 15 83 4b bd 87 04 00 00 3c 79 00 00
       -1.5849e-41 -0.049685556 1.624e-42 4.349e-41
0000d0 ed 55 00 80 1a 1e 00 00 03 3a 00 80 3e 59 00 00
       -3.0824e-41 1.0798e-41 -2.081e-41 3.2014e-41
0000e0 3b 21 1e be a2 0a 00 00 11 54 00 00 c6 4b 00 00
       -0.15442364 3.814e-42 3.0157e-41 2.7182e-41
0000f0 f2 50 9b be 0f 99 00 00 66 25 00 80 84 91 00 80
       -0.30335194 5.4907e-41 -1.3416e-41 -5.2201e-41
