cmd/ai/datas/models/icecream.onnx (onnx, 302121 bytes, 16 tensors)

fc.weight f4 [2, 256]
000000 e7 f8 01 3d 94 49 a1 3d 2a ef 03 be b1 eb bd bd
       0.031731512 0.07875362 -0.12884203 -0.0927347
000010 6d 68 df bd ad fa f2 bd 85 3c 56 bd 28 52 22 bd
       -0.109085895 -0.11864219 -0.05230381 -0.03962913
000020 a7 47 d3 bd cc 7f e0 bd 18 01 37 bd a6 21 00 3d
       -0.10316401 -0.10961875 -0.044678777 0.03128209
000030 24 66 06 3d b0 8e 93 3d d6 f3 dc bd 60 0a ca bd
       0.032812253 0.0720495 -0.107886955 -0.0986526
000040 45 31 91 3d f1 34 4d 3d 52 80 df 3d 46 ee f7 3d
       0.070894755 0.050099317 0.10913147 0.12105994
000050 ee e8 c6 bc fb 30 07 3e 1c 41 1b 3d a5 e2 f2 3d
       -0.024280991 0.13202278 0.03790389 0.11859635
000060 f1 a5 b1 3d dd f0 21 3d b5 57 31 bd 27 7e a8 bd
       0.08674229 0.039536346 -0.043296535 -0.08227187
000070 28 33 66 bd 8f c1 c5 bd 3a 66 3b 3d d2 51 66 3d
       -0.05620113 -0.09656059 0.045751788 0.056230374
000080 cf d6 44 3d 80 d6 ad bc c0 8f ee 3d 72 6b 84 3d
       0.04805642 -0.021220446 0.11648512 0.06465806
000090 53 68 a2 bd de ab bf bd 9c 95 6d 3d 10 80 68 3d
       -0.079300545 -0.09358953 0.058004007 0.056762755
0000a0 6c 02 88 bd 91 21 e2 bd c9 e3 94 3d bd f8 8f 3d
       -0.06641087 -0.110415585 0.07270009 0.07029865
0000b0 0d 9f 45 ba 6c a4 3e b9 f7 4d 79 3a b8 f9 ee ba
       -0.0007538654 -0.00018181064 0.0009510214 -0.0018232381
0000c0 ca 41 6c bd 36 6f 94 bd 75 30 ad 3d 41 f4 a7 3c
       -0.05767993 -0.07247774 0.08456508 0.020502212
0000d0 98 b4 07 3e b5 ee 8d 3d 40 18 f1 3d 1d 94 99 3d
       0.13252485 0.069302954 0.117722034 0.074989535
0000e0 6e 9c d5 3d e0 a6 46 3d 27 05 cc 3d ae 66 be 3d
       0.10430227 0.04849899 0.0996192 0.09296928
0000f0 4e 39 7a bc 49 e7 85 3c e3 12 c9 bc 4c f2 de 3c
       -0.015272452 0.016345637 -0.024545139 0.027215146
000100 fb d2 9f 3d cb 08 b2 3d 30 d8 32 be 96 a8 1b be
       0.07803913 0.086930834 -0.17465281 -0.15201029
000110 38 3d 4f bd 7d 62 94 bd a5 41 b7 3d e5 8a 79 3d
       -0.050595492 -0.07245348 0.089480676 0.060923476
000120 d9 8a eb 3b fb c4 e7 3b 32 47 fb bb 98 64 24 bb
       0.007188183 0.0070730424 -0.0076683993 -0.0025084373
000130 74 e8 9d 3c 89 6c 74 3a db a1 32 bd 00 0b 57 bc
       0.019275881 0.00093240343 -0.04361139 -0.013125181
000140 a0 3b 13 3b 42 fe 3a 3c 4a 8a c4 bc 5a a1 50 bc
       0.002246596 0.011413159 -0.023991723 -0.012733782
000150 4f d3 0d bb 77 d0 f0 3a 17 8c 57 3b 18 76 97 ba
       -0.0021640842 0.0018372674 0.0032889897 -0.001155558
000160 38 f6 70 3c 1a ac 12 be 1f 99 2c 3c 59 2d a5 bd
       0.014707141 -0.14323464 0.010534554 -0.0806529
000170 8d 7b 0d be 9a f3 2e be 9e 0d 8e bd 5a 94 0e be
       -0.13816662 -0.17085114 -0.06936191 -0.13923779
000180 d6 73 8f 3b 4a 03 00 bb db 87 a3 3b ab 3e 9c 3b
       0.0043778224 -0.001953321 0.0049905605 0.004768213
000190 22 b7 e1 3d 72 7c 99 bb aa 3f bf 3d 17 5c 98 3d
       0.11021258 -0.0046840245 0.09338315 0.0743944
0001a0 d8 3c b3 3c 24 9b e6 3c 78 d6 40 bd 88 21 87 bd
       0.021879598 0.028150149 -0.047079533 -0.065981925
0001b0 a8 64 94 bd d2 b0 28 bd 68 f4 bf 3d 3b b5 1b bc
       -0.07245761 -0.041184254 0.09372789 -0.009503658
0001c0 99 7c 84 3c 46 17 2c 3d a0 a5 1a bd 48 5d 0a bd
       0.016172694 0.042014383 -0.03775561 -0.033780366
0001d0 dc f4 06 be 4e ba 48 be af 44 18 bd 51 4f f6 bd
       -0.13179344 -0.1960232 -0.037174877 -0.12026847
0001e0 7b c8 b0 3d b2 f1 24 3d 94 7d 08 3e f9 87 92 3d
       0.086319886 0.04026956 0.13329154 0.07154841
0001f0 b0 11 ed bd e8 c9 bb bd bc 7c 66 3d 0d 9a 49 3d
       -0.11575639 -0.0916937 0.0562713 0.04921918
000200 2f 12 03 3b 4d 3d 02 bb 2a 69 26 bb 63 a0 94 bb
       0.0019999852 -0.0019872964 -0.0025392273 -0.004535721
000210 fc c1 d0 bb 8f aa db 3d 82 a2 02 3e 04 13 40 3e
       -0.006370781 0.10725891 0.12757304 0.18757254
000220 cb e9 c4 3d 97 0f c0 bc a0 d5 cf 3d 59 72 31 bd
       0.09614905 -0.023444934 0.101481676 -0.04332194
000230 a5 6a 13 3e 22 5f bb 3d a9 86 09 3d 83 28 a6 3d
       0.1439615 0.091490045 0.033575688 0.08113196
000240 bf bf 0d ba fe 5d f0 38 72 4c bf 3a 4a d9 a0 ba
       -0.00054072955 0.00011461599 0.0014594926 -0.0012271788
000250 8e 3d 7d 3d 96 96 89 3d 28 95 e0 bd 06 81 df bd
       0.06182628 0.06718175 -0.10965949 -0.10913281
000260 32 32 86 bd f4 37 83 bc 12 a5 bf 3c 80 78 7b 3d
       -0.06552543 -0.016017891 0.023394141 0.061394215
000270 f9 e2 b7 3d e0 06 95 3d f9 38 36 3e fe e4 fe 3d
       0.089788385 0.07276702 0.17795171 0.124460205
000280 94 e8 cb 3d 64 6f 98 3d 65 8b 32 3e 32 e6 f0 3d
       0.0995647 0.07443121 0.17435987 0.11762656
000290 3f 91 95 3d dc 01 2a 3d c0 74 0a bd b9 d3 c4 bd
       0.07303094 0.04150568 -0.033802748 -0.096106954
0002a0 0a 1b 1a be 5c 24 0c be d1 8f 0f bd 35 ac 45 bd
       -0.15049377 -0.13685745 -0.035049263 -0.048259933
0002b0 fa a9 28 3d f6 96 88 3c eb 73 48 bd 88 0c c1 bc
       0.041177727 0.016673546 -0.048938673 -0.023565546
0002c0 88 35 0f 3e 52 6e 04 3d 56 51 0f 3e 17 22 e4 3d
       0.13985264 0.032331772 0.13995871 0.111393146
0002d0 ad 93 19 bd da 7d 53 3d 44 b1 b3 bc 7b a7 94 3d
       -0.03749435 0.051633693 -0.021935113 0.07258507
0002e0 85 9e c7 bd 41 22 90 bc fc 9e 40 be 4e 19 05 be
       -0.09747032 -0.017594459 -0.18810648 -0.12997934
0002f0 8d 11 74 bd a2 7b c2 bd ce 1b 71 3d 01 6a bc 3d
       -0.05958705 -0.09496237 0.058864407 0.09199906
000300 d5 0e c1 bc 65 61 62 3c 64 fd 5d bc 99 62 37 3c
       -0.023566643 0.013817166 -0.013549183 0.011192941
000310 6f e2 90 3d cb f0 cb 3d 94 ec de bd ab 36 d6 bd
       0.07074439 0.09958037 -0.108849674 -0.10459646
000320 28 c6 f2 3d 7a 50 4f 3c 51 ce 3c 3e f0 63 e8 3d
       0.118542016 0.012653464 0.18438078 0.113471866
000330 c6 ef 41 3d 8f cb 19 3d 54 68 06 bd 1b 7c 89 bc
       0.047347806 0.037547644 -0.03281434 -0.01678281
000340 69 cd c4 bd 26 d9 03 be d8 10 de bd 70 09 22 bd
       -0.096094914 -0.12875804 -0.108430564 -0.03955978
000350 87 7c 55 3c 9d 0f f5 3c be 9c 88 bb f2 10 cd 3d
       0.013030178 0.029914672 -0.0041690757 0.10012998
000360 20 f0 ef bc 89 61 c3 bd e1 c3 37 be f5 68 19 be
       -0.029289305 -0.09540088 -0.17945816 -0.14981444
000370 dd e8 85 bd 89 aa 62 bd 39 69 57 3d 0f 4b 7b 3c
       -0.06538556 -0.055338416 0.052590583 0.01533772
000380 81 e8 3a 3c 60 e4 fd bb e2 36 63 bc 74 53 83 3b
       0.011407972 -0.0077481717 -0.013868066 0.004007751
000390 39 85 32 3c f2 f5 b3 3d 1c 63 bb bd c5 c8 9a bd
       0.010896021 0.08787145 -0.09149763 -0.07557825
0003a0 36 a2 ba bd 52 92 e0 bd cd 26 da 3d bd 05 f7 3c
       -0.091129705 -0.109654084 0.10651932 0.030154103
0003b0 60 c9 dc bc d6 54 30 3d bd fa da 3b c1 3b 54 3d
       -0.026951492 0.043049656 0.0066827224 0.0518148
0003c0 5c 62 d5 bc 91 75 66 bc b1 c0 4f 3c 87 f6 b1 3c
       -0.026047878 -0.014066116 0.012680219 0.021723999
0003d0 50 93 a9 3d ff ea cb 3c fc a5 8e bb 31 f4 b9 bd
       0.08280051 0.024892328 -0.004353283 -0.09079779
0003e0 c5 6e 2b bd 5b fe 08 be 01 d7 ff bb 92 5c 9e bd
       -0.041853685 -0.13378279 -0.007807613 -0.077325
0003f0 0f 00 4f 3d 46 d5 cf 3b bb a9 21 be 45 56 23 be
       0.050537165 0.006342563 -0.15787403 -0.15950878

fc.bias f4 [2]
000000 d7 57 da 3b 69 15 91 3d
       0.0066633034 0.07084162

onnx::Conv_80 f4 [16, 3, 7, 7]
000000 9b 54 a6 bd e3 d8 fd bd 8f 44 3c 3d 77 50 3d 3e
       -0.08121606 -0.123948835 0.04596382 0.18487726
000010 e7 d5 64 bc 4c 27 7d 3e fd 3d 49 3d 8e 46 09 be
       -0.013967014 0.24722022 0.049131382 -0.1340582
000020 a2 a5 bd bb b4 06 8e 3e 87 7d 99 3e 47 32 e3 3d
       -0.0057875672 0.2773949 0.29978582 0.11093574
000030 ae 9d 89 3d aa 86 73 3e 19 c1 26 be b3 bb 1a 3e
       0.06719528 0.23781839 -0.16284598 0.15110664
000040 6c 8e 22 3e ea 0a 49 bd 4d b9 8f 3e 0d ef 8e 3e
       0.15874642 -0.049082674 0.2807106 0.27916756
000050 49 57 98 3e 7d ab 15 3d f2 b0 a0 3c 17 a2 97 3d
       0.29754093 0.036540497 0.019615624 0.07403963
000060 f8 8c 98 3c 06 49 fd 3b 8c 8f e9 3d 96 5d 48 3e
       0.018621907 0.0077296523 0.114043325 0.1956695
000070 94 86 b6 bd 40 f2 3d be 9b 37 a1 3d 4c 72 be bd
       -0.089123875 -0.18549442 0.07871934 -0.09299144
000080 7f 3e 0a 3e e6 e5 f6 3d 5f 27 b6 3d 44 be 46 be
       0.13500403 0.120555684 0.08894228 -0.19408518
000090 78 fe 39 bd 03 54 20 3e 3d 9d 99 bd 88 5f 87 bd
       -0.045408696 0.15657048 -0.07500694 -0.06610018
0000a0 5b 68 da bd c3 bf 30 3d 19 25 34 be 9d 69 9d 3d
       -0.106644355 0.04315163 -0.17592277 0.0768616
0000b0 d8 37 1f be da be 9e bd 4f fc 22 be e8 89 80 be
       -0.15548646 -0.07751246 -0.1591656 -0.25105214
0000c0 a1 6a 30 be ad 69 79 3d f3 33 16 be b3 87 87 be
       -0.17228176 0.060891796 -0.14668255 -0.26470718
0000d0 d2 f9 ba bd 73 54 6b be 2b d8 1d be 27 aa 4b be
       -0.09129681 -0.22981434 -0.15414493 -0.19889127
0000e0 46 b8 57 be 04 ca 1b be 7a 94 ed bc 0c d1 9f be
       -0.21066388 -0.15213782 -0.029001463 -0.31214178
0000f0 ab 49 89 bd 01 dc 78 be df 86 e2 3d 34 a9 2e be
       -0.06703504 -0.24302675 0.11060881 -0.17056733
000100 fa b4 2e be 58 b5 99 be 01 d6 0d be b7 96 91 be
       -0.17061225 -0.30021167 -0.13851167 -0.284353
000110 f8 c9 84 be 7b 0c 0d 3d 86 ea 10 be 1e 8c 7a be
       -0.2593534 0.03443573 -0.14151964 -0.24467513
000120 35 df 19 bd 6f 83 1e be f0 2d 3c be 11 45 e7 bc
       -0.037566382 -0.15479825 -0.18376899 -0.028231176
000130 b2 d7 5d be f6 5c 85 3d f2 10 d3 3d c4 3d 99 bc
       -0.21664312 0.065118715 0.103059664 -0.01870621
000140 ee 58 5d 3e 13 b8 6a 3e 27 4f 49 bd 0e ff a7 3c
       0.21615955 0.22921781 -0.04914775 0.020507362
000150 b7 3e 76 3e 08 43 16 3e b8 ce 3c 3e a6 82 29 3e
       0.24047361 0.14674008 0.18438232 0.16553745
000160 f0 fa e4 3c 6f 24 ce 3c 62 91 91 bd 0e b1 0b 3e
       0.027951688 0.025163857 -0.07107808 0.1364176
000170 77 ac 8b 3e 90 09 44 3e f4 11 87 3e 97 ee 76 3e
       0.27280018 0.19144273 0.26380885 0.24114452
000180 3c f3 2d 3e 02 f3 d4 3d 06 c8 53 be b3 31 a8 bd
       0.16987318 0.103979126 -0.20681772 -0.082126044
000190 b6 0c c9 bd 98 0e ef 3c 8f 2f b7 bd 5c 57 43 be
       -0.098168775 0.029181764 -0.08944618 -0.19076294
0001a0 1c 10 4d 3d 0d a2 1a be 85 d8 ad bd c4 a7 37 be
       0.05006419 -0.1510088 -0.084885634 -0.17935091
0001b0 ab 9f 82 bd 12 4b b3 bd a2 80 e7 bd a6 f9 4c be
       -0.063781105 -0.08754553 -0.11303832 -0.20017108
0001c0 35 68 7c be d6 e5 0a be 71 86 81 be a7 85 64 be
       -0.24649127 -0.13564238 -0.25297883 -0.2231661
0001d0 ce 43 3d 3d 44 18 e5 3d 98 ea a8 bd fc 7f 38 be
       0.04620724 0.11186269 -0.0824787 -0.18017572
0001e0 80 f2 b9 bd bf c2 b7 bd 26 fd 19 3d fc 6d 40 3d
       -0.09079456 -0.08972692 0.037594937 0.04697989
0001f0 fc 67 64 3c 33 8c 12 3e 63 f5 00 bd 13 aa 14 3e
       0.013940807 0.14311294 -0.03148402 0.14518003
000200 13 df 30 3e 43 c0 4b 3e 91 70 6a 3e 3f e8 52 3e
       0.17272596 0.19897561 0.22894503 0.20596407
000210 d2 53 07 3e 7e 03 56 3e 1a 14 98 3b 6a a0 29 3d
       0.13215569 0.2089977 0.004641068 0.04141275
000220 c0 6f a7 3e 77 c2 af 3d 88 b2 e2 bc df 8f d6 3c
       0.32702446 0.08582013 -0.027673021 0.02619165
000230 e7 1d d8 3d fd e4 8b 3e 21 83 4b 3e cb ef 40 bc
       0.105525784 0.27323142 0.1987424 -0.011775921
000240 51 29 e1 3c f9 bb 26 3c 16 c9 82 3b ea 03 e6 bc
       0.027485522 0.010176652 0.0039912565 -0.028078038
000250 df 1c 30 bd 6b 38 10 bb 59 f5 17 bd 08 eb fb bb
       -0.042996284 -0.0022006284 -0.037099216 -0.00768793
000260 7c 6e 2d bd e7 11 78 bc 00 f0 89 bd 7f ef 85 bd
       -0.042341694 -0.015140987 -0.067352295 -0.06539821
000270 9b 21 b2 bd 71 42 72 bd c6 e2 d3 bc f6 f8 2d 3c
       -0.08697816 -0.059145395 -0.02586497 0.010618439
000280 6d 8f dd 3c 5b 8a 16 bd 91 8e c0 bd 3e 3d 5c bd
       0.02704593 -0.03675304 -0.094021924 -0.053769343
000290 42 b6 f7 bc 25 c6 68 bc 1a 1e bf 3b b8 30 b6 3c
       -0.030238274 -0.014207398 0.005832446 0.022240028
0002a0 27 14 9c 3c c5 8f 35 bd b5 50 4f bd d4 ab 41 bd
       0.019052578 -0.044326562 -0.050614078 -0.04728301
0002b0 97 c7 e8 bc ae 65 d8 3c b7 b8 2b bc 6b 33 be bc
       -0.028415484 0.026415672 -0.010481051 -0.023217877
0002c0 4e c6 ff bc 7b 92 8d bc 08 27 bf 3c b9 ac 2c 3c
       -0.031222489 -0.017281761 0.023334041 0.010539227
0002d0 df 7a 62 3c 94 75 52 bd 6b f0 47 bd 40 e5 53 bd
       0.01382324 -0.051381662 -0.048813265 -0.0517323
0002e0 b4 e9 2c bd 9c 6f a6 bc e3 fb f0 bc 7e c2 16 bd
       -0.042215064 -0.020316891 -0.029416984 -0.036806576
0002f0 d1 8f 56 bd 3d a3 9f bc b8 08 1b bc c0 df d9 3c
       -0.052383248 -0.019487018 -0.009462528 0.02659595
000300 f6 10 bf bc 5f 67 29 bd af c7 ac bd 34 91 8e 3c
       -0.023323517 -0.041358348 -0.08436524 0.017403223
000310 02 49 51 bd af 60 9a bc 3b 7a a3 bb 5e 95 56 bd
       -0.051095016 -0.01884493 -0.0049889362 -0.05238854
000320 cb b4 d8 3b ea 97 80 bd 8d 6a 56 bd b7 b5 07 bd
       0.006613349 -0.06278975 -0.05234771 -0.03313228
000330 27 ce c9 3c d1 1e d2 3c ee 26 5b 3d 7f e3 a3 3c
       0.024634434 0.02564946 0.053503923 0.02000594
000340 bd 22 0e 3d e8 3c 5e 3c 88 15 da bc 5c 37 a3 3c
       0.034701098 0.013564326 -0.026621595 0.019923858
000350 4c a0 52 3c 01 ea 09 3d cf 67 f4 3c ca d4 64 3d
       0.012855601 0.03367043 0.029834656 0.055866994
000360 53 a1 c6 3b 5b 18 e3 3b 87 6a 8c bb ac 67 5f 3c
       0.006061712 0.0069303936 -0.00428516 0.013635557
000370 9a bf 51 3d b9 77 2c 3d 27 55 87 3d 02 3b ce 3b
       0.051208116 0.042106364 0.066080384 0.0062936554
000380 4c 2c f2 3c 2c 99 d4 3c 87 c4 7a 3b 7f 4d 35 3d
       0.029562138 0.025951944 0.0038264112 0.04426336
000390 7a 28 26 3d 84 a4 46 3d 3a 00 b1 3b db 83 d5 3b
       0.040565945 0.048496738 0.0054016383 0.0065159625
0003a0 fc 59 1b 3d 71 b2 9c 3d 97 e9 b8 3d 23 77 78 3c
       0.037927613 0.076512225 0.09028929 0.015165123
0003b0 90 ea a7 bb 3e 5b b8 3c 24 72 a5 3d e0 15 54 3d
       -0.0051243976 0.022504445 0.08078411 0.051778674
0003c0 64 56 0d 3d 80 82 46 3d 3a 9a 13 3d 7b 72 bb bc
       0.034506217 0.0484643 0.036035754 -0.022881737
0003d0 d3 32 42 bd 50 21 b7 3c 56 26 b8 3d b8 92 14 3d
       -0.04741175 0.022354752 0.08991687 0.036272734
0003e0 6d c6 df 3d 89 bb b4 3d 3a 45 8b 3d 3d a4 6a 3d
       0.109265186 0.08824832 0.06800313 0.057285536
0003f0 bc 12 6d 3c 9d 8d 59 3d 01 3e 84 3d ad 42 62 3d
       0.014469799 0.05311357 0.06457139 0.05523937

onnx::Conv_81 f4 [16]
000000 70 2f c9 bd 25 5b 27 bf 5d c7 a4 be 68 39 8e bf
       -0.09823501 -0.6537345 -0.32183352 -1.1111269
000010 41 28 0a bd 3a 89 5f 3f ef 0c 14 bf 80 ba 00 bf
       -0.033729795 0.87318766 -0.57832235 -0.50284576
000020 58 12 35 3f fa 1b 62 bf a8 ba 8c 3e 43 54 5b bf
       0.70731115 -0.8832394 0.27486157 -0.8567545
000030 80 f5 2c bf 90 05 d6 bc 05 61 6c bf d3 f2 81 3f
       -0.67562103 -0.0261257 -0.9233554 1.0152229

onnx::Conv_83 f4 [32, 16, 3, 3]
000000 4d 29 4c 3d 39 82 19 3d 96 0b f1 bc e2 b3 19 bc
       0.049844075 0.037477706 -0.02942447 -0.009381266
000010 74 2d 04 3b cd 87 41 bd 7b b8 0d 3d 90 21 a4 3d
       0.0020168694 -0.04724865 0.034599762 0.08014214
000020 b2 ce 06 3c c1 aa 63 bc 83 08 be bc 59 0b 22 bd
       0.008227991 -0.013895691 -0.023197418 -0.039561603
000030 c5 cb e6 bc 12 ef 54 bd b0 8c 68 bd 52 44 22 bd
       -0.028173337 -0.051985808 -0.056774795 -0.039615937
000040 b9 61 1f 3c d2 f9 d8 bc a1 18 11 bb 93 02 7f 3b
       0.009727889 -0.026486311 -0.0022139924 0.0038911446
000050 1a 43 99 bd fd d1 20 bd d9 83 48 bd 2d 60 cf bd
       -0.07483502 -0.03926276 -0.048953865 -0.10125766
000060 e5 48 3d bd ef 3e c2 3b 4e 3d 44 3d 3d 79 2f bd
       -0.046212096 0.0059279124 0.047910027 -0.04284023
000070 37 be 19 bd ff 42 11 bd f0 cc 82 bd 20 b2 26 bd
       -0.03753492 -0.035464283 -0.06386745 -0.040697217
000080 15 7d b9 bc ef 6d 25 bd 75 43 16 bc 7f 57 31 bc
       -0.022642652 -0.040388044 -0.009171356 -0.010824083
000090 c9 57 a8 3b 62 a2 72 37 6c 6d 18 bc a4 e5 2a 3b
       0.005137418 1.4462132e-05 -0.009303432 0.0026076818
0000a0 dd 26 18 3d e2 d7 2e bd 06 2b 9a 3c 5c 1d 8f 3c
       0.037146438 -0.04268635 0.018819343 0.017470054
0000b0 a0 de 8d 3c 06 6c 64 3d 6d 6c 0a 3d af 9a 83 bd
       0.01731807 0.05576708 0.03379481 -0.06425988
0000c0 25 e9 a1 ba 6a ae 2e bc 95 85 2a bd a2 85 37 bd
       -0.0012352808 -0.010661701 -0.0416313 -0.044805177
0000d0 dd 3c ba bc 1b dd 87 bb e0 50 0b 3d a2 a4 38 bc
       -0.0227341 -0.004146231 0.034012675 -0.01126972
0000e0 a2 9c a1 3c 51 60 e2 bd 5d 40 cb bc d4 d3 f9 bb
       0.019728009 -0.11053527 -0.024810964 -0.007624129
0000f0 74 8f a5 bd ea 65 30 bd 34 7f c8 3c 87 98 9e bc
       -0.08084002 -0.043065943 0.024474718 -0.01935984
000100 d3 61 2c 3c 4f 68 1c 3b cf 84 e5 bc 27 a7 fb bc
       0.01052137 0.0023865884 -0.02801743 -0.030719353
000110 fc 41 32 bd d1 aa ae bb ab 23 df ba d2 f1 1c bd
       -0.04351996 -0.0053304215 -0.001702418 -0.038316555
000120 f3 ad 8b 3b 93 29 86 3d c6 44 fe 3c f8 09 33 bc
       0.0042626797 0.065508984 0.031038653 -0.01092767
000130 88 46 b8 bb f4 e1 1d 3d 3b 7a 57 bc f2 12 61 3d
       -0.0056236424 0.038545564 -0.013151701 0.05494971
000140 17 c4 d8 3d 7a f3 69 bc b7 72 21 bd 64 4f f6 bc
       0.10584276 -0.014279241 -0.03941604 -0.030067153
000150 5b 26 4e bd 30 8c 52 bd 5c 89 ec bc e5 34 f3 bc
       -0.050329547 -0.051403224 -0.028874092 -0.029688308
000160 10 8a 81 bc d6 29 cd bc 2b 69 98 3d aa b2 d8 3d
       -0.015812904 -0.025044363 0.07441934 0.105809525
000170 4a e5 aa 3d 72 c3 08 bd 0d 94 9a bb cf 70 13 bd
       0.08344515 -0.033389516 -0.004717356 -0.035996255
000180 2e 0c 51 bd 72 c4 c4 bc d7 c8 ba bd 56 7d a3 bc
       -0.051037006 -0.024019454 -0.091203384 -0.019957226
000190 dd a4 9d bc dd 12 d3 bb d1 85 0d bd 3d 47 0d bd
       -0.019243652 -0.0064414577 -0.034551445 -0.034491766
0001a0 76 94 07 bc 60 1f bc bc c5 a4 76 bc 1d 38 0c ba
       -0.008275142 -0.02296418 -0.015053933 -0.00053489377
0001b0 79 6d d9 3d ec 81 f8 3d b7 f3 fe 3d 41 87 29 bc
       0.106165834 0.12134156 0.12448829 -0.010347188
0001c0 36 70 22 3d 6d f0 d8 bb 4f 6a 81 bc 5c a2 9c 3c
       0.039657794 -0.006620458 -0.015797762 0.019120388
0001d0 48 c7 09 bd 18 c8 b7 3c 5e 45 00 bd 14 71 5d bd
       -0.033637315 0.02243428 -0.031316154 -0.054062918
0001e0 6c f6 15 bc 08 11 34 bc 10 67 88 bc ea b6 c9 3c
       -0.00915299 -0.010990389 -0.016650707 0.024623353
0001f0 f4 95 8f 3d 04 57 96 3d 8d fd 8e 3d 05 23 0c 3d
       0.07011023 0.07340816 0.06981955 0.034213085
000200 1a 4c 5f 3b c4 0b 31 3c 5e 35 92 3c 9d 93 c4 b9
       0.003407246 0.010806028 0.017847713 -0.00037494014
000210 ff 50 ea 3c 1f d4 3a 3d 7b 4f 03 3d ea 66 27 bc
       0.028603075 0.04561245 0.03205822 -0.010217408
000220 31 9f 30 3b c4 03 03 bd ba 2e cf bc 18 ea 93 bd
       0.0026950354 -0.031986013 -0.025290836 -0.07222384
000230 cd 81 9a bd d7 e1 93 3b 43 13 91 bd 1c d3 87 bd
       -0.07544289 0.004513006 -0.07083752 -0.06632063
000240 ad 16 3e bd 21 63 27 3d f8 b6 f1 3c 98 2b b3 bc
       -0.046408344 0.04086602 0.029506192 -0.021871373
000250 b6 6e b9 bc f5 a8 97 3a c3 41 73 3c 8c 8e b6 3b
       -0.022635799 0.0011570739 0.014847222 0.005571192
000260 b5 c4 43 bc 61 c9 d9 3b 82 2d e0 3c 5d 5f bc bc
       -0.011948754 0.0066463207 0.02736545 -0.022994692
000270 6e 0d f0 bc 98 ef 52 3c e0 2c 69 bb 56 25 8e 3c
       -0.029303279 0.012874506 -0.0035579726 0.017351788
000280 5f 9b 52 3b f7 a3 3b bb 5a 43 be 3c 26 ec e0 3c
       0.0032136065 -0.0028631666 0.023225475 0.027456354
000290 9e 40 3b 3d 2c ec 89 bc e5 e5 49 3d 31 c9 88 3d
       0.04571592 -0.016836248 0.04929151 0.06678999
0002a0 5c 18 17 bd f1 a6 31 bd d7 a2 9c 3b 94 a2 86 ba
       -0.036888465 -0.0433721 0.004780154 -0.0010271841
0002b0 3e 12 a6 3c 4a c1 91 bc 4b e2 67 bc b6 de 0d bb
       0.02027237 -0.017792363 -0.014153074 -0.0021647639
0002c0 0e 7c 50 bb 4c 3d 39 bb 07 f8 04 bc ca b2 5c bc
       -0.0031812224 -0.0028265296 -0.008115775 -0.013470361
0002d0 15 50 a3 3d a8 ed 65 3a 90 a7 a8 bb ce bc 61 3d
       0.07974259 0.000877107 -0.005146928 0.0551117
0002e0 b8 8f 6c 3d 09 11 94 bc aa 0d 84 3d 93 45 66 3d
       0.05775425 -0.01807453 0.06447919 0.056218695
0002f0 52 ef 28 bb fa 8c 5a 3c 0e d4 a0 3c 69 f8 06 3d
       -0.0025777412 0.0133392755 0.019632366 0.032951746
000300 18 66 65 3c 4a 17 f5 bb 99 41 a0 3c 26 a5 0c bd
       0.014001392 -0.007479583 0.01956253 -0.034337185
000310 c8 d8 fa 3b c7 db b7 bc e1 a5 e7 3a 82 10 ae 3d
       0.007655237 -0.022443665 0.0017673337 0.08499242
000320 a3 2a e8 3c 0c 1a 32 3d ea d1 63 3d 01 88 45 3c
       0.028340643 0.04348187 0.05562011 0.012056352
000330 8d 7b 06 3d a8 66 5b bc 16 47 08 bd 1a 71 de 3c
       0.03283267 -0.013391174 -0.033270918 0.02715354
000340 f7 4e 00 bb 3c 40 47 bd d8 83 59 3c 69 d5 63 3c
       -0.0019578317 -0.048645243 0.013276063 0.013905861
000350 86 f4 1c bd ed 6d 8b 3c fd 8f b0 3b 6b 69 fb bc
       -0.038319133 0.01702019 0.0053882585 -0.030689916
000360 03 ff 1d 3d 96 eb 42 3d 3b 36 2f 3d b2 e4 50 3d
       0.038573276 0.047587954 0.042776328 0.05099935
000370 80 22 0c 3d 68 49 c8 bc 79 f0 74 3d 64 74 0c bb
       0.03421259 -0.024449065 0.059799645 -0.002143168
000380 5f 2b 46 bd 19 2b 1d bc d6 42 d5 bb e6 c8 b8 bb
       -0.048381206 -0.009592795 -0.0065082116 -0.0056391833
000390 3c 89 18 3c 36 62 9d 3c 1d 66 01 bd 05 57 97 3c
       0.009310063 0.01921187 -0.031591523 0.018474111
0003a0 5b 27 56 3c 43 bd 11 3c d1 79 5f ba 48 b7 d9 bc
       0.0130709065 0.008895221 -0.0008524927 -0.026576653
0003b0 5e ca 2b bd 6b dc 94 bc a9 45 3d bc 9c a6 99 bc
       -0.04194104 -0.01817151 -0.011552253 -0.018756203
0003c0 a1 7f d8 bd ba fb 97 bd 46 48 80 bd 4a 83 af 3c
       -0.10571218 -0.0742106 -0.06263785 0.021424908
0003d0 eb 8e b3 ba 72 73 22 bc de c9 e1 ba 28 e2 df 3c
       -0.0013699209 -0.00991522 -0.0017226299 0.02732952
0003e0 f1 97 3c 3c 51 d3 f3 3c fd ab a3 3c c8 c2 c4 3b
       0.011510835 0.02976385 0.019979471 0.006004665
0003f0 fb 86 1d 3d f7 3e 7d bc 58 57 26 bd 33 23 25 3d
       0.038458806 -0.0154569065 -0.04061064 0.04031677

onnx::Conv_84 f4 [32]
000000 17 f0 18 3e ae f3 01 bf d0 c1 c0 3e b3 06 b8 3e
       0.14935337 -0.5076245 0.37647867 0.3594261
000010 9a 96 19 be 32 8e 4a be bf 94 11 bf a0 d5 30 bb
       -0.14998856 -0.19780806 -0.56867594 -0.00269828
000020 ea 7a 78 3e 99 26 71 3e 5c 3d d7 3d 4c 82 8f 3d
       0.24265638 0.2354988 0.1050975 0.07007274
000030 4a 1a 7a 3d 48 4d c3 3c cc 2b 74 3d 14 ef 08 be
       0.061060227 0.023840562 0.05961208 -0.13372451
000040 15 23 bc 3e b3 9b 7e 3e 75 93 a0 be fa a1 9f 3d
       0.36745515 0.24864082 -0.313625 0.077945665
000050 b0 f0 cf 3e 2a f4 91 3d 77 8f 1e 3e 4a 6e 8a bd
       0.40613317 0.07126649 0.15484415 -0.06759317
000060 a9 7e a4 3e d3 22 20 bd a0 5e 10 3e a6 67 be 3e
       0.32127884 -0.03909571 0.14098597 0.37188452
000070 80 93 39 3e 67 01 b6 3e de 4c bf 3e 3a 25 71 3e
       0.18122673 0.35547945 0.37363333 0.23549357

onnx::Conv_86 f4 [32, 32, 3, 3]
000000 12 79 67 bd 00 89 9f 3b 78 b9 7f bc 47 1e c0 bc
       -0.056511946 0.0048686266 -0.015608184 -0.023451937
000010 36 4e 25 3d 04 1c 28 3d 6d 17 13 3c 32 9f 8a 3d
       0.04035779 0.041042343 0.008977753 0.06768645
000020 5e 67 da 3d cd b8 c4 bc 55 f1 f3 3b 9b fe 6c 3d
       0.10664247 -0.024013901 0.0074445405 0.05786
000030 9f 73 56 bd ca 8c 4f bd bc 08 19 3d 07 8c db bb
       -0.05235636 -0.050671376 0.037361845 -0.006700042
000040 3a 69 fc 3c 0d e7 d5 3c b0 91 9f 3a e3 99 70 bc
       0.030811895 0.02611115 0.0012174156 -0.014685127
000050 21 bf bd 3c fe 2a 86 3d f2 ad 84 3d 85 c8 a0 3d
       0.023162426 0.06551169 0.0647849 0.07850746
000060 d1 1c 11 3d 01 65 ab 3c 90 85 43 3d 04 42 cc 3c
       0.035427872 0.020922186 0.047734797 0.024933822
000070 28 67 82 3d 70 31 a1 3d 64 2f 0f bd 4b 26 99 3c
       0.06367332 0.078707576 -0.034957305 0.018695017
000080 94 33 81 3c 04 4a b7 bd 03 f6 ff bc 75 aa ef bc
       0.015771665 -0.08949664 -0.031245237 -0.029256085
000090 7f 45 03 3c ba 8a 63 bc 05 90 35 3c 9c 41 2c 3d
       0.008012175 -0.013888055 0.0110817 0.042054757
0000a0 94 98 54 3d 0f 62 f2 3c 27 9f 79 3d 62 2c 13 3d
       0.051903322 0.029587774 0.060942795 0.035931
0000b0 bd da 4c 3d ae f2 f6 bc 6f 03 38 bd 31 a2 42 bc
       0.050013293 -0.030145016 -0.04492515 -0.01187949
0000c0 6b 05 35 bd 56 16 07 bd 19 1a 96 bc 8d 22 fa bc
       -0.04419462 -0.032980286 -0.018322991 -0.030534053
0000d0 9e 1e f3 bc b2 52 e6 bc ce 9c 86 bd e1 7c 04 bd
       -0.029677685 -0.028115604 -0.06572877 -0.032345656
0000e0 76 7a 0a 3d 9e 4d a7 bc e1 17 0c bc 1f cb 95 3d
       0.033808194 -0.020422753 -0.008550615 0.07314133
0000f0 9e 0f b9 b9 ab 98 d6 3d 00 36 02 3e 2f 64 23 bc
       -0.00035297585 0.10478338 0.12715912 -0.009972616
000100 e5 aa a6 bb ba 2c c7 bb f5 32 fd bb 66 cc d5 38
       -0.00508629 -0.00607833 -0.007727022 0.00010194704
000110 54 90 8c ba 21 85 32 bb 6e b4 44 3b cd f8 4c 3a
       -0.0010724165 -0.0027239996 0.003001477 0.00078190566
000120 89 fc 12 bd aa b0 32 bc 44 44 00 bc 60 6c fd bb
       -0.035885368 -0.010906378 -0.007828776 -0.0077338666
000130 db 84 83 3b 74 eb 1d 3c 04 63 8b bc 51 b6 e0 bb
       0.0040136403 0.009638656 -0.017014988 -0.0068576713
000140 fc 0f 08 bc 28 bc 97 bd 8f 1f 84 bd 9b 88 4c bd
       -0.008304592 -0.07408935 -0.06451332 -0.049934965
000150 df 84 ff 3c 8a 9f db bb 13 83 70 3c 00 cb a3 3d
       0.031191288 -0.006702368 0.014679688 0.079977036
000160 56 74 e1 bc e9 f2 4a bd 5a 6c 54 bd c4 a0 72 bd
       -0.027521294 -0.049548063 -0.051861145 -0.05923535
000170 85 b8 de bc 9d 28 86 bc b3 35 2f bd 90 b7 1c bd
       -0.027187595 -0.016376788 -0.04277582 -0.038260996
000180 2d 01 3f 3c 71 a0 89 bc fd 8b 28 b9 39 9d 10 bb
       0.011657995 -0.016800137 -0.00016073878 -0.0022066368
000190 1f 31 64 3c ea 71 08 3d 59 74 41 bd aa 9d 6f bc
       0.013927727 0.033311762 -0.0472301 -0.014624992
0001a0 23 56 8e ba 7d ea ae bd 11 4f 21 bd 2b 52 0d bb
       -0.0010859411 -0.08540819 -0.039382044 -0.0021563869
0001b0 12 4a 32 3d 4a 67 cb 3d c5 49 c3 3d cb a6 78 3d
       0.04352767 0.0993181 0.09535555 0.06070594
0001c0 af 04 bb 3d e7 ea 8a 3d a3 02 b1 3c ad cc 44 3c
       0.09131753 0.06783085 0.021607703 0.012011689
0001d0 42 b2 13 3d 4a 55 52 bc 2c 8f 14 bc 1b 74 18 bc
       0.03605867 -0.012837717 -0.009067338 -0.009305025
0001e0 28 4a 30 bd b9 b3 97 3c 9d 97 1c 3c fa 57 f8 3c
       -0.04303947 0.018518316 0.009557632 0.030315388
0001f0 bf 7f bc 3d e5 fb de 3d ba 57 1b bd 09 d8 10 be
       0.09204053 0.10887889 -0.03792546 -0.14144911
000200 87 a9 13 bd 06 57 d4 3d 46 9a ae bc c3 96 9f 3a
       -0.036050346 0.10368161 -0.021313798 0.0012175668
000210 b7 58 a3 3d f4 e5 8b 3c 53 fd ac 3b be a8 b4 bd
       0.079759054 0.017077424 0.005279222 -0.088212475
000220 96 b9 05 bd cd 49 55 bd 88 26 14 be d1 6c c6 bc
       -0.03264769 -0.052072335 -0.14467824 -0.02422181
000230 f7 d3 b7 bd e6 bd 9f bd 35 31 e2 3c 17 17 95 bc
       -0.08975976 -0.07799892 0.027611354 -0.018199487
000240 c1 7f a3 bc 5b ff 55 3d a8 b7 ab 3c aa 71 76 3c
       -0.019958379 0.05224548 0.020961598 0.015041748
000250 02 70 a9 3d fa 97 45 3d 02 ca 36 bd f2 3d c5 3b
       0.08273317 0.04824064 -0.044626243 0.0060193473
000260 fe 10 1a 3d f0 d8 a1 bd 9a 19 1f bd 6f 37 1b bd
       0.03761386 -0.07902706 -0.038842775 -0.037894662
000270 6c 69 80 bc 1c 73 6c 3b 31 ba df 3c 5c e8 cd 3c
       -0.015675269 0.0036079353 0.027310463 0.025135212
000280 96 72 30 bc ef 9e ef 38 db 2a d8 bd f1 67 12 bd
       -0.010769507 0.00011426012 -0.10555049 -0.035743657
000290 dd c0 c0 bd 84 22 0c be 4c 10 40 bd 79 65 4b bd
       -0.09411786 -0.13685042 -0.046890542 -0.04965732
0002a0 ec d4 85 bd 2d 81 ca 3b 08 8d e3 bc 01 6b 23 3d
       -0.06534752 0.0061799497 -0.02777721 0.03989697
0002b0 31 18 71 3d c8 34 cd 3d d2 dc 8c 3b 5c 9e 0a 3c
       0.05886096 0.10019833 0.004298785 0.008460607
0002c0 42 76 c4 3d f8 ab 20 3b df e0 2c bd 84 4f 37 3d
       0.095928684 0.0024516564 -0.04220664 0.044753566
0002d0 c1 27 49 bd 30 dd 53 bd f1 0c 25 bd 2e 57 dd 3c
       -0.049110178 -0.051724613 -0.040295545 0.02701911
0002e0 92 eb 54 bb 7b 7c 54 3c 6f 9c 63 3c 13 88 72 39
       -0.0032489044 0.012969132 0.013892277 0.0002312961
0002f0 ae 54 bb bb d3 d4 86 3c 45 89 a6 3b bd 06 bc bb
       -0.0057168817 0.016458904 0.005082282 -0.005738108
000300 38 97 8d 3c c4 fd a1 3c 4c 06 62 3d f1 b0 c6 3c
       0.01728402 0.019774325 0.055181786 0.024254294
000310 e4 24 35 bc d4 8f 0c 3d 08 80 42 bd e2 f7 8c bc
       -0.011056159 0.034316853 -0.04748538 -0.017208043
000320 c9 e8 ae bc ba fb fa 3b 9f 3b 8a 3c 21 87 30 3c
       -0.021351235 0.0076594027 0.016874133 0.010774405
000330 18 2a e0 b7 ca 7e 4d 3b b6 76 da 3b f3 71 c7 3c
       -2.6722482e-05 0.003135609 0.0066669835 0.024346327
000340 72 48 96 3c af a1 8c bc 4c bb 8d 3c 98 26 b3 3c
       0.018345091 -0.01716694 0.017301224 0.021868989
000350 3d 16 8f bd c5 19 86 3c 4b 54 e6 bc 04 58 a8 bd
       -0.069866635 0.01636971 -0.028116366 -0.08219913
000360 4d 93 ac bc 68 d9 b5 bc 94 b4 4b 3c 55 3f 3a bb
       -0.021066332 -0.022198394 0.01243319 -0.0028419096
000370 30 28 a4 bc b5 80 d8 3c 96 e3 df 3b 2a 92 96 bd
       -0.020038694 0.02642856 0.0068325503 -0.07352097
000380 1a d8 6f 3c 03 00 0f be 7d 3f e3 bd b1 1e c9 bd
       0.014638925 -0.13964848 -0.11096094 -0.09820307
000390 0f 48 db bd 99 15 98 bd ed 65 52 bd 15 a6 b4 bd
       -0.107071035 -0.074259944 -0.051366735 -0.0882074
0003a0 e6 2a 71 bd f2 7e e3 3a 13 e2 96 bc 52 10 e9 3c
       -0.0588788 0.0017356558 -0.018418347 0.028450165
0003b0 e4 10 38 3c 44 5d 0e bc e6 b6 24 3d 56 05 91 3c
       0.011234496 -0.008689228 0.040213488 0.01770274
0003c0 75 26 37 3c 19 f8 27 3d fe 59 5b 3c 3e 7c 84 bd
       0.011178602 0.04100809 0.013388155 -0.0646901
0003d0 e1 a2 65 bd 10 d9 d0 bc be 6e 80 3c 77 83 0b bd
       -0.056063537 -0.025494128 0.015677806 -0.03406092
0003e0 1a 30 b6 3a 46 ff 4a 3d 3a 0a f3 3c 06 02 10 3b
       0.0013899833 0.049559854 0.029667962 0.0021973862
0003f0 c6 5b e5 3c e0 6b 17 3d ae 7b 8f 3c 37 76 0d 3d
       0.027997863 0.036968112 0.01751503 0.034536567

onnx::Conv_87 f4 [32]
000000 86 ec f9 bc 00 8c 63 3c 4f f2 a0 3d 2c 15 d1 3e
       -0.030508291 0.013888359 0.07858717 0.40836465
000010 11 55 a4 3e f5 aa d2 3d 1d 5d 12 3e 77 e5 97 3e
       0.3209615 0.10286514 0.14293332 0.29667255
000020 81 41 26 3f ef dd d0 3d e0 9c 4d be 1b fb 03 bf
       0.649437 0.101985805 -0.20079374 -0.5155503
000030 0c 0f 78 be 76 a6 29 3e 8e 40 d8 bd 8c 38 5d 3d
       -0.2422449 0.16567406 -0.10559188 0.054009005
000040 bc c1 78 3e 7d 2a db be da d1 81 be 4c c8 29 be
       0.24292654 -0.42805853 -0.25355417 -0.16580313
000050 f0 c4 ca 3e 04 0a c3 3e de 59 ac be 36 b7 0c 3e
       0.39603376 0.3809358 -0.33662313 0.13741764
000060 84 62 60 3d 03 56 23 be b0 82 58 be cb e9 34 bd
       0.05478145 -0.1595078 -0.21143603 -0.044168275
000070 9b 57 df 3e 9c 45 d6 3d 2c ca 2a 3f 38 b3 57 3f
       0.43621525 0.10462496 0.6671474 0.8425784

onnx::Conv_89 f4 [32, 16, 1, 1]
000000 a5 62 68 3e 0d 1b 74 3e 3b a3 88 be 65 41 e6 bd
       0.2269388 0.23838444 -0.26687035 -0.11242942
000010 50 47 08 3e c9 e3 90 3d 5b 7d 62 3e 91 92 8f 3d
       0.13308454 0.070746966 0.22118132 0.07010377
000020 05 3e d2 3d ac 38 2f be b7 5a 80 bd bb 15 98 bd
       0.102657355 -0.17111462 -0.062673025 -0.0742602
000030 6c d6 36 be b2 0a 90 3d 9f 18 93 be 74 d0 3b 3e
       -0.17855233 0.0703329 -0.28729722 0.18341237
000040 43 9a 2b be 4e b7 88 3e 31 f1 82 be 5f b7 d8 3d
       -0.16758065 0.2670235 -0.2557464 0.1058185
000050 b4 dc b3 bd f4 37 0f be 13 04 af bc c9 b3 03 3e
       -0.0878233 -0.13986188 -0.021364247 0.12861551
000060 66 b9 0e bd f0 0e 0b 3e 9e ad e2 bc 26 aa 8b bb
       -0.03484478 0.13579917 -0.027670678 -0.0042622266
000070 f8 f9 58 be 29 4f e3 bd 71 22 63 be e2 87 16 be
       -0.21189106 -0.11099083 -0.22181107 -0.14700273
000080 0c 88 6d be c5 a9 d9 3d 69 db 5b be fc 4b fd bb
       -0.23196429 0.10628084 -0.21470417 -0.0077300053
000090 05 6e 7a be 59 50 c9 bd c6 66 8c 3e 98 cc 6a be
       -0.24456032 -0.09829778 0.2742216 -0.22929609
0000a0 d4 1f 9a be d8 3b 59 be f4 3f 5f be 61 c7 53 be
       -0.30102408 -0.21214235 -0.2180174 -0.20681526
0000b0 76 12 8c be fa 7a a1 bd 4f e6 eb bd 34 eb 39 be
       -0.27357835 -0.07884784 -0.11518537 -0.18156129
0000c0 04 ec 67 3e 03 c1 74 3d 1f 92 37 be 47 93 59 3e
       0.22648627 0.059754383 -0.17926835 0.21247588
0000d0 a3 ac e4 bd 4c ae 3d be b5 85 49 be 9c 8b bc bc
       -0.1116574 -0.1852352 -0.19679911 -0.02301579
0000e0 2d b3 de bd 95 07 eb 3b 41 d6 61 3e d1 db 0e 3e
       -0.10874019 0.0071725347 0.22054388 0.13951041
0000f0 5d 40 10 3c 57 03 d2 bd a7 1f 5c 3d a4 0f b9 bc
       0.008804408 -0.10254543 0.053741124 -0.022590466
000100 20 18 e4 3d 7b e8 03 be a0 06 a8 bd 9e 1c 4f 3e
       0.11137414 -0.12881653 -0.082043886 0.2022576
000110 ec de 6a 3e 2f 4c 8c 3d 9e a4 20 be fe 77 d4 3c
       0.229366 0.06850468 -0.15687796 0.025936123
000120 76 03 3d 3e a2 06 a1 be 7f 46 b1 3b cd 7b 48 3e
       0.18458351 -0.31450373 0.005410015 0.19578476
000130 5c 96 15 3d 55 fc 40 be 25 d4 d8 bd 9f 4a 9f 3e
       0.036520347 -0.18846257 -0.10587338 0.3111162
000140 53 ef 6f 3e 1f 9e 54 3c 12 32 64 3d 61 ba 21 3e
       0.23431139 0.012977152 0.055711813 0.15793754
000150 05 c9 36 be f1 da 82 3d 22 b7 8f bd 91 02 30 3c
       -0.1785012 0.06389416 -0.07017352 0.010742799
000160 19 ad 75 3d 9f 99 4a 3e 84 05 e1 bd 08 3b 5f 3e
       0.059979532 0.19785164 -0.1098738 0.21799862
000170 6c c3 39 3e 96 45 84 bd 9c e7 3b 3d 51 f7 91 3d
       0.18140954 -0.06458585 0.045875177 0.0712725
000180 30 d4 02 3e f0 03 17 3e a4 74 98 3d d9 7d 15 3e
       0.12776256 0.14747596 0.074441224 0.14598788
000190 88 6f 4a be 02 c1 d4 3d 4f 6e 1d be 28 09 32 bd
       -0.19769108 0.10388376 -0.1537411 -0.043465763
0001a0 ce 55 15 be 7e f7 09 3e 99 03 c9 3d 46 9b e9 3d
       -0.14583513 0.13473317 0.09815139 0.11406569
0001b0 4b 6e 04 3e 0b d0 0a 3d 99 fd 82 3e dc a2 4b be
       0.12932698 0.03388981 0.25584105 -0.19886345
0001c0 c2 47 ab 3e 89 07 84 be 0e 97 bc 3d d4 52 54 bd
       0.33453184 -0.25787 0.09208499 -0.051836804
0001d0 d4 6c 98 bc 13 b0 ae 3d 9f 9c 8e bd ee 3c 5a be
       -0.01860658 0.08529677 -0.06963467 -0.21312305
0001e0 e7 0e 91 bd 05 84 03 be 53 2c 53 be 7f b9 10 3d
       -0.070829205 -0.1284333 -0.20622377 0.035333153
0001f0 fa 9d 80 3d 2b c5 e3 bd 76 8f 59 3e 0a 6f 6e bd
       0.06280132 -0.11121591 0.21246132 -0.058211364
000200 79 d6 1b be dc 15 ac bd 05 92 29 bd fe c5 dc 3d
       -0.15218534 -0.08402607 -0.04139902 0.107799515
000210 04 32 75 bc 6c 0d d0 bd c2 29 ea 3d 42 ad 4d 3d
       -0.014965538 -0.1015881 0.11433746 0.05021406
000220 11 3e 18 3d 28 36 ea bd 94 5d d0 3c 9c b6 0e 3e
       0.037168566 -0.11436111 0.025435247 0.13936847
000230 05 38 f4 3d cc ad 31 3e 09 97 ce bd 6d f2 b6 bd
       0.119247474 0.17351454 -0.100874014 -0.08932958
000240 e5 4c 6b 3e ea 67 45 3e 70 00 f4 3d 0d 7a 4c 3e
       0.22978552 0.19277921 0.11914146 0.19968434
000250 3b 1c 0c be e0 d6 c6 3d 66 6f ab bb a4 44 46 3d
       -0.13682644 0.09708953 -0.0052317856 0.048405305
000260 e3 c9 a0 bc f9 0e 02 3e 28 37 b9 bd 50 88 16 3e
       -0.019627517 0.12701024 -0.09043723 0.14700437
000270 32 d3 da bd 92 6e 29 3c bf 95 9a bd c3 c9 61 be
       -0.106848136 0.010341303 -0.07548093 -0.22049622
000280 ad 51 62 bd 6a 4d d8 3d 50 16 a1 bc ff 94 5c 3d
       -0.055253673 0.105616406 -0.01966396 0.05385303
000290 0b e9 cb bd 67 f6 3e 3d f0 7f 0a 3e a6 db de 3d
       -0.09956559 0.046621706 0.13525367 0.10881738
0002a0 c8 48 80 3d 8f ab 06 3e 5c 60 f1 ba 8c ae 9d 3d
       0.06263882 0.13151382 -0.0018415558 0.07699308
0002b0 b9 60 03 3e 04 86 3b 3e 4b 65 40 be e2 20 ef bd
       0.12829866 0.18312842 -0.1878864 -0.11676194
0002c0 6a 8e 99 be d2 75 5c bc e2 d2 77 be 36 8f 10 be
       -0.29991466 -0.013455825 -0.24201539 -0.1411713
0002d0 63 c4 f8 3d ab 33 97 bd 7a 89 ad 3e 4a 3d af bd
       0.12146833 -0.07382902 0.3389395 -0.08556612
0002e0 40 91 c1 3d 4c 5e 2a be 03 0e 1b 3e a5 30 11 bd
       0.09451532 -0.16637534 0.15142064 -0.03544678
0002f0 08 c1 c0 3d 2b 22 6e 3e bd 43 74 be 8f e5 4e 3d
       0.09411818 0.23255222 -0.23853965 0.050511893
000300 50 92 30 bd fd 10 0b 3e 25 3b 6e 3e 88 cd 27 3e
       -0.043108284 0.135807 0.2326475 0.16386998
000310 c1 ab 27 be 54 56 e9 bd 6a e3 cb bd 6c 1b 34 3d
       -0.16374113 -0.11393419 -0.09955485 0.043971464
000320 9d 67 d2 bd 04 ad dd 3d cd 2d 30 bd 24 7b cd 3d
       -0.10273669 0.10824016 -0.04301243 0.10033253
000330 11 07 14 3e 8c 7f 61 3d ba 17 51 3d 74 26 a3 bd
       0.1445582 0.05505328 0.051048018 -0.07966319
000340 6e 69 bc 3d 2b dc dd 3d 98 33 97 3d 6d 36 10 3d
       0.091997966 0.10833009 0.073828876 0.035208154
000350 8d 47 e5 bd 0f 9a 05 3c ed 10 bf bd 3f 7c 30 39
       -0.11195288 0.008154406 -0.093294 0.00016830953
000360 ea 47 63 3d 83 cb 2e 3c d7 54 d8 bd 07 a8 d0 3c
       0.055488504 0.010668638 -0.10563057 0.025470747
000370 9d 52 1e 3e 56 f2 03 bd 29 3a 31 3c 2f e0 e7 bd
       0.15461202 -0.03221353 0.010817089 -0.113220565
000380 4a f8 62 3d 1f 7a cf 3c f6 7f 19 bd a5 af f7 3b
       0.05541257 0.025326787 -0.03747555 0.0075587803
000390 b7 42 0d be 8e 06 e9 bd c6 3e 17 3e 1a 26 e9 3b
       -0.13794981 -0.11378203 0.1477004 0.0071151378
0003a0 59 26 2d 3c f5 7c 9f 3c 5a 59 d7 bd 9d 1f b7 3d
       0.010568225 0.019468764 -0.10515089 0.08941577
0003b0 9e ff 5b bd b0 ae a0 bc 53 af 55 3e 06 17 36 bd
       -0.053710572 -0.019614547 0.20867662 -0.04445555
0003c0 f3 f0 67 3e f2 b2 7b 3d 0a 13 eb 3d 3c fa e8 3d
       0.22650509 0.061449952 0.11478241 0.113758534
0003d0 3d ae 90 bd cf a3 9c bd 91 63 56 bc b6 05 eb 3c
       -0.07064483 -0.076484315 -0.013085262 0.028689247
0003e0 63 87 23 be d1 68 ad 3d bd 9b f0 bd 1f ab f2 bb
       -0.15969615 0.08467258 -0.11748455 -0.007405653
0003f0 69 3b 4e 3d 8b 45 08 bd 13 c1 84 3d de 50 f1 bd
       0.050349627 -0.033269446 0.064821385 -0.11783002

onnx::Conv_90 f4 [32]
000000 61 16 3a be 8c c2 e2 3e f9 d4 58 3f 58 7d 98 bd
       -0.181726 0.44289052 0.8469997 -0.074457824
000010 c0 ba 65 be 0e 64 d7 be a0 dc a3 be 8f 7a 9f bd
       -0.2243452 -0.42068523 -0.3200426 -0.07787048
000020 d4 8d 5b bb 7e 34 6f be 12 c2 7f be f8 b6 93 bd
       -0.0033501284 -0.23359868 -0.24976376 -0.07212633
000030 de 61 43 be e4 ac a7 bd 6c d6 16 be 27 1f fa bd
       -0.19080302 -0.08187273 -0.14730233 -0.12212973
000040 1f cc e1 3e 3b a0 9e be 6e 40 28 3d f0 1f 3f 3b
       0.44101045 -0.3098162 0.04107707 0.0029163323
000050 ba 16 21 be 7b b2 99 be c0 ee 3d bf 46 bb 74 be
       -0.15731326 -0.30018982 -0.7419243 -0.23899564
000060 11 e4 a3 3e 23 9b 8a bc d0 ac a2 bd b0 ae 90 3e
       0.32009938 -0.016919678 -0.079431176 0.28258276
000070 a4 84 17 3d d0 13 c1 bd 44 c5 82 be 1c f8 05 3f
       0.03699173 -0.09427607 -0.25541127 0.5233171

onnx::Conv_92 f4 [64, 32, 3, 3]
000000 99 57 f0 9e a9 f4 9a a2 34 98 21 9b 2e 70 1c 28
       -2.5447218e-20 -4.2000828e-18 -1.3366787e-22 8.684065e-15
000010 7a a7 35 28 f7 78 3d a4 1a 1d 7e 29 0c a9 fa 29
       1.0083834e-14 -4.1085303e-17 5.642457e-14 1.1131555e-13
000020 db 33 08 24 51 af 3f 28 15 04 11 29 4b cc 69 27
       2.9534222e-17 1.06406456e-14 3.220001e-14 3.2445993e-15
000030 42 36 a3 27 62 b0 04 2a e1 9b f1 28 62 fa c9 26
       4.5300415e-15 1.178515e-13 2.6823977e-14 1.4015043e-15
000040 09 0d 2c 29 7a 88 4f 27 a4 24 62 2e 5a 8b d3 aa
       3.8202978e-14 2.8801005e-15 5.1418994e-11 -3.7577824e-13
000050 ab 7a 13 aa 20 84 24 31 52 5f 86 2c 07 7b f4 2d
       -1.3098782e-13 2.3940245e-09 3.8190917e-12 2.7794224e-11
000060 8e 54 be 2f 9c 65 f0 2b 89 de 0d 2c 60 b5 23 23
       3.4620878e-10 1.7081228e-12 2.0160837e-12 8.874655e-18
000070 6a ee d5 a3 86 51 55 a7 9f 3f 34 1f ec 6f fa 20
       -2.3194479e-17 -2.9603882e-15 3.816911e-20 4.242571e-19
000080 c9 86 84 a5 64 71 87 9f 61 b6 87 22 7e 30 14 a6
       -2.2989684e-16 -5.736231e-20 3.6784924e-18 -5.1413534e-16
000090 a6 26 89 23 a2 09 90 2d 44 5c 85 29 6e d6 96 24
       1.4869938e-17 1.6375182e-11 5.922392e-14 6.541539e-17
0000a0 fe 07 be 2c e5 e4 54 a9 4f 23 41 24 40 7e 05 2d
       5.401012e-12 -4.727199e-14 4.188011e-17 7.588208e-12
0000b0 1e d7 d0 a6 36 55 20 a0 55 10 6e 9d 08 2e b7 a1
       -1.4491207e-15 -1.3580721e-19 -3.1507481e-21 -1.2412747e-18
0000c0 76 b7 cd 9a e1 cc 66 99 ff 6f 1f a2 a6 cb c7 19
       -8.508241e-23 -1.1932096e-23 -2.1607808e-18 2.065837e-23
0000d0 30 52 0f 1b c8 72 32 23 04 1e 9b a1 f6 b6 17 22
       1.1855239e-22 9.673705e-18 -1.0511154e-18 2.0561175e-18
0000e0 32 35 83 a3 3e 8a 66 9e f7 88 a7 22 f7 ca 54 21
       -1.4225578e-17 -1.22046864e-20 4.5410458e-18 7.2097016e-19
0000f0 59 c0 3f 1f 0b 20 3d 22 4f 45 5e 21 10 05 1c a6
       4.060493e-20 2.563124e-18 7.5308255e-19 -5.4130233e-16
000100 87 a1 be a5 f0 97 c8 27 2a a0 12 a3 f6 62 b0 a3
       -3.30692e-16 5.5675882e-15 -7.948592e-18 -1.912387e-17
000110 cf 77 4e a4 a6 88 0a a6 bf 67 34 24 60 19 f9 27
       -4.477061e-17 -4.806356e-16 3.9119155e-17 6.9138895e-15
000120 14 f8 84 a6 13 dc 17 a6 c0 c0 3e aa bd c2 ec a7
       -9.226582e-16 -5.2686905e-16 -1.6942264e-13 -6.5714294e-15
000130 44 70 c2 a4 cf 6f ba a9 f7 e8 ba a8 c5 fe 1e a6
       -8.4324274e-17 -8.279455e-14 -2.075118e-14 -5.516254e-16
000140 0c 31 1f aa 2f bb 84 96 8e 42 54 97 5a 98 0e 9c
       -1.4139053e-13 -2.144388e-25 -6.85849e-25 -4.718077e-22
000150 64 b8 7b 97 eb 06 00 96 a4 0d 46 9b 7c f8 9f 9e
       -8.133521e-25 -1.034194e-25 -1.6382584e-22 -1.693755e-20
000160 48 45 b1 9b f7 db 78 9e 47 a7 dd 9d ce 5a 8a 20
       -2.9326966e-22 -1.3174498e-20 -5.8671174e-21 2.34382e-19
000170 a5 86 59 29 70 30 52 9d 1e 4d 6f a2 c8 18 92 26
       4.8300465e-14 -2.781831e-21 -3.2431365e-18 1.0137502e-15
000180 67 f2 8e 9f 8b 41 c7 a3 13 72 27 28 23 e3 2f a6
       -6.054036e-20 -2.1603382e-17 9.295098e-15 -6.102315e-16
000190 72 2e 4d a8 21 28 81 ac ed 8e 81 a7 eb 48 36 a4
       -1.1389857e-14 -3.6708557e-12 -3.5959653e-15 -3.9526723e-17
0001a0 b5 db 40 ac 8b 34 02 ab 92 31 6f a6 f7 af 0a ac
       -2.7406803e-12 -4.6258196e-13 -8.298696e-16 -1.970866e-12
0001b0 36 ef ff a4 b1 e4 b2 a6 93 6b cc a1 4b 7c d2 a2
       -1.1099386e-16 -1.2413218e-15 -1.3852052e-18 -5.7052214e-18
0001c0 47 47 7a a5 f1 ee f0 a0 7e 74 84 a2 27 e3 2e a5
       -2.1708193e-16 -4.08157e-19 -3.5902013e-18 -1.5169056e-16
0001d0 16 a9 c7 1f ad 5e 97 98 09 e6 93 17 a6 93 69 1b
       8.455951e-20 -3.9128183e-24 9.557721e-25 1.9321016e-22
0001e0 79 a6 77 1d bb cb 54 1a d2 c8 7f 1e da eb 19 0d
       3.2776242e-21 4.4005145e-23 1.3541116e-20 4.743066e-31
0001f0 3b 67 14 0e c6 3a 27 18 d6 04 00 00 5e ec 3d 01
       1.8292112e-30 2.1613917e-24 1.735e-42 3.4883403e-38
000200 71 73 65 18 11 5b 46 0d 85 b7 24 10 d4 ca 27 1a
       2.965584e-24 6.112308e-31 3.2484675e-29 3.4698634e-23
000210 d0 fb 2d 08 49 42 fe 00 26 8a 92 14 81 b0 a7 92
       5.23563e-34 2.3349995e-38 1.4796723e-26 -1.0582693e-27
000220 90 f4 1b 12 b0 32 b9 15 c8 b2 ac 95 e7 d1 02 11
       4.9210823e-28 7.4800876e-26 -6.9752314e-26 1.0319873e-28
000230 05 ca d2 18 f0 da 2d 94 d1 c5 4f 8f 3d 26 9c 18
       5.4487715e-24 -8.777446e-27 -1.0243986e-29 4.0363666e-24
000240 54 47 8c a8 52 33 92 26 6e 8b 54 a2 53 e7 81 a9
       -1.5574056e-14 1.0144695e-15 -2.880517e-18 -5.768879e-14
000250 f7 cc 4e a9 f9 56 0b a5 27 66 c0 aa 1c 11 8d aa
       -4.5918967e-14 -1.2085796e-16 -3.4176934e-13 -2.5058503e-13
000260 f7 9e da a6 5e 62 0f a1 65 d9 0f a4 3f c0 6d a9
       -1.5169876e-15 -4.858047e-19 -3.1192322e-17 -5.2791318e-14
000270 2c c5 01 a3 38 80 8d a2 33 cf 29 aa ca f3 da a3
       -7.034857e-18 -3.8353883e-18 -1.5082102e-13 -2.3738856e-17
000280 46 a9 98 a1 74 ae b8 aa b4 46 5c a2 c3 3c ea 9f
       -1.0344727e-18 -3.2806017e-13 -2.985299e-18 -9.9203377e-20
000290 a4 b2 69 a1 28 12 01 a5 11 6d a7 a2 9e 64 ba a3
       -7.91799e-19 -1.1195118e-16 -4.538092e-18 -2.0208773e-17
0002a0 84 be f1 29 e3 c6 f2 29 8d 2a 85 27 2d 57 25 16
       1.0735599e-13 1.078146e-13 3.696105e-15 1.3356102e-25
0002b0 18 5d f1 15 bd 06 c8 0e 4d b4 fd 98 77 d2 17 9c
       9.7486e-26 4.9310295e-30 -6.5581024e-24 -5.023373e-22
0002c0 6f bb 01 9a c7 47 03 97 e6 00 4d 98 24 bb a3 93
       -2.6827982e-23 -4.241898e-25 -2.6496083e-24 -4.133152e-27
0002d0 28 e2 5e a5 17 bd 87 a7 ee 56 27 a6 42 e4 44 a6
       -1.9332055e-16 -3.767504e-15 -5.8057576e-16 -6.8310507e-16
0002e0 c5 03 56 a7 e2 c9 d0 a6 ac 1b 0b a9 51 0d c7 a6
       -2.970051e-15 -1.448762e-15 -3.08882e-14 -1.3812008e-15
0002f0 08 0d 24 a6 6c 27 a9 a1 d8 93 5f a6 38 1c 1f a4
       -5.691659e-16 -1.146232e-18 -7.7569033e-16 -3.450153e-17
000300 14 4d 9c a2 84 9a a0 a7 5f d4 80 a5 84 0e 30 a7
       -4.2365494e-18 -4.4576447e-15 -2.234837e-16 -2.4432775e-15
000310 3b de e4 a8 a1 35 85 a7 5f a6 04 a7 0b cd 12 ab
       -2.5409462e-14 -3.697306e-15 -1.840887e-15 -5.2154174e-13
000320 06 d2 42 a6 fe e7 04 a8 16 fb 28 ac 72 86 f8 28
       -6.7591906e-16 -7.377777e-15 -2.4013617e-12 2.7591837e-14
000330 ec 36 30 24 bf b5 b8 29 ce 01 4c 27 8f 3a 2b 9d
       3.8210437e-17 8.2027694e-14 2.8311665e-15 -2.2661936e-21
000340 81 f9 35 9d e5 4c 93 98 da 5a 7d a0 f0 a4 14 a2
       -2.4084141e-21 -3.8076253e-24 -2.1459994e-19 -2.0145057e-18
000350 83 8f 0a a3 a6 43 e8 a3 9f 6c 98 a5 79 15 73 a5
       -7.511385e-18 -2.518214e-17 -2.6441401e-16 -2.1084165e-16
000360 8f f7 bd ad 89 40 d4 28 33 88 a8 a8 fa bd 67 ae
       -2.159675e-11 2.3564716e-14 -1.8710814e-14 -5.2692052e-11
000370 ce 04 65 aa 9e d9 20 a8 bd b8 75 ae 01 2b 4b ac
       -2.0340953e-13 -8.928972e-15 -5.587063e-11 -2.8871907e-12
000380 27 a4 20 a9 51 11 33 9e 08 87 2f 9a 90 73 4f 23
       -3.5669516e-14 -9.479762e-21 -3.629823e-23 1.1245964e-17
000390 11 28 3b 23 68 7e e7 21 39 bb 49 26 e8 db 54 26
       1.0145775e-17 1.5686628e-18 6.998962e-16 7.3850304e-16
0003a0 0f c7 e4 25 1a 39 35 29 ed bd 3a a8 eb 96 08 ac
       3.9686583e-16 4.02396e-14 -1.0366258e-14 -1.9410539e-12
0003b0 4d 62 c1 2d a1 fb 4c a7 7f 0f 95 ac 1b 09 31 ad
       2.1985214e-11 -2.8447095e-15 -4.236555e-12 -1.0063307e-11
0003c0 31 21 00 a6 43 65 8f ab 7e 67 39 2b d4 74 e8 a2
       -4.4453904e-16 -1.0188867e-12 6.586883e-13 -6.3007423e-18
0003d0 8c 5a d4 22 a0 4d 07 9f 25 ab c3 a5 55 ee c4 a5
       5.7558585e-18 -2.8651572e-20 -3.394308e-16 -3.416208e-16
0003e0 cd 2b 37 a2 cb 18 20 a8 9f ea 4d a7 70 8e 2e a3
       -2.4824313e-18 -8.88716e-15 -2.8576653e-15 -9.462721e-18
0003f0 04 ba ca 20 31 5b 41 21 46 f5 28 a3 71 cd a4 a3
       3.4343226e-19 6.5511634e-19 -9.159237e-18 -1.7867923e-17

onnx::Conv_93 f4 [64]
000000 ad 84 13 b8 ad 93 83 be 20 c8 01 bd d5 2d 59 3e
       -3.5171095e-05 -0.25698605 -0.031684995 0.2120889
000010 2b 91 3d be 41 f1 9a b2 63 26 68 b7 d4 61 c3 be
       -0.18512408 -1.803767e-08 -1.3837215e-05 -0.38160574
000020 5e 1a 76 be 0a 2e e1 3d 18 a8 e0 bc f5 1c 85 bd
       -0.24033496 0.109951094 -0.027423903 -0.06499664
000030 30 c5 62 3e 1c 7f 70 b7 d6 cf 0c ba a9 c5 6a bd
       0.22145534 -1.433471e-05 -0.0005371546 -0.05731741
000040 40 4d a1 3c d1 97 a4 b9 4b ed 12 3e 25 a1 2d 3e
       0.019690156 -0.0003139363 0.14348333 0.16956003
000050 f8 9f 58 3d a2 0c a2 bd 69 23 17 be c9 64 3b 3e
       0.052886933 -0.07912566 -0.14759602 0.18300165
000060 90 b0 02 bc 2c 07 dd 3d af 82 25 3e f2 1c 38 af
       -0.007976666 0.107923836 0.16163133 -1.6744986e-10
000070 e6 76 32 be 94 d0 6f be 5f 77 c3 bd 27 89 27 be
       -0.17428169 -0.2341941 -0.095442526 -0.16360913
000080 36 9c 63 be 25 b0 ae bc 40 25 91 bb 32 ec 37 3e
       -0.22227558 -0.021324227 -0.0044294894 0.17961195
000090 22 8f 8f be f3 47 e2 be 73 18 9f 3d f6 be a9 3d
       -0.2803889 -0.44195518 0.07768335 0.08288376
0000a0 3e ce 78 3e 89 c3 1f 3e d4 cd 9e b8 53 b0 d4 be
       0.24297425 0.15601934 -7.5723656e-05 -0.41540775
0000b0 2b ea 13 bd 76 a5 86 bc 71 5b 63 be 30 6d 4a bc
       -0.03611199 -0.01643632 -0.22202851 -0.012355134
0000c0 48 75 5b be 08 f7 36 3c 66 d3 4c 3d eb 4b 39 be
       -0.21431458 0.011167295 0.050006293 -0.18095367
0000d0 49 bc 99 ba 67 b6 33 bd 33 ba f6 3d 4a f0 e2 bc
       -0.0011729087 -0.043875124 0.120472334 -0.02770247
0000e0 03 0a 16 bf 2e 42 04 be 80 83 d2 bb e5 56 e8 3e
       -0.58609027 -0.1291587 -0.0064243674 0.45378795
0000f0 b3 31 b8 bd 8c b2 b3 bb 25 e8 d0 bc dd 25 35 b3
       -0.089938544 -0.005483931 -0.02550132 -4.2176783e-08
