cmd/ai/datas/models/jellyfish.onnx (onnx, 302121 bytes, 16 tensors)

fc.weight f4 [2, 256]
0	0xbd41ba35	-0.04729672
1	0x3c45349b	0.012036468
2	0xbde0d95b	-0.10978957
3	0xbda605f1	-0.08106602
4	0xbdab35f1	-0.08359898
5	0xbda2d0c5	-0.07949976
6	0xbd82d3f3	-0.06388082
7	0xbd3bbeab	-0.045836132
8	0xbc4af79e	-0.012388138
9	0xbbe4b35e	-0.00697939
10	0xbd3439c7	-0.044000413
11	0x3d4ce6dc	0.050024852
12	0xbbec5c12	-0.007213124
13	0x3d3e20e6	0.046418093
14	0xbd94c480	-0.07264042
15	0xbd8665fd	-0.065624215
16	0x3dbc8c1b	0.092064105
17	0x3dcaa979	0.098956056
18	0x3d23bca3	0.03997482
19	0x3db060c1	0.08612204
20	0xbc6335f7	-0.013867847
21	0x3dead5db	0.11466571
22	0x3d3d088a	0.04615072
23	0x3da9e479	0.08295531
24	0x3d2781df	0.04089534
25	0x3b47bb46	0.0030476614
26	0xbc4b39e9	-0.012403944
27	0xbd627bbd	-0.055293787
28	0x3bdfbf43	0.00682822
29	0xbd4d6b3a	-0.050151087
30	0xbbb3fa35	-0.0054924735
31	0x3c15a0ab	0.0091325445
32	0x3d1cf32c	0.038317844
33	0xbb9f089f	-0.0048533226
34	0x3dc9eaf8	0.0985927
35	0x3dadb1f7	0.0848121
36	0xbd4759a6	-0.04866948
37	0xbd81cf94	-0.063384205
38	0xbc7b8d8f	-0.015353574
39	0xbc44094c	-0.011965107
40	0xbb33930e	-0.0027400884
41	0xbdb0f0c5	-0.08639673
42	0x3d8f7500	0.07004738
43	0x3d5df6f8	0.054190606
44	0xbbb7cc24	-0.0056090523
45	0xbc58052a	-0.013184825
46	0x3cff28eb	0.03114744
47	0xbd541b74	-0.051783994
48	0x3cc7c35e	0.02438515
49	0x3c510aa5	0.0127588855
50	0x3da73f38	0.08166355
51	0x3c74e6a2	0.014947565
52	0x3d83d1df	0.06436514
53	0x3d8d3d54	0.06896463
54	0x3c4008b9	0.01172083
55	0x3d10ebe8	0.035381228
56	0x3d902ba9	0.070395775
57	0x3cbd203e	0.023086663
58	0x3d78ea49	0.060770307
59	0x3d8a7b2a	0.06761773
60	0xbd05ecaa	-0.032696404
61	0x3b819ff3	0.003955835
62	0xbda94ec5	-0.08266977
63	0xbc15b9a3	-0.0091384975
64	0x3d33299b	0.04374085
65	0x3d94bb29	0.072622605
66	0xbdb06ee3	-0.086149
67	0xbd646fde	-0.055770747
68	0xbcc4bf7d	-0.02401709
69	0xbd4a98f0	-0.04946226
70	0x3d1e77fa	0.038688637
71	0x3c417fbd	0.01181024
72	0x3c901318	0.01758723
73	0x3d19b14c	0.0375226
74	0xbcde9073	-0.027168488
75	0x3c50d47b	0.012745972
76	0xbccb5857	-0.024822397
77	0xbd4d79a7	-0.050164845
78	0xbda156ab	-0.07877859
79	0xbd1ee665	-0.03879394
80	0x3b6bed06	0.0035999431
81	0x3d3b50b4	0.04573126
82	0xbd74e69e	-0.059790246
83	0xbbed309e	-0.0072384616
84	0xbd229da2	-0.03970111
85	0xbc126fb7	-0.008937768
86	0x3d8df3a7	0.069312386
87	0xbc8234f6	-0.015894394
88	0x3ce98842	0.028507356
89	0xbdd02673	-0.101635836
90	0x3d26f607	0.040761974
91	0xbcd41f53	-0.025893843
92	0xbd810d31	-0.06301344
93	0xbdd94e86	-0.1061068
94	0x3ad08e57	0.0015911561
95	0xbda7a7a1	-0.081862696
96	0x3d3987e3	0.045295607
97	0xbc0cbe41	-0.008590282
98	0xbb89702b	-0.0041942797
99	0xbc5698d4	-0.0130979605
100	0x3cd39312	0.025826965
101	0xbd2bc9e2	-0.041940577
102	0xbca0fe36	-0.019652467
103	0x3c2b6d27	0.010463036
104	0xbcdf0159	-0.027222322
105	0xbc805e71	-0.015670033
106	0xbd57a2d8	-0.052645534
107	0xbd881f2d	-0.06646571
108	0xbd00c90f	-0.031441744
109	0xbb1b6d98	-0.0023716446
110	0x3d40f2c6	0.047106527
111	0xbd5698f2	-0.052391954
112	0xbc7fe416	-0.015618345
113	0x3d4301f9	0.047609303
114	0xbd73d4b7	-0.059529033
115	0xbd282324	-0.041049138
116	0xbd7f00f7	-0.06225678
117	0xbde67317	-0.112524204
118	0xbd088654	-0.03333123
119	0xbdd7f209	-0.105442114
120	0x3d71d370	0.059039533
121	0x3d297e8a	0.041380443
122	0x3da2950a	0.07938583
123	0x3d183fd5	0.03717025
124	0xbd9983e4	-0.07495859
125	0xbd791de5	-0.060819525
126	0x3d15675a	0.036475517
127	0x3c595a71	0.013266192
128	0x3ca32e1c	0.019919448
129	0xbd4f9085	-0.050674934
130	0xbcd78417	-0.026308103
131	0xbd2134a4	-0.039356843
132	0xbd2cb258	-0.04216227
133	0x3d884a73	0.06654825
134	0x3d355377	0.04426905
135	0x3dbdc07e	0.092652306
136	0x3d9a01e9	0.075198956
137	0xbac61636	-0.001511282
138	0x3dacdcd0	0.08440554
139	0xbd0470fd	-0.032334317
140	0x3d4c5162	0.0498823
141	0x3d4541ec	0.04815857
142	0xbdb62243	-0.08893254
143	0x3ad6cfef	0.0016388873
144	0xbd342add	-0.04398619
145	0xbc313c67	-0.010817624
146	0x3b54f716	0.0032495908
147	0xbd2e545c	-0.04256092
148	0xbac41550	-0.0014959965
149	0x3c0aef98	0.008479975
150	0xbda92750	-0.082594514
151	0xbda6c187	-0.08142381
152	0xbccfded8	-0.025374815
153	0x3cbef0ac	0.02330812
154	0xbc213041	-0.009838165
155	0x3d06e411	0.032932345
156	0x3d0b72f4	0.034045175
157	0x3d8654a0	0.0655911
158	0x3d457680	0.048208714
159	0x3d3b7a33	0.045770835
160	0x3d35f092	0.04441888
161	0x3d955a55	0.0729262
162	0x3dc1d122	0.09463717
163	0x3db69a26	0.0891612
164	0x3d8bc1ab	0.068240486
165	0x3d29a6e5	0.04141893
166	0x3d5ce993	0.05393369
167	0xbd11e987	-0.0356231
168	0xbde82024	-0.11334255
169	0xbdd956db	-0.106122695
170	0xbca41f43	-0.020034438
171	0xbd27c983	-0.04096366
172	0x3d0c47de	0.034248225
173	0xbc79a9c1	-0.015238226
174	0xbd8751a2	-0.06607367
175	0xbcb04d93	-0.021521365
176	0x3dbfe08b	0.09369
177	0x3cd2b927	0.025723053
178	0x3dbbee0b	0.091762625
179	0x3dd3fe2b	0.10351213
180	0xbd006ac3	-0.031351816
181	0x3d223277	0.03959891
182	0xbcda8fb7	-0.026679857
183	0x3d5ff75e	0.054679267
184	0xbda86a5b	-0.08223411
185	0x3ac6cad0	0.0015166644
186	0xbdf82493	-0.12116351
187	0xbd70735b	-0.05870376
188	0x3b739cc5	0.00371723
189	0xbceb7993	-0.028744495
190	0x3c9cb525	0.019129345
191	0x3d4ef9e4	0.050531283
192	0xbcf2b49c	-0.029627137
193	0x3dc96ccf	0.09835207
194	0xbce2414e	-0.02761903
195	0x3d3307f7	0.043708768
196	0x3d369e54	0.044584587
197	0x3da97a7f	0.082753174
198	0xbd8547ab	-0.0650781
199	0xbd58b8fc	-0.05291079
200	0x3d3e0f1d	0.046401132
201	0x3b2491f1	0.0025111402
202	0x3dc2f914	0.09520164
203	0x3dbee30c	0.093206495
204	0x3d560f26	0.05226054
205	0x3d306a6a	0.043070234
206	0xbd3464e5	-0.044041533
207	0xbc5f4cf1	-0.013629184
208	0xbd48c2bc	-0.04901384
209	0xbd9f8906	-0.07789807
210	0xbdca5773	-0.09879961
211	0xbcf76f01	-0.030204298
212	0x3d07b981	0.033135895
213	0x3ca1eca2	0.019766156
214	0xbc637771	-0.0138834575
215	0x3dbd97fc	0.09257504
216	0xbcce92ec	-0.025216542
217	0xbdba326b	-0.09091648
218	0xbda6b6ae	-0.08140312
219	0xbd66ce79	-0.05634925
220	0xbd54d998	-0.051965326
221	0xbd237b6c	-0.039912626
222	0x3c802368	0.015641883
223	0xbd21f101	-0.03953648
224	0x3d02400b	0.031799357
225	0xbd84809a	-0.06469841
226	0xbd2663b8	-0.040622443
227	0x3c499a94	0.012304921
228	0xbd1a8c20	-0.03773129
229	0x3d23f2ce	0.04002648
230	0xbdcf760f	-0.1012994
231	0xbdb1bb1b	-0.08678266
232	0xbd5d5ef7	-0.054045644
233	0xbd910f28	-0.07082969
234	0x3d57601d	0.052581895
235	0xbc99e1f5	-0.018784503
236	0xbd3e4028	-0.046447903
237	0xbb87f4c7	-0.004149053
238	0xbd4363b7	-0.047702517
239	0xbd952646	-0.07282691
240	0xbcdaf7a5	-0.026729414
241	0x3cb8b7fe	0.022548672
242	0x3d222e32	0.039594837
243	0x3d9a7379	0.07541556
244	0x3dade9ae	0.084918365
245	0x3cef33d8	0.029199526
246	0x3d8ee9f3	0.06978216
247	0xbc505756	-0.012716135
248	0xbd08bee8	-0.033385187
249	0xbdf27063	-0.11837842
250	0xbbed26f3	-0.007237309
251	0xbd987e5d	-0.07445977
252	0x3ccacf8c	0.02475717
253	0xbc0571c8	-0.008144803
254	0xbdb3a9ae	-0.08772598
255	0xbdad3c80	-0.08458805

fc.bias f4 [2]
0	0x3cb0c8cb	0.02158012
1	0x3d6af633	0.0573637

onnx::Conv_80 f4 [16, 3, 7, 7]
0	0xbe08d9cf	-0.13364337
1	0xbe80d8a2	-0.25165278
2	0xbdd10f05	-0.10207943
3	0x3dba4825	0.09095792
4	0xbde75db1	-0.11297167
5	0x3e3ec228	0.18628752
6	0xbda5a595	-0.08088223
7	0xbe2eeb67	-0.17081986
8	0xbdc52089	-0.09625346
9	0x3e5718bf	0.21005534
10	0x3e704e71	0.23467423
11	0x3ccb8701	0.024844648
12	0xbcda82cf	-0.026673703
13	0x3df2bcb6	0.118524
14	0xbdd1bcdc	-0.102411
15	0x3e37f13d	0.17963119
16	0x3e2d67e8	0.16934168
17	0xbdbce8fc	-0.09224126
18	0x3e7c5023	0.24639945
19	0x3e603d1f	0.21898316
20	0x3e57977a	0.21053877
21	0x3e733a53	0.23752718
22	0x3e31423b	0.17310421
23	0x3e1bc1b1	0.15210606
24	0x3d57afb7	0.05265781
25	0xbbd399ce	-0.006457544
26	0x3db92e94	0.09042087
27	0x3e4e269a	0.20131913
28	0x3dd935fc	0.10606
29	0xbd8b7bfd	-0.06810758
30	0x3e2104d2	0.15724495
31	0xbd92edfa	-0.07174297
32	0x3e1d99aa	0.1539065
33	0x3e0b7bb8	0.13621414
34	0x3e0cca48	0.13749039
35	0xbceaac42	-0.028646592
36	0x3d7c8042	0.061645754
37	0x3e58d2ca	0.2117416
38	0xbdc430d9	-0.095796295
39	0xbd8260be	-0.06366108
40	0xbde0e091	-0.10980333
41	0x3dc7f6cc	0.0976387
42	0x3c58330c	0.013195764
43	0x3e5b3e30	0.21410441
44	0xbde9a374	-0.11408129
45	0xbd116c11	-0.03550345
46	0xbd865ea0	-0.06561017
47	0xbdc262bd	-0.09491489
48	0x3d9350e1	0.07193161
49	0x3df4abd1	0.11946834
50	0xbd62b3cd	-0.055347253
51	0xbe5e3a66	-0.21701965
52	0x3cc2b081	0.023765804
53	0xbe1c2ca1	-0.152514
54	0xbdbb00d5	-0.09131018
55	0xbe606324	-0.21912819
56	0xbe4044e0	-0.18776274
57	0xbd10cbe5	-0.0353507
58	0x3e2501f5	0.16114028
59	0xbe2bb727	-0.16769086
60	0x3e0974f6	0.13423523
61	0xbdc843fa	-0.097785905
62	0x3e668870	0.22512984
63	0xbd8c4e99	-0.06850929
64	0xbc4a906b	-0.0123635335
65	0xbe185fc4	-0.14880282
66	0x3d6337cf	0.055473145
67	0xbe107661	-0.14107658
68	0xbe0191dd	-0.12653299
69	0x3e1e1b22	0.15440038
70	0xbcd045d7	-0.025423927
71	0xbe00902a	-0.12554994
72	0x3da62814	0.08113113
73	0xbd4ef1ed	-0.050523687
74	0xbdcefe66	-0.101071164
75	0x3dc38b62	0.095480695
76	0xbe00f183	-0.1259213
77	0x3d77ed38	0.060528964
78	0x3db22c53	0.086998604
79	0xbdcb6ae8	-0.099325
80	0x3e7024ef	0.23451589
81	0x3e864261	0.26222518
82	0xbd058ae0	-0.032603145
83	0x3dd1255e	0.10212205
84	0x3e0de6ba	0.13857546
85	0xbc8607c5	-0.016361127
86	0x3b95c11c	0.0045701396
87	0x3c910472	0.017702315
88	0xbdc5ebe4	-0.09664133
89	0xbd4bb55e	-0.049733512
90	0xbdf8c20f	-0.12146389
91	0xbd329967	-0.043603327
92	0x3d8d7b4e	0.06908284
93	0xbc5d619f	-0.013512044
94	0x3e076e54	0.1322568
95	0x3e4c8f51	0.19976546
96	0x3e6817ed	0.22665377
97	0x3e641396	0.22273096
98	0xbe58caac	-0.21171063
99	0xbce669da	-0.028126646
100	0xbdbf6d11	-0.09346975
101	0x3db38901	0.08766366
102	0xbd7b7199	-0.061387632
103	0xbe4a9fca	-0.19787517
104	0x3d909a2a	0.070606545
105	0xbdabe7b3	-0.083938025
106	0x3d671c2f	0.056423362
107	0xbd215485	-0.039387245
108	0x3dc628eb	0.09675773
109	0x3d457465	0.048206706
110	0xb77d87e3	-1.5111614e-05
111	0xbe1b88d1	-0.1518891
112	0xbe0b4136	-0.13599095
113	0x3d236f70	0.039901197
114	0xbdcce54b	-0.10004672
115	0xbddbd38c	-0.10733709
116	0x3e293444	0.16523844
117	0x3e536e4a	0.2064754
118	0xbd11ff7e	-0.035644047
119	0xbd6e1b2b	-0.05813138
120	0x3d85cd6b	0.06533321
121	0xbce96e43	-0.02849496
122	0x3da87529	0.082254715
123	0x3c0fb8aa	0.008772055
124	0xbce65e8e	-0.028121259
125	0x3e7848c5	0.2424651
126	0xbd1c7d87	-0.03820565
127	0x3e0e76b2	0.13912466
128	0x3da8c7d8	0.08241242
129	0x3db1ab37	0.08675235
130	0x3db44654	0.088024765
131	0x3e1bb89c	0.15207142
132	0x3e4e57ca	0.20150676
133	0x3df96794	0.12177959
134	0xbe5f6c76	-0.21818718
135	0xbe74b91a	-0.23898736
136	0x3e211a96	0.15732798
137	0xbe05f788	-0.13082707
138	0xbe3db8c2	-0.18527511
139	0x3b7dcece	0.0038728002
140	0xbd4cf553	-0.050038647
141	0x3df7d8a6	0.12101869
142	0x3ce63596	0.028101724
143	0xbe5778be	-0.21042153
144	0xbd6160d5	-0.055023987
145	0x3d95c78b	0.073134504
146	0x3e3265af	0.17421602
147	0x3e8205de	0.253951
148	0x3e5b9622	0.2144399
149	0x3eb9d625	0.36296192
150	0x3db606c1	0.08888007
151	0x3e05b950	0.13058972
152	0xbcbe2a8f	-0.023213653
153	0x3dcb964f	0.099407785
154	0x3d63df7e	0.05563306
155	0x3e14591a	0.14487115
156	0x3c9d2e4e	0.019187119
157	0x3d070b8d	0.03297
158	0x3daad857	0.08342045
159	0x3e0a315f	0.13495396
160	0x3e0d4cb0	0.13798785
161	0x3e0a85ea	0.13527647
162	0xbe2cbac9	-0.16868128
163	0x3c7075fc	0.014676567
164	0x3e017eea	0.1264607
165	0x3e14ca60	0.14530325
166	0x3db181d1	0.08667339
167	0x3dd848cf	0.10560762
168	0x3e4fe882	0.20303538
169	0xbd8e6a9e	-0.06953929
170	0xbe1ff6ca	-0.15621486
171	0xbe552637	-0.20815359
172	0xbe4dd7e1	-0.20101883
173	0x3da3cb91	0.079978116
174	0x3c999409	0.018747346
175	0xbdaf3a3f	-0.085560314
176	0xbca680b6	-0.020325046
177	0x3cd34c2a	0.025793154
178	0x3dc026ec	0.09382424
179	0xbd0a3832	-0.033745
180	0x3c554bfa	0.0130186025
181	0xbe30ab55	-0.17252858
182	0xbe94206c	-0.28930986
183	0xbe9927ed	-0.29913273
184	0xbebe6046	-0.37182826
185	0xbec33eb6	-0.38133782
186	0xbe9f6e18	-0.31138682
187	0xbe88f973	-0.26752815
188	0xbec625e7	-0.38700792
189	0xbeb2851c	-0.3486718
190	0xbe890209	-0.26759365
191	0xbde0ab05	-0.109701194
192	0xbeb8e90a	-0.36115295
193	0xbe724f38	-0.23663032
194	0xbec604a2	-0.3867541
195	0xbaee8c77	-0.0018199821
196	0xbc2995b6	-0.010350635
197	0x3dfdac5f	0.12386393
198	0x3ddef81e	0.10887168
199	0xbe7ce76c	-0.24697655
200	0x3cf2f1fa	0.029656399
201	0xbe76c534	-0.24098665
202	0xbe1d8627	-0.15383206
203	0xbdad4a9d	-0.08461497
204	0x3e9dc988	0.3081782
205	0x3e5f8ae6	0.2183033
206	0x3e939bca	0.28829795
207	0x3d2b504c	0.041824624
208	0x3dc0d4f6	0.09415619
209	0xbcf4a6e6	-0.02986474
210	0xbe11c0cd	-0.14233704
211	0x3dd13b6c	0.10216412
212	0xbd9dba5d	-0.077015616
213	0x3dfae29b	0.12250253
214	0x3e071957	0.1319326
215	0x3e476791	0.19473101
216	0xbe32475b	-0.17410032
217	0xbe3bd1e3	-0.18341784
218	0xbe580370	-0.21095061
219	0xbe2223cf	-0.15833972
220	0x3e3f90a4	0.1870752
221	0x3d4f5e75	0.05062719
222	0x3e6d99f2	0.23203257
223	0xbcfbdccb	-0.03074493
224	0xbd944626	-0.07239942
225	0x3e00c3d2	0.125747
226	0xbdb18d98	-0.08669585
227	0x3dbcd6fd	0.09220693
228	0x3d1ddbf2	0.038539834
229	0x3e3cf5ae	0.18453094
230	0x3e238b3e	0.15971085
231	0xbe46fc17	-0.19432102
232	0x3e1678bf	0.14694498
233	0x3e898123	0.26856336
234	0x3e5c4e55	0.21514256
235	0xbe2fb2f1	-0.17158104
236	0xbdc66b7e	-0.09688471
237	0x3e2457a2	0.16049054
238	0xbbfb1d56	-0.007663409
239	0xbd6e75f6	-0.058217965
240	0xbe6f5b65	-0.23374708
241	0xbdbc62ab	-0.09198507
242	0x3e382f95	0.17986901
243	0xbc7b0d92	-0.01532306
244	0xbe628843	-0.22122292
245	0xbe4370ff	-0.19086073
246	0x3e097573	0.1342371
247	0xbebcece4	-0.36899483
248	0x3e091f95	0.13390954
249	0x3ce88b59	0.028386759
250	0xbd2cdcba	-0.04220269
251	0xbe8399cc	-0.25703275
252	0xbe51add6	-0.2047647
253	0x3e1f484d	0.15554924
254	0x3dd6d393	0.10489573
255	0xbc19100e	-0.009342207

onnx::Conv_81 f4 [16]
0	0xbf73bdaa	-0.9521128
1	0x3ed4361f	0.4144754
2	0xbfa75c72	-1.3075087
3	0x3c9c4778	0.019077048
4	0x3ebe3bfc	0.3715514
5	0xbeb6b0e5	-0.35681835
6	0x3ebfd52e	0.3746733
7	0xbf88345a	-1.0640976
8	0x3f9264e8	1.1437044
9	0xbf93fad3	-1.156092
10	0x3edc517b	0.43030915
11	0xbfc438b6	-1.5329807
12	0xbce992bc	-0.028512351
13	0xbfb06dbc	-1.3783488
14	0xbfbcc5b2	-1.4747832
15	0xbf8f713c	-1.1206431

onnx::Conv_83 f4 [32, 16, 3, 3]
0	0xbbfb20f9	-0.0076638428
1	0x3c967d19	0.018370198
2	0x3c802ef5	0.01564739
3	0x3c57f3a5	0.013180648
4	0x3b6ed7e0	0.003644459
5	0xbc87271c	-0.016498141
6	0x3cb770fd	0.022392744
7	0x3ce7e48b	0.02830722
8	0xbb948ddc	-0.0045335125
9	0x3d9a8a43	0.075459026
10	0x3d78aa20	0.06070912
11	0xbd6a1dbc	-0.057157263
12	0x3c9204bf	0.017824529
13	0xbd0b39cb	-0.033990663
14	0xbc277b58	-0.010222279
15	0xbdc5bef9	-0.09655566
16	0x3d2c4c6b	0.042065065
17	0xbcbf70f5	-0.023369292
18	0xb9e3564c	-0.0004336111
19	0x3d7868eb	0.060646933
20	0xbc5a596f	-0.013326987
21	0x3a97006c	0.0011520511
22	0x3b8668a4	0.0041018296
23	0xbd85d375	-0.06534473
24	0xbd8e8351	-0.0695864
25	0xbc816c8d	-0.015798831
26	0x3b59eb81	0.0033251944
27	0xbd4b25cf	-0.049596604
28	0x3be15c9d	0.0068774954
29	0xbcd0c513	-0.025484597
30	0xbce61f4f	-0.028091101
31	0x3c07a588	0.008279212
32	0x3d73eb53	0.059550595
33	0x3bc4b919	0.0060035107
34	0x3d130b82	0.035899647
35	0xbb295a1e	-0.0025841068
36	0xbd540a35	-0.051767547
37	0xbd8df1be	-0.06930874
38	0xbd56b885	-0.052422065
39	0x3c0aab33	0.008463669
40	0x3d90bd29	0.070673294
41	0xbd1b082c	-0.03784959
42	0x3d5ff75a	0.054679252
43	0x3d622761	0.055213336
44	0x3de174ef	0.110086314
45	0x3da38366	0.07984047
46	0x3dae1ea4	0.08501938
47	0xbd06c0bc	-0.03289865
48	0xbbadef1f	-0.0053080465
49	0xbc187497	-0.009305141
50	0xbd4c5825	-0.04988875
51	0xbd89b1ed	-0.0672339
52	0xbd2bb798	-0.041923136
53	0xbd301f6b	-0.042998713
54	0x3da31212	0.07962431
55	0x3d0e6cb1	0.034771625
56	0x3dac3c90	0.08409989
57	0xbda42614	-0.08015075
58	0x3d34c70b	0.044135135
59	0x3cd244a4	0.025667496
60	0xbdc692d3	-0.09695973
61	0xbd7e1872	-0.06203503
62	0xbcdd1179	-0.02698587
63	0xbd8e49ba	-0.06947656
64	0x3c10f3b6	0.008847168
65	0xbd96a1be	-0.073550686
66	0xbd66e76b	-0.05637304
67	0xbc75fa3f	-0.015013277
68	0xbd4f1fbc	-0.050567374
69	0xbc3176b2	-0.010831522
70	0x3d8c2b01	0.0684414
71	0xbbf32e81	-0.007421315
72	0xbcad73b4	-0.021173336
73	0x3db48fd4	0.088164955
74	0x3cc826d2	0.024432573
75	0xbbe3044a	-0.0069280015
76	0xbd674025	-0.056457657
77	0xbcf97963	-0.03045339
78	0xbc8d2f19	-0.017234372
79	0x3cb3fe2d	0.021971786
80	0x3c9fe65f	0.01951903
81	0xbc2323f8	-0.009957306
82	0xbd80afce	-0.06283532
83	0xbd0b8251	-0.034059826
84	0xbcf5b196	-0.029991906
85	0xbd42270e	-0.047400527
86	0x3ce2c0be	0.027679797
87	0x3d0d5862	0.034508117
88	0x3c922e3a	0.017844308
89	0x3c0b7327	0.008511341
90	0xbc9f3329	-0.019433575
91	0x3c6e3cd2	0.014540868
92	0xbc61a2bc	-0.013771709
93	0xbd0b47cd	-0.03400402
94	0x3cb914a3	0.022592848
95	0xbc878526	-0.016542982
96	0xbd0a5e1e	-0.033781163
97	0x3d59b2bf	0.05314898
98	0xbbcbcf9a	-0.0062198164
99	0xbcdb6c62	-0.02678508
100	0xbc051097	-0.008121631
101	0x3ba38c64	0.004991101
102	0xbca525a0	-0.020159543
103	0xbd542cb8	-0.05180046
104	0x3c160502	0.009156467
105	0x3ce87c0f	0.028379468
106	0xbc92f24d	-0.017937804
107	0xbb609668	-0.0034269337
108	0x3d1def06	0.03855803
109	0x3ce92748	0.028461114
110	0x3ca8d8c1	0.020611169
111	0xbd910336	-0.070806906
112	0x3c5920c4	0.013252441
113	0xbd81920a	-0.06326683
114	0xbb75f02c	-0.0037527187
115	0x3d662037	0.056183066
116	0xbccdedf9	-0.025137888
117	0x3c56f948	0.013120957
118	0xbc03b2be	-0.008038221
119	0x3c6d9956	0.01450189
120	0xbc87ed1e	-0.016592558
121	0xbcbf7e2d	-0.023375595
122	0xbd9e3070	-0.077240825
123	0xbcef4024	-0.02920539
124	0x3cf57933	0.029965019
125	0xbcf0f8c2	-0.029415492
126	0x3ca4681d	0.020069176
127	0xbccafbe3	-0.024778312
128	0xbc108928	-0.008821763
129	0xbc39b7b5	-0.011335303
130	0xbd0cd9ee	-0.03438752
131	0xbd02ef41	-0.03196645
132	0xbcdc54eb	-0.02689596
133	0xbd2e9e6f	-0.042631563
134	0xbcefe0a8	-0.02928193
135	0xbd2b3f52	-0.041808434
136	0x3c9f258b	0.019427082
137	0x3c859389	0.016305702
138	0xbcd22cde	-0.02565616
139	0xbd3cf1f8	-0.046129197
140	0xbc887c58	-0.016660854
141	0x3cb18848	0.02167143
142	0xbd422abf	-0.047404047
143	0xbd14d088	-0.036331683
144	0xbd6ca8f3	-0.05777831
145	0x3d22243c	0.039585337
146	0x3cd36221	0.025803627
147	0xbb0f8d5c	-0.0021904325
148	0xbd1997d2	-0.037498303
149	0x3c9c042e	0.019044962
150	0x3d4d6a46	0.05015018
151	0x3b00556a	0.001958216
152	0x3b5bd4f5	0.003354368
153	0x3d00e335	0.03146668
154	0x3d17d251	0.037065808
155	0xbd598b20	-0.053111196
156	0xbd889b28	-0.06670219
157	0xbc63eef9	-0.013911956
158	0x3c3d73dc	0.011563268
159	0xbd5ad01f	-0.053421136
160	0xbd9b4b25	-0.07582692
161	0xbd0b15b1	-0.033956233
162	0x3b70ebde	0.0036761682
163	0xbd34f81c	-0.044181928
164	0xbd622c21	-0.055217866
165	0xbdc8e0a1	-0.098084696
166	0x3a95e0e3	0.0011434819
167	0x3bedd8cf	0.0072585116
168	0xbdc12514	-0.094309
169	0xbdb6103d	-0.08889816
170	0x3cd2d457	0.025736017
171	0xbc3d4760	-0.011552662
172	0x3dacc60a	0.084362105
173	0x3caf700d	0.021415735
174	0xbced6af0	-0.028981656
175	0xbcd38704	-0.025821216
176	0x3d040623	0.032232415
177	0x3bb25456	0.0054421825
178	0xbc98ff26	-0.018676352
179	0xbd124b1d	-0.035716165
180	0x3d81fff4	0.06347647
181	0xbd46192d	-0.048363853
182	0x3d9d3b2e	0.07677303
183	0xbd75614b	-0.05990724
184	0x3d490b11	0.04908282
185	0xbc872e2e	-0.016501512
186	0x3d0f21ca	0.034944333
187	0x3bfe3c25	0.0077586346
188	0xbc866293	-0.016404426
189	0x3bfe1ed6	0.007755141
190	0xbbcdd91a	-0.006281984
191	0x3d155c3f	0.036464926
192	0x3d69944c	0.057026193
193	0xbd03b486	-0.032154582
194	0x3d0f38f7	0.034966435
195	0xbca6cc35	-0.020361045
196	0x3d828627	0.06373244
197	0xbc34b59e	-0.011029629
198	0x3b6d598a	0.00362167
199	0x3df4e72c	0.11958155
200	0x3cf021a6	0.02931292
201	0x3cfe8de8	0.031073526
202	0x3d2fc94f	0.042916592
203	0xbac0650d	-0.0014678553
204	0x3cc02371	0.0234544
205	0xbd0091b3	-0.03138895
206	0x3a694adb	0.0008899399
207	0xbd1ce8f2	-0.03830809
208	0xbd86a406	-0.06574254
209	0xbd8374a2	-0.0641873
210	0xbd72c4fa	-0.059269883
211	0xbc852512	-0.016253028
212	0xbd7c21f4	-0.061555818
213	0x3d265ac0	0.04061389
214	0xbc6e2f52	-0.014537649
215	0x3c16278c	0.009164702
216	0x3db99224	0.09061077
217	0x3d959802	0.07304384
218	0x3daeaed2	0.08529438
219	0x3d17d2d8	0.03706631
220	0x3d75110b	0.059830707
221	0x3ca22aad	0.01979574
222	0xbd2dc15d	-0.042420734
223	0xbd4a4a48	-0.049387246
224	0xbd2921bd	-0.04129194
225	0xbda51b03	-0.08061793
226	0xbd9faf85	-0.077971496
227	0x3cceaab3	0.02522788
228	0x3c07c112	0.008285778
229	0x3c6aa0f9	0.014320605
230	0xbd878b20	-0.06618333
231	0x3cf0cde0	0.029395044
232	0x3c4180a7	0.011810458
233	0x3d531579	0.05153415
234	0x3b64fa7b	0.0034939337
235	0xbc621f21	-0.013801367
236	0x3d992d9f	0.07479405
237	0x3d1ab082	0.037765987
238	0xbd1f873e	-0.038947336
239	0xbce02932	-0.027363393
240	0xbda2467a	-0.079235986
241	0xbda08f66	-0.07839851
242	0xbd279b92	-0.040919848
243	0xbd2a4728	-0.041571766
244	0xbdbb7a28	-0.09154159
245	0xbd14a169	-0.036286745
246	0xbda65cf9	-0.08123202
247	0x3c02f4d1	0.007992939
248	0x3cd19803	0.02558518
249	0x3d4dbb51	0.050227467
250	0x3d36a4ca	0.04459075
251	0x3c5df3d3	0.013546902
252	0x3ced0005	0.028930673
253	0xbbb1ce47	-0.0054262015
254	0x3c1f7a88	0.009733804
255	0x3d93ca91	0.07216371

onnx::Conv_84 f4 [32]
0	0x3eb27338	0.3485353
1	0x3e5fbc1c	0.21849102
2	0xbf00a2c8	-0.50248384
3	0x3ed24d85	0.41074768
4	0xbdc7e4f4	-0.09760466
5	0x3df5c8fc	0.12001225
6	0xbd4e78ea	-0.05040828
7	0x3e8ff3a3	0.28115568
8	0x3e40237c	0.18763536
9	0x3f1fc83a	0.62414896
10	0xbebc66c4	-0.36797154
11	0x3f2073e7	0.6267685
12	0xbf00e61e	-0.5035113
13	0xbe4fcdb2	-0.2029331
14	0xbe59357a	-0.21211806
15	0x3ef1ec20	0.47250462
16	0xbbac6c50	-0.0052619353
17	0x3d956892	0.07295336
18	0x3e034827	0.12820493
19	0x3f3ae3e1	0.73003966
20	0x3de66ec8	0.112515986
21	0xbcd08f8f	-0.02545908
22	0x3f1b0565	0.60555106
23	0xbd5eae32	-0.054365344
24	0x3f52b7bc	0.82311606
25	0xbe48612a	-0.19568315
26	0xbe831568	-0.2560227
27	0x3d2ceb0d	0.04221635
28	0x3d841729	0.0644973
29	0x3e2ead5e	0.17058322
30	0x3f103629	0.5633264
31	0x3ef66a70	0.4812808

onnx::Conv_86 f4 [32, 32, 3, 3]
0	0x3bb9f13f	0.0056745107
1	0x3c7b514d	0.015339208
2	0xbce535e6	-0.027979802
3	0x3d913ba7	0.07091456
4	0x3c36b20e	0.01115085
5	0xbbef080c	-0.0072946604
6	0x3dba0486	0.09082894
7	0xbd36830d	-0.044558574
8	0xbca9c2c9	-0.020722764
9	0x3de642b0	0.112431884
10	0xba41dcd1	-0.000739527
11	0xbbd4937f	-0.0064873095
12	0x3e22489c	0.15848011
13	0xbad32ae8	-0.001611081
14	0x3d80fcd7	0.062982254
15	0x3e15115b	0.14557402
16	0x3dcf30f5	0.1011676
17	0xbd16984d	-0.03676634
18	0x3d279bdc	0.040920123
19	0x3dc601b6	0.09668295
20	0xbdac3e00	-0.08410263
21	0xbe18df0b	-0.14928834
22	0x3be23256	0.006902973
23	0xbe005277	-0.12531458
24	0x3b846cc3	0.0040412857
25	0x3de2efd1	0.110808976
26	0xbd0e2298	-0.03470096
27	0x3bb532eb	0.0055297515
28	0xbcce3fd9	-0.02517693
29	0x3c91915b	0.017769506
30	0xbd8943d2	-0.06702389
31	0xbceea0c3	-0.029129392
32	0xbca65996	-0.02030639
33	0xbce66062	-0.02812213
34	0xbb981bb4	-0.0046419743
35	0xbccb5fb0	-0.0248259
36	0x3ceee56b	0.02916213
37	0xbd01ecaf	-0.03171986
38	0x3d859d06	0.065240905
39	0xbcbed5f3	-0.023295378
40	0x3adff48f	0.0017086434
41	0xbb23ca70	-0.0024992488
42	0xbd5559c9	-0.05208758
43	0xbd5e7772	-0.05431313
44	0x3e0e321c	0.13886303
45	0xbce89c40	-0.028394818
46	0x3c0e256b	0.008675913
47	0xbd348629	-0.044073258
48	0x3d40e83d	0.04709648
49	0xbd7317f0	-0.059349
50	0xbdf4ebae	-0.11959015
51	0xbd1e772c	-0.03868787
52	0xbd1e865a	-0.038702346
53	0xbd449909	-0.04799751
54	0x3d81fd63	0.06347158
55	0x3c069d84	0.008216266
56	0x3d5cbff0	0.053893983
57	0x3d3652e8	0.04451266
58	0xbd3cfbc4	-0.04613854
59	0x3d0aad1a	0.03385649
60	0x3de89598	0.11356658
61	0x3e0a5b8d	0.13511486
62	0x3d825e51	0.06365646
63	0xbd8a4911	-0.067522176
64	0x3d1c4cd9	0.038159225
65	0x3c65190a	0.013983021
66	0xbd92c93b	-0.07167288
67	0xbd4a6102	-0.04940892
68	0xbdc0626d	-0.09393773
69	0x3afa5e5f	0.0019101611
70	0x3d1b8894	0.037972048
71	0x3dd2d4a4	0.10294464
72	0x3df40382	0.119147316
73	0x3d5dcfc3	0.054153215
74	0x3ddbcc2a	0.107323006
75	0x3d8acee7	0.06777745
76	0xba706195	-0.00091698143
77	0x3d723a4f	0.05913764
78	0x3de787c1	0.1130519
79	0x3d857c1d	0.06517813
80	0x3d9c3ec8	0.07629162
81	0xbcf278b0	-0.029598564
82	0xbdffdb3e	-0.12492989
83	0xbca02384	-0.019548185
84	0x3ddbba79	0.10728926
85	0x3dcde100	0.10052681
86	0x3c8416c3	0.016124135
87	0xbc602c16	-0.013682386
88	0xbaf4d70c	-0.0018679812
89	0xbd7a32a2	-0.061083443
90	0xbc258b15	-0.0101039605
91	0xbc5e6492	-0.0135737825
92	0x3bdbff1f	0.0067137624
93	0x3b8b3b4a	0.004249011
94	0x3d50bce0	0.050961375
95	0x3dbf06b3	0.0932745
96	0xbc61e3c7	-0.0137872165
97	0xbcbbc988	-0.022923246
98	0x3da73764	0.08164862
99	0x3dc57151	0.09640754
100	0x3e1cdc08	0.1531831
101	0x3e1eaff5	0.1549681
102	0x3d602c45	0.05472972
103	0x3e49ee78	0.19719875
104	0x3e4f3af1	0.20237328
105	0xba7d3507	-0.0009659086
106	0x3d8a61c1	0.06756926
107	0x3ddc38da	0.10753031
108	0x3cab1e6f	0.020888535
109	0xbd87d5b7	-0.0663256
110	0x3c4f81d1	0.012665228
111	0xba9aabc7	-0.0011800461
112	0xbd0c9098	-0.034317583
113	0xbd3853fd	-0.045001972
114	0x3dd609e8	0.10451108
115	0xbbc300e9	-0.0059510362
116	0x3d51eca0	0.051251054
117	0x3d0588fa	0.032601334
118	0x3c7926cb	0.015207003
119	0x3cd8047d	0.026369328
120	0xbd643abc	-0.055720076
121	0x3c90f2cd	0.017693901
122	0xbd1a9d4d	-0.03774767
123	0x3ccf1df9	0.025282847
124	0x3d695496	0.056965433
125	0xbc8d06ae	-0.0172151
126	0x3d0e187d	0.034691323
127	0xbd1869f7	-0.03721043
128	0x3cdd8fab	0.027046045
129	0x3d7a757f	0.06114721
130	0x3c3949c8	0.011309095
131	0xbba42ef9	-0.0050104824
132	0xbc63ae40	-0.013896525
133	0x3d17d714	0.03707035
134	0xbcea5b22	-0.028607909
135	0xbcb1fd36	-0.021727186
136	0xbcc45648	-0.023966923
137	0x3ccd891e	0.025089797
138	0xbd6bbc68	-0.057552725
139	0x3c065822	0.008199723
140	0xbd3e19d5	-0.046411354
141	0xbc02996f	-0.007971152
142	0xbcb087f8	-0.02154921
143	0x3c302b60	0.010752529
144	0x3d087a8f	0.033320006
145	0x3cfcc15d	0.030853922
146	0xbd8da207	-0.0691567
147	0x3dcaea55	0.099079765
148	0x3c9e1066	0.019294929
149	0xbe0e22f6	-0.13880524
150	0x3c301597	0.010747335
151	0xbd855e72	-0.06512155
152	0xbcd59c17	-0.026075406
153	0xbc48edf8	-0.012263767
154	0xbcbce147	-0.02305664
155	0xbd413adf	-0.047175284
156	0x3d1afd29	0.03783909
157	0xbbdd4761	-0.006752894
158	0xbd275d89	-0.040860686
159	0x3c58a33e	0.013222514
160	0xbcc78aa4	-0.024358101
161	0xbd5cad10	-0.053875983
162	0xbd6d2460	-0.057896018
163	0x3d6dd5da	0.058065273
164	0x3c2d0771	0.010560856
165	0xbd971328	-0.07376701
166	0x3cdcd27c	0.026955836
167	0xbd8e71ad	-0.06955276
168	0x3bc79686	0.006090942
169	0x3daa6837	0.08320659
170	0x3ce30124	0.027710505
171	0xbe22d05e	-0.15899798
172	0xbc89a944	-0.016804345
173	0x3ccc39de	0.024929937
174	0xbe17423e	-0.14771363
175	0xbda46614	-0.08027282
176	0x3c5b9110	0.013401285
177	0xbcec65ed	-0.028857196
178	0xbd139697	-0.036032286
179	0x3d66fabe	0.05639147
180	0xbc23a57c	-0.009988185
181	0x3c0d58f8	0.008627169
182	0xbd37a368	-0.04483357
183	0x3d61a2ba	0.05508683
184	0xbcf5ad81	-0.02998996
185	0x3b70f82c	0.0036769016
186	0xbd5593d2	-0.052142926
187	0xbd0f9d04	-0.03506185
188	0xbd9a3f92	-0.07531656
189	0x3cbed2c2	0.023293857
190	0x3d304950	0.043038666
191	0xbd45e797	-0.048316564
192	0xbdcbab70	-0.099448085
193	0xbc1e8b46	-0.00967676
194	0x3db202c9	0.086919375
195	0x3d6d7414	0.05797203
196	0xbd8067ee	-0.06269823
197	0x3bdf3744	0.006812008
198	0x3bdc6234	0.006725574
199	0x3c0c5762	0.008565756
200	0xbd7cb5ba	-0.061696745
201	0x3d3fc363	0.046817195
202	0xbcf23b81	-0.02956939
203	0xbd9c930c	-0.076452345
204	0x3c92a619	0.017901467
205	0xbca00142	-0.01953185
206	0xbd4938f1	-0.04912657
207	0x3bb62abf	0.005559295
208	0x3c64b88d	0.013960016
209	0xbc9ef7a1	-0.019405188
210	0xbd867d34	-0.06566849
211	0x3b228289	0.0024797043
212	0xbda66af5	-0.08125869
213	0x3ce7708f	0.028251914
214	0xbc261d49	-0.010138818
215	0xbc59893a	-0.013277346
216	0x3dda9e63	0.10674741
217	0x3e4178f2	0.18893793
218	0x3dde5b22	0.10857226
219	0x3c5cfd06	0.01348806
220	0x3e10b392	0.14131
221	0x3cdd3703	0.02700377
222	0xbd273fa1	-0.040832166
223	0x3ae5a8f4	0.0017521665
224	0x3a49db63	0.00077002327
225	0xbcc67c0c	-0.024229072
226	0x3c084982	0.008318307
227	0x3ce5d9a6	0.028057884
228	0xbb070541	-0.0020602497
229	0xbb03477e	-0.0020031626
230	0xbca7b4c5	-0.02047194
231	0x3cd8ee19	0.026480721
232	0xbbbef47f	-0.005827486
233	0x3de42a9b	0.11140939
234	0xbc943045	-0.018089423
235	0xbd486245	-0.048921842
236	0xbd9e29e5	-0.077228345
237	0x3d952492	0.07282366
238	0xbc092927	-0.008371628
239	0xbd878e83	-0.06618979
240	0x38c8f3bd	9.582143e-05
241	0x3dfa8ee5	0.12234286
242	0xbd1bda8d	-0.038050223
243	0x3bd14305	0.006386163
244	0xbcba1afb	-0.022717943
245	0xbcd55bfa	-0.026044834
246	0xbd55d046	-0.05220058
247	0xbd668a44	-0.056284204
248	0xbd3718c4	-0.044701353
249	0x3a8dbc99	0.0010813653
250	0x3ce27eab	0.02764829
251	0xbb954c71	-0.0045562317
252	0x3da0acef	0.078454845
253	0x3d75d040	0.060013056
254	0x3c142fb1	0.009044574
255	0x3ca5fe41	0.02026284

onnx::Conv_87 f4 [32]
0	0xbefcd883	-0.49383935
1	0xbec9b882	-0.3939858
2	0xbd2dd5b6	-0.04244014
3	0x3d41b454	0.047291115
4	0x3e860ec6	0.26183146
5	0x3f67faf8	0.9061732
6	0xbd6a380c	-0.057182357
7	0x3e5b2db9	0.2140416
8	0x3e7610f1	0.240299
9	0x3f580311	0.8437968
10	0xbe9427e9	-0.289367
11	0xbea52959	-0.32258108
12	0xbe07c2b6	-0.1325787
13	0xbe28fa03	-0.16501622
14	0xbef66caa	-0.4812978
15	0x3e0d27ef	0.13784765
16	0x3b890c8c	0.004182404
17	0x3e55e281	0.20887186
18	0xbed19a4e	-0.40938038
19	0x3c26388a	0.010145316
20	0xbee69f99	-0.45043638
21	0x3f53429e	0.82523525
22	0x3bcf9e04	0.0063359756
23	0xbe87d0a0	-0.26526356
24	0x3f06fb42	0.5272714
25	0xbe0a8f95	-0.13531335
26	0x3f012274	0.50443196
27	0x3f3f2ca0	0.7467747
28	0xbd9da6f6	-0.07697861
29	0x3db6acbb	0.089196645
30	0xbe32af7e	-0.17449757
31	0xbeae89f5	-0.34089628

onnx::Conv_89 f4 [32, 16, 1, 1]
0	0x3db39513	0.08768668
1	0x3e53f335	0.20698245
2	0xbe07659a	-0.13222352
3	0xbdde2487	-0.10846811
4	0x3e248586	0.1606656
5	0xbd929ef5	-0.07159225
6	0x3e223ce7	0.15843545
7	0x3e048671	0.1294191
8	0x3e180a75	0.14847739
9	0xbe02fd23	-0.12791876
10	0x3d661a55	0.056177456
11	0xbd8cfe60	-0.06884456
12	0xbe371267	-0.17878114
13	0xbccf99cc	-0.02534189
14	0xbe0bd62a	-0.13655916
15	0x3e235114	0.15948898
16	0xbe5dfad6	-0.21677718
17	0x3ebfde2f	0.374742
18	0xbe232c0c	-0.15934771
19	0x3d4120de	0.047150485
20	0xbe5f74da	-0.21821919
21	0xbd2ef7e4	-0.042716876
22	0x3e385657	0.18001686
23	0x3e21b12f	0.15790246
24	0x3e45bb98	0.19309843
25	0x3cdd7a54	0.02703587
26	0xbd7699bd	-0.06020521
27	0xbc8885a9	-0.016665297
28	0xbe365a1d	-0.17807813
29	0x3cd96990	0.026539594
30	0xbe815cf8	-0.25266242
31	0xbd86913d	-0.06570671
32	0xbdc16d34	-0.09444657
33	0x3e173aa2	0.1476846
34	0xbd687870	-0.056755483
35	0x3da031db	0.07822009
36	0xbdf1c64e	-0.11805402
37	0xbd20d111	-0.03926188
38	0x3e4fb693	0.2028449
39	0xbddd44e9	-0.10804159
40	0xbde21c4f	-0.11040556
41	0xbdac4061	-0.08410717
42	0xbd9a194e	-0.07524358
43	0xbd273805	-0.04082491
44	0xbe039cfd	-0.12852855
45	0x3c8edc41	0.01743901
46	0xbc81afbe	-0.01583087
47	0xbda3f969	-0.080065556
48	0x3e15ea05	0.14640053
49	0xbd23e5aa	-0.040013947
50	0xbe57173d	-0.21004958
51	0x3ddc22bd	0.10748813
52	0xbb951c07	-0.0045504603
53	0xbe3ca6fd	-0.18423076
54	0xbe776fea	-0.24163786
55	0x3d8bc767	0.06825142
56	0xbdb1a62c	-0.08674273
57	0xbd76a92c	-0.06021993
58	0x3e833c97	0.25632164
59	0x3d975083	0.07388403
60	0x3d755366	0.059893988
61	0xbdca179b	-0.09867784
62	0x3d850b9a	0.064963534
63	0x3d797db8	0.06091091
64	0xbcd389b4	-0.025822498
65	0x3c2b0394	0.010437865
66	0x3c3dba3c	0.011580046
67	0x3ec51aeb	0.384971
68	0x3ec6cf5b	0.38830075
69	0xbe0c84a1	-0.13722469
70	0xbef7894d	-0.4834694
71	0x3e7eb134	0.24872285
72	0x3e28d041	0.16485693
73	0xbf0cd71c	-0.5501573
74	0xbe63f0de	-0.22259852
75	0x3ec1de54	0.37864935
76	0x3cce5803	0.025188452
77	0xbf022a65	-0.5084594
78	0xbe0ff7f5	-0.14059432
79	0x3f059b87	0.5219044
80	0x3dad4935	0.08461229
81	0xbeb91f27	-0.3615658
82	0xbe06d120	-0.13165712
83	0x3e39ab83	0.18131833
84	0xbe99ed70	-0.30063963
85	0x3d9305e1	0.07178856
86	0xbdde6706	-0.10859494
87	0xbe0639cc	-0.13107985
88	0xbb98e230	-0.0046656355
89	0x3e2436ee	0.16036579
90	0xbe1d8d54	-0.15385944
91	0x3e87c9a3	0.26521024
92	0x3dd9ab83	0.106284164
93	0x3e4a30c3	0.19745164
94	0x3e609991	0.21933581
95	0x3e1e4b98	0.15458524
96	0x3d89cecb	0.06728896
97	0x3de0e3c2	0.10980941
98	0x3d6d2229	0.057893906
99	0x3e141dd4	0.14464504
100	0xbde62810	-0.1123811
101	0x3e2566f7	0.16152559
102	0x3e074379	0.13209333
103	0xbd9dcf86	-0.077055976
104	0x3de2d27e	0.110753044
105	0x3e514071	0.20434739
106	0x3dbaf089	0.0912791
107	0x3db95f31	0.090513594
108	0x3d993e8e	0.074826345
109	0x3e2323ba	0.15931597
110	0x3de84487	0.113411956
111	0xbded62b1	-0.115910895
112	0x3e9f84e4	0.31156075
113	0xbeba9990	-0.36445284
114	0x3d83c3dc	0.064338416
115	0xbd3716e6	-0.044699572
116	0xbc0a6a39	-0.008448177
117	0x3e7dfad0	0.24802709
118	0xbe370be0	-0.17875624
119	0xbeca617e	-0.39527506
120	0xbe150a59	-0.14554729
121	0xbe0f9746	-0.1402255
122	0xbe9797ee	-0.296081
123	0x3e0ca504	0.13734823
124	0x3c01f091	0.007930891
125	0xbdee98c8	-0.116502345
126	0x3e32de70	0.17467666
127	0x3da28e78	0.0793733
128	0xbdd97f1f	-0.106199495
129	0xbdbad565	-0.09122733
130	0x3ab5d735	0.0013873341
131	0x3e613fa5	0.21996935
132	0xbe144f5b	-0.14483397
133	0xbe399915	-0.18124802
134	0x3e5ebec3	0.21752457
135	0x3c5eca3e	0.013598023
136	0xbddcb03e	-0.10775803
137	0xbe808458	-0.2510097
138	0x3dad1ce7	0.08452778
139	0x3e1b9ac6	0.1519576
140	0x3e902835	0.28155676
141	0x3e84a2e9	0.2590554
142	0xbe68d324	-0.22736794
143	0xbdd37211	-0.10324491
144	0x3e897fb2	0.26855236
145	0x3e8cfdd6	0.2753741
146	0x3df400c2	0.11914207
147	0x3eaa1b65	0.33224025
148	0xbc347c20	-0.011015922
149	0x3e5e3c3d	0.21702667
150	0x3e0dc4a6	0.13844547
151	0x3aa17d18	0.0012320606
152	0xbe1e8946	-0.15482053
153	0x3e37d668	0.17952883
154	0xbc92e902	-0.017933372
155	0x3e02b445	0.1276408
156	0xbde74b7e	-0.11293696
157	0x3e8eb7a4	0.27874482
158	0xbe8fc31a	-0.28078538
159	0xbe4df056	-0.20111212
160	0x3d34c343	0.04413153
161	0x3d8cd333	0.068762206
162	0x3e6a51c4	0.22882754
163	0xbd967877	-0.073471956
164	0xbe55f9fd	-0.20896144
165	0x3e295522	0.16536382
166	0x3e2048fb	0.1565284
167	0x3e871f21	0.26390937
168	0x3e94dc87	0.290745
169	0x3e2ac5a1	0.16676952
170	0xbd87306f	-0.06601035
171	0xbd40c192	-0.047059603
172	0x3e421a17	0.18955265
173	0x3e3bd3a7	0.18342458
174	0xbe770cc9	-0.24125971
175	0xbde22a09	-0.11043174
176	0xbe70776e	-0.23483059
177	0xbce5902a	-0.028022844
178	0xbe64946c	-0.22322243
179	0xbd0bf158	-0.03416571
180	0x3df0e8a0	0.1176312
181	0xbdb6e311	-0.08930028
182	0x3e4e4858	0.20144784
183	0xbdbe4995	-0.092913784
184	0x3db307f4	0.08741751
185	0xbe4696ec	-0.1939351
186	0x3e21b9bf	0.15793513
187	0x3b4f6f83	0.003165216
188	0x3e95872a	0.29204684
189	0x3e5f2338	0.21790779
190	0xbdf73a25	-0.12071637
191	0x3d689a7c	0.056787953
192	0x3d6fb59d	0.05852281
193	0x3da9f585	0.08298782
194	0x3e2cf9f7	0.16892229
195	0x3e0cfff8	0.1376952
196	0xbd8fa93c	-0.07014701
197	0x3cfe467b	0.031039467
198	0x3dac0efa	0.08401294
199	0xbd90a3cb	-0.07062491
200	0x3d87d0e2	0.06631638
201	0x3da172ef	0.0788325
202	0x3dded5f1	0.1088065
203	0x3dbececc	0.09316787
204	0x3e81d484	0.2535745
205	0x3dca12b2	0.09866847
206	0x3dc59444	0.0964742
207	0x3d8e0e8a	0.06936367
208	0x3d8b3199	0.067965694
209	0x3e1b4247	0.15162002
210	0xbdbb86f8	-0.091566026
211	0x3e282a52	0.16422394
212	0xbe826e49	-0.25474766
213	0xbd3ea92a	-0.046548046
214	0xbdedd161	-0.116122015
215	0x3da121e7	0.078677945
216	0xbe3b86f6	-0.18313202
217	0x3ca735ef	0.02041146
218	0xbe416f70	-0.18890166
219	0x3e37d833	0.17953567
220	0x3e3ba8d7	0.18326126
221	0xbc5ab044	-0.013347689
222	0x3e4e2229	0.20130219
223	0xbdef60c8	-0.116883814
224	0x3db99190	0.09060967
225	0x3e6a43db	0.22877447
226	0xbebcad43	-0.36850938
227	0xbdd971ea	-0.106174305
228	0xbefaeddc	-0.49009597
229	0xbe983b72	-0.29732853
230	0x3f279ead	0.65476495
231	0x3ea1076d	0.31450978
232	0x3e25a9c8	0.16178048
233	0xbe02ba58	-0.12766397
234	0x3e20e593	0.15712576
235	0x3f115983	0.5677721
236	0xbbf4ac01	-0.0074667935
237	0xbe5cb399	-0.21552886
238	0x3f084a02	0.53237927
239	0x3e8dc90a	0.27692443
240	0x3e18ee76	0.14934716
241	0x3d9a2c8c	0.07528028
242	0x3d92b3f1	0.07163227
243	0x3e88ce73	0.26720008
244	0xbdc0510c	-0.093904585
245	0x3d651f00	0.055937767
246	0x3ddfb7ca	0.10923727
247	0x3e72eef2	0.23723963
248	0xbe220d34	-0.15825349
249	0x3d91ec44	0.07125142
250	0xbca57a50	-0.020199925
251	0xbda4a13d	-0.08038566
252	0x3e578802	0.21047977
253	0xbd7cfc5a	-0.0617641
254	0x3d9106ae	0.07081352
255	0x3d279ee1	0.040923003

onnx::Conv_90 f4 [32]
0	0xbe323903	-0.1740456
1	0x3c8b7f61	0.017028512
2	0x3e5eb129	0.21747269
3	0x3cd47684	0.025935419
4	0xbd89a091	-0.06720079
5	0xbdc74d78	-0.09731573
6	0xbf282ce9	-0.6569353
7	0x3ecf576b	0.40496382
8	0xbde4aef2	-0.11166181
9	0xbf1cc228	-0.6123376
10	0xbf127c74	-0.5722115
11	0xbe409ef6	-0.18810639
12	0xbf3cb9ae	-0.73720825
13	0xba9463f0	-0.0011321288
14	0xbf54fea0	-0.83201027
15	0xbf075af1	-0.5287314
16	0x3ee49114	0.44641936
17	0xbf39e665	-0.7261718
18	0x3e9c8320	0.3056879
19	0x3da058aa	0.07829411
20	0x3e904f6d	0.28185597
21	0xbee2a7cf	-0.44268653
22	0xbe771d84	-0.24132353
23	0xbdf6cf28	-0.12051231
24	0x3e8f7a11	0.28022817
25	0xbdf55080	-0.11978245
26	0x3e5f412c	0.21802205
27	0x3ebb9481	0.36636737
28	0x3e6e8649	0.23293413
29	0x3e122c2c	0.14274663
30	0xbde25d72	-0.110529795
31	0x3e5ce798	0.21572721

onnx::Conv_92 f4 [64, 32, 3, 3]
0	0x3be7a9e4	0.007069813
1	0x3c172b16	0.009226581
2	0x3bbf6921	0.0058413898
3	0xbb114ad1	-0.0022169838
4	0xbce2bbd9	-0.027677463
5	0xbcfb2898	-0.030659005
6	0xbcfe46e9	-0.031039672
7	0xbba302cc	-0.0049746986
8	0x39ec06a7	0.00045018384
9	0xbcc2ace4	-0.023764081
10	0xbc937a10	-0.01800254
11	0xbc7d80fa	-0.015472645
12	0xbd7a8752	-0.061164208
13	0xbd2b0ef6	-0.041762315
14	0xbc3c7623	-0.011502775
15	0xbd142a37	-0.03617307
16	0xbc2adbc8	-0.0104283765
17	0xbce27d51	-0.027647646
18	0x3b70f335	0.0036766056
19	0x3c03816d	0.008026463
20	0x3aad0369	0.0013199869
21	0x3c44242a	0.011971513
22	0xbbcca75b	-0.0062455363
23	0xbd10022b	-0.035158318
24	0xbd0a59ef	-0.033777174
25	0x3be97094	0.007124016
26	0xbc3879de	-0.011259524
27	0x3ccfd345	0.025369296
28	0x3d5a20ba	0.053253867
29	0x3bbc916a	0.0057546394
30	0xbc6f2cf5	-0.014598121
31	0x3bde9569	0.0067927134
32	0xbb8d41fb	-0.004310844
33	0x3cd07bd1	0.025449665
34	0xbc82c042	-0.015960816
35	0xbd13f999	-0.036126707
36	0xbc87a23f	-0.016556857
37	0xbc0214c1	-0.007939518
38	0xbb0b388a	-0.0021243417
39	0xbd4e5558	-0.05037436
40	0xbd13d16f	-0.036088403
41	0xbd10a6da	-0.035315372
42	0xbcf43ebb	-0.029815068
43	0xbc3aadbf	-0.011393963
44	0xbcfd5c78	-0.030927882
45	0xbd07a730	-0.033118427
46	0xbd18a95e	-0.037270896
47	0xbd27bab4	-0.04094954
48	0x3c5c3f25	0.013442789
49	0xbb1627eb	-0.0022911977
50	0xbc3c3d3f	-0.011489212
51	0xbc4f95c9	-0.012669989
52	0xbc0916d5	-0.00836726
53	0x3c017307	0.00790096
54	0xbcceea74	-0.02525828
55	0xbb661dd1	-0.0035112987
56	0xbcb983c2	-0.022645835
57	0x3d57f7e2	0.052726634
58	0x3ccbaf72	0.024863932
59	0xbbc69db4	-0.00606128
60	0xbca0c8af	-0.019626943
61	0xbcd10a9a	-0.02551775
62	0xbd15d014	-0.036575392
63	0x3c94a3f7	0.01814459
64	0x3d2d2991	0.04227597
65	0xbc136974	-0.00899731
66	0xba404577	-0.000733457
67	0x3d2309fe	0.03980445
68	0x3cbc00c7	0.02294959
69	0x3d3119f0	0.043237627
70	0x3c20584b	0.009786676
71	0xbcacb7df	-0.02108377
72	0x3b7ecfa8	0.0038881097
73	0xbb9e04a2	-0.0048223296
74	0x3cd6cda5	0.026221106
75	0xbca52fd8	-0.020164415
76	0xbd0366ae	-0.032080345
77	0x3c6cd3b2	0.014454769
78	0xbc7cde18	-0.015433811
79	0xbcee1c97	-0.029066367
80	0xb6a01e6b	-4.7719127e-06
81	0x3c7aa91f	0.015299111
82	0x3ce6bc44	0.028165944
83	0x3b60a9f4	0.0034280987
84	0xbcfaa8dc	-0.030598097
85	0xbbfac884	-0.007653298
86	0x3d7d7a50	0.061884224
87	0xbc811200	-0.015755653
88	0x3bccf7a4	0.006255107
89	0xbb51e725	-0.0032028642
90	0x3d120b54	0.035655335
91	0x3c9a5c65	0.018842885
92	0x3c7917e3	0.015203449
93	0x3d23ee8d	0.04002242
94	0x3d7c7ada	0.061640598
95	0x3d0582ea	0.032595553
96	0x3d48f11b	0.04905806
97	0x3c093645	0.008374755
98	0x3d276c5b	0.04087482
99	0x3c8741d5	0.016510883
100	0x3cdaff1b	0.026732972
101	0x3c2a7451	0.010403709
102	0x3bd9db64	0.006648468
103	0x3b832b1e	0.0040029427
104	0xbc6ba9b5	-0.014383723
105	0x3c23345f	0.009961217
106	0x3a090eab	0.0005228321
107	0xbbddc08d	-0.0067673386
108	0x3acf165d	0.0015799511
109	0xbce25b61	-0.027631463
110	0xbcc74fed	-0.024330104
111	0x3c0a0cca	0.008425901
112	0xbcaf8133	-0.021423912
113	0xbc8fa772	-0.017535899
114	0xbc290490	-0.010316029
115	0xbd2367aa	-0.039893784
116	0xbc3fbd5c	-0.011702862
117	0x3c4c7f69	0.012481549
118	0x3ae60800	0.0017549992
119	0xbd18f530	-0.037343204
120	0x3cb1d855	0.0217096
121	0xbd58de9d	-0.052946676
122	0xbb91dec9	-0.004451607
123	0xbcb5a64f	-0.022174029
124	0xbcf48c7e	-0.029852148
125	0xbcb5d70d	-0.02219727
126	0xbb4d1b57	-0.0031296813
127	0x3d96ecb5	0.07369367
128	0x3d3a6170	0.04550308
129	0xbc98bd29	-0.018644886
130	0xbd202bae	-0.039104156
131	0xbc9b2e78	-0.018943056
132	0xbcd4eb38	-0.025991067
133	0x3caeb7c4	0.02132786
134	0x3c8257fe	0.015911099
135	0x3ca3619d	0.019944007
136	0x3d073270	0.033007085
137	0x3d35bbd6	0.044368587
138	0xbc0c2baa	-0.008555332
139	0xbc340180	-0.010986686
140	0xbbf3c4b7	-0.0074392217
141	0xbb7ca0d2	-0.0038548005
142	0xbc13da3b	-0.009024198
143	0x3ca1fed7	0.019774837
144	0x3bbccbd6	0.005761604
145	0x3a9b1226	0.001183097
146	0x3c4c1c1e	0.012457876
147	0xbc455705	-0.012044673
148	0xbc5e57e4	-0.013570759
149	0xbacbac80	-0.001553908
150	0xbca5a6d6	-0.020221155
151	0xbc9ba025	-0.018997261
152	0xba8d43f5	-0.0010777699
153	0x3c54d16c	0.012989383
154	0x3caf8bd9	0.02142899
155	0x3d37c6fd	0.044867504
156	0xbb7ea044	-0.003885285
157	0x3c2e8cc5	0.010653679
158	0xbc08c9e9	-0.00834892
159	0xbcaa4bf7	-0.020788176
160	0xbcbde915	-0.023182431
161	0x3b97cbd1	0.004632451
162	0x3d03d5c0	0.03218627
163	0x3cc34047	0.02383436
164	0x3c81be0f	0.015837697
165	0x3c2b9ee9	0.010474899
166	0xbc0dab60	-0.008646816
167	0xba259a0a	-0.0006317204
168	0xbbf126fa	-0.0073593827
169	0xbc855b8b	-0.016279003
170	0x3ca277ec	0.019832574
171	0xbc8bffa0	-0.017089665
172	0xbc39975e	-0.011327593
173	0xbc59162a	-0.013249913
174	0xbc9e049d	-0.01928931
175	0xbcc3408c	-0.02383449
176	0xbc82244a	-0.015886445
177	0x3d235041	0.039871458
178	0xb9ac2ea2	-0.0003284114
179	0xbc68cf03	-0.014209512
180	0xbc80c3de	-0.015718397
181	0x3c348a54	0.011019308
182	0x3c8a7b9b	0.016904643
183	0x3b0237c2	0.001986966
184	0x3da6fc6f	0.08153617
185	0xbaa80d80	-0.0012821406
186	0x3c913d87	0.017729534
187	0x3d247739	0.040152762
188	0x3b522656	0.0032066307
189	0x3b6d1536	0.0036175973
190	0x3c83777d	0.016048187
191	0xbb4f4abc	-0.0031630239
192	0x3c392401	0.011300088
193	0x3bf3bf14	0.00743855
194	0xbc681ece	-0.014167501
195	0xbc6f1347	-0.014591998
196	0xbccfde5c	-0.025374584
197	0xbca6ee01	-0.020377161
198	0xbc2b395c	-0.010450687
199	0xbc81bb78	-0.015836462
200	0xbd083ffa	-0.033264138
201	0xbcaf0cee	-0.02136847
202	0xbc59bab5	-0.013289143
203	0xbc7e532b	-0.0155227585
204	0xbc6d0093	-0.014465469
205	0xbcc8016f	-0.024414746
206	0xbc605112	-0.013691204
207	0xbcec5a45	-0.028851638
208	0xbc37b0f9	-0.011211627
209	0xbd0b971f	-0.034079667
210	0x3babd137	0.005243446
211	0xbc8145b5	-0.01578031
212	0xbca0850d	-0.019594694
213	0xbcabef0d	-0.020988012
214	0xbba68811	-0.0050821383
215	0xbcc8cf34	-0.024512865
216	0x3c778136	0.01510649
217	0x3c7ce2ae	0.015434904
218	0x3d0914ba	0.033467032
219	0xbc68c6f4	-0.01420759
220	0xbbce572d	-0.0062970133
221	0xbc09d460	-0.008412451
222	0x3cec6cee	0.028860535
223	0x3d716c15	0.058940966
224	0x3d32e7d6	0.043678127
225	0x3c8748e0	0.016514242
226	0x3c97c050	0.018524319
227	0x3c4b3d23	0.012404713
228	0xbc1cc4b1	-0.009568379
229	0x3b9ef140	0.0048505366
230	0x3b954ccb	0.0045562736
231	0xbbfb335a	-0.0076660337
232	0x3cba101c	0.02271276
233	0xbc1a411c	-0.009414937
234	0x396e6631	0.00022735518
235	0xba8fc69d	-0.0010969226
236	0xbb911ce6	-0.004428494
237	0x3bc03c29	0.0058665466
238	0x3c9c67c6	0.019092452
239	0xbad2e489	-0.0016089837
240	0x3b8056ce	0.003916598
241	0x3c71a9e9	0.014749982
242	0x3d210bb1	0.03931779
243	0xbd5768d8	-0.05259022
244	0xbc6299d6	-0.013830623
245	0xbd2cf8c2	-0.04222942
246	0xbd557a51	-0.052118603
247	0x3ba18065	0.004928636
248	0x3abb5b5d	0.0014294196
249	0x3c115ea6	0.008872664
250	0xbc929dfd	-0.0178976
251	0xbadf730c	-0.0017047836
252	0xbcafc1ce	-0.021454718
253	0x3c1d15e9	0.009587743
254	0xba819a76	-0.0009887952
255	0xbc65ac7e	-0.014018176

onnx::Conv_93 f4 [64]
0	0xbd4a3ba3	-0.04937328
1	0xbdf62148	-0.12018067
2	0x3c86abbe	0.016439315
3	0x3f17191f	0.59022707
4	0x3d4bc5b8	0.049749106
5	0x3ca38cf4	0.019964673
6	0x3dbed0f4	0.093171984
7	0x3d6bbf4c	0.05755548
8	0x3cc21515	0.023691693
9	0xbecfa6f2	-0.40557057
10	0x3dd8da5d	0.105885245
11	0xbe18eca3	-0.1493402
12	0xbe4d3e5b	-0.20043318
13	0x3e254d36	0.16142735
14	0xbe4d9aed	-0.20078631
15	0xbe2e4503	-0.17018513
16	0xbe28db42	-0.1648989
17	0x3e15f1de	0.14643046
18	0x3e6ac73a	0.22927561
19	0xbd59a1c8	-0.053132802
20	0x3e8863cd	0.26638642
21	0x3e5a5a64	0.21323544
22	0x3e40b8c6	0.18820485
23	0x3e2256bf	0.15853404
24	0x3e734dd3	0.23760156
25	0x3e7feafc	0.24991983
26	0x3e033b9d	0.1281571
27	0xbbac3194	-0.0052549336
28	0x3c5ab3d7	0.013348541
29	0x3e3926e2	0.18081239
30	0x3dc14241	0.09436465
31	0x3d981b79	0.07427115
32	0xbdbbe8f0	-0.09175289
33	0x3e04182a	0.12899843
34	0xbd99b09a	-0.07504387
35	0x3d8710b6	0.06594984
36	0x3d020c63	0.031750094
37	0xbeea30b8	-0.45740294
38	0x3eb26403	0.34841928
39	0xbe1aa20f	-0.15100883
40	0x3bdd59d8	0.006755095
41	0xbd6f95bd	-0.05849241
42	0x3dcb702d	0.09933505
43	0x3e103be2	0.14085343
44	0x3d885d8d	0.066584684
45	0x3ee19b01	0.4406357
46	0xbd0816b1	-0.033224765
47	0xbd9ba767	-0.07600289
48	0x3d814ca9	0.0631345
49	0xbd0dad7a	-0.03458927
50	0x3d0b5f40	0.034026384
51	0x3e63c137	0.22241674
52	0xbdeb7141	-0.11496211
53	0x3e76dbc2	0.24107268
54	0x3de8351e	0.11338256
55	0xbe111ecc	-0.14171904
56	0xbebefa9c	-0.37300575
57	0xbe684082	-0.22680858
58	0xbe012b1a	-0.12614098
59	0xbd4f3906	-0.05059149
60	0xbe2a80f1	-0.1665075
61	0x3df65709	0.120283194
62	0x3e0e83ca	0.13917461
63	0xbddd4b24	-0.108053476
