cmd/ai/datas/models/ladybug.onnx (onnx, 302121 bytes, 16 tensors)

fc.weight f4 [2, 256]
000000 50 d4 8d bd d8 06 f1 bc b7 a7 ce bd 37 9e a2 bd
       -0.06925261 -0.029422209 -0.10090583 -0.07940333
000010 36 93 0a be 69 b7 1f be 4a b3 dd bd c6 09 ed bd
       -0.13532719 -0.15597309 -0.10825212 -0.1157413
000020 4f 11 18 bc 9a 51 60 bc f6 6e f4 bc d7 1b a4 3c
       -0.00928147 -0.01369133 -0.029838067 0.020032806
000030 48 55 fc 3c f1 9a 87 3d 19 36 87 bd 32 59 7b bd
       0.030802384 0.066213496 -0.06602115 -0.06136436
000040 82 80 e7 3d 57 21 d6 3d c1 d3 b9 3c 54 3a 22 3d
       0.11303808 0.10455578 0.02268398 0.039606407
000050 5b 41 59 3d 43 8c 01 3e 4a c9 0f 3d 8b db 23 3d
       0.053040843 0.12651162 0.035104074 0.040004294
000060 c8 38 c9 3d e8 9a 83 3d 41 ec dd bb ed c7 32 bd
       0.09825283 0.064260304 -0.0067725484 -0.043647695
000070 6d 72 a3 bc 07 10 42 bd 8c 76 08 3d 8d 84 88 3d
       -0.019952023 -0.047378566 0.03331618 0.06665907
000080 fc 0f a3 3c 0f 57 17 3c 50 a0 b2 3d d0 18 d3 3d
       0.019905083 0.009237065 0.087219834 0.10307467
000090 8f ab 6e bd 34 63 9e bd 6e 36 95 bd 7d 53 9c bd
       -0.05826908 -0.07733765 -0.07285772 -0.076331116
0000a0 a0 ab 00 bd fd ac 9c bd 12 25 c1 3d 21 dd dc 3d
       -0.031413674 -0.076501824 0.09430899 0.107843645
0000b0 a4 99 0f bb 8f 5b 34 b9 52 79 06 3c 2e fe cb bc
       -0.0021911645 -0.00017200246 0.008207636 -0.024901476
0000c0 05 4d b2 3d 8b d6 7b 3d 34 50 d5 3d 9b 52 f6 3c
       0.087060966 0.0614839 0.10415688 0.030068686
0000d0 89 6d 17 3e 17 3d 1a 3e 04 31 5e 3d 5b 15 a3 3d
       0.14787878 0.15062366 0.054245964 0.079630576
0000e0 ae 46 9a 3d 41 49 02 3d 53 d7 d1 3d c3 f3 de 3d
       0.07533012 0.03180814 0.10246148 0.108863376
0000f0 9a 59 42 bb cc 4e 43 3c 60 e2 c3 bd 4c ef 58 bd
       -0.0029655457 0.011920642 -0.09564662 -0.052962586
000100 d0 96 b0 3d 31 09 c9 3d 1f bd a9 bd ca 87 86 bd
       0.08622515 0.09816206 -0.08288025 -0.065688685
000110 e9 b9 db bc 91 a5 45 bd c4 d7 d2 bb aa b2 c6 bc
       -0.026822047 -0.0482536 -0.0064344127 -0.024255116
000120 07 61 09 3d 6a ef 15 3d 72 f6 f7 bc 9e 33 60 bc
       0.033539798 0.036605276 -0.030268881 -0.0136841815
000130 e8 35 48 bd 21 9a 94 bd 52 13 48 bd 28 a0 b6 bc
       -0.048879534 -0.0725596 -0.04884655 -0.022293165
000140 08 a7 6f 3b c6 8d c7 3c 8d e6 42 bd 6e fa b5 bc
       0.0036568064 0.024359595 -0.04758315 -0.02221414
000150 9d 05 c9 bc 5c 49 07 3c 1d f2 0e 3d ad fa 7e b9
       -0.02453881 0.008257236 0.034898866 -0.00024316712
000160 23 91 a4 bb 59 0d 01 be 73 55 bc bc 46 6b c9 bd
       -0.0050221845 -0.12602748 -0.022989964 -0.09834914
000170 9e 4f 9a bd 03 c7 eb bd d5 95 83 bd 10 74 0f be
       -0.07534717 -0.11512568 -0.064250626 -0.14009118
000180 53 7a ef 3c b5 d4 2d bc aa 15 ec bc e1 db 11 bd
       0.029233133 -0.010609795 -0.028818924 -0.035610083
000190 a4 ac 34 3d b3 47 b8 3b cc 48 0f 3a cb 92 9b 3c
       0.044109955 0.0056237816 0.00054658647 0.018990895
0001a0 7c 41 3e 3c 65 15 7a 3c b3 5c f9 bc 19 08 35 bd
       0.011612292 0.01526389 -0.03043971 -0.044197176
0001b0 d5 80 82 bc 32 7b 09 bc 40 0e 8e 3d f1 bf 4a bb
       -0.015930573 -0.008391188 0.06936312 -0.003093716
0001c0 b0 59 04 3d 9b 65 7b 3d 4d 66 53 bd 73 8b 53 bd
       0.032312095 0.061376195 -0.051611234 -0.05164666
0001d0 59 c9 b9 bd 9f 06 08 be 77 3d 88 bd c6 16 04 be
       -0.09071607 -0.13283776 -0.066523485 -0.12899312
0001e0 8a 54 41 3d 0f fa f4 bb 0b 1f 5a 3d ba 9c ab bc
       0.047199763 -0.0074760984 0.05325226 -0.020948756
0001f0 b8 53 7a bd a2 bc 1c bd ca a0 78 3d c3 04 6a 3d
       -0.061114997 -0.03826583 0.060700215 0.057133447
000200 9f 8e 4a 3d 7f 52 48 bc 7d 5f bb bc 1f 20 3b bd
       0.04945242 -0.0122267 -0.02287268 -0.04568493
000210 a7 85 4c bd 58 56 80 3c cd 01 f5 3c c9 27 70 3d
       -0.04993215 0.015666172 0.029908085 0.058631692
000220 a3 5a d8 3d 60 7a 47 3d 40 b4 81 3d db e4 9b bc
       0.105641626 0.04870069 0.06333208 -0.019030025
000230 90 31 07 3e fb 8e f5 3d 82 b5 86 bd 6f b1 8e 3b
       0.132025 0.11990162 -0.065775886 0.004354648
000240 6b b2 91 bb 43 d1 ad 3b 19 55 c3 3b 33 69 8e bc
       -0.004446318 0.005304487 0.005961072 -0.017384147
000250 78 c8 2d 3d 89 7a 44 3d c2 e9 41 bd 06 d5 49 bd
       0.04242751 0.04796842 -0.04734207 -0.04927542
000260 c1 ee 28 bd fe aa ae 3c 3b 25 14 3d 3f a0 bc 3d
       -0.04124332 0.02132177 0.03616832 0.09210252
000270 83 f6 92 3d c1 e2 b2 3d 79 b7 41 3d 9d 27 02 3d
       0.07175925 0.08734656 0.047294114 0.03177606
000280 12 81 dd 3d 0a 9b 05 3e 60 44 ca 3d b9 cf bc 3d
       0.10815634 0.13047424 0.09876323 0.092193075
000290 90 65 e6 3d a9 4d af 3d de da 7a 3c 2a 78 7d bd
       0.1124984 0.085597344 0.015310971 -0.061882176
0002a0 8c 03 01 be 30 44 ff bd be f2 64 bd 95 d1 9a bd
       -0.1259901 -0.124641776 -0.05589556 -0.07559506
0002b0 a2 f7 7d bc 00 b9 69 bd 39 95 d3 bd 38 16 66 bd
       -0.015500935 -0.057061195 -0.10331196 -0.056173533
0002c0 c6 98 21 3e 3e d8 c0 3d 44 0a f4 3d c2 fb fb 3d
       0.15780935 0.09416245 0.119160205 0.12303878
0002d0 a3 63 f3 3c 39 ff 9e 3d af ed 1d bc 46 4f 39 3d
       0.029710596 0.077635236 -0.009639188 0.045241617
0002e0 51 f9 8a bd dc 4c a3 bb 18 35 1c be 24 41 da bd
       -0.067858346 -0.0049835276 -0.15254629 -0.10656956
0002f0 ca c7 81 bb f9 c8 8a bc 3c fc 9d 3c c3 c9 2e 3d
       -0.0039605843 -0.016941534 0.019285314 0.042672884
000300 02 4e 05 bc 96 74 25 3d 60 8a 0d bd fa d9 5b bc
       -0.008136274 0.04039439 -0.034555793 -0.013418669
000310 1f 1c 80 3d e5 b7 b1 3d a7 04 42 bd 45 f7 3f bd
       0.06255364 0.08677653 -0.047367718 -0.046866674
000320 33 8f cd 3d 34 56 a0 3d a8 a7 b9 3d d1 06 d6 3d
       0.10037079 0.07828942 0.09065181 0.10450519
000330 00 66 80 3d 7e bb 40 3d 3c cf 03 bd 8b 3c 97 bc
       0.06269455 0.047053806 -0.032180056 -0.018461486
000340 60 cf 44 bd b6 ac b9 bd cb 8a ce bd ad f1 69 bd
       -0.04804933 -0.09066145 -0.100850664 -0.057115246
000350 81 7a f4 bb 77 90 42 bc db 42 92 3c e0 1b e7 3d
       -0.0074608927 -0.011875263 0.017854145 0.112846136
000360 0d ac 27 bd e7 e0 bf bd ea 1b b8 bd ef d0 82 bd
       -0.040935565 -0.093690686 -0.08989699 -0.06387507
000370 8a d9 ef bc d6 97 9d bc 29 9b c2 ba 09 e9 30 bd
       -0.029278535 -0.01923744 -0.0014847267 -0.04319099
000380 82 ce 05 3d e7 33 0c bd a8 6f de bc 59 81 8e ba
       0.032667644 -0.034229185 -0.027152851 -0.0010872289
000390 95 d3 c9 3c 71 0e 9a 3d 7f 15 66 bd 29 c2 49 bd
       0.024637023 0.07522286 -0.056172844 -0.04925743
0003a0 1c cf 16 bd ee 00 23 bd 9c 59 21 3d 1c 61 d4 3b
       -0.03681861 -0.03979581 0.0393921 0.006481303
0003b0 b2 71 10 bd e2 90 07 3c 93 28 a0 3b 09 cf 9a 3c
       -0.03526468 0.008274289 0.0048876493 0.01889755
0003c0 fa 1a d7 bc dd 68 e0 3c f7 0a c0 3d 77 9c 05 3e
       -0.02625798 0.027393753 0.093770914 0.13047968
0003d0 5f c5 ae 3d 7f 45 3b 3d 57 83 9b 3c b9 2a 43 bd
       0.08533739 0.045720574 0.018983526 -0.047648165
0003e0 51 96 2a bd ab 0d fd bd 90 6c 70 bd 31 41 fe bd
       -0.04164726 -0.123561226 -0.058697283 -0.12414778
0003f0 82 84 80 3c 0c 41 82 bc c8 b7 88 bd ff 0c 92 bd
       0.015688185 -0.015900157 -0.066756785 -0.07131385

fc.bias f4 [2]
000000 05 e7 0c 3d b2 5f 27 3d
       0.034400005 0.040862747

onnx::Conv_80 f4 [16, 3, 7, 7]
000000 1b 04 5a be 46 21 a9 be 94 9a 09 be 40 e4 80 3d
       -0.21290629 -0.33033198 -0.13437873 0.06293535
000010 ae d7 cf bd 5f 61 7d 3e 5d a3 d0 bc b5 78 97 be
       -0.101485595 0.24744175 -0.025468523 -0.2958428
000020 f7 c6 22 be dd 2c 84 3e 13 8f 8b 3e b4 68 b3 3c
       -0.15896212 0.25815478 0.27257594 0.021900512
000030 73 a9 d9 bd 4c d2 2b 3d cc 42 b6 bd 0c 69 a6 3e
       -0.10628023 0.0419486 -0.08899459 0.3250202
000040 c6 22 c4 3e c5 1d ff 3c 2b 02 a0 3e 17 6f 46 3e
       0.3830778 0.031142125 0.31251654 0.19378315
000050 41 a6 38 3e 62 7d b1 3e 54 5d a2 3e 57 98 85 3e
       0.18032171 0.34665972 0.3171183 0.2609279
000060 df 3f 0c 3d ce 37 d0 bd 29 99 85 ba 8c 27 4b 3e
       0.0342406 -0.10166894 -0.001019274 0.19839305
000070 38 03 06 3e 96 42 9e bd 5a f1 9d 3d be ea aa be
       0.13087165 -0.07727544 0.0771205 -0.3338222
000080 88 78 43 bd 8e b6 0f 3c c3 47 1f 3e cb 4a 18 be
       -0.04772237 0.008771552 0.15554719 -0.14872281
000090 50 ce 2b bd 74 18 19 3d a0 45 db be d3 90 c5 be
       -0.0419448 0.037376836 -0.42826557 -0.38587055
0000a0 89 cf b5 be a7 5d 41 3d 68 a7 a8 bd a0 66 45 3e
       -0.355099 0.047208454 -0.08235055 0.1927743
0000b0 a1 8c 9b be d6 2f 9a be d4 f1 a5 be 4b 74 91 be
       -0.3038073 -0.3011462 -0.32411063 -0.28409037
0000c0 d3 88 38 3d 50 a2 98 3e 8d f9 8f 3d 1d 7f 58 be
       0.04505236 0.29811335 0.0703002 -0.2114224
0000d0 f7 5c d6 3a ed 71 fc bd 8f a8 d1 3c 53 cc 59 bd
       0.001635461 -0.12326417 0.02559307 -0.053173374
0000e0 65 7f 16 be fc 88 f7 bb 7c e9 17 3e 1e 87 9a be
       -0.14697035 -0.0075541716 0.14835161 -0.3018121
0000f0 73 fe d4 3d 50 2b 13 be 8a e1 a5 3e 8a a9 1e bd
       0.10400095 -0.14371991 0.32398635 -0.038735904
000100 79 05 8c bb dd d4 27 be 85 bd 24 3d 3a d6 49 be
       -0.0042731133 -0.16389795 0.040219802 -0.19710627
000110 69 ac 4b be 22 46 4b 3e fb eb 2a bd d7 bf 33 be
       -0.19889988 0.19850972 -0.041728955 -0.1755365
000120 e6 56 93 3d dc de a4 bd 1d b6 f2 bd f5 b7 b5 3d
       0.07194309 -0.080503196 -0.118511416 0.08872978
000130 95 d9 1e be bb 01 1e 3d 83 7c 87 3d a9 93 02 be
       -0.15512688 0.03857587 0.066155456 -0.1275164
000140 d3 57 90 3e f8 df bb 3e 98 69 21 bd 10 9b fd 3d
       0.28192005 0.36694312 -0.039407343 0.123830914
000150 f6 5b ea 3d dc b2 24 bd ec df 5c 3d 3a b4 f7 3d
       0.114433214 -0.040209636 0.053924486 0.12094922
000160 de 03 09 bc 41 55 19 bd 87 0e 18 be 4f a3 b6 bd
       -0.008362738 -0.03743482 -0.14849292 -0.089178674
000170 7e 45 8c 3d 19 b8 a4 3c 47 d1 66 3e 98 8e a0 3e
       0.06849192 0.020107316 0.2254077 0.3135879
000180 85 90 86 3e 6f d1 59 3e 6d ff b8 be 7b ed fd bd
       0.26282135 0.21271299 -0.36132374 -0.123988114
000190 ac da 34 be 39 f2 e3 3c a2 47 8a bc 0d 35 bc bd
       -0.17661542 0.027825462 -0.01687986 -0.09189806
0001a0 28 57 8e 3e 1c 9e 8b be 51 b6 ee bd 8e 70 3a be
       0.2780087 -0.27269065 -0.11655868 -0.18206999
0001b0 38 1c 00 bc c3 db 12 3d c2 be 05 3d 9c 43 8a bd
       -0.007819228 0.035854112 0.032652624 -0.06751177
0001c0 d3 33 63 be a7 0c e6 bc da 42 b8 bd 22 e2 4e bd
       -0.22187738 -0.028082205 -0.08997126 -0.050508626
0001d0 08 83 95 3e ff ea b7 3e 24 ed 17 3e 47 6b cf bd
       0.2920153 0.35921475 0.14836556 -0.101278834
0001e0 97 c3 0b 3d 05 9b 28 bb 14 5c 24 3e f9 1f 36 3e
       0.034122076 -0.0025727164 0.1605075 0.17785634
0001f0 44 d5 41 3e 9f ec 00 3f f3 44 63 bd 08 d3 fa 3d
       0.1892901 0.50361055 -0.055485677 0.12247282
000200 a8 eb b3 3d a8 6a 03 3e 9c 25 8a 3e 01 d9 c6 3e
       0.08785182 0.12833655 0.2698182 0.38837436
000210 65 4f f6 3e 2e b7 a3 3d 09 9c 93 be a7 9b 8c be
       0.48107448 0.07993923 -0.28829983 -0.27462503
000220 fc 8a 3d 3e 96 18 1a bd eb f5 93 bd e6 af 1b 3e
       0.1851005 -0.037621103 -0.072246395 0.15203819
000230 b8 9a b3 bd f0 f8 c8 3d 58 e7 a3 3c b1 30 56 be
       -0.08769745 0.09813106 0.020007774 -0.20917012
000240 f5 76 dc 3b 79 2a 09 3e 0d 8b 80 3e d0 dc ff 3b
       0.006728048 0.13395108 0.25106087 0.0078083053
000250 0d 5d 13 bd 2a 82 09 3d 03 56 32 bd 24 de 70 bc
       -0.035977412 0.0335714 -0.04353906 -0.0147014
000260 9d 67 ac bd a5 06 bc bc 4c cc d2 bd 8a 47 a3 bd
       -0.084182 -0.022952387 -0.10292873 -0.07972629
000270 2b 48 01 be ad 6b 17 bd 2a de 4f bc 23 bb 84 bc
       -0.12625186 -0.036967922 -0.012687245 -0.016202515
000280 f6 f0 a8 bc 96 e0 2f bd 7e 0f 44 be bb 18 ee bd
       -0.020622712 -0.04293879 -0.19146535 -0.11625811
000290 51 58 60 3c 59 17 e8 3c ea 8b 06 bd ac ff 5d bd
       0.013692931 0.028331446 -0.032848276 -0.054198906
0002a0 12 b2 a6 3d 36 30 97 bd 1a ee 1a be ee f6 ec bd
       0.08139433 -0.073822424 -0.15129891 -0.115705356
0002b0 0e e9 b8 bd 61 11 83 3c ee b9 3e bd 20 cc f2 3c
       -0.09028827 0.015999498 -0.046564035 0.02963835
0002c0 86 21 05 3c d2 6e 3b bc 0f f1 84 3d e9 a5 e1 3c
       0.008125668 -0.011439996 0.06491291 0.027544932
0002d0 15 e6 46 3d 2f 66 6e bd f6 61 cb bd 86 32 07 be
       0.048559267 -0.05820292 -0.09930794 -0.13202867
0002e0 0e 98 48 be 98 1b 41 be 73 30 2f be cf ce 1f be
       -0.19589254 -0.18858182 -0.17108326 -0.15606235
0002f0 f7 2c 4c be 25 33 2f be d1 2d 0f be d0 20 52 bd
       -0.19939028 -0.17109354 -0.13982321 -0.051300824
000300 b7 2a 2b be 81 82 e5 bd 77 89 44 be 97 8f 2c 3d
       -0.16715513 -0.11206532 -0.19193064 0.042129125
000310 ae da 37 3d f3 09 99 3d 0b 0b 85 3d 47 13 82 bd
       0.044886284 0.07472601 0.06496247 -0.06351333
000320 78 91 73 3d 05 3a 37 bd 9f 2c 33 bc 58 e3 02 bd
       0.0594649 -0.044733066 -0.0109359315 -0.031955093
000330 e4 26 cf 3d e3 29 a2 3d 28 38 23 3e 29 6a 8e 3d
       0.1011484 0.079181455 0.1593939 0.06953842
000340 b8 e9 9a 3d 48 f7 23 3c 5e 8d a6 bd c3 9f 45 bb
       0.075641096 0.010007687 -0.081324324 -0.003015504
000350 9d c4 76 bd cf 3b cb 3d 18 66 ff 3d 6b e7 f2 3d
       -0.0602461 0.09923517 0.12470645 0.11860546
000360 55 79 99 bd 9e 1b 95 bd 71 58 09 be 21 83 ea bd
       -0.074938454 -0.07280658 -0.13412644 -0.11450792
000370 8b ad a8 3d 96 40 9b 3d f1 ee 09 3e 28 f1 80 bc
       0.08236226 0.07580678 0.13470055 -0.015739992
000380 c0 95 75 bc 71 70 44 bb 21 6b e8 bd e6 30 32 bc
       -0.014989316 -0.0029974247 -0.11348558 -0.010875916
000390 54 e3 ac 3c e1 9f d8 3d 66 3d a7 3d 31 6b b7 bd
       0.021104492 0.105773695 0.08166008 -0.08955992
0003a0 2d 24 23 3c d7 b0 3d 3d 5f 8f 43 bb bb 69 1f be
       0.009957355 0.046311226 -0.0029840095 -0.15567677
0003b0 a9 17 da bd 17 0c 2b 3d 75 9b 50 bd f0 ac dd bd
       -0.10649044 0.041759577 -0.050929505 -0.10824001
0003c0 65 73 4c be a6 3e 0a be 96 55 49 bc 7a df 94 bd
       -0.19965895 -0.13500461 -0.012288472 -0.07269187
0003d0 68 33 fb bd de 31 1d 3d 3a 27 1c 3e 1f 60 99 bd
       -0.12265664 0.038377635 0.15249339 -0.07489037
0003e0 e8 9e 13 3e 68 d2 c8 3d 64 43 75 3d b9 ba 03 bd
       0.14416087 0.09805757 0.05987872 -0.032160494
0003f0 b4 a7 3f b9 dd a9 02 3e 56 57 fa 3d 43 38 af 3d
       -0.00018277654 0.1276011 0.12223689 0.08555653

onnx::Conv_81 f4 [16]
000000 38 e1 30 bf a2 73 14 3f 96 d5 06 bd d7 da 3e bf
       -0.69093657 0.5798894 -0.032918535 -0.74552673
000010 28 8f b4 bf 20 12 0c bf 88 ef 8b 3f 55 d5 32 3f
       -1.4106188 -0.54715157 1.0932474 0.6985677
000020 cb fd 77 3f e6 7a 89 3e f5 9c 31 3e bf 9e 3f 3e
       0.9687163 0.26851577 0.1734503 0.187129
000030 2d af 63 be fb 0a 75 3f 8a cb 78 3d 94 f0 d1 3e
       -0.22234793 0.9571988 0.060740985 0.4100386

onnx::Conv_83 f4 [32, 16, 3, 3]
000000 1a 6e a1 3b 5d e5 0f bb 66 f4 c9 bc b4 9d 46 bc
       0.004926455 -0.002195678 -0.024652671 -0.01212256
000010 99 be bc bc ff 80 0f bd 2a 78 3d bd 45 a7 03 bd
       -0.023040103 -0.03503513 -0.046257176 -0.032141943
000020 91 16 f5 bc a1 58 5f 3d 83 dc 0f 3d eb 94 5b bc
       -0.029917987 0.054527882 0.035122406 -0.013402204
000030 3b d5 80 3c fa 3f 72 bc 31 04 eb bb 07 c8 39 bd
       0.015726676 -0.014785761 -0.0071721305 -0.045356777
000040 8e 5d 44 bc 20 f0 d6 bc 76 f2 de 3c 51 73 da 3c
       -0.011985196 -0.026237547 0.027215224 0.026666315
000050 51 40 1d bc f8 aa eb 3c a7 e7 d1 3b d4 45 11 bd
       -0.009597854 0.028768048 0.006405789 -0.035466984
000060 07 e3 56 bc e0 f9 a4 3b ed ae 3c 3c 34 32 4f 3b
       -0.013115651 0.0050346702 0.011516315 0.0031615617
000070 7b fd 4e 3b 7f e9 4e bd 23 84 1b 3c b1 be a3 3c
       0.0031584192 -0.050515648 0.009491953 0.01998839
000080 e2 b8 e5 3c d0 34 9b bb 40 dc 84 3c c0 e8 4f 3b
       0.02804226 -0.0047365203 0.016218305 0.0031724423
000090 45 ff a4 bc dc 46 25 bd e1 3a 47 bd 53 62 20 3c
       -0.020141253 -0.04035078 -0.048640136 0.009789067
0000a0 d3 19 7e 3c 14 a9 34 bd a0 0d da 3c 25 a1 61 3c
       0.015509087 -0.044106558 0.026617825 0.01377133
0000b0 40 a6 67 3c 2c 62 49 3d ab 6d 03 3d e2 26 cc bc
       0.014138758 0.04916589 0.03208701 -0.024920885
0000c0 22 e6 e3 3b fe 45 a4 3a ed b3 98 bc cd 76 0f bd
       0.006954924 0.0012533066 -0.018640483 -0.035025407
0000d0 dc 66 bf bc 3c b6 dd bc a2 c7 38 bb 8c a3 dd bc
       -0.023364477 -0.027064435 -0.0028195162 -0.027055524
0000e0 ed 00 4d bc f4 a1 09 bd 12 85 1b bc 33 2f 43 bc
       -0.012512428 -0.033601716 -0.009492176 -0.011913109
0000f0 b7 2c 84 bc e5 0e 4d bc ae 56 24 3a 50 35 87 bd
       -0.016134603 -0.012515758 0.000626902 -0.066019654
000100 d8 ba 07 bd 46 46 78 bd 44 9e fc bc 25 c0 a7 bc
       -0.033137172 -0.060613893 -0.030837186 -0.020477364
000110 16 f5 0f bd 6a 44 be ba bc b1 0c 3d b9 87 5f 37
       -0.03514584 -0.0014516239 0.03434919 1.3323436e-05
000120 0a a9 2e bc cf 67 af 3c eb 3a 54 ba 2e 21 de 3b
       -0.010660419 0.021411804 -0.00080959377 0.0067788577
000130 b9 11 a0 bc 47 51 c4 bb 28 46 15 3b d5 21 d2 3b
       -0.0195397 -0.0059911343 0.0022777412 0.0064127245
000140 0d 9c 17 3c 2f 20 7a 3d 00 dc 1b bd bf 23 5d bd
       0.009253514 0.06106585 -0.038051605 -0.05398917
000150 2c d9 4f 3c 04 d3 0c bd 33 8b f4 3c ae 56 f9 bb
       0.012686055 -0.034380928 0.029851532 -0.00760921
000160 23 29 02 bc 12 df a5 3b 72 b8 01 3d 2a 7b 07 3d
       -0.007944378 0.0050619924 0.03167004 0.033076443
000170 7f 66 14 3a 1a 24 f0 bc 3c d7 05 bb d8 58 54 bc
       0.0005661025 -0.02931409 -0.002042248 -0.012960635
000180 2d fc a6 bd d1 ba 5d bd c7 e0 7e bd 17 03 cb bc
       -0.081535675 -0.05413324 -0.062226083 -0.024781747
000190 9b 55 f0 bc cf 91 64 bd b1 73 85 3c ae 35 fc bc
       -0.029337695 -0.055803116 0.016290518 -0.030787315
0001a0 c4 97 ba 3b a6 9a 41 3d 20 0e a3 3b c5 ab d5 3c
       0.0056943614 0.047266625 0.004976049 0.026082883
0001b0 8e 01 02 3c 4d dd 6f bc e8 5c b4 bc ac 08 9a bc
       0.007934941 -0.014640165 -0.022016957 -0.018802963
0001c0 90 0a d5 3b cb 0e 65 bd ea 8e 27 3c f2 bc ec 3c
       0.0065015033 -0.05592231 0.010226944 0.02889869
0001d0 d9 fb 8a bc 6d 50 98 3c 8b f7 96 ba 73 4b dd bb
       -0.016965793 0.018593038 -0.0011517865 -0.006753379
0001e0 ec d4 17 bc 2b bb 2f bc 0c ca ed bc 69 70 22 bc
       -0.009267073 -0.010725777 -0.029027008 -0.009914496
0001f0 0a 7b 80 3c c6 1b a5 39 16 02 2b 3d 90 ca 1f bc
       0.01568367 0.00031491945 0.041750036 -0.0097528845
000200 dc 22 0a bd b6 82 ac 3c c7 81 03 bc 52 fe 07 bd
       -0.03372465 0.021058422 -0.008026547 -0.033201523
000210 a7 83 50 3c 44 38 08 b9 6e 3d 7c bb 8e 6a b5 3c
       0.012726701 -0.00012990931 -0.0038488763 0.022145536
000220 b7 9d 3c 3d d1 27 ce 3c 48 05 1a 3c 0c 67 bc bc
       0.046048846 0.02516547 0.009400673 -0.022998355
000230 8b b6 3e bc a1 52 13 3c cc 44 4f bd 8c 19 1f bd
       -0.011640201 0.008991868 -0.05060272 -0.038842723
000240 97 71 2a bd 62 d1 8a 3b 04 ff c5 bc 42 18 b8 3b
       -0.041612234 0.004236386 -0.024169452 0.005618126
000250 de 2f e6 bc 52 56 0d bc 0a dd ba 3b 86 26 d7 bc
       -0.028098997 -0.008626537 0.0057026194 -0.026263487
000260 74 49 93 bc ff f9 f7 3c c2 67 3f 3d 8f 9b 1c bc
       -0.017979361 0.030270575 0.04672981 -0.009558572
000270 8e 9d 93 bc cd c1 c9 3c de 46 11 3d 2f e9 b9 bc
       -0.018019464 0.024628544 0.035467975 -0.022694198
000280 cc 0d 10 bd 79 c8 3a bc 38 22 fc 3a ee 2a f5 bc
       -0.035169408 -0.0114003355 0.0019236272 -0.029927697
000290 79 bc 27 bd c1 df 86 bc 17 7b 27 3d 80 30 22 3d
       -0.040951226 -0.016464116 0.040888872 0.039597034
0002a0 93 06 50 bd 3e 96 58 bd 77 db bb 3c 40 75 a5 bc
       -0.05078752 -0.052877657 0.022931797 -0.02019751
0002b0 dc 95 d2 3c 32 07 cc bc a4 42 3c 3d f0 77 19 3d
       0.025706224 -0.024905775 0.04596199 0.037467897
0002c0 3e c4 29 3d 32 42 be 3c e3 5b 80 3c 38 e9 ae bc
       0.041446917 0.023224924 0.015668815 -0.021351442
0002d0 bc ed 00 3d 96 90 05 bd fa 7c 70 3c db c0 6f bc
       0.03147672 -0.03260859 0.014678234 -0.014633383
0002e0 7d 94 d7 3c 85 11 9e bc 3f 96 14 3d 0b 3e f7 3b
       0.026315922 -0.019295463 0.0362761 0.007545238
0002f0 18 c0 c9 bc 97 71 17 bc ca 92 d4 bc d7 fe 44 bc
       -0.02462773 -0.0092433905 -0.0259489 -0.012023649
000300 b1 9a 2f 3d a4 4e 5c bc 7d bd f3 3c 1a d4 70 bd
       0.042872135 -0.013446484 0.029753441 -0.058796026
000310 e9 46 e4 3b 72 2d 22 bd bd db 6d bc 6e 8f 87 3c
       0.006966461 -0.03959412 -0.014517722 0.016547885
000320 19 54 35 bc 55 36 6e 3c af 2c 39 3c 48 ba 5e bc
       -0.011067414 0.014539321 0.011302157 -0.013594218
000330 38 d2 19 bc 5c 0d 05 bd f7 c2 86 bc 2a 70 9f bc
       -0.009388499 -0.032483444 -0.016450388 -0.019462664
000340 2b 62 24 bd 5a 25 0e bd a6 8a e8 bc 24 93 1c bb
       -0.040132683 -0.03470359 -0.028386425 -0.0023891414
000350 23 81 05 bd 1f 16 1a 3c bf ba 9a bc 27 bb f3 b9
       -0.032593857 0.009404688 -0.018887876 -0.0004648801
000360 50 83 d7 3c 50 c7 7b 3c 00 35 c9 3c 4e dd 22 3b
       0.026307732 0.015367344 0.024561405 0.0024851146
000370 49 c9 8c 3c ad f8 b4 bb fd 8a 54 bd 1e 40 29 bd
       0.017185824 -0.0055228085 -0.051890362 -0.041320913
000380 4d 60 de bc bb c4 77 bc 9b d6 d5 bc 2f 3b b0 3c
       -0.02714553 -0.015122588 -0.026103308 0.021512596
000390 c1 35 04 3e 0d 5c d1 3d 25 61 3e 3d 9a c0 c2 3c
       0.1291113 0.102226354 0.046479363 0.02377348
0003a0 88 c1 a7 3b ec 28 87 3c f6 ce 4e bc b2 f8 d6 bc
       0.0051195063 0.016499005 -0.0126225855 -0.026241634
0003b0 6b 4c b8 3c 63 c8 b5 bb 64 51 28 bd a7 ae f6 bc
       0.022497376 -0.0055475696 -0.041093245 -0.030112578
0003c0 1b b4 9a bd 4f fb b9 bd ef a0 8d bd 8d 7e 60 bc
       -0.07553884 -0.090811364 -0.06915461 -0.013702047
0003d0 81 b1 9c bd 5c 34 1c bd 10 84 3f bd 69 d2 b8 3c
       -0.07651044 -0.03813587 -0.046756804 0.022561269
0003e0 3a 53 17 3d d6 14 77 3d fd bf 57 3d ed 41 d7 3c
       0.036944605 0.060322605 0.05267333 0.026276553
0003f0 6a 90 96 bc 12 3d 49 bd 85 92 3b bd dc 5c 99 3c
       -0.018379409 -0.049130507 -0.04579403 0.018721037

onnx::Conv_84 f4 [32]
000000 37 cb d3 3e 58 fd ca 3c b7 8c d8 be da 6a 44 bd
       0.41365978 0.024779007 -0.42294857 -0.047953464
000010 40 fe 70 bf 84 b5 28 3d a0 4a e5 3d b8 c0 82 be
       -0.94137955 0.04118873 0.11195874 -0.25537658
000020 2c d2 0a bd 56 45 12 3c ed c4 2e bf 81 f2 1b bf
       -0.03389184 0.008927664 -0.68269235 -0.60916907
000030 a4 93 3f 3d 66 ec 07 3f 0e dc ab 3e 0d 79 4f 3f
       0.04677166 0.5309509 0.33566326 0.81044084
000040 18 55 29 3e 5f c5 dc 3d 89 fd 27 3f 41 0a dc 3e
       0.16536367 0.10779833 0.6562124 0.42976573
000050 82 20 33 3f 4b c4 cf 3e 77 3c 76 be de 1b e6 be
       0.6997148 0.40579447 -0.24046503 -0.44943136
000060 c0 45 dd 3d 72 ef 37 3d e3 28 29 3f b5 83 76 3e
       0.108043194 0.044906087 0.66078013 0.2407368
000070 40 63 31 3e 3c 37 92 3d 75 37 b3 3e 6b 0c 0c 3e
       0.17323017 0.07139441 0.35003248 0.13676612

onnx::Conv_86 f4 [32, 32, 3, 3]
000000 aa ca 99 bb dc 14 2c 3b 59 79 10 3b 5f 91 ea b9
       -0.004693349 0.002625755 0.0022044985 -0.00044740268
000010 1c bd 33 bb 04 1e f0 bb 5c 02 c5 bc a5 3c d1 bc
       -0.002742595 -0.007327797 -0.024048977 -0.025541613
000020 e4 55 99 bc 06 88 de bc 24 3d 11 bd 40 60 24 bd
       -0.018717714 -0.02716447 -0.0354587 -0.040130854
000030 91 f0 98 3c 56 0d 05 3c 1d 33 12 3c 6f a0 69 3b
       0.018669399 0.008120855 0.008923319 0.0035648604
000040 a2 70 9b 3c 11 15 0a bc a6 e6 30 bc 41 0b a1 3b
       0.018974606 -0.008427874 -0.010797178 0.0049146716
000050 09 1b 0d bd 6c bb 63 bd 68 67 ce 3c 7b f6 a2 3b
       -0.03444961 -0.05559866 0.025195792 0.0049732304
000060 5b ad 92 bd 1d 63 8c bb ad ad a0 bc 16 a5 99 3c
       -0.07161971 -0.004284276 -0.019614065 0.018755477
000070 15 77 76 3c 1d 42 31 3d 2a d8 c1 bc 71 21 92 bb
       0.01504304 0.04327594 -0.023662645 -0.004459553
000080 78 14 6b 3c f5 3f 47 bd 99 4d 2f bd 43 4a 3c bd
       0.014348142 -0.04864498 -0.042798612 -0.04596926
000090 c1 4a a7 3d b6 c7 57 3d ad 34 d7 3d 4e c0 95 3c
       0.08168555 0.052680694 0.10508094 0.018280175
0000a0 c5 99 3f 3d 8c ce 6b 3b 4a 73 f0 bc ae 3a 1c bd
       0.046777505 0.0035981266 -0.02935185 -0.0381419
0000b0 b2 a2 8e b9 47 a3 e1 3c 0b d5 71 3d 27 dd 1d 3d
       -0.00027205568 0.027543677 0.059041064 0.038540985
0000c0 51 c5 4b 3d f3 f8 db 3c b6 a6 28 3c 46 22 c7 ba
       0.049748722 0.026852107 0.010293653 -0.0015192709
0000d0 cc 9f 52 3c a6 55 b4 3c 0d d2 b8 3b cf cd 8a 3b
       0.012855481 0.022013497 0.0056402744 0.00423596
0000e0 3a ad 12 3c fe db 3d b9 73 cd 5f bb 55 9b 86 ba
       0.008952433 -0.00018106398 -0.0034149557 -0.0010269681
0000f0 a9 2a 4c bc 1a c0 68 bc 5d 94 cf bc 2e f4 83 3d
       -0.012461343 -0.014205957 -0.0253393 0.06443058
000100 17 f2 a9 3d 86 99 93 3d a0 84 79 3d da ab 5c 3c
       0.08298128 0.07207017 0.060917497 0.013468707
000110 e8 69 ef bb c6 77 4b 3c ec 8b 22 bc 33 1e ea bc
       -0.007306326 0.012418693 -0.009921055 -0.028578853
000120 5e e0 e8 3b 69 9e 04 3d ee f9 40 3d b8 ed 04 bd
       0.007106825 0.032377634 0.04711335 -0.03245327
000130 6c 24 64 bc 1d cc 24 bc 17 38 ae bd 1e ad 69 bd
       -0.013924699 -0.01005843 -0.08506792 -0.057049863
000140 72 25 7f bd 59 d3 85 3b 5c 7b 14 3c 1a e0 91 3c
       -0.06229157 0.0040840325 0.009062614 0.017807055
000150 bb 3d 54 3b bd ea 2b b9 3f 6c e6 bb 12 37 4c 3c
       0.0032385427 -0.00016395278 -0.007031947 0.012464302
000160 a1 34 b2 3c 26 98 cf 3b 17 e4 03 3c 9e 52 95 3c
       0.021753611 0.006335276 0.008049986 0.018227872
000170 f9 0d 49 3c 12 b9 bb 3c 87 c3 43 3d 72 45 3e 3d
       0.012271398 0.022915397 0.04779389 0.046452947
000180 06 00 4e bd f3 f8 fc bc 37 31 00 3c e3 7c 97 3d
       -0.05029299 -0.030880427 0.007824234 0.07396867
000190 30 d4 48 3d 62 81 fb 3c 6b 4b 23 3c fe d9 da 3b
       0.049030483 0.030701343 0.0099667115 0.0066788187
0001a0 70 77 2c bd 98 ae 25 bd ab ed 50 bd 90 48 b7 bd
       -0.042106092 -0.04044971 -0.051007908 -0.08949387
0001b0 4b 04 55 3d 60 84 20 3d 9f 81 12 3d b3 58 2c bc
       0.052006047 0.039188743 0.035768148 -0.010519194
0001c0 65 64 95 bb d8 27 86 bc 39 77 ce bc d3 82 2c bd
       -0.004559087 -0.01637642 -0.025203334 -0.04211695
0001d0 e3 97 29 bd 8a 00 cb bb 6f 5c 43 bc 2c 16 08 bc
       -0.041404616 -0.0061951326 -0.011923893 -0.008306067
0001e0 bb a4 01 bd 2a 0c 94 3b 93 13 f1 bc 1d cc 85 3b
       -0.03165124 0.0045180516 -0.029428279 0.00408317
0001f0 9b 90 15 3c 80 96 87 bc d1 23 bd 3c 2c 5d 2c 3d
       0.009128715 -0.016551256 0.023088368 0.042081043
000200 5b cf 86 3d 8a 50 6c 3b dc 69 0d 3b af 87 12 3d
       0.06582519 0.0036058747 0.002157799 0.03577393
000210 c0 01 ab bd 5e f1 08 bd 4a 99 bb bc 27 c5 a5 bb
       -0.08349943 -0.03343331 -0.022900242 -0.005058903
000220 87 64 96 3b b6 1b f9 3b a2 99 03 3d a0 37 56 3d
       0.0045896205 0.0076021804 0.032128938 0.052299142
000230 0d 89 c7 3b 7f fb 1d 3e 37 a3 d0 3d d5 29 c2 3d
       0.006089336 0.1542797 0.10187381 0.09480635
000240 8a 1f 95 3c f7 c2 e1 3c 50 6a 59 3b fd 68 1e 3d
       0.018203516 0.027558787 0.003317494 0.038674343
000250 b3 92 54 3d ae 1f 0c 3c 15 4c 13 bc 26 30 54 bb
       0.051897716 0.008552475 -0.008990307 -0.0032377332
000260 ca f7 a9 3b 90 07 43 bc 01 88 c4 bc cb 77 f6 bc
       0.0051870095 -0.0119036585 -0.023990633 -0.030086419
000270 58 17 3b bc fc cd a8 bc 03 c9 01 bd c3 be 8a 3c
       -0.01141914 -0.020606034 -0.03168584 0.016936665
000280 c9 a3 ff 3b 8d 10 52 bb ee 8f 67 3b f7 94 d9 3c
       0.007801507 -0.0032053322 0.0035333592 0.02656029
000290 4a 98 42 3c 66 c3 d8 3b 5e b7 50 3c 71 d2 58 bc
       0.011877129 0.00661509 0.012739031 -0.013233767
0002a0 12 07 8a 3b ac 0a ad 3a 89 c5 ec bb f5 4b a6 b9
       0.0042122686 0.0013202033 -0.0072256965 -0.0003171858
0002b0 60 09 7a 3c d8 91 b4 3c 92 9c 3e 3c c9 ae 21 3d
       0.015261024 0.0220422 0.011634009 0.03947333
0002c0 44 fa 5c 3d 12 61 1e 3d fe e9 2d 3d d3 d7 85 3d
       0.05394961 0.038666792 0.04245948 0.06535306
0002d0 1f f7 d6 3c f7 d1 2f 3d ad 56 d5 3c bf b5 ae 3c
       0.026240883 0.042924847 0.026042307 0.021326898
0002e0 99 57 3f 3c 30 a3 21 3c 03 ed 17 3d 05 21 df 3c
       0.0116786 0.009865567 0.037091266 0.027237425
0002f0 46 10 e3 ba ec d2 ad 3a 25 cc 23 3c 63 c2 5d 3c
       -0.0017323575 0.0013261712 0.009997402 0.013535115
000300 69 96 a5 bc 89 06 83 bb 9a d0 03 3c bf e9 5e bc
       -0.020213323 -0.003998582 0.00804534 -0.013605534
000310 ea fd 0e bc 2c 32 9d ba ef fd 20 bc 92 64 2a bc
       -0.00872753 -0.0011993102 -0.0098261675 -0.010399954
000320 57 ae fc bc 39 f4 7a 3d 91 b1 44 3d 17 6b 1c 3c
       -0.03084485 0.061268065 0.048020903 0.009547017
000330 68 26 92 3d 10 64 d8 3d 16 c5 cc 3d 21 1c 36 3c
       0.07136232 0.105659604 0.09998529 0.011115105
000340 35 e7 cc 3c 53 7e 56 3d af 6c 87 bc a6 fd 2c 3d
       0.025012592 0.052366566 -0.016531317 0.042234086
000350 96 86 d6 3c 57 9a 97 bd 9f 1e 1b bd 1f d1 25 bd
       0.026187222 -0.07402485 -0.037871 -0.040482637
000360 44 fc 21 3d 9b 73 65 3d 66 2a 48 3d 98 0e 0b bd
       0.03954722 0.056018453 0.04886856 -0.033949465
000370 b6 7c 14 bc 43 5f 34 bc e8 8c 94 bd 07 0b 85 bd
       -0.0090629365 -0.01100904 -0.07253438 -0.06496244
000380 5a 44 71 bd a3 35 38 bc 07 bb e4 ba fd 4b a9 3c
       -0.058903076 -0.011243257 -0.0017450758 0.020666117
000390 95 77 3e 3a 84 c3 40 bc 27 d7 93 bc 39 00 0c 3d
       0.0007265744 -0.011765365 -0.018046929 0.0341799
0003a0 c9 d5 f5 3b b0 7b 06 3d 3b b2 80 bb 69 aa 9e 3b
       0.007502292 0.0328328 -0.0039274967 0.004842092
0003b0 ff 4d a8 3b 5a 60 4a 3b b9 ad 2a 3c 39 4e 59 3c
       0.005136251 0.0030880184 0.010417395 0.013263279
0003c0 9a f7 2d bc a4 b5 bd bb 92 dc 3a bc ed 56 1c bc
       -0.010618115 -0.0057894755 -0.011405127 -0.009542209
0003d0 65 ad 15 bc 36 6c 43 bb 76 c4 f8 bc b4 48 25 bd
       -0.009135579 -0.0029819137 -0.030367117 -0.04035254
0003e0 df f7 cf bc 25 f5 2f 3d 05 f3 31 3d ef 04 61 3d
       -0.025386749 0.042958397 0.043444652 0.054936346
0003f0 64 88 4a b9 b0 fe a2 bb 17 a7 4b bc 59 fd 0d bc
       -0.0001931503 -0.004974209 -0.012429974 -0.00866636

onnx::Conv_87 f4 [32]
000000 10 d6 ad be 3f f2 b7 bd fc c5 2d 3e e5 5d 8b be
       -0.3395238 -0.08981752 0.16970056 -0.27220073
000010 44 f7 35 3b 77 a3 d2 be 0d 40 93 3d 4e 53 fc 3c
       0.002776579 -0.4114034 0.07189951 0.030801442
000020 b4 52 ba 3d 78 26 1c 3e 9f bf 00 be 28 09 65 3c
       0.090978056 0.1524905 -0.12573098 0.013979234
000030 2d c6 07 bf d5 fc 21 be e2 bf 00 3e 28 ee 82 be
       -0.5303677 -0.15819104 0.12573197 -0.25572324
000040 41 9e 31 bf 4e 26 c9 3d 90 55 7d bd 6a fc 75 bc
       -0.693821 0.09821759 -0.061849177 -0.0150137935
000050 30 38 8f ba 16 8a 32 3e c0 0c 32 3c 56 6e 07 be
       -0.0010926779 0.17435488 0.010867298 -0.13225684
000060 4c fa 24 bd 02 6a 3e be f6 2c 1a 3e e7 1c 32 3e
       -0.040277764 -0.18595126 0.15056214 0.17393838
000070 5a 8f 47 3f ae f6 bc 3e 0c be 97 bb 4b c5 7d be
       0.7795311 0.36906952 -0.0046308096 -0.24782293

onnx::Conv_89 f4 [32, 16, 1, 1]
000000 d0 a4 bb 3d e5 42 25 3e 4f 4b 0f be 9e fb ae 3b
       0.09162295 0.161388 -0.13993572 0.0053400537
000010 6d 8c f5 3d 7b 8d c9 bc 0d fd 57 3e 05 08 19 3e
       0.11989675 -0.024603596 0.21092625 0.14944465
000020 2d e3 ff 3d d3 92 10 be 48 54 52 3d d7 65 b7 bc
       0.12494502 -0.14118509 0.051349908 -0.022387428
000030 54 7f 98 bd 91 88 d1 3d fa 85 cc bd e1 7d 3c 3e
       -0.07446161 0.10231126 -0.099864915 0.18407394
000040 c5 d8 2e be b2 5c c5 3e 85 f9 cf 3c 0d c6 4a 3d
       -0.17074879 0.38547283 0.025387535 0.049505282
000050 aa 7f 24 bd 0b bd a2 3c 5d 10 1c 3e 6c c9 62 3c
       -0.040160812 0.019865533 0.15240617 0.013841968
000060 fe 03 13 3e 6b 40 22 3e 9b c5 c4 3d d7 bd a6 ba
       0.14356992 0.15844886 0.09608003 -0.0012721372
000070 63 b1 44 be c2 37 5f 3e 22 ef 52 be d7 60 37 bd
       -0.19208293 0.21798614 -0.20599034 -0.044770088
000080 f9 ec 36 be 43 aa 27 3e 3e 0b 87 bd d8 ab e2 3c
       -0.17863835 0.16373543 -0.06593941 0.027669832
000090 c8 4a 24 be d0 34 80 bd fd f4 0b 3e 98 60 8e be
       -0.16044152 -0.06260073 0.13667674 -0.2780807
0000a0 6e 37 75 be 2f a7 6d be 94 25 54 be 21 42 21 be
       -0.23946926 -0.23208307 -0.2071746 -0.15747882
0000b0 e5 e2 51 be a3 94 23 bc ee 66 49 bc 41 22 82 be
       -0.2049671 -0.009984168 -0.012292607 -0.2541676
0000c0 fa 23 09 3e 90 5b e6 bc 92 e9 e3 bd 8d 03 59 3c
       0.1339263 -0.028119832 -0.111285344 0.0132454755
0000d0 9d 2f 5f bd 0c b9 fa bd e8 df 1b bd a2 7a 8a 3c
       -0.054488767 -0.12242326 -0.03805533 0.016904179
0000e0 67 90 fb bc 15 f2 af bd de 02 f5 3d cb a5 f3 3d
       -0.030708505 -0.08591095 0.119634375 0.11896857
0000f0 dc 7a 91 3c 97 86 d8 bb ba c5 96 3c 72 4d 58 3d
       0.01775878 -0.0066078412 0.01840483 0.052808233
000100 87 aa 4d 3d f5 bf 5c bc 0c 04 1d bd c0 e4 56 3e
       0.050211456 -0.0134735005 -0.038333938 0.20985699
000110 29 67 63 3e 26 68 ec bd 7f 4b 45 be 50 2c 57 3e
       0.22207321 -0.11543302 -0.1926708 0.21012998
000120 ba b0 ed 3d 4a c6 90 be 9b e3 6e bd 05 a7 bd 3e
       0.116059735 -0.28276283 -0.05832253 0.37041488
000130 15 03 3e bd 8a 43 6f be c8 18 4e bd fa 1e a7 3e
       -0.046389658 -0.23365608 -0.050316602 0.3264082
000140 e9 ac 84 3d 37 1f 47 be de 7a 1f be ca d9 27 3e
       0.064782925 -0.19445501 -0.15574214 0.16391674
000150 30 04 32 be fd f0 ad bc cb 91 8b 3d 58 ce b1 bc
       -0.1738441 -0.021233076 0.06814917 -0.021704838
000160 0f 61 dc 3d 61 db 9f 3e 26 13 01 be 96 c9 f2 3e
       0.107607 0.3122206 -0.12604961 0.47419423
000170 f5 2d ab 3d 22 80 6c 3e 47 8d 5d 3e 00 cb 1e 3e
       0.08358375 0.23095754 0.21635924 0.15507126
000180 c6 7e 0a 3e 4f 65 1c 3e 88 34 d2 3b c7 a9 c1 3d
       0.13524923 0.15273021 0.0064149536 0.094562106
000190 8b 6d 22 be 0c a1 3d 3e e6 1f 68 3e 5e 6a d7 bd
       -0.158621 0.18518466 0.22668418 -0.10518335
0001a0 1d 21 37 3e 33 fd 28 3e 21 d3 2e 3e f6 83 ff 3d
       0.17883725 0.16502838 0.17072727 0.124763414
0001b0 91 8b 61 bc 3f f6 88 3e bb 13 4e 3e 23 5f 2a be
       -0.013766185 0.2675037 0.20124714 -0.16637854
0001c0 37 89 1c 3e 7d 76 6d be ef 6b 97 3d 5f c8 ea 3c
       0.15286718 -0.23189731 0.073936336 0.028659998
0001d0 bf 00 46 3d b6 2f 57 3e 25 4b 94 bd 60 4e 14 be
       0.048340555 0.21014294 -0.07240895 -0.14483023
0001e0 3b 0a 41 bd 4a 8e 6c bd a5 f3 60 be ba 3b 61 3e
       -0.047128897 -0.057752885 -0.21967943 0.2199544
0001f0 b0 f2 5c 3d a9 11 c0 bd 83 59 e4 3d 53 e4 05 3e
       0.053942382 -0.093783684 0.111498855 0.1307538
000200 91 43 df bd 7d 3a 0d be 49 f0 91 3c e7 f4 f4 3d
       -0.10901559 -0.13791843 0.017814772 0.11960774
000210 f1 35 7e bd 77 6e 0c be 9f cd bc 3d e3 52 a0 3d
       -0.06206316 -0.13714014 0.092189066 0.078283094
000220 13 b7 24 be a6 ab 7a be 90 f9 9d bd 14 34 82 3e
       -0.16085462 -0.24479541 -0.07713616 0.25430357
000230 fd 00 a6 3e 43 d7 8b 3e 2c 79 6a be e5 0c 50 bd
       0.3242263 0.2731267 -0.22897786 -0.050793547
000240 74 14 a6 3d e5 6f ad 3e fa 2c 02 3e fe c6 1b 3e
       0.0810937 0.3387443 0.1271247 0.15212628
000250 d2 16 f1 bc dc 16 c4 3d f1 6f 13 3d 23 4b 61 bd
       -0.029429827 0.095746726 0.035995428 -0.055003297
000260 09 76 ea bd 7c b7 5b 3e fc b7 7e bd 90 34 d6 3d
       -0.11448295 0.21456712 -0.06218718 0.10459244
000270 07 d1 b3 bd a5 fe 4c 3e c8 99 87 be 20 c5 4e be
       -0.08780103 0.20019014 -0.26484513 -0.20192385
000280 28 b6 02 3e 40 ad b8 3d 45 f3 a1 3e ea 2a 65 bd
       0.127648 0.0901742 0.31630912 -0.05594913
000290 ef 95 6c be 72 d5 6c 3e e8 d2 0d 3e 02 9b 8d 3e
       -0.2310407 0.23128298 0.13849986 0.27657324
0002a0 89 65 f5 3d 1c 54 5e 3e 5d 26 72 bd 3d 9c f6 bd
       0.11982257 0.21711773 -0.059118617 -0.12041519
0002b0 e9 b2 0f 3e ec 1b 45 3e f5 91 64 be 1c 3e 8b bd
       0.14033093 0.19248933 -0.22321303 -0.06798956
0002c0 c9 a8 8c bd a2 36 bc 3c f3 15 97 bd 06 12 c9 3b
       -0.06868131 0.02297527 -0.07377233 0.0061361818
0002d0 cf ed 3d 3d a2 d0 0b bd 40 c9 58 3d ae c3 32 3c
       0.04636937 -0.034134515 0.052926302 0.0109109115
0002e0 cb b3 6f 3c 61 f5 84 bd 62 57 20 3e 4b 8b 90 3d
       0.014630268 -0.06492115 0.15658334 0.07057818
0002f0 ac 0c f6 3d ff 99 64 3d 3e 45 19 bc 6a 75 93 3d
       0.12014136 0.055810925 -0.0093548875 0.07200129
000300 bd bb e9 3d 6e 36 8d 3d 98 8c 93 3e 8a 59 41 3e
       0.11412761 0.06895147 0.28818202 0.18881813
000310 ba d1 02 be 71 87 90 bc af c8 c1 3c a3 40 b3 bd
       -0.12775317 -0.017642708 0.023655264 -0.08752563
000320 84 8f 46 bc 6e c0 95 3e 8f 0b b2 3d 6b 21 a4 3e
       -0.012119178 0.29248375 0.08693611 0.32056746
000330 77 30 87 3e 17 49 cb 3d 53 b9 68 3e 2f 62 b8 3d
       0.26404163 0.0992605 0.22726946 0.09003102
000340 33 c8 3d 3e 41 01 20 3e ff 10 16 be 64 b7 99 3e
       0.18533401 0.15625478 -0.14654921 0.30022728
000350 b5 e6 4a be a5 21 47 be 6f 4f fe 3c e1 05 39 3e
       -0.1981457 -0.19446428 0.031043736 0.18068649
000360 e7 06 8c bd 08 48 49 bd b1 4f 8d bd b9 17 d5 3e
       -0.06837254 -0.04914096 -0.068999656 0.4161966
000370 8d 1c a0 3e 98 e0 c9 bc d7 b5 4b 3e bd de 77 be
       0.31271783 -0.024643227 0.19893585 -0.24206062
000380 59 c4 21 3e c2 62 cf 3c e5 fe fc bc 0a 7c 01 bb
       0.15797557 0.025315646 -0.030883262 -0.001975777
000390 a0 6a c7 bd c7 e6 b5 bd 07 65 7e 3d b2 80 d7 3d
       -0.09737134 -0.08881908 0.062108066 0.105225936
0003a0 72 1c 59 3d 5a 96 55 bd 0c e7 88 3c 5e ba 3d 3e
       0.053005643 -0.05214534 0.016711734 0.18528125
0003b0 c0 c2 90 bb 0c 0c 27 bd 14 6f 48 3e ab bb cc 3d
       -0.0044177473 -0.040782973 0.19573623 0.09996732
0003c0 57 3d b6 3e d5 60 d3 3d a1 59 66 3e 36 43 91 3e
       0.35593674 0.103212036 0.22495128 0.2837159
0003d0 2a 90 c4 bd 7a c6 9a bd fd 03 ec 3d a9 a0 d4 3e
       -0.095978096 -0.07557388 0.11524198 0.41528824
0003e0 bc 9c 3c be d2 dc 2c 3e 7a 39 94 bd 1b 6b 69 be
       -0.18419164 0.16881111 -0.07237525 -0.22794764
0003f0 a0 61 d1 3d 0b 0a 2a be 01 8b 0d 3e 43 25 f0 bb
       0.102236986 -0.16605394 0.13822557 -0.0073286607

onnx::Conv_90 f4 [32]
000000 40 bc 8c be 82 5e 6e be df 64 66 3f 00 64 a1 bd
       -0.27487373 -0.2327824 0.8999767 -0.078804016
000010 b6 49 3c be 1a 9c 2e bf fd 3b 4b bf 0a e9 ff bd
       -0.18387493 -0.6820694 -0.7938841 -0.124956205
000020 a8 ca f6 3d 36 d5 85 be ac 02 fa be 21 53 4c be
       0.12050372 -0.2613923 -0.48830163 -0.19953586
000030 89 ce 8f bf 38 60 ed be 07 9b 99 be da ba 23 bf
       -1.1234905 -0.46362472 -0.3000109 -0.6395699
000040 b4 8c 00 3f 26 40 11 be a6 a8 c9 3e 1e f8 c4 3d
       0.50214696 -0.14184627 0.3938648 0.09617637
000050 62 87 16 3d 80 c8 da b8 dc c9 83 be af 48 97 be
       0.036750205 -0.00010432396 -0.25739944 -0.2954764
000060 ce da 2c be 31 18 90 bd 5d 5a bb bd b5 07 5b 3e
       -0.16880342 -0.07035864 -0.09148095 0.21389659
000070 41 43 7a 3e 79 5b c7 bd 3a f4 04 3e 6a e0 43 3f
       0.24439718 -0.09734244 0.1298379 0.76514304

onnx::Conv_92 f4 [64, 32, 3, 3]
000000 a4 54 37 b3 7f 4a bb b3 ac 16 8a b3 62 9e 8f b5
       -4.2684988e-08 -8.721417e-08 -6.43025e-08 -1.0700426e-06
000010 90 b9 a0 b5 5d ee 73 b5 f9 44 00 b7 d8 cf e7 b6
       -1.1974935e-06 -9.087142e-07 -7.6454535e-06 -6.9085327e-06
000020 03 2d 07 b6 9a ca 5d 32 a6 0f 90 b6 b0 c2 81 b6
       -2.0142768e-06 1.2909959e-08 -4.293356e-06 -3.867164e-06
000030 66 90 d4 b4 b9 4b 3a b5 c9 85 a4 35 02 2a 16 b7
       -3.959314e-07 -6.940059e-07 1.2257889e-06 -8.950477e-06
000040 7e 8f 61 b7 89 62 f4 35 1a 75 70 39 4d 8d a5 39
       -1.3444454e-05 1.8208094e-06 0.00022931807 0.0003157653
000050 c5 83 89 39 6e 09 88 39 c5 ce be 39 54 39 75 39
       0.00026228852 0.00025946967 0.0003639368 0.00023386377
000060 6a 6c 6c 39 3d 63 98 39 6d 73 64 39 22 da 75 32
       0.00022547101 0.00029065638 0.00021786774 1.4310475e-08
000070 2c df ea b2 ad dc 8b b3 3e 6e 40 b3 30 a0 01 b4
       -2.7342672e-08 -6.5128326e-08 -4.480375e-08 -1.2072337e-07
000080 17 bf c6 b3 12 7f 83 b3 5f 46 5a b3 c6 13 ce b3
       -9.2548525e-08 -6.123277e-08 -5.0821082e-08 -9.596219e-08
000090 b0 c6 bf b7 a7 cd 6b b8 0e 3a 4d b8 74 2e a4 b8
       -2.2861495e-05 -5.6219895e-05 -4.8929876e-05 -7.828782e-05
0000a0 c9 18 d0 b8 0c 00 b6 b8 07 c4 0e b9 01 35 56 b9
       -9.9228295e-05 -8.678445e-05 -0.00013615201 -0.00020428376
0000b0 a3 72 42 b9 f4 a1 9d b6 7e 05 c2 b7 cb 3a 55 b8
       -0.00018543987 -4.6978184e-06 -2.312916e-05 -5.0837913e-05
0000c0 15 2f cb b7 db 40 4e b8 24 34 e6 b8 9b a8 4c b8
       -2.422141e-05 -4.917463e-05 -0.000109769666 -4.8794416e-05
0000d0 40 ec 40 b9 97 4a 1f b9 7a 98 0d 33 c0 8c 3a b3
       -0.00018398557 -0.00015191209 3.2967797e-08 -4.343451e-08
0000e0 fa c9 68 34 12 cd 5a b5 50 ad dd b4 81 f9 5a b5
       2.1680162e-07 -8.1509745e-07 -4.129056e-07 -8.1574404e-07
0000f0 26 12 a5 b6 c3 1e ac b7 7e 2e c9 b6 b5 ef d3 b7
       -4.919496e-06 -2.0518322e-05 -5.995679e-06 -2.5264782e-05
000100 51 70 b3 b7 26 56 52 b8 df da bb b7 a1 2d aa b6
       -2.1390764e-05 -5.0148134e-05 -2.2394057e-05 -5.0717067e-06
000110 72 1b 1f b8 28 77 aa b7 5f 56 56 b7 6c e8 41 b8
       -3.7934115e-05 -2.0321066e-05 -1.2775504e-05 -4.6231246e-05
000120 b4 02 23 b5 34 6b be b5 8a ac 86 33 4b 5c 0b b5
       -6.0726165e-07 -1.4187303e-06 6.271246e-08 -5.191584e-07
000130 bd 1a 49 b5 7f 55 27 34 42 d5 da 34 b6 a9 04 35
       -7.4917244e-07 1.558419e-07 4.076083e-07 4.9420794e-07
000140 54 ce b1 34 37 59 ad 32 e9 fc d5 33 1c 4d 85 b6
       3.3118943e-07 2.0180421e-08 9.9645895e-08 -3.9726856e-06
000150 2e ab 21 34 01 b9 a0 33 ed 5c 8e b5 75 66 8e 35
       1.5056568e-07 7.4842326e-08 -1.0606869e-06 1.0609643e-06
000160 32 0b 32 35 57 56 60 35 24 f1 2c 34 d9 7a d1 33
       6.632646e-07 8.3572144e-07 1.6106475e-07 9.754667e-08
000170 e5 a9 8d 34 34 74 13 b6 08 30 0d b6 b7 63 19 b6
       2.638691e-07 -2.1972346e-06 -2.1038595e-06 -2.2856818e-06
000180 60 e4 b4 b4 23 a9 57 b4 f7 7e a2 34 f1 1c 4f 33
       -3.3693777e-07 -2.0084967e-07 3.026723e-07 4.8222265e-08
000190 e0 24 b7 b1 cb 85 55 b3 f4 74 f9 32 af 78 ed b2
       -5.330193e-09 -4.971461e-08 2.90406e-08 -2.7645312e-08
0001a0 2c 71 88 b3 0b dc cb 30 c2 45 2a b3 ad 6f 90 b3
       -6.353579e-08 1.4832734e-09 -3.9644654e-08 -6.725836e-08
0001b0 b0 78 9e b7 c6 0e 06 b8 f3 95 85 b8 23 ef 92 b8
       -1.8891267e-05 -3.196185e-05 -6.3698644e-05 -7.006365e-05
0001c0 82 c6 b8 b8 c8 31 cc b8 97 71 c3 b7 64 f2 4e b8
       -8.810779e-05 -9.7367505e-05 -2.3298706e-05 -4.933997e-05
0001d0 b6 62 69 b7 a0 ec ee b6 18 41 8a b6 c1 85 7d b7
       -1.3910865e-05 -7.1204995e-06 -4.1202984e-06 -1.5111117e-05
0001e0 fd b7 55 b7 20 30 40 b6 06 92 94 b7 27 d8 38 b7
       -1.2738627e-05 -2.8638242e-06 -1.7710972e-05 -1.10175815e-05
0001f0 fd fd 8a b7 d9 3b fb b7 74 7f a5 b2 fa a4 da b1
       -1.6569154e-05 -2.99494e-05 -1.9266487e-08 -6.3633907e-09
000200 75 ca 81 b1 65 88 19 b5 36 4d 0e b5 f3 5b 4f b5
       -3.777411e-09 -5.719542e-07 -5.301148e-07 -7.7247313e-07
000210 eb bb a1 32 73 87 18 33 6b 44 d3 33 84 fe 2f 36
       1.8828322e-08 3.5513448e-08 9.837898e-08 2.622518e-06
000220 44 e4 00 b4 be 11 83 34 2d 1f 23 b4 d5 3d 39 b6
       -1.2003972e-07 2.441356e-07 -1.51919e-07 -2.760314e-06
000230 ad 90 24 b3 66 89 56 b5 71 92 37 b6 23 21 96 b6
       -3.8315807e-08 -7.9921153e-07 -2.7354365e-06 -4.474206e-06
000240 26 1e 6e b5 43 ab cf b6 0c 9c 12 b6 55 44 1e b8
       -8.870578e-07 -6.189018e-06 -2.1846527e-06 -3.7733775e-05
000250 cc 2c 98 b8 14 1f 70 b8 c1 fc d1 b7 42 cd cb b7
       -7.256269e-05 -5.7249403e-05 -2.503244e-05 -2.4295066e-05
000260 82 bd 26 b8 49 ab e2 33 8e 8d 8d 33 a9 a0 3e 34
       -3.9753977e-05 1.0555102e-07 6.591573e-08 1.7753577e-07
000270 f3 2b 54 b2 d2 23 1c b3 57 94 02 34 cc c3 07 b4
       -1.2350017e-08 -3.635416e-08 1.2161159e-07 -1.2644085e-07
000280 34 23 f9 b3 88 f1 ae 34 83 d4 43 b5 73 51 4a b6
       -1.16013695e-07 3.2585763e-07 -7.2952406e-07 -3.0147755e-06
000290 ae 5c 1d b5 be 26 98 b6 84 f0 66 b7 b5 d6 77 b7
       -5.8621924e-07 -4.534463e-06 -1.3765068e-05 -1.4772338e-05
0002a0 75 5e 15 b6 85 26 39 b7 9f 92 07 b7 21 56 8c b4
       -2.2257711e-06 -1.1035828e-05 -8.080765e-06 -2.61397e-07
0002b0 a2 29 06 32 09 69 ac b4 9c 80 1d b4 19 a8 82 35
       7.809293e-09 -3.211392e-07 -1.4668552e-07 9.734678e-07
0002c0 15 8c e4 b4 62 f7 15 b4 4a c6 8f 34 a2 16 cf b4
       -4.2570232e-07 -1.3966704e-07 2.67801e-07 -3.8573222e-07
0002d0 7b a4 a2 34 a6 ce be 35 ae 7a 83 35 19 25 b1 35
       3.0294527e-07 1.4216246e-06 9.795965e-07 1.3198324e-06
0002e0 5c 40 8c 36 0f a0 20 36 ee 60 a2 35 79 6d 06 36
       4.1798176e-06 2.3935024e-06 1.2098151e-06 2.0031277e-06
0002f0 34 32 35 36 58 c0 39 34 33 30 69 34 58 0f 69 34
       2.7000324e-06 1.7299442e-07 2.1717351e-07 2.1705398e-07
000300 1f 19 4b 35 65 b3 5f 35 bd 92 45 35 6a ae 53 34
       7.565995e-07 8.3335027e-07 7.360175e-07 1.9714358e-07
000310 3a 99 9e 34 b3 2d 3c 35 68 8c 5e 33 8c 3b b7 b1
       2.954128e-07 7.010196e-07 5.18161e-08 -5.3327707e-09
000320 cf 8d fa b2 49 31 88 b4 33 e5 13 b6 93 02 e6 b5
       -2.9168318e-08 -2.5367834e-07 -2.2038118e-06 -1.7137085e-06
000330 05 2b 29 b6 54 1e 72 b6 e0 26 b7 b6 6a 18 98 35
       -2.5208003e-06 -3.6078463e-06 -5.4583506e-06 1.1331988e-06
000340 ac 79 e9 35 8a b2 93 35 63 8d 63 36 8a c7 f3 36
       1.7395264e-06 1.1004315e-06 3.3907934e-06 7.2651937e-06
000350 bb 62 37 37 d3 23 bb 36 bb 11 1e 37 e5 38 d5 36
       1.09306375e-05 5.577205e-06 9.421662e-06 6.354518e-06
000360 8c fe 0b b5 81 4b 2d b6 b2 43 90 b7 a7 b9 d7 b7
       -5.215195e-07 -2.5822958e-06 -1.719766e-05 -2.5716448e-05
000370 e7 6c be b7 0c eb 59 b8 72 6e 4e b8 a3 e7 db b7
       -2.2700477e-05 -5.1955736e-05 -4.9217088e-05 -2.6214699e-05
000380 df f1 d3 b8 d7 69 8e 32 dc d6 99 b2 e5 2a 44 b3
       -0.00010106316 1.6579106e-08 -1.7909251e-08 -4.567382e-08
000390 ec 83 6c 31 a3 fd 00 b3 05 0d 01 b4 2b e2 c7 b2
       3.4417509e-09 -3.0033004e-08 -1.2018798e-07 -2.3269498e-08
0003a0 02 31 f0 b1 37 1c ba b3 70 d7 7e b4 66 d8 bf b4
       -6.990491e-09 -8.666432e-08 -2.3733969e-07 -3.5733973e-07
0003b0 60 cf 8a b6 d6 cf c8 b5 2e dd a3 b5 56 8b a2 b7
       -4.136862e-06 -1.4961649e-06 -1.2208818e-06 -1.9376788e-05
0003c0 b7 66 4b b4 d9 fb b7 b5 c3 f4 d9 b6 59 56 53 33
       -1.8943216e-07 -1.370786e-06 -6.495598e-06 4.92058e-08
0003d0 72 5a 81 34 43 a9 9c 34 1f 72 36 34 26 5e eb 34
       2.409393e-07 2.9180418e-07 1.6991588e-07 4.3840663e-07
0003e0 f8 1c 3a 35 83 a2 e9 35 b7 6f 8c 36 c8 a4 28 36
       6.9332555e-07 1.740715e-06 4.1853305e-06 2.5129866e-06
0003f0 8c 12 3f 36 ee 73 15 37 63 89 a9 35 b4 cb fb 36
       2.8472014e-06 8.908084e-06 1.2631466e-06 7.504097e-06

onnx::Conv_93 f4 [64]
000000 ea 97 03 bb f3 ea 5e 3d d4 32 a7 3b 28 b3 a5 bc
       -0.0020079562 0.054423284 0.0051024947 -0.02022703
000010 94 e1 f0 be b9 b5 ce bd 9c dc 02 bd b6 00 17 bd
       -0.47047102 -0.100932546 -0.03194867 -0.036865912
000020 14 30 0f 3b c2 6a 05 be 59 7e 53 be 9b c0 4f 3d
       0.0021848725 -0.13029006 -0.20653667 0.050720792
000030 7b b5 cf bb be d9 a3 bc 70 b9 b2 bd 90 a1 2b bd
       -0.006338773 -0.020001289 -0.08726776 -0.041902125
000040 bb 0f 23 ba d7 61 88 3c 13 63 ee 3d 47 f4 b5 bd
       -0.00062203006 0.016648216 0.11639991 -0.08884483
000050 b6 ba c0 ba 3a 07 b2 bd 3e 47 7c 3e 10 8a 9f 3c
       -0.0014704082 -0.086927846 0.24636552 0.019475013
000060 3d ad 87 3c 92 93 0f bc 60 5c 7c bd b0 b8 4f 3e
       0.016562099 -0.008763211 -0.061611533 0.20285296
000070 b0 1f e0 3d 6d 2f 72 be 58 13 d3 bd 14 d0 fa bc
       0.10943544 -0.23650904 -0.10306424 -0.030616798
000080 e0 ec 0a bd b1 19 a9 bc a5 90 ac bd 12 b8 4e 3d
       -0.033917308 -0.020642133 -0.08426026 0.050468512
000090 be c5 3a bd 8e da 32 bc c0 0c 56 3d c0 46 d9 bc
       -0.045598738 -0.010916365 0.052258253 -0.026522994
0000a0 08 c0 8c bd 82 79 ae bd b0 2c 56 be 10 e2 aa be
       -0.068725646 -0.085192695 -0.20915484 -0.33375597
0000b0 1e 6c dc bd 26 b0 3e bd 12 6a 67 3d 08 12 12 bd
       -0.10762809 -0.046554707 0.05649764 -0.035661727
0000c0 26 35 16 bf 78 7b 6f bd 50 42 4e be 79 0e c1 bd
       -0.5867485 -0.05846736 -0.20142484 -0.094265886
0000d0 3b 52 33 bc bf 2f 7f 3e b9 64 1d bc 14 3b fa bd
       -0.010944898 0.24920557 -0.009606534 -0.122182995
0000e0 ca 79 4f bd 18 38 e6 bc 0d 44 13 ba 25 7e 9c be
       -0.050653256 -0.02810292 -0.00056177453 -0.3056499
0000f0 64 b2 ca bd 90 ef 86 ba d9 06 85 bd 84 98 d9 b9
       -0.098973066 -0.0010294784 -0.06495447 -0.00041503098
