cmd/ai/datas/models/lion_with_a_closed_mouth.onnx (onnx, 301496 bytes, 16 tensors)

fc.weight f4 [2, 256]
0	0xbe07a7fd	-0.13247676
1	0xbdc41a2a	-0.09575303
2	0xbe2f5f38	-0.17126167
3	0xbe197714	-0.14986831
4	0xbe4fb0c4	-0.20282274
5	0xbe46ed04	-0.19426352
6	0xbe56d5d1	-0.20980002
7	0xbe50ae29	-0.20378937
8	0x80001e7c	-1.0936e-41
9	0x80002032	-1.155e-41
10	0x8000231b	-1.2593e-41
11	0x80002129	-1.1896e-41
12	0xbdbbbf3d	-0.09167335
13	0xbd99d188	-0.07510668
14	0xbdf29ca6	-0.118462846
15	0xbde8a82a	-0.113602
16	0x3de41aeb	0.11137947
17	0x3de51c92	0.1118709
18	0x3dd92fdf	0.10604834
19	0x3de57d29	0.11205513
20	0x3d6176ff	0.055045124
21	0x3d6d29c3	0.057901155
22	0x3d6cc8ea	0.057808794
23	0x3d6fa58a	0.05850748
24	0x094fb9ca	2.5004076e-33
25	0x094fb9ca	2.5004076e-33
26	0x094fb9ca	2.5004076e-33
27	0x094fb9ca	2.5004076e-33
28	0x3c15c34a	0.009140799
29	0x3c181db8	0.009284429
30	0x3c2213b9	0.009892398
31	0x3c2553d0	0.010090783
32	0x3e202870	0.15640426
33	0x3e284802	0.16433719
34	0x3e0a03f6	0.13478073
35	0x3e1ceb52	0.15324143
36	0x987f02b5	-3.2959344e-24
37	0x987f0267	-3.295919e-24
38	0x987f029c	-3.2959295e-24
39	0x987f0256	-3.2959157e-24
40	0x1dc5aaf3	5.2322223e-21
41	0x1dc5b450	5.2331905e-21
42	0x1dc5cb0d	5.2355415e-21
43	0x1dc5d695	5.236734e-21
44	0xb701586f	-7.709589e-06
45	0xb701586f	-7.709589e-06
46	0xb701586f	-7.709589e-06
47	0xb701586f	-7.709589e-06
48	0x990f4fca	-7.40904e-24
49	0x990f4fca	-7.40904e-24
50	0x990f4fca	-7.40904e-24
51	0x990f4fca	-7.40904e-24
52	0x3dbc2d0b	0.09188279
53	0x3dd77462	0.10520245
54	0x3d8ba734	0.06819001
55	0x3dabe0e1	0.083925016
56	0x3b708f1d	0.0036706396
57	0x3b713581	0.0036805572
58	0x3b71fbcf	0.0036923771
59	0x3b72d296	0.0037051789
60	0x03233c3d	4.7970545e-37
61	0x03231612	4.792673e-37
62	0x0323a14b	4.808655e-37
63	0x032381d8	4.805045e-37
64	0x80000345	-1.173e-42
65	0x80000345	-1.173e-42
66	0x80000345	-1.173e-42
67	0x80000345	-1.173e-42
68	0xb3826add	-6.073035e-08
69	0xb3826add	-6.073035e-08
70	0xb3826add	-6.073035e-08
71	0xb3826add	-6.073035e-08
72	0x382238fd	3.8676884e-05
73	0x382238fd	3.8676884e-05
74	0x382238fd	3.8676884e-05
75	0x382238fd	3.8676884e-05
76	0xbd9afdb0	-0.07567918
77	0xbd964975	-0.073382296
78	0xbdb4fd49	-0.08837373
79	0xbdb3c0fb	-0.087770425
80	0x25076e8f	1.1746842e-16
81	0x25076905	1.1744965e-16
82	0x25076ad7	1.1745582e-16
83	0x250764b5	1.1743504e-16
84	0x85eff15a	-2.256411e-35
85	0x85eff14b	-2.2564089e-35
86	0x85eff153	-2.25641e-35
87	0x85eff13d	-2.2564069e-35
88	0x1f88404a	5.77046e-20
89	0x1f87fa7f	5.7589135e-20
90	0x1f87246e	5.723499e-20
91	0x1f86a79c	5.7028494e-20
92	0xbe1ab982	-0.15109828
93	0xbe2ddd08	-0.16978848
94	0xbe232008	-0.15930188
95	0xbe3d3d9d	-0.18480535
96	0x00001349	6.918e-42
97	0x00001665	8.034e-42
98	0x00001620	7.937e-42
99	0x00000d4a	4.767e-42
100	0x3973195a	0.0002318373
101	0x3977c0bc	0.00023627555
102	0x397b20a3	0.00023949383
103	0x39809657	0.00024526074
104	0xbd396e50	-0.045271218
105	0xbd36db26	-0.04464259
106	0xbd4c615f	-0.049897548
107	0xbd50ca9a	-0.050974466
108	0x83ffe142	-1.503927e-36
109	0x83ffe142	-1.503927e-36
110	0x83ffe142	-1.503927e-36
111	0x83ffe17c	-1.5039322e-36
112	0xb93538a7	-0.0001728261
113	0xb93538a7	-0.0001728261
114	0xb93538a7	-0.0001728261
115	0xb93538a7	-0.0001728261
116	0xbd9a8472	-0.07544793
117	0xbd9f846a	-0.07788928
118	0xbd9fc572	-0.078013316
119	0xbda75e40	-0.08172274
120	0x3e17e71e	0.14834258
121	0x3e132dfb	0.14373009
122	0x3e175683	0.14779095
123	0x3e0b8643	0.13625436
124	0x39b8ab79	0.00035222972
125	0x39b7916e	0.00035012834
126	0x39b92b57	0.0003531824
127	0x39b7e484	0.00035074737
128	0xa533bca8	-1.5589694e-16
129	0xa533bca8	-1.5589694e-16
130	0xa533bca8	-1.5589694e-16
131	0xa533bca8	-1.5589694e-16
132	0x3e018ed1	0.12652136
133	0x3e381293	0.17975836
134	0x3e0149b6	0.12625775
135	0x3e2d3bf9	0.16917409
136	0x3e0fb477	0.14033686
137	0x3e03e100	0.128788
138	0x3e0edd0e	0.13951513
139	0x3df469b8	0.11934227
140	0x3a70f173	0.0009191252
141	0x3a6fbb6d	0.0009145055
142	0x3a70bb76	0.00091832073
143	0x3a6f49d5	0.00091281283
144	0x3bb92e3b	0.005651263
145	0x3bb87118	0.005628716
146	0x3bbb0687	0.005707565
147	0x3bba8448	0.0056920387
148	0xbe1b200d	-0.15148945
149	0xbdf0563b	-0.11735197
150	0xbe610267	-0.21973573
151	0xbe4ec072	-0.201906
152	0x383a2a7c	4.4385422e-05
153	0x383a2a7c	4.4385422e-05
154	0x383a2a7c	4.4385422e-05
155	0x383a2a7c	4.4385422e-05
156	0x3d2d0eee	0.042250566
157	0x3d314d0f	0.04328638
158	0x3d32afd5	0.043624718
159	0x3d3569cf	0.04429036
160	0x3e3af454	0.18257266
161	0x3e40a125	0.18811472
162	0x3e420765	0.18948133
163	0x3e3d23bf	0.18470667
164	0x0da4a789	1.0147613e-30
165	0x0d97ed0c	9.36316e-31
166	0x0dab5fcd	1.0561752e-30
167	0x0d9f0073	9.79924e-31
168	0xbe4da7a8	-0.20083487
169	0xbe1308f2	-0.14358881
170	0xbe70efe5	-0.23529013
171	0xbe43e65a	-0.19130841
172	0xb5ae031f	-1.2964919e-06
173	0xb5695335	-8.6920346e-07
174	0xb54dffba	-7.674058e-07
175	0xb49347c0	-2.743309e-07
176	0x3e24955b	0.160726
177	0x3e16cdb6	0.1472691
178	0x3e1ba188	0.15198338
179	0x3e20d227	0.15705167
180	0xa83ec270	-1.0589281e-14
181	0xa83ec4b8	-1.0589775e-14
182	0xa83ec3fd	-1.0589617e-14
183	0xa83ec664	-1.0590138e-14
184	0xbe4e29bc	-0.20133108
185	0xbdd5e27e	-0.104435906
186	0xbe980ca2	-0.29697138
187	0xbe640673	-0.22268085
188	0x8000200f	-1.15e-41
189	0x80000521	-1.84e-42
190	0x80000513	-1.82e-42
191	0x80001004	-5.745e-42
192	0x3b8a6f11	0.004224666
193	0x3b8b759b	0.004255963
194	0x3b9787cc	0.0046243425
195	0x3b98e1ee	0.004665605
196	0x9ccdf4f8	-1.3629085e-21
197	0x9cce0351	-1.3632794e-21
198	0x9cca3a31	-1.3382281e-21
199	0x9cc9bd96	-1.3350071e-21
200	0x3e2ce3d5	0.16883786
201	0x3e2319d4	0.15927821
202	0x3e374229	0.17896332
203	0x3e37ae0f	0.17937492
204	0x39e0ea6b	0.00042899264
205	0x39e0eb32	0.00042899844
206	0x39e0ec79	0.00042900795
207	0x39e0ed28	0.00042901305
208	0xbe1d1744	-0.15340906
209	0xbe01bc6b	-0.12669532
210	0xbe4ecb12	-0.20194653
211	0xbe332a0d	-0.1749651
212	0xa05bebe5	-1.8628072e-19
213	0xa05bebe8	-1.8628076e-19
214	0xa05bebe5	-1.8628072e-19
215	0xa05bebe8	-1.8628076e-19
216	0xbde8937d	-0.11356256
217	0xbdeb0bc4	-0.114768535
218	0xbdfb3d04	-0.12267497
219	0xbdfcb0c7	-0.12338405
220	0xbd88193a	-0.066454366
221	0xbd8a2574	-0.06745425
222	0xbd90a310	-0.07062352
223	0xbd963913	-0.07335105
224	0xa047a900	-1.6911873e-19
225	0xa047b319	-1.6915214e-19
226	0xa047a6e4	-1.6911175e-19
227	0xa047ad86	-1.691337e-19
228	0xbd941479	-0.07230467
229	0xbd811dac	-0.063044876
230	0xbdadbd9d	-0.084834315
231	0xbda989e3	-0.08278253
232	0xa0599d1a	-1.8432596e-19
233	0xa0599d1a	-1.8432596e-19
234	0xa0599d1a	-1.8432596e-19
235	0xa0599d1a	-1.8432596e-19
236	0x000017a9	8.488e-42
237	0x00001e12	1.0787e-41
238	0x800001e7	-6.82e-43
239	0x00001212	6.482e-42
240	0x3c83b6d4	0.01607839
241	0x3cb205c2	0.021731261
242	0x3c391ffd	0.0112991305
243	0x3c868430	0.016420454
244	0xabedda8b	-1.6900521e-12
245	0xabf533cc	-1.7422674e-12
246	0xabe02f72	-1.5929326e-12
247	0xabe7bde6	-1.6466245e-12
248	0xbe0bcd88	-0.13652623
249	0xbe15c252	-0.14624909
250	0xbe0ccd09	-0.1375009
251	0xbe16bd11	-0.1472056
252	0xbe0b6134	-0.13611299
253	0xbe01a4fb	-0.12660591
254	0xbe3e936d	-0.18610926
255	0xbe38f1e5	-0.18061025

fc.bias f4 [2]
0	0x3d8fb0d3	0.070161484
1	0xbc3a9615	-0.011388321

79 f4 [16, 3, 7, 7]
0	0xbcca5d53	-0.024702704
1	0xbd709d34	-0.05874367
2	0x3ca53ebf	0.020171521
3	0xbaac4067	-0.0013141752
4	0xbdfae58e	-0.12250815
5	0x3d5afe7b	0.053465348
6	0x3c198f7d	0.009372589
7	0xbcc73625	-0.02431781
8	0x3cbb7166	0.022881221
9	0x3d9d6dcf	0.0768696
10	0xbd93fee0	-0.07226348
11	0xbe2eab90	-0.17057633
12	0xbcfc5e42	-0.030806664
13	0x3ddcc235	0.107792296
14	0xbc5e9cc7	-0.013587183
15	0x3e15cbdc	0.14628547
16	0x3d10577b	0.035239678
17	0xbe596451	-0.21229674
18	0xbe3a3381	-0.1818371
19	0xbda6469c	-0.081189364
20	0x3e0b3e9f	0.13598107
21	0x3e0ec82b	0.13943546
22	0x3e6e03df	0.23243664
23	0x3dea3acc	0.11436996
24	0xbdd669ab	-0.10469373
25	0xbe7dc1f3	-0.24781017
26	0xbdc1e8f2	-0.09468259
27	0x3e6a3b3b	0.22874157
28	0x3e1f1984	0.15537077
29	0x3e54d3f8	0.20783985
30	0x3e151b01	0.14561082
31	0xbe0d2f1c	-0.13787502
32	0xbe50e29c	-0.20398945
33	0xbdf0b8f5	-0.11754028
34	0x3e4e92b6	0.20173153
35	0x3e13be46	0.14428052
36	0x3e4c2092	0.199343
37	0x3dd6a248	0.104801714
38	0xbe3368f3	-0.17520504
39	0xbe8b2d05	-0.27182785
40	0xbe5c2004	-0.21496588
41	0x3e14427a	0.14478484
42	0x3d1cc0c0	0.03826976
43	0x3dbec2ce	0.093145
44	0xbd89f177	-0.06735509
45	0xbe27aa7a	-0.16373625
46	0xbe6e926f	-0.23298047
47	0xbde724f3	-0.112863444
48	0x3e1db4a2	0.15400937
49	0xbd67ecf2	-0.056622453
50	0xbd4c8c1f	-0.049938317
51	0x3b0772ef	0.002066787
52	0x3cf6dd1e	0.030134734
53	0xbd3f83a1	-0.04675639
54	0x3d4b2a1f	0.049600717
55	0x3c1ecc69	0.00969229
56	0xbe0a10e5	-0.13483007
57	0xbcab3da2	-0.020903412
58	0x3d9583d7	0.07300537
59	0xbdc5391d	-0.09630034
60	0xbd17a0d2	-0.037018605
61	0x3d469210	0.04847914
62	0x3e405a85	0.1878453
63	0xbe1c7e33	-0.15282516
64	0xbc3b43f1	-0.011429773
65	0xbd6c049e	-0.05762159
66	0xbdade18e	-0.08490287
67	0xbe21f3f4	-0.15815717
68	0xbd86d889	-0.065842696
69	0x3e338c29	0.17533936
70	0xbdf84870	-0.12123191
71	0x3a0a0e4b	0.0005266412
72	0x3d5da252	0.05410988
73	0xbd389318	-0.045062155
74	0xbdfe9ced	-0.12432275
75	0x3d1d21c3	0.038362276
76	0x3e4881ed	0.19580813
77	0xbd773807	-0.060356166
78	0x3db77d1c	0.089594096
79	0x3c842dd4	0.016135134
80	0x3d2ebd2f	0.04266089
81	0xbd15ac23	-0.036541115
82	0xbd74f463	-0.059803378
83	0x3e708a4c	0.23490256
84	0x3b0006fb	0.001953541
85	0x3caac442	0.020845536
86	0x3b8cee48	0.0043008663
87	0xbd6e0e76	-0.05811926
88	0xbe1c790b	-0.15280549
89	0xbdcbb455	-0.09946505
90	0x3ddfedbc	0.10934016
91	0xbdff010f	-0.12451374
92	0xbd969c43	-0.07354023
93	0xbd31de98	-0.043425173
94	0xbcf2630f	-0.02958825
95	0xbd494de3	-0.049146544
96	0x3d714263	0.058901202
97	0x3e54bf24	0.2077604
98	0xbe22b2ae	-0.15888473
99	0xbd559d6b	-0.05215208
100	0x3d76b389	0.06022981
101	0x3da8b466	0.08237533
102	0x3c2c4395	0.01051416
103	0x3d15b83f	0.036552664
104	0x3d8fb6f7	0.0701732
105	0xbe190058	-0.14941537
106	0xbcd85675	-0.026408413
107	0x3d3d4ed8	0.04621777
108	0x3ba228a4	0.0049486924
109	0xbcd45748	-0.025920525
110	0x3da91987	0.08256822
111	0x3d749a40	0.059717417
112	0xbe54e180	-0.20789146
113	0xbceddd92	-0.029036317
114	0xbc834ed2	-0.016028795
115	0xbd84a446	-0.06476645
116	0xbd1f5a80	-0.038904667
117	0x3cd3f95c	0.02587574
118	0x3dcbb20a	0.09946068
119	0xbe4f1c32	-0.202256
120	0xbc65f8d3	-0.014036375
121	0x3cc2e0bb	0.0237888
122	0x3d079c3f	0.033107992
123	0xbd41d069	-0.047317896
124	0x3c086b22	0.008326324
125	0x3e843415	0.25820985
126	0xbe0c35c3	-0.13692383
127	0x3d294115	0.041321833
128	0x3d96813a	0.07348867
129	0x3d49bc7b	0.049252015
130	0xbd225f21	-0.039641503
131	0x3c22b5e6	0.009931063
132	0x3e710cc2	0.23540023
133	0x3b5cf52a	0.0033715465
134	0xbcb3c245	-0.02194322
135	0xbbd8113e	-0.0065938523
136	0x3d6a4c15	0.057201464
137	0xbd959c73	-0.07305231
138	0xbd941b5e	-0.072317824
139	0x3e1fe0d9	0.15613116
140	0xbdc162b7	-0.094426565
141	0xbd1a8154	-0.037720993
142	0x3cfdb510	0.030970126
143	0xbc8f62aa	-0.017503101
144	0xbceaa37a	-0.028642405
145	0x3d97afe9	0.07406599
146	0x3e4e3d7f	0.20140646
147	0x3dd38aee	0.10329233
148	0x3ddd8dbe	0.10818051
149	0x3d8a919b	0.06766053
150	0x3db3afd2	0.087737694
151	0x3e0b2cdf	0.13591336
152	0x3dbb6168	0.09149438
153	0x3d2fc044	0.04290797
154	0xbbaa129b	-0.005190206
155	0x3dd32cea	0.10311301
156	0x3d8a568b	0.06754788
157	0x3d5f1a69	0.054468546
158	0x3d0a1625	0.033712525
159	0xbd0acf26	-0.03388896
160	0xbd9c2952	-0.07625069
161	0xbdf64c12	-0.12026228
162	0xbd3f1639	-0.046652053
163	0xbda2aaa5	-0.07942704
164	0xbe23d0dc	-0.15997642
165	0xbe3d25b6	-0.18471417
166	0xbe35fd7b	-0.17772476
167	0xbe5e2300	-0.21693039
168	0xbdbc09af	-0.091815345
169	0xbd40239c	-0.04690896
170	0xbdd64876	-0.104630396
171	0xbdf19f37	-0.11797946
172	0xbe079d9a	-0.13243714
173	0xbdd7d0ab	-0.10537847
174	0xbe037a54	-0.12839633
175	0xbcb67921	-0.022274556
176	0x3d89e3a5	0.06732873
177	0x3d586b40	0.052836657
178	0x3de6cecf	0.11269914
179	0x3d9f4b78	0.077780664
180	0x3c9a2df9	0.01882075
181	0xbcde41d4	-0.027130999
182	0x3c08c1d6	0.008346995
183	0x3d870e0e	0.065944776
184	0x3c67a46d	0.014138323
185	0x3d5138f6	0.051079713
186	0x3d5b8e23	0.05360235
187	0x3ce1e1a4	0.027573414
188	0xbc7ee6b2	-0.015557932
189	0xbda0eb11	-0.07857335
190	0xbd028308	-0.031863242
191	0xbd952d80	-0.07284069
192	0xbd92a1bc	-0.07159755
193	0xbd183bb9	-0.03716633
194	0xbd68868d	-0.056768943
195	0xbd839013	-0.06423964
196	0x3d11cde5	0.035596747
197	0x3d3e9ab9	0.046534274
198	0x3bacfc29	0.0052790833
199	0x3d984bba	0.07436319
200	0x3e2d37d2	0.16915825
201	0x3e0d6cc0	0.13811016
202	0x3da1bf15	0.07897774
203	0xbd21d2aa	-0.039507546
204	0x3d8f772b	0.07005151
205	0x3d6fe776	0.058570348
206	0x3dcb49bf	0.09926175
207	0x3dd599ae	0.10429703
208	0x3d2d0775	0.04224344
209	0xbcc58a11	-0.024113687
210	0xbe2f095f	-0.17093419
211	0xbd79e346	-0.06100776
212	0xbddefb60	-0.1088779
213	0xbe037d35	-0.12840731
214	0xbde3aa6b	-0.11116489
215	0xbda3e608	-0.08002859
216	0xbe3326b1	-0.17495228
217	0xbe17d37d	-0.1482677
218	0xbdc34f40	-0.095366
219	0xbde342ea	-0.11096747
220	0xbce33d41	-0.02773917
221	0xbc8b5446	-0.017007958
222	0x3bfcf181	0.007719219
223	0xbd052af3	-0.032511663
224	0xbcffc2f1	-0.031220885
225	0x3d227a81	0.03966761
226	0x3ccdf789	0.025142448
227	0x3e1ca6d7	0.1529802
228	0x3e2ec4bf	0.1706724
229	0x3e096782	0.13418391
230	0x3de5eacc	0.112264246
231	0xbb1cfd38	-0.002395464
232	0x3d830ca4	0.063988954
233	0x3d332eab	0.043745678
234	0x3df965b2	0.121776
235	0x3e04c86b	0.12967078
236	0x3deb1b22	0.114797845
237	0x3deb5035	0.11489908
238	0xbd92ce55	-0.07168261
239	0xbd83267c	-0.06403825
240	0xbe0b69c6	-0.13614568
241	0xbd72b97f	-0.059258934
242	0xbb1a953d	-0.0023587488
243	0xbbe10f7c	-0.006868301
244	0xbd7b5a72	-0.061365552
245	0x3cafa8c2	0.021442775
246	0x3c648896	0.01394858
247	0xbd42f353	-0.047595333
248	0x3d3f4af9	0.04670236
249	0x3e06596e	0.13120052
250	0x3e038674	0.12844259
251	0x3d6d15a6	0.057881974
252	0xbd139dd5	-0.036039192
253	0x3d430eb0	0.04762143
254	0x3d29fd18	0.041501135
255	0x3d5bd3e3	0.053668868

80 f4 [16]
0	0x3e3d226a	0.18470159
1	0xbd70bdd7	-0.058774795
2	0xb4123b9d	-1.3618997e-07
3	0xbe45ae21	-0.19304706
4	0x3ef4d9ee	0.47822517
5	0x3e822fc8	0.2542708
6	0x3f32234a	0.69585097
7	0x3eba7096	0.3641402
8	0x3bb1a8b4	0.0054217223
9	0x3c292e80	0.010326028
10	0x3eb4f915	0.35346285
11	0xbeb0ae70	-0.34508085
12	0xbe80a402	-0.25125128
13	0xac193fbf	-2.1777994e-12
14	0xbecffec8	-0.4062407
15	0x3e39f2f1	0.18159081

82 f4 [32, 16, 3, 3]
0	0xbc6ce41c	-0.014458682
1	0xbc6b459f	-0.014359861
2	0x3d0246cb	0.031805795
3	0xbb877e27	-0.0041349116
4	0x3ccd8bc1	0.025091054
5	0x3d42158b	0.047383826
6	0xbb80cffb	-0.003931043
7	0xbaf84c69	-0.001894367
8	0x3d0f37fd	0.034965504
9	0xbb144ce1	-0.0022628831
10	0x3ce6e85e	0.028186973
11	0x3b5707c7	0.0032811032
12	0xbc9b9fe6	-0.018997144
13	0xbb8b04b4	-0.004242504
14	0xbc3199ff	-0.010839938
15	0xbd19a4e8	-0.037510782
16	0xbc6f6def	-0.014613613
17	0x3cb4acb0	0.022055
18	0x00002ed3	1.6797e-41
19	0x80001f7e	-1.1297e-41
20	0x800035fe	-1.9369e-41
21	0x00001bd8	9.988e-42
22	0x0000335d	1.8426e-41
23	0x0000092d	3.292e-42
24	0x0000283f	1.4438e-41
25	0x00000721	2.557e-42
26	0x800016e6	-8.214e-42
27	0x3b06ed7a	0.0020588324
28	0x3d62852c	0.055302784
29	0x3d702ce2	0.058636554
30	0xbd9f33a3	-0.07773521
31	0xbd2689ab	-0.040658634
32	0xbc810f4d	-0.015754366
33	0xbd0726b5	-0.0329959
34	0xbc80aea4	-0.015708275
35	0x3cb46b24	0.022023745
36	0x3c662198	0.014046095
37	0x3beb60f3	0.007183188
38	0x3d0f30c9	0.034958635
39	0x3bd474ad	0.0064836354
40	0xb9d5b592	-0.00040761806
41	0x3ce20705	0.027591238
42	0xbcdcd54b	-0.026957175
43	0xbcf07f05	-0.029357443
44	0x3c93673c	0.017993562
45	0x3ce1d2f3	0.027566409
46	0x3d194690	0.03742081
47	0xbc2237f9	-0.00990104
48	0xbc6c2fcf	-0.014415695
49	0x3cdc2d55	0.026877085
50	0xbc1cf5de	-0.009580104
51	0xbcd8591e	-0.026409682
52	0x3d31736d	0.04332297
53	0x3d2d62db	0.042330604
54	0x3b2e822f	0.0026627888
55	0xbc796d44	-0.015223805
56	0x3ca5b43c	0.020227544
57	0x3cba5265	0.022744367
58	0x3cf3ea3c	0.029774778
59	0x3d60202f	0.054718193
60	0xbccc9eb2	-0.024978016
61	0x3c82957e	0.015940424
62	0x3ce10032	0.027465913
63	0x3cf92291	0.03041199
64	0x3cee53ee	0.029092755
65	0x3c897e43	0.01678384
66	0x3a9d7a18	0.0012014536
67	0x3d1cc99e	0.038278215
68	0x3cb53d47	0.022123946
69	0xbcf8891f	-0.030338822
70	0xbc186950	-0.009302452
71	0xbc9ed4d1	-0.019388588
72	0xbcf3a574	-0.02974198
73	0x3c90784c	0.017635487
74	0x3c126076	0.008934131
75	0xbd44d6ea	-0.04805652
76	0x3d1a502b	0.03767411
77	0xbcfd9a78	-0.030957446
78	0xbd4e4b72	-0.05036492
79	0x3cc79539	0.024363147
80	0xbd046e93	-0.032332014
81	0xb603d1cb	-1.9642637e-06
82	0x3b8fa51b	0.004383696
83	0x3c8b0c23	0.01697356
84	0x3c6ada3c	0.014334258
85	0x3d07247b	0.032993775
86	0x3d1efce9	0.038815413
87	0xbc19037e	-0.0093392115
88	0x3d1661ad	0.036714245
89	0x3d285310	0.04109484
90	0xbb357e08	-0.0027693529
91	0x3cbf472b	0.023349365
92	0xbd34af2e	-0.044112377
93	0xbd8209a6	-0.063494965
94	0x3d374de4	0.044752017
95	0xbc8b5d0b	-0.01701214
96	0xbd4b6195	-0.04965361
97	0x3ca7411e	0.020416792
98	0x3b2fe724	0.0026840651
99	0xbcb22dc8	-0.021750346
100	0x3c8a8b9b	0.016912272
101	0xbc871f23	-0.01649434
102	0xbcf05b0e	-0.029340293
103	0x3c722481	0.014779211
104	0xbc591aad	-0.013250989
105	0xbd163da6	-0.036679886
106	0x3d03ebce	0.032207303
107	0xba557370	-0.00081425067
108	0x3c82a662	0.015948478
109	0x3dce7ca5	0.10082368
110	0x3d4101a0	0.04712069
111	0xbd0a1eb9	-0.033720706
112	0x3cbc2c24	0.022970267
113	0xbd4db995	-0.050225813
114	0xbd2d2b53	-0.042277645
115	0xbc052e95	-0.008128782
116	0xbd1030e8	-0.03520289
117	0x00000374	1.239e-42
118	0x000035c7	1.9292e-41
119	0x8000077b	-2.683e-42
120	0x000013cf	7.106e-42
121	0x00002ebf	1.677e-41
122	0x00001e56	1.0882e-41
123	0x00001c56	1.0165e-41
124	0x00002748	1.4091e-41
125	0x800029da	-1.5014e-41
126	0xbb0a0c99	-0.0021064638
127	0xbc819726	-0.015819144
128	0x3b0a2f9d	0.0021085509
129	0xbae1c8ec	-0.0017226017
130	0xbc50d0ed	-0.012745124
131	0xbc1241cb	-0.008926819
132	0x3b91bc4f	0.004447497
133	0xbafa08ae	-0.0019076073
134	0xbc4d7786	-0.012540704
135	0x3bea3fb5	0.0071487078
136	0x3dfecd98	0.12441558
137	0x3dd67728	0.10471946
138	0xbbd448f3	-0.006478423
139	0x3d3a0c63	0.04542197
140	0xbcf17dba	-0.029478896
141	0xbd3287c6	-0.043586515
142	0xbc05fb73	-0.008177626
143	0xbc7315ab	-0.014836709
144	0x3b87f1fd	0.0041487203
145	0x3d80a097	0.0628063
146	0x3dd9f058	0.10641545
147	0x3d223721	0.039603356
148	0x3cb8b211	0.022545846
149	0x3d4ac5ce	0.049505048
150	0xbdc2f0ed	-0.09518609
151	0xbd93124f	-0.071812265
152	0xbc9c56f1	-0.019084426
153	0x3d8b505b	0.06802436
154	0x3d882bd1	0.06648982
155	0x3d4033b4	0.046924308
156	0xbd4c1ea2	-0.0498339
157	0xbd999db0	-0.0750078
158	0xbd679457	-0.056537952
159	0x3d3be971	0.045876924
160	0x3c805eb7	0.015670164
161	0xbd137053	-0.035995793
162	0x80002bd7	-1.5727e-41
163	0x800002c7	-9.96e-43
164	0x80003331	-1.8364e-41
165	0x0000149e	7.396e-42
166	0x8000335a	-1.8421e-41
167	0x8000337d	-1.847e-41
168	0x800017c2	-8.523e-42
169	0x8000322b	-1.7997e-41
170	0x80000c1a	-4.341e-42
171	0xbd2719a6	-0.040795945
172	0x3dac1b86	0.08403687
173	0x3c5fc36b	0.013657431
174	0xbe4abbb9	-0.19798173
175	0xbde37da0	-0.111079454
176	0xbe013ea5	-0.12621553
177	0x3d205a61	0.039148692
178	0x3ded95a7	0.116008095
179	0x3d8e292e	0.06941448
180	0xbc00eb32	-0.007868575
181	0xbbeb32a6	-0.0071776686
182	0xbc2a9759	-0.010412061
183	0xbd6374a3	-0.055531155
184	0xbc68e091	-0.014213697
185	0xbc98d472	-0.01865599
186	0xbd85a124	-0.06524876
187	0xbca1028a	-0.019654531
188	0xbd8d5285	-0.06900505
189	0xbde493db	-0.11161014
190	0xbe366152	-0.17810562
191	0xbe2afe63	-0.16698603
192	0x3d09a507	0.033604648
193	0xbd6cdd04	-0.057827964
194	0x3cf4c30f	0.029878167
195	0x3cf75fcf	0.030197052
196	0x3e05ad01	0.13054277
197	0x3e0337fa	0.12814322
198	0xbc8e84ff	-0.017397402
199	0x3db0a86f	0.08625876
200	0x3dc2e1af	0.09515702
201	0xbca118dd	-0.019665176
202	0x3b343eee	0.002750333
203	0x3cc982f8	0.024598584
204	0xbcd3624b	-0.025803706
205	0xbd50b4bc	-0.05095361
206	0xbce6fe87	-0.02819754
207	0x3bcc6ed0	0.006238796
208	0xbd2e4935	-0.042550284
209	0x3a575667	0.0008214474
210	0x3c99a428	0.018755034
211	0xbb814f16	-0.0039461954
212	0x3da44fa7	0.08023005
213	0x3ca55a52	0.02018467
214	0xbc7ad796	-0.015310189
215	0x3d6b7ac9	0.057490144
216	0x3c12d8fd	0.008962867
217	0xbca197fa	-0.019725788
218	0x3d7fc83d	0.06244682
219	0x3d759f77	0.05996653
220	0x3cf4b5af	0.02987179
221	0x3da6d4af	0.08146035
222	0xbe0df3bd	-0.1386251
223	0xbd9ba865	-0.07600478
224	0xbcaa6bef	-0.02080342
225	0xbd8e568a	-0.069501
226	0xbcf9a3c4	-0.030473597
227	0xbd398c7b	-0.04529999
228	0xbd377333	-0.044787597
229	0xbcb11add	-0.021619255
230	0xbd106f68	-0.035262495
231	0x3d6e54cd	0.05818634
232	0x3dedff85	0.11621002
233	0x3e085773	0.13314609
234	0x3d8889b5	0.066668905
235	0xbd2af5cd	-0.04173832
236	0x3da9f37b	0.08298393
237	0x3d807be0	0.06273627
238	0xbdcc6bf6	-0.099815294
239	0xbe3c42bf	-0.18384837
240	0x3db98ff1	0.09060658
241	0x3d548fac	0.05189483
242	0x3cd07067	0.025444223
243	0x3b82e750	0.0039948598
244	0xbd4ce415	-0.050022203
245	0xbcd76482	-0.026293043
246	0xbc4dea53	-0.012568074
247	0xbd71f2cf	-0.05906945
248	0xbc96c733	-0.018405532
249	0x3d4db71d	0.05022346
250	0x3c2e4304	0.010636095
251	0x3c12ecff	0.008967637
252	0x3db8fe7e	0.090329155
253	0xb8f8c0f9	-0.000118615055
254	0x3db3f301	0.08786584
255	0xbd11a367	-0.035556223

83 f4 [32]
0	0xbe248838	-0.16067588
1	0x3d4d75c2	0.05016113
2	0x3e37141d	0.17878766
3	0x3f17c7b3	0.5928909
4	0x3b542d35	0.0032375578
5	0x3c4954f8	0.012288325
6	0xbd7c4f66	-0.061599158
7	0x3e801ecc	0.25023496
8	0xbe3d2a04	-0.18473059
9	0xbd23796c	-0.03991072
10	0xbe1eae7e	-0.15496251
11	0x3e99b05d	0.30017367
12	0x3ddba1ea	0.10724242
13	0x3330fcf8	4.1208267e-08
14	0xae70f528	-5.4787425e-11
15	0x3c1ed240	0.009693682
16	0x3dd21142	0.10257198
17	0x3e812dd5	0.2523028
18	0x3ebe552b	0.37174353
19	0x3d2b0170	0.041749418
20	0xbd341107	-0.04396155
21	0x3bd9968d	0.0066402615
22	0x3e043891	0.12912203
23	0xbe5c9713	-0.21542005
24	0x8000c3ca	-7.0236e-41
25	0xb0a4712e	-1.1964738e-09
26	0x3e856da4	0.26060212
27	0xbd10c02a	-0.035339512
28	0x3e00a0e9	0.12561382
29	0xbdd6f421	-0.10495783
30	0xa6610635	-7.807097e-16
31	0xbcb92b1b	-0.022603562

85 f4 [32, 32, 3, 3]
0	0x9b31eadb	-1.4716983e-22
1	0x9faa76cc	-7.2194333e-20
2	0x800756cb	-6.73984e-40
3	0x89ccbb38	-4.9287273e-33
4	0x9cd46592	-1.4055238e-21
5	0x91a351f3	-2.576737e-28
6	0x80000605	-2.16e-42
7	0x91123587	-1.1533864e-28
8	0x03a460d8	9.661288e-37
9	0xa479b8ce	-5.4149804e-17
10	0x9d3109f2	-2.3430897e-21
11	0x99f9f127	-2.5843397e-23
12	0x9ec47809	-2.0801953e-20
13	0x8c64e134	-1.7632251e-31
14	0x046f5cfd	2.8137013e-36
15	0x9bea1a6c	-3.8729127e-22
16	0x95e13976	-9.0967434e-26
17	0x9784502e	-8.55054e-25
18	0x2cc73dd1	5.662783e-12
19	0x2c02b97a	1.8577071e-12
20	0x2be31ffa	1.6138195e-12
21	0x329ee896	1.8499389e-08
22	0x33181937	3.541319e-08
23	0x33341123	4.19251e-08
24	0x2c01f9a6	1.8470585e-12
25	0x2ecaebd6	9.2277894e-11
26	0x3061a8e0	8.209451e-10
27	0xae97dd43	-6.905989e-11
28	0xaf9331ad	-2.677444e-10
29	0x9da9f4e1	-4.4987126e-21
30	0xafc83a72	-3.6421316e-10
31	0xaeca30be	-9.194555e-11
32	0xa5a88df6	-2.923955e-16
33	0xadeee5fc	-2.7159601e-11
34	0xaba7dbcb	-1.1927068e-12
35	0xa6d4cb38	-1.4765538e-15
36	0x8000178e	-8.45e-42
37	0x80000f35	-5.455e-42
38	0x00001b28	9.742e-42
39	0x80000bf3	-4.287e-42
40	0x8000142c	-7.236e-42
41	0x800012f0	-6.793e-42
42	0x800004c7	-1.714e-42
43	0x00000ec7	5.301e-42
44	0x80001771	-8.409e-42
45	0x29e5df8a	1.0208421e-13
46	0x1bb38344	2.9697894e-22
47	0x239f60a8	1.727975e-17
48	0x2a9ecfc7	2.8210613e-13
49	0x2516641d	1.3044346e-16
50	0x9a2cd697	-3.574211e-23
51	0x256501de	1.9863216e-16
52	0x1a3195dd	3.67238e-23
53	0x14560bb6	1.08065485e-26
54	0x00000590	1.995e-42
55	0x800006e6	-2.475e-42
56	0x0000087c	3.044e-42
57	0x800004a4	-1.665e-42
58	0x0000007e	1.77e-43
59	0x8000070b	-2.527e-42
60	0x800001a4	-5.89e-43
61	0x800002fd	-1.072e-42
62	0x80000902	-3.231e-42
63	0x2fbed48a	3.4711817e-10
64	0x2f02d8e0	1.190048e-10
65	0x2d9f7728	1.8129123e-11
66	0xa3bc1bd2	-2.0394783e-17
67	0x271a78fb	2.1437377e-15
68	0x27beaabc	5.2920704e-15
69	0xaa80c826	-2.2876248e-13
70	0x2834839f	1.0020548e-14
71	0x29465fd5	4.4047953e-14
72	0x80000263	-8.56e-43
73	0x000000d8	3.03e-43
74	0x00000508	1.805e-42
75	0x8000054a	-1.897e-42
76	0x80000010	-2.2e-44
77	0x8000047b	-1.607e-42
78	0x00000343	1.17e-42
79	0x00000338	1.155e-42
80	0x00000617	2.185e-42
81	0x80000695	-2.361e-42
82	0x00000249	8.2e-43
83	0x0000061b	2.19e-42
84	0x8000025f	-8.5e-43
85	0x800002f3	-1.058e-42
86	0x921524a1	-4.706126e-28
87	0x00000299	9.32e-43
88	0x8b5d6895	-4.264173e-32
89	0x1b3116b2	1.464843e-22
90	0x9b3fc1c5	-1.586176e-22
91	0x1f7d112a	5.3589032e-20
92	0x180cc749	1.819519e-24
93	0x9b57ba68	-1.7844614e-22
94	0x1733d584	5.8107514e-25
95	0x1b73ebf0	2.0176724e-22
96	0xa11e0bf5	-5.3548307e-19
97	0xa108ad2d	-4.630779e-19
98	0xa143ed8c	-6.638296e-19
99	0xab8a7815	-9.838819e-13
100	0xada9b35f	-1.9292732e-11
101	0xa5e2632e	-3.9271957e-16
102	0xa8cdde4a	-2.2855975e-14
103	0xa9ef3216	-1.06224206e-13
104	0x013c94c2	3.4636875e-38
105	0xaa263720	-1.4762887e-13
106	0xa958b870	-4.812161e-14
107	0x8b39c0fc	-3.577489e-32
108	0x92060d2a	-4.229917e-28
109	0x97d9cf80	-1.4075677e-24
110	0x91b671f2	-2.878476e-28
111	0xa34a146c	-1.09547664e-17
112	0x9b3a5ee4	-1.541622e-22
113	0x000003b6	1.331e-42
114	0x00000437	1.512e-42
115	0x8000007b	-1.72e-43
116	0x0000025c	8.46e-43
117	0x800010b2	-5.989e-42
118	0x00000d6e	4.818e-42
119	0x00000233	7.89e-43
120	0x00001352	6.931e-42
121	0x000007ef	2.846e-42
122	0x80000d5b	-4.791e-42
123	0x00001a00	9.327e-42
124	0x00000586	1.981e-42
125	0x80000967	-3.373e-42
126	0x00000076	1.65e-43
127	0x00000073	1.61e-43
128	0x80001a95	-9.536e-42
129	0x80001976	-9.134e-42
130	0x8000141f	-7.218e-42
131	0x80000036	-7.6e-44
132	0x0000068c	2.349e-42
133	0x000000b8	2.58e-43
134	0x800018eb	-8.939e-42
135	0xa0ace41c	-2.9288884e-19
136	0x9c1030ad	-4.7708515e-22
137	0x9afd7761	-1.04831215e-22
138	0xa637d602	-6.3780914e-16
139	0xa39b2473	-1.682057e-17
140	0xa49921c6	-6.641039e-17
141	0x960e97c6	-1.151856e-25
142	0x9ba9d8b8	-2.8098756e-22
143	0x9e35416c	-9.595589e-21
144	0x0000044b	1.54e-42
145	0x0000010a	3.73e-43
146	0x000000b8	2.58e-43
147	0x80000301	-1.078e-42
148	0x000006a7	2.386e-42
149	0x0000011e	4.01e-43
150	0x00000408	1.446e-42
151	0x0000078d	2.709e-42
152	0x8000027b	-8.9e-43
153	0xa0892c2a	-2.3237928e-19
154	0x9489a882	-1.389993e-26
155	0x9701b13b	-4.1905844e-25
156	0x98a7173a	-4.319194e-24
157	0x95bb1f24	-7.557783e-26
158	0x114ecd2a	1.6313756e-28
159	0xa5a82070	-2.9165335e-16
160	0x9d9eada4	-4.200179e-21
161	0x8c5832e1	-1.6655346e-31
162	0xa9a8648b	-7.47814e-14
163	0x13f5bb28	6.2031245e-27
164	0x21fbd964	1.7065964e-18
165	0xa80e10e4	-7.886246e-15
166	0x992881c6	-8.711604e-24
167	0x2b3d04fc	6.7153206e-13
168	0x9ca02155	-1.0596528e-21
169	0x25774cda	2.1449873e-16
170	0x2f2f6275	1.5951136e-10
171	0x907aa91c	-4.9434084e-29
172	0x9f5e5af5	-4.7085566e-20
173	0x23cd587d	2.226362e-17
174	0x1aadfdc3	7.19611e-23
175	0x1b86ff91	2.2333596e-22
176	0x18126b23	1.8924148e-24
177	0x80018f6a	-1.43283e-40
178	0x099dad3c	3.7959284e-33
179	0x168f6226	2.3164836e-25
180	0x80000aec	-3.918e-42
181	0x800003c1	-1.347e-42
182	0x800007f4	-2.853e-42
183	0x800002e6	-1.04e-42
184	0x800001fd	-7.13e-43
185	0x00000624	2.203e-42
186	0x00000876	3.035e-42
187	0x00000199	5.73e-43
188	0x80000391	-1.28e-42
189	0x80001768	-8.397e-42
190	0x00001a4f	9.438e-42
191	0x80001abb	-9.589e-42
192	0x00000d0d	4.682e-42
193	0x000005d2	2.088e-42
194	0x800000be	-2.66e-43
195	0x80001a79	-9.497e-42
196	0x80001361	-6.952e-42
197	0x00000aed	3.92e-42
198	0x8590d1db	-1.3618784e-35
199	0x9ea488a0	-1.7420682e-20
200	0x93844dcf	-3.339821e-27
201	0x97a584f6	-1.0696439e-24
202	0xa221b3f4	-2.1914835e-18
203	0x9c3a5e2b	-6.1663947e-22
204	0x991c9ddd	-8.096891e-24
205	0xa0a18471	-2.7362103e-19
206	0x9cf5534a	-1.623427e-21
207	0x000003f5	1.42e-42
208	0x9255806a	-6.736923e-28
209	0xa329133a	-9.16558e-18
210	0x8b9212f7	-5.626569e-32
211	0x99b0ae14	-1.8268283e-23
212	0xa4ba8371	-8.088731e-17
213	0x8b3270b5	-3.4366344e-32
214	0x99263e63	-8.594598e-24
215	0xa334e16e	-9.805556e-18
216	0x80001597	-7.745e-42
217	0x80000017	-3.2e-44
218	0x00001786	8.439e-42
219	0x800007c8	-2.791e-42
220	0x0000153d	7.619e-42
221	0x80000e5c	-5.151e-42
222	0x00000f33	5.452e-42
223	0x000005f3	2.134e-42
224	0x80000883	-3.053e-42
225	0x80001a16	-9.358e-42
226	0x00001ab7	9.583e-42
227	0x00001986	9.156e-42
228	0x000019e8	9.293e-42
229	0x8000089a	-3.086e-42
230	0x80001a92	-9.532e-42
231	0x80001a83	-9.51e-42
232	0x80001850	-8.722e-42
233	0x00001961	9.104e-42
234	0x90b11ced	-6.985876e-29
235	0x92716576	-7.617125e-28
236	0x92fa07c5	-1.5779133e-27
237	0x92c87158	-1.2649716e-27
238	0x96f45abf	-3.9477595e-25
239	0x962cd86c	-1.396234e-25
240	0x1e14a3e8	7.86895e-21
241	0x157df4b6	5.1285986e-26
242	0x18e5a9aa	5.936643e-24
243	0x800003f7	-1.422e-42
244	0xa4031ccd	-2.8430492e-17
245	0xa7962480	-4.1672937e-15
246	0x8000063a	-2.234e-42
247	0xa86c9fb5	-1.3135263e-14
248	0xaa64cc3e	-2.0321329e-13
249	0x0000056c	1.945e-42
250	0xa4b992b2	-8.047947e-17
251	0xaa2f615f	-1.5576905e-13
252	0x9fbc2717	-7.9685766e-20
253	0xaf2d1b40	-1.574394e-10
254	0xaa7af66e	-2.2289958e-13
255	0x968bbf32	-2.2577322e-25

86 f4 [32]
0	0xb912554a	-0.00013955418
1	0xaf83783b	-2.391419e-10
2	0xb7dfa36c	-2.665977e-05
3	0x3e8ac5f7	0.2710416
4	0xbcfa6c37	-0.030569179
5	0x3b5c898a	0.0033651316
6	0x3dce3577	0.10068791
7	0x3eb68b06	0.3565294
8	0xa75abe61	-3.0356782e-15
9	0xbe15cdab	-0.14629237
10	0xa0ee6d3d	-4.0391056e-19
11	0x3dc07988	0.0939818
12	0xbb1e8325	-0.0024187055
13	0x3e26c28a	0.16285148
14	0x90ea1c09	-9.233992e-29
15	0x3e85b769	0.26116493
16	0x3e983aa0	0.29732227
17	0x3e4bc28d	0.19898434
18	0x949d28ea	-1.5869087e-26
19	0x3ecbfe91	0.39842656
20	0x3de1d941	0.11027766
21	0xbc3090b0	-0.010776684
22	0xbd476326	-0.04867854
23	0xbdd57f38	-0.10424656
24	0x3c27ba78	0.010237329
25	0x3e0dda47	0.13852797
26	0x8005407b	-4.82309e-40
27	0x93008636	-1.6222042e-27
28	0x3e9d1f55	0.30687967
29	0x3b179f8e	0.0023135873
30	0x9c103a65	-4.7721076e-22
31	0xbc8cff0a	-0.017211456

88 f4 [32, 16, 1, 1]
0	0x2fee3d3b	4.3335455e-10
1	0x2f973df1	2.7510752e-10
2	0x000008b8	3.128e-42
3	0x2fea08bb	4.2570555e-10
4	0xb1d8df61	-6.3118226e-09
5	0x2e3d2bcc	4.3012524e-11
6	0xb3939a23	-6.873258e-08
7	0x30e9300f	1.696664e-09
8	0x33e200f8	1.0524121e-07
9	0x3042d79e	7.08832e-10
10	0x32918159	1.6939042e-08
11	0x2c01fe21	1.8473072e-12
12	0x3145c819	2.8781015e-09
13	0x800003e4	-1.396e-42
14	0x2ea5c563	7.538394e-11
15	0xb36271ad	-5.2723113e-08
16	0x00000000	0.0
17	0x00000000	0.0
18	0x00000000	0.0
19	0x9cc0bdff	-1.2754607e-21
20	0x00000000	0.0
21	0x80000000	-0.0
22	0x80000000	-0.0
23	0x80000000	-0.0
24	0x943c423e	-9.504638e-27
25	0x80000000	-0.0
26	0x0000005a	1.26e-43
27	0x80000000	-0.0
28	0x9c68ac0a	-7.6984716e-22
29	0x80000000	-0.0
30	0x80000000	-0.0
31	0x9404080d	-6.665885e-27
32	0x0904c2de	1.5980548e-33
33	0x8000000d	-1.8e-44
34	0x000001d1	6.52e-43
35	0x9a986bb4	-6.303973e-23
36	0x93ac1383	-4.3438144e-27
37	0x0008bf58	8.03325e-40
38	0xa342fdaf	-1.0570481e-17
39	0x22fcca7d	6.851913e-18
40	0xab8137ba	-9.181469e-13
41	0x834c1c6f	-5.998285e-37
42	0x1b78958d	2.0562402e-22
43	0x0000006b	1.5e-43
44	0x2416e0eb	3.2716578e-17
45	0x80000180	-5.38e-43
46	0x801759b8	-2.144401e-39
47	0x858bff27	-1.3165225e-35
48	0xba307f02	-0.0006732793
49	0xbab591a8	-0.0013852613
50	0x000002b0	9.64e-43
51	0xba803aef	-0.0009783189
52	0x39fd623c	0.0004832911
53	0xbab035f1	-0.001344381
54	0xbab609d4	-0.0013888427
55	0xbac7e422	-0.0015250484
56	0xbb5c7df7	-0.0033644417
57	0xba5f0b62	-0.0008508471
58	0xbb3b93ac	-0.0028621955
59	0xba67d241	-0.0008843281
60	0xba128918	-0.00055898866
61	0x800007ff	-2.868e-42
62	0xb84c5724	-4.8718546e-05
63	0x3a79a103	0.0009522589
64	0xbaa87bb3	-0.0012854248
65	0xbb1934a5	-0.0023377326
66	0x00000adb	3.894e-42
67	0xbaa8b234	-0.0012870491
68	0x398616a8	0.00025575352
69	0xba040255	-0.0005035748
70	0x3a36205e	0.0006947572
71	0x3a6c455c	0.0009013021
72	0x399179aa	0.00027747202
73	0xba339d6b	-0.0006851765
74	0xbaeb1230	-0.0017934497
75	0xba90f0ea	-0.0011058126
76	0xb9a7ce51	-0.0003200644
77	0x000000a4	2.3e-43
78	0xbaca18a3	-0.0015418719
79	0xbad33713	-0.0016114436
80	0x399f50ff	0.0003038719
81	0x3a8fa778	0.0010959944
82	0x00001504	7.539e-42
83	0x3a70cac0	0.00091854855
84	0x375ab183	1.3035143e-05
85	0x3ad5dd33	0.0016316533
86	0x3a8b8511	0.0010644515
87	0x3af4416b	0.0018635219
88	0xba0458db	-0.0005048641
89	0x3b07afa5	0.0020704058
90	0x3ac5c0e1	0.001508739
91	0x39724d32	0.00023107676
92	0x3a65a21e	0.0008759814
93	0x800013d8	-7.119e-42
94	0xbacd55e0	-0.0015665852
95	0x3911671b	0.00013866687
96	0x3e064bcd	0.13114853
97	0x3e580511	0.21095683
98	0x00006729	3.7007e-41
99	0x3e241f8e	0.16027662
100	0xbbe45523	-0.006968157
101	0x3e86009e	0.26172346
102	0x3dfe8127	0.124269776
103	0xbe98ec67	-0.2986786
104	0x3ccb8ae6	0.024846505
105	0x3dad1d43	0.08452847
106	0x3daf8e87	0.08572107
107	0x3e61edbe	0.22063348
108	0x3defee0b	0.11715325
109	0x19c588ee	2.0424628e-23
110	0xbc0dd23e	-0.008656083
111	0x3c9cd16b	0.019142827
112	0xbb08ff88	-0.0020904262
113	0xbc2fa4cd	-0.010720444
114	0x00002f89	1.7052e-41
115	0xbcbc2f1a	-0.022971679
116	0xbc04f4fc	-0.008115049
117	0xbcef109f	-0.02918273
118	0xbc941d58	-0.018080398
119	0xbd00eac6	-0.031473897
120	0xbbbf2f51	-0.005834498
121	0xbcda7a42	-0.026669625
122	0xbd9ee31f	-0.07758164
123	0x3ce0f2f1	0.027459593
124	0x3c82eef6	0.015983086
125	0x00002f36	1.6936e-41
126	0x3d09849a	0.033573724
127	0xbd8cc46a	-0.068734005
128	0x80000000	-0.0
129	0x80000000	-0.0
130	0x80000000	-0.0
131	0x00000000	0.0
132	0x00000000	0.0
133	0x80000000	-0.0
134	0x80000000	-0.0
135	0x00000000	0.0
136	0x00000000	0.0
137	0x80000000	-0.0
138	0x80000000	-0.0
139	0x80000000	-0.0
140	0x00000000	0.0
141	0x80000000	-0.0
142	0x80000000	-0.0
143	0x80000000	-0.0
144	0x3df6453b	0.120249234
145	0xbd059773	-0.032615136
146	0x80000628	-2.208e-42
147	0x3e44cab4	0.1921795
148	0x3c9373d9	0.017999576
149	0x3c65e08d	0.014030588
150	0x3c6f5842	0.014608445
151	0x3db04f67	0.08608895
152	0xbc4be099	-0.012443685
153	0x3da4c108	0.0804463
154	0x3e211026	0.15728816
155	0xbd1cc959	-0.038277958
156	0xbdfdbb19	-0.12389202
157	0x80005513	-3.0519e-41
158	0xbcddbdc5	-0.027068028
159	0xbe20ac66	-0.15690765
160	0x80000000	-0.0
161	0x00000000	0.0
162	0x80000000	-0.0
163	0x00000000	0.0
164	0x00000000	0.0
165	0x80000000	-0.0
166	0x00000000	0.0
167	0x80000000	-0.0
168	0x00000000	0.0
169	0x80000000	-0.0
170	0x80000000	-0.0
171	0x80000000	-0.0
172	0x00000000	0.0
173	0x80000000	-0.0
174	0x00000000	0.0
175	0x80000000	-0.0
176	0xbc9e08cc	-0.019291304
177	0xbc0a73af	-0.008450433
178	0x0000169e	8.114e-42
179	0x3da3fc83	0.08007147
180	0x3c81981d	0.015819604
181	0x3c5d02fe	0.013489483
182	0x3d031b6d	0.032008577
183	0xbd257ac0	-0.040400267
184	0x3d042e66	0.03227081
185	0xbccf0e5c	-0.025275402
186	0x3cad8a1b	0.021184018
187	0x3d239561	0.03993738
188	0x3cb19ed2	0.021682177
189	0x000027c4	1.4265e-41
190	0xbd02227e	-0.031771176
191	0x3c1589bb	0.009127076
192	0xb73198f5	-1.0585635e-05
193	0x371bdf40	9.290699e-06
194	0x00000364	1.216e-42
195	0x37e80457	2.7658576e-05
196	0xb5cd5c63	-1.5300578e-06
197	0x38e9de20	0.0001115168
198	0xb96f7903	-0.00022837897
199	0x3836e6ac	4.360701e-05
200	0x372d63ea	1.0334867e-05
201	0x380afdb4	3.3138043e-05
202	0xb7c07607	-2.2943144e-05
203	0x380d0241	3.361912e-05
204	0x35188542	5.681833e-07
205	0x80007952	-4.3522e-41
206	0xb6685fe5	-3.4626512e-06
207	0xb844914c	-4.686536e-05
208	0x3cfdf23d	0.030999297
209	0x3ccbd139	0.024880039
210	0x00000f72	5.541e-42
211	0x3b4edced	0.0031564787
212	0xbcb31455	-0.021860281
213	0x3d114657	0.035467472
214	0xbdaeecca	-0.08541258
215	0xbd78898b	-0.060678046
216	0x3c44a16c	0.012001377
217	0xbdb1cef5	-0.08682052
218	0xbd4d3619	-0.05010042
219	0x3c8bbfec	0.017059289
220	0x3ca7cf0e	0.020484474
221	0x80002376	-1.2721e-41
222	0x3cade639	0.021227943
223	0xbdab5f98	-0.083678424
224	0x80000000	-0.0
225	0x00000000	0.0
226	0x00000000	0.0
227	0x80000000	-0.0
228	0x80000000	-0.0
229	0x80000000	-0.0
230	0x80000000	-0.0
231	0x00000000	0.0
232	0x80000000	-0.0
233	0x00000000	0.0
234	0x80000000	-0.0
235	0x80000000	-0.0
236	0x00000000	0.0
237	0x00000000	0.0
238	0x80000000	-0.0
239	0x80000000	-0.0
240	0x3e6428f9	0.22281255
241	0xb95148cc	-0.00019958912
242	0x8000db03	-7.8567e-41
243	0x3e1ef111	0.15521647
244	0xbbc1888b	-0.00590617
245	0xbc071579	-0.008244866
246	0x3e0941f6	0.13404068
247	0x3c95afd0	0.01827231
248	0xbdf68f64	-0.12039068
249	0x3d5c2d81	0.053754333
250	0xbbbdf5f0	-0.0057971403
251	0xbe5565d5	-0.20839627
252	0xbd0b355d	-0.033986438
253	0x8000201b	-1.1517e-41
254	0xba00a86d	-0.000490791
255	0x3c5cd4ed	0.0134785

89 f4 [32]
0	0xb91257b2	-0.00013956314
1	0xaf83783b	-2.391419e-10
2	0xb7dfa36c	-2.665977e-05
3	0xbd1d669f	-0.038427945
4	0xbc03be80	-0.008041024
5	0x39fdcca0	0.00048408378
6	0xbee9aa19	-0.45637587
7	0x3d66f8fe	0.0563898
8	0xa75abe61	-3.0356782e-15
9	0xbe260e66	-0.1621643
10	0xa0ee6d3d	-4.0391056e-19
11	0xbdb3f866	-0.087876126
12	0xbb1d4cbd	-0.0024002038
13	0x3ba77780	0.005110681
14	0x90ea1c09	-9.233992e-29
15	0xbe579376	-0.21052346
16	0x3ddc0a9e	0.107442126
17	0xbf312c1e	-0.6920794
18	0x949d28ea	-1.5869087e-26
19	0xbda30723	-0.079603456
20	0x3e06f939	0.13181008
21	0xbeade3fa	-0.33962995
22	0xbe30aa60	-0.17252493
23	0xbde98caf	-0.114037864
24	0xbdd8afe5	-0.10580424
25	0xbe42897f	-0.18997763
26	0x8005407b	-4.82309e-40
27	0x93008636	-1.6222042e-27
28	0x3d443fb5	0.04791232
29	0x3b1b8fa8	0.002373675
30	0x9c103a65	-4.7721076e-22
31	0xbc4bfd9e	-0.012450604

91 f4 [64, 32, 3, 3]
0	0x00000000	0.0
1	0x00000000	0.0
2	0x80000000	-0.0
3	0x00000000	0.0
4	0x80000000	-0.0
5	0x00000000	0.0
6	0x00000000	0.0
7	0x00000000	0.0
8	0x00000000	0.0
9	0x80000000	-0.0
10	0x00000000	0.0
11	0x00000000	0.0
12	0x80000000	-0.0
13	0x00000000	0.0
14	0x00000000	0.0
15	0x00000000	0.0
16	0x00000000	0.0
17	0x00000000	0.0
18	0x00000000	0.0
19	0x00000000	0.0
20	0x80000000	-0.0
21	0x00000000	0.0
22	0x00000000	0.0
23	0x00000000	0.0
24	0x80000000	-0.0
25	0x80000000	-0.0
26	0x00000000	0.0
27	0x00000000	0.0
28	0x00000000	0.0
29	0x80000000	-0.0
30	0x80000000	-0.0
31	0x00000000	0.0
32	0x00000000	0.0
33	0x80000000	-0.0
34	0x80000000	-0.0
35	0x80000000	-0.0
36	0x00000000	0.0
37	0x00000000	0.0
38	0x00000000	0.0
39	0x00000000	0.0
40	0x00000000	0.0
41	0x00000000	0.0
42	0x00000000	0.0
43	0x80000000	-0.0
44	0x80000000	-0.0
45	0x00000000	0.0
46	0x80000000	-0.0
47	0x80000000	-0.0
48	0x80000000	-0.0
49	0x80000000	-0.0
50	0x80000000	-0.0
51	0x80000000	-0.0
52	0x80000000	-0.0
53	0x80000000	-0.0
54	0x80000000	-0.0
55	0x80000000	-0.0
56	0x00000000	0.0
57	0x00000000	0.0
58	0x80000000	-0.0
59	0x00000000	0.0
60	0x80000000	-0.0
61	0x80000000	-0.0
62	0x80000000	-0.0
63	0x00000000	0.0
64	0x00000000	0.0
65	0x80000000	-0.0
66	0x80000000	-0.0
67	0x00000000	0.0
68	0x00000000	0.0
69	0x00000000	0.0
70	0x80000000	-0.0
71	0x00000000	0.0
72	0x80000000	-0.0
73	0x00000000	0.0
74	0x80000000	-0.0
75	0x80000000	-0.0
76	0x00000000	0.0
77	0x00000000	0.0
78	0x80000000	-0.0
79	0x00000000	0.0
80	0x00000000	0.0
81	0x80000000	-0.0
82	0x00000000	0.0
83	0x00000000	0.0
84	0x00000000	0.0
85	0x80000000	-0.0
86	0x80000000	-0.0
87	0x80000000	-0.0
88	0x80000000	-0.0
89	0x00000000	0.0
90	0x00000000	0.0
91	0x80000000	-0.0
92	0x80000000	-0.0
93	0x00000000	0.0
94	0x80000000	-0.0
95	0x00000000	0.0
96	0x80000000	-0.0
97	0x80000000	-0.0
98	0x80000000	-0.0
99	0x80000000	-0.0
100	0x00000000	0.0
101	0x00000000	0.0
102	0x80000000	-0.0
103	0x80000000	-0.0
104	0x80000000	-0.0
105	0x80000000	-0.0
106	0x80000000	-0.0
107	0x80000000	-0.0
108	0x00000000	0.0
109	0x00000000	0.0
110	0x80000000	-0.0
111	0x00000000	0.0
112	0x80000000	-0.0
113	0x00000000	0.0
114	0x00000000	0.0
115	0x80000000	-0.0
116	0x00000000	0.0
117	0x80000000	-0.0
118	0x80000000	-0.0
119	0x80000000	-0.0
120	0x80000000	-0.0
121	0x00000000	0.0
122	0x80000000	-0.0
123	0x00000000	0.0
124	0x80000000	-0.0
125	0x80000000	-0.0
126	0x00000000	0.0
127	0x80000000	-0.0
128	0x80000000	-0.0
129	0x00000000	0.0
130	0x80000000	-0.0
131	0x80000000	-0.0
132	0x80000000	-0.0
133	0x80000000	-0.0
134	0x80000000	-0.0
135	0x80000000	-0.0
136	0x80000000	-0.0
137	0x80000000	-0.0
138	0x80000000	-0.0
139	0x80000000	-0.0
140	0x80000000	-0.0
141	0x00000000	0.0
142	0x80000000	-0.0
143	0x80000000	-0.0
144	0x80000000	-0.0
145	0x80000000	-0.0
146	0x80000000	-0.0
147	0x00000000	0.0
148	0x80000000	-0.0
149	0x00000000	0.0
150	0x80000000	-0.0
151	0x80000000	-0.0
152	0x80000000	-0.0
153	0x00000000	0.0
154	0x80000000	-0.0
155	0x00000000	0.0
156	0x00000000	0.0
157	0x00000000	0.0
158	0x80000000	-0.0
159	0x00000000	0.0
160	0x80000000	-0.0
161	0x80000000	-0.0
162	0x80000000	-0.0
163	0x80000000	-0.0
164	0x80000000	-0.0
165	0x00000000	0.0
166	0x80000000	-0.0
167	0x00000000	0.0
168	0x00000000	0.0
169	0x80000000	-0.0
170	0x80000000	-0.0
171	0x00000000	0.0
172	0x00000000	0.0
173	0x80000000	-0.0
174	0x80000000	-0.0
175	0x80000000	-0.0
176	0x00000000	0.0
177	0x80000000	-0.0
178	0x00000000	0.0
179	0x80000000	-0.0
180	0x80000000	-0.0
181	0x00000000	0.0
182	0x00000000	0.0
183	0x80000000	-0.0
184	0x00000000	0.0
185	0x00000000	0.0
186	0x80000000	-0.0
187	0x00000000	0.0
188	0x00000000	0.0
189	0x80000000	-0.0
190	0x00000000	0.0
191	0x00000000	0.0
192	0x80000000	-0.0
193	0x00000000	0.0
194	0x80000000	-0.0
195	0x80000000	-0.0
196	0x00000000	0.0
197	0x00000000	0.0
198	0x00000000	0.0
199	0x80000000	-0.0
200	0x00000000	0.0
201	0x00000000	0.0
202	0x80000000	-0.0
203	0x00000000	0.0
204	0x80000000	-0.0
205	0x00000000	0.0
206	0x80000000	-0.0
207	0x00000000	0.0
208	0x80000000	-0.0
209	0x00000000	0.0
210	0x80000000	-0.0
211	0x80000000	-0.0
212	0x80000000	-0.0
213	0x00000000	0.0
214	0x80000000	-0.0
215	0x00000000	0.0
216	0x80000000	-0.0
217	0x00000000	0.0
218	0x80000000	-0.0
219	0x00000000	0.0
220	0x00000000	0.0
221	0x00000000	0.0
222	0x00000000	0.0
223	0x80000000	-0.0
224	0x00000000	0.0
225	0x00000000	0.0
226	0x80000000	-0.0
227	0x80000000	-0.0
228	0x00000000	0.0
229	0x00000000	0.0
230	0x80000000	-0.0
231	0x00000000	0.0
232	0x00000000	0.0
233	0x80000000	-0.0
234	0x80000000	-0.0
235	0x80000000	-0.0
236	0x00000000	0.0
237	0x00000000	0.0
238	0x80000000	-0.0
239	0x80000000	-0.0
240	0x00000000	0.0
241	0x00000000	0.0
242	0x00000000	0.0
243	0x00000000	0.0
244	0x00000000	0.0
245	0x80000000	-0.0
246	0x80000000	-0.0
247	0x80000000	-0.0
248	0x00000000	0.0
249	0x80000000	-0.0
250	0x80000000	-0.0
251	0x80000000	-0.0
252	0x80000000	-0.0
253	0x00000000	0.0
254	0x00000000	0.0
255	0x80000000	-0.0

92 f4 [64]
0	0x91fdb77c	-4.0029443e-28
1	0xb9083961	-0.00012991346
2	0x8bdc43a3	-8.4842686e-32
3	0x3a8754b3	0.0010324925
4	0x3c34cabe	0.011034666
5	0x930d1106	-1.7805095e-27
6	0x8e97a0ad	-3.73791e-30
7	0xbd789fad	-0.060699154
8	0xba07e759	-0.0005184315
9	0x3b00db06	0.0019661798
10	0x3b383b18	0.0028111394
11	0xae946626	-6.748406e-11
12	0xb7e72033	-2.755234e-05
13	0xb900f851	-0.00012299536
14	0xb3cb6c9e	-9.4726815e-08
15	0xb91ea141	-0.00015128126
16	0x950d1f76	-2.849954e-26
17	0xba60c061	-0.00085735886
18	0xba5c9d0a	-0.00084157346
19	0xb18f0537	-4.1624406e-09
20	0xb938f26b	-0.00017637915
21	0x3e5d6df3	0.21623974
22	0xba49140b	-0.0007670528
23	0xbe16ed5b	-0.14738981
24	0xbd3d39ee	-0.046197824
25	0x3c288f50	0.010288075
26	0x3b93c352	0.004509368
27	0xa40c7ee8	-3.0465155e-17
28	0xbeac906c	-0.33703935
29	0xbca309ec	-0.019902192
30	0x3c4a5ab0	0.012350723
31	0x9daf7f5b	-4.6453797e-21
32	0x39387850	0.00017592427
33	0xbd1a308a	-0.037643947
34	0xba00ca9f	-0.00049130054
35	0x3d7ae644	0.061254755
36	0x8b7373e0	-4.6887272e-32
37	0x3a58bd44	0.0008267949
38	0x3d88d250	0.06680739
39	0xb9d6e9ad	-0.00040991363
40	0x3c0a2e11	0.008433835
41	0x3ab55728	0.0013835179
42	0xba6615a7	-0.000877703
43	0xbabbe9bc	-0.0014336626
44	0x3a7e1cf9	0.00096936483
45	0xb97ff4c5	-0.00024409879
46	0xbbb864ef	-0.0056272666
47	0xb7f6d475	-2.9424418e-05
48	0x3c8d7930	0.0172697
49	0xb7169ddc	-8.977451e-06
50	0xbe1baea3	-0.15203337
51	0x000001a0	5.83e-43
52	0xb813a175	-3.51979e-05
53	0x3a3de75b	0.00072442525
54	0xb9972a18	-0.00028832327
55	0x3b833f66	0.0040053604
56	0xb96a058c	-0.00022318045
57	0xb5e8507a	-1.7308769e-06
58	0x3b7be1a1	0.0038434046
59	0xad24d739	-9.37011e-12
60	0x3a7bf896	0.00096119323
61	0x8a757f75	-1.1820293e-32
62	0xb9c17d01	-0.00036904964
63	0xba26f7f6	-0.00063693465
