cmd/ai/datas/models/microwave.onnx (onnx, 303077 bytes, 16 tensors)

fc.weight f4 [2, 256]
-0.038492575 -0.031002536 -0.05690061 -0.053289328 -0.18319578 -0.16768725 -0.12995192 -0.10973008
0.00038541545 0.00038416346 0.00038506475 0.00038329238 -5.1957574e-08 -2.1322197e-07 -2.2938009e-07 -8.0028707e-07
0.15908319 0.17088927 0.10689073 0.13491601 0.05024522 0.09697721 0.088548236 0.106757835
1.8197822e-11 1.8882208e-11 2.9388138e-11 3.0900678e-11 2.42e-43 -1.0557e-41 -1.1608e-41 6.278e-42
0.11735951 0.10922209 0.12994969 0.13212948 -1.2430856e-15 -6.0171204e-16 2.8578705e-24 4.9200422e-24
1.954382e-17 1.9528341e-17 1.9540418e-17 1.9524545e-17 7.0330795e-09 7.8463716e-09 6.725455e-09 7.4414688e-09
0.041748036 0.052260976 0.1732442 0.15262018 0.13111103 0.14802498 0.11668422 0.142864
0.11830677 0.11970812 0.06961681 0.08776042 5.495936e-05 5.5493776e-05 5.4430653e-05 5.4832482e-05
2.490093e-12 2.3676193e-12 3.2710091e-12 3.2236308e-12 7.19e-42 3.856e-42 9.113e-42 6.852e-42
2.75e-43 4.51e-43 3.705e-42 1.442e-42 -0.09686595 -0.10086563 -0.07828771 -0.05811025
-2.91916e-40 -1.97521e-40 -5.5554e-41 5.38e-42 -0.019535167 -0.022723451 -0.022755964 -0.0345944
-0.0589411 -0.13991077 -0.08873082 -0.15757285 -0.17938524 -0.19004662 -0.16019398 -0.19204858
8.874455e-21 8.635e-21 8.702407e-21 8.498583e-21 1.4414868e-17 1.3997213e-17 1.491915e-17 1.461264e-17
0.002288302 0.002288346 0.0022886696 0.0022887383 -6.814777e-36 -6.891443e-36 -1.1619455e-35 -1.17057534e-35
6.599e-42 1.5801e-41 1.9538e-41 2.0165e-41 -0.1703158 -0.1889478 -0.12626143 -0.15875362
0.09051117 0.08886976 0.15137 0.13543881 7.4402465e-24 6.509625e-24 8.256874e-24 7.320788e-24
1.2331386e-31 1.3823582e-31 1.1904071e-31 1.3341305e-31 0.06219413 0.11988525 0.15160961 0.1752324
-1.7754379e-36 -1.775981e-36 -1.7782866e-36 -1.7794903e-36 0.15708148 0.17350373 0.0838799 0.15372635
-3.477875e-18 -3.4911828e-18 -3.4549469e-18 -3.472428e-18 7.537261e-05 7.470229e-05 7.5003045e-05 7.443978e-05
1.0988108e-12 1.1001255e-12 1.081594e-12 1.0809015e-12 0.12518598 0.14889044 0.121972464 0.12462576
0.11690392 0.1415862 0.17073256 0.17599314 0.13466029 0.1275037 0.12370832 0.092373654
-0.18105596 -0.19427423 -0.13698156 -0.17141451 -1.2903e-41 -1.2792e-41 -1.2884e-41 -1.286e-41
0.10562207 0.083842576 0.1732491 0.19006197 8.879145e-37 9.2522155e-37 8.877656e-37 9.233293e-37
-0.13019188 -0.1205328 -0.16549958 -0.16813752 9.3969684e-35 7.490214e-35 -1.9850502e-34 -2.3869705e-34
1.89e-42 2.549e-42 7.74e-43 4.26e-43 1.3577e-41 8.108e-42 -2.469e-42 -2.714e-42
0.041317277 0.037535463 0.17771566 0.1925375 -3.764e-42 -3.93e-42 -3.842e-42 -3.81e-42
-0.09860455 -0.1416947 -0.14313754 -0.1470947 0.014443749 0.011674528 0.10399358 0.14608987
-0.09174697 -0.14635602 -0.123131454 -0.14017555 5.5645483e-08 5.6375423e-08 4.948337e-08 4.991679e-08
1.0184885e-12 2.1072277e-13 7.690847e-13 2.5057224e-13 -0.117985986 -0.07098066 -0.11058259 -0.08569444
-0.0052475166 -0.0034649253 0.009218398 0.008080675 -1.0117142e-24 -3.978967e-25 2.0897253e-25 8.347607e-25
0.04690126 0.06125788 0.07140426 0.08120436 0.15476789 0.14258142 0.14181072 0.11572236
-0.0979785 -0.13557805 -0.081644 -0.113983676 -0.090860374 -0.15379076 -0.14971712 -0.20532797
00000000: 64aa 1dbd 08f9 fdbc 9d10 69bd e945 5abd
00000010: ad97 3bbe 35b6 2bbe 1e12 05be 2aba e0bd
00000020: 9611 ca39 8c69 c939 84e2 c939 a2f4 c839
00000030: f527 5fb3 02f2 64b4 854b 76b4 4fd3 56b5
00000040: b4e6 223e 99fd 2e3e 87e9 da3d 6c27 0a3e
00000050: efcd 4d3d fd9b c63d c758 b53d daa3 da3d
00000060: da11 a02d f416 a62d 1a40 012e 12e7 072e
00000070: ad00 0000 6e1d 0080 5c20 0080 8011 0000
00000080: 2f5a f03d d5af df3d 8811 053e f34c 073e
00000090: c425 b3a6 836e 2da6 f51d 5d18 bd55 be18
000000a0: 8a42 b423 fe1d b423 823a b423 0715 b423
000000b0: 9fa7 f131 b5cc 0632 ba15 e731 daaf ff31
000000c0: fdff 2a3d 9b0f 563d ed66 313e 7748 1c3e
000000d0: f841 063e dc93 173e 23f8 ee3d f14a 123e
000000e0: d24a f23d 8829 f53d 4293 8e3d bcbb b33d
000000f0: 2a84 6638 fdc1 6838 784c 6438 eefb 6538
00000100: 8739 2f2c 3d9b 262c 432d 662c c5d7 622c
00000110: 0b14 0000 c00a 0000 6719 0000 1a13 0000
00000120: c400 0000 4201 0000 540a 0000 0504 0000
00000130: a861 c6bd a492 cebd 4f55 a0bd 0305 6ebd
00000140: be2d 0380 9c26 0280 dd9a 0080 ff0e 0000
00000150: 3708 a0bc 8826 babc b76a babc dcb2 0dbd
00000160: 396c 71bd c544 0fbe 81b8 b5bd c75a 21be
00000170: c4b0 37be 959b 42be e409 24be 62a8 44be
00000180: 3ba2 271e 4c1c 231e 4262 241e a088 201e
00000190: 25f4 8423 fc19 8123 d99a 8923 1fc7 8623
000001a0: 56f7 153b 13f8 153b 81fd 153b a8fe 153b
000001b0: 2def 1085 9690 1285 551e 7785 2ff4 7885
000001c0: 6512 0000 0c2c 0000 7736 0000 3638 0000
000001d0: 4467 2ebe 887b 41be ad4a 01be 4f90 22be
000001e0: ec5d b93d 5901 b63d bd00 1b3e 79b0 0a3e
000001f0: 51ea 0f19 34d4 fb18 0fb6 1f19 c99a 0d19
00000200: 0f12 200c bb70 330c 1086 1a0c 172e 2d0c
00000210: 46bf 7e3d 6686 f53d 8d3f 1b3e 1f70 333e
00000220: 9d09 1784 7115 1784 a747 1784 de61 1784
00000230: f8d9 203e f6aa 313e 3ac9 ab3d 716a 1d3e
00000240: 9a4f 80a2 4acd 80a2 1aee 7ea2 281c 80a2
00000250: 5d11 9e38 7da9 9c38 f44a 9d38 8d1c 9c38
00000260: d5a4 9a2b 33d4 9a2b 8838 982b 951f 982b
00000270: c130 003e bc76 183e b3cc f93d ca3b ff3d
00000280: 536b ef3d f9fb 103e 84d4 2e3e 8c37 343e
00000290: 63e4 093e 5490 023e ca5a fd3d 662e bd3d
000002a0: bc66 39be d3ef 46be e544 0cbe 4987 2fbe
000002b0: f823 0080 a923 0080 ea23 0080 d923 0080
000002c0: 6250 d83d a8b5 ab3d 3668 313e 9b9f 423e
000002d0: 2212 9703 156b 9d03 a50b 9703 aa18 9d03
000002e0: 0551 05be e7d9 f6bd b978 29be 3e2c 2cbe
000002f0: 74d0 f906 c11f c706 e1ed 8387 33a4 9e87
00000300: 4505 0000 1b07 0000 2802 0000 3001 0000
00000310: d925 0000 9a16 0000 e206 0080 9107 0080
00000320: 4e3c 293d c9be 193d 18fb 353e 8d28 453e
00000330: 7e0a 0080 f50a 0080 b60a 0080 9f0a 0080
00000340: 2ff1 c9bd 6a18 11be a692 12be fe9f 16be
00000350: 79a5 6c3c 8546 3f3c 96fa d43d 9598 153e
00000360: d6e5 bbbd 5ade 15be 582c fcbd 2e8a 0fbe
00000370: dbfe 6e33 6f21 7233 8a87 5433 1764 5633
00000380: ea56 8f2b b440 6d2a 657a 582b 440f 8d2a
00000390: a3a2 f1bd 4f5e 91bd 2079 e2bd 9180 afbd
000003a0: 5cf3 abbb cd13 63bb c308 173c cf64 043c
000003b0: 218e 9c97 4049 f696 0559 8116 472c 8117
000003c0: 891b 403d 8be9 7a3d 663c 923d 794e a63d
000003d0: 797b 1e3e dd00 123e d436 113e d8ff ec3d
000003e0: f4a8 c8bd f9d4 0abe f834 a7bd 4670 e9bd
000003f0: 0115 babd 537b 1dbe 724f 19be 7f41 52be

fc.bias f4 [2]
0.004072725 0.06170832
00000000: 7e74 853b ddc1 7c3d

onnx::Conv_80 f4 [16, 3, 7, 7]
-0.023448084 -0.05650586 -0.038483307 -0.03624472 -0.05373357 -0.03894582 -0.08698945 -0.042680997
-0.040789783 -0.014813386 -0.028239561 -0.042836007 -0.038489826 -0.039249077 -0.015679237 0.0075814934
0.009714948 -0.020791614 0.0069995346 0.014958075 -0.0010250428 0.010627227 0.008267403 0.013767769
0.003812878 0.0027453522 0.009853072 0.000107351574 0.0005517294 -0.005550431 0.014034391 -0.0049149846
0.0053161494 0.0023513548 -0.006365042 0.004745485 0.005690358 0.026638886 -0.00034246518 -0.006516731
-0.0037899213 0.013755545 0.013713532 0.026216794 0.022449499 0.030967435 0.034818914 0.045227684
0.055439018 -0.0030027549 -0.04199015 -0.04922821 -0.040335137 -0.053780854 -0.057017963 -0.09637895
-0.040933203 -0.03358976 -0.015590591 -0.056339927 -0.028364645 -0.039047297 -0.023432145 -0.009928937
-0.0056975586 -0.011349273 -0.006099214 -0.015270646 -0.008372078 -0.0012366393 -0.0014123905 -0.005230892
0.019472 0.009984352 0.010759065 0.022228036 -0.014679391 0.005460026 0.009156701 0.0074762697
0.021049442 0.021921718 0.0016716361 -0.0002972547 0.021102885 0.004742516 0.019289954 0.013893661
0.0010996709 0.0063626743 0.0075533814 0.014151805 0.017752148 0.03278669 0.04812844 0.05909296
0.0693504 0.06842283 -0.025610562 -0.03597624 -0.03747147 -0.035976164 -0.04829663 -0.06592448
-0.0684927 -0.015542901 -0.014514261 -0.02308259 -0.02804943 -0.027804045 -0.0224373 -0.04678063
0.0012883667 0.009839113 0.0015012586 -0.009486372 0.015891774 0.027867494 -0.008584259 0.019532263
0.026059652 0.02744833 0.033083398 0.03380143 0.02892669 0.029055238 0.021529857 0.029450322
0.033245977 0.02896988 0.029121755 0.02855322 0.022349605 0.041089978 0.012869961 0.023739671
0.038595628 0.017467903 0.017347608 0.031918123 0.032705143 0.038480543 0.052452207 0.04398106
0.060857892 0.07689781 0.08032014 0.02215293 0.04379414 0.062395293 0.07325382 0.054115996
-0.006851922 -0.07362313 -0.03632618 0.028106228 0.0488974 0.13160327 0.1308148 0.097471364
0.028824054 0.020001277 -0.0042845695 -0.016942272 -0.0026556964 -0.013386039 -0.010181713 0.037562277
0.0050688796 -0.063391894 -0.14790641 -0.1961377 -0.19984654 -0.10304398 -0.044187266 -0.011472673
0.008960607 0.022240374 0.06368204 0.032154027 0.029290285 -0.012242666 -0.032092784 -0.0057459166
0.03142081 0.07292234 0.061172403 0.022631127 -0.039545882 -0.073687896 -0.033709623 0.0331804
-0.009361853 -0.0076077064 -0.051728424 0.019799069 0.021521822 0.05626392 0.065733045 0.07699337
0.07626104 0.012576237 -0.061389744 -0.018160913 0.06317424 0.08416452 0.17752671 0.15336047
0.1233745 0.041524086 0.0077146934 0.04943437 -0.020669708 0.005667052 -0.0070642014 0.020066729
0.007171388 -0.045267098 -0.09703721 -0.15903799 -0.11881879 -0.1535165 -0.07785847 -0.055821687
-0.0015276079 0.00769868 -0.035579663 0.0203807 0.012751618 0.03973474 0.03523961 -0.024352971
0.025896594 0.093924284 0.13350393 0.041997485 0.019124689 0.028206922 -0.028564092 -0.050681174
-0.05300507 -0.015831305 0.021445395 -0.019738346 -0.05870306 0.016020281 0.054307505 0.03376868
0.095769726 0.073073685 0.021912705 -0.074703015 0.004367626 0.07161851 0.10002971 0.17377181
00000000: 3216 c0bc b072 67bd aca0 1dbd 5875 14bd
00000010: bb17 5cbd a785 1fbd 8627 b2bd 45d2 2ebd
00000020: 3013 27bd d8b3 72bc a756 e7bc cf74 2fbd
00000030: 82a7 1dbd a4c3 20bd be71 80bc 2d6e f83b
00000040: 722b 1f3c 2d53 aabc 5a5c e53b b712 753c
00000050: bb5a 86ba d21d 2e3c 0074 073c 3592 613c
00000060: 7ae1 793b 5eeb 333b c86e 213c f021 e138
00000070: efa1 103a 64e0 b5bb 81f0 653c e10d a1bb
00000080: 1833 ae3b 3019 1a3b d891 d0bb 0380 9b3b
00000090: 2f76 ba3b cb39 da3c e68c b3b9 4d8a d5bb
000000a0: 5460 78bb f05e 613c b9ae 603c 9ac4 d63c
000000b0: 03e8 b73c 6baf fd3c 479e 0e3d aa40 393d
000000c0: 0614 633d dec9 44bb ddfd 2bbd 85a3 49bd
000000d0: 7536 25bd 5049 5cbd ab8b 69bd 5462 c5bd
000000e0: 93a9 27bd 6b95 09bd ae6f 7fbc b2c4 66bd
000000f0: f95c e8bc 0ff0 1fbd c5f4 bfbc fbac 22bc
00000100: 96b2 babb 4df2 39bc eadb c7bb bb31 7abc
00000110: 0a2b 09bc bb16 a2ba f61f b9ba e767 abbb
00000120: be83 9f3c 6895 233c ca46 303c 9217 b63c
00000130: d481 70bc 05ea b23b fd05 163c 7ffb f43b
00000140: e16f ac3c 2d95 b33c cd1a db3a dad8 9bb9
00000150: f5df ac3c 1c67 9b3b f705 9e3c 3da2 633c
00000160: d522 903a fb7d d03b 5b82 f73b f9dc 673c
00000170: f46c 913c 564b 063d 5422 453d 760b 723d
00000180: 9507 8e3d 4521 8c3d 3ecd d1bc d25b 13bd
00000190: af7b 19bd be5b 13bd b0d2 45bd 6a03 87bd
000001a0: e745 8cbd a7a7 7ebc 39cd 6dbc b317 bdbc
000001b0: ebc7 e5bc 4fc5 e3bc 6ece b7bc 0c9d 3fbd
000001c0: 6ade a83a 3b34 213c e1c5 c43a ba6c 1bbc
000001d0: 772f 823c 5f4a e43c fea4 0cbc 2002 a03c
000001e0: 0d7b d53c 52db e03c 7582 073d 5e73 0a3d
000001f0: aaf7 ec3c 4005 ee3c 625f b03c cd41 f13c
00000200: ef2c 083d 3e52 ed3c bf90 ee3c 71e8 e93c
00000210: 8516 b73c f74d 283d 87dc 523c b379 c23c
00000220: 7316 1e3d d918 8f3c 921c 8e3c 94bc 023d
00000230: d4f5 053d c69d 1d3d 20d8 563d 7c25 343d
00000240: 2046 793d 997c 9d3d e37e a43d 107a b53c
00000250: 7c61 333d 3592 7f3d 1906 963d bca8 5d3d
00000260: 1686 e0bb b9c7 96bd c3ca 14bd 083f e63c
00000270: a448 483d 02c3 063e 51f4 053e 119f c73d
00000280: 6c20 ec3c b8d9 a33c 9365 8cbb 85ca 8abc
00000290: 310b 2ebb 1e51 5bbc 33d1 26bc e7da 193d
000002a0: d818 a63b 9cd3 81bd c774 17be 52d8 48be
000002b0: 92a4 4cbe b908 d3bd b5fd 34bd e1f7 3bbc
000002c0: 83cf 123c 7231 b63c bb6b 823d f1b3 033d
000002d0: 2ef2 ef3c 7795 48bc b973 03bd 3e48 bcbb
000002e0: 1bb3 003d 4f58 953d ea8f 7a3d ea64 b93c
000002f0: ddfa 21bd aee9 96bd 1a13 0abd 2ce8 073d
00000300: 7562 19bc 114a f9bb 2fe1 53bd a831 a23c
00000310: 884e b03c ff74 663d 0c9f 863d b3ae 9d3d
00000320: c02e 9c3d 900c 4e3c d073 7bbd 32c6 94bc
00000330: 7f61 813d 735e ac3d 90c9 353e 870a 1d3e
00000340: c5ab fc3d 2915 2a3d 8acb fc3b b27b 4a3d
00000350: 8553 a9bc aeb2 b93b d17a e7bb fb62 a43c
00000360: f6fd ea3b fe69 39bd 72bb c6bd dbda 22be
00000370: 4457 f3bd 6e33 1dbe 4374 9fbd 48a5 64bd
00000380: 043a c8ba 3545 fc3b fbbb 11bd 6df5 a63c
00000390: 2aec 503c e5c0 223d 6957 103d e27f c7bc
000003a0: 1825 d43c 605b c03d 41b5 083e 8e05 2c3d
000003b0: 61ab 9c3c 3412 e73c 3eff e9bc 1097 4fbd
000003c0: d81b 59bd a7b0 81bc 41ae af3c 50b2 a1bc
000003d0: 9f72 70bd f73c 833c 8c71 5e3d 0751 0a3d
000003e0: eb22 c43d a8a7 953d 4682 b33c e5fd 98bd
000003f0: 4d1e 8f3b baac 923d 60dc cc3d 3df1 313e

onnx::Conv_81 f4 [16]
-0.14177021 -0.8246856 0.03154689 -0.114602484 0.54058874 0.6850002 0.09174873 0.269912
-0.049096167 -0.44635808 0.24687795 0.024240974 0.18174747 0.88043714 -1.015837 -0.53527373
00000000: 362c 11be 981e 53bf 5037 013d b5b4 eabd
00000010: 0664 0a3f 2c5c 2f3f c2e6 bb3d e831 8a3e
00000020: 1019 49bd 0c89 e4be 93cd 7c3e 0295 c63c
00000030: 021c 3a3e 5464 613f f206 82bf b307 09bf

onnx::Conv_83 f4 [32, 16, 3, 3]
-1e-44 -0.0 6e-45 -6e-45 -8e-45 -4e-45 0.0 6e-45
-7e-45 -3e-45 -3e-45 -1e-45 3e-45 -8e-45 4e-45 -6e-45
-8e-45 -6e-45 -4e-45 -4e-45 -1.1e-44 -8e-45 3e-45 3e-45
6e-45 8e-45 -3e-45 6e-45 -8e-45 1e-44 3e-45 1e-44
0.0 -1e-44 -1e-44 -4e-45 -1e-44 -6e-45 8e-45 -3e-45
4e-45 -6e-45 -3e-45 -8e-45 8e-45 -7e-45 8e-45 3e-45
-1e-44 6e-45 8e-45 -1e-44 6e-45 4e-45 -3.5e-44 -3.13477e-40
-4e-45 -3.05643e-40 3e-45 -4e-45 -1.65e-43 8e-45 -4e-45 9.725511e-32
1.2691837e-34 4.7782453e-35 -1.5184235e-32 2.5114343e-32 4.6707633e-31 4.2373224e-36 1.3696624e-34 1.2988231e-32
-3e-45 8e-45 -4e-45 4e-45 1e-44 3e-45 1e-44 4e-45
1e-44 -3e-45 -3e-45 6e-45 -8e-45 3e-45 1e-44 -1e-44
4e-45 0.0 -6e-45 4e-45 -3e-45 -4e-45 -7e-45 1e-45
-3e-45 7e-45 3e-45 -1.95314e-40 -6e-45 1e-44 -3.19485e-40 -7e-45
3e-45 -3.8e-42 -0.0 -3e-45 1e-44 -1e-45 7e-45 4e-45
6e-45 1e-45 -1e-44 -1e-45 3e-45 -1e-44 -7e-45 -4e-45
8e-45 3e-45 1e-45 6e-45 1e-44 3e-45 -1e-45 8e-45
0.0 7e-45 -3e-45 0.0 7e-45 -0.0 4e-45 8e-45
7e-45 8e-45 -7e-45 -8e-45 -0.0 7e-45 -3e-45 1e-45
-0.028469425 -0.018571682 -0.00089053804 -0.014937138 -0.021990294 -0.01969494 0.03805439 0.015628856
0.0043019275 -0.012508464 -0.024990518 -0.009701835 -0.020828068 -0.018808968 0.00817236 -0.009243176
-0.02140452 0.0024988411 -0.007872414 -0.0077536874 -0.001294614 -0.0071824994 -0.0055074156 0.0013035305
-0.0016373282 -0.0032092493 0.003224438 -0.006712864 -0.005664198 0.0028601112 -0.004253152 -0.013241506
-0.0070457594 0.0115584 -0.004972484 -0.0022989362 0.032104988 0.022282897 0.008104027 0.003761837
0.007993084 -0.006739957 0.0068240548 0.011301067 0.0023586222 0.017187675 0.017813915 -0.0024196703
0.0025756923 -0.007054888 -0.017153438 -0.006615218 0.0017562711 -0.015657235 0.026738329 0.016458914
-0.02568364 0.025748849 -0.004222239 -0.029819949 0.025555493 -0.009040343 -0.008818458 -0.011836412
-0.020041516 -0.015076291 -0.026036983 -0.044374213 -0.041831773 0.04905824 -0.0038250636 -0.012703962
0.022543207 0.016309043 0.015172199 -0.007681757 -0.014919925 -0.0111954855 0.002678761 -0.010112721
0.001747263 0.006840282 0.0019955938 -0.0031218783 0.0022424667 0.002766724 -0.014916413 -0.00036673975
0.006368048 0.013430643 0.002374771 -0.008274416 -0.0143069085 -0.0043404684 -0.0257282 -0.049006872
0.015801331 -0.007608202 -0.023094835 -0.0011016524 -0.012279781 -0.024700077 -0.0001853957 -0.008883269
-0.02385826 0.02327497 0.008959198 0.0014314286 -0.0025785938 -0.0103402585 -0.013611108 -0.00031239263
00000000: 0700 0080 0000 0080 0400 0000 0400 0080
00000010: 0600 0080 0300 0080 0000 0000 0400 0000
00000020: 0500 0080 0200 0080 0200 0080 0100 0080
00000030: 0200 0000 0600 0080 0300 0000 0400 0080
00000040: 0600 0080 0400 0080 0300 0080 0300 0080
00000050: 0800 0080 0600 0080 0200 0000 0200 0000
00000060: 0400 0000 0600 0000 0200 0080 0400 0000
00000070: 0600 0080 0700 0000 0200 0000 0700 0000
00000080: 0000 0000 0700 0080 0700 0080 0300 0080
00000090: 0700 0080 0400 0080 0600 0000 0200 0080
000000a0: 0300 0000 0400 0080 0200 0080 0600 0080
000000b0: 0600 0000 0500 0080 0600 0000 0200 0000
000000c0: 0700 0080 0400 0000 0600 0000 0700 0080
000000d0: 0400 0000 0300 0000 1900 0080 d969 0380
000000e0: 0300 0080 0254 0380 0200 0000 0300 0080
000000f0: 7600 0080 0600 0000 0300 0080 1c7d fc0b
00000100: 15b4 2807 1b0e 7e06 9fae 9d8a b066 020b
00000110: 2f93 170d 5b3c b404 320f 3607 a4e0 860a
00000120: 0200 0080 0600 0000 0300 0080 0300 0000
00000130: 0700 0000 0200 0000 0700 0000 0300 0000
00000140: 0700 0000 0200 0080 0200 0080 0400 0000
00000150: 0600 0080 0200 0000 0700 0000 0700 0080
00000160: 0300 0000 0000 0000 0400 0080 0300 0000
00000170: 0200 0080 0300 0080 0500 0080 0100 0000
00000180: 0200 0080 0500 0000 0200 0000 7520 0280
00000190: 0400 0080 0700 0000 987a 0380 0500 0080
000001a0: 0200 0000 980a 0080 0000 0080 0200 0080
000001b0: 0700 0000 0100 0080 0500 0000 0300 0000
000001c0: 0400 0000 0100 0000 0700 0080 0100 0080
000001d0: 0200 0000 0700 0080 0500 0080 0300 0080
000001e0: 0600 0000 0200 0000 0100 0000 0400 0000
000001f0: 0700 0000 0200 0000 0100 0080 0600 0000
00000200: 0000 0000 0500 0000 0200 0080 0000 0000
00000210: 0500 0000 0000 0080 0300 0000 0600 0000
00000220: 0500 0000 0600 0000 0500 0080 0600 0080
00000230: 0000 0080 0500 0000 0200 0080 0100 0000
00000240: b638 e9bc a423 98bc ff72 69ba e6ba 74bc
00000250: fd24 b4bc 4857 a1bc ecde 1b3d 1608 803c
00000260: 2ff7 8c3b 4df0 4cbc eab8 ccbc 72f4 1ebc
00000270: a09f aabc 4415 9abc 5de5 053c b170 17bc
00000280: 8858 afbc 99c3 233b 4cfb 00bc a512 febb
00000290: 0ab0 a9ba 2c5b ebbb 8d77 b4bb 3adb aa3a
000002a0: 9e9b d6ba 4552 52bb 1851 533b 96f7 dbbb
000002b0: bd9a b9bb b470 3b3b 065e 8bbb e7f2 58bc
000002c0: 1de0 e6bb 715f 3d3c 38f0 a2bb c0a9 16bb
000002d0: 8580 033d 9f8a b63c c1c6 043c 2789 763b
000002e0: 6df5 023c dbda dcbb 529c df3b 1c28 393c
000002f0: 1d93 1a3b 2bcd 8c3c 7dee 913c 5593 1ebb
00000300: f2cc 283b b12c e7bb 5e85 8cbc 78c4 d8bb
00000310: ae32 e63a 9a43 80bc 570a db3c d8d4 863c
00000320: 7f66 d2bc 40ef d23c b55a 8abb f748 f4bc
00000330: c159 d13c f21d 14bc 4b7b 10bc 83ed 41bc
00000340: 1b2e a4bc 8c02 77bc 834b d5bc bcc1 35bd
00000350: cb57 2bbd 4bf1 483d ebad 7abb 4724 50bc
00000360: 88ac b83c 8b9a 853c d194 783c 40b7 fbbb
00000370: b372 74bc 456d 37bc 278e 2f3b d3af 25bc
00000380: 6b04 e53a 7224 e03b 82c8 023b 6d98 4cbb
00000390: 59f6 123b ed51 353b f963 74bc fa46 c0b9
000003a0: 0fab d03b 330c 5c3c 0ca2 1b3b 6b91 07bc
000003b0: 8667 6abc 7d3a 8ebb f2c3 d2bc 6ebb 48bd
000003c0: cb71 813c 394e f9bb 6131 bdbc 5265 90ba
000003d0: 2231 49bc d157 cabc c766 42b9 218b 11bc
000003e0: 6672 c3bc 26ab be3c 9ac9 123c c69e bb3a
000003f0: a0fd 28bb 306a 29bc 2001 5fbc a1c8 a3b9

onnx::Conv_84 f4 [32]
-1.1729137e-10 0.13227053 -0.20182583 -1.7865813e-32 -0.3090066 -2.3135616e-25 0.086940385 0.029338636
-0.13468383 0.12543368 -0.07185638 0.20293038 0.38677686 0.0021192648 -0.14409763 -0.05727297
0.30028284 -0.11259393 0.15755288 0.59837234 0.04351376 -2.8175594e-19 0.16337991 0.082011715
0.17097254 -0.17511904 0.13528201 -0.24312484 -0.008237679 -0.16178647 -0.07183589 0.007432878
00000000: 96f6 00af ed71 073e 6eab 4ebe 7a87 b98a
00000010: 1d36 9ebe d933 8f96 cd0d b23d 9457 f03c
00000020: 8fea 09be b071 003e 7029 93bd fbcc 4f3e
00000030: 9e07 c63e 5de3 0a3b 548e 13be 1097 6abd
00000040: acbe 993e a597 e6bd 8b55 213e ee2e 193f
00000050: 7c3b 323d c151 a6a0 104d 273e c2f5 a73d
00000060: 6d13 2f3e 6852 33be 5e87 0a3e b8f5 78be
00000070: 54f7 06bc 5aab 25be b21e 93bd 808f f33b

onnx::Conv_86 f4 [32, 32, 3, 3]
-5.7529e-41 9.179e-42 -1.369e-42 3.1224e-41 -3.4664e-41 -6.5172e-41 1.5327e-41 7.941e-42
3.9979e-41 -0.05251909 0.04771029 -0.032623824 -0.026707606 0.10936223 -0.075660154 -0.039058823
0.1792657 0.042435993 -0.06671419 -0.007215526 0.085345015 -0.04947954 -0.03973063 0.014403219
-0.073622815 -0.0046003186 0.084616974 1.30009e-32 1.7889108e-32 1.5705698e-32 1.1561533e-33 -2.5169e-40
-1.892449e-33 -4.9120874e-34 -2.2670973e-33 -4.1794643e-33 -0.28659227 -0.20502852 -0.13524166 -0.11907174
0.012343909 -0.0841811 -0.036966473 0.06886185 0.06198521 6.9493e-41 -2.3839e-41 -2.431e-42
3.392e-41 5.2005e-41 -1.575e-41 -6.6082e-41 4.8837e-41 6.9105e-41 -0.059656687 -0.13918419
-0.32372907 0.10510306 0.048176028 -0.17950536 0.343141 0.32430455 0.06257635 -0.00038970067
0.29126844 0.18055472 -0.07923597 0.06392374 -0.19254106 -0.0859419 0.123342894 -0.14573327
-0.03826442 -0.035769872 -0.021780368 -0.031369627 -0.031101447 -0.010422367 -0.034916192 -0.03112752
-0.0076267743 0.22595584 0.13405554 0.12657562 0.027787175 -0.07391274 -0.07105589 0.013370347
-0.08529682 -0.050641373 0.013643359 0.018488843 0.037444297 0.02218638 0.023459135 0.039984476
0.008167288 0.0014086564 0.043595575 0.14141327 -0.06162824 -0.10585822 0.22080399 0.07125792
0.023824956 0.06295006 0.0812416 0.22110443 0.11712249 0.11303272 0.03976749 0.04872478
0.10540948 0.06679779 -0.13844691 -0.0519256 0.013051027 0.0022752949 -0.0012942882 -0.0020739755
0.0076540345 0.0062625045 0.0028388107 0.010963795 0.007825756 0.005592944 -0.027314274 0.009161739
0.0032334742 -0.099029146 0.021281812 0.06520546 -0.043263994 0.076390855 0.007729555 0.08208172
0.06097329 0.14740367 0.07170314 0.017352035 0.10546699 0.05691347 -0.0092156 0.044928785
0.26602113 0.2437055 0.011755215 0.24802932 0.16198978 -0.101415284 0.075825155 0.03635302
-0.15202728 0.118812226 -0.0006560935 0.029221496 -0.06549509 -0.24030842 -0.22685347 -0.0010744414
-0.23571418 -0.2188939 0.029594643 0.034747813 0.24960709 0.06297423 0.036491714 0.024517745
-0.12910117 -0.22776169 -0.14201021 0.040451486 -0.076958664 -0.042386115 -0.13765651 -0.1959683
-0.13224009 0.046050042 -0.02744343 0.044675354 0.14262083 0.124848455 -0.09611496 0.062079355
-0.21885283 -0.264456 0.018678846 -0.13345546 -0.28343195 -1.4095035e-19 -2.2251414e-19 -2.4899002e-19
-3.659658e-20 3.3207953e-26 -4.673453e-21 1.5005837e-20 5.590072e-20 7.743237e-20 0.0819591 0.2715485
4.6999397e-05 -0.04902053 0.3194175 -0.004326057 -0.21071413 0.08606212 -0.1785541 -0.089306876
-0.1797767 0.0057108058 0.004834711 -0.028671982 0.06491512 0.11500292 -0.013024266 0.07730299
0.007682817 0.13529006 0.1037231 -0.058115125 0.144522 0.10418967 -0.14948004 0.074719146
0.091397256 0.040749874 0.01315422 0.054868452 -0.0707092 -0.16401133 -0.09976949 -0.017331632
-0.1060447 -0.08576169 0.10063908 -0.011274034 -0.03448524 0.09549052 0.02991427 0.012028613
0.08043078 0.068410106 0.06605125 -0.1243882 -0.035808135 -0.05346956 -0.09656079 0.10032223
-0.08224927 -0.12340102 0.10123667 -0.18475515 0.003414505 0.0023839206 0.002481609 -0.0023325542
00000000: 5ea0 0080 9619 0000 d103 0080 0a57 0000
00000010: a160 0080 acb5 0080 ba2a 0000 2316 0000
00000020: 726f 0000 421e 57bd dd6b 433d 8fa0 05bd
00000030: e9c9 dabc 4ef9 df3d b6f3 9abd 25fc 1fbd
00000040: 6d91 373e 5dd1 2d3d 73a1 88bd 3870 ecbb
00000050: 5ec9 ae3d 0fab 4abd 96bc 22bd 7bfb 6b3c
00000060: 8fc7 96bd 45be 96bb aa4b ad3d 5202 870a
00000070: 68c5 b90a e818 a30a 5319 c008 9cbd 0280
00000080: f037 1d89 6b3b 2388 d457 3c89 b09b ad89
00000090: 39bc 92be fff2 51be ca7c 0abe e2db f3bd
000000a0: 1b3e 4a3c 2467 acbd 286a 17bd 7107 8d3d
000000b0: 34e4 7d3d b8c1 0000 7442 0080 c706 0080
000000c0: 8e5e 0000 f890 0000 e82b 0080 36b8 0080
000000d0: 2388 0000 a3c0 0000 925a 74bd 4d86 0ebe
000000e0: d1bf a5be 4640 d73d 3a54 453d 41d0 37be
000000f0: 2db0 af3e 3f0b a63e 0828 803d bd50 ccb9
00000100: 2321 953e 56e3 383e 7846 a2bd 73ea 823d
00000110: 7c29 45be 4f02 b0bd 339b fc3d 1a3b 15be
00000120: 27bb 1cbd 6e83 12bd be6c b2bc 707d 00bd
00000130: 76c8 febc 93c2 2abc 4804 0fbd 24ff febc
00000140: 05ea f9bb f860 673e db45 093e 0a9d 013e
00000150: eea1 e33c 905f 97bd c085 91bd 4d0f 5b3c
00000160: 19b0 aebd 546d 4fbd 6588 5f3c ea75 973c
00000170: 315f 193d 36c0 b53c 5f2d c03c c3c6 233d
00000180: 17d0 053c aaa2 b83a 4691 323d a4ce 103e
00000190: e56d 7cbd 32cc d8bd 711a 623e acef 913d
000001a0: 8e2c c33c f6eb 803d ff61 a63d 3369 623e
000001b0: ebdd ef3d b37d e73d 3ce3 223d a393 473d
000001c0: ede0 d73d 48cd 883d 07c5 0dbe f0af 54bd
000001d0: fad3 553c 1d1d 153b 1ba5 a9ba 89eb 07bb
000001e0: b2ce fa3b b235 cd3b 570b 3a3b 7da1 333c
000001f0: 9a37 003c 0445 b73b 2fc2 dfbc 1e1b 163c
00000200: b2e8 533b cbcf cabd 3257 ae3c 718a 853d
00000210: 9635 31bd cf72 9c3d 3548 fd3b 761a a83d
00000220: 21bf 793d fdf0 163e 19d9 923d db25 8e3c
00000230: 14ff d73d 191e 693d 07fd 16bc 3f07 383d
00000240: ec33 883e ef8d 793e f298 403c 66fb 7d3e
00000250: a6e0 253e d1b2 cfbd 384a 9b3d e8e6 143d
00000260: 0aad 1bbe d353 f33d b1fd 2bba eb61 ef3c
00000270: 4a22 86bd 6913 76be 474c 68be 45d4 8cba
00000280: 0f5f 71be b925 60be 7770 f23c b953 0e3d
00000290: 0099 7f3e a2f8 803d 5678 153d 70d9 c83c
000002a0: 1933 04be 5c3a 69be 206b 11be 75b0 253d
000002b0: 819c 9dbd 109d 2dbd d4f5 0cbe eaab 48be
000002c0: f269 07be f89e 3c3d 0bd1 e0bc 81fd 363d
000002d0: 320b 123e 8cb0 ff3d ecd7 c4bd ec46 7e3d
000002e0: f51a 60be c766 87be 6104 993c 8ca8 08be
000002f0: fe1d 91be a167 26a0 6359 83a0 4ffa 92a0
00000300: 8dd2 2c9f 1570 2415 dd8e b09d e3b9 8d1e
00000310: e9fd 831f ffd4 b61f 2cda a73d 6808 8b3e
00000320: 3821 4538 c0c9 48bd b18a a33e 99c1 8dbb
00000330: 72c5 57be 5641 b03d e3d6 36be 86e6 b6bd
00000340: 6217 38be b621 bb3b 7f6c 9e3b 81e1 eabc
00000350: 38f2 843d a786 eb3d bb63 55bc 0851 9e3d
00000360: 24c0 fb3b 7a89 0a3e c76c d43d 200a 6ebd
00000370: 93fd 133e 6561 d53d 4c11 19be 5a06 993d
00000380: 7c2e bb3d 57e9 263d cc84 573c bebd 603d
00000390: fccf 90bd 96f2 27be f253 ccbd 11fb 8dbc
000003a0: f72d d9bd d3a3 afbd dd1b ce3d bab6 38bc
000003b0: 6540 0dbd 8990 c33d c50e f53c a913 453c
000003c0: e5b8 a43d 991a 8c3d e145 873d 3ebf febd
000003d0: 8dab 12bd e602 5bbd aac1 c5bd be75 cd3d
000003e0: 4e72 a8bd adb9 fcbd 2c55 cf3d 7430 3dbe
000003f0: e3c5 5f3b 8d3b 1c3b 7da2 223b c4dd 18bb

onnx::Conv_87 f4 [32]
0.0028553829 -0.27922955 -0.25078228 -0.05614163 0.38036036 0.122477666 -0.10141043 -0.03424503
0.048467148 -0.00031527132 0.14050975 0.33338293 -5.402e-42 0.28924292 -0.020178776 -0.030136628
4.725e-42 0.24582131 -0.05275458 -5.4795e-41 -4.09489e-40 -0.109696425 0.025119483 0.19840679
0.05684351 0.3898452 0.14690048 0.44190958 -0.05123973 0.26729202 -0.101080425 -0.11375473
00000000: 6021 3b3b 2df7 8ebe 8966 80be c4f4 65bd
00000010: 98be c23e 92d5 fa3d 46b0 cfbd 8444 0cbd
00000020: 7d85 463d 004b a5b9 cae1 0f3e 2bb1 aa3e
00000030: 0f0f 0080 a617 943e f64d a5bc 17e1 f6bc
00000040: 2c0d 0000 95b8 7b3e 3015 58bd bf98 0080
00000050: 7d75 0480 85a8 e0bd 60c7 cd3c 262b 4b3e
00000060: bed4 683d ca99 c73e 146d 163e f941 e23e
00000070: c0e0 51bd 80da 883e 4103 cfbd 3df8 e8bd

onnx::Conv_89 f4 [32, 16, 1, 1]
0.1228809 0.21509333 -0.10820689 -0.046286352 0.116343245 -0.05029926 0.005906688 0.19977552
0.06143129 -0.30033597 0.10164814 -0.14844544 -0.09596218 0.09241129 -0.276383 0.03129993
-0.13881066 0.12756075 -0.005015917 0.0029727211 0.03567667 -0.07798561 0.04480996 -0.017944891
0.042531084 0.02677068 -0.2028092 -0.06748405 -0.1688943 0.106015086 -0.042639185 -0.068938226
-0.09787888 0.024889143 0.006738211 -0.07064569 -0.11213517 -0.03545307 0.14018835 -0.23044755
-0.087283954 0.069834866 -0.017664568 -0.027284283 -0.116518036 0.015399939 0.08661988 -0.08651563
0.050630476 -0.018158596 -0.003986762 0.0062789717 -0.0332216 -0.0399693 -0.07106188 0.04251423
-0.09323511 -0.047846425 0.029456584 0.000112856316 0.014788581 -0.04110983 -0.012735631 -0.02527115
0.11742517 0.10724073 -0.015437286 0.099768855 -0.035231292 -0.041444212 -0.12819433 0.1424857
-0.06989402 -0.13816291 -0.013073398 0.07244615 0.04919618 -0.20615901 -0.050051544 0.11606135
0.218725 -0.26299596 -0.050311845 -0.024976881 -0.2144553 -0.111032434 0.002319231 -0.05568022
0.043601967 0.11543379 -0.021571776 0.19482589 0.055196926 0.089478865 0.013835142 0.09836934
0.10901656 0.029481245 0.045735747 -0.012042668 -0.011140241 0.06794079 0.18832701 -0.008645784
0.104140036 0.1566297 -0.11092421 0.123565525 -0.004886578 0.2066288 0.028178927 -0.10377975
0.28493223 -0.14050972 0.009451573 -0.021815863 -0.0049870806 0.12261548 0.014329205 -0.16374128
-0.036173478 0.00711248 -0.113670535 0.025905991 -0.031834237 -0.114378564 0.17448202 0.1261264
0.0018326658 -0.059767034 0.0089041935 -0.0434352 0.1718049 -0.031124935 0.041259483 -0.022998584
-0.049048007 -0.1850809 -0.119333774 0.20157154 0.18060505 0.15524687 -0.14873223 0.06422218
0.1419421 0.06985077 0.006628951 0.018979933 -0.054721758 0.040738877 0.066710696 0.014248553
-0.061392162 0.036239147 -0.09509207 0.14361307 -0.016625706 -0.021258987 -0.013907191 -0.003928733
-0.08020506 -0.021706479 0.0033351583 -0.051144443 -0.12830354 0.022512127 0.061386652 0.095905915
0.0434725 0.082224235 -0.061530154 0.13768716 0.047475062 0.05719235 -0.12982278 -0.07251417
-0.13972917 -0.07433344 -0.054500848 -0.04699122 0.02072564 0.017576205 0.03637084 -0.1126595
-0.017381927 -0.0059946245 0.066807374 0.05785166 0.12688519 0.064018145 -0.10870658 0.0016667617
0.0 -0.0 -0.0 0.0 0.0 -0.0 0.0 -0.0
-0.0 -0.0 -0.0 0.0 -0.0 -0.0 -0.0 -0.0
0.18038383 0.09302166 -0.015332546 0.103524424 -0.24337088 -0.16282025 -0.055405926 0.010837349
-0.23508316 -0.05276869 -0.1426776 0.20232068 0.07457953 -0.054236863 0.12217104 -0.15672284
0.004141441 0.0146534 0.00035038148 0.0017956393 -0.0021504702 -0.008141355 0.010670426 0.02497219
-0.0003991765 0.0016189426 0.013173078 0.014496651 -0.0003457297 -0.013577189 0.009813625 0.0021612542
0.0037063742 -0.0035687368 -0.00035443154 -0.0004495721 0.008492054 0.0021492082 5.483367e-05 0.0039548133
-0.0005920318 -0.002246576 0.00042652473 0.00054194836 -0.00088007393 -0.0020233719 0.00029953453 -0.00090701354
00000000: fba8 fb3d 6d41 5c3e 939b ddbd c296 3dbd
00000010: 5e45 ee3d 9906 4ebd e48c c13b f491 4c3e
00000020: 609f 7b3d a3c5 99be e62c d03d 1502 18be
00000030: d287 c4bd 2142 bd3d 1382 8dbe 5b34 003d
00000040: 6224 0ebe 499f 023e 905c a4bb fcd1 423b
00000050: b321 123d ebb6 9fbd a68a 373d 2a01 93bc
00000060: 1335 2e3d 2f4e db3c 37ad 4fbe 1435 8abd
00000070: a1f2 2cbe 701e d93d 6da6 2ebd 7c2f 8dbd
00000080: b974 c8bd 51e4 cb3c 36cc dc3b b0ae 90bd
00000090: 20a7 e5bd 3d37 11bd 898d 0f3e 71fa 6bbe
000000a0: eec1 b2bd 9505 8f3d 49b5 90bc 4a83 dfbc
000000b0: 02a1 eebd 0750 7c3c c365 b13d 1b2f b1bd
000000c0: e761 4f3d 56c1 94bc 62a3 82bb d5bf cd3b
000000d0: 5f13 08bd d9b6 23bd e488 91bd 6723 2e3d
000000e0: 0df2 bebd 9dfa 43bd ef4e f13c 46ad ec38
000000f0: ce4b 723c c862 28bd 1ca9 50bc 7105 cfbc
00000100: 9c7c f03d 07a1 db3d acec 7cbc 9d53 cc3d
00000110: b04e 10bd 68c1 29bd 6045 03be c5e7 113e
00000120: 9924 8fbd 947a 0dbe ce31 56bc a65e 943d
00000130: ef81 493d 591b 53be d902 4dbd 93b1 ed3d
00000140: 72f9 5f3e 68a7 86be cb13 4ebd 519c ccbc
00000150: 2c9a 5bbe f964 e3bd 3dfe 173b f110 64bd
00000160: fa97 323d 8d68 ec3d 4bb7 b0bc 7080 473e
00000170: 2c16 623d b240 b73d cbac 623c dd75 c93d
00000180: 1344 df3d a782 f13c 6855 3b3d 9c4e 45bc
00000190: 8f85 36bc 8a24 8b3d ccd8 403e 0ca7 0dbc
000001a0: 5f47 d53d 8963 203e 3b2c e3bd ec0f fd3d
000001b0: 961f a0bb 8096 533e 7ed7 e63c 7a8a d4bd
000001c0: a3e2 913e c8e1 0fbe c5da 1a3c 2eb7 b2bc
000001d0: aa6a a3bb d31d fb3d 0bc5 6a3c cbab 27be
000001e0: a42a 14bd ce0f e93b 19cc e8bd cd38 d43c
000001f0: 9e64 02bd 4f3f eabd 6aab 323e 4727 013e
00000200: 0f36 f03a 47ce 74bd e5e2 113c 1ce9 31bd
00000210: a0ed 2f3e b8f9 febc b4ff 283d 8767 bcbc
00000220: 90e6 48bd d985 3dbe 4465 f4bd c568 4e3e
00000230: 88f0 383e 09f9 1e3e 434d 18be eb86 833d
00000240: 4559 113e ec0d 8f3d ac37 d93b ce7b 9b3c
00000250: ec23 60bd cfdd 263d 9e9f 883d c372 693c
00000260: 5976 7bbd 806f 143d a2bf c2bd 4e0f 133e
00000270: a232 88bc 5427 aebc fdda 63bc 9abc 80bb
00000280: 8d42 a4bd c9d1 b1bc ac92 5a3b d67c 51bd
00000290: 0162 03be 5a6b b83c 9270 7b3d 526a c43d
000002a0: 3810 323d 2e65 a83d 0b07 7cbd ddfd 0c3e
000002b0: 3675 423d 8742 6a3d 43f0 04be 4f82 94bd
000002c0: 2a15 0fbe 213c 98bd 483c 5fbd de79 40bd
000002d0: d1c8 a93c f9fb 8f3c 97f9 143d 06ba e6bd
000002e0: 8b64 8ebc 8e6e c4bb 4ed2 883d ddf5 6c3d
000002f0: 31ee 013e f21b 833d 8ea1 debd 3e77 da3a
00000300: 0000 0000 0000 0080 0000 0080 0000 0000
00000310: 0000 0000 0000 0080 0000 0000 0000 0080
00000320: 0000 0080 0000 0080 0000 0080 0000 0000
00000330: 0000 0080 0000 0080 0000 0080 0000 0080
00000340: 8ab6 383e 2482 be3d 5c35 7bbc 9d04 d43d
00000350: 3736 79be 5aba 26be 53f1 62bd 238f 313c
00000360: a4b9 70be fb23 58bd 141a 12be 272d 4f3e
00000370: 27bd 983d 7927 5ebd cf34 fa3d f47b 20be
00000380: edb4 873b d014 703c 68b3 b739 a85b eb3a
00000390: e7ee 0cbb 5163 05bc 03d3 2e3c 7a92 cc3c
000003a0: 9048 d1b9 b332 d43a e5d3 573c 5c83 6d3c
000003b0: 0e43 b5b9 dc72 5ebc 54c9 203c d4a3 0d3b
000003c0: a4e6 723b 78e1 69bb ffd2 b9b9 8cb4 ebb9
000003d0: 4222 0b3c bbd9 0c3b 34fd 6538 6197 813b
000003e0: 9532 1bba 4a3b 13bb 2e9f df39 8a11 0e3a
000003f0: c3b4 66ba 8c9a 04bb d80a 9d39 a6c4 6dba

onnx::Conv_90 f4 [32]
-0.17010471 0.05393771 0.16454929 0.020599358 -0.030293154 -0.04192488 -0.34147197 0.043637127
-0.04411071 -0.13586783 -0.108334646 0.055796146 -5.402e-42 0.10940635 -0.050763577 -0.023097249
4.725e-42 -0.49339294 0.08170412 -5.4795e-41 -4.09489e-40 -0.07859844 -0.10137984 -0.015103541
-0.0004100129 0.24619319 0.16123132 0.24345616 0.13411573 0.09195942 0.26055276 0.19037998
00000000: ee2f 2ebe caed 5c3d 9c7f 283e fcbf a83c
00000010: 5929 f8bc 6cb9 2bbd 6ad5 aebe d8bc 323d
00000020: 6fad 34bd f020 0bbe 8ede ddbd 808a 643d
00000030: 0f0f 0080 7010 e03d 78ed 4fbd 7136 bdbc
00000040: 2c0d 0000 009e fcbe 7d54 a73d bf98 0080
00000050: 7d75 0480 38f8 a0bd 3ca0 cfbd d874 77bc
00000060: 00f7 d6b9 111a 7c3e d319 253e 924c 793e
00000070: a255 093e 3855 bc3d 2c67 853e f8f2 423e

onnx::Conv_92 f4 [64, 32, 3, 3]
-0.0 0.0 -0.0 -6.67349e-40 -3.20013e-40 -4.607e-42 1.3e-44 0.0
-0.0 0.0 0.0 -0.0 -0.0 -0.0 0.0 -0.0
0.0 -0.0 -0.0 -0.0 -0.0 -0.0 0.0 0.0
-0.0 -0.0 -0.0 -0.0 -0.0 0.0 0.0 0.0
0.0 0.0 -0.0 -0.0 0.0 0.0 0.0 -0.0
-0.0 0.0 0.0 -0.0 -0.0 -0.0 -0.0 -0.0
0.0 -0.0 -0.0 0.0 0.0 -0.0 -0.0 -0.0
-0.0 -0.0 0.0 -0.0 -0.0 0.0 0.0 -0.0
-0.0 -0.0 -0.0 0.0 0.0 0.0 -0.0 -0.0
-0.0 -0.0 0.0 0.0 -0.0 0.0 -0.0 0.0
0.0 0.0 0.0 0.0 -0.0 -0.0 -0.0 0.0
0.0 -0.0 0.0 -0.0 -0.0 -0.0 -0.0 0.0
0.0 0.0 -0.0 0.0 0.0 0.0 -0.0 -0.0
-0.0 -0.0 -0.0 -0.0 -0.0 -0.0 0.0 0.0
-0.0 -0.0 0.0 0.0 -0.0 -0.0 -0.0 -0.0
-0.0 0.0 -0.0 0.0 -0.0 0.0 -0.0 0.0
0.0 -0.0 0.0 -0.0 0.0 0.0 0.0 -0.0
-0.0 0.0 -0.0 -0.0 0.0 0.0 -0.0 -0.0
-0.0 -0.0 0.0 -0.0 0.0 -0.0 0.0 -0.0
-0.0 -0.0 -0.0 -0.0 0.0 -0.0 0.0 0.0
0.0 -0.0 0.0 -0.0 0.0 -0.0 0.0 0.0
0.0 0.0 -0.0 -0.0 -0.0 0.0 -0.0 0.0
0.0 0.0 -0.0 -0.0 -0.0 -0.0 0.0 0.0
-0.0 0.0 -0.0 0.0 0.0 -0.0 0.0 -0.0
-0.0 -0.0 0.0 -0.0 -0.0 0.0 -0.0 0.0
-0.0 0.0 -0.0 0.0 0.0 -0.0 0.0 0.0
-0.0 0.0 -0.0 0.0 -0.0 0.0 -0.0 -0.0
-0.0 -0.0 0.0 0.0 -0.0 0.0 -0.0 0.0
0.0 -0.0 0.0 -0.0 0.0 0.0 0.0 -0.0
0.0 -0.0 -0.0 -0.0 -0.0 0.0 -0.0 -0.0
-0.0 0.0 0.0 0.0 0.0 0.0 -0.0 0.0
-0.0 0.0 -1.41e-42 2.81729e-39 -0.0 0.0 0.0 -0.0
00000000: 0000 0080 0000 0000 0000 0080 4c44 0780
00000010: 117c 0380 d80c 0080 0900 0000 0000 0000
00000020: 0000 0080 0000 0000 0000 0000 0000 0080
00000030: 0000 0080 0000 0080 0000 0000 0000 0080
00000040: 0000 0000 0000 0080 0000 0080 0000 0080
00000050: 0000 0080 0000 0080 0000 0000 0000 0000
00000060: 0000 0080 0000 0080 0000 0080 0000 0080
00000070: 0000 0080 0000 0000 0000 0000 0000 0000
00000080: 0000 0000 0000 0000 0000 0080 0000 0080
00000090: 0000 0000 0000 0000 0000 0000 0000 0080
000000a0: 0000 0080 0000 0000 0000 0000 0000 0080
000000b0: 0000 0080 0000 0080 0000 0080 0000 0080
000000c0: 0000 0000 0000 0080 0000 0080 0000 0000
000000d0: 0000 0000 0000 0080 0000 0080 0000 0080
000000e0: 0000 0080 0000 0080 0000 0000 0000 0080
000000f0: 0000 0080 0000 0000 0000 0000 0000 0080
00000100: 0000 0080 0000 0080 0000 0080 0000 0000
00000110: 0000 0000 0000 0000 0000 0080 0000 0080
00000120: 0000 0080 0000 0080 0000 0000 0000 0000
00000130: 0000 0080 0000 0000 0000 0080 0000 0000
00000140: 0000 0000 0000 0000 0000 0000 0000 0000
00000150: 0000 0080 0000 0080 0000 0080 0000 0000
00000160: 0000 0000 0000 0080 0000 0000 0000 0080
00000170: 0000 0080 0000 0080 0000 0080 0000 0000
00000180: 0000 0000 0000 0000 0000 0080 0000 0000
00000190: 0000 0000 0000 0000 0000 0080 0000 0080
000001a0: 0000 0080 0000 0080 0000 0080 0000 0080
000001b0: 0000 0080 0000 0080 0000 0000 0000 0000
000001c0: 0000 0080 0000 0080 0000 0000 0000 0000
000001d0: 0000 0080 0000 0080 0000 0080 0000 0080
000001e0: 0000 0080 0000 0000 0000 0080 0000 0000
000001f0: 0000 0080 0000 0000 0000 0080 0000 0000
00000200: 0000 0000 0000 0080 0000 0000 0000 0080
00000210: 0000 0000 0000 0000 0000 0000 0000 0080
00000220: 0000 0080 0000 0000 0000 0080 0000 0080
00000230: 0000 0000 0000 0000 0000 0080 0000 0080
00000240: 0000 0080 0000 0080 0000 0000 0000 0080
00000250: 0000 0000 0000 0080 0000 0000 0000 0080
00000260: 0000 0080 0000 0080 0000 0080 0000 0080
00000270: 0000 0000 0000 0080 0000 0000 0000 0000
00000280: 0000 0000 0000 0080 0000 0000 0000 0080
00000290: 0000 0000 0000 0080 0000 0000 0000 0000
000002a0: 0000 0000 0000 0000 0000 0080 0000 0080
000002b0: 0000 0080 0000 0000 0000 0080 0000 0000
000002c0: 0000 0000 0000 0000 0000 0080 0000 0080
000002d0: 0000 0080 0000 0080 0000 0000 0000 0000
000002e0: 0000 0080 0000 0000 0000 0080 0000 0000
000002f0: 0000 0000 0000 0080 0000 0000 0000 0080
00000300: 0000 0080 0000 0080 0000 0000 0000 0080
00000310: 0000 0080 0000 0000 0000 0080 0000 0000
00000320: 0000 0080 0000 0000 0000 0080 0000 0000
00000330: 0000 0000 0000 0080 0000 0000 0000 0000
00000340: 0000 0080 0000 0000 0000 0080 0000 0000
00000350: 0000 0080 0000 0000 0000 0080 0000 0080
00000360: 0000 0080 0000 0080 0000 0000 0000 0000
00000370: 0000 0080 0000 0000 0000 0080 0000 0000
00000380: 0000 0000 0000 0080 0000 0000 0000 0080
00000390: 0000 0000 0000 0000 0000 0000 0000 0080
000003a0: 0000 0000 0000 0080 0000 0080 0000 0080
000003b0: 0000 0080 0000 0000 0000 0080 0000 0080
000003c0: 0000 0080 0000 0000 0000 0000 0000 0000
000003d0: 0000 0000 0000 0000 0000 0080 0000 0000
000003e0: 0000 0080 0000 0000 ee03 0080 75ad 1e00
000003f0: 0000 0080 0000 0000 0000 0000 0000 0080

onnx::Conv_93 f4 [64]
-2.907274e-14 0.0074851885 4.148e-42 -0.080496944 0.0038992316 -0.011256256 3.423e-41 4.24e-42
1.61e-41 -0.04530959 0.09276214 0.17913714 -8.562e-42 -1.6495e-41 -1.4372e-41 -1.8151e-41
-8.2559545e-33 -1.2857e-41 -5.8006113e-26 -2.2059e-41 -1.6321e-41 -0.09193321 -0.18261501 1.3433e-41
1.51e-42 -4.557e-42 1.6635e-41 -6.2347856e-32 -0.040305834 -0.13217129 -9.333e-42 0.047234055
-2.7283e-41 8.221e-42 -2.1176e-41 -0.108442634 3.606e-42 -1.4813e-41 0.1205844 0.20740053
1.6198e-41 0.010863358 0.17347506 0.0114021 2.4125e-41 -2.3737e-41 -0.09845957 0.21949708
-0.09724927 0.047909245 0.0057323202 1.2378e-41 -1.2274e-41 -1.4506e-41 -7.458e-42 -0.27889603
4.748e-42 -7.828e-42 -0.013610089 2.492e-42 -0.013680585 -1.2333296e-11 0.0016519129 -2.2254e-41
00000000: 96ee 02a9 5046 f53b 900b 0000 95db a4bd
00000010: 408a 7f3b 296c 38bc 6b5f 0000 d20b 0000
00000020: e12c 0000 8c96 39bd 14fa bd3d ba6f 373e
00000030: de17 0080 fb2d 0080 1028 0080 9932 0080
00000040: 2f78 2b8a d723 0080 be9d 8f95 7e3d 0080
00000050: 7f2d 0080 7b47 bcbd 6eff 3abe 7225 0000
00000060: 3604 0000 b40c 0080 5f2e 0000 42dd a18b
00000070: bb17 25bd e957 07be 041a 0080 7f78 413d
00000080: 0e4c 0080 eb16 0000 083b 0080 2c17 debd
00000090: 0d0a 0000 4b29 0080 f4f4 f63d ce60 543e
000000a0: 272d 0000 3afc 313c 72a3 313e e0cf 3a3c
000000b0: 4043 0000 2b42 0080 2ca5 c9bd d8c3 603e
000000c0: a02a c7bd 7c3c 443d 30d6 bb3b 8122 0000
000000d0: 3722 0080 7028 0080 ca14 0080 76cb 8ebe
000000e0: 3c0d 0000 d215 0080 dafc 5ebc f206 0000
000000f0: 8824 60bc 3af8 58ad 0085 d83a 093e 0080

onnx::Conv_95 f4 [64, 64, 3, 3]
5.4443e-41 -1.67731e-40 -1.33081e-40 -1.0068e-41 -1.53755e-40 1.1664e-41 1.5409e-41 -8.845e-42
-1.40732e-40 -0.0028323792 -0.010633225 -0.0029785414 0.010749398 0.016772155 0.024172254 0.02576891
0.036443245 0.017596489 -4.09535e-40 -1.29173e-40 2.90818e-40 -4.31761e-40 -2.51843e-40 -3.24618e-40
-1.99204e-40 -1.3932e-41 -3.3934e-40 -0.0018199217 -0.003409778 -0.009683746 -0.013912357 -0.011123984
-0.004366558 -0.008114236 -0.01627066 -0.010057553 -0.012609343 -0.06636766 -0.053282887 -0.047117773
-0.077114806 -0.057887748 -0.00461423 -0.0015271968 -0.014816987 -1.2018678e-35 3.5129317e-25 1.6595441e-25
5.761363e-32 -4.0586488e-19 -3.62287e-22 -1.04150155e-35 -5.7661644e-18 -1.6928977e-20 3.132e-42 2.00114e-40
-3.31554e-40 -7.3954e-41 1.02921e-40 1.27548e-40 -2.61494e-40 1.4857e-41 2.87193e-40 -3.6789e-40
-2.78631e-40 2.30303e-40 -6.4751e-41 -7.0956e-41 -3.40071e-40 -1.0068e-41 4.0334e-41 1.97265e-40
-5.2597e-40 -2.34063e-40 -5.53998e-40 1.46431e-40 -1.04652e-40 1.26399e-40 -2.46711e-40 -9.1346e-41
2.5605e-40 0.0001787425 -0.00091167225 0.003854364 -0.0016843244 -0.00076360005 -6.969661e-05 -0.0011398996
-0.0007497861 -0.00038734786 0.002467019 -0.1086016 -0.0342228 -0.003675076 -0.07914762 -0.03524775
0.0064346604 -0.04066509 -0.013767478 0.082702674 -0.056845848 -0.013012049 0.019371832 -0.0908918
0.011958081 0.027174208 -0.07880326 -0.014853631 -5.57771e-40 5.24852e-40 -5.69227e-40 -4.62398e-40
-1.61302e-40 -2.99589e-40 2.34629e-40 2.30543e-40 2.36077e-40 -3.56986e-40 -7.3148e-41 -2.88551e-40
2.78842e-40 -5.6055e-41 1.51429e-40 1.0756e-40 -3.52436e-40 -1.369e-40 2.88208e-40 -4.6896e-41
2.70875e-40 -1.00982e-40 -2.67132e-40 -2.66818e-40 2.51261e-40 2.34212e-40 2.65954e-40 -3.25365e-40
-3.51855e-40 1.08127e-40 -1.21282e-40 1.9012e-40 3.38848e-40 2.41029e-40 -2.0265e-40 -1.16763e-40
-4.7597e-41 -1.57052e-40 1.76069e-40 1.43298e-40 -9.0734e-41 -2.00637e-40 1.4872e-41 -1.46923e-40
3.65324e-40 -4.28062e-40 -6.7405e-41 -3.6798e-40 3.58612e-40 1.39271e-40 -2.48323e-40 1.029e-42
4.02241e-40 8.1323e-41 1.4315e-40 2.76081e-40 -1.03562e-40 -1.3171e-40 -1.69983e-40 -1.62674e-40
1.47042e-40 1.7854e-41 8.7155e-41 -4.715e-41 -1.0762e-40 8.2769e-41 -3.34672e-40 1.59975e-40
-8.4484e-41 -1.23192e-40 -2.47636e-40 -3.09613e-40 -6.7286e-41 1.96295e-40 2.41536e-40 3.8574e-41
4.17396e-40 -7.5505e-41 9.9534e-41 1.3141e-41 -2.85478e-40 0.0021862742 0.006709758 0.0034869667
-0.005372202 -0.0040683034 -0.005373799 -0.004188159 0.0063809915 0.00015602597 0.0010569785 -0.045850392
-0.035730988 -0.029688565 -0.029836532 -0.05186405 -0.023929082 -0.0057864813 0.010123518 -9.2554e-41
-3.64132e-40 -3.91726e-40 2.7565e-41 -2.353e-40 -2.9034e-40 1.52756e-40 -2.85985e-40 1.23565e-40
-5.09116e-40 4.6344e-41 9.7924e-41 -1.36512e-40 -4.97853e-40 2.85478e-40 2.2508e-41 -7.5251e-41
3.789e-42 1.91507e-40 -5.11457e-40 -2.73948e-40 -4.31328e-40 -1.04024e-40 7.4402e-41 6.1499e-41
-6.6197e-41 -3.72e-41 3.62415e-40 2.64089e-40 -4.53e-41 -4.1231e-40 3.74721e-40 1.0201e-40
2.82286e-40 4.14487e-40 2.96561e-40 -1.53025e-40 -4.3481e-41 2.2128e-40 1.14555e-40 -3.356e-42
-1.31216e-40 -2.7819e-41 -1.74264e-40 1.20596e-40 -0.006810125 -0.009168881 -0.0034270987 0.0017830249
00000000: c497 0000 91d3 0180 fa72 0180 111c 0080
00000010: 9bac 0180 8420 0000 f42a 0000 a818 0080
00000020: 4e88 0180 709f 39bb fa36 2ebc a233 43bb
00000030: 3e1e 303c c265 893c e404 c63c 5219 d33c
00000040: 8345 153d 8326 903c 9e75 0480 1568 0180
00000050: af2a 0300 93b3 0480 09be 0280 e788 0380
00000060: 4d2b 0280 d626 0080 f1b1 0380 708a eeba
00000070: 9576 5fbb 93a8 1ebc a8f0 63bc 5f41 36bc
00000080: 5815 8fbb 93f1 04bc 0c4a 85bc 6fc8 24bc
00000090: 6b97 4ebc c5eb 87bd 283f 5abd 91fe 40bd
000000a0: 5eee 9dbd b41b 6dbd f732 97bb 392c c8ba
000000b0: f3c2 72bc e89b 7f85 a070 d916 0d71 4d16
000000c0: d392 950b 9194 efa0 33fd da9b bd80 5d85
000000d0: e2bb d4a2 c1e3 9f9e bb08 0000 d62d 0200
000000e0: 3d9c 0380 27ce 0080 e71e 0100 8d63 0100
000000f0: f0d8 0280 6a29 0000 9420 0300 8701 0480
00000100: b608 0380 fe81 0200 80b4 0080 ccc5 0080
00000110: fbb3 0380 111c 0080 6f70 0000 e525 0200
00000120: 31ba 0580 798c 0280 5208 0680 3198 0100
00000130: ba23 0180 5960 0100 bbaf 0280 a3fe 0080
00000140: c3c9 0200 d36c 3b39 4afd 6eba 7f99 7c3b
00000150: 8cc4 dcba 552c 48ba 152a 92b8 af68 95ba
00000160: 4b8d 44ba f314 cbb9 b6ad 213b 846a debd
00000170: 352d 0cbd 8bd9 70bb 2618 a2bd f25f 10bd
00000180: d8d9 d23b 7090 26bd fd90 61bc 0560 a93d
00000190: 31d7 68bd 7d30 55bc adb1 9e3c 7b25 babd
000001a0: d4eb 433c 729c de3c 9b63 a1bd a55c 73bc
000001b0: d712 0680 13b7 0500 c632 0680 fa08 0580
000001c0: a5c1 0180 2243 0380 0d8e 0200 a982 0200
000001d0: 1692 0200 22e3 0380 e8cb 0080 5d24 0380
000001e0: 4c09 0300 429c 0080 1fa6 0100 d52b 0100
000001f0: 73d6 0380 9f7d 0180 6823 0300 ba82 0080
00000200: 17f3 0200 7f19 0180 a8e8 0280 c8e7 0280
00000210: 6abc 0200 e38c 0200 5fe5 0200 fc8a 0380
00000220: d4d4 0380 6a2d 0100 1652 0180 fa11 0200
00000230: 92b0 0300 e49f 0200 e834 0280 7d45 0180
00000240: ae84 0080 ccb5 0180 cfea 0100 758f 0100
00000250: eefc 0080 4b2f 0280 7529 0000 9099 0180
00000260: 60fa 0300 43a9 0480 e6bb 0080 c701 0480
00000270: aae7 0300 3b84 0100 39b4 0280 de02 0000
00000280: 4961 0400 b2e2 0000 0b8f 0100 9a01 0300
00000290: b020 0180 276f 0180 d8d9 0180 78c5 0180
000002a0: e599 0100 c531 0000 f4f2 0000 6f83 0080
000002b0: 002c 0180 bae6 0000 eea4 0380 f2bd 0100
000002c0: 82eb 0080 6957 0180 4fb2 0280 135f 0380
000002d0: 91bb 0080 3123 0200 4ea1 0200 876b 0000
000002e0: 888b 0400 7ad2 0080 7615 0100 a224 0000
000002f0: cc1b 0380 9847 0f3b 88dd db3b 9885 643b
00000300: 4c09 b0bb 674f 85bb b116 b0bb d33c 89bb
00000310: a317 d13b e79a 2339 508a 8a3a 9fcd 3bbd
00000320: a85a 12bd 6f35 f3bc be6b f4bc 666f 54bd
00000330: ec06 c4bc 869c bdbb 1ddd 253c 0102 0180
00000340: 0df7 0380 f943 0480 d74c 0000 ec8f 0280
00000350: 5a29 0380 d2a9 0100 361d 0380 7358 0100
00000360: 358b 0580 3081 0000 f910 0100 8a7c 0180
00000370: d06b 0580 cc1b 0300 be3e 0000 c5d1 0080
00000380: 900a 0000 d815 0200 bc91 0580 a8fb 0280
00000390: 5eb2 0480 fa21 0180 67cf 0000 6fab 0000
000003a0: 88b8 0080 b367 0080 44f2 0300 2ce0 0200
000003b0: 477e 0080 5a7d 0480 9214 0400 5d1c 0100
000003c0: e612 0300 6c83 0400 b13a 0300 92aa 0180
000003d0: 3579 0080 d768 0200 553f 0100 5b09 0080
000003e0: c76d 0180 8c4d 0080 c7e5 0180 2c50 0100
000003f0: 7827 dfbb 1339 16bc 2d99 60bb 63b4 e93a

onnx::Conv_96 f4 [64]
0.06785341 -0.15698548 0.00040092022 -4.4849927e-05 -0.2808758 0.016968599 -1.0579077e-08 -3.405609e-29
-0.26500946 -6.1138447e-30 -5.3943995e-17 -1.616949e-08 0.030544637 0.036470555 -0.2395666 0.00037733457
6.7491212e-12 -4.977047e-32 -2.9215595e-18 -0.11661391 1.83071e-40 0.03377877 0.2563057 -0.014875083
-4.131283e-21 -7.302219e-18 0.0034740425 4.687768e-36 -8.7374e-41 -0.16279271 0.025210852 -1.4551218e-11
-2.673499e-32 -0.023668865 1.9767052e-36 0.060863305 -1.086074e-08 0.00048399856 -5.636624e-09 0.024559643
0.07033701 -0.33221793 0.34866807 2.099e-42 0.11447496 -2.6254827e-35 0.26090255 -3.1812495e-33
-2.6658705e-16 -1.8717432e-37 0.07172012 1.362e-41 0.19566229 0.025523746 0.23389558 7.7578214e-08
-9.586758e-08 -0.08850901 0.003972251 -9.4286453e-17 -0.17803009 -0.36865264 0.10539721 0.32880428
00000000: bbf6 8a3d cdc0 20be 9a32 d239 3e1d 3cb8
00000010: f4ce 8fbe bb01 8b3c 46bf 35b2 55af 2c90
00000020: 52af 87be cb01 f88e d4c5 78a4 16e5 8ab2
00000030: bf38 fa3c 2662 153d f250 75be fdd4 c539
00000040: ae76 ed2c 2736 818b b392 57a2 46d3 eebd
00000050: 54fe 0100 9c5b 0a3d 803a 833e 9fb6 73bc
00000060: 5113 9c9d c1b3 06a3 c3ac 633b 4665 c704
00000070: 90f3 0080 22b3 26be fd86 ce3c dcfc 7fad
00000080: e6d0 0a8b 35e5 c1bc d428 2804 cd4b 793d
00000090: 0a96 3ab2 30c1 fd39 45ac c1b1 4e31 c93c
000000a0: da0c 903d 7818 aabe 9f84 b23e da05 0000
000000b0: d971 ea3d 3898 0b86 0595 853e d924 8489
000000c0: 4ead 99a5 bbc4 7e82 00e2 923d f825 0000
000000d0: b25b 483e 2d17 d13c 5382 6f3e 1399 a633
000000e0: c2df cdb3 3644 b5bd a829 823b e668 d9a4
000000f0: 854d 36be 0ac0 bcbe 7eda d73d 0959 a83e
