cmd/ai/datas/models/panda_in_a_forest.onnx (onnx, 303077 bytes, 16 tensors)

fc.weight f4 [2, 256]
-0.08918707 -0.04156446 -0.1851706 -0.14766404 -0.15804343 -0.15539655 -0.121184826 -0.1039747
-0.0061507868 0.044314757 -0.03590567 0.043705173 0.04046647 0.06509091 -0.05374346 -0.047743578
0.08908242 0.099298194 0.09659274 0.12333251 0.06759524 0.17710793 0.007306469 0.039849285
0.1335206 0.027940081 0.06683153 -0.04824217 -0.0744741 -0.10812768 0.025600612 0.041121036
0.110472694 0.0743173 0.10928951 0.08814947 -0.07549834 -0.07918507 0.05360255 0.061891187
-0.040172804 -0.079552196 0.0643043 0.048903655 6.4606435e-14 7.431141e-14 7.0084434e-14 -7.559252e-13
-0.033619404 -0.042291597 0.067828506 0.029638791 0.17189327 0.16426891 0.12792283 0.13951889
0.04695574 0.07008846 0.027720768 0.08248177 -0.028906563 0.0845462 -0.0656816 0.07683049
0.10509388 0.13791622 -0.10156844 -0.06912222 -0.045375753 -0.056471165 0.0690878 0.057477415
5.5863396e-08 4.5836728e-08 -2.8016808e-07 -9.343165e-08 -0.103065036 -0.11674994 -0.06666135 -0.04377017
0.0026995076 0.004403539 -0.006134354 -0.002851399 8.339518e-18 8.763541e-18 9.78751e-18 3.0634876e-18
0.13168108 -0.06866246 0.12610117 -0.053018305 -0.058998134 -0.12664929 -0.039018687 -0.13661008
-5.311495e-11 -2.286137e-10 -5.6755264e-11 -2.455964e-10 3.206177e-05 7.5515136e-06 -6.0783863e-05 -2.410153e-05
0.0036072412 0.0082982415 -0.095207326 -0.107354425 -0.012326627 -0.034141067 0.061569646 -0.011524018
0.077572934 0.07308249 -0.05447128 -0.082544126 -0.15328228 -0.22301914 -0.074838705 -0.16021171
0.14551836 0.00442358 0.12811537 -0.0392477 -0.07607834 -0.07842614 0.060174808 0.044110905
0.007497604 -0.0012221985 0.0008475135 -0.009322443 -0.030038163 0.11415319 0.00038931106 0.11154056
0.116515025 -0.012975282 0.08748578 -0.072185986 0.07362877 0.10706244 -0.060874205 0.031438075
0.022256345 0.03410754 -0.01906425 -0.03002198 0.08638602 0.09358181 -0.09295548 -0.093756564
-0.03281031 -0.0168693 0.021198364 0.037515346 0.1319877 0.094643265 0.15102814 0.07802601
0.104154676 0.1359969 0.118928514 0.12533282 0.09077531 0.0066810045 0.07874279 -0.055390105
-0.15738478 -0.11790684 -0.05447655 -0.0348574 0.012518718 0.009958726 -0.011557663 -0.009045094
0.19714075 0.043825343 0.14917223 0.052952357 -0.007314448 0.06549872 -0.034772027 0.044492975
-0.13661706 -0.069816224 -0.16267566 -0.09927486 -0.012227758 -0.037528735 0.037765272 0.026630677
-4.1264766e-08 4.113731e-09 -1.9578172e-07 1.4131744e-09 0.0967065 0.12787862 -0.09215185 -0.08870157
0.15163924 0.10575971 0.15602584 0.14663582 0.06214228 0.055849407 -0.04243249 -0.03523302
-0.07294962 -0.120938934 -0.11229856 -0.092647806 0.072037205 0.07187771 0.033530794 0.109933704
-0.08442898 -0.13603914 -0.15557785 -0.1367973 -0.049335636 -0.043628983 0.047810663 0.029590204
0.049258742 0.0038471483 -0.014535537 -0.019684628 0.040091544 0.17797907 -0.11569798 -0.04775755
-0.021102961 -0.049693126 0.05121219 0.005037685 -4.2254488e-11 2.499559e-14 -2.9547188e-11 1.0535412e-14
-0.0015395863 -0.00081593805 0.0012357007 0.0016166256 0.107103415 -0.004908305 0.07153228 -0.064714834
-0.046227675 -0.1497246 -0.03067734 -0.12993155 0.020342255 -0.015778849 -0.1512606 -0.16343622
00000000: b6a7 b6bd 7f3f 2abd 5d9d 3dbe 3e35 17be
00000010: 23d6 21be 4620 1fbe c02f f8bd b0f0 d4bd
00000020: 8a8c c9bb 6483 353d d311 13bd 3204 333d
00000030: 2bc0 253d 624e 853d 1a22 5cbd c58e 43bd
00000040: d870 b63d da5c cb3d 6ad2 c53d c195 fc3d
00000050: 606f 8a3d c85b 353e 1b6b ef3b 0139 233d
00000060: a0b9 083e 99e2 e43c f8de 883d 9599 45bd
00000070: e085 98bd 0c72 ddbd 60b8 d13c 886e 283d
00000080: 823f e23d ab33 983d 2ed3 df3d b687 b43d
00000090: e09e 9abd c82b a2bd 598e 5b3d 9d81 7d3d
000000a0: 3d8c 24bd 43ec a2bd f9b1 833d 334f 483d
000000b0: 137b 9129 9c55 a729 edd0 9d29 27c6 54ab
000000c0: 80b4 09bd f439 2dbd ace9 8a3d 0dcd f23c
000000d0: ca04 303e 1c36 283e 34fe 023e 0ade 0e3e
000000e0: a954 403d 8a8a 8f3d aa16 e33c 34ec a83d
000000f0: 75cd ecbc 8f26 ad3d 1384 86bd 4e59 9d3d
00000100: 763b d73d e939 0d3e 1d03 d0bd f38f 8dbd
00000110: eddb 39bd 4f4e 67bd e87d 8d3d 706d 6b3d
00000120: 74ee 6f33 04de 4433 026a 96b4 98a4 c8b3
00000130: c313 d3bd 981a efbd bf85 88bd 5a48 33bd
00000140: 39ea 303b 904b 903b b102 c9bb 89de 3abb
00000150: 43d6 1923 a7a8 2123 368c 3423 a50b 6222
00000160: 68d7 063e e79e 8cbd aa20 013e b929 59bd
00000170: 07a8 71bd 5ab0 01be 0fd2 1fbd 83e3 0bbe
00000180: 1e9a 69ae 095d 7baf bf9c 79ae 9f04 87af
00000190: 107a 0638 0263 fd36 2df2 7eb8 a42d cab7
000001a0: 7767 6c3b 59f5 073c 0ffc c2bd a3dc dbbd
000001b0: 9ff5 49bc 81d7 0bbd 7430 7c3d 3ccf 3cbc
000001c0: 8fde 9e3d 46ac 953d 471d 5fbd e50c a9bd
000001d0: 08f6 1cbe 215f 64be 0945 99bd 8a0e 24be
000001e0: c402 153e aef3 903b ad30 033e 32c2 20bd
000001f0: f6ce 9bbd e29d a0bd dc79 763d a3ad 343d
00000200: 76ae f53b 2d32 a0ba ab2b 5e3a 29bd 18bc
00000210: 9812 f6bc 26c9 e93d 721c cc39 616f e43d
00000220: 6e9f ee3d 4796 54bc bf2b b33d 3fd6 93bd
00000230: aeca 963d 8d43 db3d 3b57 79bd 36c5 003d
00000240: f052 b63c 59b4 0b3d a12c 9cbc a8f0 f5bc
00000250: 27eb b03d d2a7 bf3d 715f bebd 7103 c0bd
00000260: 1b64 06bd 7c31 8abc 31a8 ad3c b1a9 193d
00000270: c927 073e 54d4 c13d 1fa7 1a3e 1acc 9f3d
00000280: 0c4f d53d c542 0b3e cb90 f33d 3f57 003e
00000290: 68e8 b93d 54ec da3b e643 a13d bce0 62bd
000002a0: 7a29 21be 2479 f1bd ce22 5fbd a2c6 0ebd
000002b0: 4f1b 4d3c ed29 233c 5a5c 3dbc e031 14bc
000002c0: 44df 493e 3482 333d 9bc0 183e 92e4 583d
000002d0: 09ae efbb 3124 863d 1d6d 0ebd 443e 363d
000002e0: 58e5 0bbe cffb 8ebd 7394 26be 9e50 cbbd
000002f0: ef56 48bc bbb7 19bd c2af 1a3d 9428 da3c
00000300: 173b 31b3 c358 8d31 1238 52b4 a739 c230
00000310: 0f0e c63d 9df2 023e 1cba bcbd 2ba9 b5bd
00000320: 5147 1b3e 8c98 d83d 3dc5 1f3e b327 163e
00000330: e788 7e3d 59c2 643d b1cd 2dbd 8050 10bd
00000340: 9c66 95bd d5ae f7bd cafc e5bd 22be bdbd
00000350: 3e88 933d 9f34 933d 9657 093d ec24 e13d
00000360: 1ae9 acbd d84d 0bbe cd4f 1fbe 9714 0cbe
00000370: 2a14 4abd 4eb4 32bd 1dd5 433d 2867 f23c
00000380: 89c3 493d 7020 7c3b 7626 6ebc a841 a1bc
00000390: 0837 243d 2540 363e 10f3 ecbd 6c9d 43bd
000003a0: 1ee0 acbc 058b 4bbd e0c3 513d 2a13 a53b
000003b0: 53d6 39ae e823 e128 2df3 01ae 03ca 3d28
000003c0: f2cb c9ba ade4 55ba 3cf7 a13a f4e4 d33a
000003d0: 0959 db3d d9d5 a0bb 847f 923d 3689 84bd
000003e0: 3b59 3dbd 6851 19be 0c4f fbbc c70c 05be
000003f0: cda4 a63c a542 81bc 0fe4 1abe d35b 27be

fc.bias f4 [2]
0.029309591 0.042527296
00000000: ab1a f03c 1a31 2e3d

onnx::Conv_80 f4 [16, 3, 7, 7]
-0.16421112 -0.17098506 -0.09253495 0.01920024 -0.05905134 0.05957144 -0.06686403 -0.16601412
-0.09261701 0.038846057 0.062024955 -0.041856002 -0.076392695 0.006985988 -0.099551074 0.1009027
0.07565387 -0.071931705 0.062913276 0.051617533 0.07044066 0.07746051 0.104379974 0.0527788
-0.04188076 -0.08217319 -0.01847147 0.055921167 -0.0013372205 -0.011896982 0.05639788 -0.11285494
-0.01649694 0.0032357785 0.038613882 -0.08728167 0.047264624 0.09715533 -0.12104656 -0.14191297
-0.14612076 -0.00082882616 -0.072116464 0.12698267 -0.036735974 -0.09711957 -0.14954603 -0.14903176
-0.018281315 0.039561693 -0.0030795708 -0.060460765 0.061864816 0.006615563 0.013752974 -0.064564385
-0.06045268 0.037656914 0.09031655 -0.020629149 0.078602985 -0.020246647 0.10709241 0.005496508
0.10281948 0.015540975 0.05734869 -0.031245556 -0.027152782 0.09928259 -0.007960409 0.031052252
0.049629726 -0.030503038 -0.047615446 0.040811714 -0.018703252 0.015776465 0.075717635 -0.029228136
0.049879786 0.060263947 -0.017585602 0.070111476 0.055972017 0.041811515 0.03385177 -0.020878226
-0.08077988 -0.040138993 -0.02416608 -0.048836164 0.081432976 0.049398314 0.021669187 0.025609348
0.048497867 0.10059694 -0.20207706 -0.048619613 -0.049445678 0.05945165 0.060305692 0.022613646
0.09456533 -0.10343198 0.025034862 0.008892051 0.07495614 0.08007033 0.07171963 0.042832367
-0.062722564 0.13908817 0.087165385 0.08361849 0.14775045 0.17047375 0.121436834 -0.040096316
0.14785957 0.0911106 0.09649685 0.087211646 0.0935734 0.1728171 -0.04597657 0.14924712
0.10320797 0.06671699 0.06332485 0.101907305 0.14490645 0.026825279 0.06547382 0.04784964
0.076344535 -0.02109738 -0.02951879 0.049762014 -0.07072539 0.1293923 0.1035175 -0.051201425
-0.04751391 -0.013955971 0.0529656 -0.025996214 -0.042257823 0.020217096 -0.08158217 -0.027113743
-0.0705155 -0.022237 -0.03861505 -0.02120413 -0.011743263 -0.029888188 0.030969078 0.05045271
0.07192708 -0.0409123 -0.095501505 -0.011940214 0.014595213 0.06287009 0.055973113 0.08465663
-0.029610828 -0.06620619 -0.04460845 -0.06950763 -0.018312173 0.062431272 0.057947647 -0.053455036
-0.020265957 0.016979173 0.03539553 0.06458373 0.07795793 0.036629654 -0.057009596 -0.02806511
-0.03232783 -0.043273736 0.04332222 0.067060664 0.047828246 -0.119579844 -0.058125414 0.008036426
-0.06947069 0.04473607 0.030821076 0.16954944 -0.08627767 -0.09142823 -0.06458436 -0.17118081
-0.07042464 -0.1569263 -0.12801503 -0.05464959 -0.019757286 -0.0017303082 0.034436733 0.006634632
0.022006057 -0.00023575072 -0.09361964 -0.08418508 -0.07475292 -0.0021161055 0.034178466 0.053027093
-0.03120756 -0.12617308 -0.1573705 -0.119183846 -0.021805692 -0.015052967 0.0315618 -0.031091731
-0.08303845 -0.07146315 -0.09900322 -0.059061464 -0.023386478 0.015455964 0.023240885 -0.08074892
-0.028884238 0.010141376 0.0030435766 -0.03895549 -0.008256551 0.07753416 -0.08119901 -0.095569424
-0.12412002 -0.099332705 0.042853124 0.022106705 -0.016807564 -0.0548088 -0.014955561 -0.080141306
0.07184199 0.06757036 0.02374007 -0.040873818 -0.05135696 -0.0006890125 0.014097886 0.060598392
00000000: f626 28be b516 2fbe f782 bdbd d249 9d3c
00000010: d1df 71bd 2f01 743d 02f0 88bd 9bff 29be
00000020: fdad bdbd 0b1d 1f3d e10d 7e3d 3371 2bbd
00000030: c673 9cbd b7ea e43b 6fe1 cbbd 13a6 ce3d
00000040: 6bf0 9a3d ee50 93bd add8 803d e86c 533d
00000050: 3143 903d 9ea3 9e3d 2bc5 d53d 952e 583d
00000060: 298b 2bbd 6b4a a8bd 7b51 97bc 980d 653d
00000070: ad45 afba 8feb 42bc 7701 673d 7e20 e7bd
00000080: 9724 87bc 5b0f 543b 9729 1e3d bbc0 b2bd
00000090: 8d98 413d 60f9 c63d 42e7 f7bd a251 11be
000000a0: aea0 15be 9545 59ba ccb1 93bd bf07 023e
000000b0: 7678 16bd a0e6 c6bd 9822 19be c89b 18be
000000c0: b2c2 95bc 710b 223d a0d2 49bb b5a5 77bd
000000d0: f665 7d3d 5dc7 d83b 2754 613c 553a 84bd
000000e0: 3b9d 77bd 233e 1a3d e2f7 b83d 76fe a8bc
000000f0: 9afa a03d 4cdc a5bc 4453 db3d 0d1c b43b
00000100: 0593 d23d 939f 7e3c 76e6 6a3d aef6 ffbc
00000110: 836f debc ac54 cb3d 606c 02bc 4b61 fe3c
00000120: 8a48 4b3d 82e1 f9bc 6a08 43bd 2f2a 273d
00000130: 9037 99bc a53d 813c d911 9b3d d86f efbc
00000140: bf4e 4c3d 54d7 763d ae0f 90bc 9b96 8f3d
00000150: ea42 653d 8d42 2b3d 27a8 0a3d d008 abbc
00000160: ec6f a5bd c968 24bd f1f7 c5bc 6e08 48bd
00000170: 55c6 a63d e355 4a3d 9483 b13c b2ca d13c
00000180: b3a5 463d c505 ce3d 4aed 4ebe 5c25 47bd
00000190: 8d87 4abd 9383 733d 1a03 773d 4140 b93c
000001a0: 78ab c13d 25d4 d3bd e915 cd3c f7af 113c
000001b0: 9b82 993d eafb a33d bee1 923d fe70 2f3d
000001c0: b074 80bd 216d 0e3e c483 b23d 2c40 ab3d
000001d0: e54b 173e ac90 2e3e e0b3 f83d 093c 24bd
000001e0: 8068 173e 3298 ba3d 24a0 c53d 059c b23d
000001f0: 69a3 bf3d f7f6 303e ee51 3cbd 3dd4 183e
00000200: b35e d33d eba2 883d 75b0 813d c7b4 d03d
00000210: 5b62 143e b0c0 db3c 2317 863d fcfd 433d
00000220: 865a 9c3d 6ad4 acbc 64d1 f1bc 41d3 4b3d
00000230: 79d8 90bd 6a7f 043e fc00 d43d 96b8 51bd
00000240: f29d 42bd 96a7 64bc 75f2 583d 03f6 d4bc
00000250: 8a16 2dbd 539e a53c 8e14 a7bd a41d debc
00000260: 6e6a 90bd 5e2a b6bc d12a 1ebd 49b4 adbc
00000270: d166 40bc 13d8 f4bc ddb2 fd3c 80a7 4e3d
00000280: 814e 933d a893 27bd 4b96 c3bd e3a0 43bc
00000290: c320 6f3c 09c2 803d 1044 653d 7560 ad3d
000002a0: 6892 f2bc 1c97 87bd 5ab7 36bd 045a 8ebd
000002b0: 6903 96bc efb7 7f3d 835a 6d3d abf3 5abd
000002c0: cb04 a6bc e817 8b3c e7fa 103d 7a44 843d
000002d0: 68a8 9f3d fa08 163d e582 69bd cde8 e5bc
000002e0: 306a 04bd cd3f 31bd a472 313d 1a57 893d
000002f0: 8de7 433d 47e6 f4bd ea14 6ebd 37ab 033c
00000300: a646 8ebd 2b3d 373d 7b7c fc3c 5e9e 2d3e
00000310: 59b2 b0bd b93e bbbd ce44 84bd 064a 2fbe
00000320: cb3a 90bd 4ab1 20be 5f16 03be 40d8 5fbd
00000330: 08da a1bc 82cb e2ba 880d 0d3d 5467 d93b
00000340: 0c46 b43c da33 77b9 a7bb bfbd 3a69 acbd
00000350: 0f18 99bd 5cae 0abb b8fe 0b3d f032 593d
00000360: ffa6 ffbc 8433 01be bb25 21be a916 f4bd
00000370: daa1 b2bc b8a0 76bc f246 013d 16b4 febc
00000380: 1010 aabd 465b 92bd 33c2 cabd 6fea 71bd
00000390: 0095 bfbc 033b 7d3c ab63 be3c b15f a5bd
000003a0: a39e ecbc 0428 263c be76 473b cb8f 1fbd
000003b0: 7c46 07bc 3bca 9e3d ab4b a6bd e7b9 c3bd
000003c0: a332 febd f26e cbbd c286 2f3d 1f19 b53c
000003d0: 04b0 89bc 317f 60bd 2b08 75bc 2021 a4bd
000003e0: e521 933d 5462 8a3d 897a c23c 4e6b 27bd
000003f0: ad5b 52bd d99e 34ba d2fa 663c 0536 783d

onnx::Conv_81 f4 [16]
-0.6557586 0.41106328 -0.38075602 0.46691483 -0.5595731 0.16095027 0.07324031 -0.48769993
-0.24849872 -0.62000775 0.17880675 -0.8054818 0.47382325 0.8909159 -0.23544085 -0.24100077
00000000: ccdf 27bf e376 d23e 74f2 c2be 760f ef3e
00000010: 2f40 0fbf 26d0 243e 04ff 953d ceb3 f9be
00000020: 7376 7ebe d4b8 1ebf 1e19 373e 0e34 4ebf
00000030: f698 f23e 1013 643f 6817 71be e8c8 76be

onnx::Conv_83 f4 [32, 16, 3, 3]
-0.00991962 -0.002248902 0.0024229938 -0.013145968 -0.013936949 -0.011521726 -0.0060670287 -0.014769957
-0.014060236 0.015019424 0.021270065 0.01685497 -0.013623772 -0.014046823 0.0003549389 -0.030264875
-0.015402206 0.0073735984 -0.0026334324 -0.0128497025 -0.019262275 -0.012866659 -0.019882886 -0.021184482
0.021248514 0.020679591 0.018636828 -1.9001913e-05 0.0022731381 -0.0017696988 -0.00073682814 -0.000101034035
-0.0027371086 0.0028984933 0.009616541 0.004347828 -0.0036918973 -0.0027652378 -0.00042668873 -8.471634e-05
6.727211e-05 0.00095365854 0.0011472413 -0.00078299706 0.00020438181 0.02626024 0.02342363 0.03790637
0.00029446065 -0.0050786547 0.014963824 -0.017211875 -0.012498371 0.0015140981 -0.006612671 -0.005101375
-0.008064493 -0.0031034534 0.011461544 -0.006981046 0.025330173 0.05977222 0.029031504 -0.009900734
-0.007623416 -0.0028562434 -0.006192687 -0.0072024404 -0.0020634565 0.002689768 -0.0007767189 0.0021676696
0.001572704 0.0023262429 0.00974355 -0.0015443102 -0.00724079 0.0022694953 -0.0032240094 -0.007555613
-0.0014288126 -0.0048690257 -0.0048512337 -0.003233476 -0.005251973 -0.0076410957 -0.007982302 0.0002409669
-0.003376159 -0.005225052 -0.007856425 -0.0059162797 0.00893759 -0.0152734285 -0.004317358 0.015695283
-0.015679326 -0.011456108 -0.0091237305 -0.013101849 -0.00533064 -0.003267977 -0.01227571 -0.008811202
-0.010240037 -0.005849712 -0.0065243137 -0.0117086405 -0.005463252 -0.008440281 -0.014870796 -0.006231147
0.0062304176 -0.013510362 0.002655093 0.0286095 -0.010798202 0.0042829723 0.010694502 0.0041388427
-0.010409419 -0.001451314 -0.009388047 -0.016574273 0.0022920705 0.0004773943 0.013592119 0.004682625
0.013681513 0.011301347 -0.0014333539 0.00839382 0.019420115 0.009309639 0.022602499 -0.0034481406
0.0001234837 0.007895848 -0.010643742 -0.0148560675 -0.008871778 -0.00907232 -0.013246284 -0.011524993
-0.011210886 0.024146963 -0.004808195 0.04176261 0.04123972 -0.00040411123 0.05547624 0.026406657
-0.0026103994 0.040037647 0.026975526 -0.013918017 0.016814249 0.025284074 0.030233117 0.0051338156
0.016838074 0.029105693 -0.034592118 -0.009797289 0.023095138 -0.044544406 0.023585074 0.069814496
-0.009717482 0.007675616 0.092926174 -0.0029539927 -0.0020571477 0.0030803308 0.031707957 0.03202952
0.02393373 0.042083036 0.04269602 0.032053314 -0.009278912 0.0019042081 0.02254756 -0.012930692
0.027566003 0.02182739 0.02291262 0.024158861 0.018893646 0.026564846 -0.009772969 0.0064505385
0.005711137 -0.050670803 -0.030332303 0.021982962 0.01766608 -0.027741564 -0.07787185 -0.012824294
0.020456301 0.017071925 0.011468641 -0.0024183916 0.075685985 0.047636632 0.0018345162 0.024850251
0.03287877 0.012079338 0.0139515605 0.038482282 0.021270113 0.033103403 0.023972288 0.027807321
0.034284376 0.017673004 0.019768365 0.0007334269 -0.014497059 -0.034182727 0.00030440337 -0.01075241
-0.020792313 -0.05078214 -0.022377029 0.028228916 0.0035889922 0.032558564 0.028408062 0.035015218
0.027988756 0.034870148 0.0013566687 -0.00599167 0.028381443 0.045579825 0.02374967 0.0037399333
-0.03758019 -0.046153218 -0.07095593 -0.023704797 -0.011318607 0.011727152 0.0036661357 0.040583048
0.028007576 0.05938132 0.04256558 0.014046905 -0.03507847 -0.022005344 -0.010273928 0.03485293
00000000: e785 22bc 5162 13bb 17cb 1e3b 3062 57bc
00000010: cd57 64bc 9fc5 3cbc edcd c6bb b1fd 71bc
00000020: e75c 66bc 0814 763c 8f3e ae3c 6f13 8a3c
00000030: 3e36 5fbc a524 66bc 1817 ba39 0bee f7bc
00000040: 8959 7cbc 3a9e f13b aa95 2cbb 8f87 52bc
00000050: ebcb 9dbc aece 52bc 6fe1 a2bc 148b adbc
00000060: 5d11 ae3c 3f68 a93c 43ac 983c 4c66 9fb7
00000070: eef8 143b 3df5 e7ba b327 41ba 3ce2 d3b8
00000080: 1061 33bb a6f4 3d3b b28e 1d3c 3a78 8e3b
00000090: c2f3 71bb fe38 35bb 31b5 dfb9 bda9 b1b8
000000a0: 7014 8d38 f1fe 793a 085f 963a 0b42 4dba
000000b0: 534f 5639 b71f d73c eae2 bf3c b643 1b3d
000000c0: d761 9a39 d86a a6bb d42a 753c ebff 8cbc
000000d0: f8c5 4cbc b474 c63a 1baf d8bb 6f29 a7bb
000000e0: ef20 04bc 4f63 4bbb 33c9 3b3c 42c1 e4bb
000000f0: 3981 cf3c b7d3 743d 7ad3 ed3c b036 22bc
00000100: d9cd f9bb d02f 3bbb 06ec cabb 7302 ecbb
00000110: 0e3b 07bb d246 303b b99c 4bba 760f 0e3b
00000120: 3023 ce3a e173 183b 69a3 1f3c 746a caba
00000130: 2644 edbb d0bb 143b e749 53bb 1395 f7bb
00000140: ff46 bbba 598c 9fbb 19f7 9ebb bae8 53bb
00000150: be18 acbb 2862 fabb 34c8 02bc 0fac 7c39
00000160: 8c42 5dbb ea36 abbb 3cb8 00bc 5add c1bb
00000170: f86e 123c 673d 7abc a078 8dbb 6593 803c
00000180: ee71 80bc 66b2 3bbc b37b 15bc 23a9 56bc
00000190: a6ac aebb 8e2b 56bb 0f20 49bc dc5c 10bc
000001a0: d4c5 27bc f1ae bfbb e9c9 d5bb 99d5 3fbc
000001b0: 1405 b3bb 1b49 0abc a4a4 73bc a62e ccbb
000001c0: 8828 cc3b 915a 5dbc 1201 2e3b 785e ea3c
000001d0: f1ea 30bc 2d58 8c3b fe37 2f3c 219f 873b
000001e0: 458c 2abc 043a beba 53d0 19bc c5c6 87bc
000001f0: 9036 163b c74a fa39 7bb1 5e3c b570 993b
00000200: 6d28 603c 4929 393c 60df bbba 3c86 093c
00000210: ef16 9f3c 7587 183c e028 b93c 33fa 61bb
00000220: 677b 0139 965d 013c 1763 2ebc dd66 73bc
00000230: ef5a 11bc 11a4 14bc f106 59bc 53d3 3cbc
00000240: ddad 37bc dacf c53c 108e 9dbb 450f 2b3d
00000250: fbea 283d e4de d3b9 0e3b 633d c652 d83c
00000260: 3c13 2bbb 84fe 233d c7fb dc3c 6508 64bc
00000270: 09be 893c 8c20 cf3c 71ab f73c 9139 a83b
00000280: 00f0 893c 106f ee3c 77b0 0dbd cf84 20bc
00000290: 0432 bd3c 3274 36bd 7c35 c13c e7fa 8e3d
000002a0: 1336 1fbc bc83 fb3b 1450 be3d c697 41bb
000002b0: 36d1 06bb 60df 493b 34e0 013d 6331 033d
000002c0: ab10 c43c 435f 2c3d 06e2 2e3d 564a 033d
000002d0: 9406 18bc 9f96 f93a a9b5 b83c 41db 53bc
000002e0: 19d2 e13c 5bcf b23c 3fb3 bb3c cee8 c53c
000002f0: d9c6 9a3c 859e d93c ce1e 20bc 0a5f d33b
00000300: 7d24 bb3b 308c 4fbd 737b f8bc 9d15 b43c
00000310: 74b8 903c 4742 e3bc 477b 9fbd fd1c 52bc
00000320: f993 a73c 6cda 8b3c f8e6 3b3c e17d 1ebb
00000330: 4101 9b3d a11e 433d 2674 f03a c192 cb3c
00000340: e4ab 063d 6ae8 453c 1695 643c 999f 1d3d
00000350: a93e ae3c 6f97 073d 8861 c43c 2ecc e33c
00000360: c66d 0c3d fac6 903c 44f1 a13c 7243 403a
00000370: 1385 6dbc 3003 0cbd 5498 9f39 e02a 30bc
00000380: a454 aabc ef00 50bd 0850 b7bc 5440 e73c
00000390: 4c35 6b3b 215c 053d 06b8 e83c 1e6c 0f3d
000003a0: ad48 e53c 00d4 0e3d 3fd2 b13a c555 c4bb
000003b0: 3380 e83c e9b1 3a3d ab8e c23c ab19 753b
000003c0: afed 19bd 280b 3dbd 5851 91bd 9030 c2bc
000003d0: ae71 39bc 3e23 403c 8d43 703b 693a 263d
000003e0: 2570 e53c d439 733d 3f59 2e3d fd24 663c
000003f0: 71ae 0fbd 8d44 b4bc fa53 28bc f2c1 0e3d

onnx::Conv_84 f4 [32]
-0.001525633 -0.63853574 -0.02231815 -0.020802587 -0.000282567 0.10288897 -0.29036415 0.24580786
-0.42108876 0.52409655 -0.06784007 -0.14639409 -0.08093348 -2.8147726e-08 0.069868326 0.36661962
0.14981781 0.016881369 -0.23353507 -0.20572081 0.020476896 0.14092235 -0.0013441431 -0.2250855
0.21753584 -0.058268424 0.018924735 0.116831966 0.012579888 -0.11336257 0.024507202 -0.7934214
00000000: c0f7 c7ba 1477 23bf 8ed4 b6bc 306a aabc
00000010: 8025 94b9 74b7 d23d 9caa 94be 0eb5 7b3e
00000020: f298 d7be 312b 063f bcef 8abd 55e8 15be
00000030: 74c0 a5bd 81c9 f1b2 2017 8f3d 91b5 bb3e
00000040: d769 193e cc4a 8a3c d123 6fbe 7aa8 52be
00000050: 2abf a73c f34d 103e f52d b0ba d07c 66be
00000060: b7c1 5e3e dfaa 6ebd 0c08 9b3c 9945 ef3d
00000070: e01b 4e3c a32a e8bd 54c3 c83c aa1d 4bbf

onnx::Conv_86 f4 [32, 32, 3, 3]
0.0141787315 -0.0009554543 -0.00829636 0.012031371 0.01287577 0.008365647 -0.0062884786 -0.011949135
-0.019240208 0.10140224 -0.0068151136 -0.024151474 0.064035624 0.015288026 0.023184046 0.048067044
0.06507773 0.037595004 -0.0019192856 -0.006620722 0.024345981 -0.0026378855 -0.015562731 0.013907749
-0.005440899 -0.0008783168 0.021454902 0.052891165 -0.013440681 0.001363116 0.07182797 0.027346576
0.04095786 0.08825354 0.047997426 0.05564394 -0.007108112 -0.020844357 0.004867511 -0.012532167
-0.0429543 -0.018710224 -0.0040286817 -0.038290717 -0.021297935 -0.0010323379 -0.03051361 -0.05437899
0.04041649 -0.06422799 -0.07115514 0.087376624 0.0014081277 -0.019769298 0.03319869 -0.019516878
-0.011611367 -0.033441663 -0.0661369 -0.020661607 -0.018664947 -0.02247013 -0.016294587 0.09824334
0.027185993 0.017324004 0.06976775 -0.011377235 -0.016850388 0.011196613 -0.061768528 -0.04347492
0.02985146 0.097756274 0.028663384 0.057368092 0.06634899 0.013280202 0.10939343 0.12801398
0.0670634 -0.019112613 -0.025312496 0.013294984 -0.0025402321 -0.03727999 -0.03531258 0.024251448
-0.032815248 -0.023518141 0.030527042 0.07582542 0.07270645 0.020646855 0.029090242 0.042466033
-0.022854911 -0.014035491 0.02298378 0.01857355 -0.038674228 -0.06456015 -0.050071783 -0.064322166
-0.0727117 -0.037867654 -0.022590699 -0.016771492 0.01868551 -0.026354093 -0.009579719 0.049222525
0.011703076 0.01343764 0.04668771 0.014191807 0.0071907113 9.487562e-21 5.264962e-23 8.437333e-21
5.775375e-25 1.3286697e-23 2.4744092e-19 5.663283e-30 1.3296896e-24 2.0794733e-20 -0.01684815 -0.021071285
0.03356235 -0.003451533 -0.024390787 0.02474531 -0.012195112 -0.032590438 0.009253734 0.047632802
-0.029222313 -0.013613362 0.09099356 0.0047208853 -0.025715226 0.14335197 0.017146114 -0.032002367
-0.0043065413 0.0082778055 0.009832036 0.004675812 0.017333528 0.012351339 0.0074150553 0.0054431357
-0.0021949771 0.016860453 -0.04179606 -0.020825313 0.05201348 -0.015839128 0.012314951 0.05794769
-0.012120382 0.007481142 0.01783007 0.09450363 0.054243203 -0.078734376 0.008307334 0.0056007258
-0.05904503 0.0185432 0.025187045 0.008450455 0.02418843 -0.008364854 -0.019567702 -0.0097263735
-0.0065024816 -0.007502694 0.009315377 0.015886134 -0.006111215 -0.061078668 -0.15418682 0.05307472
-0.06069681 -0.06807191 0.050934736 0.06283994 -0.051813733 0.023081053 0.030635683 0.07369412
0.0130819455 0.010706045 0.06229744 -0.037680447 -0.037200224 -0.004753823 -8.28212e-08 3.766006e-06
3.0916517e-06 -7.193107e-07 -1.2163191e-06 -1.9189686e-06 -1.264396e-06 -3.6697156e-06 -2.9289918e-06 0.109315395
0.044910166 0.0082367025 -0.0029382694 0.00130397 -0.022582166 -0.028184269 -0.012062797 0.012754708
-0.021789916 -0.13749291 -0.1804473 0.0023197948 -0.101745196 -0.14067951 0.024384184 -0.07405123
-0.09390818 -0.0015879468 0.0027651237 -0.014855451 -0.016513554 0.0025522904 0.0045459503 -0.011504581
0.012439527 0.021904849 -0.028528424 -0.0202744 -0.020143889 -0.0034051612 0.009141457 0.007520928
-0.025907211 -0.023077276 -0.009628023 -0.0063512516 -0.003971982 -0.0016156029 -0.013912738 -0.0079752235
-0.011404333 -0.00962946 -0.009543704 -0.0062037315 -0.000684461 0.00052395486 0.0011285316 0.0009966416
00000000: e94d 683c 7477 7aba 75ed 07bc 3a1f 453c
00000010: e5f4 523c 1110 093c 950f cebb 4ec6 43bc
00000020: a49d 9dbc faab cf3d 5151 dfbb 50d9 c5bc
00000030: 1c25 833d a17a 7a3c 78ec bd3c f3e1 443d
00000040: 7947 853d 38fd 193d 8a90 fbba a4f2 d8bb
00000050: 3971 c73c 60e0 2cbb d3fa 7ebc 54dd 633c
00000060: 9249 b2bb d83e 66ba 31c2 af3c 68a4 583d
00000070: 4d36 5cbc 95aa b23a 8b1a 933d ed05 e03c
00000080: 6ec3 273d 46be b43d f398 443d e6ea 633d
00000090: 2aeb e8bb c9c1 aabc a47f 9f3b b853 4dbc
000000a0: d9f0 2fbd 2f46 99bc 0803 84bb bad6 1cbd
000000b0: 0279 aebc 834f 87ba aef7 f9bc 81bc 5ebd
000000c0: c38b 253d f789 83bd c9b9 91bd 84f2 b23d
000000d0: ed90 b83a 39f3 a1bc 59fb 073d dce1 9fbc
000000e0: 9a3d 3ebc 20fa 08bd c872 87bd 8842 a9bc
000000f0: 3be7 98bc 4713 b8bc 3a7c 85bc ce33 c93d
00000100: 29b5 de3c 12eb 8d3c 65e2 8e3d 9567 3abc
00000110: d309 8abc 0072 373c ff00 7dbd c212 32bd
00000120: 0d8b f43c 7134 c83d 79cf ea3c cefa 6a3d
00000130: fbe1 873d 3495 593c aa09 e03d 1916 033e
00000140: 8958 893d 0e92 9cbc 275c cfbc 34d3 593c
00000150: 067a 26bb e7b2 18bd eda3 10bd f9aa c63c
00000160: 4869 06bd 1ea9 c0bc d913 fa3c 5c4a 9b3d
00000170: 1fe7 943d 9823 a93c a94e ee3c ddf0 2d3d
00000180: 393a bbbc 1ef5 65bc 7b48 bc3c 8f27 983c
00000190: de68 1ebd 1d38 84bd 1218 4dbd 57bb 83bd
000001a0: dfe9 94bd 1d1b 1bbd 2110 b9bc 5e64 89bc
000001b0: 5b12 993c 8ae4 d7bc 41f4 1cbc 8f9d 493d
000001c0: 42be 3f3c 8c29 5c3c 9d3b 3f3d c184 683c
000001d0: 0fa0 eb3b 0937 331e 1399 7e1a 7060 1f1e
000001e0: 3cbd 3217 4580 8019 3710 9220 e5ba e50e
000001f0: 6fc2 cd17 9466 c41e 2205 8abc b09d acbc
00000200: ad78 093d 1d33 62bb 30cf c7bc adb6 ca3c
00000210: 02ce 47bc 8d7d 05bd f99c 173c 9d1a 433d
00000220: a263 efbc 940a 5fbc d55a ba3d a8b1 9a3b
00000230: bda8 d2bc dcca 123e 0276 8c3c ea14 03bd
00000240: e31d 8dbb a29f 073c 8c16 213c 8e37 993b
00000250: 0bff 8d3c 455d 4a3c fef9 f23b 555c b23b
00000260: 9bd9 0fbb ef1e 8a3c 5832 2bbd d999 aabc
00000270: 160c 553d 0fc1 81bc a6c4 493c 8f5a 6d3d
00000280: 9194 46bc 5e24 f53b 5e10 923c 1f8b c13d
00000290: 1f2e 5e3d 7d3f a1bd 7c1b 083c 4b86 b73b
000002a0: 34d9 71bd e9e7 973c 1055 ce3c c773 0a3c
000002b0: d026 c63c be0c 09bc 724c a0bc 5e5b 1fbc
000002c0: c512 d5bb 29d9 f5bb 869f 183c a323 823c
000002d0: 9640 c8bb a02d 7abd 26e3 1dbe e164 593d
000002e0: 389d 78bd 4969 8bbd f1a0 503d 3ab2 803d
000002f0: a33a 54bd 7a14 bd3c aff7 fa3c f1ec 963d
00000300: a855 563c 6868 2f3c 9a2b 7f3d d056 1abd
00000310: 435f 18bd f5c5 9bbb 70db b1b3 7ebb 7c36
00000320: 2c7a 4f36 a816 41b5 6840 a3b5 a1c7 00b6
00000330: 51b4 a9b5 3c45 76b6 b28f 44b6 c0e0 df3d
00000340: b9f3 373d 3cf3 063c fb8f 40bb f9e9 aa3a
00000350: 3cfe b8bc b2e2 e6bc 0aa3 45bc 1ff9 503c
00000360: c480 b2bc f1ca 0cbe 2dc7 38be b307 183b
00000370: c95f d0bd 4a0e 10be 57c1 c73c 2ca8 97bd
00000380: ef52 c0bd a722 d0ba 1437 353b 4764 73bc
00000390: 6f47 87bc 5444 273b 32f6 943b b67d 3cbc
000003a0: 28cf 4b3c cc71 b33c 71b4 e9bc 8016 a6bc
000003b0: cc04 a5bc 2029 5fbb 0dc6 153c 1e72 f63b
000003c0: 5c3b d4bc 8e0c bdbc dbbe 1dbc 291e d0bb
000003d0: 6627 82bb a3c2 d3ba 41f2 63bc 83aa 02bc
000003e0: 3dd9 3abc e2c4 1dbc 325d 1cbc ac48 cbbb
000003f0: 666d 33ba 045a 093a 3deb 933a bea1 823a

onnx::Conv_87 f4 [32]
-0.03503683 0.10462812 0.22003818 -0.29804242 4.4697e-41 0.18352526 0.022320215 -0.30054098
0.048270304 -0.060470212 0.03809289 -0.0020168498 0.019262152 -0.18044248 0.2566592 -0.43470362
0.0019655675 0.15155369 -0.57719696 -0.018515863 -0.18518856 0.061710365 0.25072432 -0.06630182
-0.006013274 -0.24167565 0.15853623 -0.09088745 0.35703364 -0.04247877 0.033450767 0.088203385
00000000: c782 0fbd 4547 d63d b051 613e 0499 98be
00000010: 997c 0000 0cee 3b3e e2d8 b63c 82e0 99be
00000020: 15b7 453d 9daf 77bd 4a07 1c3d 202d 04bb
00000030: a9cb 9d3c eac5 38be d668 833e 7991 debe
00000040: c0d0 003b e430 1b3e 2ec3 13bf 94ae 97bc
00000050: 12a2 3dbe 02c4 7c3d f05e 803e 40c9 87bd
00000060: 000b c5bb d279 77be 5257 223e 3323 babd
00000070: 1dcd b63e 38fe 2dbd ac03 093d faa3 b43d

onnx::Conv_89 f4 [32, 16, 1, 1]
0.061519563 0.15722798 -0.15118289 -0.019847007 0.08512748 0.03957115 0.21037553 0.07968536
0.10545399 -0.10376353 0.09208302 -0.026976705 -0.053441126 0.05412 -0.1385016 0.2671159
-0.16338797 0.31955305 0.0071772216 0.020835834 -0.094683744 -0.15501769 0.106652185 0.05281346
0.09966952 0.08690998 0.023801519 -0.05049241 -0.07777145 0.1379875 -0.11871198 -0.012946053
-0.07691515 0.13749038 -0.06286539 0.0064956616 -0.04828203 -0.18591861 0.19100551 -0.12047267
-0.13558564 0.009442299 -0.11086889 -0.04093994 -0.068406545 0.13842854 -0.10531044 -0.091955066
0.06341772 -0.02186483 -0.045076255 0.0009299517 0.0019053655 -0.054012053 -0.089490704 -0.008870342
-0.029389951 -0.010848182 0.0030950431 0.03138537 -0.040830977 -0.020492975 -0.023673994 -0.00655087
0.0 -0.0 0.0 -0.0 -0.0 -0.0 -0.0 -0.0
0.0 0.0 -0.0 0.0 0.0 -0.0 0.0 0.0
0.07241638 -0.059117425 0.04842238 0.17877102 -0.034704212 -0.07411088 0.016498609 -0.035431698
-0.04558701 0.04334775 0.04425916 0.09631732 0.06296871 0.07181554 0.1269896 0.11364573
0.11646712 0.09017724 0.047802676 0.05024789 -0.090441406 0.085149094 0.1902841 -0.18719986
0.17951964 0.09534238 0.16453682 0.009552585 0.260467 0.07114815 0.08578524 -0.2020993
0.082101285 -0.12058671 -0.020638388 -0.04405363 -0.042351797 0.11928934 -0.1228007 -0.088026136
-0.040031336 -0.055159554 5.335616e-05 0.0030490623 -0.015479707 -0.081596576 -0.025051873 -0.01784181
-0.042174447 -0.023798384 0.0488619 0.031905178 -0.024460575 -0.19380943 0.021604426 -0.009090745
-0.12718965 -0.016410865 -0.0756303 0.047022548 0.07416448 0.1722239 0.022718605 -0.031844642
0.22616097 0.14904025 -0.027059937 0.04732167 -0.019378202 0.14978968 0.011122445 -0.014530288
-0.10188671 0.09190141 0.017785547 0.121413566 -0.08007176 0.14724547 -0.1977394 -0.09624954
0.037356835 0.09076089 0.07041725 0.013984146 -0.03296001 0.071339086 0.036842346 0.040371798
0.053262386 0.063587576 0.0021968286 0.03538267 -0.00836575 0.08723086 -0.025060195 -0.001902019
-0.23154446 0.0905613 -0.22831611 -0.16880871 0.14698294 -0.17943028 0.06564768 0.044181447
0.11523116 -0.13233152 0.34145236 0.088031955 0.30704984 0.33717206 -0.115977734 0.16526084
0.02516153 -0.0008587131 0.009287968 -0.007908452 0.0015208788 -0.034293924 0.0033641402 -0.00079190475
0.048705395 0.005521231 0.037161347 0.02101534 0.074886516 -0.0048589986 -0.0083959 0.0032826944
0.3141737 0.29701293 -0.21888043 -0.014631051 -0.19308816 -0.25579837 -0.0836753 0.060643107
-0.09786745 0.027993336 -0.1416865 0.4373905 0.37169746 -0.14690395 0.19170457 -0.25661248
0.019089337 0.14094725 -0.17289396 0.025609598 -0.12219578 -0.062108487 0.22161235 -0.0044048736
0.082721286 -0.04023754 0.0036192029 0.13066597 0.05404912 0.03983824 0.12930568 0.08023619
0.023857523 0.15998311 0.26489773 0.19602942 0.032768346 -0.06706616 0.0698136 0.13465942
-0.24877882 0.1431499 0.027992202 -0.18745835 0.15944415 0.0137767475 0.18792465 -0.08208976
00000000: f0fb 7b3d 5f00 213e b0cf 1abe 3196 a2bc
00000010: 5157 ae3d 5c15 223d af6c 573e 1432 a33d
00000020: 43f8 d73d f981 d4bd 0696 bc3d 40fe dcbc
00000030: 15e5 5abd efac 5d3d 5dd3 0dbe 6ac3 883e
00000040: 2d4f 27be 759c a33e e62e eb3b e9af aa3c
00000050: 8de9 c1bd f5bc 1ebe 766c da3d ed52 583d
00000060: 891f cc3d dcfd b13d 67fb c23c 21d1 4ebd
00000070: a346 9fbd 984c 0d3e 441f f3bd af1b 54bc
00000080: b185 9dbd 47ca 0c3e 92bf 80bd 8fd9 d43b
00000090: 61c3 45bd 7361 3ebe f396 433e 60ba f6bd
000000a0: f6d6 0abe dfb3 1a3c 3b0f e3bd a3b0 27bd
000000b0: bb18 8cbd 36c0 0d3e 00ad d7bd f052 bcbd
000000c0: 26e1 813d df1d b3bc e1a1 38bd 01c8 733a
000000d0: 75bd f93a be3b 5dbd e746 b7bd e954 11bc
000000e0: 32c3 f0bc 93bc 31bc 35d6 4a3b f28d 003d
000000f0: 623e 27bd e2e0 a7bc f7ef c1bc aea8 d6bb
00000100: 0000 0000 0000 0080 0000 0000 0000 0080
00000110: 0000 0080 0000 0080 0000 0080 0000 0080
00000120: 0000 0000 0000 0000 0000 0080 0000 0000
00000130: 0000 0000 0000 0080 0000 0000 0000 0000
00000140: 0a4f 943d 1d25 72bd 8c56 463d c00f 373e
00000150: 0126 0ebd 72c7 97bd 1728 873c d420 11bd
00000160: 72b9 3abd 698d 313d 1849 353d 0442 c53d
00000170: bdf5 803d 0714 933d 9009 023e 18bf e83d
00000180: 5086 ee3d d8ae b83d bdcc 433d bbd0 4d3d
00000190: 5839 b9bd a662 ae3d d6d9 423e 52b1 3fbe
000001a0: ffd3 373e de42 c33d 577c 283e 7282 1c3c
000001b0: ee5b 853e 1fb6 913d 2cb0 af3d 1ef3 4ebe
000001c0: b824 a83d 2af6 f6bd d611 a9bc 9471 34bd
000001d0: 1479 2dbd f84d f43d ef7e fbbd 0c47 b4bd
000001e0: e6f7 23bd fcee 61bd beca 5f38 c7d2 473b
000001f0: 999e 7dbc 1b1c a7bd 9639 cdbc fd28 92bc
00000200: 1dbf 2cbd d4f4 c2bc 6a23 483d 01af 023d
00000210: 8b61 c8bc fb75 46be c4fb b03c 59f1 14bc
00000220: 013e 02be 1470 86bc 0fe4 9abd b79a 403d
00000230: 8ce3 973d 765b 303e 5e1c ba3c 876f 02bd
00000240: be96 673e 029e 183e cdac ddbc 5ed4 413d
00000250: 09bf 9ebc 7762 193e ea3a 363c 7210 6ebc
00000260: fba9 d0bd ce36 bc3d ffb2 913c ada7 f83d
00000270: aafc a3bd 84c7 163e 337c 4abe 7b1e c5bd
00000280: 7b03 193d d8e0 b93d eb36 903d c21d 653c
00000290: 1301 07bd 3a1a 923d 00e8 163d e65c 253d
000002a0: a929 5a3d 343a 823d abf8 0f3b 6bed 103d
000002b0: 8010 09bc 18a6 b23d 0a4b cdbc 2b4d f9ba
000002c0: fe19 6dbe 3478 b93d b3cb 69be 31dc 2cbe
000002d0: b282 163e 92bc 37be 4a72 863d 9bf7 343d
000002e0: 50fe eb3d ea81 07be d8d2 ae3e 194a b43d
000002f0: a335 9d3e d1a1 ac3e bc85 edbd 233a 293e
00000300: 8e1f ce3c 431b 61ba 902c 183c 7492 01bc
00000310: 3958 c73a c977 0cbd e878 5c3b d497 4fba
00000320: 4f7f 473d 71eb b43b 7f36 183d 5d28 ac3c
00000330: 1a5e 993d 3c38 9fbb f58e 09bc 7922 573b
00000340: 60db a03e 1412 983e 3122 60be 13b7 6fbc
00000350: e7b8 45be 01f8 82be f55d abbd e864 783d
00000360: bb6e c8bd 4852 e53c 4416 11be a6f1 df3e
00000370: 214f be3e fd6d 16be 344e 443e b662 83be
00000380: 3e61 9c3c 7a54 103e 1d0b 31be 38cb d13c
00000390: c841 fabd 7865 7ebd 59ee 623e c256 90bb
000003a0: c769 a93d 1ed0 24bd 2630 6d3b 4dcd 053e
000003b0: 9c62 5d3d 6c2d 233d b568 043e df52 a43d
000003c0: da70 c33c 9dd2 233e ada0 873e f0bb 483e
000003d0: 1a38 063d fc59 89bd 6ffa 8e3d 29e4 093e
000003e0: e0bf 7ebe e395 123e e74f e53c 15f5 3fbe
000003f0: 5445 233e deb7 613c 526f 403e ad1e a8bd

onnx::Conv_90 f4 [32]
-0.31209108 -0.062367506 0.17966579 0.035458222 4.4697e-41 -0.2376469 -0.5584735 0.0893037
0.038071286 -0.24405535 -0.26633072 -0.34145787 -0.10638274 -0.31791052 -0.29481402 -0.34586504
0.032785587 -0.320519 0.122290134 -0.1300875 -0.09054106 -0.22572735 -0.28351447 -0.1198837
0.12453158 -0.1335452 0.10005385 -0.073891506 0.19066143 -0.114517175 -0.025350615 0.05972564
00000000: 67ca 9fbe 1275 7fbd 4ffa 373e a43c 113d
00000010: 997c 0000 b559 73be 1ff8 0ebf dce4 b63d
00000020: a3f0 1b3d a5e9 79be 805c 88be 91d3 aebe
00000030: 32df d9bd 2bc5 a2be ddf1 96be 3915 b1be
00000040: 2e4a 063d 111b a4be 4073 fa3d a835 05be
00000050: 976d b9bd 1225 67be cf28 91be 9685 f5bd
00000060: 6a0a ff3d 13c0 08be 08e9 cc3d 6e54 97bd
00000070: c03c 433e fb87 eabd 18ac cfbc dfa2 743d

onnx::Conv_92 f4 [64, 32, 3, 3]
-0.0 -0.0 0.0 -0.0 0.0 0.0 0.0 0.0
0.0 -0.0 0.0 0.0 -0.0 0.0 0.0 0.0
0.0 -0.0 0.0 0.0 0.0 0.0 0.0 0.0
-0.0 0.0 -0.0 0.0 0.0 -0.0 -0.0 -0.0
0.0 0.0 0.0 -0.0 0.0 -0.0 -0.0 0.0
-0.0 -0.0 -0.0 0.0 0.0 -0.0 -0.0 0.0
0.0 0.0 -0.0 -0.0 0.0 -0.0 -0.0 -0.0
0.0 0.0 0.0 0.0 0.0 -0.0 -0.0 -0.0
-0.0 -0.0 -0.0 0.0 -0.0 -0.0 0.0 0.0
-0.0 -0.0 -0.0 -0.0 -0.0 0.0 0.0 0.0
-0.0 -0.0 0.0 -0.0 0.0 0.0 -0.0 -0.0
-0.0 -0.0 -0.0 0.0 -0.0 -0.0 -0.0 -0.0
-0.0 0.0 -0.0 0.0 -0.0 0.0 -0.0 0.0
-0.0 0.0 -0.0 0.0 0.0 0.0 -0.0 -0.0
-0.0 -0.0 0.0 -0.0 -0.0 -0.0 -0.0 0.0
0.0 0.0 -0.0 0.0 -0.0 -0.0 -0.0 -0.0
-0.0 -0.0 0.0 -0.0 0.0 0.0 -0.0 0.0
0.0 0.0 0.0 -0.0 -0.0 -0.0 0.0 0.0
0.0 0.0 -0.0 -0.0 0.0 0.0 0.0 -0.0
-0.0 0.0 -0.0 -0.0 -0.0 -0.0 0.0 0.0
-0.0 0.0 0.0 0.0 0.0 0.0 0.0 0.0
0.0 -0.0 -0.0 -0.0 -0.0 -0.0 -0.0 0.0
-0.0 0.0 -0.0 0.0 -0.0 -0.0 -0.0 0.0
-0.0 -0.0 -0.0 -0.0 0.0 0.0 0.0 -0.0
-0.0 0.0 0.0 0.0 -0.0 -0.0 0.0 0.0
-0.0 0.0 -0.0 0.0 0.0 0.0 -0.0 0.0
0.0 -0.0 0.0 -0.0 -0.0 -0.0 0.0 0.0
-0.0 0.0 -0.0 0.0 -0.0 0.0 0.0 -0.0
0.0 -0.0 -0.0 -0.0 -0.0 0.0 0.0 0.0
0.0 -0.0 0.0 0.0 -0.0 0.0 0.0 -0.0
-0.0 -0.0 -0.0 -0.0 -0.0 0.0 -0.0 0.0
-0.0 -0.0 0.0 0.0 0.0 0.0 0.0 0.0
00000000: 0000 0080 0000 0080 0000 0000 0000 0080
00000010: 0000 0000 0000 0000 0000 0000 0000 0000
00000020: 0000 0000 0000 0080 0000 0000 0000 0000
00000030: 0000 0080 0000 0000 0000 0000 0000 0000
00000040: 0000 0000 0000 0080 0000 0000 0000 0000
00000050: 0000 0000 0000 0000 0000 0000 0000 0000
00000060: 0000 0080 0000 0000 0000 0080 0000 0000
00000070: 0000 0000 0000 0080 0000 0080 0000 0080
00000080: 0000 0000 0000 0000 0000 0000 0000 0080
00000090: 0000 0000 0000 0080 0000 0080 0000 0000
000000a0: 0000 0080 0000 0080 0000 0080 0000 0000
000000b0: 0000 0000 0000 0080 0000 0080 0000 0000
000000c0: 0000 0000 0000 0000 0000 0080 0000 0080
000000d0: 0000 0000 0000 0080 0000 0080 0000 0080
000000e0: 0000 0000 0000 0000 0000 0000 0000 0000
000000f0: 0000 0000 0000 0080 0000 0080 0000 0080
00000100: 0000 0080 0000 0080 0000 0080 0000 0000
00000110: 0000 0080 0000 0080 0000 0000 0000 0000
00000120: 0000 0080 0000 0080 0000 0080 0000 0080
00000130: 0000 0080 0000 0000 0000 0000 0000 0000
00000140: 0000 0080 0000 0080 0000 0000 0000 0080
00000150: 0000 0000 0000 0000 0000 0080 0000 0080
00000160: 0000 0080 0000 0080 0000 0080 0000 0000
00000170: 0000 0080 0000 0080 0000 0080 0000 0080
00000180: 0000 0080 0000 0000 0000 0080 0000 0000
00000190: 0000 0080 0000 0000 0000 0080 0000 0000
000001a0: 0000 0080 0000 0000 0000 0080 0000 0000
000001b0: 0000 0000 0000 0000 0000 0080 0000 0080
000001c0: 0000 0080 0000 0080 0000 0000 0000 0080
000001d0: 0000 0080 0000 0080 0000 0080 0000 0000
000001e0: 0000 0000 0000 0000 0000 0080 0000 0000
000001f0: 0000 0080 0000 0080 0000 0080 0000 0080
00000200: 0000 0080 0000 0080 0000 0000 0000 0080
00000210: 0000 0000 0000 0000 0000 0080 0000 0000
00000220: 0000 0000 0000 0000 0000 0000 0000 0080
00000230: 0000 0080 0000 0080 0000 0000 0000 0000
00000240: 0000 0000 0000 0000 0000 0080 0000 0080
00000250: 0000 0000 0000 0000 0000 0000 0000 0080
00000260: 0000 0080 0000 0000 0000 0080 0000 0080
00000270: 0000 0080 0000 0080 0000 0000 0000 0000
00000280: 0000 0080 0000 0000 0000 0000 0000 0000
00000290: 0000 0000 0000 0000 0000 0000 0000 0000
000002a0: 0000 0000 0000 0080 0000 0080 0000 0080
000002b0: 0000 0080 0000 0080 0000 0080 0000 0000
000002c0: 0000 0080 0000 0000 0000 0080 0000 0000
000002d0: 0000 0080 0000 0080 0000 0080 0000 0000
000002e0: 0000 0080 0000 0080 0000 0080 0000 0080
000002f0: 0000 0000 0000 0000 0000 0000 0000 0080
00000300: 0000 0080 0000 0000 0000 0000 0000 0000
00000310: 0000 0080 0000 0080 0000 0000 0000 0000
00000320: 0000 0080 0000 0000 0000 0080 0000 0000
00000330: 0000 0000 0000 0000 0000 0080 0000 0000
00000340: 0000 0000 0000 0080 0000 0000 0000 0080
00000350: 0000 0080 0000 0080 0000 0000 0000 0000
00000360: 0000 0080 0000 0000 0000 0080 0000 0000
00000370: 0000 0080 0000 0000 0000 0000 0000 0080
00000380: 0000 0000 0000 0080 0000 0080 0000 0080
00000390: 0000 0080 0000 0000 0000 0000 0000 0000
000003a0: 0000 0000 0000 0080 0000 0000 0000 0000
000003b0: 0000 0080 0000 0000 0000 0000 0000 0080
000003c0: 0000 0080 0000 0080 0000 0080 0000 0080
000003d0: 0000 0080 0000 0000 0000 0080 0000 0000
000003e0: 0000 0080 0000 0080 0000 0000 0000 0000
000003f0: 0000 0000 0000 0000 0000 0000 0000 0000

onnx::Conv_93 f4 [64]
-7.035e-42 -0.1335116 -0.11974911 0.15588337 -0.09968595 -1.44e-43 -1.0483542e-11 -0.18188387
-0.020025026 -2.86e-42 -0.0937006 -0.16413423 1.3943e-41 7.214e-42 -3.4145472e-23 -7.170695e-22
-1.3311e-41 -0.10678092 0.042461492 0.28297234 -0.0001663355 -0.22458297 -2.814e-42 -0.041623645
-0.5079609 -2.3888667e-27 -0.16315416 -0.12335917 -1.9204801e-35 -1.6795732e-15 -0.021568954 -0.12571001
-5.773e-42 -4.872e-42 -5.310421e-13 1.4408e-41 -7.807e-42 -3.4580298e-31 -0.02389855 8.76e-42
-0.1043849 8.898e-42 -0.1822255 -0.057418086 -0.08042483 -0.055959024 -5.396e-42 -0.0101989405
-1.0792625e-32 -0.00037022372 -5.4289016e-23 -4.537826e-14 -3.547e-42 -0.24050665 -0.0059926873 -1.7249571e-34
-4.2951894e-29 -9.52e-42 -0.25009614 -2.158003e-10 -0.0044806236 1.193e-41 0.017415453 -2.133e-42
00000000: 9c13 0080 44b7 08be 053f f5bd e49f 1f3e
00000010: 2628 ccbd 6700 0080 ad6d 38ad c43f 3abe
00000020: 860b a4bc f907 0080 1ae6 bfbd ce12 28be
00000030: de26 0000 1c14 0000 0c1e 259a 91b8 589c
00000040: 1b25 0080 f4af dabd 1aec 2d3d c0e1 903e
00000050: 596a 2eb9 14f9 65be d807 0080 8e7d 2abd
00000060: ba09 02bf f943 3d93 e211 27be bca3 fcbd
00000070: 7138 cc85 500d f2a6 60b1 b0bc 20ba 00be
00000080: 1810 0080 950d 0080 9e79 15ab 2a28 0000
00000090: c315 0080 6070 e08c e4c6 c3bc 6b18 0000
000000a0: c0c7 d5bd ce18 0000 5299 3abe 3a2f 6bbd
000000b0: c6b5 a4bd 4a35 65bd 0b0f 0080 7519 27bc
000000c0: 7027 608a 961a c2b9 4643 839a 925d 4ca9
000000d0: e309 0080 6047 76be 4e5e c4bb 4049 6587
000000e0: bfca 5990 8a1a 0080 9a0c 80be 6246 6daf
000000f0: 32d2 92bb 4221 0000 daaa 8e3c f205 0080

onnx::Conv_95 f4 [64, 64, 3, 3]
-1.43912e-40 -7.08e-43 -9.4449e-41 1.18331e-40 -8.9577e-41 -7.952e-41 -1.01617e-40 -1.02609e-40
1.35144e-40 0.32455763 -0.02830523 -0.040570058 0.14002106 -0.0052197143 -0.088788114 -0.052641906
-0.2115223 -0.3557064 0.19947949 -0.059576068 -0.10963023 0.17038986 0.044387635 -0.030276187
0.20735365 0.06532675 -0.022162514 0.0073659457 0.18724087 0.15587334 0.06846331 0.17221665
0.1304421 -0.031087564 0.08727423 0.019756034 0.0050543332 -0.005690717 0.06742818 -0.0041674394
-0.09974202 0.028971028 -0.07622023 -0.08031136 0.015946511 -1.16717e-40 7.5157e-41 9.3855e-41
9.9917e-41 -1.6948e-40 -8.5866e-41 1.54706e-40 8.4776e-41 -9.1177e-41 1.3074e-41 6.0837e-41
1.45173e-40 2.3329e-41 -9.622e-41 1.38105e-40 -1.466e-41 -8.316e-41 -4.872e-42 0.097030066
-0.1275902 -0.074037716 0.13197072 -0.12890121 -0.09909006 0.068483606 -0.1470666 -0.18851495
-0.0038735056 -0.0035067953 0.0038050073 -0.0051515223 -0.008646346 -0.0022719102 0.00312303 0.0032552776
0.0050193616 -1.42099e-40 8.8203e-41 2.4548e-41 -7.7126e-41 9.4988e-41 1.13373e-40 -1.39239e-40
-9.741e-41 -6.9988e-41 -0.029279388 -0.19780782 -0.16403088 -0.20321658 -0.2344433 -0.15997148
0.0365869 0.07371078 0.17564605 -0.23534745 -0.23952365 0.040120117 -0.10405828 -0.017313415
0.14989181 -0.18011077 -0.03126219 0.1474214 -2.9377e-41 1.08033e-40 5.8429e-41 -8.1787e-41
2.5312e-41 -1.51293e-40 -1.7422e-41 -3.9434e-41 4.2578e-41 2.04211e-40 1.0336e-40 -3.0114e-41
-1.48515e-40 5.7607e-41 1.6416e-41 -3.9222e-41 4.4973e-41 -1.42808e-40 -4.4732e-41 -3.789e-41
9.9436e-41 1.7819e-41 1.3132e-40 -1.4844e-41 -1.39649e-40 1.39791e-40 -6.3954e-41 -1.1558e-41
-1.41774e-40 -1.25158e-40 4.25e-43 4.8245e-41 1.27779e-40 1.425e-41 -1.36603e-40 2.2466e-41
1.08487e-40 3.3131e-41 -9.675e-42 1.11221e-40 -9.6007e-41 -1.15796e-40 1.27057e-40 4.3995e-41
1.45528e-40 -0.059903998 -0.05559601 0.07277732 -0.09406871 -0.006885657 0.08254065 -0.09435757
-0.014950046 0.06786854 0.14026664 -0.047359712 -0.019362263 -0.15731308 -0.22173858 -0.11626292
-0.16487895 -0.18840435 -0.12034589 0.2745266 0.2954095 0.21280597 0.03182628 0.114726774
0.123034105 -0.2826272 -0.20012116 -0.224681 -1.8091754e-24 3.860741e-29 2.6999027e-31 -2.0718929e-20
9.651433e-21 -2.8502624e-23 -2.942498e-23 -4.1219083e-24 -1.5771031e-30 -0.0067878105 0.109768406 0.23764691
-0.17664394 -0.21324417 0.0775914 -0.42724687 -0.32783046 0.08460812 1.9547e-41 -7.2594e-41
1.42794e-40 7.7622e-41 7.6899e-41 -7.8075e-41 9.2197e-41 4.6418e-41 -1.85627e-40 -0.028778331
-0.10753871 -0.123523474 -0.04858791 0.0006338409 -0.05265678 0.05769385 0.0038540284 -0.06908382
0.38131475 0.2187492 -0.045667797 0.3536403 0.07852371 -0.13320209 0.21302918 0.06722857
-0.15599544 6.8769e-41 -9.656e-41 -1.10271e-40 1.41462e-40 1.01886e-40 4.8301e-41 5.4463e-41
1.22751e-40 -2.535e-42 0.10226518 -0.12261556 -0.08678604 0.1288116 -0.07410572 -0.087800995
0.060712088 -0.123323426 -0.22047177 0.068595834 -0.11350882 -0.17646264 0.08980255 -0.012124525
-0.13249838 -0.030373577 -0.0285013 -0.13466632 9.4648e-41 -1.43997e-40 1.14918e-40 -2.8089e-41
00000000: 2b91 0180 f901 0080 4907 0180 dc49 0100
00000010: b4f9 0080 abdd 0080 441b 0180 081e 0180
00000020: ba78 0100 6b2c a63e 5fe0 e7bc ca2c 26bd
00000030: ae61 0f3e 230a abbb 8bd6 b5bd 0a9f 57bd
00000040: 4d99 58be 261f b6be 5a44 4c3e 0906 74bd
00000050: d085 e0bd ae7a 2e3e cfcf 353d c405 f8bc
00000060: 8454 543e 08ca 853d 298e b5bc 085e f13b
00000070: 12bc 3f3e 439d 1f3e 7e36 8c3d 9059 303e
00000080: 9d92 053e 59ab febc d5bc b23d 68d7 a13c
00000090: d29e a53b 3279 babb c917 8a3d 048f 88bb
000000a0: 8b45 ccbd a654 ed3c 5a19 9cbd 487a a4bd
000000b0: 42a2 823c 5c45 0180 82d1 0000 a105 0100
000000c0: 8716 0100 71d8 0180 5cef 0080 42af 0100
000000d0: 52ec 0000 2afe 0080 7224 0000 97a9 0000
000000e0: af94 0100 0841 0000 390c 0180 fb80 0100
000000f0: de28 0080 d1e7 0080 950d 0080 b3b7 c63d
00000100: 01a7 02be 16a1 97bd 5523 073e aefe 03be
00000110: bbef cabd 2241 8c3d a098 16be 100a 41be
00000120: a4da 7dbb 43d2 65bb 6e5d 793b 1ace a8bb
00000130: 67a9 0dbc 54e4 14bb c0ab 4c3b 7f56 553b
00000140: 7579 a43b 1d8c 0180 e0f5 0000 6e44 0000
00000150: ffd6 0080 ca08 0100 0a3c 0100 2484 0180
00000160: 8a0f 0180 19c3 0080 54db efbc 228e 4abe
00000170: b6f7 27be 0218 50be e811 70be 90cf 23be
00000180: 25dc 153d adf5 963d 8fdc 333e ecfe 70be
00000190: b045 75be fe54 243d 821c d5bd ddd4 8dbc
000001a0: 3d7d 193e f56e 38be c80c 00bd a3f5 163e
000001b0: e451 0080 272d 0100 e0a2 0000 fde3 0080
000001c0: 8f46 0000 bea5 0180 9130 0080 ed6d 0080
000001d0: b176 0000 4239 0200 2020 0100 f253 0080
000001e0: 009e 0180 96a0 0000 c32d 0000 566d 0080
000001f0: 5e7d 0000 178e 0180 b27c 0080 9f69 0080
00000200: 3015 0100 ac31 0000 116e 0100 6129 0080
00000210: 4985 0180 ae85 0100 47b2 0080 3820 0080
00000220: 358b 0180 e45c 0180 2f01 0000 7d86 0000
00000230: 3264 0100 b927 0000 cb7c 0180 a03e 0000
00000240: 6b2e 0100 5b5c 0000 f81a 0080 0a36 0100
00000250: a10b 0180 cb42 0180 2f62 0100 a47a 0000
00000260: ac95 0100 e55d 75bd a4b8 63bd 470c 953d
00000270: 19a7 c0bd 14a1 e1bb 130b a93d 8b3e c1bd
00000280: 0af1 74bc a9fe 8a3d 0fa2 0f3e 42fc 41bd
00000290: 9c9d 9ebc ae16 21be 700f 63be 411b eebd
000002a0: 07d6 28be 12ed 40be e877 f6bd c08e 8c3e
000002b0: ea3f 973e cfe9 593e 465c 023d dff5 ea3d
000002c0: 4ef9 fb3d 83b4 90be 90ec 4cbe c712 66be
000002d0: 69fa 0b98 49c3 4310 d43b af0c 4caf c39e
000002e0: 774f 361e 8ad4 099a 5c4a 0e9a 6775 9f98
000002f0: 4de6 ff8d 486c debb 42ce e03d b659 733e
00000300: 26e2 34be ae5c 5abe 3de8 9e3d 1ac0 dabe
00000310: 65d9 a7be 0647 ad3d 7d36 0000 5dca 0080
00000320: 0d8e 0100 61d8 0000 5dd6 0000 a4d9 0080
00000330: 0201 0100 6581 0000 7405 0280 89c0 ebbc
00000340: 413d dcbd e0f9 fcbd 1e04 47bd 5828 263a
00000350: a3ae 57bd 6350 6c3d de93 7c3b d17b 8dbd
00000360: b03b c33e caff 5f3e 280e 3bbd 5710 b53e
00000370: 0ad1 a03d 2166 08be 5224 5a3e 22af 893d
00000380: 45bd 1fbe b3bf 0000 2c0d 0180 6433 0180
00000390: 578a 0100 041c 0100 a586 0000 d297 0000
000003a0: 2e56 0100 1107 0080 6870 d13d de1d fbbd
000003b0: e1bc b1bd 30e7 033e bdc4 97bd 02d1 b3bd
000003c0: 3dad 783d fe90 fcbd 5ac3 61be f97b 8c3d
000003d0: 5077 e8bd 9fb2 34be 66ea b73d f2a5 46bc
000003e0: a8ad 07be 02d2 f8bc 8f7b e9bc f8e5 09be
000003f0: d707 0100 6891 0180 5840 0100 4d4e 0080

onnx::Conv_96 f4 [64]
0.1301508 0.07054972 0.014946372 0.022378827 0.07672172 -0.15660213 -0.07406814 -0.04919062
-0.2648479 -0.02401214 -0.019074922 -5.390498e-14 -0.0108787045 -0.350793 -0.11858667 0.028291963
0.033787385 -0.015055399 -9.955627e-16 0.043371346 0.0014769012 3.1636446e-17 -0.0027000718 -0.18521544
2.1579405e-12 -4.4511881e-07 0.017006923 -0.0036191437 0.021236965 0.019106807 -0.13998705 -0.021969035
0.0013877957 0.014879377 -0.046770204 -0.03918563 0.016508006 0.029063746 -0.006910078 -0.0073208604
-0.31487545 -0.029455116 -0.20946307 0.006124589 -0.3385698 -0.006759934 0.12458444 -0.004576401
-6.888873e-17 0.034245804 -0.3662632 0.021803621 -0.188829 -0.17359735 0.07482005 -0.017832939
0.0060808146 0.04659905 -0.004177466 -3.8150673e-13 6.373944e-05 -0.009027194 -0.09384782 0.06808871
00000000: 4046 053e 5f7c 903d a1e1 743c cd53 b73c
00000010: 4720 9d3d 4f5c 20be 09b1 97bd 1b7c 49bd
00000020: 259a 87be 1cb5 c4bc 0343 9cbc 36c4 72a9
00000030: 983c 32bc 249b b3be 91dd f2bd 8cc4 e73c
00000040: a464 0a3d ecaa 76bc c879 8fa6 27a6 313d
00000050: 9594 c13a b9e5 1124 b0f3 30bb 1ea9 3dbe
00000060: 00da 172c aaf8 eeb4 1a52 8b3c 282f 6dbb
00000070: 25f9 ad3c e185 9c3c c458 0fbe 68f8 b3bc
00000080: b2e6 b53a a1c8 733c 1d92 3fbd 1c81 20bd
00000090: cc3b 873c 1817 ee3c f06d e2bb d4e3 efbb
000000a0: 5b37 a1be db4b f1bc 7d7d 56be c7b0 c83b
000000b0: 0559 adbe 7082 ddbb 2026 ff3d a2f5 95bb
000000c0: bbd8 9ea4 5445 0c3d da86 bbbe 829d b23c
000000d0: 645c 41be 81c3 31be 413b 993d 6216 92bc
000000e0: 9241 c73b a5de 3e3d 20e3 88bb eac4 d6aa
000000f0: daab 8538 cce6 13bc 4933 c0bd 1872 8b3d
