cmd/ai/datas/models/parrot.onnx (onnx, 303058 bytes, 16 tensors)

fc.weight f4 [2, 256]
00000000: 1fa5 f4bd 962c d3bd 37ba 1ebe b2f5 1bbe
00000010: b4c1 3abe 5eba 4abe b399 9b3d 31b7 7c3d
00000020: 6fed 4380 44db 3480 8210 4780 15c6 3e80
00000030: e768 6500 e685 6400 ef3e 6600 d64c 6500
00000040: e5cc 1500 40b4 2100 838d 1280 535b 2600
00000050: 09e1 3500 f125 0080 7a0c 1480 1655 0900
00000060: 9c9a a93c f712 9b3c 1fa6 9d3c bb00 923c
00000070: 562f 6fbd fbb8 8abd fee5 943d 3712 923d
00000080: 5bcd 3300 e0d7 2c00 e939 8800 e59d 8800
00000090: 5cf2 d6bd fac6 f2bd ff27 ea3d 605c cc3d
000000a0: f0d9 ccbc 8ee6 ecbc 3d67 5a3d 2c81 4a3d
000000b0: d24a 2300 a880 2100 a52a 3080 fb4a 2000
000000c0: 873a 2abd 632f 3dbd c3c7 953d fa76 533d
000000d0: 2e16 1d80 d806 1f80 8d6b 2600 6636 3980
000000e0: 80c0 0d80 c2b9 0b00 7513 0900 d643 0e00
000000f0: ef08 2400 ca5e 4880 d3df 1300 7b5e 3380
00000100: a68e 1780 6e50 1380 9e84 1100 443d 1400
00000110: fed0 0638 ee2d 8037 472e f13a 23fe f93a
00000120: 0d1a 1680 c44f 1980 cf86 1980 96ad 1880
00000130: 923e 3a80 243b 3380 559d 3780 90e1 3300
00000140: bb00 4500 b425 0000 88cf 2000 e7fb 1600
00000150: fb70 1300 5eb2 1f80 97f9 0780 e4e1 0300
00000160: 19ee c2bd 7c18 12be dca4 143e d1f5 993d
00000170: 5615 febd 4e21 11be 3602 c03d b934 223d
00000180: 2a9c 1b80 4af4 3e80 5db1 1980 8f15 1b80
00000190: 7c8f 1a80 6235 1f80 4fe9 3480 24ec 4280
000001a0: a7a9 2e80 070f 2580 72c3 1580 a3c8 3300
000001b0: 40df 90bd bcfb 96bd cc8f c53d 77e9 6d3d
000001c0: b457 2f00 a9b0 1580 e509 1700 fd19 1600
000001d0: 8c10 31be 72a3 4cbe 69c5 35be b65d 65be
000001e0: 0cb6 d93d b6ad 013e 65dc ee3d 51cd 0a3e
000001f0: 9646 6780 95f0 5480 2b19 4a00 0a0d 4900
00000200: e24c 1d80 dcbd 1a80 3d15 1a80 a810 1880
00000210: 0c47 833d e7d4 133e 3d25 d23d f0bd 213e
00000220: bde0 491d a09c fc1e 197c c81e 2875 2a20
00000230: 98a4 1a80 c3c3 1a80 ec36 1800 1cd6 1e80
00000240: b3b8 2c80 6155 4580 f199 1b80 26e2 3180
00000250: 7e16 0380 57cd 0c00 8d64 3500 a8a6 0500
00000260: 36e9 04bd 2021 10bd 18a1 633d f306 633d
00000270: 8c98 6900 77ef 5100 69de 6d00 c9c6 6900
00000280: c308 b73d 0138 143e de4a c43d 7c13 173e
00000290: 7ccb 0e00 c37d 0b00 7123 0a00 f18e 0200
000002a0: 5357 2dbe a8ae 36be 75d4 d33d 31ea 943d
000002b0: 2833 0c31 7432 0c31 1e46 0c31 f046 0c31
000002c0: 44df ca3d 5d0c 863d 096f 343e f21f 3a3e
000002d0: 364c 4100 1cb8 4500 399e 3f00 f65e 4400
000002e0: 2e43 3bbe 264f 19be bf3f 5cbe 8a63 4bbe
000002f0: 2069 8ebd e53a a3bd dc09 b73d ec9b b53d
00000300: dbf3 2d00 b803 2b00 3b0e 2e00 118b 2600
00000310: ba7c 233d bfac 363d a235 043d 658a 0f3d
00000320: 26c9 9dbd dfb0 b5bd 0b8a c23d ac67 b23d
00000330: a9e0 c500 b7fb c500 d8d8 c400 19ae c100
00000340: e9a7 01be 22ae 1fbe 10a6 0abe 3823 07be
00000350: 6274 0580 73a6 4400 a0fd 2e00 9d77 0600
00000360: c72e 0dbe e3e6 39be df98 4bbe 6af2 4bbe
00000370: 2366 5880 e3af 4780 0f49 6200 6e39 6600
00000380: 55fa 4f80 c512 0f00 fae9 7080 db9a 1c00
00000390: 3dab 04b8 4a85 aab7 3c10 a3b8 6252 93b8
000003a0: a373 d7bc 0397 f4bc 9b5f 673d 87f6 343d
000003b0: 56ee 2200 3e29 0f00 46f6 1f00 72a8 1780
000003c0: 13c6 3900 7862 3b00 2584 3700 1cdd 3b00
000003d0: 9b62 0f80 32c7 2000 2023 2200 98b4 0200
000003e0: a0e7 bfbd e849 eebd d24a 85bd 28da b9bd
000003f0: eb2f c1bd d477 dcbd ff8d 16be 1090 1abe
-0.11945557 -0.103112385 -0.15500723 -0.15230444 -0.18237954 -0.19797656 0.07597675 0.061698142
-6.238153e-39 -4.854103e-39 -6.526242e-39 -5.764859e-39 9.313017e-39 9.231583e-39 9.389797e-39 9.302949e-39
2.002048e-39 3.095233e-39 -1.703804e-39 3.52251e-39 4.948009e-39 -1.3611e-41 -1.841186e-39 8.57043e-40
0.020703606 0.018929942 0.019244252 0.017822614 -0.058394752 -0.067735635 0.0727043 0.071323805
4.757278e-39 4.118203e-39 1.2510402e-38 1.254627e-38 -0.10495445 -0.11854358 0.1143341 0.09978557
-0.025006264 -0.02891853 0.053321112 0.049439594 3.241083e-39 3.076725e-39 -4.423402e-39 2.965634e-39
-0.041559722 -0.04618777 0.07313492 0.051627137 -2.671186e-39 -2.849355e-39 3.528331e-39 -5.254138e-39
-1.262917e-39 1.076828e-39 8.335e-40 1.310032e-39 3.309283e-39 -6.64616e-39 1.825167e-39 -4.717504e-39
-2.163389e-39 -1.773727e-39 1.608778e-39 1.858688e-39 3.214273e-05 1.5280177e-05 0.0018400633 0.0019072931
-2.029726e-39 -2.324502e-39 -2.344248e-39 -2.266323e-39 -5.348905e-39 -4.704826e-39 -5.107392e-39 4.764527e-39
6.336911e-39 1.3525e-41 3.013184e-39 2.110746e-39 1.785404e-39 -2.910886e-39 -7.32384e-40 3.56541e-40
-0.0951807 -0.14267153 0.14516014 0.07517589 -0.12406413 -0.14172861 0.09375422 0.03960106
-2.53558e-39 -5.781435e-39 -2.359513e-39 -2.487292e-39 -2.439195e-39 -2.86605e-39 -4.859141e-39 -6.145854e-39
-4.285293e-39 -3.403304e-39 -1.998658e-39 4.755585e-39 -0.070738316 -0.07372233 0.09646568 0.058083978
4.34773e-39 -1.991919e-39 2.115766e-39 2.029704e-39 -0.17291468 -0.19984224 -0.17751087 -0.22399029
0.10630426 0.12663922 0.11663131 0.13554884 -9.484378e-39 -7.800486e-39 6.804855e-39 6.708669e-39
-2.69081e-39 -2.455832e-39 -2.395342e-39 -2.210027e-39 0.064100355 0.14436685 0.10261009 0.15795112
2.6718315e-21 2.6746316e-20 2.122715e-20 1.4438324e-19 -2.446768e-39 -2.457949e-39 2.223754e-39 -2.831873e-39
-4.10702e-39 -6.367277e-39 -2.534782e-39 -4.581066e-39 -2.83575e-40 1.175688e-39 4.903352e-39 5.18962e-40
-0.03244897 -0.03518784 0.055573553 0.05542655 9.69745e-39 7.524579e-39 1.0089855e-38 9.714038e-39
0.08937218 0.14474489 0.09584592 0.14753526 1.358693e-39 1.055305e-39 9.31069e-40 2.34949e-40
-0.16927843 -0.17840064 0.10343257 0.07271231 2.040176e-09 2.040136e-09 2.0412538e-09 2.0413005e-09
0.09905866 0.06545327 0.17620482 0.18176249 5.996647e-39 6.402695e-39 5.842396e-39 6.27888e-39
-0.18287346 -0.14971599 -0.21508692 -0.1986219 -0.06953645 -0.079702176 0.089374274 0.0886763
4.220076e-39 3.95026e-39 4.229538e-39 3.539636e-39 0.03991387 0.044598337 0.03227771 0.035044093
-0.07704382 -0.08871626 0.09498986 0.0871118 1.8172186e-38 1.8181891e-38 1.8077546e-38 1.7786705e-38
-0.12661709 -0.1559377 -0.1353991 -0.13197029 -5.00928e-40 6.304524e-39 4.315416e-39 5.93922e-40
-0.13787375 -0.18154483 -0.19882534 -0.19916692 -8.118163e-39 -6.583416e-39 9.026087e-39 9.387822e-39
-7.344806e-39 1.384266e-39 -1.036951e-38 2.626946e-39 -3.163073e-05 -2.0327647e-05 -7.7754696e-05 -7.024851e-05
-0.026300257 -0.029857164 0.05648766 0.04418042 3.207906e-39 1.392327e-39 2.935247e-39 -2.172643e-39
5.305679e-39 5.453618e-39 5.098357e-39 5.497613e-39 -1.412905e-39 3.010194e-39 3.135007e-39 2.48456e-40
-0.09370351 -0.1163519 -0.065084115 -0.09074813 -0.09432968 -0.10765043 -0.14702605 -0.15094018

fc.bias f4 [2]
00000000: 58f4 453d 019b 8b3c
0.048328727 0.017041685

onnx::Conv_80 f4 [16, 3, 7, 7]
00000000: 7af1 90bc 5799 36bc e073 79b9 7eba 8abb
00000010: 5b11 b0bb 5b54 843b 642c 4f3c e30d c7bc
00000020: d8a9 84bc 2b95 cebb 3e5c 28bc f5fa 7abb
00000030: efe2 013c fff4 663c e61c abbc c57f 74bc
00000040: b237 03bc f988 7abb f257 473c 4506 a43c
00000050: 2a9b a73c 9b5c 76bc f549 95bc 7090 62bc
00000060: da62 86b9 4c28 763c 960a ab3c 9b5b a33c
00000070: 6484 3fbc 5ebf aebc fc6c 76bc ebe7 68b9
00000080: a6a1 5d3c 536e 653c a384 553c f9fd 2dbc
00000090: 19d4 94bc c8d3 44bc 288f 39bb 500a 763b
000000a0: 4c87 143a b967 4c3b 8100 31bc df36 54bc
000000b0: 6c54 34bc 78b1 d3bb c9eb 5bbb d479 85bb
000000c0: a98f d83a 5985 fcbb e1bb 33bc 84a7 a7bb
000000d0: 7e60 2abc c3bc e6bb b975 fe3b 4182 9f3c
000000e0: 2f07 33bc 0fe1 57bc 198b 06bc dbda 91bc
000000f0: 0847 dbbb 52d4 df3b 58ac 813c d211 efbb
00000100: f7e2 52bc 7ab4 3abc 5696 21bc e78b 6b3b
00000110: b835 5d3c 8146 873c 3e97 c7bb e722 8cbc
00000120: db2f 6abc 3cbb 8cbb aa48 273c 1e51 703c
00000130: 8736 363c 0df0 7fbb e595 90bc cbef 72bc
00000140: ed8a 5c3a ac03 6e3c d745 373c 0976 d43b
00000150: dd7d 2dbb f7c6 69bc 4d10 17bc 8e12 a73a
00000160: 9565 313c 7d58 e83b 8f19 f53a 3c6d 2bbb
00000170: f210 08bc 7f5a 81bb 7c8c 553b 091b 2a3c
00000180: 6c4a 173c 5fa0 0b3c 6492 fdbb 2421 4abc
00000190: c6cd 03bc a607 57bc 0c44 bcbb 570e 3f3c
000001a0: 8fd4 f73c ae69 1ebc 790f 89bc b604 64bc
000001b0: c059 a5bc 3561 14bc 0930 2b3c f2b9 a03c
000001c0: 2311 1bbc 0d75 7dbc 08ae 43bc a7e5 32bc
000001d0: b49b ad3b 4117 8f3c 5bc4 a33c a016 02bc
000001e0: f884 91bc f157 69bc 8923 08bb afbc 243c
000001f0: 6aa5 803c 0e6b 933c 4d84 d6bb ad7a 9abc
00000200: 4958 58bc 1eff e43a dacd 603c a7d6 573c
00000210: 563e 453c 17ed a6bb ec67 8abc 193f 29bc
00000220: 136f 273b 63e4 263c 3f90 ef3b 9b25 de3b
00000230: 7d77 f9bb 9d62 1fbc c31a 0fbb 7581 ef3a
00000240: 784e 1c3c 0c16 1c3c 05b0 243c 22e8 72bd
00000250: 3c8b 1a3c 929a 733c 373e 8e3d bea3 2f3d
00000260: 36fe 5a3c 94b5 d63c d46a 24bd 26cb 203d
00000270: c5c1 ef3c 6215 eb3d c5a9 d13d a619 ce3d
00000280: 98df ce3d 9241 0bbd be15 9b3c 1026 b33c
00000290: 4579 e93d bfee c33d 97b2 ad3d 3b37 9e3d
000002a0: 2c29 0abd 5023 853c f448 c6bb d29c 923d
000002b0: 9e08 683d 19eb 803d a744 5b3d b4ab 2bbd
000002c0: bdb9 3d3c e9fa 45bc 2e8e 6e3d 2d58 043d
000002d0: 469c 9c3c 1d26 083b 71e6 75bd bd3f a7bc
000002e0: 064e 85bd ad20 dabb 71a2 d1bc 200f 02bd
000002f0: 0a86 27bd 5326 92bd 6151 f3bc 7672 7dbd
00000300: e008 2abd b7a8 91bd 4156 9fbd fcd4 f4bc
00000310: 94b1 38bd fcb6 13bc 3459 f7bc db4d c6bc
00000320: 9647 32bd fcac abbd 6e2c 8ebd 41be aa3c
00000330: fe21 a53d 6dab 5a3d 6079 ab3d cb75 043d
00000340: ba05 a23c d55c 6a3c 5667 d03c a860 943d
00000350: 68b4 103d 8e62 a03d 8e55 1e3d ceb4 ad3c
00000360: ef23 87bb 8ec1 583c 96eb 073d 8cbb ea3b
00000370: 9df3 5d3d 4648 6d3c 330a 073c dda6 203b
00000380: 8c10 cf3c 008d 2e3d d3fb ffbb 7146 cf3c
00000390: 581b 89bb b102 2abc 13bf a63b 1598 163c
000003a0: 628e 263d 2cd5 803c c38e e33c 1d5e ebbc
000003b0: 86fd f9bc 8e37 eb3b c281 ba3c 19aa 9c3c
000003c0: b86c f6bc 0bff b83a c26a 93bc 0953 dfbc
000003d0: cce1 4fbc 9f70 dfbd ee4a 66bd 3c98 a6bd
000003e0: 0c25 83bc 5010 84bd 1ced d0bd 5501 ffbd
000003f0: fbf2 cdbd b2e1 33bd 16fa 27bd 364f 90bb
-0.01769327 -0.0111449575 -0.00023789657 -0.0042336574 -0.0053731627 0.0040383763 0.012644861 -0.024298614
-0.016194269 -0.0063044033 -0.0102758985 -0.0038296555 0.00792764 0.014096498 -0.020887803 -0.014923041
-0.008008884 -0.0038228615 0.012166964 0.02002252 0.02045973 -0.015036727 -0.018223742 -0.013828382
-0.00025632122 0.015024256 0.020879071 0.019941142 -0.011689279 -0.021331485 -0.015040632 -0.0002221164
0.0135273095 0.014003354 0.013032111 -0.010619634 -0.018167542 -0.012013383 -0.0028314088 0.0037542768
0.0005665913 0.0031189753 -0.010803343 -0.012952535 -0.011006456 -0.006460365 -0.0033557287 -0.004073361
0.0016522306 -0.007706326 -0.010970087 -0.005116405 -0.010398982 -0.007041545 0.0077654985 0.01947129
-0.010927006 -0.013176217 -0.008211874 -0.017804554 -0.006691817 0.0068307305 0.01582925 -0.0072958255
-0.012871495 -0.011395568 -0.009862503 0.0035941543 0.013501577 0.016513111 -0.0060910275 -0.017106486
-0.014293636 -0.004294781 0.010210196 0.014667777 0.011121399 -0.0039052994 -0.0176496 -0.014827679
0.00084130355 0.014527243 0.011186085 0.0064837974 -0.0026472725 -0.014268628 -0.009220195 0.0012746619
0.010827442 0.0070906268 0.0018699634 -0.0026157638 -0.008304821 -0.0039475556 0.0032584956 0.010382422
0.009234052 0.008522122 -0.0077383984 -0.012337003 -0.008044666 -0.013124382 -0.0057454165 0.011661134
0.030252723 -0.009668751 -0.01673101 -0.013917139 -0.020184398 -0.009056379 0.010448464 0.019619916
-0.009464535 -0.015469802 -0.011943348 -0.010919011 0.0052981023 0.017467143 0.01999109 -0.0079399645
-0.0177636 -0.014242158 -0.0020773134 0.010054751 0.015703876 0.017995384 -0.006546533 -0.018857324
-0.013204643 0.001747105 0.013720954 0.013173736 0.012038788 -0.0050941813 -0.016895257 -0.010329985
0.0025548383 0.010186288 0.0073108966 0.0067793853 -0.007613121 -0.009728101 -0.002183602 0.0018272834
0.009540193 0.009526741 0.010051732 -0.05930341 0.00943261 0.014868395 0.0694546 0.042880766
0.013366273 0.02620963 -0.04014094 0.039256237 0.029267201 0.11478688 0.10237459 0.10063486
0.10101241 -0.03399808 0.018931266 0.021868736 0.114000835 0.095670216 0.08481329 0.07725378
-0.03373067 0.01625219 -0.006051177 0.07158817 0.056648843 0.06294841 0.05353227 -0.041911796
0.011579928 -0.012083747 0.058241062 0.032310653 0.019117486 0.002077467 -0.06003422 -0.020416135
-0.065090224 -0.0066567273 -0.025590153 -0.031752706 -0.040899314 -0.07136216 -0.02970189 -0.061876737
-0.04151237 -0.07112258 -0.077801235 -0.029886715 -0.045091227 -0.009015795 -0.030193903 -0.024207046
-0.0435253 -0.083826035 -0.06942068 0.020842673 0.08063124 0.05338614 0.0837276 0.0323389
0.019778121 0.014304359 0.0254399 0.07244998 0.0353283 0.07831298 0.03865581 0.021204378
-0.0041241567 0.013229741 0.033183657 0.0071634706 0.054187406 0.014482563 0.008242178 0.002451352
0.025276445 0.042614937 -0.007812002 0.025302144 -0.004184168 -0.010376618 0.005088696 0.009191533
0.04066313 0.015726648 0.027778035 -0.0287314 -0.030516397 0.0071782535 0.022766951 0.019124078
-0.030081138 0.0014114095 -0.017995242 -0.027261274 -0.0126881115 -0.10910153 -0.056223802 -0.08134505
-0.016008876 -0.06448424 -0.10201475 -0.12451426 -0.100561105 -0.04391641 -0.041009985 -0.004403974

onnx::Conv_81 f4 [16]
00000000: cadb 333d 1a41 59bd 21df a0be 3980 85be
00000010: 36f3 fb3d 3b15 ad3e 28eb 153e a642 8b3e
00000020: 59d3 b73e bf09 47bf f125 0c3e c39a d3be
00000030: c314 c9bd af1c bc3e c048 7e3d 11a2 3abf
0.04391078 -0.0530406 -0.31420234 -0.2607439 0.12302248 0.3380526 0.14640486 0.27199286
0.35903433 -0.77749246 0.13686348 -0.4132901 -0.09818413 0.36740634 0.0620811 -0.72903544

onnx::Conv_83 f4 [32, 16, 3, 3]
00000000: 0aeb 1abc 8031 55bb 0204 813b c1e8 c4bb
00000010: 65e8 d4bb ff92 81bb 5158 56bb 956e 6bbc
00000020: e7f5 ffbb 2f53 52bc 4da0 acbc e463 d7bc
00000030: b01c fe3a 0433 febb b8da 31bc f854 e8b9
00000040: d370 09bc 4ee8 ddbc cca4 473d d979 233d
00000050: cdd0 1bbd c40a 243d bd16 5c3c 963b ccbc
00000060: 8e6c 833c f5bd cfbc 3bc7 bfbc 278f e03b
00000070: 1f94 91bc d5d8 ecbc 8524 4f3c 0084 19bc
00000080: e92e 2ebd f846 4dbc 008f a6bc f2f0 6fbd
00000090: d3b6 ca3c 3d4e 20bd b3b9 c0bd cd4a 633d
000000a0: ae91 d2bb 3efd c9bd 2eb4 833d 435d de3c
000000b0: 5e7e 75bc 59b5 29bd 571f 80bd 6ee4 0ebc
000000c0: e841 97bc 4e85 b6bc f214 02bd 4fa0 263d
000000d0: a0f4 973c 345f 143c 582d 2c3c abe4 003c
000000e0: bf93 6d3b 0482 943b f887 5e3b dde9 58bb
000000f0: 32c8 93bb 396f 87bb f702 0dbc a94c 7fbd
00000100: 22cc 3dbd a09a 94bd 4a6a c3bc cabf e1bb
00000110: 4636 ddbc e24a d83c 00e1 b73d 1fab 843d
00000120: 7c83 9ebc fbd0 253c 5cc5 d03a 038a fe3a
00000130: 2ee5 5c3c 2ca2 5bbc 1819 43bb f465 90bb
00000140: c688 f3bc 38bb 8b3d 9fb2 093c 250f 4fbd
00000150: c5ea 703d 4fc3 783c 2a1f a0bc 557d c83c
00000160: 1942 4a3c c509 e1bb 406d 9abc 1e7f 0fbd
00000170: 012e 9dbc 4ea6 893c c3d6 97bc 8c37 b7bc
00000180: 18cc 813d feda ca3c 3c3a 343b 7afe 0c3d
00000190: 1ff8 773c 766f ac3b 8f77 ce3b 1034 86bb
000001a0: ec3b b5bb 0aa4 94bc d1eb 92bc dd3e 88bc
000001b0: 028e 1a3d 50f6 c53d 7cbc b9bb eb23 fe3c
000001c0: d1db 3d3d 7b31 37bd 5273 2b3d 3db4 2bb8
000001d0: d9c1 52bd 56cd 88bd dbc8 a4bc 28f3 51bd
000001e0: f4ff 1fbc 30e4 973c be30 073c 9f2a 34bd
000001f0: d4db 15bb cfbd afbb 1f86 3bbd ae52 6fbd
00000200: f511 54bd 1bb7 133c 4f88 92bc 5e47 95bc
00000210: 45a6 0b3c b0cd babc d8ac adbc cfd8 463c
00000220: 5071 c4bc 6e6e 62bd 0163 eebb 36d5 f3bc
00000230: 29cc 5fbd 60d6 33bd 63e0 36bd fd92 49bd
00000240: 4a32 073c 944e e43a 7945 4f3c 7af1 7639
00000250: f77f ad3b 9d0e 673c 6265 303b 932d 573c
00000260: 4f5c bc3c cb43 f5bc 946f 3cbd 1b11 34bd
00000270: 0503 29bd 5ef4 1cbd e22c 15bd d5f8 f6bc
00000280: d623 feb9 5202 4f3c 1bd1 55bc d3e5 acbb
00000290: b6f3 cebc fab1 0bbc fd80 e13b be25 b13b
000002a0: 450c 16bc 35dd b43b f3cb 343c 8e56 0ebd
000002b0: 19b3 c8bc f49f c8ba 8844 00bd d74a 2bbc
000002c0: 35eb 053c 25e8 92bc 12a3 6a3c 9bf1 113d
000002d0: ea0b 993c 1398 a53c d937 fe3b 2e3d 5bbc
000002e0: 5ec1 243c d6c0 833c b52d 10bd 5f70 babc
000002f0: 7842 09bc ce36 b53c a045 923c e482 0d3d
00000300: 87f5 393a bce2 b93c 8920 403d 408d efbc
00000310: d260 313c 857c 8d3c 59a2 903b aa46 ca3b
00000320: 775c d93b 4ebf 373b 5c55 973b b318 f63b
00000330: 0573 ad3b 8c19 c53b 3b4d 153c c3f2 00bc
00000340: 3575 79bb 2d84 333c a4af a2bc ca46 febb
00000350: 3b7e 89bb e110 42bc 7f11 79bc 0ca6 14bc
00000360: b321 d13b 7ccc 773c 6058 973c 6f6b 42ba
00000370: 6fcd 413c d071 803c ecb7 97bb 7470 b33b
00000380: f836 e43b 1e7d 6f3b 09bb 943b 777e ed3b
00000390: 7db9 8a3a d9bf 243c bb75 553c 0a19 ec3a
000003a0: a8d0 633c 0f17 ee3c 6749 dc3c 3d33 af3b
000003b0: 4a4d 863c 8576 a6bb 60e9 04ba 6c21 ba3a
000003c0: d286 c0bc fec7 81bc 100d 12bc bd3c 6d3b
000003d0: 47bc f137 4c0b 853b f3ab 4e3b c420 513b
000003e0: d6d1 eb3b a9da 133c f124 703c 90fa a73c
000003f0: 1113 71bc 36fa 883b 9174 fdbc c134 7abd
-0.009455452 -0.0032530725 0.0039372453 -0.0060091917 -0.00649743 -0.003954291 -0.003270645 -0.0143696265
-0.0078112963 -0.012837215 -0.021072531 -0.026292749 0.0019387212 -0.0077575464 -0.010855369 -0.00044313795
-0.008388716 -0.02708831 0.048741147 0.039911125 -0.038040925 0.04004933 0.013433156 -0.024930757
0.016042974 -0.025359133 -0.02341043 0.0068530026 -0.017770825 -0.028911987 0.012642984 -0.00936985
-0.042525206 -0.012529127 -0.02033186 -0.058579393 0.02474538 -0.039137114 -0.09410419 0.055491257
-0.006426058 -0.09862755 0.06430851 0.02714408 -0.014983742 -0.041432712 -0.062559776 -0.008721454
-0.018464044 -0.022280362 -0.031758256 0.040680226 0.018549263 0.009055901 0.010508858 0.007867019
0.0036251394 0.0045321006 0.0033955555 -0.0033098378 -0.004509949 -0.004133132 -0.008606664 -0.06232897
-0.046337254 -0.07256055 -0.023854394 -0.006889318 -0.027003419 0.026402894 0.08978462 0.06477951
-0.019349806 0.010120626 0.0015927958 0.0019419793 0.013482375 -0.013405364 -0.0029769596 -0.004406685
-0.029728305 0.068228185 0.008404403 -0.050551552 0.058817644 0.015183284 -0.01954611 0.024473825
0.0123448605 -0.0068676197 -0.018850923 -0.035033338 -0.019186975 0.016802933 -0.018535024 -0.022365354
0.06337756 0.024762627 0.002750053 0.034422375 0.01513484 0.0052623106 0.0063008736 -0.004095562
-0.005530825 -0.018144626 -0.017934712 -0.016631538 0.037733085 0.09666121 -0.005668221 0.031022986
0.04635221 -0.044724923 0.041858025 -4.0937437e-05 -0.0514544 -0.0667979 -0.020115307 -0.051257282
-0.009765614 0.018541425 0.008251367 -0.04398596 -0.0022866623 -0.005363203 -0.045782205 -0.05842846
-0.051774938 0.009015824 -0.017887263 -0.018222507 0.008523528 -0.022803158 -0.021200582 0.012136652
-0.023979813 -0.055281095 -0.007274986 -0.029764753 -0.05463806 -0.043905616 -0.044647586 -0.049212445
0.008251736 0.0017418438 0.012650841 0.00023550345 0.0052947956 0.014102605 0.0026915898 0.013133424
0.022993235 -0.029939553 -0.046004847 -0.043961626 -0.041262645 -0.038318984 -0.036419757 -0.03014795
-0.00048473355 0.012634831 -0.013050343 -0.0052764206 -0.025262695 -0.00852632 0.0068818317 0.0054061105
-0.009158199 0.005519534 0.011034953 -0.034750514 -0.024499463 -0.0015306459 -0.031315356 -0.010454855
0.0081737535 -0.01793296 0.014321106 0.035630804 0.018682439 0.020214116 0.0077581224 -0.013381286
0.010055868 0.016083162 -0.03519984 -0.02275866 -0.008377664 0.02212086 0.017855465 0.034548655
0.00070937764 0.022691123 0.046906028 -0.029242158 0.010826306 0.01727129 0.0044138846 0.0061729746
0.006633337 0.002803761 0.00461833 0.0075102686 0.0052932524 0.0060150083 0.009112651 -0.007870379
-0.0038064246 0.010956806 -0.019859143 -0.0077599036 -0.004195956 -0.011844845 -0.015201925 -0.009072792
0.006382191 0.0151244365 0.018474758 -0.00074165215 0.011828764 0.01567927 -0.0046300795 0.005476052
0.0069645606 0.0036543082 0.004538898 0.007247742 0.0010583844 0.010055506 0.013028557 0.0018012833
0.013904728 0.02906373 0.02689047 0.0053466843 0.016394276 -0.0050800466 -0.0005070176 0.0014200634
-0.023501787 -0.015842434 -0.008914247 0.0036199533 2.8817112e-05 0.0040601846 0.0031535595 0.00319104
0.0071966453 0.009024301 0.014657245 0.02050522 -0.014714018 0.004180218 -0.030939372 -0.061085466

onnx::Conv_84 f4 [32]
00000000: 7804 113e 43fb d0bc 32ed 1f80 98b0 12bc
00000010: 2c63 90be be5e 07bd 7ed0 1c80 4199 0480
00000020: 832e 7a80 049e 1dbc 260f 42be 3ddb 873d
00000030: dae0 1a80 672a 0c80 5eab 2380 4cbe 61be
00000040: 6298 3180 e15c 19be 76af 1280 5854 2380
00000050: 3c1d 2fbd fc9f 1280 fbfb 3680 1a8a 13bd
00000060: 8d26 2f80 3964 e69f 5e68 a53c 0e28 1f3e
00000070: e838 4d80 6e02 b5bd 5758 0280 1d91 e23d
0.14161861 -0.025510436 -2.93199e-39 -0.008953236 -0.28200662 -0.033049338 -2.646187e-39 -4.22319e-40
-1.1220616e-38 -0.009620193 -0.18951091 0.06633613 -2.468384e-39 -1.117237e-39 -3.275717e-39 -0.22045249
-4.554604e-39 -0.14976837 -1.715982e-39 -3.244499e-39 -0.04275249 -1.71043e-39 -5.04951e-39 -0.036020376
-4.330098e-39 -9.7574593e-20 0.020191368 0.15542623 -7.091747e-39 -0.08838354 -2.15361e-40 0.110628344

onnx::Conv_86 f4 [32, 32, 3, 3]
00000000: fee6 d83d ca45 7f3d 99aa 343e 546a 0a3e
00000010: 9e25 8a3d 4549 0e3e 7a86 8c3d bf78 bdba
00000020: a214 ce3d e42d 363e 0a0e 813d 6643 2b3c
00000030: 4104 4c3e c73c f03d 16cf 0b3e a4a2 1d3e
00000040: 7e51 c73d 9c50 b13d e878 df80 38c5 3c00
00000050: 9757 4180 6efd 2e01 13c2 3380 0963 eb00
00000060: d94c 5580 7b2b e280 e944 aa00 7a35 263d
00000070: e82f 2bbc d316 5ebe ee2c 6d3e c1c0 c73d
00000080: f376 d5bd 5e2f b23d bfec b83d 29de f7bd
00000090: 2043 743e 2e32 343d f456 003e 0bd2 243e
000000a0: 2c18 443d 9c4c bc3d 9787 efbc e8c5 f8bd
000000b0: db40 a63d 0c83 98bd de35 0abe 5d41 fe3c
000000c0: c79e a4bd bf75 afbd 1f6c c63d 8e18 b9bd
000000d0: cda3 e0bd 6af0 353d 6c7b 7c80 a890 9480
000000e0: 738f bc80 cf95 7600 882d a080 6fc5 c200
000000f0: a6bc 8e80 d9d8 b500 8919 bb80 10aa 8480
00000100: b16a e800 ddb0 2800 ffd2 9b00 8f8b 7d80
00000110: 54cb 1981 f58f 9180 4486 0381 505b 0281
00000120: e7c0 7b01 62a6 cc80 8f57 8881 ad2a 7501
00000130: 54f6 8600 4431 e280 99e1 d380 1f7e c200
00000140: 6a0e 8581 627d 83b8 54d4 e7b6 112e 53b5
00000150: ad8a cab5 d06a ceb2 2fc6 8a32 da3e 59b0
00000160: 361f 2730 9bd5 bc33 7bf8 85bd 4f9e 923c
00000170: c4dd 913e cdd5 d33d 39bb 913d da83 a13e
00000180: e80a 753e 3228 1e3e db43 a63e 20fd 5f3e
00000190: 67f7 2dbd a51d 7a3e f4ac c23e c0cc e33d
000001a0: b1bc ad3e da85 813e e380 0b3e 28b1 6b3e
000001b0: 6d68 2a00 c6c0 2580 9fcf 2780 c385 2c00
000001c0: 2d4c 2700 233a 3c00 8d30 1a00 daad 0c00
000001d0: bc13 1200 ac2f 5580 1fb1 4c80 7958 6300
000001e0: c467 5280 44a8 4a80 c666 4700 7a7f 4580
000001f0: f003 3a80 dc49 6200 69d8 da80 6763 4180
00000200: a21f 1081 4d16 8180 fbf3 3680 ef5b 4780
00000210: c001 3100 c4a4 5980 da49 3d81 b15d 5bbd
00000220: 63fb cfbd 50dc 0fbe 0f2c d63a f42e af3c
00000230: f2f1 293d 36d3 46be c306 d2bd 81e7 92be
00000240: 149e 5701 7aad 7d01 6233 b501 66ea 4401
00000250: c00e 7281 0093 5280 8a5f ae01 c00b 2b81
00000260: 569f 8201 8a57 06be c7e3 74bd 7fed 97be
00000270: 9db0 d0bd c5be 98bd 3e5f 39be 962b a8bb
00000280: 4b7b 74bc b248 b8bd bd86 3f00 6964 3100
00000290: 0205 4f00 7912 5c80 8ffc 3100 0bc2 4e00
000002a0: 7852 4c80 d08a 2c00 2432 4400 cd34 a180
000002b0: 2428 b300 6f98 9680 8fe9 9980 a667 a280
000002c0: f81f 8a80 eb6c 8a80 82ac b100 519b a600
000002d0: 644e f43d 5e64 2c3e ad0e 8f3e ac63 8d3d
000002e0: c7b1 963d e6f0 1c3e aa7e 073e 6d84 133e
000002f0: cb4b 293e 7601 4480 7c58 4000 e341 3200
00000300: 8a5f 4e80 33b4 3f00 073f 2c00 e0a5 7200
00000310: 4a29 3600 45ea 1e00 7e8d 7500 1f3e 8d00
00000320: 6189 9400 f1d6 7600 f60f a300 1d71 a800
00000330: 6053 7300 0b55 a400 aa1b a400 3eb9 2a3e
00000340: 65d2 d1bb b767 b7bd 6de0 013c 177d 54bd
00000350: 76e6 c6bd c06c 583c f971 15be a5df 83be
00000360: 5471 1f00 6e90 6380 e2e1 e280 f365 0800
00000370: e4a3 a980 921a 8b80 c56a 4600 b860 6700
00000380: 4f2b 7380 81da e401 a8e1 c401 dc96 af01
00000390: 3947 db01 b98b 7900 7c64 9b81 a60c b901
000003a0: 0da8 e601 0999 b481 515d 853d 5952 2a3e
000003b0: 5ab0 3f3d 8d7a bf3d ad22 763e 06cb 443d
000003c0: 9984 b63d 6860 703e 40b5 6b3b bfb3 a4bd
000003d0: 6839 9f3c c7b8 7f3b 2ab8 e23c 7756 d63c
000003e0: 99a5 e8bb 7bf4 d3bd e2d7 e2bc 9b47 79bd
000003f0: 59c1 0301 e5d2 cd80 3992 e380 782c 0a01
0.10590933 0.062322415 0.17643203 0.13517123 0.06745456 0.13895138 0.06861587 -0.0014455541
0.10062529 0.17790943 0.06301506 0.010453081 0.19923498 0.11730342 0.13653216 0.15394074
0.0973234 0.08657953 -2.0522689e-38 5.580879e-39 -6.000729e-39 3.214058e-38 -4.753231e-39 2.1616869e-38
-7.833585e-39 -2.077042e-38 1.5636755e-38 0.040578343 -0.010448433 -0.21688394 0.2316167 0.09753562
-0.104230784 0.08700441 0.09029531 -0.121029206 0.23853731 0.043993168 0.1253317 0.1609575
0.047874615 0.091942996 -0.029239459 -0.121471226 0.08117839 -0.0744687 -0.13497111 0.031037027
-0.08038097 -0.0856738 0.09688591 -0.090378866 -0.109687425 0.04441873 -1.1431877e-38 -1.3643546e-38
-1.7316533e-38 1.089033e-38 -1.4710013e-38 1.7886912e-38 -1.3108315e-38 1.6700015e-38 -1.7182398e-38 -1.2183292e-38
2.1344109e-38 3.736866e-39 1.4310193e-38 -1.1529501e-38 -2.8247543e-38 -1.3367789e-38 -2.415723e-38 -2.3942743e-38
4.623982e-38 -1.8794128e-38 -5.008415e-38 4.5030011e-38 1.2394322e-38 -2.0772495e-38 -1.9458219e-38 1.786133e-38
-4.8877167e-38 -6.269921e-05 -6.9090547e-06 -7.867066e-07 -1.5090533e-06 -2.4030129e-08 1.6155438e-08 -7.903346e-10
6.07986e-10 8.793287e-08 -0.065415345 0.017897753 0.28489506 0.10343514 0.07115788 0.31545907
0.23929942 0.15445021 0.32473645 0.21873903 -0.04247227 0.24425371 0.38022578 0.11123037
0.33933023 0.25297433 0.13623385 0.23016798 3.894552e-39 -3.467067e-39 -3.656065e-39 4.088746e-39
3.608911e-39 5.530985e-39 2.40514e-39 1.164392e-39 1.660118e-39 -7.823119e-39 -7.043037e-39 9.123452e-39
-7.567735e-39 -6.856189e-39 6.557188e-39 -6.382379e-39 -5.327871e-39 9.026374e-39 -2.0097771e-38 -6.004966e-39
-2.6471318e-38 -1.1854779e-38 -5.04664e-39 -6.5533e-39 4.500567e-39 -8.232466e-39 -3.4766803e-38 -0.053556148
-0.1015537 -0.14048886 0.0016340035 0.021384694 0.041490503 -0.19416508 -0.10255196 -0.28692248
3.960268e-38 4.6593224e-38 6.656263e-38 3.6167687e-38 -4.4458963e-38 -7.583244e-39 6.4054597e-38 -3.141617e-38
4.7983094e-38 -0.13119331 -0.059787538 -0.29673383 -0.10189936 -0.074582614 -0.18102738 -0.005132149
-0.014921973 -0.089982405 5.833971e-39 4.53596e-39 7.2568e-39 -8.455492e-39 4.59054e-39 7.232778e-39
-7.009082e-39 4.090558e-39 6.262801e-39 -1.4804456e-38 1.6452954e-38 -1.3830007e-38 -1.4134616e-38 -1.4914532e-38
-1.2684767e-38 -1.2712371e-38 1.6316767e-38 1.530041e-38 0.11929014 0.16835162 0.27940884 0.069037765
0.07358127 0.1532627 0.13231912 0.14405985 0.16532819 -6.245338e-39 5.909214e-39 4.61541e-39
-7.197442e-39 5.85028e-39 4.063372e-39 1.0528751e-38 4.973929e-39 2.839105e-39 1.0795511e-38 1.297109e-38
1.3640936e-38 1.0913695e-38 1.4974912e-38 1.5468941e-38 1.0590991e-38 1.5091529e-38 1.5070945e-38 0.16672227
-0.006403255 -0.08955329 0.007927042 -0.051877107 -0.09711926 0.013209522 -0.14594258 -0.25756565
2.887555e-39 -9.143526e-39 -2.0835854e-38 7.71256e-40 -1.5578992e-38 -1.2774666e-38 6.466786e-39 9.493752e-39
-1.0576618e-38 8.406751e-38 7.232283e-38 6.450132e-38 8.0550094e-38 1.1162218e-38 -5.7082196e-38 6.7976417e-38
8.47298e-38 -6.634115e-38 0.06511939 0.16632976 0.04679904 0.093495466 0.24036665 0.04804518
0.0891201 0.23474276 0.0035966188 -0.08042096 0.019436553 0.0039020048 0.027675707 0.026164277
-0.007099819 -0.10349365 -0.027690832 -0.060859304 2.419962e-38 -1.8901931e-38 -2.0899112e-38 2.5378502e-38

onnx::Conv_87 f4 [32]
00000000: f7e1 3ebe 4b5e 8bbd be5c 1e80 fe40 14bd
00000010: b16c 96bd d538 1e80 3c92 1c80 7ad2 b63d
00000020: df47 3dbd ea13 b380 60be 4abe 9d66 813e
00000030: 5476 1f80 401d 7ebc eeda dcbc 84c0 333e
00000040: b61e 2680 822b 9480 6099 1380 06f6 4580
00000050: c4bc 433d d27b c4bc b547 6f80 dc43 1080
00000060: cb3f 18bd 004c d53a d821 933c 6714 2580
00000070: c6a2 e2bc 4fc4 1c80 4818 083e de1e 53be
-0.18640886 -0.06805094 -2.788335e-39 -0.036194794 -0.0734495 -2.775452e-39 -2.623853e-39 0.08926864
-0.04621112 -1.6445698e-38 -0.19799185 0.252736 -2.889349e-39 -0.015509903 -0.026959863 0.17553908
-3.500766e-39 -1.3607261e-38 -1.799895e-39 -6.424906e-39 0.047787443 -0.023984823 -1.0219464e-38 -1.493711e-39
-0.037170213 0.001627326 0.017960474 -3.405232e-39 -0.027665507 -2.641816e-39 0.13290513 -0.20617244

onnx::Conv_89 f4 [32, 16, 1, 1]
00000000: b818 563d 3800 0b3e 905a 34be 7e94 353d
00000010: 0b5b 71bd 28f3 e5bc cbae 95bb 650f 893e
00000020: f5de a63d 889e 1cbe d378 b73d 4799 a0bd
00000030: 36bd 9fbe 2332 d43d 2fb4 99bd 40f2 be3d
00000040: be9e 8bbd 8676 503e ef1d babd 4641 dc3d
00000050: d0dc 3abe 2afe a6bd a6a9 163d d898 e33d
00000060: 6a40 123e af58 afbd eb85 58bc e36c 67bd
00000070: cf3e 3dbe cbfc 473e a335 21be 687a 36be
00000080: 0000 0000 0000 0080 0000 0000 0000 0000
00000090: 0000 0080 0000 0080 0000 0080 0000 0080
000000a0: 0000 0080 0000 0080 0000 0000 0000 0080
000000b0: 0000 0000 0000 0000 0000 0000 0000 0080
000000c0: 5cdc e3b9 cf25 393d 2cb2 0cbd a4be 1abd
000000d0: ebea 7dbd baf7 90bd 4365 273c 06e3 163c
000000e0: 2345 1e3c 2ca0 2cbd b282 8bbb dc33 2bbc
000000f0: c61d 84bd 49a5 cb3c 2541 83bd ddc6 15bd
00000100: 4bbb 14be 0566 42bc 075e 10bd abe7 823e
00000110: a0d1 c53d 255b 1c3d a52c d43d 6b3a 1a3e
00000120: e441 903d 6537 f0bb 9652 56be bbcf fd3d
00000130: f714 57be ca38 ee3d e69b 4abe ff20 08bc
00000140: 0000 0080 0000 0000 0000 0000 0000 0000
00000150: 0000 0000 0000 0080 0000 0080 0000 0000
00000160: 0000 0000 0000 0000 0000 0080 0000 0080
00000170: 0000 0080 0000 0080 0000 0080 0000 0080
00000180: 0000 0080 0000 0000 0000 0080 0000 0000
00000190: 0000 0080 0000 0000 0000 0080 0000 0000
000001a0: 0000 0000 0000 0000 0000 0000 0000 0000
000001b0: 0000 0080 0000 0000 0000 0080 0000 0000
000001c0: 97fe 1bbd 30ac c7bd 594d 67b9 bf44 c4bd
000001d0: ef18 61bd af5a ae3c 2c21 bebb 1c9c 8abd
000001e0: f327 1c3c 8ddb 2ebd 28d1 33bd 3a63 0bbc
000001f0: 2be8 cb3c ae67 feb8 1fb4 afbc 6c45 95bc
00000200: 5a31 5cbb 7453 bcbd f4ff d0bc eb73 813d
00000210: c5b4 c53c 8817 51ba 3d1c 1dbd ad34 963b
00000220: 9994 28bd a1de 5bbd ac6a b13d d4ae 2cbc
00000230: 2c9f 063e e89f 0a3e 10c1 71bd 5f12 20be
00000240: 0000 0080 0000 0000 0000 0000 0000 0080
00000250: 0000 0080 0000 0000 0000 0000 0000 0080
00000260: 0000 0080 0000 0080 0000 0080 0000 0080
00000270: 0000 0000 0000 0080 0000 0000 0000 0000
00000280: 2841 a9bd 51b8 c83d 297d 253e c5ba 033d
00000290: 21c6 673c 47ba a2bd 1a52 733c 8b02 033e
000002a0: 6c35 b03b 4805 213c a9c9 a4bd 0e36 94bc
000002b0: 3ffd 463e 5427 0a3e cc7a 8bbe bcd3 10be
000002c0: 9c53 6bbd f3c2 fcbd 17b8 88be 5015 5cbd
000002d0: d853 3f3e 9ca0 303d 88bc 883d 8e0b 4e3d
000002e0: 237b 4abd 642b 80be 98ab 5a3d e381 3e3c
000002f0: 0385 a53e e354 593d b914 20be 8fc8 463d
00000300: 0000 0000 0000 0000 0000 0000 0000 0080
00000310: 0000 0000 0000 0080 0000 0080 0000 0080
00000320: 0000 0080 0000 0000 0000 0080 0000 0080
00000330: 0000 0000 0000 0000 0000 0080 0000 0080
00000340: db28 65bd 4147 963e acb8 0bbe 9f29 033d
00000350: d0b4 4ebe 160d 0bbe 89e4 87bd cc90 823c
00000360: 7117 d0bd 08ca 2bbe 81f0 a3bd e72c 95bd
00000370: f59e bbbd dc79 af3c 4616 d8bd 84c9 43be
00000380: 31c5 063d 75c9 283c bb7a 21bd 7cd4 65bd
00000390: 25cd 5ebd 0f4e 5dbd d5a3 823c 1dab 883d
000003a0: f48e 1f3d 05a7 87bd 4e42 7a3d 753b f6bb
000003b0: c43d 95bd d916 cfba 0714 d23d 553f 5cbd
000003c0: eade 033b 31f6 ba3b d4a5 f63a 2644 af3a
000003d0: e7f8 e737 e1cb 2f3b 840a 8a3a 1f9f f33b
000003e0: 64be 55bb dbf4 a539 1796 9d3b d909 bc39
000003f0: dd38 e83a 2a00 68bc dcae 933b 3524 b5bb
0.052269667 0.13574302 -0.17612672 0.044331066 -0.058924716 -0.028070047 -0.004567956 0.26769558
0.081479944 -0.1529485 0.08958592 -0.07841735 -0.31199044 0.10361125 -0.075050704 0.09323549
-0.06817387 0.20357713 -0.09087741 0.107546374 -0.18248296 -0.08153947 0.036782883 0.11113137
0.14282385 -0.08561837 -0.013215522 -0.056500327 -0.18480991 0.19530027 -0.15743117 -0.17820132
0.0 -0.0 0.0 0.0 -0.0 -0.0 -0.0 -0.0
-0.0 -0.0 0.0 -0.0 0.0 0.0 0.0 -0.0
-0.00043460994 0.045202073 -0.034349605 -0.037779465 -0.061991613 -0.070785 0.010217014 0.0092094
0.009660038 -0.04214494 -0.0042575235 -0.010449376 -0.06450991 0.024859088 -0.0640891 -0.036566604
-0.14524572 -0.011865144 -0.03524592 0.25567374 0.096591234 0.03817286 0.10360078 0.15061347
0.07043818 -0.0073308223 -0.20929942 0.12393137 -0.21004091 0.116319254 -0.19786033 -0.008308648
-0.0 0.0 0.0 0.0 0.0 -0.0 -0.0 0.0
0.0 0.0 -0.0 -0.0 -0.0 -0.0 -0.0 -0.0
-0.0 0.0 -0.0 0.0 -0.0 0.0 -0.0 0.0
0.0 0.0 0.0 0.0 -0.0 0.0 -0.0 0.0
-0.038084593 -0.09749639 -0.00022058691 -0.09583425 -0.05495542 0.021283476 -0.0058022942 -0.06768057
0.009531009 -0.04268985 -0.04390064 -0.008507544 0.02489098 -0.00012130976 -0.021448193 -0.01822158
-0.0033598752 -0.09195605 -0.025512673 0.06320938 0.02413405 -0.0007976224 -0.03835701 0.004583916
-0.04115734 -0.053679112 0.08662924 -0.010539729 0.13146657 0.13537562 -0.05902201 -0.15632008
-0.0 0.0 0.0 -0.0 -0.0 0.0 0.0 -0.0
-0.0 -0.0 -0.0 -0.0 0.0 -0.0 0.0 0.0
-0.08264381 0.098007806 0.16161026 0.03216054 0.014146359 -0.07945686 0.0148511175 0.12793939
0.005377462 0.009827919 -0.08046276 -0.018092182 0.19432543 0.13491565 -0.27242124 -0.1414327
-0.057452783 -0.12341871 -0.2670295 -0.053731263 0.18684328 0.04312192 0.066765845 0.05030399
-0.04943384 -0.25033104 0.0533863 0.011627647 0.32328042 0.05305947 -0.15632905 0.04853111
0.0 0.0 0.0 -0.0 0.0 -0.0 -0.0 -0.0
-0.0 0.0 -0.0 -0.0 0.0 0.0 -0.0 -0.0
-0.055947166 0.29351237 -0.13644665 0.032022115 -0.20186162 -0.1357921 -0.066353865 0.015938185
-0.10160721 -0.16776288 -0.08004857 -0.07283955 -0.09161178 0.021420412 -0.10551123 -0.19119841
0.0329029 0.010301937 -0.039423686 -0.056110844 -0.05439486 -0.05402952 0.015947262 0.06673262
0.03895469 -0.06623653 0.06109839 -0.007514412 -0.072871715 -0.0015799656 0.10257726 -0.053771336
0.002012188 0.005705618 0.0018817731 0.001337175 2.765325e-05 0.0026824402 0.0010531698 0.00743474
-0.0032614702 0.00031653684 0.004809152 0.0003586549 0.0017717142 -0.014160195 0.004506929 -0.005527998

onnx::Conv_90 f4 [32]
00000000: 3204 b13b 8c21 553d be5c 1e80 b2c6 993d
00000010: 2333 28bd d538 1e80 3c92 1c80 a07b d93d
00000020: 5af3 b5bd ea13 b380 e2f9 34be 9535 1dbe
00000030: 5476 1f80 5a01 403e c802 b73b 505f adbc
00000040: b61e 2680 822b 9480 6099 1380 06f6 4580
00000050: 3e17 54bc d0c1 63be b547 6f80 dc43 1080
00000060: a23a 17be 67dc d13e 0eb4 1dbd 6714 2580
00000070: 763f 723e 4fc4 1c80 1e57 d83c 71c2 0bbe
0.0054021114 0.052033946 -2.788335e-39 0.07508601 -0.041064393 -2.775452e-39 -2.623853e-39 0.10619283
-0.08884306 -1.6445698e-38 -0.17673448 -0.15352471 -2.889349e-39 0.18750516 0.0055850483 -0.021163613
-3.500766e-39 -1.3607261e-38 -1.799895e-39 -6.424906e-39 -0.0129449945 -0.22241902 -1.0219464e-38 -1.493711e-39
-0.1476846 0.40988466 -0.03850179 -3.405232e-39 0.23657021 -2.641816e-39 0.026408728 -0.13648392

onnx::Conv_92 f4 [64, 32, 3, 3]
00000000: 0000 0000 0000 0000 0000 0000 0000 0080
00000010: 0000 0000 0000 0000 0000 0080 0000 0000
00000020: 0000 0000 0000 0080 0000 0080 0000 0080
00000030: 0000 0080 0000 0080 0000 0080 0000 0080
00000040: 0000 0080 0000 0000 0000 0080 0000 0080
00000050: 0000 0000 0000 0080 0000 0080 0000 0080
00000060: 0000 0000 0000 0080 0000 0000 0000 0000
00000070: 0000 0000 0000 0000 0000 0000 0000 0000
00000080: 0000 0000 0000 0000 0000 0000 0000 0000
00000090: 0000 0000 0000 0080 0000 0000 0000 0000
000000a0: 0000 0000 0000 0080 0000 0080 0000 0000
000000b0: 0000 0000 0000 0080 0000 0080 0000 0000
000000c0: 0000 0080 0000 0080 0000 0080 0000 0080
000000d0: 0000 0080 0000 0080 0000 0000 0000 0000
000000e0: 0000 0000 0000 0000 0000 0000 0000 0000
000000f0: 0000 0000 0000 0000 0000 0000 0000 0000
00000100: 0000 0000 0000 0000 0000 0080 0000 0000
00000110: 0000 0080 0000 0080 0000 0080 0000 0080
00000120: 0000 0080 0000 0000 0000 0080 0000 0080
00000130: 0000 0080 0000 0080 0000 0080 0000 0000
00000140: 0000 0080 0000 0000 0000 0080 0000 0080
00000150: 0000 0000 0000 0000 0000 0080 0000 0000
00000160: 0000 0000 0000 0080 0000 0000 0000 0000
00000170: 0000 0080 0000 0000 0000 0000 0000 0080
00000180: 0000 0000 0000 0000 0000 0080 0000 0080
00000190: 0000 0000 0000 0000 0000 0000 0000 0000
000001a0: 0000 0000 0000 0000 0000 0080 0000 0000
000001b0: 0000 0080 0000 0080 0000 0000 0000 0080
000001c0: 0000 0000 0000 0080 0000 0080 0000 0080
000001d0: 0000 0000 0000 0080 0000 0080 0000 0000
000001e0: 0000 0000 0000 0000 0000 0080 0000 0000
000001f0: 0000 0000 0000 0080 0000 0000 0000 0000
00000200: 0000 0000 0000 0000 0000 0000 0000 0080
00000210: 0000 0000 0000 0000 0000 0000 0000 0080
00000220: 0000 0000 0000 0000 0000 0000 0000 0000
00000230: 0000 0000 0000 0080 0000 0000 0000 0000
00000240: 0000 0080 0000 0000 0000 0000 0000 0080
00000250: 0000 0000 0000 0080 0000 0000 0000 0000
00000260: 0000 0000 0000 0000 0000 0080 0000 0080
00000270: 0000 0000 0000 0080 0000 0080 0000 0080
00000280: 0000 0080 0000 0000 0000 0000 0000 0000
00000290: 0000 0000 0000 0000 0000 0000 0000 0000
000002a0: 0000 0000 0000 0000 0000 0000 0000 0080
000002b0: 0000 0000 0000 0080 0000 0080 0000 0000
000002c0: 0000 0080 0000 0000 0000 0000 0000 0000
000002d0: 0000 0000 0000 0000 0000 0080 0000 0080
000002e0: 0000 0080 0000 0080 0000 0000 0000 0080
000002f0: 0000 0000 0000 0000 0000 0080 0000 0080
00000300: 0000 0080 0000 0080 0000 0080 0000 0080
00000310: 0000 0080 0000 0080 0000 0000 0000 0000
00000320: 0000 0000 0000 0000 0000 0000 0000 0000
00000330: 0000 0000 0000 0000 0000 0000 0000 0080
00000340: 0000 0080 0000 0080 0000 0080 0000 0080
00000350: 0000 0080 0000 0080 0000 0080 0000 0080
00000360: 0000 0000 0000 0080 0000 0000 0000 0000
00000370: 0000 0080 0000 0080 0000 0000 0000 0080
00000380: 0000 0080 0000 0000 0000 0000 0000 0000
00000390: 0000 0080 0000 0080 0000 0080 0000 0080
000003a0: 0000 0080 0000 0000 0000 0080 0000 0080
000003b0: 0000 0000 0000 0080 0000 0080 0000 0000
000003c0: 0000 0000 0000 0080 0000 0080 0000 0080
000003d0: 0000 0000 0000 0000 0000 0000 0000 0000
000003e0: 0000 0000 0000 0080 0000 0000 0000 0000
000003f0: 0000 0000 0000 0080 0000 0000 0000 0080
0.0 0.0 0.0 -0.0 0.0 0.0 -0.0 0.0
0.0 -0.0 -0.0 -0.0 -0.0 -0.0 -0.0 -0.0
-0.0 0.0 -0.0 -0.0 0.0 -0.0 -0.0 -0.0
0.0 -0.0 0.0 0.0 0.0 0.0 0.0 0.0
0.0 0.0 0.0 0.0 0.0 -0.0 0.0 0.0
0.0 -0.0 -0.0 0.0 0.0 -0.0 -0.0 0.0
-0.0 -0.0 -0.0 -0.0 -0.0 -0.0 0.0 0.0
0.0 0.0 0.0 0.0 0.0 0.0 0.0 0.0
0.0 0.0 -0.0 0.0 -0.0 -0.0 -0.0 -0.0
-0.0 0.0 -0.0 -0.0 -0.0 -0.0 -0.0 0.0
-0.0 0.0 -0.0 -0.0 0.0 0.0 -0.0 0.0
0.0 -0.0 0.0 0.0 -0.0 0.0 0.0 -0.0
0.0 0.0 -0.0 -0.0 0.0 0.0 0.0 0.0
0.0 0.0 -0.0 0.0 -0.0 -0.0 0.0 -0.0
0.0 -0.0 -0.0 -0.0 0.0 -0.0 -0.0 0.0
0.0 0.0 -0.0 0.0 0.0 -0.0 0.0 0.0
0.0 0.0 0.0 -0.0 0.0 0.0 0.0 -0.0
0.0 0.0 0.0 0.0 0.0 -0.0 0.0 0.0
-0.0 0.0 0.0 -0.0 0.0 -0.0 0.0 0.0
0.0 0.0 -0.0 -0.0 0.0 -0.0 -0.0 -0.0
-0.0 0.0 0.0 0.0 0.0 0.0 0.0 0.0
0.0 0.0 0.0 -0.0 0.0 -0.0 -0.0 0.0
-0.0 0.0 0.0 0.0 0.0 0.0 -0.0 -0.0
-0.0 -0.0 0.0 -0.0 0.0 0.0 -0.0 -0.0
-0.0 -0.0 -0.0 -0.0 -0.0 -0.0 0.0 0.0
0.0 0.0 0.0 0.0 0.0 0.0 0.0 -0.0
-0.0 -0.0 -0.0 -0.0 -0.0 -0.0 -0.0 -0.0
0.0 -0.0 0.0 0.0 -0.0 -0.0 0.0 -0.0
-0.0 0.0 0.0 0.0 -0.0 -0.0 -0.0 -0.0
-0.0 0.0 -0.0 -0.0 0.0 -0.0 -0.0 0.0
0.0 -0.0 -0.0 -0.0 0.0 0.0 0.0 0.0
0.0 -0.0 0.0 0.0 0.0 -0.0 0.0 -0.0

onnx::Conv_93 f4 [64]
00000000: 885d 0880 becc 0f80 37ca 1180 76bc 2780
00000010: a341 2880 7062 0680 0024 3680 db88 1180
00000020: 4eaf 0080 12bd 403b 638f 2a80 3b81 1980
00000030: 6ad1 2480 2977 1680 6311 1d80 3c8a 2580
00000040: 04cc 723d 08f9 1c80 0c33 213d 074d 3780
00000050: 3ac3 2380 158e 3380 6022 0680 fd5a 2580
00000060: 56b9 0980 a840 f83d 8213 2380 d8c2 1080
00000070: ee2f 0e80 32e1 3cbc 5d4f ef3d 7c10 223e
00000080: a1f8 1680 f4c1 2a80 d1d8 38bd a8ff 1d80
00000090: 0c9f cfbd 56e7 0e80 b9bc 0080 833e 08b9
000000a0: b1ee 1380 c206 4480 30ae 1880 3021 4480
000000b0: c19e 1280 83cc 3080 a040 ccbb 0f8a 0780
000000c0: dca6 4080 10a8 2f80 39fd 2180 22e8 0b80
000000d0: 53a9 2a80 3782 2580 365a 0e80 8cbd 0880
000000e0: 10ff ec3b 5ff0 1580 77bf 96bc bfc5 35bd
000000f0: 185f 1e80 403d 0a80 c81e 1180 c900 1780
-7.68237e-40 -1.45098e-39 -1.633744e-39 -3.649191e-39 -3.696966e-39 -5.86326e-40 -4.972031e-39 -1.610298e-39
-6.2887e-41 0.002940957 -3.908528e-39 -2.342247e-39 -3.381201e-39 -2.063128e-39 -2.669467e-39 -3.447503e-39
0.059276596 -2.66073e-39 0.039355323 -5.078584e-39 -3.284276e-39 -4.73458e-39 -5.63344e-40 -3.430554e-39
-8.93005e-40 0.12121707 -3.22124e-39 -1.539265e-39 -1.302891e-39 -0.0115283 0.11685059 0.15826601
-2.109572e-39 -3.926668e-39 -0.045128647 -2.754942e-39 -0.10137758 -1.368685e-39 -6.7701e-41 -0.00012993258
-1.830501e-39 -6.247238e-39 -2.266539e-39 -6.256719e-39 -1.709989e-39 -4.481469e-39 -0.00623329 -6.92375e-40
-5.93733e-39 -4.376558e-39 -3.12141e-39 -1.093464e-39 -3.917833e-39 -3.444626e-39 -1.318059e-39 -8.0268e-40
0.0072325543 -2.014774e-39 -0.018401844 -0.04437804 -2.789178e-39 -9.40327e-40 -1.572246e-39 -2.112498e-39

onnx::Conv_95 f4 [64, 64, 3, 3]
00000000: bc57 c701 50ee 8c01 df94 cf01 da34 4d01
00000010: ecba 5881 f613 8980 254f cd01 32f2 4801
00000020: c591 8401 b034 2d01 3788 eb00 fd19 a101
00000030: 43b2 e001 e8b1 0b81 18a7 0882 94a7 dc01
00000040: 97b7 5301 38a5 aa01 3664 8901 96cf 8681
00000050: f80a 6901 3a06 2b80 3a6f 7481 4e1e 8581
00000060: 7694 8981 fd37 8901 5891 7f81 134c 0402
00000070: c555 d501 da96 cd01 5866 a000 dbf0 1680
00000080: 94eb 5e01 643a 2c02 ac2b 5d01 09dd e401
00000090: e69b 1381 e0e7 8f00 421e ad00 4290 3201
000000a0: ed6b 1601 e7d0 1681 399b 1e81 7f8c 1d01
000000b0: 127a 0801 6f29 8181 7c8c ab00 4a1b b581
000000c0: 5564 4a81 9084 6e00 f6de af80 96bd 8e81
000000d0: 47f0 a900 94ea e200 cf2f db81 6abf c481
000000e0: eb42 c981 d394 e701 4f5a c081 9efa b781
000000f0: 6aec ba81 7d2c b981 1397 b381 6f67 3a01
00000100: 2048 1001 1de9 de00 63b5 6a81 2f63 8901
00000110: 94d2 c980 f9a9 6381 4c22 8301 7c23 4e80
00000120: 2ff0 e800 9e9c 2381 d9ae 0001 b728 9100
00000130: 2152 cc80 b759 f500 f651 9600 f5e8 0b01
00000140: b5e3 da80 feb3 ae3c 278a 57bc 0196 b63c
00000150: 1bf3 623c ab8e 14bc e5a3 583c f29b 073d
00000160: 349a 843c a29b 103d 72e0 e901 0931 c701
00000170: 043d 2501 c8e1 9201 f668 4c00 566b 3380
00000180: b993 cf01 07a3 c901 a40c 7c01 61b2 4a00
00000190: 5e25 c701 b253 af01 011b 7900 92a4 1881
000001a0: 1422 d301 7d45 be00 9c81 7d00 7466 ae81
000001b0: 3927 0481 a705 1c82 1275 4682 6ee9 b180
000001c0: 0ca6 7a01 867c d101 4d12 b301 5917 ca00
000001d0: 5957 0581 fff2 c200 e3f4 5680 199d 2c81
000001e0: 4235 9900 9be3 3780 2c8d 0180 529b d500
000001f0: 3c9b 6400 6bbc ad01 3cfb d201 296c 7380
00000200: 2889 9080 88f5 2e00 7873 6480 5726 d680
00000210: 6cb1 6e00 2a2f ac80 c792 7380 cbdf 2181
00000220: d1ae 0381 4565 fd00 6e8c 1e81 6763 4601
00000230: 8dd2 3b01 bd23 0281 a90e 3f01 9ee1 3d01
00000240: fdc2 bebe 6fee 94be 3f21 4dbf 1004 6dbe
00000250: 1a50 55bd 6a68 b0be 463f 543f 456d 163f
00000260: 3e50 bd3e b048 9481 10b5 4381 6222 7f81
00000270: 7405 9a01 9662 4b81 0cba d081 3138 af81
00000280: 1502 3c81 7171 4f81 a207 05be eef9 a6bd
00000290: dea6 ebbe 0101 7bbc 9b7e a0be f0a7 08bf
000002a0: 571c 72be 0f8b 1fbf 04c1 25bf da13 c081
000002b0: 886e b701 9766 c501 8092 bc81 709a b401
000002c0: 6274 9d01 ced0 db81 30d6 d001 796c c301
000002d0: 03c7 1482 b667 8c81 66eb ac81 da9f 0182
000002e0: f69a 9c81 0be5 ea00 a3bb 9201 e4e3 9981
000002f0: a747 5181 7aa4 a081 b520 4c81 db37 c181
00000300: 233e 8781 9e57 c001 9e3e cb81 570c 8981
00000310: c637 cc01 cf7f c181 eaff bd01 b96f 1c81
00000320: b457 1381 b7af 5b01 2358 5901 226d 5e81
00000330: ba0a 9100 af03 5781 374f f600 50a3 3901
00000340: a15d 1181 8f86 0d81 9cac 6101 0253 4d81
00000350: fc97 3c81 46d0 5a81 e0b0 4d81 298d 3181
00000360: 2eb2 7601 847a 4581 c766 3581 b445 7c01
00000370: d2e8 6581 0262 4181 734e 6d01 3cb5 5201
00000380: 2220 4c81 ff0c d13e 25fd 6dbe 5fc6 25bf
00000390: 33fe 123f c942 183e 179e 5a3c 27eb 483f
000003a0: 4c2b 073d 8db0 c4be 246d ab01 6298 9401
000003b0: e1bf 8a81 d783 6081 9b73 a181 eebc 8281
000003c0: 802f 3b81 3c7f 9001 faf5 8681 49e3 8100
000003d0: e030 0e00 6eea 8201 7afb 5e81 600a 1281
000003e0: 79d9 4400 5dc6 0181 d927 4981 1423 1381
000003f0: 82e4 9981 67a0 7780 a4f1 2201 3234 8180
7.322695e-38 5.176984e-38 7.625341e-38 3.7690473e-38 -3.9807044e-38 -1.2588624e-38 7.5418674e-38 3.6907965e-38
4.869831e-38 3.1812883e-38 2.1630206e-38 5.917935e-38 8.25404e-38 -2.565791e-38 -1.0039656e-37 8.10557e-38
3.88863e-38 6.2685215e-38 5.046965e-38 -4.9521697e-38 4.280321e-38 -3.95116e-39 -4.4895523e-38 -4.889997e-38
-5.0538883e-38 5.040619e-38 -4.6940382e-38 9.719661e-38 7.8366916e-38 7.552157e-38 1.4730393e-38 -2.106784e-39
4.094398e-38 1.2653322e-37 4.0622622e-38 8.407114e-38 -2.7111488e-38 1.3215657e-38 1.5898395e-38 3.2796937e-38
2.7628082e-38 -2.770053e-38 -2.9131384e-38 2.8937147e-38 2.5066836e-38 -4.744657e-38 1.5754266e-38 -6.6528057e-38
-3.7173525e-38 1.0149459e-38 -1.6151195e-38 -5.2434604e-38 1.5606394e-38 2.0838973e-38 -8.0516497e-38 -7.2273695e-38
-7.393176e-38 8.506955e-38 -7.065925e-38 -6.75832e-38 -6.8664847e-38 -6.8022105e-38 -6.5970996e-38 3.4237015e-38
2.650037e-38 2.0471105e-38 -4.310915e-38 5.0468173e-38 -1.8534476e-38 -4.1815265e-38 4.8171014e-38 -7.175898e-39
2.1391997e-38 -3.005074e-38 2.3635334e-38 1.3330753e-38 -1.8763904e-38 2.253188e-38 1.3804726e-38 2.5697406e-38
-2.0101824e-38 0.021326061 -0.013155497 0.022288324 0.013851906 -0.009067218 0.013222669 0.033107705
0.016186811 0.035304673 8.5912746e-38 7.3171417e-38 3.034949e-38 5.395591e-38 7.01715e-39 -4.722115e-39
7.625176e-38 7.406967e-38 4.629416e-38 6.859817e-39 7.3154674e-38 6.4404944e-38 1.1121782e-38 -2.8036064e-38
7.755806e-38 1.7473672e-38 1.1525932e-38 -6.406452e-38 -2.4272712e-38 -1.1462692e-37 -1.458034e-37 -1.6338622e-38
4.603688e-38 7.6953157e-38 6.5780476e-38 1.8559146e-38 -2.449091e-38 1.7903257e-38 -7.985701e-39 -3.1704123e-38
1.4069936e-38 -5.132602e-39 -1.42478e-40 1.9616679e-38 9.239237e-39 6.382053e-38 7.750232e-38 -1.0599883e-38
-1.3273514e-38 4.312513e-39 -9.224972e-39 -1.966655e-38 1.0165552e-38 -1.5812625e-38 -1.0613736e-38 -2.9731593e-38
-2.4186325e-38 2.3270709e-38 -2.912077e-38 3.6438174e-38 3.4497538e-38 -2.390287e-38 3.5091678e-38 3.487569e-38
-0.3725814 -0.2908816 -0.80128855 -0.23146081 -0.052078344 -0.34454662 0.8290905 0.5876048
0.36975282 -5.4470915e-38 -3.594575e-38 -4.6860771e-38 5.657849e-38 -3.7355943e-38 -7.6674097e-38 -6.436548e-38
-3.453164e-38 -3.8101286e-38 -0.12991193 -0.08153139 -0.46025747 -0.015320064 -0.31346592 -0.5338125
-0.23643623 -0.6232156 -0.64747643 -7.0558147e-38 6.738219e-38 7.251358e-38 -6.927051e-38 6.6343164e-38
5.783969e-38 -8.0747515e-38 7.6714477e-38 7.178734e-38 -1.0930436e-37 -5.1576696e-38 -6.35206e-38 -9.523298e-38
-5.752771e-38 2.1571671e-38 5.3901175e-38 -5.653033e-38 -3.8438645e-38 -5.901073e-38 -3.7492349e-38 -7.097715e-38
-4.968033e-38 7.0655386e-38 -7.4660274e-38 -5.034356e-38 7.5017796e-38 -7.10804e-38 6.9794854e-38 -2.8732832e-38
-2.706256e-38 4.0350017e-38 3.991984e-38 -4.085326e-38 1.3319995e-38 -3.9491906e-38 2.2619949e-38 3.4096305e-38
-2.669947e-38 -2.599415e-38 4.1449814e-38 -3.771211e-38 -3.463919e-38 -4.0189705e-38 -3.7779455e-38 -3.2611043e-38
4.5310902e-38 -3.6271086e-38 -3.331819e-38 4.63351e-38 -4.2227698e-38 -3.551882e-38 4.358631e-38 3.8700938e-38
-3.7491937e-38 0.40830228 -0.23241098 -0.64755815 0.5741913 0.14869227 0.013343356 0.78483814
0.033000275 -0.38415948 6.297209e-38 5.458527e-38 -5.0968527e-38 -4.1236893e-38 -5.9307945e-38 -4.802556e-38
-3.4380555e-38 5.307982e-38 -4.9576785e-38 1.1928314e-38 1.30323e-39 4.809085e-38 -4.0955386e-38 -2.6823409e-38
6.322828e-39 -2.3835877e-38 -3.694646e-38 -2.7024803e-38 -5.6531216e-38 -1.0985966e-38 2.992807e-38 -1.1865503e-38

onnx::Conv_96 f4 [64]
00000000: 93e6 253e b6e1 5abd bc70 1e80 ccc1 2380
00000010: ff10 0180 97a3 0780 6427 b7bc b8dc 87bd
00000020: da83 8280 28ac e2bd de72 15bd 86a9 0780
00000030: 1ed6 55bd eb5a 0980 b340 0f80 21b0 0e80
00000040: 5050 1b80 7b21 80b9 5675 0980 bd6a 1180
00000050: 1959 0880 bacb 1580 c92e b9bd 8ea6 81bd
00000060: e390 1880 f2d5 1780 544b 1380 7259 96bd
00000070: bb55 2880 b03e 773e 7221 17be f711 3980
00000080: 1941 4280 ff33 55be 9408 cbad 4878 2580
00000090: 88c5 1e80 6d3d 1280 32a9 29bd 5cec 6f80
000000a0: 8065 efbd f732 d380 e14f b0bd ca7d ac31
000000b0: 0a05 b0be 1555 4780 518d 913e 0629 9fbd
000000c0: eea1 1580 b637 6cbd 8d31 aabd 33b1 7e80
000000d0: e3f0 153e 0935 1380 201e 6a3e cd78 8080
000000e0: 2302 4180 5d36 f7b6 0e26 1abd f442 1580
000000f0: b677 2680 7cd6 6a80 4c9e 643d c0f1 293e
0.16201238 -0.05343791 -2.795506e-39 -3.283764e-39 -9.7933e-41 -7.01533e-40 -0.02235765 -0.06633896
-1.1985914e-38 -0.110679924 -0.0364865 -7.03662e-40 -0.05220615 -8.59135e-40 -1.400742e-39 -1.34888e-39
-2.508369e-39 -0.00024439007 -8.68612e-40 -1.599494e-39 -7.66646e-40 -2.001629e-39 -0.09042127 -0.06330596
-2.256027e-39 -2.188966e-39 -1.771897e-39 -0.07341279 -3.704174e-39 0.24145007 -0.14758852 -5.241068e-39
-6.084495e-39 -0.20820616 -2.3082238e-11 -3.441062e-39 -2.825926e-39 -1.675074e-39 -0.041421123 -1.027853e-38
-0.116892815 -1.9395572e-38 -0.08608986 5.0201594e-09 -0.34378844 -6.550842e-39 0.28428128 -0.077714965
-1.986635e-39 -0.057670318 -0.08310232 -1.163484e-38 0.14642672 -1.7639e-39 0.22863054 -1.1798279e-38
-5.970074e-39 -7.3675023e-06 -0.037633948 -1.952564e-39 -3.532693e-39 -9.811505e-39 0.055815026 0.16596127
