cmd/ai/datas/models/rabbit_in_the_grass.onnx (onnx, 302121 bytes, 16 tensors)

fc.weight f4 [2, 256]
00000000: 5f80 593b c260 753d 202f 07be 13d0 cabd
00000010: 5894 6dbe dd37 78be 7cac 22bc ff68 f2bb
00000020: 5491 cabc 5f4c d8bc a300 8e3c 1e03 aa3c
00000030: c8e4 9e3b 693f 5c3d a9a8 dcbd 7779 acbd
00000040: d4c7 4ebd 161a 64bd 6875 3d3d a5c2 453d
00000050: 6b74 abbb d2f0 093d e005 22bd 30d7 bdbc
00000060: 372c bd3c 0ddc a23c 4fd9 5fbd 4549 6dbd
00000070: 52fe 9abd 746a d5bd 74c2 6f3d be5d 633d
00000080: d141 89bc 0316 13bd df14 273e 456f 203e
00000090: d009 eebd 2e5f 11be 9640 d53d 8bc3 be3d
000000a0: b628 bcbd 0277 f6bd 3ab4 dd3d 707d d03d
000000b0: b221 b321 633e a79f 4ce4 7521 352d 9ca1
000000c0: 3fc4 b8bd 64b0 02be 45ea 1c3e 6cb4 cd3d
000000d0: 4ed2 243e 28d1 273e 660a 1d3e 5e2a 2f3e
000000e0: 6b7d b53d 218d 573d de19 1a3e 0ea9 143e
000000f0: 3e48 8f37 781d 2b38 19ee e6b7 73cf 76b6
00000100: 9be4 cd3c 3fc3 923d 2998 09be bffd b5bd
00000110: b10f 95bd 8197 cabd 3926 b03d 97a4 853d
00000120: 0e73 8d25 f27d 8925 10ca 9425 6fea 9325
00000130: 9554 c13b ea8a fc3b 4097 c6bc ba04 93bc
00000140: 2fcf 6ab9 c5df e53c 7bcd 53bd 8959 e2bc
00000150: 69ff ccb0 fea4 fdb0 0d5d 8631 88ab 8931
00000160: 4743 44bd 8e49 e9bd fc71 bb3d fcf8 3d3d
00000170: f05c 2fbe a243 41be af49 fb3c 7008 f0bb
00000180: 2eaf d73c a8a9 b63c 62bd 37bd 986d 19bd
00000190: 8e88 93b9 66a9 adb9 de2e aa39 fb6a b039
000001a0: 222c fd3b 1e3b a33c 85d5 d7bc b677 89bc
000001b0: 0876 c2bd 1e33 ddbd 8cf4 dc3d 0988 5e3d
000001c0: 58b8 c13b de97 6d3d 2458 e8bd cc48 b5bd
000001d0: 9d4b 05be d50b 3abe 13b4 b43d 1cd3 083d
000001e0: 0d0d 53bd 40c7 dcbd e045 b13d 4ddd 133d
000001f0: 9a3e 89bd fa7d 92bd 3428 683d d01a 493d
00000200: d84b a23d 1f59 493d 27bc 7a3d d5fd 4c3d
00000210: e624 e9bb c552 c13c ffbc d4bc 96d4 12bc
00000220: d306 e93b 6682 56bb 1b96 0c3c d88d 9abb
00000230: 87c4 133e 8c9b 163e 7707 933d c16b 043e
00000240: e5c1 df35 d35f e035 ffca da35 294e de35
00000250: 130f 1d3c 2289 5f3d 9f74 36be 91ad 0ebe
00000260: 77a6 acbd 5aca 9cbd 7c6e 7b3d 0813 8f3d
00000270: 8126 fb3d 38b9 f43d f91a 0a3e d0e9 df3d
00000280: 1fff 403d 7f52 883d 63f5 043e 3eb1 053e
00000290: 3702 223d f79f 363d bc73 c8bd a0e7 e6bd
000002a0: e0bf 85be 03cf 85be ff2d 293d dc25 f13c
000002b0: 3cbb d83b b2e1 033c d792 82bc 6d5a 18bc
000002c0: 3e30 96bc b332 51bd 26b4 0a3e 30ee 0c3e
000002d0: e740 77bb e098 be3c aa06 13bd fb9d 58bc
000002e0: ab74 62be 5a9d 2fbe 93ab c6bd 81a8 43bd
000002f0: 2a0b adbd 7f21 e9bd 6db8 c43d 1c98 be3d
00000300: 8c84 10b0 1dbf 0c30 c348 41ae 8317 3da9
00000310: 4031 3e26 e332 5428 d41d 1027 b2d2 8428
00000320: 805c 923d 36f3 673d d967 433e 046b 4e3e
00000330: ddb1 eb3c df1c 383d f3a2 abbd ef0d 62bd
00000340: 0829 e2bd a3ed f6bd 6ec4 293d 92df 843d
00000350: 532c eabc ecb7 03bd 0ae6 c73c d335 f83c
00000360: 0c07 6cbd 5962 bdbd bcc0 cfbd d39c cebd
00000370: 8f00 d4bc 61a2 e5bc 5c8c cc3c 6e7b a73c
00000380: 7e27 1daf 22bd 12af 8d27 1caf 9a08 09af
00000390: f37a d4bc 53ea a63d e760 4cbe cc05 14be
000003a0: 2d30 83bd 4959 93bd 37d0 7f3d 621e 3a3d
000003b0: f0c7 0014 1c58 0913 d7f0 2d92 bb56 1694
000003c0: 0047 00b8 8593 12b8 e4e5 2138 9b6c 3138
000003d0: 80f4 2f3d 0cc8 df3c 87a0 93bd b6e4 b1bd
000003e0: 02ae 99bd 8a2b f3bd cfb6 b13d de7f 5d3d
000003f0: 7a29 833c a01f ca3c 8685 5dbe 4b9b 41be
0.0033188087 0.05990673 -0.1320157 -0.09902968 -0.2320112 -0.2424006 -0.009928819 -0.0073977704
-0.024727501 -0.026403604 0.017334288 0.02075344 0.00484905 0.05377141 -0.10774357 -0.08421605
-0.05048354 -0.05568894 0.046254545 0.04828133 -0.005232384 0.03367693 -0.039556384 -0.023173898
0.023092372 0.019880319 -0.0546506 -0.057931203 -0.07568039 -0.10420695 0.058535054 0.05550932
-0.016755017 -0.035909664 0.16316555 0.15667446 -0.11622965 -0.14196464 0.104127094 0.093146406
-0.091874525 -0.12034418 0.10825391 0.10180175 1.2138431e-18 -7.083046e-20 8.3311377e-19 -1.0582937e-18
-0.09021806 -0.127626 0.15323742 0.10044178 0.1609585 0.1638838 0.15335998 0.17106006
0.08861812 0.052624825 0.1504893 0.14517614 1.7080569e-05 4.0797022e-05 -2.752901e-05 -3.6777608e-06
0.025133422 0.071661465 -0.1343695 -0.08886289 -0.072783835 -0.09892178 0.086010404 0.06525534
2.4537565e-16 2.3851055e-16 2.581083e-16 2.5659293e-16 0.0058999755 0.0077069895 -0.024242043 -0.01794659
-0.00022393161 0.028060803 -0.051709633 -0.027630584 -1.4915545e-09 -1.8455066e-09 3.910492e-09 4.0067256e-09
-0.047915723 -0.113909826 0.091526 0.046380028 -0.17125297 -0.18873456 0.030674784 -0.0073252246
0.02632865 0.022297695 -0.044858344 -0.037458032 -0.00028139766 -0.00033123343 0.00032459846 0.00033649043
0.0077262083 0.01992565 -0.026346931 -0.016780715 -0.09495169 -0.108007655 0.10788831 0.054328952
0.005911868 0.05800616 -0.113449365 -0.088517755 -0.13017125 -0.18168576 0.08823409 0.033404455
-0.051526118 -0.107801914 0.08655906 0.03609972 -0.067013934 -0.07152934 0.056678966 0.049097836
0.07924622 0.049157258 0.061214592 0.05004676 -0.0071149943 0.023599038 -0.025969027 -0.008961817
0.007111409 -0.0032731532 0.00858071 -0.004716616 0.14430438 0.14707774 0.07179158 0.1293173
1.6671225e-06 1.6717189e-06 1.6301345e-06 1.6563037e-06 0.0095861135 0.05457414 -0.17817925 -0.13933398
-0.08430188 -0.07655783 0.061384663 0.06986052 0.122632034 0.1194939 0.13486852 0.10933268
0.047118302 0.0665636 0.12984233 0.13055894 0.039552893 0.044586148 -0.097876996 -0.11274648
-0.26122952 -0.261345 0.04130363 0.029436998 0.006614117 0.008049415 -0.01593916 -0.009298903
-0.01833355 -0.05107374 0.13545284 0.13762736 -0.0037727894 0.023266256 -0.035895027 -0.013221259
-0.22114818 -0.17149869 -0.09700694 -0.04776812 -0.08449395 -0.11383342 0.09605489 0.09306356
-5.2575255e-10 5.120329e-10 -4.3947745e-11 -4.1986823e-14 6.598624e-16 1.1779398e-14 2.0000184e-15 1.4746318e-14
0.07146549 0.05662843 0.19082583 0.2015801 0.028771335 0.04494941 -0.083806895 -0.05518907
-0.11042982 -0.12057044 0.041447096 0.06487955 -0.028585589 -0.032157823 0.024401683 0.030299103
-0.057623908 -0.09247274 -0.10144183 -0.100885056 -0.025879173 -0.02803153 0.024969272 0.020444598
-1.4293097e-10 -1.3345816e-10 -1.4202169e-10 -1.2463133e-10 -0.025937533 0.081501625 -0.1995884 -0.14455336
-0.06405673 -0.07194764 0.06245443 0.04543913 6.501779e-27 1.7335272e-27 -5.4886033e-28 -7.590169e-27
-3.0583702e-05 -3.49465e-05 3.8599494e-05 4.2301235e-05 0.042957783 0.02731707 -0.072083525 -0.08686201
-0.075038925 -0.11873539 0.08677446 0.05407702 0.016010989 0.024673283 -0.21632966 -0.18906896

fc.bias f4 [2]
00000000: 0d42 c23c 5615 363d
0.023713136 0.04445394

onnx::Conv_80 f4 [16, 3, 7, 7]
00000000: 865c 83bd 56f0 06be d67d 2e3d 5ecb 293e
00000010: a18f 91bd 8371 353e fee4 043e c376 47be
00000020: cb69 44bd fce0 823e 6cd6 243e 6c03 29be
00000030: 3d70 23be a894 343e e563 e6bd 0037 183e
00000040: f0c2 193e 4910 5bbe b537 a5bd eb00 7d3d
00000050: f56b a63e 0eaf bd3d e706 693d c516 0dbb
00000060: 3089 6bbe b76f 82be 1f97 e33c 5c23 b73e
00000070: bb70 f1bc d8c8 abbd 3855 b73d 02cb 68be
00000080: 6e60 3bbd 467c b63d 5af2 983e 6213 5abe
00000090: c043 8abc 75cd 2f3e 1061 21be a718 31be
000000a0: a8ab 1dbe 5d03 473e 6b9e 17be a536 033d
000000b0: e671 3dbe 73ce 55be cd96 72be 9b75 26be
000000c0: 649f 283e 4f4e ca3d 5e4c 3fbd 1fc4 a8bd
000000d0: acf9 e53c 0778 55be 619c 1bbe 07c6 f2bd
000000e0: 9fc3 eabd f3df 8a3d 095e 953e 7411 cbbd
000000f0: 82ab 16be ef1d 9dbe edb6 113e a889 6a3c
00000100: 3d25 c03d 0de1 a93c bad5 cabd 5dc4 d6be
00000110: 81ef acbe 648c e93d c9a2 6c3d c81d 9cbc
00000120: ad94 973d 60fb 5abe 08e3 9bbe 7e0d 5bbd
00000130: bab5 8abc 68c5 c43d 09a1 0a3e 2aeb 853c
00000140: 0c48 003d 1cb1 393b 6f20 fabd f94d e23d
00000150: 936f e13d 1e56 8e3d f184 1f3e 77c2 7c3c
00000160: 6f1b 11be 2863 1bbe 4c55 d4bd 9000 403c
00000170: fab7 943d 2aa5 163d 7cf9 95b9 2670 bebc
00000180: a78e 573c 73b9 023e a5ee d2be 2728 e0bd
00000190: b9f0 a93c fd91 353e 5ef0 c03b bdab afbd
000001a0: dc0e 523e c038 bebe 7c81 f2bb 3628 113e
000001b0: cbc0 243e 02f6 21bd 66f1 78bd 45e3 2ab8
000001c0: 02c8 91be 51bf 2c3c c9d0 de3c 473f e6bd
000001d0: 9394 5fbd ee55 d43d 45bd 1c3e d819 21be
000001e0: dbd0 49bb f84b d8bc 0003 a1bd a7c5 c6bd
000001f0: 059f 923d c4eb dc3e 2b2a d5bd cfb3 e43d
00000200: b783 fa3d 67f7 4d3b 75c3 3f3c 2e64 2c3e
00000210: c40d b53e 3fd1 aebc 17d7 70bd e59f 803c
00000220: 3a60 e63d 8549 e7bd dbb4 0dbe 1554 da3d
00000230: 3ab1 40bd 65c0 e33d 111b b03d 077d 1dbe
00000240: b986 04be cfe3 c3bc cfe1 3c3e 4199 8a3c
00000250: ebce 433c 073d 353d 2e06 5ebc 57d0 aebb
00000260: 23fd cdbc a237 223c 8ba7 91bc f2f2 9a3c
00000270: 0e27 6f3a d30b 053c 2bde 293c a2c9 b43c
00000280: 8b38 993c 98b4 c8bc bf5c 97bd afb2 51bc
00000290: 579a b83c 4ce3 b13c 3ce0 ff3b 8aad a83c
000002a0: 6456 873b aaef 43bd be0f 52bd 0f86 87bd
000002b0: 4117 6cbd 8b3e 803b a38a eb3b e32b 2dbd
000002c0: c239 2dbd c60d 66bd a04d 8cbd c386 acbd
000002d0: 1389 3dbd 01ad ccbd 7166 96ba 93f6 45bc
000002e0: 6ecd 6ebd 2d38 c5bd 6bb0 b9bd 8c2f 4cbd
000002f0: d123 aabd 1df5 083d d3f5 013d a5a0 c13c
00000300: 79ae 8abd 815d 90bd 15b4 89bd 5cc7 313c
00000310: a9f0 243c 3cae 483d 858d 793d 1be9 973c
00000320: 76f4 903d 60cd 553d 388c 863d c73f 3dbc
00000330: 9961 8e3d b881 b83d c25e f53d 818c c73d
00000340: 447e e33d bf77 973d 718b 0dbd 6797 cd3c
00000350: 6ef1 713d ea53 f43d 4d01 f83d 30e3 003e
00000360: 348f 853d 9f6b 37bd 601e 37bd fd32 083c
00000370: f9d5 953d c56f 7b3d 23c3 b33d fb6e 6d3d
00000380: 9050 47bd 87a0 40bd 2547 c1bd 52e0 aebd
00000390: 268c 96bd cb86 44bc bba6 d3bc e807 b3bc
000003a0: ea1d a53b bfce 1db9 318b 20bd 7889 dfbd
000003b0: 07e9 4dbd e7cb a7bb 0301 283d c9da 99ba
000003c0: c713 88bd 0ab1 95bd 0861 49bd 8228 19bd
000003d0: 7f54 a6bd 8dc0 833d 8bd9 ce3d d534 2c3d
000003e0: 55e9 e73d 9b2e d23d 3e5a de3d da7b 8d3d
000003f0: a3c9 633d f3f7 bf3d 5cea d33d 8dc8 cb3d
-0.06414132 -0.13177618 0.042600475 0.16581485 -0.07107473 0.17719083 0.12977979 -0.19478898
-0.047952455 0.25562274 0.1609742 -0.16505212 -0.15960784 0.17634833 -0.11249522 0.14864731
0.15015769 -0.21392931 -0.08067266 0.061768454 0.3250424 0.09261905 0.05689135 -0.0021528464
-0.23001552 -0.25475857 0.027782021 0.35769165 -0.0294727 -0.08387917 0.08951801 -0.22733691
-0.04574626 0.08910422 0.298724 -0.21296456 -0.016878009 0.1716822 -0.15759683 -0.1729456
-0.15397513 0.19434877 -0.14806525 0.032034535 -0.1850048 -0.20879535 -0.23690338 -0.162558
0.16467053 0.098782174 -0.04670369 -0.08240532 0.028073154 -0.20846568 -0.15196373 -0.11854177
-0.11463093 0.06780996 0.29173306 -0.09915438 -0.14713863 -0.306869 0.14229937 0.014315046
0.09382103 0.020737195 -0.09904046 -0.41946688 -0.33776477 0.114037305 0.05777243 -0.01905717
0.074014045 -0.21384954 -0.3044665 -0.053479664 -0.016932357 0.09607965 0.13537993 0.016347487
0.03131871 0.0028334325 -0.122132175 0.11050028 0.11007609 0.06950019 0.15578057 0.015427223
-0.14170621 -0.15174544 -0.103678316 0.011718884 0.07261653 0.036778606 -0.00028605375 -0.023246836
0.01315657 0.12766056 -0.41197696 -0.109451585 0.020744668 0.17731471 0.005888029 -0.08577678
0.20513481 -0.37152672 -0.0074006896 0.14175496 0.1608917 -0.039541252 -0.06077709 -4.074282e-05
-0.28472906 0.01054366 0.027199166 -0.11242538 -0.05458505 0.10367952 0.15306576 -0.15732515
-0.0030794654 -0.026403412 -0.078619 -0.09705668 0.07159237 0.43148625 -0.104084335 0.11167108
0.12232154 0.003142798 0.011704315 0.1683509 0.35362065 -0.02134001 -0.058798876 0.015701244
0.112488225 -0.112933196 -0.13838522 0.106605686 -0.047044016 0.11120681 0.085989125 -0.15379725
-0.12942018 -0.023912339 0.18445514 0.01691878 0.011951189 0.044247653 -0.013551278 -0.0053348946
-0.025145119 0.009900959 -0.017780086 0.018914673 0.0009122946 0.008120495 0.01036791 0.022068802
0.01870372 -0.024500176 -0.07390737 -0.012798949 0.022534532 0.021714829 0.0078087132 0.020590562
0.0041301716 -0.047835983 -0.051284544 -0.066173665 -0.057639364 0.0039137057 0.0071881576 -0.04227818
-0.04229141 -0.05616548 -0.06850743 -0.08424141 -0.046273302 -0.099939354 -0.0011474622 -0.012082714
-0.05830138 -0.09629855 -0.09066852 -0.04985003 -0.08307613 0.033436883 0.031728577 0.023636172
-0.06771559 -0.070490845 -0.06723801 0.010850754 0.0100671435 0.048994288 0.06092598 0.01854377
0.07077877 0.052197814 0.06569713 -0.01155085 0.06952209 0.09009117 0.11980964 0.09743596
0.11108068 0.07395887 -0.03455681 0.025096608 0.059068136 0.11930068 0.12109623 0.12586665
0.065214545 -0.04478037 -0.044706702 0.008312938 0.07316203 0.06138589 0.08777454 0.057967167
-0.048660815 -0.04702809 -0.09437398 -0.085388795 -0.0735095 -0.011995028 -0.02583634 -0.021854356
0.0050389664 -0.00015049706 -0.039195243 -0.10914892 -0.05027106 -0.0051207426 0.04101659 -0.0011738177
-0.06644397 -0.07309158 -0.0491648 -0.037392147 -0.08121585 0.064332105 0.10100087 0.042042572
0.113238014 0.102627955 0.10857056 0.069083884 0.055612218 0.093734644 0.10347435 0.099503614

onnx::Conv_81 f4 [16]
00000000: 5b83 283f 90d7 1abe 3ffe 60be e803 3abf
00000010: c2bc 26bf bce6 453e 4f2f e53e cdfc 893e
00000020: 591e af3e a2ff 74bd bd04 3e3f 2ae1 ad3d
00000030: 2a9b 56be 5610 fc3e 79f4 a43d 4441 3a3f
0.6582543 -0.15121293 -0.21971987 -0.7266221 -0.6513177 0.193263 0.44762656 0.26950684
0.3420284 -0.059814103 0.7422598 0.08490212 -0.20957628 0.49231213 0.08054442 0.7275584

onnx::Conv_83 f4 [32, 16, 3, 3]
00000000: 69fd b62e fa83 a92d 3f70 3ead b28e ccac
00000010: 96b6 812c 2e76 eead c637 722b e90a 942d
00000020: 50c5 8f2e 22ba 6daf c00b d1ae c85f 6dad
00000030: 62a5 e6ad 5f36 caab 752c 64aa 6ecc 26ac
00000040: e364 fda9 c995 0daa f3e9 19ac 3e07 ae2a
00000050: 8125 e3a8 3b7d 7fad 2eea 22ac 0401 2ead
00000060: 2d3a 32ae 691b f0ad ca89 b92e a919 b3a1
00000070: 570a 72a1 3149 01a3 5737 30a4 0ff9 8ea4
00000080: 6997 4ba6 333f a3a5 f9fb 57a7 230b 63a8
00000090: bb8e c99e f353 0f9f 034a b1a0 eccd 9da1
000000a0: b44a 36a2 0f9e 39a4 5f0a 0aa3 7a84 fca4
000000b0: 76a3 37a6 e598 eaad 28bd 302f 2b6e 49ad
000000c0: a8cf 81af 3197 a22d f168 62ab 85d6 68ad
000000d0: 9a62 8eab 741c 8e29 c5ad 882d 8aeb 582d
000000e0: 4d6d 30ac ccfa aaad a218 d32d 2f40 eb2c
000000f0: 9b94 0e2e 643e 532e b0b0 8c2e 2ea7 542b
00000100: bc80 ab2b a0bb 7e2a bf33 fa29 04d5 2f2a
00000110: d50e 4c2a 413d cb2b c593 0b2c 6f8b 202c
00000120: 0ee7 3530 6f3a 1e31 fb14 db31 a9d6 1faf
00000130: 3423 fd30 ec7d 5d30 691d 12b0 811c eb30
00000140: da54 0f2d dd2b eeae 078c 732e d90b 03ad
00000150: c341 17b0 53a3 182d 3ef0 042d 2147 822e
00000160: 047b 5f2d df44 db2c 847b 1caf 5eee 2f30
00000170: 72b5 c42f 9d22 8ab1 4d6b 3eb1 d0ef 5cb1
00000180: 27a9 f9b0 98fb c0b0 9f01 38b1 0b01 0000
00000190: 5c05 0000 d30b 0000 100c 0080 a911 0080
000001a0: 7f03 0000 7d13 0080 0d11 0080 8b02 0080
000001b0: 0c57 1932 69f6 87b0 9b76 aab0 c7c8 4cb2
000001c0: 477f 43b1 f35c edad 92bf 6531 bc8d c12e
000001d0: f3c5 882d 1e0f 6933 b48d 1133 9f96 2832
000001e0: 9b7c f231 93e7 5b31 bdaf 35b1 ecc2 0ab1
000001f0: 0376 f030 0a3d 73b1 aeec b7b1 0f72 12b2
00000200: 05b1 72b2 8f4a acb1 a48b aeb1 7704 e5b1
00000210: ee49 c3af 328e 0fb0 05f7 85b0 33a5 9fab
00000220: 329c 242c 3330 87ab 45c7 e3aa f394 402a
00000230: c3f0 acaa eb5c f2a9 0049 c629 82de 1eaa
00000240: 906a 9dbb 0b68 8e3d 202a e43d 2c04 e43c
00000250: 4a96 ce3c 44bd 753d 70a7 5e3b 7c0c 4ebc
00000260: 5d71 afbc 7076 d03c 1326 3e3c e54b 80bd
00000270: d957 dc3c f6f4 453d fab4 7b3d 0b14 c23d
00000280: 3150 c93d efad f83d c43c 373d 3ccb 0a3d
00000290: cd3e 623d ff3a 743c 0e59 a03d 070d c53d
000002a0: 98d8 ac3c 1a58 163d 5d91 7d3d dd21 773d
000002b0: 79ff 8a3d 67b2 b23c 62e2 8f3d d3ec 8c3d
000002c0: 3311 883d 8b63 103d e8e7 353d 48e1 bb3c
000002d0: 7c20 773d 0853 2b3c 8ad0 f93c cedb 643d
000002e0: cd3a a33d 8065 323d bd52 263d cc47 403d
000002f0: c74e 0a3d 14a7 05bd ba47 39bd 7311 ea3c
00000300: 9521 513c 74ed 8aba 1491 b73d cb49 9ebc
00000310: 5a36 203d 84fe 753d 032e c4bc 6d15 a13c
00000320: c477 cc3b 8e22 12bc ffa9 24bb 0d27 05bd
00000330: 2838 10bc 760a fdbc 07f0 a0bc c091 133c
00000340: 2ff0 773c fc6e ea3b 7391 44bc fdb9 ba3c
00000350: ad09 fcbb fb00 b23c afdb 083d 80c2 f33c
00000360: 1007 96bc 108d 413c 491f 183d f8ce d5bb
00000370: 66c3 003c f17b 96bc 1a6f 80bd 8c28 63bd
00000380: 1270 69bd 8c06 ecbc 2d1f 99bc 9ef4 d6b9
00000390: 2c12 f6bc c9fd 9ebc 33ca 76bd 585b 61bd
000003a0: dd8b 9fbd 3c49 66bd a203 1bbc fbd4 27bd
000003b0: 3f1a 46bb c8bf 293a 7d0f 88bd 00cd 5bbd
000003c0: e654 f23c c6ae f63c e4ca 1f3d 7787 093c
000003d0: 45e4 0e3c dc84 f13b b865 e13b a228 dd3b
000003e0: e183 8f3b 16fd 5b3b c89c 233b 4c8a bb3a
000003f0: be43 c2bc 9bde 8cbd b95e 9fbd 9c7d a43c
8.3214165e-11 1.9271685e-11 -1.0825173e-11 -5.813871e-12 3.6866716e-12 -2.710995e-11 8.605307e-13 1.6830497e-11
6.537937e-11 -2.1621152e-10 -9.506307e-11 -1.3493158e-11 -2.6221417e-11 -1.4368054e-12 -2.0265892e-13 -2.37035e-12
-1.1252958e-13 -1.2575283e-13 -2.1872476e-12 3.0913634e-13 -2.5218327e-14 -1.45228786e-11 -2.315158e-12 -9.89098e-12
-4.0524185e-11 -2.7297014e-11 8.437302e-11 -1.2136304e-18 -8.2006474e-19 -7.008603e-18 -3.821079e-17 -6.2004605e-17
-7.063497e-16 -2.8318818e-16 -2.9973838e-15 -1.2603446e-14 -2.1340735e-20 -3.035087e-20 -3.0033943e-19 -1.0693241e-18
-2.4705147e-18 -4.024936e-17 -7.483191e-18 -1.09512e-16 -6.371241e-16 -2.6670619e-11 1.6074309e-10 -1.1449989e-11
-2.3612512e-10 1.848441e-11 -8.0436965e-13 -1.3235306e-11 -1.0117074e-12 6.3110026e-14 1.5538579e-11 1.2330479e-11
-2.5071778e-12 -1.9438139e-11 2.3998862e-11 6.6862275e-12 3.241905e-11 4.803126e-11 6.397849e-11 7.554954e-13
1.2186012e-12 2.2624827e-13 1.1111207e-13 1.5617027e-13 1.8123986e-13 1.4441019e-12 1.9835117e-12 2.2814769e-12
6.6175765e-10 2.3025242e-09 6.376124e-09 -1.4537228e-10 1.8418178e-09 8.057828e-10 -5.3156285e-10 1.7106602e-09
8.14745e-12 -1.08307786e-10 5.5376172e-11 -7.449119e-12 -5.5026933e-10 8.676465e-12 7.556676e-12 5.9243506e-11
1.2703397e-11 6.2320006e-12 -1.4231999e-10 6.400337e-10 3.5781117e-10 -4.0202637e-09 -2.7709632e-09 -3.2150531e-09
-1.816521e-09 -1.4041346e-09 -2.6776446e-09 3.74e-43 1.923e-42 4.242e-42 -4.327e-42 -6.335e-42
1.254e-42 -6.991e-42 -6.117e-42 -9.12e-43 8.925564e-09 -9.892577e-10 -1.2402838e-09 -1.1920014e-08
-2.8448583e-09 -2.6985058e-11 3.343278e-09 8.801801e-11 1.5549317e-11 5.426329e-08 3.388932e-08 9.813134e-09
7.057293e-09 3.200033e-09 -2.6438862e-09 -2.0192443e-09 1.7495839e-09 -3.539585e-09 -5.3529083e-09 -8.524252e-09
-1.41265035e-08 -5.014335e-09 -5.079942e-09 -6.6652848e-09 -3.5522824e-10 -5.222517e-10 -9.747231e-10 -1.1343481e-12
2.3392508e-12 -9.605705e-13 -4.046157e-13 1.7104703e-13 -3.07204e-13 -1.07630776e-13 8.80563e-14 -1.4110417e-13
-0.004803963 0.06953438 0.11140847 0.02783402 0.025218148 0.05999495 0.0033974312 -0.012576219
-0.02141636 0.0254471 0.011605757 -0.06264476 0.026897358 0.048329316 0.06145189 0.09476479
0.098297484 0.1214255 0.044735685 0.033885226 0.055235673 0.014906644 0.07829486 0.096216254
0.021099374 0.036705114 0.061906207 0.06033503 0.06787009 0.021813584 0.07025601 0.06881108
0.066439055 0.03525118 0.044410616 0.02293457 0.060333714 0.010456808 0.030494947 0.055873685
0.079702 0.04355383 0.04060625 0.04694347 0.033766534 -0.03263004 -0.04523442 0.028572774
0.012764354 -0.0010599331 0.08963218 -0.019322297 0.039114334 0.06005718 -0.023947721 0.019663537
0.006239863 -0.008919371 -0.002512574 -0.032507945 -0.008802451 -0.030888777 -0.019645704 0.0090069175
0.015132948 0.0071543436 -0.011997568 0.022793764 -0.007691583 0.021728983 0.03341263 0.02975583
-0.018313915 0.011813417 0.03713921 -0.0065249167 0.007859087 -0.018369647 -0.06271191 -0.05545859
-0.056991644 -0.028811716 -0.018691624 -0.00040999515 -0.030037962 -0.019408124 -0.060251426 -0.055018753
-0.07790349 -0.056222185 -0.009461315 -0.0409746 -0.0030228046 0.0006475416 -0.06643579 -0.0536623
0.029581498 0.030112635 0.03901185 0.008394114 0.008721416 0.0073705744 0.006878581 0.0067492286
0.004379735 0.00335676 0.0024965275 0.0014308183 -0.023713943 -0.06878396 -0.07781739 0.020079426

onnx::Conv_84 f4 [32]
00000000: be10 6aba f98b 48bf 956a 63af bced e33e
00000010: 98c5 343e 5498 9dbd 08ee d83b 680f 453b
00000020: c0a1 f83b b663 173d b882 933e f931 0b3d
00000030: 62b0 513e 5ae1 89be 1485 abbd c1d6 f3ba
00000040: 29cc 273e e519 433e ba90 94a9 f69a da3e
00000050: 5d28 ccbe 86fe a73e 76b6 988f b0b8 353d
00000060: 9083 0cbe 5fbe b5b9 8678 673f 2f62 1a83
00000070: 4212 693c f0c3 e43e 891e 42bd cab4 85be
-0.00089288864 -0.7833858 -2.0683395e-10 0.44517314 0.17653501 -0.0769507 0.0066201724 0.0030068997
0.0075876415 0.036960326 0.28810668 0.033983205 0.20477441 -0.26929742 -0.08374992 -0.001860343
0.16386475 0.19052847 -6.5976264e-14 0.4269635 -0.39874545 0.32811373 -1.5058639e-29 0.044365585
-0.13722062 -0.00034664848 0.9041828 -4.536924e-37 0.014225544 0.44680738 -0.0473924 -0.26114494

onnx::Conv_86 f4 [32, 32, 3, 3]
00000000: d7db 9a20 ffbb 181f 91d4 9121 33f1 0ba6
00000010: 9fbb 28a3 d39b 37a3 6b0a a7aa 1d3c 40aa
00000020: b924 99ac 874f 113b 6221 60bb d62d a4bc
00000030: 8b61 1abc 20fa 93bc 9757 13bd 1275 a4bd
00000040: dde5 aebd bdc7 fdbd 1481 0080 eb35 0080
00000050: a340 0000 a063 0000 9546 0080 7219 0080
00000060: b740 0080 bc08 0000 3a56 0080 8d90 7cbd
00000070: 65e1 66bb 4d62 0dbd 3a64 66bd 1dbb bd3c
00000080: 094b a9bd f1de 00be 6ee4 cebc 97d5 14be
00000090: 7b56 3bbb a4e5 5cbc 77f8 7bbc 2c09 19bc
000000a0: ee3f 48bc 5c69 c8bc c9aa febb 79e2 87bc
000000b0: 26cc e3bc 6206 963c 3c44 933c b39c 503c
000000c0: 57e0 b93c 165d b03c 074d 8c3c 0e7a bd3c
000000d0: 3b2c c93c 3152 aa3c 5997 87bd 8910 143d
000000e0: bbe2 023d c5fb 45be c403 edbd a110 71bd
000000f0: cbc6 e3bd 7680 91bc 9932 973c 4bb0 abbb
00000100: 1fad 193c 560e efbb d992 58bc 094d c13b
00000110: 735c 21bc 81e2 89bc 5ce4 b1ba ada1 46bc
00000120: bb21 853c 23a1 163d 8c2d 863c f569 75bd
00000130: f5a3 2fbd 91c7 88bd c617 f1bd 1ae1 90bd
00000140: 9cb0 fbbd 41a3 e03b 20f4 8f3b 3e63 383b
00000150: 8f1c c93b 6dd0 b63b dcbb c83a c3b1 443b
00000160: 1cfd 0e3b 0fa2 203a 75de 543d bde7 fb3d
00000170: b9e2 993d 6428 ce3d 927e 223e 1f73 c23d
00000180: 78ad bf3d 4683 1c3e 7c1f de3d 3cba c3bd
00000190: b02a 2fbd 7404 dabc 4be5 fabd e37c 0fbc
000001a0: 8b84 47bc 8cdf 13be 0d7b 51bd e315 96bc
000001b0: 0ff9 0e3c be16 38bd cb1f 43bd d30a b53c
000001c0: 4d28 b53a 6c11 4f3b ad32 cdbd 145a 5ebd
000001d0: e2b7 12bd d1dc 88bd 10c1 9cbd 1081 7dbd
000001e0: 1d85 05bd c449 2d3c 8ba2 14bc 2382 453c
000001f0: 4f6f 823d 50d6 4c3d d93b 113c 001f 0bbb
00000200: ca24 1a3d 4e71 923b 48bb b4bb 8b00 0f3d
00000210: 76c4 693c 739f f23c 25dd 8e3d 862e 2636
00000220: 2cbe 5336 8c05 1536 4c06 6b97 7538 6b1e
00000230: 41b8 0d1b 34f1 ad16 6f72 7519 ae11 0c1a
00000240: 0883 53bc 2a7a 8d3c 5ed2 57bb 4204 ffbd
00000250: 80c1 a6bd 2dfe bdbd 0cd7 cfbd 6006 89bd
00000260: 92f4 a9bd 91ed 77bc 057b 32bc f946 90bc
00000270: 6e25 b1bc 7f03 49bc 3bd9 b6bc ddf1 82bc
00000280: 750c 7ebb 4487 5cbb bd94 0080 144f 0000
00000290: 5405 0080 682d 0080 a020 0000 0e3c 0080
000002a0: ad45 0080 c9af 0000 7c45 0080 0594 883c
000002b0: 0ae0 7c3d 4505 983d 84cb 93bd 438a 63bb
000002c0: 8a56 0bbc fd1c 9fbd 7ebf 8139 e563 0dbc
000002d0: 826c 88bd 9734 25bd 7eff e3bc 149f ebbd
000002e0: c462 0dbe 918a 0abe 5fae 02be a8e5 f8bd
000002f0: 930d 0fbe 7cda 8e3d 5c1d fe3d 49a1 413d
00000300: 139d 67bd 16c0 e03c 1a70 4f3b 529e e3bd
00000310: b818 3ebd 0c4f cbbd 5623 0080 44ab 0000
00000320: d547 0000 623f 0000 8bb1 0000 9e9d 0000
00000330: 3b39 0080 5c2b 0000 12a3 0000 8a30 6a3d
00000340: 155f d93c 607b 1f3b 829a 8cbd 889e 1ebd
00000350: 73ce b0bd 56ab 1ebe b284 e8bd 8304 16be
00000360: 4366 ad3d 649a f73d a0ce ea3d 80f3 873d
00000370: 2428 d03d 2dd3 a83d 06a5 4c3a d8d5 b53c
00000380: 8867 753c 74fe 0406 7aa2 200b f193 9b12
00000390: 33ec 0002 d23d 2483 d573 1009 6e69 cc0e
000003a0: 1876 c40e 8271 0e11 901d 433c 4f35 283d
000003b0: 6999 003d 98a4 e2bd 7a6f 07bd beb6 76bd
000003c0: 17c8 20be 36b5 0abd 1b7c 9abd 0076 0000
000003d0: 44d2 0000 ef8f 0080 8640 0080 0b10 0080
000003e0: ba83 0080 09b3 0000 e570 0080 b5af 0000
000003f0: 3c6a 0ebd 21ef 44bc 205c 2bbd 381c 9bbd
2.6234093e-19 3.234276e-20 9.881848e-19 -4.85522e-16 -9.1470286e-18 -9.953447e-18 -2.9672388e-13 -1.7073882e-13
-4.3525986e-12 0.0022172646 -0.0034199585 -0.020041388 -0.00942267 -0.018063605 -0.035972204 -0.08030142
-0.08539937 -0.12391613 -4.6305e-41 -1.9342e-41 2.3187e-41 3.5739e-41 -2.532e-41 -9.128e-42
-2.3215e-41 3.133e-42 -3.0932e-41 -0.061661292 -0.003522956 -0.034517575 -0.056247927 0.023160512
-0.08266265 -0.12585045 -0.025255408 -0.14534603 -0.0028585482 -0.013482485 -0.015379063 -0.009340566
-0.012222273 -0.024464302 -0.007771824 -0.016587483 -0.027807306 0.01831359 0.017976873 0.0127326725
0.022689981 0.021528762 0.017126573 0.02312949 0.024557224 0.020791145 -0.06620664 0.03614858
0.03195451 -0.19334324 -0.11572984 -0.05885375 -0.11121901 -0.01776145 0.018456744 -0.0052395216
0.009379654 -0.00729541 -0.013218605 0.005899076 -0.009848702 -0.016831638 -0.0013572085 -0.012123507
0.016251436 0.036774766 0.01637914 -0.0599155 -0.04288097 -0.06678689 -0.117721125 -0.07074185
-0.12289545 0.006855399 0.0043931156 0.0028135325 0.0061374377 0.0055790455 0.0015314776 0.003001318
0.0021818345 0.0006127664 0.051969964 0.1230006 0.07513947 0.10066298 0.15868595 0.09494614
0.093592584 0.15284452 0.10845849 -0.09557006 -0.04276532 -0.026613452 -0.122507654 -0.008757803
-0.012177597 -0.14440745 -0.05114274 -0.018320983 0.008726372 -0.044943564 -0.047637742 0.022099888
0.0013821215 0.0031596078 -0.10019431 -0.054285124 -0.035819896 -0.066827424 -0.07654011 -0.06189066
-0.03259765 0.010576669 -0.009071956 0.012054953 0.06368887 0.05000907 0.008864366 -0.0021228194
0.03763274 0.0044690734 -0.0055154897 0.034912627 0.014268031 0.029617047 0.06975774 2.4763008e-06
3.1552145e-06 2.220596e-06 -7.5940543e-25 1.24524715e-20 1.1722782e-22 2.8101878e-25 1.2689313e-23 2.8965603e-23
-0.012909658 0.017270166 -0.0032931785 -0.12451984 -0.08142376 -0.09276996 -0.10148439 -0.06690669
-0.08298601 -0.015132324 -0.010893588 -0.017611967 -0.021624293 -0.0122689 -0.02232038 -0.01598447
-0.003876475 -0.003364996 -5.3357e-41 2.8368e-41 -1.911e-42 -1.6289e-41 1.1704e-41 -2.1544e-41
-2.4995e-41 6.306e-41 -2.4926e-41 0.016672144 0.061737098 0.0742288 -0.07216552 -0.0034719862
-0.008504519 -0.07769201 0.0002474747 -0.008629774 -0.06661321 -0.040333357 -0.02783179 -0.11504951
-0.13807207 -0.13529421 -0.1276183 -0.121531785 -0.13970022 0.06975266 0.124079436 0.047272954
-0.056546282 0.027435344 0.003165251 -0.111141816 -0.046410292 -0.09927186 -1.2676e-41 6.1439e-41
2.5768e-41 2.2737e-41 6.369e-41 5.6542e-41 -2.053e-41 1.5554e-41 5.8499e-41 0.057175197
0.026534596 0.0024335012 -0.068654075 -0.038725406 -0.08633127 -0.15495047 -0.113534346 -0.14650159
0.084667705 0.120899945 0.11465192 0.06638241 0.10163906 0.082434036 0.0007806573 0.022196695
0.014978297 2.5013383e-35 3.0937113e-32 9.818346e-28 9.471741e-38 -4.8266235e-37 1.7387833e-33 5.0391408e-30
4.843145e-30 1.1236802e-28 0.011908904 0.041066464 0.031396303 -0.1106655 -0.033065297 -0.06023287
-0.15701328 -0.033864222 -0.075432025 4.233e-41 7.5429e-41 -5.1634e-41 -2.3147e-41 -5.755e-42
-4.7255e-41 6.4226e-41 -4.0499e-41 6.3032e-41 -0.03476928 -0.012019903 -0.041835904 -0.07573742

onnx::Conv_87 f4 [32]
00000000: 286e a63e dc1b 86bd 2e25 18bd cee1 dcbd
00000010: aaf0 07bc 2a43 84bd 50cb 9ba1 3749 4bbe
00000020: 5e87 16be 5a10 0080 c670 853e 9c69 0e3c
00000030: 73fe bf3c ac8e 68be 109e af3d 595c 1dbd
00000040: 8f94 e8bd c359 d93d f0b8 90bc 2d91 91bc
00000050: 2a87 033e bf14 f73d df07 0000 aa0a 7f3e
00000060: ed43 113e e872 5bbc 5464 893c db9e 0000
00000070: f448 833c 48ab 253f 2d84 da3e eec8 413c
0.32505918 -0.065482825 -0.037144832 -0.10785256 -0.008297125 -0.06458123 -1.0557025e-18 -0.19852148
-0.14700076 -5.866e-42 0.26062602 0.008692171 0.02343676 -0.22710675 0.0857507 -0.038418148
-0.1135646 0.10612824 -0.01766631 -0.01776942 0.1284453 0.12064504 2.824e-42 0.24906412
0.14186068 -0.013394095 0.016771473 5.6987e-41 0.016025998 0.6471448 0.42678967 0.0118276905

onnx::Conv_89 f4 [32, 16, 1, 1]
00000000: 54d6 2b3e a24c 5f3e 65b5 ccbd 9bb0 f3bc
00000010: fddf 853d 7de3 2cbd dc6f ba3d 73b3 943d
00000020: 0c28 d23d c3da b9bd 1d6e 0bbd e848 0d3d
00000030: f7df 1dbe d5da 8a3d b293 41be 2eb5 a23e
00000040: bab1 1abe 3e50 ac3e c25f aebd 1866 46bd
00000050: 7b6b bcbd f952 8bbc 6b29 4ebd bd24 c33d
00000060: c8df ec3d 3dd8 bc3c 096b c1bb d09b 963a
00000070: e3ed 2abe 948d 6fbc 725c 03be 6c25 87bc
00000080: f141 e9bc b316 183c 935a 07bd c90b 2ebd
00000090: db75 05bd 4e60 66ba 0052 843c 5b44 1abd
000000a0: f3a9 ee3b 2ac7 cbba e755 9b3a 02c7 2dbb
000000b0: bf2f 523b c775 0cbd 0955 87bd 883d bb3a
000000c0: c915 ddbc ca76 933c 4106 62bc aab9 563c
000000d0: 47a8 223c c066 8cbc 6427 b2bc f46f d43c
000000e0: 4ccb 9abc fd7f 10bc 4af2 123d 6939 743a
000000f0: 9533 bb3b 83d7 a7bc e82c e9bc 8a12 a5bb
00000100: dcff f83a c0bf 1c3d 1c15 e6bc cf01 7d3d
00000110: 6b4e 883d 7bb0 38bc 5655 f13a c35e af3d
00000120: d5fb 4cbc 6ac4 8ebd 977b 4ebc 4e50 5d3c
00000130: 9c0e fdbc 6b5d c2bd 639c 2cbd be1e 1c3e
00000140: fc1f ae3e 3991 45be 3ee2 a3bd d50e 33bb
00000150: 7c6f 2abe 5712 8ebd d9e7 51be 27ba 0fbe
00000160: 8c6f 7cbd 33bc 333e 9ed4 20bd 4193 7d3c
00000170: 028e cabd 7551 f33d fea3 d93e 559f 663e
00000180: af48 1389 335f 6d1a dbb5 4f0c 0000 0080
00000190: 0000 0080 f0db eb8f 025f df8f 69ad c88f
000001a0: a827 bd96 7988 9616 644f 8e18 0000 0080
000001b0: a808 871e bdf8 9119 91cc 891e 8ddf 0384
000001c0: 56a7 a63d a525 debc 3237 8d3d af46 f9bb
000001d0: b7b7 54bc 4d84 bebc 5171 2cbd 521f f5bc
000001e0: ecc2 1abd e65d 45bd 6f1d b6bd 94ff ce39
000001f0: 15a1 e8bc 3b7f afbd bbad 613c 4d14 7e3d
00000200: f821 f0bc 7a66 73bd 6470 fa3b d374 f3bc
00000210: 9863 0bbd 782f e2bc 69ca ef3c fc71 0bbc
00000220: 8e24 213c 9772 0b3d e778 88bc c721 323b
00000230: 0351 373d 6163 143d 9183 66bd 13b6 3cbd
00000240: 0000 0080 0000 0000 0000 0080 0000 0080
00000250: 0000 0000 0000 0000 0000 0000 0000 0080
00000260: 0000 0000 0000 0080 0000 0000 0000 0080
00000270: 0000 0080 0000 0080 0000 0080 0000 0000
00000280: 2706 d63b d04c d13d ad0c 993e ccdf 7abd
00000290: 9d99 f8bd ea54 273e f13a 3bbd 77d4 ab3d
000002a0: a632 223e 9b4c 0e3e e2a4 0abe 7910 9c3b
000002b0: 0c9f 113e a87c 253e 34c5 abbd 9627 05be
000002c0: 9349 87bd eb93 da3c 4973 56bd fae8 89bd
000002d0: 7fc5 7e3c 7355 abbd 0fe1 a93d 55e9 ecbb
000002e0: 5853 a53c 5f08 e6bd e5e5 873e e2b9 a539
000002f0: 53f7 433e 8eec 043e 1889 adbd fcdf f93b
00000300: 5c07 93ba b54d 7e3c 747f c23c aca0 143c
00000310: 2df4 f73b 39f5 d83b 96e6 73bb 6eb8 7ebc
00000320: 56d9 953c c561 bb3c 7c17 8f3c 49cd a33a
00000330: 7297 473d edd7 083d 2629 e33c e0f5 023c
00000340: 0fc2 9abb da3e dd3b 4f4d a1bb 24ba 793c
00000350: f356 0a3c dbdd a13b 9217 d23b b532 d03b
00000360: 607b 28bc 7ce6 533c dba7 c5bb 9dd3 bb3a
00000370: 63cc 373c aeac d4bb 297a d63b 5d03 cfbb
00000380: afa0 c23d bb53 65bd 6100 553c 8f61 28bd
00000390: e796 70bd c490 7dbd f14b 793d 96a0 1cbd
000003a0: 3795 303d 3605 a03c 3a64 8d3c 9211 f5ba
000003b0: 167b c6bb 9807 41bd 94cc 313d 5ffc 273d
000003c0: 10f7 3c3d 0add f2bc ad8a c43d 58ac 79bc
000003d0: 15b9 6cbd a465 edbd 1531 7e3d 9892 643e
000003e0: cb39 61be 2fab 0e3e a31f 4ebb 6a38 0abc
000003f0: 7746 853d 4789 0ebe ccd5 be3c a19f 89bc
0.16780978 0.21806577 -0.09995536 -0.029747298 0.06536863 -0.042209137 0.09103367 0.0726079
0.102615446 -0.090749286 -0.03404056 0.034493357 -0.15417467 0.0678002 -0.18903998 0.31778854
-0.1510686 0.3365497 -0.08514358 -0.048437208 -0.09200188 -0.017007338 -0.050332468 0.09528492
0.115661204 0.02305233 -0.005902652 0.0011490528 -0.16692309 -0.014621157 -0.12828234 -0.016497336
-0.028473826 0.009282756 -0.033045363 -0.042491708 -0.0325831 -0.0008788154 0.016152382 -0.037662845
0.007283443 -0.0015547026 0.0011851162 -0.0026516323 0.0032071916 -0.03429201 -0.06608016 0.0014285306
-0.026987927 0.018000979 -0.013795436 0.013105789 0.009927816 -0.017138839 -0.021747299 0.02593229
-0.018895768 -0.008819577 0.035875596 0.0009316416 0.005712936 -0.020488506 -0.028463796 -0.0050376104
0.001899715 0.038268805 -0.028086238 0.061769303 0.06655582 -0.011272545 0.0018412273 0.08562996
-0.012511213 -0.06971057 -0.012602708 0.013507916 -0.030890755 -0.09490474 -0.04214133 0.15246102
0.34008777 -0.1929368 -0.08002137 -0.0027322073 -0.1664409 -0.06937092 -0.20498599 -0.14035855
-0.061629817 0.17552261 -0.039265268 0.015477003 -0.09890367 0.11880771 0.4250793 0.22521718
-1.7728657e-33 4.9087353e-23 1.6001425e-31 -0.0 -0.0 -2.3257506e-29 -2.2026093e-29 -1.9788318e-29
-3.0559623e-25 2.4319933e-25 3.6786304e-24 -0.0 1.4297261e-20 1.5093113e-23 1.4590046e-20 -1.5501625e-36
0.081373855 -0.02711756 0.06895293 -0.007607303 -0.012983254 -0.023256445 -0.042100254 -0.029922161
-0.03778355 -0.04818525 -0.08892333 0.00039481802 -0.028397122 -0.08569189 0.013774331 0.06203108
-0.029313073 -0.0594239 0.0076427925 -0.029718792 -0.034030527 -0.027610525 0.029271321 -0.008511063
0.0098353755 0.03404483 -0.016659213 0.0027180777 0.044754993 0.036227588 -0.056277815 -0.046072077
-0.0 0.0 -0.0 -0.0 0.0 0.0 0.0 -0.0
0.0 -0.0 0.0 -0.0 -0.0 -0.0 -0.0 0.0
0.006531495 0.10219729 0.29892483 -0.061248586 -0.121386744 0.16340986 -0.045710508 0.08390134
0.15839633 0.1389641 -0.1353946 0.004762706 0.14220828 0.16160834 -0.08387223 -0.13003382
-0.0660583 0.02668186 -0.05235604 -0.0673389 0.015550016 -0.083659075 0.0829488 -0.007229964
0.020181343 -0.112320654 0.26542583 0.00031609746 0.19137315 0.12980863 -0.08473414 0.007625578
-0.0011217403 0.0155214565 0.023742415 0.00907151 0.00756695 0.0066210297 -0.0037216297 -0.015546901
0.01829211 0.022873769 0.017467253 0.0012497093 0.048728414 0.033409048 0.027729582 0.0079931915
-0.0047228406 0.0067518773 -0.004922546 0.015242133 0.008443582 0.0049397773 0.006411501 0.006353701
-0.010283321 0.01293337 -0.006031973 0.0014330033 0.011218163 -0.0064903116 0.0065453243 -0.0063175396
0.09503304 -0.055988055 0.013000579 -0.041108664 -0.05873766 -0.061905637 0.06086344 -0.038239084
0.043111052 0.019533735 0.017259706 -0.0018697253 -0.0060571535 -0.047126383 0.04340799 0.041012164
0.046134055 -0.029646415 0.09596763 -0.015238844 -0.057793695 -0.11591652 0.062058527 0.22321546
-0.21994703 0.13932489 -0.0031451962 -0.008436302 0.06507581 -0.13919555 0.023295306 -0.01679975

onnx::Conv_90 f4 [32]
00000000: 999f 61be 07d5 073d 86d0 7a3d 0011 fd3b
00000010: 20b3 363d c0a8 6cbe 8dc1 9da1 befa a83d
00000020: 9c5c 473c 5a10 0080 726e babe 924a 73be
00000030: 8571 ddbd 8260 59bd d4e8 8ebd ca63 f63b
00000040: f324 db3d eaed 92be 6893 5abd ac18 33be
00000050: 954e bbbe cbf8 19be df07 0000 0afc 88be
00000060: db02 253e 9ef6 1d3d a6a0 1fbe db9e 0000
00000070: b80f 8ebe 3987 97be 1216 3bbe 60c7 993d
-0.22033538 0.033162143 0.06123402 0.007722974 0.04460442 -0.23111248 -1.0689966e-18 0.0825095
0.012168076 -5.866e-42 -0.36412388 -0.23758915 -0.10812668 -0.053070553 -0.06978002 0.00751922
0.10700407 -0.2869714 -0.053363234 -0.1748988 -0.3658339 -0.15036313 2.824e-42 -0.2675479
0.1611437 0.03856527 -0.15588626 5.6987e-41 -0.27746367 -0.29595354 -0.18270138 0.07508731

onnx::Conv_92 f4 [64, 32, 3, 3]
00000000: 0000 0000 0000 0080 0000 0080 0000 0080
00000010: 0000 0000 0000 0000 0000 0000 0000 0080
00000020: 0000 0080 0000 0000 0000 0080 0000 0000
00000030: 0000 0080 0000 0080 0000 0000 0000 0080
00000040: 0000 0000 0000 0000 0000 0080 0000 0080
00000050: 0000 0080 0000 0000 0000 0080 0000 0000
00000060: 0000 0000 0000 0000 0000 0080 0000 0080
00000070: 0000 0000 0000 0000 0000 0080 0000 0000
00000080: 0000 0000 0000 0000 0000 0080 0000 0000
00000090: 0000 0080 0000 0000 0000 0000 0000 0080
000000a0: 0000 0000 0000 0080 0000 0000 0000 0080
000000b0: 0000 0080 0000 0080 0000 0000 0000 0000
000000c0: 0000 0080 0000 0000 0000 0080 0000 0080
000000d0: 0000 0080 0000 0080 0000 0000 0000 0000
000000e0: 0000 0000 0000 0000 0000 0080 0000 0000
000000f0: 0000 0080 0000 0080 0000 0000 0000 0000
00000100: 0000 0080 0000 0000 0000 0080 0000 0080
00000110: 0000 0080 0000 0000 0000 0080 0000 0080
00000120: 0000 0000 0000 0000 0000 0000 0000 0000
00000130: 0000 0000 0000 0080 0000 0000 0000 0080
00000140: 0000 0080 0000 0000 0000 0000 0000 0000
00000150: 0000 0000 0000 0080 0000 0080 0000 0080
00000160: 0000 0080 0000 0000 0000 0000 0000 0000
00000170: 0000 0080 0000 0080 0000 0080 0000 0000
00000180: 0000 0000 0000 0000 0000 0080 0000 0000
00000190: 0000 0000 0000 0000 0000 0000 0000 0000
000001a0: 0000 0000 0000 0000 0000 0000 0000 0000
000001b0: 0000 0080 0000 0080 0000 0000 0000 0000
000001c0: 0000 0080 0000 0080 0000 0000 0000 0000
000001d0: 0000 0000 0000 0000 0000 0000 0000 0080
000001e0: 0000 0000 0000 0080 0000 0080 0000 0080
000001f0: 0000 0080 0000 0080 0000 0000 0000 0000
00000200: 0000 0000 0000 0080 0000 0080 0000 0080
00000210: 0000 0000 0000 0080 0000 0080 0000 0000
00000220: 0000 0080 0000 0080 0000 0000 0000 0080
00000230: 0000 0080 0000 0080 0000 0080 0000 0080
00000240: 0000 0080 0000 0000 0000 0000 0000 0080
00000250: 0000 0080 0000 0080 0000 0000 0000 0000
00000260: 0000 0080 0000 0000 0000 0000 0000 0000
00000270: 0000 0000 0000 0080 0000 0000 0000 0080
00000280: 0000 0080 0000 0000 0000 0000 0000 0000
00000290: 0000 0000 0000 0000 0000 0000 0000 0000
000002a0: 0000 0000 0000 0000 0000 0080 0000 0080
000002b0: 0000 0000 0000 0000 0000 0000 0000 0080
000002c0: 0000 0080 0000 0080 0000 0080 0000 0000
000002d0: 0000 0080 0000 0000 0000 0080 0000 0080
000002e0: 0000 0000 0000 0080 0000 0080 0000 0080
000002f0: 0000 0000 0000 0000 0000 0000 0000 0000
00000300: 0000 0000 0000 0000 0000 0080 0000 0000
00000310: 0000 0080 0000 0080 0000 0000 0000 0080
00000320: 0000 0080 0000 0080 0000 0080 0000 0000
00000330: 0000 0000 0000 0000 0000 0000 0000 0080
00000340: 0000 0080 0000 0000 0000 0000 0000 0080
00000350: 0000 0000 0000 0080 0000 0080 0000 0080
00000360: 0000 0000 0000 0080 0000 0080 0000 0000
00000370: 0000 0080 0000 0000 0000 0080 0000 0000
00000380: 0000 0080 0000 0080 0000 0080 0000 0080
00000390: 0000 0080 0000 0000 0000 0000 0000 0080
000003a0: 0000 0080 0000 0080 0000 0080 0000 0080
000003b0: 0000 0080 0000 0000 0000 0080 0000 0080
000003c0: 0000 0080 0000 0000 0000 0080 0000 0000
000003d0: 0000 0080 0000 0000 0000 0080 0000 0080
000003e0: 0000 0000 0000 0000 0000 0080 0000 0080
000003f0: 0000 0080 0000 0000 0000 0080 0000 0000
0.0 -0.0 -0.0 -0.0 0.0 0.0 0.0 -0.0
-0.0 0.0 -0.0 0.0 -0.0 -0.0 0.0 -0.0
0.0 0.0 -0.0 -0.0 -0.0 0.0 -0.0 0.0
0.0 0.0 -0.0 -0.0 0.0 0.0 -0.0 0.0
0.0 0.0 -0.0 0.0 -0.0 0.0 0.0 -0.0
0.0 -0.0 0.0 -0.0 -0.0 -0.0 0.0 0.0
-0.0 0.0 -0.0 -0.0 -0.0 -0.0 0.0 0.0
0.0 0.0 -0.0 0.0 -0.0 -0.0 0.0 0.0
-0.0 0.0 -0.0 -0.0 -0.0 0.0 -0.0 -0.0
0.0 0.0 0.0 0.0 0.0 -0.0 0.0 -0.0
-0.0 0.0 0.0 0.0 0.0 -0.0 -0.0 -0.0
-0.0 0.0 0.0 0.0 -0.0 -0.0 -0.0 0.0
0.0 0.0 -0.0 0.0 0.0 0.0 0.0 0.0
0.0 0.0 0.0 0.0 -0.0 -0.0 0.0 0.0
-0.0 -0.0 0.0 0.0 0.0 0.0 0.0 -0.0
0.0 -0.0 -0.0 -0.0 -0.0 -0.0 0.0 0.0
0.0 -0.0 -0.0 -0.0 0.0 -0.0 -0.0 0.0
-0.0 -0.0 0.0 -0.0 -0.0 -0.0 -0.0 -0.0
-0.0 0.0 0.0 -0.0 -0.0 -0.0 0.0 0.0
-0.0 0.0 0.0 0.0 0.0 -0.0 0.0 -0.0
-0.0 0.0 0.0 0.0 0.0 0.0 0.0 0.0
0.0 0.0 -0.0 -0.0 0.0 0.0 0.0 -0.0
-0.0 -0.0 -0.0 0.0 -0.0 0.0 -0.0 -0.0
0.0 -0.0 -0.0 -0.0 0.0 0.0 0.0 0.0
0.0 0.0 -0.0 0.0 -0.0 -0.0 0.0 -0.0
-0.0 -0.0 -0.0 0.0 0.0 0.0 0.0 -0.0
-0.0 0.0 0.0 -0.0 0.0 -0.0 -0.0 -0.0
0.0 -0.0 -0.0 0.0 -0.0 0.0 -0.0 0.0
-0.0 -0.0 -0.0 -0.0 -0.0 0.0 0.0 -0.0
-0.0 -0.0 -0.0 -0.0 -0.0 0.0 -0.0 -0.0
-0.0 0.0 -0.0 0.0 -0.0 0.0 -0.0 -0.0
0.0 0.0 -0.0 -0.0 -0.0 0.0 -0.0 0.0

onnx::Conv_93 f4 [64]
00000000: 0231 0080 b201 0080 9cb5 c0bd a833 0080
00000010: 3358 a288 2b37 0000 b70d 0080 40f5 01be
00000020: 2e30 0080 530d 0080 94c6 dcbd 2681 9db6
00000030: 6217 0080 9aa6 fbbd 2982 f2bd f2ec 0180
00000040: 8e59 213e 9e0b 0000 6d2a 0080 0924 318f
00000050: 6201 0080 8170 b08f 9601 0080 f71c 0080
00000060: 2930 0000 c22c 0080 6630 0080 fc2a 0000
00000070: ac35 0080 9320 0080 871e 0080 9c47 67bd
00000080: 0941 04be 542d 623e b9b2 eda4 807c 00bb
00000090: 81c6 13aa b029 0080 67b5 d4a1 dc15 0000
000000a0: de4b 0000 dfc8 8495 bd30 0000 c15d 7994
000000b0: f23d 943d 5fd9 2dbd c316 0000 7213 0080
000000c0: 5675 6a3d 7442 0000 f86e 18a2 f9c9 bbbd
000000d0: f4bb 6fba 0935 0080 1824 0000 640d 0080
000000e0: f324 0000 d304 0080 240c 0000 487f 5a3c
000000f0: d416 0080 092f 0080 9818 0080 d62f 0080
-1.758e-41 -6.08e-43 -0.09409639 -1.8531e-41 -9.770756e-34 1.979e-41 -4.92e-42 -0.12691212
-1.7284e-41 -4.78e-42 -0.10780063 -4.6939995e-06 -8.388e-42 -0.12287636 -0.11841232 -1.76835e-40
0.15756819 4.167e-42 -1.522e-41 -8.733714e-30 -4.96e-43 -1.7398275e-29 -5.69e-43 -1.039e-41
1.7277e-41 -1.6056e-41 -1.7362e-41 1.542e-41 -1.9254e-41 -1.1685e-41 -1.0951e-41 -0.056464776
-0.12915434 0.22087604 -1.03085134e-16 -0.0019605458 -1.3125093e-13 -1.4955e-41 -1.4413696e-18 7.842e-42
2.7216e-41 -5.3631294e-26 1.7484e-41 -1.2589777e-26 0.07238378 -0.04244363 8.165e-42 -6.976e-42
0.057240807 2.3839e-41 -2.0658588e-18 -0.091693826 -0.00091451337 -1.9025e-41 1.2948e-41 -4.804e-42
1.3255e-41 -1.73e-42 4.355e-42 0.01333601 -8.189e-42 -1.6873e-41 -8.823e-42 -1.716e-41

onnx::Conv_95 f4 [64, 64, 3, 3]
00000000: fa8f 0300 d7ab 0400 5f5b 0400 ee3c 0500
00000010: 5528 0500 1df7 0400 d904 0180 6f28 0400
00000020: 5d3b 0500 06f3 0180 67a7 0280 87b4 0280
00000030: 6afc 0280 577c 0280 fde4 0280 664e 0380
00000040: f69d 0280 0dbc 0000 266a 72bd 06ca 90bd
00000050: 26d5 74bd af89 51bd 0138 75bd 689d 64bd
00000060: b669 ea3d c0b5 bb3d 490f e23d 5312 0100
00000070: 858f 0300 0b29 0000 203c 0000 76c2 0180
00000080: 1cd7 0080 4bd0 0100 c493 0000 c1bc 0180
00000090: 89b5 0280 b98f 0180 21fe 0280 047f 0200
000000a0: b6dc 0080 dce1 0200 f74a 0280 052c 0100
000000b0: 6bae 0180 4737 0300 f109 0400 ff5d 0300
000000c0: ef51 0080 4971 0080 010b 0000 05b4 0200
000000d0: 2d3c 0100 b9dd 0100 dadb 0400 912b 0300
000000e0: 999c 0200 0d59 0500 21fe 0400 75f6 0400
000000f0: 365a 0500 c20b 0500 5e8f 0500 62a9 953d
00000100: d71f a43c 9bd0 173e 1db4 703b 9892 18bc
00000110: 10b4 9b3c 41e9 44bb 2a78 87bd e891 82bd
00000120: fa46 0300 8981 0400 adfd 0200 f51f 0100
00000130: 9723 0100 6db4 0100 4f1b 0400 a180 0400
00000140: a21d 0000 358e 0380 c2fb 0280 8188 0380
00000150: 0790 0380 118f 0380 4465 0480 3d33 0480
00000160: 3985 0480 f8e7 0280 9a9c df39 bc61 2ebd
00000170: 0a83 223c ecea bdbd b273 82bd 42da babd
00000180: 5319 4a3b d3f3 96bc 15a7 ea3c fd90 0100
00000190: 2a55 0180 8ba6 0080 af95 0080 edcc 3a00
000001a0: 8b7e a215 d73d 0180 041c 0100 e4a9 a607
000001b0: 896c 0400 e60f 0400 afcf 0300 6b55 0080
000001c0: d62d 0400 2113 0400 9551 0000 e35c 0180
000001d0: 51b3 0100 66a6 cabc b870 c3bd e4eb 7d3c
000001e0: 24f3 2fbc 9c72 92bd 3f0d e9bc 80d0 9f3e
000001f0: fcd2 793e cd62 ba3e 2ca7 123d 99df bf3c
00000200: c45a 143d ce65 da3c d208 8f3d a558 8e3c
00000210: 4fa0 ac3b 166d bc3c 009e 3a3c 58ea 0000
00000220: fec5 0280 b1ab 0000 9cf6 0080 05d3 0000
00000230: 4dbc 0080 753a 0280 1a15 0080 93be 0100
00000240: ac64 523d 9a2e 903d 496b 163e c447 4abd
00000250: cb1c 50bd 1149 853d 7c4d 8abd 9937 c2bd
00000260: bfd1 80bc 0857 0200 3860 0080 c97b 0080
00000270: f754 0080 1e36 0280 79b9 0380 0f79 0000
00000280: 194e 0000 98d5 0380 c866 0180 1131 0200
00000290: fe42 0080 22b0 0180 fa7a 0180 e687 0200
000002a0: 5d2b 0100 ae9a 0000 6e95 0300 616b 0000
000002b0: d786 0180 b277 0180 ca6c 0000 07aa 0000
000002c0: 5667 0280 a5a6 0000 630e 0100 682a 0000
000002d0: 4909 0300 a371 0300 6a26 0300 8ff1 0200
000002e0: 6027 0100 0f2b 0300 0106 0300 a6cb 0300
000002f0: 88f3 0100 24d5 0180 2367 0000 3009 0100
00000300: 5657 0100 37b3 0000 521c 0000 2582 0100
00000310: 15a0 0180 ec11 0000 4c68 0080 106f 0300
00000320: 9c98 0300 21b5 0400 deec 0100 7fb1 0200
00000330: f7bd 0200 ddad 0200 c5ae 0300 e3fe 0280
00000340: ca52 0380 321f 0380 13af 0000 e35c 0200
00000350: ee6b 0200 db8d 0280 bb3c 0000 8511 0000
00000360: 4e4f 0500 999c 0300 bb3c 0100 b4a7 0200
00000370: 6d85 0180 001a 0180 4575 0200 d4f8 0200
00000380: 0a1e 0000 988c 0380 b00e 0380 26d1 0280
00000390: a21d 0480 fab9 0380 b588 0380 f463 0480
000003a0: fe38 0480 315d 0280 e51e 0100 d6aa 0000
000003b0: 5001 0300 c273 0200 9a05 0200 7e5d 0200
000003c0: c53b 0500 d1fc 0300 d503 0500 f6dc 0400
000003d0: af32 0100 1cb8 0400 c599 0400 adfd 0200
000003e0: 6ae2 0500 48cf 0400 342a 0200 cb91 0500
000003f0: 1e17 0500 be4d 0500 6529 0200 6906 0400
3.27156e-40 4.28987e-40 4.0012e-40 4.81035e-40 4.73646e-40 4.5599e-40 -9.3575e-41 3.81847e-40
4.80473e-40 -1.79016e-40 -2.43724e-40 -2.48432e-40 -2.7422e-40 -2.28276e-40 -2.65817e-40 -3.0363e-40
-2.40337e-40 6.746e-41 -0.059183262 -0.07069783 -0.059773587 -0.051156696 -0.059867863 -0.055814177
0.11445944 0.091655254 0.11038072 9.8409e-41 3.26992e-40 1.4723e-41 2.1569e-41 -1.61595e-40
-7.7167e-41 1.66557e-40 5.3008e-41 -1.59548e-40 -2.48794e-40 -1.43393e-40 -2.74835e-40 2.29236e-40
-7.9176e-41 2.64694e-40 -2.10563e-40 1.07627e-40 -1.54405e-40 2.95336e-40 3.70908e-40 3.09226e-40
-2.9392e-41 -4.0639e-41 3.947e-42 2.4825e-40 1.13422e-40 1.71375e-40 4.4621e-40 2.91135e-40
2.39848e-40 4.91123e-40 4.58506e-40 4.55754e-40 4.91539e-40 4.63395e-40 5.10608e-40 0.07307698
0.020034714 0.1482567 0.003672845 -0.009312294 0.019006759 -0.0030046257 -0.06614716 -0.06375486
3.00968e-40 4.1381e-40 2.74673e-40 1.033e-40 1.04603e-40 1.5656e-40 3.77138e-40 4.13485e-40
1.063e-41 -3.26521e-40 -2.73985e-40 -3.24475e-40 -3.27174e-40 -3.26829e-40 -4.03669e-40 -3.85723e-40
-4.15133e-40 -2.66886e-40 0.00042650552 -0.042573676 0.009918937 -0.092733234 -0.063697234 -0.091236606
0.0030837848 -0.018426811 0.028644124 1.43847e-40 -1.22387e-40 -5.9744e-41 -5.3696e-41 5.399972e-39
6.563093e-26 -1.1402e-40 1.01886e-40 2.5076757e-34 4.06277e-40 3.73045e-40 3.5001e-40 -3.0642e-41
3.83785e-40 3.74204e-40 2.9266e-41 -1.25157e-40 1.56162e-40 -0.024737548 -0.09542984 0.015498135
-0.010739122 -0.07150766 -0.028448699 0.3121376 0.2439689 0.36403504 0.03580396 0.02342205
0.036219373 0.026659872 0.06984104 0.017376253 0.0052681337 0.023001235 0.011390209 8.4067e-41
-2.54697e-40 6.1591e-41 -8.8467e-41 7.57e-41 -6.755e-41 -2.04641e-40 -7.57e-42 1.602e-40
0.05136554 0.070401385 0.14689364 -0.049384847 -0.05080871 0.06508077 -0.0675306 -0.09483261
-0.015725015 2.14892e-40 -3.4517e-41 -4.4406e-41 -3.048e-41 -2.03085e-40 -3.42042e-40 4.3428e-41
2.8016e-41 -3.5213e-40 -1.28706e-40 2.01273e-40 -2.4032e-41 -1.5502e-40 -1.35951e-40 2.32422e-40
1.07391e-40 5.5489e-41 3.29112e-40 3.852e-41 -1.40207e-40 -1.34774e-40 3.9026e-41 6.0994e-41
-2.20741e-40 5.9781e-41 9.6996e-41 1.5212e-41 2.78837e-40 3.16272e-40 2.89287e-40 2.70326e-40
1.0596e-40 2.90953e-40 2.7766e-40 3.48562e-40 1.79198e-40 -1.68296e-40 3.6998e-41 9.5131e-41
1.23166e-40 6.429e-41 1.016e-41 1.38523e-40 -1.49262e-40 6.429e-42 -3.7415e-41 3.15348e-40
3.30252e-40 4.32319e-40 1.76807e-40 2.47345e-40 2.51818e-40 2.46041e-40 3.38202e-40 -2.75107e-40
-3.05206e-40 -2.86697e-40 6.2805e-41 2.16992e-40 2.22389e-40 -2.34559e-40 2.1786e-41 6.285e-42
4.87627e-40 3.31683e-40 1.13621e-40 2.43832e-40 -1.397e-40 -1.01163e-40 2.2574e-40 2.72934e-40
1.0776e-41 -3.25942e-40 -2.80775e-40 -2.587e-40 -3.77972e-40 -3.42222e-40 -3.24548e-40 -4.03198e-40
-3.87787e-40 -2.17102e-40 1.02918e-40 6.1284e-41 2.75977e-40 2.25197e-40 1.8568e-40 2.1721e-40
4.80619e-40 3.662e-40 4.60552e-40 4.46608e-40 1.10017e-40 4.33388e-40 4.22504e-40 2.74673e-40
5.404e-40 4.417e-40 1.9881e-40 5.11478e-40 4.6747e-40 4.87066e-40 1.9852e-40 3.69642e-40

onnx::Conv_96 f4 [64]
00000000: 73e0 533d 1a9c 9dbd d0bf 47bb 483d 873d
00000010: 5eb7 8abc d7c2 ea3c 72e4 243d 84b7 7abc
00000020: 6369 14be ac17 05bd 500f 30bd 17ed 0123
00000030: 991c 8abd 4982 85be 289c 64be 4129 31b4
00000040: 7ae4 b73d 6c32 95bc b1a0 e9a5 0227 6d3c
00000050: 28bd 003d 9c07 b7a0 1c8b 7fbc 5a6f 52bd
00000060: 1b53 f43c 707d 9e37 2a6a 873c 32ef ebbc
00000070: 8dc3 893d 484c 28bc f0f6 a0bc b9ac 80bc
00000080: 760e d1bd 7748 873c abff 523b c2c8 34be
00000090: ba10 cab5 5ad5 c03d 5eb6 9cbc 8e48 67be
000000a0: 8915 52be aa7c a33d f052 42bd 6204 093c
000000b0: feec f0bd a905 a63c c583 b4bd 162c 17bd
000000c0: c4d8 00a0 ef72 f6ac 0a85 9dbe 4676 533d
000000d0: 94b0 56bc 71b5 02bc 07d6 11be 7cd3 9abb
000000e0: d9d0 32af 634e 233d 2c52 9dbc a5b7 1494
000000f0: c86e b8b3 bc1b 813d aed6 a4bc b8ba ab3c
0.051727723 -0.0769579 -0.003047932 0.06603485 -0.01693314 0.02865736 0.040256925 -0.015302543
-0.14493327 -0.03249328 -0.042983353 7.04331e-18 -0.06743736 -0.26075962 -0.22325194 -1.6499418e-07
0.08979125 -0.01821252 -4.0527946e-16 0.014474632 0.031430393 -3.1006441e-19 -0.015597131 -0.051375724
0.029824784 1.889348e-05 0.016530115 -0.02880058 0.067267515 -0.010272093 -0.019648999 -0.01570736
-0.10207836 0.016514046 0.0032195847 -0.17654708 -1.5055041e-06 0.094156936 -0.019129928 -0.22586271
-0.20516028 0.07982762 -0.047442377 0.008362861 -0.11763953 0.02026637 -0.088141955 -0.036907278
-1.0913743e-19 -7.0045007e-12 -0.30765563 0.051626466 -0.013103623 -0.007977829 -0.14241801 -0.004724918
-1.6263203e-10 0.039869677 -0.019204222 -7.508308e-27 -8.588319e-08 0.06304118 -0.020121899 0.020963058
