cmd/ai/datas/models/rose.onnx (onnx, 302121 bytes, 16 tensors)

fc.weight f4 [2, 256]
00000000: 1387 eabc 638b 213d cf67 8ebd dd6c e0bc
00000010: a2c8 91bd 2670 79bd 18b5 37bd e22f 99bc
00000020: ee33 09bd 2762 15bc 1a72 76bd 60c5 8e3d
00000030: 105b 82bc a59c 463d 51eb 9cbd c5a5 89bd
00000040: 63e6 1d3d 8917 4e3d 5f80 1dbc 3ea0 333d
00000050: 5683 5abd d0c9 993d 3b06 ef3c e967 733d
00000060: 341a 8b3d fc50 9b3c dbb0 263c a346 4bbd
00000070: 54e0 8739 7a5c 63bd 53b2 abbb 1ae8 103d
00000080: 3b88 a43c bff1 98bc 9044 8a3d 21d8 793d
00000090: 6dbf b6bc 1d34 2bbd c551 c83c d14b fe3c
000000a0: eff0 353c 335e 72bd bb87 8d3d b2a4 a03d
000000b0: 4552 da3b 9371 32ba 558e 4e3d f6db 68bd
000000c0: 32cb 133d a373 4d3c da08 d73d 9be1 743c
000000d0: 712d 493d b888 993d 36c5 d63c 25b6 933d
000000e0: b63b 373d 3a3f 023c 5fe2 113d 0cc4 7b3d
000000f0: f923 3cbd 357b 073c e33a a6bd 8446 a63c
00000100: d9bb 623d ce57 b43d 574e a8bd 7ca4 38bd
00000110: be1b 9f3c 8290 01bd 1ca7 9a3d 191a e13c
00000120: 45cd f63c dc70 8a3d 5e79 b0bc 070a 1c3d
00000130: c75b b2bc c1d0 4abd 7ad5 efbc def0 793c
00000140: e5a4 abbb 2851 563d 74d4 9cbd c4f8 53bc
00000150: ff00 2ebd 02aa 6e3c f2e3 a83d a4c9 4fbc
00000160: fd42 863d 7a80 abbd dc23 943d 8393 52bc
00000170: 0629 04bd 9b9d 98bd 76e3 9e3b ef5a a6bd
00000180: 730b 483d b019 4dbc 2126 3b3c 49d1 993b
00000190: 5782 4a3d d889 36bd 67dd 833b c79c 593d
000001a0: 12a2 98ba d247 bb3c a6ec 09bd 9f02 30bd
000001b0: a1ab 34bd c620 153c 92fb ab3d b18b f5bc
000001c0: b52e 8ebc 4577 663d 7b61 97bd 88c3 65bd
000001d0: 9ea0 05bd 7b34 a6bd f7e0 053c 2a47 81bd
000001e0: 2641 1e3d 3a15 21bc 502c 933d c5ed e2bb
000001f0: 72bb a4bd 46c2 53bd 6772 f93c be4d be3c
00000200: 93a6 963d 8b28 6abc 5c1d d6bc c262 00bd
00000210: 77d8 a9bd 9875 1d3d 0176 bb3c 8a58 9f3d
00000220: 553a 563d 9503 1dbd 3753 8e3d 666e 7bbd
00000230: 43b6 3c3d dbc2 8f3d ea8d 80bd 4bbc 8e3d
00000240: 000b 1dbd d548 fa3c 6dca e23c bd32 e2bb
00000250: 733a 79bb a32b 453c 0cfa adbd 788d a7bd
00000260: 23c0 60bd 7f78 1e3d 3df8 07bc fad8 923d
00000270: 4dcf d93c 893c 813d 72e9 553d 58b0 473d
00000280: de59 3bbc e8e0 f23c 2943 7e3d e397 773d
00000290: 3ab2 893d 0e3a 323d 590b 9a3b 6f23 c5bd
000002a0: b52d ccbd f9ba a4bd a097 9dbc 00ed debc
000002b0: a64c 633d 490e 4abc cb6a 80bd fdf3 50bc
000002c0: 8445 7f3d e1e1 d4bc c378 8f3d 7b1e 943d
000002d0: b6a9 83bd dadb 373d 0478 4fbd 5720 893d
000002e0: 5b92 83bd e512 273d b0f3 d2bd 13d9 9ebc
000002f0: ff62 5e39 7ba3 14bd 5578 793d 9c53 da3d
00000300: 30bd 7cbd 9025 8e3d 6e6e 94bd ff44 f0bb
00000310: 1f76 173d 974f 943d 81e2 3bbd 1a38 4bbd
00000320: 7f36 333d df91 d63b 4b59 9e3d 9afa a73d
00000330: e87b 7b3d 6b0c 2a3d 3406 04bd 0ec1 31bb
00000340: 6852 6bbc 60ef 2cbd c5ce 75bd 2ddc 153d
00000350: 9ab7 dd3c 2914 84bb c402 6abc d29c ac3d
00000360: 8ca4 0a3c 8ef2 a2bd 6f43 70bd 04d4 24bd
00000370: 8b97 c4bb 3327 713b 41a9 633d c63e 5ebc
00000380: a9d0 a63d 58c3 39bd 841f c8bc 7e3d 303d
00000390: b67c 6dbd f02b 9b3d b06e 8bbd c256 00bc
000003a0: f469 8fbd 2a6d a0bd f7e0 bb3d 2447 993c
000003b0: f853 7fbd e9b3 e23c f8a2 24bd 7c78 bbbc
000003c0: 4294 d4bc c497 963c 7c27 7e3d e000 b53d
000003d0: 295b d93d 851d 1f3d eaa3 a73d fef0 a3bc
000003e0: 4263 5e3c 2475 a8bd 7f49 443c b88e 72bd
000003f0: 03e4 c33c abb7 8bbc fb59 90bd ec8d 99bd
-0.028628862 0.03943957 -0.06953394 -0.02739566 -0.07118346 -0.06089797 -0.04485044 -0.01869959
-0.03349679 -0.00911764 -0.06016741 0.0697124 -0.015912563 0.04848923 -0.076620705 -0.06721071
0.038549792 0.050315414 -0.009613126 0.04385399 -0.053347908 0.07509196 0.029177776 0.05942527
0.06792107 0.018959515 0.010174002 -0.04962791 0.00025916344 -0.055508114 -0.0052397638 0.0353776
0.020084491 -0.018669961 0.067513585 0.060997132 -0.022308076 -0.041797746 0.024453053 0.031042011
0.011104806 -0.059171867 0.06910654 0.07843913 0.0066626393 -0.0006807085 0.050428707 -0.056850396
0.036082454 0.012539777 0.10499735 0.014946367 0.049115602 0.0749678 0.026217084 0.07212476
0.04473468 0.007949645 0.035616275 0.06146626 -0.045932744 0.008269121 -0.081167005 0.020297296
0.055354927 0.0880581 -0.08218067 -0.04507874 0.019422408 -0.031631954 0.07551405 0.027478265
0.030127177 0.067598075 -0.021542247 0.0380955 -0.021772278 -0.04951549 -0.029276598 0.015255181
-0.005238163 0.05232349 -0.0765771 -0.012937728 -0.04248142 0.0145669 0.08246602 -0.012682352
0.06555746 -0.08374114 0.07233402 -0.012852552 -0.032265685 -0.07451936 0.004848893 -0.08122813
0.048839044 -0.012518331 0.011422665 0.004694138 0.049440708 -0.04456505 0.004024196 0.05312803
-0.001164498 0.022861395 -0.03367295 -0.04297125 -0.04410899 0.009102052 0.083975926 -0.029973837
-0.017356256 0.056266088 -0.0739164 -0.056094676 -0.03262388 -0.081154786 0.008171312 -0.063124016
0.03863635 -0.009831721 0.07186186 -0.006925317 -0.08043565 -0.051698945 0.03045006 0.02323043
0.0735599 -0.014291893 -0.026137047 -0.031344183 -0.082932405 0.038442224 0.022883417 0.07780559
0.052301724 -0.038333494 0.06949466 -0.06138458 0.046072256 0.070195876 -0.06277068 0.06969508
-0.03834057 0.030552307 0.027684415 -0.006903021 -0.0038029223 0.01203433 -0.08494958 -0.0818128
-0.054870736 0.038689133 -0.008298931 0.07170291 0.026588107 0.06310374 0.052224584 0.04875216
-0.011435 0.02964826 0.062075768 0.060447585 0.06723447 0.043512397 0.00470106 -0.09625899
-0.099696554 -0.08043475 -0.01923734 -0.02721262 0.05549302 -0.012332507 -0.06270369 -0.012753484
0.062322155 -0.025986614 0.07005455 0.07232376 -0.06428854 0.0448874 -0.050651565 0.066956215
-0.064243995 0.040789504 -0.10300386 -0.019390618 0.00021208449 -0.03628872 0.060905773 0.106604785
-0.06170386 0.06940758 -0.07247625 -0.0073324437 0.036977883 0.07241743 -0.045870308 -0.04961405
0.043753143 0.006548151 0.07731875 0.08202095 0.061397463 0.04151575 -0.03223248 -0.0027123126
-0.014362909 -0.042220473 -0.060011644 0.03658693 0.027065087 -0.0040307236 -0.014282886 0.084283486
0.008462083 -0.0795642 -0.05865806 -0.040241256 -0.0059995106 0.0036797046 0.055581335 -0.013564771
0.081452675 -0.04535231 -0.02442909 0.043027394 -0.05798026 0.0757674 -0.06808221 -0.007833185
-0.07002631 -0.078333214 0.09173768 0.01871068 -0.06233594 0.027673678 -0.04019448 -0.0228846
-0.025949601 0.018382914 0.062049374 0.088380575 0.106130905 0.03884651 0.08185561 -0.020012375
0.01357347 -0.08225468 0.011980413 -0.05921814 0.023912435 -0.017055353 -0.070484124 -0.074977726

fc.bias f4 [2]
00000000: 0cea 4c3c 15fc 8e3d
0.012506973 0.069816746

onnx::Conv_80 f4 [16, 3, 7, 7]
00000000: 9cbc 77be 24d9 c0be 7f76 a0bd 52f2 923e
00000010: e756 ffbd 63d9 e73e 83b2 01be afe1 8ebe
00000020: 2aa4 89bc 3077 143f f13d 263f 8c06 793e
00000030: 71f8 a23d af08 b73e 6835 55be 34b9 ed3e
00000040: fe8a be3e bb23 30be 3605 1e3f 04e0 003f
00000050: bc04 e63e ab46 d93e 8a22 9c3e 99f9 553e
00000060: f25a 5bbc 5305 d7bd 308c b53d 4708 9c3e
00000070: 1235 163b 5f7c c8be c665 b03d 4dca ecbe
00000080: 2618 013e 6be7 c33d 7c3a b63d 8554 c8be
00000090: a683 4bbe c4de ff3d 5657 1abf d384 fbbe
000000a0: 661b 0cbf 5fb9 e3bc e4a8 a5be 4d28 1a3e
000000b0: 295b 21bf 3e99 00bf a579 0bbf 1bfa 0cbf
000000c0: 3adb dabd c433 9f3e 0751 7d3c a382 b0be
000000d0: 2d81 133e e2bc 31be 53ac aebd 95f2 c5be
000000e0: 0850 a2be 5438 a63c 6eb3 b53e dba4 b2be
000000f0: 3d3c ba3e 5a1e 6bbe 278d f13e c6b3 2bbe
00000100: 2235 b9bd a403 e5be 7c6f ec3c 55d3 b6be
00000110: 99c0 e0be 9fba 2e3e 9249 0abe 921a c8be
00000120: 6d0f 253c 1548 72be dc68 9fbe e770 023d
00000130: 2abb f3be dccc bd3d cfc1 eb3d aead adbe
00000140: b817 b23e 2e5d e83e 4533 49be 00b1 803d
00000150: 31c2 a63e fb9a 8abc eee6 46bd b470 afbd
00000160: 762d a0be 9d86 5ebe 30ae bcbe 9d02 803d
00000170: 03b5 9e3e 1258 353d 92b5 673e 0a9e ae3e
00000180: f72f c33e aa34 c83e 3292 87be 7855 133e
00000190: a527 083c 1ad1 b73e 1b52 c93d 5e7e 45be
000001a0: e7fd bf3e ae13 a6bd a3e5 2d3e 6549 d2bd
000001b0: c7f6 483e 6769 253e e7c1 113d f709 78be
000001c0: ce49 87be e26f 9f3c 7a48 abbe 70e9 a2be
000001d0: 5143 9d3e 1ee1 b53e 20c6 f1bd 1a98 22be
000001e0: 3bf2 833c 0b78 53be 9427 ea3c a8b3 89bd
000001f0: 7234 30be abc9 c43e c58d a8bd 523c 613e
00000200: 28b3 6d3d 0d20 1c3d 1528 c03d efac 5f3e
00000210: b40d a33e af74 b93e 116c b8be 76ff eabe
00000220: 99c0 8f3e ae3d 8bbe 3612 c1be 9f78 323c
00000230: 45d3 e53d af17 dd3e 31b5 313e e803 d0be
00000240: 17c5 ecbd 86ec f83d 884b a83e 9449 5abb
00000250: 4138 ae3c d60e 453e 82d9 02bc 3fd2 bf3d
00000260: ae13 9bbc 667d bf3d 60a7 8abe eff1 adbd
00000270: b34d efbd 40c7 8cbd 03e6 653d dde1 133e
00000280: 1ab9 1d3e 9dd1 07be 4881 9dbe aecc b0bd
00000290: ecba 943c b1fb ca3d 2788 ca3d 58b1 0e3e
000002a0: 2b88 4e3d c123 05be bbec 33be 217e 55be
000002b0: 97da 03be 11ef 2d3e 6737 1a3e 2068 d0bd
000002c0: bab0 a33c e074 ba3d 139b 473e 2dd6 243e
000002d0: 0d55 793e 8699 ce3d ad17 5ebe b4de 38be
000002e0: c3d2 59be 7ec0 53be 226d b1bd 62f7 b2bb
000002f0: 269b 9ebd 9746 87be 0483 09be e500 ae3d
00000300: 4927 24be e366 7c3b 6bc3 dfbd 92a4 a73e
00000310: 7e42 d6bc 5329 673d 5dde 8e3d 84b0 5ebe
00000320: 8efd 563d 2ce5 17be 16c8 8ebd cd7f 19be
00000330: bcd1 2c3e 8af5 083e 3b37 623e ce98 a33d
00000340: 1b1d 313e 17ec 9a3d 105b 2ebe a652 ac3b
00000350: 9f78 d9bd ed34 a53d facd 103e 3c18 783e
00000360: 8362 88bd 727b 22be 24aa 7cbe ed2a 3abe
00000370: 34e7 0e3e 6545 893d 7674 843e 44ed 483d
00000380: f46f d5bc e59c 893d f804 efbd ab28 653d
00000390: e351 743d de93 653e 106e 633e 3b70 20be
000003a0: 08ca 683d 4b91 313e ac0a 033e 8435 39be
000003b0: a2d0 c0bd 563c 263e 96b3 0a3b 318d e4bd
000003c0: 5dc0 78be aa78 eabd 0794 1d3e d0fe 91bb
000003d0: 21e6 27be 0b9f 97bd e76c 1e3e db6f 5ebe
000003e0: aabc 2d3e 8982 ed3d a65f 843d 496c dfbd
000003f0: ddee d7bd 11a0 423e fad5 473e 3329 ff3d
-0.24193043 -0.37665665 -0.07835101 0.287005 -0.12467747 0.4528304 -0.12665753 -0.27906558
-0.016801912 0.57994366 0.64938265 0.24318904 0.07957543 0.35748813 -0.20821154 0.4643036
0.37215418 -0.1720113 0.617267 0.5034182 0.44925487 0.42436728 0.304951 0.20895995
-0.013388382 -0.104990624 0.08864629 0.30475065 0.0022919816 -0.39157388 0.08613162 -0.46248093
0.12606868 0.09565624 0.08897874 -0.39126983 -0.19874439 0.12493661 -0.60289514 -0.49124774
-0.54729307 -0.027798353 -0.32355416 0.15054436 -0.63029724 -0.5023383 -0.5448249 -0.5506913
-0.106863454 0.31094182 0.015461213 -0.34474668 0.14404745 -0.1735721 -0.08528962 -0.38661638
-0.31701684 0.020290531 0.35488456 -0.348914 0.36374083 -0.22960797 0.47178003 -0.16767797
-0.090433374 -0.4472934 0.028861754 -0.3570811 -0.4389694 0.17063378 -0.13504627 -0.39082772
0.010074479 -0.2366031 -0.3113469 0.031845953 -0.47603732 0.092675894 0.115115754 -0.3392157
0.3478372 0.4538359 -0.19648464 0.0628376 0.3257003 -0.016919604 -0.048560075 -0.08566418
-0.31284684 -0.21731038 -0.36851645 0.062504984 0.30997476 0.044273444 0.22627857 0.3410495
0.38122532 0.3910268 -0.26478726 0.14388072 0.008310233 0.3590172 0.098301135 -0.19286487
0.374984 -0.08109222 0.1698213 -0.10267905 0.19625388 0.16153489 0.03558531 -0.24222551
-0.26423496 0.01946253 -0.33453733 -0.31818724 0.3071542 0.35523313 -0.118053675 -0.15878335
0.016106715 -0.20651262 0.028583325 -0.0672372 -0.17207506 0.3843511 -0.082301654 0.21995667
0.058032185 0.038116504 0.09382645 0.21843313 0.31846392 0.36221835 -0.36019948 -0.45898026
0.28076628 -0.27195495 -0.37709206 0.010893016 0.11221937 0.43182132 0.17354275 -0.4062798
-0.115610294 0.12154488 0.32870126 -0.0033308016 0.021267058 0.1924394 -0.007986428 0.09366273
-0.018930282 0.0935009 -0.27080822 -0.08493411 -0.11684742 -0.068739414 0.05612756 0.14441629
0.15402642 -0.13263555 -0.30762696 -0.086327896 0.018155538 0.099112876 0.0988925 0.13934839
0.05042283 -0.1300192 -0.17570774 -0.20848896 -0.12876354 0.16985728 0.15060197 -0.1017611
0.01998173 0.091043234 0.1949275 0.16097327 0.2434885 0.10087876 -0.21688719 -0.18053705
-0.21271805 -0.20678899 -0.086633936 -0.0054616192 -0.07744436 -0.26421043 -0.13428885 0.08496264
-0.16030611 0.0038513474 -0.10925945 0.32742745 -0.026154753 0.056435894 0.06976006 -0.21747023
0.052487902 -0.14833516 -0.06971757 -0.14990158 0.16876882 0.13374916 0.22091381 0.079881296
0.17296259 0.07564562 -0.17026925 0.005258876 -0.1061871 0.080667354 0.14141074 0.24227995
-0.066594146 -0.15867403 -0.24674278 -0.18180437 0.13955384 0.06702689 0.25870103 0.0490544
-0.02605436 0.067193784 -0.116708696 0.055946987 0.059648406 0.22419688 0.22209954 -0.15667813
0.056833297 0.17340581 0.1279704 -0.18086821 -0.094147936 0.16233954 0.002116417 -0.111597426
-0.24292131 -0.11448796 0.15388499 -0.004455425 -0.16396381 -0.07403382 0.1547123 -0.21722357
0.16966501 0.11597163 0.06463556 -0.10909326 -0.105436064 0.19006373 0.1951522 0.1245903

onnx::Conv_81 f4 [16]
00000000: a74b 083f 0bc3 21bf 67a1 9ebf 4764 aebf
00000010: 1a1b f43d 898f c13f cbb8 8e3f 4010 443d
00000020: 2246 c73f 82ab bcbf a95f c13d a4ed b6bf
00000030: c574 113e 151d e73f 067a 26bf 6c94 ac3f
0.53240436 -0.63188237 -1.2393006 -1.3624352 0.11919232 1.5121928 1.1150144 0.04786706
1.5568278 -1.473984 0.09442074 -1.4291272 0.142047 1.805575 -0.65029943 1.3482795

onnx::Conv_83 f4 [32, 16, 3, 3]
00000000: 1025 42bd 8c49 5cbc 671d 47bc 114c d5bc
00000010: 185b 22bd ef8e 80bd 354d 1fbd 0a99 a13b
00000020: 3a0c f5bc d20b 783d c9e5 013d c109 89bd
00000030: bab5 193d e6a4 08bd 4c81 46bc 7db8 febc
00000040: 7299 af3d e67c a4ba 8b89 fd3c cd87 763d
00000050: 003d 88bd 534a 9a3d 49cf 193d 7da2 b7bd
00000060: 25bc cb3a 077e 453d 258e 303d b3f1 32bd
00000070: a2bb 09bd f6ac c8bd 8d9d 0abd 3afb 30bd
00000080: 4350 d2bb 2f66 cfbb cfc9 533b 434b c8bb
00000090: 0346 50bd c5ba 65bd 8690 35bd cfbf 20bc
000000a0: e69f 8b3d 1d39 81bd 0654 053d d704 f93c
000000b0: 7f51 b13d 0ac2 4b3d 3b52 8d3d 626c 1abd
000000c0: 10d5 08bd f7c1 46bb c6bf 1fbc 5eb5 99bd
000000d0: 9007 23bb 9f03 b73c 8f72 bf3d b171 0b3c
000000e0: ed7a 143d 285f 79bc ab82 9a3d 0a2b 013d
000000f0: c080 7bbc ad85 6c3c fd8d 3f3d 64a5 0cbd
00000100: e096 243d 4090 82bd 4216 7bbc 623a 583c
00000110: a573 1dbd 360b 053c 71cc 9d3d 3664 57bb
00000120: 354e 14bd ad48 9e3d 1d2b c13c 2a3b 0e3d
00000130: 4da5 43ba 6401 df3c bca9 4a3d 3abf da3d
00000140: 9297 b33d 6247 1c3d a311 7ebd ba78 aabd
00000150: 4026 473c 500f 7ebd 2d2b 033d 1584 813d
00000160: 988f 143d 9d52 9a3c a572 0bbd 51ea 9d3c
00000170: c036 a13c f12e 30bd e38f e93c bd5c bd3a
00000180: 39b9 9dbd e855 973c e1f8 43bd 3f89 573b
00000190: 8a9c aabb 7f0a 20bd 41a9 7b3c 8e3b 9cbd
000001a0: ec90 b0bc cee0 413d 6579 45bd 0bb1 d9bc
000001b0: 2f41 b23d d29a b53d d8be e83c 19fe 743b
000001c0: bf9f bb3d 7b80 9cbd 25bc d23c f495 9f3d
000001d0: 5ee1 86bd 5e80 133d cc7d a33c 93ac 103d
000001e0: 8940 bbbb 7291 b73b e27b 4abd 9b61 39bc
000001f0: ee9f a03d 1e5c 683c 0d2d eb3c 36ec 1ebd
00000200: 0f05 2bbd e523 773c 7e60 fabc 6f8f 2bbd
00000210: 4b42 8c3c a5df 28bc 38f2 333c 470c 99bc
00000220: 1aee 1e3d f32f 3b3d 5662 ca3b 86cf e4bc
00000230: fab6 c63c 3bed 0c3d e92e 44bd ec3f 35bc
00000240: 572b b2bd 4265 b73d 45ac 933d 732f f73c
00000250: 0422 24bd 5cba 883d 76e3 933d 40da 9dbc
00000260: 4a08 ecbb 2c81 4f3d ed5a b83d fe1b 32bc
00000270: ac93 d6bd a830 1bbc 622e 833d d749 b53a
00000280: 75bf a5bd 6c34 afbc bd93 a13c 6aa7 72bd
00000290: cfb6 07bd b7c4 cfbd 8cb6 903d d1c4 d33d
000002a0: 6319 b1bd 9193 b6bd f5bb e83d 16dc 05bd
000002b0: de8e e83d 23ec bd3c 299c 8abd af90 e0bc
000002c0: 2902 823d 135f 85bd 1de3 5abd 0fe7 bdbd
000002d0: 4704 813d 9445 e0bd fe47 ca3d b6ae d5bd
000002e0: 978d 983d 5fe4 11bd f4b4 813d e065 8d3b
000002f0: 5441 50bd 85b2 d83c 6852 0ebd 3d1d 473d
00000300: 5431 8d3d 62eb dabd 7d6f de3c 9ac0 8abd
00000310: 195c 793d d170 6ebd a86e a8bc 815a c43d
00000320: 6fc0 e2bc 8829 c93d 933b 4b3c 18e4 8cbd
00000330: 71e3 fd3d 3811 31bd 1f27 2b3c 3278 0cbd
00000340: df3d 98bd 6f7b 90bd 7783 83bd 4b81 153c
00000350: 4d66 66bd 7aa2 bf3d ea15 b63c 681a 8e3d
00000360: 6d57 fb3d acc9 0b3d 12a0 7a3d df89 b03d
00000370: aef8 7c3d 1a75 8ebc 8634 ecbc 5b20 5fbd
00000380: 4c32 0cbd 98d5 dabd 3f0e c6bd eeb3 df3d
00000390: c5bc 9a3d 3bb6 e03d 82f3 48bd c27e 263d
000003a0: aa5d c33c a947 b13d 41c9 a1bc f1aa 4bbd
000003b0: 2efc e13d c02f ff3c 0c48 8abd 8e31 d5bc
000003c0: e05e aabd 3f3d c1bd 6222 03bd 0526 9d3b
000003d0: 7832 6cbd c52f a43c 729f b7bd 218b af3d
000003e0: ac4f e93d 7da6 8b3d 05f2 be3d d26a 213d
000003f0: 494e 8abc bfd0 06be 3003 dabd 063d 9b3d
-0.047398627 -0.013445269 -0.012153006 -0.026037248 -0.039637655 -0.062772624 -0.03889199 0.0049315738
-0.029913057 0.060558148 0.03171328 -0.066913135 0.037526824 -0.033360384 -0.012115788 -0.03109383
0.08574189 -0.001254943 0.030949375 0.060188103 -0.0665226 0.075337075 0.0375512 -0.08966539
0.0015543742 0.048215892 0.04310431 -0.043687534 -0.033626206 -0.09798615 -0.03384166 -0.04320834
-0.0064182593 -0.00632932 0.0032316332 -0.0061124875 -0.05084802 -0.05608632 -0.04432728 -0.009811356
0.068176076 -0.063097216 0.032550834 0.030397816 0.08658122 0.049745597 0.0690045 -0.03770102
-0.033406317 -0.0030328014 -0.009750312 -0.07505296 -0.0024876334 0.022340594 0.09348022 0.008510993
0.036250044 -0.015220441 0.07544454 0.031535186 -0.015350521 0.014436168 0.04676627 -0.034337416
0.040182948 -0.0637517 -0.015325131 0.013197513 -0.038440365 0.008120349 0.0770501 -0.0032866127
-0.036207397 0.077287056 0.023580128 0.034724392 -0.00074632914 0.027222343 0.049478278 0.10681005
0.08769144 0.038154013 -0.06202854 -0.08323808 0.012155116 -0.062026322 0.032023598 0.06324021
0.036269754 0.018838221 -0.03404488 0.01927677 0.019679427 -0.043013517 0.028510993 0.0014447194
-0.07701344 0.01847358 -0.04784477 0.0032888202 -0.005206649 -0.03907251 0.0153601775 -0.07628547
-0.02155348 0.04733353 -0.048211474 -0.026573678 0.08703839 0.0886742 0.028411314 0.00373829
0.091613285 -0.07641693 0.02572448 0.07792273 -0.06585954 0.036011092 0.019957446 0.03532083
-0.0057144803 0.005602055 -0.04943455 -0.011314775 0.07843004 0.014182119 0.028708005 -0.038799487
-0.04175287 0.0150842415 -0.03056359 -0.041884836 0.017121455 -0.010307227 0.010983042 -0.018682612
0.03880129 0.045700025 0.0061762733 -0.027930986 0.024257172 0.034405928 -0.0478963 -0.011062603
-0.08699673 0.0895486 0.07210592 0.030173993 -0.040071502 0.0667617 0.07221119 -0.019269109
-0.0072031366 0.050660297 0.09001718 -0.010870932 -0.10477385 -0.00947205 0.06405331 0.001383121
-0.08093158 -0.021387301 0.019723767 -0.05924169 -0.033133324 -0.10144942 0.07066068 0.10340274
-0.0864742 -0.08914865 0.11363975 -0.032680593 0.11355375 0.023183888 -0.067680664 -0.02741274
0.06348068 -0.065122746 -0.05343925 -0.092725866 0.06299644 -0.10950771 0.09877013 -0.10433714
0.07448881 -0.035618182 0.06333342 0.004315123 -0.05084355 0.026452312 -0.034746557 0.04861187
0.06894174 -0.10689427 0.027152771 -0.06775017 0.060878847 -0.05821306 -0.020560578 0.09587575
-0.02767965 0.098223746 0.01240434 -0.06879443 0.12396897 -0.04322931 0.010446339 -0.034294315
-0.07433676 -0.07054793 -0.06421559 0.009125064 -0.056249905 0.09357162 0.022227246 0.0693863
0.122725345 0.034127876 0.06118781 0.08620047 0.061760597 -0.017389823 -0.028833639 -0.054474216
-0.034227654 -0.10685271 -0.09670686 0.10922991 0.07555536 0.10972258 -0.049060352 0.04064823
0.023848373 0.08656246 -0.019749286 -0.04972357 0.110344276 0.031150699 -0.06752023 -0.026024606
-0.08318877 -0.0943551 -0.032015212 0.004795792 -0.05766532 0.02004231 -0.08965959 0.085714586
0.11392149 0.068188645 0.09323505 0.039408512 -0.016883032 -0.13165568 -0.10645139 0.07579999

onnx::Conv_84 f4 [32]
00000000: 1126 23be c7e6 20bf d511 e13e 1471 9f3f
00000010: 4851 78bf 71d4 97be e4e5 7fbf b220 853e
00000020: 1b2a fbbe e355 4a3f b7be e83e c130 e63d
00000030: 4ae2 11bd adec 47bf c252 99be 593e 513e
00000040: b76c 683e ecba 9b3e 2e61 0b3f 2097 c43f
00000050: 2f95 323e fecd 64bb a47f 413f b025 8fbe
00000060: 0f59 8e3e 7d93 60bf 5f07 863f acb1 dfbe
00000070: e180 b33f d051 153d 4225 893f 2e14 13bf
-0.1593249 -0.6285214 0.43958917 1.2456384 -0.96999025 -0.29654267 -0.9996016 0.26001507
-0.4905556 0.790373 0.45458004 0.11239768 -0.035616197 -0.78095514 -0.29945952 0.2043394
0.22697721 0.30416048 0.5444516 1.535862 0.17439722 -0.003491282 0.7558539 -0.2795844
0.2780232 -0.8772505 1.0471 -0.4369024 1.4023706 0.036454976 1.0714495 -0.57452667

onnx::Conv_86 f4 [32, 32, 3, 3]
00000000: af68 5bbd e055 f63c 49d1 863b 3b0d 583d
00000010: 0f81 663b a100 c93c 2b65 b73d ea50 e9bd
00000020: 8ef2 11bd 5433 be3d 35ed 733b 291e 513d
00000030: 98a8 063e 8bfe ffbc d44f da3d 1eb3 333e
00000040: ceee 193e bd2d 81bb 8972 643d 91b0 913d
00000050: 4df2 f7bd 431f cfbd b8ce a83d 294d 093d
00000060: 380c bbbd 5b30 853d 8756 d7bb 9cef bbbc
00000070: e3cb 8cbd 118e 1d3d 5a82 d4bd 0ade 89bc
00000080: b010 dd3c 097f 9ebd 5005 a3bc 700a 8fbd
00000090: 6981 c73d ec7b d13a 0a5a 0b3e c6d0 88bd
000000a0: 44bc 783c e5be 89bd c0d7 e8bd ff2f 19be
000000b0: 123f 683d 8ed2 0c3d 230a 173e d154 4d3b
000000c0: d695 373e 0ef4 9bbb 7afb 99bd 87aa f93b
000000d0: ca44 e839 274d 9a3d 242e 1ebd b3cb a3bc
000000e0: d2aa e63d 5e35 d13c 8956 a0bd 268a ce3d
000000f0: 10c7 0c3e 6f8d 303e 2edc bc3d 241d 543d
00000100: 78a6 e33d 633c 283e 8722 c03c ca62 8cbd
00000110: b2a2 04be 4d39 e33d 8356 743d 5d5a 173e
00000120: 148a 9a3c c7e7 11bd e1a0 1d3d 327a debc
00000130: 4436 ffbd 43fe 6dbd d5f4 96bd 0b32 93bd
00000140: 50e6 9cbd 3463 483d ed80 9cbd bec1 773c
00000150: 29e0 5e3d 24d5 943d 376b dfbd b9c6 153d
00000160: f3ef fc3c 701f d6bd 2f24 433d 7086 513c
00000170: bab7 fe3b f950 e4bc 6838 a7bb 0cd3 eb3c
00000180: bb0d a63b 9b51 71bd 898e 013e ed87 7b3d
00000190: 876a 383d e772 b83d 3285 883d ed6c ef3d
000001a0: 2be2 293e da22 28bc 4681 0e3d befc 843d
000001b0: 182d 053e ea72 143d 07ce 1b3d eaa4 db3d
000001c0: 16f7 0e3d 8dc0 8bbd 67bb d73d fede 15bd
000001d0: dbb1 0d3c 8bed aabb 7cfd a9bd 6943 0abd
000001e0: ee7a 27be 06a3 b2bc 4532 01be abed 863d
000001f0: f15e 9a3d 927a 6cbc 1d46 b63d 037e 01bd
00000200: 443f c93d b7f3 c53d c387 2fbd aad9 c6bb
00000210: dbcc 053d effd f63d 67c1 7a3d 48c5 acbb
00000220: 6dc0 1abd 1012 863d 3607 28bd babe b93d
00000230: 7f69 a8bd 2d7b ad39 f078 ddbd 8d8f 9ebd
00000240: e384 fc3c 3108 aa3d 8e60 0bbd ba8b 803d
00000250: 7b74 2c3d 75b7 2ebe bf9e 91bd ba66 dfbd
00000260: a215 2cbd 8342 10be bfd7 d0bd dfce b0bd
00000270: ff63 0abd ce50 1fbd 7b26 8abc 3112 d43b
00000280: 6b3d 49bd ff01 8c3d bd38 02be f50a 273d
00000290: 9c75 a93d a90c 3fbd 30db a63d 00a9 bbbd
000002a0: 4292 953c 802d af3d c48b a53c fcb9 2fbe
000002b0: de0c 7cbc 6454 0dbc e67b 5abe fff1 1abe
000002c0: a6fc 8cbd c03a e2ba 5a30 14be f22a 51bc
000002d0: 05a7 09bd a3e6 d83d c4cb 49bd a367 253e
000002e0: fe2b 66bd 6ecb 3a3e 4832 2ebd 69ca ac3d
000002f0: 5f81 84bc cd39 c93d d22f 063e 4c65 fb3b
00000300: bce8 8ebd a22b 473c 3ccc c33d 1f3f df3d
00000310: 99ae 6cbd e23c 3cbb a74e 87bb fc7e e43c
00000320: f683 eebd 9fd8 863d 6dc5 2ebd 4a23 cabd
00000330: e0ce 963d 9689 3d3d bd8f 9f3d 4e5d 963c
00000340: 2b9f 74bd 7c11 2dbd b44e 3abe 5e89 fcbb
00000350: 1204 f8bd bb57 a1bd 0615 abbd 4d8a 9dbc
00000360: 4864 553d cd43 8f3d 5138 06bb d180 03bd
00000370: 2b9e 503d a4bd a6bd 647d 75bd 3c33 adbd
00000380: 906e 41bd 7dcb cfbd e81b 95bd 06fe b7bd
00000390: 7660 43be dabb 6abe 0f9f 67be 9515 feba
000003a0: a2d1 e4bd 76d4 503d 90f0 72bc 7b6a a4bd
000003b0: ca01 a7bd 8f9d a53d e784 7b3c c753 72bc
000003c0: bc46 d13c 95ba 223e 269f 533c 2504 8c3c
000003d0: 0b3a a1bd 57e5 913c b385 f7bc cbd6 8bbd
000003e0: 0a1b 023d aaab b23d 1528 7f3d 62be 0a3c
000003f0: 11f3 4b3d 931d 4c3d 22c4 ed3c e57c fb3c
-0.05356663 0.030070245 0.004114304 0.052746993 0.003517214 0.024536433 0.08954843 -0.11392386
-0.03563171 0.09287134 0.0037220244 0.051054154 0.13150251 -0.031249305 0.10659757 0.17548797
0.15032503 -0.00394222 0.05577329 0.071137555 -0.12106762 -0.101133846 0.082425535 0.03352085
-0.0913319 0.06503364 -0.006571594 -0.022941403 -0.06874826 0.038465563 -0.10376425 -0.01682951
0.026985496 -0.07739074 -0.019899994 -0.06984413 0.0974148 0.0015982366 0.13608566 -0.066804454
0.015181605 -0.06725863 -0.11369276 -0.14959715 0.056700774 0.034380488 0.1474996 0.0031331072
0.17928252 -0.004759318 -0.075186685 0.0076192054 0.0004430174 0.07534247 -0.038618222 -0.019994592
0.1126305 0.025538143 -0.07829005 0.100849435 0.13747811 0.17241453 0.092216834 0.051785603
0.11115736 0.16429286 0.023453964 -0.0685478 -0.12952688 0.11094914 0.059652817 0.14780565
0.018864669 -0.03562143 0.038483504 -0.027157877 -0.12461522 -0.05810381 -0.07370917 -0.07187279
-0.07661116 0.048922732 -0.07641778 0.015121875 0.054412995 0.07267216 -0.109091215 0.03656647
0.030876135 -0.10455215 0.04764193 0.0127884 0.0077733668 -0.027870642 -0.0051031597 0.028787158
0.005067555 -0.058915716 0.12652029 0.061408926 0.045023467 0.09006291 0.0666603 0.11690698
0.16590182 -0.0102622155 0.034791254 0.06493519 0.13005483 0.036242403 0.03803828 0.10724814
0.03490361 -0.068238355 0.10533791 -0.036589615 0.008648361 -0.0052163056 -0.083003014 -0.033755694
-0.16355488 -0.021806251 -0.12616833 0.065883 0.0753764 -0.01443352 0.08900092 -0.031614315
0.0982652 0.096656255 -0.04285408 -0.006068428 0.03266607 0.12060153 0.0612196 -0.005272541
-0.037781168 0.06546414 -0.041022502 0.09069581 -0.08223247 0.00033088904 -0.108140826 -0.07742224
0.030825084 0.08302344 -0.03402763 0.06276651 0.042103272 -0.17062171 -0.071103565 -0.109082654
-0.04201282 -0.14087872 -0.101974 -0.086332075 -0.03378677 -0.03889542 -0.016864052 0.006471895
-0.04913084 0.06836318 -0.12716956 0.040781934 0.08274385 -0.046642933 0.081472754 -0.091630936
0.018258218 0.085536 0.020208247 -0.17160791 -0.015383927 -0.008626077 -0.21336326 -0.15131377
-0.06884126 -0.001725994 -0.1447157 -0.012766587 -0.033606548 0.105908655 -0.04926659 0.16152816
-0.056194298 0.18241665 -0.04252842 0.08437044 -0.01617497 0.09825478 0.1310418 0.0076719876
-0.06977984 0.012156399 0.09560439 0.10900711 -0.057783697 -0.0028722812 -0.004129249 0.027892582
-0.11646263 0.06584286 -0.04266875 -0.09870012 0.07363677 0.04627379 0.07791088 0.018355038
-0.059722107 -0.042253003 -0.18194085 -0.007706805 -0.12110151 -0.078780614 -0.08353619 -0.019230986
0.05209759 0.06995354 -0.0020480345 -0.03210527 0.05093209 -0.0814164 -0.059934035 -0.08457038
-0.04722458 -0.10146234 -0.07280713 -0.08983998 -0.19079766 -0.22923222 -0.2261927 -0.0019385094
-0.11172797 0.05098387 -0.014827862 -0.08028122 -0.08154638 0.080866925 0.015351511 -0.014790482
0.025546424 0.15891488 0.012916362 0.01709182 -0.07872399 0.017809553 -0.03021512 -0.06828078
0.031764068 0.087241486 0.062294085 0.008468242 0.049792353 0.04983289 0.029024187 0.030699203

onnx::Conv_87 f4 [32]
00000000: 688d 6bbe 8a45 883d c098 9b3d 4454 b4be
00000010: 788c 1c3f fd07 ed3e 7138 dfbe aaca c23f
00000020: eb5f 0d3f b10a 1d3f 1da4 7bbe 90bc c13e
00000030: 3a9b e7be cc63 38bf fef2 adbf 8649 233e
00000040: 992b 0f3f f732 10bf 83d5 783d 1617 d0be
00000050: a54b dfbe 05db 8c3c 2a5d f5bd fc14 f4bc
00000060: 7a1a 923f e1bb bfbe 75c3 583f 5904 203f
00000070: 6c9c 8f3f 5708 0c3e d252 4b3f ec40 5cbe
-0.23003161 0.066538885 0.07597494 -0.3522054 0.6115184 0.46295157 -0.4359775 1.5218098
0.55224484 0.6134444 -0.24574323 0.37839174 -0.45235616 -0.7202728 -1.358978 0.15946016
0.559259 -0.56327766 0.060750496 -0.40642613 -0.436124 0.01719428 -0.1198066 -0.029795162
1.141433 -0.37448028 0.84673244 0.62506634 1.1219611 0.13675056 0.7942325 -0.2150914

onnx::Conv_89 f4 [32, 16, 1, 1]
00000000: 9569 5a3e 4fbd 923e cb8e 5ebe 1e9b b5bd
00000010: bcb0 893e b723 62bd 66de 343e 6b25 213e
00000020: ed4c 033e 84a9 41be b04f 623d da06 a7bd
00000030: 380c 55be f8da 9b3d 5269 49be 4c61 653e
00000040: 089c 89be 1e5d e33e 54a6 17be bcd6 093e
00000050: 83ff 9bbe ec0b 25be 1a29 453e b469 8b3e
00000060: 7927 a83e 9498 213e ee1c 94bd e1e8 09bd
00000070: 4fdb b3be 0143 0e3e e6f9 b1be 3f57 37be
00000080: ccf5 8cbe 9d05 6d3e d005 16be d09b 353e
00000090: 17a7 a2be 5543 a8bd ef58 a43e 7f67 59be
000000a0: 9475 40be 837e 76be 989b 79be 7e49 0bbe
000000b0: 06d5 b1be 0b3a 303e 44ac c7bd 4bd4 43be
000000c0: 68f1 8f3e 7a10 54ba d1d9 96be 7b04 453e
000000d0: ec7f b6bc 1d7a bcbe 59d1 a6be 6c54 293c
000000e0: b2d7 e8bd 1954 c2bd 3d31 6e3e 9d7d 993d
000000f0: 1898 b2bd 809a 83be 7935 ba3d 4563 343d
00000100: ae1f 60bd d8e0 d43d aed8 6e3d 4bdc 1f3f
00000110: 6871 013f cdda 70be 387d cfbe 9920 a63e
00000120: 3d6c 843e fa9b 02bf 4bc7 86be 4f5d 0b3f
00000130: aa66 f4bb d15d 10bf 474a 1bbe c826 b33e
00000140: 13b9 fc3e 5e27 65bf 9670 07bf 20e0 6c3e
00000150: 8877 07bf 3f7c ca3d 75c2 3ebe 86c4 a6be
00000160: 9345 d73d 9234 393f 9ec7 86be 2e16 5e3f
00000170: 6943 c53d 595f 153f ce76 1e3f 93ea 1b3f
00000180: 0f85 b73e bb4d 823e 811b 5f3e 3d3e 643e
00000190: 5948 6abe cdbb ca3e 6ce3 9a3e 7e24 7fbe
000001a0: 1f99 ad3e c1e7 eb3e a420 d73d 47b7 e93d
000001b0: 14f0 a63d b284 b93e 2f42 8b3e 5e1d 7bbe
000001c0: dbf0 323f 1628 0abf ec2f 783d 5c90 0abd
000001d0: e8cd a9bd 9b71 033f a26d 28be 02e1 41bf
000001e0: 4e26 2abe b906 81be 0c42 1dbf 5d2e 3c3e
000001f0: bc49 563c f666 76be 289c b13e dd86 533e
00000200: ae0b 5ebe d84c a5be a3d7 3ebc 04dc b43e
00000210: 3d62 56be 584c c9be d980 3d3e f1c6 f53d
00000220: 6cbe 92be b4a0 f5be e533 2f3e addd e33e
00000230: 1ee0 ed3e 4083 0c3f 9a0e d7be 4854 1cbe
00000240: 02a8 ba3e 8a6b c03e 4dc0 813e d606 be3e
00000250: 7c0a b0bc 2dd4 383e ca3f 113e 7fba 9bbc
00000260: d199 06be 3fea 513e f287 7fbd 5243 053e
00000270: 2c71 24be 4243 763e 7d74 9ebe 57a8 7ebe
00000280: 2151 203e ab56 253e 8c04 0b3f 1707 b1bd
00000290: 8371 81be 1a34 793e 34c4 2d3e c2b9 c23e
000002a0: e614 ac3e 1e52 a63e dced 2cbe 7987 fdbd
000002b0: 2d1f 6a3e 8cad 983e 8e08 babe 43c2 34be
000002c0: 2d41 11bf 125b ce3d ee05 e6be 5e72 2fbd
000002d0: a906 8c3e 3778 8cbe 65a4 6f3e 35a9 26be
000002e0: e674 32bd a681 86be a432 e73e 0532 1a3e
000002f0: e6be f03e b261 a83e 56a3 9dbe 9fc7 9d3d
00000300: 30a7 c73d 97b4 323e 22ac b43e 0ab9 2f3e
00000310: 1ae4 0dbe d858 2dbd 9c79 b23d e2fd 6cbe
00000320: d0eb 2f3e 832f 8d3e e665 4c3e 83be 713e
00000330: 0f29 bd3e c964 7b3e 9a49 353e cf43 413e
00000340: eeae c73d 7613 493e 514f ffbd c811 933e
00000350: 5f8d cabe 2773 5abe 5763 bbbd 078f 70bc
00000360: 463b 07be 98b2 99bd 3d4f 98be e464 8f3e
00000370: f83d 9c3e 26f5 0fbe 9998 8d3e b274 60be
00000380: ee36 003e e816 463e 4bec 97be 9a3a 8dbd
00000390: 21fd e2be 3b70 01bf 4e50 1e3f 78ad 6b3e
000003a0: 88a6 883e af6a edbd 17b1 4c3e 855b 323f
000003b0: 3a5a a6bd 79af 93be d3a9 283f a479 ae3e
000003c0: d8fb bb3e c5e9 0b3e 7d60 6e3e 8a5f 883e
000003d0: b992 fbbd a183 9bbd 2999 853d 657c d63e
000003e0: 4fd2 50be 5378 2a3e bdc4 6e3d 3f37 62be
000003f0: 5ed9 743e 68ee 91be f4d3 2c3e c8b4 68bd
0.21329339 0.28660056 -0.21734159 -0.08867477 0.2689265 -0.05520984 0.17662963 0.1573693
0.12822314 -0.18912321 0.055251777 -0.08155604 -0.20805442 0.07610124 -0.19669083 0.22400397
-0.26876855 0.4440698 -0.14809543 0.13460821 -0.30468377 -0.16117829 0.1925396 0.27229083
0.32842615 0.1578086 -0.072320804 -0.033669356 -0.35128257 0.13892747 -0.3476097 -0.17904375
-0.27531278 0.23146673 -0.14650655 0.17735219 -0.31768104 -0.082159676 0.320991 -0.21230887
-0.18794852 -0.24071698 -0.2437576 -0.13602254 -0.34732836 0.17209642 -0.09749654 -0.19123952
0.28113866 -0.00080896134 -0.29463056 0.1923999 -0.022277795 -0.36811915 -0.32581595 0.010335069
-0.113692656 -0.094886966 0.2326097 0.07494662 -0.08720416 -0.25703812 0.0909223 0.044039983
-0.054717712 0.10394448 0.05831211 0.62445515 0.5056367 -0.23520966 -0.40525222 0.32446745
0.2586383 -0.5101925 -0.26323923 0.5443925 -0.0074585276 -0.5639315 -0.15165053 0.34990525
0.4935995 -0.89513195 -0.5290617 0.23132372 -0.52916765 0.09886979 -0.18628867 -0.3257181
0.10511317 0.7234584 -0.2632417 0.86752594 0.09631998 0.58348614 0.6190003 0.60904807
0.35843703 0.2544993 0.21787836 0.22289367 -0.22879161 0.39596406 0.30251634 -0.24916264
0.33905885 0.46075252 0.105042726 0.114119105 0.0815126 0.3623405 0.27198932 -0.24522921
0.69898766 -0.53967416 0.060592577 -0.033829078 -0.082912266 0.51345223 -0.16448072 -0.7573396
-0.16616175 -0.2520044 -0.61428905 0.18377061 0.013079103 -0.24062714 0.3468945 0.20656915
-0.21684143 -0.3228519 -0.0116480915 0.3532411 -0.20935912 -0.39316058 0.18506183 0.12000836
-0.28660905 -0.4797417 0.1710964 0.44505063 0.4646005 0.5488777 -0.42003328 -0.15266526
0.36456305 0.37582046 0.25342026 0.3711459 -0.021489374 0.18049689 0.1418449 -0.019009827
-0.13144614 0.20499514 -0.062385507 0.13013962 -0.16058797 0.24049094 -0.30948249 -0.24868904
0.15655948 0.16146342 0.54303813 -0.086439304 -0.25281915 0.24336281 0.16969377 0.38032347
0.33609694 0.32484525 -0.16887611 -0.12379355 0.22863455 0.29819906 -0.36334652 -0.1765223
-0.56740075 0.10075964 -0.449264 -0.04283368 0.2734883 -0.27435467 0.23402555 -0.16275485
-0.043568514 -0.2627079 0.45155823 0.15058143 0.47020644 0.32887036 -0.30788678 0.0770409
0.09748685 0.17451702 0.35287577 0.1716043 -0.13856545 -0.042321056 0.087146014 -0.23143724
0.17179799 0.2757531 0.19960746 0.2360783 0.36945388 0.24550165 0.17703858 0.18873523
0.09750162 0.1963633 -0.124663 0.28724504 -0.39560983 -0.2133299 -0.09149807 -0.014682538
-0.13206205 -0.07504767 -0.29747954 0.2800666 0.30516028 -0.1405836 0.27655485 -0.21919516
0.12520954 0.19344676 -0.29672465 -0.06895943 -0.44333747 -0.50561875 0.61841285 0.23015392
0.26689553 -0.11592614 0.1998943 0.696709 -0.08122678 -0.28844813 0.6588413 0.3407718
0.3671558 0.13663395 0.23278995 0.2663539 -0.122838445 -0.075934656 0.065233536 0.4189178
-0.20392726 0.16647463 0.058293093 -0.22091387 0.23911044 -0.28502202 0.16877729 -0.05681303

onnx::Conv_90 f4 [32]
00000000: d803 c5be 6672 2f3e 75e1 833f 24e7 a53e
00000010: ee56 4ebe 24ad 90bf 26d9 e5bf b9e3 d13e
00000020: fce9 5b3e 5af9 4abf e744 83bf 05a9 453d
00000030: ccc3 c2bf 5668 363e a4e8 87bf 0da9 50bf
00000040: d64e a13f 6699 95bf 9d2c e33e a5f5 4bbe
00000050: 245a 36be f08f dcbe 5794 16bf b4f9 27bf
00000060: b8d1 713f 4d3b c2bc 0dd4 083e 1dd2 243f
00000070: 802a 703d 6af3 623e 4437 0ebe bd98 0a3f
-0.38479495 0.17133483 1.0303179 0.3240291 -0.20150349 -1.1302838 -1.7956893 0.4099405
0.21475977 -0.7928673 -1.0255402 0.048256893 -1.5216002 0.17813239 -1.0617871 -0.8150795
1.2602184 -1.1687438 0.44369975 -0.19917925 -0.17807823 -0.43078566 -0.588201 -0.6561539
0.9446063 -0.023709917 0.13362141 0.6438311 0.05863428 0.22163168 -0.1388827 0.5413931

onnx::Conv_92 f4 [64, 32, 3, 3]
00000000: e88b 9a3d cb52 953d 843c d4bc a292 6e3d
00000010: 4dfe 8fbd eda8 82bd 3bde 04be 6599 1e3d
00000020: 88ba 233c d712 80bc 399f 29bd e7df b83c
00000030: 6f84 9ebd f3b0 02bd 2421 3d3d e7df a0bd
00000040: 81fd 1a3d 78b1 6ebd fa5c 4d3d 2037 aabc
00000050: 5157 7fbd fd2a a23d f287 8e3c f78f 8fbd
00000060: 6b48 20bd 062c 643d 9fdc 15bd fea4 42bd
00000070: 6f5c 103d 958c 22bd a40a 6cbd 411f 533d
00000080: cc93 a23d ad98 1d3d 55af 7bbd 55e9 52bd
00000090: 305c bc3c 925c 48bd 0613 5b3d ca4a 1bbd
000000a0: 6a55 82bd c221 b7bd ad91 873d 2b33 2d3d
000000b0: cec4 a3bd 1c45 b03c b82a b0bc 46b7 38bd
000000c0: d8a9 373d 6143 423c c83b 77bd 0f65 7ebd
000000d0: 8bd2 32bd 6f1f 033d 103a abbd c852 263d
000000e0: c872 e63c 2c48 2d3d 1a40 4d3d 3ecf 5a3c
000000f0: 9e88 9dbd 415a 46bd 36ed 4cbd b88b 0e3d
00000100: 1fe4 a13d 1644 9bbd e246 1dbd 4eb3 5a3d
00000110: d7e5 80bb 5843 5e3c 947e 43bd 9691 c7bd
00000120: 507b 76bd c69e aabd cf3f 2bbd a946 dcbd
00000130: 3a05 c9bd b8f3 a1bc 87b9 203d 0185 663a
00000140: a009 28bd 1f01 693d fc49 5b3d 23c0 04bd
00000150: 74dd 1fbd 49c9 10bb 9bb4 b23d 9257 993c
00000160: 1e77 003d df7b 4f3b a52d ba3d b43f 6abc
00000170: cc4d 0abc f401 8c3d c792 9f3d 0b67 c23c
00000180: 783b d53d fdd8 6dbd 5cdf c13b 38c9 d7bd
00000190: 9e7e 7ebd e30c dc3b 62b9 893c 9ae9 423d
000001a0: 185a 943d cac2 113c 37dc 8ebc 82a7 8cbd
000001b0: a606 a53d 1f2c f3b9 6296 2e3d 3ad0 f53c
000001c0: 94b8 5bbd 3128 1abd 0391 79bb d6ee 9abd
000001d0: 06d6 343c 194c 743d 8192 073d 7f2f 6bbd
000001e0: 12a0 a33d 8352 b1bd 22aa 023d 4581 a4bb
000001f0: c9f2 93bc 039e c7bc 1e92 2abd 6d48 933d
00000200: 150d acbc a4ec dabc 6e44 e6bc 8e15 06bc
00000210: 0d3e 7cbd 2feb 7e3d 61ec f43c fde8 563d
00000220: 234a a13d 0143 993c 3796 763c b29f 3e3d
00000230: 2e1c eabc 3e02 26bc 6354 f43c de1a 833c
00000240: 7086 e4bd 5f12 66bc a2ac 92bd ee5f 6dbd
00000250: d49f 8ebd 6cbe b6bd c065 5f3c 03c7 1cbd
00000260: 8489 32bd b9a6 26bd 97ba 27bd 4db1 403d
00000270: b1d4 bdbd 9a53 0cbb 8788 a8bd 8201 d0bd
00000280: 35f6 9fbd be8b 3abd fb17 113d 69eb 1dbc
00000290: 7b22 27bd 7a7f 293d 3546 b33c c5be 933c
000002a0: aa46 653c af1b 16bc ab15 bf3d 4e49 733c
000002b0: 59c0 58bd ef77 24bd 186c 70bd 21bd 93bd
000002c0: 9def b2bc a093 fd3c fb91 29bd 208e 91bd
000002d0: 17eb 413c 9552 ec3b 493d 593d d6bb eebc
000002e0: fe19 623d 8e80 9cbd 43a2 10bc 1e7d f2bc
000002f0: 91c8 7bbd 7078 89bd 488c e0bc d2d0 1cbd
00000300: 0bda 1b3d 4b7f 213b ebcc 723d 9e48 e1bb
00000310: 6495 bebc 7e6d 29bc 0056 86b9 6afa 98bc
00000320: b56d 4cbc dbca 1cbd f889 883d b252 1d3d
00000330: cbf4 00bd 4ebe 01bd b1df 83bc 114f 8cbd
00000340: d757 13bd 09aa 9ebd d8e7 163d bbc9 7dbd
00000350: 45f5 2bbd bdf3 ab3c ab0d 103d cb62 82bd
00000360: df7c a7bd c966 b8bd dcc3 fbbc 52a5 f23b
00000370: ec7c d9bc 963f 16bd be5d 663b 0867 bc3d
00000380: e861 863d eded d63c 75b6 523b 8cc6 093d
00000390: b684 95bd d894 c1bc c8d5 d73b 8482 86bd
000003a0: c0ca ca3c 25aa a0bd 4df4 ad3b c9ee babb
000003b0: 8747 67bd 9da9 3cbc 1fda 653d 0ed3 5fbd
000003c0: 047d c9bd baa2 3abd ca22 b63c 9450 07bd
000003d0: 0e17 b53d 1ae1 743d ff08 89bd 39b4 e13d
000003e0: 925b e83d ba03 88ba eac5 4abd bf60 9d3b
000003f0: 60ad 84bd 38b8 3a3c 408f bcbd 402b 84bd
0.07546216 0.07291182 -0.025907762 0.05824531 -0.07030926 -0.06379876 -0.12975399 0.038720507
0.009993203 -0.015633984 -0.041411612 0.022567702 -0.077401035 -0.031907033 0.046174183 -0.07855206
0.037839416 -0.058274716 0.050137497 -0.020778239 -0.06233913 0.079183556 0.017398808 -0.07009881
-0.039131563 0.055706047 -0.036587354 -0.04752063 0.0352444 -0.03968485 -0.057627335 0.051543478
0.07938346 0.03847568 -0.061446507 -0.051492054 0.022993177 -0.048916407 0.05348494 -0.03791312
-0.06363948 -0.08941986 0.06619582 0.042285126 -0.07996522 0.021517329 -0.021504745 -0.04509666
0.04483971 0.011856885 -0.060359746 -0.062108096 -0.04365782 0.0320124 -0.08360684 0.04060629
0.028130904 0.042305157 0.05010996 0.013355074 -0.07692073 -0.048425917 -0.05003091 0.034801215
0.07904839 -0.07581346 -0.038397677 0.053393655 -0.003933649 0.013565861 -0.047728136 -0.09744565
-0.060176194 -0.08331065 -0.0418089 -0.10755665 -0.0981545 -0.019769534 0.039239433 0.0008793623
-0.041024804 0.056885835 0.053537354 -0.0324098 -0.039029554 -0.0022092632 0.08725854 0.018718515
0.0313636 0.0031659526 0.09090737 -0.014297415 -0.0084414 0.0683631 0.077916674 0.023730775
0.104117334 -0.058068264 0.005916519 -0.10536426 -0.06213247 0.0067154034 0.01681203 0.04758606
0.072437465 0.008896539 -0.017438991 -0.06867887 0.08057909 -0.00046381445 0.042623885 0.030006517
-0.053642824 -0.037635986 -0.0038080818 -0.075650856 0.011037355 0.059642885 0.0330987 -0.057418343
0.07989515 -0.08658316 0.031900533 -0.005020293 -0.018060105 -0.024367338 -0.041643254 0.071915485
-0.021002332 -0.026724167 -0.028108802 -0.00818385 -0.061582614 0.062236007 0.02989787 0.05246829
0.078754686 0.018708708 0.015050462 0.046539016 -0.02857789 -0.0101323705 0.029825395 0.016004022
-0.111584544 -0.014042466 -0.07161833 -0.057952814 -0.069640785 -0.08923039 0.013635099 -0.03827573
-0.043588176 -0.040686343 -0.04094943 0.047044087 -0.09269083 -0.0021412135 -0.082291655 -0.101565376
-0.07810632 -0.045543425 0.03542326 -0.009638646 -0.040804368 0.041381337 0.021884063 0.018035302
0.013993898 -0.009161874 0.09330305 0.01484902 -0.052917812 -0.04015344 -0.058696836 -0.07213808
-0.021842772 0.030954182 -0.041398983 -0.07107186 0.011835835 0.007211993 0.05303696 -0.029142302
0.05520057 -0.07641707 -0.008827749 -0.029600676 -0.061470572 -0.06712425 -0.027410641 -0.038285084
0.03804974 0.0024642523 0.059277456 -0.0068751117 -0.023264594 -0.010341046 -0.00025622547 -0.018674094
-0.012477328 -0.038279396 0.066669405 0.038408943 -0.031483453 -0.03167563 -0.016097875 -0.06851018
-0.035972442 -0.077472754 0.036842197 -0.061959963 -0.041981954 0.020990247 0.035169285 -0.063664995
-0.08178114 -0.0900398 -0.030733041 0.0074049616 -0.026548825 -0.036681734 0.003515109 0.09199339
0.06561643 0.026236499 0.003215221 0.033636615 -0.07300703 -0.023630545 0.006586764 -0.06567863
0.024754882 -0.078449525 0.005308664 -0.005704735 -0.0564647 -0.011515048 0.05611622 -0.054644637
-0.09838298 -0.045565344 0.022233386 -0.03303583 0.08842288 0.059784986 -0.06691169 0.11020703
0.11345591 -0.0010377087 -0.04950515 0.004802793 -0.06478381 0.01139646 -0.0920701 -0.06453562

onnx::Conv_93 f4 [64]
00000000: cdec 903f b6f9 573d 46c9 f9bd 8a66 073f
00000010: c092 3a3b f800 d63d 2e1d 393d e877 643e
00000020: 73d2 813d 8381 ef3d 3199 9b3e a06a 383c
00000030: 07dd b4be 1cd5 2a3e 1a23 2a3e fe4f 04be
00000040: fce3 66be 6893 09be 8300 243e bc8d 243e
00000050: a08f 2b3e 04df 4e3e 4eae ff3e 8aef 1d3e
00000060: 57c1 e03e 6f12 fc3e e2ab 183d 6fe9 c33e
00000070: dbc7 1bbe b605 ec3e d243 133f 698f 063f
00000080: 7a36 123e 1268 62be 35a4 703e 0faf 98bb
00000090: ba4c 333e d33b 253e 343d ad3e c92d bebe
000000a0: d27c a63d 4c5b 66bd dd1c 53be f1b2 1d3f
000000b0: f65e b33e a857 1b3e c15d 9cbe a87b 94be
000000c0: 96e5 753e 4a68 c43d 61f1 70be 2dd4 103e
000000d0: 7482 13be bfee 09be 4b2a 00be 167c 2a3e
000000e0: f40b fbbd 116e 24be 1a5c 17bf 723d 73be
000000f0: 2c3a b23d 5c2f 463e dff8 adbe f995 5b3e
1.1322266 0.052728377 -0.12196593 0.5289084 0.0028468817 0.104494035 0.045193844 0.22311366
0.06338968 0.11694624 0.30390313 0.01125589 -0.3532488 0.16682857 0.16614953 -0.1292114
-0.22547907 -0.13435137 0.1601582 0.16069692 0.16754007 0.20202261 0.4993767 0.15423408
0.43897507 0.49232814 0.037273295 0.38264033 -0.15212958 0.46098107 0.5752536 0.52562577
0.14278594 -0.22110012 0.2350014 -0.0046595405 0.17509738 0.16136102 0.33835757 -0.37144306
0.08129276 -0.05623941 -0.20616479 0.6160117 0.35033387 0.15170157 -0.3054028 -0.29000592
0.24013361 0.09590204 -0.23529579 0.14143439 -0.14405233 -0.1346998 -0.12516133 0.16648898
-0.12258139 -0.16057612 -0.5912491 -0.23753908 0.08702502 0.19354004 -0.33978936 0.21443929

onnx::Conv_95 f4 [64, 64, 3, 3]
00000000: 7bad 0fbc a0b5 4bbd b781 ba3d e8b9 a83d
00000010: 1ddf 483c 3547 5ebc aa73 18bc 3522 a7bd
00000020: 58db 0a3c 23fb 37bd 65b8 433b 1b06 373d
00000030: c188 e63d 4181 6e3d 7c15 6bbc 4b2e 3d3c
00000040: 18c0 66bd 56c9 61bd 293f cc3c 82c4 bdbc
00000050: 6058 323d f9c7 883d 182c 423d 5aae 463a
00000060: ca0b 3d3d 935a 783c 50c6 4d3d cbe0 943d
00000070: 04e2 e23d 0184 083e 9609 913d 34e8 86bc
00000080: c026 8f3d fe13 b33c 33d4 e5bc 4ac3 b2bd
00000090: 5a4c fe3c 5673 36bc 418a eabb 361f e3bb
000000a0: da98 643c 9dab 38bd 78ce cd3d 9253 99bc
000000b0: bbe8 503d 58c5 10bb 4b0c 1dbd 4bb6 cebd
000000c0: 2312 403c 0c8a 643d 19a6 1a3d a4ae a1bc
000000d0: ed8e d9bd de4f bcbd 6744 f33d 6ac0 27bd
000000e0: 01c4 f13d ce6f 4a3b 028f d0bd 6718 ed3d
000000f0: 5b63 40bc 61f4 d2bb 05a5 3cbd d6d0 a9bd
00000100: 0443 5c3a ccf1 173c 568a a4bc a63b 5bbd
00000110: c3ed dd3c 30e2 093d f37b 3e3d 7c7a 763c
00000120: 9717 7ebd b217 e33d b8fc 5bbd 58c5 bdbd
00000130: 83c0 ebbc 0a01 48bd 484b c6bd fdcf ca3d
00000140: 5b9b 563d 5185 83bd 7aff 8f3c 8721 73bd
00000150: 4f33 fdbc 166a cd3c 8e05 debd c23a 71bd
00000160: 2225 be3d 4847 7dbd 80dc 803d e74d f13d
00000170: 475e 83bc d8f0 63bd e9a8 adbb c7bd d7bb
00000180: bd5f a43d 7ddf 46bd 5773 803d 75c7 803d
00000190: 7f2c 44bd edb9 47bd 0216 c53c 5c24 bfbd
000001a0: 9618 83bb 33e5 2abb 52ad 9fbc fc91 6c3b
000001b0: 6469 6a3d 41e7 dcbc ddc6 bbbd 0325 203e
000001c0: c6ac 823d 3294 443d 4471 c13d 021e 8a3d
000001d0: ced9 493d cf47 bcbc b490 133c 8843 c1bc
000001e0: 1776 c4bc 51fc a23d ca43 93bd 6aa6 523d
000001f0: 627e ec3d fe29 003e ffba 463d 8b37 903d
00000200: 2900 c0bb eb30 33bd f845 63bd af0c a4bd
00000210: fbad 6fbd d6c5 a53b 3067 24bd f427 443d
00000220: a980 0bbd 505f 85bd 3213 303d 3c90 ce3d
00000230: eeed 873c b032 783d 32b9 48bd 98d2 c73c
00000240: 77b6 c93c 1b42 f4bd 3cb7 61bd de98 3e3d
00000250: 95fb b1bd f624 9dbd dace 11bd cffd 4c3d
00000260: 8552 d63d 3f90 9abc 7c6a 43bd 0196 613d
00000270: f568 9abd f199 2bbd cff3 013e debc f6bc
00000280: 3f3f e1bc fc35 86bd 90aa 863d 4551 9a3d
00000290: 81ec c63d 75b7 cb3c 5a49 263d fe7e 20bd
000002a0: b525 d1ba 4b18 96bd 2e9a 963d b27d ccbc
000002b0: 1ce8 0fbd 169d 773d a2ba c9bd 186a d8bd
000002c0: 71d1 043e 4b0a ebbd e30c 403d c6c7 283c
000002d0: e09b 773d f8ac d63d 88dc 9e3d 1793 c53d
000002e0: 86a2 bf3d c1db a73d 6d91 8d3c 1591 c3bd
000002f0: 6784 b2bd 3310 f1bb 3a68 41bc 6ccb edbc
00000300: 236c ad3d 6860 90bc ed71 f33d d677 48bd
00000310: 6b4a 303d e781 62bc 24a7 683c 5d8a ba3d
00000320: 7949 ab3c 4c2b 8dbd 974e 3cbc 67aa 74bd
00000330: 2f63 88bc c3e6 04bc 189c c8bd e783 c3bc
00000340: fb35 37bd 2a5c 33bc 2516 0b3d bbb0 013e
00000350: a880 0f3e 2d33 243d 127c d13d 77e1 2e3d
00000360: 91bd d3bb d1ca 9bbc 4190 083b c40c 543d
00000370: 76f1 cd3c d9c3 8f3c aa26 e33d d2e8 7abc
00000380: c1de 50bd 04a1 983d 334e 0cbd 86c7 1eba
00000390: bbc2 c03d 645c c4bd b732 b03d d13c e83d
000003a0: 3ec3 68bd 95ee debc 53fb 7bbc f767 0f3e
000003b0: fdbf e33d 2e94 553d ff05 a13d 7706 60bd
000003c0: bfda 00be 7a46 8ebc e4fa c9bd c843 54bd
000003d0: 6b20 3c3d f012 eb3c ca97 00bd 2081 6e3d
000003e0: 79f4 c7bc a032 14bd c0d5 69bd 7e9c 39bd
000003f0: 5be8 d7bc 67ef 57bd 5777 4b3d 9979 053d
-0.008769388 -0.049733758 0.091067724 0.08238584 0.012260226 -0.013566782 -0.00930492 -0.08160821
0.008475147 -0.044917237 0.0029864546 0.044683557 0.112565525 0.058228735 -0.014348384 0.011546682
-0.05633554 -0.05512365 0.02493246 -0.023164991 0.043541312 0.06678767 0.047405332 0.0007579081
0.04615382 0.015158313 0.050237954 0.07269438 0.11078265 0.13331605 0.070819065 -0.016468145
0.06989813 0.021860119 -0.028055286 -0.08728655 0.031042267 -0.011135897 -0.0071575944 -0.006931211
0.013952458 -0.04508554 0.100491464 -0.018716607 0.0510032 -0.0022090282 -0.0383418 -0.100933634
0.011723074 0.055795714 0.03775606 -0.019736595 -0.10622964 -0.09194921 0.11878281 -0.040954985
0.11804963 0.0030889395 -0.101835266 0.1157692 -0.011742438 -0.0064378236 -0.046055812 -0.082917854
0.000840232 0.009273957 -0.020085495 -0.053523682 0.027090913 0.033662975 0.046504926 0.015043851
-0.062034216 0.11088504 -0.05370781 -0.09266156 -0.02877832 -0.048829116 -0.096823275 0.09902952
0.052394252 -0.064219125 0.017577875 -0.059358146 -0.030908255 0.025075 -0.10840903 -0.058893926
0.09284426 -0.061835557 0.06292057 0.11782437 -0.016036166 -0.05564961 -0.0052996767 -0.0065839025
0.08026073 -0.04855298 0.06271999 0.062880434 -0.047893997 -0.048761297 0.024058346 -0.09333107
-0.0040007336 -0.0026076555 -0.019491825 0.0036097756 0.057229415 -0.02696574 -0.091687895 0.15639119
0.0638061 0.047992893 0.09445432 0.06744005 0.04927998 -0.02298346 0.009006668 -0.023591772
-0.02398209 0.07958282 -0.07190664 0.051428236 0.11547543 0.12516019 0.048518177 0.07041844
-0.005859394 -0.043747824 -0.05548665 -0.08010232 -0.05851553 0.0050589843 -0.04013747 0.047889665
-0.034058247 -0.0651232 0.042987056 0.10086104 0.016592946 0.060595214 -0.04900474 0.024392411
0.024623139 -0.11926671 -0.055106387 0.046532504 -0.086905636 -0.07673065 -0.03559766 0.05004674
0.10464958 -0.01886761 -0.047708973 0.055074695 -0.0753955 -0.041894857 0.12690662 -0.030119356
-0.027495978 -0.065532655 0.06575501 0.07535032 0.09713078 0.024867753 0.040597297 -0.03918361
-0.0015956672 -0.07328852 0.07353626 -0.02496228 -0.035133466 0.060452543 -0.098500505 -0.10567111
0.1297052 -0.114765726 0.04688729 0.010301536 0.06045139 0.1048221 0.07756907 0.09647196
0.09357171 0.081962116 0.017281258 -0.095491566 -0.0871666 -0.0073566674 -0.011804635 -0.029027663
0.08467891 -0.017624095 0.11886964 -0.04894241 0.04303972 -0.013824916 0.014200006 0.09108422
0.020909058 -0.06893024 -0.011493347 -0.05973282 -0.016648857 -0.0081116585 -0.097953975 -0.023866607
-0.044729214 -0.010947267 0.033956666 0.12665074 0.14013922 0.040087868 0.10228743 0.04269549
-0.006461807 -0.019017609 0.0020837935 0.051769987 0.025139552 0.017549442 0.11091359 -0.015314298
-0.050993685 0.07452586 -0.034254264 -0.0006056953 0.09412142 -0.095879346 0.08603423 0.11339725
-0.056826822 -0.027213374 -0.015379745 0.14004503 0.11120603 0.05214327 0.07862472 -0.054693665
-0.12583445 -0.01736759 -0.09862307 -0.051822454 0.045929354 0.028695554 -0.031394757 0.058228612
-0.024408566 -0.036181092 -0.057088614 -0.04531526 -0.026355913 -0.052718546 0.04967436 0.032586668

onnx::Conv_96 f4 [64]
00000000: 39d6 ecbe 6be5 0ebe 7af9 b5be 4a52 ffbd
00000010: a666 acbe 6f1f 40be 180e d5bd fc83 25bc
00000020: 5e85 61be 9f89 95be ebeb 9ebe 1844 f0bd
00000030: 4574 d6be 1863 21bd 46af 24be a819 3fbe
00000040: c8d3 07be cd88 aabd 0c0a 32be 64d9 4ebd
00000050: 96ee e0bd 22dc d4bd 398c 143f f288 cf3d
00000060: 6706 8dbe 8716 a6be b114 a4bd 6535 6cbe
00000070: 8aac 4f3d d8eb e1bd d7ec b1bd 59b9 58be
00000080: b57f 653d dcce 88be f947 0bbd 19c2 913e
00000090: 166c b7bd fd93 8e3c 50d7 86be 0964 c33e
000000a0: 6c02 50be 9e17 773c 94eb 8ebe 64ce 0dbd
000000b0: 3a4c 2a3e dd48 39be 75af 06bf 4971 bdbe
000000c0: 5ae7 f8bd 4858 b9bc dc05 47be d408 6fbd
000000d0: 5ab2 69be cf43 b7be b743 fa3e 783c cfbd
000000e0: 5c02 c13b 295a 9ebe ce96 b3be b45c 96be
000000f0: 32e5 afbe 16b5 62be 10d2 e83d 8c84 e43d
-0.4625719 -0.13954704 -0.35541898 -0.12466867 -0.33672065 -0.18761991 -0.10403079 -0.010102268
-0.22023532 -0.2920656 -0.31039366 -0.11731738 -0.41885582 -0.039401144 -0.16082487 -0.18662131
-0.13264382 -0.08326874 -0.17386645 -0.05050029 -0.10983007 -0.103935495 0.5802646 0.10133542
-0.27543947 -0.32439062 -0.08011759 -0.23067243 0.050701655 -0.11031312 -0.08687752 -0.21164455
0.056029994 -0.2672032 -0.034004185 0.28468397 -0.08956163 0.01740455 -0.26336145 0.38162258
-0.20313424 0.015081314 -0.27914107 -0.034620658 0.1663064 -0.18094201 -0.52611476 -0.37000492
-0.12153502 -0.022625104 -0.19435829 -0.05835803 -0.22821942 -0.3579392 0.48879787 -0.101189554
0.005890174 -0.30928162 -0.35075992 -0.29367602 -0.3435455 -0.22139391 0.11368191 0.11158094
