cmd/ai/datas/models/someone_playing_football.onnx (onnx, 303077 bytes, 16 tensors)

fc.weight f4 [2, 256]
00000000: c331 e904 c331 e904 c331 e904 c331 e904
00000010: c940 86be c72b 1bbe 3a96 71be f36c 0cbe
00000020: 5a21 02bb 5a21 02bb 5a21 02bb 5a21 02bb
00000030: 4a97 0280 829a 0280 5f96 0280 5797 0280
00000040: 7ec1 1a2c 7ec1 1a2c 7ec1 1a2c 7ec1 1a2c
00000050: 153e 62be 0570 80be 6689 5ebe 3613 7fbe
00000060: 3fc5 9292 3fc5 9292 3fc5 9292 3fc5 9292
00000070: 27ae 393e 9f5b 253e c3e3 333e 8f10 0e3e
00000080: 7940 91b8 8640 91b8 8640 91b8 7f40 91b8
00000090: 9da9 b734 9da9 b734 9da9 b734 9da9 b734
000000a0: d402 0080 d402 0080 d402 0080 d402 0080
000000b0: e05f a5ad e05f a5ad e05f a5ad e05f a5ad
000000c0: ebc3 cd94 ebc3 cd94 ebc3 cd94 ebc3 cd94
000000d0: 4d26 a285 4d26 a285 4d26 a285 4d26 a285
000000e0: 1bde bea8 1bde bea8 1bde bea8 1bde bea8
000000f0: 98eb 719c 98eb 719c 98eb 719c 98eb 719c
00000100: 12fa 423c b9c7 103c 59d2 ba3d 7cee c33d
00000110: 1cdd 3485 1cdd 3485 1cdd 3485 1cdd 3485
00000120: cb1c 0000 251c 0000 b31c 0000 a915 0000
00000130: 15fb 5dae 15fb 5dae 15fb 5dae 15fb 5dae
00000140: 0711 0080 0711 0080 0711 0080 0711 0080
00000150: d8ce ca13 d8ce ca13 d8ce ca13 d8ce ca13
00000160: b27d 20be c556 1dbe d4e3 d7bd da7f cabd
00000170: 0855 0100 0855 0100 0855 0100 0855 0100
00000180: 5711 0080 5711 0080 5711 0080 5711 0080
00000190: 0154 25b4 0154 25b4 0154 25b4 0154 25b4
000001a0: 1694 afbd 6783 aebd 5ba0 a33c 5f26 e93c
000001b0: cd30 2930 cd30 2930 cd30 2930 cd30 2930
000001c0: ce0b bd89 ce0b bd89 ce0b bd89 ce0b bd89
000001d0: 18cb f312 18cb f312 18cb f312 18cb f312
000001e0: 156c 693e 085c 053e 65d1 583e 4bf1 c33d
000001f0: c23e 9d3e f740 713e 8a2a 8d3e c6e6 313e
00000200: c22a b1b5 c22a b1b5 c22a b1b5 c22a b1b5
00000210: 697e 6732 697e 6732 697e 6732 697e 6732
00000220: 4217 0000 4217 0000 4217 0000 4217 0000
00000230: d088 4cb7 d088 4cb7 d088 4cb7 d088 4cb7
00000240: 3fda b338 3fda b338 3fda b338 3fda b338
00000250: 8124 0080 8124 0080 8124 0080 8124 0080
00000260: 1209 b6bd 9115 bcbd eacd a1bd e016 a6bd
00000270: 5309 ac8d 5309 ac8d 5309 ac8d 5309 ac8d
00000280: f61f 0480 f61f 0480 f61f 0480 f61f 0480
00000290: 59c0 b1b4 59c0 b1b4 59c0 b1b4 59c0 b1b4
000002a0: f948 9325 f948 9325 f948 9325 f948 9325
000002b0: bee9 d522 bee9 d522 bee9 d522 bee9 d522
000002c0: 3dea 823e bc9c 383e 9d75 4a3e fba7 eb3d
000002d0: b967 a6be b8b3 85be f0fc a5be 01f0 90be
000002e0: f417 0033 dd18 0033 691a 0033 db1b 0033
000002f0: 8ed8 c9bd fbe6 c3bd 746c dc3c 957b 103d
00000300: 7e37 742f 7e37 742f 7e37 742f 7e37 742f
00000310: 443b 0393 443b 0393 443b 0393 443b 0393
00000320: 05cf 1b83 05cf 1b83 05cf 1b83 05cf 1b83
00000330: 5264 ba99 5264 ba99 5264 ba99 5264 ba99
00000340: 2227 0080 2227 0080 2227 0080 2227 0080
00000350: 6d0c a214 6d0c a214 6d0c a214 6d0c a214
00000360: 4612 0080 4612 0080 4612 0080 4612 0080
00000370: bce8 1d3e eadc 113e e309 3b3c 2b02 16bd
00000380: a906 26be bec9 4abe 7844 28be 5806 51be
00000390: d88c af3e 28d6 803e 6cfe 883e b1a0 183e
000003a0: 1427 e235 6827 e235 6929 e235 b42a e235
000003b0: 6131 34b4 6131 34b4 6131 34b4 6131 34b4
000003c0: f62e 1729 f62e 1729 f62e 1729 f62e 1729
000003d0: 7225 0000 7225 0000 7225 0000 7225 0000
000003e0: b34c b63e 5419 413e ecc2 9d3e 92d5 003e
000003f0: 68a3 922f 68a3 922f 68a3 922f 68a3 922f
5.4823736e-36 5.4823736e-36 5.4823736e-36 5.4823736e-36 -0.26221302 -0.15153418 -0.23592463 -0.13713436
-0.0019856305 -0.0019856305 -0.0019856305 -0.0019856305 -2.37943e-40 -2.39098e-40 -2.37614e-40 -2.37961e-40
2.1992126e-12 2.1992126e-12 2.1992126e-12 2.1992126e-12 -0.22093995 -0.25085464 -0.21732101 -0.24909672
-9.26252e-28 -9.26252e-28 -9.26252e-28 -9.26252e-28 0.1813284 0.16148232 0.17567353 0.13873504
-6.926148e-05 -6.926157e-05 -6.926157e-05 -6.926152e-05 3.4209816e-07 3.4209816e-07 3.4209816e-07 3.4209816e-07
-1.015e-42 -1.015e-42 -1.015e-42 -1.015e-42 -1.8800905e-11 -1.8800905e-11 -1.8800905e-11 -1.8800905e-11
-2.0776986e-26 -2.0776986e-26 -2.0776986e-26 -2.0776986e-26 -1.5248476e-35 -1.5248476e-35 -1.5248476e-35 -1.5248476e-35
-2.119056e-14 -2.119056e-14 -2.119056e-14 -2.119056e-14 -8.004471e-22 -8.004471e-22 -8.004471e-22 -8.004471e-22
0.011900442 0.00883668 0.09122152 0.09566972 -8.504171e-36 -8.504171e-36 -8.504171e-36 -8.504171e-36
1.0329e-41 1.0096e-41 1.0295e-41 7.77e-42 -5.0472588e-11 -5.0472588e-11 -5.0472588e-11 -5.0472588e-11
-6.108e-42 -6.108e-42 -6.108e-42 -6.108e-42 5.1195933e-27 5.1195933e-27 5.1195933e-27 5.1195933e-27
-0.15672949 -0.15365131 -0.10541502 -0.09887667 1.22339e-40 1.22339e-40 1.22339e-40 1.22339e-40
-6.22e-42 -6.22e-42 -6.22e-42 -6.22e-42 -1.5397383e-07 -1.5397383e-07 -1.5397383e-07 -1.5397383e-07
-0.08573167 -0.08521157 0.019973924 0.02846068 6.155119e-10 6.155119e-10 6.155119e-10 6.155119e-10
-4.5511196e-33 -4.5511196e-33 -4.5511196e-33 -4.5511196e-33 1.5385522e-27 1.5385522e-27 1.5385522e-27 1.5385522e-27
0.22795136 0.13023388 0.21173628 0.09567507 0.30711943 0.23559938 0.27571517 0.1737319
-1.3199972e-06 -1.3199972e-06 -1.3199972e-06 -1.3199972e-06 1.3474712e-08 1.3474712e-08 1.3474712e-08 1.3474712e-08
8.343e-42 8.343e-42 8.343e-42 8.343e-42 -1.2191202e-05 -1.2191202e-05 -1.2191202e-05 -1.2191202e-05
8.5760366e-05 8.5760366e-05 8.5760366e-05 8.5760366e-05 -1.3095e-41 -1.3095e-41 -1.3095e-41 -1.3095e-41
-0.08888449 -0.09183801 -0.07900603 -0.08109832 -1.0602563e-30 -1.0602563e-30 -1.0602563e-30 -1.0602563e-30
-3.78807e-40 -3.78807e-40 -3.78807e-40 -3.78807e-40 -3.310877e-07 -3.310877e-07 -3.310877e-07 -3.310877e-07
2.5549883e-16 2.5549883e-16 2.5549883e-16 2.5549883e-16 5.798125e-18 5.798125e-18 5.798125e-18 5.798125e-18
0.25569335 0.1802854 0.19771428 0.11506649 -0.3250101 -0.26113677 -0.32419538 -0.28308108
2.9824108e-08 2.9824935e-08 2.9826342e-08 2.9827657e-08 -0.09855758 -0.095655404 0.026907183 0.035274107
2.2211386e-10 2.2211386e-10 2.2211386e-10 2.2211386e-10 -1.6563745e-27 -1.6563745e-27 -1.6563745e-27 -1.6563745e-27
-4.5788053e-37 -4.5788053e-37 -4.5788053e-37 -4.5788053e-37 -1.9272468e-23 -1.9272468e-23 -1.9272468e-23 -1.9272468e-23
-1.4038e-41 -1.4038e-41 -1.4038e-41 -1.4038e-41 1.6362721e-26 1.6362721e-26 1.6362721e-26 1.6362721e-26
-6.555e-42 -6.555e-42 -6.555e-42 -6.555e-42 0.15420812 0.14244428 0.011415931 -0.03662316
-0.16213478 -0.19803521 -0.16432369 -0.20412576 0.34287143 0.25163388 0.26756608 0.14905049
1.6849685e-06 1.6849781e-06 1.6850364e-06 1.685074e-06 -1.678177e-07 -1.678177e-07 -1.678177e-07 -1.678177e-07
3.3569467e-14 3.3569467e-14 3.3569467e-14 3.3569467e-14 1.3433e-41 1.3433e-41 1.3433e-41 1.3433e-41
0.35605392 0.18857318 0.30812776 0.1258147 2.6673352e-10 2.6673352e-10 2.6673352e-10 2.6673352e-10

fc.bias f4 [2]
00000000: bf84 45bd eeb6 323d
-0.0482223 0.043631487

onnx::Conv_80 f4 [16, 3, 7, 7]
00000000: 0649 dcbc c056 b3bc 7fc5 51bc f369 d0bc
00000010: ccfa 4ebd 4acb a9bc ce49 763d 02d3 8cbd
00000020: 637a 24bd ea26 4bbd ba60 adbc 107e b93c
00000030: 7947 4b3d 68c4 8e3d 2e17 9abd 0788 12bd
00000040: f6b6 4abd 7f20 e4bb c916 a03d 7cba d33d
00000050: 1b2b 893d c4c0 8abd be18 95bc 49b8 853b
00000060: 55d4 4f3d 8594 e83d a3c5 ad3d 8e59 bebc
00000070: 555b 41bc 37b7 5c3d 51ad ae3d 13d4 a43d
00000080: 8632 a63d 8eed e33b 91af abbd e8e1 c83c
00000090: dae9 bf3c edac 6d3d b84f 593d 5036 103d
000000a0: a0ca 38bd 04f5 a5bd 6a4d f83b 8b21 ebbc
000000b0: afb6 01bd 2334 72bc 77bc 1bbd e3e3 16bd
000000c0: 4afc 8fbb c240 40bc 00a8 89bc b01b 50bc
000000d0: 5643 60bd 8505 b4bd fb56 85bd 9f6d 9f3b
000000e0: e875 33bd 29e9 32bc e1db 17bd f3b4 5cbd
000000f0: 9a66 9abc ff3e 4abb 49ed 813c ae31 e2bc
00000100: fabf f4bb e651 43bd 3613 f2bc b7c5 2b3d
00000110: 416b 753d 70c6 a03c 1d4b bebc 0425 5c3b
00000120: 4a7a 933c e6d3 0b3d c085 cc3d a54d 9b3d
00000130: 7f28 1ebd ca7a f03c 18f8 a33d 7d86 cc3d
00000140: b896 b03d a196 a33d db40 9a3b 3072 babd
00000150: e141 493d b021 583d fbd1 623d f67b 5c3d
00000160: 3994 f03c 1175 4fbd 17f1 96bd ca68 5a3d
00000170: 5e5b 31bc e040 1dbc 9316 7ebc 9667 63bc
00000180: 1e09 31bd 5f5c c43a 3c6e a73c 07ba 22bc
00000190: 526b c6bc 1f89 9bbd fb39 d8bd 8a81 eebd
000001a0: a4f9 21bd 4899 89bd c23d 06bd 68c7 6fbd
000001b0: e74d a3bd 5526 23bd dd6e 06bd 7143 b8bc
000001c0: bbb3 6fbd 069d 2abd 0d1f 9cbd cce0 2dbd
000001d0: 033d 943c 7276 373d d13a dbbb 2f6a 5cbd
000001e0: b8eb 40bc b006 83b9 3700 243d 6d25 d23d
000001f0: 4aaf ae3d 4337 18bd e4d9 923b d363 4e3d
00000200: 16ef 9a3d e6eb a33d 3cd5 993d 340c e13c
00000210: b917 7fbd 48e9 d13c 02ff 143d 87f8 213d
00000220: 564d fe3c 0af9 a13c cfe7 26bd a795 6dbd
00000230: 4004 0d3d b9e3 d3bc c701 18bd 5a4d f4bc
00000240: 8ead 0bbd 9413 08bd 6dcb 6aba dbd3 1fbc
00000250: b326 db3c bd60 4e3c 860c c4ba 0054 6d3b
00000260: 321a b03c ddd3 263b 3fa9 083d 87cf e53c
00000270: 1c69 2a3c 5619 423c 9dab 163d 4296 3f3d
00000280: b9e8 c73b 7e3a 533d 9356 273d 5387 163d
00000290: 7d55 e53c 3ecd 1e3d d4ff dc3c 31cc c6bc
000002a0: c8a8 523d 124b 2e3d 3e04 173d 2d92 ae3c
000002b0: 50f2 a43c a9d9 a93c de03 b1bc 1822 0a3d
000002c0: 9b67 103d a808 063d f90f a83b 372e 36bc
000002d0: 6e5a 3bbc b7a1 20bd 5afc 073c 5432 e13c
000002e0: 276b 8c3c acd3 3fbb e4d1 4ebc 8585 e3bc
000002f0: 1f59 5ebd dc9a e4ba ebae f13b 4beb 953b
00000300: 22ba bdbc e591 21bd 46e7 89bd 753d 9cbd
00000310: c19a b2bc 5761 743c f65c 1d3c b63d 83bb
00000320: 0787 f5bb f1b1 ae39 bb62 83bc d2f7 223c
00000330: c071 6b3c 73da da3b 1a1f e73b bbf4 d83c
00000340: 3907 d53c 5f95 8fbc 392b cd3c ba50 c23c
00000350: 965c fb3c ec5b cb3c e2f8 ea3c 1fec 183c
00000360: 59af 30bd 61e0 003d aa2b d63c 0f13 e23c
00000370: 3b43 803c 420c 893c 5125 3e3c dc5a e3bc
00000380: 390a c43c 8f31 eb3c 6519 f43c 7cc4 063c
00000390: 82ac 81bb a2bf cabb eb18 09bd 15e3 a63c
000003a0: 49ce 2c3d 561e fc3c 5553 733c 9536 163c
000003b0: 755c b1bb ba39 08bd ef49 b03c 2002 023d
000003c0: 835f ed3c f4de 733a 0f47 4bbc 1aa0 19bd
000003d0: ea38 4fbd 9da0 2abd 9d73 903c 40d8 7e3c
000003e0: 0f4c b33b ca85 213c 1520 073d 6271 133d
000003f0: 3f10 64bc 84e4 893b 45b5 b73a 0388 2a3c
-0.026890289 -0.021891952 -0.012803434 -0.025441146 -0.050532147 -0.020726819 0.06012898 -0.06876184
-0.04015578 -0.04959766 -0.021164287 0.02264312 0.04962871 0.06971055 -0.075239524 -0.035774257
-0.04949089 -0.0069618816 0.07816846 0.103383034 0.06697675 -0.067750484 -0.018200275 0.0040808064
0.050739605 0.11356453 0.08484962 -0.023236062 -0.01180156 0.053885665 0.08529151 0.080482624
0.08115105 0.006955809 -0.08383096 0.024521783 0.023426939 0.058026243 0.05305454 0.035208046
-0.045115113 -0.08103374 0.007577588 -0.028702518 -0.03166836 -0.014782938 -0.03802153 -0.036838423
-0.004394089 -0.011734189 -0.016803741 -0.012701914 -0.054751717 -0.08790115 -0.06510731 0.004865363
-0.043813616 -0.0109198475 -0.037074927 -0.053883504 -0.018847752 -0.0030860303 0.015860217 -0.02761158
-0.0074691745 -0.047685526 -0.029550176 0.041936602 0.05991674 0.019625872 -0.023229176 0.00335914
0.018002648 0.03413763 0.09986448 0.07583169 -0.03861284 0.029355425 0.080063045 0.09986589
0.08622497 0.079877146 0.0047074384 -0.09103811 0.049135093 0.052766502 0.055376034 0.053829156
0.029367553 -0.050648753 -0.07370203 0.05332259 -0.010825006 -0.009597987 -0.015508312 -0.013879677
-0.043221585 0.0014981142 0.020438306 -0.009932048 -0.024221096 -0.07594513 -0.10557934 -0.11645801
-0.039544716 -0.06718689 -0.03277374 -0.058539778 -0.07973843 -0.03983148 -0.03282057 -0.022493096
-0.058521014 -0.041653655 -0.0762311 -0.04245071 0.018095499 0.044790693 -0.006690361 -0.053812202
-0.01177495 -0.0002499125 0.040039267 0.10261045 0.085295275 -0.037162077 0.004481541 0.05038817
0.07565133 0.080039784 0.07511374 0.02747164 -0.062278483 0.025623932 0.036376007 0.039543655
0.031042736 0.019772071 -0.040748414 -0.058004048 0.03442788 -0.025865423 -0.03711107 -0.02982204
-0.03410106 -0.033221796 -0.00089567044 -0.0097551 0.026751852 0.012596306 -0.0014957346 0.0036213398
0.021496866 0.002545587 0.03336453 0.028053058 0.010401037 0.011846861 0.036784757 0.046774156
0.0061007407 0.051569454 0.040854048 0.03675015 0.027994866 0.038769953 0.026977457 -0.024267288
0.051430494 0.04255206 0.03686928 0.021309936 0.020135075 0.020733671 -0.02160829 0.03372392
0.035255056 0.0327231 0.005128857 -0.011119417 -0.011435134 -0.039216723 0.008299911 0.027489819
0.017140938 -0.0029270453 -0.012623284 -0.027773628 -0.05428421 -0.0017441171 0.007375588 0.0045751682
-0.023160044 -0.039445776 -0.06733565 -0.076289095 -0.021802308 0.014915786 0.009604683 -0.0040051593
-0.007492903 0.00033320443 -0.01603829 0.00994678 0.014370382 0.006678873 0.007053268 0.026483884
0.02600442 -0.01752728 0.025045024 0.023720134 0.030683797 0.024824105 0.02868313 0.009333639
-0.043135975 0.031463984 0.026143868 0.027596978 0.015657058 0.016729478 0.011605577 -0.027753286
0.023930656 0.028710155 0.029797265 0.008225556 -0.003957332 -0.006187395 -0.03347103 0.020371953
0.042188916 0.030776184 0.014851411 0.009168287 -0.005412633 -0.033258177 0.02151963 0.031740308
0.028976208 0.0009302937 -0.012407078 -0.0375062 -0.050591387 -0.04165708 0.017633254 0.015554488
0.0054717134 0.009858558 0.03298958 0.035996802 -0.013919889 0.0042081494 0.0014015815 0.010408404

onnx::Conv_81 f4 [16]
00000000: 3a5b 6f3d 9dd2 60bf 638d 5abe c04a d93c
00000010: 2576 1380 00f1 1e00 30bc 463c 628d ba3d
00000020: e525 823e eb6a 993e de0b 2f3e a26c a93e
00000030: 304e f63d 2316 3d3f c7c2 7e3e cc66 78be
0.05843661 -0.8782137 -0.21342997 0.026524901 -1.787257e-39 2.84152e-39 0.012129828 0.09108998
0.25419536 0.29964384 0.1709437 0.33090693 0.12026632 0.738619 0.24878989 -0.24257964

onnx::Conv_83 f4 [32, 16, 3, 3]
00000000: bf0e 72bc c676 853d b219 d93d 0398 9ebd
00000010: dd3e e7bb 8c07 223d d5ea 2eba 59be c4bb
00000020: c1df 3fbd f83d 703c 7d29 313d 4a84 2a3d
00000030: d0fe afbd 0785 35bd d3c0 debb 97d0 7bbd
00000040: ad1a 02bd c221 5ebd a83b 14bd b23c 803c
00000050: 6903 363d 96f4 08bd c882 0b3c 6654 d23c
00000060: 72b6 993c cbd9 4ebd c071 a7bd ef66 51bc
00000070: 4838 e1bc 2111 463d b852 7cbb 0e4c 26bc
00000080: 4ab7 e03b 01ce 633c 6b4b afbc 21cf bcbc
00000090: 2698 0080 609c 0000 2c2f 0080 975f 0000
000000a0: 7b79 0080 9c4e 0000 f226 0000 335e 0000
000000b0: c809 0000 285d 0000 348c 0080 8e11 0080
000000c0: 5e4a 0000 e825 0000 6670 0000 6332 0080
000000d0: 3495 0000 f136 0000 7e1a 02bd 8e95 d13c
000000e0: 2001 423d 6178 85bd 67ba cfba 8090 5f3d
000000f0: e505 a9bc 5654 86bc d873 623b cd08 8bbd
00000100: d6a2 9dbc 2823 4b3d c3f6 79bc d247 e83c
00000110: e26e 8b3d 2888 423d e945 553d 926e 303d
00000120: 4279 7b3d 78b0 0b3d 1227 ac3d aa6c 2f3d
00000130: c21d cc3c 33c6 ca3c 7427 2dbd e88f 38be
00000140: c6a3 d0bd 8f65 07bc 787c 16bd e9bc 023c
00000150: ecda 853c 63b8 0d3c be78 02bb 33a3 cd3c
00000160: 4b66 cebc 0a79 9ebc c1a2 29bd a678 58bd
00000170: 8577 79bc a475 5d3b 9dbf e8bc beee 6ebc
00000180: 53ed da3a 790a c9bc b12a 85bc d321 013a
00000190: 3fc8 853d 3636 413d b9ac 20bc bd24 c0bc
000001a0: e0b7 aabc 4951 0dbd 4997 6abd a588 9ebc
000001b0: 3d73 633d 50bd f53c 678b 0a3d b14c ccbc
000001c0: 7280 bfbc e4e0 ce3c e586 8abd 6edd d3bd
000001d0: e1f1 d4bc b6c1 41bc 7ea3 3abd af7e eabc
000001e0: 06e8 8c3d c8ea 9cbb 7269 c73c eab3 993c
000001f0: 10af c0bc 5d3a cebc 23ac 843c 535a 493d
00000200: 0457 413d 42bb c7bb e834 1abd 4a16 9c3c
00000210: 3bb0 6cbd 538d 97bd e7b7 763a 2ebe 293d
00000220: 9479 ec3c b6f4 153d 5b25 b2bb d33f 20bd
00000230: f8c4 073c 088d 91bd 6059 08be d6d2 1abd
00000240: 0000 0000 0000 0000 0000 0080 0000 0000
00000250: 0000 0000 0000 0080 0000 0080 0000 0000
00000260: 0000 0000 0000 0080 0000 0000 0000 0080
00000270: 0000 0000 0000 0000 0000 0000 0000 0000
00000280: 0000 0080 0000 0000 0000 0080 0000 0080
00000290: 0000 0080 0000 0000 0000 0080 0000 0000
000002a0: 0000 0000 0000 0080 0000 0080 0000 0080
000002b0: 0000 0080 0000 0000 0000 0000 0000 0000
000002c0: 0000 0080 0000 0080 0000 0000 0000 0080
000002d0: 0000 0000 0000 0080 0000 0080 0000 0080
000002e0: 0000 0080 0000 0080 0000 0000 0000 0080
000002f0: 0000 0080 0000 0000 0000 0080 0000 0080
00000300: 0000 0000 0000 0000 0000 0000 0000 0080
00000310: 0000 0000 0000 0080 0000 0000 0000 0000
00000320: 0000 0080 0000 0080 0000 0000 0000 0000
00000330: 0000 0000 0000 0080 0000 0000 0000 0000
00000340: 0000 0080 0000 0000 0000 0000 0000 0080
00000350: 0000 0080 0000 0000 0000 0000 0000 0080
00000360: 0000 0000 0000 0080 0000 0080 0000 0080
00000370: 0000 0000 0000 0080 0000 0000 0000 0080
00000380: 0000 0000 0000 0080 0000 0080 0000 0080
00000390: 0000 0000 0000 0000 0000 0080 0000 0080
000003a0: 0000 0080 0000 0000 0000 0000 0000 0080
000003b0: 0000 0000 0000 0080 0000 0000 0000 0000
000003c0: 0000 0080 0000 0080 0000 0000 0000 0080
000003d0: 0000 0000 0000 0080 0000 0080 0000 0080
000003e0: 0000 0000 0000 0000 0000 0080 0000 0000
000003f0: 0000 0080 0000 0000 0000 0080 0000 0000
-0.014774024 0.06516795 0.10600604 -0.07743838 -0.0070570544 0.03955798 -0.0006672566 -0.0060041365
-0.046844248 0.014663212 0.043252457 0.041630067 -0.085935235 -0.044316318 -0.006797889 -0.061478224
-0.03176372 -0.054231413 -0.036189705 0.015653942 0.044436846 -0.03343638 0.008515067 0.02567501
0.018763755 -0.050500672 -0.08175993 -0.012780889 -0.027492657 0.04835618 -0.0038501453 -0.010149969
0.0068577873 0.013904096 -0.021398267 -0.023047986 -5.458e-41 5.6097e-41 -1.6922e-41 3.4291e-41
-4.3579e-41 2.82e-41 1.3971e-41 3.3792e-41 3.509e-42 3.3418e-41 -5.0295e-41 -6.297e-42
2.6678e-41 1.3598e-41 4.0321e-41 -1.8075e-41 5.3524e-41 1.9709e-41 -0.031763546 0.025584009
0.047364354 -0.06517101 -0.0015848399 0.054581165 -0.020632694 -0.016397636 0.0034553912 -0.06788788
-0.019242685 0.049594074 -0.0152565865 0.02835456 0.068082586 0.04749313 0.052068625 0.043074198
0.061394937 0.03410384 0.084058896 0.04282824 0.024916533 0.024752712 -0.042273954 -0.18023646
-0.10187487 -0.00826396 -0.036739796 0.00797961 0.016339742 0.008649918 -0.0019908394 0.025102234
-0.025195261 -0.019344825 -0.04141498 -0.052849434 -0.01522625 0.0033792043 -0.02841168 -0.014583288
0.0016702808 -0.024541127 -0.016255708 0.00049259997 0.065323345 0.04717084 -0.009806805 -0.023455018
-0.020839632 -0.034501348 -0.057273183 -0.019352267 0.05552982 0.029997498 0.03382435 -0.024938913
-0.023376677 0.02525372 -0.0676401 -0.10344969 -0.025994243 -0.011825969 -0.045566075 -0.02862486
0.068801925 -0.0047887303 0.024342272 0.018762548 -0.023520976 -0.025174314 0.016195362 0.049158406
0.047202125 -0.006095321 -0.03764811 0.019053597 -0.057785254 -0.07400002 0.0009411559 0.041441135
0.028866567 0.036610328 -0.005436582 -0.039123368 0.008286707 -0.07106978 -0.13315344 -0.037798725
0.0 0.0 -0.0 0.0 0.0 -0.0 -0.0 0.0
0.0 -0.0 0.0 -0.0 0.0 0.0 0.0 0.0
-0.0 0.0 -0.0 -0.0 -0.0 0.0 -0.0 0.0
0.0 -0.0 -0.0 -0.0 -0.0 0.0 0.0 0.0
-0.0 -0.0 0.0 -0.0 0.0 -0.0 -0.0 -0.0
-0.0 -0.0 0.0 -0.0 -0.0 0.0 -0.0 -0.0
0.0 0.0 0.0 -0.0 0.0 -0.0 0.0 0.0
-0.0 -0.0 0.0 0.0 0.0 -0.0 0.0 0.0
-0.0 0.0 0.0 -0.0 -0.0 0.0 0.0 -0.0
0.0 -0.0 -0.0 -0.0 0.0 -0.0 0.0 -0.0
0.0 -0.0 -0.0 -0.0 0.0 0.0 -0.0 -0.0
-0.0 0.0 0.0 -0.0 0.0 -0.0 0.0 0.0
-0.0 -0.0 0.0 -0.0 0.0 -0.0 -0.0 -0.0
0.0 0.0 -0.0 0.0 -0.0 0.0 -0.0 0.0

onnx::Conv_84 f4 [32]
00000000: c708 f63d dc0c e3b4 0ae3 9d3d c8d5 15ba
00000010: d98e 2683 6e21 1f3e d213 463e c7e2 05bf
00000020: 7e48 283e a3c9 4dbe 001c f43b c2f3 113e
00000030: b19c 4f3d 5fd8 c3b9 5c1e 73bd d8ad 7d3c
00000040: 6c97 04b0 740f da3d 2e12 61bd 7f31 48bb
00000050: 2d2e b93d 53c4 58bd 3803 0080 45c4 4ab9
00000060: c2a9 1100 d882 b290 93b0 83b9 7358 ce3d
00000070: 5013 cabc c487 aebc 4860 e1bc 068e 91b7
0.12013393 -4.22914e-07 0.0770932 -0.0005715755 -4.8946997e-37 0.15540096 0.19343498 -0.5229916
0.16433904 -0.2009645 0.007449627 0.14253142 0.050686542 -0.00037354507 -0.059355125 0.015483342
-4.8236504e-10 0.10647479 -0.054948978 -0.003054708 0.090420105 -0.052921604 -1.155e-42 -0.00019337337
1.622101e-39 -7.041022e-29 -0.00025117825 0.10075464 -0.024667412 -0.021304972 -0.02751173 -1.7351482e-05

onnx::Conv_86 f4 [32, 32, 3, 3]
00000000: 0aac 583c dcd0 d0bb c713 f2bc 4f9d ba3d
00000010: 3a21 febd e672 01be aaed f9bc 4f1a 3ebe
00000020: 6b82 1abe bfbe 0080 4e97 0080 6d9c 0000
00000030: 5782 0000 7869 0000 c32d 0000 b21e 0080
00000040: 1162 0080 2a93 0080 cca7 6ebc bad9 1d3e
00000050: 5bde 453d 40d5 753d dbac 0dbe 4344 10be
00000060: aee9 873d 9482 8bbe bb4f d6bd 240b c238
00000070: 0b94 2f39 7968 763a 4bdb d436 6e58 bf38
00000080: 042d fe39 d06e df38 6e8a 1939 a2f3 7c3a
00000090: cb92 6f01 2c45 ca80 e0a8 4c80 7462 b780
000000a0: 3246 0080 7981 4900 50b8 bc81 b90e 0980
000000b0: 1639 8400 1883 e43d 36b5 5c3d e8c4 83bc
000000c0: f795 6e3d aafe 843d 3f61 3abd 6090 f1bd
000000d0: c640 393e 7305 d13d d8a8 f93d 9688 fc3d
000000e0: 34bb f5bd 0b64 88bd a4ba 623d 616e 1bbd
000000f0: 6220 563d 22c1 503e 582e 49bc 4531 b8bd
00000100: b095 8fbd ba75 9abc 11c8 fe3b aa8d 103d
00000110: 2d20 823d ca74 37be eba4 c8bd 83ad 3f3d
00000120: 35ee 1fbd 20c3 2f3e ddfb a9bd 5d68 84bd
00000130: 0bfb 873c a977 c7bd 6178 753d 8a46 a53d
00000140: 89c7 cebc e2fd 2dbe 2c17 67bc b133 1fbd
00000150: 805b 94bd 80bb 2dbe 55fb 1abe 5b8b 80bd
00000160: 9bd6 80be c161 d8bd 3e76 0bbd a34b b93c
00000170: bec8 17bc efdd 7a3d a5cc 11be 02b2 ddbd
00000180: a815 b63d e721 6d3d abfb 8d3c 57f4 203d
00000190: 53b1 aabc 6e38 65be fdcc 013e 03fc 363d
000001a0: ad94 24be 234b 2ebc 314c a2bd c2ff eebd
000001b0: e326 763c a645 883d 47dd 99bc 8532 e73d
000001c0: 7d9e cb3d 607b 7fbd 6a74 c23d 732a 303d
000001d0: dc05 613c f831 9339 d18e 2e3b 9b9f 2e3b
000001e0: a0c5 113a 8442 463b 82c9 553b 8f12 243b
000001f0: 9b1c 723b e398 bb3b 9401 c7bd 841e 4fbe
00000200: 64e8 41be 5715 48bd db4c 2bbe 2c78 d7bd
00000210: 2259 b9bd eead dabd 6af8 9e3c f366 2e3e
00000220: d2c1 9b3d 060a 043d ad48 bb3d 2a97 d13d
00000230: 6eb7 053c e256 ebbd 7ff6 fdbd c7c8 96bd
00000240: 64c2 0000 9451 0000 18a6 0000 bf7d 0080
00000250: aaa9 0000 4dc5 0000 25ab 0000 e1a1 0100
00000260: e2d1 0080 85f8 933e 4e17 d83a 1eb7 7cbe
00000270: bbb4 393e d8da bdbd 3102 ecbd e947 ca3c
00000280: b7a4 33be 1974 8dbe f1a6 5d3d dace debd
00000290: 5fc3 0abe df77 973c 749d 823c d299 12be
000002a0: 5d17 053d e990 8a3d aa4c b7bd 60cc 7ea9
000002b0: 6ed6 baa5 7c0f 61a8 9cba 9ea8 e475 35a3
000002c0: 327b 75a6 48d6 2926 6cea 5fa4 06a9 66a9
000002d0: ef98 583b 29dd fc3c ec16 8dbd 52ba 20bd
000002e0: 3685 6b3c 8c75 a8bd 0049 4f3a 383e 2d3b
000002f0: 74ce 2fbe e3e6 ccbc def3 51bd 0127 bc3d
00000300: 254e 1e3d 8f4d 6b3d a2c3 8fbd 3fcb 033d
00000310: 161c 7fbd abdb c0bd 17c6 0000 87c1 0000
00000320: d42e 0100 1416 0080 f66a 0080 004d 0080
00000330: 317d 0000 eaa6 0080 ea57 0080 345b 0000
00000340: 3193 0080 0d1b 0000 2c56 0080 3c55 0080
00000350: a718 0080 d412 0080 7171 0080 c708 0080
00000360: 2873 de01 5dac 0481 780e 0382 7a2b 5901
00000370: 7c5d 0100 d114 b080 87b5 6f01 197e 2181
00000380: 4bb0 8481 4ff1 0000 e587 0100 1b4f 0080
00000390: 2c33 0180 7482 0180 2d16 0180 c94b 0000
000003a0: 3b2b 0080 49b7 0080 69d0 4e12 d4e9 7a0c
000003b0: a3d1 ad0b 4fbf cf12 4943 c910 e9ea d110
000003c0: ec8d a517 89bc 7218 1594 4f14 facc 54bd
000003d0: 6f39 c1bd 45b0 83bd 19a5 a2bd adf5 0dbe
000003e0: 454f ee3c 6bc0 9bbd e67c 58be e906 abbd
000003f0: 0a25 593e 3cb0 79bd 101d 1fbe eb0b 8a3d
0.013224611 -0.006372554 -0.029550446 0.091120355 -0.12408681 -0.12641487 -0.030508835 -0.18564723
-0.15088813 -6.8427e-41 -5.4278e-41 5.6115e-41 4.6757e-41 3.7835e-41 1.6416e-41 -1.1011e-41
-3.518e-41 -5.2793e-41 -0.014566373 0.15415087 0.048307758 0.060017824 -0.1383547 -0.1408854
0.06636368 -0.2724806 -0.10464426 9.252716e-05 0.00016744451 0.0009399723 6.3436214e-06 9.124061e-05
0.00048480195 0.00010654109 0.00014642786 0.0009649341 4.4002686e-38 -1.8575584e-38 -7.040079e-39 -1.6841214e-38
-2.5181e-41 6.750437e-39 -6.932477e-38 -8.31801e-40 1.2142764e-38 0.11157817 0.053883754 -0.016085103
0.058248486 0.06493886 -0.045502897 -0.117951155 0.18091115 0.102061175 0.121904075 0.12330739
-0.11998597 -0.06659707 0.055353776 -0.037947062 0.052276976 0.20386174 -0.012279116 -0.089937724
-0.070109725 -0.018854965 0.0077753146 0.03529135 0.06353793 -0.17915645 -0.097970806 0.046796333
-0.03904553 0.17164278 -0.08299992 -0.06465218 0.016599199 -0.0973962 0.059929255 0.08070095
-0.02524163 -0.1699138 -0.014104646 -0.038867656 -0.07244015 -0.16966057 -0.15134938 -0.0627658
-0.2516373 -0.1056552 -0.03404831 0.022619074 -0.009264169 0.06124681 -0.14238222 -0.10824968
0.08890849 0.05789366 0.017331919 0.03929552 -0.020836508 -0.22384807 0.12675853 0.04467393
-0.1607234 -0.010638031 -0.079246886 -0.11669876 0.01502392 0.066539094 -0.018782271 0.11288933
0.099423386 -0.06237352 0.094948605 0.043009233 0.013734307 0.00028075255 0.0026635418 0.0026645425
0.00055607595 0.0030252049 0.0032621329 0.0025035476 0.003694332 0.0057250126 -0.09717098 -0.20226485
-0.18936306 -0.048848476 -0.16728537 -0.10520968 -0.09050204 -0.10677706 0.019405562 0.1703146
0.07605328 0.03223612 0.09144721 0.102339104 0.008161409 -0.11491181 -0.12400531 -0.07362514
6.9734e-41 2.9265e-41 5.9583e-41 -4.5109e-41 6.0864e-41 7.0778e-41 6.1395e-41 1.49907e-40
-7.5292e-41 0.28900543 0.0016486438 -0.24679229 0.1813535 -0.09270257 -0.115238555 0.024692493
-0.17543302 -0.27627638 0.054114286 -0.108792976 -0.1355109 0.018489776 0.01594422 -0.1431649
0.032492984 0.06765921 -0.089501694 -5.6576597e-14 -3.241116e-16 -1.2493367e-14 -1.7622453e-14 -9.836994e-18
-8.516841e-16 5.892406e-16 -4.855398e-17 -5.1216864e-14 0.003305014 0.030867176 -0.068891376 -0.03924019
0.014375022 -0.08225545 0.0007907301 0.002643479 -0.171686 -0.02501244 -0.05125796 0.09187127
0.038648743 0.057447013 -0.07019736 0.032176252 -0.062282644 -0.09416898 7.1061e-41 6.9425e-41
1.08634e-40 -7.92e-42 -3.837e-41 -2.7622e-41 4.491e-41 -5.9877e-41 -3.1538e-41 3.2718e-41
-5.2802e-41 9.704e-42 -3.0913e-41 -3.0576e-41 -8.844e-42 -6.754e-42 -4.0695e-41 -3.149e-42
8.171516e-38 -2.4368236e-38 -9.628512e-38 3.9887798e-38 1.25371e-40 -1.6170515e-38 4.4027607e-38 -2.96615e-38
-4.874211e-38 8.6565e-41 1.40585e-40 -2.8378e-41 -1.10193e-40 -1.38633e-40 -9.979e-41 2.7187e-41
-1.5508e-41 -6.575e-41 6.5259024e-28 1.9329665e-31 6.69526e-32 1.3110698e-27 7.938419e-29 8.27979e-29
1.0698701e-24 3.1372953e-24 1.0480033e-26 -0.051953293 -0.09434783 -0.06430105 -0.07941646 -0.13863249
0.029090533 -0.0760506 -0.21141395 -0.083509274 0.21205536 -0.060959086 -0.1553843 0.067405544

onnx::Conv_87 f4 [32]
00000000: 728a 3a3e 28a8 0180 c19f 243e e60e a63e
00000010: 2e37 5d3d 3198 f1b0 8426 0000 3a8f ab3c
00000020: f010 2cbe dca9 4f3b 1001 8982 3e04 0dbe
00000030: 164f 8b3e 3bee 0680 44d7 8d3e 9530 0880
00000040: 0872 5cbc 45d3 94b8 827a 953e 2db0 11bc
00000050: 9435 dd96 f123 a83d 3a13 08be 0001 603c
00000060: 1119 5f3e 434c cb3d d240 e0ae fe84 40bd
00000070: cde6 0180 148b 05ab 3589 5e3d d04a 4339
0.18216875 -1.52159e-40 0.16076566 0.32433242 0.0540077 -1.7578313e-09 1.3817e-41 0.02094232
-0.16803336 0.0031686937 -2.013095e-37 -0.1377115 0.27208775 -6.36474e-40 0.27703297 -7.52112e-40
-0.013454922 -7.096542e-05 0.2919503 -0.008892101 -3.5738288e-25 0.0820998 -0.13288584 0.013672113
0.21786906 0.09926655 -1.0197855e-10 -0.04700183 -1.74631e-40 -4.74441e-13 0.05433007 0.00018624519

onnx::Conv_89 f4 [32, 16, 1, 1]
00000000: 771f e43d 66f0 34bd abab 08be c306 183d
00000010: 3b5e 0180 f490 0180 201d 143e b41b dabd
00000020: 68e1 ed3c 56b4 35be 7454 b2bd 50e9 87bd
00000030: ec5b a0bd 060d 523d 0a4e 323e 98a9 993e
00000040: 0000 0080 0000 0000 0000 0080 0000 0080
00000050: 0000 0000 0000 0000 0000 0000 0000 0000
00000060: 0000 0080 0000 0000 0000 0000 0000 0080
00000070: 0000 0000 0000 0080 0000 0000 0000 0080
00000080: 3c90 293d 33c3 97bd 6d1d 923d e1b6 463d
00000090: 16e3 0000 c1de 0080 0d46 18bd dc4e 29bd
000000a0: ef7e 253c d716 523d 1d48 523d 34b9 193d
000000b0: 148d 48bb 5231 2cbc 20f8 e13c 9bcd 4ebd
000000c0: 79ce 5abd 4e15 afbd 3c56 58be 71ad 9a3c
000000d0: 6ba2 0080 6a96 0000 0986 1e3d fdd1 993d
000000e0: d6b2 debc d472 733d edf3 073d b3c1 433e
000000f0: 4116 103d 4b21 803c df71 df3d 413f 42bc
00000100: b88d 203e 463c 95bd 4161 c03d 0f5b dc3d
00000110: efa8 0080 a5ab 0000 84e9 f1bc 8263 75bd
00000120: 42c4 8e3e bb8e b8bc 5102 54bd d4ec 623e
00000130: eab1 3e3e 1589 01bb cbca 4a3e 6856 56be
00000140: 0000 0080 0000 0000 0000 0080 0000 0000
00000150: 0000 0080 0000 0000 0000 0080 0000 0000
00000160: 0000 0080 0000 0080 0000 0080 0000 0000
00000170: 0000 0080 0000 0080 0000 0000 0000 0000
00000180: 0000 0000 0000 0000 0000 0080 0000 0000
00000190: 0000 0000 0000 0080 0000 0000 0000 0080
000001a0: 0000 0080 0000 0080 0000 0000 0000 0000
000001b0: 0000 0080 0000 0080 0000 0080 0000 0000
000001c0: 3718 bc3d 982c 26be 81bb dd3d 9e58 0bbc
000001d0: 1ad7 0180 c3f4 0180 a949 b1bd 36a8 b03b
000001e0: 7c67 29bd b728 503c 9dd3 ad3d 8ed1 a53c
000001f0: 25bf 5f3d 5e68 90bd ce12 1cbe 911a 3a3c
00000200: 5bbc 82bd 537e debd 12ad 44bd 6153 12be
00000210: 521f 0180 043c 0100 7f2a 073d b0d5 04be
00000220: bbc0 0abe 06c7 17be b71a 903c b36b 0fbc
00000230: d5b9 35bd f7a2 603e a4d8 d2bb 4a3a d7bd
00000240: 2e3c b03a 84bf 733a f584 023b 5cc9 d43a
00000250: 1d0b 0080 580f 0080 aba3 c13a e9bf e63a
00000260: ddf9 e33a d35e 903a 70bf 543a b4e0 943a
00000270: d644 90b7 7a52 493a f925 3d3a 2e8b f6b9
00000280: 0000 0080 0000 0080 0000 0080 0000 0080
00000290: 0000 0000 0000 0080 0000 0080 0000 0000
000002a0: 0000 0080 0000 0080 0000 0000 0000 0000
000002b0: 0000 0000 0000 0080 0000 0080 0000 0080
000002c0: 014f 8bbb 7be6 803c 0ad2 4dbb dfc1 9d3b
000002d0: 66a6 0080 9890 0000 ae51 c2bb 10b6 043c
000002e0: f9f1 91bc 97c6 b9bb d460 443b 2070 9ebc
000002f0: cb23 7abc f04f 093b c2b2 d8bc 3dab 8cbc
00000300: 6071 1dbe 9564 01be a273 3a3e a51a 8937
00000310: 78d7 0000 867e 0080 bac6 c43d 4bd1 0d3e
00000320: b306 a73e 7075 05be 3e0b 51be 10b4 043d
00000330: d076 07bc c082 0ebe 2ec5 1d3c a3e4 463e
00000340: 0000 0080 0000 0000 0000 0000 0000 0000
00000350: 0000 0000 0000 0080 0000 0000 0000 0000
00000360: 0000 0000 0000 0080 0000 0080 0000 0000
00000370: 0000 0000 0000 0080 0000 0000 0000 0000
00000380: b188 be3a 803e 313d bbc1 f73c a741 7b3d
00000390: 4895 0080 8c8b 0080 f75d 013c b52f 173e
000003a0: 3180 25bd 3fef 693d 543e d6bc 90b0 fbbc
000003b0: dc54 90bc eff6 c03d 76bc a8bd b80a 7dbd
000003c0: 0000 0000 0000 0080 0000 0000 0000 0000
000003d0: 0000 0000 0000 0080 0000 0080 0000 0080
000003e0: 0000 0000 0000 0080 0000 0000 0000 0080
000003f0: 0000 0080 0000 0000 0000 0080 0000 0000
0.11138814 -0.044174574 -0.13346736 0.037115823 -1.25639e-40 -1.43835e-40 0.14464235 -0.10649815
0.029038146 -0.17744574 -0.087075144 -0.06636298 -0.07830033 0.05128195 0.17412582 0.30012202
-0.0 0.0 -0.0 -0.0 0.0 0.0 0.0 0.0
-0.0 0.0 0.0 -0.0 0.0 -0.0 0.0 -0.0
0.04139732 -0.07410278 0.07134519 0.04851425 8.1463e-41 -7.9909e-41 -0.03717618 -0.04133497
0.010101064 0.051291313 0.051338304 0.03753014 -0.0030601667 -0.010509806 0.027584136 -0.05048905
-0.053419564 -0.085489854 -0.21126646 0.018881531 -5.8265e-41 5.3958e-41 0.038702045 0.07510755
-0.027184885 0.05943568 0.03319161 0.19116859 0.035177473 0.015640875 0.10910391 -0.011855901
0.15679061 -0.07286887 0.0939355 0.107595555 -6.0602e-41 6.1574e-41 -0.029530294 -0.05990935
0.27884108 -0.022528997 -0.05176002 0.22160655 0.18622556 -0.0019765545 0.19803922 -0.20931399
-0.0 0.0 -0.0 0.0 -0.0 0.0 -0.0 0.0
-0.0 -0.0 -0.0 0.0 -0.0 -0.0 0.0 0.0
0.0 0.0 -0.0 0.0 0.0 -0.0 0.0 -0.0
-0.0 -0.0 0.0 0.0 -0.0 -0.0 -0.0 0.0
0.09184306 -0.16227949 0.10826779 -0.008505015 -1.69e-40 -1.7964e-40 -0.08656628 0.005391146
-0.041358456 0.01270502 0.08487628 0.020241525 0.05462565 -0.070511565 -0.15241548 0.011358873
-0.06383582 -0.10863938 -0.048016615 -0.14289619 -1.03071e-40 1.13365e-40 0.03299951 -0.1297214
-0.13550083 -0.14822015 0.017590864 -0.008753705 -0.044366676 0.21937166 -0.006434517 -0.10509165
0.0013445669 0.00092982524 0.0019915674 0.0016234326 -3.987e-42 -5.504e-42 0.0014773508 0.0017604801
0.0017393191 0.0011014588 0.00081156846 0.0011358471 -1.7198192e-05 0.00076798315 0.0007215436 -0.00047024473
-0.0 -0.0 -0.0 -0.0 0.0 -0.0 -0.0 0.0
-0.0 -0.0 0.0 0.0 0.0 -0.0 -0.0 -0.0
-0.0042513614 0.015734902 -0.003140571 0.004814371 -5.9693e-41 5.187e-41 -0.005930147 0.008100048
-0.017815577 -0.0056694257 0.002996494 -0.019340575 -0.015267323 0.0020952187 -0.026452426 -0.017171497
-0.1537528 -0.12636025 0.18208173 1.634408e-05 7.7296e-41 -4.5388e-41 0.096082166 0.1384937
0.326223 -0.1303308 -0.20414445 0.032398283 -0.008268073 -0.13917065 0.009629531 0.19423155
-0.0 0.0 0.0 0.0 0.0 -0.0 0.0 0.0
0.0 -0.0 -0.0 0.0 0.0 -0.0 0.0 0.0
0.0014536587 0.043272495 0.030243745 0.061341908 -5.3552e-41 -5.006e-41 0.007895938 0.14764293
-0.040405456 0.05711293 -0.026152767 -0.03072384 -0.01761859 0.09422099 -0.08239071 -0.0617778
0.0 -0.0 0.0 0.0 0.0 -0.0 -0.0 -0.0
0.0 -0.0 0.0 -0.0 -0.0 0.0 -0.0 0.0

onnx::Conv_90 f4 [32]
00000000: 082a c8bd 28a8 0180 b4bd 48bd e8fd fdbd
00000010: a3b9 b1be 3198 f1b0 8426 0000 821d 90bc
00000020: 161c 2c3e 5097 73ba 1001 8982 6a80 583c
00000030: e77e 13be 3bee 0680 de02 0dbe 9530 0880
00000040: 5e89 2fbe 45d3 94b8 48bd 2c3c 18ed 29bb
00000050: 9435 dd96 35dd 8b3d b03b a73c 5481 aabc
00000060: aaa7 d0bd 2c0d 77be d240 e0ae 20d3 37be
00000070: cde6 0180 148b 05ab 19db 503e 4b50 4339
-0.09773642 -1.52159e-40 -0.04900904 -0.124019444 -0.34711942 -1.7578313e-09 1.3817e-41 -0.017592195
0.16807589 -0.00092922617 -2.013095e-37 0.01321421 -0.14403878 -6.36474e-40 -0.13770625 -7.52112e-40
-0.17142245 -7.096542e-05 0.010543175 -0.0025928672 -3.5738288e-25 0.06829301 0.020414203 -0.020813622
-0.101882294 -0.24126118 -1.0197855e-10 -0.17951632 -1.74631e-40 -4.74441e-13 0.20396079 0.0001862656

onnx::Conv_92 f4 [64, 32, 3, 3]
00000000: 0000 0000 0000 0000 0000 0080 0000 0080
00000010: 0000 0080 0000 0080 0000 0080 0000 0000
00000020: 0000 0080 0000 0000 0000 0000 0000 0000
00000030: 0000 0080 0000 0000 0000 0080 0000 0080
00000040: 0000 0080 0000 0080 0000 0000 0000 0000
00000050: 0000 0000 0000 0080 0000 0000 0000 0000
00000060: 0000 0080 0000 0000 0000 0080 0000 0080
00000070: 0000 0000 0000 0080 0000 0080 0000 0000
00000080: 0000 0000 0000 0000 0000 0080 0000 0000
00000090: 0000 0000 0000 0000 0000 0000 0000 0080
000000a0: 0000 0000 0000 0080 0000 0080 0000 0080
000000b0: 0000 0080 0000 0000 0000 0080 0000 0000
000000c0: 0000 0080 0000 0000 0000 0080 0000 0000
000000d0: 0000 0080 0000 0080 0000 0000 0000 0000
000000e0: 0000 0080 0000 0080 0000 0000 0000 0080
000000f0: 0000 0000 0000 0000 0000 0000 0000 0080
00000100: 0000 0080 0000 0080 0000 0000 0000 0000
00000110: 0000 0080 0000 0080 0000 0000 0000 0080
00000120: 0000 0000 0000 0080 0000 0000 0000 0080
00000130: 0000 0000 0000 0080 0000 0000 0000 0000
00000140: 0000 0000 0000 0080 0000 0080 0000 0080
00000150: 0000 0080 0000 0000 0000 0080 0000 0080
00000160: 0000 0000 0000 0080 0000 0000 0000 0080
00000170: 0000 0080 0000 0080 0000 0080 0000 0000
00000180: 0000 0080 0000 0080 0000 0000 0000 0080
00000190: 0000 0080 0000 0000 0000 0080 0000 0080
000001a0: 0000 0000 0000 0000 0000 0080 0000 0000
000001b0: 0000 0000 0000 0000 0000 0080 0000 0000
000001c0: 0000 0080 0000 0080 0000 0000 0000 0080
000001d0: 0000 0080 0000 0000 0000 0080 0000 0000
000001e0: 0000 0080 0000 0000 0000 0000 0000 0080
000001f0: 0000 0080 0000 0000 0000 0000 0000 0000
00000200: 0000 0080 0000 0080 0000 0000 0000 0000
00000210: 0000 0080 0000 0080 0000 0080 0000 0000
00000220: 0000 0000 0000 0080 0000 0000 0000 0000
00000230: 0000 0000 0000 0080 0000 0000 0000 0000
00000240: 0000 0080 0000 0080 0000 0080 0000 0080
00000250: 0000 0000 0000 0080 0000 0000 0000 0080
00000260: 0000 0000 0000 0000 0000 0000 0000 0080
00000270: 0000 0000 0000 0080 0000 0080 0000 0080
00000280: 0000 0000 0000 0000 0000 0000 0000 0080
00000290: 0000 0080 0000 0000 0000 0000 0000 0000
000002a0: 0000 0000 0000 0080 0000 0080 0000 0000
000002b0: 0000 0000 0000 0000 0000 0080 0000 0080
000002c0: 0000 0080 0000 0080 0000 0080 0000 0000
000002d0: 0000 0000 0000 0000 0000 0080 0000 0080
000002e0: 0000 0080 0000 0080 0000 0000 0000 0000
000002f0: 0000 0080 0000 0000 0000 0080 0000 0080
00000300: 0000 0000 0000 0080 0000 0000 0000 0000
00000310: 0000 0080 0000 0000 0000 0080 0000 0000
00000320: 0000 0080 0000 0000 0000 0000 0000 0080
00000330: 0000 0080 0000 0080 0000 0080 0000 0080
00000340: 0000 0080 0000 0080 0000 0080 0000 0080
00000350: 0000 0080 0000 0000 0000 0000 0000 0000
00000360: 0000 0000 0000 0000 0000 0080 0000 0080
00000370: 0000 0000 0000 0080 0000 0080 0000 0000
00000380: 0000 0080 0000 0000 0000 0080 0000 0080
00000390: 0000 0080 0000 0000 0000 0000 0000 0000
000003a0: 0000 0000 0000 0000 0000 0080 0000 0080
000003b0: 0000 0000 0000 0000 0000 0080 0000 0080
000003c0: 0000 0000 0000 0000 0000 0000 0000 0080
000003d0: 0000 0080 0000 0080 0000 0080 0000 0000
000003e0: 0000 0000 0000 0000 0000 0000 0000 0000
000003f0: 0000 0000 0000 0080 0000 0000 0000 0000
0.0 0.0 -0.0 -0.0 -0.0 -0.0 -0.0 0.0
-0.0 0.0 0.0 0.0 -0.0 0.0 -0.0 -0.0
-0.0 -0.0 0.0 0.0 0.0 -0.0 0.0 0.0
-0.0 0.0 -0.0 -0.0 0.0 -0.0 -0.0 0.0
0.0 0.0 -0.0 0.0 0.0 0.0 0.0 -0.0
0.0 -0.0 -0.0 -0.0 -0.0 0.0 -0.0 0.0
-0.0 0.0 -0.0 0.0 -0.0 -0.0 0.0 0.0
-0.0 -0.0 0.0 -0.0 0.0 0.0 0.0 -0.0
-0.0 -0.0 0.0 0.0 -0.0 -0.0 0.0 -0.0
0.0 -0.0 0.0 -0.0 0.0 -0.0 0.0 0.0
0.0 -0.0 -0.0 -0.0 -0.0 0.0 -0.0 -0.0
0.0 -0.0 0.0 -0.0 -0.0 -0.0 -0.0 0.0
-0.0 -0.0 0.0 -0.0 -0.0 0.0 -0.0 -0.0
0.0 0.0 -0.0 0.0 0.0 0.0 -0.0 0.0
-0.0 -0.0 0.0 -0.0 -0.0 0.0 -0.0 0.0
-0.0 0.0 0.0 -0.0 -0.0 0.0 0.0 0.0
-0.0 -0.0 0.0 0.0 -0.0 -0.0 -0.0 0.0
0.0 -0.0 0.0 0.0 0.0 -0.0 0.0 0.0
-0.0 -0.0 -0.0 -0.0 0.0 -0.0 0.0 -0.0
0.0 0.0 0.0 -0.0 0.0 -0.0 -0.0 -0.0
0.0 0.0 0.0 -0.0 -0.0 0.0 0.0 0.0
0.0 -0.0 -0.0 0.0 0.0 0.0 -0.0 -0.0
-0.0 -0.0 -0.0 0.0 0.0 0.0 -0.0 -0.0
-0.0 -0.0 0.0 0.0 -0.0 0.0 -0.0 -0.0
0.0 -0.0 0.0 0.0 -0.0 0.0 -0.0 0.0
-0.0 0.0 0.0 -0.0 -0.0 -0.0 -0.0 -0.0
-0.0 -0.0 -0.0 -0.0 -0.0 0.0 0.0 0.0
0.0 0.0 -0.0 -0.0 0.0 -0.0 -0.0 0.0
-0.0 0.0 -0.0 -0.0 -0.0 0.0 0.0 0.0
0.0 0.0 -0.0 -0.0 0.0 0.0 -0.0 -0.0
0.0 0.0 0.0 -0.0 -0.0 -0.0 -0.0 0.0
0.0 0.0 0.0 0.0 0.0 -0.0 0.0 0.0

onnx::Conv_93 f4 [64]
00000000: 3e93 0080 f272 0080 419a 0080 df86 0080
00000010: 0c5c 0080 a48d 0080 796d 0000 a372 0080
00000020: 9f38 0080 3332 0000 346c 0000 97e1 a13d
00000030: 758b 0080 4668 0080 871b 0080 da3c 0080
00000040: be41 0000 be01 55be 1e2e 0000 0815 0080
00000050: 3d50 0080 fc54 b23d 230b 0000 fd9a 0080
00000060: 6445 0000 7168 0080 109d bfbc 4248 0000
00000070: ea8f 0080 e335 0000 3d06 0000 135d 0000
00000080: 2c74 0080 9f5d 0080 9057 90be d290 dabd
00000090: e80a 0080 9149 0080 af5e 0080 8069 0080
000000a0: a481 0000 b243 0080 46cd 1fbe 455f 0080
000000b0: ed8d 0000 11f7 833b a74e 1292 8455 dfbd
000000c0: 505c 0000 4c01 95bd df73 0080 1315 22be
000000d0: 74a8 0080 7d33 0080 a912 0080 6c26 0080
000000e0: e79f 0000 4d0d 0000 2d8c 0000 0d24 0000
000000f0: bc60 0000 f124 0080 ff7a 0080 275c 0080
-5.282e-41 -4.1235e-41 -5.5336e-41 -4.8383e-41 -3.302e-41 -5.0811e-41 3.9271e-41 -4.1124e-41
-2.0312e-41 1.8008e-41 3.8816e-41 0.07904356 -5.0028e-41 -3.7406e-41 -9.875e-42 -2.183e-41
2.3584e-41 -0.20801446 1.6544e-41 -7.545e-42 -2.8784e-41 0.08707616 3.995e-42 -5.56e-41
2.4893e-41 -3.7467e-41 -0.023390323 2.5921e-41 -5.1627e-41 1.9331e-41 2.238e-42 3.3389e-41
-4.1675e-41 -3.3585e-41 -0.28191805 -0.106721535 -3.912e-42 -2.639e-41 -3.3966e-41 -3.7846e-41
4.6506e-41 -2.4285e-41 -0.1560565 -3.4176e-41 5.0913e-41 0.0040272553 -4.6166423e-28 -0.10904983
3.3115e-41 -0.07275638 -4.1567e-41 -0.15828352 -6.043e-41 -1.847e-41 -6.694e-42 -1.3783e-41
5.7362e-41 4.771e-42 5.0286e-41 1.2933e-41 3.4702e-41 -1.3252e-41 -4.4123e-41 -3.3058e-41

onnx::Conv_95 f4 [64, 64, 3, 3]
00000000: 0000 0000 0000 0000 0000 0080 0000 0000
00000010: 0000 0000 0000 0080 0000 0000 0000 0000
00000020: 0000 0080 0000 0000 0000 0080 0000 0000
00000030: 0000 0000 0000 0080 0000 0000 0000 0080
00000040: 0000 0080 0000 0080 0000 0080 0000 0080
00000050: 0000 0000 0000 0000 0000 0080 0000 0080
00000060: 0000 0080 0000 0080 0000 0080 0000 0000
00000070: 0000 0080 0000 0000 0000 0080 0000 0080
00000080: 0000 0080 0000 0080 0000 0080 0000 0080
00000090: 0000 0000 0000 0000 0000 0000 0000 0000
000000a0: 0000 0080 0000 0000 0000 0080 0000 0000
000000b0: 0000 0080 0000 0000 0000 0080 0000 0080
000000c0: 0000 0080 0000 0080 0000 0000 0000 0080
000000d0: 0000 0080 0000 0000 0000 0000 0000 0000
000000e0: 0000 0080 0000 0000 0000 0000 0000 0000
000000f0: 0000 0000 0000 0000 0000 0080 0000 0080
00000100: 0000 0080 0000 0080 0000 0000 0000 0000
00000110: 0000 0000 0000 0080 0000 0000 0000 0000
00000120: 0000 0000 0000 0000 0000 0080 0000 0000
00000130: 0000 0080 0000 0080 0000 0080 0000 0080
00000140: 0000 0000 0000 0000 0000 0000 0000 0080
00000150: 0000 0080 0000 0000 0000 0080 0000 0000
00000160: 0000 0000 0000 0080 0000 0080 0000 0000
00000170: 0000 0080 0000 0080 0000 0000 0000 0080
00000180: 0000 0000 0000 0080 0000 0000 0000 0000
00000190: 0000 0000 0000 0080 0000 0000 0000 0000
000001a0: 0000 0000 0000 0080 0000 0080 0000 0080
000001b0: 0000 0000 0000 0080 0000 0000 0000 0080
000001c0: 0000 0000 0000 0080 0000 0080 0000 0000
000001d0: 0000 0080 0000 0080 0000 0080 0000 0000
000001e0: 0000 0080 0000 0080 0000 0080 0000 0080
000001f0: 0000 0000 0000 0080 0000 0000 0000 0000
00000200: 0000 0000 0000 0080 0000 0080 0000 0080
00000210: 0000 0000 0000 0000 0000 0000 0000 0080
00000220: 0000 0080 0000 0080 0000 0000 0000 0080
00000230: 0000 0080 0000 0000 0000 0000 0000 0080
00000240: 0000 0000 0000 0080 0000 0000 0000 0000
00000250: 0000 0000 0000 0000 0000 0080 0000 0000
00000260: 0000 0080 0000 0080 0000 0000 0000 0000
00000270: 0000 0000 0000 0080 0000 0080 0000 0080
00000280: 0000 0080 0000 0000 0000 0000 0000 0000
00000290: 0000 0000 0000 0000 0000 0080 0000 0080
000002a0: 0000 0000 0000 0000 0000 0000 0000 0080
000002b0: 0000 0000 0000 0000 0000 0000 0000 0080
000002c0: 0000 0080 0000 0080 0000 0000 0000 0080
000002d0: 0000 0000 0000 0080 0000 0080 0000 0080
000002e0: 0000 0000 0000 0000 0000 0080 0000 0000
000002f0: 0000 0000 0000 0000 0000 0080 0000 0000
00000300: 0000 0080 0000 0000 0000 0000 0000 0000
00000310: 0000 0080 0000 0000 0000 0000 0000 0080
00000320: 0000 0000 0000 0000 0000 0000 0000 0000
00000330: 0000 0080 0000 0080 0000 0000 0000 0080
00000340: 0000 0000 0000 0000 0000 0000 0000 0000
00000350: 0000 0080 0000 0080 0000 0080 0000 0000
00000360: 0000 0000 0000 0000 0000 0000 0000 0080
00000370: 0000 0080 0000 0000 0000 0000 0000 0080
00000380: 0000 0000 0000 0080 0000 0080 0000 0080
00000390: 0000 0000 0000 0080 0000 0080 0000 0000
000003a0: 0000 0080 0000 0080 0000 0000 0000 0080
000003b0: 0000 0000 0000 0080 0000 0080 0000 0000
000003c0: 0000 0080 0000 0080 0000 0080 0000 0000
000003d0: 0000 0080 0000 0000 0000 0000 0000 0000
000003e0: 0000 0000 0000 0000 0000 0080 0000 0080
000003f0: 0000 0000 0000 0000 0000 0000 0000 0000
0.0 0.0 -0.0 0.0 0.0 -0.0 0.0 0.0
-0.0 0.0 -0.0 0.0 0.0 -0.0 0.0 -0.0
-0.0 -0.0 -0.0 -0.0 0.0 0.0 -0.0 -0.0
-0.0 -0.0 -0.0 0.0 -0.0 0.0 -0.0 -0.0
-0.0 -0.0 -0.0 -0.0 0.0 0.0 0.0 0.0
-0.0 0.0 -0.0 0.0 -0.0 0.0 -0.0 -0.0
-0.0 -0.0 0.0 -0.0 -0.0 0.0 0.0 0.0
-0.0 0.0 0.0 0.0 0.0 0.0 -0.0 -0.0
-0.0 -0.0 0.0 0.0 0.0 -0.0 0.0 0.0
0.0 0.0 -0.0 0.0 -0.0 -0.0 -0.0 -0.0
0.0 0.0 0.0 -0.0 -0.0 0.0 -0.0 0.0
0.0 -0.0 -0.0 0.0 -0.0 -0.0 0.0 -0.0
0.0 -0.0 0.0 0.0 0.0 -0.0 0.0 0.0
0.0 -0.0 -0.0 -0.0 0.0 -0.0 0.0 -0.0
0.0 -0.0 -0.0 0.0 -0.0 -0.0 -0.0 0.0
-0.0 -0.0 -0.0 -0.0 0.0 -0.0 0.0 0.0
0.0 -0.0 -0.0 -0.0 0.0 0.0 0.0 -0.0
-0.0 -0.0 0.0 -0.0 -0.0 0.0 0.0 -0.0
0.0 -0.0 0.0 0.0 0.0 0.0 -0.0 0.0
-0.0 -0.0 0.0 0.0 0.0 -0.0 -0.0 -0.0
-0.0 0.0 0.0 0.0 0.0 0.0 -0.0 -0.0
0.0 0.0 0.0 -0.0 0.0 0.0 0.0 -0.0
-0.0 -0.0 0.0 -0.0 0.0 -0.0 -0.0 -0.0
0.0 0.0 -0.0 0.0 0.0 0.0 -0.0 0.0
-0.0 0.0 0.0 0.0 -0.0 0.0 0.0 -0.0
0.0 0.0 0.0 0.0 -0.0 -0.0 0.0 -0.0
0.0 0.0 0.0 0.0 -0.0 -0.0 -0.0 0.0
0.0 0.0 0.0 -0.0 -0.0 0.0 0.0 -0.0
0.0 -0.0 -0.0 -0.0 0.0 -0.0 -0.0 0.0
-0.0 -0.0 0.0 -0.0 0.0 -0.0 -0.0 0.0
-0.0 -0.0 -0.0 0.0 -0.0 0.0 0.0 0.0
0.0 0.0 -0.0 -0.0 0.0 0.0 0.0 0.0

onnx::Conv_96 f4 [64]
00000000: 3ccf 8485 3868 a2bd f849 753b c534 0580
00000010: e637 12b7 3d59 3e3d 8046 d8a7 832a ecbd
00000020: ed2c 4bb8 7f3d 7bb9 9402 0000 fa8d 95ae
00000030: 3993 4295 e3e5 9686 9dba 28a8 899e 4d9f
00000040: 7cb3 23bd 1f94 ab86 a206 aeaa b540 96b6
00000050: 9449 b399 d736 57b5 98bd d03b 9a2a 0980
00000060: 355f 0da0 a02b a434 c080 0ebd d093 74b1
00000070: 684f c18a 153c c293 0c15 e6bd 4af3 1ebe
00000080: d4e2 3036 df6f 4db5 3631 a58a cd1e dab9
00000090: 952a e5b9 4c30 0380 80a1 5fba 2370 958e
000000a0: 3860 0480 b159 2f35 9947 07a6 e5de 1eb2
000000b0: 9f1e f4bd f2d3 4a3d 53b9 64b3 50fa 26bd
000000c0: 9440 f0b4 c105 6baa 5207 7a03 999c b119
000000d0: e7cf a58c c514 5a96 a9da 32a7 a100 a5bd
000000e0: e886 403d 2008 41be 2f01 a5b8 64f8 8d34
000000f0: 26be 042a 1bcc a19b 2522 28be ae47 0cb1
-1.2489346e-35 -0.079300344 0.0037428122 -4.78108e-40 -8.715293e-06 0.046471823 -6.002848e-15 -0.11531546
-4.8440812e-05 -0.00023960134 9.25e-43 -6.8009556e-11 -3.9294126e-26 -5.6761517e-35 -9.366339e-15 -4.3541576e-20
-0.03996609 -6.4540695e-35 -3.0913211e-13 -4.4778812e-06 -1.8537884e-23 -8.0173544e-07 0.0063702576 -8.41802e-40
-1.1974666e-19 3.0579122e-07 -0.034790754 -3.5590695e-09 -1.8615093e-32 -4.903173e-27 -0.11234483 -0.15522495
2.6358075e-06 -7.6531245e-07 -1.5907433e-32 -0.0004160315 -0.0004371001 -2.92832e-40 -0.000853084 -3.683932e-30
-4.01859e-40 6.53231e-07 -4.6934567e-16 -9.247491e-09 -0.11919903 0.049518533 -5.3253938e-08 -0.04076606
-4.475047e-07 -2.0874189e-13 7.34768e-37 1.836462e-23 -2.5547402e-31 -1.7616453e-25 -2.4820998e-15 -0.080567606
0.047003657 -0.18850756 -7.8680336e-05 2.6444025e-07 1.1789926e-13 -2.6767116e-22 -0.16419275 -2.0413427e-09
