cmd/ai/datas/models/squirrel_on_a_tree.onnx (onnx, 302121 bytes, 16 tensors)

fc.weight f4 [2, 256]
000000 43 9b 94 bd aa 89 f0 bc 94 de 25 be 21 0a 0a be
       -0.07256176 -0.029362518 -0.16198188 -0.13480426
000010 60 2d 0b be da c9 06 be b8 08 f1 bd 7d 79 d8 bd
       -0.13591528 -0.13162938 -0.11769241 -0.10570047
000020 e8 28 56 bc f1 07 c4 3b 98 7e 8b bc d3 0b bf 3c
       -0.013071276 0.005982392 -0.017028138 0.023321068
000030 a3 4e b6 3c 21 3a 50 3d 65 24 e0 bd 1e c0 e3 bd
       0.022254294 0.050836686 -0.10944442 -0.11120628
000040 5a bc 0e 3d 0f e1 c6 3d 40 78 26 bb 6d 55 bc 3d
       0.034847595 0.09710895 -0.0025401264 0.09195981
000050 c1 37 04 3d 01 a4 11 3e 1c 08 57 3d 78 96 ba 3d
       0.032279734 0.14222719 0.052497968 0.09110731
000060 ab 1f 71 3d 8d 0f ab bc 0c 81 0c 3d cd cf 30 bd
       0.05886809 -0.020881439 0.034302756 -0.043166924
000070 5d 00 4a 3b cf 53 25 bd 30 1d c7 3c a4 91 42 3c
       0.003082297 -0.04036313 0.02430591 0.011875544
000080 49 2c 82 3d aa c4 94 3d 4b 74 ce 3d cb 98 0a 3e
       0.06356103 0.07264073 0.10080775 0.13534848
000090 05 89 38 bd 96 40 48 bd cf c2 19 3d b8 bd 44 3d
       -0.045052547 -0.04888972 0.0375393 0.048032492
0000a0 de e7 52 bc 82 06 79 bd 83 0f 53 3d ab b4 11 3d
       -0.012872664 -0.060797222 0.051528465 0.03557269
0000b0 86 94 5c 3c 44 54 23 bc 09 c8 be 3c 69 c4 aa bc
       0.013463145 -0.009968821 0.023288744 -0.020845609
0000c0 b1 5e 68 3d 9f 30 21 3d bf 63 d0 3d 19 45 31 3d
       0.05673093 0.03935301 0.10175275 0.043278787
0000d0 7e d7 e8 3d 40 5f a5 3d 2d 31 ba 3d c8 35 9c 3d
       0.11369227 0.08074808 0.09091411 0.076274455
0000e0 ce a2 a9 3d b7 bf c6 3d 83 22 a8 3d d3 0b 16 3e
       0.08283006 0.097045355 0.082097076 0.14652948
0000f0 cf 22 2e bd 61 82 2f 3d a1 9a 5e bd f5 c9 82 3d
       -0.042513665 0.04284895 -0.054346684 0.063861765
000100 08 25 65 3d 7d 80 90 3d dc 5d dc bd 84 90 b8 bd
       0.05594352 0.07055757 -0.1076009 -0.09011939
000110 16 80 82 bb 47 84 ee bb 34 cf 5a 3c 6c 53 2d 3c
       -0.003982554 -0.0072789523 0.013355065 0.010578971
000120 9e 9a 96 3c 64 03 c7 3b c9 4f e4 bb a1 7e 6d bc
       0.018384274 0.0060734022 -0.006967519 -0.014495523
000130 9f 8c f1 bb a0 cb 17 bd 30 ad 9c bd 24 58 86 bd
       -0.0073714997 -0.037059426 -0.076502204 -0.0655978
000140 40 8e 28 bc f7 e9 75 3c ae 4d d2 bd a5 2e 9d bd
       -0.010287821 0.015009395 -0.102687225 -0.07674912
000150 45 b8 e2 ae 45 d6 e9 ae 9c ab 67 30 99 71 06 af
       -1.0310023e-10 -1.0633675e-10 8.428118e-10 -1.2227587e-10
000160 ae 48 ed 3d c4 62 c3 bd ce 2c a3 3d d5 9d bb bd
       0.11586128 -0.095403224 0.0796753 -0.091609634
000170 65 93 83 3c 4a 84 fc bd 73 2d e0 3c 13 35 0b be
       0.016061494 -0.1232992 0.027365422 -0.13594465
000180 67 c0 3c 27 9f f0 dd a2 8c e9 98 25 ce 46 84 22
       2.6194543e-15 -6.0156938e-18 2.6526054e-16 3.585364e-18
000190 ed 12 cd 2c 8a 73 43 ac 21 37 9a a1 e8 4d c7 a6
       5.8285516e-12 -2.7775304e-12 -1.0450038e-18 -1.3829515e-15
0001a0 5a 57 04 3a f0 b2 48 3b b6 5f c4 ba 92 21 12 ba
       0.0005048417 0.0030624233 -0.0014982137 -0.00055744604
0001b0 94 54 b7 3b 57 25 16 bc 98 60 2e 3d 4e d8 ba bc
       0.0055947993 -0.009164176 0.042572588 -0.02280822
0001c0 43 b9 46 3d 28 14 84 3c a3 79 36 bc 9c cb 74 bd
       0.048516523 0.016122892 -0.011137399 -0.05976449
0001d0 6e 99 9e bd 9a ea 0b be c9 fd 34 bd f5 5a f1 bd
       -0.07744108 -0.13663712 -0.04418734 -0.11784927
0001e0 d6 34 8a 3d ce 76 98 bd 4f 3d 8a 3d 29 19 b0 bd
       0.06748359 -0.07444535 0.06749975 -0.08598549
0001f0 42 9a f5 bc ae 42 de bc 69 93 c9 3c 7d a5 a1 3c
       -0.029980782 -0.027131405 0.024606423 0.019732231
000200 d6 ce 54 3d e1 a3 0d bd a7 61 b2 3c 50 22 16 bd
       0.051955067 -0.034580115 0.02177508 -0.036653817
000210 08 ff 92 bd 4d 30 7e 3d f3 73 b9 bb 3b 99 bf 3d
       -0.071775496 0.062057782 -0.005659574 0.09355398
000220 87 02 9f 3d 34 bc 4f bd 8c 85 a8 3d e6 94 8a bd
       0.07764154 -0.050716594 0.08228597 -0.067666814
000230 b5 2b f5 3d 08 f1 ad 3d 34 11 97 3c ef e5 76 3d
       0.11971227 0.08493239 0.01844082 0.060277876
000240 e1 a7 47 bc 76 81 06 3c cf f3 36 bd be 86 85 bd
       -0.012186022 0.008209577 -0.044666108 -0.06519841
000250 0a be 22 3d 7d 7a 14 3d 47 e8 ce bd ab 46 dc bd
       0.039732017 0.036249626 -0.10102897 -0.10755666
000260 e5 04 0f bd d8 b0 9b 3c bb de c1 3a 1f c0 4e 3d
       -0.034916777 0.019005224 0.001479111 0.05047619
000270 7a 34 ce 3d 91 73 57 3d 2d ee e4 3d 4b fc 04 3d
       0.10068603 0.052600447 0.11178241 0.032467168
000280 f6 30 98 3d 5c 20 bc 3d ba be ed 3d 64 af d3 3d
       0.074312136 0.091858596 0.11608644 0.103361875
000290 33 40 01 3e cb b2 01 3d f3 f1 bf 3d b6 55 71 bd
       0.12622146 0.03166465 0.0937232 -0.05891963
0002a0 a3 8e 28 be 10 71 13 be 20 4a b7 bd fd 5a bb bd
       -0.16460662 -0.14398599 -0.08949685 -0.09148214
0002b0 a2 ba 03 21 22 8e 28 a1 9d 31 97 9e f3 b9 f9 9f
       4.4631533e-19 -5.7108725e-19 -1.6008266e-20 -1.0576323e-19
0002c0 30 39 07 3e 7d ae 8e 3d fe 92 f2 3d db cc f4 3d
       0.13205409 0.06966875 0.11844443 0.119531356
0002d0 97 23 01 bd a9 c0 f4 3c 7f 63 d1 bc 9c 5f 24 3d
       -0.03152808 0.029877024 -0.025560139 0.040130243
0002e0 be 71 b4 bd 19 06 9d bc 52 68 3b be 97 f9 f8 bd
       -0.08810757 -0.019167947 -0.18301514 -0.121569805
0002f0 8d 01 04 bd 10 11 3e bd 28 a2 2e 3d b2 32 73 3d
       -0.03222804 -0.04640299 0.042635113 0.05937452
000300 cf 24 1a bd 5f 70 3d 3d 28 2e 0d bd 8d 99 ea 3c
       -0.03763276 0.046249744 -0.034467846 0.028637672
000310 14 19 4a 3d cc 3f 90 3d 2e e8 cc bd 7d 88 cd bd
       0.049340323 0.07043418 -0.10005222 -0.10035799
000320 c1 a9 a0 3d 85 4a 18 3d 64 18 e7 3d 61 c7 dc 3d
       0.07844878 0.037180442 0.11283949 0.10780216
000330 6b d4 5c 3d 7b b9 e2 3c fb 02 16 bd ee 2d 33 bd
       0.053913515 0.027676335 -0.036623936 -0.043744974
000340 5d cd 78 bd 20 8c da bd 3a ea 02 be c9 0c b8 bd
       -0.060742725 -0.10671258 -0.12784663 -0.089868136
000350 99 2d 2a 3d 36 9a 4d 3d 6f bd 42 3c 37 30 e0 3d
       0.04154739 0.050195895 0.011885985 0.10946696
000360 b5 24 55 bd 59 d1 f0 bd 43 0f f1 bd 04 c3 e1 bd
       -0.05203696 -0.1175868 -0.11770489 -0.110235244
000370 d2 27 b1 b9 fa 18 67 b8 f4 78 31 3a 03 56 a2 39
       -0.0003378974 -5.5097953e-05 0.00067700376 0.00030963132
000380 ab c5 20 3d 7f cf 23 bd 5f 31 89 3b ef a3 90 bc
       0.03925101 -0.039992806 0.0041867937 -0.017656295
000390 77 b6 17 bd e6 41 5d 3d 4c 0a 99 bd ef b3 ab bc
       -0.037039246 0.054017924 -0.07472667 -0.020959822
0003a0 d3 e0 49 bc 47 75 0e bd f2 32 06 3d c5 7d 57 bb
       -0.012321669 -0.034779813 0.03276343 -0.003288136
0003b0 46 e8 cc bc 9e 6b b8 3c 80 e6 a7 bc 45 20 49 3c
       -0.0250131 0.022512253 -0.020495653 0.01227576
0003c0 9e 63 c8 bc c8 87 7a b8 58 c8 c9 3b d1 b6 d2 3c
       -0.024461564 -5.97311e-05 0.006157916 0.02572194
0003d0 52 fc ee 3d 3b 6a dc bb 48 94 e6 3d e3 e2 0f bd
       0.1166922 -0.006726531 0.11258751 -0.035128485
0003e0 e1 89 aa 3c 05 3b 0c be 5f a6 8f bb 6c 9c 10 be
       0.020817699 -0.13694389 -0.0043838467 -0.1412217
0003f0 75 86 6d 3d 80 0b 52 bd 69 63 7e bd 03 24 0c be
       0.057989556 -0.0512805 -0.062106524 -0.13685612

fc.bias f4 [2]
000000 20 53 f7 3c bb aa 32 3d
       0.030191004 0.043619853

onnx::Conv_80 f4 [16, 3, 7, 7]
000000 49 19 23 be 30 38 7a be 6f 77 40 bd 3f e3 65 3e
       -0.15927614 -0.24435496 -0.0469889 0.22449969
000010 9c fe 28 be 27 88 7a 3e 73 a9 85 be cc 5f b4 be
       -0.16503376 0.24466 -0.26105842 -0.35229337
000020 77 0e 8d 3b 66 03 e9 3e 80 82 e4 3e 9f 4c 3c 3d
       0.004304703 0.45510405 0.44630814 0.04597151
000030 36 03 bd bd 84 58 d7 3d e6 f4 a1 be a8 b9 c1 3e
       -0.09229128 0.1051493 -0.31632155 0.37836957
000040 0d f0 8c 3e ce 20 2e be 9a 5e bf 3e 36 de 8c 3e
       0.27526894 -0.17004701 0.37376863 0.27513283
000050 c2 f8 79 3e f7 e8 3c 3e 13 ad 93 3e 97 7f 1f 3e
       0.244113 0.18448244 0.28842983 0.15576015
000060 ff ef 3b 3b 89 74 91 bd 69 d1 4e 3d 3c 79 40 3e
       0.0028676984 -0.071023054 0.050492678 0.18796247
000070 cd a0 e6 bd 74 49 0a be 36 9e 3e 3e 54 a9 46 be
       -0.11261139 -0.13504583 0.1861504 -0.19400531
000080 ef b7 79 3e 1a 94 4b 3e f8 b4 16 3e a1 b5 e0 be
       0.24386571 0.19880715 0.14717472 -0.43888572
000090 f1 40 5d bd 39 9e 5d 3e 77 c4 9c be f9 67 49 be
       -0.05401701 0.21642388 -0.3061864 -0.19668569
0000a0 84 c0 7f be 49 16 71 3c a2 16 c8 be de 01 4d 3e
       -0.24975783 0.014714786 -0.39079767 0.20020244
0000b0 73 d6 a5 be ee df 65 be b9 87 81 be 83 ed 9a be
       -0.32390174 -0.22448704 -0.2529886 -0.30259332
0000c0 00 89 33 bd 46 fc b2 3e 7c 64 03 bd 85 1c ee be
       -0.043831825 0.34958094 -0.03207825 -0.46506134
0000d0 0d 21 31 be e0 49 e2 be ec 5b a6 be 63 26 fa be
       -0.17297764 -0.44196987 -0.32492006 -0.48857412
0000e0 e0 e0 b8 be 13 44 c9 bd 72 fc 63 3d 08 f0 17 bf
       -0.36109066 -0.09827437 0.055660672 -0.59350634
0000f0 6b e1 10 be 67 c5 f6 be 0f 98 0e 3e 65 52 5e be
       -0.1414849 -0.4819748 0.13925193 -0.21711119
000100 f6 a1 fc bd 5f 8c 08 bf f5 bb 87 be 65 47 1a bf
       -0.12335579 -0.5333919 -0.26510587 -0.6026519
000110 8c cc 17 bf 2c 61 58 bc 82 9a 1f be 78 fb 79 be
       -0.5929649 -0.013206761 -0.15586284 -0.24412334
000120 88 8b fa bd 3d 20 b2 be 04 19 de be 80 6e 2f be
       -0.12233645 -0.3479022 -0.4337846 -0.17131996
000130 c8 9a e9 be d2 67 84 3c a3 8a 55 3e 16 c8 36 be
       -0.456259 0.016162787 0.20853667 -0.17849764
000140 8c 44 8c 3e 00 e5 ac 3e 5c f6 4e be 6b 35 44 bc
       0.27396047 0.33768463 -0.20211166 -0.011975626
000150 d0 7b 23 3e 2c 84 a8 3d 7b 32 9e 3d 75 cd 5c 3d
       0.159652 0.08228335 0.07724472 0.053906877
000160 1f b6 b6 bd 02 95 af bd b3 48 86 be 39 70 a9 bd
       -0.089214556 -0.08573343 -0.2622734 -0.08273358
000170 5a 0e 97 3e b1 fb 3e 3e 71 55 b3 3e 02 24 e0 3e
       0.29503137 0.186507 0.35026124 0.43777472
000180 2e 40 cc 3e 61 93 b5 3e 4e 99 8a bd 80 71 9a 3e
       0.39892715 0.35464004 -0.06767522 0.3016472
000190 37 9b 2b 3e 4a 1d e3 3e 81 cc 73 3e cb ae 19 bd
       0.16758429 0.44358283 0.23808481 -0.03752021
0001a0 05 7c af 3e 7d dc 9a bc 39 ca b9 3e 80 b4 24 3e
       0.34274307 -0.018903965 0.36287096 0.1608448
0001b0 d0 33 b5 3e d5 93 98 3e fe b1 43 3e f2 85 30 bd
       0.35391092 0.29800287 0.19110867 -0.04309649
0001c0 42 55 1d be 30 27 64 3e 00 7d bc bd dc cf c0 bd
       -0.15364555 0.22280574 -0.09203529 -0.09414646
0001d0 b7 09 c8 3e 88 3a e2 3e b6 ac ee 3d 8e 73 99 bd
       0.39069912 0.4418528 0.11654036 -0.074927434
0001e0 7f ee 5f 3e 2d aa 06 bd d5 37 fb 3d d3 8d 7b 3d
       0.21868323 -0.032877136 0.122665085 0.06141455
0001f0 9d 78 36 bc 21 82 cc 3e 85 ef d2 bd c2 90 9b 3e
       -0.011137155 0.3994303 -0.10299591 0.3038388
000200 e2 e6 18 3e 86 e5 f3 3d f5 5d 27 3e 07 df 37 3e
       0.14931825 0.119090125 0.16344436 0.17956172
000210 24 be 63 3e a9 fa bc 3d 95 f2 96 be 1e 3a ae be
       0.22240502 0.09227497 -0.2948195 -0.34028715
000220 e0 87 2b 3e 8c ed 57 be cc dc ae be 7b 03 13 be
       0.16751051 -0.2108671 -0.3415283 -0.14356796
000230 06 15 54 be f5 e9 33 3e de da 56 3d 04 6f b2 be
       -0.20711145 0.17569716 0.05245482 -0.34850323
000240 02 87 0b be 14 a9 3f bd 4d d3 4b 3d 93 3e 48 3e
       -0.1362572 -0.046792105 0.04976206 0.1955512
000250 17 d8 20 3e b3 8c 2e 3e e0 1d a0 bd 96 33 e9 bd
       0.15707432 0.1704586 -0.07818198 -0.11386792
000260 cb 57 5e be 79 67 9f bd 74 2b 89 bb cd 11 06 3e
       -0.21713178 -0.07783408 -0.004186088 0.13092728
000270 59 ab 88 3c 91 83 96 bc 9d c2 93 bc 22 13 01 3d
       0.016683267 -0.018373283 -0.018037135 0.031512387
000280 c3 87 00 3d 56 c6 34 3d 61 44 de bd bc 74 9c 3c
       0.031379472 0.04413446 -0.10852886 0.019098632
000290 81 12 e9 3d b9 75 11 3e 7b f0 01 3e b3 00 c2 3d
       0.113804825 0.14205064 0.12689392 0.094727896
0002a0 01 12 09 3e b7 2a 0c bd 8e 86 c6 bd 19 43 fd bd
       0.13385774 -0.034220424 -0.09693633 -0.123663135
0002b0 c7 78 a5 bd 52 42 17 3e 9a 0a b0 3d 6c 59 35 bd
       -0.08079677 0.14771393 0.08595772 -0.044274732
0002c0 71 5b 30 3b 88 bc 6a 3d cb c7 06 3e 4e 1a ec 3b
       0.0026909972 0.057308704 0.13162152 0.007205284
0002d0 4a 92 e6 3c 3c 9c e1 bd 6e a5 3b be 0c 47 4e be
       0.028145928 -0.110161275 -0.18324825 -0.2014429
0002e0 a2 0f 77 be cb de 83 be 7a 27 92 be 93 f9 92 be
       -0.24127057 -0.25755915 -0.28545743 -0.28706035
0002f0 1f e3 b7 be 4a 27 1e be 7b d6 cb bd a3 19 a7 3c
       -0.35915467 -0.15444675 -0.09953018 0.020397967
000300 d4 a1 37 be d7 ba 1f be 29 20 a6 be 78 4d 57 bd
       -0.17932826 -0.15598617 -0.3244641 -0.052564114
000310 ae 7e 98 3d 8a 07 2c 3e 5a 97 08 3e c3 4f 11 be
       0.07446037 0.16799751 0.13338986 -0.14190583
000320 1c ab c0 bc 5f c0 43 be 0e 73 c0 bd c7 c2 b7 bd
       -0.023519091 -0.19116352 -0.09396945 -0.08972698
000330 8d 08 48 3e 3e 22 25 3e 5b 11 45 3e 63 58 d8 3c
       0.19534512 0.16126344 0.19244902 0.026409334
000340 fb a5 c6 3d 2a bc 91 3c d8 34 18 be f6 cb 84 bc
       0.09699627 0.017789919 -0.14863908 -0.016210537
000350 f6 cb a2 bd dd f4 e7 3d de 46 37 3e 2e d2 8b 3e
       -0.07949059 0.11326001 0.17898127 0.27308792
000360 5a 29 b9 3a 1d e8 1d be a8 f3 81 be 55 da 50 be
       0.0014126704 -0.15420575 -0.25381207 -0.20395787
000370 52 18 a7 3d ff 31 8c 3d f1 d7 85 3e 4c a1 d6 3d
       0.081589356 0.068454735 0.26141313 0.10479984
000380 6d 43 73 bd ed 80 56 bd cd 4b 42 be ee 7e 34 bd
       -0.059390474 -0.052369047 -0.18974228 -0.044066362
000390 57 aa 85 bd 03 6c a2 3d 93 57 f5 3d 94 62 03 be
       -0.0652663 0.07930758 0.11979594 -0.12830573
0003a0 bf 7b a6 bc 4d 47 47 3d 8b a8 3a bc 08 8a 9f be
       -0.020322679 0.048651982 -0.011392723 -0.31159997
0003b0 e5 02 7f be 53 88 22 bc e6 51 9c 3d 65 17 72 bd
       -0.24903448 -0.009920198 0.076328084 -0.059104342
0003c0 60 ef 4e be 16 b9 05 be 90 76 17 3c 60 9b 1c be
       -0.20208502 -0.13058886 0.009244576 -0.15293646
0003d0 9d c1 86 be 76 c6 23 3e 9a 77 a1 3e 9e 59 d8 bb
       -0.2631959 0.15993676 0.3153656 -0.00660248
0003e0 17 af 73 3e fe 42 e7 3d 37 a0 69 3d 36 62 68 bd
       0.2379726 0.112920746 0.05703756 -0.056734286
0003f0 4a 3e 29 3b 4e b4 7a 3e 49 e1 6b 3e 2d 3a 23 3e
       0.002582448 0.24482843 0.23035158 0.15940161

onnx::Conv_81 f4 [16]
000000 f8 52 30 3f 11 50 96 3e b9 4f 38 bf 70 1d 7f 3d
       0.688766 0.2935796 -0.7199665 0.062283933
000010 01 ea c1 3e 4c 75 8a 3f f3 13 be 3e 0d c8 15 3e
       0.37873843 1.0817046 0.37124595 0.14627095
000020 88 32 93 3e 8c d0 66 be 64 86 3d 3e 61 67 f8 be
       0.2874949 -0.22540492 0.18508297 -0.48516372
000030 36 b1 b0 3e ed ed a3 3f fb 5c 39 bf 7d a4 6a 3e
       0.345102 1.2806984 -0.724075 0.2291431

onnx::Conv_83 f4 [32, 16, 3, 3]
000000 71 66 aa 3d 7f 5c 50 3b 51 8f 9f bc b6 ef 79 3d
       0.083203204 0.0031793413 -0.019477518 0.06101962
000010 bc 7a 94 bc 27 16 3b bd 8c d2 ff 3c 44 a4 c9 3b
       -0.01812493 -0.045675423 0.031228326 0.006153615
000020 74 15 c5 bc 87 21 ee bb 76 a2 b9 bb 7d 8f b9 bc
       -0.024058081 -0.0072671804 -0.005665119 -0.022651428
000030 f8 a7 0d bc 46 ec 39 bd 0a ad 40 38 f3 b4 3d bd
       -0.008646004 -0.045391344 4.5937522e-05 -0.046315145
000040 de 49 a1 bc 76 10 ea bc 94 fb fa bc b2 2b 71 3c
       -0.019688543 -0.028572302 -0.03063754 0.01471989
000050 23 10 c2 3b 8e 27 c2 bc b7 49 d0 3a 4a bc 8b 3b
       0.005922334 -0.023700502 0.0015891109 0.004264389
000060 c5 d4 85 bd 6c f7 6b 3c 8c cb 7a 3d 17 2e 38 bd
       -0.06534723 0.014402252 0.061229274 -0.04496583
000070 05 10 14 3c 34 8c 1a 3c 01 67 76 bd 3f 95 b7 bc
       0.0090370225 0.009432841 -0.060156826 -0.022410033
000080 b2 cf 30 3d f7 bc d0 bd 09 b2 a0 bc 36 ad 9f 3c
       0.043166824 -0.10192292 -0.019616144 0.019491773
000090 c2 f6 56 bc 85 21 39 bc fc 6a 07 bd d8 08 73 3c
       -0.013120355 -0.011299496 -0.033061013 0.0148336515
0000a0 ce 6a 93 3d 02 da 89 bc 89 84 b3 3c e9 92 3d 3d
       0.07198106 -0.016827587 0.021913784 0.046282683
0000b0 35 30 84 3d df 38 5b 3c 21 e0 07 3d 1e 12 c3 3b
       0.06454507 0.013380258 0.03317273 0.0059530875
0000c0 d0 6f b3 bc 51 59 1d 3c 25 88 c4 3c 3a 1b 4d bc
       -0.021903902 0.009603814 0.0239907 -0.012518698
0000d0 29 bb 23 3d 26 f0 71 3d a0 9c 7f bb e7 17 49 bc
       0.03997341 0.059066914 -0.0039003268 -0.012273765
0000e0 b7 dd 96 3c 33 ae 4a bd 76 6b 41 3c 8b 83 a2 3c
       0.018416269 -0.049482536 0.011805406 0.019838115
0000f0 4d fd 3b bd 86 55 47 bc 28 c5 c7 3b ea c8 55 bd
       -0.045895863 -0.0121663865 0.006096501 -0.05219356
000100 e7 59 e4 3c dd 4a 01 3d 24 f3 7e bd e0 b3 c1 bb
       0.0278749 0.031565536 -0.062243596 -0.0059113353
000110 c6 cb f0 3c 72 f1 36 bd d5 ad 2e 3d d3 8c 73 3d
       0.029394042 -0.044663854 0.042646248 0.059460472
000120 55 0d e5 bc fc 8d 62 3d 82 b7 bf 3c ed e4 2f bc
       -0.027960459 0.055311188 0.023402933 -0.0107357325
000130 8b cc f8 bb 28 6c 70 bb e7 8a 33 bc 52 7f e5 3c
       -0.007592743 -0.003668556 -0.01095841 0.028014813
000140 e5 42 15 3d c9 4b 4c 3b 73 30 96 bd 61 86 b9 bc
       0.03644075 0.00311731 -0.0733346 -0.022647085
000150 fa 6b 23 bd b0 dc 8e bd ac fc dc 3c b8 a6 69 3a
       -0.039897896 -0.069756866 0.026975952 0.00089130877
000160 df 16 88 3c 43 b7 3b 3d a0 cf 61 bd 99 b4 c0 3b
       0.016612468 0.04582907 -0.055129647 0.005880904
000170 2f a3 27 3d 0e bb 22 bd a7 76 a4 3c 44 11 1c 3d
       0.04092711 -0.03972917 0.02007611 0.038102403
000180 65 78 55 bd 78 a0 11 3b 5a f2 22 3c 62 0d 74 bc
       -0.05211677 0.002222089 0.009945476 -0.014895769
000190 35 40 2a bb 63 b7 16 bb 17 e4 0b bc e5 05 79 bc
       -0.0025978212 -0.002299749 -0.008538268 -0.015199159
0001a0 94 1a 2c 3c ed 50 dd ba fd 9c 69 bb f3 48 8f bb
       0.010504384 -0.001688508 -0.003564655 -0.00437271
0001b0 a1 6e e5 ba 2a 5b d1 3c cd 4f bb 3c a1 c1 f5 bc
       -0.0017504283 0.025556166 0.0228652 -0.029999556
0001c0 0c 5f e6 3c 11 ff 15 bc 78 9d b1 bc 9f 9a f3 3c
       0.028121494 -0.009155051 -0.021681532 0.029736815
0001d0 4a f1 6e 3a 38 bc fd bc da b3 cd bb 46 a0 5c ba
       0.00091149344 -0.030973539 -0.0062775435 -0.00084162166
0001e0 15 64 a5 bc e5 81 9a 3b 7d d7 34 bd 47 dc c7 bb
       -0.020189324 0.0047151917 -0.04415082 -0.006099257
0001f0 3c bb 72 3d 9a 4a 0d 3b be 54 81 3b 5d 18 9f bc
       0.059260592 0.0021559359 0.0039468696 -0.019420797
000200 7b a1 04 bc 3c 42 ea ba 5f dd ab bc b3 b7 bd bc
       -0.008095141 -0.0017872523 -0.020979581 -0.023158884
000210 4d 32 cf bb 8a 86 88 bc ba c5 ae bc c4 d7 af bd
       -0.006323135 -0.016665716 -0.021334518 -0.08586076
000220 7a a7 3b bc 1a 6e 42 3c 2f 85 23 bd 3a e2 a8 bc
       -0.011453504 0.011867071 -0.039921936 -0.020615686
000230 bc 6f 88 3c 9f 5b 84 bc a8 ad be bc e5 3e 8d 3c
       0.016654842 -0.01615697 -0.023276165 0.017241905
000240 7d d3 3f bd 9b 99 5e 3c ce f7 dd bb df 42 9b 39
       -0.04683255 0.013586427 -0.0067739254 0.00029613727
000250 d4 32 c2 bc 32 bc c9 3c a9 7c 06 3d fa fc 82 3c
       -0.023705877 0.024625871 0.03283373 0.01598977
000260 44 92 22 3c 29 c4 42 3d 78 ec 4a 3d a9 60 44 bd
       0.009922568 0.047550354 0.04954192 -0.047943745
000270 f8 46 0c bb db 33 1c 3d b3 4c 1a 3d 37 64 5a bc
       -0.0021404605 0.03813539 0.037670802 -0.013329557
000280 9b 9c af bc 00 75 2a 3c 07 92 2e 39 57 a3 74 bc
       -0.02143698 0.010403872 0.00016648333 -0.014931521
000290 13 c6 bc bb 42 dc 86 bd 40 7b 53 3c 90 ff d1 3c
       -0.005760917 -0.065849796 0.012907803 0.025634557
0002a0 f5 89 9d bd ba 4f 9b bd 61 f3 2d 3c fb bd 9c 3b
       -0.07692329 -0.07583566 0.010617108 0.0047833896
0002b0 18 20 7b 3d 0c de b9 bc 98 7d 25 bc 6c cf 3f 3c
       0.061309904 -0.022688888 -0.010100745 0.011707168
0002c0 6b 76 53 3d 77 50 88 3c 35 ca 41 3c 62 95 11 bb
       0.051626604 0.016639931 0.011827995 -0.0022214283
0002d0 9f 6a cd 3d 65 1a 60 3c 54 0d c3 3d 3b 8f 23 bd
       0.10030102 0.013678168 0.095240265 -0.039931517
0002e0 e8 29 d1 3c bd 83 7e bc f4 50 5a bc ed e3 fa bc
       0.025532678 -0.015534339 -0.013324965 -0.030626262
0002f0 49 1b 16 bd e7 16 b9 3a d2 46 32 bc 7a 78 d7 bb
       -0.036647115 0.0014121205 -0.010881143 -0.006575641
000300 b0 23 89 3d 8f 4a 93 3c 07 47 d4 3c 19 f4 37 3c
       0.0669626 0.017979888 0.025912775 0.011227631
000310 25 9a 6a 3d 70 f8 00 bd ac e0 a4 3b 16 a3 70 3d
       0.05727591 -0.03148693 0.005031666 0.05874928
000320 6a 97 71 bc e5 b3 a5 3d 39 35 93 3d f2 16 49 bc
       -0.014745573 0.08090953 0.07187886 -0.012273537
000330 b9 e1 91 3d 84 1b 27 3d be 86 bb 3c ed c6 a5 bc
       0.07123131 0.040797725 0.022891399 -0.020236457
000340 e0 e0 19 bd 5c 48 23 bd 0b 36 38 bd 2c 88 d1 3b
       -0.037567973 -0.03986393 -0.044973414 0.006394407
000350 a5 f5 97 bc b2 78 03 3d 64 03 22 3c 3c ac 1b 3d
       -0.01854975 0.032097526 0.009888504 0.038006052
000360 40 47 94 3c 49 95 cd 3b 78 d8 b2 ba e8 6a c7 3b
       0.01810038 0.0062738997 -0.0013644835 0.0060857423
000370 9f 53 fa 3c b2 26 e5 bb ca cf 2f bd 85 16 8f bc
       0.030557452 -0.006993138 -0.042922772 -0.017466793
000380 b0 15 b0 bc 77 90 32 bd 89 54 01 bd d8 16 43 3d
       -0.021494716 -0.043594804 -0.03157476 0.047629207
000390 b4 4a e9 39 93 8f 34 3d af e1 7d bc 44 48 02 3c
       0.0004449688 0.044082236 -0.015495702 0.0079518
0003a0 18 5f d2 3c 38 b5 1b 3d 46 c7 ff bc 53 94 3e bc
       0.02568011 0.03801462 -0.03122295 -0.011632043
0003b0 bf 67 7e 3d e2 2b 87 bc 39 dd a6 bc e9 5e d5 3b
       0.06211066 -0.016500417 -0.020369159 0.0065115583
0003c0 f7 cc f2 bc 98 6c 8e bc ff 59 39 3c 12 8c e3 bc
       -0.02963875 -0.017385766 0.011312961 -0.027776752
0003d0 0f a1 81 bd ad 32 01 bd 27 e7 4a bd 1a f3 1c 3c
       -0.063295476 -0.03154247 -0.04953685 0.009579444
0003e0 9e a5 e0 3c 97 e7 1a 3d 36 6c 41 3d ec 0e a0 3c
       0.027422722 0.037818518 0.04722234 0.019538365
0003f0 c0 3a cb bc 28 c4 27 bd 4c 70 01 bd 23 f9 ba 3b
       -0.024808288 -0.040958554 -0.031601235 0.005705969

onnx::Conv_84 f4 [32]
000000 9c f4 38 3e 08 65 f7 be c7 32 44 bf aa e6 5f bd
       0.18062061 -0.48319268 -0.7663998 -0.054663338
000010 06 30 5d bc 48 95 dd 3c 48 e1 30 bd 40 1f b4 3e
       -0.013500219 0.027048722 -0.043183595 0.35180092
000020 88 44 d0 be f0 9a 58 bb 76 be 01 be 1a 00 8a 3e
       -0.40677285 -0.0033051334 -0.12670311 0.26953202
000030 4e b3 bc bd c4 90 0e bf 28 d3 4f 3c 54 c4 bc 3c
       -0.09213887 -0.55689645 0.012684621 0.023042835
000040 d8 c2 3f bf 59 b3 4f 3c 1c f9 f8 3e 97 af dd 3e
       -0.7490668 0.012677037 0.48627555 0.43298027
000050 50 ad b2 3b 96 be a0 bc d4 f9 b5 3e 6d 67 e8 bd
       0.0054527894 -0.019622128 0.35542166 -0.11347852
000060 3a 96 b9 3e 6b ae 3a be ad ee 83 be 3f d4 57 3d
       0.36247426 -0.18230598 -0.25768033 0.052692648
000070 e0 52 47 3e 1f 7f 2c bf 46 21 cd 3e 3b 10 0a bf
       0.19465208 -0.6738147 0.40064448 -0.53931016

onnx::Conv_86 f4 [32, 32, 3, 3]
000000 11 f6 67 bd af 2f 9e 3b a9 66 92 bb ac 80 3b bd
       -0.05663115 0.0048274617 -0.0044678045 -0.045777008
000010 ec c2 15 bc 21 3b 78 bc 04 5d 98 bd da 46 50 bd
       -0.009140711 -0.015150816 -0.07439616 -0.05084882
000020 34 c8 28 bd 02 db 09 3d 93 37 4f bd c0 8f c4 bc
       -0.041206554 0.033656128 -0.05059011 -0.023994327
000030 1c d8 ec 3d 77 84 53 bb 3a da 4d 3d b1 b7 d3 3d
       0.11564657 -0.0032275 0.050256945 0.10337771
000040 b3 56 62 3d 14 79 3c 3d 17 a6 51 3b a2 45 b6 bb
       0.055258464 0.046013907 0.0031989866 -0.0055625
000050 dc ad 9c bd a4 b1 6c bd 3d f2 7e 39 d2 49 85 bd
       -0.076503485 -0.0577866 0.00024313568 -0.06508221
000060 49 e8 d4 bc b4 a6 13 bb 14 dc 73 bd d3 fc b8 bc
       -0.025989668 -0.0022529783 -0.059536055 -0.022581493
000070 91 0f e4 bc 26 bd 6e bd 75 a3 82 bd 8d 4c 8f bc
       -0.027839454 -0.058285855 -0.06378833 -0.017492557
000080 e4 1a 21 bd ac 0b 2b bd c0 f5 12 3c f0 77 b1 3c
       -0.039332286 -0.041759178 0.008969724 0.021663636
000090 3e bc 48 3c 94 7b 41 bd 8b ae 83 bd de 19 ba 3b
       0.012251912 -0.047236994 -0.06429776 0.005679353
0000a0 e1 92 40 bd 29 5b a2 bd 22 75 cd 3b 47 91 3e bd
       -0.047015075 -0.07927544 0.006270067 -0.046525266
0000b0 b8 2d 8d bd 99 43 28 bc 87 d1 32 bc a5 19 38 bb
       -0.06893486 -0.010270023 -0.010914213 -0.0028091457
0000c0 a5 ae b6 bb 0c ee f7 bb 9c 03 98 bb 8b c3 42 3b
       -0.0055750185 -0.007566219 -0.004639102 0.0029718603
0000d0 61 ac 10 3b 7c 96 fe 3a f1 88 5c bc b3 e1 85 bc
       0.0022075402 0.001942351 -0.013460384 -0.016342973
0000e0 26 f8 66 bc 51 9d 4b 3d ef 01 7e 3d d2 0a 8e 3d
       -0.014097249 0.049710575 0.062013563 0.069356576
0000f0 0b 0c 3f bb ed bb 82 3c 11 23 85 3c a2 a5 d1 bd
       -0.0029151465 0.01595875 0.016252073 -0.1023667
000100 e8 72 c7 3b ee b3 0a 3d ea 54 76 bc 4d 84 05 bc
       0.006086696 0.033863 -0.0150348935 -0.008149219
000110 ae 4c a2 bc 94 bf 4d ba 3d 11 87 3c ec 03 52 3b
       -0.019811954 -0.0007848677 0.016487712 0.0032045795
000120 63 6c b0 3c 9f 41 85 3c d6 f8 2b 3d ed 7a f0 39
       0.021536058 0.016266642 0.041985355 0.00045867954
000130 dd 05 b8 3c d3 1d 3a 3d 7b b5 b4 38 cd 0a 40 3c
       0.022463733 0.0454386 8.616872e-05 0.011721325
000140 5f 21 0b 3d 63 c8 23 3d fd ad 9e 3a cb e3 99 bd
       0.033967372 0.039986026 0.0012106296 -0.07514151
000150 bd 30 6a 3d 94 98 7c 3c bb 40 c0 bd 07 18 13 3d
       0.057175387 0.015417237 -0.09387346 0.035911586
000160 37 bf 00 bd 96 a1 ea bd 27 31 68 bd 46 7b 85 bd
       -0.031432357 -0.11456601 -0.0566875 -0.06517653
000170 0a 5c 46 bd 3d 0c 5f bd 5a 57 f7 bc 76 15 96 3c
       -0.04842762 -0.05445503 -0.03019302 0.01832078
000180 ca ac 8a bc 6d 92 29 bd 54 4f a5 3d 96 cb 07 bd
       -0.016928095 -0.041399408 0.08071771 -0.03315314
000190 25 4d 56 bd 73 e2 94 bb 2a 03 a2 3d ef 28 a3 3d
       -0.052319665 -0.0045435964 0.0791076 0.07966792
0001a0 1e d4 a0 3d 7e e7 ff 3c 02 21 40 3d b7 fd 88 3d
       0.07852958 0.031238314 0.04690648 0.06689017
0001b0 14 4e 8b bd 42 2a 50 bd 06 4a c6 bd ad 16 c1 bc
       -0.068020016 -0.05082155 -0.096820876 -0.023570383
0001c0 b1 43 69 bc 66 d9 7f bd 88 cc c8 bc 00 bf 67 bd
       -0.01423733 -0.062463187 -0.02451159 -0.056578636
0001d0 05 0c a7 bd f5 2a ca bb d3 d9 e9 bd 38 17 20 be
       -0.081565894 -0.0061696717 -0.114185 -0.15633857
0001e0 84 27 8c 3a a3 a0 a3 bc de 7a 69 bd 4b ea d3 3c
       0.0010692929 -0.019974058 -0.05700194 0.025868556
0001f0 79 a1 44 3d a7 31 4b bc 53 db 30 bc 15 7b 1b bd
       0.048005555 -0.012401975 -0.0107944785 -0.037959177
000200 fb a4 01 3e 3a e4 9c 3c eb 60 26 3c 59 f5 04 3e
       0.12660591 0.019151796 0.010154943 0.12984218
000210 7a ad 0d bd eb e7 94 bc 59 f4 db 3d 08 44 a4 bd
       -0.03458927 -0.018176993 0.10739965 -0.080207884
000220 d6 18 37 bd ae 33 78 bd 7e da d2 3b 14 d7 6c 3d
       -0.04470142 -0.06059616 0.0064347377 0.057822302
000230 07 19 5e bd 5e 58 a3 3d 97 dc b3 3d 02 11 b2 3d
       -0.054223087 0.07975839 0.087823085 0.0869465
000240 fc d3 87 3c 4b 5d 14 3c cc 3f 01 be 4a 70 6e 3d
       0.016580574 0.009055446 -0.12621993 0.058212556
000250 eb ea 37 3d 41 51 90 bd be b4 69 bd c8 f2 1c bd
       0.04490177 -0.07046748 -0.057057135 -0.03831747
000260 20 e6 04 bd 23 41 51 bd cc 10 b8 bc eb dc b9 bc
       -0.032446027 -0.05108751 -0.022468947 -0.02268835
000270 10 f2 f2 bc 78 2d 4c bb e7 46 d3 3b 8c d5 b3 bc
       -0.02965644 -0.0031155031 0.006447661 -0.021952413
000280 d3 09 95 b9 76 e4 eb 3b eb 09 a6 bc d1 f6 ab 3c
       -0.00028426814 0.0071988655 -0.020268401 0.020991715
000290 ce 7f 96 bc de dd 7d 3b e8 e0 53 3d 0e 22 96 3c
       -0.018371489 0.003873698 0.05172816 0.018326785
0002a0 59 09 e3 3c 63 01 88 3d 83 61 39 3d 1a c1 62 bd
       0.027714418 0.066408895 0.04525901 -0.055359937
0002b0 31 b8 10 bd 32 57 e6 bd 24 29 24 bb 7d bf c5 3c
       -0.03533191 -0.112471 -0.0025048936 0.02413916
0002c0 bc 89 3c 3c 77 c6 d5 bc 53 1d e2 bc d6 56 4a bc
       0.011507448 -0.026095612 -0.027601874 -0.012349805
0002d0 67 14 04 bc a3 84 ec 3d c6 56 9f bc 43 db cc bc
       -0.008061505 0.11548736 -0.019450556 -0.025006896
0002e0 c8 78 ed 3c 41 d5 7d bb a2 92 18 3c 29 ee d6 3d
       0.028988257 -0.0038731846 0.009312304 0.10494644
0002f0 80 09 ab 3b a3 ef 8f bd 86 43 71 bc 68 32 9c 3d
       0.0052196383 -0.07028129 -0.0147255715 0.07626802
000300 1d be 2f bd f2 e2 ae 3c 84 77 fc 3d 31 a2 88 bd
       -0.042905916 0.02134845 0.12327483 -0.066715606
000310 b8 0b 7f bd 60 86 50 3d 88 86 86 bb d9 2d cd 3a
       -0.062267035 0.0509094 -0.004105393 0.0015653922
000320 94 44 ef 3b 65 9a d8 3c b0 88 14 3d 2e 8f 82 3d
       0.0073018763 0.026440809 0.036263168 0.063749656
000330 95 18 57 bb 6d c2 fb 3c b8 b0 b2 3d ef b6 11 bd
       -0.0032821049 0.030732358 0.08725113 -0.03557485
000340 73 3e ca bc 54 58 53 bd 6a f7 27 bc 84 46 1f 3d
       -0.024687981 -0.05159791 -0.010251859 0.03888561
000350 cd a5 96 bc 2c 21 81 3a 11 2b c7 bb 66 e6 10 bd
       -0.018389607 0.0009851805 -0.006078132 -0.035375975
000360 e8 b0 9c bc f0 39 e4 3c d1 5e a8 3c e7 88 8c bd
       -0.019127324 0.027859658 0.020553024 -0.068620495
000370 b3 30 ce bc 2a 3d 02 bc 36 cf 02 3d 9a 6c b2 3c
       -0.025169706 -0.007949153 0.031935893 0.0217803
000380 a4 f5 ca 3d 3a fb bb 3b b5 2d f6 bc ee 1f 83 3d
       0.099101335 0.0057367356 -0.030051092 0.064025745
000390 03 32 60 bb aa 35 c8 bc cc aa 4d 3b a4 b7 1f bd
       -0.0034209497 -0.024439652 0.003138232 -0.038993493
0003a0 e8 bc 4a bd 4f c8 02 3d d6 69 88 bc 49 a4 2a bc
       -0.04949656 0.03192931 -0.016652029 -0.010415145
0003b0 ad 7c 8d bc 96 57 ad 3c 7c af 24 bb cd 2e 09 3c
       -0.017271364 0.021159928 -0.002512901 0.008372975
0003c0 59 bd 82 bd 56 99 45 3c 42 ec 7f b9 8f 18 52 3d
       -0.063837714 0.012060484 -0.00024406708 0.051292952
0003d0 90 12 12 bc eb 5a 90 bc b0 60 c8 3b da 29 84 bb
       -0.008915558 -0.017621478 0.0061150417 -0.0040333094
0003e0 4f 9d 17 3c ce 6e da 3d 0a 38 92 3d 29 72 b2 3d
       0.009253814 0.106656656 0.07139595 0.087131806
0003f0 4e b0 0a bc e8 19 02 bd b5 4b 45 bc db 4b 2c 3c
       -0.008464886 -0.031762987 -0.012041976 0.010516132

onnx::Conv_87 f4 [32]
000000 ca c7 91 3d 36 d7 dc 3d 2d dc 35 bd 1a 6e ee bc
       0.07118185 0.10783236 -0.04439943 -0.029105235
000010 5a 22 52 3e 5c 9c cf 3d 6f ea c0 3e 48 7c 4e be
       0.20520917 0.10137245 0.3767886 -0.20164597
000020 03 46 cf 3d 1e f8 b5 3e b0 c7 6f bd 92 65 c7 3d
       0.101207756 0.3554086 -0.058540046 0.0973617
000030 15 32 be 3e 67 65 5d be 29 e2 f6 3e 94 b7 cd 3e
       0.37147585 -0.21620713 0.48219422 0.40179121
000040 5e c8 b6 bd c0 cc f9 3e 66 90 ca 3c 06 d2 67 be
       -0.08924936 0.48789024 0.024727058 -0.22638711
000050 d1 2e 52 3e 65 05 43 3e 09 9f c5 3e 10 f7 62 bd
       0.20525672 0.19045027 0.38597897 -0.0554114
000060 e5 24 c1 3d f6 00 a9 be 9a d4 0d 3e eb ad d0 bd
       0.09430865 -0.33008546 0.13850632 -0.10189422
000070 14 5e eb 3e f3 08 11 be 41 59 ce 3e 21 ba bf bd
       0.45970213 -0.1416357 0.4030247 -0.09361673

onnx::Conv_89 f4 [32, 16, 1, 1]
000000 f2 b7 de 3d c9 1a 3d 3e 23 fb e3 bd fc 4b a2 bd
       0.108749285 0.18467249 -0.11131885 -0.07924649
000010 a7 12 e6 3d 8b b9 e6 3c 2e 71 22 3e 33 1e 0a 3d
       0.112340264 0.028164646 0.15863487 0.033720206
000020 f1 31 4b 3d 2f e3 29 bd 5e 85 ff 3c 2a 43 44 bd
       0.049608175 -0.041476425 0.031191524 -0.047915615
000030 e6 ea e4 bd 16 5d cd 3c d7 10 f9 bd 64 57 c3 3d
       -0.11177616 0.0250688 -0.12161415 0.09538153
000040 d9 9a 53 bd 90 86 80 3e 14 fa 72 bd 70 93 29 3e
       -0.051661346 0.25102663 -0.059320524 0.16560149
000050 62 2d 19 be aa 56 38 bd 1f 55 b9 3c 87 71 68 3e
       -0.14958718 -0.045004524 0.022623597 0.22699557
000060 7f 4f 6f 3e dd 52 d2 3d a6 5d c1 bb 46 b2 bb bd
       0.23370169 0.10269711 -0.0059010563 -0.09164862
000070 9a da 1d be 68 c0 8b 3c 04 b4 25 be 1b d5 a7 bc
       -0.15415421 0.01705952 -0.16181952 -0.020487359
000080 36 a2 e7 bd 4a 9a 96 3d d8 0d 42 bd 3f e8 f6 3d
       -0.11310236 0.07353647 -0.047376484 0.12056016
000090 8e 57 7c bd 54 85 54 bd f6 bc 38 3e c3 0d 56 be
       -0.061606936 -0.051884964 0.18040833 -0.20903687
0000a0 11 58 bc bd b4 e5 91 bd c0 00 5b bb be 6c 47 bd
       -0.09196485 -0.071238905 -0.0033417195 -0.04868769
0000b0 16 2b ea bd 1b c4 11 3d 4a bf 03 bc 5a d4 eb bc
       -0.11433999 0.03558741 -0.008041212 -0.02878778
0000c0 a8 7c 68 3d 96 c9 f7 bc a9 2d 90 bd 91 37 31 3d
       0.056759506 -0.03024749 -0.07039959 0.043265883
0000d0 32 78 0e 3b bf 43 c1 bd 05 5f 91 bd 62 c1 c8 3c
       0.0021739122 -0.0943675 -0.07098202 0.024506275
0000e0 05 0e ba bc 76 63 1f bd f5 d1 02 3e b3 7d a2 bb
       -0.022711763 -0.038913213 0.12775405 -0.004958832
0000f0 d2 9d 26 bd f8 8c 08 bd cd fe 1c bc 5d 1d 62 3b
       -0.040677853 -0.033337563 -0.009582234 0.0034502365
000100 55 5f b5 3d 27 27 59 bd 91 36 5f bd 39 74 ca 3e
       0.08856074 -0.053015854 -0.054495398 0.39541796
000110 d9 88 cd 3e c0 c2 30 be 1b 01 98 be be 8a a9 3e
       0.4014347 -0.17261791 -0.29688343 0.33113664
000120 55 8f 76 3e a8 a7 e7 be 93 8b 35 be c6 3e 82 3e
       0.24078114 -0.452451 -0.17729025 0.25438517
000130 b8 01 58 bd 60 5d df be 52 5e 43 be 6f b3 ab 3e
       -0.052736014 -0.43625927 -0.19078949 0.33535334
000140 83 00 2d 3d 93 fb b9 bc 23 6e ea bc 8b dd b2 3d
       0.042236816 -0.022702968 -0.02861697 0.08733662
000150 7f 17 00 bd 7f 60 95 3c ee cc 0b bc 05 c3 27 bd
       -0.031272408 0.01823449 -0.008532746 -0.04095747
000160 ef 03 29 3d ef 9f c7 3d d4 1f 4c bd 13 35 ca 3d
       0.041263517 0.09747302 -0.04983504 0.09873404
000170 20 da 34 3d 98 29 39 3d dd f9 21 3d 27 37 91 3d
       0.044153333 0.045205683 0.03954493 0.070905976
000180 21 3b 62 3d d2 03 8d 3d ef 9b 93 3d 9a b9 e4 3d
       0.05523217 0.06885494 0.07207476 0.11168213
000190 8a 74 67 bd ad 34 97 3d 04 1f 7c 3d f4 2a 6e bd
       -0.056507625 0.07383094 0.061553016 -0.058146432
0001a0 55 8c b8 3d 5a d1 f3 3d 3b ce 4f 3d 6e ec 0d 3d
       0.09011141 0.11905165 0.050733786 0.034649305
0001b0 4b 98 da 3c 48 62 b6 3d 00 fe 36 3d 91 c6 0c bd
       0.026683947 0.089054644 0.044675827 -0.034369055
0001c0 a8 68 50 3e 82 d8 2f be 9b e7 fa bb fc 5f 96 bc
       0.20352423 -0.17172435 -0.007657004 -0.018356316
0001d0 83 2c c1 bd 1b 22 95 3e 05 7b 2d bd 42 13 6b be
       -0.09432318 0.29127583 -0.04235365 -0.22956565
0001e0 ab 0a a1 bd d8 44 2b be 4f 16 61 be d6 60 b2 3d
       -0.07863363 -0.1672548 -0.21981166 0.08709876
0001f0 16 bb 49 bb cc e2 c6 bb 2c 5d cd 3d 97 24 dd 3d
       -0.0030781678 -0.0060695168 0.10027537 0.107979946
000200 32 2f bb bd ac c1 f6 bd 99 aa b3 bc 2c 25 06 3e
       -0.09139861 -0.12048659 -0.021931933 0.13100117
000210 bb 55 c2 bd 8d 9a 33 be d1 81 fc 3d 8d 62 51 3d
       -0.09489008 -0.17539425 0.12329448 0.051119376
000220 c4 d3 23 be 9d 74 1b be a9 2e af 3d 35 69 48 3e
       -0.15998751 -0.15181203 0.085538216 0.19571383
000230 ae c0 35 3e d0 69 72 3e 5d a8 25 be f1 ae bc bb
       0.17749283 0.23673177 -0.16177507 -0.0057581593
000240 35 ff 84 3e 20 16 7d 3e 0d 02 1f 3e 1d 15 85 3e
       0.25975958 0.24715471 0.15528126 0.2599267
000250 8c 82 7f bb b6 e6 04 3e a9 ce d3 3d 6f d5 83 3d
       -0.0038987724 0.12978634 0.10342152 0.064371936
000260 c5 88 62 bd 7d 9a 12 3e 9d b4 18 3d 7a d9 a5 3d
       -0.055306215 0.14316745 0.03728162 0.08098121
000270 7c 5e df bc a3 c9 fe 3d 2e fb 4b be 1a ed cf bd
       -0.027266733 0.12440803 -0.19920036 -0.101526454
000280 09 7e eb 3d 16 71 5f 3d 48 65 4a 3e a0 e5 20 bd
       0.11498649 0.054551207 0.19765198 -0.039281487
000290 aa cd c7 bd e2 90 22 3e 8e f5 4b bb f7 a5 24 3e
       -0.09756024 0.15875581 -0.0031121704 0.16078936
0002a0 e2 22 e7 3d bf d9 00 3e 49 cd 83 3d 91 ee 06 be
       0.1128595 0.12583064 0.064356394 -0.13176943
0002b0 59 af 3c 3d 60 30 28 3e 4f 1a 68 be 9b 97 07 bd
       0.046065662 0.16424704 -0.22666286 -0.033103567
0002c0 45 f1 1c be 89 7c 8f 3c 58 59 03 be d0 80 7e bb
       -0.15326412 0.017515438 -0.1282705 -0.0038834102
0002d0 13 ee ce 3d 0a da cd bd f6 15 ee 3d a4 4c 61 bd
       0.10104003 -0.10051353 0.116252825 -0.05500473
0002e0 c3 ab d8 3c ea d5 d6 bd 3f d9 12 3e 86 d8 77 3d
       0.02644909 -0.104900196 0.14340685 0.060509227
0002f0 e1 f1 48 3e fd 57 df 3d 53 ae dd bd c2 98 5d 3c
       0.1962352 0.10905454 -0.10824265 0.01352519
000300 ee 3b bb 3d e7 68 b3 3d 1e 5e 65 3e a3 59 4a 3d
       0.0914229 0.08760243 0.22399184 0.04940189
000310 59 85 b8 bc 7a 73 2b bd 81 75 48 3e be 75 70 be
       -0.022524523 -0.041858174 0.19576074 -0.23482415
000320 7a 70 8a 3d 06 fc ee 3d 08 94 6f 3d 17 47 3c 3d
       0.067597345 0.116691634 0.058490783 0.045966234
000330 aa 3b e0 3d 14 0d 27 3e d9 1f 8a 3d 00 c5 78 3d
       0.1094888 0.16313583 0.06744356 0.06073475
000340 19 ee 38 3d 98 23 04 3e fc 49 ac bc 75 d3 27 3e
       0.045148943 0.12904203 -0.021031372 0.16389258
000350 bf 5f 0e be 6a 5a c3 bd 43 c5 01 be ef 1f 11 3d
       -0.13903712 -0.095387295 -0.12672906 0.035430845
000360 c0 21 1a be 2c a3 06 be f8 94 26 be 53 1e 2e 3e
       -0.15051937 -0.13148183 -0.16267765 0.17003755
000370 0c 00 43 3e eb 23 88 bd 18 50 38 3e c7 32 27 be
       0.19042987 -0.06647476 0.17999303 -0.16327964
000380 e6 54 e3 3d 87 6c 09 3e 60 a8 8f bc a0 10 62 bd
       0.111001775 0.13420306 -0.017536342 -0.055191636
000390 79 22 a4 bd 81 29 a2 be 88 c5 dc 3d 27 65 c4 3d
       -0.08014388 -0.3167229 0.107798636 0.09589606
0003a0 e5 24 46 bd 08 e7 0e 3d 82 af 45 3e 6c d7 28 3e
       -0.04837503 0.034888297 0.19305232 0.16488427
0003b0 65 f6 98 bd ca 50 51 be db 9b 4d 3e ae 1b ac 3d
       -0.07468871 -0.20440975 0.20078985 0.08403717
0003c0 00 b0 e9 3e c3 b4 4e 3d 62 e1 74 3e 8c 73 65 3e
       0.4564209 0.050465357 0.23914102 0.22407359
0003d0 7b c0 0a bd 1e f8 81 bd 48 c4 da 3d 9a 3f b4 3e
       -0.03387497 -0.06346153 0.10681969 0.35204774
0003e0 50 f7 39 be 8e 28 85 3e c2 df cb 3d 0d fc 84 be
       -0.18160748 0.26007503 0.09954788 -0.2597355
0003f0 14 9b 22 3e 3f d7 af be 62 99 9d bc 9b 4b c7 3c
       0.1587947 -0.34343907 -0.019238178 0.024328044

onnx::Conv_90 f4 [32]
000000 03 ba 41 be 9e 18 a7 be 4a e2 2a 3e 31 be 61 3d
       -0.18918614 -0.3263597 0.16687885 0.05511302
000010 55 50 0a 3d 8f 56 5e be 1f 30 dc be 22 91 52 3e
       0.033768017 -0.21712707 -0.43005463 0.20563176
000020 75 19 c1 bb 3e 10 44 bf d2 c6 cd be f2 8f a6 bd
       -0.0058929273 -0.76587284 -0.4019075 -0.08132924
000030 e7 5b 15 bf de 59 8d 3d 54 8b 36 be 66 ee 20 bf
       -0.58343357 0.069019064 -0.17826587 -0.6286377
000040 12 3a 5a 3e 25 2b d2 be 02 f7 85 3e 48 b8 7d 3c
       0.21311215 -0.41048542 0.26165015 0.015485831
000050 cf 3d 8b 3d bf 1c 5d be 48 12 31 be 3e 89 d9 be
       0.067988984 -0.21592997 -0.1729213 -0.4248752
000060 42 a1 23 3e c6 e9 91 3e a1 02 11 3c db 35 c3 3e
       0.15979484 0.28498667 0.008850724 0.38127026
000070 2c 3e b5 3c 9a 74 6c 3d b8 c1 3a be b1 8f bc 3e
       0.022124372 0.057728387 -0.1823796 0.36828378

onnx::Conv_92 f4 [64, 32, 3, 3]
000000 00 00 00 80 00 00 00 80 00 00 00 00 00 00 00 00
       -0.0 -0.0 0.0 0.0
000010 00 00 00 80 00 00 00 80 00 00 00 00 00 00 00 00
       -0.0 -0.0 0.0 0.0
000020 00 00 00 00 00 00 00 00 00 00 00 00 00 00 00 80
       0.0 0.0 0.0 -0.0
000030 00 00 00 80 00 00 00 80 00 00 00 80 00 00 00 00
       -0.0 -0.0 -0.0 0.0
000040 00 00 00 00 00 00 00 00 00 00 00 80 00 00 00 80
       0.0 0.0 -0.0 -0.0
000050 00 00 00 80 00 00 00 80 00 00 00 00 00 00 00 80
       -0.0 -0.0 0.0 -0.0
000060 00 00 00 00 00 00 00 80 00 00 00 80 00 00 00 80
       0.0 -0.0 -0.0 -0.0
000070 00 00 00 80 00 00 00 00 00 00 00 80 00 00 00 80
       -0.0 0.0 -0.0 -0.0
000080 00 00 00 80 00 00 00 00 00 00 00 00 00 00 00 00
       -0.0 0.0 0.0 0.0
000090 00 00 00 80 00 00 00 80 00 00 00 80 00 00 00 00
       -0.0 -0.0 -0.0 0.0
0000a0 00 00 00 00 00 00 00 80 00 00 00 80 00 00 00 00
       0.0 -0.0 -0.0 0.0
0000b0 00 00 00 80 00 00 00 00 00 00 00 80 00 00 00 00
       -0.0 0.0 -0.0 0.0
0000c0 00 00 00 00 00 00 00 80 00 00 00 80 00 00 00 80
       0.0 -0.0 -0.0 -0.0
0000d0 00 00 00 00 00 00 00 00 00 00 00 00 00 00 00 00
       0.0 0.0 0.0 0.0
0000e0 00 00 00 80 00 00 00 00 00 00 00 00 00 00 00 80
       -0.0 0.0 0.0 -0.0
0000f0 00 00 00 80 00 00 00 80 00 00 00 80 00 00 00 80
       -0.0 -0.0 -0.0 -0.0
000100 00 00 00 00 00 00 00 00 00 00 00 80 00 00 00 00
       0.0 0.0 -0.0 0.0
000110 00 00 00 80 00 00 00 80 00 00 00 80 00 00 00 80
       -0.0 -0.0 -0.0 -0.0
000120 00 00 00 80 00 00 00 00 00 00 00 80 00 00 00 00
       -0.0 0.0 -0.0 0.0
000130 00 00 00 00 00 00 00 80 00 00 00 00 00 00 00 80
       0.0 -0.0 0.0 -0.0
000140 00 00 00 80 00 00 00 00 00 00 00 80 00 00 00 00
       -0.0 0.0 -0.0 0.0
000150 00 00 00 80 00 00 00 80 00 00 00 80 00 00 00 00
       -0.0 -0.0 -0.0 0.0
000160 00 00 00 80 00 00 00 00 00 00 00 80 00 00 00 00
       -0.0 0.0 -0.0 0.0
000170 00 00 00 00 00 00 00 00 00 00 00 00 00 00 00 80
       0.0 0.0 0.0 -0.0
000180 00 00 00 00 00 00 00 80 00 00 00 00 00 00 00 00
       0.0 -0.0 0.0 0.0
000190 00 00 00 00 00 00 00 80 00 00 00 80 00 00 00 80
       0.0 -0.0 -0.0 -0.0
0001a0 00 00 00 80 00 00 00 80 00 00 00 00 00 00 00 00
       -0.0 -0.0 0.0 0.0
0001b0 00 00 00 00 00 00 00 00 00 00 00 80 00 00 00 80
       0.0 0.0 -0.0 -0.0
0001c0 00 00 00 00 00 00 00 00 00 00 00 00 00 00 00 00
       0.0 0.0 0.0 0.0
0001d0 00 00 00 80 00 00 00 80 00 00 00 80 00 00 00 80
       -0.0 -0.0 -0.0 -0.0
0001e0 00 00 00 00 00 00 00 80 00 00 00 00 00 00 00 80
       0.0 -0.0 0.0 -0.0
0001f0 00 00 00 80 00 00 00 80 00 00 00 00 00 00 00 00
       -0.0 -0.0 0.0 0.0
000200 00 00 00 80 00 00 00 00 00 00 00 80 00 00 00 00
       -0.0 0.0 -0.0 0.0
000210 00 00 00 00 00 00 00 00 00 00 00 80 00 00 00 80
       0.0 0.0 -0.0 -0.0
000220 00 00 00 80 00 00 00 80 00 00 00 80 00 00 00 80
       -0.0 -0.0 -0.0 -0.0
000230 00 00 00 80 00 00 00 80 00 00 00 00 00 00 00 00
       -0.0 -0.0 0.0 0.0
000240 00 00 00 80 00 00 00 00 00 00 00 00 00 00 00 80
       -0.0 0.0 0.0 -0.0
000250 00 00 00 80 00 00 00 80 00 00 00 80 00 00 00 80
       -0.0 -0.0 -0.0 -0.0
000260 00 00 00 00 00 00 00 00 00 00 00 00 00 00 00 80
       0.0 0.0 0.0 -0.0
000270 00 00 00 00 00 00 00 00 00 00 00 80 00 00 00 00
       0.0 0.0 -0.0 0.0
000280 00 00 00 80 00 00 00 00 00 00 00 00 00 00 00 80
       -0.0 0.0 0.0 -0.0
000290 00 00 00 00 00 00 00 00 00 00 00 00 00 00 00 80
       0.0 0.0 0.0 -0.0
0002a0 00 00 00 00 00 00 00 00 00 00 00 80 00 00 00 80
       0.0 0.0 -0.0 -0.0
0002b0 00 00 00 00 00 00 00 80 00 00 00 80 00 00 00 00
       0.0 -0.0 -0.0 0.0
0002c0 00 00 00 80 00 00 00 00 00 00 00 00 00 00 00 00
       -0.0 0.0 0.0 0.0
0002d0 00 00 00 00 00 00 00 80 00 00 00 00 00 00 00 80
       0.0 -0.0 0.0 -0.0
0002e0 00 00 00 00 00 00 00 00 00 00 00 80 00 00 00 00
       0.0 0.0 -0.0 0.0
0002f0 00 00 00 00 00 00 00 00 00 00 00 80 00 00 00 80
       0.0 0.0 -0.0 -0.0
000300 00 00 00 00 00 00 00 00 00 00 00 00 00 00 00 80
       0.0 0.0 0.0 -0.0
000310 00 00 00 80 00 00 00 00 00 00 00 00 00 00 00 00
       -0.0 0.0 0.0 0.0
000320 00 00 00 00 00 00 00 00 00 00 00 80 00 00 00 80
       0.0 0.0 -0.0 -0.0
000330 00 00 00 80 00 00 00 80 00 00 00 80 00 00 00 00
       -0.0 -0.0 -0.0 0.0
000340 00 00 00 80 00 00 00 00 00 00 00 80 00 00 00 80
       -0.0 0.0 -0.0 -0.0
000350 00 00 00 80 00 00 00 80 00 00 00 00 00 00 00 00
       -0.0 -0.0 0.0 0.0
000360 00 00 00 80 00 00 00 80 00 00 00 00 00 00 00 80
       -0.0 -0.0 0.0 -0.0
000370 00 00 00 80 00 00 00 80 00 00 00 00 00 00 00 00
       -0.0 -0.0 0.0 0.0
000380 00 00 00 80 00 00 00 80 00 00 00 00 00 00 00 80
       -0.0 -0.0 0.0 -0.0
000390 00 00 00 80 00 00 00 00 00 00 00 00 00 00 00 00
       -0.0 0.0 0.0 0.0
0003a0 00 00 00 00 00 00 00 80 00 00 00 80 00 00 00 00
       0.0 -0.0 -0.0 0.0
0003b0 00 00 00 80 00 00 00 80 00 00 00 00 00 00 00 00
       -0.0 -0.0 0.0 0.0
0003c0 00 00 00 80 00 00 00 80 00 00 00 80 00 00 00 80
       -0.0 -0.0 -0.0 -0.0
0003d0 00 00 00 80 00 00 00 00 00 00 00 00 00 00 00 00
       -0.0 0.0 0.0 0.0
0003e0 00 00 00 00 00 00 00 80 00 00 00 00 00 00 00 00
       0.0 -0.0 0.0 0.0
0003f0 00 00 00 00 00 00 00 80 00 00 00 00 00 00 00 00
       0.0 -0.0 0.0 0.0

onnx::Conv_93 f4 [64]
000000 ca 0c 00 00 3d c5 8d bd 66 16 43 be e6 af ad bc
       4.588e-42 -0.06922386 -0.19051513 -0.021202039
000010 7b cd 6e bd ec 84 f6 bc 94 6c 1e 9b 1e b2 58 bc
       -0.05830143 -0.030092679 -1.3104537e-22 -0.01322606
000020 89 7c 01 80 91 14 dd bd 60 56 83 38 38 81 5f bd
       -1.3651e-40 -0.10794938 6.2626554e-05 -0.054566592
000030 97 48 16 be 8a 61 0a 3e 66 bf 0f bd b6 b0 8f bd
       -0.14676128 0.1351377 -0.03509464 -0.07016127
000040 85 1c 8f bb 68 b7 44 bd ba 45 a9 bd 67 fb 83 be
       -0.0043674135 -0.048026472 -0.082652524 -0.25777742
000050 1a 99 45 3d 77 cb 86 bc e5 28 5f bd 7d f7 07 b0
       0.048241712 -0.016454441 -0.05448236 -4.9464416e-10
000060 5d d9 f7 3d 32 a3 e9 3d d8 be 72 3e 3b 21 8a bc
       0.12102006 0.1140808 0.23705614 -0.016861549
000070 d1 a2 71 bd 52 cd 14 bd f7 30 63 3e 28 cf ec bd
       -0.058993164 -0.03632862 0.22186647 -0.115629494
000080 14 7a 38 be 24 1e 00 00 2b ac cd bd ee 1e b3 bc
       -0.18015319 1.0812e-41 -0.10042604 -0.021865334
000090 5c 64 2f bd d0 45 99 bc 64 ff b4 3c e0 3b b2 9b
       -0.04282032 -0.018710047 0.022094436 -2.9486323e-22
0000a0 d6 35 d4 bc 10 df 4a bb ad d9 94 be a2 f0 0e 3e
       -0.025904577 -0.003095571 -0.29072323 0.13958982
0000b0 86 c2 ee b9 d4 72 69 bd 90 62 2b bd 75 79 46 bd
       -0.0004553983 -0.056994274 -0.041842043 -0.048455674
0000c0 14 53 30 bc 77 17 0c bc d6 81 47 3e 65 a3 c6 bc
       -0.010761995 -0.008550516 0.19483122 -0.024247834
0000d0 7e bd ab 3d e7 ea 8f bd 20 3c 96 bb b4 17 28 bd
       0.08385752 -0.07027226 -0.004584804 -0.04103823
0000e0 ba 32 40 bc 07 e5 51 be fb 48 1e be 8e 87 6f bc
       -0.011730844 -0.20497523 -0.15457527 -0.014619721
0000f0 18 ec 2f 3e 5e b2 97 bc cb 20 a6 bc 30 87 86 be
       0.17179906 -0.01851767 -0.020279309 -0.26275015
