cmd/ai/datas/models/strawberry_in_a_basket.onnx (onnx, 302121 bytes, 16 tensors)

fc.weight f4 [2, 256]
0	0xbdf4ad95	-0.11947171
1	0xbd583d9a	-0.052793123
2	0xbe055e84	-0.13024336
3	0xbdae9347	-0.08524185
4	0xbe5ba957	-0.21451317
5	0xbe51cc68	-0.20488131
6	0xbd3ef609	-0.046621356
7	0xbcdceac7	-0.02696742
8	0xbdae8209	-0.08520896
9	0xbde60704	-0.11231807
10	0xbdab2034	-0.08355752
11	0xbd05e1fe	-0.032686226
12	0x3c0982cd	0.008393002
13	0x3d02649e	0.031834237
14	0xbd1d9878	-0.038475484
15	0xbce8b0d2	-0.028404627
16	0x3de150fe	0.11001776
17	0x3e145f58	0.14489496
18	0x3d44b4d4	0.048024014
19	0x3ded34c9	0.115823336
20	0x3d207576	0.03917452
21	0x3dfaea1d	0.12251685
22	0x3db3867b	0.087658845
23	0x3deb5797	0.11491316
24	0x3c2d44cc	0.0105754845
25	0x3b3fc8c7	0.002926396
26	0xbb8d736e	-0.004316739
27	0xbc53caed	-0.012926799
28	0xbb164b99	-0.0022933243
29	0xbc08cee4	-0.008350108
30	0x3aa7e489	0.0012809198
31	0x3b8c38f4	0.0042792503
32	0x3dccbfa8	0.09997493
33	0x3d96ee44	0.07369664
34	0x3e1b39fa	0.15158835
35	0x3e165c7d	0.14683719
36	0xbdfdc6f9	-0.12391467
37	0xbe0a4b26	-0.1350523
38	0x3c291a85	0.010321264
39	0x3c76a34f	0.015053584
40	0x3ce853b6	0.028360229
41	0xbc81fe18	-0.015868232
42	0x3df2d2e6	0.11856632
43	0x3e0341ca	0.12818065
44	0xb914e5e9	-0.00014200028
45	0xb92233eb	-0.00015468865
46	0x3a47a7b5	0.0007616238
47	0xb9a1e6f6	-0.00030880392
48	0xbd905e90	-0.07049286
49	0xbdac8c22	-0.08425166
50	0x3d84f06c	0.06491169
51	0x3c274d15	0.010211249
52	0x3e1db2fd	0.1540031
53	0x3e2e71c7	0.1703559
54	0x3df9ce84	0.12197593
55	0x3e2b4dcf	0.167289
56	0x3df4dc44	0.11956075
57	0x3db71b9f	0.08940815
58	0x3e0f1288	0.13971913
59	0x3e296b2f	0.16544794
60	0xbb1971c4	-0.0023413757
61	0x3b924cf9	0.0044647423
62	0xbc39021a	-0.011292005
63	0x3ae405e8	0.001739678
64	0x3e06121d	0.13092847
65	0x3e3b54a3	0.18294005
66	0xbd67ac4a	-0.056560792
67	0xbb8a2f6e	-0.00421708
68	0xbda82a6f	-0.082112186
69	0xbdd37951	-0.10325874
70	0x3d6e2cfa	0.05814836
71	0x3d180fa0	0.037124276
72	0x37f5024a	2.9207342e-05
73	0x37f9da47	2.9784756e-05
74	0xb875bc39	-5.8587848e-05
75	0x375675e6	1.2782844e-05
76	0x3a0f5b36	0.00054686086
77	0x38ed148e	0.00011304869
78	0xba923b7c	-0.0011156644
79	0x3a8d590f	0.0010783988
80	0xb8a4c5b4	-7.8569545e-05
81	0x38a80d5a	8.013351e-05
82	0xb9ac612c	-0.00032878795
83	0xb839e9a8	-4.4325046e-05
84	0xb8fd2088	-0.000120700395
85	0x37f338c9	2.89943e-05
86	0x3a22dff3	0.00062131806
87	0xb8ea8c0d	-0.00011184076
88	0x3c86ee84	0.016471155
89	0xbe0c62cc	-0.13709563
90	0x3d18271a	0.037146665
91	0xbd89d455	-0.06729952
92	0xbd965b82	-0.073416725
93	0xbe1f9e45	-0.15587719
94	0xbd0c3b48	-0.034236223
95	0xbe1e0d8f	-0.1543486
96	0x3b859c39	0.004077461
97	0xbbd1f130	-0.0064069256
98	0x388f7512	6.8405774e-05
99	0xbb4be930	-0.0031114332
100	0x3711d206	8.691573e-06
101	0xb7295686	-1.009333e-05
102	0xb606e855	-2.010279e-06
103	0x3688549e	4.0629666e-06
104	0x3a8f60c2	0.001093887
105	0x3b0167fe	0.0019745822
106	0xbaacb40e	-0.0013176219
107	0xba8410bb	-0.0010075787
108	0xbdfa6872	-0.122269526
109	0xbdc43320	-0.09580064
110	0x3d68c5c5	0.056829233
111	0xbcadb742	-0.021205548
112	0x3c94b928	0.018154696
113	0x3d4bc48e	0.049747996
114	0xbd5f0f1d	-0.054457773
115	0xbd244658	-0.040106148
116	0xbdc0b943	-0.09410336
117	0xbe1a2c88	-0.1505605
118	0xbda97367	-0.082739644
119	0xbe1d1498	-0.15339887
120	0xbcce0f52	-0.02515379
121	0xbd33a4a9	-0.043858204
122	0x3d1d8f30	0.038466632
123	0x3c021587	0.007939703
124	0xbd8c5993	-0.068530224
125	0xbd82a2ae	-0.06378685
126	0x3cda5ed2	0.026656542
127	0x3c87e3c6	0.016588103
128	0x37ba6cf6	2.2223667e-05
129	0xb7afc16e	-2.0951698e-05
130	0xb840e331	-4.5987956e-05
131	0xb8b12f79	-8.44886e-05
132	0xbd91bf3a	-0.07116552
133	0xbcef6759	-0.029224085
134	0x3d96dee5	0.073667325
135	0x3da9d07b	0.082917176
136	0x3c026a6a	0.007959941
137	0xbb8736f2	-0.004126423
138	0x3b28af6b	0.0025739323
139	0xbc7c96f5	-0.01541685
140	0x3e2668b5	0.1625088
141	0x3e3f3eb0	0.18676257
142	0xbd0ac539	-0.033879492
143	0x3dabfdce	0.08398019
144	0xb542d2f1	-7.257759e-07
145	0x309ab901	1.1257556e-09
146	0x369514c2	4.4429626e-06
147	0xb50d8ea8	-5.2734185e-07
148	0x3ccb6c50	0.02483192
149	0x3d37909e	0.044815652
150	0xbd8db9dc	-0.069202155
151	0xbd56be39	-0.052427504
152	0xbd5f574b	-0.05452661
153	0xbceb684b	-0.028736254
154	0x3c705ff4	0.0146713145
155	0x3d25f608	0.040517837
156	0x3cac327d	0.021020168
157	0x3cadf414	0.02123455
158	0x3cdd6a05	0.027028093
159	0x3c71155a	0.014714563
160	0x3dfc56e4	0.123212606
161	0x3e0b0a02	0.13578036
162	0x3e31fbdf	0.17381237
163	0x3e21e84a	0.15811267
164	0x3d2332a5	0.03984322
165	0x3c5f9c16	0.013648054
166	0xbc1bf14c	-0.009517979
167	0xbd807d28	-0.06273872
168	0xbe6571b3	-0.22406654
169	0xbe545803	-0.20736699
170	0x3b40ce01	0.0029419663
171	0xbc20f65c	-0.009824362
172	0x37cb37fb	2.4225554e-05
173	0xb407fb35	-1.2664243e-07
174	0xb8d40c24	-0.00010111209
175	0x37bdeb6c	2.2640183e-05
176	0x3d912724	0.070875436
177	0x3cbc52f8	0.022988781
178	0x3dd429fc	0.103595704
179	0x3dea61ab	0.1144441
180	0x3d4c691f	0.04990494
181	0x3e0c8c43	0.1372538
182	0xbc63dad4	-0.013907153
183	0x3da359fb	0.07976147
184	0xbde3c8b3	-0.11122265
185	0xbd7f6209	-0.062349353
186	0xbe107eea	-0.14110914
187	0xbdeb1ad8	-0.114797294
188	0x3b536a69	0.003225947
189	0xbbbbb5b5	-0.0057284483
190	0x3c86ac8d	0.0164397
191	0x3cad68c9	0.02116813
192	0xb7a21c85	-1.9325185e-05
193	0x37f431e2	2.9110295e-05
194	0xb8444d15	-4.680183e-05
195	0xb5e38c75	-1.6953696e-06
196	0x3d9d48cd	0.07679901
197	0x3df985f8	0.12183756
198	0xbd4c701f	-0.049911615
199	0xbcca5e41	-0.024703147
200	0x3d9b064a	0.07569559
201	0x3d50e621	0.051000718
202	0x3e2cbeb1	0.16869618
203	0x3e428f58	0.18999994
204	0x3c934ab8	0.017979965
205	0x3ca7db41	0.02049029
206	0xbc8dedca	-0.0173253
207	0xb9350e3d	-0.0001726681
208	0xbd8c380b	-0.06846627
209	0xbe39dee9	-0.1815144
210	0xbd30b18e	-0.04313808
211	0xbd2e6e16	-0.042585455
212	0x3d3da677	0.04630133
213	0x3d331c62	0.04372824
214	0x3d17c5e6	0.037053965
215	0x3e055684	0.13021284
216	0xbd8d3144	-0.06894162
217	0xbdf3b382	-0.11899473
218	0xbdadc30d	-0.084844686
219	0xbd8448d9	-0.06459207
220	0xbcf2b421	-0.029626908
221	0xbce695e7	-0.02814765
222	0x3cdecdf9	0.027197825
223	0x3b975881	0.004618705
224	0x361c462c	2.3286657e-06
225	0xb880ef57	-6.148096e-05
226	0xb7dc803d	-2.628576e-05
227	0x3885feb8	6.389379e-05
228	0xbdc447ee	-0.09584032
229	0x3ce6a45e	0.028154548
230	0xbe0f5a51	-0.13999297
231	0xbdb7cf03	-0.08975031
232	0xbcec08c6	-0.028812777
233	0xbd0df674	-0.034658864
234	0x3cf1a944	0.029499657
235	0x3c328779	0.010896557
236	0xb9b6e29b	-0.0003488258
237	0x38de7dbd	0.000106092055
238	0xb89f1594	-7.58573e-05
239	0xb802ce5b	-3.11866e-05
240	0xbbc5b440	-0.0060334504
241	0x3d26c314	0.040713385
242	0x3dc901e5	0.098148145
243	0x3e0ebd1c	0.13939327
244	0x3c8a3cd8	0.016874716
245	0xb9911af3	-0.00027676634
246	0x3ba33fee	0.0049819862
247	0xbc8b7d0d	-0.017027402
248	0xbdd6a368	-0.10480386
249	0xbe4137ff	-0.18869017
250	0x3ce5cc2c	0.028051458
251	0xbd11e148	-0.035615236
252	0x3d69715c	0.056992874
253	0x3c930263	0.017945474
254	0xbd6a229b	-0.05716191
255	0xbd9d9713	-0.07694831

fc.bias f4 [2]
0	0xbc19061b	-0.009339835
1	0x3dac0b2c	0.08400568

onnx::Conv_80 f4 [16, 3, 7, 7]
0	0xbe39b5ee	-0.18135807
1	0xbe56c2b9	-0.20972718
2	0xbd173f31	-0.0369255
3	0x3df73f17	0.1207258
4	0x3dabb2dd	0.08383725
5	0x3e853f38	0.26024795
6	0x3e3013e6	0.1719509
7	0xbe63a8b1	-0.2223232
8	0xbdf9fa61	-0.12205959
9	0x3e06c7bc	0.1316213
10	0x3e48b10f	0.19598792
11	0x3e0715ef	0.13191961
12	0x3e07c5f4	0.13259107
13	0x3e4e936d	0.20173426
14	0xbe5a798e	-0.21335432
15	0x3d4b6900	0.049660683
16	0x3e0fdb57	0.14048515
17	0x3da963c0	0.08270979
18	0x3e62f7e7	0.2216488
19	0x3e52b72b	0.20577686
20	0x3e50bc75	0.2038439
21	0xbce9f751	-0.028560312
22	0x3d31d075	0.04341169
23	0x3dd2ad41	0.10286952
24	0x3db4254c	0.08796176
25	0x3da48a95	0.08034245
26	0x3df99e95	0.1218845
27	0x3e2548f2	0.16141108
28	0xbe013cad	-0.12620802
29	0xbded6b53	-0.11592736
30	0x3d8def56	0.06930415
31	0xbcfe34e1	-0.031031074
32	0x3db51275	0.08841411
33	0x3dec9649	0.11552102
34	0x3e27c244	0.163827
35	0xbe5349ff	-0.20633696
36	0xbda00a18	-0.07814425
37	0x3d6950c5	0.056961793
38	0xbd8fc989	-0.07020862
39	0xbb3f3229	-0.0029174185
40	0x3c82cfe2	0.015968267
41	0x3e0e9048	0.13922226
42	0xbe081551	-0.13289382
43	0x3c919a42	0.017773751
44	0xbdf3268d	-0.11872587
45	0xbdb082f4	-0.08618727
46	0xbdc2a308	-0.09503752
47	0xbdba3c0a	-0.09093483
48	0xbbc45cbc	-0.0059925
49	0x3e27567a	0.16341582
50	0x3da7c65f	0.08192133
51	0xbd29db03	-0.04146863
52	0x3cd6cbfd	0.026220316
53	0xbdc08c6f	-0.094017856
54	0xbd785187	-0.060624626
55	0xbdc5240a	-0.096260145
56	0xbc9cadda	-0.019125868
57	0x3d7b42b3	0.061342906
58	0x3df551c1	0.11978484
59	0xbe0be7fc	-0.13662714
60	0x3cbfbb9a	0.023404885
61	0xbe089178	-0.13336742
62	0x3dd33cbf	0.10314321
63	0xbc91434e	-0.017732289
64	0x3cc61afe	0.024182793
65	0xbdbd522c	-0.09244189
66	0x3b6b7471	0.0035927559
67	0xbe253924	-0.16135079
68	0xbe4638ce	-0.19357607
69	0x3c39bac6	0.011336034
70	0xbcb67431	-0.022272201
71	0xbd52422c	-0.051332638
72	0x3d830577	0.06397527
73	0xbd206acb	-0.039164346
74	0xbdf27673	-0.11838999
75	0xbd292c22	-0.041301854
76	0xbe30401b	-0.17211954
77	0x3d095a9f	0.03353369
78	0x3dc239fe	0.094837174
79	0xbd056ac6	-0.03257253
80	0x3e0ebeb6	0.13939938
81	0x3dee0fc2	0.11624099
82	0xbdc01120	-0.09378266
83	0x3c81891f	0.015812455
84	0x3ddda79b	0.10822984
85	0x3d57b72e	0.05266493
86	0x3d8a5ebd	0.06756351
87	0x3d87ed13	0.06637015
88	0xbc5cc1e8	-0.013473965
89	0xbc86e60f	-0.016467122
90	0xbd78d81e	-0.06075298
91	0x3ca61346	0.020272862
92	0x3dfe8d00	0.12429237
93	0x3dccc5de	0.09998678
94	0x3e316dc8	0.17327034
95	0x3e34a7f1	0.1764219
96	0x3e141339	0.14460458
97	0x3df70c85	0.12062935
98	0xbdc8f7e4	-0.098129064
99	0xbcb698f7	-0.022289736
100	0xbd47cf28	-0.048781544
101	0x3d058202	0.03259469
102	0xbd1cbcaf	-0.03826588
103	0xbdc05095	-0.0939037
104	0x3dbefb14	0.09325233
105	0xbd112309	-0.035433803
106	0x3c9ef5d4	0.01940433
107	0xbd27c00b	-0.04095463
108	0x3cf70b7b	0.030156842
109	0x3ba50b81	0.0050367718
110	0xbc834547	-0.016024245
111	0xbd83e386	-0.06439881
112	0xbe0413a8	-0.12898123
113	0xbcd8fa5b	-0.026486566
114	0xbdb2bdf5	-0.08727638
115	0xbd9a23a1	-0.07526327
116	0x3da373bd	0.0798106
117	0x3dc7d329	0.097570725
118	0xbc99c92d	-0.018772686
119	0xbdd3c0e8	-0.10339528
120	0xbc53f302	-0.012936356
121	0xbd29173a	-0.041281916
122	0x3d109307	0.035296466
123	0xbbd434d7	-0.0064760256
124	0xbcff5029	-0.031166153
125	0x3e0d559e	0.13802192
126	0xbd9214e7	-0.07132893
127	0x3d5a65f4	0.053319886
128	0x3d0fd27e	0.03511285
129	0x3d0259ac	0.0318238
130	0x3d0452ee	0.03230565
131	0x3da4c134	0.08044663
132	0x3e173bde	0.14768931
133	0x3d99fc2d	0.07518802
134	0xbddcd349	-0.10782487
135	0xbdda0afa	-0.10646625
136	0x3e008820	0.12551928
137	0xbc8c8a92	-0.01715592
138	0xbd654b2f	-0.055979904
139	0x3d8224ed	0.06354699
140	0x3cfb6156	0.030686062
141	0x3dd9e054	0.1063849
142	0x3d90d1eb	0.07071289
143	0xbd933439	-0.07187695
144	0xbc7125ec	-0.014718514
145	0x3cfa43d7	0.030549927
146	0x3da8243e	0.08210038
147	0x3e6fb1b1	0.23407628
148	0x3e48247e	0.1954517
149	0x3e514103	0.20434956
150	0x3d4bc230	0.04974574
151	0x3b308e9d	0.0026940473
152	0xbe19add7	-0.15007721
153	0xbe09bf04	-0.13451773
154	0x3da60fa5	0.08108453
155	0x3e1121b5	0.14173014
156	0x3e15e297	0.14637218
157	0x3de9831f	0.114019625
158	0x3d5edc0c	0.05440907
159	0xbd20742a	-0.039173283
160	0xbdfd0b1b	-0.12355634
161	0x3d2a84bf	0.041630503
162	0xbd3e51ca	-0.04646472
163	0x3dc583d6	0.09644286
164	0x3e09b94d	0.13449593
165	0x3dd85d56	0.105646774
166	0x3d015372	0.03157372
167	0xbd66df26	-0.056365155
168	0x3ded97ef	0.11601245
169	0xbcc753fa	-0.024332035
170	0xbc1aa005	-0.009437566
171	0x3c8b5175	0.017006615
172	0x3da5b68d	0.080914594
173	0x3e188db1	0.14897801
174	0x3cc257a5	0.023723433
175	0x3d9a093a	0.07521291
176	0x3d119e28	0.03555122
177	0x3d2da5bb	0.04239438
178	0x3deff8d5	0.11717383
179	0x3e48702a	0.19574037
180	0x3e722acf	0.23649143
181	0x3d85edb3	0.06539478
182	0x3cc55fd1	0.02409354
183	0xbcc91392	-0.024545465
184	0xbd941640	-0.07230806
185	0xbd6a79e4	-0.05724515
186	0x3cd6bd41	0.02621329
187	0x3d656bc7	0.056010988
188	0xbd872368	-0.0659855
189	0x3d299edd	0.04141127
190	0x3cf4209f	0.029800711
191	0x3dc4f0a5	0.09616212
192	0xbc88b751	-0.016688975
193	0x3d9290dc	0.07156536
194	0xbcf4a435	-0.029863456
195	0x3dcb32c1	0.0992179
196	0xbd9d1522	-0.076700464
197	0xbd070b83	-0.032969963
198	0xbbd4c9ae	-0.0064937687
199	0xbdd03724	-0.10166767
200	0x3d4e4460	0.050358176
201	0xbd8ef38b	-0.06980046
202	0xbd4c0b7a	-0.049815632
203	0xbe0d215b	-0.13782255
204	0x3ccb1dbc	0.024794452
205	0x3d973339	0.07382817
206	0x3e1fccbb	0.15605442
207	0x3e00decb	0.12584989
208	0x3e1a37c6	0.15060338
209	0x3d814403	0.063118
210	0xbe48decc	-0.1961624
211	0xbdb57372	-0.0885991
212	0xbd2e6405	-0.042575855
213	0x3de6040c	0.11231241
214	0x3e33c167	0.17554246
215	0x3e6084dc	0.21925682
216	0x3d03139e	0.03200113
217	0xbe438242	-0.19092658
218	0xbe7548a2	-0.23953488
219	0xbdead0e5	-0.11465625
220	0x3dfcfe69	0.123532124
221	0x3e1920bf	0.14953898
222	0x3e69dd6d	0.22838373
223	0x3d8f7f67	0.07006722
224	0xbdf06eef	-0.11739909
225	0xbdf992e9	-0.12186224
226	0xbe1dd6df	-0.15413998
227	0x3d003628	0.031301647
228	0x3e03ee53	0.12883882
229	0x3e499d58	0.19688928
230	0x3dd8f700	0.105939865
231	0xbe1412fc	-0.14460367
232	0xbe07107d	-0.13189884
233	0xbd56f3d1	-0.052478615
234	0xbcc0cc70	-0.023534983
235	0xbdae3447	-0.08506065
236	0xbcee6126	-0.029099058
237	0x3be981f3	0.007126087
238	0xbd758f4f	-0.059951123
239	0xbe61db24	-0.22056252
240	0xbe9499e8	-0.2902367
241	0xbe675196	-0.22589716
242	0xbd6428ed	-0.055703092
243	0xbdfb32a5	-0.12265519
244	0xbe836d09	-0.25669125
245	0x3bd869fe	0.006604432
246	0x3d81a82b	0.063309036
247	0xbe014e4f	-0.12627529
248	0x3d55b3c1	0.05217338
249	0x3d050666	0.032476805
250	0xbc9e3eb8	-0.019317016
251	0xbd9954a1	-0.07486845
252	0xbdcd78c5	-0.100328006
253	0xba67abe8	-0.0008837567
254	0x3d0f5679	0.034994576
255	0x3c90e874	0.017688967

onnx::Conv_81 f4 [16]
0	0xbf825b8d	-1.0184189
1	0xbf5f584b	-0.872441
2	0xbd14fa8e	-0.03637176
3	0xbf07d7db	-0.53063744
4	0xbfbc02e5	-1.4688383
5	0x3f1d84dc	0.6153085
6	0x3f5a88fa	0.8536526
7	0xbf80eba8	-1.0071917
8	0x3f2f64a7	0.6851296
9	0xbf2e6fd3	-0.6813938
10	0x3f237f76	0.63866365
11	0xbe11cc0f	-0.14237998
12	0x3e4e4ad2	0.20145729
13	0x3f52f94b	0.8241164
14	0xbf3fc532	-0.7491027
15	0x3f1d8550	0.61531544

onnx::Conv_83 f4 [32, 16, 3, 3]
0	0xbd47030f	-0.0485869
1	0xbcf3717c	-0.0297172
2	0xbca6bbb0	-0.020353168
3	0xbd8e6b90	-0.0695411
4	0xbd46db63	-0.048549067
5	0xbd05a596	-0.03262862
6	0xbd5fa752	-0.05460293
7	0xbccfad61	-0.025351228
8	0xbbcccbe2	-0.0062498907
9	0xbc479169	-0.012180665
10	0x3c096721	0.008386404
11	0xbb973f1d	-0.004615678
12	0xbb3ca622	-0.0028785546
13	0x3c575b82	0.013144376
14	0x3d45c9ad	0.048288036
15	0xbcdff6c1	-0.027339341
16	0x3ce0c892	0.02743939
17	0x3d221eb2	0.039580055
18	0x3da02d7f	0.07821178
19	0x3d7fc43d	0.062443007
20	0x3b967c26	0.0045924364
21	0x3d9d5a16	0.07683198
22	0x3d0a82f7	0.033816304
23	0xbb3f4ce6	-0.0029190122
24	0x3cfe1bac	0.031019054
25	0x3ce44cdf	0.027868686
26	0x3cdd5d82	0.027022127
27	0x3c607a3b	0.013701017
28	0xbbc564fe	-0.006024002
29	0xbcbd5a1f	-0.023114262
30	0x3cfa090d	0.030521894
31	0x3c2923c4	0.010323469
32	0x3c78289f	0.015146404
33	0xba6c1ad6	-0.00090066844
34	0xbac4b7a8	-0.0015008347
35	0xb91b7c2a	-0.00014828207
36	0xbd274015	-0.040832598
37	0xbd43ddc7	-0.047818925
38	0xbd198847	-0.03748348
39	0xbd08b4a6	-0.033375405
40	0xbba40597	-0.005005549
41	0xbd0a1b2e	-0.033717327
42	0x3c9043bb	0.017610421
43	0x3cb837d8	0.022487566
44	0x3d4156fc	0.047202095
45	0xbb8c2456	-0.0042767925
46	0x3b05749f	0.00203637
47	0xbd53dc27	-0.051723626
48	0xbc4bf73c	-0.012449082
49	0xbca0a5ec	-0.019610368
50	0xbcffbbca	-0.031217474
51	0xbceb1198	-0.028694913
52	0xbc3b1d2b	-0.011420528
53	0xbc5da92b	-0.013529102
54	0x3cf1f233	0.029534435
55	0x3bc8e18b	0.0061304024
56	0x3aa7fc25	0.0012816234
57	0xbbc59c23	-0.006030576
58	0xbb8257af	-0.003977738
59	0xbc14fa69	-0.009092906
60	0xbbd65a77	-0.006541546
61	0xbb9f3237	-0.004858281
62	0xbb18aaac	-0.0023295088
63	0x3d5c88ef	0.053841528
64	0x3d6583be	0.056033842
65	0xbc172c44	-0.009226862
66	0x3b92273e	0.0044602444
67	0xbc388e95	-0.011264463
68	0xbd1e5cc7	-0.038662698
69	0x3c9354d4	0.017984785
70	0x3cc2b3c5	0.023767361
71	0xbb1f5daa	-0.0024317303
72	0x3cb38505	0.021914015
73	0x3ce221c2	0.027603988
74	0xbc75d0ef	-0.015003427
75	0xbc87c62e	-0.016573992
76	0xbd51c275	-0.05121084
77	0xbd68e78b	-0.05686144
78	0x3ba5acc6	0.0050559966
79	0x3c1deea3	0.009639415
80	0xbc1132bf	-0.0088621965
81	0x3d0e602b	0.03475968
82	0xba8619bd	-0.0010231059
83	0xbcb4b077	-0.022056801
84	0xb9f5bf28	-0.00046872464
85	0xbbc5133d	-0.0060142563
86	0x3ce453f1	0.027872058
87	0x3d064630	0.03278178
88	0x3d470d21	0.048596505
89	0x3d7379d9	0.059442375
90	0x3ca8e9e3	0.020619338
91	0x3c7b7cef	0.015349611
92	0xbc881597	-0.016611857
93	0x3a9890a7	0.001163979
94	0x3c99bed1	0.018767746
95	0xbcb3a4b4	-0.021929123
96	0xbd390ab8	-0.045176238
97	0xbc43f108	-0.011959322
98	0xbd24bbe3	-0.040218245
99	0xbd0cfd52	-0.034421273
100	0xbcd9c031	-0.026580902
101	0xbcf118ec	-0.029430829
102	0xbd297900	-0.04137516
103	0xbd50f4b6	-0.051014625
104	0xbb878ec8	-0.004136894
105	0x3a32b1fa	0.00068166817
106	0xbc4fc1d5	-0.0126804905
107	0x3cdf44fa	0.02725457
108	0x3c3ac5f2	0.011399733
109	0x3c1e5596	0.00966396
110	0xbd3a1309	-0.04542831
111	0xbd3a5a45	-0.045496244
112	0x3945ccd0	0.00018863683
113	0xbda60286	-0.0810595
114	0xbcc22046	-0.02369703
115	0x3cccd707	0.025004877
116	0xbd35cd31	-0.04438514
117	0x3d2f870f	0.04285341
118	0x3ccbdeba	0.024886478
119	0xbabe9217	-0.0014539388
120	0xbd0fc6de	-0.035101764
121	0xbd25acd5	-0.04044803
122	0xbd8ae0b1	-0.06781138
123	0xbb5efd77	-0.0034025589
124	0x3c937eac	0.018004738
125	0x3ab085d2	0.0013467616
126	0xbd02b4c0	-0.031910658
127	0xbd21aba7	-0.03947034
128	0xbd1a57fd	-0.03768157
129	0xbcdc816a	-0.026917178
130	0xbccb7ca0	-0.0248397
131	0xbc59bca0	-0.013289601
132	0xbc13c6f8	-0.009019606
133	0xbc9a4275	-0.018830517
134	0x3cebecc8	0.02879943
135	0xbca320ac	-0.01991304
136	0x3b8af32d	0.0042404146
137	0xbcb53c2b	-0.022123417
138	0xbd4a4376	-0.049380742
139	0xbd49d3f0	-0.049274385
140	0xbd60a6d2	-0.054846592
141	0xbcf9c8eb	-0.030491313
142	0xbd413595	-0.04717024
143	0xbd1855da	-0.03719125
144	0xbd20b88a	-0.03923849
145	0xbbc21100	-0.0059224367
146	0xbccb7edb	-0.024840763
147	0x3b1af75a	0.0023645968
148	0xbd09b99d	-0.03362428
149	0xbc9ec421	-0.01938063
150	0x3d499148	0.049210817
151	0x3cc5362c	0.024073683
152	0x3d5fb78f	0.054618414
153	0xbd18383b	-0.037163
154	0xbc7fc271	-0.015610323
155	0xbd27b781	-0.040946487
156	0xbda40dda	-0.080104545
157	0xbcff948c	-0.031198762
158	0x3c696705	0.014245753
159	0xbc7e5529	-0.015523233
160	0xbcabe3a9	-0.02098258
161	0x3d0baf60	0.034102798
162	0x3c3b4759	0.011430585
163	0xbd41bc3b	-0.04729865
164	0xbc6348cb	-0.013872336
165	0xbd0ba335	-0.034091193
166	0x3d01ea60	0.031717658
167	0x3d37242e	0.044712238
168	0xbd863d10	-0.065546155
169	0xbbd0e5ed	-0.0063750655
170	0x3d44c6a0	0.048040986
171	0xbc750ebd	-0.014957127
172	0xbc0cdd53	-0.00859769
173	0xbd2d20d5	-0.04226764
174	0xbca6938d	-0.02033403
175	0xbbdc4a3a	-0.0067227157
176	0x3aec5f4d	0.0018033773
177	0xba39c8ed	-0.000708713
178	0x3c61b5de	0.013776271
179	0xbb31fe1d	-0.002715952
180	0x3ccf386d	0.02529546
181	0xbd02a6f5	-0.031897504
182	0xbc26e5c1	-0.010186614
183	0xbca44a61	-0.020054998
184	0x3cda4705	0.026645193
185	0xbc664642	-0.014054837
186	0x3d4edafc	0.05050181
187	0x3d7f6f7e	0.062362187
188	0x3d95cc4c	0.07314357
189	0x3c950f5a	0.018195797
190	0xba976370	-0.001155002
191	0x3c5076e8	0.012723662
192	0x3d644968	0.05573407
193	0xbce73e83	-0.02822805
194	0x3bb63269	0.0055602086
195	0x3c896293	0.016770637
196	0xbc1d5097	-0.009601734
197	0xbce70bf0	-0.028203934
198	0x3bea8b23	0.0071576997
199	0xbade6370	-0.001696689
200	0xbccc9104	-0.024971493
201	0x3cb9489e	0.022617634
202	0xbba36900	-0.004986882
203	0xbce1f4a4	-0.027582474
204	0x3cf65917	0.030071778
205	0xbbc84f61	-0.0061129783
206	0xbc8d6b39	-0.017263042
207	0x3c05e67f	0.00817263
208	0x3c5036c3	0.012708369
209	0x3ca2cda0	0.01987344
210	0xbc35153a	-0.011052424
211	0x3d2d04b8	0.04224083
212	0x3b6d3b4e	0.0036198678
213	0x39cd8013	0.0003919607
214	0xbb69dba4	-0.0035683895
215	0xbc82c7da	-0.015964437
216	0x3cd7e0cc	0.026352309
217	0x3c1c875c	0.009553757
218	0x3d27eb8b	0.040996116
219	0xbc81c411	-0.015840562
220	0x3be54ebd	0.0069979117
221	0xbb1b1c6b	-0.0023668061
222	0xbd1f6983	-0.038918983
223	0x3bef50cf	0.0073033343
224	0x3c317733	0.010831642
225	0xbcd1ee8f	-0.025626449
226	0xbc0206ae	-0.007936163
227	0x3d5eb890	0.05437523
228	0xbcb0684f	-0.021534113
229	0x3cc489d2	0.0239915
230	0xbc14c945	-0.0090811895
231	0xbd395797	-0.045249548
232	0x3b31e670	0.0027145408
233	0x3d21b716	0.039481245
234	0x3b4afb96	0.003097271
235	0xbcfbff35	-0.03076134
236	0x3c34d6ca	0.011037538
237	0xbd1a54ae	-0.037678413
238	0xbd847b9e	-0.064688906
239	0xbcfa294a	-0.030537266
240	0x3c6ffd57	0.014647803
241	0xbd09e4f4	-0.033665612
242	0xbccac394	-0.024751462
243	0xbd0e7af6	-0.034785233
244	0xbd1af522	-0.037831433
245	0x3ce8dfff	0.028427122
246	0xbd63f1ee	-0.055650644
247	0x3d24ab07	0.040202167
248	0x3dace385	0.084418334
249	0x3cb94146	0.022614133
250	0x3d8ac743	0.067762874
251	0x3d563bd4	0.05230315
252	0xbd269574	-0.040669873
253	0xbd40618a	-0.04696802
254	0xbd3868f5	-0.04502197
255	0xbd9c6aaf	-0.07637536

onnx::Conv_84 f4 [32]
0	0x3ed102b5	0.40822378
1	0x3ce8d919	0.028423833
2	0x3ca41fe8	0.020034745
3	0x3e3ddba6	0.1854082
4	0xbe94324c	-0.28944623
5	0x3c428cb8	0.01187437
6	0xbeb5771b	-0.35442433
7	0x3e0780cc	0.13232726
8	0xbf1492ba	-0.58036387
9	0x3e13657d	0.14394183
10	0x3eab5917	0.33466408
11	0xbed16d3d	-0.40903655
12	0xbe9130d6	-0.2835757
13	0x3d62f61e	0.055410497
14	0x3e5b7e93	0.21435003
15	0x3eb14874	0.3462559
16	0x3de2adc4	0.110682994
17	0x3dd5e05d	0.104431845
18	0x3db5914f	0.08865606
19	0x3e9f5460	0.3111906
20	0x3ead5991	0.33857396
21	0x3e695e2e	0.22789833
22	0x3e1671fa	0.14691916
23	0xbe9425da	-0.28935128
24	0x3e8d7d4a	0.2763465
25	0xbe0870fe	-0.13324353
26	0x3eb7ec32	0.3592239
27	0x3e6b3a76	0.2297152
28	0x3ea95027	0.33068964
29	0xbd6c9689	-0.05776075
30	0x3e847d37	0.2587678
31	0x3c0e0608	0.00866843

onnx::Conv_86 f4 [32, 32, 3, 3]
0	0xbd5e260e	-0.05423551
1	0xbd147af6	-0.036250077
2	0xbd397c14	-0.045284346
3	0xbd8130ce	-0.06308137
4	0xbd6a0eac	-0.0571429
5	0xbcd6bbd8	-0.026212618
6	0xbdbe744a	-0.09299524
7	0xbd8c81bb	-0.068606816
8	0xbd060785	-0.032722015
9	0xbc83211d	-0.016007
10	0x3c51ed52	0.012812929
11	0xbc5eeff3	-0.013607013
12	0x3b729dd1	0.0037020335
13	0xbc9b5319	-0.018960522
14	0xbce6143e	-0.028085824
15	0xba5300fe	-0.0008049159
16	0xbb77ab2c	-0.0037791235
17	0xbd5f309c	-0.054489717
18	0xbd303a53	-0.043024372
19	0xbcf40cad	-0.0297912
20	0xbd4a8d10	-0.049450934
21	0x3c42649b	0.0118648065
22	0xbcb35914	-0.021893062
23	0xbd5b3467	-0.05351677
24	0x3bacb32a	0.0052703815
25	0xbc276923	-0.010217938
26	0xbd84959b	-0.064738475
27	0xbd1840ff	-0.03717136
28	0xbcc5d71b	-0.024150422
29	0xbd96a04b	-0.07354792
30	0x3c2c9d0e	0.010535492
31	0x3bf86613	0.0075805276
32	0xbd16ff23	-0.03686441
33	0x3c796a9a	0.01522317
34	0xbc4f9e62	-0.012672039
35	0xbd4d5525	-0.05013003
36	0x3d3f225d	0.04666363
37	0x3ced209a	0.02894621
38	0x3da0f6dd	0.078595854
39	0x3d71d94b	0.059045117
40	0x3cf9bff2	0.030487034
41	0x3cd3ebfc	0.025869362
42	0x3d13b61b	0.03606234
43	0x3d1e63c0	0.038669348
44	0x3d36189f	0.044457074
45	0x3c58eeab	0.013240497
46	0x3cce4995	0.025181571
47	0x3c19df12	0.009391563
48	0x3d31d55f	0.043416377
49	0x3b0be134	0.0021343948
50	0xbd453ba0	-0.048152566
51	0xbcd4b598	-0.025965497
52	0xbc3e2fdc	-0.01160809
53	0xbcf80ef5	-0.03028057
54	0x3dc937fb	0.098251306
55	0x3dac27ea	0.084060505
56	0x3d060490	0.032719195
57	0x371dfb21	9.4164e-06
58	0xbc152cde	-0.009104935
59	0x3d6ba529	0.057530556
60	0xbd31d834	-0.043419078
61	0xbd8b1147	-0.06790405
62	0xbcb7cd25	-0.022436688
63	0x3ce6e4c4	0.028185256
64	0xbbe0d8d9	-0.0068617878
65	0xbc8530f7	-0.0162587
66	0x3cf0688d	0.029346729
67	0x3c437040	0.011928618
68	0xbbd03d56	-0.006354968
69	0xbc3fdadd	-0.011709896
70	0x3c92b069	0.017906385
71	0x3baa71a0	0.0052015334
72	0xbd0df63a	-0.034658648
73	0xbd240e29	-0.040052567
74	0x3b6a20c1	0.003572509
75	0x3c42f7af	0.011899873
76	0x3c93d52e	0.018045988
77	0x3d8435e8	0.06455594
78	0xbd3181ea	-0.043336786
79	0xbce66cfc	-0.02812814
80	0xbcd2975f	-0.025706945
81	0xbcfc7d33	-0.030821418
82	0xbc740abc	-0.014895137
83	0xbc4a772a	-0.0123575125
84	0xbc103070	-0.008800611
85	0xbbfecdca	-0.007775997
86	0xbaf1dd61	-0.0018452817
87	0x3b71038d	0.0036775798
88	0xb9ea6f12	-0.00044714712
89	0xbd3bbaba	-0.045832373
90	0xbd2ba5c4	-0.041906133
91	0x3c8b5ff6	0.017013531
92	0x3d5e4bff	0.054271694
93	0xbce97732	-0.02849922
94	0x3b02ae05	0.001994015
95	0x3bc18da5	0.005906778
96	0xbce5b964	-0.028042503
97	0xbd485d49	-0.04891709
98	0xbd132d64	-0.03593196
99	0xbd2a9272	-0.041643567
100	0xbbd8dcc9	-0.0066181165
101	0x3cc00398	0.023439214
102	0xbd1cb22d	-0.03825586
103	0xbcedf5a1	-0.029047789
104	0xbcd53bf4	-0.026029564
105	0xbc2eabb4	-0.010661054
106	0xbd8011c7	-0.06253391
107	0xbd6b94d0	-0.057514966
108	0x3d4bab99	0.049724195
109	0x3c96c886	0.018406164
110	0x3d0de5f7	0.03464314
111	0x3d931960	0.07182574
112	0x3cb6b9ea	0.022305448
113	0xbc0f034f	-0.008728816
114	0x3d392d38	0.04520914
115	0x3d79dc3e	0.061001055
116	0x3c7a9775	0.015294899
117	0xbd2add07	-0.041714694
118	0xbb13cfb3	-0.0022554218
119	0x3a0d82e1	0.00053982256
120	0xbd69e400	-0.057102203
121	0xbbc101f9	-0.0058901277
122	0x3c65ad91	0.014018432
123	0xbd6702d6	-0.05639919
124	0xbcb33b5c	-0.02187889
125	0xbd60b26d	-0.05485766
126	0x3d51694b	0.051125806
127	0xbd3428e1	-0.043984298
128	0xbd37f096	-0.044907175
129	0x3db9fac2	0.090810314
130	0xbd621b4d	-0.055201817
131	0xbd51f085	-0.051254768
132	0x3d332dc3	0.043744814
133	0xbc43ec10	-0.011958137
134	0xbd64ac82	-0.05582858
135	0xbcfab385	-0.03060318
136	0xbbfec04e	-0.0077743893
137	0xbcc5afeb	-0.024131736
138	0xbd3b287a	-0.0456929
139	0x3d48bb8f	0.049006995
140	0x3cd6f64a	0.026240487
141	0xbddb9973	-0.107226275
142	0xbd3dd3cc	-0.046344563
143	0xbcfd93f1	-0.030954333
144	0xbd8a89b1	-0.06764544
145	0x3c65f668	0.014035799
146	0x3cb32174	0.021866538
147	0xbd4aa969	-0.04947797
148	0x3b60920d	0.003426674
149	0xbd938577	-0.07203191
150	0xbd9976b6	-0.074933454
151	0xbdae89fd	-0.08522413
152	0xbdd8e9e2	-0.105914846
153	0xbd225ce8	-0.039639384
154	0xbcd8f85f	-0.02648562
155	0xbd734f14	-0.059401587
156	0xbd1c3750	-0.038138688
157	0xbc884059	-0.016632246
158	0xbd63b6f4	-0.0555944
159	0xbcc3965b	-0.023875406
160	0xbcbbae29	-0.022910194
161	0xbd9a00e3	-0.075197004
162	0x3c902513	0.017595803
163	0xbc193c3b	-0.009352739
164	0xbd58552b	-0.052815598
165	0x3d210629	0.039312515
166	0x3ac8c7be	0.0015318317
167	0xbd9bfc9a	-0.07616539
168	0xbd4319c3	-0.04763199
169	0xbdca7251	-0.098850854
170	0xbe102372	-0.14076021
171	0xbd25650b	-0.040379565
172	0x3c3db24c	0.011578154
173	0xbd668c4d	-0.056286145
174	0xbd2cc662	-0.04218138
175	0x3bb9a729	0.005665679
176	0xbd7591ec	-0.059953615
177	0xbd79c8fc	-0.06098269
178	0xbd15dbe5	-0.03658666
179	0xbd8a3c30	-0.06749761
180	0x3da1ec37	0.079063825
181	0x3d8ae616	0.06782167
182	0xbbcca842	-0.006245644
183	0x3e06f52b	0.13179462
184	0x3d2a70d1	0.041611496
185	0xb8a8d8bc	-8.051234e-05
186	0x3d8fd1d5	0.07022444
187	0x3d03b82e	0.03215807
188	0xbcdd1c49	-0.026991026
189	0x3dcc838e	0.099860296
190	0x3cedea78	0.029042467
191	0xbb33dbeb	-0.0027444314
192	0x3c52e3b5	0.012871672
193	0x3ccd9519	0.02509551
194	0xbc8ca1ec	-0.017167054
195	0x3b8694b6	0.004107083
196	0x3d15935f	0.036517497
197	0x3c617fb7	0.01376336
198	0x3d0f5ea6	0.035002373
199	0x3cc169b9	0.023609983
200	0xbc8da07d	-0.01728844
201	0x3d3e4097	0.046448316
202	0x3c5c6c60	0.013453573
203	0xbbc02d2b	-0.0058647594
204	0x3d16df1e	0.036833875
205	0x3b62fd86	0.0034635975
206	0x3a1dadec	0.0006014991
207	0x3d50c5f8	0.050970048
208	0xbd3d8f69	-0.046279345
209	0xbc44d2d9	-0.012013161
210	0xbc0dadb4	-0.008647371
211	0x3d9a440a	0.07532509
212	0xbbc36856	-0.0059633655
213	0x3ce2fa45	0.027707228
214	0x3c92ef4d	0.017936373
215	0x3c996064	0.01872272
216	0xbba58e40	-0.005052358
217	0xbb707f7a	-0.0036697076
218	0xbc8696c1	-0.016429307
219	0xbc4f389c	-0.012647774
220	0x3d09e9e7	0.033670332
221	0x3bb1bf36	0.0054244054
222	0xbc07f74c	-0.008298706
223	0x3cd5de77	0.026107056
224	0x3c8393e3	0.016061729
225	0x3cd45a54	0.025921978
226	0xbb6cbe2a	-0.0036124089
227	0x3a96e80b	0.0011513246
228	0x3d1d7b0e	0.038447432
229	0x3cfc13c7	0.03077115
230	0xbc09eeeb	-0.008418779
231	0xbc89e0af	-0.01683077
232	0x3b7c2631	0.0038474912
233	0x3b93fd39	0.0045162705
234	0xbd5621b2	-0.052278228
235	0xbcb63db5	-0.022246221
236	0xbd2d6d47	-0.042340543
237	0xbd59af07	-0.053145435
238	0xbbb76929	-0.005597253
239	0xbc2965f1	-0.010339246
240	0xbd52de5e	-0.051481597
241	0xbba52253	-0.005039492
242	0xbcc53e89	-0.02407767
243	0x3bedd83d	0.0072584436
244	0x3cc851d6	0.024453085
245	0x3c9df68a	0.019282598
246	0x3a5c54b2	0.00084049546
247	0xba302359	-0.00067191344
248	0x3aa6bf61	0.001272183
249	0xba21bb3e	-0.0006169564
250	0xbc06f0db	-0.008236135
251	0xbbb4bb0e	-0.0055154627
252	0xbc2c2e1b	-0.010509039
253	0xbbc46d8f	-0.0059945057
254	0x3c41ad1f	0.01182106
255	0xbd888e9b	-0.06667825

onnx::Conv_87 f4 [32]
0	0x3e9bb05e	0.30407995
1	0x3e299086	0.16559038
2	0x3e88bd0a	0.26706725
3	0xbdfbcaa9	-0.12294514
4	0x3e2f93b6	0.17146191
5	0x3d88bb21	0.06676317
6	0x3e63192e	0.22177574
7	0xbdb4bcaa	-0.08825047
8	0xbdd1c796	-0.10243146
9	0x3c3d0540	0.011536896
10	0x3ddd46b6	0.10804503
11	0x3e9ba0ce	0.30396122
12	0x3b3ad020	0.00285054
13	0xbda43b70	-0.08019149
14	0xbf3c4c2a	-0.7355372
15	0x3e8f3a61	0.27974227
16	0xbe31580b	-0.17318742
17	0xbdb861ba	-0.09003015
18	0xbf1e75a4	-0.61898255
19	0x3edbe42e	0.42947525
20	0x3e6dca69	0.23221745
21	0x3e283d4f	0.16429637
22	0x3f07d36c	0.5305698
23	0xbd78a7c7	-0.06070688
24	0xbd997478	-0.07492918
25	0x3f084e69	0.53244644
26	0x3e395947	0.18100463
27	0xbb2e70a0	-0.0026617423
28	0x3f32ce17	0.6984572
29	0x3da560fd	0.0807514
30	0x3f2530fb	0.64527863
31	0xbe0e86ae	-0.13918564

onnx::Conv_89 f4 [32, 16, 1, 1]
0	0x3d434961	0.0476774
1	0x3e0e1b6d	0.1387765
2	0xbe4dcff1	-0.20098855
3	0xbd3c451b	-0.04596434
4	0x3e0c0025	0.1367193
5	0x3cd3f545	0.02587379
6	0x3dcb7d00	0.09935951
7	0x3d832d66	0.064051434
8	0x3dae7ef6	0.085203096
9	0xbdd86277	-0.10565656
10	0x3df47b91	0.11937631
11	0x3a074041	0.0005159416
12	0xbe5e803c	-0.21728605
13	0x3c81667c	0.015795939
14	0xbe2639bb	-0.1623296
15	0x3e27f5e2	0.1640239
16	0xbe8675f8	-0.26261878
17	0x3f028bac	0.5099437
18	0xbdd6a6cf	-0.10481035
19	0x3d49d27b	0.049272995
20	0xbe5a9056	-0.21344122
21	0xbe40c828	-0.18826354
22	0x3dd2f141	0.10299922
23	0x3e955add	0.29170886
24	0x3ea1f54c	0.3163246
25	0x3ec00e3c	0.3751086
26	0xbe3b2aa5	-0.18277986
27	0x3bd5c1de	0.006523355
28	0xbf06e20e	-0.5268868
29	0xbdcf4206	-0.10120015
30	0xbeb44c0e	-0.35214275
31	0xbec4f486	-0.38467807
32	0xbd7bf33a	-0.061511256
33	0x3d4e3b53	0.050349545
34	0x3c500afc	0.012697931
35	0x3afc7528	0.001926099
36	0xbe673839	-0.22580041
37	0x3c83e3c8	0.016099826
38	0x3e3da3e7	0.18519555
39	0xbd8d92df	-0.06912779
40	0xbbf40f62	-0.007448123
41	0xbcd4e9bf	-0.025990365
42	0xbe822970	-0.2542224
43	0xbe062be0	-0.13102674
44	0xbe9c9c0c	-0.30587804
45	0x3d888548	0.066660464
46	0xbd90505b	-0.070465766
47	0xbe2ab3da	-0.1667017
48	0x3e12e473	0.14344959
49	0x3e34c7e5	0.17654379
50	0xbe023a85	-0.12717636
51	0x3d89bbd6	0.0672528
52	0xbd061077	-0.032730546
53	0xbd9c5f06	-0.07635312
54	0x3bdb42bd	0.0066913054
55	0x3d59b134	0.05314751
56	0x3d1a497f	0.037667748
57	0x3a3ca16b	0.0007195684
58	0x3e0c0129	0.13672318
59	0x3df04792	0.11732401
60	0xbdc015ce	-0.09379159
61	0xbe4494e7	-0.19197427
62	0x3cb1aa01	0.02168751
63	0xbc5dd83b	-0.013540323
64	0x3b922811	0.0044603427
65	0xbe371303	-0.17878346
66	0x3dafe61f	0.08588814
67	0x3e45628d	0.19275875
68	0x3eb031ad	0.344129
69	0xbdca62c8	-0.09882122
70	0xbcee305b	-0.029075792
71	0x3da35732	0.079756156
72	0x3cafec3f	0.021474956
73	0xbe5f0b42	-0.21781638
74	0xbe384725	-0.1799589
75	0x3e25e570	0.16200805
76	0xbe1df654	-0.15425998
77	0xbe4bc161	-0.19897987
78	0xbaa2ed63	-0.0012430366
79	0x3d4d89f9	0.05018041
80	0x3e16c5df	0.1472392
81	0xbdb86525	-0.09003667
82	0xbd14a8b2	-0.036293693
83	0x3e121d65	0.14269026
84	0xbdcbe88e	-0.09956466
85	0x3e3c911c	0.1841473
86	0xbcb9cbd8	-0.022680208
87	0xbd0bb4dc	-0.034108028
88	0x3d972832	0.073807135
89	0x3e9f18a5	0.3107349
90	0xbda18a52	-0.07887711
91	0x3e81c332	0.25344235
92	0x3dd26568	0.10273248
93	0x3e372b4e	0.17887613
94	0x3e4db86b	0.20089881
95	0x3d7b1fa7	0.061309483
96	0x3d29a754	0.041419342
97	0xbb1db9b2	-0.0024066982
98	0x3d8db83f	0.06919908
99	0x3cbeac92	0.023275647
100	0xbd1c5c07	-0.0381737
101	0x3c3712b9	0.011173897
102	0xbc90c8b9	-0.017673837
103	0xbbb24ad6	-0.00544105
104	0x3d772ad1	0.060343567
105	0x3e122ada	0.14274159
106	0x3d32d5aa	0.043660797
107	0x3c8549de	0.016270574
108	0x3ddfd810	0.109298825
109	0x3dc084c0	0.0940032
110	0x3d575788	0.05257371
111	0xbcdab681	-0.026698353
112	0x3d9b1cbc	0.0757384
113	0xbde0104a	-0.10940607
114	0xbcdebe5e	-0.027190384
115	0xbc5f3468	-0.0136233345
116	0x3ca9f3fe	0.020746227
117	0x3d61232d	0.054965187
118	0xbcbf6a72	-0.023366187
119	0xbdcbdda9	-0.09954388
120	0x3bec7151	0.007215657
121	0xbc8fefdf	-0.017570434
122	0xbdba3027	-0.090912156
123	0x3cc90735	0.02453957
124	0x3cced02b	0.025245747
125	0xbd4b5aa9	-0.049647007
126	0x3d9efd4f	0.077631585
127	0x3d290a12	0.04126937
128	0xbd6e71fd	-0.058214176
129	0xbd873cd0	-0.06603396
130	0x3be66170	0.0070306584
131	0x3d6e7099	0.05821285
132	0xbce928b3	-0.02846179
133	0xbd9d4d34	-0.07680741
134	0x3d0a9c1c	0.033840284
135	0xbd02102f	-0.031753715
136	0xbd97e11a	-0.074159816
137	0xbda04517	-0.07825678
138	0xbcb0ba86	-0.021573316
139	0x3dcaa090	0.09893906
140	0x3dc072f0	0.093969226
141	0x3dc85764	0.097822934
142	0xbdfc4b70	-0.12319076
143	0xbd971228	-0.0737651
144	0x3e0b92b2	0.13630179
145	0x3d1f9230	0.038957775
146	0x3e2c0f1e	0.16802642
147	0x3e57fe13	0.21093015
148	0xbd873a57	-0.06602924
149	0x3e05c411	0.13063075
150	0x3d196261	0.037447337
151	0x3d35edc9	0.044416223
152	0xbe0d854f	-0.13820384
153	0x3e3c7920	0.1840558
154	0x3c26b94e	0.010176016
155	0x3dc6e47c	0.09711549
156	0xbea33c7d	-0.31882086
157	0x3d9a67ac	0.07539305
158	0xbe5b694f	-0.21426891
159	0xbe3d9d10	-0.18516946
160	0x3cd92408	0.026506439
161	0x3e222abf	0.15836619
162	0x3e2508f5	0.16116698
163	0xbd7c8d14	-0.06165798
164	0xbe8e02a9	-0.27736405
165	0x3c7faff1	0.015605913
166	0xbc497c5d	-0.012297717
167	0x3e7b0d92	0.24516895
168	0x3d287425	0.04112639
169	0x3e7659c3	0.24057679
170	0xbce3e79d	-0.027820403
171	0xbd65fa3d	-0.05614685
172	0x3da5cf03	0.08096125
173	0x3e97f72c	0.29680765
174	0xbe413cf1	-0.18870904
175	0xbe22c711	-0.1589625
176	0xbe37fb14	-0.17966872
177	0x3c2bfce0	0.010497302
178	0xbd662938	-0.056191653
179	0x3d94e5c1	0.072703846
180	0x3deb8083	0.11499121
181	0xbdb3f95f	-0.08787798
182	0xbc893ac3	-0.016751653
183	0xbd636145	-0.055512685
184	0x3d58e37d	0.052951325
185	0xbd9c36f9	-0.07627673
186	0x3e3b36dd	0.18282647
187	0x3d3d5afd	0.04622935
188	0x3def26d8	0.11677331
189	0x3e47f869	0.19528355
190	0xbda265c0	-0.079295635
191	0xbd2d290e	-0.04227548
192	0x3cfe87ac	0.031070553
193	0xbc94c6d6	-0.018161219
194	0x3d49de7f	0.049284454
195	0xbc881b2b	-0.016614517
196	0x39e50424	0.0004368137
197	0xbdaf312d	-0.085543014
198	0xbc2071f6	-0.009792795
199	0x3b2ccc47	0.0026366876
200	0x3d287fe2	0.041137584
201	0x3d32514e	0.04353457
202	0x3cddf709	0.027095335
203	0x3cbda699	0.023150729
204	0x3dc6375c	0.09678528
205	0x3d44ce11	0.048048083
206	0xb7c00993	-2.2892642e-05
207	0xbc233707	-0.00996185
208	0x3d9daac5	0.07698587
209	0x3e6229c0	0.22086239
210	0xbe07a99a	-0.13248292
211	0x3de196ac	0.110150665
212	0xbe9dd055	-0.30823007
213	0xbe1d0d24	-0.15337044
214	0xbce9ddf6	-0.028548222
215	0x3d4ee2a4	0.05050911
216	0x3c89b799	0.016811179
217	0xbae20a6b	-0.0017245536
218	0xbe1ad9d6	-0.1512216
219	0x3e3364aa	0.17518869
220	0xbc267108	-0.010158785
221	0xbe5682e9	-0.20948376
222	0x3e4e8d92	0.20171192
223	0xbe4f1a02	-0.20224765
224	0xbd89c8c9	-0.0672775
225	0x3e49a539	0.19691934
226	0xbe974d15	-0.29550996
227	0xbe0fa481	-0.14027597
228	0xbec4a875	-0.38409773
229	0xbdfbe989	-0.12300403
230	0x3e8c8ed2	0.27452713
231	0x3e801dbc	0.25022686
232	0x3e95dcb5	0.2926995
233	0x3c65f5e6	0.014035678
234	0xbb5eecbc	-0.0034015616
235	0x3eda8a39	0.4268358
236	0xbe54f21c	-0.20795482
237	0xbe7e8a19	-0.24857368
238	0x3e8a820f	0.27052352
239	0x3db16c88	0.08663279
240	0x3e1aff04	0.15136343
241	0x3ca64081	0.02029443
242	0x3e679004	0.22613531
243	0x3dc445d4	0.09583631
244	0x3d48072c	0.048834965
245	0xbbb3fed8	-0.005493026
246	0x3d655e21	0.05599797
247	0x3e24b297	0.16083752
248	0xbddb24f4	-0.107004076
249	0x3d5769b7	0.052591052
250	0xbaf2d432	-0.0018526374
251	0xbe9443d0	-0.28957987
252	0x3e5767d2	0.21035698
253	0xbe088984	-0.13333708
254	0x3d939490	0.072060704
255	0x3d20882e	0.03919237

onnx::Conv_90 f4 [32]
0	0xbd1b604d	-0.037933636
1	0x3ed73d25	0.42038837
2	0x3f14e1c5	0.58156997
3	0xbe15c207	-0.14624797
4	0x3d1d4024	0.038391247
5	0xbf327e9c	-0.6972444
6	0xbeaf7886	-0.3427164
7	0x3d26db32	0.040736385
8	0x3de1b739	0.11021275
9	0xbdd6949d	-0.104775645
10	0xbea587d2	-0.32330185
11	0xbdadc2ea	-0.084844425
12	0xbe1ebd7c	-0.1550197
13	0x3db1f1c7	0.086886935
14	0xbe134811	-0.1438296
15	0xbec4ec8a	-0.38461715
16	0x3f1c879a	0.6114441
17	0xbc9a6bc1	-0.01885021
18	0x3eabf0f0	0.33582258
19	0xbd8d69f6	-0.06904976
20	0xbefc8b45	-0.49325004
21	0xbe541ecd	-0.20714875
22	0xbe0b1f50	-0.13586164
23	0xbd84cb92	-0.064841405
24	0x3e099846	0.13436994
25	0xbe381abb	-0.17978947
26	0xbe6b8e4b	-0.23003499
27	0x3da175f6	0.078838274
28	0xbf2c00be	-0.6718863
29	0xbe50e8fc	-0.20401376
30	0xbec3f04c	-0.3826927
31	0x3f026e36	0.5094942

onnx::Conv_92 f4 [64, 32, 3, 3]
0	0x3b4b1262	0.0030986299
1	0xbab82bad	-0.0014051102
2	0xbafbc325	-0.0019207938
3	0x3b0c8ca9	0.0021446145
4	0x3bb7758c	0.0055987295
5	0xbb773ed8	-0.0037726667
6	0x3be3faee	0.0069574034
7	0x3b94fb7a	0.00454658
8	0xbb9c7225	-0.0047743493
9	0xb9ebc6e4	-0.00044970878
10	0xbb8f859c	-0.004379941
11	0xb9a5fd0e	-0.00031659793
12	0xbc070f1a	-0.008243347
13	0xba88980c	-0.001042129
14	0xba046911	-0.00050510565
15	0xbc39ec1a	-0.011347795
16	0xba9f7401	-0.0012165309
17	0x3b8aa2a6	0.004230815
18	0xbb458f44	-0.0030145207
19	0x3c79f95e	0.015257208
20	0x3c75dfa8	0.015006937
21	0xbc4631d9	-0.012096846
22	0x3c96904c	0.018379353
23	0x3baa1f79	0.00519174
24	0xbb1edc86	-0.002424033
25	0x3be554a5	0.006998616
26	0xbbcd571e	-0.0062664887
27	0xbb82d848	-0.003993068
28	0xbc3649ff	-0.0111260405
29	0xbc52b0c2	-0.012859525
30	0xbb2fa3ca	-0.0026800507
31	0xbbb213cf	-0.0054344903
32	0xbba4c733	-0.005028629
33	0xbb8c11e5	-0.004274594
34	0x3b67c1d6	0.0035363338
35	0x3baec108	0.0053330697
36	0xbb41de8e	-0.0029582116
37	0xbb0c6603	-0.0021423108
38	0x3afbf3ab	0.0019222399
39	0xbbba25b8	-0.005680766
40	0xbb02bce0	-0.0019949004
41	0xbacfe7bd	-0.001586191
42	0xbbb91ece	-0.005649424
43	0xbafa4e0b	-0.0019096745
44	0x39db0555	0.00041774908
45	0xbb334767	-0.0027355792
46	0xbc5c8827	-0.013460196
47	0xbc4f8b8f	-0.012667551
48	0xba28da46	-0.00064412167
49	0xbc168db1	-0.009189055
50	0xbbf37e29	-0.007430811
51	0xbbfee69a	-0.0077789547
52	0xbc31eaeb	-0.010859231
53	0xbc149145	-0.009067838
54	0x3b57f393	0.0032951578
55	0xbbbc07b3	-0.0057382225
56	0xb8d54cf5	-0.00010170966
57	0xba2c45ff	-0.00065717095
58	0xbbe7ec77	-0.0070777494
59	0xbae90bf8	-0.0017780056
60	0x3bf77ef6	0.0075529767
61	0x3b06f71a	0.0020594061
62	0x3bc7353b	0.0060793436
63	0xb9e59c27	-0.00043794626
64	0xbae18bb5	-0.0017207774
65	0xbab3d1ce	-0.0013719143
66	0xb97eaf7d	-0.00024288702
67	0xbb21f140	-0.0024710447
68	0xbb8251a7	-0.003977019
69	0xbb1208c5	-0.002228306
70	0xbb7bf128	-0.00384433
71	0xbb0b1c32	-0.0021226523
72	0xbb0bff77	-0.0021361986
73	0xbb038f75	-0.002007452
74	0xb8fcea3f	-0.00012059928
75	0xbb9099f2	-0.004412883
76	0xbbac08ea	-0.005250086
77	0xbb5fcd42	-0.0034149443
78	0xbb0573d4	-0.0020363228
79	0xbb8b80bd	-0.00425729
80	0xbb1c0617	-0.002380734
81	0xbb0ad61e	-0.0021184753
82	0xbc0c0af7	-0.008547536
83	0xbb8b3887	-0.004248682
84	0xbb36480c	-0.002781394
85	0xbc07f8e4	-0.008299086
86	0xbb651a04	-0.0034958133
87	0xbb2d9351	-0.0026485512
88	0xbb8c4e09	-0.0042817635
89	0xbbea3340	-0.0071472228
90	0x3b0f3c39	0.0021855964
91	0xbaedf88d	-0.0018155739
92	0x3c9ac738	0.018893823
93	0xbb4c6743	-0.0031189478
94	0x3adbd8f8	0.0016773036
95	0x3c922d96	0.017844003
96	0x3c0a7edd	0.008453098
97	0x3bd51433	0.006502652
98	0x3c9824b5	0.01857219
99	0x3b25c41c	0.0025293892
100	0xbb23bc81	-0.0024984183
101	0xbb3540a6	-0.0027656942
102	0xbb90d5da	-0.0044200243
103	0xbc01facc	-0.00793333
104	0xbb6db888	-0.003627332
105	0xbc14855d	-0.009064999
106	0xbbb4cc7d	-0.005517541
107	0xb9f6f976	-0.0004710664
108	0xbba30e64	-0.0049760807
109	0xbb95fa72	-0.0045769745
110	0xba31d532	-0.0006783783
111	0xbba3bd46	-0.0049969284
112	0xbb96fedc	-0.0046080183
113	0xbae7be83	-0.0017680678
114	0xbafaac5c	-0.0019124853
115	0xbb3a3945	-0.0028415483
116	0x3b960434	0.004578138
117	0xb9ecc9f8	-0.00045163906
118	0xbb27d92d	-0.0025611625
119	0xbbc888bb	-0.006119815
120	0x3a002699	0.0004888564
121	0xbb0822b8	-0.0020772647
122	0xba164d45	-0.000573356
123	0x3b044baf	0.0020186712
124	0x3b80c4d0	0.003929712
125	0x3aa1c0bd	0.0012340766
126	0xbb8b1df4	-0.004245514
127	0xbc7b4d29	-0.015338221
128	0xbc2ac49f	-0.010422855
129	0xbb909b75	-0.004413063
130	0xbc221e4d	-0.00989492
131	0x3bb521c3	0.0055277064
132	0xbb9a9197	-0.0047170627
133	0xbc5ea200	-0.0135884285
134	0x39b9975e	0.00035398727
135	0x3b3d6f4b	0.0028905447
136	0x3b7877e3	0.0037913255
137	0xb91efedb	-0.00015162995
138	0x3abb716b	0.0014300769
139	0x39901220	0.00027479324
140	0xbba589c8	-0.005051825
141	0x3b116a55	0.0022188623
142	0x3b73d15d	0.0037203648
143	0x3a90a645	0.001103588
144	0xbb1ede33	-0.0024241328
145	0x3b66e37e	0.003523081
146	0xbbda86a4	-0.0066688824
147	0x399818bf	0.00029010136
148	0xbb1f5b70	-0.0024315976
149	0xbbecc7b5	-0.0072259554
150	0x3ad9bb6d	0.0016611643
151	0xbbbbc2b3	-0.005729997
152	0xbbf8b7cd	-0.00759027
153	0xbb60620f	-0.0034238135
154	0xbbadefc2	-0.0053081224
155	0xbaa58d4c	-0.0012630611
156	0xbb9f1039	-0.004854229
157	0xbb3838e2	-0.0028110077
158	0xb9264396	-0.00015856171
159	0xbbdf9f9d	-0.0068244473
160	0x3a4a8242	0.00077250984
161	0x39a2365f	0.00030939557
162	0xbc606ed9	-0.013698303
163	0x3beda365	0.007252144
164	0xbc687b84	-0.014189605
165	0xbbb17568	-0.0054156072
166	0x3c72c5d5	0.014817675
167	0xbc783fcd	-0.01515193
168	0xbb08f66c	-0.0020898832
169	0x3cf018ee	0.029308762
170	0xbbee7c7a	-0.0072780224
171	0x3b198709	0.0023426434
172	0x3b589314	0.003304665
173	0xba921842	-0.0011146145
174	0x3bacc072	0.0052719647
175	0x3b7f23c9	0.0038931242
176	0xbac1118e	-0.0014729963
177	0x3b84895a	0.004044694
178	0x3b00d5c0	0.0019658655
179	0xb99da564	-0.000300686
180	0x3b6597bc	0.0035033068
181	0x3a39d736	0.0007089259
182	0xb8d659bc	-0.000102210295
183	0x3b01ceae	0.0019807029
184	0xbb0860b8	-0.0020809602
185	0xbb0295a7	-0.0019925626
186	0x3bb074d9	0.005385023
187	0x3a3a51e5	0.000710754
188	0x3c132d23	0.008982929
189	0xbadf8f4a	-0.0017056253
190	0xbb6f55ca	-0.003651964
191	0x3a01dd6b	0.00049539533
192	0x3c03e14d	0.008049321
193	0x3ad06b7e	0.0015901176
194	0xb9da1d14	-0.00041601865
195	0x3b86852c	0.004105231
196	0x3bebeddf	0.0071999873
197	0x3a179e6a	0.00057837984
198	0xbbd60304	-0.006531121
199	0xbc9667ea	-0.018360097
200	0xbc292ff2	-0.010326372
201	0xbb9bc386	-0.004753533
202	0xbc1e2cb7	-0.009654216
203	0xbbf347bb	-0.0074243224
204	0xbafb1b74	-0.0019157962
205	0xbc130cce	-0.008975221
206	0xbb7f32e2	-0.003894024
207	0x39f401d6	0.00046540675
208	0x3aa58f4c	0.0012631207
209	0xbbdc911b	-0.006731165
210	0x3a50903f	0.00079560647
211	0xbb14ec9a	-0.0022724033
212	0xb98ea369	-0.000272061
213	0x3b72785b	0.0036998007
214	0x3b5a6e12	0.0033329767
215	0xbbe4b897	-0.0069800126
216	0xbaa23483	-0.0012375269
217	0xba4a5df2	-0.00077196874
218	0xba81585f	-0.0009868256
219	0x3ad555af	0.0016276146
220	0x3ae2f11b	0.0017314287
221	0x3a2ea485	0.00066620886
222	0x3a7c5e03	0.0009627046
223	0x39d5272e	0.00040655717
224	0x3a8c7484	0.0010715877
225	0xba5da7a0	-0.0008455459
226	0x3ab48c84	0.0013774787
227	0xbbcd55fd	-0.006266354
228	0xbb19d73b	-0.0023474235
229	0xbb66413a	-0.0035134093
230	0xbc319550	-0.0108388215
231	0xbb169bec	-0.002298112
232	0xbaeb159b	-0.0017935516
233	0xbc2523bc	-0.0100793205
234	0xbbb4643c	-0.005505113
235	0xbbb3aa18	-0.0054829232
236	0xbbe879ff	-0.007094621
237	0xba4838dc	-0.0007637867
238	0xba5a61c2	-0.0008330607
239	0xbb44d106	-0.0030031814
240	0xbbc66623	-0.006054656
241	0xbb82f61c	-0.0039966237
242	0xbbe04c53	-0.006845036
243	0xbb7e5d10	-0.0038812794
244	0xbb1598e2	-0.002282672
245	0x39ed0343	0.00045206593
246	0xbb89afdf	-0.0042018737
247	0xba667090	-0.0008790577
248	0x39cf74de	0.0003956919
249	0xbb44b442	-0.0030014669
250	0x3974458a	0.00023295559
251	0xb99d96e2	-0.0003005779
252	0xbb8e2486	-0.00433785
253	0xbaf02437	-0.001832134
254	0xbbab4abf	-0.0052274163
255	0x39128091	0.0001397154

onnx::Conv_93 f4 [64]
0	0x3c5c0704	0.013429407
1	0xbbbb4e24	-0.005716102
2	0xbde8f4e4	-0.11374834
3	0xba0f02e0	-0.00054554455
4	0xbbd0a405	-0.006367209
5	0xbc95e961	-0.01829976
6	0xbb6b28c8	-0.0035882462
7	0x3c2cc0f0	0.010544047
8	0xbca8c11c	-0.020599894
9	0xb8c4307a	-9.355038e-05
10	0xbbf5dc9c	-0.0075031053
11	0xbe1eb825	-0.15499933
12	0xbd0d75eb	-0.034536283
13	0x3de28bbc	0.110618085
14	0x3e926f30	0.28600454
15	0xbe2b2500	-0.16713333
16	0xbcbf1084	-0.023323305
17	0xbe117bcb	-0.1420738
18	0xbcb27999	-0.021786498
19	0xbd68dbb7	-0.05685016
20	0xbdb25528	-0.087076485
21	0xbe1b227a	-0.1514987
22	0xbb01d0b0	-0.0019808225
23	0x3ddae3f2	0.10688008
24	0xbe2cdbe9	-0.16880764
25	0xbd825b98	-0.06365126
26	0x3e509480	0.20369148
27	0x3dcc39b8	0.099719465
28	0xb462c065	-2.1117883e-07
29	0xbd838f32	-0.06423797
30	0x3d5085f6	0.050909005
31	0xbd6908ec	-0.056893274
32	0xbb1ef640	-0.0024255663
33	0xba99fd82	-0.0011748525
34	0xbc887361	-0.01665658
35	0xbe761166	-0.24030074
36	0xbdd8fc36	-0.105949804
37	0xbdb019a5	-0.08598641
38	0xba272d9a	-0.00063773396
39	0xbccde8fa	-0.025135506
40	0xbe22c96c	-0.15897149
41	0xbd863ad5	-0.0655419
42	0xbd32ebfe	-0.04368209
43	0x3f223812	0.63366807
44	0xbd9aba18	-0.07555026
45	0xbdbf621c	-0.09344885
46	0xb8d7e252	-0.00010294154
47	0xbd50b866	-0.050957106
48	0xbd8ed686	-0.06974511
49	0xbdbe92e9	-0.09305365
50	0xbe87bc16	-0.26510686
51	0xbcaef212	-0.021355662
52	0x3cf3c6ca	0.029757876
53	0x3e23e377	0.1600474
54	0x3bf25ba0	0.0073961765
55	0xbc859042	-0.016304139
56	0xbc37dec0	-0.011222541
57	0xb9718d9d	-0.00023036306
58	0xbd3fe3aa	-0.046847977
59	0x3e33d9f2	0.17563608
60	0x3c8d0545	0.017214427
61	0xbd60fe16	-0.054929815
62	0xbdd69c94	-0.10479084
63	0xb9385c91	-0.00017582091
